estimators/knet/single_obs/KalmanNetNN_lossvelMSE_ep100_train4000_val1000_test10000_lr1e-03_wd1e-06_data_sr1e-01_q1e-04_r1e-02_j5_train[200,250]_val[40,250]_test[40,250].pt (torch, 156695 bytes, 40 tensors)

weight_ih_l0 f4 [48, 20]
-0.043778848 0.17047541 0.22887157 0.12121205 -0.035468575 0.2174008 -0.07360703 -0.085256234
-0.022845956 -0.23577055 -0.04868942 -0.13095036 -0.0056326156 0.16960414 0.25110644 0.025520263
-0.10458108 0.18857703 0.19215408 -0.23462342 0.045216836 0.06365733 -0.23123483 -0.13088377
-0.20536783 0.2283628 0.03900042 0.015840339 -0.008503342 0.06666209 0.19466808 0.12213422
0.2370522 -0.012439625 0.23160776 -0.09505514 -0.049546845 -0.16505721 -0.141087 0.05513973
0.14816509 0.19378874 -0.12004745 0.15820089 -0.059221864 -0.19573258 0.15125294 0.05830521
0.11154675 -0.11283059 0.1838312 -0.21743597 0.23653708 0.04817938 -0.06599534 0.21463941
-0.1662867 -0.13987327 0.22926536 -0.21062091 0.23566249 -0.17034554 -0.23832583 -0.22805062
-0.14546053 0.06176924 -0.09430568 -0.25391322 -0.11936861 0.05718063 -0.074677914 -0.022803847
0.14203438 0.23224534 0.17182846 0.13877514 0.18735604 0.111612886 0.21243253 -0.13459323
0.027965158 -0.010477616 0.09476439 0.08928728 -0.22184162 -0.24885602 0.166925 0.0088643255
-0.002706083 -0.11904264 -0.12078464 0.24552976 0.13064991 -0.1314745 -0.1993092 -0.21960062
-0.122276425 -0.13453896 0.15688981 0.20831974 0.1504625 -0.23597421 0.062479295 -0.16553529
-0.08545378 -0.21467198 0.044759136 0.05978452 -0.2379989 0.10907324 -0.057592064 0.1634856
-0.23649117 -0.06885606 -0.00027710668 -0.055637404 0.08986214 -0.22079203 0.22599036 -0.11489382
0.13801737 0.19973537 -0.01932915 0.010733257 0.14599675 -0.024989149 -0.119779795 0.20693095
-0.20028934 -0.26267496 -0.10214906 -0.09175 0.02153186 -0.24172477 -0.18251567 -0.21157813
0.045881893 -0.1745109 0.19259687 -0.26305714 0.20790176 -0.23095873 -0.18360007 -0.043098677
0.019182673 -0.028320221 0.027116703 0.053754814 0.22130494 0.24113984 0.21476638 0.18014097
0.22172137 0.013552441 -0.11315251 -0.009333443 0.14080289 -0.14397748 0.072048895 -0.17893574
-0.21686444 -0.22278865 0.013633595 0.13029134 0.21579911 0.06087074 -0.05511312 0.20294455
0.0660367 -0.070224226 -0.20390098 -0.054934625 -0.19219619 -0.08401939 -0.033288583 0.16613045
-0.21233907 -0.16826808 -0.022867814 -0.01717651 -0.0057538105 0.1808426 -0.24546662 -0.17584254
0.072589085 0.2172127 -0.05201025 0.14054166 -0.13565296 0.03683717 0.17327094 -0.07835601
0.22439684 0.07506836 -0.0791178 -0.10868187 0.15235326 0.055591144 -0.23326282 0.22596368
-0.04407099 0.2112225 -0.10504689 -0.09639559 -0.1946835 0.014431696 -0.075545825 0.19581613
-0.16361937 0.23284464 0.1585837 -0.08133905 0.052864492 -0.098695606 0.23866263 0.20140117
-0.029382214 0.07058577 -0.21480632 -0.17793377 -0.003386371 -0.14349349 0.2118472 0.15690304
0.2048057 0.24351686 -0.063002236 -0.060264807 -0.08023251 -0.15626936 0.14948648 -0.124923795
0.13744688 0.2348907 0.21056211 0.151982 -0.22662823 -0.0956206 0.13459791 0.18908192
0.11395086 -0.18460064 0.17295828 0.21722566 0.13015962 -0.11945212 -0.12003056 -0.017565599
-0.22956525 0.03925827 0.013261021 0.0222324 0.11757743 -0.09642502 0.0010237875 0.22306992
00000000: 7351 33bd 1b91 2e3e 4f5d 6a3e 063e f83d
00000010: 7f47 11bd 519e 5e3e 48bf 96bd d29a aebd
00000020: 7127 bbbc d66d 71be 8f6e 47bd da17 06be
00000030: ce91 b8bb b5ac 2d3e 0691 803e df0f d13c
00000040: 9b2e d6bd 561a 413e 0ac4 443e 1f41 70be
00000050: 4a35 393d c65e 823d d3c8 6cbe 6506 06be
00000060: f24b 52be f0d7 693e e8be 1f3d 99c3 813c
00000070: 9a51 0bbc 2286 883d 1257 473e 8221 fa3d
00000080: d0bd 723e 92cf 4bbc 962a 6d3e 45ac c2bd
00000090: a2f1 4abd c204 29be 1c79 10be 33da 613d
000000a0: 97b8 173e 8e70 463e 70db f5bd 6aff 213e
000000b0: a092 72bd 1f6e 48be 0de2 1a3e 72d1 6e3d
000000c0: 9f72 e43d b913 e7bd 3f3e 3c3e 89a7 5ebe
000000d0: c736 723e be57 453d 9128 87bd 6fca 5b3e
000000e0: 1047 2abe f03a 0fbe 8ac4 6a3e 02ad 57be
000000f0: 8251 713e 106f 2ebe b00b 74be 1a86 69be
00000100: 9bf3 14be be01 7d3d 5623 c1bd ea00 82be
00000110: 8877 f4bd 3c36 6a3d bcf0 98bd 22cf babc
00000120: 7671 113e b9d1 6d3e cdf3 2f3e 121b 0e3e
00000130: 43da 3f3e 4c95 e43d ea87 593e cfd2 09be
00000140: 3017 e53c 4faa 2bbc d513 c23d 40dc b63d
00000150: 732a 63be 1dd4 7ebe 63ee 2a3e ad3b 113c
00000160: 8a58 31bb a1cc f3bd f05d f7bd 276c 7b3e
00000170: 17c9 053e 40a1 06be b617 4cbe fcde 60be
00000180: 106c fabd 95c4 09be b9a7 203e c551 553e
00000190: d712 1a3e 39a3 71be 4aea 7f3d 1582 29be
000001a0: 6402 afbd f9d2 5bbe 5b55 373d 9de0 743d
000001b0: fcb5 73be ca61 df3d a8e5 6bbd c568 273e
000001c0: be2a 72be 6804 8dbd a148 91b9 0ce4 63bd
000001d0: a409 b83d 4e17 62be 046a 673e 734d ebbd
000001e0: 6d54 0d3e 6e87 4c3e 2a58 9ebc 8bda 2f3c
000001f0: 2c80 153e 0bb6 ccbc 1c4f f5bd b5e5 533e
00000200: a618 4dbe 557d 86be 8733 d1bd 6de7 bbbd
00000210: 9563 b03c b386 77be 63e5 3abe f0a7 58be
00000220: a7ee 3b3d fcb2 32be 1d38 453e 6daf 86be
00000230: 33e4 543e 7280 6cbe a801 3cbe 3d88 30bd
00000240: fb24 9d3c cfff e7bc d923 de3c 022e 5c3d
00000250: c39d 623e 5ded 763e b8eb 5b3e e076 383e
00000260: ed0a 633e 0f0b 5e3c 81bc e7bd 4ceb 18bc
00000270: a22e 103e d56e 13be 5f8e 933d ee3a 37be
00000280: b611 5ebe b522 64be 715f 5f3c 186b 053e
00000290: 71fa 5c3e 9953 793d 4bbe 61bd b2d0 4f3e
000002a0: 403e 873d b8d1 8fbd 6bcb 50be 2103 61bd
000002b0: 14cf 44be 5c12 acbd 9c59 08bd 1a1e 2a3e
000002c0: 6a6f 59be 784e 2cbe 4855 bbbc c1b5 8cbc
000002d0: 768a bcbb cd2e 393e 9a5b 7bbe 1110 34be
000002e0: 96a9 943d 026d 5e3e b308 55bd 27ea 0f3e
000002f0: 9ce8 0abe 93e2 163d f06d 313e 1e79 a0bd
00000300: 49c8 653e 71bd 993d 8308 a2bd 9a94 debd
00000310: 7e02 1c3e 8ab3 633d 73dc 6ebe 0663 673e
00000320: c883 34bd b64a 583e d322 d7bd 0d6b c5bd
00000330: 1d5b 47be ec72 6c3c c5b7 9abd 0684 483e
00000340: d68b 27be d36e 6e3e c463 223e 1695 a6bd
00000350: 7088 583d ec20 cabd fa63 743e 1c3c 4e3e
00000360: f8b2 f0bc 468f 903d 30f6 5bbe 4534 36be
00000370: e1ed 5dbb f5ef 12be 79ee 583e 31ab 203e
00000380: 96b8 513e 7c5c 793e 5107 81bd 3bd8 76bd
00000390: f150 a4bd 1305 20be fc12 193e 0cd8 ffbd
000003a0: e0be 0c3e 3087 703e 989d 573e 2ba1 1b3e
000003b0: 3b11 68be bcd4 c3bd 09d4 093e b19e 413e
000003c0: 125f e93d f307 3dbe fa1b 313e 6770 5e3e
000003d0: 9048 053e 50a3 f4bd 95d2 f5bd bbe5 8fbc
000003e0: 2713 6bbe 48cd 203d c144 593c b920 b63c
000003f0: 70cc f03d 7b7a c5bd 9c30 863a 716c 643e

weight_hh_l0 f4 [48, 16]
-0.16997416 0.040236652 0.13778569 -0.14351135 -0.10017428 0.22857405 0.25076842 0.022455962
-0.042588413 0.010010939 0.0500655 0.1690876 0.05017273 0.19850475 -0.030863818 -0.07766706
0.16405551 0.057662122 -0.11522447 -0.22927023 -0.18923937 -0.0799762 -0.13403128 0.23582193
-0.15926078 -0.15889904 -0.08213388 0.12406735 0.16897869 -0.1554681 -0.0071642734 -0.0014088568
0.24762239 -0.005648984 -0.054140758 -0.028128888 0.022791008 -0.21072644 0.14117198 -0.10626532
-0.14840502 0.22327119 0.23850839 -0.15142305 -0.0013971078 0.22549741 -0.059011485 0.013237706
0.0006689459 0.21557195 -0.10518401 -0.121485636 0.06926151 -0.15105833 -0.046980236 -0.09971932
0.2126219 -0.17191102 0.03409432 -0.11621501 0.2254771 -0.0623799 -0.021070616 0.023161646
0.06395329 0.23439722 0.10927495 -0.21010053 0.24185365 0.024760913 -0.11458917 0.16576815
0.13180013 0.21533093 0.048329893 -0.0364594 -0.20030756 -0.14841253 0.11008463 0.17625155
-0.13124083 -0.14381576 0.18417011 -0.14997402 0.21234454 0.009060526 -0.23981129 -0.11668976
-0.20017642 0.13334312 0.081217974 0.15148164 -0.0031403925 0.1532046 -0.05416034 -0.23525368
-0.125675 -0.17857087 -0.13325617 0.12687866 -0.21687415 -0.0038648334 -0.13792497 -0.09694145
-0.056068897 0.14926985 -0.094027996 -0.14769714 -0.14729676 -0.042671677 -0.15827155 0.028578777
0.19260162 -0.1436886 -0.063258946 -0.06078928 -0.22798856 -0.09194574 -0.0095834285 -0.21505679
-0.2360967 0.23915154 0.18240987 -0.08038477 0.18674439 0.073647335 0.2074955 0.033855278
-0.18995525 0.14017297 0.1523987 0.18534243 0.065990604 -0.07601423 -0.045521434 -0.226264
0.17019823 -0.13360347 -0.15348597 0.11296942 0.13316186 0.0792345 0.13543662 -0.22148263
-0.07296394 -0.16631444 -0.11552616 -0.23417379 -0.08706908 -0.058431253 -0.00047383452 0.010965144
-0.026498916 -0.06074884 -0.015975319 0.07853743 -0.1919191 0.12028486 -0.09649892 -0.20513938
0.23592083 -0.04293164 -0.0051603387 -0.031063769 0.08047561 -0.11674856 0.082975015 0.08161065
-0.098151214 0.16424443 0.09413992 0.21178988 -0.061069176 0.027731912 -0.24287833 -0.053642035
-0.21196233 0.23786822 0.083726704 -0.13260335 -0.24910527 -0.01589082 -0.08955997 0.2326758
0.026650764 -0.15870504 -0.005499589 -0.033412654 -0.011905161 -0.20172252 0.011885545 0.088592604
0.23138168 -0.16794646 -0.22508697 0.16206802 0.03944733 0.16676976 0.03395886 0.16874686
-0.105699025 -0.122589126 0.18191002 -0.023940878 -0.2210377 -0.034990713 0.09734896 0.17631577
-0.13077578 -0.09475602 -0.064236686 0.04296679 0.017720928 0.03298071 0.12339593 0.13630514
0.17500876 -0.114082925 -0.0172702 -0.02752359 0.14031011 0.1523355 -0.005212783 0.020787098
0.21648866 -0.23694126 -0.0046499567 -0.17081884 -0.0020425366 0.20368256 -0.10178706 0.23778522
0.12941979 0.2055232 -0.24058518 -0.15229239 -0.105069794 0.10749121 0.13784271 0.16253291
-0.1350323 0.07552645 0.24396463 -0.08909782 0.024092475 -0.22103965 -0.24454889 -0.14195375
0.045726337 0.011529321 0.03293963 0.1617908 0.028930217 0.13591364 -0.19319549 0.08829463
00000000: b50d 2ebe 30cf 243d b117 0d3e a4f4 12be
00000010: 2c28 cdbd 510f 6a3e b864 803e 91f5 b73c
00000020: 3071 2ebd ec04 243c 7b11 4d3d 4d25 2d3e
00000030: ec81 4d3d d444 4b3e 1ed6 fcbc e80f 9fbd
00000040: 2bfe 273e 1e2f 6c3d cffa ebbd d1c5 6abe
00000050: f7c7 41be 90ca a3bd 7f3f 09be 4e7b 713e
00000060: 4215 23be 6eb6 22be cf35 a8bd 0617 fe3d
00000070: c008 2d3e 0833 1fbe 48c2 eabb 64a9 b8ba
00000080: b990 7d3e 1d1b b9bb b3c2 5dbd 8e6e e6bc
00000090: 35b4 ba3c acc8 57be 638f 103e a2a1 d9bd
000000a0: 7cf7 17be 34a1 643e 8b3b 743e a50e 1bbe
000000b0: 291f b7ba cbe8 663e 07b6 71bd f7e2 583c
000000c0: 335c 2f3a e5be 5c3e b76a d7bd 76cd f8bd
000000d0: fbd8 8d3d 09af 1abe 596e 40bd a539 ccbd
000000e0: 8eb9 593e 7109 30be 7ca6 0b3d 2302 eebd
000000f0: 78e3 663e 1182 7fbd 499c acbc 7ebd bd3c
00000100: f1f9 823d d305 703e 8ccb df3d 9824 57be
00000110: 7ca8 773e 66d7 ca3c baad eabd 20bf 293e
00000120: 9df6 063e b67f 5c3e 91f5 453d 7456 15bd
00000130: 6d1d 4dbe 74f9 17be 0d74 e13d 497b 343e
00000140: ff63 06be 7044 13be 1797 3c3e ca92 19be
00000150: d970 593e 9a72 143c 1791 75be 0afb eebd
00000160: 0cfb 4cbe 198b 083e 9c55 a63d 011e 1b3e
00000170: 0bcf 4dbb abe1 1c3e 3cd7 5dbd 57e6 70be
00000180: f2b0 00be 48db 36be 4e74 08be 7bec 013e
00000190: 4214 5ebe 2549 7dbb 343c 0dbe 3d89 c6bd
000001a0: 80a8 65bd 32da 183e c091 c0bd eb3d 17be
000001b0: f6d4 16be 7fc8 2ebd f011 22be 0a1e ea3c
000001c0: 5c39 453e 1b23 13be e88d 81bd 2efe 78bd
000001d0: d575 69be 0c4e bcbd d003 1dbc d937 5cbe
000001e0: 55c3 71be 24e4 743e a7c9 3a3e c5a0 a4bd
000001f0: ec39 3f3e 6ad4 963d b379 543e d5ab 0a3d
00000200: a183 42be 8189 0f3e 680e 1c3e 68ca 3d3e
00000210: 1526 873d 59ad 9bbd af74 3abd c0b1 67be
00000220: 7248 2e3e 59cf 08be 6d2b 1dbe 835c e73d
00000230: 955b 083e b345 a23d e6af 0a3e 58cc 62be
00000240: 1e6e 95bd 554e 2abe fb98 ecbd 41cb 6fbe
00000250: 4651 b2bd 9c55 6fbd fe6c f8b9 26a7 333c
00000260: 4114 d9bc c7d3 78bd acde 82bc 3bd8 a03d
00000270: 7186 44be e957 f63d 3aa1 c5bd 0f10 52be
00000280: 3b95 713e 16d9 2fbd 0f18 a9bb 7279 febc
00000290: 66d0 a43d de19 efbd ceee a93d 7c23 a73d
000002a0: 8103 c9bd b12f 283e 6ecc c03d 72df 583e
000002b0: ac23 7abd 092e e33c 19b5 78be c0b7 5bbd
000002c0: a70c 59be ba93 733e e878 ab3d 2cc9 07be
000002d0: 7415 7fbe 772d 82bc 386b b7bd 9142 6e3e
000002e0: b452 da3c 9383 22be e535 b4bb b5db 08bd
000002f0: dd0d 43bc 5990 4ebe 97bb 423c 0a70 b53d
00000300: 52ef 6c3e 28fa 2bbe 337d 66be 29f5 253e
00000310: 8693 213d b1c5 2a3e 7218 0b3d facb 2c3e
00000320: bb78 d8bd 0210 fbbd 9f46 3a3e a91f c4bc
00000330: b557 62be 6c52 0fbd e45e c73d 1f8c 343e
00000340: 16ea 05be 720f c2bd 868e 83bd f2fd 2f3d
00000350: 7b2b 913c c816 073d 01b7 fc3d 9393 0b3e
00000360: 7f35 333e 4fa4 e9bd 3c7a 8dbc 2779 e1bc
00000370: 74ad 0f3e d6fd 1b3e fecf aabb b449 aa3c
00000380: 34af 5d3e bba0 72be aa5e 98bb 22eb 2ebe
00000390: 14dc 05bb 2992 503e bc75 d0bd f87d 733e
000003a0: 9f86 043e ac74 523e f65b 76be 89f2 1bbe
000003b0: d52e d7bd 5a24 dc3d a426 0d3e 076f 263e
000003c0: e845 0abe 9dad 9a3d ddd1 793e eb78 b6bd
000003d0: 955d c53c 3858 62be 066b 7abe 535c 11be
000003e0: 8a4b 3b3d 7ae5 3c3c b5eb 063d 7dac 253e
000003f0: 10ff ec3c f22c 0b3e 0ad5 45be d1d3 b43d

bias_ih_l0 f4 [48]
-0.05689288 0.19758964 -0.111079186 0.22003748 0.20216393 0.24605109 -0.017808434 -0.15741186
-0.20361923 0.18353799 0.21951091 0.23304945 0.044628114 0.0479477 0.02723603 -0.00380175
-0.18892334 -0.054832432 0.1707348 0.00852495 -0.0020862448 -0.07297886 0.005194427 0.12305133
0.06110939 -0.02052183 -0.14231811 0.07372533 0.08164937 -0.22259483 0.19311456 0.17526332
0.243415 0.062098317 0.13808285 -0.12139274 -0.057858218 -0.18196595 0.22799672 0.14872323
-0.18372577 0.25061533 0.044274576 -0.2088522 0.20661177 -0.14557658 0.042482823 0.100307085
00000000: 8208 69bd f054 4a3e 7c7d e3bd 8151 613e
00000010: 1004 4f3e d1f4 7b3e fee2 91bc 9330 21be
00000020: 8f81 50be 62f1 3b3e 78c7 603e 84a4 6e3e
00000030: f8cb 363d cf64 443d 181e df3c c826 79bb
00000040: 1f75 41be f997 60bd 1ad5 2e3e 3bac 0b3c
00000050: 61b9 08bb f175 95bd 0336 aa3b 5602 fc3d
00000060: d74d 7a3d 661d a8bc d7bb 11be 4efd 963d
00000070: c937 a73d e6ef 63be d3bf 453e 3a78 333e
00000080: c841 793e ce5a 7e3d 9765 0d3e c29c f8bd
00000090: bdfc 6cbd 4855 3abe f977 693e e74a 183e
000000a0: 9c22 3cbe a750 803e 4259 353d 5add 55be
000000b0: 0992 533e 0712 15be 7802 2e3d cd6d cd3d

bias_hh_l0 f4 [48]
-0.10950903 0.087252825 -0.019966802 -0.22146621 0.18831156 -0.04861678 -0.24272577 0.20609036
-0.1034539 -0.23602422 0.20864859 -0.16470449 0.01900836 0.20125748 0.026687078 0.031087454
-0.22346066 0.20660503 -0.1420734 -0.11844471 0.21574946 0.19924356 0.1023976 -0.01632222
0.045514226 -0.04027947 -0.14078577 0.17900947 -0.122882344 0.00016459472 -0.041583728 0.07035585
-0.11320957 0.09564557 0.0029847224 0.08446824 -0.108493835 -0.20640202 0.03614457 -0.061602194
0.19427486 -0.22799848 0.16910456 -0.031412587 0.22135778 0.21418585 0.13501981 0.064492196
00000000: 4546 e0bd 9cb1 b23d 6b91 a3bc 0ac8 62be
00000010: bfd4 403e 6422 47bd 1b8d 78be 5a09 533e
00000020: a3df d3bd 55b0 71be faa7 553e 4ba8 28be
00000030: 6cb7 9b3c 7116 4e3e dc9e da3c 1eab fe3c
00000040: dfd2 64be 4590 533e b07b 11be 2493 f2bd
00000050: 6ded 5c3e 8106 4c3e d5b5 d13d 2db6 85bc
00000060: 206d 3a3d 16fc 24bd 252a 10be 424e 373e
00000070: bda9 fbbd 0f97 2c39 b353 2abd ba16 903d
00000080: 6bda e7bd d3e1 c33d 559b 433b affd ac3d
00000090: 0432 debd 0d5b 53be 540c 143d 9552 7cbd
000000a0: fdef 463e 6f78 69be bf29 2d3e 7caa 00bd
000000b0: 9dab 623e 8953 5b3e a242 0a3e 7c14 843d

weight_ih_l0 f4 [48, 36]
0.20581098 0.21029821 0.050066315 0.10237521 -0.0019088626 -0.07705731 0.0040027546 0.11013598
-0.07511351 0.23193297 0.16468011 -0.15816659 -0.07424555 -0.16204505 -0.23815529 0.1619386
-0.047040567 -0.19520703 0.08576921 0.13206773 -0.1270174 0.008554082 0.2489964 0.00050358544
-0.09517882 0.045678053 -0.10781195 0.20871325 -0.24481921 -0.0459474 0.07108854 -0.22878984
-0.19912869 0.15114698 0.17212234 -0.09707364 -0.009287621 0.12082413 -0.05304822 -0.099345915
-0.18237616 -0.14790948 -0.22470559 -0.21807884 -0.067067586 -0.17796369 0.008031435 -0.072820745
-0.15859753 -0.12234934 0.02085292 0.075641304 -0.14193001 0.075242825 -0.12535372 0.040044736
-0.015999218 -0.03614634 -0.078637086 0.080137014 0.23176365 -0.15251231 0.25906107 -0.19253916
0.2580882 0.11642634 0.040234584 0.14222948 -0.21370855 -0.17576781 -0.1426227 0.1027303
-0.21164185 0.23263113 0.144018 -0.21330334 -0.15600096 0.21654887 -0.101377174 -0.23395559
0.004455818 0.23428717 -0.057910185 0.017796703 0.08797556 0.2208737 -0.02714677 -0.23831333
-0.26759583 -0.06897321 0.011615695 -0.00024734743 -0.112229645 0.0572274 0.22696571 -0.16169028
-0.22957799 -0.11494784 -0.19777104 -0.08079668 -0.16385269 -1.7151866e-06 -0.20238575 -0.062127613
-0.18768568 -0.21920075 -0.13730398 2.2220385e-05 0.007684759 0.064988725 0.105810344 0.1969973
0.09055578 -0.1256112 0.092764385 0.1385896 0.14951354 0.003019595 -0.07590489 0.0028005624
-0.04121101 -0.063981734 -0.14065953 -0.14445117 0.16127002 0.086265504 -0.2182859 -0.14793661
-0.17844391 -0.01490381 0.18199714 -0.016763728 -0.18800151 -0.05240687 -0.16648266 -0.09263106
-0.07657104 0.04704218 0.10926305 -0.2162934 -0.013813736 -0.22055326 -0.11403048 0.105206504
-0.17094763 0.0856036 -0.026296599 0.17310312 0.18314551 0.17965221 -0.1305479 0.16333482
0.16210534 -0.11248068 -0.2476164 -0.22098936 -0.24736932 0.14130557 -0.23201239 0.22430104
-0.039148655 0.07982019 0.02370311 0.04189954 -0.056244537 0.105940014 0.1050109 -0.06634661
0.05121348 -0.09168399 -0.13215931 -0.040058386 0.19282813 0.058301326 0.082965106 -0.10089789
0.0740095 0.085497156 -0.16805212 0.035257008 -0.04125049 0.20599532 0.08972733 0.20773266
-0.1054584 -0.014795199 -0.061212238 0.009371987 -0.022629712 0.14024928 0.24581002 -0.21795307
-0.080218025 0.075103946 0.055761795 0.15967387 0.04509001 0.018786898 0.03151163 -0.05758072
-0.19923264 -0.043222055 0.04685961 0.016614627 0.16697209 -0.14375696 -0.24466968 0.10034077
0.17414317 0.0035915382 -0.1664443 -0.20790239 -0.0069187135 -0.03929701 0.06382406 0.00025212683
0.144437 0.118753806 0.09815101 0.2424669 0.11367714 0.21991578 0.12001893 0.21431045
0.22394343 0.07953608 0.06640367 -0.12554622 -0.19582656 -0.18622446 0.13548383 -0.027241105
-0.038362045 -0.057442125 -0.1459385 0.13229758 0.18154153 0.16849168 -0.12812175 -0.007264284
0.24883647 -0.124895416 -0.2038209 -0.0921633 -0.18216231 0.0022789103 -0.17673148 -0.024179587
0.08766159 0.16479233 -0.021926694 0.043275986 -0.005450877 0.05328395 0.029888516 -0.080423824
00000000: 1dc0 523e 6a58 573e 5612 4d3d 18aa d13d
00000010: cd32 faba 39d0 9dbd 8a29 833b f98e e13d
00000020: 1dd5 99bd d67f 6d3e e7a1 283e 6cf6 21be
00000030: 0d0e 98bd 23ef 25be fbde 73be 3bd3 253e
00000040: 9cad 40bd 5ae4 47be c4a7 af3d c33c 073e
00000050: d910 02be 6c26 0c3c eaf8 7e3e 0c03 043a
00000060: 1ded c2bd e918 3b3d 83cc dcbd edb8 553e
00000070: e3b1 7abe 5733 3cbd de96 913d e247 6abe
00000080: 64e8 4bbe 46c6 1a3e d740 303e 8bce c6bd
00000090: 1b2b 18bc a472 f73d 1749 59bd df75 cbbd
000000a0: d1c0 3abe 9575 17be 3919 66be 0f50 5fbe
000000b0: bb5a 89bd 1d3c 36be 4896 033c 0b23 95bd
000000c0: 6467 22be 4a92 fabd bed3 aa3c d4e9 9a3d
000000d0: 1a56 11be e918 9a3d ba5c 00be f305 243d
000000e0: cb10 83bc 2f0e 14bd 7b0c a1bd e01e a43d
000000f0: 7353 6d3e 302c 1cbe a7a3 843e fc28 45be
00000100: 2324 843e ef70 ee3d 05cd 243d 9ba4 113e
00000110: 6ad6 5abe 7afc 33be af0b 12be 4364 d23d
00000120: a4b8 58be db36 6e3e 7479 133e 316c 5abe
00000130: b7be 1fbe fdbe 5d3e d69e cfbd 0e92 6fbe
00000140: 1c02 923b fae8 6f3e 3b33 6dbd 64ca 913c
00000150: 882c b43d b72c 623e e762 debc 6908 74be
00000160: 5202 89be d441 8dbd c24f 3e3c 69ae 81b9
00000170: a8d8 e5bd 4767 6a3d b369 683e 2392 25be
00000180: 7e16 6bbe c669 ebbd 7e84 4abe bb78 a5bd
00000190: 00c9 27be 5d35 e6b5 363e 4fbe 8679 7ebd
000001a0: ad30 40be 2976 60be 6a99 0cbe ea65 ba37
000001b0: 6ed0 fb3b cf18 853d 18b3 d83d a9b9 493e
000001c0: 4f75 b93d 39a0 00be 41fb bd3d 6fea 0d3e
000001d0: 141a 193e 66e4 453b 0674 9bbd a489 373b
000001e0: e0cc 28bd db08 83bd 0d09 10be 02eb 13be
000001f0: f823 253e f8ab b03d 5786 5fbe b27c 17be
00000200: 00ba 36be 1c2f 74bc 755d 3a3e 1654 89bc
00000210: 7883 40be 96a8 56bd 6e7a 2abe 5ab5 bdbd
00000220: 47d1 9cbd 4daf 403d 4ec5 df3d 047c 5dbe
00000230: 0253 62bc b7d8 61be d088 e9bd 8276 d73d
00000240: e50c 2fbe f150 af3d f76b d7bc f241 313e
00000250: 7f8a 3b3e c0f6 373e 59ae 05be 3e41 273e
00000260: f1fe 253e 455c e6bd 278f 7dbe 094b 62be
00000270: 624e 7dbe 68b2 103e a894 6dbe 2caf 653e
00000280: 575a 20bd c578 a33d 062d c23c da9e 2b3d
00000290: ac60 66bd 14f7 d83d f40f d73d bbe0 87bd
000002a0: 3ac5 513d d1c4 bbbd c554 07be 4314 24bd
000002b0: bd74 453e 5fcd 6e3d 9ce9 a93d 8ea3 cebd
000002c0: 4b92 973d 2219 af3d db15 2cbe a769 103d
000002d0: 46f6 28bd 70f0 523e f6c2 b73d dfb7 543e
000002e0: 93fa d7bd 9067 72bc afb9 7abd f68c 193c
000002f0: f261 b9bc 829d 0f3e 9fb5 7b3e 172f 5fbe
00000300: 5949 a4bd 19d0 993d 7b66 643d 8c81 233e
00000310: 4db0 383d fbe6 993c 5712 013d c3d9 6bbd
00000320: a403 4cbe 9c09 31bd ddef 3f3d 661b 883c
00000330: bbfa 2a3e 0635 13be b08a 7abe 767f cd3d
00000340: 9652 323e 0360 6b3b 6070 2abe 5de4 54be
00000350: 60b6 e2bb e7f5 20bd 30b6 823d e42f 8439
00000360: 4be7 133e 3235 f33d 6603 c93d 3e49 783e
00000370: 8fcf e83d 9a31 613e 7ccc f53d 3374 5b3e
00000380: 6d51 653e d0e3 a23d a6fe 873d 308f 00be
00000390: c286 48be a0b1 3ebe 46bc 0a3e bd28 dfbc
000003a0: 8521 1dbd 6f48 6bbd e770 15be 0479 073e
000003b0: 06e6 393e 1589 2c3e 5932 03be 3b09 eebb
000003c0: fdce 7e3e 2bc9 ffbd 6db6 50be 1dc0 bcbd
000003d0: c288 3abe c559 153b 19f9 34be 4514 c6bc
000003e0: eb87 b33d 52bf 283e 9c9f b3bc 2942 313d
000003f0: 459d b2bb 4540 5a3d c3d8 f43c 3fb5 a4bd

weight_hh_l0 f4 [48, 16]
0.0062291063 0.026754418 0.05557283 0.08638618 -0.20190306 -0.13075413 0.20351498 0.18295
0.18939997 -0.24847221 0.04082824 0.09129353 0.014664695 0.038097616 0.09660257 0.24590641
-0.060014304 0.12789428 0.01776542 0.17958723 0.13294716 0.2221572 0.104086585 -0.15056662
0.1690964 0.24858119 -0.14741865 -0.09963109 0.16718294 0.14075565 -0.003511093 -0.22267923
-0.1296649 0.041855406 -0.00019442909 -0.14620131 -0.23021059 0.056155883 0.17970839 -0.12729366
-0.1959619 -0.18334979 0.090851806 0.15796994 0.053533647 -0.16927052 -0.024683164 -0.019817067
0.15918723 0.10474196 -0.024379374 0.10477817 -0.0790623 0.039002452 -0.15518633 -0.1743031
-0.14206673 -0.17171153 0.20979562 -0.021159163 -0.18293141 -0.22556834 0.1256535 -0.14672963
0.108603135 -0.24328838 0.00025204266 -0.003313114 0.12323772 0.19528884 0.033792 -0.041942105
-0.16398501 0.014606149 0.22784193 0.08739331 -0.22646004 0.07166362 0.05109212 -0.16501288
-0.16179071 0.1489819 0.13735634 0.079183385 -0.034586806 0.047313746 0.19754273 0.17613831
-0.23511998 0.14670965 0.00824394 0.112066604 0.20010468 0.039238233 0.00022492281 -0.12366315
-0.007494584 0.03997568 -0.03277799 -0.09195447 -0.0049879034 0.17772397 0.19979075 -0.2245072
0.15824564 0.15765066 -0.14828144 -0.06357971 0.2027905 -0.06819246 0.10921559 -0.18203361
0.054021664 -0.063242495 0.018747354 0.22245736 -0.14334196 0.0003742993 0.06253451 0.062455993
0.029814078 -0.050015002 0.043506738 0.0013516027 -0.04633064 -0.22384894 -0.0015676524 0.0836362
-0.09062665 0.038655866 0.11914847 -0.037905112 0.15688209 0.12907454 0.124436386 0.11048955
-0.24677722 -0.12896456 -0.12575538 -0.12802547 0.14973651 0.23729405 0.030248513 -0.028712254
-0.054038413 0.04431515 -0.08622276 -0.15124859 -0.08890286 0.009751496 0.07143484 -0.168442
-0.13808459 -0.13371497 0.021786978 -0.03369163 -0.16436708 0.1694602 0.15745059 0.24616085
-0.03578635 0.21786323 -4.6367288e-05 -0.2264154 -0.16420633 -0.19490013 0.0017090971 -0.23003268
-0.14171828 -0.042649694 0.107827105 0.09399846 0.18535963 0.14973442 0.04639602 -0.14195918
-0.15357581 -0.05704656 -0.03715016 -0.16228534 0.14022253 -0.003415701 0.073890544 0.20678906
-0.1305319 0.23886381 -0.07717983 -0.04524855 0.18168283 -0.011461535 0.00012388553 -0.08693164
-0.07650878 0.0017642797 0.0019370525 0.078301415 -0.16319592 0.073678546 0.14018874 0.084753595
-0.09778 -0.0943958 -0.024642214 0.05852623 -0.24633572 0.19838904 0.03486702 -0.052032087
-0.10161611 0.040916026 0.062433105 0.1582029 0.029652081 0.039367903 0.010958472 0.010875951
-0.2358019 0.15166143 0.05960127 0.029629927 0.18015747 0.021239461 -0.009775751 -0.11582421
-0.05673913 0.22758321 0.101169035 0.15854959 -0.119383946 -0.11820583 -0.13535558 -0.22847798
-0.10044886 -0.15888092 0.1814842 0.013698819 -0.15913084 0.13932654 0.045873825 -0.10984152
-0.027934847 -0.057622362 0.14619598 -0.15952317 -0.059045915 -0.059126064 0.007296216 0.15667924
-0.23719534 0.1399287 0.06999472 -0.07488239 0.1705969 0.15918775 -9.389534e-05 0.040533748
00000000: 881d cc3b 152c db3c 56a0 633d 3deb b03d
00000010: adbf 4ebe 69e4 05be 3b66 503e 3f57 3b3e
00000020: 11f2 413e 806f 7ebe 833b 273d 1af8 ba3d
00000030: 3044 703c 3f0c 1c3d 91d7 c53d e4ce 7b3e
00000040: 8fd1 75bd b8f6 023e c988 913c b7e5 373e
00000050: 4d23 083e 2d7d 633e 592b d53d 232e 1abe
00000060: 9b27 2d3e 118c 7e3e eaf4 16be 630b ccbd
00000070: 0132 2b3e 4022 103e 5e1a 66bb 0606 64be
00000080: e0c6 04be 9370 2b3d a9df 4bb9 ccb5 15be
00000090: 53bc 6bbe b603 663d 7a05 383e 4559 02be
000000a0: 3caa 48be 0cc0 3bbe 8310 ba3d dfc2 213e
000000b0: 1946 5b3d 4055 2dbe 5934 cabc 6757 a2bc
000000c0: fa01 233e f482 d63d 41b7 c7bc f095 d63d
000000d0: 6aeb a1bd 09c1 1f3d 2ae9 1ebe 837c 32be
000000e0: f179 11be 26d5 2fbe aad4 563e fb55 adbc
000000f0: 5f52 3bbe 63fb 66be 50ab 003e 4b40 16be
00000100: 526b de3d 9720 79be 9824 8439 d420 59bb
00000110: 0f64 fc3d ccf9 473e 7b69 0a3d 7ccb 2bbd
00000120: b0eb 27be a14e 6f3c 654f 693e 44fb b23d
00000130: 24e5 67be 60c4 923d f945 513d 23f9 28be
00000140: 77ac 25be b68e 183e 24a7 0c3e e62a a23d
00000150: e5aa 0dbd 0fcc 413d a448 4a3e 9a5d 343e
00000160: 4bc3 70be 0e3b 163e 9711 073c 2d83 e53d
00000170: 3ee8 4c3e 45b8 203d 42d9 6b39 1b43 fdbd
00000180: 2195 f5bb 8abd 233d 3742 06bd a052 bcbd
00000190: 9171 a3bb 46fd 353e f295 4c3e 37e5 65be
000001a0: 250b 223e 2d6f 213e 17d7 17be 1436 82bd
000001b0: 50a8 4f3e 7da8 8bbd 6cac df3d 0567 3abe
000001c0: d245 5d3d 4885 81bd 0d94 993c ddcb 633e
000001d0: 3cc8 12be 9a3d c439 1812 803d dbd1 7f3d
000001e0: a73c f43c 88dc 4cbd 1f34 323d 4328 b13a
000001f0: 32c5 3dbd a838 65be b079 cdba 7549 ab3d
00000200: 779a b9bd 9d55 1e3d 1d04 f43d 6442 1bbd
00000210: b3a5 203e 1e2c 043e 81d8 fe3d 5848 e23d
00000220: 2bb3 7cbe 490f 04be 05c6 00be 1c19 03be
00000230: 8754 193e 36fd 723e bbcb f73c f635 ebbc
00000240: 6257 5dbd cd83 353d 8f95 b0bd e9e0 1abe
00000250: b412 b6bd bdc4 1f3c 6e4c 923d 0f7c 2cbe
00000260: 0c66 0dbe 94ec 08be 9b7a b23c 3c00 0abd
00000270: d84f 28be fa86 2d3e ba3a 213e 9711 7c3e
00000280: b594 12bd 8a17 5f3e 7f7a 42b8 70d9 67be
00000290: b425 28be e693 47be c803 e03a b08d 6bbe
000002a0: 991e 11be 72b1 2ebd 75d4 dc3d 4482 c03d
000002b0: eace 3d3e fb53 193e c109 3e3d bf5d 11be
000002c0: fa42 1dbe a7a9 69bd c42a 18bd 212e 26be
000002d0: 7f96 0f3e f4d9 5fbb ed53 973d 83c0 533e
000002e0: 28aa 05be b798 743e 7510 9ebd 8b56 39bd
000002f0: 100b 3a3e 29c9 3bbc 45e7 0139 3709 b2bd
00000300: a3b0 9cbd 673f e73a b2e4 fd3a 7e5c a03d
00000310: d51c 27be c7e4 963d a38d 0f3e 4b93 ad3d
00000320: e140 c8bd 9652 c1bd 78de c9bc 33b9 6f3d
00000330: 6e3f 7cbe 7f26 4b3e b8d0 0e3d 991f 55bd
00000340: 1b1c d0bd 9097 273d dbb9 7f3d f1ff 213e
00000350: ece8 f23c 3d40 213d 2a8b 333c 0b31 323c
00000360: 0e76 71be 224d 1b3e 7620 743d 76ba f23c
00000370: 337b 383e 61fe ad3c 792a 20bc 3e35 edbd
00000380: 4a67 68bd 930b 693e b631 cf3d d35a 223e
00000390: 927f f4bd e615 f2bd a79a 0abe 22f6 69be
000003a0: 22b8 cdbd aeb1 22be fed6 393e 0371 603c
000003b0: 32f3 22be 9eab 0e3e 31e6 3b3d 97f4 e0bd
000003c0: 9fd7 e4bc 6d05 6cbd 66b4 153e 0b5a 23be
000003d0: 21da 71bd 2c2e 72bd 1915 ef3b 8670 203e
000003e0: 56e3 72be 7849 0f3e 6459 8f3d f05b 99bd
000003f0: f4b0 2e3e 1d02 233e ade9 c4b8 b706 263d

bias_ih_l0 f4 [48]
-0.21373455 -0.13905534 0.13495627 0.038144447 0.15420443 -0.23154156 -0.020858934 0.023073884
0.12234328 0.14729932 -0.14771143 0.00020546469 -0.15827613 0.030897642 0.25553572 0.19901465
0.15511723 -0.009858906 0.055241387 0.1521868 0.051939923 -0.15411422 0.056302406 -0.06790105
-0.20770334 -0.21717083 0.18764606 0.0427887 0.23406537 0.03469555 0.045144264 -0.05985551
-0.118664086 0.13910957 0.24402915 0.12675384 0.057383046 -0.07338118 -0.14733961 0.22016858
-0.043922745 -0.2484235 0.04354354 0.0043885014 0.04558171 -0.13886474 -0.05358724 0.23849823
00000000: 3bdd 5abe 8664 0ebe fa31 0a3e 5a3d 1c3d
00000010: c4e7 1d3e 3b19 6dbe 5be0 aabc 7105 bd3c
00000020: 1d8f fa3d a2d5 163e aa41 17be 0272 5739
00000030: 2313 22be 0d1d fd3c 94d5 823e 7fca 4b3e
00000040: 0dd7 1e3e 4087 21bc cb44 623d dbd6 1b3e
00000050: f5be 543d 1ed0 1dbe 5a9d 663d b50f 8bbd
00000060: 2fb0 54be 0862 5ebe 4a26 403e 3443 2f3d
00000070: d5ae 6f3e ec1c 0e3d 31e9 383d 0d2b 75bd
00000080: 2806 f3bd bd72 0e3e c7e2 793e c2cb 013e
00000090: 7c0a 6b3d df48 96bd 32e0 16be df73 613e
000000a0: 56e8 33bd bb62 7ebe b65a 323d 6bcd 8f3b
000000b0: e3b3 3a3d 8f32 0ebe 4b7e 5bbd e138 743e

bias_hh_l0 f4 [48]
-0.211686 -0.17139049 0.017540272 -0.04209428 -0.10674285 -0.11204779 -0.16317753 0.09766783
-0.060631122 0.05581899 -0.16474636 0.12116778 -0.028795907 -0.07620913 -0.12738149 0.0053912876
-0.042977903 0.04980162 -0.19808264 -0.15727274 0.032637432 0.09252375 0.02152007 0.10903189
-0.053076103 0.12586266 0.16271052 -0.2334271 0.031512097 0.17056191 -0.23189782 -0.20184205
-0.17651838 -0.20692894 -0.12110835 -0.057713836 -0.13447447 -0.13481751 -0.06794251 -0.10864148
0.08686886 0.050650623 0.13846615 -0.22988753 0.1485172 -0.20637941 0.023481768 0.110095575
00000000: 37c4 58be fd80 2fbe 9eb0 8f3c 0d6b 2cbd
00000010: ff9b dabd 5079 e5bd 0318 27be 1206 c83d
00000020: 5758 78bd 74a2 643d 45b3 28be d026 f83d
00000030: 65e5 ebbc 8813 9cbd 4b70 02be 66a9 b03b
00000040: 9909 30bd c9fc 4b3d 2dd6 4abe 1b0c 21be
00000050: d4ae 053d 187d bd3d dc4a b03c 1d4c df3d
00000060: 5466 59bd 24e2 003e 969d 263e 8407 6fbe
00000070: d412 013d c8a7 2e3e 9f76 6dbe afaf 4ebe
00000080: 3cc1 34be 2ee5 53be a807 f8bd 5865 6cbd
00000090: adb3 09be 9a0d 0abe 7125 8bbd 6d7f debd
000000a0: 4de8 b13d 0777 4f3d 12ca 0d3e a367 6bbe
000000b0: e514 183e 2055 53be d65c c03c ca79 e13d

weight_ih_l0 f4 [3, 11]
-0.744995 0.80510503 -0.2522721 0.9001939 -0.5578587 1.0035381 -0.16098788 -0.000927224
-0.9125017 0.5012171 0.8074302 0.6611675 0.6763098 0.18164149 -0.3929961 0.55998445
0.50841826 0.9244026 -0.4875715 -0.06821767 -0.36145198 0.8397892 -0.039977793 0.4215424
0.34686387 0.5788029 -0.054316677 -0.72608876 0.641613 -0.21482 0.1680256 -0.31491807
0.35432583
00000000: feb7 3ebf 5d1b 4e3f cf29 81be 1c73 663f
00000010: d4cf 0ebf f073 803f 02da 24be f310 73ba
00000020: b699 69bf c44f 003f bfb3 4e3f 4642 293f
00000030: a422 2d3f 3a00 3a3e c936 c9be 245b 0f3f
00000040: b327 023f a6a5 6c3f f9a2 f9be b5b5 8bbd
00000050: 3c10 b9be 6dfc 563f c1bf 23bd 68d4 d73e
00000060: 2498 b13e 6d2c 143f 2a7b 5ebd f4e0 39bf
00000070: c040 243f c6f9 5bbe e70e 2c3e f13c a1be
00000080: 326a b53e

weight_hh_l0 f4 [3, 1]
-0.21895452 0.81486917 0.92441463
00000000: 9d35 60be 449b 503f 70a6 6c3f

bias_ih_l0 f4 [3]
0.7834473 -0.70893407 -0.65619236
00000000: 0190 483f b47c 35bf 39fc 27bf

bias_hh_l0 f4 [3]
-0.7634694 -0.8695734 0.15026636
00000000: bb72 43bf 5d9c 5ebf 6ddf 193e

weight f4 [1, 16]
0.012607931 0.13253307 -0.058890656 -0.0970893 -0.04221838 0.10400457 -0.09976591 -0.12188055
-0.09952657 3.5520154e-06 -0.06272014 0.149506 -0.14743629 -0.00024407035 -0.14766137 -0.055282928
00000000: 7f91 4e3c c0b6 073e 5437 71bd c1d6 c6bd
00000010: 2eed 2cbd 5900 d53d 1252 ccbd 839c f9bd
00000020: 96d4 cbbd 295f 6e36 6b73 80bd 1a18 193e
00000030: 8af9 16be 23ed 7fb9 8b34 17be 5a70 62bd

weight f4 [680, 17]
-0.093307935 -0.027059795 0.11010067 -0.21693484 0.18075183 -0.015705904 -0.123217076 0.06323918
0.22460283 0.12803376 0.08898113 -0.04891204 0.17059915 -0.1895135 0.008527886 0.13987546
-0.2198976 0.12381941 -0.009409516 -0.086650535 -0.13072205 0.10219438 0.002758599 -0.14310567
1.467061e-06 0.018318333 0.0626922 0.06770435 0.008557516 -0.021570059 0.10212538 0.090123124
-8.587224e-05 0.13942966 -0.17364568 0.048218366 0.18170558 0.0054157088 0.039440185 -0.16167086
0.16301748 -0.03524483 -0.12554407 -0.017781738 0.20529996 -0.2056375 -0.14758153 0.20916702
-0.115328975 0.08793005 -0.18110915 0.031788986 -0.19738664 -0.09413213 0.1376197 0.09021527
-0.1209359 0.046214398 0.15133342 0.019861184 -0.0072821747 0.11331449 2.7706377e-05 -0.117486335
0.08379748 0.052339446 0.09696729 0.09561366 -0.2370584 0.07676651 -0.0017469579 -0.08229958
-0.20057088 -0.14876758 -0.03694371 -0.11093587 -0.12966917 0.117368884 -0.038307253 0.08864521
-0.18590546 0.20571746 -0.11348312 -0.019165268 -0.19521187 -0.21795082 -0.15386267 -0.13769816
0.0993821 -0.063599795 0.08253255 -0.10409942 -0.17481004 -0.111653686 0.1272673 0.12867132
-0.1050252 0.07362375 0.22909442 0.20121245 -0.0054233316 0.23735306 1.1955218e-05 -0.04437334
-0.027034719 0.13756272 -0.1507395 -0.13012573 -0.01278635 0.076199025 -0.010985565 -0.026693141
0.06393119 0.14968334 -0.050222293 0.0006558701 0.06846385 -0.09389089 0.06082995 0.23102203
0.01923494 -0.15542963 -0.114729784 0.18550858 -0.040234484 -0.18490261 -0.17947157 -0.002612476
-0.11599834 0.24118449 -0.11018063 -0.14158405 0.110589474 0.11271188 -0.07626342 -0.16573222
-0.031904884 0.042171966 -0.23747411 0.18202591 -0.043947496 0.011953611 0.076646104 -0.023956934
0.023601292 -0.15961613 0.20481847 -0.2340662 -0.017322978 -0.18120208 -0.22947139 0.09178372
-0.012756761 0.026045455 -0.13253702 0.059771482 -0.06269965 0.18437286 0.17188835 -0.20548417
0.19612435 0.12330533 -0.08149862 0.16425417 0.17767519 -0.19419517 0.03786968 0.11679083
-0.07341306 -0.15704094 0.07527657 0.10708357 -0.21983697 -0.19341691 0.120728664 0.22972448
0.22875112 0.23690598 -0.074051335 -0.21351114 0.19159824 -0.09091352 -0.21481383 0.21797718
0.21157388 0.19578467 -0.19411233 -0.07241393 -0.035453763 -0.10240674 -0.14614318 -0.2161833
0.063121535 -0.1221115 -0.22216132 0.0065282183 -0.24137232 0.18122357 -0.0011678509 0.13404366
-0.16026683 -0.20980904 -0.23482229 -0.0899493 0.011260283 0.009619184 -0.23133928 0.14038119
-0.16810638 -0.17383945 0.007460603 0.07514434 -0.24051864 0.18362895 0.16554527 0.09333067
-0.19769084 -0.20321225 -0.011348399 0.04299105 0.10290202 0.112665035 -0.0536154 -0.15094635
0.038829822 -0.0636309 -0.035018228 0.14725223 0.0011654901 0.15400551 -0.097211175 0.06465046
-0.00020139662 0.005665537 -0.0820751 -8.638755e-05 -0.056865048 -0.020799657 0.00019320475 5.02911e-05
-3.4394168e-06 -0.018645525 -0.15396369 -0.090386786 0.13262793 -0.12876825 0.1231244 -4.3298678e-05
-0.0771076 0.033535767 -0.042492792 -4.3392905e-05 0.001704744 0.111727044 -0.030215943 -0.0008167247
00000000: 3b18 bfbd 81ac ddbc 767c e13d 2b24 5ebe
00000010: 0217 393e aba9 80bc 3c59 fcbd 8b83 813d
00000020: 49fe 653e 481b 033e bd3b b63d fe57 48bd
00000030: 8bb1 2e3e d40f 42be 8cb8 0b3c 833b 0f3e
00000040: d62c 61be 0895 fd3d 5f2a 1abc d675 b1bd
00000050: 00dc 05be 494b d13d 9cc9 343b 4b8a 12be
00000060: d5e7 c435 5410 963c c564 803d 94a8 8a3d
00000070: d334 0c3c b1b3 b0bc 1c27 d13d 7992 b83d
00000080: 4f16 b4b8 a6c6 0e3e 2cd0 31be 9f80 453d
00000090: 0711 3a3e 4276 b13b 088c 213d 0c8d 25be
000000a0: 0eee 263e e25c 10bd a08e 00be 02ab 91bc
000000b0: 273a 523e a392 52be 9d1f 17be e12f 563e
000000c0: 9931 ecbd ac14 b43d ad74 39be 2b35 023d
000000d0: b91f 4abe 59c8 c0bd 2eec 0c3e c9c2 b83d
000000e0: 3ead f7bd 4f4b 3d3d 26f7 1a3e ecb3 a23c
000000f0: 4f9f eebb 6d11 e83d fe6a e837 ad9c f0bd
00000100: 039e ab3d e361 563d c996 c63d 18d1 c33d
00000110: 70bf 72be c337 9d3d 2efa e4ba af8c a8bd
00000120: 7462 4dbe 8756 18be 4a52 17bd 5832 e3bd
00000130: ffc7 04be 195f f03d 11e8 1cbd 9f8b b53d
00000140: 005e 3ebe 99a7 523e d769 e8bd 7b00 9dbc
00000150: 9fe5 47be 802e 5fbe 2d8e 1dbe bf00 0dbe
00000160: d888 cb3d 9c40 82bd d306 a93d 1432 d5bd
00000170: 6701 33be b0aa e4bd 5c52 023e 6ac2 033e
00000180: 7417 d7bd 0cc8 963d ba97 6a3e a30a 4e3e
00000190: 34b6 b1bb ae0c 733e 4593 4837 d2c0 35bd
000001a0: ea77 ddbc 3edd 0c3e 755b 1abe ae3f 05be
000001b0: d77d 51bc 3c0e 9c3d cdfc 33bc 93ab dabc
000001c0: 5bee 823d 9746 193e e4b5 4dbd b3ee 2b3a
000001d0: c636 8c3d de49 c0bd d328 793d 0a91 6c3e
000001e0: 9892 9d3c f228 1fbe 73f7 eabd f6f5 3d3e
000001f0: eacc 24bd 1c57 3dbe 65c7 37be 1336 2bbb
00000200: 8a90 edbd 11f9 763e 62a6 e1bd 69fb 10be
00000210: bc7c e23d 7cd5 e63d ff2f 9cbd b5b5 29be
00000220: b2ae 02bd 83bc 2c3d 6a2c 73be 0065 3a3e
00000230: 4a02 34bd 14d9 433c a2f8 9c3d 5541 c4bc
00000240: 7f57 c13c 6972 23be efbb 513e 0daf 6fbe
00000250: ebe8 8dbc 0a8d 39be 8cfa 6abe 1af9 bb3d
00000260: bc01 51bc 475d d53c c9b7 07be f1d2 743d
00000270: ad68 80bd 3dcc 3c3e 8003 303e 716a 52be
00000280: d2d4 483e 8187 fc3d c0e8 a6bd 3f32 283e
00000290: 7cf0 353e 19db 46be 3d1d 1b3d 0830 ef3d
000002a0: 9659 96bd 57cf 20be 9a2a 9a3d a14e db3d
000002b0: f11c 61be 150f 46be 9740 f73d e53c 6b3e
000002c0: bc3d 6a3e 7b97 723e 3aa8 97bd aaa2 5abe
000002d0: 5432 443e de30 babd 28f8 5bbe 6935 5f3e
000002e0: d3a6 583e c77b 483e 62c5 46be c14d 94bd
000002f0: f737 11bd a0ba d1bd 8fa6 15be 285f 5dbe
00000300: dd45 813d 9815 fabd 427e 63be aaea d53b
00000310: 4e2a 77be ac92 393e 9312 99ba be42 093e
00000320: fd1c 24be 2ed8 56be 4175 70be 5737 b8bd
00000330: 0d7d 383c c899 1d3c 34e4 6cbe 16c0 0f3e
00000340: 1424 2cbe f802 32be 1378 f43b 47e5 993d
00000350: 854a 76be 3a09 3c3e b384 293e 2624 bf3d
00000360: 786f 4abe df16 50be a3ee 39bc 6217 303d
00000370: 4bbe d23d edbc e63d d29b 5bbd ae91 1abe
00000380: 050c 1f3d eb50 82bd 466f 0fbd 4ac9 163e
00000390: 5cc3 983a 9fb3 1d3e a716 c7bd 7667 843d
000003a0: fe2d 53b9 f8a5 b93b fd16 a8bd f62a b5b8
000003b0: 53eb 68bd 0b64 aabc 0197 4a39 a8ef 5238
000003c0: bbd0 66b6 80be 98bc a8a8 1dbe b51c b9bd
000003d0: 9ecf 073e d3db 03be a528 fc3d 9a9b 35b8
000003e0: 97ea 9dbd cd5c 093d ec0c 2ebd c700 36b8
000003f0: b771 df3a 26d1 e43d 6d87 f7bc 7819 56ba

bias f4 [680]
0.14092319 -0.023690298 0.039588872 0.17815685 -0.071536615 0.022055373 -0.13143075 0.08411456
-0.052298363 -0.19880903 0.06656712 0.09102356 -0.0043339594 -0.06251164 -0.11278027 0.0012529537
0.13523006 -0.0528624 0.052096665 -0.043806016 -0.11786878 -0.0680525 -0.045978602 0.09047573
-0.0950778 0.20936874 -0.11383508 0.12186032 -0.0586611 -0.004960395 -0.016975308 -0.09542565
-0.14414401 0.10205663 0.22343314 9.453506e-06 -0.12540103 -0.2119862 0.024459243 0.044071488
-0.074090905 -0.109894745 -0.071616344 -0.15133633 0.068734564 -0.12247833 -0.03933238 -0.23362876
-0.09973748 -0.027599135 -0.11274259 -0.1068117 0.15445964 0.021527983 0.12831868 -0.082180455
-0.02298557 -0.078197956 0.007811273 -0.03142487 0.076089144 0.13620491 -0.06344195 0.1623126
0.06859062 0.16396388 -0.07110941 -0.014560966 0.1503951 0.12818834 0.06525485 0.18994863
-0.019782078 0.029416202 -0.04865731 0.20640129 -0.065475166 -0.11529718 0.119398616 0.09662511
-0.06722049 -0.0103243375 -0.07748912 -4.553971e-05 -0.0014495904 -0.04990788 0.05979551 -0.12135408
-0.16917007 -0.1646651 -0.02415777 -0.0853092 -0.011042787 0.21058686 0.077238515 -0.14350484
0.16512242 0.19629626 -0.10169397 -0.0526794 -0.17046492 0.0204862 0.0499329 -0.040176515
-0.07211283 0.19733569 -0.18502694 0.0487076 0.24142224 -0.107833646 -0.04747256 -0.1494816
0.081237644 0.07398792 0.1153903 0.017340299 0.19758867 -0.06776617 -2.9408135e-05 0.1542308
0.06547818 -0.03638539 0.22086054 0.1474695 -0.08565866 -0.2247573 0.059982367 -0.009309518
0.06332416 0.19137883 -0.0811039 0.00021430137 -0.008421117 0.23937084 -0.21252353 -0.14885147
0.0702151 0.17641695 0.06734685 -0.049845155 0.042826924 0.105378546 -0.012332961 -0.12484765
0.1117381 0.056322332 4.3956334e-06 -0.028393118 -0.170686 -0.033792026 0.17081156 0.09726131
0.17324674 0.19671881 0.23388307 0.15670016 0.104544714 0.14585522 2.2709903e-05 -0.03734674
0.22924308 0.07461477 -0.10376919 -0.05110119 0.15795319 0.051265858 0.14362273 -0.14153239
0.16169107 0.11792883 0.07312646 -0.15774615 -0.14353538 0.15428336 -0.015609695 -0.20801392
0.16669884 0.11166869 0.18395497 0.15995982 -0.046081588 0.12620936 0.15477279 -0.053832248
-0.198576 0.13593778 -0.08048085 0.2456804 0.14077081 -0.060690783 0.21946247 0.0027810077
-0.016797526 0.026339713 -0.18920766 0.19155061 -0.015346713 0.11948226 -0.0820571 0.10070191
-0.15753618 -0.1535986 0.14157231 -0.005213992 0.09014312 -0.06559474 0.23350072 -0.066103876
0.036620855 0.20679715 0.23510683 0.039200637 0.071560286 0.19039616 0.08947012 0.010046025
-0.17774633 0.12603414 0.22803505 0.034798663 -0.029652368 -0.14029461 0.095911466 -0.17976429
0.021590266 0.2180018 -0.051544573 0.16408108 0.036089674 0.11800442 0.067151524 0.14095928
0.032765467 0.11008938 -0.030493708 0.1711371 0.21756673 -0.060980096 0.18798165 0.049274143
-0.1140152 -0.044105563 -0.14757256 0.14728121 0.22464243 0.016847132 0.1984099 -0.1483491
0.0779212 0.12737027 -0.18495883 0.11868256 0.12527092 0.039914813 0.100091204 -0.19543572
00000000: 2b4e 103e 2812 c2bc f127 223d c06e 363e
00000010: ca81 92bd 78ad b43c c895 06be 4144 ac3d
00000020: cf36 56bd 9894 4bbe 5854 883d 8f6a ba3d
00000030: e303 8ebb 1a06 80bd 58f9 e6bd 263a a43a
00000040: c079 0a3e 3e86 58bd 5063 553d f06d 33bd
00000050: 3065 f1bd 1c5f 8bbd 0f54 3cbd 574b b93d
00000060: 26b8 c2bd c264 563e 5e22 e9bd e791 f93d
00000070: 9f46 70bd cf8a a2bb cd0f 8bbc 866e c3bd
00000080: 7d9a 13be 1103 d13d a8cb 643e 809a 1e37
00000090: 2169 00be e912 59be c05e c83c 4e84 343d
000000a0: f9bc 97bd 7f10 e1bd 97ab 92bd e9f7 1abe
000000b0: b5c4 8c3d ebd5 fabd fd1a 21bd 613c 6fbe
000000c0: 2a43 ccbd 9517 e2bc 96e5 e6bd 18c0 dabd
000000d0: ab2a 1e3e 745b b03c f965 033e 3a4e a8bd
000000e0: 3c4c bcbc 4026 a0bd b5f5 ff3b 5db7 00bd
000000f0: a0d4 9b3d 4d79 0b3e daed 81bd 4635 263e
00000100: 3d79 8c3d 26e6 273e cfa1 91bd 1e91 6ebc
00000110: 2c01 1a3e ce43 033e 56a4 853d e581 423e
00000120: 060e a2bc 3ffa f03c e34c 47bd dc5a 533e
00000130: d817 86bd ee20 ecbd 4387 f43d 63e3 c53d
00000140: e5aa 89bd 6927 29bc 9eb2 9ebd e401 3fb8
00000150: 2f00 beba 356c 4cbd 23ec 743d 7d88 f8bd
00000160: eb3a 2dbe f89d 28be 84e6 c5bc 97b6 aebd
00000170: ceec 34bc 15a4 573e 3a2f 9e3d eff2 12be
00000180: da15 293e e301 493e ee44 d0bd 5bc6 57bd
00000190: 5b8e 2ebe add2 a73c 7186 4c3d 2190 24bd
000001a0: e4af 93bd 5e12 4a3e b477 3dbe 9f81 473d
000001b0: 6437 773e e3d7 dcbd 9672 42bd b411 19be
000001c0: ec5f a63d fb86 973d c051 ec3d 3e0d 8e3c
000001d0: af54 4a3e fdc8 8abd 7db1 f6b7 aeee 1d3e
000001e0: 6d19 863d d908 15bd 4429 623e 3f02 173e
000001f0: cf6d afbd c726 66be 12b0 753d f386 18bc
00000200: 19b0 813d d0f8 433e cd19 a6bd 16b6 6039
00000210: baf8 09bc a11d 753e c59f 59be 856c 18be
00000220: efcc 8f3d a5a6 343e 25ed 893d 6f2a 4cbd
00000230: 496b 2f3d b5d0 d73d 3010 4abc 20b0 ffbd
00000240: f2d6 e43d 3fb2 663d 347e 9336 af98 e8bc
00000250: 50c8 2ebe 8269 0abd 3ae9 2e3e f030 c73d
00000260: 9867 313e a870 493e 0b7f 6f3e 0276 203e
00000270: 8a1b d63d 125b 153e 2581 be37 e5f8 18bd
00000280: b3be 6a3e a1cf 983d f184 d4bd 7b4f 51bd
00000290: 7bbe 213e 26fc 513d d611 133e deed 10be
000002a0: 5892 253e ac84 f13d 53c3 953d 3588 21be
000002b0: f0fa 12be 75fc 1d3e cebf 7fbc 9a01 55be
000002c0: 1ab3 2a3e 8eb2 e43d b15e 3c3e 82cc 233e
000002d0: 0cc0 3cbd 073d 013e c27c 1e3e 347f 5cbd
000002e0: 8257 4bbe 4633 0b3e 25d3 a4bd a593 7b3e
000002f0: 3926 103e e696 78bd c5ba 603e 9141 363b
00000300: f79a 89bc 62c6 d73c a7bf 41be d825 443e
00000310: c870 7bbc 1db3 f43d 8e0d a8bd ce3c ce3d
00000320: 2a51 21be f448 1dbe 55f8 103e 23da aabb
00000330: f59c b83d 8956 86bd d01a 6f3e 7861 87bd
00000340: c0ff 153d a2c2 533e d8bf 703e d990 203d
00000350: 338e 923d 36f7 423e 1c3c b73d 1598 243c
00000360: 2203 36be 180f 013e 0582 693e 0b89 0e3d
00000370: 86e9 f2bc 64a9 0fbe 3b6d c43d 2114 38be
00000380: 12de b03c dd3b 5f3e 6720 53bd df04 283e
00000390: c4d2 133d 4dac f13d bd86 893d a157 103e
000003a0: 1535 063d 8a76 e13d f1cd f9bc 903e 2f3e
000003b0: d0c9 5e3e 44c6 79bd 437e 403e afd3 493d
000003c0: cd80 e9bd 09a8 34bd 431d 17be e3d0 163e
000003d0: aa08 663e ff02 8a3c f72b 4b3e d4e8 17be
000003e0: 2695 9f3d 5a6d 023e d965 3dbe d80f f33d
000003f0: 0547 003e b77d 233d 9efc cc3d 4d20 48be

weight f4 [4, 680]
-0.024579665 -0.00025158102 0.010980078 0.0009628088 -0.024067454 0.020217279 -3.9625793e-06 0.034506537
-0.016062673 0.024088154 -0.009257942 0.039031137 -0.004049574 -3.2301261e-06 -0.00017483538 0.005526972
0.0063085714 -1.1259435e-06 0.029687626 -0.000304353 0.036901627 -0.07466974 0.021174852 -0.014032706
6.009818e-06 0.0013042263 -0.033270657 0.017380513 0.013243895 -1.9974605e-06 0.035274625 -0.009719967
-0.00025013252 0.023866553 0.010169606 0.00016800487 -0.00023797067 -0.017799865 0.026371684 -0.01722396
0.005784578 -2.6824751e-05 -6.1521816e-05 4.531319e-05 0.028903536 -0.00024284862 -0.0002189814 -0.021942308
0.035818595 -0.003206419 0.011637713 -5.8059843e-05 -0.0073043657 0.017766405 0.024929116 0.020612642
-0.0062451526 -0.00012954247 -0.025655286 -0.025454773 0.046113897 0.0026558265 0.021189172 -0.017319173
0.037308045 0.015341178 4.150726e-05 -0.032919064 -0.017702525 -0.021236181 0.0004851601 0.00036500866
0.03110385 -0.0020997392 0.00021669305 0.04131624 0.041458867 0.03221712 -0.03288497 0.025809588
-5.176822e-05 0.00023122731 -0.01746938 1.0111277e-05 -0.0025558053 -5.7487905e-05 -0.024717156 0.004616538
0.040297333 -0.005374365 0.025394276 -0.00016588597 -4.6318284e-05 0.04197429 0.031268947 0.0002216783
0.0038641621 0.0132604195 0.014550179 -0.00581895 0.015941085 0.0024075247 0.001229476 -0.008954148
3.0274796e-05 -0.010239793 0.0074276105 0.03185105 0.008247954 0.00010157531 -0.005131519 -0.0073447716
0.03751016 0.003676751 0.030518167 0.008400123 0.018405223 -9.446086e-05 2.0894686e-05 0.012478946
-0.011315296 -0.013429005 -0.031372726 -0.019021992 0.028168477 -0.02128755 -0.027841654 0.009643646
-0.010197113 0.031965934 -0.00955403 6.8914487e-06 0.044123504 0.040794898 -0.027615013 3.4061854e-05
0.03119613 0.0064172433 -0.031130252 0.00043243202 -0.012971582 0.027387084 -0.011036627 -0.0006634472
-0.014453797 0.029734747 -0.00015217075 0.03707131 0.0074655567 0.018304322 -0.0006144029 -0.025466561
0.042863052 -0.015931627 0.0064134784 -0.034961995 -0.0011071606 -0.013390668 4.644031e-05 0.0130214095
0.020566775 0.02772884 -0.022004765 0.00064682675 -0.02085965 0.042970657 -0.010721769 4.9122875e-08
-0.006016241 -0.02775116 0.020783259 -0.005976997 0.022281671 -0.016996644 -0.018869054 0.027533723
0.034533355 -0.021824583 -0.020638743 -0.00461177 -0.018188607 0.014183059 0.019403394 0.033539027
0.029737547 -0.01655193 0.04465089 0.043465935 0.029242236 -0.0072679664 0.023687247 -4.3384756e-05
-0.0060607046 -0.03425085 -0.0026323246 0.03371059 -0.00024326397 -0.00019702679 0.015284305 -0.021510376
-0.008829172 4.2095984e-05 0.004824687 0.0076976777 -0.008495953 -0.0025878546 0.008528501 -0.00011642506
-0.011734336 0.010130946 0.00792734 0.025271533 0.03863568 0.011065972 -0.0017803545 0.03904834
0.03808549 0.03506985 0.012217374 -0.0152625665 0.015001738 1.143536e-05 -0.003215131 -0.029812727
-0.026943814 0.03215377 -0.03589906 0.0046772053 -0.019749857 -0.02901424 -0.011343686 0.012701153
0.022729127 0.0014400692 0.026831528 0.0052980385 -0.012108775 0.00019836362 -0.0062709525 0.025467519
-8.844708e-05 8.858843e-06 -0.011157059 0.02011149 -0.008539146 -0.009513561 -0.016665779 0.014908989
-0.00873301 0.019142931 0.016501432 0.006281196 0.015730452 0.015188212 0.004346679 0.014540963
00000000: 4b5b c9bc a2e6 83b9 c9e5 333c 0165 7c3a
00000010: 1c29 c5bc b59e a53c 4cf6 84b6 ba56 0d3d
00000020: de95 83bc 8554 c53c a0ae 17bc 1ddf 1f3d
00000030: 4ab2 84bb 25c5 58b6 0454 37b9 9a1b b53b
00000040: 22b8 ce3b 201f 97b5 7733 f33c 9191 9fb9
00000050: 2926 173d 73ec 98bd e276 ad3c 6fe9 65bc
00000060: f2a7 c936 93f2 aa3a d046 08bd 9461 8e3c
00000070: ecfc 583c 1c0c 06b6 207c 103d 7f40 1fbc
00000080: 3824 83b9 ca83 c33c 6b9e 263c 772a 3039
00000090: c487 79b9 06d1 91bc 6e09 d83c 4319 8dbc
000000a0: 8f8c bd3b b705 e1b7 4605 81b8 ab0e 3e38
000000b0: 1cc7 ec3c 2ea5 7eb9 5f9e 65b9 5bc0 b3bc
000000c0: 85b6 123d c922 52bb 1bac 3e3c 4885 73b8
000000d0: 7659 efbb da8a 913c 2538 cc3c d8db a83c
000000e0: 23a4 ccbb cbd5 07b9 092b d2bc 8786 d0bc
000000f0: ede1 3c3d 600d 2e3b ea94 ad3c f0e0 8dbc
00000100: 52d0 183d 9059 7b3c 1518 2e38 24d6 06bd
00000110: e304 91bc 80f7 adbc 165d fe39 a25e bf39
00000120: 80cd fe3c c79b 09bb 1938 6339 383b 293d
00000130: c6d0 293d 19f6 033d 64b2 06bd a16e d33c
00000140: b421 59b8 9c75 7239 f21b 8fbc 9ba3 2937
00000150: 4c7f 27bb 2b1f 71b8 a27b cabc 5446 973b
00000160: d10e 253d 711b b0bb a807 d03c adf1 2db9
00000170: e145 42b8 3ced 2b3d de13 003d 5172 6839
00000180: e23d 7d3b 3b42 593c e063 6e3c e4ac bebb
00000190: e196 823c 90c7 1d3b 5e26 a13a 6bb4 12bc
000001a0: a1f6 fd37 cec4 27bc 5063 f33b 3f76 023d
000001b0: 6d22 073c d404 d538 4d26 a8bb 69ac f0bb
000001c0: 41a4 193d a5f5 703b 3c01 fa3c aba0 093c
000001d0: 8dc6 963c 4a19 c6b8 ff46 af37 7e74 4c3c
000001e0: cb63 39bc 5405 5cbc b080 00bd 02d4 9bbc
000001f0: 94c1 e63c 3a63 aebc 2e14 e4bc 6200 1e3c
00000200: cb11 27bc b6ee 023d 8288 1cbc 183d e736
00000210: d9ba 343d 8d18 273d e138 e2bc a3dd 0e38
00000220: 078f ff3c bd47 d23b df04 ffbc 0bb8 e239
00000230: c286 54bc e15a e03c f8d2 34bc 30eb 2dba
00000240: 9ecf 6cbc 4996 f33c 0690 1fb9 16d8 173d
00000250: a1a1 f43b f2f2 953c e10f 21ba 409f d0bc
00000260: 2b91 2f3d 0b83 82bc 2828 d23b 4f34 0fbd
00000270: 251e 91ba 8864 5bbc e7c8 4238 c057 553c
00000280: a77b a83c 9827 e33c 5643 b4bc cf8f 293a
00000290: dbe1 aabc 0002 303d 5caa 2fbc 2cfb 5233
000002a0: e323 c5bb 6756 e3bc a741 aa3c afda c3bb
000002b0: 0d88 b63c 8c3c 8bbc 4693 9abc 678e e13c
000002c0: d972 0d3d 78c9 b2bc 9512 a9bc 551e 97bb
000002d0: 4600 95bc 1060 683c def3 9e3c 3860 093d
000002e0: 289c f33c ea97 87bc dae3 363d 5609 323d
000002f0: 6a8d ef3c 1f28 eebb c20b c23c 07f8 35b8
00000300: e098 c6bb 9f4a 0cbd 1483 2cbb 1e14 0a3d
00000310: ad14 7fb9 fa98 4eb9 066b 7a3c 8736 b0bc
00000320: 3ba8 10bc 3890 3038 6818 9e3b cd3c fc3b
00000330: 9c32 0bbc ff98 29bb 20bb 0b3c 3a29 f4b8
00000340: 5f41 40bc 44fc 253c ade1 013c 3f06 cf3c
00000350: 7240 1e3d 0d4e 353c c95a e9ba 27f1 1f3d
00000360: 88ff 1b3d 67a5 0f3d 612b 483c d80f 7abc
00000370: dac9 753c 7fda 3f37 f2b4 52bb d239 f4bc
00000380: 46b9 dcbc acb3 033d e50a 13bd 3e43 993b
00000390: 74ca a1bc 45af edbc deda 39bc 7f18 503c
000003a0: 6f32 ba3c b4c0 bc3a cbcd db3c 2b9b ad3b
000003b0: e263 46bc d4ff 4f39 907c cdbb 42a1 d03c
000003c0: aa7c b9b8 71a0 1437 19cc 36bc dac0 a43c
000003d0: c6e7 0bbc c4de 1bbc ac86 88bc d544 743c
000003e0: e614 0fbc a3d1 9c3c 032e 873c 7ed2 cd3b
000003f0: 26dd 803c fad7 783c 966e 8e3b 383d 6e3c

bias f4 [4]
-0.0077735977 -0.012928111 0.032403976 0.0145674925
00000000: aab9 febb 6dd0 53bc 08ba 043d 7eac 6e3c
