estimators/knet/single_obs/KalmanNetNN_lossMSE_ep100_train4000_val1000_test10000_lr1e-03_wd1e-06_data_sr1e-01_q1e-04_r1e+00_j5_train[200,250]_val[40,250]_test[40,250].pt (torch, 156502 bytes, 40 tensors)

weight_ih_l0 f4 [48, 20]
000000 e2 8e d9 bb 95 c5 4e bd c0 5e 5d 3c 53 ff 38 3e
       -0.0066393474 -0.050481398 0.01351136 0.18066148
000010 21 9f d4 bd 76 84 27 be c6 fc 95 3c 00 1e 81 3c
       -0.10381914 -0.16359124 0.018309008 0.015761375
000020 8c 4d 0b 3e 8c 34 1c be 67 a5 cf 3c 4b ea 27 3a
       0.136038 -0.1525442 0.025347425 0.0006405457
000030 14 d1 e1 3c 77 ab 0c be ce 22 47 bc 2e 00 51 bc
       0.027565517 -0.13737284 -0.012154294 -0.0127563905
000040 cb 25 69 be f2 85 f2 bd bd 93 7f be 55 80 58 3c
       -0.22768323 -0.11841954 -0.24958701 0.0132141905
000050 e7 91 94 bd db c1 ed bd 0c 9e 3d 3d b7 02 86 37
       -0.07254391 -0.116092406 0.046293303 1.5975309e-05
000060 21 82 24 3e f9 d5 ff 3d 42 3c 39 3e cc 63 ad bc
       0.16065265 0.12491984 0.18089393 -0.02116575
000070 df a3 5b be 72 db d9 3c 07 00 d9 bd d9 3c 46 3e
       -0.2144923 0.026593897 -0.10595708 0.19359149
000080 c3 a4 00 3e 73 dc 13 be e2 c9 f0 3d ba bc 20 3e
       0.12562852 -0.14439563 0.11757256 0.15696993
000090 4f 8b b5 bd d2 8f da 3d 9e 3b 0e 3d 1e ef 1e 3d
       -0.08864462 0.10671963 0.034724824 0.03880226
0000a0 b2 01 36 3e 9e a3 8e bc 09 48 33 be 4a e8 77 3e
       0.17774084 -0.017412003 -0.17507948 0.24209705
0000b0 da 52 1f 3e 16 51 54 be 6d ed 6e bd 9b fb 24 3e
       0.15558949 -0.20734057 -0.058331896 0.16111605
0000c0 b0 9e 71 be ca ff ee 3c e6 e2 d2 3c 6a f8 e2 bd
       -0.2359569 0.029174704 0.02574296 -0.110825375
0000d0 f0 45 c4 bd 1a 61 6a be 79 60 ea 3d d8 51 70 be
       -0.09583652 -0.22888604 0.11444182 -0.23468721
0000e0 b2 3d d2 bb 00 c4 10 3e e8 c8 72 3e 34 11 7d 3c
       -0.006416046 0.14137268 0.23709452 0.015445996
0000f0 d4 3a 4f bd 28 79 33 be f6 5e 00 be 56 f9 f0 3d
       -0.050593212 -0.17526686 -0.12536225 0.11766307
000100 1f 3b d4 bd 89 60 01 be d1 2c 13 3e 20 a8 22 be
       -0.10362839 -0.12634481 0.14372565 -0.15884447
000110 3f 00 cd 3c 5f d0 91 bd 09 a3 61 be f1 6c f4 3d
       0.025024531 -0.07119822 -0.22034849 0.119348414
000120 17 67 18 bd 84 9f 65 3e 89 7e 05 be 9d 7b 60 3e
       -0.03720769 0.22424132 -0.1303655 0.21922155
000130 df 23 a4 bd c4 19 64 be cd 68 e8 3c a9 9a e8 bd
       -0.08014654 -0.22275454 0.028370285 -0.11357624
000140 2f ed cb bd 8d 58 bf 3d 27 6b 7d 3e d6 7b 38 be
       -0.099573486 0.093430616 0.24747907 -0.1801599
000150 a2 4a 5d bb e1 5f 1b 3d 7b 09 3b 3e 1c 97 a9 3c
       -0.0033766408 0.037933234 0.18265335 0.020701937
000160 e4 55 4f be d8 4d 88 bd 49 07 6d bd 31 71 d2 3c
       -0.20247608 -0.066554725 -0.057868276 0.02568874
000170 06 7a 6a 3d fc b9 1f 3e e2 45 a7 3d 80 32 29 be
       0.057245277 0.15598291 0.08167626 -0.1652317
000180 61 5b ea 3d 4a bf 02 3d 53 71 59 3e d4 33 a1 bd
       0.114432104 0.03192071 0.21234636 -0.078712136
000190 7e ac 31 bd bc df 43 3e 82 a9 6d 3e 9d 53 79 3e
       -0.043377392 0.19128317 0.23209193 0.24348302
0001a0 89 32 3e bb 43 78 6a 3e 4a 3e 43 be 4b 7d 91 bd
       -0.002902182 0.22897439 -0.1906673 -0.07103976
0001b0 64 4f 4b be 51 63 63 be a3 a2 81 bd 86 b6 4e 3e
       -0.19854504 -0.22205855 -0.063298486 0.20186815
0001c0 15 f7 c5 bd 53 04 1a bd 51 2c 94 3d 51 a9 07 3e
       -0.09666268 -0.03760178 0.07235015 0.13248183
0001d0 50 50 cc 3d 56 71 83 bc 9c 7b 69 3e a3 36 ce bd
       0.09976256 -0.016045254 0.2280106 -0.10069015
0001e0 e7 0f 88 bd 42 9e a2 bd 03 bc 5b 3e 5b 71 db 3c
       -0.06643658 -0.079403415 0.2145844 0.02678745
0001f0 88 a3 77 38 53 ca 55 3e e4 e5 7a 3e 47 38 31 3e
       5.904169e-05 0.20877962 0.24501759 0.17306624
000200 a7 3e 65 be a5 a3 46 be a1 50 8a 3d 8b f6 91 3d
       -0.22387181 -0.19398363 0.0675366 0.071271025
000210 2d 38 3e be 99 b7 72 3e 7a c3 ac 3d d0 fe 04 bd
       -0.18576117 0.2370285 0.08435722 -0.03246957
000220 1a e1 a9 bd 12 e7 25 3e 63 71 08 bc 71 b1 f1 bd
       -0.08294888 0.16201428 -0.008327815 -0.118014224
000230 b9 5f c4 3d 57 71 8b bb 04 47 90 bd d3 c9 7e bd
       0.0958857 -0.0042554545 -0.07044795 -0.062204193
000240 23 dd b9 bb a8 79 32 3e 30 54 3c 3e 61 ec 33 3e
       -0.0056721135 0.1742922 0.1839149 0.1757064
000250 ba 08 13 be 21 cc 18 3d 08 76 45 3e 46 34 83 bd
       -0.14358798 0.037304047 0.19283307 -0.06406455
000260 e0 75 01 3e 41 4d 5d be 7f 0d 1d 3d 65 c7 36 3e
       0.12642622 -0.21611501 0.03834295 0.178495
000270 a4 8f 59 be 45 f3 48 be 75 11 4d 3d 67 73 28 3e
       -0.21246201 -0.1962405 0.050065476 0.16450273
000280 b3 ca d6 ba 00 4f 0e be 1a ad ca 3d 61 3a 22 be
       -0.0016387313 -0.13897324 0.09896298 -0.15842582
000290 bc 70 0d be 7b 4c d4 bd 7f c6 ee 3d fb 8e 6b 3e
       -0.13812536 -0.1036615 0.11658954 0.23003761
0002a0 77 de d9 bd 6a dd 22 3e a9 13 32 be d2 0c ef 3d
       -0.10638135 0.15904775 -0.17390312 0.11672367
0002b0 a0 09 44 3c 83 53 1c be 3c dc 82 bd f6 e6 a1 bd
       0.011965185 -0.15266232 -0.063896626 -0.079053804
0002c0 16 e7 de bd c7 64 4f be d9 78 50 be 64 4e d2 3c
       -0.1088392 -0.20253287 -0.203586 0.025672145
0002d0 2b 0e a6 3c 89 de 23 3e 77 a5 7a 3d e3 6b ba bd
       0.020270428 0.16002859 0.061192956 -0.09102609
0002e0 79 89 b9 37 80 b0 b2 bb 8c b6 f9 3d 7d 38 46 bc
       2.2117734e-05 -0.0054531693 0.12193021 -0.012098429
0002f0 f2 fc 0a 3e 08 28 38 3d 3a cc e1 bd a4 78 bc 3c
       0.13573053 0.04496005 -0.11025281 0.023006745
000300 e6 a6 1c 3e 6f 98 d5 3d 84 5d 66 be 71 f9 75 3e
       0.15298042 0.10429465 -0.22496611 0.24020936
000310 47 ad 11 be 1b e7 98 3c 00 18 23 3e 18 0f 52 be
       -0.14226256 0.018664887 0.15927124 -0.2051357
000320 2a c6 85 bd ac 8e 48 3e a5 cf 46 be 66 5c 3d 3e
       -0.065319374 0.19585675 -0.19415148 0.18492278
000330 d7 fc 84 bd 76 d4 46 bb ef e0 a1 bd 0b 40 26 3c
       -0.06493538 -0.003033904 -0.07904231 0.010147105
000340 03 47 12 bc 5b f6 56 3e c8 9b 1d be 6c 88 bb bd
       -0.008928063 0.20992415 -0.15391457 -0.0915688
000350 03 14 59 be 18 d4 e0 bd 27 fc 4a 3e 97 38 4b 3e
       -0.2119904 -0.10977954 0.19822751 0.19845806
000360 c6 94 c4 3d 84 0c 30 bd 05 65 8a 3d ef 2c 40 be
       0.09598689 -0.042980686 0.06757549 -0.18767141
000370 52 53 da bd f3 c9 00 be 2c bf b1 bc 14 54 33 3d
       -0.10660423 -0.12577038 -0.021697603 0.043781355
000380 11 87 82 bc 22 21 07 be 04 db c6 3d d1 81 64 3e
       -0.015933545 -0.13196233 0.09709743 0.22315146
000390 52 85 c0 3d 41 26 59 3e 49 5e 76 bd 46 cf 93 3d
       0.09400429 0.21205999 -0.06014851 0.07217269
0003a0 e6 b0 bf 3d 43 3b 69 3d f1 56 34 3e 40 fe 2b be
       0.093599126 0.056941282 0.1761129 -0.16796207
0003b0 69 7e 17 be 4d 17 ca 3d 9d 25 39 3e e8 54 98 3c
       -0.14794315 0.098677255 0.18080755 0.018595174
0003c0 9a ce db 3d 46 d9 eb 3d 37 e5 58 3e 98 eb 2a 3e
       0.107327655 0.11516051 0.21181189 0.16691434
0003d0 e1 d8 25 bd 69 15 77 3d 33 5a 42 3e 60 ef 08 3e
       -0.040490035 0.060323153 0.18979721 0.13372564
0003e0 19 dc 6a 3d b3 c3 2b 3d 31 74 3b 3e ab 69 5c 3d
       0.057338808 0.04193468 0.18306042 0.05381171
0003f0 60 04 72 3e 12 09 87 3d 83 e8 ba bb 7c c8 5b be
       0.23634481 0.06593527 -0.005703987 -0.21463197

weight_hh_l0 f4 [48, 16]
000000 ce 3a 67 be 8d 64 98 bc 78 0f 5f 3e f4 9d 06 be
       -0.22581026 -0.018602634 0.21783245 -0.13146192
000010 51 03 b6 3d 19 33 cb bd 3b 63 54 be 1d 0b 0d 3e
       0.08887351 -0.099218555 -0.20740978 0.1377377
000020 2a 15 17 be cf ed 28 bd 2f bf 60 be 87 fe 73 be
       -0.14754167 -0.041242417 -0.21947931 -0.23827563
000030 af 0d 63 bd 69 e4 60 be d7 b9 a6 bd 95 4d aa bd
       -0.05543297 -0.21962132 -0.08140915 -0.08315579
000040 b2 f9 bf 3d d5 30 27 bc 99 21 c9 3d 10 20 29 3e
       0.093737975 -0.010204514 0.09820861 0.16516137
000050 b9 1f d6 3d 61 bf 01 be a1 b3 db bc d8 73 27 be
       0.10455269 -0.12670662 -0.026819052 -0.16352785
000060 61 e9 27 3e 3a 6f 4d be b4 7b 91 3d cc 22 48 be
       0.1639762 -0.20061961 0.071036726 -0.19544524
000070 f6 90 9a 3c bf a7 31 be ab 4b 61 3e 18 4f 24 3e
       0.01886795 -0.17349146 0.22001521 0.16045797
000080 89 fb bf bd b9 06 03 3e fe d1 9a bd 9a ef 75 3e
       -0.093741484 0.12795533 -0.07559584 0.24017182
000090 21 00 32 3e 8d c4 0b bd 05 8b 44 3d 2a f8 2a bd
       0.17382862 -0.034122992 0.04798414 -0.041740574
0000a0 1d b9 3c be 6e a3 a9 bd 84 55 23 3e 91 b9 e8 bd
       -0.1842999 -0.08283125 0.1595059 -0.11363519
0000b0 ff 00 3d 3e 5a 8a 80 3e 19 07 28 3e c8 ba 7d 3e
       0.18457411 0.25105554 0.16408958 0.24778283
0000c0 85 f3 1c be f5 30 08 3e ff 2b 7c 3e ea 61 cd 3d
       -0.1532727 0.13299926 0.24626158 0.10028441
0000d0 06 6f b1 3d 31 9a 32 be e2 fa de bd d6 f8 7a be
       0.08663754 -0.17441632 -0.10887696 -0.24508986
0000e0 34 4f 78 3e c6 88 5c 3e 1f f2 05 be ca 2d 2f 3e
       0.24248964 0.2153655 -0.13080643 0.17107311
0000f0 6f d4 41 be 55 6f 50 bd d4 cd 1f 3d 20 26 0b be
       -0.18928693 -0.050887424 0.039014652 -0.13588762
000100 3a ec cb 3d e4 23 f4 3d 0d 16 24 3e a5 89 5f bd
       0.09957166 0.11920908 0.16024037 -0.054574627
000110 f3 58 57 3e 74 eb ae bd 8b 60 44 bb 94 0f 08 3e
       0.21030025 -0.08541003 -0.002996477 0.13287193
000120 d1 ba 30 3e 9a a2 46 3c 88 7b 2e 3e da 27 6b 3d
       0.17258765 0.012123728 0.17039311 0.057411052
000130 0f ae 7d be 28 98 70 bd 56 a2 f9 bc 8d eb 1c be
       -0.2477343 -0.058738858 -0.030472916 -0.1532423
000140 d5 81 0e be 24 c5 46 bc 71 62 95 3d 8d 72 ee bd
       -0.13916714 -0.012131963 0.07294167 -0.116429426
000150 58 17 27 be bf c8 30 3e 88 43 29 be fa cf 28 be
       -0.16317499 0.17264079 -0.16529667 -0.16485587
000160 b7 93 80 bd 9a 7b 91 bd df 0d 7d bd 19 af bb 3d
       -0.06278174 -0.07103653 -0.061780807 0.091642566
000170 ba 72 89 bd 87 c5 c7 3d 0f 5c 65 3e aa 73 6c be
       -0.067113355 0.09754472 0.22398399 -0.23090997
000180 93 15 09 be 9e 47 4c 3e 39 7b f2 bd 77 67 d4 bd
       -0.13387136 0.19949195 -0.11839909 -0.10371297
000190 93 b2 de 3d 1c f5 59 3e b9 b2 08 3c 5b 8d b9 bd
       0.10873904 0.21284908 0.008343392 -0.090601645
0001a0 f6 ff 36 3e 65 74 1f be 52 8c 97 bd 4f d4 4e be
       0.17871079 -0.15571745 -0.07399811 -0.20198177
0001b0 7e b2 b9 3d fe af 15 3e bf 07 12 3d 4d 4b c3 3b
       0.09067248 0.14617917 0.03565192 0.0059599043
0001c0 a0 24 3d be 05 62 a0 bb 2e 23 84 bd 59 fc 34 bb
       -0.18471003 -0.0048944973 -0.064520225 -0.0027616231
0001d0 e0 50 24 be 6c 95 9b 3d 93 9a ad 3c 0e fb 5f 3e
       -0.16046476 0.07596859 0.02119187 0.21873114
0001e0 58 d9 79 3e 44 f3 52 3e 2f c4 cf bd 69 c5 f8 bc
       0.24399316 0.20600611 -0.10144841 -0.03036757
0001f0 74 3e 6b bd 6a 94 c6 bb 5b 2a 33 be 26 d2 55 3c
       -0.057432607 -0.006060173 -0.17496626 0.013050592
000200 9b b6 b1 bd 3b 72 45 be f3 0c f3 3c 80 d3 37 be
       -0.08677407 -0.19281857 0.02966926 -0.17951775
000210 b7 e4 1e be 64 7e 91 bc 06 4e 6e 3e 59 7a ae bc
       -0.15516935 -0.017760463 0.23271951 -0.021298574
000220 e5 9a 25 be c8 10 55 be 6e 2b 3a 3e f3 21 a1 3c
       -0.16172369 -0.20807183 0.1818063 0.019669509
000230 2a 2e 81 bd cd c6 37 3e 51 87 3c 3e f3 f1 44 be
       -0.06307633 0.1794693 0.18410994 -0.19232921
000240 45 1f 89 3d 79 1b 12 3e 94 a4 bd 3d 0e 68 2f 3e
       0.06695417 0.14268292 0.092599064 0.17129537
000250 9a 1d a7 3d 51 a8 4f 3e de cd 81 3e 4e 10 f1 bd
       0.08159943 0.20279051 0.25352377 -0.11770688
000260 44 7b 12 3e 30 b6 05 3e 41 37 d4 3d 06 ec 3b 3d
       0.14304835 0.1305778 0.10362101 0.045879386
000270 10 30 0d be 74 b5 58 3d 41 36 e3 bd a0 00 e8 bd
       -0.13787866 0.052907422 -0.110943325 -0.11328244
000280 f8 be 79 be 83 c1 78 3d 87 22 c9 3d 44 86 3a 3d
       -0.24389255 0.060731422 0.09821039 0.045538202
000290 8b 24 39 be 79 c7 2a 3e bd 7c 2e 3d cb 95 5f be
       -0.18080346 0.16677655 0.04259943 -0.21834485
0002a0 2d 64 38 be f9 1a 70 3e 94 71 40 be 89 2b 8a bd
       -0.18006964 0.23447789 -0.18793327 -0.06746585
0002b0 60 75 9d 3d 1e 4a 2b 3d d1 95 52 3e 6f aa 64 3e
       0.07688403 0.04181873 0.20564963 0.2233064
0002c0 d7 db 2b be ee 9f 25 bd 40 86 64 3e 13 18 41 be
       -0.16783081 -0.040435724 0.22316837 -0.1885684
0002d0 12 31 3a 3e 72 6e a5 3d a7 fe 59 3e a9 06 7b be
       0.18182781 0.080777064 0.21288548 -0.2451426
0002e0 a5 3c 83 bd 12 09 66 3c c7 fc 26 3d d2 85 33 3e
       -0.064080514 0.0140402485 0.04076841 0.17531517
0002f0 fb 06 2d be 8a 9f 26 be be 07 d5 bd 07 38 65 3e
       -0.16897194 -0.16271797 -0.10401867 0.22384654
000300 25 0e 30 be 3d c8 4b be 4b 5b f3 bc e3 df 23 3e
       -0.17192896 -0.19900604 -0.029706618 0.16003375
000310 9e 8a 5f be f0 51 82 3d 7e f6 8c 3d 5a 6c 5a bd
       -0.21830222 0.063632846 0.06882952 -0.05332599
000320 6c 32 b9 bd 56 4f 72 3d 5f 1e 67 3e 90 cb 30 bc
       -0.0904282 0.059157692 0.2257018 -0.010790721
000330 a3 74 44 3e a4 5c 52 be 05 91 89 bd 06 26 6d 3e
       0.19185118 -0.20543152 -0.067171134 0.23159036
000340 9b 22 ac bd 27 ad 66 be 68 25 0a 3e ff b6 79 bd
       -0.08405038 -0.2252699 0.13490832 -0.060965534
000350 42 5f 50 be b8 61 61 be fe a5 4d 3e 71 60 08 3e
       -0.20348838 -0.22009933 0.20082852 0.1331804
000360 83 7a ce bd c5 8c cc bd 71 27 02 bb 50 64 0f 3e
       -0.10081961 -0.09987787 -0.0019859935 0.1400311
000370 19 e6 59 be aa 27 61 3e d2 8b 36 be 40 7b 40 be
       -0.21279182 0.21987787 -0.17826775 -0.18797016
000380 f6 b5 21 3e 74 78 73 3e e2 fe 3d bd 67 2c 89 3d
       0.15792069 0.23776418 -0.046385653 0.06697922
000390 c8 49 0d 3e 75 62 cf bd 7f 4b 07 3e 26 ad 8e 3d
       0.13797677 -0.10126201 0.13212393 0.06966619
0003a0 73 d3 a2 3d 2d 15 3e 3e 4f 60 35 3e 6e c6 ee 3d
       0.07950487 0.18562765 0.1771252 0.11658941
0003b0 87 cc 8f bd 0d 9f 51 3e 18 4d 2d be 69 65 4e 3e
       -0.07021432 0.2047083 -0.1692394 0.20155872
0003c0 3e 3b 73 3e 1f fb e0 3d 52 57 4a be fa 68 43 be
       0.23753068 0.109853975 -0.19759873 -0.19083014
0003d0 b8 66 40 3e e9 ba 17 bd 1b 86 53 3c 70 99 7e 3e
       0.18789184 -0.037043486 0.012910391 0.2486322
0003e0 eb 3e 19 3e f0 7a 37 3e 8d c4 84 3d ac 41 30 bc
       0.14965408 0.1791799 0.064828016 -0.010757845
0003f0 89 21 b0 3d 29 c5 f3 3d 6d f7 45 be 6f e4 5b 3e
       0.08600146 0.1190284 -0.19332667 0.21473859

bias_ih_l0 f4 [48]
000000 ca ce 0f be 15 19 3f bd b7 f5 1b 3e 6f 06 a3 bd
       -0.14043728 -0.04665478 0.15230452 -0.079602115
000010 f7 e9 88 3d 27 9b bb 3d 2f f7 1c 3e ef 23 90 3c
       0.0668525 0.09160452 0.15328668 0.01759526
000020 a9 1c 4d be e9 3b 94 3c ef 4d 4b 3e ae 9d 30 3e
       -0.20030464 0.018094974 0.19853948 0.1724765
000030 6f e1 af 3d 9e ac 08 3e ac 84 65 3e 3b f9 6d 3e
       0.0858792 0.13347098 0.22413892 0.23239605
000040 e8 1d ed bd 65 67 67 be 36 20 25 3e 6d e8 93 bc
       -0.1157797 -0.22598036 0.16125569 -0.018055165
000050 88 1a 30 3d 64 ce 97 bd 10 d7 d4 3d 9c 63 a6 bd
       0.042994052 -0.07412413 0.103925824 -0.08124468
000060 d1 3f 1a 3a ba a4 4b be f8 e7 bd bd f6 fb d6 3d
       0.0005884143 -0.19887057 -0.0927276 0.104972765
000070 c0 33 8a be a4 f1 65 3e e7 49 4f be ef 18 39 3d
       -0.26992607 0.2245546 -0.20243035 0.045189794
000080 1c 4f 8d 3d c4 84 38 3e cf c2 94 bd 93 77 a2 bc
       0.068998545 0.18019396 -0.07263719 -0.019832408
000090 37 3c 56 3e c5 da 65 be 9f 82 84 bd d7 d1 4a be
       0.20921408 -0.22446735 -0.064702265 -0.1980661
0000a0 6e 52 07 3e b7 b4 ba bb b1 4a 00 be 1b ec 2a be
       0.13215038 -0.0056978124 -0.12528493 -0.1669163
0000b0 2b 50 5d 3d d0 2a dc 3d 9f 42 52 be 06 e5 6a be
       0.054031532 0.10750353 -0.20533226 -0.22938928

bias_hh_l0 f4 [48]
000000 75 c7 d0 bc 58 d4 2b 3d 40 72 4a be 78 8d 24 be
       -0.025485734 0.041950554 -0.19770145 -0.16069591
000010 16 c3 3c be 18 f6 7a be 5d 4b 1a 3e 2e db 46 3e
       -0.18433794 -0.2450794 0.15067811 0.19419548
000020 07 8a 43 3d d4 4a 0d 3e b9 34 eb bd 97 97 ed bd
       0.047739055 0.13798076 -0.114846654 -0.11601179
000030 a5 1d 87 bc 48 07 00 3c dd 2c 8f bc 12 20 d8 bd
       -0.016493628 0.007814236 -0.017477447 -0.10552992
000040 00 6c f2 bd 80 3f 07 be 9f 48 56 3e 2e 22 93 3d
       -0.118370056 -0.13207817 0.2092614 0.07184254
000050 de 06 39 3d 04 f5 80 3e 89 7f 8e 3d 23 e2 66 3d
       0.045172565 0.25186932 0.06957919 0.056368005
000060 88 0c 3c 3c a7 90 3c be fc 51 62 3e ec 5b b4 bd
       0.011477597 -0.18414555 0.22101587 -0.08806595
000070 d2 4c 0a 3e 28 22 26 be 7c 74 cc bd 54 64 ef bc
       0.13505867 -0.16223967 -0.09983155 -0.029222645
000080 db 81 e4 bd 0d 27 9c bd 59 dd ce bd 71 05 2b be
       -0.111575805 -0.07624636 -0.101008125 -0.16701294
000090 42 2b 2f be f5 6e 88 3d 6c 22 c8 bc a1 54 0c be
       -0.17106345 0.066617884 -0.024430476 -0.13704158
0000a0 d8 35 a4 bd dc c8 32 be 2b 28 67 be 5c fe 45 be
       -0.080180824 -0.17459434 -0.22573917 -0.19335312
0000b0 54 dc 8b bc 93 b3 61 be cb b9 4d be 5e bf 7f bd
       -0.017072834 -0.22041158 -0.20090406 -0.06243836

weight_ih_l0 f4 [48, 36]
000000 50 ce 67 3d aa be 48 3e 21 ba 04 bb 81 64 18 bd
       0.05659324 0.19603983 -0.0020252543 -0.037205223
000010 28 ca 6f be 68 07 65 3c c6 14 25 be cb b7 0a 3e
       -0.2341696 0.013978817 -0.16121206 0.13546674
000020 d4 47 48 be e8 b4 76 be e8 33 36 3e 8a af 14 3e
       -0.1955865 -0.24092448 0.17793238 0.14520088
000030 7f 32 56 be b0 c7 16 be c3 e1 05 3e 84 6f 68 be
       -0.209177 -0.14724612 0.13074403 -0.2269879
000040 c8 80 aa bd 6f 95 91 bd e1 e8 fa 3d f7 0c 7d 3d
       -0.08325344 -0.0710858 0.122514494 0.061779942
000050 de b1 53 be 24 3d 6c be 69 31 74 bd 7d 57 bf 3d
       -0.2067332 -0.23070198 -0.059617434 0.09342859
000060 03 6f 4b be 3e 96 d6 3d af d5 71 3e 0b 27 f7 ba
       -0.19866566 0.10477875 0.2361667 -0.001885624
000070 ad 85 82 bd 5c e2 7d bd 7e 5b 09 3e cb ea 18 3e
       -0.06373153 -0.06198345 0.13413808 0.14933316
000080 0b 4e 79 3e 22 44 55 be 23 d4 2f bc 4f 29 45 be
       0.24346177 -0.20826772 -0.01073173 -0.19254039
000090 34 47 e1 3d 8a a6 f4 bd 2c 93 1e be ee a3 e0 3d
       0.10999909 -0.11945827 -0.15485829 0.10968767
0000a0 2c 66 43 be 84 95 62 bd e5 a4 05 3e b0 a3 78 3e
       -0.19081944 -0.05531837 0.13051184 0.24281192
0000b0 fe 99 dc bd a9 e1 5c be bd ea a8 3d 3e 5c 0c b9
       -0.10771559 -0.21570458 0.08247898 -0.00013385803
0000c0 a8 1d 46 3e ae b7 48 3e a1 b3 ab 3d 25 6a 28 be
       0.1934725 0.19601318 0.08383871 -0.16446741
0000d0 8c 30 84 bd 42 31 88 3d 78 69 e4 bb 4d 80 61 3e
       -0.06454572 0.0665002 -0.0069705807 0.22021599
0000e0 2a 01 51 3d 49 47 6e 3e 9c fe 80 be e6 a7 57 be
       0.0510265 0.2326938 -0.25194252 -0.21060142
0000f0 ac 98 da bd bb ef 7e be 2a c6 a2 3d e6 a2 1c be
       -0.10673651 -0.24896137 0.07947953 -0.15296516
000100 b6 c8 fe 3d 85 16 ba 3d 3a 03 56 be 35 79 79 3e
       0.12440626 0.090863265 -0.20899668 0.24362643
000110 9e 32 ca bc 40 65 b7 bc 49 c1 32 be fc 63 1c be
       -0.02468234 -0.022387147 -0.17456545 -0.15272516
000120 9a 66 35 bd ea d4 a6 bd 41 53 11 3e dc 25 1f be
       -0.0442873 -0.08146079 0.14191915 -0.15541786
000130 6c e0 71 bd 3c 29 f0 bd fd f3 62 3e 73 c3 71 3d
       -0.059051916 -0.11726615 0.22163387 0.059024286
000140 56 0d 1d be 1c 06 42 3d 1c 4c 3f 3e 4d 82 75 3e
       -0.15337119 0.047369108 0.18681377 0.23975487
000150 40 a5 74 3d 0c af 32 be f6 ed 03 bb 2a 84 2c be
       0.059727907 -0.17449588 -0.002013085 -0.16847292
000160 27 b1 2c 3e 32 e9 d8 3d 30 59 86 3d 2d 81 7c 3d
       0.16864453 0.105913535 0.0655998 0.06164663
000170 fb 8d a7 3d fa 65 43 3e 44 3d ae bc fd 68 cc bb
       0.081813775 0.1908187 -0.021269448 -0.0062381015
000180 01 87 1f 3e 36 48 aa bc 5a 84 53 3e fd 88 15 3e
       0.15578844 -0.020786386 0.20655957 0.14603038
000190 31 25 b5 3c 08 02 13 3e 5a 4f 67 be 54 d3 65 be
       0.02211246 0.14356244 -0.22588864 -0.22443897
0001a0 8b c6 f4 bc 56 17 5d 3e e3 e8 bf 3c 58 dc 87 bc
       -0.029879829 0.21590933 0.023426479 -0.01658456
0001b0 26 89 b9 3d 19 a9 23 bc a5 57 2a be ee eb eb bb
       0.09059362 -0.0099890465 -0.16634996 -0.007199756
0001c0 2b 2c 32 be 15 74 07 be 8c 55 b5 3d 01 66 53 3d
       -0.17399661 -0.13227876 0.088542074 0.05161095
0001d0 ea c4 27 be 76 1a 07 3e e8 cd d6 3d 90 1c 06 be
       -0.1638371 0.13193688 0.10488492 -0.13096833
0001e0 e8 39 56 3d 8a fd 78 be 7d b8 73 be 6a 31 d7 3c
       0.052301317 -0.24315467 -0.23800845 0.02626868
0001f0 2f 34 52 3d 73 a7 39 be da 7a 95 3b b4 9e 3c be
       0.051319297 -0.18130283 0.004561764 -0.18419915
000200 b6 b1 d8 bd 61 0e f6 3d 67 2a a7 bd d4 2d bd bd
       -0.10580771 0.12014461 -0.081623845 -0.09237257
000210 18 78 e7 3c 79 39 41 3e dc 08 c6 3d 9f b1 13 be
       0.028255507 0.1886958 0.096696585 -0.14423226
000220 e6 3a 7b 3e 75 33 4f 3e aa 5b 50 3e 81 cd 54 3d
       0.24534187 0.20234473 0.20347467 0.051953796
000230 bb 24 58 3e 84 54 5b be f9 41 2f 3e 3e fa 72 be
       0.21107762 -0.21418959 0.1711501 -0.23728272
000240 ec 3e fe 3c 68 f4 49 bd e5 34 5b 3e ed e6 94 3d
       0.031035863 -0.04930535 0.21406896 0.07270608
000250 22 7e 9e 3d 8f 24 e5 3b 8b 21 52 be 3c 1c 78 bd
       0.07738902 0.0069928835 -0.20520608 -0.0605738
000260 c2 36 6f bd 7e 09 b9 3d 55 90 66 3d 7d 09 10 3e
       -0.05840183 0.090350136 0.05628999 0.1406612
000270 09 7d f4 bd 5a ac 2f be eb ed 68 bd 97 fd 35 be
       -0.11937911 -0.1715559 -0.05686752 -0.17772518
000280 98 bc da bd ca 7e 60 3e e0 55 5c 3e 8f 31 9f 3d
       -0.10680503 0.21923366 0.21517134 0.077731244
000290 74 17 6c 3e 80 c3 1b 3e e2 5e d4 3d b2 e6 92 bb
       0.23055822 0.15211296 0.1036966 -0.0044830674
0002a0 85 f6 2d be ff b1 b3 bd 3c 4e 5d be 5f 89 2c be
       -0.16988571 -0.087741844 -0.21611875 -0.16849278
0002b0 47 3d df 3d 71 b8 3d be a6 b0 7b 3e 7b 82 dc 3d
       0.109003596 -0.1852739 0.24579105 0.10767075
0002c0 e7 aa 70 bc d8 db 46 be a6 dd 02 3d d1 e4 de bd
       -0.014689184 -0.19419801 0.03194966 -0.10883487
0002d0 26 8c 4f 3d e5 2c 6a 3e 8c 60 c3 3c 06 99 f7 bc
       0.050670765 0.22868688 0.023849748 -0.030224334
0002e0 74 d9 6f 3e c2 07 73 3e 7c 65 6f 3e 6f 4b 71 be
       0.23422796 0.23733428 0.23378557 -0.23563932
0002f0 80 e7 56 3e 26 8b 63 bd f1 be 79 bd e3 3f c4 bc
       0.20986748 -0.055552624 -0.06097311 -0.023956245
000300 f1 87 69 3e a6 44 2b 3e 65 6e 2e be 7b 2e 62 be
       0.22805764 0.16725406 -0.170343 -0.22088043
000310 4a 3b 2f be 99 81 45 3e 41 c2 41 3a 95 9b 25 3e
       -0.1711246 0.19287719 0.0007391312 0.16172631
000320 f4 03 ce 3d 29 a8 b2 bd 1a 5c d9 bd b5 2e 76 be
       0.10059348 -0.0872348 -0.1061327 -0.24041255
000330 8a 95 5b 3e 8f 0a 1e be d0 6b 41 bc 05 65 0c be
       0.21443763 -0.15433715 -0.01180549 -0.13710411
000340 27 32 5b be 32 55 2b be 76 7b b7 bd f0 5d d1 3b
       -0.2140585 -0.16731718 -0.08959095 0.006389372
000350 42 a6 9d bd ae de 85 bc ae 0f 1a 3e 6c 45 ee 3d
       -0.07697727 -0.016341534 0.15045044 0.11634335
000360 d8 02 97 3d f4 e3 1b 3e 3c 9e 2f 3e 24 10 c6 bd
       0.07373589 0.15223676 0.17150205 -0.09671047
000370 49 79 1b bc fa 47 43 3e b0 1a 3a be 1c c6 19 be
       -0.009489366 0.19070426 -0.18174243 -0.15016979
000380 92 6c b5 3d b1 9e 3c be cc 78 02 be ed 0f 6a 3e
       0.08858599 -0.18419911 -0.12741393 0.22857638
000390 22 fd 15 be fb 68 d4 3d 74 1b ca 3d 47 d8 26 be
       -0.14647344 0.10371586 0.098685175 -0.16293441
0003a0 c5 47 8b 3d b0 d2 b0 3c b2 0f ff 3d 9e 41 35 3e
       0.06800798 0.021584839 0.124541655 0.17700812
0003b0 bf 67 60 3e 1e 87 45 3e 7f b0 43 bc b4 79 57 3e
       0.21914576 0.19289824 -0.011943935 0.2104252
0003c0 d4 9b 37 be 66 8f 5b 3d d2 5f 9e 3d bd a8 d5 3d
       -0.17930537 0.053603552 0.0773312 0.10432575
0003d0 c6 09 ff bd 3d 05 28 bd a4 d6 0b be 53 8d b4 bd
       -0.12453036 -0.04102062 -0.13656098 -0.08816018
0003e0 e2 43 a4 3d 7f 64 c9 bd b6 f2 35 be 2b 6f 26 3e
       0.0802076 -0.09833621 -0.17768368 0.16253345
0003f0 ec df 59 be d1 72 fa 3d 25 5b c0 3d 07 fc 99 bc
       -0.21276826 0.12228931 0.093923844 -0.018796934

weight_hh_l0 f4 [48, 16]
000000 8a 2d 76 be 66 e2 f7 3c 57 80 62 be 0a 6f f0 3d
       -0.2404081 0.030259322 -0.2211927 0.11739929
000010 88 15 bf bd e1 e7 5c 3e a2 68 e1 bd 38 44 35 3e
       -0.09330279 0.2157283 -0.11006285 0.17701805
000020 64 fb 14 bd 7e 42 00 bc 3a ef 9e bd 25 ff 3c be
       -0.036372557 -0.007828353 -0.077604726 -0.18456705
000030 14 48 93 3c b6 9e 5c 3d 23 6c f4 3c 2c 8c d0 bb
       0.017978705 0.053862296 0.02983672 -0.006364366
000040 58 e4 23 be c6 f1 8a bc ef 23 48 be 13 57 1c 3c
       -0.16005075 -0.01696099 -0.19544958 0.0095422445
000050 b7 e9 41 bd 89 ee 35 be 92 52 0a be e6 88 77 3e
       -0.04734203 -0.17766775 -0.1350806 0.24173316
000060 a9 2b 41 3d 05 92 d4 bd 92 bd c7 bd c7 07 30 3e
       0.04716078 -0.103794135 -0.097529545 0.17190467
000070 1c be 96 bb 0a 7d ab 3c a7 87 8f 3d 06 16 3a 3d
       -0.0046002995 0.020933647 0.070082955 0.04543116
000080 2d 21 eb 3d 0e 98 c0 3d c8 c3 12 3e 0f 69 6c bd
       0.11480937 0.09404002 0.14332497 -0.05771738
000090 64 7c d9 bd 94 82 15 3b 01 de 0d b8 f8 e2 63 3e
       -0.10619429 0.0022813426 -3.3823777e-05 0.2225455
0000a0 60 82 54 bc 96 ad a0 bc 36 b2 f0 3d e3 45 42 3e
       -0.012970537 -0.019614022 0.11752741 0.18971972
0000b0 62 40 2a 3e 92 6d 4a 3e e1 9a 12 be 0b ed 15 bc
       0.16626123 0.1976836 -0.14316894 -0.009150754
0000c0 89 73 82 3e aa 94 3f be a9 c7 b7 3d 3c 4b 67 bd
       0.2547877 -0.18709055 0.08973629 -0.056468233
0000d0 57 d9 01 be 43 5a 6d 3d 80 94 08 bd 0e c5 05 3e
       -0.12680565 0.05794741 -0.033344746 0.13063452
0000e0 8d d4 0e b7 00 1d 65 be c1 03 13 be 95 00 1b 3d
       -8.513348e-06 -0.22374344 -0.14356901 0.037842352
0000f0 fd 9c b2 3c dc 68 ec bb 63 f8 eb 3c 9d d3 05 3e
       0.021803373 -0.0072146486 0.028804963 0.13069005
000100 11 d4 6e be 62 4d 24 be f3 f5 4c 3e 2a 2d 69 39
       -0.23323084 -0.16045144 0.20015697 0.00022237436
000110 37 ea 02 3e 43 ac f5 3c 5a 4d 13 be 7d 99 ee 3d
       0.12784658 0.029989367 -0.14384976 0.11650369
000120 33 03 21 3e 71 e2 37 bd 06 ee 0d be 9c 2d 24 be
       0.15723877 -0.044893686 -0.1386033 -0.16033024
000130 af bf d5 3d b7 7b 63 3e 27 e9 19 bd 1a 26 15 3e
       0.10436951 0.22215162 -0.037575867 0.14565316
000140 88 a9 6a be de 44 40 be cc 21 02 3e 6e 33 b6 bd
       -0.22916234 -0.18776271 0.12708205 -0.08896528
000150 3b 1f 2a be ef f5 98 bd 9a fc c1 3d 3e b6 60 3d
       -0.16613476 -0.07468783 0.09472008 0.0548613
000160 57 39 91 b5 5a 86 d1 3d 21 44 d1 bd fc 21 82 3e
       -1.082003e-06 0.10230704 -0.10218073 0.25416553
000170 0c 1f 9b bd 03 02 a1 3d 49 10 58 be 51 9c 07 be
       -0.07574281 0.07861712 -0.21099962 -0.13243224
000180 64 92 b9 3d 72 2a b5 3d 2f d1 d0 bd 75 93 dc 3a
       0.09061125 0.088459864 -0.101961486 0.0016828614
000190 e8 24 55 be bb f8 c8 bc 73 27 86 bd f0 b4 24 3d
       -0.2081486 -0.024532666 -0.06550493 0.040211618
0001a0 25 36 80 3b db 24 0d be b1 8a 49 be 2b 2b c1 bd
       0.0039127045 -0.1378359 -0.19681813 -0.09432062
0001b0 48 7b 6b be 51 08 7a 3e d5 96 cb bd 35 4f 5e 38
       -0.22996247 0.24417235 -0.09940878 5.3002692e-05
0001c0 87 df 86 3d 00 b3 08 3e cb 3d 08 be ee ce 80 bd
       0.06585603 0.13349533 -0.13304822 -0.06289469
0001d0 7b 69 02 3e 13 22 4e be f6 b2 a4 3c 80 22 01 3e
       0.1273555 -0.20130186 0.020104866 0.12610817
0001e0 2b 99 b4 ba 6a 62 63 3e 74 c6 98 3d 33 e2 52 be
       -0.0013778558 0.2220551 0.07459727 -0.205941
0001f0 f3 5f 94 3d 2e 7c 94 3c 69 a7 d2 bd 43 a9 fd b6
       0.07244863 0.01812562 -0.10285837 -7.559692e-06
000200 ad e2 12 3e 71 91 3d 3e d3 25 69 be c6 db 9f bd
       0.14344282 0.18512513 -0.22768335 -0.0780559
000210 3d 7b 03 3e 62 07 3e bd 85 51 84 bc 9d 78 d2 bc
       0.1283998 -0.04639376 -0.016152153 -0.025692279
000220 56 b1 55 bd 26 59 b7 bd fe ba e9 3d 53 b4 71 bd
       -0.052171074 -0.089525506 0.11412619 -0.05900986
000230 07 4f 8f 3d dd 96 67 be e9 67 ad 3d 8f 1d 51 bd
       0.06997495 -0.22616144 0.08467085 -0.05105358
000240 e3 f3 10 3e 33 a1 c9 3d 49 36 00 bd 50 f6 71 bd
       0.14155535 0.098451994 -0.03130177 -0.059072793
000250 88 fc 26 3e 7b 2d 1a be 16 e7 88 bb f9 05 83 be
       0.1630727 -0.15056412 -0.004177938 -0.25590494
000260 b4 ff c0 bd c0 84 1e be 13 08 00 be 07 d6 67 be
       -0.094237715 -0.15480328 -0.1250308 -0.22640239
000270 49 42 00 3e 7f 89 6a be 66 41 7a be 88 36 3a b8
       0.12525286 -0.22904013 -0.2443901 -4.4396642e-05
000280 26 7f 63 3e 71 db 52 3e 2f 00 0f 3e 0a 5f 5e 3c
       0.22216472 0.20591523 0.13964914 0.013572464
000290 5b c1 08 be 1f 4a 2b bd 94 be 20 be fa 61 46 bd
       -0.1335501 -0.041818734 -0.156977 -0.04843328
0002a0 65 eb 8f 3c 74 d4 ee 3c 9b 60 36 3e 7a ce 82 be
       0.0175683 0.02915404 0.1781029 -0.25548154
0002b0 f1 a8 eb bd 51 df db 3d d8 ef 20 3e d5 45 35 bd
       -0.115068324 0.107359536 0.15716493 -0.04425605
0002c0 c5 bb 58 3d 6b 33 1b 3e 10 e8 17 3e 40 40 87 3d
       0.052913446 0.15156333 0.14834619 0.066040516
0002d0 db 9d 81 bd a5 c8 ae 3d 1d 5e a8 3c 69 2f 0c 3e
       -0.06328937 0.08534364 0.02055269 0.1368996
0002e0 53 b6 02 bb 72 68 e5 3c ee b3 c0 bd 0e 1c 35 bd
       -0.00199451 0.028003905 -0.09409319 -0.04421621
0002f0 04 cd 18 3e 3c da 3f bd 6e 8b d2 bc 31 cc b3 bd
       0.14921957 -0.046838984 -0.02570125 -0.08779181
000300 ab 8d fd bd bb cb 19 3e 36 ce 09 3c 1b 82 67 bd
       -0.12380537 0.15019123 0.008410981 -0.056520563
000310 17 14 d7 3d 8a 42 0c bc c0 d5 cf 3d 96 90 c2 bd
       0.10501879 -0.008560786 0.101481915 -0.09500234
000320 01 89 e1 bd 3e 1d fd 3d 26 52 6f be 2b b4 a5 bd
       -0.110124595 0.12359093 -0.23371181 -0.08091005
000330 55 2a 1d 3d 6a f5 28 3e 88 f4 48 3d a4 bc 94 3d
       0.03837045 0.16499868 0.04906133 0.07262543
000340 e6 73 ba 3d 33 71 47 3c 72 c4 59 3e 6c e7 2c b8
       0.09104137 0.012172985 0.21266344 -4.1223524e-05
000350 e8 3f c3 bc ca 26 20 be 62 04 5a 3c d2 8c 1f be
       -0.023834184 -0.15639797 0.013306709 -0.15581062
000360 df 21 55 bc 83 25 03 3e 89 bc c4 bd 25 35 1b 3e
       -0.013008564 0.12807278 -0.09606273 0.15156992
000370 cc 5e 0b be a9 cd f5 bd fe 39 16 be e3 97 79 bb
       -0.13610381 -0.12002117 -0.1467056 -0.0038084916
000380 40 0a 45 3e d9 2c 19 3e 15 47 4c 3e b9 00 16 be
       0.19242191 0.14958514 0.1994899 -0.14648713
000390 46 3e 79 bd 43 54 da 3c c2 54 ff 3c cd 5b 09 3e
       -0.060850404 0.026651507 0.031168345 0.13413925
0003a0 3a d4 51 3d a8 aa be 3c 12 ac 6e 3d 62 d5 34 be
       0.051227786 0.023274735 0.058269568 -0.17659524
0003b0 33 18 d9 bd 6a 21 a7 3c ec 66 27 3d 6f 91 11 bc
       -0.10600319 0.020401675 0.04086964 -0.008884772
0003c0 63 24 24 3d cd d5 73 3c 93 ea fd 3d 56 36 1e be
       0.040073764 0.014882517 0.12398257 -0.15450415
0003d0 9c dd 02 3e e6 18 9f bd af 5a 48 bb 65 9b 03 3d
       0.1277985 -0.07768421 -0.003057163 0.032130618
0003e0 53 0f f7 3d e2 0e 08 bd ba 30 44 bd b5 f1 61 be
       0.1206347 -0.03321732 -0.04789803 -0.2206486
0003f0 50 f7 6f 3e e5 e5 ab bd 2e 15 2c bd 67 84 c2 bd
       0.23434186 -0.08393458 -0.042012386 -0.0949791

bias_ih_l0 f4 [48]
000000 21 90 d8 3c cf 4d a0 bd 95 60 36 3e 8d 1b 3c be
       0.026435914 -0.07827341 0.1781028 -0.18369885
000010 c0 11 6c bc bd f4 58 be b7 51 01 be 61 ab 3a 3c
       -0.014408529 -0.2118711 -0.12628828 0.011393399
000020 5f 14 13 be 56 cb 06 be 30 23 2e be 4d 23 09 3c
       -0.1436324 -0.13163504 -0.1700561 0.008370233
000030 2c 72 83 3d 68 3b 0b 3e c3 9b 18 bb 77 8b cb 3c
       0.06418261 0.1359688 -0.00232862 0.024846775
000040 4a 17 28 be ee 4f 08 3d dd 5b 49 bc 81 7f 2c be
       -0.16415134 0.033279352 -0.012289968 -0.16845514
000050 45 f8 1a be ba aa b1 bd f8 27 42 3d 44 1d 33 3e
       -0.1513377 -0.08675142 0.0474014 0.17491633
000060 5e fb d0 3d 4b 5d 11 3e 7e ce 50 be 8c 5d 06 3e
       0.102041945 0.14195745 -0.2039127 0.13121623
000070 3c 20 f3 bd 1c d5 72 be f0 f0 00 bd dd e2 1b be
       -0.118713826 -0.23714107 -0.031479776 -0.1522326
000080 e3 ba 35 be dc 83 bf 3d 4a cf 71 bc 0c f3 31 be
       -0.17747073 0.09351322 -0.014758894 -0.17377871
000090 93 0d 9b 3c 79 f7 41 be fb 54 3e 3d 9b f3 6b 3d
       0.018927371 -0.1894206 0.046467762 0.057605367
0000a0 14 41 84 bd 53 4a b5 3d 9e 64 3b be 30 77 f5 bd
       -0.06457725 0.08852067 -0.18300101 -0.11985624
0000b0 80 c4 58 bc 29 12 35 3d 77 33 b4 3d 1c 8e b8 3d
       -0.013230443 0.044206772 0.08798879 0.0901148

bias_hh_l0 f4 [48]
000000 1c d0 b0 bd 78 a5 41 bd 82 ef 26 3e 49 6f 1a bd
       -0.08633444 -0.047276944 0.16302302 -0.037703786
000010 76 01 c9 bd 67 1e 0d be 50 96 6c 3d ff 3a f4 bd
       -0.09814732 -0.13781129 0.057760537 -0.11925315
000020 0d 44 3b bc c0 a9 39 be 6e a3 d2 bc 09 94 be 3d
       -0.011429799 -0.1813116 -0.025712695 0.09305579
000030 58 e6 49 3d 07 dd 49 be 39 b2 8f 3c c7 45 3e be
       0.04929194 -0.19713221 0.017541038 -0.18581305
000040 56 6a 22 3e f0 90 d1 bd 3d 93 dd bd df 6f 12 3e
       0.15860876 -0.10232723 -0.10819099 0.14300488
000050 4f de 1e 3e eb c4 f9 bd 37 29 4b be e3 5c 5a bd
       0.15514491 -0.12195762 -0.19839941 -0.05331124
000060 a2 b7 49 3e ec 80 5e be 9e f5 81 be 07 22 35 3e
       0.19698957 -0.21728867 -0.25382704 0.17688762
000070 45 c4 cb 3d b7 27 2f be 0a 02 4a 3e 0d b5 a3 3d
       0.09949545 -0.17104994 0.1972734 0.07993517
000080 0d e5 58 bd da 73 1a bc 50 25 37 3e ac 6e 58 3b
       -0.052952815 -0.009427035 0.17885327 0.003302495
000090 05 86 5c 3e 77 e6 0c be 1f 18 8e bd 1e 40 45 be
       0.215355 -0.1375979 -0.069381945 -0.1926274
0000a0 ea 59 4e 3e b6 9b f8 3d 3e 33 79 3d 95 18 b7 3d
       0.20151487 0.121390745 0.060839884 0.089402355
0000b0 71 9f b1 bd 07 fa 6a bd b4 25 0c be d3 dd 23 be
       -0.08672989 -0.05736735 -0.13686258 -0.16002588

weight_ih_l0 f4 [3, 11]
000000 7b 77 5c 3f b7 29 76 bf 10 42 db be 5f 44 03 bf
       0.8611981 -0.961574 -0.4282384 -0.512762
000010 ca 02 b1 be 37 ee 75 bf eb 3b 54 3f 4e dc 57 3f
       -0.3457244 -0.9606661 0.8290393 0.84320533
000020 3f 9c ab 3b 0f 1a be bb 73 56 5e bf 5b 96 17 3f
       0.005237132 -0.0058014463 -0.8685066 0.592138
000030 78 37 2c 3f 04 b7 ce be 26 53 54 3f 62 97 3e 3f
       0.6727214 -0.40374005 0.82939374 0.7444974
000040 00 4c 27 3f 7b ff 2a 3f 21 9b 0f 3f eb 6c 24 3f
       0.6535034 0.6679608 0.5609608 0.64228696
000050 4f 76 1b bf 1e 6f 6f 3f bb c2 fa 3e 6a 0a 93 be
       -0.607274 0.93528926 0.48976693 -0.28718883
000060 ea 16 bb 3d 0f f2 f1 be 8c 2e 93 3d bf d9 68 be
       0.0913523 -0.4725499 0.071866125 -0.22739314
000070 b6 71 89 be 6d 41 2f 3f 24 0e 1d 3f 7f f5 05 3f
       -0.26844567 0.68459207 0.613497 0.5232772
000080 2a bd 6c bf
       -0.9247614

weight_hh_l0 f4 [3, 1]
000000 22 51 4f 3f 7f a5 5c 3e 14 ea 4d 3f
       0.80983174 0.21547507 0.804353

bias_ih_l0 f4 [3]
000000 2f 23 3f bf a5 7b 2b 3f c7 1a 89 be
       -0.7466306 0.6698554 -0.26778242

bias_hh_l0 f4 [3]
000000 05 ca fb be aa 0d 41 bf 51 88 8b 3e
       -0.49177566 -0.75411475 0.2725244

weight f4 [1, 16]
000000 d0 65 92 bd f9 b3 04 be 05 45 40 3d 2e 84 78 be
       -0.071483254 -0.12959279 0.046940822 -0.24269173
000010 fd 44 0a be 74 ba 63 be 2f 1a e0 3d a1 ca 4b be
       -0.1350288 -0.22239095 0.10942494 -0.19901516
000020 db 08 73 be d1 eb cf 3d e3 39 1f 3b 94 a1 c8 bc
       -0.23733847 0.101524 0.0024295978 -0.024491109
000030 1c 40 0e 3e 4b 48 07 be 13 9f f1 bb e5 64 5f 3e
       0.13891643 -0.13211171 -0.0073736995 0.21815832

weight f4 [680, 17]
000000 a0 5f 4a be 59 6a 41 3e 2f 32 8f bd 87 36 ff bd
       -0.1976304 0.18888225 -0.06991994 -0.12461572
000010 25 60 8e bd eb 01 2d be 70 00 49 be 32 ef 32 3e
       -0.06951932 -0.16895263 -0.19629073 0.17474058
000020 92 a2 25 3d 87 04 08 bd 2a 69 94 bd 2d ba 8c bd
       0.040438242 -0.033207443 -0.07246621 -0.06871448
000030 5c 34 b2 bd ba 96 e6 3d b4 c5 11 be 2c 79 f8 3d
       -0.08701393 0.112592176 -0.14235574 0.12132487
000040 e9 2e 48 be 9d 2c 2d bc 0f da 3b 3c 42 8d ae 3d
       -0.19549145 -0.010569719 0.011465563 0.085230365
000050 21 ce 1d bb ba d9 3c 3e 0d 98 9a bd 21 1f 1d be
       -0.0024079161 0.18442431 -0.07548533 -0.15343906
000060 7a bd 70 3e 80 f7 41 3e 07 9a 76 bc e0 d0 5f bd
       0.2350978 0.1894207 -0.015051371 -0.054642558
000070 ab 7a 31 3e aa 3d 44 be a3 ed 48 3e d7 3b 1e 3d
       0.1733195 -0.19164148 0.19621901 0.038631286
000080 f8 3e 34 be 58 86 0d be 6e 6a 3a 3e 58 1e 23 be
       -0.17602146 -0.1382078 0.18204662 -0.15929544
000090 0b d2 45 3e fb d2 1f be 61 c1 66 3d e9 c0 16 3e
       0.19318406 -0.15607826 0.056336764 0.14722027
0000a0 0f 60 92 bd fe e9 01 3e bd d1 2e 3e 54 9c 3b 3e
       -0.07147228 0.12686917 0.17072196 0.18321353
0000b0 09 31 59 3e 80 bd 44 3d 78 0e 00 3d e9 0b 4e be
       0.21210112 0.048032284 0.0312638 -0.20121731
0000c0 27 54 1c be 53 2b 6d 3e 9c 0e 7d 3e e0 fe 25 bd
       -0.15266477 0.23161058 0.24712604 -0.04052627
0000d0 70 65 17 be cb aa fc 3d 52 8c d9 3d cc 7f 1a 3c
       -0.14784789 0.12337264 0.10622467 0.009429883
0000e0 a1 e0 df bd 1b 4f 84 bb 61 27 46 3e 94 5b 42 bd
       -0.109315164 -0.0040377504 0.1935096 -0.047450617
0000f0 65 e5 15 be 34 7b 1f 3e aa 11 70 3d 8b ca 13 be
       -0.14638288 0.15574342 0.058610596 -0.14432733
000100 9d 88 c0 3d a6 3d 37 be 26 be 3c be 0d ee 41 be
       0.09401057 -0.17894611 -0.18431911 -0.18938465
000110 5e ac 2f bd ff a5 a1 bb 21 0e 8a b8 17 1e 61 bc
       -0.04288899 -0.0049331184 -6.5829845e-05 -0.013740084
000120 3b ee 6e bd b6 09 0c 3e 80 72 8e b9 6e 36 ff bd
       -0.058332663 0.1367558 -0.0002716966 -0.124615535
000130 9a b4 e8 37 73 fb 02 3e 4b 6c b8 3d 35 0f b8 3d
       2.7740654e-05 0.12791233 0.0900503 0.089872755
000140 ea 3e 00 bb 90 fd d0 3c 39 45 89 bb f1 c6 90 b7
       -0.001956875 0.025511533 -0.00418916 -1.7258777e-05
000150 89 9d 0e bb c3 a9 fa bd 39 3f 09 be 57 d4 77 be
       -0.0021761379 -0.12239411 -0.13403024 -0.24202095
000160 26 94 a3 3d 09 a8 64 3d c2 86 2a be c5 b2 07 3e
       0.079872414 0.055824313 -0.16652969 0.13251789
000170 f1 67 28 be 94 38 f5 bc 5a 6c 64 3d 4a c4 f7 3d
       -0.164459 -0.029934205 0.055767395 0.12097986
000180 7b aa eb bd 8a 6b 4f bd b9 de e3 3d d4 26 37 3e
       -0.11507126 -0.050639667 0.11126465 0.17885906
000190 2e ee 11 bd ae 2b 4c bd b0 f2 0d 3e 3a d7 55 bc
       -0.035627536 -0.049846344 0.13862109 -0.013051802
0001a0 b4 85 42 39 ee 52 05 3d 86 48 6f 3c c1 f3 ad bd
       0.0001855109 0.03254979 0.014604693 -0.08493758
0001b0 fb b9 08 be 46 14 6f bd b3 75 0d bc af 56 8d 3d
       -0.13352196 -0.058368944 -0.008634019 0.06901299
0001c0 01 c4 11 3c 08 d4 af 3d 9e 02 12 bd ab 62 7e b8
       0.008896829 0.085853636 -0.035647027 -6.065021e-05
0001d0 01 22 b4 bd d2 50 8f b9 dd 6d c7 36 0b d3 ad 3c
       -0.08795548 -0.000273353 5.943452e-06 0.021218797
0001e0 89 4e 38 3e 2c 37 dc 3d 84 9f 4f 3d 9b 35 4f be
       0.17998709 0.10752711 0.050689235 -0.20235293
0001f0 c9 3c f8 3d b1 67 40 3e 3f 81 90 bb 32 d2 24 be
       0.12120969 0.18789555 -0.0044099386 -0.16095808
000200 97 55 b9 bd 7f 75 12 3e 1f 0a d6 bd ba ec 6b 3e
       -0.09049528 0.14302634 -0.10451149 0.23039523
000210 e3 9e a3 ba f8 bd c1 bd 07 5e 47 3e 2f e0 6a 3e
       -0.0012483265 -0.09460062 0.19469462 0.22937082
000220 e6 fc 19 3e 53 94 48 be 7f de 59 3e d9 c9 1b bb
       0.1503788 -0.19587831 0.21276282 -0.0023771434
000230 09 ae d2 bc 12 25 3d 3b a5 ca 3e 3e 7f 6f 44 be
       -0.025717752 0.0028861207 0.1863199 -0.19183157
000240 6c 11 2e 3e a5 fd 2b be dd 09 11 3d 75 a3 ff 3d
       0.16998833 -0.16795976 0.035409797 0.12482349
000250 b2 df b7 3d 87 77 43 be 40 6a 1d be f8 d4 d6 3d
       0.08978213 -0.19088565 -0.15372562 0.10489839
000260 ef 8f 8c 3c 3f a5 10 3e e6 f9 4e 3e 77 19 68 be
       0.017158477 0.14125536 0.20212516 -0.22665964
000270 83 41 5f b9 e8 a4 cd 3d 4a b5 8a 3d 6a ea 2e 3e
       -0.00021291342 0.10041219 0.067728594 0.1708161
000280 ee 9a 6a be 66 99 86 bd 2c d4 fc 3d 8e cb 61 3e
       -0.22910663 -0.06572227 0.12345156 0.22050306
000290 ee ca df 3b 46 d3 64 be 4a ea c3 bd db 76 1b be
       0.006829611 -0.2234622 -0.095661715 -0.15182059
0002a0 e9 29 23 be d9 58 2f 3e 12 87 47 3e aa 95 52 3d
       -0.15933956 0.17123736 0.19485119 0.051412262
0002b0 ec 88 d5 bd d8 01 65 be 67 3e d1 3d 9b 39 ee 3c
       -0.104265064 -0.22363985 0.102169804 0.029080203
0002c0 29 15 63 be 88 5a 1f be 63 80 9c 3d 7f 23 28 3d
       -0.2217604 -0.15561879 0.07641675 0.041049477
0002d0 e1 a8 19 be 49 b6 b1 3d df a3 b0 bd f7 86 65 3e
       -0.15005828 0.08677346 -0.08625006 0.22414766
0002e0 d0 59 73 be 7b df dc 3d 08 f6 ec 3d ec 74 1f bd
       -0.2376473 0.10784813 0.11570364 -0.038929865
0002f0 1a 0f 3f 3b 15 a6 8e 39 8b 26 82 b8 d0 fe 0a be
       0.0029153288 0.0002720809 -6.206062e-05 -0.13573766
000300 dc ad af bd 79 c1 13 3d 1b b9 02 be 1c b6 83 3d
       -0.08578083 0.03607318 -0.12765925 0.06431219
000310 f8 e5 5b bd c9 0e 4c 3d 71 e8 20 3e 8f d7 69 3c
       -0.053686112 0.049818788 0.1571367 0.014272585
000320 da 6c 5d bd 77 70 48 3d 29 e5 18 3e bd fa c3 bd
       -0.054058887 0.04893538 0.14931168 -0.09569309
000330 09 13 58 3e 21 96 d0 bd 22 2f 30 3e d0 15 63 be
       0.21101011 -0.10184885 0.1720548 -0.2217629
000340 2b de 0d be 1e 87 ab 3d 51 76 19 3e 81 0e 5e be
       -0.13854282 0.08375381 0.1498654 -0.2168522
000350 e0 4d 99 bd 82 93 98 3d fd 26 05 3e d0 ed 1d be
       -0.074855566 0.0745001 0.13003154 -0.1542275
000360 b7 0a 63 be 4e 8a d3 bd 9a 82 59 3e 7c 38 b8 3c
       -0.22172056 -0.10329114 0.21241227 0.022487871
000370 a5 c9 93 3b 31 c4 47 3c b6 6e ad bb 8c 05 33 3e
       0.004510122 0.012192772 -0.005292739 0.17482585
000380 00 66 4b be 97 6f 04 bd 81 42 e3 bc 82 c7 be 3d
       -0.19863129 -0.032332983 -0.027741672 0.09315397
000390 9f ea 06 3e 2b 27 37 bd 47 f8 d7 3d 47 a2 59 3e
       0.13175438 -0.044715088 0.10545402 0.2125331
0003a0 b6 28 e9 3d 15 6d 2d bd 71 a6 71 3e ec 58 74 3e
       0.11384718 -0.042340357 0.23598649 0.23862046
0003b0 fd 7a 89 bd f4 c8 6f 3e b0 87 56 3e 65 1e ec 3b
       -0.06712911 0.23416501 0.20950198 0.0072057717
0003c0 36 4c b6 3d 3c 12 24 3d d0 79 d0 3d 9a f8 a2 bd
       0.08901255 0.040056452 0.10179484 -0.07957573
0003d0 aa 7d 3e bd 93 b8 68 be d4 bd 9b 3d 38 29 2b be
       -0.04650656 -0.2272666 0.07604566 -0.16714942
0003e0 17 ec 0e bd 3c 5c d9 3d 40 66 48 be 27 a4 ef bd
       -0.03489312 0.106132954 -0.19570255 -0.117012314
0003f0 fc c4 42 3d a1 8e b3 bd ef 49 9f bd bd 66 c2 3d
       0.04755114 -0.08767439 -0.077777736 0.09492252

bias f4 [680]
000000 38 11 67 3e 02 2a 76 3e 6a db 16 3d 4e 65 0c 3d
       0.22565162 0.24039462 0.036830343 0.0342763
000010 f3 46 b5 bd 04 43 01 3e 7e 33 9a bd 3d 4a 30 3d
       -0.08851423 0.1262322 -0.075293526 0.04303955
000020 90 b1 28 3e 43 97 72 3d a0 86 5d 3e d8 ad 15 be
       0.16473985 0.059226286 0.21633387 -0.14617097
000030 a8 44 93 3b ab 88 94 3c 8b 50 2a 3e a8 8e 00 be
       0.0044942684 0.018131575 0.16632287 -0.12554419
000040 d8 f3 13 3e b9 cc 54 3e 62 72 15 3e 7f be 75 bd
       0.14448488 0.2078122 0.14594415 -0.059996124
000050 19 9f d1 3c 5c 91 b1 3c cb 43 db bd d1 d7 93 bd
       0.025588559 0.021675758 -0.1070629 -0.07218898
000060 d0 60 f1 3d 00 76 5f 3e e5 9a 26 3b 16 83 69 3e
       0.11786044 0.21822357 0.0025421914 0.22803912
000070 a0 24 21 bd 3d 3a 91 bd 20 b4 5e 3e 65 b1 11 bc
       -0.03934157 -0.07091186 0.217484 -0.008892392
000080 0c f3 51 3e b7 e9 ae bd e3 ed c8 3d 8a 26 0c be
       0.20502871 -0.08540671 0.09810998 -0.13686576
000090 6c 81 12 3d d8 2c 6f 3d 1a 15 22 3e c0 f7 3e bc
       0.035767958 0.058392376 0.15828362 -0.011655748
0000a0 99 a4 df bc b4 eb 4d bd 8a e4 39 3e 96 59 05 3d
       -0.027300166 -0.050273612 0.18153587 0.03255614
0000b0 98 11 0e be b6 4f 0b 3d bf e3 29 3e 23 6a 3f 3e
       -0.13873899 0.034011565 0.16590784 0.18692832
0000c0 f6 c5 3a bd 30 df 07 3e 55 39 cb 3d e6 73 27 3d
       -0.045598947 0.13268733 0.099230446 0.040882014
0000d0 99 f9 4d 3e 24 e6 2f 3e 5f 07 24 bd 46 92 11 3e
       0.20114745 0.17177635 -0.040046092 0.14215955
0000e0 c6 f3 da bd 17 11 94 3c 83 4d f1 3d 8d c8 51 3e
       -0.10691027 0.018074555 0.11782362 0.2048666
0000f0 50 84 86 3c bd 20 30 3e 2b f4 d8 3d 2b e7 77 3c
       0.016420513 0.17199989 0.10593446 0.015130798
000100 62 ae 53 3d ca 48 6b 3e ef 26 ba 3d 9e 25 64 3e
       0.051679976 0.22976986 0.09089457 0.22279975
000110 77 99 0e be fa bf 01 bd 03 dc 23 3e 4d df f3 bd
       -0.1392573 -0.031677224 0.16001897 -0.119078256
000120 78 d7 65 bc 06 52 f5 bc 31 07 c8 3c 66 2c 8a bc
       -0.014028423 -0.029946338 0.024417492 -0.016866874
000130 9a 1f 82 3c fe 70 1d be 33 cb 17 bc 35 fb 22 3e
       0.01588421 -0.15375134 -0.009264755 0.1591614
000140 dc 5c dd bc 1a 88 41 3e fa 87 da bd 36 2c 2e be
       -0.027021818 0.18899575 -0.10670467 -0.17009053
000150 d6 67 b7 3d d6 a7 6a 3e b6 9b 82 3d 20 80 3a 3e
       0.08955352 0.22915587 0.06377356 0.18212938
000160 b2 17 08 bd f3 90 20 bd 9f 45 a4 3d 03 25 55 3e
       -0.033225723 -0.039200734 0.08021092 0.208149
000170 08 dd 68 be 7f 06 9d bc 45 57 f6 3b df a0 df bb
       -0.22740567 -0.019168137 0.0075177276 -0.0068245973
000180 7c 76 86 bd c7 71 6c bd 29 4d 8c 3d 41 d2 5b bd
       -0.06565568 -0.057725694 0.06850655 -0.05366731
000190 d2 d5 43 bd 61 f3 c7 3c 12 d0 78 bd 56 4c 1f 3e
       -0.047811337 0.024408044 -0.060745306 0.15556464
0001a0 ab 32 0a be bd 70 f4 bb 84 b8 7c bd cc 00 11 3e
       -0.13495891 -0.0074597285 -0.061699405 0.1416046
0001b0 80 3d 02 be f3 de 1d 3e 09 6d 12 bb 5c 08 c1 3c
       -0.12718773 0.1541708 -0.0022342822 0.023563556
0001c0 1c e4 a3 3d c8 2a 27 be 43 ce 47 bd 6d 0e 3c bc
       0.08002493 -0.16324914 -0.04878069 -0.011478049
0001d0 3a 3c c1 bd 12 20 f3 bd 3a d0 9f 3d 2d 64 5b bd
       -0.094353154 -0.11871351 0.07803388 -0.053562332
0001e0 fd 47 1f 3e 38 79 bb 3d f1 c1 01 be 0c 53 13 bc
       0.15554805 0.0915398 -0.12671639 -0.008991968
0001f0 3f 44 19 be aa 1b 8d 3d 04 20 68 bd cb d9 a1 bd
       -0.1496744 0.06890042 -0.056671157 -0.07902869
000200 7d f0 41 3d 0d 5e e3 3d 76 bc 3f 3e e1 a3 7f 3d
       0.047348488 0.11101923 0.18724236 0.062412146
000210 f0 24 81 bc 82 73 42 3e 4c ef 09 be 4e e2 85 38
       -0.015764683 0.18989375 -0.13470191 6.384087e-05
000220 f1 21 6d 3e 76 01 0a bd 87 95 36 be d9 25 46 3e
       0.23157479 -0.0336928 -0.17830478 0.19350375
000230 29 7f 87 bd bc 16 80 bd 60 c9 d5 bd 07 05 1c be
       -0.06616051 -0.06254336 -0.104388 -0.15236293
000240 a9 a7 1a be 95 db e0 3d 73 d4 b4 bd ca 0b 4d 3d
       -0.1510302 0.10979382 -0.08829584 0.05006007
000250 73 4f d3 3d ba 4f 6c 3e 6d 66 d6 bd 49 f4 83 3d
       0.10317888 0.23077288 -0.10468755 0.06443078
000260 67 8d 34 3c a0 ec a7 bd 4d 7c ef bd dd 59 46 be
       0.011020041 -0.081994295 -0.1169363 -0.19370218
000270 0d ee 37 3d f8 17 09 3e 93 73 99 bd 6d ae 1a be
       0.044904757 0.1338805 -0.07492747 -0.151056
000280 ee 8b 50 3b 38 ba 93 3d 46 cd 1b be bb 37 3b be
       0.0031821686 0.07213253 -0.15215024 -0.18282978
000290 13 ab 0c bd 25 29 a8 bb 87 59 ef 3d 34 7e 6d 3e
       -0.034342837 -0.005131858 0.11686998 0.23192674
0002a0 80 66 64 3d e0 da 19 bc 9c 6d 1c be 28 22 cc bd
       0.055761814 -0.009390563 -0.15276188 -0.09967452
0002b0 c8 48 15 bd 09 24 93 bd 07 c1 15 3e f8 74 d4 3d
       -0.036446363 -0.071846075 0.14624415 0.103738725
0002c0 4e c6 08 3b 42 7f b9 bb 73 b7 48 3e 93 b3 37 3e
       0.0020870152 -0.0056609223 0.1960123 0.17939596
0002d0 78 01 d5 bd fc d7 7a 3d 83 b8 02 be b6 f3 71 bd
       -0.10400671 0.061241135 -0.12765698 -0.05907031
0002e0 2d 47 49 3e 12 f0 6b 3e 4e 53 dd bd ce 74 38 be
       0.19656058 0.23040798 -0.10806905 -0.18013307
0002f0 d0 af 2c 3e 97 33 03 be a6 5a 1f 3c 5d 42 87 3d
       0.16863942 -0.12812649 0.009726202 0.06604455
000300 85 17 bf bb e6 17 4f bd 44 09 9c bd fe 25 d2 bd
       -0.005831661 -0.0505599 -0.07618955 -0.10261153
000310 67 35 bc bd a8 94 cf 3d 88 cd 4d bd d5 a6 5b 3e
       -0.09189873 0.10135776 -0.050244838 0.2145036
000320 46 17 59 3e 3a af 1a 3e 94 69 46 bd b1 17 5c 3e
       0.21200284 0.15105906 -0.04844053 0.21493413
000330 86 47 a9 bc d8 3d b6 3d 5c 3a 80 bb b0 dd f7 3d
       -0.020663988 0.088985145 -0.003913207 0.121028304
000340 4e 37 b0 bd 3d 6e fa 3d e1 6e c4 3d a9 1e 31 bd
       -0.086042985 0.122280575 0.09591461 -0.04324213
000350 df f9 04 be e3 88 8b bd ab 33 27 bd f6 01 c0 bc
       -0.12985943 -0.068132184 -0.04082076 -0.023438435
000360 0b 59 b8 3d ce 0e bf 3c cb 56 8f bd 5d 8c cf 3c
       0.090013586 0.02332249 -0.06998976 0.025335485
000370 36 2d b1 3c c1 62 f8 bd 25 0c 10 be d5 06 67 3e
       0.021628004 -0.12128211 -0.14067133 0.225612
000380 b5 e1 e7 bd 3f 83 44 bd 5b 4f f1 3d ac ff 11 3d
       -0.11322347 -0.04797673 0.11782714 0.03564422
000390 cf 11 3c bd 3f 45 15 3e 2a 36 91 3b 69 59 09 be
       -0.04591542 0.14577197 0.0044315057 -0.13413014
0003a0 a8 f0 6c bc f2 24 58 3e a2 18 23 be e6 4f ef 3d
       -0.014461674 0.21107844 -0.15927365 0.11685161
0003b0 f5 99 3e 3e 82 3c b4 3d 2b 6d f7 bc 23 35 e4 3d
       0.18613417 0.088006034 -0.030203423 0.111429475
0003c0 39 7f c2 bd 69 80 8b bd 3a 85 a3 bc a1 8f 7c 3d
       -0.09496922 -0.06811602 -0.019960988 0.061660413
0003d0 f4 2c d8 3d a7 e5 fd 3d ab 7f 10 be b4 dd 03 be
       0.10555449 0.12397318 -0.14111201 -0.12877542
0003e0 d2 81 21 be d3 f5 57 be fe 0c 73 bd 4c c5 6e 3e
       -0.15772179 -0.21089868 -0.059338562 0.2331745
0003f0 54 f7 15 bd 63 13 2f 3d cc 75 35 bd 13 89 8c bd
       -0.036612824 0.042743098 -0.044301793 -0.06862082
