estimators/knet/single_obs/KalmanNetNN_lossMSE_ep100_train4000_val1000_test10000_lr5e-04_wd1e-05_data_sr1e-01_q1e-04_r1e-02_j5_train[500,100]_val[100,100]_test[100,100].pt (torch, 154284 bytes, 40 tensors)

weight_ih_l0 f4 [48, 20]
00000000: cfc3 5cbc 7ee0 973d 1d98 2d3e 4e0a f03c
00000010: 3a5e 71bd ea01 c43d 756f 92bc cc0a a03d
00000020: 54f8 1bbe 35e2 b73d b18c 93bd 5794 48be
00000030: 6de6 603d 21c4 833c 0042 b2bc 711c 98bb
00000040: f8bf 6a3b c0d3 1bbd 7c7a 6a3e 5f9a 07be
00000050: 3453 46be 711a 383e 245e 37be b9b6 063d
00000060: 8858 3bbe 104f 61be e441 f93c aeb0 303e
00000070: afb5 6abe 70bd 9ebd e994 703e 4beb 49be
00000080: e52c 183e 9e43 233e 8889 44be c7bb 55be
00000090: 9a49 39be de8b 62be dc2e 103e 4dd2 50be
000000a0: 7556 963d dd58 4ebe 40c1 74be 92c9 26b8
000000b0: eef1 81bd 7a29 75be 09a4 77bd 1747 47be
000000c0: aff8 82be 90ac 123e e324 ebbc 33f6 17bd
000000d0: c633 963d b0f5 76be 8826 913d 2f1d 463d
000000e0: b3fc e1bd e6b8 253d 3c2e 66bd 8cde cabd
000000f0: 3dd2 dd3d c9a1 7a3d fab9 cd3d eb80 493e
00000100: 89ef 3abe 27bb 0abe b261 49bd 6978 333e
00000110: 3c1c d4bc 0fda 91bd 6d63 763e 6898 04bd
00000120: c072 773e b2d0 5f3e 7ba7 54bc 81e4 fa3c
00000130: ce16 823e cefc 1b3e 950c 2cbe 3404 c73d
00000140: 9649 3e3d 7608 423e 4b3c 7a3e 428a 2e3e
00000150: c5e0 74be 918b f9bc fb3f e63d 3cba fabc
00000160: f6ab 4b3e 45d8 0abe ad6c 0c3e 476c 1cbc
00000170: 318f 41be 7b54 ebbd 272a 1dbe 688e 723d
00000180: 09ca 623e fb8e 05bd 5b7c 2bbc d671 483d
00000190: 272a bd3d f7c6 a0bc 0c5b 6c3d fa11 41be
000001a0: 7440 653e 5f4a 34bd f8ac 193c d182 82bd
000001b0: 6676 7bbe 9693 733e 965e ce3d 951a b0bd
000001c0: 9292 153d ca82 4d3e 5e53 513e 3015 bbbd
000001d0: f747 053e f956 36bd b3b8 403d 4b85 10be
000001e0: a3e9 3d3d 759f 6a3d 390f ee3d efb1 613c
000001f0: f356 44be 1f0c 593e 9016 eabd 95ae 603e
00000200: 3a26 72be a53b c03d 005d f7bc 8f04 123e
00000210: 47e6 54bd 9458 62be 4965 f93c ccc9 5fbc
00000220: 6d9a ca3d 4d2e aa3d 45db 173e 1fe7 bc3c
00000230: a87b 4c3e c588 07be e8f7 62be 1005 a53d
00000240: 2294 67be d25f ae3c 3b17 57bd 5b6d 183e
00000250: cea1 b63d 04e9 38be 331f e13d 8951 813c
00000260: dbfe d0bd 486b 6b3e 44d2 0bbe 9648 2bbe
00000270: 06e4 0d3b 7e40 12be 5a9e 163e fbe4 8dbd
00000280: d0f9 b13c 62fb 70be 7fa6 5b3e b084 4ebe
00000290: 1c6c 053e a464 283e bd04 703e 8906 d0bd
000002a0: f9a6 07bd 6227 3dbe cd9f 073e c6f9 33be
000002b0: e29e 333e 24e1 f33d aad3 153d b276 243e
000002c0: bd0f 49be 4f0b 4fbe afbb 3fbd d667 223e
000002d0: 8d40 9f3d 3d99 a5bd ed50 58be 28d8 143c
000002e0: c5d5 78be 036e 6b3e 2ecb e03c ca3f e43d
000002f0: bee9 7f3d 8e6d 73bc e67f 283d fa87 10bd
00000300: 1f72 eabc cc26 183d 1556 423d 7f15 a23c
00000310: a2ab a53c c3e3 233e 010d 1e3d 735f d7bd
00000320: 27aa 70be 17d8 203d 3947 7cbe da94 463e
00000330: f417 3cbe c3b2 4e3e 6ee5 6dbd d434 9d3c
00000340: bfc2 5dbe 655a 46bd 013e b3bd 6e6f d7bd
00000350: d5c0 4f3e 777a 49be 988c 2dbe 1e48 69be
00000360: 12ed b63d 1dd1 373e 3479 23be 7089 0abe
00000370: 4070 913d 3d5c f2bd d6de 2fbd a5e1 a53d
00000380: 6cee 7cbd 5eca 23be ad09 4abd 60ff d73d
00000390: c0ab ccbd e053 fdbc 13ec 1bbe a784 473e
000003a0: e2c0 99bc e311 9bbd 5f86 45be b5e7 56be
000003b0: cc2c e5bd cd56 9d3c 5fcf 4cbd 490b 8abc
000003c0: 0de1 7a3e 751f f73d e441 f4bd 55b7 0dbe
000003d0: c2da 363e 5b59 443e 297c 17be ce10 ac3d
000003e0: 7836 78bd 2f54 cdbd e612 efbd 3c4c 4ebe
000003f0: 10b2 a7bc 1f97 01be 4070 8e3c ae5d 623e
-0.013474419 0.07415865 0.16952558 0.029301789 -0.058927752 0.095706776 -0.017875412 0.07814559
-0.15231448 0.089786924 -0.07204569 -0.19587837 0.05490725 0.016084732 -0.021759987 -0.0046420624
0.0035819989 -0.038043737 0.22898287 -0.13242482 -0.19367677 0.17978837 -0.17907006 0.0328891
-0.1829549 -0.22002816 0.030426927 0.17254898 -0.2292087 -0.07750976 0.23494305 -0.19718663
0.14860876 0.15943763 -0.19193089 -0.20872413 -0.18094483 -0.22123668 0.14080375 -0.20392723
0.07340709 -0.20151086 -0.23901844 -3.976521e-05 -0.063449726 -0.23941603 -0.06045917 -0.19460712
-0.25580356 0.1432364 -0.028704112 -0.03710003 0.07334094 -0.2411716 0.070874274 0.048367675
-0.11034527 0.040459536 -0.056196436 -0.09905729 0.108311154 0.061189447 0.10045238 0.19678085
-0.18255438 -0.13547955 -0.049165435 0.17526402 -0.02589237 -0.071216695 0.24061365 -0.03237191
0.24164867 0.21856955 -0.012979384 0.030626537 0.25408024 0.15233156 -0.16801675 0.097175986
0.046456896 0.1894854 0.24437062 0.17044929 -0.23913868 -0.030462058 0.11242672 -0.030606382
0.19889817 -0.13559063 0.13713332 -0.0095473 -0.1890228 -0.11490723 -0.15348111 0.05921784
0.22147383 -0.03260706 -0.01046666 0.048936687 0.092365555 -0.019626124 0.057704017 -0.18854514
0.22387868 -0.04401624 0.009379618 -0.063726075 -0.24556884 0.23786768 0.100766346 -0.0859882
0.036516733 0.20069423 0.20441958 -0.091349006 0.13015734 -0.044516537 0.047051143 -0.14113347
0.04636539 0.057280976 0.11623997 0.013775333 -0.19173793 0.2119603 -0.11430085 0.21941598
-0.23647395 0.09386376 -0.030195713 0.14259551 -0.051977422 -0.22104102 0.030443804 -0.013658952
0.09892736 0.083096124 0.14829738 0.023059426 0.19969046 -0.13235767 -0.22164881 0.08057606
-0.22615102 0.021285925 -0.05251239 0.14885466 0.089175805 -0.18057638 0.10992279 0.01578595
-0.1020486 0.22990143 -0.13654429 -0.16726908 0.0021650805 -0.14282414 0.14708844 -0.0692844
0.021725565 -0.23533395 0.21450232 -0.20167804 0.13029522 0.16444641 0.23439308 -0.101574965
-0.033118222 -0.18472055 0.13244553 -0.1757575 0.17541078 0.119081765 0.03657881 0.16060904
-0.1963491 -0.20219158 -0.04680985 0.15859923 0.07775984 -0.080858685 -0.2112462 0.009084739
-0.24300297 0.22991185 0.027440634 0.11144979 0.062478773 -0.014857663 0.0411376 -0.035285927
-0.02861887 0.037146375 0.047445375 0.01978564 0.020223442 0.16004853 0.03858662 -0.10516252
-0.23502408 0.03926858 -0.24636544 0.1939272 -0.18368512 0.2018538 -0.05808013 0.01919023
-0.21656321 -0.04842605 -0.08752061 -0.105193004 0.20288403 -0.19675623 -0.16948164 -0.22781417
0.08931936 0.17950864 -0.15964204 -0.13528991 0.07101488 -0.11833999 -0.042937122 0.08099679
-0.061750814 -0.15995166 -0.049325634 0.10546756 -0.09993696 -0.030923784 -0.15226774 0.19484197
-0.018768732 -0.07571771 -0.1928954 -0.20986827 -0.11190185 0.019206429 -0.050002452 -0.016851084
0.24499913 0.12066547 -0.1192663 -0.13839467 0.17856887 0.19174711 -0.14793457 0.08401643
-0.06059882 -0.10025822 -0.116735265 -0.20146269 -0.020470649 -0.12655304 0.01738751 0.22106048

weight_hh_l0 f4 [48, 16]
00000000: 3cf5 8e3d c0ca 1d3e da06 17be 8e45 32be
00000010: 4708 71bd f4e3 723c 2374 2ebe 4aec 4c3d
00000020: 7a1d 003e dd9e 283e dfa8 8d3d 4996 573e
00000030: eb6e 493e e643 e63d 3d06 83be 1b78 283d
00000040: 2add 5ebd a06e 4c3e 1c50 6fbe 7ca1 253e
00000050: 142e c9bc dd17 993d 0901 30be 8a87 76be
00000060: daad 493d efaf 5cbe e707 e3bd f2b5 c6bc
00000070: da94 27be 67f4 493e a4fc eabd 3f20 503c
00000080: 5a67 4d3e b7d8 f33d a9ff d83d 9d51 40bd
00000090: cdf8 693e 7f6d dc3d 9210 073e 4d76 033e
000000a0: 1a1b 25be cb49 eb3d 1acc febd 9f6f 6d3e
000000b0: 6ed4 f2bc 2a46 2bbe 24f1 543d d8de 653e
000000c0: d3c4 1a3e 120a 01bd 3305 803e 84b9 4a3d
000000d0: 3596 34bd 200c 74be b29e 5c3d 27ea 6a3d
000000e0: 12d2 90bd a764 edbc ff0c 8b3c 6fad 75be
000000f0: 8c1c 5dbe 2f8c 2a3d ab37 7abe e588 703e
00000100: 6d2e 1e3d 52e4 0f3e dc8a 2a3e 7c86 763e
00000110: 13a3 a63c 87d8 37be b676 893d 60e3 c33c
00000120: e930 e43d 085d 213e fb58 5ebd 515c 433e
00000130: 5ec3 493e fc1e aabb 7c5f 12bd 644c 3c3e
00000140: eca8 b1bb 0edc 043e 4bcf b8bd 1b59 fcbc
00000150: d001 9cbd 49cc 3b3d ba39 00be 123d 813e
00000160: e8e2 df3d bb99 5a3e c41b 56be 6de3 77be
00000170: afad 19be a6ce 053e b5d2 5b3b 83cd 033e
00000180: 256b 13bc 8a59 5abe 6c5b 9cbd efe1 c4bc
00000190: 14cb f5bd be4a 1a3e 1f5a ffbd e26f 653e
000001a0: 17ea 773e d739 613e dbf3 0cbe abf7 1bbe
000001b0: 35cb 4bbe fd63 5bbe 9bd9 4fbe 24c1 aebd
000001c0: 01b3 74be 37a1 73be b3c4 21be 3d5b f4bd
000001d0: 6457 ca3c 25c8 e5bd fa2e 663e c799 1ebe
000001e0: 9c15 0a3e 69c3 c7bd 047f ffbb 4bfd 29be
000001f0: 8e64 b53d 77a3 edbd 0b61 853d 5335 c0bd
00000200: cb76 f1bd 2fcb ed3d 6cb0 57bd 083e 1fbe
00000210: b5f0 193e f646 433e bd57 e5bb 6d54 58be
00000220: c8b3 ca3d f420 5d3e 6720 8ebd 3ba9 1f3e
00000230: f3dd 77be 6611 543d 313b 653e 4418 0fbe
00000240: e425 3fbe 6405 c43c e50d 383e 48fa 6a3e
00000250: f8ec 5dbe 8e5c adbd fff7 0c3e 6448 df3d
00000260: 1737 04bd bcaf fbbd aeb3 293e 594e 5cbe
00000270: dbf4 8abc 0de4 68be 1300 e83d 027c a9bd
00000280: b355 5fbd cbc8 c0bb a29b 113e da73 6f3e
00000290: 217c 62be 1638 aa3d 412a 28be 4577 aebc
000002a0: 9b0d 103e edae d1bd 7eee 9d3d f097 733e
000002b0: 2d03 b2bd 48cf 6e3e b0da 173e d42e 3abc
000002c0: 5879 fc3d 01da a6bc 959d 153e 82f1 6fbe
000002d0: fe10 1fbd 019e 0a3e f00b 593e db16 adbc
000002e0: 0032 4b3e 75d8 1f3e 8575 6b3d 1909 ad3d
000002f0: 8989 b83d d3e0 e33d 79ec 9a3c 8602 b93d
00000300: 5b11 4e3e 8074 23be 2116 c73d faf2 e0bd
00000310: 177c 31be 6b40 a93c 6240 b2bc e5e9 033e
00000320: 8881 1e3d b11e 24be 35e7 9fbb 5e4f b0bd
00000330: 3bfe a53d 82c6 0d3d eea9 943d de65 6ebd
00000340: a90d 66be 6ace ee3c 37fc eabd 9312 bb3d
00000350: 69ee 86bd 2a1e 79bb 6796 e9bc a88c 5f3e
00000360: d9cd 403e 39d2 1fbe c133 c2bd 1026 75be
00000370: 478a 11bd a339 18be c97c c2bd 5b85 47bd
00000380: 30cf da3d e687 1ebe a435 263e ca8c 363e
00000390: 03db 17be 9efb 403e 1f48 33be 40bc ac3d
000003a0: 4934 393e 620a 09bd b2d4 6dbe aa90 a4bd
000003b0: fd19 2d3e 8de1 723e d795 b6bd 118c 3b3e
000003c0: e023 45bd 0563 fabd 6921 4d3e a058 1a3d
000003d0: a1d7 003e 16d8 da3d b2f0 dfbd 4cd2 18bd
000003e0: c649 e63d 0212 093d 5236 e4bd d82f 7fbe
000003f0: b3df 35be 4faa df3d e6b6 a33d 76ba 1abd
0.069803685 0.15409374 -0.14748707 -0.17409346 -0.058845785 0.014824856 -0.1703649 0.05003003
0.12511244 0.16466852 0.06916975 0.21053423 0.19671218 0.11243419 -0.25590697 0.041130167
-0.054410137 0.19964075 -0.23370403 0.16174883 -0.024558105 0.07475255 -0.17187895 -0.24075142
0.049238063 -0.21551488 -0.110854916 -0.02425668 -0.16365376 0.19722138 -0.114739686 0.012703001
0.20058957 0.119065695 0.10595638 -0.046952832 0.22848816 0.10763072 0.13189915 0.12838097
-0.1612362 0.11488684 -0.12441273 0.23187111 -0.02964231 -0.16725984 0.051987782 0.2244829
0.15114145 -0.031503744 0.25003967 0.049493328 -0.04408856 -0.2383275 0.05386228 0.05735221
-0.07071318 -0.028978659 0.01697397 -0.23991941 -0.21592921 0.041637596 -0.24435298 0.23489721
0.038618494 0.14051941 0.16654533 0.24074739 0.020341432 -0.17953692 0.067120954 0.023912132
0.11142141 0.15758145 -0.054284077 0.19078185 0.19703433 -0.005191682 -0.035735592 0.18388516
-0.0054217484 0.12974569 -0.09023913 -0.030804208 -0.07617533 0.04584912 -0.12522021 0.25241905
0.10931951 0.21347706 -0.20909029 -0.2420785 -0.15007661 0.13067111 0.003354234 0.12871365
-0.008997713 -0.21323219 -0.07634625 -0.024033515 -0.12001625 0.15067574 -0.12468361 0.22405961
0.24210392 0.2199472 -0.13764898 -0.15231197 -0.19901736 -0.21424861 -0.20297854 -0.085329324
-0.2389641 -0.23791967 -0.15797691 -0.11931465 0.024699874 -0.11219815 0.22478858 -0.15488349
0.13484806 -0.097540684 -0.007797124 -0.1660053 0.0885707 -0.11603444 0.0651265 -0.09385171
-0.11790236 0.1161102 -0.052658483 -0.15551007 0.15033229 0.19070038 -0.0069989846 -0.21125956
0.09897572 0.21594602 -0.06939774 0.155919 -0.2420576 0.051774405 0.22385861 -0.139741
-0.18666798 0.023928352 0.1797405 0.22947037 -0.21672428 -0.08464919 0.13766478 0.10902479
-0.0322791 -0.12289378 0.16572449 -0.21514262 -0.01696246 -0.22743244 0.11328139 -0.08275606
-0.05452509 -0.0058833114 0.14219525 0.23384038 -0.22117664 0.08311479 -0.16422369 -0.021297107
0.1406769 -0.102384426 0.077115044 0.23788428 -0.08692012 0.23321259 0.14829516 -0.011363704
0.12327832 -0.020367624 0.14610894 -0.23431972 -0.038834564 0.13536836 0.2119596 -0.021129062
0.19843292 0.15609916 0.057485122 0.08449001 0.09010608 0.11126866 0.018911587 0.090336844
0.20123808 -0.1596241 0.09721018 -0.10983844 -0.17332493 0.0206606 -0.021759216 0.12882192
0.03869775 -0.16027333 -0.004879857 -0.08608888 0.08105131 0.03461314 0.07258974 -0.058202617
-0.22466148 0.02915116 -0.114738874 0.09134402 -0.06588442 -0.0038012364 -0.0285141 0.21831
0.18828525 -0.15607537 -0.094825275 -0.23940301 -0.035532262 -0.14865737 -0.09496457 -0.048711162
0.10684049 -0.15481529 0.162314 0.17827144 -0.1482964 0.18845984 -0.17507981 0.08434343
0.18086351 -0.033457167 -0.23225668 -0.08035405 0.16904445 0.23718853 -0.089152984 0.1831515
-0.048129916 -0.12225918 0.20032276 0.037682176 0.12582256 0.10685746 -0.10934581 -0.03730993
0.1124454 0.03346444 -0.11143173 -0.24920595 -0.17761116 0.10921156 0.079938695 -0.03777548

bias_ih_l0 f4 [48]
00000000: 9a34 a5bc 8b26 98bd 52ec d83d 83c1 3f3d
00000010: 542c 26be 60f8 dc3d 6722 203e 4739 a23d
00000020: 9183 063d 0e5b 273d bc55 4d3e 6f95 4bbe
00000030: 1b8d 61be 3305 d63c b13f 20be 1606 f2bd
00000040: 1809 1dbe 39f9 543d 21e6 dfbc 8e82 603e
00000050: 8271 a73d 7c59 8dbd 786b 7f3d 1262 743e
00000060: 5364 6b3b 512b 02be 0fe0 053c a502 77be
00000070: 9c8c bebd 191c 5f3d 65b9 a33d 183b 233e
00000080: 4e2e 473d 171b 3138 3993 443e f179 02be
00000090: c9e0 08be fded d63d b97e 89bd 16b9 0abb
000000a0: 0f37 e8bd c1a6 243e b0eb 01be b92d 0a3e
000000b0: 4bce 053e 1985 5f3e 7cf9 c73c 86a0 47bc
-0.020166684 -0.074292265 0.105919495 0.046815407 -0.16227847 0.10789561 0.15638123 0.07921081
0.032840315 0.04085832 0.20052236 -0.19881223 -0.22026484 0.026125526 -0.15649296 -0.11817567
-0.153355 0.05199549 -0.027331414 0.21924803 0.08175947 -0.069018334 0.06235835 0.23865536
0.0035917952 -0.12711836 0.0081710955 -0.24122103 -0.09304163 0.054470155 0.079943456 0.15940511
0.048628144 4.2225318e-05 0.19196786 -0.1274183 -0.13366999 0.104946114 -0.067136236 -0.0021167449
-0.113386266 0.16079237 -0.12687564 0.13494004 0.13066976 0.21828116 0.024410956 -0.012184268

bias_hh_l0 f4 [48]
00000000: 8b47 e03c d153 d8bd 0dbd 853d b36c 9e3c
00000010: 3415 e83d 9405 0e3d 9bbb 733e 17d1 bcbc
00000020: 095d 463e fc2e 393e 1503 80bd 695e 0cbe
00000030: bfe0 823b db93 563c cb5b 22bd b9bb 57be
00000040: 69f4 283e 3293 21be 902c 6f3e 0dce 20be
00000050: af8d 0abe cdae dfbd dc9b a73c 0f8d 28be
00000060: 5ef1 48bd 6524 c9bd 118f 513e 13e9 843d
00000070: 601c 3a3e 3a6d 4bbd 7886 63be 4f8a 6d3e
00000080: ea8f dfba 3e27 0ebd 7368 2fbe 844d 7a3e
00000090: bfae 27bc 9ee7 1c3e a948 b5bd 5ac5 953c
000000a0: 8cec 3ebe d83e 2a3e 21ea 10be a994 663e
000000b0: 1e6e 16be 9056 79be 87fd 22be fad1 21bd
0.027377864 -0.10562862 0.06530199 0.019338941 0.11332169 0.03467329 0.23802035 -0.02304892
0.19371428 0.1808433 -0.06250588 -0.1370789 0.003994077 0.013096775 -0.03963832 -0.21067704
0.16499485 -0.15778807 0.23356843 -0.15703602 -0.1353061 -0.109220125 0.020460062 -0.1646006
-0.04905831 -0.09821395 0.20464732 0.06489768 0.18174887 -0.049664713 -0.22219265 0.23197292
-0.001705644 -0.034705393 -0.17129688 0.24443632 -0.010234534 0.1532273 -0.088517494 0.018282581
-0.18644923 0.16625535 -0.14151813 0.22517647 -0.14690444 -0.24349427 -0.15917026 -0.03950689

weight_ih_l0 f4 [48, 36]
00000000: 28fb 363e 0705 47be 38bb 7b3d 029d 3ebd
00000010: d940 dbbc 8329 f53d d40c 78bd 0d9a 1e3e
00000020: 98ac 5d3e 92ff 35be b456 52be 566b 8fbc
00000030: d899 26be 4e7c 45be 6b6f 033e 2193 9fbd
00000040: 212a d0bc e764 0c3d 3569 663e 51ab 0d3d
00000050: 4227 ca3d 6e2b f13d 247d 81bc dfdb 6e3e
00000060: ca89 743d a727 463e 1271 42be 737e 5dbe
00000070: 2734 e13d 91a9 063e 4fb6 9d3d fe5f b13d
00000080: b9ee db3c 3453 303e b9bd 563e 8023 08be
00000090: 599f fabd c00a 56be 21e5 4a3e cf84 753e
000000a0: 615b 3bbe 1f81 64bd d837 853d 0e3e 27bc
000000b0: 05e4 4abe cd0a 0b3e ecd7 e0bc b215 4a3e
000000c0: 75ce d2bd 76ca fd3d 5fcf d23d fc26 843e
000000d0: 4457 d6bd 3129 4cbd 83c6 bc3d 2766 3a3d
000000e0: 0ed5 5a3e 3ebf 0f3e a9b7 943d 6ac1 763e
000000f0: 9142 b9bd 1811 01be de97 a43d e2b7 2cbe
00000100: c028 3d3c 5865 9fbd ace3 713e 3a9c e33d
00000110: d679 623c a519 48be b676 163e 3295 0c3e
00000120: 5d4d 243e 5f94 713e 25ec c63d 1e01 a9bc
00000130: 545b debd 4911 fe3d 3142 25be 755e a2bc
00000140: 201a 3dbe 1f5c 673e 141f 0cbd ebaf 51be
00000150: d525 f2bd 9ef9 f5bd 7820 21bc 637c 413d
00000160: 8162 393b 8576 bfbc 13f7 d7bd 9c5a 2abd
00000170: 63c3 17be 6547 6b39 bb22 4ebb 8e92 813e
00000180: 7a43 f4bb 2f5a 4b3e 74ee 293e 61de 1a3d
00000190: f622 14be 533e 7dbe 869f 5dbb 97e7 8bbc
000001a0: ea3b 5a3e 4884 653e 264d 45be f530 e9bd
000001b0: 9cac 28bd d7e2 913d be7f 283e fc28 80bd
000001c0: d6da 94bd 039a 233d e83a 5f3d ca2a ab3d
000001d0: f75b 703e b8b9 9a3d e7ff 243e d599 c83d
000001e0: 0cbd eb3d 9410 28be ca84 2f3e 0c6d 5b3e
000001f0: 46b0 09be b3c1 2ebe 0184 843d 4184 23bd
00000200: fbe0 0a3e 03e0 d63c 6920 84bd b0bd 17be
00000210: bcfd 563e b97b f83d 2824 c73d 8460 513e
00000220: 8df8 0fbe f9ef b0bd 7a13 ae3b 188b 903d
00000230: dc98 15be 8aea 4abe b876 51be e6e1 11be
00000240: 0c07 0abe c51c 113e 056e 913d b9bb 7a3c
00000250: ec74 223d 69da 273d b10b 77be 7345 803d
00000260: 0906 0e3e fc52 c93d 4737 853d be1e 22be
00000270: 327b c83c 3830 95bd ddbb 36bd ab52 3c3e
00000280: 6b6e 6f3d c401 91bd 3743 6e3e d04c 363d
00000290: fc73 503e 3c77 4b3e 550c 2abd 68d6 a43d
000002a0: d1ed 143d 234e 5e3d 55d7 2dbe f6bb 453e
000002b0: 7db4 80bd bad5 3abe 6948 6bbc 49b1 423e
000002c0: fd32 14be e40b b8bd b71c 3f3e 790f 6f3e
000002d0: b532 6bbe 3dd0 2a3e a50b c63d 06cf 72be
000002e0: d2b4 05be 5e18 3bbc 12eb 653e 3cd7 d03b
000002f0: 7c4c 423e 0cd0 033d 32e1 88bd c32d 5ebe
00000300: 2b07 5c3d 19d9 54be bfac bdbd 2974 e43b
00000310: 12db 26be a1ca 2dbe 65f0 383e fbdf b8bd
00000320: 28d5 cf3d 1033 bfbb 8589 233e 6fad 6e3e
00000330: 8ff1 c9bd 6d16 593e fa74 3ebe e682 b0bd
00000340: 4d95 0e3e 6d01 1e3b 3918 503e ae36 27bc
00000350: 5585 773e f8d9 553e 9687 ddba e154 153c
00000360: 4b6f f33c 6cea 7bbd a95d f5bc d198 923c
00000370: b6d1 343d fecf 0fbe c04e 143d 68b6 54be
00000380: c926 b6bc 12dc 5bbe 2613 e63d d7cf 453e
00000390: 2e59 0ebe 4b7f 2fbe 0227 2d3d 7857 fd3d
000003a0: ba48 8fbc b866 8cbd a332 333e e5b9 8b3d
000003b0: d6d7 663e 96df d4bd a766 50be 978a 14be
000003c0: 0029 353e dfc4 5d3e deda d23d 9691 a5bc
000003d0: f928 eebd 8177 8a3d 670f 8a3d c7bc 5b3e
000003e0: f85c f73d d9b3 95bd b666 443c df58 f0bd
000003f0: 4ddd 72be 2ec8 c8bd 7631 79be 7e74 683e
0.17869246 -0.19435512 0.061457843 -0.046536453 -0.02676432 0.11970808 -0.06055911 0.15488453
0.2164787 -0.17773274 -0.20540887 -0.017507236 -0.16269624 -0.192857 0.12835471 -0.077917345
-0.025410714 0.034275915 0.22501071 0.03458721 0.09870769 0.11775862 -0.015806742 0.23326062
0.05970172 0.19351064 -0.18988445 -0.21630268 0.109962754 0.13150622 0.07700788 0.08660887
0.02684723 0.1721924 0.20970811 -0.13294792 -0.122374244 -0.20902538 0.19813968 0.23976444
-0.18296577 -0.055787202 0.06504792 -0.010207666 -0.19813545 0.13578339 -0.02744671 0.19734839
-0.10293285 0.12392132 0.10293459 0.25810993 -0.10465863 -0.04984397 0.092175506 0.045507576
0.21370336 0.14037797 0.07261593 0.24097219 -0.090459 -0.12604177 0.08036779 -0.1686702
0.01154536 -0.07783002 0.23622006 0.11113782 0.013822993 -0.19541033 0.14693722 0.13728788
0.16045137 0.23591755 0.0971301 -0.020630416 -0.10857263 0.12405641 -0.16138531 -0.019820431
-0.18466997 0.22593735 -0.034209326 -0.20477264 -0.11823622 -0.12010501 -0.009834401 0.047237765
0.0028287473 -0.023371944 -0.105451725 -0.041590318 -0.14820628 0.00022437943 -0.0031453806 0.25307125
-0.007454333 0.19858621 0.16594869 0.037809733 -0.14466462 -0.24730806 -0.0033817007 -0.017078204
0.21311918 0.22413743 -0.19267711 -0.11386291 -0.041180238 0.071233444 0.1645498 -0.06257817
-0.07268302 0.0399418 0.054499537 0.08357771 0.23472582 0.07554954 0.16113244 0.09794966
0.11510667 -0.16412574 0.17140499 0.21428317 -0.13446149 -0.17066078 0.0647049 -0.03992105
0.13562386 0.026229864 -0.06451494 -0.14818454 0.2099523 0.12132973 0.09723693 0.20446974
-0.14059658 -0.08639521 0.0053123804 0.0705778 -0.14609092 -0.19816032 -0.20455444 -0.1424633
-0.1347925 0.14171131 0.07101063 0.015303546 0.039662287 0.040979777 -0.24125554 0.062632464
0.1386949 0.09830281 0.06504684 -0.1583204 0.024472807 -0.072845876 -0.044612754 0.1839091
0.058454912 -0.07080415 0.23267828 0.044506848 0.20356745 0.19869703 -0.041515667 0.08048707
0.036359612 0.054273736 -0.16976674 0.19309983 -0.062844254 -0.18245593 -0.014360526 0.19012941
-0.14472575 -0.08986643 0.18663298 0.23345746 -0.22968562 0.16680999 0.0967019 -0.23711786
-0.13057259 -0.011419384 0.22452953 0.006373314 0.18974489 0.03218083 -0.066835776 -0.21697144
0.053717773 -0.20785941 -0.09261464 0.006971855 -0.16294506 -0.16971828 0.18060453 -0.09027096
0.10148078 -0.0058349445 0.15970428 0.23308347 -0.09860527 0.21199961 -0.1859931 -0.08618717
0.13924141 0.0024109737 0.2032174 -0.010205908 0.24171956 0.2088393 -0.001690137 0.009114475
0.029716155 -0.06150286 -0.029951887 0.017895134 0.04414531 -0.14044186 0.036207914 -0.20772707
-0.022235291 -0.21470669 0.11234121 0.19317566 -0.13901207 -0.17138402 0.04227353 0.12370199
-0.017490733 -0.068555295 0.17499785 0.06822566 0.22543272 -0.10394208 -0.20351659 -0.14505993
0.17691422 0.21657132 0.10295652 -0.020211022 -0.11628909 0.06761075 0.06741219 0.21458732
0.12078279 -0.07309694 0.011987379 -0.11735701 -0.23717232 -0.09803806 -0.24335274 0.22700688

weight_hh_l0 f4 [48, 16]
00000000: ad1e 8b3c 20df 24ba 72c0 59b5 a8bd 403b
00000010: 0055 7d3d 3337 1a3e 42c2 24b9 62ff 17be
00000020: 8108 873d fbab 90bd 623e b3bd ae00 203e
00000030: b0cc 713d 7a53 74be 2d0c 24be 7962 58be
00000040: 6fe7 8a3c f577 16be 98c1 96b9 614d 36be
00000050: 2c4e 853d ad9c aebc 4eb5 7fbc f3e7 29be
00000060: 8c57 2a3d a65e f1bd 4241 543e a12e 333e
00000070: 9289 c63c 7eda 5a3e fd33 40be 7a4b 94bd
00000080: fa63 d0bd 508b ce3d b386 a7bd 6360 de3d
00000090: fa2f a8bc 0f7c c33a 728b e7b8 80a3 18be
000000a0: ef87 f4bd 3b6b b5bd 8d2c 5b3e 2e24 d8bd
000000b0: b832 55bc dd82 d83c 2c19 95bb 85e2 063e
000000c0: a200 8b3d a9ff 86b9 c426 fdbd 629b fabd
000000d0: e66c e33d 8446 5036 eba8 403c 2628 b5b8
000000e0: 95b7 ff3d a0a5 7cbe 0fe5 063e de33 c0bd
000000f0: c637 a83b 4d89 233e 329c 3038 80d6 5abe
00000100: 1e94 3d3d ef1b 2cbe c731 0338 1232 1dbe
00000110: 3395 06be 1dbe 863c 8d7d 23ba ae76 1a3e
00000120: 3ffb b3bd 3d2a 703e 29ee 47be 42cd c63d
00000130: 2428 debd a78e 2fbe 3563 2dbd 7d65 8fbd
00000140: 21c2 ab38 7670 0abe ccdf a63d 0ab1 8e3c
00000150: da17 f33c cfbc e8bd 11de fc3d a8ac 6bbd
00000160: b1f7 383e ae21 36be 45c7 b43c 312a bdb6
00000170: 9f1c 2e3e 3870 763e ef31 54b6 1d42 26be
00000180: 2e60 5a39 2375 2b3e 1fdb 473d 8976 1b3d
00000190: c333 ba3d df10 4abe 5a0c 97bc 973e 90b8
000001a0: 7c7f 233e 1290 bcbd a7ee 863b b73f 4d3e
000001b0: 2a13 af3d 083e aa3d 5997 55bd e5dd 42be
000001c0: 9b81 2bbe 9bba 4bbe 1ae6 bd3d 15ca 323e
000001d0: ce4d 2b3e 505c 2f3a 63a2 393b 36ad e63d
000001e0: 7d70 33bd fe1e 173d bcf5 04be 8b0a 2f3e
000001f0: 9dff edbc d6fd acbd 4c8a 453e 6991 ecbd
00000200: 10cf 693d 63f3 40be 2910 e139 6e04 67be
00000210: 69a1 e13d dae2 10be a2ce e6bd 5095 3c3e
00000220: 6591 423e 0cd7 fdbd 245c 5ebe bd88 0bbd
00000230: 70ef f2b9 3631 0b3d 3d2a 2f3d 06f8 9abd
00000240: c307 4bbb 65bf d5bd daef ea3c 3973 a43d
00000250: 7dfc 813d 912f 253d 54f7 4fbe d62d 173e
00000260: 93f8 5d3d 4d87 3a3e bbac 203e 5fbb 813c
00000270: 9b0f 85b9 e6ca 75be 88ce 18bc 3a52 40be
00000280: 793f 313b f54b 1ebe 55b6 c03b cbea 16bd
00000290: a051 1ebe 6a75 24be 4946 4b3e 96a3 6ebd
000002a0: b7b8 253e 4826 bcbd 8e85 15be ca88 423e
000002b0: b27e 143d 1c13 603e bd74 24be e334 d8bc
000002c0: 0679 273e d7c6 5739 df68 503e b47d 9f3d
000002d0: 4a35 64bd 5aae 393c 2759 08be ac88 dc38
000002e0: 820f cd3c 1c97 4dbd 23c8 313e aa9c 4a38
000002f0: e482 be3d 3172 dd3d bb3d 2abe 3cdc db3b
00000300: 86b1 183b c68b c7bc 2b3c 2bbc 9f46 8a3c
00000310: 6241 a1bc 31aa 503e 4dd1 183b e6f7 a6bd
00000320: f66b 10be b256 78be 9a84 f03c befc 01be
00000330: 85c2 623c 1e0b 02be 44e4 c7bc 707f a13b
00000340: 8575 4dbe bdd8 c7bc 8c21 d33d ee5a 66be
00000350: ff57 2dbd 6427 863c 6768 8b3d e567 123e
00000360: 7067 2f3d 111b 43be bf44 1bbe 9704 97bd
00000370: 5302 163d 6f9c 82be 30cc 113e 77ea a0bd
00000380: 7357 8136 7f62 67bd c1ed 053e afef f6bd
00000390: 5503 193b e56f c038 3ad7 1b3e 0fda c6bd
000003a0: 34a8 333e 7cfc 48be 51b2 04be 1d2c 6939
000003b0: d459 4cbe 15d4 0cbd fb92 edbd 89f5 bb3d
000003c0: 2c25 3f3e 04e1 3ebe 10e1 0dbd d613 81bc
000003d0: c8bf 78bd 626b b3bd 87e0 26be dfbd dbbc
000003e0: eb11 4ebe f366 36bd 79af d0bd 1a55 83bd
000003f0: b1c8 533d 518a 3cbe b9f2 4fbe 1311 993d
0.0169824 -0.0006289352 -8.1118844e-07 0.002940992 0.06184864 0.1506012 -0.00015712625 -0.14843515
0.06593419 -0.07064053 -0.08752133 0.1562526 0.059033096 -0.23859969 -0.1602027 -0.21131314
0.01695606 -0.14694197 -0.00028754468 -0.17802955 0.06509051 -0.021314943 -0.015607191 -0.16592388
0.041587397 -0.11785631 0.20728019 0.17498256 0.02423552 0.2137241 -0.18769832 -0.072409585
-0.10175319 0.100851655 -0.08179989 0.10858228 -0.02053069 0.0014914292 -0.00011040912 -0.1490612
-0.1193999 -0.08858343 0.21403714 -0.10553776 -0.013012581 0.026429588 -0.00455012 0.13172348
0.0678723 -0.00025748953 -0.123609096 -0.12236668 0.11104755 3.103546e-06 0.011759023 -8.638231e-05
0.12486187 -0.24672556 0.13173316 -0.09384893 0.005133602 0.15970345 4.2107138e-05 -0.21370888
0.046283834 -0.16807531 3.1279193e-05 -0.15351132 -0.13142852 0.016448075 -0.0006236665 0.15084335
-0.08788156 0.23453613 -0.19524445 0.097071186 -0.108475 -0.17144261 -0.04233094 -0.07001779
8.190075e-05 -0.13519463 0.081481546 0.017418403 0.02967446 -0.113641374 0.12347043 -0.057537705
0.18063237 -0.17786285 0.022067675 -5.6375507e-06 0.17003106 0.24066246 -3.1619527e-06 -0.16236158
0.0002082593 0.16743903 0.048792955 0.03795484 0.09091904 -0.19732998 -0.018438507 -6.878113e-05
0.159666 -0.09207167 0.004117805 0.20043837 0.08548577 0.08312613 -0.05214629 -0.19029959
-0.1674866 -0.19895403 0.09272404 0.174599 0.16728899 0.0006689476 0.002832555 0.11263506
-0.04380845 0.03689479 -0.12984365 0.17093866 -0.02905255 -0.08446853 0.19291037 -0.11551172
0.057082236 -0.18842845 0.00042927384 -0.22560284 0.11017115 -0.14149037 -0.11269881 0.18416333
0.19000776 -0.123945326 -0.21714836 -0.03406595 -0.00046336232 0.033982478 0.04276489 -0.07566838
-0.0030979968 -0.10436896 0.028678823 0.080297895 0.063469864 0.040328566 -0.20309192 0.14763579
0.054192137 0.18215676 0.15690891 0.015836416 -0.00025379364 -0.24003181 -0.009326585 -0.18781367
0.002704589 -0.15458663 0.0058811107 -0.03684501 -0.15460825 -0.16060415 0.1985103 -0.058261476
0.16183744 -0.09186989 -0.14601728 0.18997493 0.03625364 0.2188229 -0.16060157 -0.026392406
0.1635476 0.00020578071 0.20352505 0.07787648 -0.055714883 0.011333073 -0.13315259 0.000105158746
0.025031809 -0.050192937 0.17361502 4.8306458e-05 0.09302309 0.10812796 -0.16625111 0.0067096036
0.0023299172 -0.024358641 -0.010451357 0.016879378 -0.019684497 0.20377423 0.0023318112 -0.081527516
-0.14103684 -0.24251822 0.029360104 -0.1269407 0.013840322 -0.12699553 -0.024400838 0.004928522
-0.20064361 -0.024395341 0.10309133 -0.22495624 -0.042320248 0.016376205 0.068070225 0.14297445
0.042823255 -0.19053294 -0.15162943 -0.07373922 0.03662331 -0.25509974 0.14238048 -0.078572206
3.85468e-06 -0.056490418 0.13078977 -0.12057435 0.0023347933 9.1761154e-05 0.15218821 -0.0970956
0.17544633 -0.19627565 -0.12958647 0.00022237045 -0.19956142 -0.034381945 -0.116003 0.091776915
0.18666524 -0.18640524 -0.034638464 -0.015756529 -0.06072977 -0.08760716 -0.16296588 -0.026823936
-0.20124023 -0.044531774 -0.10189719 -0.06412716 0.051705066 -0.18412139 -0.20307435 0.0747396

bias_ih_l0 f4 [48]
00000000: dfe6 21be 7322 3bbe b660 9abd 1175 d6bd
00000010: 23b3 fa3d 9f22 1a3d ad56 5bbd 9d1a 103e
00000020: a503 4cbd 6ffb ed3c e20a ddbd 47cd 073e
00000030: a177 b9bb 8c6c 0e3e fcb7 3cbe 1392 93bd
00000040: ed3b 4bbd 799d 8dbd 4d29 363e 0f70 bfbd
00000050: eb21 5bbe 4c76 59be 930f 1dbe a183 f4bc
00000060: 003c 033e 6c09 78be 6cb8 d6bd 0054 043e
00000070: e1f8 afbd 287c 813e d24e bdbd 6f32 b93d
00000080: a1d0 51bd 9974 de3d b79c 8cbc ef24 50bd
00000090: 02d5 01be 7c37 fa3d a632 70be d741 473e
000000a0: 258d c33d 29b5 4c3c 9cb7 ee3d f13c c6bd
000000b0: 9fdb 8d3c 3b1f 45be 15d9 77be ea69 e73d
-0.15810727 -0.1827486 -0.075379774 -0.104715474 0.12241199 0.037630673 -0.053549457 0.14072652
-0.049808163 0.029050557 -0.10793091 0.13261901 -0.005660013 0.13908595 -0.1842956 -0.07205596
-0.049617697 -0.06914801 0.17789192 -0.09347545 -0.21399657 -0.21236533 -0.15337972 -0.029847922
0.12815857 -0.24222344 -0.104843944 0.12922668 -0.08592392 0.25290036 -0.092435494 0.090428226
-0.051224355 0.10862083 -0.017164571 -0.050816473 -0.12678912 0.12217614 -0.23456821 0.1945871
0.095484056 0.012494364 0.116561145 -0.096795924 0.017316638 -0.19250195 -0.24203904 0.112994984

bias_hh_l0 f4 [48]
00000000: 6281 343d 4389 ff3b 306c 50be bb93 a4bd
00000010: 88c0 1bbe 4994 15be 2353 313d 85a0 1a3e
00000020: 2b3c 893d ec14 b139 e5ab f93d 6ec4 e13d
00000030: f2f6 1ebd 227f 7abe 28c3 2dbc 6a7b 67bd
00000040: 92e9 07be 4b9c 0f3e e3e5 38be f21f a13d
00000050: 5193 903d bcd0 29be a59b 323e 4e70 873d
00000060: f9df 57be 6709 8bbd 22df 103e bc11 d3bd
00000070: 8a85 4abd 136a 323e bb9b e23d e1b0 22be
00000080: c4e4 56be 7704 18be 76f0 7cbe 5515 77be
00000090: cccf 61bc 9c37 58bc 48dc 76be 4461 10be
000000a0: b37e 773e f151 b93b 962e 223e 72cd debd
000000b0: 59b3 163e 130c 56bc 4699 253e ee1a f33c
0.0440687 0.0077983453 -0.2035377 -0.0803599 -0.15210164 -0.14607348 0.043292176 0.15100296
0.06700929 0.0003377566 0.121909894 0.11023794 -0.038809724 -0.2446256 -0.010605611 -0.05651418
-0.13272694 0.14024465 -0.18056445 0.07867421 0.070593484 -0.16583532 0.17442186 0.06613217
-0.21081533 -0.06788903 0.14147618 -0.10306117 -0.04944376 0.17423277 0.110648595 -0.15887786
-0.20985705 -0.14845453 -0.24701104 -0.24129231 -0.013782453 -0.013196852 -0.24107468 -0.14099604
0.24169426 0.00565552 0.15838084 -0.10879029 0.14716853 -0.013064402 0.1617175 0.029675927

weight_ih_l0 f4 [3, 11]
00000000: f92a 5ebe 2171 2fbf 09e1 223f c347 eb3e
00000010: 9d87 793f c949 7e3f 5217 e0be 3350 5dbf
00000020: de95 a93e c216 2bbf f027 ad3e fd22 903e
00000030: eb4a 22be 8415 b5bd f7eb b83e c66c 17be
00000040: 79cd 4c3f 4566 f83e 8221 4fbf eb4c 5cbe
00000050: 8d3c a2bd d7d5 aa3d f0b1 aabe ec56 69bf
00000060: 293f 193f cf85 b3bd aee5 613f a368 86be
00000070: ff1c 793f a1a0 78bf cb12 3abf 7dae b0be
00000080: e20b 60bf
-0.2169608 -0.68531996 0.63624626 0.45953187 0.97472554 0.9933134 -0.43767792 -0.864505
0.33122152 -0.668316 0.33819532 0.28151694 -0.15848891 -0.088419944 0.36117527 -0.14787588
0.80001026 0.48515525 -0.80910504 -0.21513717 -0.079217054 0.08341568 -0.3333888 -0.9114826
0.59862 -0.08765756 0.8824109 -0.26251706 0.9730987 -0.971201 -0.72684926 -0.34508124
-0.8751813

weight_hh_l0 f4 [3, 1]
00000000: bcd5 6dbf 7931 62bf 07ec 10be
-0.9290426 -0.8835674 -0.14152537

bias_ih_l0 f4 [3]
00000000: ad88 59be 6765 003f 76f4 6e3f
-0.21243544 0.5015473 0.9334177

bias_hh_l0 f4 [3]
00000000: 0b74 a63e e3a7 42bf bf01 16bf
0.3251041 -0.76037425 -0.58596414

weight f4 [1, 16]
00000000: 57d3 c63d 6708 c7bd 91a8 343e 4c78 a53d
00000010: 3623 bb3d 0f64 25be 0dea 08be 395d 28be
00000020: e427 49be 1e31 3c3e 7532 9c3d 5a04 813e
00000030: 566d f3bd 6697 333b 41de 613c 46b6 e33c
0.097082786 -0.097183995 0.17642428 0.080795854 0.09137575 -0.1615145 -0.13370533 -0.16441812
-0.19644123 0.18378112 0.076268114 0.25198632 -0.118860886 0.0027403473 0.0137859 0.027796876

weight f4 [680, 17]
00000000: dd4f 01bd bc5c 05be ccc2 12be 885a 4f3c
00000010: 9f75 853d 7f7d 25be 0b7c 16bd a2fd 8ebd
00000020: 2434 77bd ce3b 14be ef45 2d3e 414f 403e
00000030: e86b 433d a24a cf3d e3c6 48b8 fe22 863b
00000040: 0559 0e3d b8a8 123c e219 ca3c 298e 65be
00000050: 9797 593e 6b8c f3bc 8331 f6bd b2b8 0abe
00000060: 7332 cd3c 327e 1b3d 99e0 a7bc b323 e23b
00000070: 7d00 313c d1f9 503e 4f0e 7cbd 083f 58bd
00000080: 6496 483d c1ae 833d db9a 5b3e d79e 603e
00000090: b6da 3fbe 52d1 e3bd beaf 273e bc54 a4bd
000000a0: f3c3 d33d 7fa7 84bd 6688 673e 069c 303e
000000b0: 662c b73d f981 60be 7a26 583c 2daf bebd
000000c0: e53a 47bc a9de 7fbd 5dd6 43be dfc4 4f3e
000000d0: 4827 c4bd 2fff 6b3c f5a7 a73d 29d8 4abe
000000e0: 3e57 38be c4bd 653d c51c 443c 839e 44be
000000f0: 1b35 b9bd 2024 3e3e 1d53 f43c c314 58be
00000100: d34c 3cbe 09aa 8ebd 8c8a 793d fcc8 e83d
00000110: 85f9 bf3b de5d c23d 626f 1fbb 201c 013d
00000120: bd5e c5bd e298 973d d314 ecbb 7d2a 00be
00000130: 12b7 143b 2eff 043e 1842 243d 6dc9 0f3d
00000140: fcf0 31b9 70da 163c 38e8 7b3d aef1 57bd
00000150: ccb2 ac38 ad24 2a3e 8e26 723d dc3e 41bd
00000160: 7fbc d23d 36c4 27be 93cb c33d c0b1 68b8
00000170: 3d78 773c 172c d6bb 8b44 cc3d 02af 3abe
00000180: f26f 293d d0a9 49bd 5c2c 38be 3786 a2ba
00000190: 3423 e23d 1421 d0bc 8124 dabd 1f66 103e
000001a0: dd72 913d 1067 de3d 8ca5 18bb eefc 133e
000001b0: de78 873d 559e 0a39 5b23 b43b d843 2ebe
000001c0: 7a3e a8bd 5f4c 4a3c 2c62 043e 2e10 66bd
000001d0: a03f 73bd 3aaa 1a3e 7bcd 84bd 53ea 49be
000001e0: a85e 32be 47fe d2b9 085c 393d 825c d93d
000001f0: 9bfd 003c 390c d5bc 406f 3dbe 5b53 2e3d
00000200: b9ed dbbd 517d 473e c1eb 0d3e e279 c2bd
00000210: 69ba cc3d 0bf2 edb8 8dec 14be 0426 34be
00000220: 2576 03be 1846 fa3d 3ec8 b437 7e50 04be
00000230: 0172 41be 1122 3e3e a91a 943a 0062 19be
00000240: dc15 ca3d a75b ea3d c384 84bd 2e48 2abd
00000250: 167c 14be c987 263e e6e4 1fbe edf8 90bc
00000260: 95d6 f7bc aef3 9ebd 7ef7 6dbb 73cf 8dbc
00000270: 6e38 233e 33df 71b8 a17c 08be 5b7e 1dbe
00000280: 94c5 2d3d 37a2 38be 6949 dcbd 71d0 c0bc
00000290: 4a66 41b8 f1ac 933d f32c 803d 13a5 52bd
000002a0: acca 02be 25fd 20bc 6c1f 62be 9c80 1c3e
000002b0: e1f5 ce3d 8dac 0fbe aa69 64be 4a83 f1bd
000002c0: 7e9f 10be f8db 403e 50bd 6c3e 5cbb 403e
000002d0: 96e1 463d f704 583e 43b8 3fbe 60a0 333e
000002e0: 8254 7cbe 3f91 0cbe 374e 13be 1e92 9ebd
000002f0: bee8 69be cad8 d73c 93e4 283e 64c9 25bc
00000300: f613 fcbd 3526 6fbe 0dd5 a8bd 9b18 073e
00000310: b2e6 523e 7eb4 933d 5884 c93d aebe 223e
00000320: 3a38 533e c2e8 28bd f75e ed3d 988b f0bc
00000330: f1be 073e a3c3 543e e563 483e ef2b d7bd
00000340: 9e27 243d 6bf3 fabd d13e 78bd 7aae 1c3c
00000350: 248c fbbd c57e 33be 372b f53b fa6f 653d
00000360: 8abe a5bd 4006 003e edeb 5ebe 4ab9 013d
00000370: ee50 28bd 438e e13c 5884 5e3d 60b0 543e
00000380: a930 dfbd a773 6bbe cabc 5fbd 3b46 f6bd
00000390: 64d1 21be fc04 503e e4c4 abbd d6b5 2cbc
000003a0: 2d69 5ebe 56b4 93bc f9bb 5a3e e25b ca3c
000003b0: 8270 d7bd 1c42 53bd ab9c 043e ab2d fc3c
000003c0: 718f 6e3e 143f fcbd 1cb6 6f3e 10ff 153e
000003d0: 22ef 8aba b4fd 673e ea17 fbbd f398 8d3c
000003e0: 2c2e 49be fa15 fbbc d678 2e3e 0ef3 5abe
000003f0: 3e03 0abe 312a 413e 8600 6b3e ddb4 d0bd
-0.031570304 -0.13023657 -0.14332122 0.012655862 0.06516575 -0.16161154 -0.03673939 -0.0698197
-0.06035246 -0.14475939 0.16921209 0.18780233 0.04771033 0.10121657 -4.7868944e-05 0.004093527
0.034752864 0.0089513585 0.024670545 -0.22417511 0.21249233 -0.029730042 -0.12021162 -0.13547018
0.02504847 0.037962146 -0.020492839 0.0069012283 0.010803339 0.20407797 -0.061537083 -0.052794486
0.04897155 0.06429816 0.21445791 0.21935593 -0.18735775 -0.11123909 0.16375634 -0.08023974
0.10340109 -0.0647726 0.22610626 0.17247018 0.08944015 -0.2192458 0.013192767 -0.09310756
-0.012160038 -0.062468205 -0.19124742 0.20289944 -0.09577805 0.014404102 0.08186332 -0.19809021
-0.1800203 0.056089178 0.01196975 -0.19201092 -0.09043332 0.18568468 0.029824788 -0.2110167
-0.18388681 -0.069660254 0.060923144 0.1136646 0.0058586025 0.0949056 -0.0024327864 0.031520963
-0.096372105 0.07402207 -0.007204631 -0.12516208 0.0022692126 0.12987968 0.040102094 0.035104204
-0.00016969809 0.009207353 0.061500758 -0.052720718 8.2349026e-05 0.16615553 0.0591188 -0.047179088
0.10289859 -0.16383442 0.09560313 -5.5478653e-05 0.015104351 -0.0065360176 0.09974011 -0.18230823
0.041366525 -0.04923421 -0.17985672 -0.0012399618 0.11041871 -0.025406398 -0.10651494 0.14101456
0.071019866 0.10859501 -0.0023292033 0.14451954 0.066148505 0.00013219689 0.0054973788 -0.17018068
-0.082150415 0.01234731 0.12928075 -0.056167774 -0.05938685 0.15103999 -0.06484505 -0.19718294
-0.17418921 -0.00040243773 0.045253783 0.106133476 0.007872964 -0.026006805 -0.1849947 0.042559963
-0.107387014 0.19481398 0.13859464 -0.094959036 0.099964924 -0.00011346125 -0.14543362 -0.17592627
-0.12838037 0.122204006 2.1550917e-05 -0.1292133 -0.18891145 0.18567683 0.0011299449 -0.1497879
0.098674506 0.114432625 -0.06470635 -0.041572742 -0.1450046 0.16262735 -0.15614662 -0.017696822
-0.030253688 -0.07761322 -0.0036310847 -0.017310834 0.15939495 -5.7666748e-05 -0.13328792 -0.15380232
0.042424753 -0.1803063 -0.107561894 -0.023536893 -4.611005e-05 0.0721072 0.062585734 -0.05142696
-0.12772626 -0.009825979 -0.22082299 0.15283436 0.101054914 -0.14030667 -0.22305933 -0.117926195
-0.14123341 0.18833911 0.23119092 0.18821472 0.04855498 0.21095644 -0.18722634 0.17541647
-0.24641612 -0.13727282 -0.14385305 -0.077427134 -0.2284269 0.02634849 0.16493444 -0.010118816
-0.12308495 -0.23354419 -0.08243761 0.1319298 0.20595816 0.072121605 0.09839696 0.15893051
0.20626917 -0.0412376 0.11590379 -0.029363438 0.13256432 0.20777754 0.19569357 -0.105064265
0.040076844 -0.122534595 -0.06060678 0.009563083 -0.12282589 -0.17528827 0.0074819583 0.056014992
-0.08092983 0.12502384 -0.21769686 0.031670846 -0.041092806 0.027533656 0.05432543 0.20770407
-0.10897953 -0.22993337 -0.054623403 -0.12025114 -0.15802532 0.20314401 -0.08387163 -0.0105414
-0.21719809 -0.018030327 0.21360768 0.024702016 -0.10519506 -0.05157672 0.12950389 0.030783495
0.23296906 -0.12316719 0.23409313 0.1464808 -0.0010599832 0.22655374 -0.122604206 0.017284846
-0.1964652 -0.030650128 0.17038283 -0.2138178 -0.134778 0.18863751 0.22949418 -0.10190747

bias f4 [680]
00000000: e9c9 01be dbb9 533e 4e28 173e fec9 683d
00000010: 00d1 54bd 0e09 7dbd 0018 c9bd d27d 4fbb
00000020: 26a3 34be 839c f5bb c1ea da3c 9952 3abe
00000030: dd73 593d 5b40 f2bb c5e1 13be 7b69 dfbd
00000040: 4933 4b3e 8912 f23d e477 b1bd 40dd 7fbd
00000050: bba0 353e 64c6 2a3d 02ff bcbd 63f4 eb3b
00000060: 8ad8 643d edd4 503c f8fe bfbc a9e0 513e
00000070: 2bbe 773e 7c3f 11be f6a7 fabc 01ee fc3d
00000080: f886 603e 635b 80bd ecd2 69be b812 e53c
00000090: d2dc 4a3d ec52 9cb9 e2b4 bc3c 8430 4cbe
000000a0: 5a2b f7bd f65a f9bd d52a 73bd b0a1 38be
000000b0: 5a31 ca3d fd4c 513e 6dec 32be d3b9 50be
000000c0: 9423 e33c 49d9 303e 0df0 aa3d 460e 143e
000000d0: 58e6 22bb ddb2 68ba f593 7ebb e137 8cbd
000000e0: 2d25 e93b 504a 48be b4a7 70bb c31d 783d
000000f0: 28b8 6639 fa41 5b3e 9dbf 423d a156 583e
00000100: bf96 783e 4e76 79b8 dfd0 cbbd 6a4e edbd
00000110: 8342 e53d c8fa 79bd ded9 f7bd ec5f 72bd
00000120: e82a 933d 6b36 463e 995e 16bc 1a75 f3bd
00000130: 3eb3 31bd dcef 26bd cb42 c93d 053e cf3d
00000140: c5a5 68bd 485e 17be 86b8 87bd 30bf e6bd
00000150: cbed 003e 1570 4c3e 095f 81bd 06a8 503e
00000160: 27e6 a6bc 8588 283e a32e e03c f6d2 193e
00000170: 8f75 d3bd afa3 35be ff81 e63d 813e a63c
00000180: ec71 663e 482c b2bb a195 bf3b 5aed 95bd
00000190: bf26 303e 2548 63bd 1672 52bb 0550 7c3e
000001a0: b611 393e eb4e b3bd 0ee6 2eb5 7a4c 563d
000001b0: 22ce 9ebd 02f7 ab3d c8a1 143e e487 3f3c
000001c0: 9625 1fbd 1c85 89bd 0e67 a53d 1764 b2bd
000001d0: b7b2 e43d 59d8 51bc e010 b13d ac4d 583e
000001e0: 6257 2ebe 1805 0fbe 6463 633e fad9 a0bd
000001f0: 980d 153d a93d 513e 11ac e73d 1ee6 0bbe
00000200: 2eb7 14be 7101 49be 3751 c2bd 6499 253e
00000210: 74c0 00be e986 983d 78f3 213e 7014 24bd
00000220: bdac 97bd ed1c f83d bb9f 4a3d 1570 263e
00000230: 8291 373e 8f5c a33c fe8a 0fbe 7d65 c0bd
00000240: 1390 c73d 044e 3abe d1e7 85bd 47e7 40be
00000250: 8be6 413e 8ed2 553e 807f 14be 2d23 063e
00000260: b7ae 463e 4497 2f3e 9673 b03d f73a 4b3e
00000270: 6c75 e3bd df0b 543d 27e4 d5bd fc4b 38be
00000280: 2757 febd 000d 073e 5298 573b 58dd 103e
00000290: a9d0 be38 54b6 bc3d 06bc 873d 4a08 e33b
000002a0: a6b1 7abd 0231 953d 1685 f93c a975 1b3e
000002b0: 940d a3bd a353 083e e438 123d 8d0a 0fbe
000002c0: 64f8 36be c39a 443e c645 5939 ea73 eebc
000002d0: 6c22 aebd a344 3a3d 4ba0 0e3e 52ed a03d
000002e0: 7a19 c83d 8b5f 753e d83b 133e 6a1a 0038
000002f0: 6642 05be 2ebf dabc 8486 ed3d 3f96 2abe
00000300: 3976 e2bb 869b b83d 12cd c9bd dc8d 023e
00000310: 20ce 703d 2db1 683e aeb3 323d 0c99 bcbd
00000320: c30d 5cbd 2ba8 95bc af54 70bd eb2b b1bd
00000330: 4dd1 a43d d0fa 533e a992 e5bc fef3 083c
00000340: ba4a 8dbb b8a2 083e 4024 3abe d225 79bd
00000350: 4f23 e638 9bdb 3dbd 6976 303e 6052 383c
00000360: 04f8 4a3e 164a 00bc c082 2b3d 293f 31be
00000370: a65f 703e e187 62bc 37eb 6cbc 2a44 a93c
00000380: 57f9 4a3e 39cd 9b3d a3a4 fc3d e06b aa3d
00000390: 813e a43d 635f 713d 1717 323e 7562 db3d
000003a0: 9429 543e e07e 333e 7cdf 33be 3f2f 293d
000003b0: 49eb e93d c566 34be 8920 a63d 6006 d1bd
000003c0: 5b85 6b3e cb92 a03d 4e70 1d3e a134 01bd
000003d0: fb38 2f3e 936f 303e 1f0e 07be 7702 4e3d
000003e0: 7d6e 533e d072 6e3e c694 913d ae08 32bd
000003f0: d026 63be faae 2bbe b672 243e 17f6 4dbe
-0.12674679 0.20676367 0.14761469 0.05683326 -0.05195713 -0.061776213 -0.09819031 -0.0031660688
-0.17640361 -0.0074954643 0.026723268 -0.18195571 0.05308901 -0.0073929257 -0.14441593 -0.10908791
0.19843782 0.118199416 -0.086654454 -0.06246686 0.17737095 0.041693106 -0.092283264 0.007200764
0.05587057 0.012746078 -0.023437008 0.20495857 0.24193637 -0.14184374 -0.030597668 0.12350083
0.21926486 -0.06267431 -0.22834367 0.027963027 0.049526997 -0.0002981642 0.02303547 -0.19940382
-0.120688155 -0.121755525 -0.05936702 -0.18030429 0.09872694 0.20439525 -0.17473002 -0.20383386
0.027726926 0.17270388 0.08346567 0.1445857 -0.0024856534 -0.00088767504 -0.0038845513 -0.068465956
0.0071150274 -0.19559598 -0.0036721053 0.060575258 0.00022003113 0.21411887 0.047546018 0.21126796
0.24276255 -5.9476406e-05 -0.099519484 -0.11587222 0.11194327 -0.06103018 -0.12102102 -0.05917351
0.07185918 0.19356696 -0.009177827 -0.1188757 -0.04338383 -0.04075609 0.09827193 0.10119251
-0.056798715 -0.14782059 -0.06626992 -0.11266935 0.12590711 0.19964631 -0.06316955 0.20376596
-0.020373417 0.16458328 0.027365988 0.15021881 -0.10325157 -0.17738222 0.112552635 0.020293476
0.22504395 -0.0054374076 0.0058466946 -0.07320662 0.1720228 -0.055488724 -0.0032111458 0.246399
0.18073162 -0.08755287 -6.5154825e-07 0.052319027 -0.077541605 0.083967224 0.1451484 0.011690114
-0.038854204 -0.06714842 0.08076297 -0.08710497 0.111669 -0.012807929 0.08645797 0.2112338
-0.17025521 -0.13966787 0.22205883 -0.07854076 0.036389917 0.20433678 0.11312116 -0.13662001
-0.14523003 -0.19629456 -0.09488147 0.16171795 -0.12573415 0.07447607 0.15815532 -0.040058553
-0.07405994 0.12114892 0.049468737 0.16253693 0.179266 0.019941596 -0.14017865 -0.09394357
0.09744277 -0.18193823 -0.06538356 -0.18838225 0.18935601 0.20881101 -0.14501762 0.13099356
0.19402586 0.17147547 0.08615796 0.19846712 -0.11106381 0.051769134 -0.10443907 -0.17997736
-0.12418967 0.13188553 0.0032897186 0.14146936 9.098772e-05 0.09214464 0.066276595 0.0069284784
-0.061204575 0.07284738 0.030458968 0.15181603 -0.07961574 0.13313155 0.035698786 -0.13968869
-0.17868191 0.19199662 0.00020720725 -0.029108007 -0.08502659 0.045475613 0.13928334 0.07857765
0.09770484 0.23962228 0.14378297 3.0542178e-05 -0.1301361 -0.02670249 0.115979224 -0.16658877
-0.006911066 0.09014039 -0.09853567 0.12749428 0.058790326 0.22723837 0.043628387 -0.09208879
-0.05372406 -0.018268665 -0.05867451 -0.08650955 0.080477335 0.20701146 -0.028024035 0.0083589535
-0.0043118866 0.13343322 -0.18177891 -0.060827084 0.000109738314 -0.04635201 0.1723267 0.0112501085
0.19821173 -0.007830163 0.04187274 -0.1730925 0.23473987 -0.013826341 -0.014460376 0.020662386
0.19821678 0.076075025 0.123360895 0.08321357 0.08019734 0.05892886 0.1739162 0.107121386
0.20718986 0.17528868 -0.17565721 0.041304823 0.1142183 -0.17617328 0.08111674 -0.10206294
0.2300009 0.078404985 0.15374872 -0.03154433 0.1711158 0.17230062 -0.1318898 0.05029532
0.20647617 0.23285985 0.071084544 -0.04346531 -0.22182775 -0.16765967 0.16059384 -0.20113407

weight f4 [4, 680]
00000000: ca8e 1c3a ec2c 1cbc a6cc 053d 773b 273d
00000010: 0db3 0639 181a ceb7 7349 9439 0199 6dbb
00000020: 3786 81b7 b49a e837 1ed1 53bd 21b9 27bc
00000030: 4074 103c f4a1 843c bcb3 ac3b a5e5 c639
00000040: 8d93 c7bc ec0f c9bb b06c fe3c 0ece f53c
00000050: f7a7 353d b8c4 90bc 4ef0 9939 1086 413c
00000060: c1f7 babb ee23 903c ea33 b8bc 8a84 203c
00000070: 6c2a f73b f9ab 8ebb 4684 083d 2d1e 1b3d
00000080: e590 f5bc 662f 723c 9740 db3b 4bf7 dcbb
00000090: 9d0e 05bb be92 89b9 3853 aabb a1ed e63c
000000a0: b80c 2e3c 0036 23b6 424a 7339 339e 40b9
000000b0: 03a5 37bb 1632 3c3c 9ee6 8c39 ae2b 39bc
000000c0: 6dba 2b3c 04b0 6d3a 6e83 f23c af70 293c
000000d0: 5aa8 4abd 5cbe 14bd 2fff 0fbd 4bb7 0ebd
000000e0: c0a8 f33a 2a19 74b7 23b9 0b3b b07a 933c
000000f0: 3ffd 9ab9 91fb 5dbc 9e00 b4bc c2e7 38bc
00000100: 2963 41bc b363 06b9 ec3e 90b9 bf40 debb
00000110: a333 17bd 881c 41b8 1d7b 06b9 31e5 fcb8
00000120: bf5b a43a 4dde c03c 9cfc 1c3d 62e2 94b9
00000130: de7d a1bc 1679 7d37 2a21 88bc 85e8 e53c
00000140: 60a6 81b4 5773 b53c b515 e93c d1d6 afb7
00000150: ec33 143d d57a fdbb 0c63 dabc f2ee 103b
00000160: 80a8 2ebc f278 4b3c 9a84 f43c 2ba2 cbbc
00000170: 628d ff37 4ffd 57bc bb8c 1b3d d1cb 103d
00000180: b6b8 0e3d a490 cd38 5b4b 1b3d 8b90 20b9
00000190: 9866 0a3c be58 5cbb f338 3fbc 8fe1 e93c
000001a0: 2979 b13a 39c3 e6bc 3448 543b c558 c53c
000001b0: 59e8 dbbc 61a3 833c 0c2c 013d 7b98 a5bc
000001c0: dbdc 00bc 4e77 103d cfd1 f83b 56fd f5b8
000001d0: 6e33 2d3d dd30 65b9 28b4 2e3d c1f4 4c3b
000001e0: 6d7c c539 3111 323b 576a d83c 575e f2ba
000001f0: 8430 f1b8 5137 45bc 4314 ea3c e148 d1b8
00000200: c71d 6ab7 f7fa f138 a356 1f3b f89c 0b3b
00000210: 1f7d 8ebb 1f27 bbbc 922d 15bd 7f5a 6a39
00000220: 94f2 6ebc c50c 32bb d43b 943c 1d23 633c
00000230: 5d72 f83c a4d8 f9bc b8f2 44b8 374a 8b3c
00000240: 0ebd ed3b 4e10 e3b8 9421 ec3c 61e0 9439
00000250: f12f f5bc 1d3f cdbb 4c3e 55bd a73f aebc
00000260: b972 213d efb7 bb3c 4459 c63c 7c19 1ebb
00000270: 68d6 9cb9 d740 213d 03a0 3238 9e9d 0f3b
00000280: d4fe a036 1cd8 b4bc 1441 a0b9 ef9e 5f3c
00000290: 25f3 9b39 bda5 323d 9675 b53c 3b44 8dbc
000002a0: a439 97bb 6e8e 8f3c 4fc7 ce38 93b7 87bc
000002b0: 5a38 58b8 12d8 e9bc 6c26 d7bc b6ea f738
000002c0: 8714 8237 c44a ea3c d1eb 24b7 dc7d da37
000002d0: 6658 283b 77b3 20b8 e1a1 52bc f9b8 2d3c
000002e0: db04 28bc 0bb2 f63c 6920 ee3c 8c40 393b
000002f0: 682f 8337 c29a f3bc 215f ccbc c1ce 0f39
00000300: e2dd e8bc 532b 5fbc 8d6c f738 834d 033a
00000310: b293 c73c 1958 e23c 7b81 443b 297d 603a
00000320: 38a5 243d 69dd 8e38 496c ad3a 754f fabc
00000330: c0da e33c ab8b fbbc 0309 1a3d ffc2 c3bc
00000340: 1a3c 0bbd c46e 72bc 65a4 a43c 0d2e 163a
00000350: 32c2 4036 23a0 a239 03a2 b3bc 7e13 223d
00000360: 573a 983b a9ed f338 d785 58bc e69c 0538
00000370: a9f7 e93c 2532 2dbb f4be e7bc e7e2 933b
00000380: f920 193b 5568 333c 33d5 773c 6c5a fabb
00000390: 18ce 203d 1db5 f03b c0e4 86bc de73 f0bb
000003a0: f3ab bcbb db44 473b f47b 1e37 7ceb e13c
000003b0: 8dcc e43c 898a afbb 47a3 6abc 5a53 ae3c
000003c0: f49d a43c f4ca 2bbb f9ca 9c3a e0a2 28bc
000003d0: b42f a8bb bb09 0b3d b0d9 37b9 7034 b6bc
000003e0: 51b3 0c3d a237 ac3c a065 45bc 77da e638
000003f0: b9c6 993c 2150 65b7 2293 d93c c5e7 80bd
0.0005972205 -0.009532195 0.03266587 0.040828194 0.00012845937 -2.4569264e-05 0.00028283484 -0.0036254528
-1.5440497e-05 2.7728594e-05 -0.0517131 -0.010237009 0.008816779 0.016190507 0.0052704494 0.000379366
-0.02436235 -0.0061359312 0.031057686 0.030005481 0.044349637 -0.017671928 0.00029361475 0.011811748
-0.005705804 0.017595258 -0.022485692 0.009797225 0.007542899 -0.004353997 0.03332927 0.037870575
-0.029976318 0.0147818085 0.0066910493 -0.006743347 -0.00203029 -0.00026240008 -0.0051979087 0.028189482
0.01062315 -2.4320325e-06 0.00023201949 -0.0001836948 -0.0028021939 0.011486551 0.00026874704 -0.011301918
0.010481459 0.0009067061 0.029603686 0.010341807 -0.04947696 -0.036314353 -0.03515547 -0.03484277
0.001858972 -1.4549392e-05 0.0021320067 0.018002838 -0.00029561852 -0.013548748 -0.02197295 -0.011285724
-0.011803427 -0.00012816377 -0.000275127 -0.0067826207 -0.03691448 -4.6041358e-05 -0.00012825099 -0.000120589866
0.001253955 0.023543501 0.038326845 -0.00028397428 -0.019713338 1.5108168e-05 -0.016617376 0.028064976
-2.4149176e-07 0.022149725 0.028452734 -2.0961657e-05 0.03618233 -0.00773559 -0.026658557 0.0022115079
-0.010660291 0.012418972 0.029848386 -0.024857601 3.0464205e-05 -0.013182952 0.037976008 0.035350624
0.034844123 9.802103e-05 0.03791366 -0.00015312636 0.008447312 -0.003362223 -0.011671293 0.028549938
0.0013540137 -0.028169261 0.003239167 0.02409018 -0.02684419 0.016069116 0.031536147 -0.02021431
-0.007865156 0.035270028 0.0075933705 -0.00011729698 0.042285375 -0.00021857345 0.04265228 0.0031273814
0.00037667472 0.0027170891 0.026417894 -0.001849125 -0.00011500812 -0.012037114 0.028574115 -9.979471e-05
-1.395442e-05 0.00011538521 0.0024313114 0.0021303277 -0.0043484117 -0.022845803 -0.036420412 0.00022349691
-0.014584202 -0.0027168256 0.018094935 0.013863352 0.03032797 -0.03049881 -4.695609e-05 0.017003162
0.007255203 -0.000108272405 0.028824605 0.00028395935 -0.029930087 -0.006263627 -0.052061364 -0.021270586
0.03941605 0.022914855 0.024212487 -0.0024124077 -0.00029914384 0.039368477 4.258753e-05 0.0021914016
4.7980375e-06 -0.022075705 -0.00030566065 0.013648733 0.0002974506 0.04361509 0.022150796 -0.017244449
-0.0046150256 0.01752397 9.8599696e-05 -0.016567027 -5.1550895e-05 -0.028545413 -0.026263438 0.00011821596
1.5506766e-05 0.028600104 -9.830067e-06 2.6046233e-05 0.0025687455 -3.8314112e-05 -0.012855978 0.010603183
-0.010255064 0.030114194 0.029068189 0.0028267233 1.5638492e-05 -0.02973688 -0.024947705 0.00013714565
-0.028426114 -0.013621169 0.00011798097 0.00050088036 0.024362419 0.027629899 0.0029984403 0.0008563572
0.040196627 6.8123285e-05 0.0013231124 -0.030555466 0.027814269 -0.030706247 0.03760625 -0.023896692
-0.033992864 -0.014796916 0.02009792 0.0005728908 2.8723266e-06 0.0003101836 -0.02192784 0.03956937
0.0046456265 0.000116314106 -0.013215504 3.1855794e-05 0.028560476 -0.0026427594 -0.028289296 0.004513133
0.00233656 0.010950168 0.015126514 -0.0076401737 0.039259046 0.007345809 -0.016466498 -0.007338031
-0.0057578026 0.0030406031 9.446394e-06 0.027578108 0.027929569 -0.005357091 -0.014321155 0.02127998
0.02009485 -0.0026213499 0.0011962346 -0.010292739 -0.00513264 0.033944827 -0.00017533335 -0.022241801
0.034350697 0.021022622 -0.012048155 0.00011007947 0.018771516 -1.366812e-05 0.026559416 -0.062942065

bias f4 [4]
00000000: 7355 083d bb4b b0bc d176 06bd a82f 5abb
0.033284616 -0.021520486 -0.032828156 -0.0033292565
