estimators/knet/single_obs/KalmanNetNN_lossvelMSE_ep100_train4000_val1000_test10000_lr1e-03_wd1e-04_data_sr1e-01_q1e-04_r1e-01_j5_train[200,250]_val[40,250]_test[40,250].pt (torch, 156759 bytes, 40 tensors)

weight_ih_l0 f4 [48, 20]
00000000: edff 06be db59 b7bd 2fab 4c3e 60aa 8e3d
00000010: cd31 77bd 8cc3 183e 7b6a d6bd cf51 30bd
00000020: a313 623e 910c 583e a615 41be 28c0 66bc
00000030: e911 51be 0c66 e1bd b05b 8e3c 448f 2e3e
00000040: b29f 533e 00e7 b83d da70 f13d a08c 223e
00000050: b510 133e 866f 43be 4915 373e d020 7a3d
00000060: 5120 0ebe 6222 e4bd 6f1f 4c3e a871 22be
00000070: 2d89 a9bd a644 7b3d 2bac 2c3d a02b 753e
00000080: 613c a9bd 9aa5 febd c5af 8fbd 97e3 3cbe
00000090: 01ca 4ebd 91a7 25be 3202 8b3d e64c 55bd
000000a0: 0978 803e 29aa 843e 08ab ecbc aa98 683d
000000b0: be01 e3bd 392d 0b3e a5f4 cf3d f02f 1bbe
000000c0: ea2b 213e d5f3 ffbc c804 d83d 8e9b 8cbd
000000d0: b36c 17bd 4dbd 6cbd ea02 59be e3ab 833e
000000e0: b205 d1bb 5ef7 4bbe 3160 983d dfbe 16bc
000000f0: 3520 57be 53c6 5d3d 99de e2bd e7cb 363c
00000100: c674 c0bd 02ad e33d 3d9d 153e e341 723e
00000110: f677 013e 61ad 403e 232e 19be c625 3c3e
00000120: d79a 84bc a57a eaba 62b1 c3bb f29b 67be
00000130: 4105 efbc df87 66be 8004 463e bdae 793e
00000140: d724 2e3e d19f 80be 5108 b3bc 7df8 66bd
00000150: 1668 ad3d 6b42 39be aff9 033e 35b4 793e
00000160: bfe1 823e b4b2 0d3e ba76 91bd 00c6 8fbd
00000170: 6d70 1f3e 8b42 b03d dca3 2f3e c697 cf3c
00000180: 7145 093e 830b 7dbe 99f4 b8bd 6d17 3ebe
00000190: 537d 283e 0979 203e e68b 85be 26bb 0a3e
000001a0: 306e 59be 1c47 3bbd 6cca 933d 6395 5d3e
000001b0: f6d8 213e eb3c 22be 5452 a63d 2ff5 d8bd
000001c0: e183 6cbe ea00 723c 96fa 6fbd 4643 2f3e
000001d0: 544a 343e b46b 053e dddc e3bd 4233 82be
000001e0: 0646 033e 7d33 623e 040b 3abd da97 463c
000001f0: 4dba 07be 940b 32be 2048 1e3e d9ec b0bd
00000200: 097f cdbd 149f 4cbe 9ad5 833d f8b5 0d3e
00000210: 2d5d 0abe eb73 febb 6972 1dbe 84b1 42bd
00000220: 6032 4f3d 6734 283e 1890 cebd 846d 47bd
00000230: 28d6 61bc 57c1 e53d 1de5 2b3e ddc4 d4bd
00000240: 23d8 223e 8c19 7bbe f497 383e 10e1 bc3d
00000250: 23fe a5bc 324b 67be 2862 69be 35f4 733e
00000260: dddc 593e f13f 233e 0075 22be 5f46 2e3d
00000270: f9ae 7abd 735d 04be f378 bcbd 13f7 3ebd
00000280: 0a4b 9bbc 043e fcbc e64d 7cbd 27e3 5ebe
00000290: 5555 023e b6d2 9bbc 519a 49be 5a00 d0bd
000002a0: 89bb e5bd 7041 5a3d a854 35be b9db 613e
000002b0: a832 473d 4070 0cbe 5244 2dbe 8e40 0b3e
000002c0: 9eaa 703d 51c2 f63d 6079 2b3e da8b 2e3d
000002d0: 5254 163d d6e4 323c 72b9 eabd 3209 82bc
000002e0: 62f9 80ba 172d 74be 14e0 593e 34ea 3c3e
000002f0: 6436 623e 297d e4bd c4cb 56bd 4fb3 183d
00000300: 62a5 a13d d685 993c 1a2a fa3c 29b5 133d
00000310: 55bc a23d 4d49 6c3e 2edf 4abe ad5c f23d
00000320: f7fe 3ebe 4a10 b8bd 9d64 7c3e 0a54 253e
00000330: 47e4 253e 9836 603e 10d0 523d 3888 42be
00000340: 50f8 41be 7794 403e 1f0b 05be 5be2 cebd
00000350: 3516 5a3d 8454 4fbe bd33 5b3e 330c 723d
00000360: 42de 47bc e682 a4bd c71e 473e aa82 5f3e
00000370: 03b2 243e 65e3 94bd 53ab 833c 729e 3d3e
00000380: 27b5 3e3e e173 60be 1cba 443e 65b6 4ebe
00000390: 73d0 8ebd e94c 3e3b ac19 25bd d940 6b3e
000003a0: 8b09 cbbd cf32 01bc c737 01be 7726 263e
000003b0: b45d 183e efd0 02be ef7b 173e 428c 113e
000003c0: c871 333d 8df5 68be 5a52 6bbe f91e 803e
000003d0: 558f c9bc 74ef 3dbe 5aa2 ff3b 3136 7e3e
000003e0: 2361 173a d78e 083e b863 00bd 5e2f b03d
000003f0: 452d e73d 8ec5 593e e2b4 cabd 4ba0 aa3d
-0.13183565 -0.089526854 0.19987176 0.0696609 -0.060350228 0.14918345 -0.10469528 -0.04304677
0.22077803 0.21098544 -0.18855914 -0.0140839 -0.20416988 -0.11005792 0.017377704 0.17046839
0.20666388 0.09028435 0.11789103 0.15873957 0.14361842 -0.19085512 0.17879213 0.06106645
-0.13879515 -0.111393705 0.19933866 -0.15863669 -0.08278117 0.061344765 0.04215638 0.23942423
-0.082634695 -0.1243393 -0.07015947 -0.18446194 -0.050485615 -0.16177203 0.06787528 -0.05207529
0.2509158 0.25911072 -0.028890148 0.056786217 -0.11084317 0.1359147 0.10154084 -0.15155005
0.15739408 -0.031244198 0.10547787 -0.06865607 -0.036968898 -0.05779772 -0.21192518 0.25717077
-0.0063788528 -0.19918582 0.07440222 -0.009200781 -0.2100838 0.054144215 -0.110776134 0.011157013
-0.09397273 0.11116983 0.14610763 0.23657946 0.12643418 0.18816139 -0.14959006 0.18373784
-0.016187115 -0.0017889334 -0.0059720734 -0.22618082 -0.02917731 -0.22512768 0.19337654 0.24383064
0.17006241 -0.2512193 -0.021854552 -0.05638932 0.084671184 -0.18091743 0.12888215 0.2438515
0.25562856 0.13837701 -0.071027234 -0.070201874 0.15570231 0.08606442 0.17152351 0.025340926
0.13405396 -0.24711423 -0.09031028 -0.18563624 0.16454057 0.15671171 -0.26083297 0.13547954
-0.2123344 -0.045722112 0.07216343 0.21639018 0.1580542 -0.15843551 0.081211716 -0.1059364
-0.23097183 0.014770726 -0.058588587 0.17115507 0.17606479 0.13029367 -0.11126111 -0.25429732
0.1281968 0.22089954 -0.04542066 0.012121165 -0.13254662 -0.17387229 0.15457201 -0.08638925
-0.10033996 -0.19982558 0.06437226 0.13838947 -0.13512106 -0.0077652833 -0.15375675 -0.047532573
0.05058515 0.1642624 -0.100860775 -0.048688427 -0.013783969 0.11218517 0.16786619 -0.10389111
0.15902762 -0.24521464 0.18026716 0.09222615 -0.020262783 -0.22587278 -0.2279135 0.23823626
0.21275659 0.1594236 -0.15864944 0.04254758 -0.061202023 -0.12926273 -0.09202757 -0.046622347
-0.01895668 -0.03079129 -0.061597727 -0.21766339 0.12727864 -0.019021373 -0.19687773 -0.10156317
-0.1121741 0.053285062 -0.17708075 0.22056474 0.048632294 -0.13714695 -0.16920593 0.13598844
0.058756463 0.12048782 0.1674552 0.04261384 0.036701508 0.010918817 -0.11461152 -0.015873525
-0.0009839947 -0.23845325 0.21276885 0.18448716 0.22091061 -0.11156685 -0.05244042 0.037280377
0.078928724 0.018740576 0.030537654 0.03606144 0.07946078 0.23074837 -0.19811699 0.11834083
-0.18651949 -0.08987482 0.24647756 0.1614534 0.16200362 0.21895826 0.051467955 -0.18997276
-0.1894238 0.18806635 -0.12992524 -0.10101768 0.053243835 -0.20247084 0.21406455 0.059093665
-0.0121989865 -0.080327794 0.19445334 0.21827188 0.16083531 -0.072699346 0.016072905 0.18517473
0.18623792 -0.21919204 0.1921162 -0.20186765 -0.06973352 0.0029037541 -0.040307686 0.22973956
-0.099139296 -0.007885649 -0.12618934 0.1622561 0.14879495 -0.12775014 0.1479337 0.1421366
0.043809682 -0.2274992 -0.22980633 0.2502363 -0.024604479 -0.18548375 0.0078013362 0.2482536
0.00057746674 0.13335739 -0.0313451 0.086027846 0.11287931 0.21266767 -0.09897782 0.08331355

weight_hh_l0 f4 [48, 16]
00000000: ec84 54be 5d0b d8bd b80b 78bb 4af7 673e
00000010: 3bcc 4e3e f909 153e 4cf2 32be b84b 70bd
00000020: d2b4 6c3e 858e 3e3c 0a5c 4b3e 7efb 1abe
00000030: 102b 583e bf3a 95bd 1fd9 d1bd 6249 193d
00000040: 2b9c 7ebe 9b38 c8bd 2be2 53be 23e2 cb3c
00000050: 158c bc3d 4f09 b03d ee73 dabd 7924 5d3e
00000060: e095 7bbd 0b89 3c3e 2733 87bc 8816 ecbd
00000070: 3116 193e 2abf c1bd 4d3a e43d b182 40be
00000080: ad05 103d 3015 c2bd 2a17 363e 9530 eabc
00000090: 5a59 dabd fbd0 3dbe d9c5 523e 5891 bc3d
000000a0: 356f f9bc e74d 7b3d 94df 893d ca70 cbbd
000000b0: 3745 efbd bf76 043e f7dd 793e 9861 ebbd
000000c0: ab43 b03d c356 26bd b40b 95bc 4f6c 07bc
000000d0: 08bf b13d 3e2d 70be da98 e6bc 5aa4 633d
000000e0: 309c 9cbc 6195 7abd 9d22 ce3d 0713 5a3e
000000f0: 18a7 4c3e 264e ef3c 5faf 213d 9319 5a3e
00000100: 8c72 63bc b348 1f3e f392 233e 226e 09bd
00000110: ad4f 663e 3ddb 00be f79d 8abd b0f5 003d
00000120: 5ef8 20bc 12c6 b5bd 5d65 933d 38ed 0bbd
00000130: a1da d53c dfa5 743e 2a00 0e3e 98d1 99bb
00000140: 0a4e 03bd 99cc 54be 4ac3 c2bd f7e7 37be
00000150: 75af 5e3e f987 64bc df3c 1cbe 49aa 283c
00000160: caa5 11be cfab 3d3d 33f2 513e f989 843e
00000170: b9eb 2e3e 9e47 173e c3a5 6bbe 0d89 1ebe
00000180: 9ace b13d 5990 363e 063e c13c ec74 853d
00000190: f72b 073e 8d2e aa3c ca17 f2bd d44b 413d
000001a0: a5d4 e43d 859f 713e 610e 69be 2426 1cbe
000001b0: de6e 6fbe a468 36bd 5ab1 683d 4c26 c63d
000001c0: ad35 653e 2af3 393e 3949 403c fad2 713e
000001d0: 9b68 11be b40f 19be 9e84 733d 7276 b9bc
000001e0: 2134 74be b7fd d5bc 4747 4c3e f9c7 ad3d
000001f0: d56a 21be 21d3 1c3e d534 09be ae11 263e
00000200: efc7 283e f212 8e3d 67a7 293c bdf3 333e
00000210: b013 1d3e 05c6 093e 1f56 b1bd 6f43 f0bd
00000220: 5b8a 64bd f9d7 1b3e 6e0a e3bd 4442 f0bd
00000230: 1fcc 51be 3c55 7fbe 765f 203d 69ee c0bd
00000240: 4792 753e 66d4 2ebe ee45 b63d ff51 2e3d
00000250: 73b9 8b3c b360 483e fc02 323e 5ffd 84bd
00000260: e7fa 3dbe 9edd 1ebe b3d6 6cbe 9374 19be
00000270: 178b 793e afd6 67be 7355 18be b342 e93d
00000280: cf23 193d 0211 04be a5b8 65be 95ca 333e
00000290: a4a0 e13d 3a1f 14be fcb3 21be 5631 f4bc
000002a0: 5f4b 47be 6235 9c3d 2ed6 343e e5f2 a93c
000002b0: 77e3 33bd c539 383e 5cae 0a3d 7544 afbd
000002c0: 17b3 18be 4e8a 0bbd ec66 9a3c 0a11 0ebd
000002d0: 6416 19bd 79a9 69be e13a cd3c 8c4c 25be
000002e0: 6976 c7bd bb0d 0e3e 688b ea3d 5668 6fbe
000002f0: 3d8c 8a3d 206d 0cbe 5e74 263e 84dc fa3d
00000300: 7a42 f5bd 3864 58be a73d c93d 9761 5a3e
00000310: 9440 44be 083d 20be 9093 df3d e072 a73c
00000320: 55f4 3b3e 3953 073e f2a0 433e 180c 78be
00000330: 991f d6bd f7df b0bb ac84 3ebe 5e85 1abe
00000340: fd73 4e3e a57b bdbc 9699 9c3d e9e9 453e
00000350: e8c1 6dbe c351 9ebd a002 573e 0360 54be
00000360: e06d 22be 4e4b 31be 0f9a a2bd bfa6 033e
00000370: a0c8 40be 52e1 bdbd 2497 c13d 8a0a 313e
00000380: 7614 393d cfd2 233e 4966 c23d ee22 c2bc
00000390: c0f8 f53d 9e56 38be 29cd 3fbe 868d 68be
000003a0: ee37 d93c 4c2c 383e 2b55 06bc 34ab 153e
000003b0: b994 edbd ac1a 6c3e fd9d 4dbe 63fb 003e
000003c0: c274 57be c616 30bd c52f 5bbd 7928 163e
000003d0: f492 543e cb05 06be 3d93 b1bd c6e2 4bbe
000003e0: d267 93bc 00f6 533d 199e 633e 24a9 183e
000003f0: 52e2 6bbd 4ea9 23bd e53f 023e ad22 9f3c
-0.2075383 -0.105490424 -0.0037848782 0.22652927 0.20195095 0.14554586 -0.17475241 -0.05866596
0.23115852 0.011630659 0.19859329 -0.15134999 0.21110177 -0.072865956 -0.10246491 0.0374235
-0.24864261 -0.09776422 -0.20691745 0.024888104 0.09206406 0.085955255 -0.10666643 0.21595944
-0.06142223 0.18411653 -0.016503884 -0.11527735 0.14949872 -0.0946029 0.111439325 -0.18799855
0.035161663 -0.094766974 0.17782274 -0.028587619 -0.10661574 -0.18536751 0.20583285 0.092074096
-0.030448535 0.06135359 0.06732097 -0.09933622 -0.116831236 0.12935923 0.24401079 -0.11493224
0.08606657 -0.040610086 -0.018194057 -0.008265569 0.086790144 -0.23454759 -0.028149057 0.05557666
-0.019117445 -0.061177615 0.10065196 0.21296321 0.19985616 0.029212069 0.039473888 0.21298818
-0.013882291 0.15555076 0.15974025 -0.033552296 0.22491331 -0.12583633 -0.06768411 0.031484306
-0.00982484 -0.088756695 0.07197068 -0.034161776 0.026105227 0.238914 0.1386725 -0.004694175
-0.032056846 -0.20781173 -0.09509905 -0.17959581 0.21746619 -0.013948434 -0.15257595 0.010294505
-0.142234 0.046306428 0.20502548 0.25886515 0.17082109 0.14773414 -0.23012452 -0.15481968
0.08681984 0.17828502 0.023589145 0.06516442 0.13200365 0.02077415 -0.11820944 0.047191456
0.11173371 0.23596008 -0.22759391 -0.15248924 -0.23382136 -0.044533387 0.05680976 0.09675273
0.22383757 0.18159166 0.011736208 0.23615637 -0.1420006 -0.14947397 0.059452645 -0.022639487
-0.2384801 -0.026121957 0.19949065 0.084854074 -0.1576341 0.15314914 -0.1339906 0.16217682
0.16482519 0.06937207 0.010354853 0.17573448 0.15339541 0.13454445 -0.086590044 -0.11731612
-0.05579601 0.15219106 -0.11085974 -0.11731389 -0.20488022 -0.24934858 0.03915354 -0.09420473
0.23981582 -0.17073211 0.08900057 0.042558666 0.017056203 0.19568138 0.17383951 -0.06493639
-0.18552743 -0.15514228 -0.23128776 -0.14985876 0.24369465 -0.22640489 -0.14876346 0.11389675
0.037387665 -0.12897113 -0.22433718 0.17557748 0.11016968 -0.14465037 -0.15791315 -0.029808681
-0.19462346 0.076273695 0.17659828 0.020745704 -0.0439181 0.17990787 0.03385769 -0.08557979
-0.14912067 -0.034067445 0.018847905 -0.03468422 -0.03737487 -0.22818555 0.02505249 -0.16142482
-0.09739382 0.13872425 0.11452371 -0.23379645 0.067650296 -0.13713503 0.16255328 0.12249091
-0.1197557 -0.2113198 0.098262124 0.2132629 -0.1916526 -0.15648282 0.10916817 0.020440519
0.18354924 0.1321534 0.19104365 -0.24223363 -0.104552455 -0.0053977924 -0.18605298 -0.15089938
0.20161434 -0.023130247 0.07646482 0.19327511 -0.232185 -0.077304386 0.20997095 -0.2073975
-0.15862226 -0.17313883 -0.079395406 0.12856577 -0.18826532 -0.09271492 0.09452656 0.17289177
0.04518553 0.15998386 0.094921656 -0.023698296 0.12010336 -0.18001792 -0.18730606 -0.22710237
0.026515927 0.17985648 -0.008199017 0.1461609 -0.11600632 0.2305705 -0.20079799 0.12595896
-0.21040633 -0.04299047 -0.053512353 0.14663877 0.20759183 -0.13088147 -0.086706616 -0.19910726
-0.017993841 0.051748276 0.22228278 0.14908272 -0.057588883 -0.039956383 0.12719686 0.019425714

bias_ih_l0 f4 [48]
00000000: 4408 ecbd 3442 6d3e 8221 a93d d3ba 1e3e
00000010: 3c06 3f3e bfb4 4a3c 672f f2bd 35ec 093e
00000020: 7447 053e 5044 02be d10e 293e 43f4 803d
00000030: f6a4 693e 38c7 f0bc 3a7e 17be 9921 40be
00000040: 81e8 63be d54a 0d3e 74a5 9dbd 68b7 b8bd
00000050: dafd e5bb 4de4 693e 94f1 31bd 4ed6 9c3d
00000060: 6e13 fd3d 1b1b 63be b642 7c3c 38b5 04be
00000070: a871 82be 4a14 54be 59a6 c4ba d558 3fbd
00000080: 6b7e 503e a495 913d 4fff c73c f541 fc3d
00000090: 838b 683e 184a 283e 1440 163e 5fff 9a3c
000000a0: a723 f1bd 85e4 e93d 7cff 74be 0904 64be
000000b0: afde 4f3e 4a67 24be 9d9e fc3d d785 593e
-0.11525014 0.23169786 0.08258344 0.15500955 0.18654722 0.012372195 -0.118254475 0.13469012
0.13015538 -0.12721372 0.16509558 0.06296589 0.22816834 -0.02939187 -0.14794245 -0.18762816
-0.22256662 0.13798077 -0.07697573 -0.09019357 -0.007018787 0.22840996 -0.043443277 0.07658063
0.123572215 -0.22178309 0.0153967645 -0.12959754 -0.25477338 -0.20710865 -0.0015003189 -0.046715576
0.20360725 0.0710862 0.024413733 0.12317268 0.2270947 0.16434515 0.14672881 0.018920599
-0.11774378 0.1142054 -0.23925585 -0.22267164 0.20299791 -0.16055027 0.123349406 0.21242462

bias_hh_l0 f4 [48]
00000000: 132b c1bd 70eb 613e f81d 97bc 5dd3 01bd
00000010: 15c7 cdbd cbfb f8bc 7977 5c3e f93b d9bd
00000020: addc f63d 3ae9 163c 3a17 8b3b 448f 7dbb
00000030: c09c 17be 28af 1abe 04d8 803d 0158 e83c
00000040: f2bb 6bbe e6ba 6d3c 34d1 123e 26d5 f0bd
00000050: f135 063d 18de d83d 8b4a 89bd 4769 46be
00000060: bb1c 2c3e 3d7a 1ebc 856a 683d 43b4 583e
00000070: 4d5e 7bbe c4b4 003c 1e77 febd 0866 38be
00000080: c0da 90bc 064e c73d d675 a93d eacd 703d
00000090: 9f1c 52be 1223 f5bd 4fdf 07be 74e4 80bd
000000a0: 5082 2fbe c051 db3d 8fd9 c4bd 8f0a 45be
000000b0: 7691 863d 7308 163d 3f2d b2bd b3c9 4e3e
-0.09432044 0.22062469 -0.018446907 -0.031695712 -0.100477375 -0.030393502 0.2152995 -0.10607142
0.12053809 0.009210879 0.004244712 -0.003869013 -0.14805889 -0.1510588 0.06291202 0.028362276
-0.23020914 0.014509892 0.14337617 -0.11759405 0.032766286 0.10589236 -0.06703671 -0.19376098
0.16807835 -0.009672699 0.05674221 0.21162514 -0.24547692 0.007855598 -0.124250636 -0.18007672
-0.017682433 0.09731679 0.082744285 0.058790125 -0.2051873 -0.1196958 -0.13268779 -0.06293574
-0.17139554 0.10708952 -0.096118085 -0.19242309 0.06570713 0.03662915 -0.08700036 0.2019413

weight_ih_l0 f4 [48, 36]
00000000: f056 80be f6e9 4dbb 8be8 203e ebd0 3ebe
00000010: 807a 5e3e 86cd 9b3d d5a2 76be 5a78 923d
00000020: 8dcb 5fbe f3fc cf3d 0688 973d 62b9 443e
00000030: 3409 e8bd 1628 673e f423 883d e809 07be
00000040: 4fae a7bd ea45 293e 9ece 9fbd 41cc 39be
00000050: 40aa 25be 733d a8bd 5ef2 de3d b369 623e
00000060: 1353 b53d c056 dfbd 56f2 4abe dfbf fbbd
00000070: ceda 45be b135 dcbd 481c 193e 842a 533d
00000080: c8b9 513e f5c0 823e 40d6 f0bd 180c 6c3d
00000090: 9d2c 93bd f0a2 3c3e 4574 5cbd b4e5 9c3d
000000a0: 6b22 69bc 9789 813d 191d 66bc 3230 34be
000000b0: 8107 cfbb f63b e8bb 7806 ca3d 91bc d9bd
000000c0: da46 57be 73e0 31be d800 d4bc 5bdb 45be
000000d0: 0592 733e 3625 70bd 6eb4 703d 2618 053e
000000e0: 3d5b 1abe 986d 7abe 9cc2 103d 701f 053e
000000f0: c447 303e 5780 06be 49f1 1a3c 8d67 253e
00000100: 2536 3fbe cf43 adbc 58c2 253d aa55 0dbe
00000110: 2218 293c 434b 73be 2f7d 0cbe c567 c13c
00000120: d262 513d a8b5 f03c 11dc 5abe e30f 93bd
00000130: 2ebb 7a3e 51e9 0e3e 01e6 23be 613c df3d
00000140: 9104 8dbd ad28 3e3e c970 c83d b241 aa3d
00000150: 0b44 0e3c e945 6a3d acff cc3d 4123 c63b
00000160: fafb 75bd 5924 fabd 4db0 67be 3650 6d3e
00000170: 5aa0 453e ef4c 573c ad75 fbbd dd51 cfbd
00000180: b11e 16be 849e 34be b77a fa3d 85f8 44be
00000190: 8325 1a3e 6de1 eebd 22f6 81bd 4b1a 1cbe
000001a0: 56d7 fe3d 2e95 2b3e 1654 62bd c9b5 8dbd
000001b0: 4903 8cbd b35a 02bc 73f7 653e 7a52 45bd
000001c0: 5859 753a b142 fa3d 01db 38bd 716b 97bc
000001d0: a48f 213b 9705 573d 17ac 4a3e e59e 0d3e
000001e0: 5ab7 e9bd 62a7 41be 1157 3d3e d809 e4bd
000001f0: 058d 053e 03bd debc b6d2 4cbd f724 cd3d
00000200: a3c8 083d a91b 8cbd 8f04 18be 3243 a4bd
00000210: 026b f0bd 07da 35be 0358 57be 07d9 06be
00000220: e4ef 2ebd 3f5d b5bd 6670 6dbe bae7 113e
00000230: b5ff a6bc 6031 efbd b662 c33d d7dc 82bd
00000240: 3948 433e f969 e53c ec14 47bd 1caa b23d
00000250: a6e9 e13c 4345 343e a33c fa3c a14c 29bb
00000260: 931a 1ebd fe41 7abd beb8 243e 5a81 563e
00000270: 4b8e 36be b91c 573d 62ee 603e 5eec 633e
00000280: 5e7e 03be 63f0 a23c b33e eabc 476a c73d
00000290: 4e29 70be 20a2 47bd 5832 e2bd 4d5e 2f3d
000002a0: b7c3 0f3e d832 66be 06bd a23d b6fc 363e
000002b0: 1ddb ac3d bdb0 333e 4dd4 b2bd f9f3 4dbe
000002c0: a0be 7f3a 997d 8d3d 4fba 973d 7ff9 4ebd
000002d0: 12b8 85bd f5f8 79be 7f5c 2e3d b191 e7bd
000002e0: 79d0 65be f9f2 883c c995 63be 4bdd 7bbe
000002f0: 3928 96bd 6ad8 80be 88a7 1bbe e32c 56be
00000300: abdf f0bd 64b2 063e 4b71 663e 23f7 b83d
00000310: 2e00 d2bc cdf3 2fbe 5b6c 51bd e731 59bd
00000320: 7644 c7bd de89 de39 c5ab f1bc cb5d 73bc
00000330: 9706 d33d e7e9 a03d 223d 7abd a7e3 2abe
00000340: 20bf fd3d 1e1b 4f3e acc7 20be edae b1bd
00000350: da1d 3a3e 19b5 8fbc 8dc9 54be 4459 babd
00000360: cf5e ba3d 5f49 543e b98f 233e 3ba6 693e
00000370: 2dda 5e3e de12 573e 969a f33d a67a 4abe
00000380: 01cc 823d 67d6 acbd 6ac0 723d fc1a cdbd
00000390: 307b 703e ec99 bebd 7f44 61be 0d07 923d
000003a0: d945 583e 8b18 223e 65af b13d 8243 083d
000003b0: 6888 5b3e 5e92 24be 9b5c 563e 73eb af3d
000003c0: bf7d 793e d937 3fbe 682c 1cbd be57 4d3e
000003d0: 80b2 113e 85f9 b6bd 5cfe 083e 424d 203e
000003e0: 5556 59be d922 f43d 50a5 dc3d b086 d53d
000003f0: 0b53 78be 22e8 e6bd 415d 6bbe 8800 37be
-0.25066328 -0.003141997 0.15713708 -0.18634383 0.21726418 0.0760756 -0.24085553 0.071518615
-0.21854992 0.10155668 0.07398991 0.19211343 -0.1132988 0.22573885 0.066474825 -0.13187373
-0.081875436 0.16530576 -0.07803081 -0.18144323 -0.16178226 -0.082148455 0.108860716 0.22110634
0.08853736 -0.10905218 -0.19819006 -0.12292456 -0.19321749 -0.10752428 0.14952195 0.051554218
0.20481026 0.2553784 -0.11759615 0.05762872 -0.07186244 0.1842153 -0.05382182 0.07661
-0.014229397 0.06325071 -0.014045023 -0.1759651 -0.006318033 -0.007087226 0.09864515 -0.10631669
-0.21023121 -0.17370777 -0.025879309 -0.19321959 0.23786171 -0.058629237 0.05876582 0.12997493
-0.15073867 -0.24455869 0.035341844 0.13000274 0.17214876 -0.13134895 0.009456941 0.16152783
-0.18672998 -0.021150498 0.040468544 -0.1380221 0.010320695 -0.23759179 -0.13719629 0.023609051
0.051119633 0.029383495 -0.21373011 -0.071807645 0.24485466 0.1395619 -0.16005708 0.10900188
-0.068856366 0.18570204 0.09787137 0.08313312 0.008683215 0.057195578 0.10009703 0.006046683
-0.060054757 -0.12213964 -0.22625847 0.2317513 0.1929945 0.013140901 -0.12278304 -0.10123036
-0.14660145 -0.17638594 0.12230437 -0.19235428 0.15053372 -0.1166409 -0.06345774 -0.15244405
0.12443416 0.16756126 -0.05525597 -0.069194384 -0.06836564 -0.007956195 0.22457676 -0.04817436
0.00093593216 0.122197516 -0.045130733 -0.01848385 0.0024652267 0.052495565 0.1979221 0.13830145
-0.11411925 -0.18911508 0.18490244 -0.1113469 0.13042076 -0.027189737 -0.050005637 0.10016816
0.033394467 -0.06841213 -0.14845489 -0.08020629 -0.1173916 -0.17758952 -0.21029668 -0.13168727
-0.042709246 -0.08855676 -0.23187408 0.14248553 -0.020385602 -0.116793394 0.09540312 -0.06389778
0.1907052 0.028004633 -0.048603937 0.08723852 0.027577233 0.17604546 0.030546492 -0.0025833028
-0.038599562 -0.06109809 0.16086099 0.20947781 -0.17827718 0.052517626 0.21965936 0.22258136
-0.12841174 0.019890016 -0.02859435 0.09737068 -0.23453256 -0.0487386 -0.110447586 0.04281454
0.14039503 -0.22480333 0.079462096 0.17869839 0.0844023 0.17547889 -0.087318994 -0.201126
0.00097558834 0.069087215 0.074085824 -0.050530907 -0.06529249 -0.24411376 0.04256868 -0.11307085
-0.22442807 0.01671742 -0.22225107 -0.24596135 -0.073318906 -0.2516511 -0.15200627 -0.2091556
-0.11761411 0.13153988 0.22504155 0.090315126 -0.025634851 -0.17182846 -0.051128726 -0.053026106
-0.09729855 0.0004244586 -0.029500851 -0.014853905 0.10303991 0.07857113 -0.061093457 -0.16688405
0.1238997 0.20225188 -0.15701169 -0.086759426 0.1817545 -0.017542409 -0.2078001 -0.09099057
0.091001146 0.20731114 0.15972795 0.22817318 0.21762915 0.21003291 0.11894719 -0.19773349
0.06386567 -0.084393315 0.05926553 -0.100149125 0.23484492 -0.09306702 -0.21998785 0.07130251
0.21120395 0.15829675 0.08676032 0.033267505 0.21438754 -0.1607146 0.20933764 0.0858983
0.24364375 -0.18673648 -0.038128287 0.20053002 0.14228249 -0.08934311 0.1337828 0.15654472
-0.2122434 0.11920709 0.10773718 0.1042608 -0.24250428 -0.112747446 -0.22984792 -0.17871296

weight_hh_l0 f4 [48, 16]
00000000: 10ff 37be f607 3d3e 7cf0 1d3e 4a68 7c3a
00000010: 5aa0 57be afdf 5d3e b34c d93d a08f 053e
00000020: e150 e8bd 1570 58be 7bea 3e3e ee5e ae3b
00000030: 74b5 23be 5a3c 31be 472f 34be 0685 1e3d
00000040: 5417 24be ca5f 9dbd e097 fabd 9496 573e
00000050: b3e5 64be 3398 043c db80 f43d 1f08 1bbe
00000060: 031d 623e 970a 1e3e 91ef 513e a5fe 273e
00000070: 29b3 643b 6935 0dbe d01f e33d ad79 6f3e
00000080: b32b 78bd 1071 43be b573 40bc f5cc e6bd
00000090: 2d32 6c3e be27 073e 1e2f 13be 7fba f03d
000000a0: ba3d c6bd e7b7 5a3e 43a3 653e ff53 f43d
000000b0: 2ec0 65be b109 413e b1a5 513e 5e67 703d
000000c0: 7685 d8bd 6524 693d 947f a8bd 6db5 813a
000000d0: c425 08be cdeb 543e ed55 983c e350 393e
000000e0: f304 743e a6c8 39be 7684 c9bd 33aa 7bba
000000f0: e0ce dabc 6e1a aabd 3e32 b9bd 5e72 c73d
00000100: aa2b b0bd 819a 0e3a e864 0a3e 4c9f ba38
00000110: 17b4 45be 5c21 253e 2e8d 373e 3153 263e
00000120: 87fe 17bd 25b1 593e c0da 71bd d484 f5bc
00000130: 7714 59be 2a0b fc3d 2fb9 80be 46f3 3e3e
00000140: a5fd 46be 4116 083e 4e9b 44be 4a78 bf3a
00000150: b98e 39be 750d 58bd e87a ecba 0d6e 4bbd
00000160: 1e05 6d3e 54e0 36be 1dbe fabd 2839 003e
00000170: e726 ac3d 7227 043e fa12 3dbe fa53 81be
00000180: c4d1 c3bd 51e6 453e 485d b3bd b9c8 53bd
00000190: 0d9f 353e 3fb4 0abe 2323 193a 77b4 403e
000001a0: 8160 80bc 628e 2dbd 310b 45bd c88f f13b
000001b0: 9e02 2d3e 5a5b eebc 3a9f 35bd 2358 44be
000001c0: 9832 643e a744 57be b1ca 46be 65d7 55be
000001d0: dfff 2abe 975c 0f3e 081a 9eba ac83 513e
000001e0: 842c c33c 2013 00be 7c87 02be 884f 04be
000001f0: 4fae 46be b9b0 42be 1129 47be 168f 44bd
00000200: cc57 63be 8ccb 16be 9c97 553d f760 0aba
00000210: 12db 4a3e 1702 383e 1ac9 9cbd 8a88 31be
00000220: a755 70bb 035f 48be 0a36 a83d d221 b63d
00000230: 82a3 f53d 02c6 4e3e 8d11 d0bc 7f5c 06be
00000240: f24f 1abe c6f1 24be 8ea1 2ebd 8721 94bd
00000250: baa5 1c3e 6e1c eab9 d2d1 133d a77f c43d
00000260: f2e7 153e ef9d e2bd 2bd0 d63b def0 093e
00000270: 1860 123d 7514 d6bd 668c e0bd eb78 75be
00000280: 9f74 60be 7bc5 0abe d800 04be eaea 46bd
00000290: b5b7 3b3e 4141 66be 466d a53d d4e8 0fbb
000002a0: 3314 563e 0261 0d3e 524d 18bd c2cc 843a
000002b0: 7ffe a7bd ad09 ca3c acee 253e 0adc f7bd
000002c0: 7c39 80be 838c 063d b9ae 233e d7bc df3d
000002d0: 25c1 99bd 0162 1f3e d28e 023e 7c0a 0b3e
000002e0: 6343 0fbe 5946 99ba 0857 50be 6129 f43d
000002f0: 5c7a d93d 3002 813c b527 f3bd 659c e9bd
00000300: 8331 62bd ed1f 863d 6a9d 443d 7b49 0ebe
00000310: e3b5 593e 07f1 17be 18ca a3bd 606a d03d
00000320: 930d 4cbe 36eb 52be dd89 343e 1862 4c3d
00000330: 3c67 6a3e e2f1 1cbd c970 b93d 9185 163e
00000340: 9e07 b43d 9ad3 ac3d a589 333e 4c76 dcbd
00000350: 2ad3 3c3e b896 fdbd 6eaa 483e 1364 eebd
00000360: eb4c f53d 9fb6 c63d c301 07bd fbdf 03be
00000370: ec06 49be 6fae 6a3e 85a6 683e d30b 673e
00000380: 7c73 e6bd 674e 853c ed8e 67bd 4daa dabd
00000390: 815c 943d a280 05bc 3abe 4e3e 15b8 4d3e
000003a0: 8a98 233e bc85 48b9 500a 06be 8ca2 2438
000003b0: fe15 f23d a195 31be db52 bf3d 8d44 f03c
000003c0: 71d8 5fbe 1dc6 0dbe 3944 a23c 33f2 26be
000003d0: 9270 41be 0271 313e cebe 383e cbab 193e
000003e0: d2f0 6bbd a7f7 733b ba26 ba3d eebd 003e
000003f0: d1a6 02be 288b 473e c81b 773d 5d5f 0b3e
-0.17968392 0.18460068 0.15423769 0.00096285774 -0.21057263 0.2166736 0.10610332 0.1304307
-0.113435514 -0.21136506 0.18644135 0.005321375 -0.15987188 -0.17308179 -0.1759616 0.03870108
-0.16024524 -0.07684286 -0.12235999 0.21053535 -0.22353248 0.008092928 0.1193864 -0.15139817
0.2208138 0.15433727 0.20501544 0.16405733 0.0034896827 -0.13789906 0.11090052 0.2338626
-0.06058855 -0.19086099 -0.011746337 -0.11269561 0.23066016 0.13198754 -0.14373443 0.11754321
-0.09679742 0.21359216 0.2242556 0.119300835 -0.22436592 0.18851353 0.20473363 0.05869233
-0.10572331 0.056919474 -0.082274586 0.0009895988 -0.13295656 0.20793076 0.01859566 0.18097262
0.23830013 -0.18142948 -0.09839718 -0.0009600252 -0.026709974 -0.08305822 -0.09042786 0.09738611
-0.08602078 0.0005439893 0.13515055 8.8988425e-05 -0.1930698 0.16126007 0.1792495 0.16242673
-0.03710797 0.21258982 -0.059046507 -0.029970564 -0.21199213 0.12306817 -0.25141284 0.18647489
-0.19432695 0.13289739 -0.19199869 0.0014607992 -0.1812085 -0.05274721 -0.0018042 -0.0496655
0.23146483 -0.17859012 -0.122432925 0.12521803 0.084058575 0.12905672 -0.1846427 -0.25259382
-0.09561494 0.1932614 -0.08758026 -0.051705096 0.17736454 -0.13545321 0.00058417226 0.18818842
-0.015671017 -0.042372115 -0.048106376 0.0073718764 0.1689553 -0.029096294 -0.044341303 -0.19174246
0.22284925 -0.21022283 -0.19413258 -0.20882948 -0.1669917 0.14000164 -0.0012062201 0.20460385
0.023824938 -0.12507296 -0.12746996 -0.12920964 -0.19402431 -0.19012727 -0.1944926 -0.04798802
-0.2220146 -0.14726084 0.05214654 -0.0005278731 0.19810131 0.17969547 -0.076555446 -0.17337242
-0.0036672147 -0.19567494 0.08213432 0.088931695 0.11994077 0.20192721 -0.025398994 -0.13121222
-0.15069559 -0.16107854 -0.04263454 -0.07232957 0.15297595 -0.0004465314 0.036088772 0.0959466
0.14639261 -0.1106528 0.0065555773 0.1347079 0.035736173 -0.104531206 -0.10964279 -0.23971908
-0.21919487 -0.13551895 -0.12890947 -0.048563875 0.18331797 -0.2248583 0.08077483 -0.0021958845
0.20906143 0.13806537 -0.037183113 0.0010131823 -0.08202838 0.024662817 0.16204327 -0.12102516
-0.25043857 0.032848846 0.1598462 0.1092469 -0.075075425 0.1556473 0.12749794 0.13578218
-0.1399055 -0.0011693939 -0.203457 0.11921955 0.10619041 0.015748113 -0.11872808 -0.11406783
-0.055223 0.06549058 0.048001684 -0.13895218 0.2126079 -0.14838038 -0.07997531 0.101765394
-0.19927053 -0.20597538 0.17630716 0.049898237 0.22890943 -0.038316615 0.09054715 0.14699389
0.08790515 0.08438797 0.17532976 -0.10764751 0.18439928 -0.12382263 0.19596264 -0.116401814
0.119775616 0.09702801 -0.032960664 -0.1287841 -0.19631547 0.22918104 0.22719772 0.22563104
-0.11252496 0.016272737 -0.05653279 -0.106770135 0.07244206 -0.008148344 0.20189753 0.20089753
0.15976158 -0.00019123306 -0.13089871 3.925203e-05 0.11820601 -0.17342235 0.09341975 0.029329563
-0.2185991 -0.13845105 0.019807922 -0.16303329 -0.18890598 0.17328265 0.18041536 0.1500694
-0.05760271 0.003722647 0.09089418 0.12572452 -0.12758948 0.19486678 0.06032923 0.13610597

bias_ih_l0 f4 [48]
00000000: 1927 35be 226d 16bb 4693 10bd 32ce 47bd
00000010: 35ee 183e 4fc5 3d3d bec6 733d cf22 47bd
00000020: 84d5 20bd d46e 0f3e e7b7 6dbe fc6c d83d
00000030: 9c63 5abe e0ad febd f6dd abbb efd5 e6bd
00000040: c4e8 4b3e 711b 823d 035a d83d 4a4a 453e
00000050: 558d aabd 634c 42be 6651 e4bd 64c2 603e
00000060: 6206 1bbb 0bbc 623d ae68 a5bd 9c18 4b3e
00000070: 8d19 323e ec4d 05be a82d 343e 0f6f 7ebd
00000080: ce1e d83d 593d 6b3e 29bc ffbd 76a8 753e
00000090: c729 af3b 5ce9 cf3d e26a 403d 4da2 6abd
000000a0: ddca 26be 8632 383d 9134 64bd 9628 56be
000000b0: 626a 45bd fe88 4bbe a6cc a23c cd39 ffbd
-0.17690696 -0.0022953232 -0.0352967 -0.048780628 0.14934619 0.046330746 0.059515707 -0.04861718
-0.039266124 0.14007121 -0.23214684 0.10567662 -0.2132706 -0.12435508 -0.0052449657 -0.11271273
0.19913012 0.0635289 0.105640434 0.1926662 -0.08327738 -0.18974452 -0.11148338 0.21949154
-0.0023654927 0.055355113 -0.08076607 0.19833606 0.1739256 -0.13018006 0.17595541 -0.062117632
0.105527505 0.22972621 -0.124870606 0.23990044 0.0053455564 0.10151932 0.04697693 -0.05728369
-0.16288324 0.044970058 -0.055714194 -0.2091392 -0.048197158 -0.19876477 0.019872975 -0.124621965

bias_hh_l0 f4 [48]
00000000: a974 703e d67d 13be 118e 02be 0102 603e
00000010: fdea 5dbe 3e38 51be ea7f cf3d 719c bdbd
00000020: 0eb8 70bd 4215 4fbe 187f f33d 9a02 0abe
00000030: e610 d23d 6c89 163e 96f4 3d3e 96e3 5f3e
00000040: 9d38 673d da7b ebbd e5de 163e a2e0 8d3c
00000050: c679 7a3e a3b3 0bbe e0ae e8bd 19e3 6cbd
00000060: 7ed1 6b3e 044c 843d d784 583e fd1a 64be
00000070: 9eca bcbd f152 92bd e490 65bd d1d7 723e
00000080: a0a9 003e d9c1 ae3b 108f 5c3e d579 5abe
00000090: 445a 143e ae81 013d 2338 583d afb7 82bd
000000a0: cff6 913d 797f d0bd ce21 0c3e 4276 cb3d
000000b0: ef8a 93bd b155 723e b055 803d 12e6 e3bd
0.23482002 -0.14403471 -0.12749507 0.21875764 -0.21671672 -0.20431611 0.101318195 -0.092583545
-0.05876928 -0.20222953 0.118894756 -0.13477555 0.10257129 0.1470086 0.18550333 0.21864161
0.056450475 -0.11498232 0.14733465 0.017319027 0.24460515 -0.13642745 -0.1136148 -0.057833765
0.23029134 0.06459811 0.21144424 -0.2227592 -0.09218334 -0.07144726 -0.05604638 0.2371514
0.12564707 0.005333167 0.21538949 -0.21335538 0.14487559 0.031617813 0.05278791 -0.06382691
0.07127153 -0.101805635 0.1368477 0.09934665 -0.07204234 0.23665501 0.062663436 -0.11127867

weight_ih_l0 f4 [3, 11]
00000000: c4c9 6d3d f150 6f3e 2219 57bf 5bb0 d03e
00000010: 8cc0 80bf 3a36 323f dc24 f13e e070 593f
00000020: d8ba 4e3f cbdd 213f 3f53 6cbf 6ac7 663f
00000030: a1b8 293f 375c 26bf c041 503e 59cf d7be
00000040: 8153 32bf ca13 6fbe d095 48bf 486a e0be
00000050: b010 b73d 3a3c 02bf faa2 e9be a65f 4a3d
00000060: 6f07 5e3f 78fb e0be 4848 403e ceee 0a3f
00000070: b830 adbe a382 e43e 3ee3 82be 8c0d ad3c
00000080: b437 1b3f
0.058053747 0.2337072 -0.84022725 0.4075955 -1.0058761 0.69613993 0.47098434 0.8493786
0.8075385 0.63229054 -0.92314523 0.9014803 0.66297346 -0.6498446 0.20337582 -0.4215038
-0.69658667 -0.23347393 -0.78353596 -0.43831086 0.0893873 -0.5087315 -0.45632154 0.049407624
0.8673009 -0.43941855 0.18777573 0.5427064 -0.33826232 0.44630918 -0.25563997 0.021124624
0.6063187

weight_hh_l0 f4 [3, 1]
00000000: 8ab6 58bf 56e0 d4be ebe0 38bf
-0.8465353 -0.41577405 -0.722182

bias_ih_l0 f4 [3]
00000000: e321 363f d4d6 ec3d b7bd 963e
0.7114546 0.11564413 0.29441616

bias_hh_l0 f4 [3]
00000000: bc6f 20bf 3147 613f 2c17 56bf
-0.62670493 0.87999254 -0.8362911

weight f4 [1, 16]
00000000: 2aea 31be caad 98bb f6ec 2c3e f942 083e
00000010: fff2 d73d 97ca 52be cc32 13be 9735 273e
00000020: 20ca 34be 0afb 1a3e cb5f 453e 0f12 4d3e
00000030: 3bcf 633e 7387 0dbe dac7 ee3d 523b 6bbe
-0.17374483 -0.004659389 0.16887268 0.13306798 0.10544395 -0.20585094 -0.14374846 0.16329037
-0.1765523 0.15134826 0.19274823 0.2002642 0.22247021 -0.13821201 0.116592124 -0.22971848

weight f4 [680, 17]
00000000: 549f 1d3e 5035 59be 0fbc 06be 4d03 03be
00000010: c6e2 1d3e 8944 ec3d 7d61 3abe 4780 753d
00000020: 5c0c 82bd 5bb5 7bbe 3c86 09be b54b 043e
00000030: eb91 f2bd 4788 66be c9b8 43be 0ef2 7b3d
00000040: 55ed 4fbd 297d 6c3d 91ab 35be 1e55 183e
00000050: 3306 163d fe93 3439 bb27 df3b 8c9e 3bbd
00000060: 1d32 c43c 616c 393e 3bbb e139 759f 42be
00000070: bab8 ebbb c9f9 0ebe ce84 853a 7eca 193b
00000080: 177a 8b3c 8ab5 4e3d 470f 46ba 7758 38be
00000090: 4fcd 09bb ad26 f63d 9b65 343e b053 333e
000000a0: a714 65ba e8cb babd f190 163e 9964 45bd
000000b0: 879c 45bd f52e 213e 545b 4d3e e386 0c3d
000000c0: 1d2b 3abe 58c0 6cbd 1793 cabb a299 f1bd
000000d0: f7ca d3bd 5739 22be 30b2 ce3d c2f4 d9bd
000000e0: 1a93 afb9 267e f2bd 9bc8 ec3d b4c5 243e
000000f0: da8d e8bd 0363 233d 66ad 0bbb f51f ee39
00000100: 8995 403e c4b9 ca3c 1e0f f6bd 7558 fc3d
00000110: cb36 d63d c1be 22be 0fab 22be e54c e03d
00000120: a3e1 d83d d08e 73bd 57cf 0e3e b9b5 20bd
00000130: 4b2f 0f3b 4df2 37be 1bdc 35be fa79 eabc
00000140: 8135 e0bd d49e 17be e4a9 48bd dde6 96bd
00000150: 433f 09be 573c 9cbb 3ca7 27bd 1eec 8e3d
00000160: 5de8 743e 4e42 6abd 7738 5b3e c20c 6fbe
00000170: 1b37 473e 7c94 a5bb 0a56 87bd 812d 0c3e
00000180: d1d2 babd 65b4 cbbd c8a0 40bd 2591 ce3d
00000190: ee30 d93d f3d1 b6bd 4b50 aabd de44 1ebd
000001a0: 6eef 243e 4a43 5cbd e018 e43d 2240 4cbc
000001b0: 18e7 05be 750a dc3c c89e 9fbd 2080 41be
000001c0: ac01 053e e711 3c3e 56d6 013e cb05 523e
000001d0: 1317 40be f071 1cbe a4a5 2b3e 26da f83d
000001e0: 6e6f 923d b835 083e 3cbc ec3d 6ba7 2b3d
000001f0: 2f83 8fbc 345b 4f3e d46d 33be f7f5 f33d
00000200: 99c7 633e b409 4dbe f78e 2f3e 0df6 dabd
00000210: 43be de3d dfc6 f23d a101 1d3e c43c 863c
00000220: c972 89bc 70bb cf3d 3b7f ed3d 7900 693e
00000230: deb6 0c3e 9c54 91bd b168 d53d 4fcb 0e3d
00000240: 0506 d2bd 6aff 4c3e 4dff 4a3e 1696 cb3d
00000250: a428 27be d7cc 4f3e d962 bebd 86c2 03be
00000260: 887d d33d 2f3a ecbd c9d2 0a3e 53b8 2fbe
00000270: 6d26 77ba ab4c b2bc a0b6 febd 75c0 12be
00000280: c523 8a3c 8647 69bd 03e1 e13b 3eb2 bb3c
00000290: 1635 eb3d 37b6 b23d 6f04 cdbc 5443 da3d
000002a0: 0c31 2fbe ab4f 0fbe b3b9 803e dc06 01be
000002b0: 112d c53d 54e3 743e b3b8 6fbd f019 86bb
000002c0: 6f9b 523e a8cd ce3b 79b7 243e 9d43 b4bc
000002d0: ec45 ffbc ca44 3c3d e51a 70bd 35e1 583e
000002e0: b42f 1abe 35e6 ca3d 070d ff3d 41c8 ce3d
000002f0: 365a 0f3e ef2a 28be f1f2 5fbe 2699 6fbe
00000300: 0816 533e 7431 5a3e ae24 573e 75d7 b8bc
00000310: 5365 0d3e 338a 823d 83c0 34be 452e 4a3e
00000320: d4c1 693c 2634 323d 269f 4c3e 0109 833c
00000330: f6a1 0a3b 0543 213e b3e6 1fbe 25cc cf3d
00000340: 8d27 20bd a6a1 49be 33cc 9e3d ae54 46bc
00000350: 2923 b9bc a3f2 0b3e c985 17be d390 003e
00000360: 0942 e3bd b63b f4bd 4eaf 3b3c 1b3c a5bd
00000370: 9b53 223e fc76 fe3d 6bb1 513e bcf2 0cbd
00000380: a9b1 00be 8072 16be 2076 f33d 985f 2a3e
00000390: 2ebb 92b8 b168 c93d 1737 17be df49 52be
000003a0: 4073 0a3b 18ec 52be 2b41 293b 4815 363e
000003b0: cf79 103e abf5 073b 0fac 543e 826a ec3d
000003c0: 3ae0 f43d 5732 4cbd 456f d63d d0ae 59be
000003d0: 077d c0bd 4cb9 1b3e a2e2 e0bd 025c 463e
000003e0: 61a7 d4bd 9eb7 fa3c 3308 a33c b7ca 99bc
000003f0: 4233 40be e35b 323e 6202 463c cf42 29be
0.1539281 -0.21211743 -0.13157676 -0.12794228 0.15418538 0.115365095 -0.18201251 0.059936788
-0.063500136 -0.245809 -0.13430113 0.12919505 -0.11844238 -0.22512923 -0.19113459 0.06151014
-0.050763447 0.05773655 -0.17741229 0.1487622 0.036627006 0.00017221269 0.006810156 -0.0458055
0.023949677 0.1810775 0.00043054842 -0.1900614 -0.007193652 -0.13962473 0.0010186674 0.0023466642
0.01702599 0.050466098 -0.0007555377 -0.18002497 -0.0021026914 0.120190956 0.17616884 0.17512393
-0.0008738734 -0.09120923 0.14703728 -0.04819164 -0.04824498 0.15740569 0.2005437 0.034308325
-0.18180509 -0.05780062 -0.0061820853 -0.11796881 -0.10341447 -0.15842186 0.1009258 -0.10642387
-0.000334882 -0.11840467 0.115617 0.16091043 -0.11355181 0.039889347 -0.002131307 0.00045418707
0.18807043 0.024746783 -0.12014602 0.12321559 0.1045967 -0.1589308 -0.15885566 0.109521665
0.10589912 -0.05946237 0.13946281 -0.039235804 0.0021848257 -0.17963524 -0.17759745 -0.028622616
-0.10947705 -0.14806682 -0.048990145 -0.073682524 -0.13403039 -0.0047679353 -0.04093097 0.069786295
0.23916765 -0.05719214 0.21408258 -0.2334471 0.19454615 -0.005053101 -0.066082075 0.13689233
-0.09122241 -0.09946517 -0.047028333 0.10086278 0.10605036 -0.089267634 -0.08316096 -0.038639896
0.1610696 -0.05377511 0.11137557 -0.012466462 -0.13076437 0.026860455 -0.07793957 -0.18896532
0.12988919 0.18366204 0.12679419 0.20510022 -0.18758802 -0.15277839 0.16762406 0.121509835
0.0715016 0.13301742 0.1155934 0.04190771 -0.017518608 0.20249635 -0.17522365 0.119121484
0.22244109 -0.20023233 0.1714438 -0.10691462 0.10876133 0.11854338 0.15332653 0.016386397
-0.016778367 0.10143173 0.11596533 0.22754087 0.13741633 -0.07096216 0.10420359 0.03486186
-0.102550544 0.20019308 0.19823952 0.09940736 -0.16324097 0.20292984 -0.092961974 -0.12867174
0.103266776 -0.11534535 0.1355697 -0.17160158 -0.0009428028 -0.021765074 -0.12437177 -0.14331229
0.01686276 -0.056952976 0.0068932786 0.022912141 0.11484735 0.08726161 -0.025026528 0.10657373
-0.17108554 -0.13995235 0.25141677 -0.12600273 0.09627736 0.23914844 -0.058525752 -0.0040924475
0.20567106 0.006311137 0.16085614 -0.022004897 -0.031161271 0.04596404 -0.0586194 0.2117966
-0.1505726 0.0990719 0.12453657 0.10096789 0.13999256 -0.16422628 -0.21870019 -0.23398265
0.20613873 0.21307927 0.21010086 -0.022563675 0.13808183 0.06374016 -0.17651562 0.19744213
0.014267404 0.043506764 0.19982585 0.015995504 0.0021153665 0.15748222 -0.15615349 0.10146359
-0.03910022 -0.1969057 0.07753792 -0.01210515 -0.022599773 0.13666777 -0.14797129 0.12555246
-0.110965796 -0.119254515 0.01145537 -0.08068105 0.15852205 0.12425038 0.20477836 -0.034411177
-0.12567772 -0.14692116 0.11887765 0.16638029 -6.9966874e-05 0.098344214 -0.14767109 -0.20535992
0.0021125823 -0.20597875 0.0025826197 0.17781556 0.14108966 0.0020745795 0.2076876 0.11543752
0.1195683 -0.049852695 0.10470442 -0.21258092 -0.09398847 0.15207404 -0.10980727 0.19371036
-0.103834875 0.030605134 0.01990137 -0.01877342 -0.18769553 0.17417865 0.012085529 -0.16529392

bias f4 [680]
00000000: c2ae 673e bdf0 54bd 5964 6dbd b43c debd
00000010: 5630 41be 846c 95bd d203 4ebe 8336 363e
00000020: d528 083e 4d06 51be 15fc 0dbd 523f 663e
00000030: 82cd 31be 4092 cdbd fb05 d93d 002e 3ebe
00000040: 10c5 ca3d e203 22be 2fcd 97bd 1d21 1abd
00000050: 8a26 1f3e ee0b a73d f018 473e 4ba5 b7bd
00000060: 706d d7bc 8eea 473e bd76 03bb 046b a93d
00000070: 549c 5ebd 8dc9 1dbe 6572 323d 0411 bf3d
00000080: 2a60 1b3e c207 ccbc f900 263e 8484 363e
00000090: 9cb6 073b e5e4 b03d 4698 41be 4cc6 213e
000000a0: ad7e f23d 056e adbd 0329 fcbc 1381 d33c
000000b0: 8308 093e e80d 2d3e 4f2e debd 5160 3bbd
000000c0: 4f40 2a3d 794b 803c 610f e4bd 2b42 debd
000000d0: 68c2 98bc 2e1d 3e3e 6958 393e 20a9 04be
000000e0: fd9f b8bd a1b3 28be 72b5 abbc 7618 3fbe
000000f0: 5073 c3bc 07b8 c23b 019c 633c b797 33be
00000100: b2d0 e83d ac23 5d3e a527 2ebe 4295 4b3e
00000110: 5dba 0f3e 624a 453e 22f2 763e 1b7e 693e
00000120: d281 493e f5ca d7bd 3bac acbd 6cf9 0c3e
00000130: 6362 113e e359 38be deba 5d3e ce60 ea3d
00000140: d731 f5bd c13d 9cbc 59aa 2e3e 53fb 433e
00000150: 311c 11be b9ec 9bbd 71bc 433d e218 3a3e
00000160: a9de 02be 62d8 493e 0710 913d 6609 c83d
00000170: 5063 3c3d 7bfc ee3d 7f26 0dbd 7c4f a9ba
00000180: 3b31 0e3e e87c ffbd 1300 093c 3f42 7b3e
00000190: 4add f1bd b0b3 02be 469a f23d 4632 bb3c
000001a0: 41e9 4dbe 1ffe 90bd 73a3 1cbe 6703 483e
000001b0: 7215 433e 8f73 d43d 17c5 c33d 2d36 86bd
000001c0: d539 e53d ace1 a43d 5be2 02be 4f86 e2bc
000001d0: 94f5 4ebe ed42 4a3e 05aa d73d 09e1 99bd
000001e0: 94d7 20bd 86d3 9c3d cef1 173e 98ea fc3c
000001f0: 699b 9dbd 24b4 05be d5d5 413d f651 22be
00000200: aabc 513e e8af 02be 0385 3dbe 7144 303e
00000210: 4ce1 d2bd b002 9ebd 60bb 97bd 45de 3c3e
00000220: fd75 523e 34e2 993d 2159 1abe a8df f4bd
00000230: 6eba 2d3e b4d0 59bd 7b4e 01ba 3386 2f3e
00000240: 721e 1abe d404 9d3d 849b d03d 634b 6ebd
00000250: ad7a 61bd ad70 19be d8ef 003e 7108 213e
00000260: c1fd cb3d 5cb1 853b cec7 9a3d 1949 09be
00000270: 2bd3 223b ef77 98bd fada 0abe 7ef0 f3bd
00000280: 69f2 733e c25a 34be 609f 383e 79fb 3fbd
00000290: cc3b 11bd 969d abbd 1b81 a73d ba23 bc3d
000002a0: 1b4c 0cbc 3c30 463e 074d 763e 7103 ff3d
000002b0: b322 1abe 66ce 263e 3135 0bbe f744 3cbe
000002c0: e6b4 f9bd d098 563e 4923 fa3d 29e5 353e
000002d0: 1e33 17bd 9014 163e 38b2 2cbd 7766 cfbc
000002e0: 6d2f 18be ce70 0a3e 4ac2 253e 11ae d63d
000002f0: b33a b83d b141 2d3e a62f f6bd 2cac 36be
00000300: 7461 60bd bb44 903d 6efc 573e c6fb c0bd
00000310: dd07 3abe 45e7 95bd cb13 c6bd 2245 2abd
00000320: c05a 2a3d 8740 103b 278a 463d bf17 fb3d
00000330: 8885 88bd c9b2 bfbd 2fc2 3fbb 139f eb3d
00000340: 96cf 0e3e 687f e0bb a1ef 2cbe 837d b8bd
00000350: 6e4b c73d 924d 5d3e 46a8 dbbc db61 7c3d
00000360: 515d 16be 3250 3fbd 19de 98bd 4d81 1a3e
00000370: 6d90 163e 5852 4f3e d91d 493e eb99 fdbd
00000380: eec8 763e 6516 ff3c fe3f 53be 4e7a de3c
00000390: e478 113e dbf2 21be 2e47 0c3e 621c 213e
000003a0: 77e1 8fbd 0779 aebb d601 3dbe e834 183e
000003b0: be06 bfbb 7698 bc3d 2f41 d8bd 15db 023e
000003c0: 87a9 f0bd de49 babd a6f9 95bd ca60 1dbe
000003d0: 5031 20be 7cff 2c3e bf43 07be 9ded 9ebd
000003e0: a7ac 96bd ed8f 363e 5a0c a73d 3367 19be
000003f0: 3ffa 30be df2a 953d ba74 c6bd d914 02be
0.22625259 -0.0519874 -0.057957027 -0.10851422 -0.18866095 -0.07296088 -0.20118645 0.17794232
0.13296826 -0.2041256 -0.034664232 0.22485092 -0.17363551 -0.100376606 0.10596844 -0.18572235
0.09900868 -0.15821794 -0.074121825 -0.037629236 0.15542045 0.08156572 0.19443107 -0.08967074
-0.026297301 0.1952307 -0.0020059787 0.08272365 -0.054348305 -0.15408917 0.043566126 0.09329417
0.15173402 -0.024906043 0.16211309 0.17823988 0.002070821 0.08637408 -0.18905744 0.157983
0.11840568 -0.0846825 -0.030781275 0.025818383 0.13382153 0.16899836 -0.108486764 -0.04574615
0.041565236 0.015660988 -0.11135746 -0.10852464 -0.018647388 0.18565819 0.18100132 -0.12955141
-0.0901489 -0.16474773 -0.020960543 -0.18661675 -0.023858696 0.005942348 0.013892175 -0.17538343
0.113679305 0.21595639 -0.1700731 0.19881156 0.14035936 0.19266656 0.24115804 0.22802012
0.19678429 -0.10536758 -0.08431288 0.13767022 0.14197688 -0.18003039 0.21653315 0.11444245
-0.11972397 -0.019072415 0.1705717 0.19138841 -0.1417091 -0.07613511 0.047787134 0.18173555
-0.1278025 0.1971145 0.07083135 0.097674176 0.04599315 0.116692506 -0.03446054 -0.0012917365
0.13885967 -0.12474996 0.008361834 0.2453699 -0.11809786 -0.12763858 0.118458316 0.02285112
-0.2010851 -0.0707972 -0.15296726 0.19532548 0.1905115 0.103736036 0.09559076 -0.06553302
0.11192671 0.08050856 -0.1278166 -0.027651934 -0.20210868 0.19752093 0.105304755 -0.07513625
-0.03926809 0.076575324 0.14838335 0.030873582 -0.07695658 -0.13057 0.047323067 -0.15851578
0.20482126 -0.12762415 -0.18507771 0.17213608 -0.10296878 -0.07715356 -0.07408786 0.18444164
0.20552821 0.07513848 -0.15073062 -0.119567215 0.16965649 -0.05317755 -0.0004932654 0.17141037
-0.15050676 0.076669365 0.10185912 -0.058177363 -0.055048633 -0.14984389 0.12591493 0.15725876
0.09960509 0.004079981 0.07557641 -0.13406791 0.0024845104 -0.074447505 -0.13560095 -0.119111046
0.23822941 -0.17612746 0.18029547 -0.046870682 -0.035457417 -0.083796665 0.08178922 0.09186502
-0.008563067 0.19354337 0.24052821 0.12451828 -0.15052299 0.16289672 -0.1359451 -0.18385683
-0.12192707 0.20956731 0.12213761 0.17763199 -0.036913984 0.14656281 -0.04216215 -0.025317414
-0.14861841 0.13519594 0.16187397 0.10482419 0.08995571 0.1691959 -0.12020807 -0.17839116
-0.05478044 0.07044359 0.21092388 -0.09423022 -0.18167062 -0.07319502 -0.09671744 -0.041569836
0.041590452 0.0022011118 0.048471596 0.122603886 -0.06666094 -0.093602724 -0.002926003 0.115049504
0.13946375 -0.0068511255 -0.16888286 -0.090083145 0.09731184 0.21611622 -0.026813637 0.06161676
-0.14684035 -0.04670734 -0.07464237 0.15088387 0.14703532 0.20246255 0.19640292 -0.12382873
0.24100086 0.031138608 -0.2062988 0.027157929 0.14206272 -0.15815298 0.13699028 0.15733483
-0.07025426 -0.005324486 -0.18457732 0.14863932 -0.005829661 0.09208767 -0.10559308 0.12778886
-0.11751085 -0.0909612 -0.07323007 -0.15368953 -0.15643811 0.16894335 -0.13209437 -0.07760165
-0.073571496 0.17828341 0.08156653 -0.14980774 -0.17282961 0.07283568 -0.096902326 -0.12703265

weight f4 [4, 680]
00000000: 4ccb a63c 6ce0 15bb ece3 9fba 9940 6f3a
00000010: 8b1e eaba 2076 55bb 516a 053a 1e1f 04bc
00000020: c5d0 c23c 6f7f efba 6cdd c5bb 5c6e 703c
00000030: 6fc7 efb9 23c7 c4b9 8efa 493c a6c2 14ba
00000040: 8272 01bd ea15 e93a 0348 a33b c948 41ba
00000050: b5cf 6c3c 7638 66bc 7481 693c 6621 1eba
00000060: dec1 4bbc e95b f83b 82d6 d8ba 7ba9 dcbc
00000070: 902c 793b 6bd1 cf3a 085c eebb ed3a 26bc
00000080: 05d8 643b d804 8f39 da71 a7bc d9fa 233b
00000090: 4744 efbc adcb d3bb 996e 00bb f40c d5bc
000000a0: d911 2f3d 0755 fe3c 6f44 053d bf38 b23c
000000b0: 355a 0cbc 4e81 5bbc 7883 06ba b89d 12bc
000000c0: fd85 ad3c 925c 2ebc 80ba 79ba 7532 8239
000000d0: 07ba 8d3a bc73 133d 1b1c 243c 593c 34ba
000000e0: 4be8 1f3a 3ce5 0dbb 2186 193b 9bad 923a
000000f0: 7c17 8c3b eefe f73c 9b64 083d 81d4 913c
00000100: a569 74bc 41ec a03c b7e3 de3a c263 df3c
00000110: 5d78 933c 16f1 a83b 867e 103d 51f9 a3bc
00000120: 5991 1ebc 5647 b53b d827 09ba aa0a 343d
00000130: f322 ce3c 9eb6 77ba ec1a 04bc 1e0c 92bc
00000140: f2d5 003a 5cb8 fbbb 40e4 43b9 7899 373c
00000150: 9bf3 a5bb 6a2b de3c 9e7c 343c 801d 96bb
00000160: badc f2bb 94a0 a0ba 85a9 f6bc 7aff 5b3c
00000170: 0d90 82bb d096 a23c bb0e 4fb9 e0a6 3d3a
00000180: 0c1f a63b b04d 093b b7c3 7fbc 2e00 f13c
00000190: ae99 e2b9 9ab4 2bba 0b2c 583b 20e0 d53c
000001a0: ea0a debb e36f 2bbc 963c b33b 4062 263d
000001b0: 97aa 4b3c dd35 353d e618 963c 1e95 27bb
000001c0: 20ed 443c f567 433c 1457 baba f7e0 203d
000001d0: ef39 1dbb 312b 2a3d d1df a9bb 5e52 d83a
000001e0: 2d19 29bb 5b87 353d 494c 9b3c 09c7 2ebc
000001f0: 5391 c2bc 5bbb cd3c 2585 033d 8f65 273d
00000200: 6c9e aebc 0d33 25bb 9561 0fb9 24ad 1abc
00000210: af74 0a38 73a1 a039 0bec 07bd 9a57 c43c
00000220: 75f0 ad3c 635d ad3c b69a adb9 2891 a338
00000230: c7f1 a83c 4cee 1a3b c0e8 87ba d931 3cbc
00000240: 1977 09ba 05c2 083d e7b0 863c 8d10 ee3a
00000250: 2aec 2cba 4806 7f3a 4f71 ffbc 94f6 143d
00000260: 9381 1e3d dca5 933c 99a4 0cbc a074 ad39
00000270: 545e 093d ec1a 473c 3a27 9fb9 c57d 25bb
00000280: c388 293d 5724 223b ec1e 9dbc 920b d73a
00000290: b62b 063d bd57 b838 a881 90bc d300 253c
000002a0: f046 afbc 26db a2bb 3056 0b3d 047b 0a3d
000002b0: 42ae b0b9 2947 f53c 69fa 48b8 fd89 263b
000002c0: 92e4 023a e9c6 b33c 62e1 c2bc 785e af3a
000002d0: 1ea8 91b9 a50e 133d de98 ee3c 5349 c53a
000002e0: 37ef 703a c56a b3bc 0c88 103d 2889 963b
000002f0: e691 313d b609 c63b 5e81 4a39 0940 29bb
00000300: eed1 c63c 779a f03c e0b4 c2b9 0de3 14bb
00000310: c538 38ba ecb3 5fba 6ef2 0738 17ec 34bc
00000320: 28c9 de3c cc34 293b 194a 253d 80b4 323d
00000330: b3f5 be3b 4491 41b9 a4a6 ab3b 1258 2c3d
00000340: 7902 ddbc 2ef2 923c 7d39 8bb8 98cc 143b
00000350: 6a52 e23c 587e b5bb 1ea9 beb9 b8fd 8ebb
00000360: c211 98ba 6125 c83c 8dcf 063d e9d8 cf3c
00000370: 1965 5cbc e82e deba c1f4 4bbc 48b2 af3b
00000380: f1c3 213d c023 313d d24f 433a f245 2d3d
00000390: 2f8d 54bc 2fff cd3b 51c9 923a 1117 ab3c
000003a0: 6dbe 4c3a 8dde cfba 7ebf 533a b82c 64bb
000003b0: a7b3 763b f42a 133d 33f8 c23c 7c30 e63c
000003c0: c926 273b 970a 933a 09b2 c3bc 53e9 9fb9
000003d0: 7299 213b 86a8 743c a05d 01bc 166f 093d
000003e0: 316c 2f3d 8f73 fdbc c198 113b 28f9 113b
000003f0: 5abd 90bb 8f43 ad3b 604e bcbc 8a2e af3c
0.020360611 -0.0022869362 -0.0012198663 0.0009126752 -0.0017861886 -0.0032571629 0.000508939 -0.00806406
0.02378119 -0.0018272231 -0.0060383584 0.014674749 -0.00045734222 -0.00037532402 0.012327803 -0.0005674757
-0.031603344 0.001778302 0.0049829497 -0.00073732116 0.014453818 -0.014051547 0.014252055 -0.00060321984
-0.012436358 0.007579316 -0.001654342 -0.026936283 0.0038020946 0.0015855258 -0.0072741546 -0.010145885
0.0034918797 0.00027278694 -0.02044003 0.0025021343 -0.029207362 -0.006463489 -0.0019597171 -0.026007153
0.04274163 0.031046404 0.032535966 0.021755574 -0.008566429 -0.013397528 -0.00051312847 -0.008948736
0.021182055 -0.010642188 -0.0009526387 0.00024833126 0.0010812887 0.035999045 0.0100164665 -0.00068754476
0.0006099983 -0.0021651527 0.0023425894 0.0011190654 0.0042752605 0.030272927 0.03329907 0.017801525
-0.014917766 0.019643905 0.001700512 0.027269248 0.01800173 0.005155693 0.035276912 -0.020016344
-0.009678208 0.0055321855 -0.00052320724 0.043955483 0.02516315 -0.00094495143 -0.008063059 -0.017828044
0.0004914693 -0.0076818895 -0.00018681679 0.011206023 -0.0050644404 0.02712031 0.011016039 -0.0045811534
-0.0074115666 -0.0012254887 -0.03011013 0.01342761 -0.0039844573 0.019847304 -0.00019746546 0.0007234644
0.005069619 0.0020950846 -0.015610627 0.029419031 -0.0004322058 -0.0006550044 0.0032985236 0.026107848
-0.0067762034 -0.010463688 0.005469869 0.040621042 0.0124308085 0.04424082 0.01832242 -0.0025571059
0.012019426 0.011926641 -0.0014216625 0.039277043 -0.002399083 0.041545097 -0.0051841517 0.001650404
-0.002580236 0.04431854 0.018957274 -0.010667571 -0.023750937 0.025113752 0.0321094 0.04086834
-0.021315776 -0.002520743 -0.00013673895 -0.009440694 3.3010434e-05 0.00030637867 -0.033184092 0.023967553
0.021232823 0.021162694 -0.000331124 7.799483e-05 0.0206231 0.002364057 -0.0010369048 -0.011486494
-0.0005243882 0.033388156 0.016441775 0.0018162892 -0.00065964705 0.0009728414 -0.03118196 0.036367968
0.03869779 0.018023424 -0.008584165 0.00033084024 0.033537224 0.012152415 -0.0003035607 -0.0025251966
0.04139019 0.0024740899 -0.019179784 0.0016406646 0.03275653 8.790146e-05 -0.01763995 0.010070997
-0.02139613 -0.004969972 0.03401774 0.033808723 -0.00033699168 0.029941158 -4.791693e-05 0.0025411837
0.0004993166 0.021945434 -0.023789112 0.0013379594 -0.00027781812 0.035902638 0.029125627 0.001505176
0.0009190919 -0.021901498 0.035285994 0.004593987 0.04335203 0.006043638 0.00019312414 -0.0025825521
0.024270024 0.02937053 -0.00037137326 -0.002271834 -0.0007027502 -0.00085335854 3.241229e-05 -0.011042616
0.027195528 0.0025818823 0.04035387 0.04362917 0.0058276295 -0.0001846003 0.005238371 0.042076178
-0.026978718 0.017937746 -6.6387445e-05 0.0022704955 0.027627189 -0.005538743 -0.00036365626 -0.0043637417
-0.0011601972 0.024431886 0.03291278 0.025371986 -0.013451838 -0.0016951235 -0.012448491 0.005361829
0.039493505 0.043246984 0.0007450554 0.042303033 -0.012973114 0.006286524 0.0011198913 0.020885022
0.0007810358 -0.0015859172 0.0008077546 -0.0034816694 0.0037643702 0.035929635 0.023799991 0.028099291
0.0025505295 0.0011218366 -0.023888605 -0.00030500683 0.002465811 0.014932757 -0.007895857 0.033553205
0.04282779 -0.030938892 0.0022216293 0.0022273753 -0.0044171037 0.0052875946 -0.02298659 0.021384496

bias f4 [4]
00000000: bc94 08bc ca92 243d 6adc 8ebc 4810 d0bc
-0.008336242 0.04017905 -0.017439086 -0.025398389
