estimators/knet/single_obs/MSE_ep100_train4000_val1000_test10000_lr1e-03_wd1e-05_ri[4, 4, 1, 1]_data_sr1e-01_q1e-04_r1e+00_j5_train[500,100]_val[100,100]_test[100,100].pt (torch, 155057 bytes, 40 tensors)

weight_ih_l0 f4 [48, 20]
00000000: 8b1d a1bc b870 0c3d a441 503e 0811 92bd
00000010: 67c0 2e3e 064b 5bbe 866f e93c 97dd 233e
00000020: acd4 083d b6f9 3d3d 6e94 f53b bd97 ce3d
00000030: 866c 8ebd 04fe 69bd 6a16 303e b144 59bd
00000040: 1515 7c3d 7095 383e 166e 89be b2d6 d6bd
00000050: c13a 323e 2ce9 bbbd d4d9 d5bd 1e62 8abe
00000060: ce9b 213e a686 993d c46c 9ebd f1eb b33c
00000070: f11b 663d 9027 dfbd 5085 363d 1dee 173e
00000080: 59ad 1e3e 0b40 133d f494 5c3d d193 05be
00000090: 0649 61be 04c4 5c3b ce2b f0bd ccb5 353d
000000a0: 9803 ae3d d5ff b13c 5735 c43d 092f 04be
000000b0: c797 7f3c a9ad c23d c13f e33d dc17 25be
000000c0: 1c79 f43d 7564 583e d0c6 9c3a 9bd7 093e
000000d0: dcab e53d 9d18 d13d ef32 de3d b99f 09be
000000e0: 2f87 be3d dfd4 673d 5541 10be 801d 9ebd
000000f0: 19da 583d 646a 033e 7a09 f03d 7bc6 413c
00000100: d2b1 ddbb aad8 09bd 48e9 69bc 48e8 ebbd
00000110: 5260 afbd dc07 51bd 33df 213e 078e 67be
00000120: 4d71 53bc eb07 19bc 4e7c 723d 42ba 4abd
00000130: b586 76be 9c1b be3d 3cdf 243e 1829 a43c
00000140: ec62 6d3e 8079 3b3e 99ff a1bc 6fcf 51be
00000150: c2c4 a7bd 7fe5 a5bd e6df b53d bd8a 1fbe
00000160: bbdb 933d 24d4 f63d 1037 99bc 9028 b73d
00000170: 72c0 e1bd c2ff 2c3e 7f73 303e 6e63 d2bd
00000180: 06be 6ebd eaae a0bd 1c25 20be 31e4 383e
00000190: bfb2 23be bb6e f6bc 01da d23d 5c2f 8cbd
000001a0: a45d b13c d13e 683e 6a0b a13d 86a5 c0bd
000001b0: c7cf 85bd eff5 2fbe 64a9 f5bd 6f58 65be
000001c0: 6ef5 4c3e e7a1 cc3d c654 7cbb e401 953d
000001d0: 83d6 34be e6f8 1e3e 0247 833d 9429 0abe
000001e0: efb7 47be 546c 0b3e 7bf3 d7bd 09ec 28be
000001f0: 8dcf 3d3e 546e 68be 5a72 c03d 4d37 393e
00000200: 56d6 2b3e f8cb 813e 64f8 06bd 936b 6b3e
00000210: 29ce b1bd 3080 35be e284 2bbe 57a6 e63d
00000220: e041 02be 06a0 753e 8523 3b3e d67b 193e
00000230: fa3f ea3d 3e98 49bd 951a 27be 30f5 d0bc
00000240: 67b6 c83d 549d 943d 68d5 d63d 45f3 d33d
00000250: cbf9 cdbd eb64 d93d 1ed5 043e b448 4f3e
00000260: ef5b 063e aaac d5bd 117e aa3d 648a 013e
00000270: cb3e 6f3e 2383 3dbe 9d80 81bd 4a84 ae39
00000280: 6706 06be dee7 383d 48fc 09be 4a6b 2d3c
00000290: dfda cabd 7375 f43d 9a7a fcbc 2d2d 913d
000002a0: aaa9 02be a202 b33d 5f09 c9bc a027 bdbd
000002b0: 5b9f 0d3e 72ef 2c3e 1255 983d ba10 473d
000002c0: 7507 99bd 4341 85bb cf32 87bd 9636 f5bd
000002d0: 8a80 be3c 09f3 383e 15e0 253e 4d7c ebbd
000002e0: ce72 8fbe 6c7e 083e 7287 3e3d dfdb b2bc
000002f0: 76be 1cbe 6215 67be 8ee2 a639 dc34 98bd
00000300: fcfe 7bbe 0474 22be 39c1 2b3d fda0 83be
00000310: 706c a43d f8ee c9bc 8825 86bd 17ad fc3c
00000320: 5b76 053e ecd7 3a3e c019 64be 5c79 90be
00000330: 5b8f f1bc 401a aabc 711f 013e 7cab b83d
00000340: 39e4 54be f5f4 203c aedf 6d3d cbc1 08be
00000350: aad2 5ebe 30ab 423d b002 e73d e7ff 213e
00000360: b869 0fbe 98d1 edbd d8b7 313e 75ae 88bc
00000370: 5e03 6b3e 37f0 2a3e 932d 4e3e 35f2 78be
00000380: bd7f 2d3e 19df 593e 7dbc 45be 5ec5 723d
00000390: 98f7 24be fcd9 02be 6a4a 083e fbf1 1ebd
000003a0: 44c3 333d d42f 40be 6135 7ebd 4764 9e3d
000003b0: aea2 803e 6d8a 0abe fac7 52be 9e22 60bd
000003c0: d763 693e aa7c 9cbd ca24 043e ae4d df3c
000003d0: f355 443e 8b1e 773e 28bb 35be fb47 493e
000003e0: bf6e ddb9 a0a8 213e 7265 c23c 931f 4cbe
000003f0: 0227 883c a73f 0c3e 5114 323e d0d3 6fbc
-0.019667407 0.034287184 0.2033754 -0.07132155 0.17065583 -0.21415338 0.028495561 0.16002499
0.033405945 0.04638072 0.007494501 0.100875355 -0.06954293 -0.057127014 0.1719605 -0.053044025
0.061543543 0.18025756 -0.268418 -0.10490169 0.17405225 -0.091753334 -0.10441938 -0.27027982
0.15782091 0.07496385 -0.07735589 0.021963092 0.05617899 -0.10896218 0.04456073 0.14836927
0.15495814 0.035949748 0.05385299 -0.13044669 -0.22000512 0.003368617 -0.11727105 0.044362828
0.08496779 0.021728436 0.09580486 -0.12908567 0.015600151 0.09505779 0.110961445 -0.16122383
0.11937162 0.21132071 0.0011961106 0.13461153 0.1121442 0.10209773 0.108495586 -0.13439836
0.09303128 0.056599494 -0.14087422 -0.077204704 0.05294237 0.12833554 0.117205575 0.011827107
-0.0067655826 -0.033653893 -0.01427681 -0.115189135 -0.085632935 -0.051032886 0.158078 -0.22612773
-0.012905431 -0.009340267 0.059200577 -0.049494036 -0.24074824 0.0928261 0.16100782 0.020039126
0.23182267 0.18308067 -0.019775199 -0.20489286 -0.081918254 -0.081004135 0.08880596 -0.15580268
0.07219645 0.12052181 -0.018703014 0.089432836 -0.11023034 0.16894439 0.17231558 -0.10272871
-0.05828669 -0.07845862 -0.15639156 0.18055798 -0.15986155 -0.030082097 0.10295487 -0.068449706
0.021651097 0.22680213 0.07863505 -0.09406571 -0.06533771 -0.1718366 -0.11995199 -0.22397016
0.20015499 0.09991818 -0.0038502677 0.07275751 -0.17659955 0.15524635 0.06410028 -0.13492423
-0.19503759 0.13615543 -0.10544487 -0.1649629 0.18536206 -0.22698337 0.09396811 0.18087502
0.16780981 0.25350928 -0.032951728 0.22990255 -0.086819 -0.17724681 -0.1674991 0.112621956
-0.12720442 0.23986825 0.18275268 0.14988646 0.11437984 -0.049217455 -0.16318734 -0.02550754
0.098004155 0.072565705 0.10489923 0.10349134 -0.1005741 0.10614952 0.12971923 0.20242578
0.13121007 -0.10433324 0.083248265 0.12650448 0.23363797 -0.18507056 -0.06323359 0.0003328643
-0.1308838 0.045143 -0.13475144 0.010584662 -0.099050276 0.11936464 -0.03082018 0.07088695
-0.12760034 0.087407365 -0.024540601 -0.092360735 0.1383032 0.16888216 0.07438101 0.048599936
-0.074721254 -0.0040666177 -0.06601488 -0.11973302 0.023254652 0.1806146 0.16198762 -0.11498318
-0.28017277 0.13329476 0.04651589 -0.021833358 -0.1530703 -0.2256675 0.00031830784 -0.07431957
-0.24608988 -0.15864569 0.04193232 -0.25708762 0.08028495 -0.024650082 -0.06550127 0.030844254
0.1303343 0.1824643 -0.22275448 -0.2821759 -0.029487303 -0.02076447 0.1260965 0.09017083
-0.20790185 0.009824027 0.058074646 -0.13355176 -0.2176005 0.04752654 0.112798095 0.15820275
-0.14005172 -0.116122425 0.17355287 -0.01668475 0.22950503 0.16693197 0.20134573 -0.24311145
0.1694326 0.21276511 -0.19310184 0.059270255 -0.16110075 -0.12778467 0.13309637 -0.03880499
0.04388739 -0.18768245 -0.062062625 0.0773397 0.25124115 -0.13529368 -0.20584098 -0.054720514
0.22791992 -0.07640965 0.12904659 0.02725872 0.19173412 0.24132745 -0.17747176 0.19656365
-0.00042234917 0.15786982 0.023730014 -0.1993392 0.016620163 0.13696156 0.17390563 -0.014637902

weight_hh_l0 f4 [48, 16]
00000000: 9137 70bd 4625 06be b8a4 44be 1840 cab9
00000010: 546a b0bd 81ed 913d 7e1d a93d 0085 ddbd
00000020: e383 85be 2db7 7abe ba3d ebbd 6027 673e
00000030: 760b 01be 4f0f 2a3e 4351 c0bc 43f1 3fbe
00000040: 1183 c03d b491 743c 07fa 143e e984 31be
00000050: d20f 13bd e8e9 9d3d 3d81 093e df7b 4fbe
00000060: 928d 00be 6002 753e 0541 e23d a6b4 0c3e
00000070: 6fc6 4a3e 7e8e 1f3e 8fc0 5c3e 38e6 68be
00000080: 66b2 fe3d 7f83 633e e484 b1bd 6c0c 86be
00000090: f3d4 5dbd 088b 923d be80 d43c a647 6abe
000000a0: acf2 243d c51b 61be 706c 5b3d 4aad a23c
000000b0: 5e45 443c 38e5 cabd 1ee5 42bd 7399 febc
000000c0: cb39 453d 313a 063e 3c88 563e 6b30 e7bc
000000d0: b5b0 363e e52c b93d b393 94bd b8d8 3abe
000000e0: 313e 423d 00db 14be e0c2 33be ee68 1e3e
000000f0: 3fcc 373e 377b 31be fca8 da3d 698e ad3d
00000100: 4c58 66bd 8d09 c73d 6062 feb9 146b 433d
00000110: f46e 87bd f8e3 843c 2836 773d a1a7 c9bd
00000120: 1b11 0dbd 60cc 3f3e 41ad 633d e892 f0bd
00000130: f4c5 e53d 78ac 96bb cdb3 613e 350f 363e
00000140: ec02 52be 5dcf 07be a37c a03d 69ed 433e
00000150: fdd1 a8bd 5b6b bd3b 5d26 36be 2c45 b8bb
00000160: db17 53be e403 a43d c9ed a5bd 8e8e 763d
00000170: bfb1 8cbd 4718 05be 9f22 3b3e 4a01 913d
00000180: 6f01 173e 4028 373e cb99 7fbe edc1 203e
00000190: 690f 4a3e 1752 7e3e 4057 2b3e 92fb 5bbe
000001a0: 99f1 153e cc34 003e d0c8 6e3e 4728 663e
000001b0: ea9f 5a3e 446f 4cbe 8809 6b3d 8b40 2dbe
000001c0: 0dd1 3f3e e6a8 4f3e 9c41 003e 60b2 35be
000001d0: 05c8 843e ef1a 3cbd 0765 8cbe de9f 4c3e
000001e0: fba1 343e b43a fabd aae0 04be cb78 d03d
000001f0: 7c18 5bbe b6a1 8cbe 98a3 5bbd a76c 2bbd
00000200: f8ef 6a3e 8096 533e bdc6 a33c bf64 c2bc
00000210: d91d e63d c5ee d6bd 6fdd 91be bdf4 a3bd
00000220: 3195 513e 5c70 14be 1eea 64be cad1 d43d
00000230: 9cda e73c 0ef5 82be e1c3 443e 4b8e 61be
00000240: 66e3 babd 8436 34be 5aa5 753e 4a88 333d
00000250: 8f98 643e 114e 13be 70ac 48be 60bb 563e
00000260: 3006 733e b377 2bbd 1501 cd3d 0f2a d13d
00000270: a25a d33d 8c48 2dbe 733f f5bd 55ec ea3d
00000280: efec 7b3e 1586 08bd abe0 23be 48b3 17be
00000290: 284d 033e 4352 cabd 7d3a cfbc a825 4c3e
000002a0: 96e0 f2bd c736 bf3d 33e5 f23c 4941 773e
000002b0: 5cc9 19be 52d5 51be 3bc1 79bb d97d aebd
000002c0: 964c b73b 71d5 ca3d b03c 8abc ac43 2a3e
000002d0: a137 4e3e eec3 023e 2cc2 443e b377 3dbe
000002e0: c06b 323e 1d39 243e de7b 5c3e c745 efbd
000002f0: 27bd 81be 84a6 613e 15f5 853d b989 c3bd
00000300: 5350 82be bf2d 6abe 2e60 e83d ea90 423e
00000310: 9e9b 983c 2516 50bd 2b1f 84be 9cad 78be
00000320: 2eb6 37be d32c c23d 666d 76bd 029d a3bd
00000330: 2ae7 923d 0320 45bd 8359 563e 0bd5 573e
00000340: 0bab 753d ba74 00be 0378 11be 2edb dc3d
00000350: 7d89 79be fabc 443d c25e b1bd dd93 3f3e
00000360: bb03 8f3d eb9b 5cbe 1ca1 013e 21fa dfbd
00000370: 323a 1b3d a615 6ebd ddfb 573c fbb7 37be
00000380: a5db 04be 8770 6bbe 2333 273e bd9d 503e
00000390: 4f2a 2f3e d750 463c 0d73 743e b6a1 583e
000003a0: b12f 99bd ee15 40be b590 80be 81ee 193e
000003b0: 8d95 38be 7296 4c3e 8a73 693e 381e d7bd
000003c0: 81ff 91bd 55c0 33be 43aa 463e e96c b8bd
000003d0: 39a3 0abd 5807 c43d 410a abbc 5920 6cbe
000003e0: bc08 583e 3fc3 9ebd 9f8e 933d 9709 123d
000003f0: 943c 54be d954 bb3d 5ec9 4dbe 148b d63d
-0.058646742 -0.13100156 -0.1920346 -0.00038576196 -0.086140305 0.071253784 0.08257578 -0.10816383
-0.26077184 -0.24483939 -0.11486383 0.22573614 -0.12602028 0.16607402 -0.023476249 -0.18744378
0.09399999 0.014927316 0.14548503 -0.17335857 -0.03590376 0.0771063 0.13428207 -0.20262097
-0.12554005 0.23926687 0.11047558 0.13740787 0.19802259 0.155817 0.2155783 -0.22744071
0.124363706 0.2221813 -0.08667925 -0.26181352 -0.054158162 0.07155424 0.025940295 -0.22878894
0.040270492 -0.2198325 0.05357021 0.019858021 0.011979429 -0.09907001 -0.047581784 -0.03107903
0.04815082 0.13108136 0.20950407 -0.02822133 0.17840846 0.09041766 -0.07254734 -0.18246734
0.04742259 -0.14536667 -0.17554808 0.15469715 0.17949007 -0.17332159 0.106767625 0.08474428
-0.05623655 0.097186185 -0.0004851995 0.04770954 -0.066129595 0.016221985 0.06035438 -0.09846426
-0.03444014 0.18730307 0.05558515 -0.1174677 0.11219397 -0.0045981966 0.22041245 0.17779239
-0.20508927 -0.13262697 0.078362726 0.19133534 -0.08243177 0.00578062 -0.17788072 -0.0056234803
-0.20614569 0.080085546 -0.081019945 0.060194544 -0.0686984 -0.12997542 0.18274926 0.07080324
0.1474664 0.17886448 -0.24961011 0.15698977 0.19732441 0.24836002 0.16732502 -0.21482685
0.14642943 0.1252014 0.23318791 0.22476302 0.21350065 -0.1996432 0.057382137 -0.16919152
0.1873209 0.20279273 0.12525028 -0.17743826 0.25933853 -0.045924123 -0.27420828 0.1998286
0.17639916 -0.12218228 -0.12976328 0.101792894 -0.21396059 -0.27467126 -0.053622812 -0.041851666
0.22943103 0.2066288 0.019992227 -0.02372968 0.11236162 -0.104947604 -0.28489253 -0.080056645
0.20467068 -0.14495987 -0.22354934 0.103915766 0.028302483 -0.25577587 0.19215347 -0.22026937
-0.09125404 -0.17598921 0.23988858 0.043831147 0.22323821 -0.14385249 -0.1959703 0.20969915
0.23732829 -0.0418622 0.10009972 0.102131 0.10320021 -0.16922206 -0.119749926 0.11470858
0.24602102 -0.033330996 -0.16003673 -0.14814484 0.12822402 -0.098789714 -0.025296444 0.1993624
-0.118592426 0.0933662 0.029650306 0.24145998 -0.15018219 -0.20491531 -0.003810956 -0.08520097
0.0055938466 0.09903992 -0.016874641 0.16627377 0.20138408 0.12770054 0.19214696 -0.18502693
0.17423916 0.16037412 0.21531627 -0.11683231 -0.25339624 0.22036177 0.06540886 -0.09547753
-0.25451908 -0.22869013 0.1134647 0.19000593 0.018628892 -0.05080237 -0.2580503 -0.24284977
-0.1794059 0.09481206 -0.060162924 -0.07988931 0.07172997 -0.048126232 0.20932584 0.21077363
0.059977572 -0.12544528 -0.14205937 0.10783993 -0.24368854 0.048031785 -0.08660652 0.18708749
0.069831334 -0.21543853 0.12659115 -0.1093638 0.037897296 -0.058126114 0.0131826075 -0.17941277
-0.12974413 -0.22992145 0.16328101 0.20372672 0.17105983 0.012104235 0.23872013 0.21155438
-0.074797995 -0.18758366 -0.25110403 0.15032388 -0.18025799 0.19979265 0.22797981 -0.10503811
-0.07128812 -0.17553838 0.19400887 -0.09005148 -0.033847068 0.09571713 -0.020878913 -0.23059215
0.21097082 -0.07752084 0.07204937 0.035653677 -0.20726234 0.09147043 -0.20096347 0.10475746

bias_ih_l0 f4 [48]
00000000: 98d0 54be 1322 85be a429 dbbd 86fb 7cbc
00000010: 2401 3b3e 96bd df3d 9619 443e 43d2 92bd
00000020: 86ac 083e 508b 74be a6c7 983c 7734 773e
00000030: c5cb 4c3e 9c05 6dbd 6265 323d 217a 1cbe
00000040: 5056 163e 2d44 0bbe 67e3 b6bd 0326 083e
00000050: a5d8 5ebd a4a7 aa3c 867a 663e f633 10be
00000060: 91f4 d8bd 21ca 39bd f02e 5a3c 71ce 483d
00000070: 47c4 ee3d 1aca 0ebe 1d75 143e 2965 c93c
00000080: 2cc7 a4bb aa3d 14be 901c 423b df6f fa3d
00000090: 1b83 4a3e 58eb 033e d341 993d ea60 633e
000000a0: b1bc 563e 6fdd 363e 4445 08be d0a2 a7bd
000000b0: 7d25 453b c808 c6bc ef90 bf3d 1c0b 4fbe
-0.20782697 -0.2600256 -0.10701302 -0.015440827 0.18262154 0.109248325 0.19150385 -0.071690105
0.13347062 -0.23881269 0.018649887 0.24141107 0.19999607 -0.057866678 0.043553717 -0.15280963
0.14681363 -0.13600226 -0.08930092 0.1329575 -0.054405827 0.02083189 0.22507676 -0.14082322
-0.10593522 -0.04535878 0.013316855 0.049025003 0.11658531 -0.13944283 0.144978 0.02458437
-0.005028626 -0.14476648 0.0029619075 0.12228369 0.19776575 0.12882745 0.07483258 0.22204939
0.20970418 0.17857908 -0.13307673 -0.08185351 0.003008216 -0.02417411 0.09353816 -0.20219082

bias_hh_l0 f4 [48]
00000000: e941 273d 8fab a53c 2a68 01be b570 83be
00000010: 16f9 e2bd 76ae 463e 8c02 643e 3819 b03d
00000020: 8d6c dbbd 91f4 5fbe 326e c0bd e8cf 7d3e
00000030: e4d0 843e 1506 cd3d 468e 153e e19c 9e3d
00000040: 570b 8ebd 504e 29be adf9 1dbe 36d4 6b3e
00000050: 0780 26be 40cd e23d 119c 5c3e 342b d23c
00000060: 6b79 863d 0e18 55be 970d 51bc 9419 d6bb
00000070: df32 563e f870 6d3d cb98 5fbe 91c1 2e3e
00000080: 62ae 38be dfdf 703d 24ce d13a bb66 e33d
00000090: 09f7 243e c8e1 8ebd d20d 02be c3a1 acbd
000000a0: b691 503d e079 f23d 32bb 64be 9b77 543e
000000b0: 6489 0fbe 4e51 58be 94b4 683e e26d af3d
0.04083434 0.020223407 -0.12637392 -0.25671926 -0.110826656 0.19402489 0.22266597 0.0859856
-0.10714064 -0.21870638 -0.09396018 0.24786341 0.2594062 0.10010926 0.14605054 0.07744766
-0.06935757 -0.1653378 -0.15427275 0.23030171 -0.16259776 0.110743046 0.2154391 0.025655366
0.065661274 -0.20809957 -0.012759588 -0.006533811 0.20917843 0.057969064 -0.2183563 0.17066027
-0.18035272 0.05880725 0.0016006869 0.11103579 0.16109861 -0.06976658 -0.12700585 -0.08429291
0.05092021 0.11839652 -0.22337034 0.20748751 -0.14017254 -0.21124765 0.22725135 0.0856588

weight_ih_l0 f4 [48, 36]
00000000: 471d 533e 2069 693e c8b2 ecbd 0e21 573e
00000010: e1c9 3ebe da8c f4bd 67d4 1e3e 40da 833e
00000020: 3f24 603d 1e91 b3bd 5891 bf3d 65a7 b13c
00000030: 2551 8a3d 5a94 433e d38d 41bd fed3 51be
00000040: 2c4c 6abe c023 bf3d 8163 063c 3430 193e
00000050: 5a71 47be 27e8 33be 2ac6 b5bc 6a38 a3bc
00000060: 2cce f83d 8e11 003d 9041 fb3d 8e5e a03d
00000070: fed5 0d3e 08d4 773d fe20 213e eedc 58be
00000080: cc4b 02be b8fa 2dbe 7084 45be 6a03 e6bd
00000090: 44f5 6fbe e6f7 4d3e af8c 1f3e f1c3 8a3d
000000a0: 79e4 f7bd bee5 c3bc 03cc 1b3e add9 7cbe
000000b0: ac9d 2fbe 1721 b43c 5567 9b3d 7ea9 073e
000000c0: 2188 86be 30b2 7cbe 2cd3 9e3d 05d1 b9bd
000000d0: f0ad 703d 793f 083e a80f e2bd deac 89bc
000000e0: f89a 51be c2b2 d63c 947b 543e aa41 7e3e
000000f0: 477a 723e 1dd2 72be 294e ddbd fc21 d23d
00000100: 68c8 8abd a055 a3bd 83b6 0ebe c071 93bd
00000110: 47c9 3b3e 565d 6c3e aa64 103e eb57 2cbe
00000120: 8a7a 00bd 1df0 71bc 0bd5 f83d 40de 9ebd
00000130: d1c3 acbd 4ce6 35bd b7e9 573d 102e 053e
00000140: d8bd 10be b5e2 b63d 81af 653e e785 0f3e
00000150: 381b 3ebe c9f1 edbd 9de8 623e 43d1 58be
00000160: f63e 313e dac9 c5bd 211f 783e 8aba 60be
00000170: 03c9 31be b0e0 763e 5fd0 8fbd 1da0 e13d
00000180: 73fd 323c 9cd4 36be 898d 32be e937 263e
00000190: 82d8 683b 8e12 25be 6ded 16be 7395 34be
000001a0: e98a 51bd d4ba 15be c8e0 b03c 5f6d dabd
000001b0: e870 983d cbd7 043e d36e 6cbd c706 493e
000001c0: bc23 973d e09c 62be 9a0f b9bd b50e 48be
000001d0: 18bd 303e eff3 9b3d 399b 263e c416 5fbe
000001e0: 8843 7e3e 2aec b2bd ef3c 5b3d 5fe4 a93d
000001f0: ac98 ccbd 07e3 bfbc 67a8 f33d 4f46 223d
00000200: fcfc dc3d 9db1 79be d589 4cbd f895 babc
00000210: 1519 36be dd26 363e a3b7 81bd 79fa 433b
00000220: 3a35 78be 8cc6 093e 9bff 083e 6f11 733e
00000230: 6866 80be ae8d e93c f5fb 333e 222a 573e
00000240: 47ef 583e 2cf0 4bbd f325 6a3d 7c01 82bd
00000250: 21b3 d4bd 16a7 52bd 543a 27be e9e8 d03d
00000260: 08c8 04be 2e4f 0c3d 84a8 08be 187f 893d
00000270: 2e75 583e eefc 5b3e 933c 99bd fcd3 393d
00000280: b699 093c bfe8 86bb a760 efbd 2e11 263e
00000290: 54d3 1abe f77a 5abe e444 623e e54b 68be
000002a0: 8184 dabd 3839 b73c e9fd 673e 6bfe 553e
000002b0: 9b95 8abd f2c1 543e 31b6 26be 852e 4cbd
000002c0: 6738 383e 2273 c8bd 473b 1c3e 8846 cd3d
000002d0: 2aad c3bd 9efd 47be 97cc 013d a5cb e83d
000002e0: aa22 4ebd 9aa1 143d ca8a 533e e6de 6fbe
000002f0: c806 3dbe 1317 853c 01bd 0abe c1b8 4c3e
00000300: 77ae 81be a25b 8f3d 7ca6 3c3d c6f8 0abe
00000310: c41c 1ebe e8d3 15be 0d42 48be 9e0f 5fbe
00000320: 3d2d 763e b718 e9bd 2818 a33d 08f7 513e
00000330: 4036 dabd 4efb a1bd 4f96 243e 1183 51be
00000340: f373 f3bd 04e2 2dbe 7967 d3bd 53e1 febd
00000350: 235f 32bd 6459 1dbe a9f4 14be dc09 0c3e
00000360: 1aaa 8cbd 0357 c4bc ce22 1e3e 5f61 093e
00000370: 592d 7abb 2970 3f3e 5c86 3a3e 1c7c 81be
00000380: 706e 4ebe c54e f23c 194a 933d 800c 96bd
00000390: c5bb 09be 7f46 6a3e 9b63 813d 08c3 3bba
000003a0: d661 79be a824 343d 75ae 6d3b 625b 38be
000003b0: 4f4a e8bd 5cce d63d 83e8 543e 2088 2f3e
000003c0: e0d4 ea3d 3c10 01bd 8aa1 ecbd 8fcf 56bd
000003d0: 47ce 493e c766 2cbe c3f3 f1bd 5d00 043e
000003e0: c412 7b3e 5b42 13be 812b 0dbd 9cd7 3f3d
000003f0: b88d d23d 54a2 013b 1d1a 113d b385 47be
0.20616637 0.22794008 -0.11557537 0.21008703 -0.18631698 -0.11940928 0.15510713 0.2575245
0.054722067 -0.08767913 0.09353894 0.021686265 0.06753758 0.1909956 -0.047254395 -0.20491025
-0.2288062 0.09332991 0.0082024345 0.14959794 -0.19476834 -0.17569028 -0.022189219 -0.019924361
0.12148699 0.03126674 0.122683644 0.07830535 0.13851163 0.060504943 0.15735242 -0.21178028
-0.12724227 -0.16990173 -0.19288802 -0.1123112 -0.23433405 0.20114097 0.1558101 0.06775654
-0.121041246 -0.02391326 0.15214543 -0.24692412 -0.17149991 0.021988435 0.075880684 0.1324825
-0.26275733 -0.24677348 0.077551216 -0.090730704 0.05875963 0.13305463 -0.110381424 -0.016806062
-0.20469272 0.026208285 0.20750266 0.24829736 0.23679458 -0.23712964 -0.108059235 0.10260388
-0.06776506 -0.07975316 -0.1393681 -0.071994305 0.183385 0.2308248 0.141009 -0.16830413
-0.031366862 -0.01476672 0.1215001 -0.077572346 -0.084357865 -0.04440908 0.052713122 0.13005853
-0.1413492 0.0892996 0.2243023 0.14015923 -0.1856507 -0.116183825 0.22159047 -0.21173577
0.17309174 -0.09657641 0.24230625 -0.21946159 -0.17361836 0.24109149 -0.070221655 0.11016867
0.010924685 -0.17854542 -0.17436804 0.16232266 0.003552944 -0.1612036 -0.14739008 -0.17635135
-0.051157866 -0.1462205 0.021591559 -0.10665392 0.0744341 0.12972943 -0.057722878 0.19631492
0.07379863 -0.22130156 -0.09036179 -0.1953686 0.17259634 0.07614886 0.1627015 -0.21786028
0.24830449 -0.08736451 0.053524908 0.082955115 -0.09990057 -0.023423685 0.118973546 0.039617833
0.107904404 -0.2438416 -0.049936134 -0.022776589 -0.17783006 0.17788263 -0.06333854 0.0029903932
-0.24239054 0.13454646 0.13378756 0.23737119 -0.2507813 0.028509941 0.17576583 0.21012166
0.21185027 -0.049789593 0.057165097 -0.06347939 -0.103857286 -0.051428877 -0.16330844 0.10200674
-0.12966931 0.0342552 -0.13345534 0.06713694 0.2113845 0.21483204 -0.07482257 0.04536818
0.008398464 -0.004117101 -0.11688357 0.16217491 -0.15119678 -0.2133597 0.22096592 -0.22685201
-0.10669804 0.022366151 0.22655453 0.20897834 -0.06766816 0.2077711 -0.16280438 -0.049849052
0.17990266 -0.09787585 0.15256988 0.100232184 -0.09554513 -0.19530341 0.031689253 0.11366967
-0.050326027 0.036286928 0.20658413 -0.23424873 -0.18459618 0.016246354 -0.13548662 0.19992353
-0.2532842 0.069998994 0.04605721 -0.13571462 -0.1544066 -0.14631617 -0.19556446 -0.21783301
0.24040695 -0.11381667 0.07963592 0.20504391 -0.106548786 -0.07909261 0.16072963 -0.20460154
-0.1188735 -0.1698075 -0.1032247 -0.12445321 -0.04354776 -0.15366131 -0.14546455 0.13675636
-0.06868382 -0.023967272 0.15442964 0.1341605 -0.0038174002 0.1869513 0.18215317 -0.2529
-0.20159316 0.029578576 0.071918674 -0.07326603 -0.13450535 0.22878455 0.06317826 -0.0007162546
-0.24353728 0.04398027 0.0036267315 -0.1800361 -0.11342298 0.10488579 0.20791821 0.17141771
0.11466384 -0.031509623 -0.11554249 -0.052444037 0.19707595 -0.16836081 -0.11814072 0.12890764
0.24518877 -0.14380781 -0.034465317 0.04683648 0.10280937 0.0019780593 0.035425294 -0.19484596

weight_hh_l0 f4 [48, 16]
00000000: ead2 153c f7f1 4e3e 3af9 4fbe 1863 043d
00000010: 114f ba3d b7ea 2fbe 48e3 52be dcf9 7d3e
00000020: f7b2 06bc 0fc1 4f3e 7922 623e 5705 c0bc
00000030: b5ad 70be 685c a739 b821 d0bd f8ec ac3d
00000040: 60ca 5739 ebb3 523e 1d94 403c 6a43 1abd
00000050: 2e17 8f3d 1864 e6bd 5379 2fbd 6923 07be
00000060: f1dc ac3c 0a68 4bbe 4c75 4ebd 4c13 4239
00000070: 2767 9abc 99d6 ceb6 2f90 143d 596f e53d
00000080: 81bd 07be ccdf 643e 2820 06be 3be4 4fbd
00000090: 6335 7abd 889a c03d 4477 6e3e e32e c4bd
000000a0: 2a5b 3c3d 38ab 03be 5405 37bd 57b0 713c
000000b0: 5d3e 773b a64a 60bd 3d8b 773e f4fd 363d
000000c0: e03c a03d 7b50 29be 4d70 673e 6fda 1cbe
000000d0: bc30 ccbd 2246 5dbe 6332 4c3e 06cd 8b3c
000000e0: f50a 18be 273e 64be c0fe 5dbe 8485 c4bc
000000f0: c355 6ebe 55e1 9dbd 8b33 2abe e108 bb3d
00000100: 2934 4d3d e27a 853c 9734 37bd f08e b8bd
00000110: 6254 d63d ce11 073d 3b7b 7f3e 255a 703e
00000120: 2764 f4bb ca9d 3f3e e4aa 0ebd e21e c139
00000130: 4fe8 6bbe 27b0 48bd 00a0 373e 8d3d 5bbe
00000140: 181f a33c a9b9 673e e9b8 9f3d 28ec 17be
00000150: 4a48 693e 8787 4b3d a2cf 32be 22cf d93c
00000160: 9fd9 d937 f4d9 a9bd 451a 513e 4edb c1bd
00000170: 2d92 e0bd 33d2 bf3c 6deb 92bd a80e 2b3e
00000180: 5194 e3bd e33e 933d 7f20 c0bd 062d 0e3e
00000190: e582 59be 8971 5abc 6d53 5c3d 0ab0 d63d
000001a0: a0db 03be 136e 52be 0175 f43d 73e9 7e3a
000001b0: 988e 733e 78ba fc3b abd6 003d 5605 9a3b
000001c0: 5c23 213e 6b60 55bd f712 92bd 60b5 39bd
000001d0: d888 123e b6d2 4ebe ae39 55bc 5e55 21bd
000001e0: 9ffc ad3d 4e7d 0bbe c9a1 83bd 6cfa d1bd
000001f0: 05ad 833d be0d 0dbe de09 403e 95d9 f63d
00000200: 3161 bd3d 0b72 7fbd e83a 2bbc 63d4 d1bd
00000210: 6017 77be 2fea 4dbe 78bb 18be 3f55 ffbc
00000220: a074 c23c 8139 7b3e 3fdf ee3d 9e42 b937
00000230: 7513 053b 1535 9e3d c8cf 0cbd 04db 5f3d
00000240: 2d80 083c 83c5 81be fe75 ee3d 9dfd 923d
00000250: ad4e 043e ba20 123e 06a9 263e 8f45 8a3d
00000260: 6e7a e3b9 8566 1b3d c024 5ebe 30f8 c339
00000270: 60c8 46be cc23 55b8 072b 533e 3e25 e73d
00000280: 2760 73bc 56f5 88bd f7a8 5cbe 08f9 a4bd
00000290: 2ce4 ec3d c423 b6bc c36c 423e 031a 113e
000002a0: f64b 31bb 8f3b 25be 4d39 20be c405 87bc
000002b0: 51fa 473e f358 87bd 6146 55bb e0b8 07be
000002c0: e428 033d f2a4 013d 7daf 81bd e214 3ebe
000002d0: 08c5 00be df12 a8bd 44e9 1d3e 725a adbd
000002e0: 83db 1dbd 4d58 dfbd 50ee 7e3e 5756 f8bd
000002f0: ccf7 6b3d ef76 5b35 02b6 313e 1895 8ebc
00000300: 7c1a 733d 10e1 b4bd 794e 5c3d 3c57 a8bd
00000310: 5a1b 8b3b 4d49 1bbd 6710 663e 0e86 0e3e
00000320: 5394 12bd 6d06 2dbe 689e 6dbe 4091 dc3d
00000330: 50cc 14be 980d cc3c e8b1 9b3d 9e94 273e
00000340: 623d e338 ee35 283e b794 273e 9514 56bd
00000350: fc75 103e af0a c63d 2277 b7bd 93b4 363e
00000360: a8ab a13c 9a92 e43d 1781 a7bd 931a 2139
00000370: fff3 76be 249b 00bd e923 173e 9ee0 47be
00000380: 7d0f 05be aaa6 02be c04b 033e fdf4 7d3e
00000390: 5953 45be 21f9 733d 3eed 1cbe bdbe 8f3d
000003a0: 4545 1d3e 3137 94bd 4e23 4e3e 3bbd 82bc
000003b0: 820c 26be 42bf fa3b fa71 a13d 6186 3e3c
000003c0: c48d dc3d 9d83 20be ef34 5ebe 565f 1b3e
000003d0: 7a65 62be af47 203e 8952 a63d 2d56 943c
000003e0: ac86 a7bd 426a 463c b157 1e3e 9f96 973d
000003f0: a2eb 0dbd 3cb4 66ba 17ef 5d3d ac3b 1abe
0.009144524 0.2020949 -0.20309916 0.032321066 0.09097112 -0.1717938 -0.20594513 0.24802345
-0.0082213795 0.2028849 0.22083463 -0.023440046 -0.23503764 0.0003192157 -0.10162681 0.08443636
0.00020579388 0.20576446 0.011754063 -0.037661947 0.06986843 -0.1124956 -0.042840313 -0.13197102
0.021101447 -0.19863907 -0.05040483 0.0001850847 -0.018848015 -6.164261e-06 0.036270317 0.112028785
-0.13255884 0.22350997 -0.13098204 -0.050754767 -0.06108607 0.094044745 0.23287684 -0.095792554
0.04598538 -0.12858284 -0.044682816 0.014751515 0.003772638 -0.05475869 0.24174209 0.044675782
0.07824111 -0.16534607 0.22601433 -0.15317701 -0.09970233 -0.21608785 0.19941096 0.017065536
-0.1484793 -0.22289334 -0.2167921 -0.023989446 -0.23274903 -0.07708994 -0.16621225 0.09132553
0.050098572 0.016293947 -0.044727888 -0.09011638 0.104653135 0.032975964 0.24949352 0.23471887
-0.007458228 0.18712536 -0.034830943 0.00036834838 -0.23037837 -0.048996117 0.17932129 -0.21410199
0.019912288 0.22629417 0.07798941 -0.1483618 0.22781482 0.049689796 -0.17462018 0.026588026
2.5969754e-05 -0.082935244 0.20420177 -0.09465657 -0.10965381 0.02341566 -0.0717381 0.1670481
-0.111122735 0.07189729 -0.09381198 0.13884363 -0.21241339 -0.013332733 0.0537905 0.104827955
-0.12876749 -0.20549802 0.11936379 0.00097241177 0.23784864 0.0077126585 0.031454723 0.004700343
0.15736145 -0.052093904 -0.071325235 -0.04533899 0.14310014 -0.20197567 -0.01301424 -0.039388053
0.08495449 -0.13622019 -0.064273424 -0.10252842 0.06429485 -0.13774773 0.18753764 0.12053219
0.092470534 -0.06236462 -0.010451056 -0.10245588 -0.2413001 -0.20108865 -0.14915264 -0.031168578
0.023737252 0.24533655 0.116636746 2.208474e-05 0.0020305787 0.07724968 -0.034377843 0.05465223
0.008331341 -0.25346002 0.11643599 0.07177279 0.12920637 0.14270297 0.16275415 0.067515485
-0.0004338803 0.037939567 -0.21693707 0.00037378212 -0.19412374 -5.0816496e-05 0.20621882 0.112864
-0.0148544675 -0.06687419 -0.2154883 -0.080553114 0.11566958 -0.022233851 0.18986802 0.14170079
-0.0027053333 -0.16136001 -0.15646859 -0.016482241 0.19529082 -0.066087626 -0.003254317 -0.13254118
0.03202142 0.031651445 -0.063323 -0.18562654 -0.12575161 -0.082067244 0.15421015 -0.08464517
-0.03853942 -0.10905514 0.24895597 -0.12125843 0.057609364 8.175693e-07 0.17354587 -0.017405078
0.05935143 -0.0883199 0.053785775 -0.08219764 0.004245204 -0.037911702 0.22467194 0.13918325
-0.035785984 -0.16896982 -0.23204958 0.10769892 -0.14531064 0.024908826 0.07602292 0.16365287
0.00010835637 0.16426823 0.16365324 -0.052265722 0.14107507 0.096700065 -0.0895827 0.17842321
0.019735172 0.111607745 -0.08178919 0.00015364056 -0.24116515 -0.031397954 0.14759792 -0.19519278
-0.1299419 -0.1275889 0.12821865 0.24800487 -0.19270076 0.05956376 -0.15324876 0.07018802
0.15358455 -0.072370894 0.20130655 -0.015959373 -0.16215709 0.0076521942 0.078830674 0.011628718
0.10769227 -0.15675206 -0.2169988 0.15173087 -0.22109023 0.15652345 0.08121211 0.018107498
-0.081799835 0.012110295 0.15463139 0.074017756 -0.034648545 -0.0008800661 0.054183092 -0.15061826

bias_ih_l0 f4 [48]
00000000: 049d 143d beb6 b53d adf8 9a3d a472 c53c
00000010: 6ae8 2f3e 3174 a7bd 9bae 9ebd 1e37 06be
00000020: 391b 663e a599 093d c665 293d 29c7 153e
00000030: e97c 483e ad85 c7bd e0d0 2cbe 2ab9 053e
00000040: 9799 5b3d 1d9b 7a3d a3cb 50be d0b5 1a3e
00000050: e65d 29be 5de6 15be 5950 5cbe b0a6 903a
00000060: 6e3b 7cbc 70a8 8abc a8f6 3c3d e6cc 20be
00000070: 20a5 a33d f2cd 273e 9fce 343e dc22 f5bd
00000080: e190 e13c 661d 7d3e 4780 e2bd a768 5fbe
00000090: a5d9 7abe 74e1 08be 98ef fe3c c626 10bc
000000a0: 6bc7 87bd 5f49 59be 6f39 3a3d afaf a3bd
000000b0: e2c0 2a3e 55b9 183e 38de 653e a836 073e
0.036282554 0.08872746 0.075669624 0.024102516 0.17178503 -0.081764586 -0.07748147 -0.13106963
0.22471322 0.033593792 0.041356824 0.14626755 0.195789 -0.097422935 -0.16876554 0.13058916
0.05361327 0.061183084 -0.20390181 0.15108418 -0.16539726 -0.14638658 -0.21515025 0.0011036005
-0.0153950285 -0.01692602 0.046133667 -0.15703163 0.079904795 0.16387156 0.17656945 -0.119695395
0.027534904 0.24718246 -0.11059623 -0.21817265 -0.24497087 -0.13367254 0.031120107 -0.008798307
-0.06629833 -0.21219395 0.04546493 -0.07992493 0.16675141 0.14914449 0.22448051 0.13204443

bias_hh_l0 f4 [48]
00000000: 47e1 75bd 064a 5bbe cfb1 4dbd 20e7 79be
00000010: 3b8b 79bd f7bd 61be 7172 16be f3bf 6cbe
00000020: ed93 56be d1dd 4cbd 748c 10be d291 683e
00000030: e770 11be a65a 02be c72c c73d fa20 67be
00000040: 4301 9fbd 8f89 2f3e 5c7d 22be 98bf 4d3e
00000050: 7091 4ebb 56b9 6ebe 1850 6bbe 17d8 1f3e
00000060: 34c8 673e 67eb 67bd 34cc 263e 5652 0bbe
00000070: 61ad 293e fbc5 373e 3769 b63d 52d1 783e
00000080: 0821 c83d 3fd5 433e b6eb b1bd 1a55 683e
00000090: f7ce 03be fedd f43d f839 0b3d 4efe 3fbe
000000a0: ef22 2bbe 2f48 18be 7e6b 7bbd e287 0c3d
000000b0: b6af e53d b0f4 ebbd 713c e23d 70e1 643d
-0.060029294 -0.21414956 -0.0502184 -0.24404573 -0.060923796 -0.22045122 -0.14692093 -0.23120098
-0.20954867 -0.050016228 -0.14116079 0.22711876 -0.14203225 -0.12729892 0.097253375 -0.22571173
-0.077639125 0.17142318 -0.15868133 0.20092618 -0.0031519793 -0.23312888 -0.22979772 0.15609775
0.22634965 -0.05662098 0.16288835 -0.13605627 0.16570045 0.17946617 0.08906787 0.242986
0.09771925 0.19124316 -0.086875364 0.22688714 -0.1287192 0.11956404 0.03399083 -0.18749353
-0.16712545 -0.14871286 -0.06138181 0.034309275 0.11215155 -0.1152128 0.110466845 0.055879056

weight_ih_l0 f4 [3, 11]
00000000: a9a7 19bf e990 1bbf 5233 09bf 0e64 ccbe
00000010: 305e fdbe f6c0 a1be 09b6 273f 589f 5b3f
00000020: bbe3 bb3e 0abd 9f3e 24a4 063f ee45 89be
00000030: f7bb 813f c94b 2f3e 4e72 5c3f 6023 d4bd
00000040: 58ed 673f e859 12bf 8e67 643f 5691 79bf
00000050: 44e8 823e 1ea5 42bf e7f4 473f 0cdb eb3e
00000060: 9143 493f ed08 2cbf 185d 343f 2454 7b3e
00000070: 1331 193f 0d57 813b 98d0 24be e8e2 1abe
00000080: 4361 fa3e
-0.60021454 -0.6076799 -0.53593934 -0.39920086 -0.49485922 -0.3159253 0.6551214 0.85790014
0.36697182 0.31198913 0.5259421 -0.26811165 1.0135487 0.17118753 0.86111915 -0.1035831
0.9059653 -0.57168436 0.8922051 -0.9748739 0.2556783 -0.760332 0.78108066 0.46065557
0.78618723 -0.6720112 0.7045455 0.24543816 0.59840506 0.003947145 -0.16095197 -0.1512562
0.4890233

weight_hh_l0 f4 [3, 1]
00000000: afdc 8a3e 8e40 f8be 3118 24bf
0.27121493 -0.4848675 -0.64099413

bias_ih_l0 f4 [3]
00000000: 2901 793f 5281 70bf 5099 07bf
0.97267395 -0.9394733 -0.5296831

bias_hh_l0 f4 [3]
00000000: 70a7 cc3e c058 8fbe 2759 91bd
0.39971495 -0.27997398 -0.070970826

weight f4 [1, 16]
00000000: f2d2 3a3e 954d 333d c5b0 74bd edd7 30bc
00000010: 22ee 56be 5cd5 b83d c937 0fbe 417c dcbd
00000020: 41c1 103e 1ec8 373e ab26 ff3d 1763 7abe
00000030: af43 473c 8871 68be 61d7 1dbe fca4 123e
0.18244532 0.04377516 -0.059738893 -0.010793668 -0.20989278 0.0902507 -0.13986124 -0.10765887
0.1413622 0.17947432 0.12458547 -0.24451862 0.012162133 -0.22699559 -0.15414192 0.14320749

weight f4 [680, 17]
00000000: fa69 a3bd 247c 0dbe 9b64 473e 50f5 5abe
00000010: c2dc a2bc dcdc 1d3e dd2a 47be a1db 603e
00000020: 7908 e5bc d2e6 203d c67f 273a cc5f 363e
00000030: fda7 163e 5a85 c63b 978e 533e 24b1 efbd
00000040: 6863 29be 0c20 e4b9 f7e0 02be 88e1 053e
00000050: 9b07 9ab9 113a 553d 8a00 123e 969c 2eb8
00000060: ebe1 553b 713b af36 a5fc ed3d 792f d337
00000070: 1a0a 5138 81b8 2fb6 085b 15bd 0d67 3239
00000080: 8062 26bd c159 d9b8 fce8 c4bd 81c8 e6b9
00000090: 909f a53d 361e 9abc c78b 23bd 8266 b93d
000000a0: 8d3d e9bd acfb a1bd ecae 0fbe aee6 ebbc
000000b0: 5ec7 863b 1aaf a33c babc 363c b344 fbbd
000000c0: cff2 033d f01a 46bd fffa d4bc 2b01 1b3e
000000d0: 8686 ea3c 5147 5f3d 70e1 3fbe f91a fb3c
000000e0: 7ee5 493d 83ea eebd d9c9 86bd 58fa f3bd
000000f0: 92ed d73d efa5 99bd 2e9d f5bc b8a2 cd3d
00000100: d027 3e3e 16c1 3c3e 04f9 5a3c 64cc 443e
00000110: 6b72 1fbe a2d0 ca3c cdc1 443e f64a ccbd
00000120: 3167 20be 54a1 3bbe 09ae 513e b369 ffbd
00000130: d25d 9abd 11ee 263e 0f77 a23d 1082 1cbe
00000140: 962f 4b3e 35dc bdbd efff ec3d ea4f 79be
00000150: abce b33d 99f1 2abd ee07 bc3c 9547 d63d
00000160: 8fb6 093e 9596 7a3a 2e35 3d3e 446b b2bd
00000170: a025 373d e95c e0bc fdea 6d3c 25d9 09bd
00000180: b6f1 113e 1ba7 e93c 6cf1 613b 3389 22be
00000190: a565 da3c 535b 95bd 1ad8 1abd 9a91 28bd
000001a0: 6635 593e a3e3 ef3d 84db ea3a c9f4 e2bb
000001b0: cf20 923c fc24 933d 0f65 aebd 4db1 6f3e
000001c0: e07b 1dbe 6a6f 7cbe 0cc0 c33a 5b8d 3ebe
000001d0: 2f8b 363d 20f3 483e 3137 3a3d cad0 d538
000001e0: 6a41 18bd 08ed 9fbd 79c1 f3b9 7a30 f539
000001f0: 5389 1438 c4df 0e3e a8be 14be d581 61b9
00000200: 004f e439 4e78 a33d 5a0a ffbc 7b21 323b
00000210: 02a3 b0ba f7d6 2139 e014 993d 522a 5f3a
00000220: 9e2b 3f3e 3f46 95bb 18dc b73d 24e8 c1bd
00000230: cdb6 003e a963 15be dbec 17bc df77 3bbe
00000240: 2dee 60be 41d4 363e 75eb 3bbe 945a 133e
00000250: ff7d f83d 0ac1 36be f305 11be 0194 643d
00000260: bf0a 58be a641 3338 be06 183d 6eea 383d
00000270: adb2 1d3d ff3e 523c 1859 0bbc f9eb e639
00000280: 1c8c 78b4 61c6 5dbd 58d2 79bd 8913 12be
00000290: 9df1 77bd a30e d9bd f3be c63d b852 02b7
000002a0: afcb d63b ae7f d1b7 cebb 233e ec2f 6c3e
000002b0: 2061 48bd 13fb 18bd 2804 a93d b9ac 613e
000002c0: e018 373e 77d1 483e a0bb ea3c b6ff 66bd
000002d0: a786 b0bd b3f4 19be 068a f8bc 0e8d 1c3e
000002e0: 2a89 37bd e031 6bbe b071 34be 547b 033e
000002f0: f65e 983b ee9a d8bd 3cf8 afbd a9ff b63d
00000300: fc33 f43c 0ce8 233d 0a1e b43d 1a56 b138
00000310: 4eaf 1ebd 75db 27bb 4433 debd 45b5 4bbd
00000320: 470c 18be 2020 0c3e 17b5 acb9 2001 11bc
00000330: eebf 503e 6a78 8b3d 220b 473e 6924 59be
00000340: cf52 b13c df90 3bbe 3825 7d3e 806b e1bd
00000350: 1934 783b ef40 1d3e 1495 0d3e 8784 47be
00000360: cd1c 1ebd 59ce 0a3e ae77 8cbd a805 49be
00000370: 64a1 d2bd 5c9f bf3d 55ee e43d 3220 043e
00000380: da94 563e 8381 7fbe b842 19be 328f 743e
00000390: 773d 2f3e 0d08 2d3e 609b c6bd 1303 33be
000003a0: 0b29 0fbe 00fe 49bd 7633 37bd 4330 733d
000003b0: f28f 49be 962e 21be d338 143e b07e b3bd
000003c0: 75f5 d73c 1f0b 54be 7bf4 963d 7fd6 323e
000003d0: 025f 95bd 60c9 263e b739 3d3e 6f31 f73d
000003e0: 5bf5 8e3d 86ff 1fbe 8914 ab3c 2f7f a9bd
000003f0: b681 8b3c 8356 52be d5bd 2dbe 2a86 703e
-0.07979198 -0.13816887 0.19471972 -0.21382642 -0.019880656 0.15416282 -0.19449945 0.21958782
-0.027958142 0.039282627 0.0006389584 0.17809981 0.1471252 0.006058377 0.20659862 -0.11703709
-0.16541827 -0.00043511426 -0.1278113 0.13074315 -0.00029378835 0.05205733 0.14258018 -4.1630665e-05
0.0032635878 5.2223263e-06 0.11620454 2.5175266e-05 4.983889e-05 -2.6184427e-06 -0.036463767 0.00017013792
-0.04062128 -0.00010364084 -0.09614751 -0.00044018406 0.08087075 -0.018813234 -0.039928224 0.09052755
-0.11388693 -0.07909331 -0.14031571 -0.02879652 0.004113122 0.019980956 0.011153394 -0.12268963
0.032213982 -0.048365533 -0.02599859 0.15137164 0.028628599 0.054511372 -0.18738341 0.03065251
0.049291126 -0.11665823 -0.06581468 -0.11912984 0.1054336 -0.075023524 -0.029982176 0.10040802
0.18569875 0.18433031 0.013365034 0.19218594 -0.1557099 0.024757687 0.19214554 -0.09975235
-0.15664364 -0.1832326 0.20476545 -0.124713324 -0.07537426 0.16301753 0.07932865 -0.1528399
0.19842371 -0.09270517 0.11572253 -0.24346891 0.08779653 -0.04173431 0.022953 0.10462872
0.13448547 0.00095591816 0.18477318 -0.087118655 0.044713616 -0.027388053 0.014521358 -0.03365435
0.14252362 0.028522065 0.0034476174 -0.1587265 0.026659796 -0.07292809 -0.037803747 -0.04115448
0.21211776 0.1171334 0.0017918204 -0.0069261533 0.01783791 0.071847886 -0.08515369 0.23407479
-0.15379286 -0.24651876 0.0014934554 -0.1860861 0.04456633 0.19623995 0.04546279 0.000101955215
-0.03717176 -0.07808882 -0.0004649272 0.0004676616 3.5413843e-05 0.13952547 -0.14525855 -0.00021506038
0.00043546408 0.07981931 -0.031132866 0.00271806 -0.0013476314 0.00015434237 0.07474685 0.0008513081
0.18668982 -0.004555493 0.089775264 -0.094681054 0.12569733 -0.14588799 -0.009272779 -0.18307446
-0.21965857 0.17854406 -0.18351538 0.14390022 0.12133407 -0.17847076 -0.14162426 0.05580521
-0.2109785 4.2738066e-05 0.037115805 0.045145445 0.038500477 0.012832402 -0.008505128 0.00044044832
-2.3147771e-07 -0.054144267 -0.060991615 -0.14265265 -0.060533155 -0.10598495 0.097043894 -7.767863e-06
0.0065550427 -2.4974197e-05 0.1598961 0.23065156 -0.04892075 -0.037348818 0.08252746 0.22038545
0.17880583 0.19611154 0.02865392 -0.05639621 -0.08619433 -0.15034752 -0.030339252 0.15288183
-0.044808544 -0.22968245 -0.17621493 0.12840015 0.004649992 -0.105764255 -0.08592269 0.08935482
0.029809944 0.04001622 0.08794792 8.4560554e-05 -0.038741402 -0.0025612984 -0.10849622 -0.04973342
-0.14848433 0.1368413 -0.0003294132 -0.008850366 0.20385715 0.068100765 0.1943784 -0.21205296
0.021645932 -0.18316983 0.24721229 -0.11006832 0.003787285 0.15356801 0.138264 -0.19484149
-0.038601685 0.13555278 -0.068587646 -0.19631064 -0.10284689 0.09356567 0.11178271 0.12902907
0.2095522 -0.24951749 -0.14966857 0.2388275 0.1711329 0.16897602 -0.09697604 -0.17481641
-0.139805 -0.0493145 -0.04472681 0.059372198 -0.19683817 -0.15740427 0.14474802 -0.08764398
0.02636216 -0.20707367 0.0737085 0.17464636 -0.07293512 0.16287756 0.18479048 0.120699756
0.069803916 -0.15624818 0.020883815 -0.082762115 0.017029624 -0.20540814 -0.16966946 0.2348868

bias f4 [680]
00000000: f58f 17be a472 15be 0ab9 93bd 6548 9abd
00000010: 4edb 2abd fb05 2fbd bab0 4c3c 47ba c5bd
00000020: 688f 343e b351 11be 6f72 1f3e d2e2 96bd
00000030: 6f03 d73d e6bd db3c a84f 93bd 65c0 443e
00000040: f62c e7bd 5ace df3d 352f 313e e393 74bd
00000050: f952 2c3e 49f6 183e dee9 173e b355 b7bd
00000060: 1b66 de3d 30bb ebbd 7ea6 0a3e 7536 97bd
00000070: 1458 44bd e14b 153e dbe6 0abe 9106 10bd
00000080: ebcd e3bd 2eef b93d dfcc 04be 8c82 16be
00000090: a715 9abd 6726 a8bd 3f2f 8abd 6f76 103e
000000a0: 7d6a 6e3e 67bb 46bd 33ce a1bc 9d64 1d3e
000000b0: 9979 ebbc 815f d53d 01fe b73d daba 0fbe
000000c0: bcc9 d1bb 052d 00be c203 053d 7b17 96bd
000000d0: 1ef0 19bd 1160 383e a2f0 2c3e db70 6a3e
000000e0: 8d5c 063e 11fa 9cbd 90a5 8fbd 9705 8a3d
000000f0: a4e7 eb35 b8a8 0d3d 3869 c83d ac15 c83d
00000100: 797a 7b3c 861b 593e 8a78 703e 3ca4 89bb
00000110: 63b7 f43d 7c03 0cbe 10b3 17be f016 113c
00000120: 45fc a0bd b966 62bd 91f5 f3bd ed26 5b3e
00000130: bbd3 2dbe a7be d3bd c389 283e c34b 13bd
00000140: 7c55 67bd 8533 56be 1fdc a3bd 5a1c 3b3e
00000150: 2484 1bbc 9d48 babd e502 b83d 588a 663e
00000160: 00ce d3bd 0fe9 023e 4f11 11bd fccd d6bd
00000170: 9df8 8bbd 517e 2ebe 824b 453e 522b 3dbd
00000180: 02e1 94bd 4c7c a73d 1d89 d03d 2619 f4bd
00000190: 85e1 233d 114e ce3d 10ee d13d 4537 863d
000001a0: 055d 093e 16aa 4abd 0619 cfbd f42d e9bd
000001b0: b08d 0fbe 73e8 c4bc ab9f 68be 3ab1 e0bc
000001c0: 42d3 17be d2fb 713e 309f 89bd ed8b d13c
000001d0: 2a04 413a e437 2f3e 6023 a23d 607c e7bd
000001e0: 93f2 b1bd 3ebf 053d 658a 4a3e 4bca 71be
000001f0: 6ebf 5bbd 5fd7 1e3e aaae 1b3e c35d 123e
00000200: d45b bdbc 9f4a ac3c 8558 a13c 13f6 633e
00000210: 3275 c4bd a7b8 3d3e 2eae 9ebb 5d54 0b3e
00000220: 8bf8 9b3d 7114 353e 7ff6 c7bd 8b3c 203e
00000230: 03f1 8e3d 3616 923c 2365 14be 6968 f73d
00000240: becd c53d 95a5 7c3d 21ac af3d 53e2 05be
00000250: 0a7c 83bd 0f17 f73c 7e5d 573e ff8d 4f3e
00000260: a10f d83c e4c5 563e e494 dabd d33f 2d3e
00000270: 27b7 f5bd d81a 96bd 88a6 18be e851 febb
00000280: 3282 d5ba 0652 7ebc 9688 7b3e baea 533e
00000290: cbfa a1bc 898d 4e3d 099e 373e 33ba 69bc
000002a0: a0af 04be d4ac 6bbe 4f37 4ebe f526 3e3e
000002b0: eb74 a6bb a2ad febd 8584 4d3e 89aa 573e
000002c0: 4241 78bd 9be7 653e e9bc 533d babc 413e
000002d0: e1c7 b8bd 8d93 333e 9835 50bd 06bd f73c
000002e0: dd15 41bd 4879 53bc 30fd babd 6598 5c3d
000002f0: 0c2b 5c3c 6c0e ff3b a1c2 7ebd b8b2 6a3e
00000300: a98d 6d3e 8fd0 edbd fef3 c53c fb6b 453c
00000310: 8e06 eb3d c5e3 69bc 5666 e4bd 384f 393e
00000320: 4866 653e 2645 f6bb 5b3d 473e 730a 203e
00000330: a3d9 ddbd d783 1a3e 04d7 42bd 83ed 263e
00000340: 9937 2a3e 5b44 f1bd 2348 82bd fb81 843d
00000350: 8e68 3e3c 6334 303c 0802 06be f62d 683e
00000360: 2a3a 13be c829 01be ae8c fa3d ba35 f0bc
00000370: 78f2 7cbd a336 a5bd 6010 193e 2ad2 cfbd
00000380: a650 3b3e 11d1 263e 5dc0 023e f6eb 143d
00000390: b4b5 dfbd d500 c339 dceb 863c e7ef 8fbd
000003a0: ccab 59be d89d 183e 588b f9bd cdb3 543e
000003b0: 73f4 06be 6cf9 713e b58a f13d df23 713e
000003c0: 1374 bd3c b049 18be 3cfb 2b3e 08f6 0bbe
000003d0: 8ec0 19be 3606 1f3e 22ae 1e3e 6ef0 8abd
000003e0: 7bc0 2cbc 1870 7d3d f234 8cbd 1804 aebd
000003f0: c196 be3d aa4a 97bc 5eb4 b7bd c1d0 8bbd
-0.14801009 -0.14594513 -0.07213028 -0.075333394 -0.04171305 -0.042730313 0.012493307 -0.0965467
0.1763283 -0.14191322 0.15570997 -0.07367481 0.10498702 0.02682395 -0.071929276 0.19214018
-0.112878725 0.1092803 0.17303164 -0.05971135 0.16828527 0.149377 0.14835307 -0.08951893
0.10859319 -0.115103126 0.13540074 -0.07383434 -0.04793556 0.14579727 -0.13564627 -0.035162512
-0.1112326 0.09078823 -0.12968777 -0.14698237 -0.07523661 -0.0821045 -0.06747293 0.14107679
0.2328281 -0.048518565 -0.019751644 0.15370412 -0.028744506 0.104186065 0.08983994 -0.14036122
-0.0064022224 -0.12517174 0.032474287 -0.07328697 -0.03758251 0.18005396 0.16888669 0.22894613
0.13121243 -0.07664884 -0.070140004 0.067393474 1.7576281e-06 0.03458473 0.09785694 0.097697586
0.015349024 0.21201906 0.23483482 -0.0042004865 0.11949041 -0.13673204 -0.148144 0.008855566
-0.078606166 -0.055273745 -0.119120724 0.21401568 -0.169753 -0.103390984 0.16458802 -0.035960924
-0.05647801 -0.2091809 -0.08000969 0.18272534 -0.009491954 -0.09095881 0.08984927 0.22513711
-0.10342026 0.12784217 -0.035416897 -0.10488507 -0.068345286 -0.17040373 0.19267085 -0.04618389
-0.07269479 0.081780046 0.10182402 -0.11918859 0.040009994 0.10073484 0.10250485 0.065535106
0.1341439 -0.049478613 -0.10112195 -0.11385718 -0.14018893 -0.024036622 -0.22717158 -0.027428258
-0.14826682 0.23631218 -0.06719816 0.025579417 0.0007362986 0.17111164 0.079169035 -0.113030195
-0.086888455 0.032653086 0.19779356 -0.23612325 -0.05364936 0.15511845 0.15203348 0.1429358
-0.023115076 0.021031676 0.01969553 0.22261839 -0.09592666 0.1852747 -0.004842541 0.13606401
0.07615765 0.17683579 -0.09763812 0.15648095 0.06979563 0.017832857 -0.14491706 0.120804615
0.09658383 0.06168135 0.08577753 -0.13074617 -0.06420143 0.030162362 0.21031758 0.20269011
0.02637464 0.20973927 -0.1067293 0.16918878 -0.11997824 -0.07329339 -0.14907277 -0.007761229
-0.0016289412 -0.015522486 0.24563822 0.2069501 -0.019772908 0.050427947 0.1793138 -0.014265585
-0.1295762 -0.23015147 -0.20138286 0.18569548 -0.0050798557 -0.124354616 0.20070083 0.21061148
-0.06060911 0.22451632 0.05169383 0.1891965 -0.09022499 0.17536755 -0.05083236 0.0302415
-0.04713999 -0.012907334 -0.09130323 0.053856272 0.013437998 0.0077837016 -0.06219733 0.22919738
0.2319857 -0.11612045 0.024164196 0.01204967 0.114758596 -0.014275496 -0.111523315 0.18096626
0.22402298 -0.0075155674 0.19456999 0.15628986 -0.108325265 0.15089355 -0.047568336 0.16301541
0.16622771 -0.11780616 -0.06361415 0.06470104 0.0116216075 0.0107546775 -0.13086712 0.22673783
-0.14377657 -0.12613595 0.12233864 -0.029322494 -0.061754674 -0.08067062 0.14947653 -0.101475075
0.18292484 0.1629069 0.12768693 0.036357842 -0.10923329 0.00037193918 0.016469888 -0.070281796
-0.21256942 0.14903963 -0.12184781 0.20771714 -0.13179187 0.23630303 0.117940344 0.2354884
0.023126638 -0.1487186 0.16795057 -0.13668072 -0.1501486 0.15529713 0.15496114 -0.067841396
-0.010543938 0.06187448 -0.06846036 -0.084968746 0.09306098 -0.01846822 -0.08969949 -0.06826926

weight f4 [4, 680]
00000000: 2ad8 7dbc 99a0 3ab9 d988 1e39 16cb 1cba
00000010: 74e9 943c 722f ffbc d0f3 643c 4ead 7e38
00000020: 7aae 8ebc 04f2 0db9 f7a5 37bc f9ed 69ba
00000030: ac75 163d 968b 29bc 31a3 41bc fb1d 3d3c
00000040: a201 1a3d 2179 4bbb 81d3 05bb 4dd5 423d
00000050: b232 9a3c 423e bc3c dc97 ea3c ea00 2bbd
00000060: 028d af3c 699f 8abc 54f8 603c f2cf 7a3a
00000070: a57f 8e3c c2bf d13c 4d69 97bc 3f01 f0bc
00000080: 2684 85b9 6617 e83c a1cc ed3c 1c1c a3bc
00000090: 3200 2eb8 bb93 1938 106c afbd b4b0 a63c
000000a0: b87f 623c bc2c 983c 3aa1 5d38 fcfc d43c
000000b0: fdcf 7539 9db4 773c cd97 563c 569b 6638
000000c0: 819d 59bc 7185 0abd 0233 f7bb e64f 003d
000000d0: cff8 893c daf3 943c 5310 303c de2c a73c
000000e0: 3c1a 813c 1a62 3ab9 06d5 bb3c 912c b83c
000000f0: 8bab 3fb9 a7e0 873c e8f9 96bb e6b7 babc
00000100: 80db 5b3d 8a98 a2bc f8c7 bd3c c622 c3bc
00000110: 0531 eebb 0c95 af38 8dbf 54b8 1a8f a3bc
00000120: 757e 8b36 a726 c4bc 6f97 ba3b cf1f 73bb
00000130: cb94 6a3c 1e20 55b8 ec34 f7bc 32c2 1b3d
00000140: 2dca 0abd c38b d83c 35e6 e63b eacd 2f3c
00000150: f0e6 153c 8c63 d8bc a592 853b 348d 0a3c
00000160: 5388 46b9 55d5 a3bc 0e8b ddba b366 8a37
00000170: fa0c e037 b266 d7bc 0f3e fc3c e6cf 353c
00000180: 8e32 45b8 5d03 aabc 9728 ba3c b1ee 36b8
00000190: ab9f a63c ad2b 42bc a4ba 5a3c f616 8d3c
000001a0: c213 a3bc 057d 92bc 6ad6 c238 5d3a 41b7
000001b0: 8210 333c addc 133d 84a9 04bb 1598 183d
000001c0: bcae 1e3b 7df0 f83c bdbb 5439 c832 3ebd
000001d0: d35a 253d 5bec 00bc fcfe e2ba 1a58 89bc
000001e0: 9fa7 3a39 6abc ad3c e63f c63c 5df2 233d
000001f0: 7b16 d43c c466 73bc 53c9 793c 1bde dd3c
00000200: 5099 74bc 3703 2dbc 4d3b a43c d9bc 4bbc
00000210: 37a4 a8b8 9a73 c13c 3bf3 4a3c 89d8 09bc
00000220: b153 58bc ea12 283d af2e 30b7 7d28 833c
00000230: 52d9 463d 10dc 193d b848 423c 6db8 c03c
00000240: 01c0 5d3b ab9e ed3c 2bb3 0e3d 5f7c 4e37
00000250: 70a2 1a38 ea72 f33b b2df 1e3d 23ed 093d
00000260: c895 91bc f83c 0e3c 9ac3 37b9 e3a7 913c
00000270: 2bff 3439 e7be 193d 0031 3237 9db5 7d3c
00000280: 0bb7 cc3c b108 71bc 9a3d 0b3d 9af9 793a
00000290: 6be8 4b3b c3ed b73c 9acf 2e3d 65a4 2a39
000002a0: 6289 3b3b dd7a e1bc a11a f7bc 6a5f 033d
000002b0: 1f6e 41bc b96d a4b6 b32f bc3c 084e 8e3b
000002c0: 8535 26b7 ab2c d0bc fb21 de3c 052d 353c
000002d0: 6474 e8bc a944 e8bc 47b3 073c aab6 3abd
000002e0: 82ba 55b9 0cc6 5dbb 7cf6 02b7 3643 a7bc
000002f0: 2490 a8bd 7f42 ac3a a0b2 e1ba 6a8d a03c
00000300: 427f 643c 9922 e437 cbb4 15bc e7bb e8bc
00000310: ab15 dfbc 4b2d 9a3c 12ed ca3c 29fd 093b
00000320: 382f debc 8b94 35bc b28a 363d 4c90 4a3c
00000330: 4b01 1336 51ff 093d d4ce 003b d9c0 2a3d
00000340: c179 82bc e692 a5b7 ce36 ca38 4cac 88bc
00000350: 83fd 153d 9e57 cb3c cef4 9db8 2ef6 fa3b
00000360: 071d 863c b0cc 74b8 7ded 2a3d 2eaf 4ebc
00000370: bc95 cdb7 ec7c 65bb acab 2e3d c18b 093b
00000380: 1951 8a3b 33fb 29bc 17f8 7dbc a671 363d
00000390: f2ad 15b8 18a7 3938 df7d 9dbc 739a 68b8
000003a0: e5e3 8c3c ea1b 3b3c 8170 49b9 59d9 133c
000003b0: 6e26 993c 35eb 6b3b d336 02bd 353c f7bc
000003c0: 1375 9fbc b5bf 90bc b909 a33c 83ad b3b7
000003d0: 2b6c 94b8 eb07 b739 afae b6bc c461 e337
000003e0: 510b e23d 0795 73bc 5360 f5b6 8e90 e1b8
000003f0: fd90 a5bc 8ff7 afbc 9109 90ba 733c dc3c
-0.015493432 -0.0001779817 0.00015119034 -0.000598119 0.018177725 -0.031150553 0.013974145 6.071972e-05
-0.017417181 -0.00013536966 -0.011209003 -0.00089237053 0.036733314 -0.010348221 -0.011818693 0.011542792
0.037599213 -0.003104754 -0.0020420256 0.0475667 0.018823002 0.022978906 0.028636865 -0.04174892
0.021429542 -0.016921716 0.013731081 0.00095677294 0.01739485 0.025604133 -0.018482829 -0.02929747
-0.00025466195 0.02833147 0.029028239 -0.019910865 -4.1485015e-05 3.6615627e-05 -0.08565533 0.02034793
0.013824396 0.018576019 5.284066e-05 0.025999539 0.00023442502 0.015118745 0.013097716 5.498094e-05
-0.013282181 -0.033818666 -0.0075439224 0.031326197 0.016842274 0.018182684 0.0107460795 0.020407137
0.01575958 -0.00017774888 0.022928726 0.022482188 -0.00018279084 0.016586615 -0.004607428 -0.022792768
0.05367613 -0.019848127 0.023166642 -0.023820292 -0.007269027 8.3724124e-05 -5.0723134e-05 -0.019965697
4.1572443e-06 -0.023944212 0.005694322 -0.0037097817 0.014317702 -5.081307e-05 -0.030176602 0.038026996
-0.033884216 0.026433831 0.007046486 0.010730246 0.009149298 -0.026414655 0.0040763193 0.008456517
-0.00018933536 -0.019999186 -0.0016902403 1.6498705e-05 2.6708924e-05 -0.026294086 0.03079131 0.01109693
-4.7015543e-05 -0.020753557 0.022724433 -4.361448e-05 0.020339807 -0.011851233 0.013350163 0.017222863
-0.019906882 -0.01788188 9.2905786e-05 -1.1517285e-05 0.010929229 0.036099125 -0.002024264 0.03725441
0.0024213037 0.030388111 0.00020287833 -0.046435148 0.04036982 -0.007868852 -0.0017318423 -0.016765643
0.00017800786 0.021208007 0.024200391 0.040026058 0.025889626 -0.014856044 0.015245753 0.027083447
-0.014929131 -0.0105598485 0.020047808 -0.0124351615 -8.041452e-05 0.023614693 0.012387092 -0.008413442
-0.013203547 0.041033663 -1.0501287e-05 0.016010517 0.048547097 0.037563384 0.011858158 0.023525441
0.0033836367 0.029006323 0.034838837 1.2307514e-05 3.6867743e-05 0.0074294703 0.03878755 0.033673417
-0.017771617 0.008681528 -0.00017525107 0.01778025 0.00017261195 0.037535574 1.06210355e-05 0.0154851945
0.024989625 -0.014711545 0.033994295 0.000953579 0.0031113874 0.02245224 0.042678453 0.00016273705
0.0028615822 -0.027524406 -0.030164065 0.032073416 -0.01180604 -4.9003543e-06 0.022971964 0.004342798
-9.906832e-06 -0.025411924 0.027115813 0.011058097 -0.028375812 -0.028353052 0.008282489 -0.04558436
-0.00020382743 -0.003383997 -7.805993e-06 -0.02041779 -0.08230618 0.0013142376 -0.0017219372 0.019598681
0.013946356 2.7195829e-05 -0.009137343 -0.028409911 -0.027232012 0.018820425 0.024771247 0.0021055436
-0.027122125 -0.011082779 0.044565864 0.012363505 2.190546e-06 0.033690754 0.001965453 0.04168782
-0.015927197 -1.9737938e-05 9.642319e-05 -0.01668372 0.03661872 0.024822053 -7.531942e-05 0.0076587414
0.016371263 -5.8364763e-05 0.041730393 -0.012615008 -2.450763e-05 -0.0035017086 0.042644188 0.002098784
0.0042210934 -0.010374832 -0.015501044 0.044541977 -3.5686367e-05 4.4263055e-05 -0.01922506 -5.5456952e-05
0.017198512 0.011420229 -0.00019210765 0.009023988 0.018695083 0.0035998349 -0.031790566 -0.030180076
-0.019465005 -0.017669538 0.019902097 -2.141926e-05 -7.077338e-05 0.0003491038 -0.022300093 2.7106034e-05
0.11037315 -0.014867074 -7.3127826e-06 -0.000107557615 -0.020210737 -0.02148035 -0.0010989179 0.026884293

bias f4 [4]
00000000: f87f 343c 6ae4 3ebb 160b ce3c 1f0e 443c
0.011016838 -0.0029127845 0.02515177 0.011966257
