estimators/knet/single_obs/MSE_ep100_train4000_val1000_test10000_lr1e-03_wd1e-05_data_sr1e-01_q1e-04_r1e+00_j5_train[500,100]_val[100,100]_test[100,100].pt (torch, 154348 bytes, 40 tensors)

weight_ih_l0 f4 [48, 20]
0	0xbdb498a6	-0.08818178
1	0x3dcbe831	0.09956396
2	0x3e2a93c8	0.16657937
3	0xbdbb8cbb	-0.091577016
4	0xbdb59ac0	-0.08867407
5	0x3c8a2314	0.01686243
6	0x3e3219a7	0.17392598
7	0x3e492315	0.19642289
8	0x3e4df7c7	0.20114051
9	0x3db63bac	0.088981
10	0x3e0ef320	0.13959932
11	0x3d93a87a	0.07209869
12	0x3e32f866	0.17477569
13	0x3dd6fa66	0.104969785
14	0x3d840500	0.06446266
15	0x3de078f5	0.10960571
16	0xbe6ca2e8	-0.23109019
17	0xbc5039c1	-0.012709082
18	0x3d03620f	0.032075938
19	0xbe45fbcf	-0.19334339
20	0x3e2f10b2	0.17096213
21	0xbe0f0ea2	-0.13970426
22	0x3e4febc0	0.20304775
23	0xbe70e9b3	-0.23526649
24	0xbe815399	-0.25259092
25	0x3d5c7659	0.053823803
26	0x3dfc132b	0.123083435
27	0xbe2a26cc	-0.16616362
28	0xbe17a856	-0.14810309
29	0x3e71dce0	0.23619413
30	0x3e351c6d	0.17686625
31	0x3db98a32	0.09059562
32	0x3d48a7e8	0.048988253
33	0x3d2c8a67	0.04212418
34	0x3e301d96	0.17198786
35	0xbd1e5640	-0.038656473
36	0xbe1b40eb	-0.15161483
37	0x3debec29	0.11519653
38	0xbe3bdaec	-0.18345231
39	0xbe1d5fdf	-0.15368603
40	0xbded63c6	-0.11591296
41	0x3e6db00d	0.2321169
42	0x3e568efc	0.20952982
43	0x3d726c21	0.05918515
44	0xbdbe508c	-0.09292707
45	0x3d33dc9e	0.04391157
46	0x3e60a1b6	0.21936688
47	0xbddb5a00	-0.107105255
48	0xbe41d636	-0.18929371
49	0xbdd3567b	-0.10319229
50	0xbe1653a7	-0.14680348
51	0x3e6fa284	0.23401839
52	0xbd2c3f5e	-0.04205262
53	0x3df1a786	0.11799531
54	0xbe2fbee4	-0.17162663
55	0x3cbfa6ed	0.023395026
56	0xbe175b66	-0.1478096
57	0xbe804ac4	-0.25057042
58	0xbe06df02	-0.13171008
59	0x3e6a84f3	0.22902279
60	0xbdd22f5a	-0.10262938
61	0xbd8ef5d6	-0.06980483
62	0xbe6f2bf1	-0.23356606
63	0x3e505363	0.2034431
64	0x3d4cc65e	0.049993865
65	0xbc6b9b25	-0.014380251
66	0x3cc685d5	0.024233738
67	0xbb15d1f2	-0.0022860733
68	0xbc4712f5	-0.012150516
69	0xbe58c38c	-0.21168345
70	0x3e6e35fe	0.23262784
71	0x3dee45c3	0.116344
72	0xbdebb837	-0.115097456
73	0x3d1fa11e	0.038972013
74	0x3d2224fd	0.039586056
75	0x3e14465b	0.14479963
76	0xbd94e7c7	-0.072707705
77	0xbe0fdf33	-0.14049987
78	0x3df92dcb	0.121669374
79	0x3e48e400	0.19618225
80	0x3d890177	0.066897325
81	0xbe3eb819	-0.18624915
82	0x3de25091	0.11050523
83	0xbd1bb235	-0.03801175
84	0x3dce4154	0.10071054
85	0xbe133b9f	-0.14378212
86	0x3e284988	0.164343
87	0x3e47854a	0.1948444
88	0x3d23c7c5	0.039985437
89	0x3e7d7e48	0.24755204
90	0xbe3f45d6	-0.18678984
91	0x3e38e511	0.18056132
92	0xbdae9347	-0.08524185
93	0xbbb822c5	-0.005619379
94	0x3e50485d	0.20340104
95	0x3e63a0ca	0.22229305
96	0x3dd42a13	0.103595875
97	0x3dd54128	0.10412818
98	0x3e519f5e	0.2047095
99	0x3e52a2e0	0.20569944
100	0xbe0c231d	-0.1368527
101	0x3d2ae1f7	0.041719403
102	0x3db2f2f1	0.08737744
103	0x3dbf2543	0.09333279
104	0x3e2b62d4	0.16736919
105	0xbd1c2b0c	-0.03812699
106	0xbd57c193	-0.05267484
107	0xbe2c4318	-0.16822469
108	0xbe4abaea	-0.19797865
109	0xbc7b28f0	-0.0153295845
110	0x3c33fbce	0.010985328
111	0xbe245e21	-0.16051532
112	0xbccf8499	-0.025331782
113	0x3d4f4dff	0.050611492
114	0xbe55fc52	-0.20897034
115	0x3e655b30	0.22398067
116	0xbdf9cc3e	-0.12197159
117	0xbd773490	-0.060352862
118	0xbdd42ba3	-0.103598855
119	0x3dd69998	0.104785144
120	0x3e2d9362	0.16950753
121	0x3d7deb7d	0.061992157
122	0x3e719f6e	0.23595974
123	0xbe0bb9c4	-0.13645083
124	0xbe5356c4	-0.20638567
125	0xbe36f628	-0.17867339
126	0x3e7c55cf	0.24642108
127	0xbc53f407	-0.012936599
128	0x3dc9d3b8	0.09854835
129	0xbe31c174	-0.17358953
130	0xbe630351	-0.22169234
131	0x3e5e4416	0.2170566
132	0x3de5ce4f	0.11220991
133	0xbe00bd1f	-0.12572144
134	0xbe30d9bf	-0.17270564
135	0x3da61502	0.08109476
136	0x3e0baece	0.13640901
137	0xbd266ba6	-0.040630005
138	0xbe0dd96d	-0.13852473
139	0x3e2098b8	0.15683258
140	0x3e4855ce	0.19563982
141	0x3e802606	0.2502901
142	0xbe38df1e	-0.18053862
143	0xbe318095	-0.17334206
144	0x3e47f85d	0.19528337
145	0xbcae5db5	-0.021284917
146	0x3d95dd6b	0.07317623
147	0xbdfee998	-0.12446898
148	0xbe6f7722	-0.2338529
149	0x3e556a66	0.20841369
150	0x3e6d4127	0.23169385
151	0xbd718071	-0.058960382
152	0x3e011c69	0.12608494
153	0x3d4d78e0	0.050164104
154	0xbbb733ac	-0.0055908766
155	0x3de4f561	0.11179615
156	0xbd9ff759	-0.0781085
157	0x3d9ac8de	0.075578436
158	0x3d1fe520	0.03903687
159	0xbe307cfc	-0.17235178
160	0xbe3c2a14	-0.18375427
161	0xbe3e7de5	-0.18602712
162	0xbbdf0d2c	-0.00680699
163	0x3c7dbd56	0.015487036
164	0xbe2ef5b6	-0.17085919
165	0x3c0c3384	0.008557204
166	0xbde5c0d9	-0.112184234
167	0xbe6cce78	-0.23125637
168	0x3e261b82	0.16221431
169	0xbd3819fd	-0.04494666
170	0xbe0f7075	-0.14007743
171	0xbc7f3c9f	-0.015578418
172	0x3e342427	0.17591916
173	0x3e58f842	0.21188453
174	0x3e047fa3	0.12939315
175	0x3d1fdc67	0.03902855
176	0xbd9b4731	-0.07581938
177	0x3d8f0792	0.06983866
178	0xbe47bd6c	-0.19505852
179	0x3e6b2749	0.22964205
180	0x3e32d8b8	0.17465484
181	0xbe6ef4e6	-0.23335609
182	0x3db7443b	0.08948561
183	0xbe1c1596	-0.1524261
184	0x3d75d8b5	0.06002112
185	0x3e79ab9c	0.2438187
186	0x3d3cda36	0.04610654
187	0xbd7cd7e9	-0.061729345
188	0x3e560a48	0.2090236
189	0x3e09dd86	0.1346341
190	0x3e59a5f6	0.21254715
191	0x3de4e82c	0.11177096
192	0xbdbec39b	-0.093146525
193	0xbd28ebb6	-0.041240416
194	0x3d829ec2	0.06377937
195	0x3e235276	0.15949425
196	0xbd63e22c	-0.055635616
197	0x3d96b9da	0.07359667
198	0xbe5713c6	-0.21003637
199	0x3dbe320d	0.0928689
200	0xbcb90b1c	-0.022588305
201	0xbd435edf	-0.047697898
202	0xba7375f4	-0.0009287291
203	0x3e5c9ad9	0.21543445
204	0x3ddcb772	0.10777177
205	0x3e0c0aee	0.13676044
206	0x3e74ad74	0.23894292
207	0x3e702b85	0.23454101
208	0xbe51d52a	-0.20491472
209	0x3da414d7	0.080117874
210	0xbca8466f	-0.020541398
211	0xbe26dc58	-0.16294992
212	0xbc660651	-0.014039592
213	0xbd57c3b9	-0.05267689
214	0x3e3827bd	0.17983909
215	0x3e4e7895	0.20163186
216	0x3e2f9aa3	0.17148833
217	0x3e5d08d0	0.21585393
218	0x3cda14ba	0.026621211
219	0xbe2ff71d	-0.1718411
220	0x3cc87abb	0.024472585
221	0xbe0f2146	-0.13977537
222	0x3e5e09ad	0.21683379
223	0x3e52b8ab	0.20578258
224	0x3c865188	0.016396299
225	0xbbff957b	-0.007799802
226	0x3bc38c04	0.005967619
227	0x3c65bf82	0.01402271
228	0xbcde97a0	-0.02717191
229	0xbe2ddf4e	-0.16979715
230	0xbe45e011	-0.19323756
231	0xbe2a965a	-0.16658917
232	0x3e142ef7	0.1447104
233	0x3e74fc76	0.23924431
234	0x3e125586	0.14290437
235	0xbe693bfe	-0.22776791
236	0x3e676a03	0.22599034
237	0x3e1596dd	0.14608331
238	0xbe1d76c4	-0.15377337
239	0xbbbb5685	-0.005717101
240	0x3d516326	0.051119946
241	0xbc766b11	-0.015040175
242	0x3e55d403	0.20881657
243	0x3e29d083	0.16583447
244	0x3e6868db	0.22696249
245	0xbe000d70	-0.12505126
246	0x3e0e7a29	0.13913788
247	0xbdd13afd	-0.10216329
248	0xbe145511	-0.14485575
249	0xbe4f0e59	-0.20220317
250	0xbe568f25	-0.20953043
251	0xbe60675a	-0.21914425
252	0xbe5bc1dc	-0.2146067
253	0x3d105b77	0.035243478
254	0xbe3918c8	-0.1807586
255	0xbd80f25f	-0.062962286

weight_hh_l0 f4 [48, 16]
0	0x3d44cf8b	0.04804949
1	0xbe4ee217	-0.20203434
2	0xbe49a4f0	-0.19691825
3	0xbd164008	-0.03668216
4	0xbe462697	-0.19350658
5	0x3e143f7d	0.14477344
6	0xbe688e25	-0.22710474
7	0xbc8e7d06	-0.0173936
8	0xbd9c987b	-0.07646271
9	0xbe2fcf41	-0.17168905
10	0x3e5d1315	0.2158931
11	0x3df5b255	0.11996905
12	0xbe2509db	-0.16117041
13	0xbe0f4cbb	-0.13994114
14	0xbc89be76	-0.016814452
15	0x3e080c1b	0.13285868
16	0x3d686c2a	0.05674378
17	0xbe1d2144	-0.15344721
18	0xbd3f587d	-0.04671525
19	0xbda31efe	-0.07964896
20	0x3db4ffd7	0.0883786
21	0xbe56782a	-0.20944276
22	0x3dc58cbd	0.09645984
23	0xbdada672	-0.084790125
24	0x3e747602	0.23873141
25	0x3e577ab0	0.21042895
26	0x3dbadc10	0.09124005
27	0xbe793cc1	-0.24339582
28	0xbe5d14a5	-0.21589907
29	0xbdf8514e	-0.12124883
30	0xbc9b5b4e	-0.018964436
31	0x3da5010a	0.08056839
32	0x3d208604	0.039190307
33	0x3d98da39	0.07463498
34	0xbcd4557a	-0.025919665
35	0xbe1d482c	-0.15359563
36	0xbe37f4f3	-0.17964534
37	0x3d14e187	0.036347892
38	0x3e4d812b	0.20068805
39	0xbe0805c7	-0.13283454
40	0xbbf66900	-0.007519841
41	0x3e650f4c	0.22369117
42	0xbe36135d	-0.17780824
43	0x3d146511	0.036229197
44	0x3e000002	0.12500003
45	0x3d78b7f5	0.06072231
46	0xbe414882	-0.18875316
47	0x3d19717e	0.03746175
48	0x3e1bb6f9	0.15206517
49	0x3d8d485d	0.06898568
50	0xbdb0e207	-0.08636861
51	0xbe650e0f	-0.22368644
52	0xbdc225d8	-0.09479874
53	0xbda349cb	-0.07973059
54	0x3e3df76e	0.18551418
55	0xbe189c66	-0.14903411
56	0x3de34e59	0.11098928
57	0xbd23cdfa	-0.039991356
58	0x3e0d3552	0.13789871
59	0x3e75370f	0.23946784
60	0x3d51c43f	0.051212545
61	0xbe2016b6	-0.15633664
62	0xbe49f52d	-0.19722433
63	0x3d04719b	0.032334905
64	0x3cc70974	0.0242965
65	0xbd6847d0	-0.05670911
66	0xbca2d72a	-0.019877989
67	0xbdcd0b3c	-0.100119084
68	0x3e24fa3a	0.16111079
69	0xbd1f3927	-0.038872864
70	0xbd8110b5	-0.06302015
71	0xbe0636ee	-0.13106892
72	0x3e0da114	0.13830978
73	0x3e5e6f31	0.21722104
74	0x3e4860da	0.19568196
75	0x3e6cbaff	0.23118208
76	0x3e034656	0.128198
77	0x3e4dbfdd	0.20092721
78	0xbe27d205	-0.1638871
79	0xbe4efe62	-0.20214227
80	0xbc2b113d	-0.010441122
81	0xbe765546	-0.24055967
82	0x3dc321c6	0.09527926
83	0x3d5e41f0	0.0542621
84	0xbe52b202	-0.20575717
85	0x3df04025	0.117309846
86	0x3c9d68b0	0.019214958
87	0x39a02ab2	0.0003054939
88	0xbe30d16c	-0.17267388
89	0xbe1bcaef	-0.15214132
90	0xbe2f55e3	-0.17122607
91	0x3cdb3c7f	0.026762245
92	0x3dbd5d2e	0.09246288
93	0x3de98da4	0.11403969
94	0x3e19e357	0.1502813
95	0x3cc90ae4	0.024541326
96	0xbd9270e3	-0.07150438
97	0x3e4bf05e	0.19915912
98	0x3dc39334	0.09549561
99	0xbb767833	-0.0037608265
100	0xbe06b3fc	-0.13154596
101	0x3e15ce33	0.1462944
102	0xbd271dec	-0.04080002
103	0xbe35e457	-0.17762886
104	0xbe6beb72	-0.23039034
105	0xbe68d0f7	-0.22735964
106	0xbbb4cbed	-0.005517474
107	0x3e773b40	0.24143696
108	0x3d94cb4e	0.0726534
109	0xbdbe5935	-0.09294359
110	0x3e2db16b	0.16962211
111	0xbe6f3c70	-0.23362899
112	0xbe6d44a8	-0.23170722
113	0xbe7d80ed	-0.24756213
114	0x3dd92f48	0.10604721
115	0x3e24c3ef	0.16090368
116	0xbc4e22e7	-0.012581564
117	0xbddd0f75	-0.10793964
118	0xbd7a1875	-0.06105848
119	0xbe0f61d0	-0.14002156
120	0x3b343ae0	0.0027500913
121	0xbd802ba8	-0.06258327
122	0xbdd2ecdc	-0.102990836
123	0x3e70dea9	0.23522438
124	0xbdce7341	-0.10080577
125	0x3e4589d3	0.19290857
126	0xbd44591d	-0.047936548
127	0x3d572a4a	0.052530564
128	0xbd09c1b1	-0.033631984
129	0x3e56311f	0.20917176
130	0x3e6ed876	0.23324761
131	0xbca878c6	-0.020565402
132	0xbcffd52a	-0.031229574
133	0x3da8294b	0.08211001
134	0x3d97227d	0.07379625
135	0xbe198dec	-0.14995545
136	0x3e351c91	0.17686678
137	0xbc817571	-0.01580307
138	0x3e02230e	0.12708685
139	0xbe38b07d	-0.18036075
140	0x3e78466e	0.24245617
141	0xbda6d73b	-0.08146521
142	0xbdfb1238	-0.12259334
143	0xbe78ba32	-0.24289778
144	0xbdb7d7a9	-0.08976681
145	0x3e62f0a6	0.22162113
146	0x3b7f09a8	0.0038915668
147	0x3dae588f	0.08512985
148	0x3d237907	0.039910343
149	0xbe5360ad	-0.20642348
150	0x3e3eaad3	0.18619852
151	0xbb86bdfa	-0.0041120024
152	0xbbbb6522	-0.005718843
153	0xbdb1e192	-0.08685602
154	0x3e53ba83	0.20676617
155	0x3e39fd63	0.18163066
156	0xbe6a7653	-0.228967
157	0x3dc39c63	0.09551313
158	0xbe333d3d	-0.1750383
159	0xbe6ae8c7	-0.2294036
160	0xbe7e120a	-0.24811569
161	0x3cdc5333	0.026895141
162	0x3c9b2349	0.018937724
163	0x3d370652	0.044683762
164	0x3d6e1b6c	0.05813162
165	0x3d8d6e8c	0.06905851
166	0xbd3c6202	-0.045991905
167	0xbe3fe75b	-0.18740599
168	0x3e787c4e	0.24266168
169	0x3dc72fae	0.09725891
170	0xbe59e980	-0.2128048
171	0x3cf0cf09	0.029395597
172	0xbda84680	-0.08216572
173	0xbd9fc8a5	-0.07801942
174	0x3d47413a	0.04864619
175	0x3d406e22	0.04698003
176	0xbd9566e2	-0.07295014
177	0xbd909af9	-0.07060809
178	0x3dfc2180	0.12311077
179	0x3e5ad3df	0.21369885
180	0xbe15f5c2	-0.1464453
181	0xbe3259bc	-0.17417043
182	0x3e0d015f	0.13770054
183	0xbe4dd2de	-0.2009997
184	0xbb581f5e	-0.003297768
185	0xbe0512dc	-0.12995476
186	0x3e1bf5e0	0.15230513
187	0xbe69cc88	-0.22831929
188	0xbde81225	-0.11331586
189	0x3e2697ce	0.16268846
190	0xbe0240a3	-0.1271997
191	0x3e797dc2	0.24364379
192	0x3d88a200	0.06671524
193	0x3db9033b	0.09033819
194	0xbdf02315	-0.11725441
195	0xbd15a1dd	-0.036531318
196	0xbe337706	-0.17525873
197	0x388e378a	6.7814326e-05
198	0xbe2a4747	-0.16628753
199	0x3e7a9b81	0.24473383
200	0x3e08268e	0.13295957
201	0x3e6d33e1	0.23164321
202	0xbda4e11c	-0.08050749
203	0xbda552fa	-0.08072467
204	0x3e3b3f74	0.18285924
205	0x3e557cad	0.20848341
206	0xbe688b95	-0.22709496
207	0xbe58d7be	-0.21176049
208	0x3d50f497	0.05101451
209	0x3b1c3794	0.0023836838
210	0xbe3b8459	-0.18312205
211	0xbe4fe890	-0.2030356
212	0xbe77f0f4	-0.2421301
213	0x3dfd6fb9	0.12374825
214	0x3e78c395	0.24293359
215	0xbd787258	-0.06065592
216	0xbdd98bc7	-0.106223635
217	0xbda6fc87	-0.081536345
218	0x3e4a53cb	0.19758527
219	0xbe58e0cb	-0.21179502
220	0xbe0e2978	-0.13883007
221	0xbdbdec7b	-0.09273621
222	0x3d554309	0.052065883
223	0x3e3d3a6a	0.18479314
224	0xbdaef692	-0.08543123
225	0xbc4909de	-0.012270419
226	0x3ddee418	0.10883349
227	0xbe7c760e	-0.2465441
228	0xbca4c9eb	-0.020115813
229	0x3daf5e5b	0.08562919
230	0xbd09577f	-0.03353071
231	0xbe19f856	-0.15036139
232	0x3c4aadcc	0.012370538
233	0x3d914463	0.07093122
234	0x3e43ec7b	0.19133179
235	0x3e7e1389	0.2481214
236	0xbe5ba322	-0.21448949
237	0xbde9df97	-0.114195995
238	0x3dc52f9d	0.09628222
239	0xbd027de7	-0.03185835
240	0x3db44b2c	0.088034004
241	0x3e50e0c6	0.20398244
242	0x3d94a254	0.07257524
243	0xbe407a62	-0.18796685
244	0xbe2c654d	-0.16835518
245	0x3d2250f7	0.039627995
246	0xbd5401aa	-0.0517594
247	0xbe6aa09a	-0.22912827
248	0x3d7c630a	0.06161789
249	0xba870876	-0.0010302204
250	0xba596985	-0.00082936167
251	0x3e3e1b2d	0.18565054
252	0xbce0a392	-0.027421746
253	0x3df8704f	0.12130796
254	0xbe0e7dea	-0.1391522
255	0x3dbea254	0.093083054

bias_ih_l0 f4 [48]
0	0xbe59f217	-0.21283756
1	0x3db3b0e8	0.087739766
2	0xbcf6d55e	-0.030131038
3	0x3d52e553	0.051488232
4	0x3d418d27	0.047253754
5	0x3e2a5ffb	0.16638176
6	0xbe4c7a05	-0.19968422
7	0x3da776e9	0.08176977
8	0xbe5e2e96	-0.21697459
9	0x3e1fe8e3	0.15616183
10	0xbe0aa285	-0.13538559
11	0xbe6f85de	-0.2339091
12	0xbdab93a4	-0.083777696
13	0xbe7e4d1c	-0.24834102
14	0xbdcf1e00	-0.10113144
15	0x3e796872	0.24356249
16	0xbcf10b6e	-0.029424395
17	0x3e7303f2	0.23731974
18	0x3e4e8a44	0.20169932
19	0xbdad114b	-0.08450564
20	0x3dc03854	0.09385744
21	0x3dd364a0	0.10321927
22	0x3e15af49	0.14617647
23	0xbc8100d7	-0.01574747
24	0xbe413abe	-0.18870065
25	0x3db3ad51	0.08773292
26	0x3d15d953	0.03658421
27	0xbd1846d9	-0.03717694
28	0x3d5a2d3a	0.053265788
29	0x3e48858e	0.19582197
30	0xbe3abd59	-0.18236293
31	0xbe360316	-0.17774615
32	0xbd88a308	-0.06671721
33	0x3e2ce1d2	0.16883019
34	0x3e37d5a6	0.17952594
35	0xbd7f9a73	-0.062403154
36	0xbd47d3a3	-0.048785817
37	0x3c852c38	0.016256437
38	0xbcc26d0c	-0.023733638
39	0xbc83b786	-0.016078722
40	0x3e558899	0.20852889
41	0xbe1e475f	-0.15456913
42	0x39ec9b39	0.00045129078
43	0xbe1b3026	-0.15155086
44	0xbda86ac4	-0.08223489
45	0xbe65a86a	-0.22427526
46	0x3e0672dd	0.13129754
47	0xbe58602a	-0.21130434

bias_hh_l0 f4 [48]
0	0xbd84b796	-0.06480329
1	0x3d8b47c6	0.06800799
2	0xbe763648	-0.24044144
3	0x3ddfe43b	0.109322034
4	0x3e763c30	0.24046397
5	0xbca382ad	-0.019959772
6	0x3d7898ab	0.06069247
7	0xbe03419f	-0.12818001
8	0x3d14060a	0.03613857
9	0xbe707c31	-0.23484875
10	0xbdefd027	-0.11709624
11	0xbde6c336	-0.11267702
12	0xbe3d4e27	-0.18486844
13	0xbe1b7536	-0.15181431
14	0x3bff2144	0.007785948
15	0x3d18a14d	0.037263203
16	0x3e0076b4	0.12545282
17	0x3e2b9099	0.16754378
18	0xbdaeba3b	-0.085316144
19	0x3e2741bb	0.16333668
20	0xbd62bfe9	-0.0553588
21	0x3e1a81a9	0.15088524
22	0x3e71df8c	0.23620433
23	0xbe7a3d7c	-0.24437517
24	0xbd956828	-0.07295257
25	0x3e5311bf	0.20612238
26	0xbdbb818c	-0.091555685
27	0xbe1a72b0	-0.15082812
28	0x3e50267e	0.20327184
29	0xbe299cdb	-0.16563742
30	0x3de51653	0.11185899
31	0x3e1c4ed8	0.15264452
32	0xbe48196b	-0.19540946
33	0xbe6045de	-0.21901652
34	0x3e4d2852	0.20034912
35	0xbe6a8abf	-0.2290449
36	0xbca272d2	-0.019830141
37	0xbe43bfac	-0.19116086
38	0xbe19e9db	-0.15030615
39	0x3d80f0aa	0.06295903
40	0x3e4ded0a	0.20109954
41	0x3dca54f6	0.09879486
42	0xbd109e24	-0.035307065
43	0x3e015108	0.12628567
44	0xbe49b4f6	-0.19697937
45	0x3cb4ed2b	0.022085747
46	0x3df221ba	0.11822839
47	0xbde25d96	-0.11053006

weight_ih_l0 f4 [48, 36]
0	0x3d29590a	0.04134468
1	0x3cbf22d6	0.02333204
2	0xbda18cc2	-0.078881755
3	0x3e4540c8	0.19262993
4	0xbd775b42	-0.060389765
5	0xbe36a842	-0.17837623
6	0xbe294810	-0.16531396
7	0x3e0f6f2b	0.14007251
8	0xbe38b024	-0.18035942
9	0xbd2b1ae9	-0.04177371
10	0xbc365548	-0.011128731
11	0x3cb7969a	0.02241068
12	0xbc9b6561	-0.01896924
13	0xbd4ff45f	-0.05077016
14	0xbd8f4c3c	-0.069969624
15	0x3b99c7b5	0.0046929964
16	0x3e2c136d	0.16804285
17	0xbdfba44d	-0.12287197
18	0xbe3dc925	-0.18533762
19	0x3e79584e	0.24350092
20	0xbe5b0f47	-0.21392547
21	0x3e4b1015	0.19830354
22	0x3e470684	0.1943608
23	0xbe6f0c96	-0.23344645
24	0x3e6fa1db	0.23401587
25	0x3ddcb9eb	0.107776485
26	0xbe14bf03	-0.1452599
27	0x3ddb80b1	0.10717905
28	0x3e7238f9	0.23654546
29	0x3e001fc3	0.12512116
30	0x3e146cf9	0.14494695
31	0xbd9cf0b7	-0.076631
32	0xbe482d41	-0.19548513
33	0xbd9cef1f	-0.07662796
34	0x3e0aa239	0.13538446
35	0xbd22aa1f	-0.03971302
36	0x3d187f24	0.037230626
37	0xbd2be3d4	-0.04196532
38	0x3db49f75	0.088194765
39	0x3d1c72ec	0.038195536
40	0x3de460b4	0.11151257
41	0x3e290c69	0.1650864
42	0x3e248648	0.16066849
43	0xbd19ad47	-0.037518766
44	0xbe430840	-0.19046116
45	0x3d9ccf9d	0.076567866
46	0xbe344472	-0.17604235
47	0x3e10652c	0.14101094
48	0x3dd4e846	0.10395865
49	0xbe51d620	-0.20491838
50	0x3e30ce8a	0.17266288
51	0xbdabac16	-0.08382432
52	0xbe21ee2b	-0.1581351
53	0x3e6a9570	0.22908568
54	0x3e3ef4a2	0.18648008
55	0x3ded1cb9	0.11577744
56	0xbda5e062	-0.08099438
57	0xbc8d86f2	-0.017276261
58	0x3e766e5d	0.24065538
59	0x3bf2694b	0.007397806
60	0x3e0b4a98	0.13602674
61	0x3e3d1981	0.1846676
62	0x3df85c09	0.12126929
63	0x3d1dfa6f	0.03856891
64	0x3e1a7e07	0.15087138
65	0x3e5ce5a9	0.21571983
66	0x3e575ade	0.21030757
67	0xbda3ca7a	-0.07997604
68	0x3dd4fbf5	0.103996195
69	0xbe4677fe	-0.19381711
70	0xbdb65392	-0.089026585
71	0x3e2532bb	0.16132633
72	0xbdea5d5a	-0.11443587
73	0x3d9e5104	0.07730296
74	0xbe1d8c8e	-0.15385649
75	0x3dd33de4	0.10314539
76	0xbe4bb0ce	-0.19891664
77	0xbdd8da34	-0.10588494
78	0x3e0baa62	0.13639215
79	0x3d5a3414	0.05327232
80	0x3de66b0f	0.112508886
81	0xbd92c7f0	-0.07167041
82	0xbd4b684a	-0.049660005
83	0xbb3bb156	-0.0028639636
84	0x3da1a429	0.07892639
85	0xbe0e0c24	-0.13871819
86	0xbe75d111	-0.24005534
87	0xbc628b18	-0.013827108
88	0x3e090e68	0.13384402
89	0xbd285f85	-0.04110672
90	0x3e1e57c7	0.15463172
91	0x3d45edd1	0.048322503
92	0x3e0bfdce	0.13671038
93	0xbe1a2bd2	-0.15055779
94	0xbc28daff	-0.010306119
95	0x3e7049bb	0.23465626
96	0xbe74fd59	-0.2392477
97	0x3e3846e6	0.17995796
98	0x3d38d466	0.045124434
99	0x3be2c12a	0.0069199996
100	0xbb16e6fb	-0.0023025859
101	0x3c8f7320	0.01751095
102	0xbd4390cf	-0.047745522
103	0x3da990ad	0.08279548
104	0xbe7aef83	-0.24505429
105	0x3d4f774b	0.050650876
106	0xbdb6778b	-0.0890952
107	0x3d103e41	0.03521562
108	0x3e5e9462	0.21736291
109	0x3e007c43	0.12547402
110	0xbe68da49	-0.22739519
111	0x3d94caf3	0.07265272
112	0x3e57b0ab	0.21063487
113	0xbe20bdf3	-0.1569746
114	0x3e03058c	0.12795085
115	0x3d601150	0.05470401
116	0x3e3fed5e	0.18742892
117	0x3e1a8286	0.15088853
118	0xbc6856e3	-0.014180872
119	0xbe16618b	-0.14685647
120	0x3e561170	0.2090509
121	0xbd44eba8	-0.0480763
122	0x3e357fbb	0.17724507
123	0x3d1cc034	0.038269237
124	0x3e417d2a	0.18895403
125	0x3c94b5df	0.01815313
126	0xbe03714a	-0.12836185
127	0xbe75af31	-0.23992611
128	0xbe632eec	-0.22185868
129	0xbd99f727	-0.07517844
130	0x3e44abcd	0.19206162
131	0x3e5bc0eb	0.21460311
132	0xbe631e77	-0.2217959
133	0xbe75d698	-0.24007642
134	0x3cbb4d46	0.022863995
135	0x3c2f8500	0.010712862
136	0xbd8b63c2	-0.06806137
137	0x3e5a2b98	0.21305692
138	0x3d29c32f	0.041445907
139	0x3dd907a1	0.10597158
140	0xbdb7667d	-0.08955095
141	0xbe2a8f6b	-0.16656272
142	0xbe4438c6	-0.19162282
143	0x3d9b48f3	0.07582273
144	0xbdecd1bb	-0.115634404
145	0xbb354fac	-0.0027665896
146	0xbe37e3a5	-0.17957933
147	0xbe24cb0c	-0.16093081
148	0x3e2ea322	0.17054418
149	0x3e4c4c98	0.19951093
150	0xbe2fadf6	-0.17156205
151	0xbe081fce	-0.13293383
152	0x3c8a5e5a	0.016890693
153	0xbe4fdff8	-0.20300281
154	0xbe64ce81	-0.223444
155	0x3c371365	0.011174058
156	0x3dcd5fe2	0.10028054
157	0xbdec2fdf	-0.11532568
158	0xbdd3933f	-0.10330819
159	0x3de60ee6	0.112333104
160	0xbd75bb10	-0.05999285
161	0xbddfde8e	-0.10931121
162	0x3e37b04c	0.17938346
163	0xbe2baa93	-0.16764288
164	0xbcaa5ca7	-0.020796133
165	0x3e22c273	0.15894489
166	0xbd5e91b3	-0.05433817
167	0xbe009459	-0.1255659
168	0xbe6fdb8b	-0.23423593
169	0x3e45d548	0.19319642
170	0x3e3bd1b2	0.18341711
171	0xbd7f35ae	-0.062307052
172	0x3e54b758	0.20773065
173	0xbde3ed23	-0.111292146
174	0x3e5afbdd	0.2138514
175	0x3dfbc76f	0.12293898
176	0x3df9914f	0.121859185
177	0xbcfbe645	-0.03074945
178	0x3dbd822f	0.09253346
179	0x3e159015	0.14605744
180	0x3e4a4ef1	0.19756676
181	0x3dcbeddf	0.0995748
182	0x3e04f274	0.12983114
183	0xbe3ef41e	-0.18647811
184	0xbde9991a	-0.11406155
185	0xbe5ee61a	-0.21767464
186	0xbe3f1ea5	-0.18664034
187	0x3d663484	0.056202427
188	0xbe178585	-0.14797027
189	0xbdf55702	-0.11979486
190	0xbc210877	-0.009828678
191	0x3e26a335	0.16273196
192	0x3aea0fff	0.001785755
193	0x3e44938c	0.1919691
194	0x3d6afdfa	0.057371117
195	0x3e1a9641	0.1509638
196	0x3e59077e	0.21194264
197	0xbe05d9a3	-0.13071303
198	0xbe35f23a	-0.17768183
199	0x3e397698	0.18111646
200	0x3d4a43d4	0.049381092
201	0xbe5dc4c9	-0.21657099
202	0x3cec8bc3	0.028875237
203	0xbe1f9997	-0.15585934
204	0x3dd19593	0.10233607
205	0x3e5d672f	0.21621393
206	0x3c998210	0.018738776
207	0x3e5f2402	0.2179108
208	0x3e5670af	0.20941423
209	0xbe708dd0	-0.23491597
210	0xbe5b5bc7	-0.21421729
211	0xbda45b7d	-0.080252625
212	0x3e070f27	0.13189374
213	0xbd871e35	-0.065975584
214	0x3e574f1a	0.21026269
215	0xbe4c8d85	-0.1997586
216	0x3e26b792	0.16280964
217	0x3e6d069f	0.23147057
218	0x3daece7a	0.08535476
219	0xbd0345a0	-0.03204882
220	0xbe7b6b85	-0.24552734
221	0xbda75c30	-0.0817188
222	0x3e1ff1fc	0.15619653
223	0x3a8c4298	0.0010700999
224	0xbe1caf01	-0.15301134
225	0xbe62c4f7	-0.22145449
226	0x3ddc4012	0.10754408
227	0xbe38c38d	-0.18043347
228	0xbcca49ba	-0.024693359
229	0x3e79faec	0.24412125
230	0xbe45410c	-0.19263095
231	0xbe73030c	-0.23731631
232	0xbe562c01	-0.20915224
233	0xbe57f535	-0.21089633
234	0x3e7ffe3f	0.24999331
235	0x3df72811	0.12068189
236	0x3e662439	0.22474755
237	0x3d353f96	0.044250093
238	0x3e00d82b	0.12582462
239	0x3e13df1d	0.1444058
240	0x3e2ab967	0.16672288
241	0x3d91ac74	0.07112971
242	0x3e5d5c34	0.21617204
243	0x3d47e97d	0.048806656
244	0x3e29902b	0.16558902
245	0xbe592178	-0.21204174
246	0x3e09cd30	0.13457179
247	0x3db36a76	0.0876054
248	0x3e033f50	0.1281712
249	0xbb6f32e9	-0.003649885
250	0xbde00eed	-0.10940347
251	0xbca3fc34	-0.02001772
252	0xbe25ef3e	-0.16204545
253	0xbdd41856	-0.10356204
254	0xbd9d0c54	-0.07668367
255	0x3e0671c6	0.13129339

weight_hh_l0 f4 [48, 16]
0	0xbd0d4c29	-0.03449646
1	0x3e4b72e9	0.19868053
2	0xbe2f8522	-0.1714063
3	0x3e3f30f1	0.18671013
4	0xbe1cb824	-0.15304619
5	0x3e110991	0.14163806
6	0xbe1aec30	-0.15129161
7	0xbbfd6e4c	-0.0077340957
8	0xbde2e958	-0.11079663
9	0x3a4f3dc3	0.00079056266
10	0x3e3bf6e8	0.18355906
11	0xbe70c2eb	-0.23511855
12	0xbe0be815	-0.13662751
13	0x3dcc5fd9	0.09979219
14	0x3da5b7ca	0.080916956
15	0x3e051b0d	0.129986
16	0x3dde2bf7	0.108482294
17	0xbde2bbfb	-0.11071011
18	0x3dc97c58	0.0983817
19	0x3e60cdd6	0.2195352
20	0x3c8bf95c	0.017086677
21	0x3d0ba1f2	0.03408999
22	0xbe535fa1	-0.20641948
23	0x3e6f66d4	0.2337907
24	0x3e3e0dee	0.18560001
25	0x3da6e8e8	0.08149892
26	0x3cd25be1	0.025678577
27	0x3e7173ae	0.23579285
28	0x3af1869c	0.0018426958
29	0x3e2729b0	0.16324496
30	0x3e110262	0.14161065
31	0x3e1687cd	0.14700241
32	0x3dae8d78	0.08523077
33	0xbdd5d34f	-0.104406945
34	0xbbdf9f52	-0.0068244124
35	0x3e22096e	0.1582391
36	0xbd8a8e78	-0.06765455
37	0x3de811bc	0.113315076
38	0x3e31f82f	0.17379831
39	0x3c912841	0.01771939
40	0x3be23b80	0.0069040656
41	0x3e1d1957	0.15341698
42	0x3df5ba20	0.11998391
43	0xbde11feb	-0.10992416
44	0x3dde4308	0.10852629
45	0xbdfaf007	-0.12252813
46	0x3e75f91b	0.24020807
47	0xbd90ec5e	-0.070763335
48	0xbe03801d	-0.1284184
49	0xbe6bf4a1	-0.23042537
50	0x3d4526bb	0.04813264
51	0x3c800c9f	0.015631018
52	0x3dddf20e	0.10837184
53	0x3dca5380	0.098792076
54	0xbe2df6db	-0.16988699
55	0xbda7db91	-0.08196176
56	0xbc7fbffd	-0.015609738
57	0x3e2551ca	0.16144481
58	0x3cdfefe9	0.027336078
59	0x3e423fb6	0.18969616
60	0xbc2058b1	-0.009786771
61	0x3e6ff31c	0.23432583
62	0x3e25124d	0.16120262
63	0xbd09f054	-0.03367646
64	0x3e68b731	0.22726132
65	0xbd894e64	-0.06704405
66	0xbdf1c875	-0.11805812
67	0xbe643015	-0.22283967
68	0xbd4e816b	-0.05041639
69	0xbd172510	-0.03690058
70	0xbe76aa02	-0.2408829
71	0xbe783b63	-0.24241404
72	0xbe562db9	-0.2091588
73	0xbe79a4f6	-0.24379334
74	0x3d778bc2	0.060436018
75	0xbcb80c7f	-0.022466896
76	0x3e44348d	0.19160672
77	0x3e512ed5	0.20428021
78	0xbe2d74b6	-0.16939053
79	0x3e78cc1d	0.24296613
80	0xbb2ce12b	-0.0026379328
81	0xbe4bafa8	-0.19891226
82	0x3d978098	0.07397574
83	0xbe63c38b	-0.22242562
84	0xbc67f9e6	-0.0141587015
85	0x3e3a1d49	0.18175234
86	0xbd38985a	-0.04506717
87	0xbdc6b57c	-0.09702584
88	0xbe0f6a11	-0.14005305
89	0xbddc2b5a	-0.10750456
90	0xbe69b2f0	-0.22822165
91	0x3e45d91f	0.19321106
92	0xbe62b281	-0.22138406
93	0x3e16dce8	0.14732707
94	0xbe286d55	-0.16447957
95	0xbd80f016	-0.06295793
96	0xbdfb7e62	-0.12279965
97	0x3d720ff7	0.059097257
98	0x3e561e77	0.20910059
99	0x3e7a3ef9	0.24438085
100	0x3d81be60	0.06335139
101	0xbe09769f	-0.13424157
102	0xbd70e251	-0.058809582
103	0xbe404cf6	-0.18779358
104	0xbd01a62c	-0.031652614
105	0x3c8a6f8a	0.01689889
106	0xbd6b15c5	-0.057393808
107	0x3d0cafb3	0.034347247
108	0xbe1e8c92	-0.15483311
109	0x3e244527	0.16042005
110	0x3cac429e	0.02102786
111	0xbe014c59	-0.1262678
112	0x3e6da3c1	0.23206998
113	0x3d191338	0.037371844
114	0xbe62831f	-0.22120331
115	0x3d57ac8f	0.0526548
116	0xbe143e0e	-0.14476797
117	0x3e3166f4	0.1732443
118	0x3e5b2b27	0.2140318
119	0x3e27c8a0	0.16385126
120	0xbe4dbc2b	-0.20091312
121	0x3dfe919c	0.124301165
122	0x3e4a970d	0.19784184
123	0x3ce9653c	0.028490655
124	0xbdf4c6f2	-0.11952008
125	0x3d240aed	0.040049482
126	0x3e0585ef	0.13039373
127	0xbe59065e	-0.21193835
128	0xbe6f5faa	-0.23376337
129	0xbdbe1a4f	-0.09282362
130	0xbda37627	-0.0798152
131	0x3d9bd8b6	0.07609694
132	0xbe0530a9	-0.13006844
133	0xbe64560a	-0.22298446
134	0xbd1ba342	-0.03799749
135	0xbe444055	-0.19165166
136	0xbe2aa8d1	-0.16665961
137	0x3e433cac	0.19066113
138	0x3c10a13a	0.008827502
139	0x3e0252bf	0.12726878
140	0x3e335cc3	0.17515855
141	0x3dac4acc	0.08412704
142	0xbe2184ad	-0.15773268
143	0x3c0b3e86	0.0084987935
144	0x3e67a1d1	0.22620322
145	0xbe5b2bd3	-0.21403436
146	0xbe2ea47a	-0.1705493
147	0x3e5e3581	0.21700098
148	0xbd6b244f	-0.057407673
149	0xbe3159ff	-0.17319487
150	0xbd0bce99	-0.034132574
151	0x3e1c07fa	0.15237418
152	0x3df1a62c	0.11799273
153	0xbd24cd5f	-0.04023492
154	0xbd1a7a6d	-0.03771441
155	0xbdf455a6	-0.11930399
156	0xbd865bbc	-0.06560466
157	0x3be48515	0.0069738724
158	0x3d9c5eac	0.07635245
159	0x3b7ed36d	0.0038883344
160	0x3da291a4	0.07937935
161	0xbd8a6034	-0.067566305
162	0x3e4c9bff	0.19981383
163	0xbe4fbd31	-0.20287015
164	0x3cd0fe5c	0.025511913
165	0x3e178fda	0.14800969
166	0xbe1e12cb	-0.15436856
167	0x3e7080dd	0.23486657
168	0x3e18d257	0.14923988
169	0xbdc5da74	-0.09660807
170	0x3e27a2be	0.16370675
171	0xbcd94245	-0.026520858
172	0xbe3d6054	-0.18493778
173	0x3d9d23f3	0.076728724
174	0xbdc1a304	-0.09454921
175	0x3d427ce1	0.047482375
176	0x3dc40034	0.09570351
177	0x3cd72270	0.026261538
178	0xbd40af49	-0.047042165
179	0xbe46cb34	-0.19413453
180	0x3e1211ad	0.14264555
181	0xbdd4aef9	-0.10384936
182	0x3e43c6e9	0.19118847
183	0xbe74a14c	-0.23889655
184	0xba01c54f	-0.0004950361
185	0x3e0f0535	0.1396683
186	0xbc853c33	-0.016264057
187	0xbdb07ed8	-0.086179435
188	0xbe3380d1	-0.17529608
189	0xbe1bb1cc	-0.15204543
190	0x3c73bc90	0.0148765
191	0xbe35b778	-0.17745769
192	0x3de2de0f	0.110775106
193	0x3df3dcab	0.119073234
194	0xbe7bf795	-0.24606164
195	0x3d83ab19	0.06429119
196	0xbc07671a	-0.008264327
197	0x3bbaa2e6	0.0056956885
198	0x3e4f3729	0.20235886
199	0x3e6acad0	0.2292893
200	0xbd1cdc3d	-0.038295973
201	0xbce4407d	-0.027862782
202	0xbe063b20	-0.13108492
203	0xbe1ce4e0	-0.15321684
204	0xbd93ca6d	-0.07216344
205	0xbc27d21d	-0.010242966
206	0xbcfadf7d	-0.030624146
207	0x3deced41	0.1156869
208	0x3e3f53f8	0.18684375
209	0xbd9626fd	-0.07331655
210	0x3e424056	0.18969855
211	0xbe778e4a	-0.24175373
212	0x3e55ea97	0.2089027
213	0x3d9340e7	0.071901135
214	0xbe6db203	-0.23212437
215	0xbe710598	-0.2353729
216	0x3dddc53d	0.10828636
217	0x3cb20f86	0.021735918
218	0x3e331e85	0.17492111
219	0xbcb36ccd	-0.021902466
220	0x3e714b3c	0.23563856
221	0x3c954ff6	0.018226605
222	0x3dae637d	0.0851507
223	0xbe774256	-0.24146399
224	0xbd77c19d	-0.06048738
225	0x3d8409e4	0.06447199
226	0xbe0b2969	-0.13590015
227	0x3d73b664	0.059500113
228	0xbdf9d7fa	-0.121993974
229	0xbdb8acac	-0.090173095
230	0x3df5ea91	0.120076306
231	0x3e2ac073	0.16674976
232	0xbe6f8222	-0.23389485
233	0xbe50ee9b	-0.20403521
234	0x3e20554e	0.15657541
235	0x3c961fbd	0.01832568
236	0xbe24df67	-0.16100846
237	0xbe754904	-0.23953635
238	0x3d5ecfd1	0.054397408
239	0xbd47c14c	-0.048768327
240	0x3aba59d9	0.001421745
241	0xbe1fb71a	-0.15597191
242	0xbdc28578	-0.094981134
243	0xbe7e34a3	-0.24824767
244	0x3d4322be	0.047640555
245	0x3b36734b	0.0027839716
246	0xbd977eda	-0.07397242
247	0x3da02f0a	0.07821472
248	0xbd403413	-0.04692466
249	0xbe32be8d	-0.17455502
250	0x3e5d453b	0.2160844
251	0xbe3ba64b	-0.18325154
252	0x3ba5acb8	0.00505599
253	0xbdd429c4	-0.10359529
254	0xbe769a00	-0.24082184
255	0x3e5a7984	0.21335417

bias_ih_l0 f4 [48]
0	0x3de30e66	0.11086731
1	0x3d15bf4a	0.03655938
2	0xbdad7962	-0.084704176
3	0xbe3cdcd0	-0.18443608
4	0xbd9ef2ac	-0.0776113
5	0x3bfb34b4	0.007666195
6	0x3b603997	0.0034214014
7	0xbda9ccb1	-0.08290995
8	0xbe086ec1	-0.133235
9	0x3d4aea90	0.049540102
10	0xbe72d14d	-0.23712654
11	0xbb6370ae	-0.0034704613
12	0xbe403d9c	-0.18773502
13	0x3e5ae771	0.2137735
14	0x3e73304d	0.23748894
15	0xbe25a316	-0.16175494
16	0xbdb018d4	-0.085984856
17	0x3dc1fd62	0.09472157
18	0xbdec1d5e	-0.11529039
19	0xbd870b3b	-0.06593939
20	0xbd54f54d	-0.05199175
21	0xbd555ba7	-0.05208936
22	0x3e54dac7	0.20786582
23	0xbcc4e3e8	-0.024034455
24	0x3e4885c5	0.19582279
25	0x3da28c0b	0.07936867
26	0xbdcc9340	-0.09989023
27	0xbd8c5889	-0.06852824
28	0x3dc220bf	0.09478902
29	0x3e689052	0.22711304
30	0x3e726b81	0.23673822
31	0xbcaf55bc	-0.021403186
32	0xbd94635b	-0.07245513
33	0xbe778c1c	-0.24174541
34	0x3d0fd236	0.035112582
35	0xbe6ffefb	-0.23437111
36	0xbc84388d	-0.016140247
37	0xbde6cba6	-0.112693116
38	0xbc6c7acd	-0.014433575
39	0xbe592987	-0.21207248
40	0xbe65afe2	-0.22430375
41	0xbda0fa17	-0.07860201
42	0x3d0c5c6f	0.03426784
43	0x3e60b7a9	0.21945061
44	0xbe2abe4f	-0.1667416
45	0x3d3cad62	0.04606379
46	0xbe4e61cd	-0.20154496
47	0xbda2163b	-0.079143964

bias_hh_l0 f4 [48]
0	0x3e7cee3a	0.24700251
1	0x3e591970	0.2120111
2	0x3e3692a6	0.1782938
3	0xbe1f723c	-0.1557092
4	0xbdf2dc24	-0.11858395
5	0xbe47ac27	-0.19499265
6	0xbd54ea1d	-0.05198108
7	0xbd93fe0b	-0.07226189
8	0xbe0b91e5	-0.13629873
9	0xbe2f1533	-0.1709793
10	0xbe32bb66	-0.174543
11	0xbd8917c3	-0.06693985
12	0xbdb45d9a	-0.088069156
13	0xbd82c4f4	-0.06385222
14	0xbc50751a	-0.012723232
15	0xbe6f03e0	-0.23341322
16	0x3e0e9142	0.13922599
17	0x3c1154fb	0.008870359
18	0xbe09dec0	-0.13463879
19	0xbe788cb0	-0.24272418
20	0x3c20dd77	0.009818426
21	0xbe656d76	-0.22405037
22	0xbd595d63	-0.053067576
23	0xbe795782	-0.24349788
24	0xbe58bef6	-0.21166596
25	0x3b671ae5	0.0035263833
26	0x3e76f5e3	0.24117236
27	0xbe7d1dff	-0.24718474
28	0xbda1d89c	-0.07902643
29	0x3e30e746	0.17275724
30	0x3e5af51d	0.21382566
31	0x3e2dd26a	0.16974798
32	0xbd8dbe65	-0.069210805
33	0xbe3686b4	-0.17824823
34	0x3d9d0ca5	0.076684274
35	0xbe7a1939	-0.24423684
36	0xbdef0ec2	-0.11672737
37	0x3c6e7cf0	0.014556155
38	0xbe04a4fd	-0.12953563
39	0xbdeb9efa	-0.11504932
40	0xbd831626	-0.06400709
41	0x3e2c7c64	0.16844326
42	0xbe691334	-0.22761232
43	0x3e3ce4b7	0.18446623
44	0x3e67f7ec	0.22653168
45	0x3e6b644a	0.22987476
46	0x3e5a0701	0.21291734
47	0xbd841ff5	-0.06451408

weight_ih_l0 f4 [3, 11]
0	0x3f5df4b2	0.867015
1	0xbeb46ab4	-0.35237658
2	0xbec6e04d	-0.38843003
3	0x3e0330de	0.1281161
4	0x3f1e19af	0.6175794
5	0x3ed627e6	0.41827315
6	0xbbc85440	-0.006113559
7	0x3f217a5d	0.63077337
8	0x3f3f149f	0.7464084
9	0x3f73f955	0.95302325
10	0x3dd3a5af	0.10334336
11	0x3f181ef1	0.5942221
12	0x3f0a798a	0.54091704
13	0x3f25650f	0.6460733
14	0x3f30b4df	0.6902599
15	0x3f757b8a	0.9589163
16	0xbf39a6a4	-0.725199
17	0xbf5f6d9d	-0.8727663
18	0x3f2d9857	0.6781058
19	0xbcab5415	-0.020914117
20	0x3d29fd42	0.04150129
21	0xbf6867f8	-0.90783644
22	0xbf7550f0	-0.95826626
23	0x3e5e79c1	0.21726133
24	0xbf5a3ca0	-0.85248756
25	0xbf489868	-0.78357553
26	0xbef3418e	-0.47510952
27	0xbf6b6d25	-0.91963416
28	0xbf13c46e	-0.577216
29	0x3e06bfe5	0.1315914
30	0x3f771de7	0.9653
31	0xbf4049be	-0.7511252
32	0xbf397763	-0.72447795

weight_hh_l0 f4 [3, 1]
0	0x3eec5380	0.46157455
1	0xbe9ec145	-0.31006828
2	0x3e1aeb38	0.15128791

bias_ih_l0 f4 [3]
0	0xbe8fa3b1	-0.28054574
1	0x3f277dd4	0.65426373
2	0x3eba32fe	0.3636703

bias_hh_l0 f4 [3]
0	0x3f692905	0.91078216
1	0x3e0c5bac	0.13706845
2	0x3d8f4ed7	0.069974594

weight f4 [1, 16]
0	0xbc0d419a	-0.008621598
1	0xbc6b013b	-0.014343555
2	0x3e091e6d	0.13390513
3	0x3d988927	0.07448035
4	0x3d02dfff	0.0319519
5	0xbd9a8a4e	-0.07545911
6	0x3e35706a	0.17718664
7	0x3c806619	0.015673684
8	0x3d28c132	0.04119987
9	0xbd56957c	-0.052388653
10	0xbe115bd7	-0.1419519
11	0x3b57c266	0.0032922267
12	0x3e1d6d92	0.15373829
13	0x3d9a8728	0.0754531
14	0x3e3c869e	0.18410727
15	0xbdc46853	-0.09590211

weight f4 [680, 17]
0	0x3d0bad6d	0.03410094
1	0xbe4d67d4	-0.20059139
2	0x3deb63f9	0.11493678
3	0xbe1523d6	-0.14564452
4	0x3e55173e	0.20809647
5	0xbe2ae829	-0.16690125
6	0xbe559112	-0.20856121
7	0x3d02becf	0.03192025
8	0xbe6539b3	-0.22385292
9	0xbce9f13c	-0.028557412
10	0x3e5cb18c	0.21552104
11	0xbdcf422e	-0.10120045
12	0xbe586056	-0.21130499
13	0x3d65f506	0.056141876
14	0x3cf36c8e	0.029714849
15	0xbd0db352	-0.03459484
16	0xbde015f4	-0.10941687
17	0xbe0347b4	-0.12820321
18	0x3e2ac1b8	0.1667546
19	0xbe628f5a	-0.22124997
20	0x3d753c0f	0.05987173
21	0xbba8fca8	-0.005157072
22	0x3e23bc9c	0.15989918
23	0x3d09dfd8	0.03366074
24	0x3e724181	0.236578
25	0xbe1593fa	-0.1460723
26	0x3ddb588d	0.10710249
27	0x3e2b5ec3	0.16735367
28	0xbdff567b	-0.12467667
29	0x3d59c32c	0.053164646
30	0x3dfd0ee1	0.123563536
31	0xbd492aa8	-0.049112946
32	0xbc171551	-0.009221391
33	0xbe4e52fa	-0.2014884
34	0x3d723d5d	0.05914055
35	0x3e695d9f	0.2278962
36	0x3e0b8961	0.13626625
37	0x3ad0b322	0.0015922526
38	0xbdbf299b	-0.093341075
39	0xbdf652ce	-0.120275125
40	0x3db6e138	0.08929676
41	0xbe199098	-0.14996564
42	0xbd123201	-0.03569222
43	0x3e181b6a	0.14854208
44	0xbe5c1d6b	-0.21495597
45	0x3d268e4d	0.040663052
46	0xbc316971	-0.010828362
47	0x3dac3c2f	0.084099166
48	0x3e3b686f	0.18301557
49	0xbd6889a9	-0.056771908
50	0xbca2dd89	-0.019881027
51	0x3deb685e	0.11494516
52	0xbd2ac219	-0.041689012
53	0x3e18bbb9	0.1491536
54	0x3e6315f2	0.2217634
55	0xbcae1b57	-0.021253271
56	0xbe47eb0e	-0.1952326
57	0xbdb1ef37	-0.08688205
58	0x3d6249fb	0.055246335
59	0x3e482dbf	0.19548701
60	0x3e4611c9	0.19342722
61	0x3e6b1f91	0.2296126
62	0x3e3175ad	0.17330046
63	0xbd53ca45	-0.05170657
64	0x3d97556e	0.07389341
65	0x3e03443e	0.12819001
66	0xbe09e043	-0.13464455
67	0xbdfe7645	-0.12424902
68	0xbdf523d1	-0.11969722
69	0x3d10f56f	0.035390314
70	0xbe234212	-0.15943173
71	0x39741cc3	0.00023280368
72	0x3e587dcf	0.21141742
73	0xbe554649	-0.20827593
74	0x3dce1d32	0.10064162
75	0xb9dff12c	-0.00042713562
76	0x3e5f735f	0.21821354
77	0xbddb529f	-0.10709118
78	0xbe0d6fcc	-0.13812178
79	0x3e12d367	0.14338456
80	0xbdba0586	-0.09083085
81	0xbe211ebe	-0.15734383
82	0x3e706fdd	0.23480172
83	0xbe5213ba	-0.20515338
84	0xbcb4f9ed	-0.02209183
85	0xbe3b5d8c	-0.18297404
86	0x3e664049	0.2248546
87	0x3e74b106	0.23895654
88	0x3e2bd007	0.16778575
89	0x3e49a0c3	0.19690232
90	0x3c8a7a26	0.016903948
91	0xbe6a4810	-0.22879052
92	0xbdbcb818	-0.092148006
93	0xbc81c136	-0.0158392
94	0x3e6d1a67	0.23154603
95	0xbd76b34f	-0.060229596
96	0x3e6976bb	0.22799198
97	0xbe413135	-0.18866427
98	0xbdf242ea	-0.11829169
99	0x3e453782	0.19259456
100	0xbe55c10f	-0.20874427
101	0xbd782edd	-0.060591567
102	0x3acaad44	0.0015463014
103	0x3d28207c	0.041046605
104	0xbe53bd51	-0.20677687
105	0xbd5278df	-0.051384803
106	0xbc887819	-0.01665883
107	0xbd4a4276	-0.04937979
108	0xbd2a2076	-0.041534863
109	0x3c6e89cd	0.014559221
110	0xbe161b9e	-0.14658973
111	0x3e4838fe	0.19552991
112	0x3dfc3955	0.12315623
113	0xbe33d2b1	-0.17560841
114	0x3e75701b	0.23968546
115	0xbe135438	-0.14387596
116	0xbd97709b	-0.07394525
117	0xbe1540bb	-0.14575474
118	0xbcd50d1a	-0.026007224
119	0xbe59f754	-0.21285754
120	0x3e5c38e5	0.21506079
121	0xbd5b60c8	-0.053559095
122	0xbe35cf39	-0.1775483
123	0xbe01c077	-0.12671076
124	0x3e29f41a	0.16597024
125	0xbd2391c8	-0.03993395
126	0xbdec3f12	-0.11535467
127	0x3e4ce549	0.2000934
128	0xbe093fd0	-0.13403249
129	0x3e31ed3a	0.17375651
130	0xbc9aff08	-0.018920437
131	0xbe0e4bf6	-0.13896164
132	0xbd6c46e9	-0.057684813
133	0xbd2ef221	-0.04271138
134	0x3e5ec968	0.21756518
135	0xbe6699bb	-0.22519581
136	0x3c7b2100	0.015327692
137	0x3dc02123	0.0938132
138	0xbe72c6af	-0.23708604
139	0xbdac3cb8	-0.08410019
140	0xbd71f25e	-0.05906903
141	0xbdcddfe5	-0.1005247
142	0x3de74150	0.11291754
143	0x3d3ed1ef	0.046586927
144	0x3e484e53	0.19561128
145	0xbe24009e	-0.1601586
146	0xbe0b3085	-0.13592727
147	0xbc5aa30f	-0.01334454
148	0xbda1bfa5	-0.078978814
149	0x3e066959	0.13126124
150	0x3dfea008	0.12432867
151	0xbe1e5c91	-0.15464999
152	0x3dbab9b7	0.091174535
153	0xbcc8c025	-0.024505684
154	0x3e3904bc	0.18068212
155	0xbe1a3232	-0.1505821
156	0x3e07e2fa	0.13270178
157	0xbe060f13	-0.13091688
158	0x3e644ad3	0.22294168
159	0xbe2f16f4	-0.170986
160	0xbe046578	-0.12929332
161	0x3e6818c6	0.226657
162	0xbe252d27	-0.16130506
163	0xbd88a37d	-0.06671808
164	0x3e720655	0.23635228
165	0x3db811d0	0.089877725
166	0xbe4a5671	-0.19759537
167	0x3e49ca06	0.19705972
168	0xbde9b995	-0.1141235
169	0xbd1199a4	-0.035546914
170	0x3e6ab6e1	0.22921325
171	0x3dbb4fd8	0.09146088
172	0xbe3d4732	-0.1848419
173	0x3d4d6443	0.050144445
174	0xbdbffd71	-0.09374512
175	0x3d8d19ed	0.068897106
176	0x3e0fafc1	0.14031889
177	0x3d65b057	0.056076374
178	0xbdf35472	-0.11881341
179	0xbdf92c89	-0.121666975
180	0x3deaf356	0.11472194
181	0xbdff8adf	-0.124776594
182	0x3e6f1899	0.23349227
183	0x3c7c2707	0.015390164
184	0xbe6ce3e0	-0.23133802
185	0xbc83d04e	-0.016090538
186	0xbe2e4ea8	-0.17022192
187	0x3e52556a	0.20540395
188	0x3dfb4e01	0.122707374
189	0xbd8b436c	-0.06799969
190	0x3e54d78f	0.20785354
191	0x3e6a3cc1	0.22874738
192	0x3d968af5	0.07350723
193	0xbe4a95e4	-0.19783741
194	0x3d268c23	0.04066099
195	0xbe0b9bac	-0.13633603
196	0xbe7592c9	-0.23981775
197	0x3e585c93	0.21129064
198	0x3d3a0bfb	0.04542158
199	0xbd7a7c1c	-0.061153516
200	0x3e277eef	0.16357015
201	0x3e0b2fcd	0.13592453
202	0x3e52fc15	0.20603974
203	0xbe18298d	-0.148596
204	0xbb5d3b34	-0.0033757212
205	0x3dd6d269	0.10489351
206	0x3d9ce158	0.076601684
207	0xbcd40ee0	-0.025886
208	0xbe1ca9d5	-0.15299161
209	0xbd90479d	-0.07044909
210	0x3dc58563	0.09644582
211	0x3d602a9b	0.05472813
212	0xbe32113a	-0.17389384
213	0x3e0b0db8	0.13579452
214	0xbe154bc7	-0.14579688
215	0x3e479e7d	0.19494052
216	0x3e4d4dfa	0.20049277
217	0x3de08e5e	0.109646544
218	0xbe076b12	-0.13224438
219	0xbdf788c0	-0.1208663
220	0xbde08a4b	-0.10963877
221	0x3e431b47	0.19053374
222	0x3dcf4eef	0.10122477
223	0x3dd2083d	0.102554776
224	0xbe5d7d73	-0.21629886
225	0xbe40d99f	-0.18833016
226	0xbe3f3858	-0.18673837
227	0xbe4ac56a	-0.1980187
228	0xbd610e6c	-0.054945394
229	0xbe2e54de	-0.17024562
230	0xbc9901b6	-0.018677574
231	0x3dd14a0a	0.102192
232	0x3c82c444	0.015962727
233	0x3e5aebf6	0.21379074
234	0xbe470e92	-0.19439152
235	0xbe17f198	-0.14838254
236	0xbdf34628	-0.118786156
237	0x3ae6cbdd	0.0017608363
238	0x3cb68ffb	0.022285452
239	0xbb41d777	-0.002957789
240	0x3dd19982	0.102343574
241	0x3d2c12d3	0.04201014
242	0xbe2062db	-0.1566271
243	0xbd625b30	-0.055262744
244	0xbe2633c2	-0.16230682
245	0x3e1322c0	0.14368725
246	0x3e695fa0	0.22790384
247	0x3d37e2f0	0.04489416
248	0x3d723dfa	0.059141137
249	0xbe04e464	-0.12977749
250	0xbdde1191	-0.10843194
251	0xbe370b1b	-0.1787533
252	0xbd3911f2	-0.04518313
253	0xbe10c6ce	-0.14138338
254	0xbce8bcf9	-0.028410422
255	0x3cce2795	0.025165359

bias f4 [680]
0	0x3e42d1b8	0.19025314
1	0x3cb66594	0.022265233
2	0x3e2e44ca	0.17018428
3	0x3e464f29	0.19366135
4	0xbdbb817f	-0.09155559
5	0xbdef54da	-0.11686106
6	0x3c7eeb0e	0.015558971
7	0xbe475ee6	-0.19469795
8	0xbe4a6b4b	-0.19767492
9	0xbe6e9419	-0.23298682
10	0xbdb8f31a	-0.09030743
11	0xbe1f38e1	-0.15549041
12	0xb9eb3d6a	-0.0004486845
13	0xbe17ecc5	-0.14836414
14	0xbde094bd	-0.109658696
15	0x3e50cc6e	0.20390484
16	0x3e001cfd	0.12511058
17	0x3dbe8e65	0.09304503
18	0x3e5832b3	0.2111309
19	0x3dd2f3e6	0.10300426
20	0x3e657826	0.22409114
21	0xbe3f4ee0	-0.18682432
22	0x3e42c68f	0.19021057
23	0xbe22e9c1	-0.15909483
24	0x3dd398a6	0.1033185
25	0x3e693a39	0.22776116
26	0x3b408237	0.002937449
27	0x3e60fe25	0.21971948
28	0x3e34be96	0.17650828
29	0xbc8736a1	-0.016505541
30	0x3dd559fd	0.104175545
31	0xbe64b18c	-0.22333354
32	0xbe117679	-0.1420535
33	0xbd2e5aa0	-0.042566895
34	0x3e1596ad	0.1460826
35	0xbdd418d7	-0.103563
36	0x3dbd4554	0.09241739
37	0xbe2017ed	-0.15634127
38	0xbd66f127	-0.056382325
39	0x3de6b43b	0.11264845
40	0x3e4ef971	0.20212342
41	0xbe1a73c7	-0.15083228
42	0x3d0f73e2	0.035022624
43	0x3d06f35d	0.032946933
44	0x3dc1e903	0.094682716
45	0x3d01a57c	0.03165196
46	0xbe3b7c73	-0.18309192
47	0x3c1a051f	0.009400635
48	0xbdb8ee07	-0.09029775
49	0xbe04ab47	-0.12955962
50	0x3deaea0c	0.11470422
51	0xbd430dca	-0.047620572
52	0xbe585371	-0.2112558
53	0xbd136661	-0.035986308
54	0xbe4c4b1e	-0.1995053
55	0xbd9794c8	-0.07401425
56	0x3ddffb77	0.10936635
57	0xbe475c71	-0.19468857
58	0x3dc3b760	0.095564604
59	0xbe25dc8a	-0.1619741
60	0x3e5fa1ce	0.21839067
61	0x3e037b7e	0.12840077
62	0xbdb9160c	-0.09037408
63	0xbe3af707	-0.18258296
64	0x3e62a73f	0.22134112
65	0x3dc53d6a	0.096308544
66	0xbe0f7294	-0.14008552
67	0xbc64dba3	-0.013968381
68	0x3e3f8bd6	0.18705687
69	0xbdc36b10	-0.09541905
70	0xbe13f317	-0.144482
71	0xbdac4685	-0.08411888
72	0x3df9b381	0.12192441
73	0xbb74d263	-0.0037356846
74	0xbd5bb36f	-0.053637918
75	0xbe5b7b25	-0.21433695
76	0xbd9b3200	-0.07577896
77	0xbe46c18a	-0.19409767
78	0x3d39c3df	0.045352813
79	0xbd0a11dc	-0.03370844
80	0x3e49ac44	0.1969462
81	0x3b86940e	0.004107005
82	0xbe6c1993	-0.23056631
83	0x3e710f7b	0.23541062
84	0xbe2a92f6	-0.16657624
85	0xbe583aa0	-0.21116114
86	0x3ddfa9dd	0.10921071
87	0xbda9634c	-0.082708925
88	0xbc49d2c0	-0.012318313
89	0x3d648718	0.055792898
90	0x3e277e89	0.16356863
91	0x3e42c5b4	0.1902073
92	0x3c8a5a41	0.01688874
93	0x3e57b46e	0.21064922
94	0xbdc06a26	-0.09395246
95	0xbc5debc5	-0.013544981
96	0x3dfc41c2	0.1231723
97	0x3e4a3cc9	0.1974975
98	0x3e06e447	0.13173018
99	0xbe15944b	-0.1460735
100	0x3db807fb	0.08985897
101	0x3e465039	0.1936654
102	0xbe30f9ab	-0.17282741
103	0x3d6eddc7	0.058316972
104	0x3e259cc1	0.16173078
105	0x3ddd3488	0.10801035
106	0x3df6e571	0.12055481
107	0x3e59a62e	0.21254799
108	0xbcb13755	-0.02163283
109	0x3d526c41	0.05137277
110	0x3d705876	0.058678113
111	0x3da79242	0.08182193
112	0x3e39314c	0.18085212
113	0x3df751c3	0.12076142
114	0xbe52effd	-0.20599361
115	0xbcc0a6ab	-0.023516973
116	0xbe4a3d04	-0.19749838
117	0x3cea0d0c	0.028570674
118	0xbe6ccc62	-0.23124841
119	0xbdd043b2	-0.10169162
120	0x3db78346	0.08960585
121	0x3e49f1d2	0.19721153
122	0x3e5c6f6e	0.21526882
123	0x3e575851	0.21029784
124	0xbe570560	-0.20998144
125	0x3e3dfe84	0.18554121
126	0x3e745137	0.23859106
127	0xbd28d8bf	-0.04122233
128	0xbe3fc2d3	-0.18726663
129	0xbcba345b	-0.022730043
130	0x3e579a5a	0.21054974
131	0xbdfc2750	-0.12312186
132	0x3da3a775	0.07990924
133	0x3df4684c	0.119339556
134	0xbc3b8d6d	-0.011447293
135	0x3e3c2f35	0.18377383
136	0x3de06e51	0.10958541
137	0xbe13dc35	-0.14439471
138	0xbe66df58	-0.22546136
139	0xbe5e8592	-0.2173064
140	0x3e4b4754	0.19851428
141	0xbe5007f2	-0.20315531
142	0xbe00d321	-0.1258054
143	0xbdd26009	-0.102722235
144	0xbe13d384	-0.14436156
145	0x3d8334c0	0.06406546
146	0xbe6adf7d	-0.22936817
147	0xbcc65f81	-0.024215462
148	0x3e74f323	0.23920874
149	0x3c9b01dc	0.018921785
150	0x3dbaf7eb	0.09129318
151	0xbde13b23	-0.109976076
152	0x3e115179	0.14191236
153	0x3d1fe9a9	0.039041195
154	0x3e312f5f	0.17303227
155	0x3d904b9d	0.07045672
156	0x3cc2046d	0.023683751
157	0x3e2670fa	0.16254035
158	0xba92d3a5	-0.0011201991
159	0xbe343828	-0.17599547
160	0x3e562b13	0.20914869
161	0x3cdbabab	0.026815256
162	0xbd89b8f8	-0.06724733
163	0x3deeaf93	0.11654582
164	0x3da24ed0	0.079251885
165	0xb993708c	-0.0002812188
166	0xbdb92dfd	-0.09041975
167	0xbe3824d6	-0.17982802
168	0xbe497747	-0.19674407
169	0xbd545c77	-0.051845994
170	0x3d7d92bf	0.061907526
171	0x3d9354f9	0.071939416
172	0xbde4b556	-0.111673996
173	0xbd545fc6	-0.05184915
174	0xbdcd0de3	-0.10012414
175	0x3dbd2ea8	0.092374146
176	0x3e6af04e	0.22943231
177	0xbe504770	-0.20339751
178	0x3daa2409	0.083076544
179	0xbe6818da	-0.2266573
180	0xbd82d6d0	-0.063886285
181	0x3ce90b05	0.028447637
182	0xbdd22da9	-0.10262615
183	0x3d717c6f	0.05895656
184	0xbdf4efe2	-0.119598165
185	0x3e5a0a19	0.21292914
186	0x3cfd1e0f	0.030898122
187	0xbe1ce05e	-0.15319964
188	0x3e0190ef	0.12652944
189	0xbdb69a26	-0.0891612
190	0xbd7cce4d	-0.06172018
191	0xbe33f5dd	-0.17574258
192	0xbe017c63	-0.12645106
193	0x3e6f32cb	0.2335922
194	0xbe2a56f1	-0.16634728
195	0x3e28ebf4	0.16496259
196	0x3e122f9d	0.14275976
197	0x3e2ffbd8	0.17185915
198	0x3e1e8b40	0.15482807
199	0x3e3ef469	0.18647923
200	0x3d43d9bd	0.047815073
201	0x3dcacc4f	0.0990225
202	0x3daa2950	0.08308661
203	0xbe611d61	-0.21983863
204	0x3e4f5fa0	0.20251322
205	0xbe5bf3ec	-0.21479768
206	0xbe6755f1	-0.22591378
207	0xbe119b3e	-0.14219376
208	0xbd662578	-0.056188077
209	0xbd6f7c85	-0.05846836
210	0xbda3f41d	-0.08005545
211	0xbe253c64	-0.16136318
212	0xbda09671	-0.078411944
213	0x3e3bb312	0.18330029
214	0x3da12ca3	0.07869842
215	0xbe6e38c2	-0.23263839
216	0x3e57b663	0.21065669
217	0xbe2701e4	-0.16309315
218	0xbcd22ddc	-0.025656633
219	0xbddbff37	-0.10742038
220	0xbd670f18	-0.05641088
221	0x3e6dc8a9	0.23221077
222	0x3c8bd8fb	0.017071238
223	0x3cf6383f	0.030056117
224	0xbd105337	-0.03523561
225	0xbe6727f6	-0.22573838
226	0xbc024556	-0.007951101
227	0x3c8680a5	0.016418764
228	0x3e35aa0a	0.17740646
229	0x3df68441	0.12036944
230	0xbce4543b	-0.027872195
231	0x3e591586	0.21199617
232	0x3e294f55	0.16534169
233	0x3c1fa38f	0.009743585
234	0x3e2bbf4b	0.16772191
235	0x3e1a828e	0.15088865
236	0x3e766f34	0.24065858
237	0x3e3b41ab	0.18286769
238	0x3e4adba8	0.19810355
239	0x3c8f7c04	0.01751519
240	0x3c0a416e	0.008438451
241	0x3e0d9a75	0.13828452
242	0xbcddb54b	-0.027063986
243	0x3d984be2	0.074363485
244	0xbd92e636	-0.071728155
245	0x3d7d4c6d	0.061840463
246	0xbc71e360	-0.014763683
247	0x3def779c	0.116927356
248	0x3da3f931	0.08006514
249	0x3d5d9e10	0.05410582
250	0xbe5685ab	-0.20949428
251	0x3d9f35d6	0.0777394
252	0xbb13e4de	-0.0022566835
253	0xbd8ca3d2	-0.06867184
254	0xbe03dca4	-0.12877136
255	0x3b517ce1	0.0031965303
