estimators/knet/single_obs/MSE_ep100_train4000_val1000_test10000_lr1e-03_wd1e-05_ri[4, 4, 1, 1]_data_sr1e-01_q1e-04_r1e-03_j5_train[200,250]_val[40,250]_test[40,250].pt (torch, 157339 bytes, 40 tensors)

weight_ih_l0 f4 [48, 20]
000000 2e eb 63 3d 6e b6 59 3e f5 a7 02 be 8e 78 5d be
       0.055644207 0.21260998 -0.12759383 -0.21628019
000010 99 32 55 be 0d 2a 31 3e e6 67 2a be 29 38 4f be
       -0.20820083 0.17301197 -0.16641197 -0.20236267
000020 c4 6e f5 38 6a a5 7b 3e b4 a9 3b be f0 c9 b8 bd
       0.00011703142 0.24574819 -0.18326455 -0.090228915
000030 27 99 6c be b9 dd f3 bd 4d 75 9a bc 32 b6 58 3d
       -0.23105298 -0.119075246 -0.018854761 0.05290813
000040 44 67 f0 bd eb 16 1e 3d 7d 39 ad 3c 7e 8a 7d be
       -0.11738446 0.038596075 0.021145577 -0.24759862
000050 da 04 6a be a0 73 fa bd 62 df 71 be e1 b6 37 3d
       -0.22853413 -0.12229085 -0.2362037 0.04485214
000060 bb dd 5d bd 9a 59 5d 3d 98 7a df 3d fa 33 db 3d
       -0.054166537 0.05404053 0.10912055 0.10703273
000070 88 a8 04 bd ca 9b 8f bd c9 32 18 3e 08 18 4e 3e
       -0.032387286 -0.07012136 0.14863123 0.20126355
000080 9a a8 4e be 52 3c 3e be 7a 10 84 3e de 4f 60 3e
       -0.20181504 -0.18577698 0.2579382 0.21905467
000090 05 8a 62 bc 22 0a 65 3e 24 de 28 be 30 e7 39 bd
       -0.013826852 0.22367147 -0.1649099 -0.045386493
0000a0 32 ec b7 bd a9 e1 ba bd 63 1b ab 3d c7 3d 0f 3e
       -0.089805976 -0.091250725 0.08354833 0.1398841
0000b0 6c fb 5c 3d bb f3 05 bd 54 82 5d be f3 c2 13 be
       0.053950712 -0.032703143 -0.21631747 -0.14429836
0000c0 7a 39 4d 3d 9e b0 b0 3c 00 c4 0d 3e 03 4e f5 bd
       0.050103642 0.021568593 0.138443 -0.1197777
0000d0 9c ad c4 3b ee 18 11 3d 15 29 15 bd 85 e4 4b be
       0.006002141 0.035424165 -0.036416132 -0.19911392
0000e0 f7 1d 78 3d 16 7f f2 3d 5f cd a2 bd cf f3 74 3e
       0.06057545 0.11840646 -0.07949328 0.2392113
0000f0 54 5a 23 be 7d 5c 84 bc c8 91 40 be b5 ab af 3d
       -0.15952426 -0.016157383 -0.18805611 0.085776724
000100 dd 33 4f bc 46 3f 64 3d f2 10 c8 3c f2 50 6b be
       -0.0126466425 0.055724405 0.024422143 -0.22980097
000110 f0 db 83 b7 ff 9c 30 be 76 05 da 3d fc f0 7b 3d
       -1.5718833e-05 -0.1724739 0.10645573 0.061509117
000120 e6 5f cf 3d 8d 98 1a 3e 5e 0a 84 bd 61 1a 1d be
       0.10125713 0.15097256 -0.0644729 -0.15342094
000130 7d c3 07 3e eb 47 88 3d 3f 27 0e be ce e1 7b 3d
       0.13258167 0.06654342 -0.13882159 0.06149464
000140 59 c8 36 3d 13 51 ce 3d 66 d3 df 3d 34 f9 75 3a
       0.04462466 0.100740574 0.10928993 0.00093831425
000150 26 6c 1d bb 3b 51 7d 3e ec 27 b2 bd 3e 09 3b 3e
       -0.002402076 0.24738018 -0.08699021 0.18265244
000160 1c 64 0c bb 0b a4 29 be 51 de 4d 3e 99 18 50 be
       -0.0021421975 -0.16566484 0.20104338 -0.20321883
000170 84 6d c7 3c ff c9 91 bc 6e 86 65 be 18 7d 5f be
       0.024344213 -0.017796515 -0.22414562 -0.21825063
000180 61 91 3c 3e be 8a 04 be f4 b2 25 be 14 94 31 be
       0.18414833 -0.12943551 -0.16181546 -0.17341644
000190 c2 1e 78 bc 2e 52 c2 bd f7 dd 13 bd 79 c5 6b 3e
       -0.015144052 -0.09488331 -0.036100354 0.23024549
0001a0 07 93 b9 bd 6c ab 59 3e f0 39 41 be 35 26 75 be
       -0.09061246 0.21256799 -0.18869758 -0.23940356
0001b0 9c c0 04 3c 22 41 19 be 47 70 8d 3d 4d e0 61 bc
       0.008102562 -0.14966252 0.06906181 -0.013786388
0001c0 63 3a 64 3e 59 44 2c 3e 25 f0 71 3e 91 36 65 bd
       0.22287898 0.16822948 0.23626764 -0.05596024
0001d0 33 55 c4 bd e2 97 5b 3e f7 b6 24 be 36 c5 68 be
       -0.09586563 0.21444657 -0.1608542 -0.2273148
0001e0 2e 62 97 3d a3 29 7d 3e a2 a3 1f 3e bc 5b 34 3e
       0.07391773 0.24722914 0.15589765 0.17613119
0001f0 52 72 ac bd 61 49 9f bd 6b f2 76 be c9 c5 15 3e
       -0.08420242 -0.07777668 -0.24115913 0.1462623
000200 57 f7 c3 3d f5 66 65 3e 6a 0d d6 bc ca cd e6 bd
       0.09568661 0.22402556 -0.026129443 -0.1126972
000210 51 5f d0 bd 53 ce d1 3d 55 1d 3f 3d 16 ae ae 3d
       -0.1017443 0.10244431 0.046658833 0.08529298
000220 ce eb fa 3b 6c 41 75 3e 2f e9 f5 bd 9b b4 38 be
       0.0076575046 0.23950738 -0.12007367 -0.18037646
000230 98 02 26 3e 0e c6 42 be 32 9a f8 3d 36 a9 dd 3d
       0.16211927 -0.19020864 0.121387854 0.1082329
000240 e5 36 82 3d e4 3d c5 bd 25 32 b6 3d 91 f8 36 3e
       0.063581266 -0.09630945 0.08896283 0.17868258
000250 83 5a 9f bd f2 d6 e1 3d 1d e1 71 3e c5 cf ed 3c
       -0.077809356 0.11027326 0.2362103 0.029029736
000260 2f a3 0d be 8b 50 ee 3d f2 c6 80 be 04 a4 57 be
       -0.13831781 0.11636456 -0.25151783 -0.21058661
000270 2f 76 04 3e ea 31 0f 3e a1 5e 75 bd 3a ef 58 3e
       0.12935708 0.13983884 -0.0599047 0.21185008
000280 dc fb 02 3e 87 f0 3f 3e de 09 6a 3d bb 3d cf 3d
       0.12791389 0.18744098 0.057138316 0.10119196
000290 57 5d 2b bd 65 b7 72 be 6f 30 43 3e eb 4a 81 3d
       -0.041837063 -0.23702772 0.19061445 0.063131176
0002a0 45 9c cd 3d 6f ee 76 3b c0 a7 5e bd ca de 76 bd
       0.10039572 0.0037678739 -0.054359198 -0.060271062
0002b0 fc cd 77 be 14 17 6a be 0b fc a1 bd 49 28 28 be
       -0.2419967 -0.22860366 -0.079094015 -0.16421618
0002c0 45 17 71 bd 22 d9 35 bd 90 01 52 3e 34 50 25 be
       -0.058860082 -0.044396527 0.20508409 -0.16143876
0002d0 16 f2 d0 bd a0 97 a0 3c e2 79 34 be b3 79 78 3e
       -0.10202424 0.01960355 -0.1762462 0.24265175
0002e0 bb 4f 03 be be 22 c6 3d 31 a2 f6 3c 37 bd 3a 3e
       -0.12823384 0.09674595 0.030106636 0.18236242
0002f0 16 b7 13 bd 7b a8 5c 3d 6c e0 18 3d b6 a3 9e bc
       -0.036063276 0.053871613 0.0373234 -0.019365173
000300 3d 4c 43 3e f3 85 22 be ff 5a 14 3d 5f 51 30 be
       0.19072051 -0.1587141 0.036219593 -0.1721854
000310 d7 87 8e 3c e1 af 5e 3e 8d ad 52 be 19 ce 05 3e
       0.017398758 0.2174678 -0.20574017 0.13066901
000320 71 a1 17 bd fd 58 7e be 26 27 8c 3d 47 8a ad bd
       -0.037019197 -0.24838634 0.068434045 -0.0847364
000330 90 f5 b0 bd 4a ab 5f be 35 9d 04 3d 86 ca 80 3e
       -0.08640587 -0.21842685 0.032376487 0.25154513
000340 dd 2a 9b 38 4a c2 89 bd 2c fb 05 3c 4f 8e 3c bd
       7.39896e-05 -0.06726511 0.00817756 -0.046034154
000350 00 cb 25 3e 23 b8 80 be 2e 22 55 be 54 c9 8a bd
       0.1619072 -0.25140485 -0.2081382 -0.067766815
000360 b3 89 52 be b4 13 53 be b9 db d6 3c 1b 1d c9 bd
       -0.2056034 -0.20612985 0.026227819 -0.098200046
000370 64 d4 1a 3e f1 64 87 bd ac 52 99 3d 4a 98 0c be
       0.15120083 -0.0661105 0.074864715 -0.13729969
000380 dc 47 f0 bd 68 92 4d 3e fb 9e be 3d 8a 19 df 3c
       -0.11732456 0.20075381 0.09307667 0.027233858
000390 88 ab 1a be df 5f 1d bd a8 f4 71 be 0b a1 5c be
       -0.15104496 -0.038421508 -0.23628485 -0.21545808
0003a0 5f 2e 02 bd ff d5 68 be ce 26 63 be d7 cc de 3d
       -0.031782504 -0.22737883 -0.22182772 0.10878914
0003b0 62 7e 3e be 5f 41 80 3e a6 b2 45 be 7f 9a 10 3e
       -0.18602899 0.25049874 -0.1930643 0.14121436
0003c0 74 df b0 3d fe ce f4 3d b0 b1 6e bd 81 16 6f be
       0.0863637 0.11953543 -0.058274925 -0.23348428
0003d0 54 f1 e2 3d 52 19 ce bd 45 05 31 be bc 5a 00 be
       0.11081186 -0.10063423 -0.17287166 -0.12534612
0003e0 02 50 38 bd e2 c3 5b be 01 78 61 3e 9e 7a 22 be
       -0.044998176 -0.21461442 0.22018434 -0.15867087
0003f0 28 2f 82 3e 3d 03 2e bd 1c 85 82 be af e3 d3 bd
       0.25426602 -0.042483557 -0.2549218 -0.103461616

weight_hh_l0 f4 [48, 16]
000000 6e d1 b8 bc 09 6f 4e bd e3 d5 5a 3c e1 e7 77 be
       -0.022560801 -0.05039886 0.013356659 -0.24209549
000010 cf 7c c3 3d 0a 44 af 3d f3 29 72 be 0a ab 67 be
       0.0954529 0.08557899 -0.23648815 -0.2262384
000020 7f e4 9a bc 43 1b 50 be 2f de 10 3e 72 61 a2 3a
       -0.018907784 -0.203229 0.14147256 0.001238866
000030 7b a1 7d 3e 3d af 5c 3e 89 f5 1b be 82 25 58 be
       0.24768631 0.21551223 -0.15230383 -0.21108058
000040 6a 9c cc bc f0 78 15 3e cf c5 39 be c3 b5 ba 3d
       -0.024976928 0.14596915 -0.18141864 0.091166995
000050 e8 9d e8 3d a0 c0 08 be 1c 93 0f be d1 ea 33 be
       0.11358243 -0.1335473 -0.14020962 -0.17570044
000060 ce 5e 2e 3e 9a 7b f4 bd 74 ae 6c 3e 42 8d 7b 3c
       0.17028353 -0.119376376 0.23113424 0.015353503
000070 68 7c 18 3e df fd 5b 3d 04 0a 69 be 73 2b ac bd
       0.14891207 0.053708907 -0.22757727 -0.08406725
000080 48 6d 48 3e 12 ca ad bd 68 81 5d 3e 12 c9 14 be
       0.19572937 -0.084858075 0.21631396 -0.14529827
000090 44 92 13 be d8 9a 77 bd ab 38 98 bb c1 c1 30 be
       -0.14411265 -0.060450405 -0.004645427 -0.17261411
0000a0 03 84 18 be c2 72 01 be 7a 2b 9d 3d 4e 0f 73 be
       -0.14894108 -0.12641433 0.07674308 -0.23736307
0000b0 f6 1c 0b 3e 37 99 d4 bd bf 7a df 3d b6 42 42 3e
       0.13585266 -0.10380786 0.10912084 0.1897076
0000c0 84 be dc 3c 1c bf 3e 3e 0d 3b be bd 45 ce 83 be
       0.026946314 0.1862759 -0.09288607 -0.2574331
0000d0 03 98 5d be d0 be 88 3c 60 ae c9 3d a4 22 fb 3d
       -0.21640019 0.016692549 0.098477125 0.122624665
0000e0 82 00 7f 3e d0 75 99 3d 9b d4 48 3e 21 50 2e 3e
       0.24902537 0.07493174 0.19612353 0.17022754
0000f0 21 b0 14 3e dd a4 b1 3d 21 69 ac bd ed 9d 7b be
       0.14520313 0.08674023 -0.08418489 -0.24571963
000100 c5 b7 6a bd 48 b1 f6 bd cb 66 23 3e 36 63 31 3e
       -0.057304163 -0.120455325 0.15957181 0.17323002
000110 39 ed 66 3c c1 13 17 be a1 5b c6 3d 2e 72 69 3e
       0.014094644 -0.1475363 0.096854456 0.22797462
000120 e2 62 01 be 2a ff fd bd 8c cd 33 be d6 c3 46 3d
       -0.12635377 -0.12402184 -0.17558879 0.048526607
000130 86 90 20 3e 7b 2e 2e be e0 65 54 be d9 c7 50 3c
       0.15680131 -0.17009918 -0.20741987 0.01274296
000140 a4 bc e7 bc 56 e9 4e 3e d9 ae 5e 3e f5 fd 78 be
       -0.028288193 0.20206198 0.21746387 -0.24315627
000150 4e c6 95 3d b8 c7 5e be 29 a4 4f 3c 04 ec 50 be
       0.07313214 -0.21755874 0.012673416 -0.20402533
000160 b2 e2 18 be 72 6c cb bd 52 44 1f 3e df 67 2d be
       -0.14930227 -0.09932794 0.15553406 -0.16934155
000170 a5 e2 63 3e 88 3f a9 3c 05 0f 23 be ad 1e fc bc
       0.22254427 0.020660177 -0.15923698 -0.030776346
000180 af f7 0a be 20 05 d7 bd e7 cf 2a bd 7d 8b 69 be
       -0.13571046 -0.104990244 -0.041702177 -0.22807117
000190 da 40 5e be b8 e5 90 3d b7 ba cb bd e6 13 c7 3b
       -0.21704426 0.070750654 -0.099477224 0.00607537
0001a0 46 ec e5 3c 38 58 35 3e 48 0d 46 bd 12 73 a8 bd
       0.028066766 0.17709434 -0.04835251 -0.08225073
0001b0 bc 3f 5d 3e f2 8c 57 3e b2 1a f8 3d d4 19 5f be
       0.21606344 0.2104986 0.12114467 -0.21787196
0001c0 36 13 e3 3d ad 9b 67 be 5c 91 45 3e 6f bb 70 be
       0.110876486 -0.2261798 0.19293731 -0.23509
0001d0 5b 04 80 3d 57 67 2a be 1d 8b 48 be 92 17 45 3c
       0.06250831 -0.16640984 -0.19584318 0.012029545
0001e0 df 28 1e bd 62 ab 63 3e 42 1b 8d bd 2c 31 c6 3c
       -0.038613196 0.22233346 -0.06889965 0.024193369
0001f0 f8 db 89 3d 03 60 1e 3e 7f b5 1e be 37 ba df bd
       0.06731409 0.15466313 -0.15498923 -0.109241895
000200 84 de 13 bd ac d4 83 3d d8 56 40 be b0 0d fe bd
       -0.03610088 0.06437048 -0.18783128 -0.124049544
000210 b1 41 85 3d 26 e3 61 be 36 4e 38 be f5 b5 1a be
       0.0650667 -0.22059307 -0.17998585 -0.15108474
000220 14 b7 87 3d 80 0d c1 bd 9b b9 3d 3e dd a0 66 be
       0.06626716 -0.09426403 0.18527834 -0.22522302
000230 34 c2 ac bd bd 3d 5b 3d 65 79 ae 3c 75 cb 63 3e
       -0.08435479 0.053525675 0.02129812 0.22245581
000240 a9 23 32 3e 6d 70 8f 3e 1c ed 39 3e 72 c7 12 3e
       0.17396416 0.28015462 0.18156856 0.14333895
000250 c3 00 07 3e 37 98 3d 3e 77 7e 4b be e5 f9 a8 3d
       0.13183884 0.18515097 -0.19872461 0.082507886
000260 66 82 e9 3c 07 a9 c0 bd 31 a5 02 be e0 f9 8b be
       0.028504562 -0.094072394 -0.12758328 -0.27339077
000270 02 94 46 3d 4b ba 9b bd d4 6d 51 be c3 68 61 be
       0.048480995 -0.07603892 -0.20452052 -0.2201262
000280 61 4c 23 be 57 be 04 3e 0d a4 ba 3d 54 a0 1d 3d
       -0.15947105 0.12963234 0.091133215 0.03848298
000290 ab 4a 90 bd 74 4b 51 3e 6c ac 74 be 90 a3 33 3e
       -0.07045492 0.2043894 -0.23893899 0.17542863
0002a0 28 84 e8 3d d7 1c 61 be 7a 63 37 be 48 87 47 3e
       0.11353332 -0.21983658 -0.17909041 0.194852
0002b0 98 3a da 3c 0d 93 4b be a4 67 d8 bd 03 2b 0c 3a
       0.026639268 -0.19880314 -0.10566643 0.00053469854
0002c0 7c 67 53 3e 5d 1a 36 bc 32 d9 29 be 1c d7 23 be
       0.20644945 -0.011114684 -0.1658676 -0.16000026
0002d0 a7 da c3 bd 5b 16 6e 3d a8 6c 34 3d 4c a3 5f 3d
       -0.09563189 0.05812679 0.044048935 0.05459909
0002e0 0a b6 57 be c3 ec 04 be af cf c9 bd ae ee 58 be
       -0.21065536 -0.12980942 -0.098540656 -0.21184799
0002f0 1f 8f 57 3e a5 1e aa bb b9 6b 1d be dc ca bf 3d
       0.2105069 -0.0051916414 -0.15373124 0.09364864
000300 6d af 01 be aa f9 92 bd 96 52 0e 3d fd a4 14 bd
       -0.12664576 -0.07176526 0.03474673 -0.036290158
000310 cf d2 67 be e6 04 6d be 59 6c 69 3d 6f ea 52 3e
       -0.22639011 -0.231464 0.056988094 0.20597242
000320 73 ba c9 bd ae f8 22 be 62 42 53 3d b0 7e 24 bd
       -0.098500155 -0.15915176 0.05157698 -0.04015988
000330 a1 da 6c 3e 3b 6b 85 be 35 ee af bc 8e f3 c4 3d
       0.23130275 -0.26058373 -0.02147589 0.09616767
000340 c6 e4 06 3d d3 12 30 be 43 d9 e9 3d 9b 4c 1e 3d
       0.03293302 -0.17194681 0.114183925 0.038647275
000350 75 3a 49 be 88 da fc 3d 88 b3 08 3e b6 a1 67 be
       -0.19651206 0.12346369 0.13349736 -0.22620282
000360 46 e4 f8 3c b8 d2 5c bd 7d ad 13 bd 48 36 04 bd
       0.030382287 -0.053911895 -0.036054123 -0.03227833
000370 2a 40 14 bd 42 4b 2d be 0b 2b df bd 17 93 44 be
       -0.036194004 -0.1692324 -0.10896882 -0.19196735
000380 66 7b 65 3e 9d b6 85 bc 0c 16 c2 bd 28 9d 1b 3e
       0.22410354 -0.016322428 -0.09476861 0.15196669
000390 4c e4 52 bd 0e b7 1d 3e 44 38 c8 3b c7 27 71 3e
       -0.051487252 0.15401861 0.006110223 0.2355033
0003a0 ba 0d ee bc 5c 23 ef 3d fb 56 8d 3d ae 6a d1 3d
       -0.02905928 0.11676666 0.06901356 0.10225426
0003b0 d6 e7 7b be c0 2c 67 3e 53 16 92 3c 8a 55 8d 3b
       -0.24600157 0.22575665 0.01783291 0.0043131756
0003c0 48 b9 ba bd f8 2b e7 bc 32 01 06 3e 70 22 1d 3d
       -0.09117371 -0.028219208 0.13086393 0.03836292
0003d0 bf 2f 31 be 9f 01 a8 bd 0a bb 3b 3e 10 f1 8f bd
       -0.1730337 -0.08203434 0.18333068 -0.07028401
0003e0 03 42 0e be c2 84 5e be 0b c3 20 3e 99 75 1e be
       -0.13892369 -0.2173033 0.15699403 -0.15474547
0003f0 47 aa 81 be f8 4f c0 bd 57 34 a8 3d f2 a6 df 3d
       -0.25325224 -0.09390253 0.08213108 0.10920514

bias_ih_l0 f4 [48]
000000 d4 01 c8 3d a9 10 27 3d 85 a0 1d 3d 26 4b 32 3e
       0.09765974 0.040787373 0.03848316 0.1741148
000010 32 19 0c be ec c2 5b 3e a9 ba 4e 3e e4 ef 05 3e
       -0.13681486 0.21461076 0.20188393 0.13079792
000020 cf 4a 76 3e 67 ef f8 3c 74 26 44 3e 4d 28 09 3d
       0.24051975 0.030387593 0.19155294 0.0334857
000030 a4 cf 75 3e b5 2f 16 3e b4 ea a7 3d 1a c7 c5 3d
       0.2400499 0.14666636 0.08199063 0.09657116
000040 57 e7 24 bc 67 02 c6 3d b5 e8 02 be fe db 57 be
       -0.010064921 0.09668427 -0.12784083 -0.21080014
000050 4c c5 ac 3d bb 80 aa 3d 7b 7b d3 3b 3e c5 7b 3e
       0.08436069 0.08325335 0.006453929 0.2458696
000060 30 ca e1 bd d9 40 a1 3d 11 01 f6 3c e2 32 44 3e
       -0.11024892 0.07873697 0.030029805 0.19160035
000070 6a 88 af bd d5 71 41 3e a0 88 d6 bd 1b dd d2 3d
       -0.08570941 0.1889108 -0.10475278 0.10296079
000080 98 b4 25 be 09 d4 52 be b4 d3 4d 3e cd 12 32 3e
       -0.16182172 -0.20588697 0.2010029 0.17389984
000090 41 2c b8 3d f8 e8 4a be ac 4d 41 3d 96 c7 28 3e
       0.08992816 -0.19815433 0.047193214 0.16482386
0000a0 d9 31 51 be 11 6e 1a be 43 15 7d 3e a6 7c 12 3d
       -0.20429172 -0.1508105 0.24715142 0.035763405
0000b0 1f f0 22 3e 3c 18 76 be bc 88 ef 3c 34 b2 f7 bd
       0.15911911 -0.24032682 0.029240005 -0.120945364

bias_hh_l0 f4 [48]
000000 19 20 da bd 6f 5b 24 be b7 19 1b 3d 8b 91 13 bd
       -0.106506534 -0.16050504 0.03786632 -0.036027472
000010 1c 5a 02 be 86 9c 2e 3c 18 cb 23 bd 8a 37 6d 3d
       -0.12729686 0.010657435 -0.039988607 0.057914294
000020 90 5f 08 be 19 81 a4 bd eb 42 31 be 48 6d a7 bd
       -0.13317704 -0.08032436 -0.17310683 -0.081751406
000030 47 04 37 bd a1 4b 0c 3e 7d 15 7f be f6 50 0b 3d
       -0.044681814 0.13700725 -0.24910541 0.034012757
000040 46 1a b6 3d 31 e0 ef bd 08 bc 54 3e 68 1a 18 3d
       0.0889173 -0.11712683 0.20774853 0.037134558
000050 2e 12 10 bd 8f f0 62 3e f6 35 af bd 3a 7c 20 3e
       -0.035173588 0.22162078 -0.08555214 0.15672389
000060 d3 31 81 3e 81 3d bc bd b7 79 67 3e 13 ac 54 3e
       0.25233325 -0.091914184 0.22605024 0.20768766
000070 b8 52 e7 3c 26 ee 15 be a1 8f 47 be 37 ea 6d 3e
       0.028237686 -0.14641628 -0.19488384 0.23233877
000080 2d 14 2a 3d 38 3d a8 bd ce f3 51 3e 17 19 d7 bb
       0.041523147 -0.082148015 0.2050316 -0.0065642702
000090 fb 9a 69 be 21 77 b1 3d 14 a0 2e 3e 4a a1 51 bd
       -0.22813027 0.086653 0.17053252 -0.051179208
0000a0 14 cd f4 3d d3 33 82 bd 13 00 8a bd ae aa d6 bb
       0.11953178 -0.06357541 -0.067382954 -0.0065511083
0000b0 a7 5b ab bd 62 25 b4 bd 30 b3 1c 3e 41 ed 23 3e
       -0.08367091 -0.08796193 0.1530273 0.16008474

weight_ih_l0 f4 [48, 36]
000000 83 1e 3f 3c 3f 88 45 3e 2a 4f 74 be aa e0 28 3e
       0.011664989 0.19290255 -0.23858324 0.16491953
000010 77 3a 9c bd 80 5c af 3d 46 82 f7 bd d5 2a d9 bd
       -0.07628339 0.08562565 -0.120853946 -0.10603873
000020 38 c4 6b 3e d2 a0 9c ba ef 7c 1b be 1a b3 83 bb
       0.2302407 -0.0011949784 -0.15184377 -0.0040191533
000030 a6 07 2f 3e d8 68 b0 3d 47 6e 1d 3c 7d 43 7b be
       0.17092761 0.08613747 0.009608812 -0.24537463
000040 73 9c 6f 3e 1f da 31 be e2 45 7b bd 2a bc 6d be
       0.23399524 -0.17368363 -0.061345942 -0.2321631
000050 d4 61 be 3d d3 59 81 bd c4 b5 36 3e 82 9d 18 bd
       0.09296003 -0.06315961 0.17842776 -0.037259586
000060 fe 38 7a be 4e cd 32 bd d1 6e 8f bd 14 f2 67 3e
       -0.24435803 -0.043652825 -0.070035584 0.22650939
000070 8a 03 07 3e fe d5 8f bc fe 10 99 3d a4 63 0b be
       0.13184944 -0.017558094 0.07473944 -0.13612229
000080 f4 b0 a1 3d 1d 14 3d be 9a 10 e3 bc 25 45 0d be
       0.07895079 -0.18464704 -0.027717877 -0.13795908
000090 2c 00 0c 3e 15 2f ac 3d 62 cc 2f 3e 87 95 c5 3d
       0.1367194 0.08407418 0.1716781 0.09647661
0000a0 ea 56 95 3c 0a 68 36 3e ad 66 4a be 9d b8 59 3e
       0.01822992 0.17813125 -0.1976573 0.2126183
0000b0 85 ff df 3b d1 ac 7f 3e 73 d1 87 bd 84 d4 57 be
       0.00683588 0.24968268 -0.06631746 -0.21077162
0000c0 21 d3 92 bd 71 51 b9 bd be 9a fa bd 15 2b 7b bd
       -0.07169176 -0.09048737 -0.12236546 -0.061320383
0000d0 0f f8 0c be 45 40 76 3e cb 4d a5 37 bc 83 34 be
       -0.13766502 0.24047954 1.9705758e-05 -0.17628378
0000e0 75 a7 42 be 26 ab 70 3e 96 59 28 be 6f ac 59 3c
       -0.19009192 0.23502788 -0.16440424 0.01328574
0000f0 42 ba c7 3d bf 8e 8f 3d 43 f7 0c be da db 37 3e
       0.09752323 0.070096485 -0.13766198 0.1795496
000100 1b c2 d4 bd 75 39 da 3d de 4d 35 be 66 08 69 be
       -0.10388585 0.1065549 -0.17705485 -0.2275711
000110 6c 0b 10 be b2 91 11 bd 3b 76 ec bc c1 fc 40 3e
       -0.14066857 -0.035539337 -0.02886497 0.18846418
000120 c5 8c bd bd 41 a1 15 be ca c9 dd 3d d9 db fc 3d
       -0.09255365 -0.14612295 0.10829504 0.1234662
000130 6d af 6f bd ef 48 16 3e 96 ba 2b 3e 7c db 76 be
       -0.05851691 0.1467626 0.16770396 -0.24107164
000140 ab 2c 23 be 5f 1d 1a 3c 4c f6 41 be 38 37 f6 3d
       -0.15935008 0.009406417 -0.18941611 0.12022251
000150 48 aa 6d 3e 81 4c 1c 3c 6c 24 57 be c7 ba 66 be
       0.23209488 0.009539724 -0.21009988 -0.22532187
000160 c5 3a 62 be 54 0c 10 be 25 47 43 bd 0a bb a8 3d
       -0.22092731 -0.14067203 -0.04767527 0.082388
000170 d3 c5 5e be b9 95 f0 3d 8a b4 14 3e 42 68 67 3e
       -0.21755151 0.11747307 0.14521995 0.22598365
000180 e1 10 65 be 49 6b 72 be 97 a8 f1 3d 2f e2 50 3d
       -0.2236972 -0.23673739 0.11799734 0.050996955
000190 01 22 4a 3e 26 bc 4e be 31 ff 53 3e ed 94 d7 bc
       0.19739534 -0.2018896 0.20702817 -0.02631613
0001a0 b7 7f 1a 3e ce b4 ab 3d 34 cb a5 3d 33 0d da 3d
       0.15087782 0.08384095 0.080953985 0.10647049
0001b0 d7 88 27 be 5d 95 e0 3d 61 6c 5c be f5 ca 48 3e
       -0.16360794 0.10965989 -0.21525718 0.19608672
0001c0 c2 b7 15 be de b9 20 bd 5c f9 46 bc 4d 48 66 3e
       -0.1462088 -0.039239757 -0.012144413 0.22488518
0001d0 3a d6 09 3e 0b 33 4a 3d 32 49 3b 3e 74 32 46 be
       0.13460627 0.049365085 0.1828964 -0.19355184
0001e0 5c e6 89 3d c3 a3 32 3e 14 08 d5 bd cc 96 4b 3e
       0.06733391 0.17445283 -0.104019314 0.19881743
0001f0 b7 45 55 be e3 9f cd 3d 24 8c 5f 3d 73 4b 63 3e
       -0.20827375 0.100402616 0.054577008 0.2219675
000200 9f bf b3 bd 83 47 a0 bd e2 93 06 3d 31 65 0d 3e
       -0.08776783 -0.0782614 0.032855876 0.13808133
000210 12 12 a0 bd 7a 0d 88 bd 3d 7a af 3b 3a 71 cd 3d
       -0.07815947 -0.066431955 0.005355148 0.10031362
000220 aa 44 b0 bd 75 4e 5f be 31 89 75 be 26 a1 eb 3d
       -0.08606847 -0.21807273 -0.23978116 0.11505346
000230 ee 66 f5 3d e8 eb 1a 3e d3 47 52 be cf 86 95 3d
       0.11982523 0.15129054 -0.20535211 0.07301103
000240 03 cb f6 bb 59 90 b0 3d 61 8a 5a bd 42 18 4b 3e
       -0.007531525 0.08621282 -0.053354625 0.19833472
000250 38 b8 4e be c1 9c 12 3e 83 5e 7d bd e9 0e 08 bd
       -0.20187461 0.1431761 -0.06185771 -0.033217344
000260 6c 7d a4 3a e8 83 0f be b3 d0 5d be 35 76 d8 bd
       0.0012549586 -0.14015162 -0.21661644 -0.10569421
000270 32 7c 23 3e 4e e9 50 3e 15 9b d8 bd cc 6e 6f be
       0.15965346 0.20401499 -0.105764546 -0.2338211
000280 63 df 95 3d 4a c5 5e be 89 f9 85 bc 24 53 a9 3b
       0.07317998 -0.21754947 -0.01635434 0.005167382
000290 5e 60 49 3d 43 80 12 be 0f 8e 7f be c1 ff b8 3d
       0.04916417 -0.1430674 -0.24956535 0.09033156
0002a0 19 b2 ca bd 98 2b 3f 3e 59 ac bd bd 76 db 5d be
       -0.09897251 0.18668973 -0.09261388 -0.21665749
0002b0 2c 4f ba bc 23 a9 42 be d0 63 ab 3d 8d 2b 17 3e
       -0.02274283 -0.19009833 0.08368647 0.14762707
0002c0 08 f3 02 bd 16 86 f3 3c b8 03 35 be 41 bd 32 3e
       -0.031970054 0.029727023 -0.176772 0.17455007
0002d0 10 85 16 3e 2e 13 91 3c a8 8b af bd d5 8d 33 3e
       0.14699197 0.01770934 -0.08571559 0.17534573
0002e0 f3 71 a3 3d 4e 83 62 3e 74 15 07 be bc a0 fa 3c
       0.079807185 0.22120401 -0.13191777 0.030594222
0002f0 3b ce 52 3d bc 71 26 3e 30 8a a9 bd 35 d0 1b be
       0.051466208 0.16254324 -0.0827831 -0.15216143
000300 73 71 d8 3d df 9a a6 3d 13 88 61 be 5e 8a d7 3d
       0.10568514 0.08135008 -0.22024564 0.10524438
000310 f8 e4 41 3d 23 c3 4a 3d f7 b9 f9 bc d4 c6 11 be
       0.047337502 0.049502503 -0.030484183 -0.14236003
000320 b7 16 f5 bb 5d 76 22 be 4b 8d c9 3d a2 00 09 be
       -0.0074795145 -0.15865465 0.098414026 -0.13379148
000330 01 bb c6 bd 6c 06 f9 3d b0 d2 0e be 59 b2 5c be
       -0.09703637 0.12159428 -0.13947558 -0.21552409
000340 0a 0c 11 be 99 37 3c 3e a5 2a b9 bc f4 96 70 3e
       -0.14164749 0.18380584 -0.022603342 0.23495084
000350 12 91 55 be 52 25 7a be 00 40 08 bd 3b 75 96 bd
       -0.20856121 -0.24428299 -0.03326416 -0.07346579
000360 7b 75 73 be 97 3b 31 be 4f 3d 19 3e ee 41 57 3d
       -0.23775284 -0.17307888 0.14964794 0.05255311
000370 e5 25 4c 3d 86 32 0b 3c b8 63 a4 3d 3a 06 20 3e
       0.049840827 0.008495932 0.08026832 0.15627375
000380 c8 be 0c 3e eb be f3 3d cb 0c 34 3e 06 c9 e1 3c
       0.13744652 0.11901649 0.17583005 0.027561676
000390 dd 00 8d 3d 3d a7 10 3e 2c 30 4f be 8e c1 41 be
       0.0688493 0.14126296 -0.2023322 -0.18921492
0003a0 3d 5e 7a 3e e9 fe 01 be d0 8d a9 bc 00 0a 71 bd
       0.24450012 -0.12694897 -0.020697504 -0.058847427
0003b0 c7 93 01 bb 3e 2e 87 bd 9f b2 d3 3d 4f 08 10 3e
       -0.001977192 -0.06600617 0.10336804 0.1406567
0003c0 95 54 a9 bd ca a7 e7 bd 8b 6f a5 3c da 70 0c bc
       -0.08268086 -0.113113 0.02019479 -0.008571828
0003d0 b8 fb 53 be 7b eb 40 bc c1 30 06 3c 84 c9 19 be
       -0.20701492 -0.011774893 0.008190335 -0.15018278
0003e0 80 fc 81 3c 40 47 67 3e 0e 20 68 3e 02 69 8f 3b
       0.015867472 0.22585773 0.22668478 0.0043765316
0003f0 07 e9 d9 3d 27 e8 0a be ce 21 08 bd 8b 5a b7 bc
       0.106401496 -0.13565122 -0.033235364 -0.022382041

weight_hh_l0 f4 [48, 16]
000000 13 4c 16 bd 5d e1 1e be cc df 5a 3d ea 6e 44 be
       -0.036693644 -0.15515657 0.053436086 -0.19182935
000010 5d c8 82 bb 59 fa 74 3e de d4 69 bd eb f0 00 bd
       -0.0039911703 0.23923625 -0.05708777 -0.031479757
000020 b8 d1 e7 3d 4e 22 a8 bd b2 ba 28 3e 1a e4 d4 bc
       0.113192976 -0.08209668 0.16477469 -0.025987674
000030 58 e5 65 be fb 43 4a be 96 2d 64 3d aa a3 92 bb
       -0.22450769 -0.19752495 0.055707537 -0.0044750767
000040 9f c7 fb bd fa 3b 59 be e4 18 ca bc e8 a2 9d 3d
       -0.12293934 -0.21214285 -0.024670072 0.076970875
000050 54 31 7b 3d 9f e8 03 be 71 f8 5f 3e 50 74 ba 3d
       0.06132634 -0.12881707 0.21872117 0.09104216
000060 20 91 f5 ba cf 77 a6 bd 52 99 90 bd 50 41 b1 bd
       -0.0018735267 -0.081283204 -0.070604935 -0.086550355
000070 2e 7b 42 be 2d 69 87 bc d7 d8 36 bd 0a ca 86 bd
       -0.18992302 -0.016529644 -0.04464039 -0.06581505
000080 b4 c9 cf bc b3 cc 73 3d b6 89 19 3b 04 f5 c4 3d
       -0.025364734 0.05952139 0.002342803 0.096170455
000090 ec 8b 1a 3e 64 6e 4d 3e 29 26 bf bd c2 fc a3 bd
       0.15092438 0.20061642 -0.0933345 -0.08007194
0000a0 45 29 91 bd 4e 20 ef b9 48 ad b4 bd fb 7f e2 3d
       -0.0708795 -0.000456097 -0.08822113 0.110595666
0000b0 9c fa 5f be a9 ef 4d 3e a4 80 06 3e a1 d6 a0 bd
       -0.21872944 0.20110954 0.1313501 -0.07853437
0000c0 d2 df cc 3d d8 74 14 be ed 61 a8 3d 5b 46 e8 3d
       0.10003628 -0.14497697 0.08221803 0.11341544
0000d0 12 31 15 be 7e c9 6c bd 16 22 56 be cf e2 a3 bc
       -0.145695 -0.057809345 -0.2091144 -0.020005612
0000e0 2b b7 c3 bd 23 a6 f4 b8 59 ec 93 bb 83 8c d5 3d
       -0.09556421 -0.00011665772 -0.004514259 0.10427191
0000f0 b0 bb 4f be 14 98 4a be 29 cc d7 3c 01 91 53 bb
       -0.20286441 -0.19784576 0.026342468 -0.0032282474
000100 5e 4a a1 bc f7 8d aa 3d 26 86 9f b9 0e 9c 47 be
       -0.019688781 0.08327859 -0.00030426792 -0.19493124
000110 98 b7 56 3e 16 e5 49 3e 67 16 02 be 88 33 05 3e
       0.20968473 0.19716296 -0.12703858 0.13007939
000120 78 ca 11 bc 6d bb ee bd 16 d0 05 3d a0 4a 06 3c
       -0.00889837 -0.116568424 0.03266915 0.008196503
000130 d5 97 6f bd 14 20 fe 3d cb 9c b8 3d 64 82 47 3e
       -0.058494408 0.12408462 0.09014281 0.19483334
000140 d0 36 d0 3d 1c a5 80 3d c6 82 c6 3d fd 4e 22 3e
       0.10166705 0.06281492 0.09692912 0.15850444
000150 a2 a1 90 bd 0f 41 61 be ae 7c 35 3d 0c f0 0d be
       -0.07062079 -0.21997474 0.044308357 -0.13861102
000160 78 70 d7 3c 8f 9a 0c 3e ed 49 ab bc 82 bd 58 3e
       0.026298746 0.13730834 -0.020909274 0.21166041
000170 73 86 c5 bd a6 72 41 3d c1 e5 53 b5 3e fa 52 3e
       -0.09644785 0.047228478 -7.893796e-07 0.20603272
000180 3d 18 57 be fe 7e 84 bd 3a e7 5d b9 1d 1f d8 3d
       -0.2100534 -0.06469534 -0.00021162341 0.105528094
000190 78 e1 68 3e 64 ae c5 3d 9a 5c 3a be 1c c6 6b 3e
       0.2274226 0.09652403 -0.18199387 0.23024791
0001a0 ff 1c 02 be 10 db b7 bb df ca 0d be 0c a7 01 3d
       -0.12706374 -0.005610831 -0.1384692 0.03165345
0001b0 2f b3 3c be cd ab 07 3e ef ca 9b 3d c8 95 e5 3d
       -0.18427728 0.1324913 0.07607066 0.11210209
0001c0 80 5f 77 be 74 3d 57 3e 53 bc 01 39 c7 b9 2d be
       -0.24157524 0.21019536 0.00012372555 -0.169654
0001d0 26 31 38 be b9 3d 79 be fd df 55 3e 37 81 4f bd
       -0.17987499 -0.24339952 0.20886226 -0.05066034
0001e0 43 75 df 39 59 ef b7 39 c0 bb 0f 3e e6 d8 76 3e
       0.0004262124 0.00035082808 0.14036465 0.24106178
0001f0 84 23 26 be 0c dc 57 3e fd 23 04 bd 5b 04 63 be
       -0.16224486 0.21080035 -0.032260884 -0.2216963
000200 2d 29 1f bb a6 71 2a be 1b 2e 9e bd 37 35 cf 3c
       -0.0024286017 -0.16644916 -0.07723638 0.02529393
000210 19 d1 6d 3e e9 df 8f bd 71 66 ff 3d 23 41 31 3e
       0.23224296 -0.07025129 0.12470711 0.17310004
000220 b8 a9 92 38 6c 6a c8 bd 61 11 32 be 71 bf eb bc
       6.993435e-05 -0.09785923 -0.17389442 -0.02877781
000230 b1 93 42 3e 8b d2 1f bd 68 f1 bb 3c 36 0a 61 be
       0.19001652 -0.03901915 0.02294226 -0.21976551
000240 66 a2 02 3e 31 f5 5f 3a cd 76 e9 3d 44 4c 64 3e
       0.12757263 0.0008543311 0.113996126 0.22294718
000250 eb 6b 67 be 21 eb 53 bd f1 04 45 3c 33 d4 0a bd
       -0.22599761 -0.05173791 0.012025104 -0.033893775
000260 e7 4c e6 3d 67 e4 aa 3d ac 37 fd bd 3c 28 2b be
       0.11245137 0.083443455 -0.12364134 -0.16714567
000270 4e 8b e2 3d 30 84 66 3e dd fb 9a bd e2 9e e5 bc
       0.110617265 0.22511363 -0.0756757 -0.028029863
000280 db 05 59 3e 7f c6 10 be 94 56 be 3d f2 51 39 3b
       0.2119364 -0.1413822 0.09293857 0.0028277603
000290 62 21 51 be e1 34 0b 3d 84 ad b5 bd 36 9d 9e 3d
       -0.20422891 0.033985976 -0.08870986 0.07744829
0002a0 d0 22 05 bd 6b 59 7a 3d 6d 61 f3 bc ff 31 3c 3e
       -0.032503903 0.061120432 -0.029709542 0.18378447
0002b0 6b 62 81 be b7 4a 04 bd c7 ae e7 3d 30 62 d4 3c
       -0.252704 -0.032297816 0.11312633 0.025925726
0002c0 b8 51 ba 3c 71 f1 fa bd ba 7a 1c be 8f 5f 3e 3e
       0.022744045 -0.122530825 -0.15281191 0.1859114
0002d0 d8 49 c9 3d ea 82 3f be 8c 8c 4d be 7d e6 27 3e
       0.09828538 -0.18702284 -0.20073146 0.16396518
0002e0 d9 ea 24 3e a1 9f b8 b6 81 86 de bd 35 2b 29 3e
       0.16105212 -5.5022106e-06 -0.10865498 0.16520388
0002f0 14 4e 4c 3e 34 62 74 bd ba 2d 23 be 77 37 c3 3d
       0.1995166 -0.059663966 -0.15935412 0.095320635
000300 3e ef ee bd 76 cd d6 3d 82 59 66 37 fe 8d 9d 3d
       -0.116667256 0.10488407 1.37299085e-05 0.076930985
000310 f6 19 83 3d 01 43 35 3e 83 7b f1 bd a9 c4 69 3e
       0.06401436 0.17701341 -0.11791136 0.22828926
000320 8a 97 17 be 0b fb e3 bd 21 3b b5 bd 0d 78 15 3e
       -0.14803901 -0.11131867 -0.088491686 0.14596577
000330 65 cd c2 3d d7 b9 12 bc 68 49 53 3d 98 08 84 3d
       0.09511832 -0.0089554405 0.051583678 0.06446952
000340 2e f0 e7 bd 54 17 84 bd e1 3c 05 bc 51 fb 3d be
       -0.113251075 -0.06449762 -0.00813219 -0.18552901
000350 ec f4 88 3d 26 6e 39 3e 31 32 24 3e fc 86 9b bd
       0.0668734 0.18108425 0.16034772 -0.075941056
000360 83 f6 54 bc 79 5e cc bc 39 85 49 be c8 08 6c 3c
       -0.012998226 -0.024947392 -0.19679727 0.0144063905
000370 11 ed f2 3d 04 d0 51 be a3 8f 9b bd 03 19 60 be
       0.11861623 -0.20489508 -0.07595756 -0.21884541
000380 ab 91 c5 3d 64 b3 2f 3e 6f a8 ae 3d 52 62 0d 3e
       0.096469246 0.17158276 0.0852822 0.13807037
000390 dd 4b a7 3d 99 a2 ef bd e5 87 f2 bd 6b 2d af 3d
       0.08168767 -0.11700935 -0.11842326 0.08553585
0003a0 e2 e0 03 ba fa e8 1c b8 df 92 af bd 18 ac 70 be
       -0.00050307636 -3.7410275e-05 -0.08572935 -0.23503149
0003b0 8c 07 be bd 28 06 a3 bd 33 f0 0a be 24 41 09 be
       -0.09278783 -0.079601586 -0.13568191 -0.13403755
0003c0 1f 36 37 3e 9d da 47 be 8c 9d 4e 3a e4 48 26 3e
       0.1789174 -0.19516988 0.00078817527 0.16238743
0003d0 49 b8 07 3e 05 42 6c be 82 31 50 be c0 ab 2f 3e
       0.13253893 -0.2307206 -0.20331386 0.17155361
0003e0 4a 98 f2 b7 59 12 1c be 1e b0 f3 bd cd e4 bc 3a
       -2.8919563e-05 -0.15241374 -0.11898826 0.001441145
0003f0 ae 8e 34 be 7f d7 45 3e 46 78 c5 39 20 2e 97 bd
       -0.17632553 0.19320486 0.0003766438 -0.073818445

bias_ih_l0 f4 [48]
000000 14 8a 38 be ed 5c a8 bd d2 85 02 be 4d 09 40 3e
       -0.18021423 -0.08220849 -0.12746361 0.18753548
000010 ba 20 fc bd 6d 92 91 bd c9 65 4a 3e e8 30 be 3b
       -0.123109296 -0.071080066 0.1976539 0.00580417
000020 70 25 7d 3e db c7 32 bc e1 8e 76 3e 95 26 81 be
       0.24721313 -0.010911907 0.24077941 -0.25224748
000030 6c 7b 7f 3c dc 7d 4c 3e 86 b4 0b 3d 30 50 bd bd
       0.015593391 0.19969887 0.034107707 -0.0924381
000040 b8 a0 4b be 0d 5e 21 be da 6b 9f 3c b8 fe 50 be
       -0.19885528 -0.15758534 0.019460607 -0.20409667
000050 55 4e 58 be b9 9b f9 3d a6 63 09 3e 5b de 4f 3e
       -0.21123631 0.12187905 0.13416919 0.20299666
000060 ad cb e9 3d 2a 9a da 3d e3 ea 14 3e 7e 49 65 be
       0.11415801 0.10673936 0.14542727 -0.22391316
000070 af ff 56 be a8 4b 35 be 83 7c 31 3e 88 df 80 3c
       -0.20995973 -0.17704642 0.17332654 0.015731588
000080 d8 28 2b be 9e 7f 80 3e 70 ef 66 be 95 25 0e be
       -0.167148 0.25097364 -0.22552276 -0.13881524
000090 69 f6 6c 3e dd 7c 36 bd 46 f7 45 3e 57 ec 5c 3d
       0.23140873 -0.044552673 0.19332609 0.05393633
0000a0 82 29 f4 bd 18 02 04 bc 41 e2 07 3d 64 e9 a3 bd
       -0.119219795 -0.00805714 0.033174757 -0.080035
0000b0 f0 c9 3f bd 24 3f 33 3e e2 6d ad 3d a9 50 23 be
       -0.046823442 0.17504555 0.08468224 -0.15948738

bias_hh_l0 f4 [48]
000000 6c 80 54 be a3 5b b7 3d f3 05 01 bb 44 96 f6 bb
       -0.20752114 0.08953025 -0.0019687384 -0.0075252373
000010 b8 98 e6 3d 29 ee 22 3c a8 c5 16 be c9 aa f7 3d
       0.112595975 0.009944477 -0.14723837 0.120931216
000020 bc 74 1b be 53 e6 36 3e 01 83 2b be f4 ba de 3d
       -0.1518125 0.17861299 -0.16749193 0.10875502
000030 46 1f dd 3d 1c 6b 43 3e f7 16 8f 3d 95 a7 46 3e
       0.107969806 0.19083828 0.06986802 0.19399865
000040 5b 9a 36 3b 90 09 24 3e 1d cb c5 bd b8 d5 fd bd
       0.0027863 0.16019273 -0.096578814 -0.12394279
000050 c8 30 44 3e c3 60 23 3d ba 94 63 3e 37 54 69 3e
       0.19159234 0.0398872 0.22224703 0.22786032
000060 a5 87 86 bc 85 3a 6c 3e ac 02 d3 bd 83 1d 34 3d
       -0.016422102 0.23069198 -0.10303244 0.043973457
000070 b1 d5 4d 3e d6 7c c8 3c d3 70 23 3e 99 4c 59 be
       0.20101048 0.024473589 0.15961008 -0.21220626
000080 c0 91 1d bd 81 59 2d bc 14 27 2a be 2b 8b 3f 3e
       -0.038469076 -0.010580421 -0.1661647 0.18705432
000090 b8 be 5f be f8 ba 2c be 4b 52 bc bd 55 05 f6 bd
       -0.21850097 -0.16868198 -0.09195384 -0.12012736
0000a0 68 51 b2 bd 12 b8 98 bd 29 24 6e be 22 4c d7 3d
       -0.08706933 -0.074569836 -0.23255982 0.10512568
0000b0 57 74 56 3d fc 9b c7 bd 66 48 b0 bd 21 c1 58 be
       0.052357044 -0.097465485 -0.08607559 -0.21167423

weight_ih_l0 f4 [3, 11]
000000 20 69 33 3f 12 99 65 3f 72 0b 0c 3f a7 9f 0e 3f
       0.70082283 0.8968669 0.54704964 0.5571236
000010 a2 9a 68 bf a8 2a 48 bf c3 22 01 3f 69 2e f0 be
       -0.9086095 -0.7819009 0.5044367 -0.46910408
000020 f8 bd 5c 3f a3 53 4d 3f 52 a2 1e 3e 8e 1e 22 bf
       0.8622737 0.80205745 0.15491608 -0.6332787
000030 9a a7 26 3f f1 6b 33 3e c6 37 4c bf 26 7b 99 be
       0.6509949 0.17521645 -0.79772604 -0.29976767
000040 ba fb 9f be de 18 62 3f 13 e3 25 3f 78 54 e2 3e
       -0.3124674 0.88319194 0.6479961 0.4420507
000050 06 9a 0e 3f 87 bf ea bd c6 59 a5 bd e7 98 5c be
       0.5570377 -0.11462312 -0.080737635 -0.21542703
000060 3f 7e 5b bf f7 ef 06 3f de eb 5b 3f ac 3c 04 be
       -0.8573951 0.5270991 0.8590678 -0.1291377
000070 e5 c9 a0 3e 46 15 00 3f 49 b1 7d 3f 3d 9e 28 be
       0.31404033 0.5003246 0.9909864 -0.16466613
000080 47 74 03 be
       -0.12837325

weight_hh_l0 f4 [3, 1]
000000 a2 e5 49 3f 2a f4 b5 3e 48 d9 3d bf
       0.78866017 0.35537845 -0.7415967

bias_ih_l0 f4 [3]
000000 53 c4 0f bf 48 65 0f 3f 4c 9c 3c bf
       -0.5615894 0.5601392 -0.7367599

bias_hh_l0 f4 [3]
000000 7b 83 46 3f 5b fa c8 3e cc 9f 08 bf
       0.77544373 0.39253506 -0.5336883

weight f4 [1, 16]
000000 67 f2 13 be ca 24 0b 3d f1 b9 18 be 1b f3 34 bd
       -0.14447938 0.03397063 -0.14914681 -0.044177156
000010 5a 7f 38 ba 77 ea c3 3b 9a ea 2d bd 47 5f 13 be
       -0.000703802 0.005978878 -0.04246006 -0.14391814
000020 bb e7 8e 3d 91 19 8f 3c 03 5a d5 36 47 39 1b bc
       0.06977793 0.017468246 6.3583734e-06 -0.009474105
000030 6a 57 f5 bd b7 46 e7 3b 7a 48 1b 38 f4 06 0c 3e
       -0.119795635 0.0070579904 3.702238e-05 0.13674527

weight f4 [680, 17]
000000 e2 e0 cf bd 5f 5b 8e 3d 02 0c cf 3d 4e 54 44 be
       -0.10150315 0.069510214 0.10109712 -0.19172785
000010 a1 33 06 be 3f 38 38 3d 16 7b 70 be 6a 1e 39 3e
       -0.13105632 0.044975515 -0.23484454 0.18078008
000020 85 65 89 3c 40 ff a5 bd f1 84 04 bd c1 c2 25 3e
       0.016772041 -0.08105326 -0.032353345 0.16187574
000030 61 57 ee 3d 7f eb 98 3c f5 9e b0 3d 69 8c c0 bd
       0.1163776 0.01866698 0.08624069 -0.09401781
000040 04 f0 14 be 06 d5 39 3c 5d 35 b0 bd a9 cb 85 bd
       -0.14544684 0.011342293 -0.08603928 -0.06532986
000050 bf 20 2d be e6 38 56 3e 50 3a 22 3a a1 66 43 be
       -0.16907023 0.20920143 0.0006188499 -0.19082119
000060 de ae f0 bc a0 13 44 3d b8 f3 2b be 6b 9b 2d 3e
       -0.029380258 0.04787028 -0.1679219 0.16953819
000070 bd bc 12 3e f9 76 c5 bd 82 3e 19 be 6d 28 23 be
       0.1432981 -0.09641833 -0.14965251 -0.1593339
000080 4d 46 72 3e 2f 29 f4 bd e7 91 47 be c6 ad 5b be
       0.2365963 -0.11921918 -0.19489251 -0.21453008
000090 69 7b 17 bd 5c ef ad bd fe 59 1c be 0c 05 69 3b
       -0.036982927 -0.0849292 -0.15268704 0.0035555987
0000a0 46 aa 62 be b3 bd 75 3e aa 13 f3 bd 5f 80 2a 3e
       -0.22135267 0.23998146 -0.11868985 0.16650532
0000b0 76 a1 3f ba 59 43 56 be e0 1c 0b bd 65 2c 66 bc
       -0.00073101313 -0.20924129 -0.033963084 -0.01404867
0000c0 68 3b 9c 3d 90 b4 4c bd dc f5 7e 3b f4 d4 49 3e
       0.07628518 -0.049976885 0.0038903868 0.19710141
0000d0 cc 1a 60 3e f5 81 1e be 37 b5 b1 bd 36 89 c2 bd
       0.21885222 -0.15479262 -0.08677142 -0.09498827
0000e0 b7 79 70 3e 1e 23 bd bd 22 88 24 3e cc 01 96 3c
       0.2348393 -0.09235214 0.16067556 0.018311404
0000f0 ff 6e 0e bc dd ef f9 bd ad 5d 65 be 4f e5 78 be
       -0.008693456 -0.122039534 -0.22399016 -0.24306224
000100 32 43 68 3e ce b3 fa bc 08 cf bb bd 65 a1 39 bd
       0.22681883 -0.030603316 -0.091703475 -0.045319933
000110 09 7f 7f 3d a0 1d bf bd 4c eb 26 be 3b fd 16 3e
       0.06237701 -0.093318224 -0.16300696 0.14745037
000120 e4 f2 4f be 61 fc d7 bd 2e c0 40 3c a0 a6 36 be
       -0.20307499 -0.10546184 0.011764569 -0.17837
000130 3f 48 11 be 98 75 93 bd 6a c4 c5 bb 12 99 68 3e
       -0.14187716 -0.072001636 -0.0060353773 0.22714642
000140 91 78 3b be 92 10 8f bd b4 f2 04 3e b9 14 1a be
       -0.18307711 -0.069855824 0.12983209 -0.15046968
000150 2c 39 24 3d a5 c8 71 be b0 d4 20 be b8 65 e5 3d
       0.040093586 -0.23611696 -0.15706134 0.11201042
000160 2e 8c 5a 3e 45 7f 18 bd 8b 5f 57 3e da 3d 37 3d
       0.21342537 -0.03723075 0.2103254 0.04473672
000170 14 a0 8c bd 63 0f 3c be 88 92 3a be 9f 73 d3 bd
       -0.0686647 -0.18365245 -0.1821996 -0.10324787
000180 1f 97 43 be 29 03 72 3e 04 4e 26 be a5 31 6c be
       -0.19100617 0.23634018 -0.16240698 -0.23065813
000190 6f 93 42 bd cb a2 93 3d 61 e6 5f be 0e c1 76 bc
       -0.047503885 0.07208785 -0.21865226 -0.015060676
0001a0 7b 79 3f be fa 7c 28 3e 0d 01 fd bd 06 91 f8 bd
       -0.18698685 0.16453925 -0.12353716 -0.12137036
0001b0 40 bd 60 be 89 a4 1b 3e 3b f4 bf 3d e2 b8 95 3d
       -0.21947193 0.15199484 0.09372755 0.07310654
0001c0 15 eb 68 3e 58 a7 49 3e a0 9e 0a be 8b a4 fd 3d
       0.22745927 0.19692743 -0.13537073 0.123849
0001d0 4d 48 bb bd 08 3b 6f 3e 74 2f 2a 3c 62 3b 0d 3d
       -0.0914465 0.23362362 0.01038729 0.03448046
0001e0 d5 b1 96 38 de 05 ec 3d ae 25 74 3d cb 99 d7 3c
       7.185681e-05 0.115245566 0.059606247 0.026318451
0001f0 0c 7b 8d 3d 6c 9f 78 bd 25 0a c5 bd 9f e8 0a bd
       0.06908235 -0.06069891 -0.096210755 -0.03391325
000200 ee ef fe bd f4 c4 da 3d 5a 00 d0 b9 ac 7e 9d 3c
       -0.12448107 0.10682097 -0.00039673113 0.01922544
000210 2d 10 14 bd a5 cd d9 3b b8 c5 bc 3d 06 18 05 ba
       -0.03614824 0.006646829 0.09217399 -0.0005077127
000220 71 74 80 3e f1 18 49 bd 8c 2c 12 3e 9d 9c 6f be
       0.25088838 -0.04909605 0.14274806 -0.23399587
000230 da 2f 8d 3a 5a 16 b9 bd 0e 5e 39 3e c6 31 6f 3e
       0.0010771707 -0.09037466 0.18102285 0.23358831
000240 83 9a 4f be b1 79 22 3e 3a e4 52 3e 92 b0 06 be
       -0.20273785 0.15866734 0.20594874 -0.13153294
000250 e3 69 3e 3e b0 d6 1e 3e c5 b4 83 bd 92 38 49 be
       0.1859508 0.15511584 -0.064309634 -0.19650486
000260 4d 19 d7 bc b7 eb 04 3e d3 d6 f9 3d 84 01 40 3e
       -0.026257182 0.12980543 0.121991776 0.18750578
000270 8d 94 00 3e a9 21 f4 3d b5 67 6d be 7f 8c 58 be
       0.12556668 0.11920483 -0.23184092 -0.21147345
000280 31 6f 4e be 3a b0 cd bd 0b a8 5d be 87 6b 10 be
       -0.20159604 -0.10043378 -0.21646135 -0.14103518
000290 19 3d 48 3e 5a 22 23 3e d8 e2 72 3d db a4 1c be
       0.19554557 0.15931073 0.059298366 -0.15297262
0002a0 dd c3 00 3c e8 a1 65 be 49 4c 25 bc dc 3a 14 3e
       0.007859197 -0.22425044 -0.010088989 0.14475578
0002b0 4f 3e 69 3e 80 59 4f 3e d7 5a c8 bd ea 2b a3 3a
       0.22777675 0.20248985 -0.09782951 0.0012449
0002c0 2d 17 27 3d 05 2d 49 3e 7a 4c 3a be 6e 3a 25 3e
       0.040793587 0.1964608 -0.18193236 0.1613557
0002d0 f5 6e 90 3d 9c 0c b1 bd 43 4a f8 3d bc aa 71 3e
       0.070524134 -0.08644983 0.12123539 0.23600286
0002e0 45 e3 27 be 99 76 7b bd a2 3a 17 bd 1b 93 a8 3d
       -0.1639529 -0.0613924 -0.03692115 0.08231183
0002f0 fb ea 52 3e b7 80 fb bc 1b 09 49 3d c0 6c 0c 3e
       0.2059745 -0.030701024 0.04908095 0.1371336
000300 84 76 3a be ec c8 ff 3d 7a 8a f9 bd 9f 81 03 3e
       -0.18209273 0.12489495 -0.121846154 0.12842415
000310 9f 95 64 bd 99 52 e6 bd be 48 4c be ba d5 39 be
       -0.055806752 -0.11246223 -0.19949624 -0.18147936
000320 01 1d 5a be b1 16 43 3e 66 10 1d be 16 84 15 3e
       -0.21300127 0.19051625 -0.15338287 0.14601168
000330 0e 52 59 3e 7b 5e dc ba dc ee 2e 3e 61 18 a3 3d
       0.21222708 -0.0016812825 0.17083305 0.07963634
000340 b1 60 91 3c 87 9c 64 3d d7 15 a6 3d 12 c5 f8 3d
       0.017746301 0.05581334 0.08109634 0.12146963
000350 1f aa 32 bc c2 55 17 3e e6 12 78 3e 9c fd 61 3e
       -0.010904818 0.14778808 0.24225959 0.220694
000360 9a 19 2c be f0 f4 f6 bc 20 0d 02 bd 11 fb 88 bd
       -0.16806641 -0.030146092 -0.0317508 -0.06688512
000370 69 0f 85 3d a7 12 7b bd 14 c9 3e 3e d5 da 4f be
       0.0649708 -0.061297085 0.18631393 -0.20298322
000380 0c 4b bf 3d 8c 67 ab 3d 4e 50 11 3e a5 3f fd bd
       0.09340486 0.083693594 0.1419079 -0.12365655
000390 9a 10 ba bd 0a a5 5d 3e 75 0f 38 3d 46 65 ef 3d
       -0.09085198 0.21644989 0.044936616 0.11689238
0003a0 06 88 71 3d 25 d8 5d 3d ad 68 a7 bd 06 15 46 be
       0.058967613 0.05416121 -0.08174262 -0.19343957
0003b0 49 ac d6 bc 17 7f 5c be 12 ad a4 bc 78 57 67 3e
       -0.026205199 -0.21532856 -0.020102058 0.2259196
0003c0 bb cc a3 bc ec c4 93 3d 0e 2a 32 3d a8 10 77 3e
       -0.019995084 0.07215294 0.043497138 0.24127448
0003d0 6c ab 59 be ef 66 04 3e 99 54 1f bd aa b7 31 be
       -0.21256799 0.12929891 -0.038899038 -0.17355219
0003e0 61 7f 4e 3e 32 b9 27 be 56 b2 21 be 7b be 43 be
       0.20165779 -0.1637924 -0.15790686 -0.19115631
0003f0 22 46 28 be ad 3a 92 3d cc 3d bb 3d 2d 9b 46 3e
       -0.16433004 0.07140098 0.09142646 0.19395132

bias f4 [680]
000000 49 ae 1e 3e e2 8c 9d 3a ca d5 a7 3a 82 ef 64 3e
       0.15496172 0.0012020136 0.0012804803 0.2235699
000010 48 dd 16 b9 7d dc 08 3e 2d 8e 3f 3e 1e da 95 bd
       -0.00014387548 0.1336536 0.1870658 -0.07316993
000020 54 24 43 3e d4 e6 5c be b0 e3 6f 3e 0b 72 90 bc
       0.19056827 -0.21572429 0.234267 -0.017632505
000030 86 a0 17 3e 84 b7 10 3d 32 34 7b 3b 8e cd 01 3c
       0.14807329 0.035331264 0.0038330671 0.007922543
000040 7d 47 88 bd 33 bf 44 3e 85 ba 15 3d 5d 04 6a bc
       -0.0665426 0.19213562 0.036554832 -0.014283267
000050 53 75 c9 3d b0 7c 56 3e 3f 20 a3 bd 3f 78 93 3d
       0.09836831 0.20946002 -0.07965135 0.072006695
000060 7c 98 88 3d 2e 56 94 3a d4 fd 26 3e b1 d4 0f 3e
       0.06669709 0.0011317187 0.16307765 0.14045979
000070 7d 8a 35 3d 56 00 0c be 4f 7b e4 3d d5 e8 60 be
       0.044321526 -0.13672003 0.11156332 -0.21963818
000080 eb 63 34 3d 1d 1c 43 bd c2 11 53 3e db 3b 6a 3e
       0.0440406 -0.047634233 0.20612243 0.22874396
000090 1e ab e2 3d 4f ae cd 3d be 30 d6 3b 98 fe f2 3c
       0.11067794 0.10043012 0.0065365722 0.029662415
0000a0 d3 1a de 3d 88 72 4a be dc 9b 0f be 28 3c fd 3d
       0.1084496 -0.19770253 -0.140243 0.123649895
0000b0 55 69 cd bd 88 a9 e2 bc cb 03 6e bd bc f9 16 bd
       -0.10029856 -0.02766873 -0.058109086 -0.03685926
0000c0 7f a8 23 bb 05 9b 53 3e 47 b5 05 be 03 cf 82 bc
       -0.0024972258 0.20664604 -0.13057433 -0.015967852
0000d0 89 f0 47 bd 60 61 2b 3e 84 52 e6 3d e8 57 28 bd
       -0.048813377 0.16736364 0.11246207 -0.04109946
0000e0 2f 54 b5 bb 86 75 63 3d 39 33 2c 3e 31 bb ce bd
       -0.005533717 0.055532 0.16816415 -0.10094298
0000f0 20 50 a1 bd 8b 40 11 bd 9e fb 68 be 5f 38 0c be
       -0.07876611 -0.035461944 -0.22752234 -0.13693379
000100 4d 25 93 bd 45 c6 2c 3e 8e cb 43 3e ba 66 52 bc
       -0.07184849 0.16872509 0.19120619 -0.012841875
000110 b0 01 d9 bd e8 77 b0 3d 28 d0 f6 bc fe 24 fe 3c
       -0.10596025 0.0861662 -0.030128554 0.031023499
000120 5a 24 16 be 2f 4a c1 bd 17 99 06 3e 4e 88 00 be
       -0.14662305 -0.094379775 0.13144337 -0.12551996
000130 37 06 3a 3e 8d 59 b8 bd 6c 21 b7 3d a1 73 be bd
       0.18166433 -0.090014555 0.089419216 -0.09299398
000140 71 05 1b be b1 f4 23 3e c3 c2 c7 bd 99 ef 77 3e
       -0.15138794 0.16011311 -0.09753945 0.24212493
000150 c2 b1 10 bd 64 4f dc 3d 06 40 31 3e 12 40 d8 3c
       -0.035325773 0.1075733 0.17309579 0.026397739
000160 85 a8 04 be 75 a2 88 b8 6e 8e 50 3e 15 4e 55 3e
       -0.1295491 -6.515245e-05 0.20366833 0.20830567
000170 40 2e a6 3d fa 8e 2d 3e ac 8a 89 bd 56 05 7d 3e
       0.0811429 0.16949072 -0.06715903 0.24709067
000180 3b 44 69 bd 2b ef 47 bd 5b 91 92 3c d1 8b f0 3d
       -0.056949835 -0.048812073 0.017891577 0.11745418
000190 37 63 c7 bd c3 8e db 3c 20 be 1b bb f0 82 c0 bd
       -0.097357206 0.026801473 -0.0023764446 -0.09399974
0001a0 89 d8 c9 bd e0 1a 43 3d 13 72 09 bd e8 88 a0 3d
       -0.09855754 0.047633052 -0.033556055 0.07838613
0001b0 0a ac 70 3e c5 8a 0c bc 72 91 10 be 4c 8e ac 3c
       0.23503128 -0.008578007 -0.14117983 0.021063946
0001c0 37 7e c3 3d 65 77 3f bd b8 1e 08 be bd 1c 8c 3d
       0.09545558 -0.046744723 -0.13292968 0.06841419
0001d0 c8 84 82 bd 54 14 17 be 7e 84 24 3e 79 32 6e 3d
       -0.06372982 -0.14753848 0.16066167 0.058153603
0001e0 cb a8 f3 bd ca dd 51 3e 64 dc 47 3e 92 51 f9 3d
       -0.11897429 0.20494762 0.19517666 0.121737614
0001f0 2e 1a 1f 3e 0c 60 2f 3e 9c b8 2e 3e a8 f1 57 be
       0.1553733 0.17126483 0.1706261 -0.21088278
000200 92 91 13 3e d7 c9 c4 3d 70 2d 78 bd f5 ea d2 bb
       0.14411 0.096088104 -0.060590208 -0.0064367005
000210 ee 70 c0 b9 a9 79 9b 3d b2 d9 1e 3e c2 03 a9 bd
       -0.00036705233 0.07591564 0.15512732 -0.0825267
000220 e6 88 b1 bc e6 b2 cc 3d 93 78 d9 3d 7f c5 82 3d
       -0.021671724 0.0999506 0.10618701 0.06385326
000230 bb 53 66 bd 5e e7 3f 3e 6b e6 02 3a f8 ad 49 3e
       -0.056232195 0.18740603 0.00049934414 0.1969527
000240 b3 d9 4d bd 6a 52 f2 bd dc 69 89 3d d8 34 90 bc
       -0.050256442 -0.118321255 0.06709644 -0.017603323
000250 3f 12 34 3d db 00 1d be 53 ee 31 3e 80 ba e1 bd
       0.043962713 -0.15332358 0.1737607 -0.110219
000260 94 2a a6 bc 0a 7c 07 bd b0 2f d0 3d 2e b0 64 3e
       -0.020283975 -0.033077277 0.10165346 0.22332832
000270 77 94 ac bd 44 01 8d bd 2f 9b 4a 3e 06 3e 4e bc
       -0.08426755 -0.06885007 0.1978576 -0.01258803
000280 77 80 f3 3d ab 86 44 3c 0a 66 12 3d b0 93 42 3e
       0.11889737 0.011994998 0.035741843 0.19001651
000290 14 15 8e 3d 9d 6b 0f bd dd 6c 0d be 68 b6 ff 3d
       0.06937614 -0.035014737 -0.1381106 0.12485963
0002a0 df 23 ca 3d 7b db 02 3e e1 47 ec bd e6 ee 2d be
       0.09870123 0.12779038 -0.11537147 -0.16985664
0002b0 59 af 36 3e 6d 19 36 be 50 49 88 bd 6a 70 0a be
       0.17840327 -0.17783137 -0.06654608 -0.13519445
0002c0 42 97 ed 3d fb 82 6c 3e 2d 16 13 be b7 9f 55 3b
       0.11601116 0.2309684 -0.14363928 0.0032596418
0002d0 4e 4d 56 be 7a cc 79 be 29 67 27 38 45 8b b1 bd
       -0.20927927 -0.24394408 3.9911978e-05 -0.08669142
0002e0 ca 2a 9a bd 66 f6 a8 bd 25 d7 1b be 4c a8 4e 3e
       -0.075276926 -0.08250122 -0.1521879 0.20181388
0002f0 4c 07 1a 3e 25 b6 aa bd 0c 15 2c bd 54 fa c3 bd
       0.15041846 -0.083355226 -0.04201226 -0.09569231
000300 de e2 51 3e 4d 76 55 bc 73 90 b9 bd 8a 65 57 bd
       0.20496699 -0.013028693 -0.090607546 -0.05258707
000310 f9 38 68 bd 33 fe c3 3d 5d 4f b3 bd 3c fe cf bd
       -0.05669496 0.09569969 -0.08755372 -0.10155913
000320 58 f5 6d 3e c7 36 72 be 2c 2b 73 bb cc 4d eb bd
       0.23238122 -0.23653708 -0.003710459 -0.11489448
000330 79 c7 17 be 65 6a b2 3d b1 30 db bc ba 30 39 3e
       -0.14822187 0.087116994 -0.026756616 0.18084994
000340 d3 a5 e5 39 d9 90 66 3d de b9 36 3e 82 6a 20 be
       0.00043801832 0.05629048 0.1784434 -0.1566563
000350 29 b6 87 bd 81 f5 28 bd 36 bc 19 be ec b0 76 3e
       -0.06626541 -0.041249756 -0.15013203 0.24090928
000360 a1 76 e3 bd 7c 56 3f bd b5 8a 25 bd ee e5 79 3d
       -0.11106611 -0.046713337 -0.040415484 0.061010294
000370 8c d4 d0 bd ea 2e 07 be f7 9f 47 bd 7c 62 5f 3e
       -0.1019679 -0.1320149 -0.04873654 0.21814913
000380 4a 16 e5 3d 9d 87 1f be 63 85 f8 bd 1e cb c7 bd
       0.11185892 -0.15579076 -0.121348165 -0.097555384
000390 e0 fd 23 bc a9 c1 15 be 97 33 e8 bd ff 16 2c bd
       -0.010009259 -0.14624657 -0.11337965 -0.04201412
0003a0 95 09 2d bd 72 7e a9 bb 5d 8d 97 bd a2 a4 0e be
       -0.042245466 -0.005172544 -0.0740001 -0.1392999
0003b0 b1 77 4c be 90 57 14 3e 08 58 0a bd e8 db 2d 3e
       -0.19967534 0.14486527 -0.03377536 0.16978419
0003c0 11 cb 66 be 76 2b e7 3d 18 13 b2 bd 84 f9 02 be
       -0.22538401 0.112875864 -0.08695048 -0.12790495
0003d0 52 49 34 be f1 20 a0 bd 38 78 a7 bd ca 6b 2d 3e
       -0.17606094 -0.07818783 -0.08177227 0.1693565
0003e0 de 0a 41 3e 6c 27 05 be 82 5d 41 3d 15 cb 6c bd
       0.18851802 -0.1300332 0.047208317 -0.05781086
0003f0 ef 4e 58 3e 9c f8 0e be 89 a3 c0 bd a6 0d 0c be
       0.21123861 -0.13962024 -0.09406192 -0.13677081
