estimators/knet/single_obs/MSE_ep100_train4000_val1000_test10000_lr1e-03_wd1e-05_ri[4, 4, 1, 1]_data_sr1e-01_q1e-04_r1e-03_j5_train[500,100]_val[100,100]_test[100,100].pt (torch, 155057 bytes, 40 tensors)

weight_ih_l0 f4 [48, 20]
000000 75 d0 5f be 05 07 61 bd 58 79 37 b9 6c da f1 bd
       -0.21856864 -0.054938335 -0.00017497444 -0.11809239
000010 3c 9c 5b 3d cf 70 f9 bd 67 7c f9 bb b2 25 f0 3d
       0.053615794 -0.1217972 -0.007613707 0.1172594
000020 bc 9a 62 3e ca b4 87 3c 12 f7 96 3a 30 c1 e7 3c
       0.22129339 0.0165657 0.0011517724 0.028290361
000030 49 e3 5b be 01 a3 8f 3d bc 2a 44 3e 2e 12 b5 3c
       -0.21473421 0.070135124 0.19156927 0.022103395
000040 2f 93 3a 3e a5 54 c0 3c 56 4c 61 bd bf 11 3f bd
       0.18220209 0.023477862 -0.05500444 -0.046647783
000050 30 df 41 3c 3c 4f 32 bd 74 c6 b5 3d 56 26 2a be
       0.011832997 -0.043532595 0.088757426 -0.16616186
000060 51 00 7b 3c 01 8f 6f 3e 7d e7 ac bd ee 14 7c 3e
       0.0153199 0.23394395 -0.084425904 0.24617359
000070 62 0e 39 be fb 06 b1 3d 76 8f 4a be ae 5c 7e 3e
       -0.18071893 0.086439095 -0.19781289 0.24840042
000080 b1 47 9a bc 38 4b 91 bc a4 5d d2 bd 39 82 91 bc
       -0.018833013 -0.017736062 -0.10271767 -0.01776229
000090 bf e6 0b be 00 b8 26 3e 87 56 fc 3d b2 3b 80 bd
       -0.13662241 0.16281128 0.12321191 -0.06261386
0000a0 96 05 17 be 8e 4f 24 bd 85 9b b0 bd 6b 3f 11 be
       -0.14748225 -0.04011493 -0.08623413 -0.14184348
0000b0 60 56 34 3e 3f c4 8c bd c1 03 ed bd 6c f7 9d bc
       0.17611074 -0.068733685 -0.115729816 -0.019283019
0000c0 2a 20 8a 3e c8 9e 01 3d 98 d6 11 be 5f fa bc 3d
       0.26977664 0.031645566 -0.14242017 0.09227442
0000d0 0b b6 28 3e f1 a7 88 3e a6 a5 ff 3d 4f e6 2c 3d
       0.16475694 0.2669063 0.12482767 0.042211827
0000e0 84 c1 7f 3d 3f f8 4f be 71 54 cf bd f8 6f 71 3e
       0.06244041 -0.20309542 -0.10123528 0.23577869
0000f0 5d 7f 71 bd eb 38 19 3e 5b c9 ec 3d 35 78 87 bd
       -0.058959354 0.14963119 0.11561843 -0.066147245
000100 1b fa 6a 3e bf 2b 2a 3d 68 c2 6b bd f4 5f 87 be
       0.2294697 0.041545626 -0.057558447 -0.26440394
000110 42 c5 4b 3d ce 39 ab bd 77 dd 82 3d 16 e0 d4 3d
       0.049748667 -0.08360635 0.06389897 0.103943035
000120 c6 7d 8d be 77 01 59 3e b2 92 13 be c2 e3 bf bd
       -0.2763502 0.21191965 -0.14411429 -0.09369613
000130 31 c1 0b 3d be c4 80 3d e8 55 57 bd 49 d5 3a 3e
       0.03411979 0.062875256 -0.05257216 0.18245424
000140 60 c4 16 be 2e c4 c0 3c c0 b2 de bd 86 f1 42 3e
       -0.14723349 0.023531046 -0.108739376 0.19037446
000150 f6 bc aa bc e1 13 84 bd f9 c1 8c bd de f6 4b be
       -0.020842057 -0.06449104 -0.06872935 -0.19918391
000160 cd 63 85 bd dc 9a 1c bd ff e4 20 3e a3 9c 3d 3d
       -0.06513176 -0.038233623 0.15712355 0.04629196
000170 6b 6b 14 bd 48 5c a4 3d c4 f1 1b bd 2b e0 f4 3d
       -0.036235254 0.08025414 -0.038072363 0.11956819
000180 5b d8 2b 3e 67 97 77 3d df b1 41 3e 95 8e 42 be
       0.16781752 0.060447123 0.18915509 -0.18999703
000190 e0 dd 56 be e2 e8 03 be 2d 9b dc 38 a6 96 69 3e
       -0.20983076 -0.12881806 0.00010519321 0.22811374
0001a0 8a 77 48 be 19 05 8c bd 03 ae 39 bd 1e e0 63 3c
       -0.1957685 -0.0683691 -0.045331966 0.013908414
0001b0 18 57 ba 3d bb 7c 52 3e 2a fb 76 be 48 fb 08 be
       0.09098643 0.20555393 -0.24119249 -0.13377106
0001c0 de 35 2c 3e 28 1d d1 3d 06 ef 76 be 14 6d 4e 3d
       0.16817424 0.10210639 -0.24114618 0.050396994
0001d0 5f 2a c8 3a a2 ac 30 bc 6c be 01 3d 96 5a 73 3d
       0.0015271417 -0.010783346 0.03167574 0.05941256
0001e0 ef f7 5d 3e 7c 2b 3d b9 ba 7a 14 3e 00 8d 8b 3e
       0.2167661 -0.00018040644 0.14499941 0.27256012
0001f0 47 5a 8f 3c 9e 03 3b bc 0b dc 33 3e 93 c3 4f 3e
       0.017499102 -0.011414437 0.17564408 0.2028945
000200 98 08 5e 3e 79 cc 4a be fa 79 64 3d 71 8f 13 3d
       0.21682966 -0.19804563 0.05578039 0.03602547
000210 60 70 42 be c6 1d b7 bc 1b 2f 19 bc 84 b3 3b 3e
       -0.1898818 -0.022353064 -0.00934961 0.18330199
000220 d0 dd 29 be df 46 b9 bd e8 ad 79 3e 8e 6b 5e 3d
       -0.16588521 -0.09046721 0.24382746 0.05430179
000230 70 29 5b 3d a5 a8 84 3d 9b 9b 0d 38 6a 48 63 3d
       0.053506315 0.06477479 3.376194e-05 0.05548898
000240 13 d8 8d bd 27 69 3e 3e 37 64 f7 3d 40 fc 45 be
       -0.069259785 0.185948 0.12079661 -0.19334507
000250 23 b5 d9 3d 1e 63 d3 bc c1 4a c6 bd fc c2 86 ba
       0.10630252 -0.025804099 -0.09682227 -0.0010281499
000260 aa 41 56 3e 38 26 f7 ba 5a 8e 33 be aa 87 e6 bd
       0.20923486 -0.0018855995 -0.17534772 -0.112563446
000270 be be 6f be 4a 30 0d be c5 8e 69 3e 30 cf 2a 3e
       -0.23412606 -0.13787952 0.22808369 0.16680598
000280 81 76 8d 3e 00 fe c2 3d dc 4b 07 b9 a6 44 51 3e
       0.27629474 0.09521103 -0.00012902863 0.20436344
000290 b0 2a 06 3e 85 2f 29 3e 2e 01 d8 3d a4 0e 29 3e
       0.13102221 0.16522034 0.105471 0.16509491
0002a0 6d 34 43 3d 59 68 1e 3e 53 53 3f 3e 42 bb 82 be
       0.04765742 0.15469493 0.1868413 -0.2553349
0002b0 7a f7 77 3e ac 1e 01 be 56 a8 58 3e f9 9f 28 3e
       0.24215499 -0.12609357 0.21157965 0.16467275
0002c0 ad 15 4e 3e bd 24 2c bd 3b 36 45 3e bf 8d db bd
       0.20125456 -0.042027224 0.19258969 -0.10720395
0002d0 68 78 88 3d e3 6b 03 be 92 44 1c bd 7d 27 65 be
       0.06663591 -0.12834124 -0.03815133 -0.22378345
0002e0 33 c7 0e be a7 52 a1 3b f1 01 f1 3c 35 8e c8 bd
       -0.13943176 0.004923183 0.029419871 -0.09792749
0002f0 6f 9a 2a 3e aa 05 29 3e a5 03 50 3e d1 84 4e be
       0.16660474 0.16506067 0.2031389 -0.20167853
000300 91 4e 3c 3e 2a 15 ba bd f6 48 fa 3d 11 f1 80 be
       0.18389346 -0.09086068 0.122209474 -0.2518392
000310 22 8f 4b be d9 36 87 3d 06 a6 90 bd bd 6c 38 bd
       -0.1987882 0.06602258 -0.070629165 -0.045025576
000320 72 ad e5 3d 0d 61 ff ba 63 be 2f 37 4d 7a 5a 3e
       0.11214723 -0.001948388 1.0475141e-05 0.21335717
000330 a3 ea a1 3d d2 9d 35 be 61 d4 81 3d 75 2d 9a bc
       0.079060815 -0.17735985 0.06339336 -0.018820504
000340 c2 07 42 3d f5 6f e1 bd dc ee 0e 3e 8a 87 1a 3e
       0.04737068 -0.11007682 0.13958305 0.15090767
000350 11 ce a3 bc dc c1 d3 3d c8 0a 25 bc b1 c4 c6 bd
       -0.019995721 0.1033971 -0.010073371 -0.09705485
000360 8c 8f e5 bd 54 d6 7a be f0 7f 50 3e 33 8c ff 3d
       -0.1120902 -0.24495822 0.20361304 0.12477913
000370 50 e8 6f bd 03 53 c9 bc b1 26 e5 bd 9f a2 da 3c
       -0.05857116 -0.024575716 -0.111890204 0.026688872
000380 79 e3 43 be ba 94 c4 3d 61 d8 09 be f5 93 be bc
       -0.19129743 0.0959868 -0.13461448 -0.02326391
000390 15 73 0d 3e 03 a3 40 3e b1 23 af bd 3f 48 ab 3d
       0.13813432 0.18812184 -0.085517295 0.08363389
0003a0 8f f3 0e be 5d 7e c2 bd 09 64 37 bd ad 2b ff 3d
       -0.13960098 -0.09496758 -0.044773135 0.12459502
0003b0 b1 a0 d7 bd 67 fc 55 3e 98 8a 3f be 33 74 25 be
       -0.10528696 0.20897065 -0.18705213 -0.16157608
0003c0 4f 68 0e be 9b f6 eb 3d b0 0f 8d 3d ad 44 25 3b
       -0.13906978 0.11521646 0.06887758 0.0025217936
0003d0 c3 87 2f 3e 64 54 77 be 97 9f 28 be af e4 f4 3d
       0.17141633 -0.24153286 -0.16467129 0.119576804
0003e0 3c 6a 82 3e 34 03 7d be b5 32 88 bd c5 1e 3e be
       0.25471675 -0.24708253 -0.066502966 -0.18566425
0003f0 dd 21 5b 3e ef 3d 89 3d ec 1b 8c 3c 5a e6 c2 bd
       0.21399637 0.06701266 0.017103158 -0.09516592

weight_hh_l0 f4 [48, 16]
000000 83 a3 3f 3e 06 c6 79 be 1a 2b d0 3c bf 6d 4f 3e
       0.18714719 -0.24391946 0.025411177 0.20256709
000010 16 27 7f be 36 83 17 be 1f d4 62 3e cb 13 e6 bd
       -0.24917254 -0.14796147 0.2215123 -0.11234244
000020 28 b2 80 be 22 63 dc bc c5 b4 68 3c 3a 15 51 bd
       -0.25135922 -0.026902739 0.014203255 -0.051045634
000030 57 31 4b 3e 77 8b 42 3e ce 2d 12 3e 91 45 62 3d
       0.1984304 0.18998514 0.14275286 0.055242125
000040 be 98 51 3e 56 3c 72 3e 01 0e 92 3d 7d ff 1a 3e
       0.20468423 0.23655829 0.07131577 0.15136524
000050 54 ac c7 bb 74 78 21 3e cd a6 2a 3e be 2d ab bc
       -0.006093541 0.15768605 0.16665192 -0.020895835
000060 8d 7d 2f be ba 6d 9e bd b8 e1 2e bd 51 74 53 be
       -0.17137738 -0.077357724 -0.04269573 -0.2064984
000070 a7 30 d3 bd 55 c0 0f 3e c8 d0 ab bc fd f8 fd 3d
       -0.10312014 0.14038213 -0.020973578 0.12401006
000080 85 8a ba bc 98 84 42 be a3 96 22 bd 45 03 d5 3d
       -0.02277113 -0.18995893 -0.03969444 0.10401014
000090 f7 0a 85 3e 48 f2 e6 3d b6 ea 43 bb ad 71 21 3e
       0.25984928 0.1127668 -0.0029894537 0.1576602
0000a0 90 b4 0e be 3d 4a 1a bd 43 a8 34 be 86 c6 44 3d
       -0.13936067 -0.037668455 -0.17642312 0.04804089
0000b0 a2 b9 6b 3e ea 5f 59 3e 2e 1a 34 be a0 c7 80 bd
       0.23020032 0.21227995 -0.17588112 -0.062880754
0000c0 73 2a b8 3c db d9 c9 bc 16 fc df 3c df c5 0f be
       0.022481179 -0.024640014 0.027341884 -0.14040326
0000d0 1e d9 72 bc 7a 53 23 be 8e a0 65 3e 8c b4 2b 3e
       -0.014822273 -0.15949813 0.22424528 0.16768092
0000e0 7a 80 5d 3e f6 60 49 3e f7 62 d8 3c a1 bd 34 3e
       0.21631041 0.19665894 0.026414378 0.17650463
0000f0 78 20 4e bd 74 d2 6a 3d 30 ad 06 3c 82 61 22 3e
       -0.050323933 0.05732961 0.008220002 0.15857509
000100 43 af 79 3e f0 51 41 3e d9 89 d6 bc 3f 87 c7 3d
       0.24383263 0.18878913 -0.026188778 0.09742593
000110 57 5c 82 3e 91 80 93 bd ec a8 7a be 0e 1d c5 bd
       0.25461075 -0.072022565 -0.24478501 -0.09624682
000120 f4 0d 50 bd 73 49 98 3e 38 c2 65 bc 56 12 8e bd
       -0.050794557 0.29743537 -0.014023356 -0.06937091
000130 34 ab 4d 3e 87 c8 49 be 8c 7a 0d be d1 da 5d 3e
       0.2008484 -0.19705401 -0.13816279 0.21665503
000140 05 ee 84 3d a0 24 95 bc 9d ab 1d bd bd ea 02 bd
       0.06490711 -0.01820594 -0.03849374 -0.031962145
000150 b7 65 1b be d8 f5 6b be 26 86 fd 3d 7b 71 39 be
       -0.1517552 -0.23043 0.123791024 -0.18109696
000160 31 d9 18 3e 6c 51 49 bd 58 35 0e bd 55 ca 94 3d
       0.14926602 -0.049149916 -0.03471884 0.07265154
000170 f2 bc a4 bd 7a 31 3f 3e 55 d4 6a be 41 ce 41 be
       -0.08043851 0.18671218 -0.2293256 -0.18926336
000180 7e ff 3c 3d 6d d0 01 be f1 c7 77 be ad 02 5c 3e
       0.046142094 -0.12677164 -0.24197365 0.21485396
000190 ba 8d 0f 3c 52 b5 28 3e 1d 69 bf bd ed fc df 3d
       0.008761818 0.16475418 -0.09346221 0.10936914
0001a0 e7 14 86 be c5 de 90 3d e9 ca 98 3d f5 5d 3f be
       -0.26187822 0.0707374 0.07460577 -0.18688186
0001b0 15 a7 44 bd c7 f5 03 3e af 9d 47 be f6 27 b2 3d
       -0.048010904 0.12886725 -0.19493745 0.08699028
0001c0 5d d5 4c 3e 61 03 4b 3e 05 54 be 3c 42 ba 23 be
       0.20003267 0.19825508 0.023233423 -0.1598902
0001d0 7c 05 5f 3e 6f 50 ce bd 94 de 53 3d 93 6b 5b 3e
       0.21779436 -0.10073935 0.05172594 0.21427755
0001e0 28 53 02 3d 92 4d 55 bd f0 11 9f 3d 49 22 30 3e
       0.031817585 -0.05207593 0.07767093 0.17200579
0001f0 8f 99 53 be 6c 4b 2c 3e c5 75 94 bd b8 1a 30 be
       -0.20664047 0.16825646 -0.07249025 -0.17197692
000200 85 07 27 be d2 91 1b 3d 9a e8 1d be 55 18 27 3e
       -0.16311462 0.037980862 -0.15420762 0.16317876
000210 90 09 73 bd a4 e2 17 bd 50 92 bf bd dd e4 22 3d
       -0.05933529 -0.037081376 -0.09354079 0.039769042
000220 48 e5 4b be ef 22 41 3e 67 f4 31 bd cb 0e 33 3e
       -0.19911683 0.18860982 -0.04344597 0.17486112
000230 0d 52 0f 3d 16 1d ce bd 03 f6 55 3d 28 2d 28 3d
       0.03499036 -0.100641415 0.05223657 0.04105869
000240 75 ed 42 3e d5 7e 81 3e da 23 6a 3d 2b 2c 67 be
       0.19035895 0.25292078 0.057163097 -0.22575442
000250 39 13 41 3e 10 c3 39 3e 40 55 3e be 85 e9 d4 3c
       0.18854989 0.18140817 -0.18587208 0.025990257
000260 35 6c 61 3d 91 94 95 bd 2b 9f 1d 3e 37 37 8e 3b
       0.055034835 -0.073037274 0.15392749 0.004340078
000270 3b c7 f1 3d 86 26 d3 bd 5a fd f3 3d fb b9 a1 3d
       0.11805578 -0.10310082 0.11913557 0.07896801
000280 44 63 70 be 48 2b 6a 3d b8 9a 3c 3d 6e e3 2e 3e
       -0.23475367 0.057170182 0.04604599 0.17078945
000290 52 ba cf bd a8 19 01 3e d3 75 3f 3e fc d2 f5 bd
       -0.1014296 0.12607443 0.1869729 -0.12003133
0002a0 53 10 87 3d 8b db 1b 3d 9f f7 e2 3d 4c 49 b8 bd
       0.065949105 0.03805117 0.11082386 -0.08998355
0002b0 dd f1 5c 3e 92 a3 85 bb 4c 18 69 3e 39 bb af 3d
       0.21576639 -0.004078337 0.22763175 0.08580632
0002c0 b9 92 a5 bd 6e 93 77 3e 0f da d6 3d fd 61 01 be
       -0.08084626 0.24177334 0.1049081 -0.12635036
0002d0 4f e2 ae 3c 29 9e 21 3e 35 bf 2b 3d 21 a3 ea bd
       0.021348147 0.1578299 0.041930396 -0.114568956
0002e0 b6 66 bf 3c f2 a9 b5 3a e0 85 08 3d 6d 4b c5 3d
       0.023364406 0.0013859852 0.0333308 0.09633527
0002f0 6e f0 43 be 46 ac 6d 3e b2 ee 07 3e 3d 3f 12 be
       -0.19134685 0.23210248 0.13274649 -0.14281936
000300 c5 da 45 3e ec b0 0d be 81 57 71 be 16 c5 6d be
       0.19321735 -0.13837022 -0.23568536 -0.23219714
000310 05 11 18 3e fd bc 1b 3e 21 87 b8 3d 69 58 88 3c
       0.14850242 0.15208812 0.09010149 0.01664372
000320 b6 05 78 3e ea e7 bd bd 0e 04 68 3e d2 a6 1e 3e
       0.24220929 -0.0927275 0.22657797 0.15493324
000330 ce 33 81 3c 38 ca f8 3d 81 44 00 3e 73 aa 01 bd
       0.015771773 0.12147945 0.12526132 -0.031656694
000340 cd fe 7d bd a2 69 62 be 80 c1 49 3e 62 bf c1 bd
       -0.062010575 -0.22110608 0.1970272 -0.094603315
000350 b8 af e7 3d c8 93 f8 bd b6 e1 76 be 57 b1 74 3d
       0.113128126 -0.12137562 -0.2410954 0.059739437
000360 77 ee 3f bd af a6 a7 bd 69 d9 69 be f1 1e 09 bd
       -0.046858277 -0.08186089 -0.22836842 -0.033476774
000370 c5 e6 0a be c0 df 1f be 54 08 ba bc 58 58 57 3d
       -0.13564594 -0.15612698 -0.02270905 0.052574486
000380 d9 3f 03 bd bf ff 3e bd 31 9f 0f 3e 51 15 26 3e
       -0.03204331 -0.046630617 0.1402557 0.16219069
000390 71 45 f0 bc 5a 04 2d be 8d bd 17 3e 26 61 eb 3a
       -0.029329987 -0.16896191 0.14818402 0.001795803
0003a0 f0 2e da 3d ef c6 1b be d8 fb 9f 3b f8 c4 0d be
       0.10653484 -0.15212606 0.004882317 -0.13844669
0003b0 09 03 26 be cc 3a 64 3e f6 9f 1c be 22 58 66 be
       -0.16212095 0.22288054 -0.15295395 -0.22494557
0003c0 e4 50 69 3e 60 68 32 be 32 29 85 be 74 0b ce bd
       0.22784764 -0.17422628 -0.26007992 -0.10060778
0003d0 19 4c 30 be 22 be 63 be cd de 56 be cb 25 02 3e
       -0.17216529 -0.22240499 -0.20983429 0.1270973
0003e0 1f 8a f2 bd 05 c9 92 3e 20 60 e0 3d c9 b4 b3 3d
       -0.11842751 0.2866899 0.109558344 0.087747164
0003f0 bf 75 50 3e ff 4d 3c be bf 44 ff 3b e4 f6 35 3e
       0.20357417 -0.18389128 0.0077901776 0.17769963

bias_ih_l0 f4 [48]
000000 4e dc c4 bd 94 fc e8 ba c0 f0 78 bd d0 08 76 3d
       -0.09612332 -0.001777547 -0.060776472 0.060066998
000010 cf f7 01 be 13 9a 54 be 67 ee 39 3e d5 29 63 3b
       -0.12692188 -0.207619 0.1815735 0.0034662385
000020 e3 ab 5a 3e 3a b5 3d 3e a4 dd 16 bd 68 d9 07 3e
       0.21354632 0.18526164 -0.036832467 0.13266528
000030 64 42 9d bd d2 08 27 3e 62 fc 39 bd 59 58 c1 bd
       -0.07678679 0.16311958 -0.045406707 -0.09440679
000040 7a 64 0e be 12 11 4a be 5e a6 04 bd 70 5b e8 bd
       -0.13905516 -0.19733074 -0.032385223 -0.11345565
000050 06 7f f9 3c a5 3d 39 3e ac a0 f4 3d d8 ae 11 bc
       0.030456077 0.18089922 0.11944708 -0.008891784
000060 b0 eb 65 be 6e 26 cd bd 1c 45 d3 3d b2 6f e3 3d
       -0.22453189 -0.100170955 0.10315916 0.111052886
000070 72 d2 42 3e 9b 74 12 3e 31 08 24 be 38 5c 8a 3e
       0.19025591 0.14302294 -0.1601875 0.27023482
000080 a4 98 3a be e8 d1 52 3d 43 9a 53 bd 3c 95 5e be
       -0.1822229 0.051469713 -0.051660787 -0.21736616
000090 87 21 b0 3d 93 d1 cd 3d de 40 80 3d 5a dd 72 3d
       0.08600145 0.10049739 0.062623724 0.05929313
0000a0 33 9a 2c bd 9f 60 ed bd 93 f8 8c 3d e2 36 5a 3d
       -0.042139243 -0.11590695 0.06883349 0.053274997
0000b0 f8 15 2b 3e 17 47 a2 3c e6 54 12 be 85 07 fd bd
       0.16707599 0.019809289 -0.14290199 -0.1235495

bias_hh_l0 f4 [48]
000000 82 22 11 be e0 91 17 3e 3d 4d 7b 3e 79 e6 8f bd
       -0.1417332 0.1480174 0.24541183 -0.07026381
000010 68 01 50 bd 11 1a 23 3e 86 e3 11 be 40 be df bd
       -0.05078259 0.15927912 -0.1424695 -0.10924959
000020 61 ac 59 3d 70 3d 2c be 76 4c 05 3d 50 85 3a bd
       0.05314291 -0.16820312 0.032543622 -0.045537293
000030 3c 84 65 3e 8c 0e 3c 3e e3 6a fb bb c9 1d cf 3d
       0.22413725 0.18364924 -0.007672654 0.10113103
000040 2e 47 00 be f8 6a 86 3b e6 c3 c6 bd 5e 3b 0c be
       -0.12527153 0.004102107 -0.097053334 -0.13694522
000050 fb 64 83 be 7e 93 69 be 71 db 0b bc d0 c2 e4 3d
       -0.2566298 -0.2281017 -0.008536206 0.1116997
000060 03 83 61 bd ae e2 88 bd d8 df a8 bd 97 8a 47 ba
       -0.055056583 -0.06683861 -0.0824582 -0.0007611899
000070 30 98 a1 bd f9 56 20 be d1 cd 19 3e 87 15 32 be
       -0.078903556 -0.15658177 0.15019919 -0.17391025
000080 97 2d fb 3b f9 0c 80 bc 5a 31 68 3d 76 4d af 3c
       0.007665347 -0.015631186 0.05668769 0.021399241
000090 bd 1a 13 3d 6f 51 e4 3d ac 41 09 bc 96 5e 72 bd
       0.03591417 0.11148345 -0.008377474 -0.059172235
0000a0 2b 52 02 be d4 df a9 bd a2 22 6e 3e 46 f1 24 be
       -0.12726657 -0.08294645 0.23255399 -0.16107664
0000b0 c1 96 01 bd ba 41 25 3e 84 a1 1b 3e 26 19 2c 3e
       -0.03163791 0.16138354 0.15198332 0.16806468

weight_ih_l0 f4 [48, 36]
000000 d7 73 d8 3d 2c db c5 bd ab 56 98 3d 6a d0 d2 bc
       0.1056897 -0.09660944 0.074384056 -0.025734145
000010 f1 bd b5 bd a5 04 81 bd cd a6 9e 3d 13 7b f2 bd
       -0.08874119 -0.06299714 0.077466585 -0.11839881
000020 07 9d a1 3d 3a 21 76 be 28 20 97 bd 69 ab 35 3d
       0.07891279 -0.24036112 -0.0737918 0.044352923
000030 65 10 35 3e c2 cc 38 bd 26 eb 5c be 96 7f 07 bd
       0.17682035 -0.045117147 -0.21574077 -0.03308066
000040 25 3d 30 3e c8 1c 3d 3e 34 62 04 3e 79 74 9b 3d
       0.17210825 0.1846801 0.12928087 0.07590575
000050 b0 2c 66 3e c8 7b 44 bd ca 40 f8 bd 44 b9 76 bd
       0.22477984 -0.04796961 -0.121217325 -0.060235277
000060 a5 f8 51 3c 9a 46 41 bd d8 90 ae bc 67 b2 5e 3e
       0.012815629 -0.04718647 -0.021309301 0.21747743
000070 8f 80 38 bc 36 75 78 3e 20 b3 1b ba e9 5e 26 be
       -0.0112611195 0.24263462 -0.00059394725 -0.16247143
000080 dc 7d 6c 3e fc 1b 72 3e 5d 78 7b be 5a 04 ce 3d
       0.23094887 0.23643488 -0.24557634 0.10059424
000090 6f 11 87 3d 55 7a 27 3e 25 41 aa 3d 18 65 cb bd
       0.06595122 0.1635526 0.083132066 -0.099313915
0000a0 e7 7d e8 3d 6e 4e f9 bd 04 87 11 3d 40 58 3d be
       0.11352139 -0.121731624 0.03552915 -0.18490696
0000b0 a9 ba 23 3e 1f 78 0e 3a 64 85 0f be 28 2c 10 3e
       0.15989174 0.00054347696 -0.14015728 0.14079344
0000c0 01 51 29 3e 2c 37 0b 3e b3 be 5d be 41 32 6d bc
       0.16534807 0.13595265 -0.21654777 -0.0144773135
0000d0 db 96 74 3e 83 37 09 3e b8 16 23 be 18 9c 1d 3e
       0.23885672 0.13400082 -0.15926635 0.15391576
0000e0 30 ec 45 3d 77 46 07 be de ef b5 3d fe 10 fd bd
       0.04832095 -0.13210474 0.08883642 -0.12356757
0000f0 28 da 35 3d dd 13 dc bd 45 b8 cd bd 1b 70 6b be
       0.044397503 -0.10745976 -0.10044912 -0.22991984
000100 44 6c 2d 3e e3 30 b3 bd 28 58 92 bd b9 74 d1 bd
       0.16935831 -0.08749559 -0.07145721 -0.10227341
000110 42 cd 5b bd ff 1d 1f be dc ce 16 3e b2 d5 ee b7
       -0.053662546 -0.15538786 0.14727348 -2.847132e-05
000120 d9 de d0 3d 5d 11 aa 3d 1c 87 c5 bc 5e 11 e0 3d
       0.10198755 0.08304093 -0.024112277 0.109408125
000130 e6 4a 32 be 5b df 34 3e 7d 58 92 be 64 ed 1a 3e
       -0.17411384 0.17663328 -0.28583136 0.1512962
000140 8a 4e 57 be 4f 9a dc 3a da e6 3d 3e f2 9e f8 bd
       -0.21026054 0.0016830656 0.18545094 -0.121396914
000150 f1 4e 38 3d a9 a6 83 3e 80 9e 4c 3b 86 75 4e 3b
       0.04499716 0.2571309 0.0031222403 0.0031503155
000160 51 d8 0b be f6 cc 21 3d c0 00 66 3c 61 e3 2d 3e
       -0.13656737 0.039502107 0.014038265 0.1698127
000170 11 ae 01 be 49 4d 8d 3d 57 d8 10 3e c3 fd b5 bd
       -0.12664057 0.068995066 0.14145027 -0.08886292
000180 5a b3 2d be 17 d4 22 3e c9 76 3b 3e dd a7 60 bd
       -0.16962948 0.15901218 0.18307032 -0.054847587
000190 07 2c 5d be 7a 29 0d 3e bb b6 27 bd d8 9a 79 be
       -0.21598826 0.13785353 -0.04094575 -0.24375474
0001a0 35 87 1d be 30 de d6 3d ed 27 07 3d 54 b3 d2 38
       -0.15383609 0.10491598 0.03299706 0.00010046983
0001b0 5c 39 09 3c d2 3b 3b bd 22 ce ed 3d 8c 85 21 3e
       0.008375492 -0.045711346 0.11611582 0.157736
0001c0 58 4e 2e 3d 60 56 df 3d 39 4e 71 be 4b a7 68 3e
       0.042555183 0.109051466 -0.23564996 0.22720067
0001d0 38 77 ca 3c c4 13 10 3e f0 e4 0e 3e 09 11 26 3e
       0.024715051 0.1407004 0.1395452 0.16217436
0001e0 f9 52 d6 3c 7d 89 2c bd df 67 7d be 32 07 70 be
       0.026162611 -0.042123307 -0.24746655 -0.23440245
0001f0 6d 8f 22 be e3 e6 a4 bb 31 ef 70 be e6 a4 32 3e
       -0.15875025 -0.0050324067 -0.23528744 0.17445716
000200 1f c0 df 3d 03 3e 0f be 8f 92 4a bd 06 b8 30 3e
       0.10925316 -0.139885 -0.049456175 0.172577
000210 9e fe 5c 3d 63 31 b8 3d 45 a1 12 3e fa 5b 56 3e
       0.05395376 0.08993795 0.14319332 0.20933524
000220 0e 0e 92 3d f9 81 65 3e 8f a4 57 b8 9c b2 e2 3d
       0.07131587 0.22412862 -5.141325e-05 0.11069223
000230 eb 43 e0 3c 7d 18 a3 3d a9 6b bc bd 29 e2 12 be
       0.027376136 0.07963655 -0.09200222 -0.14344086
000240 15 68 ff 3d b3 6c c9 3c e5 83 4f 3e b3 bf 21 be
       0.12471024 0.024587965 0.20265158 -0.15795784
000250 52 ab 7b 3d 66 fd 3a be 22 fd e9 3b d4 84 13 bd
       0.06144268 -0.18260726 0.0071407715 -0.036015347
000260 9c ce f2 3c 5f 48 6b 3e 41 72 4e 3d 19 82 1e 3e
       0.029639535 0.22976826 0.05040193 0.15479316
000270 9a e0 8f bd 77 f0 5d bd e2 f4 0f be 8f a7 c8 3d
       -0.07025261 -0.054184403 -0.14058259 0.09797584
000280 26 94 98 3d 43 36 60 bd 4a 43 c3 3d 89 f6 65 be
       0.07450132 -0.054739248 0.09534319 -0.22457327
000290 76 21 20 3e ed 91 28 be 37 71 3b 3c 41 34 5c 3e
       0.15637764 -0.16461916 0.011440567 0.21504308
0002a0 a0 41 41 be 86 b6 b2 3d 38 39 e7 bb fe 05 0c be
       -0.1887269 0.0872622 -0.0070563816 -0.13674161
0002b0 06 4f 2b 3e 49 3b ec 3c d2 59 97 b9 6a f3 31 bd
       0.16729364 0.028836863 -0.00028867886 -0.04344503
0002c0 bd 8a 61 3e 1b 79 db bc 57 b3 f9 3c 3e 45 1a 39
       0.2202558 -0.026791146 0.030481024 0.00014712379
0002d0 b6 24 89 3e d1 ea 49 3e 67 64 ba 3c c8 ea 57 3e
       0.2678582 0.19718482 0.022752954 0.21085656
0002e0 1a 85 02 3e e2 2b 39 be fc b4 a2 3c 61 e3 de bd
       0.12746087 -0.18083146 0.01986169 -0.10883213
0002f0 f4 90 c3 bd 8c 10 1d 3e d4 e6 19 3e af f2 fc 3d
       -0.09549132 0.15338343 0.1502946 0.12350976
000300 5b b7 0e be 4e a9 04 3e bd c3 1d 3e f2 9f 06 3e
       -0.13937132 0.1295521 0.154067 0.13146952
000310 fa d8 4e bd 43 b1 26 bc e4 51 bc bd bf 16 23 be
       -0.050499894 -0.010174098 -0.09195307 -0.15926646
000320 b7 82 67 3e 6b 3e 6c 3e cd b5 1a be d5 95 80 be
       0.22608458 0.23070686 -0.15108414 -0.25114313
000330 1c 62 2f 3e e3 c4 a5 bc 9e 87 11 3d 79 ea 81 be
       0.1712727 -0.020235484 0.035529725 -0.253742
000340 7a 59 59 be 0e a9 a3 bd 90 7f cd b8 1b 3a 3d 3e
       -0.21225539 -0.07991229 -9.798922e-05 0.18479197
000350 be 7c a1 bc fd 7e 3f be 90 3c 93 3d 46 9c 88 3d
       -0.019712802 -0.18700786 0.07189286 0.06670432
000360 dd d6 61 3e 18 7e c9 3d 5a 3e b2 3b 0d 82 1f 3e
       0.2205462 0.098385036 0.005439562 0.15576954
000370 b3 45 a4 3d 28 cb e2 bd 41 be ae 3d 8b f6 2c be
       0.080211066 -0.11073905 0.08532382 -0.16890924
000380 f1 13 07 3e cc 22 4b 3e 54 49 f1 bd 91 58 f4 bd
       0.13191201 0.19837493 -0.11781564 -0.11930955
000390 1d 3f 03 3e 9f 3c 05 be 22 2b 09 3e 48 9c 2f be
       0.12817045 -0.13011406 0.1339536 -0.1714946
0003a0 54 01 b1 3c 08 17 6b 3e 0a cd 00 3e f3 c6 be 3d
       0.021607079 0.22958004 0.12578216 0.0931529
0003b0 05 46 6c be ec 8d 05 be 29 9a 83 bd d9 1a da bd
       -0.23073585 -0.1304242 -0.06425888 -0.10649652
0003c0 f9 9b 0b 3e a6 1d 91 3d 0a 19 75 3d 4c 58 4c bd
       0.13633718 0.07085733 0.059838332 -0.049888894
0003d0 2f e8 f2 bd 4e a8 6b 3e 78 48 12 3e 72 56 1a be
       -0.11860692 0.23013422 0.14285457 -0.15072039
0003e0 d1 b8 da 3d 82 6c f7 bd f9 ac 27 3c 34 b3 2c bd
       0.10679782 -0.12081243 0.010234111 -0.04216309
0003f0 00 02 6e 3e 19 a4 9c bd c9 bb 5f 3e 69 3c 9f 3d
       0.2324295 -0.07648487 0.21848978 0.07775194

weight_hh_l0 f4 [48, 16]
000000 69 5d 75 be 2d 56 16 be fc cd 2d 3d 22 0f 1d 3d
       -0.23961414 -0.14681311 0.04243277 0.03834451
000010 52 85 18 bc e2 d8 02 be ac 78 dd 3d 2e e0 26 be
       -0.00930913 -0.12778047 0.10814032 -0.16296455
000020 f5 bb 5f 3e ab 7d d5 3d 24 65 b6 bd cc 0b 45 be
       0.21849044 0.1042436 -0.0890601 -0.19242781
000030 44 e3 cf 3d bd 1b d8 bd 77 c8 3f be 88 c1 69 bc
       0.10150769 -0.10552166 -0.18728815 -0.014267333
000040 84 df 6d bd 90 b4 aa bd c4 47 d4 bb 42 85 13 be
       -0.05807449 -0.08335221 -0.0064782817 -0.14406303
000050 e5 93 eb bd ae 21 f3 3a 14 07 13 be e7 cc bd 3d
       -0.11502818 0.0018549466 -0.14358169 0.09267598
000060 27 0c a8 3d f4 e9 16 3e f9 b4 15 ba 0c f2 87 bd
       0.08205443 0.14737684 -0.0005710866 -0.06637964
000070 ba c5 06 be ab 48 72 3d f8 b3 2b 3e a6 a7 73 3d
       -0.13161364 0.059151333 0.16767871 0.059486054
000080 7d bf c5 bb fe 7b 6c bd 19 3d 7c 39 27 ed ac bd
       -0.00603479 -0.057735436 0.00024055353 -0.08443671
000090 48 50 bd bd c5 0b b8 3d eb bd c4 3d 29 d5 2f be
       -0.09243828 0.0898662 0.096065365 -0.17171158
0000a0 c5 68 3f be c3 43 23 3e 2a e1 d1 bd 38 03 0c 3e
       -0.1869231 0.15943818 -0.10248025 0.13673103
0000b0 14 a1 dd bc ef 34 3b 3e 02 48 62 3e 3e 41 8d 3d
       -0.027054347 0.18281911 0.22097781 0.068972096
0000c0 db a0 a8 3d c6 af 22 3e 8a 8b 74 bc 1d d7 e8 3d
       0.08233806 0.15887365 -0.014925847 0.113691546
0000d0 da 58 25 3d 7c 56 0d 3e a3 47 39 3e 1e a7 09 3e
       0.04036794 0.13802522 0.18093733 0.13442656
0000e0 d0 22 88 bd 8b fb b6 3d 0f 55 99 b8 37 53 8c 3d
       -0.06647265 0.08934697 -7.311452e-05 0.068518095
0000f0 99 bb 5d bc 9a c2 51 3b cd e3 47 3e ad 09 15 bd
       -0.013533496 0.003200686 0.19520493 -0.03638618
000100 0c d3 31 be 24 26 92 36 40 ae f1 3c 15 b8 9d 3d
       -0.17365664 4.355579e-06 0.029502034 0.077011265
000110 05 ce 4b bc f8 28 b6 35 62 9b 4a bd 04 12 4d be
       -0.012439256 1.357198e-06 -0.04946459 -0.20026404
000120 9c 79 12 be a1 a0 13 3b f6 e4 f4 bd f0 db b8 3d
       -0.14304203 0.0022526162 -0.11957733 0.09026325
000130 78 11 4d 3d d7 f8 63 3d 40 2c d0 3d 7e c2 e9 bd
       0.050065488 0.055657234 0.1016469 -0.114140496
000140 7e de 92 3b cd 5e 43 bd 8e bb b5 bd 00 b9 a4 bb
       0.0044820895 -0.04769783 -0.08873664 -0.0050269365
000150 3e 6c 42 bd ce 7b 22 3e 8e ec 82 be 70 31 f6 3d
       -0.04746651 0.1586754 -0.25571102 0.12021148
000160 17 4b 8b 3c d9 10 a1 39 5c 38 9d bc ff c6 3f bd
       0.017003579 0.00030720865 -0.019191913 -0.046820637
000170 04 a9 81 bc 20 19 1b 3e 8e 4d fa bc 9a cc a5 3c
       -0.015827663 0.15146303 -0.03055456 0.020239163
000180 28 79 4e be e5 6b d3 3b 9d 4e 48 3d 32 a7 9d bd
       -0.20163405 0.006452071 0.048903096 -0.076979056
000190 fb 25 9a bb 9f a2 e3 3d 5d 14 f5 bd 0b 0b 82 3e
       -0.0047042347 0.11115002 -0.119667746 0.2539905
0001a0 01 c7 e7 3d 3f 37 93 3d e0 13 9e b8 24 f2 f7 3d
       0.11317254 0.07188272 -7.537729e-05 0.121067315
0001b0 09 0d a0 bd 5e f5 75 bc 69 dc 6a be 02 65 4d bd
       -0.07814986 -0.015012113 -0.22935642 -0.050145157
0001c0 0c 23 29 3e 4e 3b 66 bc 09 65 a8 bd bf d4 1c 3a
       0.16517276 -0.014052225 -0.08222396 0.00059826294
0001d0 4e 6a d5 bc 37 aa 8c b7 cb cc b3 3d c5 9d 36 3c
       -0.026051667 -1.6768563e-05 0.087792955 0.011146014
0001e0 f8 96 20 3e ca 90 3a 3d 74 fb 08 39 2f 83 87 3d
       0.1568259 0.045548238 0.00013063644 0.06616818
0001f0 a8 70 f2 b7 78 69 c8 3d 72 9d 22 bd af df 88 3d
       -2.8901108e-05 0.097857416 -0.039700933 0.06683289
000200 32 44 58 be 9e 02 06 3e e0 a1 2e 39 16 32 bd 3b
       -0.21119764 0.13086936 0.00016654236 0.005773793
000210 14 84 76 bd da 45 a0 b7 41 39 0b be f3 a2 19 be
       -0.060184553 -1.9106013e-05 -0.1359606 -0.15003566
000220 3d 06 0e 3d aa 5e 04 39 e0 39 e1 bd b8 cb 7b 3c
       0.034673918 0.00012623766 -0.10997367 0.015368395
000230 bd f7 67 3d 3f f1 12 bd a6 05 8a 3d 12 72 80 bd
       0.056632746 -0.0358746 0.067393586 -0.06271757
000240 ca cd ba 3d 18 d1 0e 3e 12 71 b4 bd e0 9d 08 38
       0.091212824 0.1394695 -0.08810629 3.257196e-05
000250 c9 c4 a4 39 cb ff 89 bd e6 54 bd bd 35 c0 ee 3b
       0.00031427134 -0.06738242 -0.09244709 0.0072860965
000260 d3 cc 3e be cf 22 4c 3b 60 08 20 bd 41 5e 58 3e
       -0.18632822 0.0031148677 -0.039070487 0.21129705
000270 34 fc 62 bd 4c 11 93 bd f4 1e e0 3d af 18 0d bb
       -0.0554163 -0.071810335 0.10943404 -0.0021529605
000280 e9 72 70 3e c4 cb c8 3c 5f 43 e7 3d 2a 51 74 b8
       0.23481335 0.024511226 0.11292147 -5.8249723e-05
000290 ea 37 df 3d c4 1c fa 37 76 6e bb bd 1a ac a9 bd
       0.10899337 2.9815717e-05 -0.09151928 -0.08284779
0002a0 2a 2e aa bd 55 8b 19 be dc 90 85 3b 51 d0 85 bd
       -0.08309586 -0.14994557 0.0040761065 -0.06533874
0002b0 a8 78 6c bc 75 3e 7c bd 6e 4e c7 3d 2c 29 cc b9
       -0.014433064 -0.061583 0.09731756 -0.00038940588
0002c0 6d f0 f5 bd a8 7c bd b8 93 8a 05 3d 9a 25 fa 3c
       -0.12008748 -9.035441e-05 0.032602858 0.030535508
0002d0 34 2f 28 be 80 81 b5 bc 62 62 55 be 65 bc 86 bd
       -0.16424257 -0.022156477 -0.20838311 -0.06578902
0002e0 4e d9 3b be 5d 65 dc bd 70 eb c9 bc 8d 44 67 3e
       -0.18344614 -0.10761521 -0.024648398 0.22584744
0002f0 68 dc 19 be 2a 08 0f 3e 14 3f ec 3c 12 1c 1a be
       -0.15025485 0.13967958 0.028838672 -0.1504977
000300 2e 1e 36 3e 51 31 e7 3c 33 fd b8 bd ee 58 ae bd
       0.1778495 0.028221758 -0.09032669 -0.08513056
000310 f4 35 a5 3b 63 be d0 3c 87 01 3f bd 20 8c 0c 3e
       0.005041832 0.025481408 -0.046632316 0.13725328
000320 2b f8 f9 3b 83 76 13 3e 26 cd e9 bc 4e e0 85 3c
       0.007628461 0.14400677 -0.028540205 0.016342308
000330 2f 95 c6 bc 72 29 66 bc 67 f3 c1 bd 3e 72 85 3d
       -0.024241058 -0.014047967 -0.094702534 0.065159306
000340 70 ac 52 3d c0 0e df bd 29 ff 99 37 db 77 c2 3d
       0.05143398 -0.10891485 1.835784e-05 0.09495517
000350 b8 b4 1d bd aa 6d 98 37 02 a8 81 3d 78 89 c7 3d
       -0.038502425 1.8170878e-05 0.06330873 0.09743017
000360 1e 4f 6d be 76 7d 01 3e 83 2d 97 3d 01 b4 15 be
       -0.23174712 0.12645516 0.073817275 -0.14619447
000370 74 ce 18 3e e7 33 10 be 6d 13 26 3e ee bb 60 bb
       0.14922506 -0.14082299 0.16218348 -0.0034291702
000380 f7 0e e8 bd be 2b f2 37 2e db 10 bc c9 a3 0d b6
       -0.11330979 2.8869017e-05 -0.008841319 -2.1105973e-06
000390 1c 35 f7 bb af 5b b3 3d 32 2e 0d 3e f2 05 e6 bd
       -0.007544173 0.08757722 0.13787153 -0.11231603
0003a0 75 91 e0 3d 48 6e ab bd 06 b0 10 bd da 86 02 3d
       0.10965244 -0.08370644 -0.03532412 0.031866886
0003b0 03 c0 c6 3d 1e 19 19 be f4 a1 9b bd f7 f8 08 3e
       0.09704592 -0.14950988 -0.075992495 0.13376223
0003c0 23 42 2e 3e af f2 d9 3c a9 c2 03 39 bc 69 28 bd
       0.17017417 0.026604978 0.0001256565 -0.04111646
0003d0 24 42 ff bc bd 15 56 3d 37 69 89 bd 2c d4 38 be
       -0.031159468 0.052266825 -0.06709521 -0.18049687
0003e0 88 5d db 3d 60 0a ce bd 14 d8 0d ba 51 7d 1f be
       0.10711199 -0.100605726 -0.00054109213 -0.15575148
0003f0 c7 cb 52 3d d2 8e 0c 3e 5b d6 1a 3e a0 7b b8 3b
       0.05146387 0.13726357 0.15120833 0.0056299716

bias_ih_l0 f4 [48]
000000 00 2b c4 bc 61 2a ba bd d7 38 d4 bd e8 fa 1d 3e
       -0.023946285 -0.090901144 -0.10362404 0.15427744
000010 4c 2b 37 be bd 26 2e 3d 10 07 81 bd fe 7a 80 bd
       -0.1788761 0.042517412 -0.06300175 -0.06273459
000020 9e 71 cf bc 87 b5 9f bd 8c 6e 45 be 99 5c 5d 3c
       -0.025322732 -0.077982955 -0.19280452 0.0135108465
000030 55 4a e0 3d 59 2f f7 bd a9 9b 2b be c7 a2 d3 3d
       0.10951678 -0.12069578 -0.16758598 0.10333782
000040 5b 38 cd 3d 43 b3 0f 3d 44 97 17 be f9 68 3d 3e
       0.100205146 0.035083067 -0.14803797 0.18497075
000050 78 3b 17 3e 85 84 97 3d b5 ea 09 3e f7 e7 c0 bd
       0.1476878 0.07398323 0.1346844 -0.09419244
000060 75 09 24 be 75 e3 09 bd e7 3b 0d 3e f0 be 79 3e
       -0.16019233 -0.033664186 0.13792382 0.24389243
000070 be e3 ae 3d a4 48 6d be 62 3d 9c 3d ce d8 fb bd
       0.08539532 -0.23172241 0.07628895 -0.122972116
000080 6c f1 14 be 0e d0 72 3e bc fb 61 be 09 cf 7a 3e
       -0.1454522 0.23712179 -0.22068685 0.2449304
000090 9c d4 64 be 23 51 13 be c0 7b 56 be fa 94 e7 3d
       -0.22346729 -0.1438642 -0.20945644 0.11307712
0000a0 dc a9 ba bd ac 83 5b be c3 03 72 3e 43 47 60 3d
       -0.09114429 -0.21436948 0.23634247 0.05475546
0000b0 ce 44 ed 3d e1 bd 8e 3c e1 04 63 be b9 a6 42 3e
       0.11585389 0.017424526 -0.2216983 0.19008912

bias_hh_l0 f4 [48]
000000 52 19 6a 3e 46 ca 63 be 96 69 09 be 78 1c 1c be
       0.22861221 -0.2224513 -0.13419184 -0.15245235
000010 7e f3 7a 3e b9 e1 01 be 62 ba f2 bc 1f cc 0f bd
       0.24506947 -0.12683763 -0.02962989 -0.035106774
000020 27 91 87 bd 9f ee e4 bd 85 bb e5 bd 1b b6 0a bd
       -0.066194825 -0.11178326 -0.11217407 -0.033865076
000030 09 6e 91 3d 69 e8 4f be 09 a5 37 be 40 92 91 3d
       0.07101066 -0.20303501 -0.1793405 0.07107973
000040 44 22 bc 3c 78 04 d7 3d c6 c4 fa bd c6 b6 bb 3c
       0.022965558 0.10498899 -0.12244563 0.022914302
000050 52 47 d0 bb ab 2d 04 3e 3f 5c c5 bc 02 1f 7e be
       -0.0063561583 0.12908046 -0.024091838 -0.24816516
000060 27 a2 3a be 5a 24 ac bc 64 ea 04 3e 1b c6 0e 3e
       -0.18225919 -0.021013428 0.12980038 0.13942759
000070 97 98 45 be 47 82 2a be f8 36 56 bd fa 07 81 3c
       -0.1929649 -0.1665126 -0.052298516 0.015750874
000080 0f 57 19 3e 8f e4 13 3e ab ad 07 be 28 43 25 3e
       0.14974616 0.14442657 -0.13249843 0.161389
000090 41 c0 16 be 53 e3 21 bc 2f c5 a9 bc e1 c3 11 be
       -0.14721777 -0.0098808585 -0.020723907 -0.14234878
0000a0 21 c6 53 be 2b 62 66 bd 66 ba 67 3c cc a0 1d be
       -0.20681049 -0.056245964 0.014143562 -0.1539337
0000b0 5c e4 2e be 9a 5d d8 bd 4f 56 6c 3e 6e 58 49 3d
       -0.170793 -0.10564728 0.23079799 0.0491566

weight_ih_l0 f4 [3, 11]
000000 54 b3 4f bf d6 71 26 3f a6 85 e0 be 53 06 17 bf
       -0.8113301 0.6501745 -0.43851966 -0.58994025
000010 0f e8 fc bd ed 83 2d 3f a9 58 42 bf 10 42 17 bf
       -0.12348949 0.6777943 -0.75916535 -0.5908518
000020 35 ea 41 bf 85 2f f7 3e 8a 59 3b 3f d4 ad 4c be
       -0.75747997 0.48278442 0.731835 -0.19988185
000030 45 73 e1 be 1f 79 46 bf 45 fa 63 bf 76 48 23 3f
       -0.44033256 -0.77528566 -0.89053756 0.6378244
000040 d4 06 75 be 39 67 8f 3e df 0e 26 3f 73 28 26 3f
       -0.23928386 0.2800844 0.6486644 0.6490547
000050 6d b6 73 3f dc 2a e7 3e 7a 23 68 3f b3 93 1d bf
       0.95200235 0.45149887 0.9067913 -0.61553496
000060 d5 c9 5c bf 1a f6 5e 3f 3b 27 3e 3f d4 af 72 3f
       -0.8624547 0.8709427 0.7427861 0.9479954
000070 20 8b 39 3d 99 3e 3a bf c9 c5 bb bd 30 82 54 be
       0.045298696 -0.72751766 -0.09168584 -0.20752788
000080 31 bc a4 be
       -0.3217483

weight_hh_l0 f4 [3, 1]
000000 cf c1 76 be d8 22 1b 3f 23 d2 cc 3e
       -0.2409737 0.6060004 0.40004072

bias_ih_l0 f4 [3]
000000 06 82 8b be 7a 95 46 3f c7 21 32 3c
       -0.27247638 0.77571833 0.010872311

bias_hh_l0 f4 [3]
000000 cf 40 1c be 7a 05 35 bf 27 41 a5 be
       -0.15259098 -0.7071148 -0.3227627

weight f4 [1, 16]
000000 bc 50 ee 3b fe d3 ca 3d aa 5d 03 3e 7f 4e ad bd
       0.007272808 0.099037156 0.12828699 -0.084622376
000010 b8 e5 d8 3d 86 83 41 3d ac 43 00 b8 83 91 3e 3c
       0.105906904 0.04724457 -3.0580602e-05 0.011631372
000020 08 64 0b 3d 0a 5d 0b bd a8 89 b7 3d eb c1 20 3e
       0.034030944 -0.034024276 0.08961803 0.15698974
000030 a2 47 18 3c 25 23 e0 38 da 0b f8 3a 89 68 cb 3d
       0.009294422 0.000106876985 0.001892443 0.09932048

weight f4 [680, 17]
000000 94 f2 0b be f4 20 19 3e e0 ad c8 3d a9 cc f1 3d
       -0.13666755 0.14953977 0.09798789 0.11806614
000010 45 1f 3a 3d 01 c5 11 3e b4 ed cf 3d 6e ee 52 be
       0.045439977 0.14235307 0.1015276 -0.20598766
000020 f7 cf 7a be 55 f6 8d 3d 72 69 6a 3d f8 cf 01 be
       -0.24493395 0.0693175 0.057229467 -0.1267699
000030 ff c5 51 be ee 52 86 3d df 37 e0 bd be d9 04 be
       -0.20485686 0.06558786 -0.109481566 -0.12973687
000040 d7 5a 26 3e 9e 39 84 bc c3 94 09 3d be 92 84 bc
       0.1624559 -0.016140755 0.033589136 -0.016183253
000050 f4 35 2a 3e 00 92 e3 bc e0 3d ec bb 64 a2 ae 3d
       0.16622144 -0.02777958 -0.0072095245 0.08527067
000060 6e 06 60 be 0d 2f 3c 3e f3 7b 97 bc 26 62 ad bd
       -0.21877453 0.18377323 -0.01849172 -0.08465986
000070 78 7e 14 3e 10 ac cc bd 22 31 e6 3c 9c b5 71 3e
       0.14501369 -0.09993756 0.0280996 0.23604435
000080 6f ac b6 3c 54 c9 ab 3d a7 00 50 be 7c a3 05 3e
       0.02229902 0.0838801 -0.20312749 0.13050646
000090 2f 58 8f bd 1c 2f 52 3e 00 9c 4c 3e d8 1e 72 be
       -0.069992416 0.20525783 0.19981384 -0.23644578
0000a0 7d b6 90 bd ee 40 4d bd 44 96 68 3e 3a 37 15 3e
       -0.07066057 -0.05011075 0.22713572 0.14571849
0000b0 7c 2e c4 bc 1e c8 ce 3b 0f 10 56 be 0b a0 f0 bd
       -0.023947947 0.006310477 -0.20904563 -0.11749276
0000c0 98 26 be bc 55 ed 34 3e 41 29 8d 3c cb bd 3e be
       -0.023211762 0.1766866 0.017231585 -0.18627088
0000d0 a7 31 c2 bd 5f 9c ef 3d cc cf 7b bd 94 cc 22 be
       -0.09482127 0.11699747 -0.061477467 -0.15898353
0000e0 fc 8a 08 be e2 a7 8e bd 3a d4 99 3c 75 c1 89 3d
       -0.13334268 -0.06965615 0.018777955 0.06726352
0000f0 de ca 0f 3e 9d d4 ea 3d 54 47 80 bd ee ad f0 bd
       0.14042231 0.11466334 -0.06263605 -0.117519245
000100 d2 7d 55 3d 87 82 11 be 83 dd b7 bc 8a 53 71 bd
       0.052121945 -0.14209948 -0.022444492 -0.05891756
000110 91 3a 4f 3e 26 0e 2c 3e 51 1b 88 bd e4 91 0e be
       0.20237185 0.16802272 -0.06645835 -0.1392284
000120 21 8c 55 be 26 cd 92 3b dd 58 65 be b4 b5 99 3d
       -0.20854236 0.004480022 -0.2239718 0.0750536
000130 5f 13 45 3e f7 a1 e0 3d 1c 4c e8 bd 08 3c d8 3d
       0.1924567 0.10968392 -0.11342642 0.10558325
000140 fe 21 5e 3e 99 8a e3 3d 21 60 d9 bc a8 d1 46 3e
       0.21692654 0.1111042 -0.026535096 0.19415915
000150 30 15 f7 3d 4d 7e 26 3e a3 5d 05 be b1 17 2c 3e
       0.12064588 0.16259117 -0.13024001 0.16805913
000160 f4 25 9f 3d c8 22 5a 3d ba 68 36 3e 5f e3 58 3e
       0.07770911 0.053255826 0.17813388 0.21180485
000170 d4 14 82 bd b4 b0 0c be 76 4e 78 3e 01 38 27 be
       -0.06351629 -0.13739282 0.2424868 -0.16329958
000180 8f ae 25 3e 6d 11 68 be c0 24 41 bd 0b b6 65 be
       0.1617987 -0.22662897 -0.04715419 -0.22432725
000190 02 f6 d7 bd ce bb 5b be 20 62 40 bd 74 fa 08 3e
       -0.10544969 -0.2145836 -0.04696858 0.1337679
0001a0 18 e3 3b be d5 cc 67 3c 96 f0 38 be 42 03 08 3e
       -0.18348348 0.014147957 -0.18060526 0.13282493
0001b0 67 2b 23 be 6c 4f 1a 3e 27 a7 8e bd 47 c2 44 3e
       -0.15934525 0.1506936 -0.069654755 0.19214736
0001c0 b0 ab f8 3d eb d4 ad 3d 16 d3 68 bd e0 94 63 be
       0.12142122 0.084878765 -0.056841932 -0.2222476
0001d0 b0 b1 f4 bd 0b 83 10 be a9 2c 7c 3d 50 b6 51 3e
       -0.11947954 -0.14112489 0.06156603 0.20479703
0001e0 96 b2 59 be 49 9b 12 be 9f 5a 21 3d de 73 82 bb
       -0.21259531 -0.14317049 0.039393064 -0.0039810976
0001f0 c1 14 a9 3d eb de 38 be 7f f6 e1 3d 60 94 f9 3b
       0.082559116 -0.18053786 0.110333435 0.0076165646
000200 aa 63 67 be e1 79 ae 3d 01 1a 63 bb 09 f5 cd bd
       -0.22596613 0.0851934 -0.003465295 -0.10056502
000210 ad 0f 56 3e 92 db 29 be 81 84 3e bb a4 b8 56 3e
       0.20904417 -0.16587666 -0.0029070678 0.20968872
000220 53 82 bd 3b 3c d4 ed 3b f1 d0 6a be 2e 7e bc 3d
       0.005783358 0.0072579663 -0.22931267 0.09203754
000230 7c 71 44 3e 93 6c c6 3d 80 95 51 bd ce fe 5a be
       0.19183916 0.09688678 -0.051167965 -0.21386263
000240 4f 6d 1e be b2 f8 0a 3e ea 2f 49 3e 53 a4 36 3d
       -0.15471385 0.13571432 0.19647184 0.044590306
000250 0c 84 07 3e b8 d8 63 be 39 a5 1e 3e 06 de 1b 3e
       0.13233966 -0.2225064 0.15492715 0.15221414
000260 6f 3a b6 bb 64 f0 3b be bd 0c 6a 3e 2e c0 8d bd
       -0.005561165 -0.1835342 0.22856422 -0.06921421
000270 9e 7d 4a be 7d 4c 57 3e c6 f5 bf 3d 59 44 59 3e
       -0.19774482 0.21025272 0.093730494 0.21217479
000280 6e 9c 09 3e f0 6c df 3d 78 29 88 bd 62 b5 00 bc
       0.1343858 0.1090945 -0.066485345 -0.007855745
000290 d9 40 86 3c 68 51 51 3e 4c e9 3d be bd 4f 8a bd
       0.016388344 0.2044121 -0.18546027 -0.0675349
0002a0 54 ec 27 be f2 66 37 3d ca 32 43 3e ec 28 8e 3d
       -0.16398746 0.04477591 0.19062343 0.06941399
0002b0 e8 8c 14 3c 82 5a 12 be 6a 8f 27 3e 65 7c 47 3e
       0.009066798 -0.14292338 0.16363302 0.19481046
0002c0 08 f0 55 be a0 93 1d 3e 89 be 61 3d 13 25 b2 3d
       -0.20892346 0.15388346 0.05511335 0.086984776
0002d0 1c 5b 0c be c3 40 e8 b9 fa 60 d3 bb b5 b3 98 3d
       -0.1370663 -0.0004429874 -0.0064507695 0.074561514
0002e0 46 0b 14 be 8d fc 56 3e 4a 43 76 bb b4 96 d7 3c
       -0.14457425 0.20994778 -0.0037576729 0.026316978
0002f0 70 29 91 bd f8 b9 4e 3e 79 91 2e 3d d7 ab 21 3d
       -0.07087982 0.20188129 0.042619202 0.03947052
000300 df 85 49 be df c5 45 be 93 c6 1f 3e 32 c0 7d 3b
       -0.19679974 -0.19313763 0.15603094 0.0038719294
000310 1b ae 35 be 9b f3 23 3d 9f 93 22 be b0 eb 8c bd
       -0.17742197 0.040027242 -0.15876625 -0.06880891
000320 df 60 2a 3e 17 11 29 3e 6c 09 33 3e 87 01 29 3e
       0.16638516 0.16510426 0.17484063 0.16504489
000330 c4 2b 67 be 6f 66 d8 3d be 48 e3 3d e0 9b 33 be
       -0.22575289 0.10566413 0.11097859 -0.1753993
000340 d6 ad 62 be 77 cb 01 3e fb 35 52 bd 66 16 68 3d
       -0.22136626 0.12675272 -0.05132101 0.056661986
000350 fa bf 8a bc 4e b0 70 be bb 0b 36 be 57 08 13 3d
       -0.016937245 -0.23504755 -0.17777912 0.035896625
000360 58 a5 88 bd 68 e1 21 3e b4 11 f0 bd 14 df d2 3d
       -0.06672162 0.15808642 -0.117221266 0.10296455
000370 4f 2d 9b 3d 48 25 25 3d 68 fe 2c bd 3a bc c1 3c
       0.07577001 0.040318757 -0.04223481 0.023649324
000380 39 06 61 bc 8a 3f 23 3e 5b 78 d2 bd e8 5b 50 3e
       -0.013734394 0.15942207 -0.10276862 0.2034756
000390 95 22 02 3e ef c1 89 3d b7 29 2a 3e 29 4e 41 be
       0.12708504 0.06726443 0.16617475 -0.18877472
0003a0 86 e5 2f be 1a ee 3e 3e a4 a7 24 3e b9 2c 5c bd
       -0.171774 0.18645516 0.16079575 -0.05375359
0003b0 35 6c 12 3e f7 38 e2 3d c6 0d 51 3d 12 fc 53 be
       0.1429909 0.110460214 0.051038526 -0.20701626
0003c0 71 f9 bc 3c 40 74 5b bd 90 e7 d9 bd 51 62 5c be
       0.023068162 -0.05357766 -0.1063987 -0.2152188
0003d0 bb b0 64 be f8 f4 55 3e 09 10 54 3e a8 17 68 be
       -0.22333042 0.2089423 0.20709242 -0.22665274
0003e0 66 eb 21 be 3a 06 3f be ee 06 c2 bc 8a ca 01 3e
       -0.15812454 -0.18654719 -0.023684945 0.12674919
0003f0 1a a1 21 be a0 47 a8 3d 34 90 db 3d 79 07 14 3e
       -0.15784112 0.082167864 0.10720864 0.14455976

bias f4 [680]
000000 f8 45 94 3d 64 3c 31 3e 5c 23 ba 3c 8f 62 bf bb
       0.07239908 0.17308193 0.022721939 -0.0058406065
000010 dd 82 00 bd 33 ac b6 3c df 89 4e 3e 52 2f cb bd
       -0.0313748 0.022298908 0.20169781 -0.09921135
000020 cc 61 46 bb 34 55 5e 3e 97 21 f8 bc b9 96 c7 3c
       -0.0030270694 0.2171219 -0.030289454 0.024363862
000030 9e a8 34 3e 5c f6 2c 3e e5 c1 88 3d 8f 3c 32 be
       0.17642447 0.16890854 0.066776074 -0.17405914
000040 54 4c e2 3c 5a 5a d5 bc 4a 54 0d be 38 4c 99 3c
       0.027624287 -0.02604406 -0.13801685 0.018713102
000050 d0 19 50 be 05 45 e8 bc 31 90 03 3e c4 d8 0d 3e
       -0.20322347 -0.028353224 0.12847973 0.13852221
000060 e7 9c 13 3d 20 f3 16 3e ef 2f 7e bb e3 bb ec ba
       0.036038306 0.14741182 -0.0038785895 -0.0018061366
000070 0a 45 4d 3e 93 ad 65 3e 1b 55 47 3e 0e 31 81 3c
       0.20045868 0.22429495 0.19466059 0.015770461
000080 e4 62 84 bd 7f 2e 5c bd 54 25 28 bc ef be d8 3d
       -0.064641744 -0.05375528 -0.010262806 0.10583293
000090 59 ea 0f bc be 0b f3 3d b0 91 97 bd 6c d3 04 3e
       -0.0087839 0.11867474 -0.074008346 0.12971276
0000a0 65 45 29 3d 12 6c 03 be 3b 60 4d 3e 13 dd f1 bd
       0.041325945 -0.12834194 0.2005624 -0.11809745
0000b0 bd 4c 89 bd 1b cc a1 3a 18 29 4b bc 6a c7 5b bb
       -0.0670409 0.0012344153 -0.012399934 -0.0033535608
0000c0 f9 3c 39 3e d2 33 f2 3b 6f 51 ef bc a0 b3 b2 3d
       0.18089665 0.0073914314 -0.029213635 0.08725667
0000d0 99 c4 04 be 2e ab f4 3d ed b2 08 be ca c0 3b 3e
       -0.12965621 0.119467124 -0.13349505 0.18335262
0000e0 4c de 34 bd a8 91 4d 3e 96 a3 73 3e ae a8 11 3e
       -0.04415731 0.20075095 0.23792872 0.14224502
0000f0 7c ec 8e bd 7d ef 71 3e ea bf f4 3d eb 4f 07 3e
       -0.069786996 0.23626514 0.11950667 0.1321408
000100 ab a0 0e be a9 c1 fe bd 98 05 40 3d 50 73 ba bd
       -0.13928477 -0.124392815 0.046880335 -0.09104025
000110 a7 ea 42 3e 3a dd 24 3e d3 31 1f 3d 8a 11 56 3d
       0.19034825 0.16100016 0.038865875 0.05226282
000120 db a6 48 3e 60 6b a9 3c b6 46 38 3e 7f 63 58 3e
       0.195949 0.020681083 0.17995724 0.21131705
000130 3d 2a 0e bb 4b 9a 13 be 66 37 16 bd b0 f6 2f 3e
       -0.0021692656 -0.14414327 -0.036673926 0.17183948
000140 3c 5d 77 bd dd 80 a1 bd 02 1f 27 bc 98 9d 9b bc
       -0.06039165 -0.07885907 -0.010200264 -0.018996045
000150 5b d9 ac 3c 5d e2 77 be fb 8a 07 3d 37 92 4d be
       0.021099737 -0.24207444 0.033091526 -0.20075308
000160 fe d5 59 3e 93 04 17 bd 59 1b 73 bd d5 92 91 3c
       0.21273038 -0.036869597 -0.059352253 0.01777021
000170 57 1d a7 bc 13 8a c0 3d 0c ef 69 3e 94 2a 13 3d
       -0.020399733 0.094013356 0.22845095 0.035929278
000180 35 b6 b4 bc fb 2e 6f bd b6 c8 5d 3d 38 75 05 3e
       -0.02205954 -0.058394413 0.05414649 0.13032997
000190 f3 96 85 bd 9b 04 66 bd 71 a2 6c b9 3b c9 4d 3d
       -0.06522932 -0.056156736 -0.00022567228 0.050240736
0001a0 9e 92 9f 3c 9f 25 f7 3d c2 8f 33 bd 33 8e 81 bc
       0.019479092 0.120677225 -0.04383827 -0.015814876
0001b0 85 bc 60 3e 99 24 de bd 0c b7 4f 3c e8 a2 5a 3e
       0.21946914 -0.10846824 0.012677919 0.21351206
0001c0 4c 59 de bd 5c 81 ef 3d f4 4f 3a 3d 18 e2 03 3e
       -0.10856876 0.11694595 0.045486405 0.12879217
0001d0 a3 13 eb bd 46 32 1c bc 81 3b 1c be 03 c8 0b bd
       -0.11478355 -0.0095334705 -0.15257074 -0.034126293
0001e0 9b b3 17 be d7 20 4e 3e e7 3a 0e 3e 94 26 20 bc
       -0.14814608 0.20129715 0.13889657 -0.009774823
0001f0 0e 0e 32 bc ed 95 bb 3d 62 f9 6f 3e 31 4e 0d be
       -0.010867609 0.091594554 0.23434976 -0.13799359
000200 8f e0 13 3e 83 10 47 be 66 8e 45 3e ec cc 8b 3d
       0.14441131 -0.19439892 0.19292602 0.06826195
000210 d1 90 a1 bd b5 12 ec 3d b1 21 6e 3e 3b 5b 1f bc
       -0.0788895 0.115270056 0.2325504 -0.009726341
000220 64 1e f4 3d 22 64 a1 bd 1f fe 01 bc 1b 6e 11 be
       0.11919859 -0.07880427 -0.007934122 -0.14202158
000230 75 2d 3c bd e6 82 6b be d9 21 dd bd d9 61 18 be
       -0.04594179 -0.22999153 -0.107974716 -0.14881076
000240 b8 48 48 3c 1c 6f 2d 3e 18 3d 03 be f0 33 02 3e
       0.012224369 0.16936916 -0.12816274 0.12715125
000250 e3 28 53 bd a7 a2 7a bd db 07 11 3e 21 fa c6 bd
       -0.051552664 -0.061190274 0.14163153 -0.09715677
000260 a2 ad 63 3e 7a af 8f bd 29 3b 70 3e 27 21 99 ba
       0.22234204 -0.070158914 0.23460068 -0.0011682854
000270 cb 8e ca bd 51 c1 93 bd 9d 80 33 bd 1e 44 9b 3d
       -0.09890517 -0.072146066 -0.043823827 0.07581352
000280 e0 09 02 be 5f d7 60 bc 2c 9c b8 bb d7 05 1c 3e
       -0.1269908 -0.0137232235 -0.0056338515 0.15236603
000290 f6 c8 4f 3e bb 5e fa 3d 67 5c 52 3e c6 12 1a 3d
       0.20291504 0.122251 0.20543061 0.03761556
0002a0 ee c9 a8 3d ed 20 52 3e 98 8a 04 3e f4 b7 66 bc
       0.0824164 0.20520373 0.12943494 -0.014081944
0002b0 6e 54 13 3e 4d bc 55 3e 41 c5 69 3e 19 db d6 bd
       0.14387676 0.20872612 0.22829153 -0.10491008
0002c0 fd 3c d9 bd 0d 13 09 3e 87 70 68 3e 25 52 a6 bd
       -0.10607336 0.13386174 0.22699176 -0.081211366
0002d0 01 7d 74 bc 8a f0 f1 3d 86 fa 08 3e b2 56 97 bd
       -0.014922381 0.11813457 0.13376817 -0.07389583
0002e0 31 d1 9e bc c1 c9 b4 3c f8 f2 7e bd 97 51 21 3e
       -0.01938686 0.02206886 -0.06224343 0.1575378
0002f0 2b 3c 13 3d b1 38 0a 3e 93 97 70 bd ae 13 b0 3b
       0.035946053 0.13498189 -0.058738302 0.0053734398
000300 a0 b0 75 be 11 40 90 bc 6e 93 0e bd 8a fc 17 3e
       -0.23993158 -0.017608674 -0.03480857 0.1484243
000310 e9 bd a6 bd aa 02 70 3e 46 ac 1d 3e 97 71 a0 ba
       -0.08141691 0.23438516 0.15397748 -0.0012240884
000320 33 58 54 3d dc 98 ff bc 03 1e b0 3d ed fe 1a be
       0.051841926 -0.031200819 0.08599474 -0.15136309
000330 28 55 58 bd 4f 4a 25 3d 38 34 0b 3e 22 98 2d 3c
       -0.052815586 0.04035407 0.13594139 0.010595353
000340 36 9e af bd d7 23 f2 3c ea fb 1a 3e e0 fc 9c bd
       -0.08575098 0.029558105 0.1513516 -0.076654196
000350 8b 65 fb 3d 13 25 9f bd 5c 97 d3 bd 5e 98 be 3d
       0.12275227 -0.07770743 -0.10331604 0.093064055
000360 44 3b 41 bc c2 8b df bd 0e 84 12 3c 4a 4d 85 bd
       -0.011793915 -0.109153286 0.008942617 -0.06508882
000370 81 58 23 be 88 da 9e 3c ae e7 5b 3e c7 3f 64 3e
       -0.1595173 0.019391313 0.21475098 0.22289954
000380 7d f4 0d 3e 56 f1 6a bc 9a c3 32 3e 1f 62 88 bc
       0.13862796 -0.0143397655 0.17457429 -0.01664835
000390 16 9d 1e 3e c4 90 63 3d af 28 64 3e 86 a0 ba bd
       0.15489611 0.05555798 0.22281145 -0.09112649
0003a0 08 d3 02 3e 9b a8 e5 3d ae 31 0b be 60 14 1e 3e
       0.12775815 0.112137996 -0.1359317 0.1543746
0003b0 4a 1d 75 bd 45 73 0d 3e c2 02 54 bd 6a ca 12 3e
       -0.059842385 0.13813503 -0.051760443 0.14335027
0003c0 c6 89 73 bc 55 2e 40 bd 60 3b 28 bd 47 f8 20 be
       -0.014864391 -0.046919186 -0.04107225 -0.1571971
0003d0 cb e4 15 be ab 81 5d bd e0 81 04 3e 4d a5 8a 3d
       -0.14638059 -0.05407874 0.12940168 0.0676981
0003e0 01 ab 03 be d2 d6 b6 3d 94 fb 36 3c ec 53 a7 3d
       -0.12858202 0.089276925 0.011168379 0.08170304
0003f0 88 b3 03 be a4 c1 14 be bf 60 6f 3e a9 ae bd bd
       -0.12861454 -0.14526993 0.2337675 -0.092618294
