estimators/knet/single_obs/MSE_ep100_train4000_val1000_test10000_lr5e-04_wd1e-05_ri[4, 4, 1, 1]_data_sr1e-01_q1e-04_r1e-03_j5_train[500,100]_val[100,100]_test[100,100].pt (torch, 155057 bytes, 40 tensors)

weight_ih_l0 f4 [48, 20]
000000 75 92 35 be 15 f4 02 be 30 cc 76 3e 40 29 c5 bd
       -0.1773165 -0.12788422 0.24101329 -0.096270084
000010 7f fe 1c bd 92 19 35 be c7 47 7d 3d 98 c0 03 be
       -0.038328644 -0.17685536 0.06183603 -0.12866437
000020 5b 2f 05 3e 88 09 c3 bd 55 0e 01 be 7c 8a c5 bd
       0.13006346 -0.09523302 -0.12603123 -0.096455544
000030 89 ef 76 3d f7 bd 0d 3e de 6f 0e 3e 85 af 96 3d
       0.060287032 0.13841997 0.13909861 0.073576964
000040 d3 26 3b 3e 6b 30 84 3e 44 4c ba bd d2 f7 86 bd
       0.18276529 0.2581819 -0.09096578 -0.06590237
000050 c0 ac 98 3d ee 8e 3b 3e 7d ad 58 be 90 60 e4 3d
       0.074548244 0.18316242 -0.2115993 0.1115123
000060 3a 76 04 3e 90 90 e3 bd 16 86 50 3e ff 3c 8b 3e
       0.12935725 -0.111115575 0.2036365 0.27194974
000070 bb 08 70 be 65 2c d4 bd da 63 f9 3c 29 c5 62 3e
       -0.2344083 -0.1036003 0.03044312 0.22145523
000080 47 af 0a bd 99 ac a3 3d 46 b0 9d bb 0f 0c 52 be
       -0.033858564 0.07991905 -0.004812273 -0.20512412
000090 eb 05 09 be c5 64 50 3d 19 d4 ac bc 6f 31 60 3d
       -0.13381164 0.05087735 -0.02109723 0.054734644
0000a0 5a 97 08 be 90 00 64 be 09 7c 04 3e 63 a8 c1 bd
       -0.13338986 -0.2226584 0.1293794 -0.09455945
0000b0 cf fb c2 3d a7 fb 75 3d cf 45 3e 3d 86 4a 59 be
       0.09520685 0.060054448 0.046453293 -0.21219835
0000c0 d1 78 38 be 22 5c bf bd 03 0e 69 be 7d 6f 17 be
       -0.18014838 -0.09343745 -0.22759251 -0.14788623
0000d0 35 4a 30 be f8 c2 23 3e f7 fa ea 3d 03 4c 04 be
       -0.17215808 0.15992343 0.11473649 -0.12919621
0000e0 38 1d 3a be 1a f6 30 3e 1e 34 60 be 9c 3d 97 bd
       -0.18175209 0.1728138 -0.21894881 -0.07384798
0000f0 c3 12 a2 3d 64 36 fd bd 96 a6 f3 3d 19 09 1f 3e
       0.07913735 -0.1236389 0.11897008 0.15530814
000100 5e 00 b6 bd 95 ba bb bc 20 dd 1f 3d e9 8a f6 3d
       -0.08886789 -0.022916118 0.03902924 0.12038214
000110 43 8f 55 be 65 8d d0 3d fe 3e 25 3e 45 3b 3a be
       -0.20855431 0.10183219 0.16137311 -0.18186672
000120 9c 29 34 bd 33 17 c9 bd b0 95 9a 3d 3f 25 ef bd
       -0.043984994 -0.09818878 0.07548082 -0.11677026
000130 6c 8c 36 3d 43 2b 0a be c7 31 2a 3e c3 63 73 3e
       0.04456751 -0.13493066 0.16620551 0.23768525
000140 f9 a2 26 3c 0c 4f 5d 3c f7 a9 09 bd 81 83 52 3e
       0.010170692 0.013507616 -0.033609357 0.20557977
000150 0d 8e 21 be 5c 19 b3 bd 4d 4e 3a 3e 66 6d 5a be
       -0.15776844 -0.08745071 0.18193932 -0.21330795
000160 6f 8d 1e be e4 a0 c4 ba 6d 30 e1 3d 41 1e 4b be
       -0.1548364 -0.0015001562 0.109955646 -0.1983576
000170 04 43 a3 3d bd a3 0c bc 1d cc 81 3d a4 d6 4b 3e
       0.079717666 -0.00858396 0.0633776 0.19906098
000180 70 34 a9 3c 70 fb ac bd e8 17 4f be 6f 1c 3d bd
       0.020654887 -0.084463954 -0.20223963 -0.046169695
000190 64 a8 84 bd e5 6f 44 be 6e e5 28 be fb 11 ab bd
       -0.064774305 -0.1918331 -0.1649377 -0.08353039
0001a0 0e 18 e6 3d 5a cd 3a bd 4b ac 27 bd 5b d1 89 3e
       0.11235057 -0.045605995 -0.040935796 0.26917538
0001b0 9c 60 36 be 32 de 05 bd 27 6b 1d be b0 39 29 be
       -0.17810291 -0.032682605 -0.15372907 -0.16525912
0001c0 70 f4 b3 bd 3d 20 14 3e 8e b3 fe 3d b7 c6 cf bd
       -0.08786857 0.14465423 0.12436591 -0.10145324
0001d0 f9 6b b9 bd f4 ab 03 bd 31 d9 88 3c f8 15 ec 3d
       -0.09053797 -0.03214641 0.016705127 0.11527628
0001e0 fe 3d ec 3d 42 ad 3b be c0 7b 92 bc bc 1f 3b be
       0.115352616 -0.18327811 -0.017881274 -0.18273824
0001f0 ad c4 e5 bc b3 94 52 bd 4d b7 f6 3b 19 64 14 bb
       -0.028047884 -0.051411342 0.0075291754 -0.002264267
000200 d0 54 cd bd 34 c5 e2 3c 4c 58 a3 bd 75 ef 23 3e
       -0.10025942 0.027681924 -0.07975826 0.16009314
000210 f6 df 76 3e 7a 12 83 be d8 b8 31 3c f9 64 c6 bd
       0.24108872 -0.25600034 0.010847293 -0.09687228
000220 65 4a 36 3e 64 fc 60 3e bb 7c 24 be e7 96 68 be
       0.17801817 0.2197128 -0.16063206 -0.22713815
000230 14 18 40 be 68 a9 fd bd 8c 57 b4 3d bf 49 57 3e
       -0.18759185 -0.12385827 0.08805761 0.21024226
000240 2d 14 16 bd e3 ee 86 be f2 76 ba bc d9 6f f6 3d
       -0.036640335 -0.2635413 -0.022761796 0.12033052
000250 50 83 3a be 38 f3 29 bd f8 c7 ac 3d b9 7c 47 3e
       -0.18214154 -0.041491717 0.084365785 0.19481172
000260 0e 12 09 be 50 92 84 bd 5d e3 2e be 7b ff e8 3d
       -0.13385794 -0.064732194 -0.1707892 0.11376854
000270 f6 1d 22 be 67 b8 1b 3e 23 f5 b3 bd 50 a6 25 be
       -0.15831742 0.15207063 -0.087869905 -0.16176724
000280 24 78 86 bd 20 01 91 ba 51 b6 b7 3d c3 cf 44 3d
       -0.06565884 -0.0011062957 0.08970321 0.0480497
000290 2b 05 6a be 76 b3 41 be 4c c0 99 bc 85 83 cb 3c
       -0.22853534 -0.18916115 -0.018768452 0.024842987
0002a0 4e 33 ef bc bb f3 dd bd 5c 55 b2 3d b6 c3 b4 bd
       -0.029199269 -0.108375035 0.08707687 -0.088263914
0002b0 80 1c 04 be 87 c7 53 3e 15 00 3e be d4 3b dc 3c
       -0.12901497 0.20681582 -0.18554719 0.026883997
0002c0 34 4f 2f 3d 71 c1 0e bd 58 e6 a9 bd 0c 04 52 be
       0.042800143 -0.03485245 -0.08295888 -0.20509356
0002d0 3e e0 82 3e 76 31 c8 3d 02 26 36 be 95 62 e1 3d
       0.25561708 0.09775059 -0.17787936 0.11005131
0002e0 eb 2c 49 bd 84 eb df 3c e8 e5 a0 bd 99 33 06 bd
       -0.049115103 0.027333982 -0.07856351 -0.03276405
0002f0 ac 30 67 be 64 6f 36 bd cc 56 80 be 01 21 cf 3d
       -0.2257716 -0.044539824 -0.2506622 0.10113717
000300 cf 18 14 3e 02 29 88 3c db b0 02 3d dc e6 8d 3c
       0.14462589 0.016621117 0.031906944 0.017321996
000310 35 c8 05 be 3b 49 13 be 2e 96 0e be 6b 9d 65 be
       -0.13064654 -0.14383404 -0.13924477 -0.22423331
000320 1a 71 41 3e be 70 62 be 54 0e a2 3d 97 35 6f be
       0.18890801 -0.2211332 0.07912889 -0.23360287
000330 3c 1b ce 3d 65 42 93 3c 40 6d 6a bb 05 59 1b 3e
       0.10063788 0.017975995 -0.0035770684 0.15170677
000340 15 1d a6 bd cc 40 00 b8 96 fb 63 3e 38 b3 fd 3c
       -0.08111016 -3.0577925e-05 0.22263941 0.030969247
000350 eb 98 12 3e bc b5 08 bd 08 26 27 be 40 cc 08 be
       0.14316146 -0.03337644 -0.16323102 -0.13359165
000360 e3 ee 93 3c e0 05 5a be 78 92 04 3e e6 db 9d bb
       0.018058246 -0.21291304 0.12946498 -0.0048174737
000370 fa a6 78 3d fe 0a 24 be d2 f2 4c be 6c 5d 19 bc
       0.060706116 -0.16019818 -0.20014504 -0.009360652
000380 76 e7 9c 3d 8a b5 7c 3e ea dc 53 3e 48 83 f0 3d
       0.07661335 0.24678627 0.20689741 0.1174379
000390 93 86 13 3e d4 c6 32 be 32 34 f2 bc 63 2c 4d 3e
       0.14406805 -0.1745866 -0.029565904 0.20036463
0003a0 7f b5 63 3e c1 2b d0 3d 59 42 07 3e 9c fa 42 bd
       0.22237204 0.101645954 0.13208903 -0.04760228
0003b0 33 f9 1a 3e 16 d9 0b 3e dc 73 61 bb c1 10 67 be
       0.15134124 0.1365703 -0.0034401333 -0.22564985
0003c0 99 3b fe 3c 8a a0 e3 bd 88 67 35 3e 5a d5 70 be
       0.031034278 -0.11114605 0.17715275 -0.23518887
0003d0 c3 96 74 be 63 51 f7 bd 3d f6 c0 3d c4 b0 3f be
       -0.23885636 -0.1207607 0.09421966 -0.18719774
0003e0 fb 72 6b 3e c2 d3 a7 3d 0d 90 ec 3d 90 c7 be bd
       0.2299308 0.081946865 0.11550913 -0.09315407
0003f0 02 09 42 be b1 79 29 3e 9d 66 3c 3e 0e 9c 5d 3d
       -0.18948749 0.16550328 0.18398519 0.054103903

weight_hh_l0 f4 [48, 16]
000000 dd 5a 7a be a7 19 3c 3e 9e 5d 0b 3e 1e 5e f6 3c
       -0.24448724 0.1836916 0.13609931 0.030074175
000010 29 eb 0b 3e d1 43 3a bd c2 0e 89 3d 9e 38 3e 3e
       0.13663925 -0.04547483 0.06692268 0.18576285
000020 ae 4c 40 3e 54 41 09 be e6 97 72 be fb 78 ca bd
       0.18779251 -0.13403827 -0.23690757 -0.098863564
000030 54 3a 74 be 79 cb 77 bd c6 10 5d be 9e 10 09 3e
       -0.23850375 -0.06049678 -0.2158843 0.13385245
000040 11 08 7b 3e 92 5e d1 3d 9e 09 2f be 91 1f 00 3e
       0.24514796 0.10223116 -0.17093512 0.12512042
000050 28 fa 00 be d4 c4 80 be 5f dc f9 3d ec 0d ea 3d
       -0.12595427 -0.25150168 0.122002356 0.11428437
000060 6e 34 4f 3e b8 ea 5d be 18 c0 21 3e df 98 65 be
       0.20234844 -0.2167157 0.15795934 -0.22421597
000070 d8 57 39 be bc 67 19 be ba 5e f8 3b e6 15 0c be
       -0.18099916 -0.14980978 0.0075796517 -0.13680229
000080 1f 32 00 be 1c c3 16 3e 3c 14 1c be 75 a1 14 be
       -0.1251912 0.14722866 -0.15242094 -0.14514716
000090 49 ff 2c bd 01 e9 5b 3d 4b 5c cf bd 5a 7a 66 be
       -0.042235646 0.053689007 -0.10125025 -0.22507611
0000a0 4e ce 5d 3d df 08 9f bd 75 f6 87 bd a9 d7 39 3e
       0.054151826 -0.07765364 -0.06638805 0.18148674
0000b0 ea 6b 63 3e 05 90 db 3d c2 ef b6 bd 61 82 45 3e
       0.22209135 0.10720829 -0.08932449 0.19288017
0000c0 f0 94 0a be 90 4b 62 be de 30 00 be a1 7a e8 bc
       -0.13533378 -0.22099137 -0.12518641 -0.028378787
0000d0 f5 e8 a9 3d 77 81 fa bc 72 f2 14 3e a1 0e 02 bc
       0.08296386 -0.030579312 0.1454561 -0.007938058
0000e0 7c 50 58 3e bc 72 56 3e 83 7a 6a be e8 ef 63 3d
       0.21124452 0.20942205 -0.22898297 0.055648714
0000f0 42 40 93 bd c7 de 8f bd a2 8d 9f bd 44 3d 96 3d
       -0.071899906 -0.07024913 -0.07790686 0.07335904
000100 9f 83 29 3e 31 a4 cc 3d 56 20 bb bd d6 8d 18 be
       0.16554116 0.099922545 -0.09137027 -0.14897856
000110 43 54 07 3e f7 a9 10 3e 00 dd c9 3d 53 77 f2 3d
       0.13215737 0.14127336 0.098566055 0.118391655
000120 79 93 04 3d 3e 48 5a bc 10 c3 59 3c 3b a3 b3 bd
       0.032367203 -0.013322888 0.013291135 -0.08771368
000130 cb 25 08 be 01 73 27 3b 5b 79 54 be 03 1e f7 3d
       -0.13295667 0.0025550725 -0.20749418 0.12066271
000140 da ef 13 be bb 82 7d 3d 13 40 56 3e 93 f9 44 3e
       -0.14446965 0.061892252 0.2092288 0.1923583
000150 a8 ec 46 be 60 6f 13 be 43 47 5c be 70 3e 75 be
       -0.19426215 -0.14397955 -0.21511559 -0.239496
000160 58 31 ac bc f2 4b 20 3e 3f f8 98 3d 8f bc db bd
       -0.021019623 0.15653971 0.07469224 -0.10729324
000170 69 22 9d 3d 41 c0 ff 3d dc a4 06 3d 58 43 d9 3b
       0.07672579 0.124878414 0.032872066 0.0066303425
000180 b7 50 10 be 11 d0 6e bd 61 33 ef 3c 79 c9 5e 3c
       -0.1409329 -0.058303896 0.029199304 0.0135978395
000190 a4 35 fa 3c 75 8b 76 be ad f5 bb 3d 1a 10 4f 3e
       0.030543156 -0.24076636 0.09177718 0.20220986
0001a0 92 07 e6 bd ea 72 03 be ce 92 e7 3b bd 92 ab 3c
       -0.11231913 -0.12836805 0.007067061 0.020943994
0001b0 34 5b 5c be 3f e7 19 3e eb fd 04 bc 6e df 64 3e
       -0.21519166 0.1502962 -0.008117179 0.22350857
0001c0 90 90 2c 3d ee 2c 64 3e c5 37 59 3e 52 82 af bd
       0.042130053 0.22282764 0.2121268 -0.085697785
0001d0 60 4e 20 bd ab cc fd 3d 8d fe a2 bd 72 15 0c 3e
       -0.039137244 0.12392553 -0.07958708 0.13680056
0001e0 df 9a 4e be 21 e7 a5 3c 88 26 4f 3e 00 53 bb bd
       -0.20176266 0.020251812 0.20229542 -0.0914669
0001f0 0e c9 26 3e 2f c1 9b 3d 99 7d 5d 3e da ee 02 3c
       0.16287634 0.07605206 0.21629943 0.007991517
000200 27 2d 6c bd b6 9e 54 be a5 6a 48 bd 7a 83 17 be
       -0.057660248 -0.20763668 -0.04892983 -0.14796248
000210 68 1f 87 be de bf 9d 3d 04 a8 16 3c 1c 3c 38 be
       -0.2639115 0.077026114 0.0091953315 -0.1799168
000220 42 75 43 3e cc c3 63 3e 92 ad 7c 3e 67 31 d2 3b
       0.19087699 0.2224266 0.24675587 0.0064145806
000230 5d 62 0c 3e 83 ba 8e bd 8d 8a cb bd 93 7a 68 3e
       0.13709398 -0.06969168 -0.09938536 0.22703008
000240 fd bf 9b 3c 49 e9 39 3e 1f 0c 44 3e b2 07 63 bc
       0.019012446 0.18155397 0.19145249 -0.013856815
000250 48 c3 2b 3d 0f 53 d1 3d a5 e5 a0 bd 96 d0 0a be
       0.04193428 0.1022092 -0.07856301 -0.13556132
000260 13 71 23 3e c6 11 44 3e 04 6b 0b be 92 9e 21 3d
       0.15961103 0.19147405 -0.13615042 0.039457865
000270 90 89 7c be 80 02 76 be 55 d1 1e 3e a9 de 03 3e
       -0.24661851 -0.24024391 0.15509541 0.12877907
000280 9c 76 ed bc e1 3b 80 3e 3f 7a 98 3d ec 38 2c be
       -0.028987221 0.25045684 0.074451916 -0.16818589
000290 4a ab a8 bc 56 75 db 3d 3d fb e8 bd ac d0 b9 3d
       -0.02058949 0.107157394 -0.11376045 0.09073004
0002a0 12 81 5d 3e 68 18 6b be dd 12 e2 3d 9b a1 30 3e
       0.21631268 -0.22958529 0.11038754 0.17249148
0002b0 a9 3f db 3c 83 c3 43 3e f6 57 a8 3c 18 17 57 3e
       0.026763754 0.1911755 0.020549756 0.21004903
0002c0 ff 0e 22 3e 1c ca 86 bd 56 4a 60 be 02 79 06 3d
       0.15826033 -0.06581518 -0.21903357 0.032830246
0002d0 cb ea 10 be 12 1b cf bd 21 e5 2d 3e d7 4c 8b bc
       -0.14152066 -0.10112585 0.16981937 -0.017004414
0002e0 6a e6 56 be 34 61 4f 3d 90 79 d9 bd 43 28 62 3e
       -0.20986333 0.05062981 -0.10618889 0.22085671
0002f0 df df 6c bd ef 9f 68 be 57 48 80 3d 3a 53 10 bd
       -0.057830688 -0.2271726 0.06263798 -0.03523562
000300 45 bf fd bd da bb e5 3c e4 c7 7f be dc 22 88 bd
       -0.123899974 0.028043676 -0.24978596 -0.06647274
000310 5a 1b aa bd b1 3f 9f 3c 5e 65 bf bc ec 8b ad 3d
       -0.08305998 0.01943955 -0.023363765 0.084739536
000320 c6 63 f8 3d 15 25 a6 bc 82 d8 3f 3e cc 94 c1 bd
       0.12128405 -0.020281354 0.18734935 -0.09452209
000330 85 78 64 3e 15 46 6f be e7 43 3a 3e b8 02 15 be
       0.223116 -0.23366578 0.18189965 -0.14551818
000340 68 c5 54 be e2 44 4f 3e 0c 9b d1 bd d7 a6 0e be
       -0.2077843 0.2024112 -0.10234651 -0.13930832
000350 14 05 a3 3d a6 c4 5a 3d 17 39 03 be f4 76 92 3d
       0.07959953 0.053410195 -0.12814747 0.07151595
000360 1f d0 72 be cc a1 c6 3d b1 73 23 ba fa e0 6a bd
       -0.23712204 0.09698829 -0.0006235196 -0.05734346
000370 ca 50 ca bd d1 8c db 3c 60 12 0f 3e 83 75 62 3e
       -0.098786905 0.026800545 0.13971853 0.2211514
000380 9a b7 b4 3d bd f9 9d 3d 2f 29 d8 3c e0 69 22 be
       0.08824082 0.077136494 0.026386825 -0.158607
000390 e9 eb 5e be cb a1 16 3e f3 f9 97 bd d9 05 d0 bd
       -0.2176968 0.14710157 -0.07420721 -0.10157365
0003a0 f1 44 ed bd 3d a7 b1 bd 5b 3b 05 3e 99 32 29 be
       -0.11585415 -0.08674476 0.13010924 -0.16523208
0003b0 3d 1c 24 3e 03 4e bc bc e9 34 9c 3d 08 35 b9 bd
       0.16026397 -0.022986418 0.07627279 -0.09043318
0003c0 10 60 05 3e 7a 61 76 3d 5f 66 be bd 2e 15 ea bd
       0.13024926 0.060151555 -0.092968695 -0.11429821
0003d0 95 70 8f bd 10 05 14 3e db 27 b6 bd 01 51 3a 3e
       -0.07003895 0.14455056 -0.088943206 0.18194963
0003e0 fc 14 b6 bd 2f c0 2e be 61 49 12 be dd 66 16 3d
       -0.08890721 -0.170655 -0.14285804 0.03671919
0003f0 6d d5 d4 3d e9 bc 19 be b8 7a 82 bd 2b 2f 29 be
       0.1039227 -0.1501347 -0.06371063 -0.165219

bias_ih_l0 f4 [48]
000000 9f 7c c9 bd 08 aa 18 be 6c 77 d4 bd 8e db ef 3d
       -0.09838223 -0.14908612 -0.103743404 0.117117986
000010 07 e7 dd bd ae 19 35 bd 70 aa 38 be df e3 c7 3c
       -0.108350806 -0.044213943 -0.18033767 0.02440065
000020 e4 40 bd 3d 5b 70 f2 bd 5c 13 d0 3d ae d3 80 be
       0.092408925 -0.11837836 0.101599425 -0.251615
000030 05 95 a5 3d 40 76 67 bd 1f a0 4b 3b 6f a7 e9 3d
       0.08085064 -0.056509256 0.0031070781 0.114088885
000040 6d 23 3d bd b5 6c 89 3d 49 09 3a bd 8e 0b ec 3d
       -0.046176363 0.06710187 -0.04541901 0.115256414
000050 d6 7f 23 be 0f d0 20 3e 3a 83 45 3e ff 81 a0 3d
       -0.15966734 0.15704368 0.1928834 0.07837295
000060 5d c2 9a bd 7d 8e 61 3e 00 40 e7 bd ba 01 84 be
       -0.07556603 0.22027011 -0.11291504 -0.25782567
000070 98 d0 e3 3d af 4b 19 be cc af 67 bd 42 89 7c bd
       0.111237705 -0.14970277 -0.056564137 -0.061654337
000080 03 b9 9d 3d 89 df 6d be 01 a3 7a bd 99 a1 e0 bd
       0.07701304 -0.23229803 -0.06119061 -0.10968322
000090 a3 15 7e 3c 16 29 6c 3d 58 0d f3 3d 00 6c 1f 3d
       0.015508088 0.05765637 0.118677795 0.038921356
0000a0 47 71 7c be 9e 01 f7 3d 7c b0 35 bb c7 4d 09 be
       -0.24652587 0.12060855 -0.00277236 -0.13408576
0000b0 59 21 4e bc 40 1e 65 be 0a 23 bf bd 3d 78 da 3d
       -0.012581193 -0.2237482 -0.09332855 0.10667465

bias_hh_l0 f4 [48]
000000 bc 17 93 3c ef d6 df 3d a4 59 a5 3d a1 5a 97 3d
       0.017955653 0.10929667 0.08073738 0.07390333
000010 8c d7 6b be 06 d6 81 3e 9e 72 07 be b2 c7 ed bc
       -0.23031443 0.253586 -0.13227317 -0.029025886
000020 4b 8d 1d be 41 43 40 be 62 c5 40 be e4 0f a6 bd
       -0.1538593 -0.18775655 -0.18825296 -0.081085
000030 5e 58 2e 3e bf c1 71 3d 42 c0 2d 3e 90 6d e1 bd
       0.17025897 0.05902266 0.16967872 -0.110072255
000040 76 51 ac bd 0f 52 aa bb eb 89 63 bd c8 1c 87 3d
       -0.08413975 -0.0051977704 -0.05555145 0.065972865
000050 f6 ac 33 3e 1b 5b 54 3e 32 b2 65 be 4a b6 20 bd
       0.17546448 0.20737879 -0.22431257 -0.039236344
000060 e1 7d f3 3d 90 bd 6a be 50 0e b6 3d 65 47 38 be
       0.11889244 -0.22923875 0.08889449 -0.17995985
000070 c7 f9 28 3d 14 3d 15 3d e9 69 d5 3d 57 f4 da 3d
       0.04125383 0.0364352 0.104205914 0.106911354
000080 f0 89 a2 bd c3 94 0f be cf bf 6a 3b 13 56 45 3e
       -0.07936466 -0.14021592 0.0035819893 0.19271116
000090 31 bb 21 be 70 29 28 be 71 a3 29 3e a1 ab ac 3c
       -0.15794064 -0.16422057 0.16566254 0.021077933
0000a0 3b cc 58 bd c9 c5 7c 3d 4a a8 5a 3d 02 c3 a3 bd
       -0.052929144 0.06171206 0.05338315 -0.07996179
0000b0 db 00 bf 3c fe d4 0f bc a4 78 3c 3e 62 90 a9 bc
       0.023315838 -0.008778809 0.18405396 -0.02069873

weight_ih_l0 f4 [48, 36]
000000 3e c2 29 3d 93 7d 69 3d 97 d4 a5 bd 8c ca 48 be
       0.04144501 0.057004523 -0.08097189 -0.19608516
000010 16 d8 27 3d 47 96 45 bd 91 87 91 bd 63 20 71 3e
       0.04097756 -0.04823902 -0.07105935 0.23547511
000020 c6 e3 93 3d 76 88 71 3c fd 05 39 be 4e ca 6c be
       0.07221179 0.0147420075 -0.1806869 -0.23124048
000030 dd 9e ea 3c 06 d8 44 be 05 b5 25 be ea 63 03 3e
       0.028640205 -0.19223031 -0.16182335 0.12831083
000040 a2 65 08 be c8 c4 fc 3d b3 b0 07 3e d2 de 8f bb
       -0.1332002 0.123422205 0.13250999 -0.004390576
000050 12 0b 05 3e f5 e7 37 bc 42 c7 cd bd 27 a0 4d be
       0.12992504 -0.011224736 -0.10047771 -0.20080625
000060 30 49 8b 3c 7c f4 2c 3e b6 12 51 be f4 b4 11 3e
       0.017002672 0.16890138 -0.20417294 0.14229184
000070 cd c3 6e 3e b7 56 74 3e e7 64 46 be 45 8a 0c be
       0.2331688 0.23861204 -0.19374429 -0.1372462
000080 d8 9b ab 3d 2d bc 0c be 33 35 91 bd a7 69 06 3e
       0.08379334 -0.13743658 -0.07090225 0.1312624
000090 94 ea f8 3c 64 37 87 bc 68 71 d1 3d 5f 48 e9 bc
       0.030385293 -0.016505904 0.10226709 -0.028476892
0000a0 c0 62 56 3e ef a9 6c 3a ac b3 e6 bc b4 03 77 be
       0.20936108 0.00090280076 -0.028161846 -0.24122506
0000b0 a3 5e 46 3c fd 84 67 bd 82 e6 1a bd ba af 2c be
       0.012107524 -0.056523312 -0.037817486 -0.1686391
0000c0 a2 31 68 3d b6 d0 4e bd 4e a5 80 3d 28 5d 67 be
       0.05668796 -0.05049201 0.06281529 -0.2259413
0000d0 9e 11 c0 bd 9c 18 6e 3e d5 3e 2a 3e 42 38 25 bd
       -0.0937836 0.23251575 0.16625531 -0.040336855
0000e0 37 37 dc 3b c7 36 51 bd 1e 93 05 3e 80 2a d7 3d
       0.0067204493 -0.05107763 0.13044402 0.10506153
0000f0 b0 63 15 be 71 60 1b be 75 c1 86 3d 63 69 52 be
       -0.14588809 -0.15173508 0.06579868 -0.20548014
000100 8c 0d 44 bd b8 87 be bd bb 8c 37 bd 28 af e8 3d
       -0.04786448 -0.0930323 -0.044811945 0.113615334
000110 49 7b 42 be 92 cf 79 bc 42 f2 ba bd 02 43 0f 3e
       -0.18992342 -0.0152472425 -0.09128238 0.13990405
000120 a5 e2 e9 bd 6c f4 09 be 16 06 ac 3d 88 aa 50 be
       -0.11420182 -0.13472146 0.08399598 -0.20377553
000130 18 de a2 3d f9 ae 4e 3d 47 dc ee 3c 3a 67 3e bd
       0.07952517 0.050459836 0.02915777 -0.046485163
000140 32 d5 5f 3e 88 21 6d 3e a7 82 2c be df ec d8 3d
       0.21858671 0.23157322 -0.16846715 0.105920546
000150 85 4a 14 bc 04 8a 9d bd f5 8b d0 bd f9 4d 50 3c
       -0.00905097 -0.0769234 -0.10182945 0.012713903
000160 32 77 4c 3d e0 d3 e4 3d c6 58 5a bd 7c d6 dc bd
       0.04991836 0.111732244 -0.053307317 -0.10783097
000170 bb 42 3b be 12 26 4b 3e 9f f0 78 be ad 5e e8 3d
       -0.18287174 0.19838741 -0.2431054 0.11346183
000180 5c ec 0a bd f2 c7 ad 3d 49 a8 35 be a6 c3 e0 bd
       -0.033916816 0.08485402 -0.17739977 -0.10974817
000190 06 25 f6 bd ca c7 37 be 76 47 af 3d a9 06 16 be
       -0.120187804 -0.17947307 0.08558552 -0.14650978
0001a0 3b 3f 59 3e 1e 2b a5 bd 61 e0 c6 3c d7 07 b6 bd
       0.21215527 -0.080648646 0.024276914 -0.08888214
0001b0 eb 43 52 3e 42 67 aa 3d 34 e0 23 be 84 64 2a bb
       0.20533721 0.08320476 -0.16003495 -0.0025999853
0001c0 0b d2 b0 bc 2b 01 9a bd 2c ba 55 be ad 3f 39 3d
       -0.021584531 -0.07519754 -0.208718 0.04522674
0001d0 65 49 26 bd f1 a2 4b 3e fe d9 5f be 2b d8 b7 bd
       -0.04059734 0.19886376 -0.21860501 -0.08976778
0001e0 3e f3 7b 3c d0 b1 1e be e0 59 3a 3e 6c 28 9f 3d
       0.015377818 -0.15497518 0.18198347 0.07771382
0001f0 3b a3 4b 3d 0e 2e 34 be 46 d5 31 3e cb e1 fc bd
       0.049716216 -0.17595693 0.17366514 -0.12347754
000200 f6 d1 40 3e fb 8e c8 bc 3c 8a 01 be 92 aa 62 3e
       0.18830094 -0.02448224 -0.12650388 0.2213538
000210 92 58 1a be f5 3f 72 3d da 85 79 3e 1c f1 28 3e
       -0.1507285 0.059143025 0.24367467 0.16498226
000220 ac aa 10 3e 02 15 1a 3e 38 47 17 be 09 f3 55 3d
       0.14127606 0.15047076 -0.14773262 0.05223373
000230 0e 15 9b 3a c4 d7 11 be 6c 3e f1 3c 74 37 4d 3e
       0.0011831836 -0.14242464 0.02944871 0.20040685
000240 f2 fe 73 3e c6 56 9d 3d 2b 0f 4c be 6b cb 04 be
       0.23827723 0.07682566 -0.19927661 -0.12968223
000250 b9 63 62 bd 02 6b 6d be e0 25 1f 3e 4d 6d 26 3e
       -0.055270884 -0.23185351 0.15541792 0.16252632
000260 a6 7c aa bd b9 ab 2a be c7 4d 0c 3c 07 99 68 bd
       -0.08324556 -0.1666707 0.008563465 -0.056786563
000270 50 a5 6a be 32 fa 69 3d 44 b6 f7 3d c8 2f 41 3e
       -0.22914624 0.05712337 0.12095311 0.18865883
000280 83 01 5c 3e 1e 2d 50 be 79 28 e3 3c 65 56 74 bd
       0.21484952 -0.20329711 0.02772926 -0.059652705
000290 03 7f 68 3d 11 0f 56 3e d1 3f 01 be c2 b0 71 3e
       0.056761753 0.20904185 -0.12622 0.23602584
0002a0 89 e9 42 3e c3 42 b1 3c c7 1e 92 3d dd aa 37 3e
       0.19034399 0.02163828 0.071347766 0.17936273
0002b0 49 ac 5c 3e e4 b7 4e 3e 01 76 29 be 9a 3e e2 bd
       0.21550097 0.20187336 -0.16548921 -0.110470966
0002c0 6e c9 0e be 8a 26 db 3d 92 a4 3f be 8f 14 38 38
       -0.13944027 0.1070071 -0.18715122 4.3888165e-05
0002d0 8b 94 1b 3e 3e fc 4c 3e ab f1 f3 bd 4c 3f 55 be
       0.15193383 0.20018098 -0.11911329 -0.20824927
0002e0 af b8 72 be 0b 8a 6a 3e 2a 4d dd 3d 99 21 1e be
       -0.23703264 0.22904222 0.108057335 -0.15442504
0002f0 8d 2f 5f be c9 5d 3b be 6b 83 6e be 2f ba 0f be
       -0.21795483 -0.18297495 -0.2329232 -0.14035867
000300 cd 69 01 3d e3 98 c0 bd 3a 74 34 3e e7 f6 6b be
       0.03159504 -0.09404161 0.17622462 -0.23043405
000310 0e 0d 35 3e 43 f9 d9 3d cf 67 db bd 8c ed bf bd
       0.17680761 0.10643246 -0.10713159 -0.0937148
000320 90 ef 78 be e1 bd 00 3e f8 e7 05 bd 1a dc 68 be
       -0.24310136 0.12572433 -0.032691926 -0.22740212
000330 d0 81 dd 3d fb 2d 79 3e 94 5f f0 3d 5e ad 1a be
       0.108157754 0.24333946 0.1173698 -0.15105197
000340 1d e6 53 be c1 d6 12 3e 39 5e 36 bd 92 6f 41 3e
       -0.2069325 0.14339735 -0.04452345 0.18890217
000350 ad f0 10 be 65 56 2b be e6 d3 24 bd ae 5c d3 3c
       -0.1415431 -0.16732176 -0.040241145 0.025801029
000360 d9 d1 e4 bb b0 7d 1c 3e 3f 7e 9a 3d 0e bf 3b be
       -0.0069830236 0.15282321 0.07543611 -0.183346
000370 14 0c 67 be 3c de 24 bd dc cf 49 3e fc 24 70 3e
       -0.22563201 -0.040251 0.19708198 0.23451608
000380 8a 3a 2b 3e ec 76 1b 3e fa a2 18 3e 20 09 16 3e
       0.1672155 0.15182084 0.1490592 0.14651918
000390 cd 64 eb bd 78 f3 60 bd d4 1c d9 b9 20 08 1b 3d
       -0.114938356 -0.05491969 -0.00041410944 0.037849545
0003a0 af ff 03 3e b9 56 77 be df 61 e2 3d 98 53 02 3e
       0.12890504 -0.24154176 0.11053824 0.12727201
0003b0 d5 ea a9 bc aa a8 18 3e cd bc d9 3c f7 ec 45 be
       -0.02074186 0.1490809 0.026579285 -0.19328676
0003c0 44 ba 2e 3e 7f a3 4f be b9 69 29 3e 1b 3f df 3d
       0.17063242 -0.20277213 0.16544236 0.10900708
0003d0 26 df 70 3e a9 38 c2 3d 17 f3 4e 3e 53 69 70 3e
       0.23522624 0.09483463 0.20209919 0.23477678
0003e0 f0 cc d2 3d 59 7e 06 3d 5c af 2a 3e aa 1d 3f 3e
       0.10292995 0.03283534 0.16668457 0.1866366
0003f0 5c df f5 3c 85 47 2c 3d 1d 26 9f bb 08 d1 02 be
       0.030013733 0.042060394 -0.0048568384 -0.12775052

weight_hh_l0 f4 [48, 16]
000000 54 09 97 3c 35 c5 f6 bd 35 2e 79 3e 02 4f d9 3d
       0.018437065 -0.12049333 0.24334033 0.10610773
000010 eb 4c 4a bd 77 55 80 3e a8 72 c5 3c 6b 8c c6 3c
       -0.04938976 0.25065205 0.024102524 0.024236878
000020 6f 6e 4a 3e 70 52 81 3d 88 ca 27 3d ae c6 bd 3d
       0.1976869 0.06314552 0.040964633 0.09266411
000030 21 a1 e5 3d 53 56 62 bd ab 70 d8 3d 6c 3d 85 3e
       0.112123735 -0.055258106 0.10568365 0.26023424
000040 53 4c 2c bd 5d bb 66 bd 96 8e 79 bd a8 81 57 3e
       -0.042064976 -0.056331027 -0.060926996 0.21045554
000050 dc 96 05 be 09 eb 70 be 63 7b e9 bc 52 a9 4e 3e
       -0.1304583 -0.23527159 -0.028501218 0.20181778
000060 89 f5 43 be e7 b9 78 3e 11 16 a7 3d 9c a5 bb bd
       -0.19136633 0.24289666 0.08158506 -0.09162447
000070 6c af ff bd ba ea 59 bd 81 27 b7 bd a6 50 f2 bd
       -0.12484631 -0.05320237 -0.08943082 -0.11831789
000080 61 1f 1a bc 5d b6 57 be e2 ed 45 be c5 fb 53 be
       -0.009406895 -0.2106566 -0.19329026 -0.20701511
000090 6f 5d 16 3e d8 5b 42 be 4f 6c 7b 3b d7 64 15 3e
       0.1468408 -0.18980348 0.0038364117 0.14589249
0000a0 c4 1e 2f 3e 8e 90 62 3e 52 d0 dd bd 8a f9 35 be
       0.1710158 0.22125456 -0.108307496 -0.17770973
0000b0 62 a1 17 be f8 b9 b8 bd 64 5f de 3d 30 64 9b 3c
       -0.14807656 -0.09019846 0.10858038 0.018968672
0000c0 80 97 80 3c 77 80 ec bd 3a 28 30 be a3 5e 17 bd
       0.01569724 -0.1154794 -0.17202845 -0.036955487
0000d0 fa 18 08 be 93 b8 52 3d ec d9 de bd 58 22 ac 3d
       -0.13290778 0.051445555 -0.10881409 0.08404988
0000e0 a1 e2 b0 3d ed b8 c1 bd ef 99 e8 3d 48 d7 05 3e
       0.08636976 -0.094591 0.113574855 0.13070405
0000f0 25 f6 dc ba de 46 3f be 1d c9 23 3e f7 4a 23 bd
       -0.0016858025 -0.18679377 0.15994687 -0.039866414
000100 d6 6d fd 3d 25 be 7b bd cb 9c 6d 3e e6 89 1b 3e
       0.12374465 -0.061460633 0.23204343 0.15189323
000110 f3 e8 f4 bc 1b 80 38 bd 62 10 3a 3e 58 ad 1b be
       -0.029896235 -0.045044046 0.18170312 -0.15202844
000120 86 b4 d6 bd 69 d6 10 3c 4f 1a 98 3c 78 e6 ca bd
       -0.10483651 0.008840182 0.018567232 -0.0990724
000130 8c 67 8b bd 8d ab 61 3e bb 9f 02 3e a1 36 80 bd
       -0.068068594 0.22038098 0.12756245 -0.0626042
000140 8e 4b 89 bd 4a dd 8a bd 36 ed 04 be 92 eb ca 3b
       -0.06703864 -0.06780489 -0.12981114 0.006192633
000150 13 6d bd bc 42 79 45 3e b5 8d 8c bd 67 ab 5b 3d
       -0.0231233 0.19284537 -0.06862966 0.05363026
000160 ee 33 7f bd d4 2e f9 3d d0 8e ac 3c 9e c3 00 be
       -0.062305383 0.12167135 0.021064192 -0.12574622
000170 70 ae 60 3d 5f 87 46 be 86 be 0a be 85 e9 1d bd
       0.054853857 -0.19387577 -0.13549241 -0.03855278
000180 c8 30 28 3e d8 93 82 3d 9f 9e 01 3e b6 02 dd 3d
       0.16424859 0.06375855 0.12658165 0.10791533
000190 67 ad 16 b8 b1 ca 90 3d 21 05 e3 3c 56 63 4b be
       -3.592428e-05 0.0706991 0.027712407 -0.19862112
0001a0 23 31 a3 3d 22 19 7e 3e 6c 24 72 3d ed cc 70 be
       0.079683565 0.24814275 0.059116766 -0.23515673
0001b0 c3 e7 40 be f8 74 8c bd e0 19 4d 3c 69 a2 95 bd
       -0.1883841 -0.068582475 0.012518376 -0.07306368
0001c0 d6 56 17 be 7a 08 42 be 50 2b 1f be a3 fb 74 3e
       -0.14779219 -0.18948546 -0.15543866 0.23924117
0001d0 0f 66 b4 3d 6c 26 2a bd 1e d4 9b bd 0a b0 c3 3c
       0.08808529 -0.04154055 -0.076088175 0.023887653
0001e0 44 e8 81 3e b9 94 06 3e 83 72 c3 3d cf 8b 76 bd
       0.25372517 0.1314267 0.09543326 -0.060191926
0001f0 ba 89 cd bd 0f db 24 be fa 0d 39 3d 7f 8e 1a 3e
       -0.10036035 -0.16099189 0.045179345 0.1509342
000200 8f 19 4c 3c 7a ac ac bd 0b d1 53 be 35 c0 37 be
       0.0124572655 -0.08431335 -0.20685212 -0.17944415
000210 4f e9 22 be dd aa 74 be 84 d9 ae 3b 12 dd 2a be
       -0.15909313 -0.23893304 0.0053359885 -0.16685894
000220 56 39 5c be 72 78 11 be 8d c6 1c b9 74 53 88 bd
       -0.21506247 -0.14206102 -0.00014951285 -0.066565424
000230 99 06 27 be a7 2e 0f be 02 e2 ed bd b2 20 f7 bd
       -0.1631111 -0.1398264 -0.11615373 -0.12066783
000240 45 3b c9 3c fd fc cc 3d ce eb 54 3d 49 94 04 be
       0.024564395 0.10009191 0.051982693 -0.12947191
000250 51 78 16 ba d0 f9 e5 3c 18 66 31 3e 46 e5 04 be
       -0.00057399744 0.028073221 0.17324102 -0.12978086
000260 d7 3a 06 3e 10 4b 33 3e 80 b4 b3 bd a4 66 64 bd
       0.13108383 0.17509103 -0.08774662 -0.05576195
000270 ef 7d fd bd 87 ea 86 3d 8f f1 6b be 61 8d 85 bc
       -0.123775356 0.06587701 -0.23041366 -0.016302766
000280 ad f2 c7 3a e9 eb 53 be 0e 90 48 bd 74 4f 30 3e
       0.0015254818 -0.20695461 -0.048965506 0.17217809
000290 77 16 e4 3d 08 26 0e be c0 9a 46 bd 68 4d 22 be
       0.11137097 -0.13881695 -0.048487425 -0.1584984
0002a0 62 00 d8 bd eb 89 25 3e d3 74 47 bd ad e3 75 3e
       -0.10546948 0.16165893 -0.048695397 0.24012633
0002b0 32 16 92 3d c0 16 28 be 35 69 4d 3e e4 10 23 3b
       0.0713314 -0.16414928 0.20059665 0.0024881894
0002c0 99 8e 09 3e d9 ad ab bb 16 a9 a7 3c 34 4b 40 3e
       0.13433303 -0.00523923 0.020466369 0.18778688
0002d0 36 78 93 3b 99 f7 1f 3e ee a4 d1 3d cd 75 bf bb
       0.0045004142 0.15621795 0.10236536 -0.0058429004
0002e0 4b fc 56 3e 7a c7 d5 3d 8f 2b 48 38 60 92 65 3e
       0.2099468 0.10438438 4.7724283e-05 0.22419119
0002f0 b3 0a 12 3e 84 26 66 3e de 2b a0 3b fb ef 2c 3e
       0.14261894 0.2247563 0.004888042 0.1688842
000300 e2 fb d4 bd fb 8c 36 be a9 96 80 bb 15 1d ab 3d
       -0.10399605 -0.17827217 -0.00392421 0.08355156
000310 61 6e b9 3a 47 00 78 bd 2d 5b 0f 3e a9 a4 d3 bd
       0.0014147275 -0.06054714 0.13999625 -0.10334141
000320 84 59 6e be 57 2e 40 3e 48 cf ec 3c fe b8 1d 3e
       -0.23276335 0.18767677 0.028907433 0.154026
000330 95 27 fd bd 9b dc 4a be c5 52 a2 3d 21 d1 82 3d
       -0.12361065 -0.19810717 0.07925943 0.063875444
000340 ec 54 55 3e 2e 5e b3 3d 7c 8a 2f be e6 22 0f 3d
       0.20833176 0.08758198 -0.17142671 0.03494539
000350 b4 1b e6 bd 42 19 0e bd e6 dd 01 3e 41 4c 1c be
       -0.11235753 -0.034692056 0.12682304 -0.15263464
000360 1c a8 19 be 0f d0 18 3e 3a 56 f6 3a 63 3f 1d 3e
       -0.15005535 0.14923118 0.0018794008 0.15356211
000370 79 80 24 b9 17 c0 e0 3c e2 40 dc 3d 4e 3d 3d be
       -0.00015688119 0.027435346 0.10754563 -0.18480417
000380 54 2b e0 bc ad d8 0d bd 84 1e 78 bc fc c4 05 3e
       -0.02736441 -0.034630466 -0.015143994 0.13063425
000390 f8 96 b0 3b 4b a1 34 3e 5b 4c 35 bd 5a 98 02 3e
       0.0053890906 0.17639653 -0.04426227 0.1275343
0003a0 7c bc 5d be f7 9f f8 bd 73 a2 87 3d e3 13 49 be
       -0.21653932 -0.12139886 0.066227816 -0.19636492
0003b0 69 42 0a be 7b 0c 74 be 9e dc 12 bd 99 67 30 bd
       -0.13501896 -0.23832886 -0.03585493 -0.04306755
0003c0 61 3f 32 3e 93 27 33 be 67 78 bb bb 67 a1 ce bd
       0.1740699 -0.17495565 -0.00572114 -0.10089379
0003d0 46 6d 29 be 8b a7 ed bd 3b 38 4b be aa 5f 34 be
       -0.16545591 -0.11604222 -0.19845669 -0.17614618
0003e0 a7 e4 08 be d6 f2 17 be 2e 43 41 be 17 e9 67 be
       -0.13368474 -0.14838728 -0.18873283 -0.2264751
0003f0 b1 4f f3 bd 06 86 43 be 22 ce 48 3e 23 a8 c5 3d
       -0.11880434 -0.19094095 0.19609883 0.0965121

bias_ih_l0 f4 [48]
000000 23 3c ab bd 10 1d 8d bd d0 1c 31 3d c6 06 5a be
       -0.083610795 -0.06890309 0.04324037 -0.21291646
000010 fe e6 cf bd d1 0a 29 3c 55 94 40 be 96 2a 19 3e
       -0.1015148 0.01031752 -0.18806584 0.14957651
000020 a5 6a d2 3d 3c 1f e0 bd fb 06 10 be 6b c2 80 3d
       0.10274247 -0.109434575 -0.14065163 0.06287082
000030 a6 9d 27 3d 9a cb b7 bd f4 64 64 be 29 65 4a bd
       0.04092183 -0.08974381 -0.22304136 -0.04941288
000040 ae 92 df 3d 9d 34 68 bd 29 fc fc bb 46 38 b9 3c
       0.10916649 -0.0566908 -0.0077204895 0.022609841
000050 a5 a5 52 be de 9d 93 3d cf 66 28 be e3 03 91 bd
       -0.20571001 0.07207845 -0.16445468 -0.070808195
000060 d7 33 1c be ec dc 12 3d 95 7c 08 be 59 ad 21 be
       -0.1525415 0.03585522 -0.13328774 -0.15788783
000070 f3 55 28 3e 63 f1 d4 bd 7f a7 2f 3e d1 be 88 be
       0.16439037 -0.10397603 0.17153738 -0.2670808
000080 c5 6c ab 3c 27 77 4c be ff 1b 59 be 53 a2 25 bd
       0.020925889 -0.19967328 -0.21202086 -0.040438008
000090 f6 21 ee 3d d7 8e 2a be 09 d1 bd bd 2a b5 57 3e
       0.11627571 -0.16656052 -0.09268386 0.21065202
0000a0 a8 4c 0a be f5 58 bc bc d7 a0 3e be ab 22 7b be
       -0.13505805 -0.022991637 -0.18616043 -0.24524944
0000b0 fc 5b 7c 3d 04 9d 3d be 32 eb 55 be 33 9d 24 3d
       0.06161116 -0.18516928 -0.20890501 0.04018898

bias_hh_l0 f4 [48]
000000 20 05 33 3d 4a 2e 24 be 41 76 11 bd cc 64 29 3e
       0.04370606 -0.16033283 -0.035513166 0.16542357
000010 51 a7 f6 bd 88 fc 5c 3e 80 56 1d 3d 37 aa 02 bc
       -0.12043632 0.21580708 0.03841257 -0.007975153
000020 e6 9a 4b 3e 24 bc 09 3d 3c 59 98 3d ba ea 08 be
       0.19883308 0.03362669 0.07438895 -0.13370791
000030 e1 c4 4d be 32 4b 8d 3c bf 2c 08 bd 8d cf 44 3e
       -0.20094635 0.01724777 -0.0332458 0.192198
000040 25 b3 07 be f5 33 4c 3e a0 40 51 be 56 a1 24 3e
       -0.13251932 0.19941695 -0.20434809 0.1607717
000050 4e 92 fa bd 01 02 5a bd 0f e6 2b be 0a 9a 0e be
       -0.12234937 -0.053224567 -0.16786979 -0.13925949
000060 69 98 c1 bd 6c 4b 18 3d 01 f8 79 be f7 82 62 3e
       -0.09452898 0.037181303 -0.24411012 0.22120272
000070 73 41 34 be a0 31 16 bd 5f 9a 60 3e 0c bc 4e be
       -0.17603092 -0.03666842 0.21933888 -0.20188922
000080 98 c5 21 3e ef 73 32 be eb 93 0e 3d 50 50 08 3d
       0.15798032 -0.17427038 0.034809034 0.033279717
000090 34 98 05 3e 0c 2d 2b 3d b6 de 80 3e 02 0d f5 3d
       0.13046342 0.041791007 0.25169915 0.11965372
0000a0 67 22 66 3d bb 6e 93 bc 08 40 4a bd 14 40 07 be
       0.056185152 -0.017997136 -0.04937747 -0.13208038
0000b0 80 3f 21 be 9c b4 d3 3d eb 87 1e 3e 79 93 2e 3e
       -0.1574688 0.10337183 0.15481536 0.17048444

weight_ih_l0 f4 [3, 11]
000000 a7 84 c5 bd 76 ff ce bd 2f 99 83 bc 77 cf 43 3f
       -0.09644442 -0.10107319 -0.016064255 0.7648844
000010 b6 97 bc 3e 9c cd fe bd 31 c0 0f bf d9 d9 38 3f
       0.36834496 -0.124415606 -0.56152636 0.7220741
000020 96 d6 5c bf bf 42 1f 3f c5 c3 94 be 54 09 65 bf
       -0.8626493 0.6221122 -0.2905561 -0.8946736
000030 b8 dc 58 bf c2 6d 47 3e 99 1a b9 be e8 3f 54 bf
       -0.8471179 0.19475463 -0.36153105 -0.82910013
000040 e5 7b d8 be 93 b3 b2 3e 7c 76 55 3f 01 e4 46 bf
       -0.42282024 0.3490263 0.8338392 -0.77691656
000050 e1 50 26 3f 19 9a 3f bf 66 33 1b 3f 0e 2c 00 3f
       0.6496716 -0.7484451 0.606253 0.5006722
000060 ed d2 45 bf 4d 93 83 bd a2 ec 0f 3f d0 7c 09 3f
       -0.7727497 -0.0642458 0.5622045 0.53706074
000070 7d 87 f4 3d 45 6c 66 3f 68 4c 42 be 7b c5 d5 be
       0.11939905 0.90008956 -0.18974459 -0.41752228
000080 84 2a bf 3d
       0.09334281

weight_hh_l0 f4 [3, 1]
000000 bf 8c 68 bf 59 fd 04 bf 52 4d f9 3e
       -0.9083976 -0.5194908 0.48691803

bias_ih_l0 f4 [3]
000000 f3 76 0a bf e9 2b 10 3f 03 ce 8d be
       -0.5408775 0.56317 -0.27696237

bias_hh_l0 f4 [3]
000000 9c 05 a0 be e9 c2 60 bf 3b 48 37 3e
       -0.3125428 -0.8779741 0.17898647

weight f4 [1, 16]
000000 d4 7c 18 3e 63 1e 6c be 52 0f 52 be 67 6f 2e 3e
       0.14891368 -0.23058467 -0.20513657 0.17034684
000010 92 fc 50 bd 0c df 51 bd 2b f3 73 3e 08 0a 3f be
       -0.05102212 -0.051238105 0.2382323 -0.1865617
000020 d8 1c b5 bd 2f 89 98 3d df 32 41 be 6d 31 3b 3e
       -0.08843392 0.07448041 -0.18867062 0.18280573
000030 f8 ef 70 3e 73 0e 75 bd 4e a1 e1 3d de 36 1a be
       0.23529041 -0.059828233 0.110170946 -0.15059993

weight f4 [680, 17]
000000 d3 7e 35 bd 51 bc e7 3d 61 40 8f 3d 3a a1 2f be
       -0.044310402 0.113152154 0.06994701 -0.17151347
000010 52 01 fc bd 4c a7 5f be 8d 7f 90 3d 3a f7 78 3e
       -0.12304939 -0.21841162 0.070555784 0.2431306
000020 d1 d0 69 be 67 5f 0a bd 41 16 3b 3e ab 6a 7e bd
       -0.22833563 -0.03378239 0.18270208 -0.062113445
000030 3a 75 d1 3c d7 dd 3f bd 48 f8 ed bd 78 83 1b 3d
       0.025568593 -0.046842422 -0.116196215 0.037967175
000040 9f 89 d0 bb 56 03 34 be b0 02 16 3e 6e 1c 15 3e
       -0.006364062 -0.17579398 0.14649463 0.14561626
000050 15 c8 09 3e c2 ed 4a 3e 20 82 b7 3d ab ef 2f 3e
       0.13455231 0.1981726 0.08960366 0.1718127
000060 96 68 e3 3c b1 e3 f1 3d e0 fa 0a 3c 4d 2b 4f be
       0.027759831 0.11811007 0.008482665 -0.20231362
000070 0a 55 11 be b2 43 93 bd 98 bf 75 bc 68 16 54 3e
       -0.14192596 -0.07190646 -0.014999293 0.20711672
000080 c4 99 1d bb 11 3f ac 3d f9 6b cf bd fe 39 20 3e
       -0.002404795 0.084104665 -0.10128016 0.15647122
000090 39 fb da bd 9a a8 6c 3e 88 76 04 be f6 97 92 3d
       -0.10692448 0.23111191 -0.12935841 0.071578905
0000a0 a6 8d 42 3e be 95 b8 3d 0d bc a8 3d 2f de 4c be
       0.18999347 0.09012936 0.08238993 -0.20006631
0000b0 23 f4 c7 bd 9f 13 16 3e f1 3e 9a bd d6 5b 5e 3e
       -0.09763362 0.14655922 -0.07531536 0.2171472
0000c0 bd 28 f9 3d ce 3c fd 3d d0 db 5e be fc 9c c0 3d
       0.12165973 0.12365113 -0.2176354 0.094049424
0000d0 f8 d7 48 be 0e a9 06 3d 63 05 99 3d eb e4 f6 bd
       -0.19613636 0.032876067 0.074717306 -0.120553814
0000e0 10 cc 6f 3d a5 d9 18 be 6c e0 d2 3c 81 92 82 3b
       0.05854422 -0.14926775 0.025741778 0.00398475
0000f0 d1 df 2b be f3 4c 36 3c 98 c5 4f be e3 ee 06 be
       -0.16784598 0.011126745 -0.2029022 -0.13177066
000100 69 78 71 bd 40 90 14 be e7 a7 46 3c 75 53 1a 3e
       -0.058952723 -0.14508152 0.012124992 0.15070899
000110 25 0b 46 bc 7e 8b a5 bc 19 aa 42 3d 78 90 6e 3e
       -0.012087618 -0.020208117 0.0475255 0.23297298
000120 29 79 88 bd 23 db e2 3c 05 82 6a be b6 e0 22 3e
       -0.066637345 0.027692383 -0.22901161 0.15906033
000130 98 12 f5 bd 3b 0a 60 3e 5b d8 e5 bd 92 ce 31 be
       -0.11966437 0.21878903 -0.11222907 -0.17363957
000140 b9 96 b1 bd 56 e7 65 bd 84 c2 e6 bd ee 8a 40 be
       -0.08671326 -0.056128822 -0.1126757 -0.18802997
000150 32 06 4d be 76 a4 3c bb 1b b2 6f 3e f3 90 3c be
       -0.20021895 -0.002878455 0.23407786 -0.18414669
000160 81 dc 17 be 32 f7 e6 3d 9e 4c 09 be 85 ba 80 3d
       -0.1483021 0.112776175 -0.13408133 0.06285576
000170 19 65 62 3e 45 55 07 3e 84 16 3e be 90 eb 7a 3e
       0.22108878 0.13216121 -0.18563277 0.24503922
000180 9e ab 7e bb c4 0c 4b be 5a 5a 4e 3e 57 6f 98 3d
       -0.0038859616 -0.19829088 0.20151654 0.074431114
000190 25 9b 5f bd 6f 64 63 3e 89 38 9b bd 77 48 87 bc
       -0.054591317 0.22206281 -0.075791426 -0.016514046
0001a0 92 8d 10 be 19 e6 f6 3c 68 34 f5 bd b8 64 21 be
       -0.14116505 0.030139016 -0.11972886 -0.15761077
0001b0 7e 7c 1f 38 ee fd e2 bd e2 f0 b8 3d d7 28 08 3c
       3.8024496e-05 -0.110835895 0.0903032 0.008310518
0001c0 99 52 cd ba a7 9f fd 3d 7f e8 18 be 82 d7 24 3e
       -0.0015664875 0.12383967 -0.1493244 0.16097835
0001d0 72 14 31 3e e8 79 4b b6 3b b0 84 3d 39 f2 a5 36
       0.17292956 -3.0320316e-06 0.06478926 4.9455816e-06
0001e0 da a4 38 3e dc ec a8 bc 88 20 3a bd b5 45 8b 3c
       0.18031636 -0.020620756 -0.04544118 0.017001012
0001f0 3b a4 44 38 2b d2 11 3e 97 a8 21 be c8 f5 34 bc
       4.6882993e-05 0.14240329 -0.15786968 -0.011044927
000200 42 12 5d bd 7d 29 24 3e d5 37 b6 bd d0 d9 01 bd
       -0.05397249 0.16031452 -0.08897368 -0.031701863
000210 c3 2b 20 3d 3b ff 44 3c 35 e7 61 3c 02 14 8a 3c
       0.039104234 0.012023742 0.013788034 0.016855244
000220 38 50 32 be 90 67 66 be 2a 0a d9 bd 3e ed 68 3d
       -0.17413414 -0.22500443 -0.10597642 0.056866877
000230 25 76 c9 bd b8 49 03 be ca c7 47 3e b9 ab 93 bc
       -0.098369874 -0.1282109 0.19509807 -0.01802622
000240 61 49 d8 3c aa 9c 4a be 9f 2e f6 3d b4 3e 2f 3e
       0.026402177 -0.19786325 0.12020611 0.17113763
000250 f6 f2 ab bd 6f aa 67 3e ea d4 45 be 59 2f 59 3e
       -0.083959505 0.22623609 -0.19319502 0.21209468
000260 01 5f 48 be 6b 3c 6b bd 68 b9 18 be a2 ee bb 3d
       -0.19567491 -0.057430666 -0.14914477 0.09176375
000270 bc ca 4f bd 35 82 fd 3d 8c e5 1c 3c 08 de f9 3d
       -0.050730452 0.12378351 0.009576213 0.12200552
000280 05 2b 26 bc 08 fd 1f 3e 36 62 f2 bc 87 58 3d 3d
       -0.010142093 0.15623868 -0.029587846 0.046227004
000290 35 b1 9a bd f0 6f b4 3d 96 43 8b 3c f6 ae 68 be
       -0.07553331 0.08810413 0.017 -0.22722992
0002a0 fd 4f 4f bd 30 88 11 be db c9 34 bc 67 e8 22 3c
       -0.050613392 -0.14212108 -0.011034454 0.009943104
0002b0 e3 3f c0 3d 37 cf 66 bd f8 2e 07 be d4 e5 1c 3e
       0.093871854 -0.05634996 -0.13201511 0.15322047
0002c0 f6 17 87 bc af cd f2 3d 23 cc e7 bd 7a b5 38 3e
       -0.016490918 0.11855637 -0.11318233 0.18037978
0002d0 91 72 b7 3c 42 69 a2 3d 5e 91 d8 3d eb 07 ea bd
       0.022393497 0.079302326 0.105746016 -0.114272915
0002e0 df d4 60 be fb fc 6a 3e f7 70 fd bc 0a 36 3a 3e
       -0.21956204 0.22948067 -0.030937655 0.18184677
0002f0 71 f8 0f 3e 3b a0 d9 bd 22 21 cd 3d 1f 01 09 3e
       0.14059617 -0.10626265 0.10016085 0.13379334
000300 13 b1 2f bd 2c 67 24 be 3b e3 8f 3c 2b 63 5b bd
       -0.04289348 -0.16054982 0.017564407 -0.05356137
000310 aa 63 8d 3d 1e 57 0c 3e 78 3d 4e 3e e0 77 08 be
       0.06903775 0.13705108 0.20140636 -0.13326979
000320 16 4e 59 3e 69 1c 55 be 3a 83 46 bd 57 c8 d0 bb
       0.21221194 -0.20811619 -0.04846499 -0.0063715386
000330 91 37 de 3d 9b 88 19 be 55 b6 63 be ae d1 55 be
       0.10850442 -0.14993517 -0.22237523 -0.20880768
000340 e8 6b 03 bd 1a 80 7a 3e 93 5c 50 be db 34 19 3e
       -0.03208533 0.2446293 -0.20347814 0.14961569
000350 b4 c5 6e 3e c1 5c 0a bc 3d 55 28 3e 81 1c 20 3e
       0.23317605 -0.008444966 0.16438766 0.15635873
000360 6e 08 36 be ab 5a e9 bd 9f 41 1f 3e 80 ee 01 be
       -0.17776653 -0.11394247 0.15552376 -0.12688637
000370 71 0a 70 be 47 8d 18 be 74 fe 22 be 0b 84 5a bd
       -0.23441483 -0.14897643 -0.15917379 -0.053348582
000380 9b 44 29 3e 7b ec 69 3e f2 96 94 bd 16 34 55 3e
       0.16530077 0.22844116 -0.07255353 0.2082065
000390 a3 71 71 be e9 09 98 bd 43 22 dd bd 7f 21 d7 3d
       -0.23578505 -0.07423765 -0.107975505 0.10504436
0003a0 34 65 36 3e d6 13 c5 bd f4 19 31 be f1 40 18 be
       0.17812043 -0.09622924 -0.17295057 -0.14868523
0003b0 fb 0c 45 3e 48 46 ea bd ae 04 14 be ba d9 c2 bd
       0.19243233 -0.11439186 -0.1445491 -0.09514184
0003c0 34 59 88 bd 3a 36 27 3e b8 e8 28 bd 9f 38 0a 3e
       -0.06657639 0.1632928 -0.041237563 0.13498162
0003d0 9e 42 e2 bd 43 3a 8e bd a6 8e 61 3e eb f2 13 3e
       -0.110478625 -0.06944706 0.22027072 0.14448135
0003e0 ea 21 6f 3e 33 a4 63 3e 70 40 08 be 21 48 50 be
       0.23352781 0.22230606 -0.13305831 -0.20340015
0003f0 42 7b 24 be d6 7e 31 bd 58 bb f4 bd fc 43 5f bd
       -0.16062644 -0.04333385 -0.119497955 -0.054508194

bias f4 [680]
000000 57 68 8d bc be 23 75 3e b8 ba a3 3b ff 12 d1 3d
       -0.017261667 0.23939416 0.004996624 0.10208701
000010 ee d4 1c 3e 4c 14 7d 3d f9 3b c4 bd 11 e4 0c be
       0.15315601 0.061786935 -0.095817514 -0.13758875
000020 ea 27 c9 bc 55 8c 5d 3e 0a d1 76 3e 07 73 19 bd
       -0.024555165 0.21635564 0.2410318 -0.037463214
000030 fb 16 62 bc fa 5e 6f 3e 8c 8d 48 bc 2c 33 01 bd
       -0.013799424 0.23376074 -0.012240779 -0.031542942
000040 5c d9 07 be c2 1f 2a be a7 1b e4 ba c4 e1 f7 bb
       -0.1326651 -0.16613677 -0.001740326 -0.007564755
000050 06 28 5e 3e c2 d5 46 3e 13 57 74 3d 17 ab 9f 3b
       0.21694955 0.1941748 0.059653353 0.0048726904
000060 d0 79 2b be 18 e7 0f 3d 9c 12 52 3e c3 f2 32 3d
       -0.16745687 0.035132498 0.20514911 0.043688547
000070 07 08 f1 bd be 5f ac bd dd 50 f2 bd ad 77 05 3e
       -0.11769109 -0.08416699 -0.1183183 0.13033934
000080 57 ef 69 bd d7 cf 0d be 3e 59 01 3e ea 44 37 be
       -0.057113018 -0.13848816 0.126317 -0.17897382
000090 bb 03 0e bc 83 44 42 be 68 ed 1f 3e 36 28 15 3d
       -0.008667882 -0.18971448 0.15617907 0.0364153
0000a0 69 84 2a 3e a4 a7 10 3d a8 ac 76 bd 6d c8 23 bd
       0.16652073 0.035316125 -0.06022325 -0.039986063
0000b0 2b 0c 4f 3e 19 fe 10 bd 14 b5 67 3e 28 e7 95 3d
       0.20219485 -0.035398576 0.2262767 0.0731948
0000c0 a9 96 e4 bc a8 26 d0 3d e0 5f 22 3e 4c d6 c3 bd
       -0.027903872 0.10163623 0.15856886 -0.09562358
0000d0 4c 46 21 3e f9 d9 ab bd 64 c1 38 be 2c 6a 01 3e
       0.15749472 -0.08391184 -0.18042523 0.12638158
0000e0 09 31 5b 3e 80 55 02 bc 1f e0 65 bd ef 6a e3 3c
       0.21405424 -0.007954955 -0.05612194 0.02776095
0000f0 c7 90 52 be d3 31 4f bd de 4e 82 3c 72 90 5d bd
       -0.2056304 -0.050584625 0.015906747 -0.054092832
000100 d0 48 2e be 54 21 e6 3d 7a 56 3b be d6 68 05 bd
       -0.17019963 0.112368256 -0.18294707 -0.032570682
000110 a8 8d f0 bd 2b ea 38 3e f7 cd ec 3d 6a 03 00 3e
       -0.11745769 0.18058078 0.11562722 0.12501302
000120 02 44 bf 3d 7f 0e 06 be d0 74 e8 3d b4 dc 71 3e
       0.09339143 -0.13091467 0.11350405 0.23619348
000130 56 b1 31 be 92 ac 6b bd 41 ad b6 3d 0f 32 76 3e
       -0.17352805 -0.057537623 0.08919764 0.24042533
000140 b1 ef 23 bc f8 fe df bd 46 9d 4e 3e 8d c0 92 3d
       -0.010005877 -0.10937303 0.20177183 0.071656324
000150 84 9e f7 bd 3b 9b 46 3c c8 fd cf 3d e4 33 38 be
       -0.12090781 0.012121971 0.10155827 -0.17988545
000160 57 97 48 be e3 4c 9f bd de 02 35 be 9b 90 47 3e
       -0.19588982 -0.07778337 -0.17676875 0.19488756
000170 c3 f5 47 3d 06 bb 8f 3d 3a b7 c8 bd 3f fa 03 bd
       0.04881836 0.07018094 -0.09800573 -0.032221075
000180 58 a8 63 3e a6 58 04 be 34 74 50 bd cb c6 9e bc
       0.22232187 -0.12924442 -0.05089207 -0.019381901
000190 47 d3 00 be 69 77 16 3e 86 21 51 3e e5 de 5f 3e
       -0.12580596 0.14693989 0.20422944 0.21862371
0001a0 e7 e0 11 bd dc ce 19 3d 50 e9 fb bd 10 a3 46 be
       -0.035614874 0.037550792 -0.1230036 -0.19398141
0001b0 6d f3 e1 3d 6a cd 03 3e 9f 62 c7 bd 4a e4 23 be
       0.11032758 0.12871328 -0.09735607 -0.16005054
0001c0 40 c6 c6 bc 5b f4 29 be 3f 68 f9 bd b6 be da bd
       -0.024264455 -0.1659712 -0.121780865 -0.106809065
0001d0 0d 54 93 bd 31 38 c4 bd cb 0e 92 bc 15 7a 60 bd
       -0.07193766 -0.0958103 -0.01782932 -0.054803926
0001e0 fc e3 75 3d d3 a7 ac 3b 84 65 17 3e 5a 8b 90 3d
       0.060031876 0.0052690296 0.14784819 0.07057829
0001f0 52 68 e0 3d f0 c9 59 3e 8c 6a 3e 3e bd e8 ee 3c
       0.109573975 0.2126844 0.18595332 0.029163713
000200 c4 f8 02 be 2c 89 36 be b3 03 34 3e c7 61 40 3e
       -0.12790209 -0.17825764 0.17579536 0.18787299
000210 5c 91 a1 bd 34 fa 09 3e e3 28 2c be c6 d3 78 3c
       -0.07889053 0.13474351 -0.16812472 0.0151872095
000220 63 6e b5 bc 24 ab a5 bd f1 bf 27 be f1 bc 27 3b
       -0.022147363 -0.08089283 -0.16381814 0.0025594796
000230 aa 04 c4 bd c0 4e 4a 3e 2e 60 05 3a 53 49 0a bd
       -0.09571202 0.19756603 0.0005087879 -0.033761334
000240 2f 95 2d be bf 22 ac 3d ff c1 34 be 7d 1d e3 3c
       -0.1695144 0.08405065 -0.17652129 0.027724022
000250 4d a4 b3 bb 7c 44 b9 3d 7b 10 72 3e 5b 10 c5 bd
       -0.0054822327 0.090462655 0.236391 -0.0962226
000260 38 ac 23 be 57 f8 2a bd 79 fd 46 bd 72 13 5d 3e
       -0.15983665 -0.04174074 -0.048581574 0.21589449
000270 07 86 86 3b fd 6d 09 3e 29 0b 11 3e cb 93 bc bd
       0.004105333 0.13420863 0.14164414 -0.09207877
000280 88 2b 9c 3c e3 23 f2 bd 9d 1f 32 bc 23 90 12 bd
       0.019063726 -0.11823251 -0.010871795 -0.03578199
000290 5a b0 85 3d 31 aa 12 3e 30 d5 0a 3e e3 b0 00 be
       0.06527777 0.14322735 0.13557887 -0.12567477
0002a0 45 03 53 3e 2d 46 df bd 05 97 55 3e 46 13 19 3e
       0.20606716 -0.10902057 0.2085839 0.14948758
0002b0 7b 2c 47 be f9 49 d5 bd 0a f1 3c be 2e b7 62 bd
       -0.19450562 -0.104145 -0.18451324 -0.055350475
0002c0 88 2d 23 3d d6 fb 12 be 8c a5 29 bd 78 30 74 3e
       0.039838344 -0.1435388 -0.041417643 0.23846614
0002d0 92 e2 26 be 6c d0 4f bd 3b e5 96 bc 33 ac 06 3e
       -0.16297367 -0.050735876 -0.018419852 0.13151626
0002e0 3e f7 03 3e 2d fc ab bd 0c 77 49 3e 74 10 06 3e
       0.12887284 -0.08397708 0.19674319 0.13092214
0002f0 46 7c 13 3e 17 58 55 3e 96 5a 02 be a4 36 6f bd
       0.14402875 0.20834385 -0.12729868 -0.05840172
000300 1f 0d 6c 3e ea dc 1c bd 95 43 39 3c 33 bc 3a be
       0.2305188 -0.038296618 0.011307617 -0.18235855
000310 4e d5 5d bd 2d c9 94 bc 6b 39 c7 3d ab fa 54 bc
       -0.0541585 -0.018162334 0.097277485 -0.012999217
000320 96 9c 26 3d ae b5 23 be 08 5e 59 bd c5 cd 32 3d
       0.040676676 -0.15987274 -0.05306819 0.04365327
000330 8a 1f bc 3d a1 ac 38 be 43 0f 15 be 42 17 44 be
       0.09185703 -0.18034603 -0.14556603 -0.19149497
000340 89 e1 85 bd 0b 0f e2 3d a3 61 32 be ae 21 79 3e
       -0.06537158 0.110380255 -0.17420058 0.24329254
000350 34 ac fe 3c c3 c6 c4 3c 6d 79 3c 3e c9 74 23 bd
       0.031087972 0.024020558 0.18405695 -0.039906297
000360 93 ef b8 bd 70 d4 54 be 0f eb a3 3c fd 2b 02 be
       -0.0903007 -0.20784163 0.020009546 -0.12712093
000370 3b 6c 0b 3e 35 10 43 be 78 fd b8 bd c3 52 96 bd
       0.13615505 -0.19049151 -0.0903272 -0.07340004
000380 26 57 66 b9 15 34 42 3e d3 04 2e 3e 7b 56 8f bd
       -0.00021966975 0.1896518 0.16994028 -0.06998917
000390 39 a4 14 3e 04 4e 37 bd de d7 6c 3d f5 c2 8d bd
       0.14515771 -0.044752136 0.057823054 -0.06921951
0003a0 25 19 70 3e 8f 27 a2 3d 5a f1 29 bd 4b e6 2d be
       0.23447092 0.079177015 -0.041489936 -0.16982381
0003b0 83 4b e4 3d a1 a1 71 3e ed ff 97 bd 1b a4 2e 3e
       0.11147215 0.23596813 -0.07421861 0.17054789
0003c0 97 e4 32 be 5b 1b 9a bd 19 a5 ea 3d da 99 14 3e
       -0.17470013 -0.07524749 0.11457271 0.14511815
0003d0 93 12 2d 3e bb e1 bb 3d e4 9d 59 be 17 8c 04 3e
       0.16901617 0.09173914 -0.21251637 0.12944065
0003e0 45 92 73 3e 5c 31 10 be 65 ae b7 bd 08 36 89 3d
       0.23786266 -0.14081329 -0.0896881 0.06699759
0003f0 50 65 11 3e cb eb ff bc a5 c3 25 be 8f de 0e bd
       0.14198804 -0.031240365 -0.16187914 -0.034880217
