estimators/knet/single_obs/MSE_ep100_train4000_val1000_test10000_lr1e-03_wd1e-04_ri[4, 4, 1, 1]_data_sr1e-01_q1e-04_r1e-01_j5_train[200,250]_val[40,250]_test[40,250].pt (torch, 157275 bytes, 40 tensors)

weight_ih_l0 f4 [48, 20]
000000 54 6f aa bc 0d 94 56 be 1b 90 4a 3e 09 f0 f3 bc
       -0.020805039 -0.20954914 0.19781534 -0.029777544
000010 f5 f1 ef 3d d0 79 54 bd 3e 4e 2c 3e 5d f8 86 bc
       0.117160715 -0.051873982 0.16826722 -0.01647585
000020 36 8c 33 3e 51 b6 11 3c ad c2 17 3d 4b 39 82 be
       0.17533955 0.008893565 0.03705089 -0.25434336
000030 e0 90 30 3e 43 4d 3c 3e fe 42 f7 3c 06 6c 13 be
       0.17242765 0.18388848 0.030183312 -0.14396676
000040 3f 3b 73 3d c8 53 39 3e d3 44 19 39 20 6f 59 3e
       0.059382673 0.18098366 0.00014616856 0.21233797
000050 a5 e4 cc 3c ac e6 34 3e 6f b4 cf bd c0 ef 13 3e
       0.02501137 0.1766612 -0.10141837 0.14446926
000060 e0 d8 d4 3d e7 9c 14 3e af 15 10 3c b3 53 8e bd
       0.10392928 0.14512978 0.008794232 -0.06949558
000070 3a f5 0f 3d c8 27 cf 3c e5 61 8d bd 87 30 4b 3e
       0.035145976 0.025287524 -0.069034375 0.1984273
000080 17 72 46 3e f2 4b 5e 3e 47 3e ec 3d 29 43 59 3e
       0.1937946 0.21708658 0.11535316 0.21217026
000090 ed 4d 89 3e a9 0f 5e 3e 97 2a 81 b9 94 2b 26 3d
       0.26817265 0.21685661 -0.0002463653 0.040568903
0000a0 36 4f c4 bd ca a8 c9 3d 3f 5d 32 be d2 9a 98 bd
       -0.09585421 0.09846647 -0.17418383 -0.07451405
0000b0 9f 98 15 bd 5d 0b 31 3d 26 e4 3b 3e 91 a7 12 3c
       -0.036522504 0.043223727 0.1834875 0.008951084
0000c0 b2 be 4e be e5 2b 19 3e 40 85 f2 3d a2 c6 09 3e
       -0.20189932 0.1495815 0.11841822 0.13454679
0000d0 94 ba 0e be 58 32 d1 bd b3 3f d3 bd 2f a6 72 3e
       -0.13938361 -0.102146804 -0.10314884 0.23696207
0000e0 d0 0d 86 3e c0 f7 64 be bd 4a 9e 39 8e fc 77 bd
       0.26182413 -0.22360134 0.00030191793 -0.06054359
0000f0 b6 c6 e7 3d f6 bc c6 bc 21 22 ec bd da e8 e7 bd
       0.11317198 -0.024260025 -0.11529947 -0.1132371
000100 90 e3 57 3e 8e 79 08 be 8b cf 19 bd 13 15 38 be
       0.21082902 -0.1332762 -0.037551444 -0.17976789
000110 bb 49 e6 3d 35 17 89 bc 92 24 15 bd 19 a7 ed bd
       0.11244532 -0.016734699 -0.03641183 -0.11604137
000120 d2 f7 02 3e b3 99 61 3d de 61 88 bd 98 d6 01 3e
       0.12789848 0.05507822 -0.06659292 0.12679517
000130 83 c5 72 be e2 20 08 be 82 a0 d3 bc 0f eb 36 3e
       -0.23708157 -0.13293794 -0.025833372 0.17863105
000140 16 6c c3 3d a1 90 ce 3d 1e 4b 44 3d a4 2c 3e bc
       0.095421 0.100861795 0.0479232 -0.011607323
000150 60 3a 94 3d dc a9 4f 3c 90 38 52 be 3f fe ec bd
       0.07237697 0.012674775 -0.2052939 -0.11571931
000160 c0 92 07 3e 07 c8 dd bd 2d ad 43 be 14 84 57 3e
       0.13239574 -0.10829168 -0.1910903 0.21046478
000170 ed 90 6b 3d 4d 86 aa bd 55 84 83 3e da 28 80 3d
       0.05751126 -0.08326397 0.256869 0.06257792
000180 65 af 25 3e 26 8f 8f 3b 10 5a cc 3d d8 e3 4d be
       0.16180189 0.0043810783 0.099781156 -0.20106447
000190 ab 51 07 bc 84 ea 50 3e f7 c4 1b 3e 16 6b 3c bc
       -0.008259217 0.2040196 0.15211855 -0.011500141
0001a0 45 e3 94 3d 18 6c dd 3d 03 f7 ca 3a fc cd 7c 3e
       0.07269911 0.10811633 0.0015484992 0.24687952
0001b0 3d 80 2e 3e ed a4 0b 3e 11 60 ff 3d 66 41 c8 3d
       0.17041107 0.13637133 0.12469495 0.09778099
0001c0 92 7f 10 be 55 5c 3a 3d 22 4b 1e be 4b d2 47 3e
       -0.14111164 0.04549821 -0.15458348 0.19513814
0001d0 43 b9 91 3d ab 9b 04 3e 51 24 d6 39 a3 d3 29 be
       0.07115414 0.12950008 0.0004084432 -0.16584639
0001e0 8a fb 93 bc ca a1 55 3d c4 46 f2 3d c6 86 65 bd
       -0.01806428 0.052156247 0.11829904 -0.056036733
0001f0 b5 0f bc 3d 7b 23 28 3e 4a 03 e7 bd 54 72 65 3e
       0.091826834 0.16419785 -0.11279924 0.22406894
000200 e1 03 61 3e 55 c5 05 3e 74 5a 6d 3e d6 18 02 3c
       0.21974136 0.13063557 0.23179036 0.007940492
000210 06 58 05 3e d8 3a 8d 3d 60 dc d4 3c 8c 70 96 bd
       0.1302186 0.06895989 0.02598399 -0.07345685
000220 f0 5d 06 be c6 c4 21 be c1 5d 01 be 9a 4a 23 3e
       -0.13121772 -0.1579772 -0.1263342 0.15946427
000230 4c f1 91 bd 21 b7 8f 3d f6 4e 00 be e3 8b fd 3d
       -0.07126102 0.07017351 -0.12530121 0.12380197
000240 75 83 3b 3e b3 33 82 bd e3 ed 20 be 06 38 75 be
       0.18311866 -0.06357517 -0.15715747 -0.23947152
000250 9f 06 12 3e 22 d5 7b 3e 8a 78 ac 3c f2 cb e7 3c
       0.14260338 0.24593022 0.021053571 0.02829549
000260 f2 bf ce 3d 2d 18 42 be af 8f 55 be e3 5d 35 be
       0.100952044 -0.18954535 -0.20855592 -0.17711596
000270 18 71 e4 bd 0d 78 c8 3d e9 85 15 39 39 59 3a 3d
       -0.111543834 0.09788523 0.00014259633 0.045495246
000280 89 bb fb 3b 52 28 2b 3d ce 05 f2 bc 53 d7 0d be
       0.007682268 0.0417865 -0.029543784 -0.13851671
000290 18 de 8b bd 69 e7 6f be a3 7a 18 be d5 1b 06 3c
       -0.068294704 -0.2342812 -0.14890532 0.008185347
0002a0 ae 33 4e be f0 c1 5e be 97 9b 09 3e ec b7 dd bd
       -0.20136902 -0.21753669 0.13438259 -0.10826096
0002b0 09 d9 a9 3c db 75 8b bd 1c 15 f0 3d 43 f3 9a bd
       0.020733373 -0.068095885 0.11722776 -0.0756593
0002c0 fc de 99 bd 81 c0 fd bd ca 86 2c bd 47 d8 ec bd
       -0.07513234 -0.12390233 -0.042120732 -0.11564689
0002d0 53 4b ba bd dc 52 2d 3e ee e1 64 be fe 43 8e bd
       -0.09096398 0.1692614 -0.2235181 -0.06946562
0002e0 d9 2a d9 3d 0b 50 74 3e 91 a7 1d be 37 e6 5a 3e
       0.10603876 0.23858659 -0.15395953 0.21376882
0002f0 ca b0 49 3d f3 ca 5b 3e 3e b2 d4 3d 03 d5 5c 3e
       0.049240865 0.21464138 0.103855595 0.21565633
000300 c1 16 dd bd 99 18 65 3d 2c 19 d8 bc 1f 18 4f be
       -0.107953556 0.05593166 -0.02637919 -0.20224045
000310 1b 24 61 bb ae 26 7d 3d ef d7 fd bd 3d a6 f2 bd
       -0.0034353796 0.061804466 -0.12394702 -0.11848114
000320 d7 15 05 39 71 f5 56 3e 29 42 cf 3d 9a 84 d9 3c
       0.00012692004 0.20992066 0.10120041 0.026552487
000330 1f 49 62 3e a2 be 44 3e 87 46 84 be 8a 9c 8f 3d
       0.22098206 0.19213346 -0.25835058 0.07012279
000340 3c 0a 68 3e 7c d7 83 bd 0a 80 49 3e 4c 47 0d be
       0.22660154 -0.06437585 0.1967775 -0.13796729
000350 29 4a 82 bd 8b ce 39 be fe db 48 be ad d8 77 3d
       -0.06361801 -0.18145196 -0.1961517 0.060509373
000360 f6 c9 00 3e fc 54 fb bd 8c a2 79 bd a5 ba 12 3e
       0.12577042 -0.12272069 -0.060946032 0.14329012
000370 a0 89 03 be 81 a7 be 3d 17 7a f3 bb ec 34 12 b9
       -0.12845469 0.093092926 -0.0074303257 -0.0001394336
000380 d0 7d 6b be 98 8c 90 3d b1 6f 80 be 0a b9 99 3d
       -0.22997212 0.07058066 -0.25085214 0.075059965
000390 3a e8 46 3e 08 65 4c be e7 f1 d8 bd 55 c7 23 3e
       0.19424525 -0.19960415 -0.10593014 0.15994008
0003a0 05 36 82 3e 19 ee 4e be 7a 31 e7 3c 2c 64 84 3e
       0.2543184 -0.20208015 0.028221834 0.25857675
0003b0 5d 9b 2e 3e bc aa bf 3c 32 93 36 35 16 e0 b6 bc
       0.17051454 0.023396842 6.801448e-07 -0.02232365
0003c0 b8 8e 22 39 c0 4e 88 3e 6c da b8 3c 38 85 14 be
       0.00015502691 0.2662258 0.02256509 -0.14503944
0003d0 bb 9a b2 bc 10 1c 95 3d 41 25 85 3e 62 38 5c be
       -0.021802297 0.07280743 0.26004985 -0.21505883
0003e0 1d 3f 0f be b1 c6 18 3d f6 89 d6 bd b9 8a 33 bd
       -0.1398892 0.037298862 -0.10475533 -0.043833468
0003f0 70 a6 e1 3d e9 18 eb bd 29 81 10 be 71 0f 48 3c
       0.110180736 -0.114793606 -0.1411177 0.012210713

weight_hh_l0 f4 [48, 16]
000000 bc 4b c6 3d 83 72 70 3d 98 d0 0b bd fc ff 3c 3e
       0.09682414 0.058702957 -0.034134477 0.18457025
000010 30 0d 4d be 07 c7 6b 3e 28 85 48 3e 60 6e 3c be
       -0.20024562 0.23025142 0.19582045 -0.1840148
000020 9f f5 b8 3d 4d c5 ae 3c a2 85 eb bd 87 b1 33 3e
       0.090312235 0.021334315 -0.11500098 0.1754819
000030 41 d1 55 3d ab 6f 2d 3c bc 52 55 3d fe ce 42 3e
       0.052201513 0.010585706 0.052080855 0.19024274
000040 28 73 3b be c8 43 62 be 9a 7f 77 3e 37 df 85 3d
       -0.18305647 -0.22096169 0.2416977 0.065367155
000050 3f 1c 0c be ff e8 41 3e 55 c0 52 be 3e b8 7a 3e
       -0.1368265 0.18936537 -0.20581181 0.24484345
000060 70 15 34 3e 32 ff 7d bd 8f d6 54 3e 34 b3 5a 3e
       0.17586303 -0.06201095 0.20784973 0.21357423
000070 0f 9f 8f 3c 71 40 97 bc 6a ce 0a 3e 3c 90 4a 3d
       0.0175319 -0.018463345 0.13555303 0.04945396
000080 1d dc f8 3c 2c bd 3b 3e 6d e5 3e be 16 bf ce bc
       0.030378396 0.18333882 -0.18642206 -0.025237601
000090 4b 3e e8 bc 6a fc 21 be ad c4 11 be 60 c6 15 be
       -0.028350016 -0.15818945 -0.14235182 -0.14626455
0000a0 03 37 f0 3d 57 ca 18 be 55 f6 83 3e 7c ad a0 3d
       0.11729243 -0.14920937 0.25773874 0.078455895
0000b0 ea da 6b 3e c6 aa 7d bc 46 68 d3 3d 09 69 ca 3c
       0.23032728 -0.01548261 0.10322623 0.024708288
0000c0 4f 9f 0c 3e fe a7 1d 3c 4a 7a 27 3d 49 67 20 be
       0.13732646 0.009622572 0.04088811 -0.156644
0000d0 fa 69 f3 bd 7f 43 de bd 25 5e 2b bd 58 9f f7 3d
       -0.11885448 -0.108527176 -0.04183783 0.12090939
0000e0 7b f0 71 3e 36 00 3b bc 76 5f 2b 3e 76 ce 90 3d
       0.23626892 -0.0114136245 0.16735634 0.07070629
0000f0 ff 08 76 3d 47 93 82 3d 90 9b 26 be f1 cf 01 be
       0.060067173 0.06375747 -0.1627028 -0.1267698
000100 e5 64 43 bd cd 1b cc 3d fc b2 77 3e e0 30 04 3d
       -0.047703642 0.0996624 0.24189371 0.032273173
000110 92 c1 e2 bd 8c 40 92 bd ff 5d f5 3c 96 bf 5f be
       -0.11072077 -0.071412176 0.029952047 -0.21850428
000120 8a 70 4a bd 93 47 f0 bb 08 0e d2 bd ff 9f ba bd
       -0.049423732 -0.007332751 -0.102565825 -0.09112548
000130 c2 9a 96 bb 6e 9b 00 3d 5e be f0 3c 91 18 02 be
       -0.0045960853 0.03139823 0.02938765 -0.12704684
000140 3d f2 2b be 63 1f 9e 3d 67 a4 1f 3e c2 31 0f 3e
       -0.16791625 0.0772083 0.15590058 0.13983825
000150 08 b7 e1 bc 1c c4 bd 3c 28 13 20 bd 23 f5 66 bd
       -0.027553096 0.023164801 -0.03908077 -0.056386124
000160 6d d9 80 bd 5b d4 33 bc 3a 61 e0 3d 4a 02 b4 3d
       -0.06291471 -0.010975922 0.109560445 0.08789499
000170 52 9c 1f be bb 6a fb bd 6e a8 94 bd e9 2a ae 3d
       -0.15586975 -0.122762166 -0.07258688 0.08504278
000180 66 f6 5c 3e b5 7c 4c be 14 f2 6b be dd 49 0b 3e
       0.21578369 -0.19969447 -0.23041564 0.13602395
000190 8a 00 c1 bd c9 57 90 3d c0 61 bb bd ca 71 31 3e
       -0.09423931 0.07047994 -0.09149504 0.17328563
0001a0 73 04 a2 3d 7f 89 d3 3d 2b 37 d7 bc f2 b2 a3 bd
       0.07911005 0.1032896 -0.026271423 -0.079931155
0001b0 d5 37 3c 3c 51 52 6e be b5 a9 0e 3e 98 f0 26 3d
       0.011487921 -0.23273589 0.13931926 0.04075679
0001c0 60 76 ce 3c b8 41 11 3e af 22 2d 3e 37 cd bb bd
       0.02520293 0.14185226 0.16907762 -0.09170001
0001d0 e0 58 7c bd e3 f2 42 be 15 dc 86 3d 85 f7 3c be
       -0.061608195 -0.19037966 0.06584946 -0.18453796
0001e0 ed 1a 11 3e 89 22 d9 3d fd 71 78 bd dc 6e 52 be
       0.14170428 0.1060229 -0.060655583 -0.20550102
0001f0 60 96 06 3e 6e 66 60 be c4 f1 14 bc 65 ae 2f be
       0.13143301 -0.21914074 -0.009090845 -0.1715637
000200 78 70 61 be 60 35 37 be 28 ed 7a 3e 51 65 1a be
       -0.2201556 -0.17891455 0.2450453 -0.15077712
000210 4f 51 c1 bd 1e 0b b4 3d 5a a4 62 3e 39 5b 44 bd
       -0.094393365 0.08791183 0.22133008 -0.04793856
000220 5f 1e 1e bb 71 69 a2 3d 46 b1 1a be 1c 80 47 be
       -0.002412699 0.079302676 -0.15106687 -0.19482464
000230 88 6f e0 bd 29 33 09 be 74 aa a4 3d 15 30 3e 3d
       -0.10958773 -0.13398422 0.08040324 0.046432573
000240 8b 1d 53 be 28 35 28 3e 75 90 d0 bc ae 26 e5 3d
       -0.20616738 0.16426528 -0.025459507 0.11189018
000250 5a b5 c6 3d 83 4b 41 be a0 db d6 3d da f8 19 be
       0.09702559 -0.18876462 0.10491109 -0.15036336
000260 3c 08 1b 3e 86 42 c3 bd 03 42 0f 3e 20 2a 7d be
       0.1513986 -0.09534173 0.13990025 -0.247231
000270 10 7e 61 be a6 ab 41 3e e4 2e 70 3d 82 07 be bc
       -0.22020745 0.18913135 0.05863847 -0.02319694
000280 c0 68 16 be 1f 9c e6 bd 47 32 3c 3e 7f 81 5a be
       -0.14688396 -0.112602465 0.18378554 -0.21338461
000290 60 f6 53 3e 10 b0 1d be 12 de e3 bd bf db 93 bd
       0.20699453 -0.15399194 -0.11126341 -0.072196476
0002a0 c2 2a 97 bd 6f 7d b6 3b f9 f6 85 3e 0c f0 31 3e
       -0.07381202 0.005569152 0.26164988 0.17376727
0002b0 a7 7b 99 bd 00 b3 63 be df ab 8e 3b bb 05 0e be
       -0.07494288 -0.22236252 0.0043539847 -0.13869374
0002c0 48 70 25 3e ea a4 25 be ce e6 11 be 3c 0f be bd
       0.16156113 -0.16176191 -0.14248201 -0.092802495
0002d0 43 04 8e 3d 51 b2 15 bd e6 3a b7 3d 10 0b 2b be
       0.069344066 -0.03654701 0.08946781 -0.16703439
0002e0 90 c1 21 be 76 88 a8 3d d9 99 3d bc a4 1c 94 3d
       -0.15796494 0.08229153 -0.011572325 0.07232025
0002f0 d2 c7 36 be 57 a6 33 3e 47 b0 6b 3a 34 d5 35 be
       -0.17849663 0.17543922 0.0008990806 -0.17757112
000300 1f 93 95 3d ae 7e 41 3e 69 6f 4d 3e 4d d3 c4 bd
       0.07303452 0.1889598 0.20062031 -0.09610615
000310 25 f3 b4 bd 61 84 02 be ea 8e 43 be 3d 4c 45 be
       -0.08835439 -0.12745811 -0.19097486 -0.19267364
000320 da cc 63 3e 3f 76 20 3e b8 1f 4e 3e 2b e7 d8 bd
       0.22246113 0.15670107 0.20129287 -0.10590967
000330 79 e3 1a be 53 7d 62 be dc ea 14 3d e6 96 e3 3d
       -0.15125836 -0.2211812 0.03635679 0.11112766
000340 bf 0a 22 bc 48 47 3e 3c df 9e 0c bd 07 d3 24 be
       -0.009890257 0.011613674 -0.0343312 -0.16096126
000350 2e 9e 3a 3e 08 d6 0b be 83 2b f1 bd ac 61 3d bd
       0.18224403 -0.13655865 -0.11775877 -0.046235725
000360 13 44 61 3e 6c 2b 95 3c fe 17 8a be 49 c0 9d bd
       0.21998625 0.018209182 -0.2697143 -0.07702691
000370 4d c0 b2 bc f3 7c 0b 3e 1d c4 5d 3e 93 9d 43 3e
       -0.021820212 0.13621883 0.21656843 0.19103079
000380 a7 e4 79 be d0 4d 9e bd 93 2b 5c 3d 07 84 27 3e
       -0.2440363 -0.07729685 0.053752493 0.16358958
000390 a4 6e 5a 3e db a9 8f 3c f9 f7 37 be 16 96 25 be
       0.21331269 0.017537048 -0.17965688 -0.16170534
0003a0 4b 9e 70 3e 68 10 5e be 02 97 90 bd 45 fe b7 bd
       0.23497884 -0.21685946 -0.070600525 -0.08984045
0003b0 31 c0 a0 3d 35 8d 15 bd 59 d9 03 be be 11 6d bd
       0.078491576 -0.03651162 -0.1287588 -0.05787825
0003c0 7a 3e 18 3e 72 23 82 3d 9d 9c 84 3d fe 4f cf bd
       0.14867583 0.06354417 0.06475184 -0.10122679
0003d0 51 84 55 3d a2 c4 ef bc 95 86 69 3e a0 28 05 3e
       0.05212814 -0.029268567 0.22805245 0.13003778
0003e0 b7 e1 5d 3e f9 30 46 be c8 23 5d 3e 2c 27 00 be
       0.21668135 -0.19354619 0.2159568 -0.12514943
0003f0 19 5b 3c be 5c 6f 25 be 9d d6 b9 bd a9 4d 65 3d
       -0.18394126 -0.16155761 -0.09074137 0.055982266

bias_ih_l0 f4 [48]
000000 78 8c 7b be d8 e5 69 3d 77 26 01 bc d4 28 78 be
       -0.24565303 0.05710396 -0.007882706 -0.24234325
000010 0f 2b 79 3e 11 f1 5a be 4b ea 86 bd b6 9d e9 bd
       0.24332832 -0.21381022 -0.065876566 -0.11407034
000020 16 76 5c 3e 73 4f 90 3d 8c 75 6a 3e ba 06 39 3d
       0.21529421 0.07046404 0.22896403 0.04517243
000030 7a 7c 29 3e eb d3 66 3e 5e 2a 0b 3e cc c2 71 3d
       0.1655139 0.22541778 0.1359038 0.059023663
000040 0e f6 05 3a 8a 2e 20 be 27 f4 e6 3c ac 8d 04 3c
       0.00051102124 -0.15642753 0.028192593 0.008090418
000050 34 97 ee 3d da ae 3c 3e d3 5c 19 3e 19 fe fb bc
       0.116499335 0.18426076 0.14976816 -0.030760812
000060 79 b8 3a be a6 f6 46 bd a6 2c 37 bd 73 9d 59 be
       -0.18234433 -0.048575066 -0.044720314 -0.21251468
000070 e6 7e 5c bb 55 34 79 be aa e8 2c 3c a6 40 ae bc
       -0.0033644973 -0.2433637 0.010553518 -0.021271061
000080 86 f1 f7 bd 97 9d 85 bd 7f b0 16 3e 1a 23 1d bd
       -0.12106614 -0.065241985 0.14715765 -0.038363554
000090 b4 6e e6 bc ca 88 74 3e 21 52 14 bd 34 b7 c2 3c
       -0.02812896 0.23880306 -0.036211137 0.023768999
0000a0 dc 20 ec bc c9 29 44 3e 72 38 e4 bd 26 2b 1d 3e
       -0.028824262 0.19156565 -0.111435786 0.15348491
0000b0 f6 05 71 be 40 9b 7f 3e 8c 94 a5 bd cc 38 c5 3d
       -0.2353743 0.24961567 -0.08084974 0.09629974

bias_hh_l0 f4 [48]
000000 5d 96 48 be 6a 1b 2f bc 3f 68 95 bd fe 44 5d 3e
       -0.19588609 -0.010687688 -0.07295274 0.2160835
000010 23 5e 68 3e b2 de 5c 3e d5 69 42 be 10 b4 c6 bd
       0.2269216 0.21569327 -0.18985684 -0.09702313
000020 fd de 66 3e d1 c4 5f be 93 b8 66 3e 98 8c a1 3d
       0.22546001 -0.21852423 0.22531347 0.07888144
000030 c3 5b 88 3d 85 05 ef bd 42 cb 7e bc 7c b9 83 3e
       0.06658127 -0.11670975 -0.01555139 0.2572745
000040 71 10 02 be 07 91 55 be 5a b7 50 be 1b c3 1a 3e
       -0.12701584 -0.20856105 -0.20382443 0.1511349
000050 6f 4b 1c 3e 3b 4f 86 bc 39 68 52 be 82 6c 44 be
       0.1526315 -0.016395202 -0.2054757 -0.19182017
000060 63 16 77 be 32 eb 44 3e ba 32 5f be 78 8c af 3c
       -0.24129634 0.19230345 -0.21796694 0.021429285
000070 b7 43 80 3e 20 74 aa 3d 4e 60 40 3e 01 23 2e be
       0.25051662 0.0832293 0.18786737 -0.1700554
000080 9f 93 4f 3e 14 f2 e7 3d 02 c7 b8 3d 95 b2 20 3e
       0.20271157 0.113254696 0.09022333 0.15693124
000090 ff ff e0 bc 83 ef 6a 3b ff ce 3a 3e 76 bb 36 3e
       -0.027465818 0.0035848327 0.18243025 0.17844948
0000a0 69 59 47 3e 46 8c 76 be 67 8d 0a 3e 29 9f 7a bc
       0.19467701 -0.24076948 0.13530503 -0.015296736
0000b0 5b 96 a0 3d 5c d3 56 be e6 33 94 3d 23 9a 3f be
       0.07841178 -0.20979065 0.07236461 -0.18711142

weight_ih_l0 f4 [48, 36]
000000 fa 5b b8 bc 67 6e f7 bd c4 a2 2e be 5d 22 97 bd
       -0.022504795 -0.120816045 -0.17054278 -0.07379601
000010 60 26 4d be da f9 9d 3d 4c 6c 07 be 3d 18 a3 3d
       -0.2003417 0.07713671 -0.13224906 0.079636075
000020 86 65 bd bd b6 d1 61 3e 77 e5 67 be e7 8f 7a be
       -0.0924788 0.22052655 -0.22646128 -0.24468957
000030 88 6e db bc ed b3 17 3e b8 48 82 bd b8 9a 84 3c
       -0.026786104 0.1481473 -0.06361526 0.016187057
000040 0d a3 08 3e f4 39 48 3d 06 58 e4 bb a8 96 15 be
       0.13343449 0.048883393 -0.006968501 -0.14608252
000050 04 b4 07 3e 04 2f e7 bc ed bd 3d bc 77 4b 1a bd
       0.13252264 -0.028220661 -0.011580926 -0.037669625
000060 b7 79 01 be dd b1 c9 3d 13 e9 27 3e 6a 78 0c 3e
       -0.12644087 0.09848378 0.16397505 0.1371781
000070 f8 ad 58 be 2f b9 c9 3d 8e cc 15 3e a5 bd 78 ba
       -0.21160114 0.09849774 0.14628813 -0.00094887085
000080 60 45 27 bc 72 3c 35 be cf cd 51 3d 90 ab 56 3e
       -0.010209411 -0.1769884 0.051221665 0.20963883
000090 ec 1a a1 bc c1 ff 45 3e b5 f9 35 3d c4 f5 3d 3e
       -0.019666158 0.19335844 0.044427592 0.18550783
0000a0 bc 8a 15 3c 82 f7 0d 3d b0 1f 64 3d 91 76 18 be
       0.009127315 0.03465987 0.055694282 -0.1488898
0000b0 89 9f b8 3d d3 0f 8a bd 31 0e a7 bd fe e3 bc bd
       0.09014804 -0.067412995 -0.08157004 -0.092231736
0000c0 41 b2 28 3e cf 18 bc 3d 17 a8 a5 bd 6c 5d 79 3e
       0.16474248 0.09184419 -0.08088701 0.24352044
0000d0 aa 4e 7d be 53 1c 62 be ff 38 ef 3c 5f 51 0b be
       -0.24737039 -0.22081117 0.029201983 -0.1360526
0000e0 e6 56 6b be 95 01 0f 3e 21 63 39 3e f1 ed ea 3c
       -0.22982368 0.13965447 0.18104221 0.028677912
0000f0 70 ae 55 38 5b 8a 86 bd 30 ba 58 3e 43 24 e2 bd
       5.0945615e-05 -0.06569358 0.21164775 -0.110420726
000100 d1 78 e6 3d a3 e0 04 be ba 15 7d bc 52 19 a6 3d
       0.11253513 -0.12976317 -0.015447075 0.08110298
000110 4a f3 65 3e c8 27 74 3e a0 c2 20 bb f3 e2 49 be
       0.22456089 0.238433 -0.0024530068 -0.1971548
000120 e1 53 08 be 62 ff 66 bd be 68 f3 b9 43 ea 3d 3e
       -0.13313247 -0.056395896 -0.0004642661 0.18546395
000130 94 34 7f 3c 71 4d f2 bd 3c 3a 7f be 40 b0 fb 3d
       0.0155765 -0.11831177 -0.24924558 0.122894764
000140 0e 58 b2 3d 54 85 ef bc f0 c7 b9 3d 3e 99 b8 3d
       0.08708201 -0.02923838 0.09071338 0.09013604
000150 ad 1d 52 be 6d 6f c4 3d 0e eb 21 3d 17 5d f1 bd
       -0.20519133 0.09591565 0.039530806 -0.117853336
000160 eb 5b 53 be 37 b1 2d 3e 7f 74 65 bd 40 ef 46 be
       -0.20640533 0.16962133 -0.056019302 -0.19427204
000170 11 40 7a 3d 32 23 60 3d 9c f1 51 be 4b 90 2f 3e
       0.061096255 0.054721065 -0.20502323 0.17144887
000180 17 b5 05 3e cb 4f 93 3d 9d 45 4b 3e ca ca 9d bd
       0.13057362 0.07192954 0.19850774 -0.077046946
000190 04 42 ea 3d 8c d0 fd bb 42 cc 0b 3e ed bf 19 3e
       0.11438373 -0.007745808 0.13652137 0.1501462
0001a0 d3 a4 fa 3b 14 6d 1f bc 70 32 e1 3d 58 d2 49 be
       0.007649043 -0.009730596 0.10995948 -0.19709146
0001b0 2c 22 7b bd 0f 82 77 bd 3f 36 3a 3e 64 45 5b 3e
       -0.061311886 -0.060426768 0.18184756 0.21413189
0001c0 92 32 21 be 78 85 a9 bd 84 04 fe bd f6 bb 79 be
       -0.15741947 -0.0827741 -0.12403205 -0.24388108
0001d0 2a 60 3d 3d 51 ed 02 3e 0b 3c 47 be f6 63 0a be
       0.046234287 0.12785842 -0.19456498 -0.13514695
0001e0 ed 99 47 3d 06 c4 6a be 3e 9c 16 be 48 00 6d be
       0.04873078 -0.2292634 -0.14708039 -0.23144639
0001f0 1c f4 8d 3c 6c 1c 31 be 9b a4 d2 3d 09 e8 87 bc
       0.017328314 -0.17295998 0.10285302 -0.016590135
000200 ff 77 49 3e 3c ad e8 3d 70 09 42 3d 76 a0 fa 3d
       0.19674681 0.11361167 0.04737228 0.12237637
000210 78 15 0e 3e b3 70 74 bd d6 cc e8 3d 3e 72 bb bd
       0.13875377 -0.05967779 0.11367194 -0.09152649
000220 8e 45 50 3d 61 b0 6f 3e c9 d7 06 bd a4 b3 9e 3c
       0.050847583 0.23407127 -0.032920633 0.019372769
000230 4f 9c 33 3d d8 50 56 be f0 0e 17 b9 f6 88 c5 bd
       0.04385024 -0.20929277 -0.00014406047 -0.09645264
000240 8d eb 3f 3e b6 8a fa bb 6f 06 0c 3d de 18 25 be
       0.18742199 -0.00764593 0.034185823 -0.16122767
000250 03 71 51 be 71 42 53 be ce c6 10 bd 1d d2 5e 3d
       -0.20453267 -0.20630814 -0.035345845 0.0543996
000260 36 cb 5e be a5 66 28 be 03 cd 14 bd 42 83 d1 bd
       -0.21757206 -0.16445406 -0.036328327 -0.102301136
000270 53 03 06 be 60 64 01 be c9 77 f3 bc 60 1e a7 3d
       -0.13087206 -0.12635946 -0.029720204 0.081600904
000280 f3 8e 42 3e b0 af 2a 3e 0c ef 25 be 52 f0 df 3c
       0.18999843 0.16668582 -0.1620447 0.027336273
000290 93 13 70 3e ae 95 4f bd 5c 11 6d 3d 04 10 ac bd
       0.23444967 -0.050679855 0.057877883 -0.08401492
0002a0 87 08 6e bd 78 41 07 3c fa 10 d9 bd 7c c1 56 be
       -0.0581136 0.008255355 -0.10598941 -0.20972246
0002b0 83 ee 10 be 05 10 2f bd b1 50 ea 3c 7a 21 90 bd
       -0.14153485 -0.042739887 0.02860293 -0.07037635
0002c0 43 38 49 be a1 4f 81 be e0 e2 77 3d aa 4a 39 3e
       -0.19650368 -0.25256065 0.0605191 0.18094888
0002d0 c4 5b 58 3e 42 93 bd bd e3 15 e9 3d fa 51 4c be
       0.21128756 -0.09256603 0.11381128 -0.19953147
0002e0 00 d7 3a be 80 4d 52 3e 1a 49 91 be e7 73 05 3e
       -0.18246078 0.20537376 -0.28376085 0.13032494
0002f0 70 42 b0 bd 1d a5 55 be 47 b4 4f 3e 0e fc 22 3d
       -0.08606422 -0.20863767 0.20283614 0.03979116
000300 6d b8 d5 3d 20 0a 54 3e 88 02 cc 3d 9b 00 76 be
       0.10435567 0.20706987 0.0996142 -0.24023668
000310 3f 1e fd bd 86 be 57 be 6b bf 3d 3e 50 5f 54 3e
       -0.123592846 -0.21068773 0.18530051 0.20739484
000320 b0 a0 2d 3e c2 54 ff 3d bd 03 b6 3d 33 b6 ed bd
       0.16955829 0.12467338 0.08887432 -0.11607017
000330 ec 42 04 3e c5 07 02 be 7e 10 27 3e 12 4d 57 be
       0.12916154 -0.12698276 0.16314885 -0.21025494
000340 a6 07 47 bd 17 0b 0b be 92 45 b7 3d c1 ee 98 bd
       -0.04859128 -0.13578449 0.08948816 -0.07467414
000350 97 2e 3e 3d 29 62 2b 3e 56 55 a0 3d 98 4c 78 3d
       0.04643115 0.16736664 0.078287765 0.06061992
000360 c2 e9 40 bd 07 69 37 3e 6c 46 86 3d 5e c5 4f 3e
       -0.04709793 0.17911159 0.06556401 0.20290133
000370 fb 49 05 3d cd b8 20 bd 19 e4 52 3d b2 4b 41 bb
       0.032541256 -0.03923874 0.051487062 -0.002949458
000380 4e 6f 25 3e a7 c0 29 3e 8b f2 02 bd ba 82 7d 3d
       0.1615574 0.16577397 -0.03196959 0.06189225
000390 14 53 13 3e 47 5e 4e be ee b5 67 3e f5 61 30 be
       0.1438716 -0.20153151 0.22627994 -0.17224868
0003a0 c6 66 2f 3d cd fe 46 bd 1d f9 1a 3e c2 7e de bd
       0.04282262 -0.04858284 0.15134092 -0.10864021
0003b0 8c 07 65 be db 7b fd bd 79 b3 42 3e b7 cd 04 3d
       -0.2236616 -0.12377139 0.19013776 0.032422747
0003c0 18 01 be 3c e4 3b ec 3c 85 6e ef 3c e8 a1 e4 3c
       0.02319388 0.028837152 0.029227505 0.027909234
0003d0 e1 96 56 be d3 d3 67 be 86 b5 9f bd ba b0 e3 36
       -0.20955993 -0.22639398 -0.07798295 6.785701e-06
0003e0 15 cf 58 be 93 ee 2d 3e 24 4a 8c ba 97 13 1f be
       -0.21172746 0.1698554 -0.0010703248 -0.15534817
0003f0 a7 32 5b 3e cc 60 06 be 18 d9 27 be 95 09 40 be
       0.21406041 -0.13122863 -0.16391408 -0.18753655

weight_hh_l0 f4 [48, 16]
000000 cb c4 d3 bc 3b 78 db 3d ca c4 84 3c 2d 42 f1 bd
       -0.025850674 0.107162915 0.016207118 -0.117802
000010 c1 f8 ec bd 3a dc 6b 3d cd 11 d0 b9 79 96 b4 3d
       -0.115708835 0.05758307 -0.00039686114 0.08817763
000020 5e b6 8e bb 27 27 d3 3d ba c1 1b bc ca d9 58 be
       -0.004355236 0.10310202 -0.009506637 -0.2117683
000030 ef 76 13 3c d6 6f 85 bd f2 82 fa bd e0 75 29 be
       0.009000524 -0.06515472 -0.12232007 -0.16548872
000040 90 54 fd 3d f2 69 34 be 9d 76 d1 bd ad a9 11 3e
       0.12369645 -0.1761854 -0.10227702 0.14224882
000050 27 09 4a 3e 46 11 21 be e7 b3 1b 3d 97 10 0e be
       0.19730054 -0.15729246 0.038013365 -0.13873516
000060 ac be 06 3d 16 2c c1 3d d5 00 5d 3d c7 bf 3e bd
       0.032896683 0.09432237 0.05395587 -0.046569612
000070 76 5b 28 3e 2a 7d 64 be 33 a9 82 3d 3c bf f5 3c
       0.1644114 -0.22313371 0.063799284 0.029998414
000080 09 11 1b be f9 82 26 3e bd 86 76 bc c0 35 01 be
       -0.15143217 0.162609 -0.015046773 -0.1261816
000090 8b a1 e7 bd 8a 54 7f 3e ba 36 49 3d 70 06 15 be
       -0.11310109 0.24934593 0.049124457 -0.14553237
0000a0 bf 44 04 3e ef 09 f0 bd 3e 0a c6 b7 d6 53 b8 bd
       0.1291685 -0.11720645 -2.3608209e-05 -0.090003654
0000b0 01 1e 1e be 02 b9 69 3d 8d 6f 16 be 7d 6a 25 be
       -0.15441133 0.057061203 -0.14690991 -0.16153903
0000c0 8f e8 2a be 43 8f d6 3d 33 e1 9e bd a4 15 58 be
       -0.16690277 0.10476544 -0.07757797 -0.21102005
0000d0 97 e0 80 3d 27 54 d2 3d a7 78 83 3b d9 87 d6 bd
       0.06292837 0.10269957 0.0040121856 -0.1047513
0000e0 7a 5e 03 be c1 b9 04 be eb 48 c6 bb 3d 1a 1a be
       -0.12829009 -0.12961484 -0.006051173 -0.15049072
0000f0 44 8c 90 3b 85 0f c2 3d b7 d4 31 3d 6a bd 80 bd
       0.004411252 0.09475616 0.04341575 -0.06286128
000100 a5 f5 ec bb 89 ca 4e be 13 e2 f3 3d 0a fe c9 3d
       -0.0072314315 -0.20194449 0.119083546 0.09862907
000110 43 fa 4d be 35 ee 2e 3e 11 6b 07 3e 34 bd 65 bd
       -0.20114999 0.17083056 0.13224436 -0.05608864
000120 7b 10 d0 bb 3f 9a 25 3a 48 bb fb bd 07 eb 1a 3e
       -0.006349621 0.0006317235 -0.122915804 0.15128718
000130 f6 c2 7b 3e 7a 68 fc 3c ad c8 81 3d bf 37 6d bc
       0.2458609 0.030811537 0.06337104 -0.014478623
000140 b1 63 ff 3d 7b de 4c 3e 4c fd 30 bd 86 69 43 3d
       0.124701865 0.20006745 -0.043210313 0.047708057
000150 ef ef 39 3c aa 3c 98 bc f1 86 2c bc 32 40 03 be
       0.0113487085 -0.018583614 -0.010530219 -0.12817457
000160 d2 a2 84 b8 5f ae 3f bb 00 c8 b1 bc 62 bb d0 bd
       -6.324578e-05 -0.002924822 -0.021701813 -0.101919904
000170 ee 95 c3 3c b4 42 4f 3e e7 35 33 bc 2d 21 33 bd
       0.023875203 0.20240289 -0.010938144 -0.04373281
000180 58 56 54 be a4 92 5d be cf 92 80 3a ef dc 4f bd
       -0.20736063 -0.2163797 0.0009809377 -0.050747808
000190 d4 d2 40 3c 26 42 6d be 26 0e 91 bd b6 c7 c8 bd
       0.011769015 -0.23169765 -0.07082777 -0.09803717
0001a0 d1 9a 08 be e3 6a 97 3c 8d 6d 24 3e db b0 51 be
       -0.13340308 0.018483585 0.16057415 -0.20477621
0001b0 3e f6 e3 bd 4f 8a 6d be 39 2c 28 bd e8 44 b4 3d
       -0.11130951 -0.23197292 -0.0410578 0.08802205
0001c0 8b c0 15 3e ec 49 1d bd 1d aa a1 37 83 f7 8f bd
       0.1462423 -0.038400576 1.927191e-05 -0.07029631
0001d0 eb 54 14 3d 4e f3 9b 3d ea 47 cb b9 95 61 0f be
       0.036213797 0.07614766 -0.00038772757 -0.14002068
0001e0 38 fa 03 b8 9f c3 5e 3a f9 8b 4f bd de bc a4 3b
       -3.146587e-05 0.0008497778 -0.050670598 0.0050273975
0001f0 eb 0a 8d 3d 66 d3 05 3b e0 53 3a 3e 6f 33 7a be
       0.06886848 0.0020420193 0.18196058 -0.24433683
000200 4d 5c 0a bd 08 9c 85 bd 00 5f d2 bc ce 05 09 3e
       -0.03377943 -0.06523901 -0.025680065 0.1338112
000210 f7 90 a9 3d fb 06 79 be 17 52 bf 36 b0 2d 22 be
       0.08279603 -0.24319069 5.7018e-06 -0.15837741
000220 a8 4a 7c 3c 52 48 04 be 95 6f 09 be b8 c3 38 3d
       0.015398659 -0.12918213 -0.13421471 0.045108527
000230 3e 9f fc bd d7 b0 6a be e2 98 64 3e d0 fa 67 3d
       -0.123350605 -0.22919022 0.22323945 0.056635678
000240 23 9c 25 bd 13 9a 1d be 7b 12 55 3d 60 ec 67 3b
       -0.040432107 -0.15390806 0.052019577 0.0035388693
000250 05 b0 c6 bd d4 2b 08 3e 99 0d 6b 36 5a 82 b6 3d
       -0.09701542 0.13297969 3.5025644e-06 0.08911581
000260 b1 0f b2 3d ab b3 bf bd d2 ac 1b be 91 e8 c8 3c
       0.08694399 -0.09360441 -0.15202644 0.024524959
000270 96 7b 1e be e8 98 19 3e 89 3b 54 3d a7 93 6f bd
       -0.15476832 0.14999735 0.05181459 -0.05849042
000280 10 54 33 be 55 87 e9 bc 18 f9 f3 3d a7 4b 51 be
       -0.17512536 -0.028506914 0.11912745 -0.20439015
000290 73 41 00 be 09 b9 f3 3d 52 a7 11 3e 35 70 64 3e
       -0.12524967 0.11900527 0.14223984 0.22308429
0002a0 36 30 fb bb 52 99 4f 3d 33 40 d7 3d 05 76 88 3a
       -0.0076656593 0.050683327 0.10510292 0.0010411149
0002b0 60 bc 4d 3e 5d 36 31 3e d3 49 21 be e6 e8 5d 3e
       0.2009139 0.17305894 -0.15750818 0.21670875
0002c0 ec d0 03 be 1e 81 3c 3e f8 68 1d 3e b9 8b 66 be
       -0.12872666 0.1840863 0.15372074 -0.22514237
0002d0 b1 d1 1a bd 33 96 7c bd 7c c4 2e bd 85 75 48 be
       -0.037797634 -0.06166668 -0.04266785 -0.1957608
0002e0 03 dc 0f 3d 8e a1 f5 39 49 05 f1 bd d3 73 ad bd
       0.03512193 0.0004685041 -0.11768586 -0.08469357
0002f0 96 34 3f 3c 68 f6 30 3e ac 18 66 3d e2 a1 80 3d
       0.011670252 0.17281497 0.056175873 0.06280877
000300 1d b2 5a be 30 05 2c be 93 a9 48 b7 53 e0 17 3e
       -0.21357007 -0.16798854 -1.1960411e-05 0.14831667
000310 d2 8d be bc f1 98 0d 3d 43 e1 8e 3d be 15 13 3c
       -0.023260985 0.034569684 0.06976559 0.008977352
000320 b3 9a 19 bc 23 97 6e 3d e3 78 ea 38 95 08 9f bd
       -0.009375262 0.058249604 0.000111805064 -0.07765309
000330 f5 11 b8 bd 8f a8 5a 3e 86 1d 6a be 23 5b 6d be
       -0.089878 0.21353363 -0.22862825 -0.23179297
000340 88 ec 6a 3e 5b 6f 4c be 94 b2 8e 3d 90 d6 1d 3a
       0.22941792 -0.19964354 0.06967655 0.0006021047
000350 ce 87 78 3e 01 f2 32 3e fe d4 3d 3a 0a 7e 83 bd
       0.24270555 0.1747513 0.0007241516 -0.064205244
000360 fd ae cb 34 ed 58 ef bd e1 a1 a7 3d 55 0a 6c 3d
       3.7939017e-07 -0.11686883 0.08185173 0.05762704
000370 44 32 bf 3d f7 02 a0 bd e3 7c f0 3d 9c 52 1e be
       0.09335759 -0.078130655 0.1174257 -0.154612
000380 85 e2 7e 3e be 14 cb 3d 59 39 3d bd 85 b2 bc 3d
       0.24891098 0.09916066 -0.04619727 0.092137374
000390 99 dc e2 3c 04 ca 6d 3e c8 92 fb bb c6 6c 14 be
       0.02769308 0.23221594 -0.00767741 -0.14494619
0003a0 16 08 18 3e 46 7f 84 bd 64 ed 14 b9 24 7e 86 bd
       0.14846835 -0.06469588 -0.00014202815 -0.06567028
0003b0 66 7c c1 bc 7e ad 6a 3e 84 26 87 bc 77 b0 e9 3d
       -0.023618888 0.22917745 -0.016497858 0.11410611
0003c0 24 8b 35 3e e0 74 c4 bd 6f f0 c1 3d 96 74 da bd
       0.17728859 -0.09592605 0.09469687 -0.10666768
0003d0 59 0c 73 bd de 24 9c 3c db f6 05 39 cd 6a 44 3d
       -0.059337948 0.019060548 0.00012775829 0.047953416
0003e0 d4 6e f7 bd 30 8c c7 bd f0 8a 14 bd de da 4d bd
       -0.12081686 -0.097435355 -0.036265314 -0.050257556
0003f0 53 c0 68 3d fb 07 45 3e c6 69 3f bd 0e 03 26 3e
       0.05682404 0.19241326 -0.046731733 0.16212103

bias_ih_l0 f4 [48]
000000 c1 d2 4b 3e e3 f9 d2 3d 46 d0 76 bd 76 c8 ef bd
       0.19904615 0.10301568 -0.06025722 -0.11708157
000010 e5 df 99 3d 7c 69 4e be b3 50 71 bd 54 23 38 3e
       0.075134076 -0.20157427 -0.05891485 0.17982227
000020 25 16 cf 3c fc c7 5d bd 31 c6 76 3e 88 65 02 3d
       0.025279114 -0.054145798 0.24099042 0.03183511
000030 2a 87 a5 3d f7 11 ac bc 55 6e ff 3d 54 a7 2c be
       0.08082421 -0.02100466 0.12472216 -0.16860706
000040 e2 33 c7 bc c0 a2 95 bd 29 03 21 be c5 a2 39 3e
       -0.024316732 -0.07306433 -0.15723862 0.18128498
000050 fb bb 51 bc 87 51 1e 3e db 8e 0e be 34 66 53 be
       -0.012801166 0.15460788 -0.13921683 -0.20644456
000060 36 0a 00 3e ca 54 4e 3e 8f 65 16 3e 87 da 44 be
       0.12503895 0.20149532 0.14687179 -0.19223987
000070 45 2e f3 bd 85 47 d9 bc 8d 05 e6 bd 3d 6b 26 3e
       -0.118740596 -0.026523361 -0.112315275 0.16251846
000080 2d 03 a0 bd 87 9e f4 bc a1 1d 53 bd 15 07 bf 3c
       -0.07813106 -0.029860748 -0.05154193 0.023318807
000090 d8 38 69 be ee 89 04 3e cf d4 01 be e6 48 35 3e
       -0.2277559 0.12943241 -0.12678836 0.1770359
0000a0 f2 6b d5 3d 95 31 1a be 2f 81 cb 3d 69 13 03 3c
       0.104209796 -0.15057977 0.09936749 0.008000233
0000b0 c6 3a 0e be d5 e5 5a bd 03 2a b9 3d e0 bf 3e 3e
       -0.13889608 -0.05344184 0.09041216 0.18627882

bias_hh_l0 f4 [48]
000000 d0 e3 6c be c3 fb ac 3d ec b6 17 be d1 ad 19 3e
       -0.23133779 0.08446457 -0.14815873 0.15007712
000010 1a 27 94 3d b0 b5 13 3e b5 44 3b be 20 6a d7 3d
       0.072340205 0.14424777 -0.18287928 0.105182886
000020 12 0c 39 be 47 00 93 bd cf d7 57 be 4c b1 03 be
       -0.1807101 -0.07177787 -0.21078418 -0.12860602
000030 17 27 10 be 77 3d 83 bd d5 7b a8 3d f1 c5 54 be
       -0.14077412 -0.06408208 0.08226744 -0.20778634
000040 f4 c1 e5 3d 76 48 ea bd aa 7b 99 bd a2 71 37 3e
       0.11218634 -0.11439602 -0.0749429 0.17914441
000050 05 0f 34 bd 6e 88 0c 3e 42 44 dc 3d c4 72 42 be
       -0.043959636 0.13723919 0.10755207 -0.18989092
000060 2e bf 20 3c be ba cd bd 3a f1 35 be 4f ac d3 bd
       0.009811206 -0.10045384 -0.17767802 -0.103356
000070 37 79 d9 bd 7a 63 e0 bd c1 0b a4 3d d0 22 4f 3e
       -0.10618823 -0.10956474 0.080100544 0.20228124
000080 b4 7b 52 bd 11 73 4f be 1a 96 1e bd d0 de e0 bd
       -0.051387504 -0.20258738 -0.038717367 -0.10979998
000090 c4 f5 59 3d 6c b1 18 3c cd 68 64 be 53 09 79 3e
       0.053212896 0.009319644 -0.22305603 0.24319963
0000a0 83 a4 cf 3d f0 c9 9c bc 6e 50 9a bd 9c 1e 16 be
       0.101388 -0.01913926 -0.07534872 -0.14660114
0000b0 62 31 02 3e 98 ad 6c 3e a2 74 30 3d d2 43 2a be
       0.1271415 0.23113096 0.04307998 -0.16627434

weight_ih_l0 f4 [3, 11]
000000 62 21 1c be e6 71 cd be 7c 4b 30 bf 8c 92 26 3f
       -0.1524711 -0.4012596 -0.6886518 0.6506736
000010 96 a7 19 bf 26 f5 20 be 73 82 60 bf 80 65 60 3f
       -0.6002134 -0.15718517 -0.8769905 0.87654877
000020 9d e3 c5 3e e4 6a c3 be 7e fa 96 be 43 47 78 3f
       0.38650218 -0.3816749 -0.29487985 0.96983737
000030 27 e8 7e bf be 4b a3 3b 4a 38 50 3f 44 35 2d bf
       -0.99572986 0.0049833944 0.8133589 -0.676594
000040 d6 e8 52 3e e7 95 65 3f 25 84 e6 bc d6 b4 e4 be
       0.20596632 0.8968186 -0.028139183 -0.44669217
000050 9a 58 4a 3f a3 e1 16 3d ec a8 65 3f d2 a3 11 3f
       0.79041445 0.036836278 0.8971088 0.56890595
000060 85 a2 67 3e e5 70 0c 3d b9 5d 23 bf 12 b4 2c bf
       0.2262059 0.034287352 -0.63814884 -0.67462265
000070 57 ae 86 3d 35 95 ef bd b5 be 82 3e a6 05 42 3f
       0.065762214 -0.11698381 0.25536123 0.7578987
000080 28 7b 8a 3e
       0.27047086

weight_hh_l0 f4 [3, 1]
000000 d0 d1 e2 3e 84 21 02 3f 77 bc 30 3f
       0.443007 0.5083239 0.69037575

bias_ih_l0 f4 [3]
000000 e0 50 8e 3e 6f 15 5e bf 24 42 14 3f
       0.27796078 -0.86751455 0.5791342

bias_hh_l0 f4 [3]
000000 28 59 d0 3e d1 b7 46 3f 3c b2 75 3f
       0.4069302 0.7762423 0.9597509

weight f4 [1, 16]
000000 1c 7f 6a be 3d 94 7c 3b 4e 86 0f 3e 49 fa c2 3d
       -0.22900051 0.0038540505 0.14016077 0.09520394
000010 01 a3 47 be 06 29 6a 3e 48 b3 56 be bf cd 79 3e
       -0.19495775 0.22867212 -0.20966828 0.24394892
000020 27 35 80 3e 96 3d 90 bd 2c 36 6e 3d b5 5b 1f 3e
       0.25040552 -0.070429966 0.05815713 0.15562327
000030 69 3b d1 3d 1f f6 1c bc 0a 40 b3 3b a4 83 0c 3e
       0.1021641 -0.009580164 0.0054702805 0.13722092

weight f4 [680, 17]
000000 a9 4f de 3c 58 42 8b bd a9 f4 2e 3b c1 7a 83 3d
       0.027137594 -0.067997634 0.0026696122 0.06419898
000010 24 b1 07 be ca af 59 3c 73 0f 10 bc d0 5b f4 3d
       -0.13251168 0.01328654 -0.008792746 0.11931574
000020 20 23 fe bc 51 ba 0a be 70 d3 2c bd 0b 70 1c be
       -0.031022608 -0.13547637 -0.04219383 -0.15277116
000030 2e 7d 1d be 39 d7 14 bc 7e e0 9a 39 41 08 3c bc
       -0.15379784 -0.009084516 0.0002954043 -0.011476577
000040 b5 17 bd bc 2a 47 b4 3d 16 0b 58 be 93 03 ea 3d
       -0.023082593 0.08802636 -0.21097979 0.11426463
000050 05 52 4b 3e bc 7b 5d be 4d 78 bd bc 3b d1 ee 3d
       0.19855507 -0.21629232 -0.023128653 0.11661001
000060 7a 7f 3f bc cf 1d f9 bc fd ec c8 3d 96 40 05 ba
       -0.011688108 -0.030409722 0.09810827 -0.00050831714
000070 28 d5 31 3e 40 01 1a 3d 50 c4 03 3b 1b c4 e6 3d
       0.17366469 0.03759885 0.0020106025 0.11267873
000080 63 14 70 be 77 bc 12 3e b7 9e 0c be 9e 00 51 bc
       -0.23445277 0.14329706 -0.1373242 -0.012756495
000090 65 47 85 bc 52 0e f2 3d f0 02 ce bc 9f 2f d4 3d
       -0.016269395 0.11819138 -0.025147885 0.103606455
0000a0 64 1d 51 b8 78 ca be 3d be cc 3d bd 66 77 8f b8
       -4.9856855e-05 0.093159616 -0.046337835 -6.841011e-05
0000b0 69 d5 bd bd 4a a1 02 3d 37 b8 08 be 58 37 8b 3d
       -0.092692204 0.0318921 -0.13351522 0.06797665
0000c0 26 e3 67 bd 4c 90 ef b9 0a 74 6d 3d 07 94 78 bc
       -0.05661311 -0.00045693142 0.05797199 -0.015172011
0000d0 c5 e4 d2 3c af 6a c8 bd 97 48 b3 bc 98 af d0 39
       0.025743851 -0.09785973 -0.0218852 0.0003980368
0000e0 4d 35 97 3b 72 9b 04 ba 62 03 02 be 58 aa fe 3d
       0.0046145082 -0.00050585635 -0.12696603 0.12434834
0000f0 a3 36 e6 bd 20 5c 58 b7 2f 92 cb bd 76 0e 15 3b
       -0.1124089 -1.2896053e-05 -0.09939992 0.0022744215
000100 98 cf 83 3d 23 2c 19 b7 33 bd 17 36 e7 3a 0f be
       0.0643608 -9.129787e-06 2.2610882e-06 -0.13987313
000110 b7 3a 82 bc 24 d6 fd bd 5a 49 87 3d 2c ad aa 3d
       -0.015897138 -0.1239436 0.066057876 0.08333811
000120 b9 50 fb 3d c4 29 6c 3e d8 42 0d bd 04 ad 39 bd
       0.12271256 0.23062807 -0.034487575 -0.045331016
000130 70 2e 00 3e 3a 78 45 be fe 80 39 bc 06 f8 3c be
       0.12517715 -0.19284144 -0.011322258 -0.18453988
000140 d5 11 2e be 12 06 63 3b f7 f1 7e 3d 30 f4 bf bd
       -0.1699899 0.003464107 0.062242474 -0.09372747
000150 c1 a0 50 3e b5 6a cf bd 17 27 c9 b9 7c e5 ae 3d
       0.20373823 -0.101277746 -0.00038366832 0.085398644
000160 47 77 27 bc fe 63 86 bd 06 20 0d 3d 83 c0 0e 3a
       -0.010221309 -0.06562041 0.034454368 0.00054455566
000170 88 9a 4d 38 d4 94 a4 bb ac f0 fd bc c6 2c d4 bd
       4.9019727e-05 -0.0050226245 -0.03099855 -0.10360102
000180 ed 07 8e bd b4 71 01 3a bd c5 c5 bc df 9e cf bc
       -0.069351055 0.00049379026 -0.02414214 -0.02534431
000190 b2 2a 5d bd 64 7f d2 bd c7 29 10 be 69 45 10 be
       -0.053995796 -0.10278204 -0.14078437 -0.14088978
0001a0 d7 f8 b5 3a 5e 7f 01 3e 15 35 92 3d 67 9b 09 be
       0.0013883364 0.12646243 0.07139031 -0.13438188
0001b0 13 ec c9 38 59 e5 58 bd 96 91 41 bb 54 21 18 be
       9.628399e-05 -0.052953098 -0.002953624 -0.14856464
0001c0 15 a8 02 3e 9c ae a9 3d bb 73 c7 3d 98 5f e5 bd
       0.1275943 0.08285257 0.09738871 -0.11199874
0001d0 88 d6 48 bd 0a 9c 16 ba 59 32 47 bd d4 8e 73 3d
       -0.049032718 -0.00057452975 -0.048632 0.059462383
0001e0 15 cd 35 3e 07 96 42 be 84 d7 79 bd 34 28 0a 3e
       0.17754014 -0.19002543 -0.060996547 0.13491899
0001f0 fa be 91 3c 30 9a 76 bd 61 e5 01 bd 74 ff 13 be
       0.01779126 -0.06020564 -0.031712893 -0.14452916
000200 68 42 1d 3d e6 48 38 3e 14 5f 0e be 40 50 52 be
       0.038393408 0.17996559 -0.13903457 -0.20538425
000210 30 61 35 be 50 58 63 3e a1 8e 8f 3d 09 87 9b 3c
       -0.17712855 0.22201657 0.07009626 0.018985288
000220 71 e2 54 be 80 09 8d bd b4 44 2e 3d 8c 28 3d 3e
       -0.20789506 -0.068865776 0.04254599 0.18472499
000230 4a 94 3f be e2 0f 4d 3e d8 9b 75 bd 4c 96 69 be
       -0.18708912 0.2002559 -0.059963077 -0.2281124
000240 d0 69 a6 3d b3 4b 3f be 7a 88 22 be 37 ea 1b be
       0.08125651 -0.1868122 -0.15872374 -0.15226065
000250 b2 34 4f be 5a 9d 62 3d 59 16 c6 3c c1 cd c7 3d
       -0.20234945 0.055325843 0.024180578 0.09756041
000260 21 b9 b2 3b ea 92 35 3e 2c 3e f5 3c 74 06 3f bd
       0.005454198 0.17731825 0.029936872 -0.046637014
000270 f0 ad 57 be 6a ab 2f be 99 70 aa 3d 37 9b 6d be
       -0.21062446 -0.17155233 0.083222575 -0.23203741
000280 60 8d 4d bd 39 4b fd bd d6 10 fd bc 51 e6 20 be
       -0.050183654 -0.12367863 -0.030891817 -0.15712859
000290 69 d9 68 3e ef 05 23 be 8d 61 4b 3d e3 a6 b9 3d
       0.22739185 -0.15920232 0.04965358 0.09065034
0002a0 f9 6d dc bd c8 c1 68 3e 9e cb ae 3b db ba 65 ba
       -0.10763163 0.22730172 0.0053343317 -0.00087635004
0002b0 1f 55 56 bd f8 21 0a 38 af 4e 1a 3e 74 1c b6 3b
       -0.05232727 3.29334e-05 0.15069078 0.005557591
0002c0 35 81 90 39 28 b8 b5 bd 46 15 66 3d 0d 86 95 3b
       0.00027562087 -0.08873016 0.05617263 0.0045630992
0002d0 1e 5f 19 bd 7e 7d 68 3d fe bf 54 bd c5 12 19 ba
       -0.037444226 0.056760304 -0.05194091 -0.00058392837
0002e0 7b 07 f2 bd 6f e8 13 be f1 69 02 3d 43 d2 c2 3d
       -0.11817833 -0.14444135 0.031839315 0.095127605
0002f0 d8 c2 15 3e bc 49 87 3c 59 24 f2 3d 11 fe 62 3e
       0.14625108 0.016514651 0.11823339 0.22167231
000300 7c 8c 04 3e db 21 b3 3d 2a 3d 27 3e b8 ac 63 3e
       0.12944216 0.08746692 0.16331926 0.22233856
000310 f4 9e 68 be ab c2 43 3d ea 29 3f bb 99 6e 89 bd
       -0.22716886 0.04779307 -0.002916927 -0.06710548
000320 c5 a5 bc 3c ef 4e 09 3e d6 23 de bd e3 56 39 3e
       0.023028264 0.13409017 -0.10846679 0.18099551
000330 cc bb 01 3e b1 3d b2 bd 1d 74 d0 3d d0 b8 d3 3d
       0.12669295 -0.08703173 0.10178397 0.103379846
000340 6c 67 14 be de d7 a3 bd d1 77 aa 3c 05 1c 40 be
       -0.14492577 -0.08000158 0.020809086 -0.18760689
000350 5c 00 64 be f2 a8 0f be b9 f3 23 3e f2 4a 2a 3d
       -0.22265762 -0.14029291 0.16010942 0.04157538
000360 e7 1b 7a be 90 89 59 be 70 ab b2 3d 75 61 34 3e
       -0.24424706 -0.21243882 0.08724105 0.17615302
000370 9e 2e 02 3d cc f8 80 b9 0b ad 43 bd a9 67 a2 3d
       0.03178274 -0.0002459943 -0.04777245 0.07929928
000380 27 13 f7 b9 be 5b 0a 3e 66 f5 8e 3c d3 56 15 be
       -0.0004712578 0.1351156 0.017451 -0.14583902
000390 21 22 17 be 57 c9 5b 3d 65 83 44 bd d0 34 77 38
       -0.14759113 0.05365881 -0.04797687 5.8938575e-05
0003a0 5b a4 09 3a 54 17 ea bd 85 1f 1b be 75 bd 1e 3e
       0.0005250626 -0.11430231 -0.15148742 0.1550196
0003b0 42 95 3c 3d 65 01 ec b9 e0 0e 5f 3e 81 23 3f 3d
       0.04604078 -0.00045014467 0.21783018 0.04666472
0003c0 52 0e 94 3a b7 2e 54 be 83 4b 7a be aa 1d 1d 3d
       0.0011295772 -0.20720945 -0.24442868 0.038358368
0003d0 5a 67 45 bc 18 65 d7 bd dc 14 e4 bd cb 71 4f 3d
       -0.012048567 -0.10517329 -0.11136791 0.05064563
0003e0 1e e8 57 3e 7f af 48 3d e4 2e 38 bd 07 6b cf bd
       0.2108464 0.04899549 -0.044966593 -0.10127836
0003f0 61 eb 4f be 54 2b 51 be 2a 03 11 3e 3f ae 09 3e
       -0.20304634 -0.20426685 0.14161363 0.13445376

bias f4 [680]
000000 82 fc 68 bd 63 53 04 be 6d 16 9e bd 2c 76 f2 bd
       -0.056881435 -0.12922435 -0.07719121 -0.11838946
000010 f9 b8 00 3e 11 1a ea 36 2f 3c 70 bd 9c 80 55 3e
       0.12570561 6.976778e-06 -0.058651146 0.20849842
000020 57 d7 79 3d d6 fd c4 bc cd 22 09 be b7 9f e4 bd
       0.06099638 -0.02404682 -0.13392182 -0.11163276
000030 f2 e6 29 3e ea 8c 01 bb a2 2d 65 3e 74 d3 89 3a
       0.16592005 -0.001976783 0.22380689 0.0010515288
000040 69 fd 26 3d cf cb d2 bd a6 89 2f bd 07 4e c7 3c
       0.040769015 -0.1029278 -0.04285588 0.024329199
000050 ab a6 fe bc d7 62 5c 3e 54 b1 a3 3d c5 1d ba bd
       -0.031085333 0.2152208 0.07992807 -0.09087709
000060 0d a9 58 3e 68 74 67 3d 9b 75 10 3d 6c f3 3e 3e
       0.21158238 0.056507498 0.035268407 0.18647546
000070 a1 a9 0f 3e 19 e1 8a 3c e0 38 28 bd 52 bd 06 3e
       0.14029552 0.016953038 -0.041069865 0.13158157
000080 88 d9 4e 3b 74 5d c6 3d b6 0b c9 bd 83 95 94 3d
       0.0031562764 0.096857935 -0.09816687 0.072550796
000090 e5 9c 2c 3d ef c6 ca bd 3b 57 92 bd 54 4d 66 3e
       0.042141814 -0.09901225 -0.07145544 0.22490436
0000a0 7a a4 58 3c 2a 0d 74 be c5 35 0c be 36 77 2b 3e
       0.013222808 -0.23833147 -0.13692386 0.16744694
0000b0 4c 4e 05 bd 0d b6 6a 3e f3 0f 12 be e5 90 3e 3e
       -0.032545373 0.2292101 -0.14263897 0.1860996
0000c0 82 8b cc bd f5 a1 07 b9 24 2b 71 3d e3 d8 3c 3e
       -0.099875465 -0.00012934937 0.058879033 0.1844211
0000d0 6f 39 21 bb f6 e1 43 be 44 ec 41 bb c0 9c 13 be
       -0.0024600883 -0.19129166 -0.0029590288 -0.14415264
0000e0 7e 6b 0d 3e 52 59 0d be 00 19 40 3d a5 4b 1f b7
       0.13810536 -0.13803604 0.04689884 -9.494751e-06
0000f0 e4 30 55 38 d0 ef 4f 3e 15 43 70 be d0 77 8f 3d
       5.082869e-05 0.20306325 -0.2346309 0.07005274
000100 15 65 0f be 15 3c 95 bb 96 d1 58 3d 10 2f 86 3c
       -0.14003403 -0.0045542815 0.05293425 0.016379863
000110 a9 aa b5 3d b3 da 4c bd 6c 08 7c 3e 4e c7 c0 3d
       0.088704415 -0.050013255 0.24612588 0.09413014
000120 32 8a d7 bc 71 60 19 3e 74 ec 3e be 8f 5f 31 bc
       -0.026311014 0.14978196 -0.18644887 -0.010826006
000130 31 b2 9a 3d 41 ca 34 b8 83 e8 ba bd a5 02 88 3d
       0.075535186 -4.3103708e-05 -0.09126379 0.066411294
000140 1d 9d b7 3d c8 36 75 b9 fe da 41 3d 91 6b a7 bd
       0.08965514 -0.00023385428 0.047327988 -0.081748135
000150 3e cd 18 be d7 fb 3a 3e 58 b5 40 3e 0f 62 07 be
       -0.14922044 0.18260132 0.18819177 -0.13221
000160 a7 98 16 3e c1 3a 77 bd 9d 8a 20 3d b3 5b 5d 3e
       0.1470667 -0.060358766 0.039194692 0.21617012
000170 63 c1 3f 3e 7f 30 f6 37 75 2d 77 3e 85 1e 26 3d
       0.18726115 2.9348068e-05 0.24138434 0.04055645
000180 5c b4 1f 3d 37 ce ba 3d 89 91 19 be 0d aa b8 bd
       0.038990363 0.091213636 -0.14996924 -0.090168096
000190 2c 03 31 bb 90 f8 8e 3d 4b d1 42 bd ee ce 70 3e
       -0.0027009947 0.06981003 -0.04756288 0.23516437
0001a0 45 f3 22 3e f8 76 19 3e 1b 3d 36 3c d1 be 37 3e
       0.15913112 0.14986789 0.011122967 0.17943884
0001b0 70 50 63 3e fb ee 34 3e e3 b9 e5 39 70 80 55 3e
       0.22198653 0.17669289 0.0004381678 0.20849776
0001c0 ce 6e 39 3c 6d 1e 98 3d 43 07 dd bc 01 ac ba bb
       0.011317922 0.07427678 -0.026981002 -0.005696774
0001d0 0b fa 91 bd 34 eb b2 bd c1 36 0b 3d 58 0c 49 be
       -0.0712777 -0.08736268 0.033987764 -0.19633615
0001e0 5e eb 65 3e 83 66 91 bd 9f e5 83 bd 24 90 50 3e
       0.22453067 -0.07099631 -0.06440281 0.20367485
0001f0 1a 37 e3 3d 1c f4 37 3e 5b 9a 3b bd 4f 9a be bc
       0.11094494 0.17964214 -0.0458015 -0.02326694
000200 6f ed b5 bc 60 5d c3 bd e1 37 08 3a cb ee a5 bd
       -0.022207944 -0.09539294 0.0005196315 -0.08102187
000210 f9 f1 06 bd 88 14 db 3d ce cc 69 bc 82 28 d5 bd
       -0.032945607 0.106972754 -0.014270021 -0.10408117
000220 93 3e 4e 3e 83 7d f4 bd 06 0e 21 3e ea 52 a3 3d
       0.20141058 -0.11938002 0.15728006 0.07974799
000230 20 4d 1a bd 66 5c 21 3e 71 82 a3 3d 43 13 d5 3d
       -0.03767121 0.15757903 0.07983864 0.104040645
000240 e1 d1 5a 3e d4 b3 f7 bd 11 42 3a 3e f6 5b 88 3c
       0.21369125 -0.12094846 0.18189265 0.016645413
000250 a0 aa de bc a1 cf fc bd 6a 1c 0e ba 27 06 bc bc
       -0.02718097 -0.123442896 -0.0005421104 -0.022952152
000260 ad 60 15 be c2 95 28 be 75 0f 23 be 89 b7 68 3e
       -0.1458766 -0.16463378 -0.15923865 0.22726263
000270 3f 6e 04 be 48 bf b3 3d a5 42 e0 3c 2a 55 dc 3a
       -0.1293268 0.087767184 0.027375529 0.0016810049
000280 6c 9e 05 bb 6b e4 b5 bd 6f a3 5c 3e 56 f9 64 3e
       -0.0020388616 -0.08881458 0.2154672 0.22360739
000290 60 61 39 be 41 98 ae 3d 7a 8c 71 bd ac 8e 65 3e
       -0.18103552 0.08525134 -0.05897186 0.22417706
0002a0 dc 80 8d bd 56 4e e2 bc 71 55 af 3d ef 78 9c bc
       -0.069093436 -0.027625244 0.085612185 -0.019100634
0002b0 49 93 c8 3d 75 d4 d5 bc 75 38 77 bd 86 12 43 3e
       0.097937174 -0.026102284 -0.060356576 0.19050035
0002c0 2d 9f 45 3e 36 07 3c bd 50 6e 7b 3e 98 b4 ed bb
       0.19299002 -0.045905314 0.245538 -0.0072541945
0002d0 fe 26 58 3d be 40 dd bc 31 48 bd 3d 67 f1 0c bd
       0.05277156 -0.02700841 0.09242285 -0.034409907
0002e0 b0 92 ba bd 45 80 1d 3e fe 1f ce bd 0c 91 54 3e
       -0.0911001 0.15380962 -0.10064696 0.20758456
0002f0 0f 5c 02 be 71 21 3f 3e a9 bb e0 bd fd 0a 2a 3e
       -0.1273043 0.186651 -0.10973293 0.16605754
000300 9b f8 13 be dd 66 ca bc 79 45 a2 38 6e 54 3e be
       -0.14450304 -0.024707252 7.737702e-05 -0.18586895
000310 cd ea 7a 3d 96 c7 65 bc 7b 95 4c 3d 2a d1 de 3d
       0.06125908 -0.014024636 0.049947243 0.10879739
000320 59 e2 a5 3c e6 04 93 bb fe 23 fa bd 7a 0c 98 bd
       0.020249533 -0.004486668 -0.12213896 -0.07424255
000330 23 04 55 3e 46 0c e6 3c 35 4c 56 3e 70 8f 73 3e
       0.2080236 0.028082024 0.20927508 0.23785186
000340 37 a5 b7 bc 76 78 87 bc 8c e2 8b bd 67 04 6c be
       -0.022417648 -0.016536932 -0.0683032 -0.23048554
000350 fb 9a 34 3d 2d ca b5 bd f9 63 6d be a0 e2 04 3e
       0.044093113 -0.088764526 -0.23182668 0.12977076
000360 a7 b6 f8 3d e3 e9 a4 bd 4b fd 28 be 5e d9 bd 3d
       0.12144213 -0.08052423 -0.16502874 0.09269975
000370 8f 53 f7 3c 82 39 3d 3e 16 68 8a bd c7 6d cf bd
       0.030191211 0.18478969 -0.06758134 -0.1012836
000380 69 18 14 be 95 25 ae 3d dd 39 04 3d a8 c3 fa bd
       -0.14462437 0.08503262 0.032281745 -0.1224435
000390 88 ba 81 b9 5c c2 81 bc 37 d7 79 bd e5 5a 5d be
       -0.00024743774 -0.015839748 -0.06099626 -0.21616705
0003a0 52 fc a8 bd dc 56 01 bd 80 22 96 3d 47 59 19 be
       -0.08251251 -0.031576976 0.07330799 -0.14975463
0003b0 47 ff 1b bd 33 c7 d7 bc 58 7d 53 bd 6d 5b 1a b6
       -0.03808525 -0.026340103 -0.05163321 -2.3001005e-06
0003c0 1b 0b 93 bd 1c 22 4a 3e 43 ee 33 3d 0d a9 31 37
       -0.071798526 0.19739574 0.043928396 1.0589382e-05
0003d0 ef a6 0a be c9 68 6f 3e 69 5c 5f bc f5 89 b2 bd
       -0.13540243 0.23379816 -0.013632872 -0.087177195
0003e0 5c 1d 00 be de c6 8e bd 86 49 17 bd ae a1 09 3d
       -0.125112 -0.06971525 -0.03693535 0.033601455
0003f0 7e 3c 32 3e c8 69 be bd ef 4a c7 bc 8c e0 82 3d
       0.17405888 -0.0929752 -0.024327723 0.06390485
