estimators/knet/single_obs/MSE_ep100_train4000_val1000_test10000_lr1e-03_wd1e-05_ri[4, 4, 1, 1]_data_sr1e-01_q1e-04_r1e-01_j5_train[200,250]_val[40,250]_test[40,250].pt (torch, 157275 bytes, 40 tensors)

weight_ih_l0 f4 [48, 20]
0.21653211 0.084340125 0.021669675 0.21511334 0.08527325 0.20534676 0.18101704 -0.0030537306
0.10192224 -0.093116 0.19776666 -0.05974709 0.21853024 -0.06891116 -0.1132657 0.027175196
-0.10421943 0.23456448 -0.1625758 0.097425126 -0.124345124 0.12140626 0.16619593 0.058973245
-0.13613644 0.009532736 0.008215245 0.17797266 0.19331412 0.034599993 -0.15579763 0.105333045
0.0024373669 -0.16893269 0.1656046 -0.11603306 0.015585034 -0.02924207 -0.014992609 0.10799491
-0.19680877 -0.0009991425 0.031660136 -0.225115 -0.18580607 -0.12661643 0.12432033 0.24948607
0.04950493 0.18732494 0.22678362 -0.07522553 0.12007846 -0.16863282 -0.13579822 0.13177301
-0.23343658 0.0038133422 0.2073956 0.04861144 -0.16186455 0.114740945 -0.10652047 0.19007447
0.18823643 0.22432004 -0.090195745 0.0735287 -0.20297651 0.21311507 0.12059413 0.084933765
0.099829726 -0.034195613 0.18404292 -0.058241617 0.16411527 -0.10914818 0.17049688 -0.16991168
0.18425688 -0.19126962 0.21801089 0.06849389 0.10532115 0.16896279 0.12285469 -0.18427393
-0.10874583 -0.23004715 -0.023945725 -0.15529229 -0.2141792 -0.016833823 -0.040177166 0.017783279
0.1952381 -0.17338221 -0.0060592787 -0.20300104 0.042820025 -0.12603602 0.08175097 -0.15114604
-0.052876115 0.09054279 -0.10971101 0.0011495998 0.0017479443 0.003669533 0.22586383 0.17546913
0.08874692 0.20060167 -0.06937381 -0.17389762 0.0012475582 0.194425 -0.07174991 -0.23909086
0.032419167 -0.16584243 -0.0884052 -0.23320684 -0.14707588 -0.11491063 0.07965517 -0.19706298
-0.19597104 -0.057241496 -0.13856103 -0.034945704 0.10734156 0.17915884 -0.007826023 0.15628847
0.16149335 -0.24978763 0.041897565 -0.044916376 -0.18398474 -0.0008772966 -0.05824156 -0.028193682
0.011304243 -0.096741796 0.22490449 -0.19467111 0.0585287 0.16816777 0.08653609 -0.023204535
-0.020049792 0.08354258 0.08698272 0.05997425 0.11578513 -0.01398143 0.071278855 0.09295463
-0.13224024 -0.20906419 -0.092710674 0.15468904 0.15347837 0.2522418 0.07651337 0.051912725
-0.19829921 -0.15309295 -0.07746833 -0.02152726 0.18842301 0.007981051 0.06944514 -0.2111653
0.09759756 0.2372853 0.14696686 -0.09176028 0.2272908 -0.0022938156 -0.06119924 0.20659581
-0.20825984 0.17790094 -0.021661973 -0.117021725 -0.056930196 -0.049625967 0.23126362 0.008814728
-0.11790933 -0.24911907 -0.18251497 -0.13006864 0.12620978 -0.08077015 -0.24903166 -0.05717546
-0.033411264 0.2179647 0.042297293 0.14138362 0.12675908 -0.0913836 -0.14827444 0.1748173
0.1769662 0.14330585 -0.23647939 0.056926608 -0.21632576 -0.1502709 -0.109132856 0.09763106
0.23879872 0.024661804 -0.05762953 0.0045599905 0.08759191 0.19649085 -0.051777318 -0.032099508
-0.20848271 0.001352944 -0.03806318 0.14650978 -0.040601466 -0.22005121 0.08145404 -0.08794234
-0.089011215 -0.05890473 0.16693722 -0.09192167 -0.17175038 0.023748847 -0.05222136 -0.18103871
-0.19532238 0.00038914548 -0.16229104 0.19913681 0.09044665 0.05910878 0.23590446 -0.1051996
0.25954798 0.03788317 0.10134616 0.20479588 -0.21637172 -0.22078079 0.096789956 0.013953636
00000000: 98ba 5d3e 84ba ac3d 9a84 b13c ac46 5c3e
00000010: bea3 ae3d 6c46 523e 885c 393e 1921 48bb
00000020: 9bbc d03d 9ab3 bebd 5883 4a3e 5db9 74bd
00000030: 64c6 5f3e 4b21 8dbd d9f7 e7bd 849e de3c
00000040: ff70 d5bd ac31 703e 457a 26be d386 c73d
00000050: a8a8 febd d8a3 f83d 442f 2a3e ee8d 713d
00000060: 5a67 0bbe 312f 1c3c 3c99 063c 773e 363e
00000070: 23f4 453e b9b8 0d3d 6a89 1fbe dab8 d73d
00000080: 3bbc 1f3b b1fc 2cbe 4194 293e bea2 edbd
00000090: 5f58 7f3c 118d efbc 8fa3 75bc 6f2c dd3d
000000a0: 3d88 49be a9f5 82ba 0fae 013d 8c84 66be
000000b0: f243 3ebe bda7 01be a89b fe3d 4779 7f3e
000000c0: aec5 4a3d 1cd2 3f3e f739 683e d80f 9abd
000000d0: b2eb f53d 15ae 2cbe b00e 0bbe 81ef 063e
000000e0: 000a 6fbe 44e9 793b 835f 543e ca1c 473d
000000f0: d2bf 25be 4dfd ea3d 6727 dabd e2a2 423e
00000100: 0dc1 403e 27b4 653e 8cb8 b8bd 3796 963d
00000110: 13d9 4fbe d63a 5a3e 0efa f63d c1f1 ad3d
00000120: 8773 cc3d b310 0cbd bf75 3c3e c38e 6ebd
00000130: d50d 283e 1589 dfbd bc96 2e3e 54fd 2dbe
00000140: d6ad 3c3e 2fdc 43be 3f3e 5f3e 8646 8c3d
00000150: 9db2 d73d 9504 2d3e 3d9b fb3d 4eb2 3cbe
00000160: 22b6 debd 7b91 6bbe d329 c4bc f104 1fbe
00000170: cb51 5bbe 16e7 89bc d090 24bd 3dae 913c
00000180: 7fec 473e 1b8b 31be ea8c c6bb 81df 4fbe
00000190: 0d64 2f3d 960f 01be 0d6d a73d 07c6 1abe
000001a0: a094 58bd 806e b93d 2ab0 e0bd 2bae 963a
000001b0: 471b e53a 8c7c 703b d948 673e 2eae 333e
000001c0: f2c0 b53d 866a 4d3e db13 8ebd 3812 32be
000001d0: 1b85 a33a 5917 473e 9ef1 92bd 3cd4 74be
000001e0: f6c9 043d 99d2 29be c90d b5bd c6cd 6ebe
000001f0: 0f9b 16be 4456 ebbd 4022 a33d e1ca 49be
00000200: a2ac 48be 0f76 6abd f1e2 0dbe 3a23 0fbd
00000210: e4d5 db3d 6a75 373e b838 00bc 160a 203e
00000220: 835e 253e 54c8 7fbe c89c 2b3d 3cfa 37bd
00000230: 7f66 3cbe 61fa 65ba b48e 6ebd 70f6 e6bc
00000240: 6e35 393c 9020 c6bd 5d4d 663e dd57 47be
00000250: cabb 6f3d 2c34 2c3e d539 b13d 7017 bebc
00000260: 763f a4bc 5f18 ab3d ff23 b23d 8fa7 753d
00000270: c120 ed3d 5e12 65bc a6fa 913d ff5e be3d
00000280: fc69 07be ec14 56be 18df bdbd ce66 1e3e
00000290: 6f29 1d3e d625 813e 0bb3 9c3d 70a2 543d
000002a0: f30e 4bbe 66c4 1cbe b7a7 9ebd f059 b0bc
000002b0: f6f1 403e f4c2 023c 4139 8e3d b73b 58be
000002c0: 3be1 c73d ebfa 723e 7b7e 163e d0ec bbbd
000002d0: ebbe 683e d753 16bb 0eac 7abd da8d 533e
000002e0: 1142 55be aa2b 363e 7374 b1bc 16a9 efbd
000002f0: a32f 69bd 9944 4bbd 5fd0 6c3e a66b 103c
00000300: 727a f1bd 1219 7fbe 34e5 3abe b730 05be
00000310: 233d 013e d26a a5bd 2802 7fbe d130 6abd
00000320: 40da 08bd 2332 5f3e ed3f 2d3d dec6 103e
00000330: 22cd 013e 5327 bbbd 41d5 17be 4e03 333e
00000340: a136 353e c5be 123e a727 72be e02b 693d
00000350: 8084 5dbe 9de0 19be 0c81 dfbd cbf2 c73d
00000360: a787 743e 8d07 ca3c f10c 6cbd f96b 953b
00000370: 6363 b33d e634 493e 7414 54bd c67a 03bd
00000380: 7e7c 55be 4455 b13a 23e8 1bbd a906 163e
00000390: b94d 26bd 1b55 61be 60d1 a63d 1d1b b4bd
000003a0: 834b b6bd 1646 71bd 97f1 2a3e 6e41 bcbd
000003b0: 55df 2fbe f18c c23c 11e6 55bd 3662 39be
000003c0: 9702 48be 3906 cc39 9f2f 26be 85ea 4b3e
000003d0: 183c b93d 0c1c 723d f090 713e e372 d7bd
000003e0: 79e3 843e 622b 1b3d 938e cf3d 03b6 513e
000003f0: 8c90 5dbe 5c14 62be d039 c63d cb9d 643c

weight_hh_l0 f4 [48, 16]
-0.16526008 -0.113420285 0.14564504 0.10075821 -0.015467668 0.22107607 -0.0030411468 0.16668937
0.14232631 0.22785816 -0.032805342 -0.054785673 0.10287764 -0.18321368 0.22998776 0.12222151
0.22501707 -0.19458619 -0.22702567 0.14012137 -0.2559303 -0.13998787 -0.24145426 0.09521288
0.17582434 0.029592162 0.08412838 0.11590471 0.13943112 0.22039962 -0.17040487 0.0035393187
-0.027009135 -0.036065266 -0.10498745 -0.1445107 0.21824332 -0.1614729 -0.023156576 0.21318999
0.2019417 0.16711766 -0.0198265 0.080440454 -0.07120079 0.21308565 -0.08981745 0.150536
0.114798844 -0.08915554 0.08472168 0.002008754 0.074906826 0.24081069 -0.0550642 -0.19228365
-0.22801939 -0.08437829 -0.17303088 0.054253735 -0.22156465 -0.002015248 -0.0734567 -0.24200389
-0.16798528 0.14064051 -0.08377832 0.24697521 0.21923491 0.17246473 -0.059630558 -0.009541909
0.1269257 -0.037747983 -0.05923907 -0.07418407 -0.089711346 0.23648696 -0.0958553 -0.19461551
-0.20240965 -0.140996 -0.1787055 -0.18127629 -0.047221366 0.24246691 -0.04456973 -0.19636221
0.13095777 -0.11175142 -0.05943785 -0.18066303 -0.06758327 0.16406615 0.009562602 -0.07125813
-0.22951755 -0.060584728 -0.13743559 0.0692238 -0.19513763 -0.16808353 -0.16931075 -0.18000673
-0.039075505 -0.03654566 -0.1219839 -0.041523118 -0.054135278 -0.20945445 0.23984246 -0.009667718
-0.23256356 0.1835532 -0.08897104 0.22762372 -0.20045057 0.22634968 0.039683156 0.025120847
0.090709396 0.07246619 0.25198227 0.20316488 -0.15418945 0.098580234 0.20046899 0.13970937
0.07453768 -0.23648857 0.2227263 0.0898567 -0.23957458 -0.194427 0.24823841 -0.11183369
-0.0077917734 -0.049858604 0.20170182 -0.20823781 0.13322063 -0.19718765 -0.009312175 0.17284384
0.034508195 -0.16809139 0.20620032 -0.0050083683 0.2189683 0.034598596 -0.07985763 0.23741727
-0.2249331 -0.03233086 -0.17349125 0.13919619 -0.1819159 -0.15130031 -0.1072803 0.22637805
-0.17557576 0.024487967 0.048395164 0.23371895 0.14872915 0.041593265 -0.10028368 0.10194918
-0.1525115 0.097646974 -0.22283909 0.033841927 0.18089701 -0.07568079 -0.06363166 0.14634803
-0.12082616 -0.12100825 0.097072124 0.16209556 -0.055078194 0.24355666 0.09452899 -0.11198179
0.23473237 0.1442568 0.18504035 -0.12701564 0.20977184 0.20197724 -0.24767737 0.057763718
-0.17633842 -0.047622558 -0.1174895 -0.2540704 -0.035100043 -0.100427575 -0.030376049 0.25402343
-0.1386452 -0.00019998431 -0.05206718 0.14809825 0.08806644 -0.02295115 0.13375022 0.20301865
-0.048026964 -0.0004550682 -0.11714541 -0.13007215 0.14718542 0.11135326 -0.032867923 -0.08128781
-0.021053974 -0.15278096 0.040831167 -0.16846491 0.20377098 0.21275622 -0.0757605 0.18647331
-0.11277328 -0.15685199 0.052447885 0.06574137 -0.17645307 0.22982778 -0.076462284 -0.029033894
-0.104278065 0.13040264 -0.17341125 0.058446277 0.06782597 0.026104623 -0.19569279 -0.15328608
0.10074433 -0.006175985 0.2460555 -0.22875617 -0.20411018 -0.18959007 0.04607712 0.066738464
0.14004537 0.22531289 0.033201307 0.23855601 0.22366937 -0.16485395 -0.2256221 0.18731451
00000000: f039 29be e548 e8bd f923 153e 525a ce3d
00000010: 1a6c 7dbc c461 623e fa4d 47bb 9eb0 2a3e
00000020: fdbd 113e a653 693e e55e 06bd f166 60bd
00000030: 83b1 d23d 5e9c 3bbe e981 6b3e 454f fa3d
00000040: e06a 663e 9a41 47be 6b79 68be fa7b 0f3e
00000050: 4c09 83be fb58 0fbe c93f 77be f8fe c23d
00000060: 4c0b 343e 436b f23c 804b ac3d 735f ed3d
00000070: 08c7 0e3e 70b0 613e 9d7e 2ebe eaf3 673b
00000080: 4342 ddbc 2cb9 13bd a903 d7bd 9dfa 13be
00000090: 2d7b 5f3e 2759 25be dcb2 bdbc 7a4e 5a3e
000000a0: cec9 4e3e e420 2b3e 2f6b a2bc f7bd a43d
000000b0: b8d1 91bd 2033 5a3e 36f2 b7bd 1c26 1a3e
000000c0: a81b eb3d 2e97 b6bd 8f82 ad3d 4da5 033b
000000d0: c068 993d 1497 763e 008b 61bd 01e6 44be
000000e0: ea7d 69be 86ce acbd 022f 31be 2a39 5e3d
000000f0: d8e1 62be 4012 04bb 7770 96bd decf 77be
00000100: 5504 2cbe 1104 103e f893 abbd 12e7 7c3e
00000110: 1e7f 603e 989a 303e 2c3f 74bd ab55 1cbc
00000120: d0f8 013e a19d 1abd aba4 72bd d1ed 97bd
00000130: 95ba b7bd a329 723e c94f c4bd 4a49 47be
00000140: 7a44 4fbe 4161 10be 93fe 36be 7ea0 39be
00000150: 316b 41bd 3f49 783e c08e 36bd 2d13 49be
00000160: cb19 063e eedd e4bd 1a75 73bd bbff 38be
00000170: 1969 8abd f500 283e 76ac 1c3c c8ef 91bd
00000180: a606 6bbe b127 78bd eabb 0cbe 35c5 8d3d
00000190: 29d2 47be 171e 2cbe cc5f 2dbe af53 38be
000001a0: a30d 20bd e7b0 15bd b2d2 f9bd 2514 2abd
000001b0: f4bc 5dbd 3a7b 56be 4399 753e 5965 1ebc
000001c0: 2425 6ebe 5ff5 3b3e 7336 b6bd 3116 693e
000001d0: ea42 4dbe 36c8 673e ce8a 223d 3cca cd3c
000001e0: d9c5 b93d 2769 943d d203 813e 740a 503e
000001f0: d7e3 1dbe 6fe4 c93d be47 4d3e f90f 0f3e
00000200: 36a7 983d 0f2a 72be 5d12 643e ca06 b83d
00000210: 0a53 75be df17 47be 3632 7e3e 1009 e5bd
00000220: 2252 ffbb 8938 4cbd ec8a 4e3e 4b3c 55be
00000230: fd6a 083e 8feb 49be 1892 18bc fafd 303e
00000240: 7758 0d3d 2620 2cbe 2d26 533e 3d1d a4bb
00000250: 3a39 603e 42b7 0d3d 668c a3bd 831d 733e
00000260: dd54 66be 5d6d 04bd b1a7 31be 7289 0e3e
00000270: 2948 3abe 78ee 1abe c6b5 dbbd a6cf 673e
00000280: 22ca 33be fd9a c83c 023a 463d 0554 6f3e
00000290: 744c 183e b35d 2a3d 8861 cdbd bbca d03d
000002a0: fa2b 1cbe 23fb c73d ee2f 64be d59d 0a3d
000002b0: 113d 393e 88fe 9abd 5151 82bd 42dc 153e
000002c0: b573 f7bd 2cd3 f7bd c0cd c63d 61fc 253e
000002d0: ac99 61bd eb66 793e 6a98 c13d b556 e5bd
000002e0: af5d 703e 0eb8 133e 387b 3d3e 6310 02be
000002f0: 6ece 563e 1fd3 4e3e 239f 7dbe a699 6c3d
00000300: 0f92 34be df0f 43bd 569e f0bd 8415 82be
00000310: 10c5 0fbd f9ac cdbd 31d7 f8bc 5c0f 823e
00000320: 02f9 0dbe e1b2 51b9 6544 55bd 11a7 173e
00000330: 2d5c b43d 0d04 bcbc d1f5 083e 1fe4 4f3e
00000340: ecb7 44bd 3896 eeb9 efe9 efbd a231 05be
00000350: c6b7 163e 2e0d e43d 84a0 06bd 397a a6bd
00000360: 6279 acbc 9d72 1cbe 953e 273d 1182 2cbe
00000370: 57a9 503e c4dc 593e 5228 9bbd dcf2 3e3e
00000380: adf5 e6bd cf9d 20be 98d3 563d 69a3 863d
00000390: 1db0 34be f957 6b3e 4298 9cbd 7dd8 edbc
000003a0: bd8f d5bd 4588 053e b892 31be 5d65 6f3d
000003b0: 58e8 8a3d 5dd9 d53c b163 48be 07f7 1cbe
000003c0: 0b53 ce3d eb5f cabb f9f5 7b3e 0f3f 6abe
000003d0: 4202 51be e623 42be 5dbb 3c3d 2dae 883d
000003e0: 0e68 0f3e 6cb8 663e 18fe 073d 0748 743e
000003f0: 9509 653e 79cf 28be 7b09 67be 60cf 3f3e

bias_ih_l0 f4 [48]
-0.082308 0.22664692 -0.21813756 0.07321935 -0.03210707 -0.20109937 0.1525129 -0.06279774
0.069505036 0.18605575 0.22285093 0.16679893 -0.20235875 -0.15179451 -0.010438071 -0.06398239
-0.09005008 -0.20804895 -0.11450039 0.051446695 0.15950234 -0.1474504 0.05536885 -0.17464176
-0.16027974 -0.22334577 -0.20874491 -0.24412492 0.20971645 -0.0037574337 -0.061529342 0.07538309
-0.23427908 0.16613989 0.1210252 -0.08761682 0.13677251 0.06820544 -0.14397301 0.17851375
0.1279666 -0.0787868 0.14845099 -0.2441158 0.031423092 -0.10312025 -0.24830136 0.22101665
00000000: 1991 a8bd 2116 683e 745f 5fbe 07f4 953d
00000010: b482 03bd feec 4dbe 572c 1c3e 1a9c 80bd
00000020: a858 8e3d 6685 3e3e 0933 643e 57cd 2a3e
00000030: 2237 4fbe 0570 1bbe 7104 2bbc 3309 83bd
00000040: 2d6c b8bd c90a 55be 2e7f eabd c5b9 523d
00000050: 9554 233e 3dfd 16be 72ca 623d 4ad5 32be
00000060: 5f20 24be c1b4 64be 3ac1 55be e2fb 79be
00000070: e9bf 563e 473f 76bb 3106 7cbd 7362 9a3d
00000080: dbe6 6fbe 9320 2a3e 0fdc f73d 7370 b3bd
00000090: 180e 0c3e 4baf 8b3d a96d 13be 4fcc 363e
000000a0: ad09 033e f95a a1bd 8903 183e 7ef9 79be
000000b0: 80b5 003d b630 d3bd b642 7ebe 3052 623e

bias_hh_l0 f4 [48]
-0.08609834 0.14961973 -0.23070394 0.045840755 -0.13947785 0.11720282 -0.12870575 -0.1636457
-0.11693563 0.15456975 0.06499016 0.2526148 -0.14629914 -0.14643006 -0.13006212 -0.070801295
-0.12632546 0.24622813 0.12219179 -0.22252147 0.14779507 -0.20833224 -0.22663261 0.21065703
0.12139598 0.136166 0.018446352 -0.18034208 0.19618054 0.18272357 -0.09194516 -0.1418633
-0.028040525 -0.17075136 -0.2416318 0.1918274 -0.08018756 0.06492908 0.016045572 0.011070498
-0.17286019 0.018654734 -0.034668755 -0.2228428 0.03479813 0.1408904 -0.04385594 -0.09871003
00000000: 5454 b0bd ea35 193e a73d 6cbe 84c3 3b3d
00000010: 48d3 0ebe 0808 f03d 71cb 03be bd92 27be
00000020: f37b efbd 8847 1e3e 9019 853d ba56 813e
00000030: 71cf 15be c3f1 15be 012f 05be 4500 91bd
00000040: 765b 01be 3a23 7c3e b03f fa3d abdc 63be
00000050: 9757 173e 0c55 55be 6112 68be 7ab6 573e
00000060: 759e f83d 1a6f 0b3e ce1c 973c 98ab 38be
00000070: 8de3 483e e31b 3b3e be4d bcbd 9d44 11be
00000080: 3eb5 e5bc 72d9 2ebe 546e 77be 676e 443e
00000090: 6039 a4bd 8af9 843d 0172 833c 0961 353c
000000a0: 4302 31be d0d1 983c d300 0ebd e730 64be
000000b0: 7c88 0e3d 9345 103e 49a2 33bd 7c28 cabd

weight_ih_l0 f4 [48, 36]
0.008843533 0.029112862 -0.19678086 0.2410927 -0.032984577 0.026204927 0.016839746 -0.13874732
0.07641814 0.14594653 -0.08085588 -0.16406284 0.16255948 -0.06550875 -0.0270538 0.08854587
-0.028464032 0.08405646 0.117877595 0.09891519 0.031060528 0.17414059 0.06590571 0.030949246
-0.23632331 -0.04311175 -0.19772176 -0.2497147 0.0748972 -0.19974574 -0.07785374 -0.14572921
0.019747414 0.040903594 -0.1572657 -0.18240708 0.008520495 0.17563216 0.07233408 0.05222704
0.023629332 0.14147046 -0.198712 0.093424946 -0.19939873 -0.11287864 0.12553295 0.23966578
0.07553101 0.06477639 0.19378275 0.19950145 -0.17083137 -0.22795613 0.0015419748 0.17848113
0.09557761 -0.13499308 0.20471686 0.107554995 -0.12995438 -0.029257232 0.16853565 -0.19345205
-0.24329832 0.087585434 0.16772392 0.1596638 -0.20103414 -0.14076672 -0.17495836 -0.16987379
0.11758448 0.109869465 -0.15803003 -0.12879185 0.24899688 -0.10212652 0.03436331 -0.05230115
0.19899473 0.18500893 0.10811568 -0.18467496 -0.059028 -0.21591528 0.088089764 -0.22245482
-0.25499874 -0.06357942 -0.10439147 0.20202991 0.05447946 0.14422546 0.039831616 0.06393104
-0.059862085 0.22168794 0.0086047 -0.056771882 0.05155675 -0.08821529 0.2178236 0.07962881
0.079881035 -0.09583813 0.12601438 -0.14516716 -0.14437887 0.22787344 0.15525512 -0.043752927
0.22574551 -0.24937908 0.14955845 0.049217775 -0.19260462 -0.21309234 -0.1389405 -0.14730558
0.12582552 0.013335966 0.15280735 0.10819315 0.21815588 0.068785205 -0.24282016 -0.11792631
-0.09484227 -6.3736343e-06 -0.08793156 0.11377936 -0.025331834 -0.14153774 -0.037913434 -0.2426543
0.1703504 -0.124381684 -0.16318466 0.013283509 0.07153267 -0.08756603 -0.23007113 -0.1362726
-0.066721566 0.09684452 -0.094646625 0.03449192 0.016589457 0.0014752541 -0.12710263 -0.14033097
0.061791983 0.0071688383 -0.0016540363 -0.03856043 0.22467443 0.1056319 0.012062817 -0.024640376
-0.09560826 0.21622539 0.032332134 -0.23432206 -0.14239348 -0.21928652 0.11832867 -0.17120372
-0.17109963 -0.109824345 0.03689111 0.019696688 0.007923679 -0.15617922 0.110794574 0.10812193
0.15209402 0.019046785 -0.07524212 0.17672907 -0.08723603 0.16175121 -0.0074733994 0.031799607
-0.06645022 0.19332314 0.20699762 -0.067457296 -0.120710805 0.10055223 -0.1800505 0.20952845
-0.04409476 -0.108954854 -0.05320593 0.03966289 0.057218086 0.17739645 0.024426574 0.22263795
-0.076115385 0.03262054 -0.013490777 0.20630957 -0.10461786 0.22374447 -0.13736096 -0.0632634
-0.09532132 -0.06377492 -0.21656938 0.09441834 0.027871858 -0.11183989 0.070493095 0.2290641
0.23329987 0.010334157 -0.103330486 0.18076622 -0.1715862 0.13972425 0.058165144 -0.1420967
0.20849007 0.08506279 0.17180927 0.1332962 0.19314471 0.20452668 -0.16458267 0.014010235
-0.22531267 -0.033421732 0.20779438 0.05243687 -0.08152599 -0.18097746 -0.093977116 0.15837489
-0.09206896 -0.10718064 -0.027500082 -0.01830973 -0.2025156 0.058488563 -0.15858343 -0.10545239
-0.24117827 -0.19003923 -0.22787371 0.1046982 -0.20081374 -0.22413439 -0.09042541 -0.08087984
00000000: 77e4 103c 197e ee3c ec80 49be 01e1 763e
00000010: d61a 07bd b7ab d63c 82f3 893c c713 0ebe
00000020: 1d81 9c3d 0273 153e c597 a5bd 1700 28be
00000030: fe75 263e 7429 86bd ee9f ddbc 8957 b53d
00000040: 672d e9bc cb25 ac3d cf69 f13d 0c94 ca3d
00000050: a672 fe3c e951 323e 93f9 863d 4689 fd3c
00000060: bdfe 71be f295 30bd 9377 4abe 36b5 7fbe
00000070: b463 993d 268a 4cbe c871 9fbd 0a3a 15be
00000080: 54c5 a13c 878a 273d 420a 21be ecc8 3abe
00000090: 8c99 0b3c ebd8 333e e423 943d 05ec 553d
000000a0: 4d92 c13c a2dd 103e 297b 4bbe 9455 bf3d
000000b0: 2e2f 4cbe eb2c e7bd b68b 003e f26a 753e
000000c0: 01b0 9a3d 7ca9 843d fc6e 463e 1c4a 4c3e
000000d0: 6bee 2ebe 556d 69be 171c ca3a c2c3 363e
000000e0: 32be c33d a03b 0abe 4ca1 513e cb45 dc3d
000000f0: c312 05be ddac efbc 9c94 2c3e 4b18 46be
00000100: 3223 79be fe5f b33d d2bf 2b3e e87e 233e
00000110: e5db 4dbe 2725 10be 4928 33be 65f3 2dbe
00000120: 22d0 f03d 3e03 e13d a0d2 21be 03e2 03be
00000130: 0af9 7e3e b527 d1bd 8bc0 0c3d bb39 56bd
00000140: 46c5 4b3e fb72 3d3e c16b dd3d 6f1b 3dbe
00000150: 58c7 71bd e518 5dbe 6868 b43d 32cb 63be
00000160: 328f 82be ed35 82bd 32cb d5bd eee0 4e3e
00000170: db25 5f3d d7af 133e 7a26 233d 47ee 823d
00000180: f231 75bd 2a02 633e bafa 0c3c a289 68bd
00000190: 2c2d 533d 38aa b4bd 260d 5f3e 6e14 a33d
000001a0: ab98 a33d c846 c4bd ea09 013e b3a6 14be
000001b0: 0ed8 13be a857 693e 33fb 1e3e 4536 33bd
000001c0: d529 673e 3b5d 7fbe da25 193e 9498 493d
000001d0: 253a 45be e134 5abe 6b46 0ebe 46d7 16be
000001e0: 68d8 003e 187f 5a3c 8879 1c3e 5f94 dd3d
000001f0: 4164 5f3e 42df 8c3d d9a5 78be 5983 f1bd
00000200: aa3c c2bd 1add d5b6 7615 b4bd 2705 e93d
00000210: b584 cfbc 45ef 10be 1e4b 1bbd 5e7a 78be
00000220: 5670 2e3e d3bb febd e119 27be 13a3 593c
00000230: b87f 923d d255 b3bd c497 6bbe 0b8b 0bbe
00000240: 51a5 88bd 6b56 c63d 17d6 c1bd 6647 0d3d
00000250: 9de6 873c 505d c13a 3127 02be ecb2 0fbe
00000260: 9719 7d3d 93e8 ea3b 40cc d8ba 8bf1 1dbd
00000270: 0e11 663e 8a55 d83d 1fa3 453c 9dda c9bc
00000280: 43ce c3bd 306a 5d3e b36e 043d 1ff2 6fbe
00000290: 99cf 11be a58c 60be 4d56 f23d 0750 2fbe
000002a0: be34 2fbe 96eb e0bd 221b 173d f35a a13c
000002b0: 52d2 013c 72ed 1fbe 44e8 e23d 086f dd3d
000002c0: 89be 1b3e 0108 9c3c 8a18 9abd 77f8 343e
000002d0: cea8 b2bd 1ca2 253e 6be3 f4bb 4e40 023d
000002e0: 0e17 88bd 80f6 453e 2ff7 533e 0d27 8abd
000002f0: 3a37 f7bd 54ee cd3d 295f 38be a08e 563e
00000300: b59c 34bd b923 dfbd 76ee 59bd 8e75 223d
00000310: 835d 6a3d 6aa7 353e 3d1a c83c 34fb 633e
00000320: 62e2 9bbd 1e9d 053d 6c08 5dbc d142 533e
00000330: e341 d6bd 451d 653e 5aa8 0cbe 3e90 81bd
00000340: d337 c3bd 6d9c 82bd 5dc4 5dbe 675e c13d
00000350: 8653 e43c 500c e5bd af5e 903d c88f 6a3e
00000360: 29e6 6e3e 9950 293c ef9e d3bd c81a 393e
00000370: 4bb4 2fbe e013 0f3e 933e 6e3d cc81 11be
00000380: 6c7e 553e 6635 ae3d c5ee 2f3e cd7e 083e
00000390: bac7 453e 716f 513e 5c88 28be 2f8b 653c
000003a0: 5db8 66be 3ae5 08bd 0dc8 543e 0bc8 563d
000003b0: 19f7 a6bd 2852 39be 1377 c0bd 072d 223e
000003c0: a78e bcbd 8681 dbbd da47 e1bc 49fe 95bc
000003d0: 4060 4fbe b491 6f3d b263 22be 6cf7 d7bd
000003e0: 70f7 76be a599 42be ba57 69be 036c d63d
000003f0: 1ea2 4dbe 7c83 65be f530 b9bd 54a4 a5bd

weight_hh_l0 f4 [48, 16]
0.22014268 -0.08771058 -0.20696619 -0.0018994684 0.21416637 -0.0661461 -0.016208626 0.1718969
0.06386217 0.19008708 -0.13392352 -0.0059880423 -0.07926175 -0.19446728 0.050626174 0.019482886
0.243547 -0.13416575 -0.181244 0.10684683 -0.15758924 0.13883011 0.09429905 0.020561464
0.23669288 -0.13972086 0.09414858 0.20679411 0.049713504 0.041150548 0.09958615 -0.18019295
-0.11616555 -0.25317857 0.12829691 0.18165992 0.17087883 -0.050897546 0.059782587 0.20020431
-0.097415924 0.21054031 0.048675805 0.11431873 -0.22154784 0.21092598 0.1809202 -0.16310227
0.0791338 -0.10498967 0.07459935 0.0023877693 0.160642 0.23559493 -0.14405718 0.15561813
-0.0148846 0.07404633 0.007432357 -0.24192417 -0.081862144 0.06415529 0.13658084 -0.11698155
0.15685315 -0.22079782 0.0029347576 0.00095804746 -0.21897046 0.18891376 -0.20056003 0.11535217
-0.1411019 0.15096386 -0.048025016 0.038621496 0.108282976 0.13685425 -0.11144171 0.21087916
-0.2403134 0.0217773 -0.10299763 -0.14069605 0.092039414 0.2158817 0.1723283 -0.22955684
-0.08175476 -0.24942906 0.18222997 -0.15400475 -0.01965636 -0.1645333 0.007186539 -0.17360544
-0.23327056 0.14023449 0.19444068 0.055949535 -0.08397283 0.22748725 -0.11177489 0.063913755
-0.20176627 -0.23601142 -0.18610843 0.18250492 -0.17850314 -0.10036725 0.057881355 -0.172162
-0.15248874 0.10818258 -0.14133061 0.04047347 -0.14234492 -0.15395933 0.15100901 0.043922003
0.09608238 0.07805444 -0.16772325 -0.2518116 0.20549864 0.022310263 -0.13506033 0.15796728
0.24273181 0.089373715 -0.02226327 -0.11493649 0.19305341 -0.11798867 -0.21566367 -0.24225955
0.012460202 0.07754064 -0.11062774 0.16065916 -0.060193717 -0.08984005 0.18304102 -0.010117424
-0.18535453 -0.019521965 0.20730376 -0.06459543 -0.19269808 0.058997322 0.22022206 0.0075172093
-0.23308785 0.18451992 -0.18659958 0.15380262 -0.01603018 0.1263876 -0.19846301 -0.21637765
-0.15824603 0.044554457 0.027763816 -1.6293707e-05 -0.09922177 0.21540238 0.067254804 0.08187297
-0.06070399 0.21767418 0.22249332 0.056853462 0.15024441 -0.08405918 -0.09154143 -0.046808604
0.12422808 -0.013807892 0.092160925 -0.0017236533 0.08116789 0.10489195 -0.06642658 -0.1407037
0.15733352 -0.073838204 -0.099373184 0.20275801 0.112067476 0.14793369 -0.06965577 -0.094781384
-0.030103192 0.23826893 -0.11481244 0.19567722 -0.14495687 0.22506186 0.16963764 -0.0008386021
0.102683134 -0.20125213 -0.0018871342 -0.21028082 0.07933086 0.06373363 -0.06912376 -0.14325383
-0.0016180844 -0.10465571 0.072654694 -0.1417912 0.031115085 -0.20627826 0.20089337 0.026203467
0.08489029 -0.23049669 0.00025377652 -0.04932146 -0.15784603 0.15185362 0.0945967 -0.03676003
0.04248238 0.12786432 -0.035791107 -0.21549906 -0.04309836 -0.06868319 -0.0012578291 -0.10441461
-0.19783226 0.15360883 -0.026808746 -0.04442245 0.10531292 -0.043075 -0.008816181 0.22118898
0.1258319 -0.016211 -0.14034426 0.011332709 0.031317923 -0.0901607 0.0313551 0.13931139
0.08958374 -0.23552343 -0.10706674 -0.08649638 -0.0027773115 -0.012464689 0.1304588 0.1817387
00000000: 156d 613e 9ba1 b3bd f2ee 53be 95f7 f8ba
00000010: 6e4e 5b3e 9b77 87bd f4c7 84bc be05 303e
00000020: 2bca 823d 30a6 423e 3f23 09be 5737 c4bb
00000030: fc53 a2bd 6e22 47be 645d 4f3d 939a 9f3c
00000040: 6364 793e bf62 09be 0798 39be 83d2 da3d
00000050: 135f 21be 7b29 0e3e dc1f c13d 8470 a83c
00000060: 9e5f 723e fc12 0fbe f9d0 c03d d6c1 533e
00000070: 63a0 4b3d 7a8d 283d d3f3 cb3d 8084 38be
00000080: 34e8 edbd 9fa0 81be 4460 033e 0f05 3a3e
00000090: dcfa 2e3e f279 50bd 96de 743d 5c02 4d3e
000000a0: 0082 c7bd e197 573e 4860 473d f01f ea3d
000000b0: 70dd 62be fbfc 573e 2543 393e 4804 27be
000000c0: e710 a23d d304 d7bd 8bc7 983d 1f7c 1c3b
000000d0: 567f 243e cc3f 713e ba83 13be 5c5a 1f3e
000000e0: 8ade 73bc 9aa5 973d 218b f33b f8ba 77be
000000f0: 57a7 a7bd d963 833d d9db 0b3e 0694 efbd
00000100: 1d9e 203e d318 62be 1055 403b 7a25 7b3a
00000110: cb39 60be 9c72 413e 9c5f 4dbe c23d ec3d
00000120: 047d 10be 4596 1a3e e1b5 44bd 9331 1e3d
00000130: 77c3 dd3d 8523 0c3e 8d3b e4bd b5f0 573e
00000140: b714 76be 4f66 b23c 6cf0 d2bd a012 10be
00000150: 297f bc3d 1810 5d3e d476 303e f310 6bbe
00000160: 0a6f a7bd 556a 7fbe 7e9a 3a3e 6cb3 1dbe
00000170: 6006 a1bc 6b7b 28be 0f7d eb3b a0c5 31be
00000180: 7ade 6ebe a199 0f3e 751b 473e 572b 653d
00000190: f2f9 abbd 6bf2 683e 3cea e4bd 37e5 823d
000001a0: d19b 4ebe faac 71be 3593 3ebe 92e2 3a3e
000001b0: 87c9 36be 588d cdbd 0015 6d3d 3c4b 30be
000001c0: 0226 1cbe d48e dd3d f9b8 10be 82c7 253d
000001d0: dec2 11be 84a7 1dbe 1ba2 1a3e 8fe7 333d
000001e0: d7c6 c43d 02db 9f3d a5bf 2bbe 73ed 80be
000001f0: 3c6e 523e 03c4 b63c 414d 0abe 2dc2 213e
00000200: b08e 783e 9109 b73d 7661 b6bc d363 ebbd
00000210: cbaf 453e 0ba4 f1bd f0d6 5cbe e312 78be
00000220: e025 4c3c a1cd 9e3d cc90 e2bd d683 243e
00000230: b08d 76bd 0ffe b7bd 1b6f 3b3e 8dc3 25bc
00000240: 94cd 3dbe 87ec 9fbc 7047 543e 9c4a 84bd
00000250: a552 45be 2da7 713d e481 613e ec52 f63b
00000260: 95ae 6ebe caf2 3c3e f613 3fbe 6f7e 1d3e
00000270: b951 83bc c06b 013e e339 4bbe 1a92 5dbe
00000280: 3f0b 22be bc7e 363d f170 e33c 78ae 88b7
00000290: c934 cbbd 7192 5c3e e3bc 893d 04ad a73d
000002a0: bfa4 78bd fbe5 5e3e 4ad5 633e 2ddf 683d
000002b0: acd9 193e 3827 acbd 137a bbbd 61ba 3fbd
000002c0: 4b6b fe3d 7f3a 62bc debe bc3d 35ec e1ba
000002d0: 5a3b a63d 97d1 d63d a90a 88bd a114 10be
000002e0: 0a1c 213e 7c38 97bd 2b84 cbbd cc9f 4f3e
000002f0: a283 e53d ee7b 173e afa7 8ebd be1c c2bd
00000300: f89a f6bc c5fc 733e c922 ebbd 9c5f 483e
00000310: 936f 14be 9e76 663e 7db5 2d3e a2d5 5bba
00000320: 894b d23d 0a15 4ebe b759 f7ba db53 57be
00000330: 3878 a23d c786 823d c290 8dbd 22b1 12be
00000340: e715 d4ba bc55 d6bd fccb 943d b631 11be
00000350: 10e5 fe3c 9c3a 53be feb6 4d3e a7a8 d63c
00000360: f6da ad3d 5307 6cbe 4f0d 8539 4d05 4abd
00000370: 64a2 21be 847f 1b3e eabb c13d af91 16bd
00000380: 0102 2e3d ddee 023e b299 12bd c9ab 5cbe
00000390: e887 30bd c6a9 8cbd bedd a4ba 54d7 d5bd
000003a0: 8a94 4abe a24b 1d3e 049e dbbc 51f4 35bd
000003b0: 4dae d73d 696f 30bd be71 10bc 5d7f 623e
000003c0: 14da 003e eecc 84bc 68b6 0fbe d4ac 393c
000003d0: 3947 003d 2ca6 b8bd 356e 003d a5a7 0e3e
000003e0: ae77 b73d 0e2d 71be cf45 dbbd 0425 b1bd
000003f0: 8e03 36bb b238 4cbc fe96 053e b619 3a3e

bias_ih_l0 f4 [48]
0.13806556 -0.07057045 -0.23705083 -0.23104832 -0.13203678 -0.116738215 -0.22340432 -0.15216286
-0.032429542 0.0877459 0.21385092 0.15313713 -0.16805938 -0.21641131 0.085799985 -0.028695414
0.08225817 -0.017623428 -0.09213756 0.060261827 0.19952618 0.1330684 0.21398963 -0.22192374
0.0065538352 0.12994176 0.058189474 -0.009598795 -0.21753421 -0.059413653 -0.12569138 0.09152658
-0.21518552 -0.03985032 0.10347529 0.17141202 -0.17191891 0.09629023 0.052152194 -0.21526267
0.03546374 0.106538296 -0.24236535 0.20967837 -0.2078027 0.24949476 0.026297279 0.09102107
00000000: 0f61 0d3e 3d87 90bd 74bd 72be ee97 6cbe
00000010: a634 07be 7214 efbd 1ac4 64be 95d0 1bbe
00000020: d7d4 04bd 1fb4 b33d bcfb 5a3e fbcf 1c3e
00000030: c217 2cbe ed9a 5dbe e7b7 af3d a512 ebbc
00000040: f976 a83d 025f 90bc 9eb2 bcbd 1bd5 763d
00000050: 9750 4c3e 1543 083e 1920 5b3e fa3f 63be
00000060: 8ec1 d63b 740f 053e 1658 6e3d 4444 1dbc
00000070: 4ac1 5ebe bb5b 73bd 3eb5 00be 4a72 bb3d
00000080: 9859 5cbe 173a 23bd daea d33d a286 2f3e
00000090: 830b 30be d033 c53d 8a9d 553d d16d 5cbe
000000a0: 6d42 113d c030 da3d 9f2e 78be edb5 563e
000000b0: 3bca 54be 8e7b 7f3e 646d d73c 4169 ba3d

bias_hh_l0 f4 [48]
-0.07135862 0.22053082 -0.12394462 -0.15187101 -0.14945018 -0.073636785 0.14436023 0.00948707
-0.23183152 -0.033631537 -0.031454254 -0.18299963 0.03800303 -0.052096214 0.24151334 -0.23651461
0.17342478 -0.07666069 -0.14273565 -6.0236118e-05 0.17656863 0.16518892 0.08017419 -0.19769502
-0.21605529 -0.06242223 0.06024899 -0.14075877 -0.15149568 -0.13611498 -0.23279116 0.14768535
0.17250843 0.13970158 -0.15188062 0.017909687 -0.0625098 -0.22219992 -0.19934581 0.23272759
0.21217573 -0.014859933 -0.17565915 0.05266394 0.09282073 -0.17378716 0.14089619 0.23496471
00000000: 7824 92bd d5d2 613e add6 fdbd 1384 1bbe
00000010: 7809 19be e2ce 96bd 2bd3 133e a86f 1b3c
00000020: 3e65 6dbe 39c1 09bd 2dd6 00bd 4164 3bbe
00000030: 11a9 1b3d d762 55bd 464f 773e e330 72be
00000040: 4496 313e 4800 9dbd 4b29 12be 0aa6 7cb8
00000050: 68ce 343e 4927 293e 5e32 a43d 9070 4abe
00000060: 993d 5dbe 74ae 7fbd a5c7 763d 1123 10be
00000070: af21 1bbe ba61 0bbe ce60 6ebe d43a 173e
00000080: 0da6 303e ee0d 0f3e 9886 1bbe 56b7 923c
00000090: 2305 80bd 6088 63be 4f21 4cbe 2450 6e3e
000000a0: 9844 593e 1477 73bc fedf 33be 25b6 573d
000000b0: cb18 be3d 43f5 31be 1747 103e 979a 703e

weight_ih_l0 f4 [3, 11]
0.3930497 -0.70518994 -0.6802836 -0.35605013 0.058638778 -0.96091443 -0.34385803 0.3111346
0.019831257 -0.74713343 0.70806175 -0.6017445 0.611113 0.38633904 -0.6141599 -0.8224183
0.21464533 0.0035654225 -0.81334895 -0.62141454 -0.9004882 -0.69504595 0.37185818 -0.78042465
0.08340776 -0.98232496 -0.55664444 0.03490065 0.7770062 -0.36167356 0.9591977 0.23002931
0.2367342
00000000: cf3d c93e 5487 34bf 1127 2ebf 344c b6be
00000010: 372f 703d 7dfe 75bf 290e b0be 094d 9f3e
00000020: 2975 a23c 2344 3fbf 8943 353f ed0b 1abf
00000030: e771 1c3f 3bce c53e 9539 1dbf 018a 52bf
00000040: fccb 5b3e dda9 693b a337 50bf 0615 1fbf
00000050: 6586 66bf 88ee 31bf 3264 be3e e9c9 47bf
00000060: b0d1 aa3d a679 7bbf 4080 0ebf fcf3 0e3d
00000070: e1e9 463f 472d b9be fb8d 753f ce8c 6b3e
00000080: 736a 723e

weight_hh_l0 f4 [3, 1]
0.050525285 -0.8102928 0.0075048874
00000000: 9af3 4e3d 596f 4fbf 8feb f53b

bias_ih_l0 f4 [3]
0.60890615 0.872092 -0.6122529
00000000: 46e1 1b3f 6c41 5f3f 9bbc 1cbf

bias_hh_l0 f4 [3]
-0.075683445 0.7919819 0.5530325
00000000: ecff 9abd 53bf 4a3f 8a93 0d3f

weight f4 [1, 16]
0.0018210089 -0.0069049974 -0.13067308 -0.18374665 -0.0011300385 -0.19782647 0.016836131 0.018318629
-0.12506534 -0.027976144 0.002960553 0.19809572 0.22144823 -0.11490103 0.007135869 -0.0021482932
00000000: ebae ee3a 5143 e2bb 2acf 05be 1528 3cbe
00000010: cd1d 94ba 0693 4abe edeb 893c f310 963c
00000020: 2111 00be 3a2e e5bc d605 423b 9bd9 4a3e
00000030: 53c3 623e 3b51 ebbd 02d4 e93b 61ca 0cbb

weight f4 [680, 17]
-0.24279052 0.014785234 0.021430425 0.21971233 -0.22310722 0.028007213 0.033370044 -0.042284917
0.20002857 0.09219136 0.0029018095 -0.051408555 0.23662212 -0.023668531 -0.028219284 0.10397132
-0.074308164 -0.001868377 0.10676446 -0.050792105 -0.14885044 -0.23902181 -0.04368938 0.0031108123
-0.019207053 -0.13369623 -0.12766401 0.19279014 -0.0352665 0.04078203 0.011566803 -0.22596572
-0.0057032257 0.16790977 -0.0023423405 0.07382837 0.21800484 -0.06062495 -0.11140413 0.008094414
0.1818103 0.091748156 0.07728916 0.002024574 0.04528545 -0.19037384 0.20014285 -0.17029439
-2.813064e-05 0.17957735 0.16245306 -0.22902675 -0.18661954 0.14191471 -0.13781573 -0.22178039
-0.04092936 -0.10849371 -0.1821182 -0.09304161 0.121793754 0.23298988 0.11855937 0.21075311
0.17369309 -0.02020662 0.1895915 -0.1695488 -0.2372161 -0.17392299 0.14181593 0.088858694
0.045340043 0.04074566 0.10850896 -0.18045948 -0.091536164 -0.043064818 -0.026789857 -0.12305671
0.20553106 0.19882716 -0.08082084 -0.11802712 0.12432008 0.09068231 0.2090879 -0.1095663
-0.027487334 0.19901869 -0.0004197371 0.18894784 0.17277731 -0.00055103406 0.007787928 0.2125657
0.1513441 0.1234608 -0.2124013 -0.19658707 -0.005259666 0.1494822 -0.0723938 -0.14649558
0.048961513 -0.005075129 0.00024050273 -0.0019291235 0.19869569 0.20563407 -0.18597887 -0.168637
0.074723706 -0.051832516 -0.19234732 0.13395752 0.002707057 0.18765923 -0.024589777 0.1820911
-0.11661166 -0.13092306 -0.13270044 0.049434807 -0.14520016 0.12352427 -0.12074689 0.03375719
0.0643956 0.08514146 -0.12696928 0.056797687 0.14064981 -0.20683746 0.032442536 0.14219393
0.10048798 0.112237 -0.20442139 0.050489973 0.15358198 -0.037681304 0.15589215 -0.21947944
-0.0768039 0.08242051 -0.16731852 -0.23453818 -0.16360238 -0.0016526309 0.2070428 0.049617093
-0.07416109 -0.09450497 0.16770247 -0.14152113 -0.17645617 0.046229903 -0.14377093 -0.09787465
0.052262433 -0.22604805 0.071176685 -0.013730706 0.045791667 0.19326477 -0.22640853 0.13442771
0.11315364 0.13054964 -0.038946293 -0.0069095553 0.12048338 -0.11058473 0.0120665515 -0.060293395
-0.14564152 -0.113773495 0.15552552 0.10187796 0.19749826 -0.07163463 -7.2247916e-05 0.108489
-0.1642958 -0.0019760365 -0.18018106 0.0010506589 -0.0020709368 -0.20734751 -0.027941577 0.18187031
0.06999851 0.025626473 -0.19603339 -0.0036841733 0.04349728 0.12542237 0.21553145 0.0044571916
-0.11691595 0.11277497 -0.15161566 0.19610344 0.22670086 -0.110513024 -0.2436978 0.15427947
0.13621472 0.1321876 0.009138379 -0.13334091 -0.06830284 -0.07522221 -0.062241886 -0.11884057
0.078432366 -0.045063 -0.18500143 0.14518656 -0.03985431 0.20217675 -0.12390438 0.054211047
-0.20137176 -0.23311166 -0.16033211 0.017170615 -0.14019221 0.16243197 0.036376577 0.18929005
-0.21017541 0.052395657 -0.091153406 -0.095881194 -0.056690164 -0.08660972 -0.13263491 0.101714365
0.101612136 0.18590271 -0.22233659 -0.071637884 -0.10766867 -0.24632646 0.10839571 0.15227725
-0.21615233 0.024713052 -0.14951992 0.10349256 -0.12322785 0.20694308 -0.0151156075 0.011012397
00000000: 149e 78be c43d 723c dc8e af3c 45fc 603e
00000010: 3876 64be 626f e53c 07af 083d f332 2dbd
00000020: 4ad4 4c3e d3ce bc3d 492c 3e3b c791 52bd
00000030: 124d 723e 82e4 c1bc 212c e7bc eaee d43d
00000040: e12e 98bd 54e4 f4ba 53a7 da3d 620b 50bd
00000050: 406c 18be 22c2 74be a3f3 32bd c5de 4b3b
00000060: 1c58 9dbc aae7 08be 5bba 02be c76a 453e
00000070: 9b73 10bd 0f0b 273d b082 3d3c 8f63 67be
00000080: 20e2 babb 8af0 2b3e f481 19bb 5433 973d
00000090: a93c 5f3e de51 78bd d927 e4bd 6f9e 043c
000000a0: 7b2c 3a3e 75e6 bb3d c749 9e3d b7ae 043b
000000b0: 3c7d 393d 5cf1 42be 3ff2 4c3e a761 2ebe
000000c0: 17fa ebb7 20e3 373e 185a 263e fd85 6abe
000000d0: 3119 3fbe 1752 113e 911f 0dbe 661a 63be
000000e0: 8ba5 27bd f331 debd 327d 3abe 9a8c bebd
000000f0: 016f f93d e694 6e3e 41cf f23d aacf 573e
00000100: 9adc 313e 5b88 a5bc 4624 423e 339e 2dbe
00000110: c7e8 72be de18 32be 3238 113e 8cfb b53d
00000120: 7bb6 393d ece4 263d f239 de3d 5fca 38be
00000130: 5077 bbbd bc64 30bd 6776 dbbc 2805 fcbd
00000140: bc76 523e 5999 4b3e 6685 a5bd 34b8 f1bd
00000150: 879b fe3d a6b7 b93d 231b 563e 4c64 e0bd
00000160: 1e2d e1bc 8ecb 4b3e 2910 dcb9 8b7b 413e
00000170: 89ec 303e 4573 10ba e031 ff3b d3aa 593e
00000180: f3f9 1a3e 04d9 fc3d ba7f 59be 1f4e 49be
00000190: 4759 acbb dd11 193e 3343 94bd f002 16be
000001a0: de8b 483d 454d a6bb 762f 7c39 a5da fcba
000001b0: e276 4b3e bd91 523e 3f71 3ebe 2daf 2cbe
000001c0: be08 993d 554e 54bd b2f6 44be 292c 093e
000001d0: e168 313b be29 403e 8070 c9bc 1776 3a3e
000001e0: 18d2 eebd b210 06be a0e2 07be 277c 4a3d
000001f0: 5aaf 14be 4bfa fc3d 254a f7bd fb44 0a3d
00000200: d7e1 833d a55e ae3d 3c04 02be b1a4 683d
00000210: 8106 103e 33cd 53be 77e2 043d 499b 113e
00000220: a4cc cd3d 83dc e53d d753 51be 93ce 4e3d
00000230: 9844 1d3e b657 1abd 31a2 1f3e 38bf 60be
00000240: 5d4b 9dbd 16cc a83d 8c55 2bbe c72a 70be
00000250: 6287 27be 179d d8ba 0703 543e 4b3b 4b3d
00000260: c5e1 97bd d28b c1bd 32ba 2b3e eaea 10be
00000270: edb0 34be 915b 3d3d b038 13be 8172 c8bd
00000280: 2211 563d 2479 67be 15c5 913d c1f6 60bc
00000290: 0b90 3b3d 33e7 453e a3d7 67be 6ba7 093e
000002a0: 18bd e73d ceae 053e 2686 1fbd 8d69 e2bb
000002b0: febf f63d 3f7a e2bd c9b2 453c 35f6 76bd
000002c0: 0d23 15be 1402 e9bd 1542 1f3e 64a5 d03d
000002d0: fc3c 4a3e 2db5 92bd ce83 97b8 7b2f de3d
000002e0: 283d 28be 6480 01bb 6281 38be 43b6 893a
000002f0: 8eb8 07bb e852 54be bce5 e4bc 363c 3a3e
00000300: 615b 8f3d 9cee d13c fabc 48be 2c72 71bb
00000310: 342a 323d b96e 003e 47b4 5c3e a20d 923b
00000320: a171 efbd 90f6 e63d 2341 1bbe 57cf 483e
00000330: 4524 683e a754 e2bd eb8b 79be 70fb 1d3e
00000340: df7b 0b3e 305c 073e 24b9 153c 858a 08be
00000350: 5ce2 8bbd 1a0e 9abd 59f1 7ebd af62 f3bd
00000360: 26a1 a03d fb93 38bd 0471 3dbe c9ab 143e
00000370: 463e 23bd 6c07 4f3e 94c1 fdbd 670c 5e3d
00000380: 6634 4ebe d3b4 6ebe 1a2e 24be 64a9 8c3c
00000390: 8c8e 0fbe 9154 263e 9bff 143d 40d5 413e
000003a0: 3938 57be d49c 563d a3ae babd 5c5d c4bd
000003b0: f233 68bd 7060 b1bd 72d1 07be 9f4f d03d
000003c0: 061a d03d 485d 3e3e 34ac 63be e2b6 92bd
000003d0: 6481 dcbd 013d 7cbe 92fe dd3d 91ee 1b3e
000003e0: 0957 5dbe 0773 ca3c c01b 19be e8f3 d33d
000003f0: e25e fcbd e3e8 533e 74a7 77bc 576d 343c

bias f4 [680]
-0.053767316 0.09543155 -0.21418345 0.022929458 0.026532697 -0.1514797 -0.21081877 0.06499257
0.053572405 -0.021304768 -0.17041947 -0.19245987 0.010311026 0.22544056 -0.101234 0.16312361
-0.19911009 0.04386523 0.116042286 -0.1172457 -0.12484199 0.20177278 0.16200681 -0.13300987
-0.06616557 0.029304285 -0.11432547 -0.15069085 -0.1841025 -0.05729576 -0.06736437 0.22453512
-0.030404106 0.03735927 0.12772278 -0.067171305 0.14927946 -0.15178218 -0.014891488 -0.07292065
0.20914175 -0.12997252 -0.20870727 -0.070371814 -0.028150659 0.1709037 -0.00080074265 -0.10387368
0.1667708 -0.176602 -0.20049007 0.02561469 0.11755734 0.23412994 -0.17494802 0.18833198
0.12241555 -0.11962118 -0.20072834 0.18553446 0.0054360726 0.19042005 0.15581459 -0.0746012
-0.21178342 0.13876405 0.0029425928 0.031563837 0.1030426 -0.20298348 0.2095488 0.055184346
-0.011741586 0.005523368 -0.048496496 0.14497603 -0.009777438 -0.0023676478 0.0060739084 0.12072484
0.13746828 -0.012645414 -0.04194679 -0.13467084 0.11122022 0.0831318 -0.16600345 -0.025896536
-0.02020178 -0.061138414 0.018571781 -0.03406802 -0.15740514 0.23232971 -0.21997519 -0.07118282
-0.024726918 0.025787577 0.14935453 -0.112445466 -0.19277216 -0.1506412 -0.098488584 0.16279818
0.2327996 0.13072032 -0.012167858 -0.14421761 -0.0031714416 -0.20211585 -0.19366996 -0.068155006
-0.13190031 -0.050105996 -0.042221162 0.068895146 0.21675266 -0.1930677 -0.065497264 0.11238985
-0.17921017 -0.13892716 -0.07461076 -0.06997383 -0.16503577 -0.032156955 0.19084936 -0.15137953
0.014610207 -0.121919386 0.1969602 0.16498186 0.15513128 -0.180746 -0.038854226 -0.17205763
0.00048434947 0.17694761 0.00051347783 0.17521288 0.17852841 -0.0023438844 -0.04906528 -0.16738372
-0.15113229 0.026502848 0.10680598 0.1337786 -0.0084773665 0.1989266 -0.1621247 0.16455829
0.07535588 0.16321024 -0.19024226 0.06352 0.12715383 0.1842263 -0.19681038 -0.088634096
-0.07004181 0.17702696 0.050380882 -0.16123615 -0.21886845 0.09744719 -0.015663471 0.23038729
0.20930511 0.096834294 0.18156956 -0.1315296 0.050052144 0.17302883 -0.045799144 0.152729
-0.18657422 -0.0837176 -0.15021323 0.13152818 0.009320972 0.15364738 0.051995594 -0.1894742
0.23061799 0.030883556 0.0021414333 0.186767 0.23541202 0.055553664 0.02427985 0.14376211
0.074259795 -0.17309527 -0.071949124 0.02626286 0.20034285 -0.0052362042 0.107940614 -0.031281147
-0.12812833 0.25065994 0.09391731 -0.02827504 -0.08933152 -0.08846342 -0.044154678 0.12145759
0.21524633 0.1301673 -0.18243751 -0.058730684 -0.20340255 -0.07723138 -0.19278903 -0.005513081
-0.09469143 0.17359412 0.2337141 -0.20808993 0.1418365 0.20950039 -0.10826686 -0.0450002
-0.1192697 0.012394815 -0.085275576 -0.16336578 -0.0023248433 0.066326976 -0.09767743 -0.1277007
0.0854597 -0.1632272 0.015491691 -0.19153728 -0.17452934 0.22563542 -0.024990577 -0.18718258
0.11102963 -0.037486147 0.05127836 0.041778177 0.047435664 0.21994133 0.09781697 0.035838157
0.13232857 -0.111192875 -0.18256728 -0.16626903 -0.16749236 -0.18269713 -0.042568047 -0.16603968
00000000: 1e3b 5cbd 9e71 c33d e852 5bbe 8fd6 bb3c
00000010: 195b d93c 7f1d 1bbe e0e0 57be d31a 853d
00000020: bd6e 5b3d 5687 aebc 7182 2ebe 3314 45be
00000030: 94ef 283c e4d9 663e c553 cfbd e009 273e
00000040: 84e3 4bbe 07ac 333d 94a7 ed3d 831e f0bd
00000050: 28ad ffbd 869d 4e3e 1de5 253e bd33 08be
00000060: d081 87bd 8a0f f03c 7923 eabd b44e 1abe
00000070: 5e85 3cbe f5ae 6abd 55f6 89bd 89ec 653e
00000080: 0812 f9bc 0906 193d c3c9 023e 1c91 89bd
00000090: b7dc 183e ca6c 1bbe 6dfb 73bc 6c57 95bd
000000a0: 4129 563e 8417 05be 5cb7 55be 191f 90bd
000000b0: 369c e6bc 6101 2f3e eee8 51ba b9bb d4bd
000000c0: f7c5 2a3e 28d7 34be 454d 4dbe e6d5 d13c
000000d0: e7c1 f03d c2bf 6f3e 9325 33be 19da 403e
000000e0: 01b5 fa3d f3fb f4bd bb8b 4dbe bffc 3d3e
000000f0: 1521 b23b 79fd 423e dc8d 1f3e 84c8 98bd
00000100: c1dd 58be 2a18 0e3e 84d8 403b 1549 013d
00000110: 0008 d33d e7da 4fbe f693 563e fb08 623d
00000120: c85f 40bc 5efd b43b 43a4 46bd 9974 143e
00000130: 8c31 20bc 8a2a 1bbb a307 c73b 963e f73d
00000140: 7cc4 0c3e b62e 4fbc 66d0 2bbd 27e7 09be
00000150: 6dc7 e33d 0141 aa3d cffc 29be f924 d4bc
00000160: 347e a5bc 466c 7abd d923 983c e88a 0bbd
00000170: d02e 21be d7e7 6d3e 2d41 61be 4cc8 91bd
00000180: 1b90 cabc 7840 d33c 65f0 183e cf49 e6bd
00000190: 1166 45be b041 1abe 62b4 c9bd 91b4 263e
000001a0: 0563 6e3e 8cdb 053e b25b 47bc c8ad 13be
000001b0: f6d7 4fbb 75f7 4ebe 6b51 46be da94 8bbd
000001c0: e010 07be f23b 4dbd 19f0 2cbd e618 8d3d
000001d0: 69f4 5d3e 8ab3 45be 6e23 86bd a62c e63d
000001e0: df82 37be ec42 0ebe 87cd 98bd 704e 8fbd
000001f0: 23ff 28be 03b7 03bd 046e 433e 3c03 1bbe
00000200: a65f 6f3c dfb0 f9bd efaf 493e 01f1 283e
00000210: bcda 1e3e 7b15 39be 9c25 1fbd e02f 30be
00000220: 49f0 fd39 c131 353e ea9a 063a 016b 333e
00000230: 27d0 363e db9b 19bb adf8 48bd a366 2bbe
00000240: 6cc2 1abe 801c d93c 18bd da3d 42fd 083e
00000250: a7e4 0abc 6ab3 4b3e 0404 26be f881 283e
00000260: 2f54 9a3d 9620 273e dece 42be c616 823d
00000270: 9d34 023e d2a5 3c3e a988 49be cb85 b5bd
00000280: 1572 8fbd 8e46 353e 2f5c 4e3d 171b 25be
00000290: 0d1f 60be 6492 c73d ae50 80bc a5ea 6b3e
000002a0: 1454 563e 0f51 c63d 5fed 393e b2af 06be
000002b0: 7a03 4d3d 782e 313e e297 3bbd fe64 1c3e
000002c0: 500d 3fbe 2274 abbd 7fd1 19be 53af 063e
000002d0: fdb6 183c bd55 1d3e 55f9 543d 8605 42be
000002e0: 1f27 6c3e 83ff fc3c 4a57 0c3b d93f 3f3e
000002f0: d90f 713e 3d8c 633d 89e6 c63c 6036 133e
00000300: 8515 983d e33f 31be 105a 93bd 3625 d73c
00000310: ad26 4d3e 7794 abbb f80f dd3d a920 00bd
00000320: 1334 03be 8056 803e b857 c03d 0fa1 e7bc
00000330: 72f3 b6bd 4f2c b5bd 89db 34bd c2be f83d
00000340: 8969 5c3e 944a 053e e6d0 3abe 968f 70bd
00000350: c248 50be 7c2b 9ebd 7d6a 45be 13a7 b4bb
00000360: 95ed c1bd a8c2 313e c052 6f3e 8715 55be
00000370: 963d 113e 4587 563e 04bb ddbd 2152 38bd
00000380: ac43 f4bd 9f13 4b3c f6a4 aebd 5c49 27be
00000390: 665c 18bb 70d6 873d 1b0b c8bd f9c3 02be
000003a0: 7f05 af3d 0825 27be ddd0 7d3c 5922 44be
000003b0: d2b7 32be f90c 673e 0ab9 ccbc caac 3fbe
000003c0: 8163 e33d 138b 19bd 4209 523d 981f 2b3d
000003d0: e64b 423d 4d38 613e 4354 c83d 08cb 123d
000003e0: 2481 073e 17b9 e3bd ebf2 3abe 6e42 2abe
000003f0: 1e83 2bbe f514 3bbe d55b 2ebd 4e06 2abe

weight f4 [4, 680]
-0.0007028542 0.035350688 -0.0017567107 -0.0038996402 0.008321191 4.0272145e-05 -0.0037493857 -0.00526427
0.020126212 0.017808052 -0.0021964076 -0.004119327 0.003999603 0.04168916 -0.01161843 0.016064798
0.00325665 -0.0072768945 0.021378469 0.00017236036 0.015000364 -0.0042079673 0.0055928756 0.0034895397
0.030840052 -0.028903328 -0.00017025015 0.0010052783 -0.002231497 0.0063330955 -0.022217754 0.0046887747
0.028948624 0.018992927 -0.0007175155 -0.01104845 -0.0067551997 -0.0007692274 -0.0026855022 -0.031094125
-0.0204083 -0.0022675302 -0.013943913 0.011615219 0.008032483 -0.025895244 9.1316826e-05 -0.0037642804
-0.027462933 -0.0016655778 -0.00021980167 0.031618997 0.013771109 -0.0242302 0.007862419 0.0017318076
0.046278764 0.00048182215 0.00025794405 -0.02156727 -0.013406476 -0.004910575 0.045740202 0.03076774
-0.014019428 0.023448708 -0.010834893 -0.022746455 -0.026476203 0.001251104 -0.025257435 -0.027747497
-0.004079719 0.03167201 0.03300497 0.0073860595 -0.017980685 -0.006123173 0.02290491 -0.010575569
0.000792504 0.012158603 0.035688013 -0.0003857926 0.04466397 -0.018878987 4.205933e-05 -0.02911861
0.042856924 0.0014619174 -0.022300871 0.011535541 -0.0014661293 -0.00961793 -0.014330336 0.020428563
-0.0033570342 0.0036084782 0.010706088 -0.0005442989 -0.001924122 0.0041830135 -1.1930156e-05 0.042091805
0.033153553 0.03931959 -0.01788673 0.0108253695 -0.005255244 0.0156312 -0.017749669 0.0025393418
0.015476639 -0.0005126645 -0.00044692485 -0.0041624173 0.002157725 8.1844686e-05 -0.03404617 0.041244462
0.0005435546 0.004038033 0.0015537684 -0.018988216 0.0131029915 0.0087824585 -0.021942945 0.0013812251
0.04612182 -0.008498168 0.010053648 0.023645405 0.012825087 0.013455884 8.263726e-06 0.00743257
-0.0018609312 -0.010662453 0.0010504033 0.037499107 0.033873912 0.0057639373 0.013338268 0.009791144
-0.00089724973 -0.007101169 -0.013542619 0.02852799 0.0007415201 0.037136614 -0.010155392 -0.026359761
0.044554573 0.04601203 -0.020190675 0.023393609 -0.0098007675 0.03917796 0.0020660507 -0.001482234
0.04855068 -0.0010789087 -0.018440694 0.00054416823 0.00052500406 -0.010525738 -0.007959639 0.0274227
0.042812265 -0.010399789 -0.004378335 0.014557104 -0.012077045 -0.023483666 0.018618643 0.036256455
-0.0024773139 -0.0143083185 -0.006899842 0.016220376 -0.019029845 0.039912324 -0.038809646 0.014154769
0.0021150636 -0.011169328 -0.0084786685 0.01679729 0.01254017 -0.012021618 -0.011589562 0.01282886
0.028332544 0.01032771 0.00060727214 0.029042337 0.026302025 0.008651345 -0.020391041 0.007030046
0.0015662224 0.043236528 0.036664363 -0.027850065 -0.00045946243 -0.00027466 0.0055860076 -0.019091766
-0.01831279 0.010585149 0.005446377 0.02307151 -0.024012307 0.017822837 -2.7543534e-05 0.02322637
-0.008937727 0.025422042 0.0062029315 0.0020392123 -0.0020102193 0.009396791 0.0015780379 0.015087343
-0.0009009582 0.021669839 -0.008472045 -0.014715536 -0.008073573 0.0125312125 -0.00039447015 -0.013891924
0.019608462 -0.0020950327 0.022982681 -0.0021680284 4.2762426e-06 -0.0033685213 0.0174129 1.9397268e-05
0.015130692 0.03033611 -0.03087423 0.0046237945 0.024404416 -0.017037094 0.0302036 -0.0027253828
0.025374454 0.014320576 0.016043305 0.0026452115 0.0010576294 -0.0046493937 -0.016690861 0.010906395
00000000: bf3f 38ba e2cb 103d 6e41 e6ba 1b91 7fbb
00000010: 9b55 083c e3e9 2838 41b8 75bb e67f acbb
00000020: badf a43c 31e2 913c 9bf1 0fbb 6bfb 86bb
00000030: 1a0f 833b 41c2 2a3d 3a5b 3ebc 539a 833c
00000040: 856d 553b 0473 eebb e621 af3c a2bb 3439
00000050: 16c4 753c fde2 89bb 7144 b73b c3b0 643b
00000060: 47a4 fc3c acc6 ecbc 2d85 32b9 8bc3 833a
00000070: 4f3e 12bb db85 cf3b 0202 b6bc 4ba4 993b
00000080: aa25 ed3c 0e97 9b3c a617 3cba 8f04 35bc
00000090: b95a ddbb faa5 49ba 40ff 2fbb 1bb9 febc
000000a0: 4f2f a7bc d89a 14bb 0375 64bc c24d 3e3c
000000b0: ad9a 033c 4322 d4bc 5981 bf38 25b2 76bb
000000c0: f2f9 e0bc 844f daba 907a 66b9 ec82 013d
000000d0: 38a0 613c 6a7e c6bc 60d1 003c d2fd e23a
000000e0: cd8e 3d3d 139d fc39 aa3c 8739 d8ad b0bc
000000f0: d6a6 5bbc e4e8 a0bb 145a 3b3d a10c fc3c
00000100: beb1 65bc 8117 c03c d684 31bc c656 babc
00000110: 9fe4 d8bc 16fc a33a aee8 cebc b84e e3bc
00000120: 2aaf 85bb 82ba 013d 3830 073d c206 f23b
00000130: 3b4c 93bc e6a4 c8bb 14a3 bb3c 2745 2dbc
00000140: 0bc0 4f3a e134 473c 982d 123d 3544 cab9
00000150: 91f1 363d 1ba8 9abc dd68 3038 278a eebc
00000160: be8a 2f3d cf9d bf3a 51b0 b6bc 91ff 3c3c
00000170: 232b c0ba 8694 1dbc c9c9 6abc cd59 a73c
00000180: b001 5cbb 387c 6c3b 9668 2f3c 48af 0eba
00000190: d232 fcba a911 893b a127 48b7 7568 2c3d
000001a0: 05cc 073d 940d 213d 3187 92bc e45c 313c
000001b0: 2f34 acbb 010d 803c c167 91bc 166b 263b
000001c0: bb91 7d3c 5564 06ba 3d51 eab9 e364 88bb
000001d0: 9e68 0d3b 08a4 ab38 ff73 0bbd f4ef 283d
000001e0: 557d 0e3a 7a51 843b d1a7 cb3a 2d8d 9bbc
000001f0: eead 563c 4de4 0f3c b1c1 b3bc 390a b53a
00000200: 3cea 3c3d e63b 0bbc 0eb8 243c 02b4 c13c
00000210: 5020 523c 1176 5c3c 6fa4 0a37 eb8c f33b
00000220: 7dea f3ba 92b1 2ebc b0ad 893a aa98 193d
00000230: 5fbf 0a3d 69df bc3b c088 5a3c 096b 203c
00000240: 6935 6bba ecb0 e8bb dce1 5dbc 88b3 e93c
00000250: 9262 423a 901c 183d cd62 26bc 6df0 d7bc
00000260: db7e 363d 1c77 3c3d ea66 a5bc f4a3 bf3c
00000270: 6693 20bc 1279 203d 9466 073b 8547 c2ba
00000280: 14dd 463d 2b6a 8dba f010 97bc 83a6 0e3a
00000290: 6da0 093a 2574 2cbc 2569 02bc 92a5 e03c
000002a0: ea5b 2f3d e063 2abc 2378 8fbb eb80 6e3c
000002b0: ccde 45bc d160 c0bc 2086 983c a681 143d
000002c0: 6e5a 22bb 706d 6abc 1218 e2bb 98e0 843c
000002d0: 7ae4 9bbc 1b7b 233d ddf6 1ebd 67e9 673c
000002e0: e19c 0a3b 8fff 36bc 1dea 0abc 789a 893c
000002f0: 4975 4d3c 52f6 44bc 25e2 3dbc 2430 523c
00000300: a719 e83c 8e35 293c 5831 1f3a 32ea ed3c
00000310: 5877 d73c 5fbe 0d3c 1d0b a7bc 4d5c e63b
00000320: b449 cd3a c918 313d 5f2d 163d d225 e4bc
00000330: 01e4 f0b9 3e00 90b9 d40a b73b 5666 9cbc
00000340: b404 96bc 556d 2d3c 8677 b23b 7700 bd3c
00000350: 75b5 c4bc 3301 923c 4a0d e7b7 3a45 be3c
00000360: 8b6f 12bc e341 d03c f641 cb3b 4ea4 053b
00000370: e2bd 03bb 00f5 193c 2ad6 ce3a e730 773c
00000380: 482e 6cba f284 b13c 55ce 0abc 6e19 71bc
00000390: 0547 04bc b74f 4d3c e3d0 ceb9 f49a 63bc
000003a0: eda1 a03c d14c 09bb 2d46 bc3c 7b15 0ebb
000003b0: a57c 8f36 69c2 5cbb 80a5 8e3c 51b7 a237
000003c0: b9e6 773c 6f83 f83c f4eb fcbc 3383 973b
000003d0: c5eb c73c 6091 8bbc 8a6d f73c 569c 32bb
000003e0: 16de cf3c d9a0 6a3c 406d 833c 495b 2d3b
000003f0: 27a0 8a3a f159 98bb 46bb 88bc bcb0 323c

bias f4 [4]
0.04227885 0.005760904 0.006658333 -0.029939014
00000000: 962c 2d3d f7c5 bc3b 252e da3b aa42 f5bc
