estimators/knet/single_obs/p_KalmanNetNN_lossMSE_ep100_train4000_val1000_test10000_lr1e-03_wd1e-04__data_sr1e-01_q1e-04_r1e+00_j5_train[200,250]_val[40,250]_test[40,250].pt (torch, 474187 bytes, 121 tensors)

weight_ih_l0 f4 [48, 20]
0.029696139 0.18141401 0.15752468 0.074102305 -0.1343413 -0.09058578 -0.0021204376 -0.05536345
-0.00028584021 0.0016564624 0.028645488 0.06754639 0.008249595 -0.01835308 0.021926561 -0.25262266
0.00063261495 0.18598886 0.026538309 -0.037045084 0.018383155 -0.16363724 0.04884672 -0.056209054
-0.008833148 0.005158434 0.058974512 0.12762356 0.012914624 -0.07163046 0.22811411 0.09010517
-0.18759535 -0.006184253 -0.20314194 -0.24961916 -0.03445879 0.14972112 0.09429233 -0.18678246
0.17266758 0.1954371 -0.10332753 0.001318512 -0.030025374 -0.22004776 0.11332943 -0.007124874
0.06654134 0.19572379 0.10712524 -0.19186951 -0.021328064 2.0364178e-05 -0.014793709 -0.19461219
0.06866703 0.12633556 0.058907535 0.04584426 -0.09587604 -0.00874315 0.14286838 0.052929
0.0030335363 0.10419576 -0.0730159 0.19437228 -0.070660576 0.12629177 -0.118705675 0.07904912
0.24657889 0.00030017854 0.1533533 -0.13048631 -0.17411701 -0.028793069 -0.17902216 -0.0046405047
0.024226744 -0.24263607 0.06984662 -0.036034945 -0.069283165 -0.0026727668 -0.10122881 0.11903146
0.048282366 -0.10979289 -0.09085303 0.23117672 0.13309644 -0.1538906 -0.24323954 0.2148997
-0.068368934 0.1042959 -0.18858221 -0.1577897 -0.19995399 -0.0036206301 -0.1617592 0.034475096
-0.14520328 -0.04689321 -0.095523216 -0.028976882 0.15526292 -0.0021746457 0.12321161 -0.06913907
-0.106461555 -6.138815e-05 -0.021392224 -0.07687917 -0.07567988 0.025287429 -0.024874484 -0.02104955
-0.05999233 0.033632744 0.05418993 -0.002567724 -0.07089135 -0.030302525 -0.22686203 0.25129822
-0.058936287 0.083967134 0.063053496 -0.17756973 -0.14410366 -0.03630349 -0.030730153 0.1373269
-0.11138229 0.01917678 0.17544395 0.13621604 0.022397835 -0.0075195367 -0.085487455 0.014231042
-0.12712888 -0.117732584 0.17595173 -0.085486315 -0.00052112783 0.21281594 -0.20145808 0.0407812
-0.028414179 0.06532107 -0.07004397 -0.0002742977 0.16517176 0.08052779 -0.06337951 0.16914204
0.055126544 0.119985074 0.19702774 0.0028052947 -0.00044835222 -0.12473283 0.15794542 -0.031599056
-0.021790303 0.013661845 0.14713871 -0.017204912 0.18107514 0.08568332 0.026755268 -0.10106014
-0.034887865 0.1190492 -0.04448985 -0.114945374 -0.247342 -0.15770414 -0.08792877 -0.11590639
-0.011245935 -0.11456852 0.16080199 -0.14690568 -0.15542886 0.18947043 -0.0150097525 0.0034928375
0.08216103 4.4432168e-06 -0.068349354 0.18375102 0.1302114 -0.026733143 -0.030689826 0.106146455
0.24783695 -0.110644154 -0.22648011 -0.15143399 -0.07455915 0.10552718 -0.022205384 -0.09969825
-0.15372713 -0.23135483 0.052416235 0.122974746 0.19760236 5.9101178e-05 0.17795894 0.23028684
-0.1680956 -0.027544333 0.17325975 0.15825889 -0.2328775 0.15356033 0.03769285 0.13275981
-0.013781796 -0.005083385 0.101753816 -0.08655023 0.026908359 -0.1940305 -0.088358715 -0.13864852
0.03309563 0.0699775 -0.059474193 -0.06935723 0.115741596 -0.10152833 0.16885181 -0.15177712
0.08756776 -0.21489768 -0.03026584 -0.013540329 0.0032210257 -0.06386053 -0.030090187 0.17597659
0.0007329219 0.006817709 0.03750303 0.25022012 0.052480333 0.0069797724 0.1482844 -0.09955985
00000000: 5145 f33c 98c4 393e 264e 213e f3c2 973d
00000010: c490 09be 0a85 b9bd 0af7 0abb c9c4 62bd
00000020: d3dc 95b9 a81d d93a f1a9 ea3c c355 8a3d
00000030: 4f29 073c 3359 96bc 559f b33c c257 81be
00000040: 12d6 253a dd73 3e3e de66 d93c 96bc 17bd
00000050: 4598 963c 8590 27be 8013 483d 773b 66bd
00000060: e8b8 10bc 1508 a93b 428f 713d c0af 023e
00000070: dc97 533c feb2 92bd bf96 693e 0f89 b83d
00000080: ff18 40be 46a5 cabb 7104 50be 2a9c 7fbe
00000090: a924 0dbd 7e50 193e 561c c13d e743 3fbe
000000a0: c5cf 303e aa20 483e 629d d3bd ecd1 ac3a
000000b0: c6f7 f5bc 3354 61be 4319 e83d c677 e9bb
000000c0: d346 883d d16b 483e 7a64 db3d 7179 44be
000000d0: 31b8 aebc bdd3 aa37 5061 72bc 6b48 47be
000000e0: 4da1 8c3d 1c5e 013e 0749 713d 31c7 3b3d
000000f0: a85a c4bd 6e3f 0fbc 174c 123e 14cc 583d
00000100: 4bce 463b 9664 d53d 5c89 95bd 8709 473e
00000110: 7eb6 90bd a152 013e f61b f3bd 81e4 a13d
00000120: 2d7f 7c3e 4861 9d39 a608 1d3e 349e 05be
00000130: bb4b 32be 71df ebbc 9651 37be 600f 98bb
00000140: 2a77 c63c 9775 78be bf0b 8f3d 6199 13bd
00000150: 55e4 8dbd 9629 2fbb 0d51 cfbd c4c6 f33d
00000160: bbc3 453d 18db e0bd 2711 babd 97b9 6c3e
00000170: 6f4a 083e 7f95 1dbe c913 79be ab0e 5c3e
00000180: 0305 8cbd 1799 d53d b21b 41be a093 21be
00000190: bdc0 4cbe 1848 6dbb 34a4 25be c235 0d3d
000001a0: 2bb0 14be 1813 40bd ada1 c3bd ed60 edbc
000001b0: 3efd 1e3e 8084 0ebb 5e56 fc3d c998 8dbd
000001c0: 8408 dabd 83bd 80b8 bf3e afbc d472 9dbd
000001d0: 0efe 9abd 9527 cf3c 93c5 cbbc 1b70 acbc
000001e0: 84ba 75bd 7dc2 093d 43f6 5d3d 4347 28bb
000001f0: 7c2f 91bd 003d f8bc 854e 68be 29aa 803e
00000200: 2d67 71bd f6f6 ab3d 3122 813d d7d4 35be
00000210: e98f 13be f8b2 14bd cdbd fbbc 6c9f 0c3e
00000220: 661c e4bd 9f18 9d3c 94a7 333e 387c 0b3e
00000230: aa7b b73c 7266 f6bb 0c14 afbd 5129 693c
00000240: 132e 02be c81d f1bd b12c 343e 7313 afbd
00000250: 4c9c 08ba 6cec 593e 074b 4ebe 300a 273d
00000260: dac4 e8bc 0ec7 853d 3773 8fbd 9dcf 8fb9
00000270: c922 293e c1eb a43d 1ecd 81bd 9233 2d3e
00000280: 5fcc 613d bcba f53d a4c1 493e 09d9 373b
00000290: d110 ebb9 ed73 ffbd 72bc 213e 036e 01bd
000002a0: 9481 b2bc eed5 5f3c 88ab 163e 51f1 8cbc
000002b0: c36b 393e bd7a af3d dd2d db3c 9ef8 cebd
000002c0: 94e6 0ebd 11d0 f33d fd3a 36bd 7b68 ebbd
000002d0: 3947 7dbe 327d 21be 0014 b4bd 5460 edbd
000002e0: df40 38bc e6a2 eabd 47a9 243e 716e 16be
000002f0: be28 1fbe 8904 423e 77eb 75bc 17e8 643b
00000300: 0b44 a83d f116 9536 bffa 8bbd 3a29 3c3e
00000310: 2356 053e 77ff dabc 3b69 fbbc 5063 d93d
00000320: f8c8 7d3e 6799 e2bd 67ea 67be 8311 1bbe
00000330: 78b2 98bd a21e d83d 11e8 b5bc 992e ccbd
00000340: a56a 1dbe 48e8 6cbe 68b2 563d 2fda fb3d
00000350: 4658 4a3e 68e3 7738 de3a 363e 50d0 6b3e
00000360: 4121 2cbe a7a4 e1bc 016b 313e 9e0e 223e
00000370: 7077 6ebe eb3e 1d3e d163 1a3d 30f2 073e
00000380: 0bcd 61bc 8692 a6bb 4e64 d03d 3f41 b1bd
00000390: eb6e dc3c eeaf 46be 6af5 b4bd e1f9 0dbe
000003a0: 498f 073d 5d50 8f3d 369b 73bd 2a0b 8ebd
000003b0: ee09 ed3d 16ee cfbd 7de7 2c3e 766b 1bbe
000003c0: ba56 b33d 230e 5cbe 11f0 f7bc 42d8 5dbc
000003d0: d817 533b 4fc9 82bd b27f f6bc 3533 343e
000003e0: 8e21 403a 1767 df3b c79c 193d da1c 803e
000003f0: 9ef5 563d 93b6 e43b ded7 173e 09e6 cbbd

weight_hh_l0 f4 [48, 16]
-0.024608955 0.08202161 0.006635464 0.12984514 0.11829516 -0.039297618 -0.24946873 0.0433444
0.09896542 -0.1387196 -0.06573789 0.22897631 -0.06416548 -0.13081087 0.21298766 -0.011782725
0.011188937 0.10990952 0.2119615 0.14266911 0.21472096 -0.0030693868 0.21532482 0.23567924
-0.11307453 0.21015391 0.12321828 -0.19541605 0.14352334 0.12905279 0.13130571 0.139152
-0.055414125 -0.18175814 0.076539665 -0.034606665 -0.0011821522 0.09546082 0.05428006 0.10103798
0.005341405 0.13033204 -0.11812404 0.21388772 -0.20071855 0.0068758572 0.1459546 0.123952106
-0.09658174 0.10394594 -0.12198386 0.19003162 0.08644093 0.20684515 0.113306105 -0.11301553
0.106611066 0.07681636 -0.18286389 -0.05971121 -0.06727135 0.010814393 0.120025896 0.19519591
-0.07738337 -0.20222147 0.04280385 -0.0048181987 -0.12585323 -0.23295921 -0.010215038 -0.13607064
0.19879723 -0.16071254 0.22541003 -0.016500037 -0.12193268 -0.15190162 -0.04748408 -0.1596531
0.17610036 0.18710534 -0.2243593 0.13385983 0.19763744 -0.01600513 0.16307239 -0.047012907
0.140069 -0.17495409 -0.2135114 -0.22066635 -0.17737328 0.22844718 -0.121601634 0.20469595
-0.07408249 0.025622124 0.2138867 0.17714567 0.010974151 0.04336234 0.19694929 -0.16330278
0.030054348 -0.2066482 0.23661406 0.15895076 0.21702851 -0.20609741 -0.064270094 -0.24124715
0.016250953 -0.10395371 0.0016547985 0.010639687 0.15055594 -0.21067715 0.1449261 0.0005843381
0.20885858 -0.15055448 -0.032391623 0.11069267 -0.11720956 -0.04665677 0.10832515 -0.17551564
0.07629738 0.10148325 -0.06733589 0.18723503 -0.0055250423 -0.055050846 -0.015072168 0.12279861
0.080855675 -0.0064282566 -0.014059991 -0.10299674 -0.1612435 -0.08039605 0.22704521 -0.02612925
0.16464312 0.078738965 0.21184397 0.076303065 0.073062465 -0.09375725 -0.014014514 -0.19095545
-0.04778917 -0.018670352 0.2408388 -0.12205246 -0.16916071 -0.029585605 -0.16125527 0.10596084
0.05864979 0.06294298 0.04951623 -0.22605672 0.121497154 0.21942058 0.23464535 0.023247901
-0.02093231 0.046376225 -0.056148056 -0.21890835 0.022734346 -0.15626751 0.11029457 0.20778838
-0.18594106 -0.18232319 -0.18339418 -0.10081132 -0.047642644 -0.13766997 -0.21373762 -0.2120435
-0.2103357 -0.23187925 0.05795364 0.1583525 -0.10471591 0.076323375 0.12464559 0.031755015
-0.05206283 0.10580132 0.123461075 0.015692519 -0.15203308 -0.095321685 0.21150483 -0.04632637
0.011914893 -0.11792524 -0.12036766 -0.09843073 0.10953999 0.079682454 0.0016279303 0.20403385
-0.1653882 0.15264839 -0.08869232 -0.11063685 -0.17075081 -0.112303935 0.18230574 -0.047822315
-0.14774442 0.1875487 -0.077976905 -0.041312862 0.025934802 0.16655229 -0.16671206 0.17415172
-0.10501072 0.19078486 -0.005275628 -0.059231307 0.029947769 -0.2081304 -0.066906475 -0.17368804
-0.21573557 0.18024455 -0.087535575 0.22016689 0.009137596 -0.12791735 -0.0515106 0.10482818
-0.19382614 0.070062526 -0.18169908 0.12063768 0.19159824 -0.014501895 0.21879168 0.109123014
0.04448209 -0.14571162 0.15176369 -0.1483014 0.20643349 -0.1816347 -0.23192574 -0.044985693
00000000: b898 c9bc f2fa a73d 4e6e d93b 20f6 043e
00000010: bc44 f23d 8af6 20bd bb74 7fbe e689 313d
00000020: 62ae ca3d 830c 0ebe 96a1 86bd c478 6a3e
00000030: 3169 83bd 49f3 05be 7019 5a3e 550c 41bc
00000040: ce51 373c 3e18 e13d 6f0c 593e da17 123e
00000050: d0df 5b3e c427 49bb 1c7e 5c3e e655 713e
00000060: 9f93 e7bd 9632 573e de59 fc3d 251b 48be
00000070: c8f7 123e 6a26 043e 0175 063e dd7d 0e3e
00000080: ecf9 62bd ce1e 3abe d4c0 9c3d b8bf 0dbd
00000090: 72f2 9aba f680 c33d c554 5e3d 00ed ce3d
000000a0: f406 af3b c375 053e 04eb f1bd 6205 5b3e
000000b0: 2a89 4dbe df4e e13b 1f75 153e 9ada fd3d
000000c0: a6cc c5bd 9ce1 d43d add2 f9bd a697 423e
000000d0: f107 b13d 37cf 533e 080d e83d b074 e7bd
000000e0: e756 da3d e551 9d3d ac40 3bbe be93 74bd
000000f0: 90c5 89bd da2e 313c 23d0 f53d 70e1 473e
00000100: 2c7b 9ebd 2513 4fbe 1753 2f3d fbe1 9dbb
00000110: abdf 00be dc8c 6ebe fa5c 27bc 1a56 0bbe
00000120: 8091 4b3e d491 24be e3d1 663e 162b 87bc
00000130: d7b7 f9bd 198c 1bbe ab7e 42bd 1a7c 23be
00000140: a753 343e 8b98 3f3e 72be 65be 8d12 093e
00000150: 7861 4a3e 311d 83bc 73fc 263e 9b90 40bd
00000160: 3f6e 0f3e 2a27 33be bca2 5abe 5cf6 61be
00000170: 57a1 35be 0fee 693e 470a f9bd d19b 513e
00000180: 8fb8 97bd 7de5 d13c 1d05 5b3e ad65 353e
00000190: edcc 333c b69c 313d 13ad 493e d838 27be
000001a0: 8934 f63c 969b 53be f54a 723e fdc3 223e
000001b0: b93c 5e3e 330b 53be 0aa0 83bd 7e09 77be
000001c0: b820 853c afe5 d4bd d3e5 d83a 1552 2e3c
000001d0: 562b 1a3e c0bb 57be 8267 143e 442e 193a
000001e0: 06df 553e f42a 1abe 14ad 04bd d7b2 e23d
000001f0: 910b f0bd 2b1b 3fbd 94d9 dd3d 5fba 33be
00000200: cd41 9c3d 73d6 cf3d 66e7 89bd 8aba 3f3e
00000210: 6a0b b5bb ff7c 61bd 41f1 76bc d67d fb3d
00000220: a997 a53d 20a4 d2bb e05b 66bc f4ef d2bd
00000230: 041d 25be afa6 a4bd 8a7e 683e 020d d6bc
00000240: 3598 283e e541 a13d a0ed 583e c844 9c3d
00000250: c6a1 953d cd03 c0bd 229d 65bc d389 43be
00000260: 94be 43bd 91f2 98bc 729e 763e a4f6 f9bd
00000270: 7738 2dbe 835d f2bc 1a20 25be ff01 d93d
00000280: c33a 703d 40e8 803d 88d1 4a3d 6a7b 67be
00000290: 80d3 f83d caaf 603e df46 703e 6272 be3c
000002a0: 3c7a abbc fff4 3d3d 81fb 65bd 8329 60be
000002b0: 613d ba3c 9704 20be 1fe2 e13d 7ac6 543e
000002c0: 5567 3ebe eeb2 3abe afcb 3bbe 2a76 cebd
000002d0: ef24 43bd 5bf9 0cbe 09de 5abe ee21 59be
000002e0: 3e62 57be c171 6dbe cc60 6d3d 2827 223e
000002f0: 4c75 d6bd 6e4f 9c3d 3046 ff3d 8c11 023d
00000300: d63f 55bd 5dae d83d 29d9 fc3d 998d 803c
00000310: 8fae 1bbe 0438 c3bd b994 583e b8c0 3dbd
00000320: af36 433c ca82 f1bd 5283 f6bd 0d96 c9bd
00000330: 8156 e03d 8e30 a33d 4760 d53a 40ee 503e
00000340: 865b 29be dc4f 1c3e 52a4 b5bd 9395 e2bd
00000350: 4dd9 2ebe 9bff e5bd 5bae 3a3e 55e1 43bd
00000360: 504a 17be c40c 403e 5bb2 9fbd ad37 29bd
00000370: 3975 d43c af8c 2a3e 91b6 2abe d454 323e
00000380: dc0f d7bd 1b5d 433e 2ddf acbb 879c 72bd
00000390: 0655 f53c 2320 55be 4306 89bd 47db 31be
000003a0: c9e9 5cbe 0792 383e da45 b3bd 6e73 613e
000003b0: dbb5 153c c4fc 02be c7fc 52bd 28b0 d63d
000003c0: 5c7a 46be f17c 8f3d 530f 3abe e310 f73d
000003d0: 5432 443e 5b99 6dbc ed0a 603e e37b df3d
000003e0: da32 363d 6d35 15be f167 1b3e 52dc 17be
000003f0: 4d63 533e 72fe 39be f17d 6dbe eb42 38bd

bias_ih_l0 f4 [48]
-0.21393073 -0.18531655 -0.12522939 0.023241855 0.23464155 0.19447728 0.2229843 -0.18544099
-0.018240586 0.12930828 0.14781108 -0.08977712 0.2006138 0.12572987 -0.064797245 0.14505552
0.15938248 -0.16653948 0.17165504 0.119100764 0.2652206 -0.1713131 -0.0726306 -0.21345484
0.008150238 0.1737182 -0.011694962 -0.08143906 0.18677354 0.1721408 0.19156656 0.25295022
-0.19364926 0.17266606 0.122940846 0.17205995 0.173349 0.08072999 -0.015349023 -0.034022864
-0.25173244 -0.08138114 0.03381011 0.10232839 -0.2175248 -0.08847691 0.084046334 -0.14473648
00000000: a810 5bbe 9fc3 3dbe 223c 00be b465 be3c
00000010: e045 703e 0d25 473e ff55 643e 3ee4 3dbe
00000020: 486d 95bc 6469 043e ca5b 173e 11dd b7bd
00000030: b46d 4d3e 55bf 003e 6bb4 84bd 6f89 143e
00000040: 2935 233e 5389 2abe 57c6 2f3e 1aeb f33d
00000050: ffca 873e b46c 2fbe 5abf 94bd e893 5abe
00000060: 9388 053c 2fe3 313e 3a9c 3fbc 86c9 a6bd
00000070: 9041 3f3e ae45 303e 062a 443e b182 813e
00000080: fe4b 46be 5fcf 303e 69c8 fb3d 7c30 303e
00000090: 6682 313e c455 a53d 787a 7bbc 8f5b 0bbd
000000a0: 13e3 80be 28ab a6bd 787c 0a3d 8c91 d13d
000000b0: d2be 5ebe 6233 b5bd 7c20 ac3d cd35 14be

bias_hh_l0 f4 [48]
0.03889395 -0.041764546 0.03707595 0.09642582 -0.20057978 -0.01710912 0.06309601 -0.18533255
0.0687062 0.16563998 -0.05822856 -0.23701854 0.0062534194 0.12546645 0.015429035 -0.09388271
-0.10661493 0.12119656 0.061070368 -0.022384156 0.1437618 -0.19942608 0.2181972 0.21708162
0.24778467 -0.12782145 0.15911716 0.037251484 0.13895231 0.2314854 -0.22587381 -0.06977068
0.054468844 0.23333825 -0.15974604 0.25392225 -0.23556161 -0.0606179 0.08349796 0.0003925455
0.14632769 -0.2219028 -0.16666196 0.21725442 0.12981841 0.0743724 0.03494378 0.028496493
00000000: 434f 1f3d 4d11 2bbd f4dc 173d e67a c53d
00000010: c964 4dbe 6d28 8cbc 7b38 813d d1c7 3dbe
00000020: d6b5 8c3d 879d 293e 1281 6ebd fdb4 72be
00000030: 7ce9 cc3b 477a 003e 10ca 7c3c 9445 c0bd
00000040: ee58 dabd e735 f83d ec24 7a3d fa5e b7bc
00000050: 4b36 133e 5a36 4cbe 166f 5f3e a54a 5e3e
00000060: 44bb 7d3e a0e3 02be 9cef 223e 0395 183d
00000070: 8449 0e3e 820a 6d3e 774b 67be eee3 8ebd
00000080: b91a 5f3d 39f0 6e3e 7794 23be 1902 823e
00000090: 1037 71be 7a4a 78bd fa00 ab3d 91ce cd39
000000a0: edd6 153e 7d3a 63be 6fa9 2abe f177 5e3e
000000b0: 1eef 043e 8f50 983d 3621 0f3d 7a71 e93c

weight_ih_l0 f4 [48, 36]
0.23546232 -0.13702847 -0.16569832 -0.22109869 -0.15820666 -0.077003896 0.16364409 -0.23983857
0.16379791 -0.08767074 -0.16419491 0.21648833 0.19118811 -0.16351461 -0.058731593 -0.14682274
0.13459435 0.24984501 -0.07242559 -0.06241864 -0.12627141 0.12167147 0.0065613464 -0.16621839
-0.07722617 0.107931696 -0.013242457 0.101327054 -0.038791355 0.1354203 0.020620748 -0.13425544
-0.06874591 0.20281322 0.09417345 -0.17960466 0.14526357 -0.01943206 -0.21795078 -0.18404774
0.065281294 -0.19486392 0.18717389 0.011497224 0.2353657 0.20402905 0.15709595 0.18479215
0.047780953 -0.14601207 -0.20156676 0.12636605 -0.025245747 -0.25659412 -0.06394929 0.09493022
-0.11353062 -0.1979674 0.122349106 -0.017907469 0.11967475 -0.18119396 0.21257782 -0.035759013
-0.005320363 -0.0145791685 -0.16213816 0.025371473 -0.092159405 0.00022936426 -0.1228505 -0.19666497
-0.2061642 -0.18830064 -0.025991196 0.07247781 0.22430305 -0.15421382 0.22193676 0.17950214
0.18635629 0.11659689 -0.21442209 0.058674086 -0.21544068 0.1159782 -0.20599988 -9.2181814e-05
0.018047728 0.040018264 0.19728284 0.010046429 -0.14753446 0.026924053 -0.23213655 0.04035423
-0.16529554 0.081476405 -0.2072727 -0.22207855 -0.13163267 -0.06741833 -0.030123908 0.22220258
0.05623485 -0.118734665 -0.017792145 0.13489784 -0.16561534 -0.23666757 -0.1018051 0.2517184
0.07979709 -0.16735005 -0.1576529 0.19159208 -0.20819709 0.09046523 0.23083916 0.016350502
-0.05605205 -0.060221672 -0.0023691354 -0.046437632 0.0039043904 0.003326458 0.16477421 0.20991892
0.09305369 -0.0743269 -0.08157805 0.13547999 -0.18790078 -0.09292929 -0.2014177 0.21233313
0.14448778 -0.24575725 0.0001615579 -0.13675743 0.028146714 -0.118655026 0.00025661988 0.20228335
-0.04063687 0.022102233 0.07224712 0.041696195 0.16636977 0.24461518 0.20515898 0.07073623
-0.047162745 0.011093366 0.2132539 0.005697621 0.18772037 -0.0064810105 0.22106759 0.15983048
0.049807347 0.21133934 -0.23478842 -0.037634738 -0.021555115 0.04643667 -0.095246464 0.100335576
0.1858801 0.015406739 0.014232677 -0.22692348 0.025032636 0.025829118 0.036106624 -0.057223085
-0.16897984 -0.058312282 -0.16823924 0.21395186 -0.096946955 -0.22505334 0.053930957 -0.22798115
-0.09061045 0.09456405 -0.20330694 -0.1694043 -0.14802577 0.15168472 0.12387967 -0.13868634
0.056043435 0.15281296 -0.07732103 0.24276288 -0.00024608054 -0.22639781 -0.07146338 -0.09359693
0.22659753 0.10953059 0.19582163 -0.12934646 -0.15399528 0.18540476 -0.09213989 -0.18802768
0.16664384 0.1014678 0.120751955 -0.09010282 -0.116611324 -0.15097855 -0.14400032 -0.15226774
0.014098155 -0.13678014 0.18695024 0.2267281 -0.058028545 0.008101979 -0.09514744 -0.12818907
0.10020079 0.1237437 -0.07048648 0.19863854 -0.05647232 -0.2059183 0.07053129 -0.09197238
0.12668861 -0.099225335 0.07722381 -0.17955098 0.053800557 -0.02020759 0.09869758 -0.036601033
-0.032078866 -0.20837677 0.15716681 0.0006820745 -0.015651727 -0.14693661 -0.023341632 -0.12263943
0.026882024 -0.0795921 0.18803062 0.08294108 -0.016956031 0.016506635 -0.16555025 0.21387626
00000000: 091d 713e 3151 0cbe d2ac 29be b267 62be
00000010: ed00 22be 38b4 9dbd 5192 273e 3e98 75be
00000020: a4ba 273e b88c b3bd b622 28be 1eaf 5d3e
00000030: d1c6 433e 6070 27be 8a90 70bd b358 16be
00000040: 1ad3 093e 5fd7 7f3e de53 94bd b0aa 7fbd
00000050: 4b4d 01be e42e f93d 9000 d73b 2735 2abe
00000060: c128 9ebd 4b0b dd3d e4f6 58bc 8f84 cf3d
00000070: afe3 1ebd 9eab 0a3e d8ec a83c 427a 09be
00000080: a8ca 8cbd 45ae 4f3e 02de c03d 49ea 37be
00000090: f9bf 143e fc2f 9fbc 7d2e 5fbe 0377 3cbe
000000a0: 33b2 853d 688a 47be 83aa 3f3e da5e 3c3c
000000b0: b503 713e feec 503e c3dd 203e 273a 3d3e
000000c0: f6b5 433d 3084 15be 8467 4ebe 1a66 013e
000000d0: 2bd0 cebc 4e60 83be d8f7 82bd c66a c23d
000000e0: be82 e8bd f7b7 4abe 2b92 fa3d afb2 92bc
000000f0: 0918 f53d e98a 39be 00ae 593e 0b78 12bd
00000100: 7156 aebb 77dd 6ebc 8c07 26be d6d7 cf3c
00000110: 12be bcbd 8081 7039 0b99 fbbd 8b62 49be
00000120: b51c 53be e2d1 40be 7deb d4bc 3f6f 943d
00000130: b3af 653e 3aea 1dbe 6443 633e 69cf 373e
00000140: 2fd4 3e3e 5aca ee3d 7791 5bbe 3d54 703d
00000150: 7b9c 5cbe fb85 ed3d a2f1 52be bc51 c1b8
00000160: d4d8 933c 31ea 233d 8304 4a3e c799 243c
00000170: 4613 17be d58f dc3c 34b5 6dbe 7a4a 253d
00000180: 3c43 29be 1add a63d 4b3f 54be 8f68 63be
00000190: b7ca 06be 9f12 8abd 6ac6 f6bc 1389 633e
000001a0: 8456 663d 292b f3bd d5c0 91bc a922 0a3e
000001b0: 1197 29be fc58 72be 317f d0bd 3ce1 803e
000001c0: a86c a33d d05d 2bbe c36f 21be b730 443e
000001d0: 9e31 55be d645 b93d 1a61 6c3e 7df1 853c
000001e0: d696 65bd 00ab 76bd 7f43 1bbb 6335 3ebd
000001f0: cde0 7f3b b400 5a3b 92ba 283e fcf4 563e
00000200: ef92 be3d b438 98bd 6512 a7bd 44bb 0a3e
00000210: 1069 40be b651 bebd 7140 4ebe db6d 593e
00000220: 9bf4 133e caa7 7bbe de67 2939 240a 0cbe
00000230: f093 e63c 6801 f3bd f08a 8639 5e23 4f3e
00000240: d972 26bd be0f b53c 4cf6 933d a1c9 2a3d
00000250: d65c 2a3e 677c 7a3e 3215 523e 28de 903d
00000260: b92d 41bd f3c0 353c 3b5f 5a3e 1cb3 ba3b
00000270: c539 403e a85e d4bb 8b5f 623e 9aaa 233e
00000280: ca02 4c3d 5769 583e 606c 70be e226 1abd
00000290: 5a94 b0bc 6134 3e3d 9410 c3bd bd7c cd3d
000002a0: 5a57 3e3e 8c6c 7c3c 2d30 693c a15e 68be
000002b0: 3e11 cd3c 9697 d33c 8ae4 133d c162 6abd
000002c0: 0d09 2dbe dcd8 6ebd e846 2cbe 3216 5b3e
000002d0: 208c c6bd 6274 66be b5e6 5c3d e473 69be
000002e0: f991 b9bd ccaa c13d b22f 50be 5278 2dbe
000002f0: 1194 17be 3d53 1b3e a0b4 fd3d cb03 0ebe
00000300: cd8d 653d 007b 1c3e 7d5a 9ebd d596 783e
00000310: 5f04 81b9 d4d4 67be 645b 92bd bfaf bfbd
00000320: 2f09 683e 9351 e03d 7785 483e 6673 04be
00000330: f0b0 1dbe bfda 3d3e d7b3 bcbd 548a 40be
00000340: afa4 2a3e 5ace cf3d cd4c f73d d487 b8bd
00000350: ebd1 eebd 1f9a 1abe d274 13be 13ec 1bbe
00000360: f3fb 663c 1810 0cbe e26f 3f3e 692b 683e
00000370: 57af 6dbd 2abe 043c a9dc c2bd ff43 03be
00000380: 1236 cd3d 566d fd3d 375b 90bd e767 4b3e
00000390: 854f 67bd 3fdc 52be b572 903d 045c bcbd
000003a0: a9ba 013e a736 cbbd 8427 9e3d 36dc 37be
000003b0: f95d 5c3d 638a a5bc f521 ca3d f7ea 15bd
000003c0: 2165 03bd b860 55be 56f0 203e 3fcd 323a
000003d0: 0d38 80bc 8d76 16be f336 bfbc 622a fbbd
000003e0: b137 dc3c 2f01 a3bd 198b 403e 03dd a93d
000003f0: 60e7 8abc ec38 873c 0186 29be 6102 5b3e

weight_hh_l0 f4 [48, 16]
0.0839038 0.008076994 0.1417238 -0.045880217 -0.019022966 -0.17701273 -0.0052465172 -0.017574815
-0.09230907 0.1142457 -0.049020696 -0.011887768 -0.1983172 0.088810496 -0.043845773 0.039370913
-0.028142529 -0.24780086 -0.04476924 0.008050102 0.05782898 0.034101598 -0.17281453 -0.21278197
-0.047706913 0.22601984 0.004088609 0.045401566 -0.044960108 0.11546616 -0.12153016 0.05537054
0.017357554 -0.0041084355 0.09333212 0.0068658036 -0.11194291 -0.0013403832 -0.05474333 -0.093651645
0.083504125 0.094459035 0.045357376 0.0001607624 0.11115313 -0.08985235 -0.1661792 0.031849425
-0.07707391 0.12827127 0.09213902 0.09411813 0.0760068 0.14472416 0.069497585 0.09427513
0.086977996 0.21305549 -0.04283715 0.00068572105 0.23040539 0.16353218 -0.010269016 -0.046961453
0.16372167 0.155145 -0.16135064 0.069057435 -0.00030103757 0.2045523 -0.053956583 -0.028283942
-0.07778606 0.24157733 0.011662338 -0.086613595 -0.15234768 -0.02545504 0.20803931 -0.05141574
0.14561139 -0.2025065 -0.09810675 -0.10061335 0.00025802714 0.024394019 -0.18389092 -0.08557237
-0.11358212 0.22567786 0.01781201 -0.005157979 0.1880427 0.06326994 0.037182126 -0.00089363824
-0.043361776 -0.23199952 -0.018845556 -0.10167246 -0.00032256354 -0.034965124 -0.05895424 -0.0701505
0.10289042 0.10785405 -0.00014698305 0.05510038 0.12728316 0.21142477 0.012691141 0.00027283074
0.13102667 0.11086457 -0.13052338 0.15541022 -1.4851348e-05 -0.14528127 -0.18984337 0.16052032
0.024922743 -0.11885807 -0.080097094 -0.14601237 0.018701231 0.19562961 -0.03184827 -0.15926278
0.053422656 0.20416924 -0.17888033 0.22601692 -0.12393581 -0.060542803 -0.11851505 -0.20936926
0.16809444 -0.15013863 -0.07628218 0.019526348 -0.071124196 -0.09456076 -0.0463365 -0.15270095
0.00039256105 0.040455285 0.07857733 0.17285481 -0.12481039 0.1059419 -0.16438557 -0.13426344
-0.20418383 -0.19621375 -0.00048132782 0.04544795 0.15495016 -0.16901809 -0.10892088 -0.0836633
0.03808319 -0.23344538 0.1949945 0.14476272 0.15696326 -0.07599959 -0.1970633 0.15294354
0.18502612 0.07464815 0.13390547 -2.3091898e-05 -0.21855874 0.05324032 0.13424799 -0.014030861
-0.11611753 0.17832501 -0.10020699 -0.08653233 0.08832264 0.22591914 -0.029570026 -0.01292429
0.03340624 0.12584017 -0.15518208 0.16746323 0.10783793 0.09480169 0.038122606 -0.030093482
-0.05342729 0.08313959 -0.099131316 0.20160244 -0.070558704 0.12098439 -0.156639 0.12307915
-0.09554007 0.12127307 -0.16576242 -0.09219657 -0.20357987 0.0034233201 -0.11080859 -0.04934939
0.0005622215 0.21194634 -0.16642334 0.17909588 -0.14712557 0.23391876 -0.23519152 0.10446988
-0.051984124 -0.039009612 0.0122374315 0.08318318 -0.07384757 -0.05230638 0.011050527 -0.0031623486
-0.14162447 -0.22137398 -0.04159474 0.24302854 -0.0271861 0.21896099 0.172838 0.043148596
-0.10864023 -0.016355831 -0.10145013 0.12400614 0.07772517 0.09963426 -0.24149844 -0.18484671
-0.0768165 -0.060271226 -0.059445042 0.0044650366 -0.017350499 0.09437012 -0.16576095 0.07621322
0.20493352 0.17381372 0.09728266 0.063038945 -0.0035769495 0.12574556 -0.15644832 -0.07047098
00000000: c1d5 ab3d 5e55 043c 0b20 113e e5ec 3bbd
00000010: 0dd6 9bbc d342 35be faea abbb 0ff9 8fbc
00000020: 8a0c bdbd a6f9 e93d edc9 48bd eac4 42bc
00000030: aa13 4bbe 47e2 b53d a097 33bd 6543 213d
00000040: 298b e6bc 82bf 7dbe f35f 37bd 93e4 033c
00000050: 15de 6c3d 1eae 0b3d 4bf6 30be 84e3 59be
00000060: 5368 43bd bf71 673e bdf9 853b fef6 393d
00000070: 1728 38bd 8679 ec3d cee4 f8bd 38cc 623d
00000080: 6e31 8e3c 0ea0 86bb e924 bf3d 89fa e03b
00000090: 5342 e5bd ccaf afba 8b3a 60bd 6fcc bfbd
000000a0: 3604 ab3d bd73 c13d a8c8 393d 5492 2839
000000b0: 41a4 e33d 8204 b8bd e12a 2abe 8b74 023d
000000c0: edd8 9dbd 8b59 033e 62b3 bc3d 02c1 c03d
000000d0: 74a9 9b3d 9232 143e c054 8e3d 5213 c13d
000000e0: 8521 b23d 382b 5a3e 0276 2fbd f6c1 333a
000000f0: 64ef 6b3e fb74 273e 603f 28bc a75a 40bd
00000100: a7a6 273e 55de 1e3e 1a39 25be fc6d 8d3d
00000110: 94d4 9db9 2876 513e 9401 5dbd bab3 e7bc
00000120: 4c4e 9fbd 0c60 773e 6413 3f3c 7862 b1bd
00000130: 0801 1cbe 1787 d0bc 4208 553e 5099 52bd
00000140: 271b 153e dd5d 4fbe 31ec c8bd 5f0e cebd
00000150: d147 8739 f7d5 c73c e74d 3cbe 9140 afbd
00000160: be9d e8bd 1918 673e 7eea 913c 4404 a9bb
00000170: 448e 403e ac93 813d 494c 183d 0c43 6aba
00000180: 1e9c 31bd 4891 6dbe ff61 9abc a739 d0bd
00000190: bf1d a9b9 9737 0fbd 007a 71bd 11ab 8fbd
000001a0: 36b8 d23d 96e2 dc3d 761f 1ab9 f0b0 613d
000001b0: 8456 023e bc7f 583e 81ee 4f3c b90a 8f39
000001c0: db2b 063e f70c e33d eca7 05be db23 1f3e
000001d0: 0e2a 79b7 9dc4 14be 4d66 42be 705f 243e
000001e0: c82a cc3c dc6b f3bd f209 a4bd 4484 15be
000001f0: 5333 993c 2153 483e 5573 02bd c815 23be
00000200: b7d1 5a3d be11 513e 682c 37be fb70 673e
00000210: 0fd2 fdbd bbfb 77bd 05b8 f2bd e564 56be
00000220: f320 2c3e f1bd 19be d539 9cbd b8f5 9f3c
00000230: 90a9 91bd 12a9 c1bd 58cb 3dbd a35d 1cbe
00000240: a7d0 cd39 71b4 253d 27ed a03d da00 313e
00000250: 979c ffbd 11f8 d83d b154 28be 5b7c 09be
00000260: 9115 51be 42ec 48be ba5a fcb9 a127 3a3d
00000270: 41ab 1e3e 1413 2dbe e911 dfbd aa57 abbd
00000280: 1efd 1b3d 4e0c 6fbe a3ac 473e ae3c 143e
00000290: faba 203e aca5 9bbd f6ca 49be 3b9d 1c3e
000002a0: 7d77 3d3e 21e1 983d 841e 093e 79b5 c1b7
000002b0: ddcd 5fbe 8612 5a3d 4e78 093e b2e1 65bc
000002c0: 07cf edbd d59a 363e 5339 cdbd dd37 b1bd
000002d0: 80e2 b43d 5957 673e d73c f2bc 67c0 53bc
000002e0: fbd4 083d 3fdc 003e 0de8 1ebe 7b7b 2b3e
000002f0: 22da dc3d 6327 c23d 7326 1c3d 9b86 f6bc
00000300: 93d6 5abd 1745 aa3d 5c05 cbbd df70 4e3e
00000310: 1581 90bd aac6 f73d f965 20be ec10 fc3d
00000320: 83aa c3bd 045e f83d a0bd 29be 8ed1 bcbd
00000330: 3e77 50be c859 603b 9def e2bd 9622 4abd
00000340: 0c62 133a 7608 593e e16a 2abe e964 373e
00000350: 16a8 16be 6688 6f3e 0cd6 70be 4ef4 d53d
00000360: 4eed 54bd 8bc8 1fbd 827f 483c f15b aa3d
00000370: 653d 97bd 373f 56bd 450d 353c 683f 4fbb
00000380: 0106 11be dcaf 62be 3f5f 2abd 79dc 783e
00000390: 62b5 debc 4f37 603e 72fc 303e 95bc 303d
000003a0: c57e debd aafc 85bc 16c5 cfbd eef6 fd3d
000003b0: 602e 9f3d 0c0d cc3d 5e4b 77be 7548 3dbe
000003c0: f851 9dbd f6de 76bd a57c 73bd 714f 923b
000003d0: a222 8ebc 1f45 c13d 3dbd 29be ad15 9c3d
000003e0: 18da 513e 39fc 313e 223c c73d 901a 813d
000003f0: 416b 6abb 72c3 003e fd33 20be 1753 90bd

bias_ih_l0 f4 [48]
0.027534653 -0.22104442 -0.17554612 0.13507104 0.2239805 0.17786165 0.17227232 -0.14608139
0.1887984 0.1997096 0.068858676 -0.11647739 0.19772384 -0.21433584 0.15954995 0.0607518
-0.121019766 -0.1660169 -0.12852237 -0.16750872 -0.24624857 0.21062773 -0.1475329 0.019375592
-0.16514392 0.050532423 -0.08397053 0.23172785 0.14615932 -0.18131395 -0.00077260163 0.10303179
-0.19804709 0.12886521 0.026521184 -0.2048501 0.22470033 0.07681994 0.020120407 -0.20645984
0.027730081 -0.21558842 -0.17700672 -0.15792373 -0.13778865 -0.17397104 0.14036244 -0.06287094
00000000: 5a90 e13c 7859 62be 5dc2 33be 1050 0a3e
00000010: 255b 653e 5d21 363e 2868 303e 5c96 15be
00000020: 5e54 413e ac80 4c3e c705 8d3d b38b eebd
00000030: 1e78 4a3e db7a 5bbe 1061 233e e1d6 783d
00000040: 36d9 f7bd 5600 2abe 5e9b 03be 6887 2bbe
00000050: 9628 7cbe ccae 573e dd12 17be 90b9 9e3c
00000060: 7d1b 29be 16fb 4e3d bef8 abbd 114a 6d3e
00000070: caaa 153e 5daa 39be 6b88 4aba 5502 d33d
00000080: dbcc 4abe 3ef5 033e f442 d93c 3ac4 51be
00000090: d817 663e c653 9d3d 8dd3 a43c 356a 53be
000000a0: 322a e33c 36c3 5cbe 4041 35be c2b6 21be
000000b0: 7818 0dbe 7725 32be 2cbb 0f3e 7bc2 80bd

bias_hh_l0 f4 [48]
0.08371577 -0.14993586 0.06338394 -0.24802947 0.07312717 0.0873867 0.016287237 -0.016679345
0.0004776447 0.14150114 0.15789035 -0.17209472 0.20244554 0.23863988 0.13300082 -0.08976783
-0.049801707 -0.12494789 -0.20684566 0.025436345 -0.105471395 0.06799912 -0.09594048 -0.110876136
-0.081540056 -0.07826639 0.096785635 -0.0109015815 -0.11984446 0.038340677 -0.18130796 0.17544454
0.23311542 0.14018336 -0.23546915 -0.14801434 -0.027974831 -0.12471974 0.11026248 -0.10658624
-0.0137590645 0.18308754 -0.2325896 0.19752848 0.04662492 -0.20729242 -0.20430547 0.04616297
00000000: 2c73 ab3d c988 19be 70cf 813d 70fb 7dbe
00000010: b3c3 953d ccf7 b23d d06c 853c 1fa3 88bc
00000020: 636c fa39 ade5 103e 02ae 213e 9939 30be
00000030: e24d 4f3e 035e 743e 5e31 083e 32d8 b7bd
00000040: e0fc 4bbd aee4 ffbd 59cf 53be e25f d03c
00000050: 6301 d8bd 1f43 8b3d 717c c4bd 0713 e3bd
00000060: 79fe a6bd 214a a0bd 8c37 c63d 8c9c 32bc
00000070: 0371 f5bd 1d0b 1d3d cba8 39be bca7 333e
00000080: cfb5 6e3e 3a8c 0f3e d31e 71be 1291 17be
00000090: 792b e5bc 106d ffbd 4cd1 e13d e349 dabd
000000a0: b36d 61bc 4d7b 3b3e f82b 6ebe e844 4a3e
000000b0: c6f9 3e3d 7744 54be 7435 51be 6215 3d3d

weight_ih_l0 f4 [3, 11]
-0.4295482 -0.22839782 -0.03490919 -0.8718796 -0.4793493 -0.7729331 -0.92247254 0.9631452
0.023546629 0.29850316 -0.56792134 0.569409 0.74018425 0.25904462 0.90261495 0.38508952
-0.18845987 -0.18928844 0.021121075 -0.897975 0.64099866 0.4375135 -0.9543252 0.66517407
0.47468227 0.28298336 -0.85004085 0.8656704 0.60796005 -0.5851279 0.44619894 0.12701632
-0.69335854
00000000: beed dbbe 1ee1 69be f0fc 0ebd 8033 5fbf
00000010: 456d f5be f2de 45bf 2927 6cbf af90 763f
00000020: dce4 c03c 68d5 983e 4b63 11bf cac4 113f
00000030: b77c 3d3f 7fa1 843e c611 673f 742a c53e
00000040: a0fb 40be d4d4 41be 1b06 ad3c b1e1 65bf
00000050: 7d18 243f c501 e03e a84e 74bf d948 2a3f
00000060: 8e09 f33e 32e3 903e 479c 59bf 939c 5d3f
00000070: 45a3 1b3f f1ca 15bf 3074 e43e 9110 023e
00000080: f27f 31bf

weight_hh_l0 f4 [3, 1]
-0.13054258 0.5894291 0.30296195
00000000: f4ac 05be d3e4 163f d41d 9b3e

bias_ih_l0 f4 [3]
0.75558704 0.82605505 -0.9721803
00000000: 276e 413f 5878 533f cfe0 78bf

bias_hh_l0 f4 [3]
0.11850606 0.55533826 -0.6016386
00000000: 4eb3 f23d a62a 0e3f fd04 1abf

weight f4 [1, 16]
0.005545669 -0.24073784 -0.09790857 -0.14825739 -0.08249222 0.15041964 0.07030988 -0.14393212
0.15226611 -0.110524856 0.07121462 0.016430814 -0.21653533 0.15631188 -0.0715774 -0.08173558
00000000: 71b8 b53b fb83 76be 4a84 c8bd c9d0 17be
00000010: aef1 a8bd 9b07 1a3e a0fe 8f3d f162 13be
00000020: a6eb 1b3e db5a e2bd f8d8 913d ea99 863c
00000030: 70bb 5dbe 3910 203e 2c97 92bd fc64 a7bd

weight f4 [680, 17]
0.12391291 -0.12999466 -0.010805074 -0.16906303 -0.1300319 0.020564083 -0.10100589 0.06578043
0.15068315 0.018212585 -0.15947054 -0.18992792 0.0077564325 -0.2066541 0.0809467 -0.13065572
0.115340896 0.09141358 -0.00019437031 0.107004434 -0.037689038 0.020966344 0.0074195173 -0.0021203824
-0.124158785 0.11821522 -0.0023846233 0.0005551814 0.11346722 4.0812385e-05 -2.631591e-05 -0.06833027
0.029610403 0.037312582 0.053473573 0.006131812 0.026736932 -5.135337e-06 -3.5283305e-05 0.013574629
0.0012241076 -0.00070456835 -0.100508355 -0.021019911 -0.016564319 0.10214524 0.01300516 -0.072258696
-0.05645043 0.07044829 -0.057812426 0.018245501 0.2498657 -0.04815768 -0.23661856 -0.016997375
-0.08773552 -0.1928597 -0.09376893 0.22411953 -0.019944593 0.13940173 -0.2019751 -0.17615587
0.06720575 -0.0848034 0.047633428 0.2221019 0.0023180377 -0.1518909 0.09014047 -0.00030235085
0.10489482 -0.0124044875 -0.0028360602 -0.04796629 0.038219832 2.536966e-05 0.0843605 0.1303242
-0.031601306 0.08512406 0.043362074 1.5490728e-05 0.11595077 0.073452644 0.040506385 0.100188725
0.09359243 -0.10024846 0.07699911 -0.00018297097 0.06519574 0.0001657656 -0.14403915 -0.136189
0.03385058 0.1483789 -0.00011855223 -0.060388774 0.07197453 0.098560594 -0.20738222 -0.026598463
0.1093142 -0.14998811 0.18673615 0.100370415 -0.17992875 0.02974571 0.10075882 0.18142684
0.176761 -0.14867161 -0.010701325 -0.12968521 0.20452945 0.13766769 0.13425723 0.1461942
0.068692185 -0.14715046 0.0068288627 -0.0020036488 -0.19570942 -0.06831537 -0.12435735 0.15516095
-0.210055 0.004752013 0.035898063 0.12115405 0.17883861 0.066737145 0.15498339 0.032916825
-0.15273708 0.23213153 -0.09772646 -0.17111531 -0.06416518 0.20966908 0.09000907 0.14545983
0.14695638 0.2294531 0.094285645 0.16095209 0.14963713 -0.23339541 -0.08857068 -0.042910505
-0.08969787 -0.15285644 -0.04227002 -0.17767315 0.0015879042 0.20208524 0.18103789 0.004727005
-0.14232454 -0.009419939 -0.11670371 0.08245696 -0.063984945 0.013448402 -0.14340672 0.18874311
0.12545069 -0.10348447 -0.047189172 0.15248556 -0.011966308 -0.15206133 -0.09090737 -0.07671725
-9.914969e-05 0.042709302 -0.15997687 0.14523758 0.05210901 -6.594768e-05 -0.057494286 0.110993214
0.12388212 -0.074989535 0.07934682 0.04243445 0.06649123 0.014470921 -0.1649829 -0.24015732
0.09521203 -0.06980303 -0.23003533 -0.02628574 -0.23823805 -0.16517805 -0.054658465 -0.0069331555
-0.085351646 0.065347224 -0.14866692 0.011954128 -0.14109834 -0.039578248 0.09717428 0.15831776
-0.23513897 -0.23048623 -0.23226501 0.19367222 -0.21496703 0.08620672 -0.077587985 0.07869668
-0.17922333 -0.23784515 0.12196629 -0.23472263 -0.009488849 0.09169132 0.19519258 0.017108232
-0.18894029 0.00806421 -0.067495145 -0.01372116 0.049475458 0.11301359 0.104696915 -0.16341919
0.05459963 -0.0140545815 0.18082623 0.2266059 -0.2291678 0.03119088 0.06543595 -0.10083352
-0.19239601 0.029842274 0.23712903 -0.24468991 -0.17101865 -0.027339937 -0.12539776 0.059258
-0.17715833 0.06747951 -0.013089585 -0.24052657 -0.2060995 -0.080943614 0.020979075 0.12285471
00000000: 0dc6 fd3d 521d 05be c407 31bc dc1e 2dbe
00000010: 1527 05be 0276 a83c 2ddc cebd e4b7 863d
00000020: af4c 1a3e 8f32 953c 3f4c 23be 777c 42be
00000030: ac29 fe3b 229d 53be 62c7 a53d 9dca 05be
00000040: d937 ec3d 0b37 bb3d e2cf 4bb9 2425 db3d
00000050: d25f 1abd 9cc1 ab3c 6c1f f33b 1df6 0abb
00000060: f646 febd d21a f23d 5747 1cbb 9889 113a
00000070: 8061 e83d f72d 2b38 fdc0 dcb7 bef0 8bbd
00000080: 8491 f23c 14d5 183d 1b07 5b3d 5eed c83b
00000090: 6907 db3c 3550 acb6 29fd 13b8 1f68 5e3c
000000a0: 3c72 a03a c8b2 38ba 53d7 cdbd f331 acbc
000000b0: e5b1 87bc 8631 d13d 9813 553c 5efc 93bd
000000c0: 9138 67bd 3147 903d b9cc 6cbd 9777 953c
000000d0: cbdc 7f3e fd40 45bd 234c 72be 143e 8bbc
000000e0: aeae b3bd 037d 45be ed09 c0bd 977f 653e
000000f0: d862 a3bc 54bf 0e3e 90d2 4ebe 3462 34be
00000100: 2ba3 893d 68ad adbd 451b 433d ae6e 633e
00000110: 38ea 173b 4a89 1bbe 919b b83d d884 9eb9
00000120: 18d3 d63d 313c 4bbc 32dd 39bb 4d78 44bd
00000130: 668c 1c3d eed0 d437 33c5 ac3d b573 053e
00000140: 5f70 01bd 8655 ae3d 6e9c 313d 16f2 8137
00000150: 9977 ed3d 576e 963d 06ea 253d bf2f cd3d
00000160: 63ad bf3d 114f cdbd b6b1 9d3d e5db 3fb9
00000170: 5885 853d 5dd1 2d39 007f 13be 2175 0bbe
00000180: e8a6 0a3d a3f0 173e 3e9f f8b8 385a 77bd
00000190: 6267 933d 23da c93d 015c 54be 05e5 d9bc
000001a0: 20e0 df3d 7c96 19be c337 3f3e 018f cd3d
000001b0: 3e3f 38be 46ad f33c a45a ce3d f5c7 393e
000001c0: d600 353e 5f3d 18be 9c54 2fbc 33cc 04be
000001d0: 2b70 513e c2f8 0c3e ba7a 093e efb3 153e
000001e0: 7dae 8c3d 9cae 16be a7c4 df3b a64f 03bb
000001f0: 0d68 48be eee8 8bbd 11af febd 83e2 1e3e
00000200: a818 57be c6b6 9b3b d909 133d 9d1f f83d
00000210: 7821 373e 7cad 883d f7b3 1e3e cbd3 063d
00000220: 1c67 1cbe e3b3 6d3e cf24 c8bd da38 2fbe
00000230: 0969 83bd 7eb3 563e ad56 b83d 6cf3 143e
00000240: bc7b 163e c1f5 6a3e d518 c13d a0d0 243e
00000250: 7a3a 193e 35ff 6ebe 8b64 b5bd edc2 2fbd
00000260: 84b3 b7bd 6686 1cbe 5423 2dbd f3ef 35be
00000270: 3921 d03a 6fef 4e3e ff61 393e fee4 9a3b
00000280: 86bd 11be 1656 1abc 5b02 efbd 32df a83d
00000290: 8a0a 83bd b056 5c3c 36d9 12be e045 413e
000002a0: 2576 003e aaef d3bd 6f49 41bd 2d25 1c3e
000002b0: 550e 44bc f7b5 1bbe a52d babd ef1d 9dbd
000002c0: 96ee cfb8 f3ef 2e3d fad0 23be 29b9 143e
000002d0: 4270 553d 644d 8ab8 217f 6bbd 6950 e33d
000002e0: e9b5 fd3d 1d94 99bd 9680 a23d bfcf 2d3d
000002f0: 8e2c 883d 7117 6d3c 47f1 28be cdeb 75be
00000300: 86fe c23d e4f4 8ebd 628e 6bbe 3155 d7bc
00000310: adf4 73be 6f24 29be 8ee1 5fbd 862f e3bb
00000320: d8cc aebd c4d4 853d 243c 18be 3fdb 433c
00000330: 157c 10be cd1c 22bd 4f03 c73d 0d1e 223e
00000340: 45c8 70be 9504 6cbe e1d6 6dbe 0352 463e
00000350: 5120 5cbe 268d b03d 73e6 9ebd ba2b a13d
00000360: 5286 37be ae8d 73be 76c9 f93d 215b 70be
00000370: 1e77 1bbc a9c8 bb3d 90e0 473e 9026 8c3c
00000380: 9079 41be c01f 043c e53a 8abd b7ce 60bc
00000390: c7a6 4a3d ab73 e73d 566b d63d 5c57 27be
000003a0: dda3 5f3d 3045 66bc 832a 393e 610b 683e
000003b0: f7aa 6abe 0484 ff3c 4903 863d ce81 cebd
000003c0: 7603 45be c977 f43c f4d1 723e fe8f 7abe
000003d0: 831f 2fbe 01f8 dfbc 4568 00be 84b8 723d
000003e0: fe68 35be b332 8a3d b375 56bc 994c 76be
000003f0: bf0b 53be c4c5 a5bd 4fdc ab3c 409b fb3d

bias f4 [680]
0.03579281 -0.08194102 -0.08927459 -0.061917584 -0.105662726 -0.15936282 0.15118319 -0.0076259994
0.19532919 0.13120337 -0.14543712 0.20983073 0.21119964 -0.069542706 -0.058675654 -0.09558269
0.028759945 -0.1097504 -0.08742608 -0.007497952 -0.0006659372 0.13630655 -0.097390555 0.14990164
-0.024398675 0.16148207 -0.10632194 -0.063817315 -0.054485667 -0.16102329 -0.008579569 -0.09400125
0.0785742 -0.00862497 -0.025818871 -0.036675017 -0.12879364 -0.09452309 0.12893575 0.04021494
-0.016217833 -0.082027696 -0.15838972 0.23933284 -0.14940687 -0.16428065 0.1677121 -0.06229104
0.08806641 -0.039481968 0.22093245 0.22157972 0.0006119921 -0.14838609 -0.021971442 -0.13263768
0.12385888 -0.10466181 0.13323282 0.0644715 0.16147357 -0.02688244 -0.15614103 0.15473008
-0.015743803 0.15302588 0.033027038 0.12371942 0.20481507 0.043157417 0.13312802 0.23803878
0.19582067 0.1875315 0.13238424 -0.077309705 -0.030689107 -0.047091592 0.18808362 -0.0070006517
-0.027190356 0.08158642 0.21208404 0.12699974 -0.06673692 0.233724 -0.14673263 -0.00861127
-0.1251416 -0.06538063 -0.10228064 -0.1326342 -0.13899489 0.12950784 -0.023456698 0.10542521
0.1619105 0.0615746 -0.046927456 0.16507366 -0.00015879734 0.19185086 -0.0910133 -0.13384111
0.05919918 -0.14536735 0.22364287 0.06967322 -0.16646437 -0.027521871 0.10816492 -0.09776464
0.15621154 -0.018861681 -0.061303794 0.17449312 0.051224064 -0.09846641 0.14867716 -0.023991782
0.1610625 0.08280316 0.19703509 0.08406359 -0.06353405 -0.005672036 -0.08348866 0.16735739
0.12099978 -0.062384896 -0.13350509 0.12886956 -0.01233931 -0.10441717 -0.093026035 0.19454205
-0.004207066 -0.095227204 0.16745451 -0.043069154 0.015430461 0.22644782 0.23548654 -0.046551242
0.21931076 -0.0023914077 0.06053437 -0.045710992 0.19952911 0.0939573 0.01891835 -0.06691526
0.06597554 -0.022691373 0.1497108 0.015418332 -0.009105584 -0.12514246 -0.05358076 -0.08662905
-0.11646757 0.040841162 0.07573819 0.2330414 -0.04679407 -0.041907564 -0.14531593 0.09102363
-0.11812169 -0.0052844114 0.21067217 -0.18888518 -0.053786308 -0.015394781 0.18937951 -0.04552618
-0.12865567 -0.13698296 -0.113833785 0.08847783 0.21186708 0.11986297 -0.050355885 0.0056273476
0.14655165 0.16455439 0.008845138 -0.1550526 -0.039900433 0.14361902 0.031202294 -0.056486063
-0.09208252 0.2324998 0.0074157976 -0.035240788 -0.11389211 -0.06727379 0.12905811 0.21297811
-0.061194565 -0.16027541 0.1880261 0.2239317 0.035534985 0.12440804 -0.074828945 -0.019093934
-0.21713425 -0.055856813 0.06424211 0.1411378 0.03931168 -0.0010534251 -0.02648902 0.091156736
-0.11013718 0.11132892 0.21759808 0.031010581 -0.14910485 0.12689835 0.11946292 0.18549345
-0.079927936 0.024939902 -0.034566168 0.23222771 0.1695312 0.088571824 0.03712385 0.21167538
-0.062306784 -0.0025922633 -0.16505395 0.015718566 0.08702837 -0.107329674 0.22195497 0.15094875
-0.010656164 0.14183342 0.1077099 0.1322665 -0.10242306 -0.20324855 0.16242817 -0.11983159
-0.15295115 0.14087652 0.04661987 0.056907985 -0.09445087 -0.21449332 -0.06120752 -0.12898792
00000000: 7b9b 123d b2d0 a7bd 99d5 b6bd 4b9d 7dbd
00000010: b365 d8bd 0230 23be c4cf 1a3e 85e3 f9bb
00000020: 6004 483e 2d5a 063e 78ed 14be dedd 563e
00000030: b844 583e 686c 8ebd e255 70bd dbc0 c3bd
00000040: fa99 eb3c d1c4 e0bd 720c b3bd 61b1 f5bb
00000050: 4a92 2eba f293 0b3e b374 c7bd d17f 193e
00000060: bbdf c7bc 8e5b 253e 51bf d9bd a7b2 82bd
00000070: 5d2c 5fbd 4ae3 24be 5291 0cbc ba83 c0bd
00000080: 83eb a03d bf4f 0dbc 1982 d3bc 8b38 16bd
00000090: 7be2 03be 5295 c1bd bc07 043e 6cb8 243d
000000a0: 43db 84bc 23fe a7bd ea30 22be ab13 753e
000000b0: 1dfe 18be 3039 28be b9bc 2b3e e424 7fbd
000000c0: 295c b43d d8b7 21bd 1e3c 623e cbe5 623e
000000d0: 186e 203a 86f2 17be 74fd b3bc 2cd2 07be
000000e0: b9a9 fd3d ee58 d6bd 2f6e 083e a209 843d
000000f0: 5459 253e 9038 dcbc 6fe3 1fbe 9071 1e3e
00000100: 26f9 80bc d1b2 1c3e 5c47 073d 9b60 fd3d
00000110: 0bbb 513e d5c5 303d b652 083e 70c0 733e
00000120: 3785 483e 4208 403e bc8f 073e 8d54 9ebd
00000130: b967 fbbc 1de3 40bd fe98 403e b965 e5bb
00000140: 4fbe debc c816 a73d 8f2c 593e 380c 023e
00000150: 5ead 88bd 5855 6f3e 1441 16be 4916 0dbc
00000160: 1f25 00be 48e6 85bd 8378 d1bd 42d1 07be
00000170: ad54 0ebe b49d 043e 4328 c0bc 2ce9 d73d
00000180: decb 253e a635 7c3d 0137 40bd 1209 293e
00000190: d682 26b9 8d74 443e 2e65 babd a50d 09be
000001a0: d77a 723d 2edb 14be a302 653e d5b0 8e3d
000001b0: a375 2abe 8c75 e1bc 9285 dd3d d438 c8bd
000001c0: ebf5 1f3e d083 9abc b019 7bbd 53ae 323e
000001d0: 53d0 513d c2a8 c9bd d33e 183e 6a8a c4bc
000001e0: 91ed 243e b494 a93d 91c3 493e 8829 ac3d
000001f0: 241e 82bd 7ddc b9bb 1afc aabd bc5f 2b3e
00000200: bcce f73d 4e87 7fbd 8fb5 08be 62f6 033e
00000210: d12a 4abc abd8 d5bd 6f84 bebd 0836 473e
00000220: 6ddb 89bb 7b06 c3bd 3279 2b3e 4869 30bd
00000230: 0bd0 7c3c f0e1 673e 6223 713e 84ac 3ebd
00000240: 0093 603e 2ab9 1cbb e3f2 773d 733b 3bbd
00000250: 5c51 4c3e af6c c03d a8fa 9a3c de0a 89bd
00000260: 2f1e 873d 42e3 b9bc ca4d 193e 2c9d 7c3c
00000270: 962f 15bc 5825 00be 8077 5bbd 926a b1bd
00000280: 8d86 eebd 1049 273d a01c 9b3d 68a2 6e3e
00000290: 24ab 3fbd 44a7 2bbd b3cd 14be 996a ba3d
000002a0: c9e9 f1bd db28 adbb 72ba 573e 1e6b 41be
000002b0: 084f 5cbd 643a 7cbc b4ec 413e a979 3abd
000002c0: 50be 03be 4345 0cbe b021 e9bd dd33 b53d
000002d0: aff3 583e b87a f53d f941 4ebd 9d65 b83b
000002e0: a311 163e f280 283e 33eb 103c 1cc6 1ebe
000002f0: a36e 23bd dd10 133e f49b ff3c ee5d 67bd
00000300: c395 bcbd 6d14 6e3e 3800 f33b a558 10bd
00000310: 4440 e9bd d7c6 89bd cf27 043e ef16 5a3e
00000320: 27a7 7abd 3d1f 24be ea89 403e 5a4e 653e
00000330: 228d 113d a4c9 fe3d eb3f 99bd e26a 9cbc
00000340: 7158 5ebe 1dca 64bd 5e91 833d 6d86 103e
00000350: 4905 213d 1513 8aba 80ff d8bc 62b0 ba3d
00000360: 9a8f e1bd 6b00 e43d 08d2 5e3e e709 fe3c
00000370: f1ae 18be a4f1 013e faa8 f43d fff1 3d3e
00000380: 42b1 a3bd c44e cc3c 4195 0dbd 1acd 6d3e
00000390: 9699 2d3e 2565 b53d 2e0f 183d 6ec1 583e
000003a0: 6635 7fbd f6e2 29bb e703 29be 39c4 803c
000003b0: ee3b b23d a9cf dbbd 2a48 633e 4f92 1a3e
000003c0: 3197 2ebc c83c 113e 0297 dc3d df70 073e
000003d0: 2ec3 d1bd 6320 50be 9253 263e 446a f5bd
000003e0: 3a9f 1cbe ef41 103e 7af4 3e3d 5918 693d
000003f0: 756f c1bd 23a4 5bbe bdb4 7abd 6915 04be

weight f4 [4, 680]
0.012552414 0.0005596016 2.9811574e-05 -0.0039163143 -3.827362e-06 9.284435e-05 0.021046728 0.007680264
0.043528534 -0.032071073 -2.760929e-05 -0.001305797 -0.00071562355 0.04097746 -0.023909299 0.00015733035
0.022921238 1.0551145e-05 -0.0006074897 -0.0146106845 -0.03620954 0.010054184 2.3576118e-05 -0.02699881
6.010734e-06 -0.029299574 0.0018823001 -5.8967602e-05 0.010174581 0.00014663575 0.0021844516 -0.00018255542
0.0039282613 -0.008761462 -7.381855e-05 0.028779069 -1.2132501e-06 0.00060512393 0.01688015 -0.030441033
0.0005052777 8.841468e-05 -0.00083428965 -0.0060950774 -2.7087139e-05 0.0054221875 -0.003881599 0.027648378
-0.002394161 0.002615351 -0.013731121 0.03747117 1.5667363e-05 -0.024022147 0.0017609872 0.00028333705
-0.01582834 -0.00043311654 -0.008705092 0.038403243 0.009969755 -0.0067184875 -0.00024739024 -0.033260945
0.027829012 -0.0037038734 -0.0007357558 -0.010666858 0.03350803 -0.029434815 0.01019214 0.015055687
-0.031993218 0.022382597 -0.0018977046 0.00058365567 6.115912e-06 0.00016574594 -0.0019646352 9.6246134e-05
-0.026379699 -0.02129819 0.040146302 0.012641447 -0.0061182776 -0.017724555 7.1764835e-06 0.021524077
0.00030673176 2.0936102e-05 -0.01016974 -0.00025033474 0.008058115 0.025360456 -0.012419529 0.017892608
0.0047896965 0.02818602 -0.024949607 0.008761025 5.3262916e-06 -0.011216749 -2.275687e-05 -0.00025670897
-0.026485654 0.0003045976 -0.025273127 -0.0240729 0.021745568 0.0014549097 -0.020587465 -0.021172157
0.03326298 0.026787985 -0.024280632 -0.023805683 0.015218604 1.0959116e-05 0.0040943436 3.8317077e-05
0.0036559044 0.0043302425 -0.020929683 -0.026829436 -0.005638684 0.0002491655 0.00013402734 -0.010168589
-0.021254031 0.019247357 1.3718732e-05 -0.010300628 -0.00024643398 0.029150087 0.0005933944 0.015862627
-0.01507426 -1.605806e-05 0.013604508 -0.027708432 0.0105487555 0.03239404 -0.018254066 5.6534927e-06
0.04065984 -0.0077092783 -0.024102552 -0.007881656 -0.0055119814 0.00980521 -0.03235085 -0.024194077
-0.019967506 0.00018590614 -0.01648984 0.004826103 -0.00016739221 8.613336e-05 -0.023113124 2.1445441e-05
0.00020899427 0.03135559 0.01063141 0.003241311 -2.168782e-05 0.0183417 0.00018852828 0.015453135
2.686175e-05 -0.0016166171 0.0052335844 -0.0110410275 0.00017554841 0.032470986 -0.0031939163 0.019623479
-0.000108556225 6.4167005e-05 -0.00030325295 -0.024477772 -0.01309991 -0.006689525 -0.05672944 0.007036276
0.008076703 0.016248107 -0.020935506 0.030446475 0.012117604 -0.0013276218 0.040997393 -0.007244835
0.023947774 -0.004575878 -0.036369417 -0.010031824 0.036559418 0.00066089066 -0.016094498 -0.016408997
0.000168566 -0.00031338216 0.024112193 0.016071327 -0.01750458 -0.020927606 6.588169e-05 -0.0005833894
0.015564257 -5.633729e-05 0.0019247981 0.0008782072 0.026222313 0.037915062 0.0026972962 0.0009027398
0.011836313 -0.029983113 -0.030507667 0.020623129 9.2182236e-05 -0.0033643427 0.00545139 -0.03284698
0.030315116 0.031153727 0.0015144619 -0.020074377 -0.012466379 -0.0062214015 -0.051835228 -0.033084035
0.0042053373 4.9639593e-06 0.046391707 0.009823701 0.016961658 -0.00021388236 0.006256681 -0.014273562
0.017422074 -0.010066996 0.040184796 0.028950809 0.034352634 0.031299565 0.012918909 0.022930272
0.015249377 0.015740614 -0.021322075 0.02539806 0.04225001 0.0073225433 -3.111158e-05 0.00011544922
00000000: a4a8 4d3c 3ab2 123a de13 fa37 6d54 80bb
00000010: ca6c 80b6 6eb5 c238 306a ac3c b9aa fb3b
00000020: fa4a 323d f55c 03bd 809a e7b7 4727 abba
00000030: af98 3bba fbd7 273d 6fdd c3bc 0bf9 2439
00000040: 52c5 bb3c d304 3137 f23f 1fba a761 6fbc
00000050: 7450 14bd 4eba 243c 54c5 c537 9c2c ddbc
00000060: d0af c936 a905 f0bc 83b7 f63a fb53 77b8
00000070: 49b3 263c 3cc2 1939 0429 0f3b 596c 3fb9
00000080: a5b8 803b 3c8c 0fbc 08cf 9ab8 15c2 eb3c
00000090: f5d6 a2b5 2ea1 1e3a 3e48 8a3c 795f f9bc
000000a0: 9d74 043a 456b b938 3bb4 5aba 37b9 c7bb
000000b0: 3039 e3b7 9bac b13b 6d62 7ebb da7e e23c
000000c0: 5be7 1cbb 4f66 2b3b 7ff8 60bc 5f7b 193d
000000d0: 686d 8337 18ca c4bc edd0 e63a db8c 9439
000000e0: 6faa 81bc eb13 e3b9 cd9f 0ebc b84c 1d3d
000000f0: 2f58 233c c226 dcbb 28b4 81b9 a13c 08bd
00000100: abf9 e33c afbc 72bb bcdf 40ba 0cc4 2ebc
00000110: b73f 093d 4821 f1bc effc 263c 21ac 763c
00000120: 520b 03bd b55b b73c 66bc f8ba 7800 193a
00000130: 4937 cd36 16cc 2d39 1cc1 00bb c0d7 c938
00000140: 3d1a d8bc 8b79 aebc 7370 243d 121e 4f3c
00000150: d57b c8bb 1633 91bc 86cd f036 4353 b03c
00000160: d7d0 a039 f09f af37 fb9e 26bc 5c3f 83b9
00000170: 2f06 043c bbc0 cf3c 487b 4bbc 8593 923c
00000180: e3f2 9c3b 5ee6 e63c 1e63 ccbc 678a 0f3c
00000190: 7fb8 b236 75c6 37bc 02e6 beb7 e596 86b9
000001a0: 71f8 d8bc 66b2 9f39 9709 cfbc 8834 c5bc
000001b0: c323 b23c abb2 be3a 0ba7 a8bc 3b71 adbc
000001c0: c33e 083d 7a72 db3c 2de8 c6bc 2304 c3bc
000001d0: 7457 793c 0bdd 3737 d829 863b a6b6 2038
000001e0: e697 6f3b b5e4 8d3b ba74 abbc 68c9 dbbc
000001f0: b6c4 b8bb 6da2 8239 b189 0c39 279a 26bc
00000200: ef1c aebc a2ac 9d3c 8129 6637 f7c3 28bc
00000210: cf33 81b9 2acc ee3c 068e 1b3a 57f2 813c
00000220: 07fa 76bc 6cb4 86b7 71e5 5e3c cbfc e2bc
00000230: b0d4 2c3c 9daf 043d 8d89 95bc 22b3 bd36
00000240: ef8a 263d 1d9e fcbb b772 c5bc 1022 01bc
00000250: da9d b4bb 08a6 203c 5382 04bd a832 c6bc
00000260: e592 a3bc cdef 4239 b315 87bc 4924 9e3b
00000270: 0186 2fb9 7fa2 b438 bc57 bdbc bce5 b337
00000280: 7925 5b39 b86e 003d 5e2f 2e3c 2d6c 543b
00000290: 3dee b5b7 5541 963c adaf 4539 252f 7d3c
000002a0: 2b55 e137 abe4 d3ba 7d7e ab3b 6de5 34bc
000002b0: 6b13 3839 4c00 053d 0651 51bb 6bc1 a03c
000002c0: aea8 e3b8 6691 8638 ecfd 9eb9 9c85 c8bc
000002d0: 01a1 56bc ce33 dbbb 215d 68bd 9090 e63b
000002e0: 2654 043c c01a 853c f080 abbc e36a f93c
000002f0: ea88 463c 9803 aeba e2ec 273d 1566 edbb
00000300: 1f2e c43c 3ff1 95bb 19f8 14bd 855c 24bc
00000310: 54bf 153d 9f3f 2d3a 9cd8 83bc 296c 86bc
00000320: 17c1 3039 714d a4b9 ef86 c53c 04a8 833c
00000330: c465 8fbc 5f70 abbc f729 8a38 9aee 18ba
00000340: 3a01 7f3c b44b 6cb8 8249 fc3a 7d37 663a
00000350: 2dd0 d63c d34c 1b3d 1fc5 303b d8a5 6c3a
00000360: 18ed 413c 259f f5bc 37eb f9bc d6f1 a83c
00000370: f651 c138 4e7c 5cbb 93a1 b23b 8e8a 06bd
00000380: 6857 f83c 1a36 ff3c e980 c63a 0573 a4bc
00000390: c93f 4cbc e6dc cbbb 2d51 54bd 2083 07bd
000003a0: edcc 893b 1690 a636 3b05 3e3d 97f3 203c
000003b0: 2df3 8a3c 9c45 60b9 d804 cd3b a8db 69bc
000003c0: bdb8 8e3c 0bf0 24bc d098 243d 3f2a ed3c
000003d0: 59b5 0c3d f933 003d d5a9 533c 44d8 bb3c
000003e0: 86d8 793c 76f2 803c a2ab aebc 980f d03c
000003f0: 590e 2d3d f2f1 ef3b ce7d 02b8 541d f238
