estimators/knet/single_obs/p_KalmanNetNN_lossMSE_ep100_train4000_val1000_test10000_lr5e-04_wd1e-05_data_sr1e-01_q1e-04_r1e-02_j5_train[200,250]_val[40,250]_test[40,250].pt (torch, 474133 bytes, 123 tensors)

_initial_state f4 [4]
0	0x00000000	0.0
1	0x3f800000	1.0
2	0x3f800000	1.0
3	0x00000000	0.0

_initial_covariance f4 [4, 4]
0	0x00000000	0.0
1	0x00000000	0.0
2	0x00000000	0.0
3	0x00000000	0.0
4	0x00000000	0.0
5	0x00000000	0.0
6	0x00000000	0.0
7	0x00000000	0.0
8	0x00000000	0.0
9	0x00000000	0.0
10	0x00000000	0.0
11	0x00000000	0.0
12	0x00000000	0.0
13	0x00000000	0.0
14	0x00000000	0.0
15	0x00000000	0.0

weight_ih_l0 f4 [48, 20]
0	0x3de159e6	0.11003475
1	0x3e38f5fe	0.18062589
2	0xbe48e836	-0.19619831
3	0x3e024021	0.12719776
4	0x3d5c047d	0.053715218
5	0x3e4fdc44	0.20298868
6	0xbb4ebc06	-0.0031545176
7	0xbdbae821	-0.09126306
8	0x3df94ccf	0.12172853
9	0xbe6264e2	-0.22108796
10	0x3e5227a4	0.20522934
11	0xbddd5b09	-0.10808379
12	0x3e552a4c	0.20816916
13	0xbd038994	-0.032113627
14	0xbd9c1433	-0.0762104
15	0xbddce204	-0.107852966
16	0x3cc8428d	0.024445796
17	0x3e41f0a8	0.1893946
18	0x3d0098c0	0.031395674
19	0x3e0dd466	0.13850555
20	0x3e3ac9fa	0.1824111
21	0x3c0557d0	0.008138612
22	0x3d358c31	0.04432315
23	0xbe31b3ae	-0.17353699
24	0xbddbbeba	-0.107297376
25	0xbd99df61	-0.07513309
26	0x3e1b81de	0.15186259
27	0x3e0f323e	0.1398401
28	0xbe24c9b9	-0.16092576
29	0xbd181438	-0.037128657
30	0x3d11300f	0.035446223
31	0xbdda1953	-0.106493615
32	0xbe533667	-0.20626222
33	0xbdaed172	-0.08536042
34	0x3d1318cd	0.035912324
35	0xbe5ecbcf	-0.21757434
36	0xbe46396a	-0.19357839
37	0xbe5756b8	-0.21029174
38	0x3e2a2cf2	0.16618708
39	0xbe373f2d	-0.17895193
40	0x3e2c3728	0.16817915
41	0x3d3cee34	0.046125606
42	0xbe442643	-0.1915522
43	0x3d7d6487	0.06186345
44	0x3d68df18	0.056853384
45	0x3e40d810	0.18832421
46	0x3e4e9245	0.20172985
47	0xbe079d51	-0.13243605
48	0xbd781ff0	-0.060577333
49	0xbe4c6894	-0.19961768
50	0x3d184936	0.037179194
51	0x3ded7bb7	0.11595862
52	0xbd9a1196	-0.075228855
53	0xbe3b2a65	-0.18277891
54	0xbdb6dc3e	-0.089287266
55	0x3e00d244	0.1258021
56	0xbe73758d	-0.23775311
57	0xbe822fff	-0.25427243
58	0xbdcff553	-0.10154214
59	0x3c98a2c8	0.018632308
60	0xbe2d4e3a	-0.16924372
61	0x3e4cd01e	0.20001265
62	0x3e2b642c	0.16737431
63	0x3b83272d	0.004002473
64	0x3dfd2d89	0.12362201
65	0xbd2fd13c	-0.04292415
66	0xbdf9586a	-0.12175067
67	0xbd14c826	-0.03632369
68	0xbe40290c	-0.18765658
69	0xbe65d0fa	-0.22443
70	0x3e2ff095	0.17181619
71	0xbe7c51fe	-0.24640653
72	0x3d57bdc3	0.052671205
73	0x3e3232b7	0.17402159
74	0x3e20596d	0.15659113
75	0x3e556d65	0.20842512
76	0x3e237218	0.15961492
77	0xbe40dab0	-0.18833423
78	0xbdc6cac5	-0.09706644
79	0x3e816d04	0.25278485
80	0x3e475082	0.19464305
81	0x3e5bcb79	0.21464337
82	0x3d305306	0.043047927
83	0x3c8cbaba	0.017178882
84	0xbe349a8b	-0.17637078
85	0x3d1383a0	0.0360142
86	0x3ddb6874	0.10713282
87	0x3c82165f	0.015879808
88	0x3d1238df	0.035698768
89	0x3e18d31d	0.14924283
90	0x3c639d08	0.01389242
91	0xbe071f28	-0.13195479
92	0x3d7e66d0	0.06210977
93	0x3da569da	0.0807683
94	0x3c9965ba	0.018725265
95	0xbe70254e	-0.2345173
96	0xbe75d576	-0.2400721
97	0xbbe63037	-0.0070247906
98	0xbdc57b9e	-0.09642719
99	0x3e2e3560	0.17012548
100	0xbd8dbf63	-0.0692127
101	0x3dcefbf6	0.101066515
102	0x3e18f1a0	0.14935923
103	0xbe76a705	-0.2408715
104	0xbe4978a2	-0.19674924
105	0xbdd1c8f4	-0.10243407
106	0xbe6bc36b	-0.23023765
107	0x3ccb4a49	0.024815695
108	0x3ce838ae	0.02834734
109	0x3e25f7a6	0.16207752
110	0xbe42937f	-0.19001578
111	0xbd571f24	-0.052519932
112	0x3e15ce88	0.14629567
113	0xba551fd6	-0.0008130049
114	0xbd66759b	-0.0562645
115	0xbd1a43ea	-0.037662424
116	0x3d9bacf2	0.07601346
117	0x3db2c85d	0.087296225
118	0xbd67e2af	-0.056612667
119	0x3e1191ba	0.14215747
120	0x3da8d3c4	0.08243516
121	0xbb4941f5	-0.003070948
122	0x3db229c6	0.08699374
123	0x3dad8211	0.08472074
124	0x3d85a9f5	0.06526557
125	0xbe2c5f5b	-0.1683325
126	0x3dac7359	0.08420438
127	0xbc2b540e	-0.010457052
128	0x3d777681	0.06041575
129	0x3da45620	0.080242395
130	0x3e6e22d0	0.23255467
131	0x3dae3060	0.085053205
132	0xbd95af69	-0.073088475
133	0xbe27b554	-0.16377765
134	0x3e618ab4	0.22025567
135	0x3e2305f6	0.15920243
136	0x3d4efcfb	0.05053423
137	0x3e6741ef	0.22583745
138	0x3d79a691	0.060949866
139	0xbe33b3d8	-0.17549074
140	0xbdf56266	-0.11981659
141	0xbe39821e	-0.18116042
142	0x3dc90ed3	0.098172806
143	0xbc9e2751	-0.019305857
144	0x3b17b09e	0.0023146044
145	0xbdb43b75	-0.08800403
146	0x3e59b626	0.2126089
147	0x3c332ec0	0.010936439
148	0x3e3d1d60	0.18468237
149	0xbe6f9c4b	-0.23399465
150	0xbd42fdce	-0.04760533
151	0x3deb3900	0.11485481
152	0xbd21e446	-0.03952434
153	0xbe3487a7	-0.17629872
154	0x3e13a606	0.14418802
155	0xbb1bb303	-0.0023757822
156	0xbe059e32	-0.13048628
157	0xbe17437e	-0.1477184
158	0x3de554a6	0.11197786
159	0x3d8dd18b	0.06924733
160	0xbe784695	-0.24245675
161	0x3e78be13	0.24291258
162	0x3d82d8a6	0.06388979
163	0x3de938ca	0.11387785
164	0x3e10e16d	0.14148493
165	0xbe4f6500	-0.20253372
166	0x3e793219	0.24335517
167	0xbbc29d51	-0.0059391637
168	0xbe6e8aaa	-0.23295084
169	0x3e1c3d49	0.15257753
170	0x3e769eb2	0.24083975
171	0x3de13cf3	0.10997953
172	0xbc13d2b9	-0.009022408
173	0xbe1ad23e	-0.15119264
174	0xbe101fab	-0.1407458
175	0x3e1be9a6	0.15225849
176	0xbdd9c3c7	-0.10633045
177	0x3c1c7e20	0.009551555
178	0xbda15235	-0.07877008
179	0x3e147778	0.14498699
180	0x3e7d3e1e	0.24730727
181	0x3e4d4204	0.20044714
182	0xbe159d9f	-0.14610909
183	0x3e23bcf3	0.15990047
184	0x3da5424a	0.08069284
185	0x3ddec813	0.10878005
186	0x3e50396f	0.20334409
187	0xbdc084cc	-0.09400329
188	0xbd4b3c32	-0.049617954
189	0x3e7e43c6	0.24830541
190	0x3d9e047a	0.077156976
191	0x3d68c431	0.056827728
192	0xbe2d50e1	-0.16925384
193	0x3dd60520	0.10450196
194	0x3b80627e	0.003917991
195	0x3e82ea9a	0.25569612
196	0x3cfc2ab3	0.03078208
197	0xbe60d8f3	-0.2195776
198	0xbe11f7b1	-0.14254643
199	0xbe009436	-0.12556538
200	0x3d83c6fb	0.06434437
201	0xbe38e194	-0.18054801
202	0x3e004e0e	0.12529776
203	0xbd0118a6	-0.031517647
204	0xbe64bce6	-0.22337684
205	0xbb880eb1	-0.004152142
206	0xbe322b25	-0.17399271
207	0x3d8637a9	0.06553585
208	0x3e058985	0.13040741
209	0xbe120d85	-0.1426297
210	0x3e14cf0f	0.14532112
211	0xbe2c1ce5	-0.16807897
212	0x3c80ba55	0.01571385
213	0xbd4c436c	-0.049868986
214	0x3ca572a4	0.020196266
215	0x3e3d9df9	0.18517293
216	0x3df9f885	0.122056045
217	0x3e07c016	0.13256869
218	0x3dc5933a	0.09647222
219	0x3e2493b3	0.16071968
220	0x3dac982c	0.08427462
221	0x3cfd3445	0.030908713
222	0x3e6f43df	0.23365735
223	0xbe489e01	-0.19591524
224	0xbd896211	-0.06708158
225	0x3dc6c36b	0.09705242
226	0x3e7c1eb0	0.24621081
227	0xbbf376dd	-0.007429941
228	0xbe6e2043	-0.23254494
229	0xbe0e64c5	-0.13905628
230	0xbe30e315	-0.17274125
231	0xbe45d71b	-0.19320337
232	0x3bb01884	0.0053740162
233	0x3e0ea0d8	0.13928545
234	0x3e8192ac	0.25307214
235	0xbe1e2ec6	-0.1544753
236	0xbd990e4f	-0.07473432
237	0xbd6dac10	-0.05802542
238	0x3de051b8	0.109530866
239	0xbdae0f5c	-0.08499023
240	0xbe548f96	-0.20757899
241	0x3deea9f4	0.1165351
242	0x3d573548	0.052541047
243	0x3dd703c7	0.10498767
244	0x3d3336e7	0.04375353
245	0x3d9655aa	0.07340558
246	0x3d1838fb	0.037163716
247	0xbd710737	-0.05884477
248	0xbe81d490	-0.25357485
249	0x3e78bdda	0.24291173
250	0xbe4e168d	-0.2012579
251	0xbe61523e	-0.22004029
252	0x3be9d881	0.007136405
253	0xbd6f64ff	-0.058445927
254	0x3e5bf19a	0.21478882
255	0xbe1b5077	-0.15167414

weight_hh_l0 f4 [48, 16]
0	0x3d8bd0c0	0.06826925
1	0xbd3c46e0	-0.04596603
2	0x3dce74fe	0.10080908
3	0x3e43fc0f	0.19139121
4	0x3a72c371	0.00092606904
5	0x3c67da93	0.014151233
6	0xbdf9edbf	-0.122035496
7	0xbe6e4512	-0.23268536
8	0xbd475081	-0.04866076
9	0xbe0e8866	-0.1391922
10	0xbe3a2d10	-0.18181252
11	0xbdc38e14	-0.095485836
12	0x3e48edb3	0.19621925
13	0xbe4fea95	-0.2030433
14	0xbe64ca9b	-0.22342913
15	0x3e2c72ca	0.16840664
16	0x3e6e0141	0.23242666
17	0x3c8bdfc9	0.017074483
18	0xbd8c94d8	-0.06864327
19	0xbe156019	-0.1458744
20	0xbe75c7cd	-0.24001999
21	0xbd834415	-0.0640947
22	0xbe6cd0ea	-0.2312657
23	0x3d94ce81	0.0726595
24	0x3e11874d	0.1421177
25	0x3d82bdf3	0.06383886
26	0x3c87f498	0.016596124
27	0x3d55a36c	0.052157804
28	0x3d54278f	0.05179554
29	0xbdfb0f4e	-0.122587785
30	0x3d8dd102	0.06924631
31	0xbd9507ae	-0.072768554
32	0x3df55608	0.119793
33	0x3df4fedd	0.11962674
34	0x3c5f045a	0.013611877
35	0xbe791003	-0.24322514
36	0xbe79df5b	-0.2440161
37	0x3e758ec7	0.23980246
38	0xbe6fdde0	-0.23424482
39	0xbe6ede2e	-0.23326942
40	0x3e6b2213	0.22962217
41	0xbdd0739c	-0.10178301
42	0x3df9a9a8	0.121905625
43	0xbda3cf14	-0.079984814
44	0x3e5f2288	0.21790516
45	0xbccbabf4	-0.024862267
46	0x3c8ea821	0.017414154
47	0x3e67049c	0.22560352
48	0xbe139f9e	-0.14416358
49	0xbe0cb93e	-0.1374254
50	0x3d55bdae	0.052182846
51	0x3dfc621d	0.12323401
52	0xbe772b6c	-0.24137658
53	0x3d671ee6	0.05642595
54	0xbe451cd8	-0.19249284
55	0x3dfd69b6	0.123736784
56	0x3caafa07	0.020871175
57	0xbdfabed0	-0.12243426
58	0x3dd95212	0.10611357
59	0x3e40356a	0.18770376
60	0xbd095ae0	-0.03353393
61	0x3e77bbe1	0.24192764
62	0x3d444c02	0.04792405
63	0xbe5dba07	-0.21652995
64	0xbe80d941	-0.25165752
65	0x3d48b340	0.04899907
66	0xbe605a35	-0.21909411
67	0x3e605e95	0.2191108
68	0xbd619ba7	-0.055080082
69	0x3e60d982	0.21957973
70	0xbd9c88e7	-0.076432995
71	0x3e448bf0	0.19194007
72	0xbe69dd07	-0.22838221
73	0x3c55e773	0.01305567
74	0x3e3c56a9	0.18392433
75	0x3e4ddabf	0.20102976
76	0x3e71d294	0.23615485
77	0x3ddb2607	0.107006125
78	0xbd72d54a	-0.05928544
79	0x3e1d4008	0.15356457
80	0x3dbb19e1	0.091357954
81	0x3e5ccb4e	0.2156193
82	0xbdecfe06	-0.115718886
83	0x3cb65afb	0.02226018
84	0x3e61bf4a	0.22045627
85	0x3def4b48	0.11684281
86	0xbd69edf6	-0.057111703
87	0xbe2a7c30	-0.16648936
88	0xbd675173	-0.05647416
89	0xbd5d0f71	-0.053969804
90	0x3e2a5ac2	0.16636184
91	0xbdd713b0	-0.10501802
92	0xbe4928b1	-0.19644429
93	0xbd5636a4	-0.052298203
94	0xbe549495	-0.20759805
95	0xbdc13686	-0.09434228
96	0x3dc1d293	0.09463992
97	0x3e186404	0.14881903
98	0xbe7a8588	-0.24465
99	0x3def37b2	0.11680545
100	0x3d51716e	0.051133566
101	0x3d244c23	0.040111672
102	0xbc43a7ba	-0.011941845
103	0x3a839f79	0.0010042033
104	0xbe1fd8f3	-0.15610103
105	0xbd6aef14	-0.05735691
106	0x3c415139	0.01179915
107	0xbe4c6dac	-0.19963712
108	0x3e33afe0	0.1754756
109	0x3be801cb	0.007080292
110	0xbe80132c	-0.25014627
111	0x3dade6c6	0.08491282
112	0xbe63bc8b	-0.22239892
113	0xbb96ff09	-0.0046080393
114	0xbe44d584	-0.19222075
115	0x3e7912a8	0.24323523
116	0x3e564484	0.20924574
117	0xbe2f4037	-0.1711434
118	0xbbbb476b	-0.005715301
119	0x3d6d83ea	0.05798713
120	0x3e6ee8a8	0.23330939
121	0xbd9e80dd	-0.077394225
122	0xbcb9e9ea	-0.022694547
123	0xbd46ad93	-0.048505377
124	0xbe492a23	-0.1964498
125	0x3e2bbe3a	0.16771784
126	0x3e72a36d	0.23695154
127	0xbda5958a	-0.08085163
128	0xbdab8dea	-0.08376677
129	0x3e54e5d7	0.20790802
130	0x3e3e3fdf	0.18579052
131	0xbe3759e4	-0.17905384
132	0x3e3ff29f	0.18744896
133	0xbe3d0d50	-0.1846211
134	0x3e5f1545	0.21785457
135	0xbe29e14d	-0.16589852
136	0x3d67af4f	0.05656367
137	0xbe544b42	-0.20731834
138	0x3daa71fe	0.083225235
139	0xbe0e81db	-0.13916723
140	0xbe1b4715	-0.15163834
141	0x3da02c71	0.078209765
142	0x3da1883a	0.07887311
143	0x3d806170	0.06268585
144	0xbe3ce5a7	-0.1844698
145	0xbd4c474d	-0.049872685
146	0x3e64422c	0.22290868
147	0x3db7e59d	0.08979342
148	0xbe32d204	-0.17462927
149	0xbe2e8aac	-0.17045087
150	0x3cc9c353	0.02462927
151	0x3e3c4580	0.18385887
152	0xbda52749	-0.08064134
153	0xbe2efc48	-0.17088425
154	0xbc4074bd	-0.011746583
155	0x3e2e029d	0.16993184
156	0x3e35860d	0.17726918
157	0x3e5512c7	0.20807944
158	0x3dfabad7	0.12242668
159	0x3d8b0229	0.067875214
160	0xbdb385ae	-0.08765732
161	0x3da2818f	0.079348676
162	0x3e763c50	0.24046445
163	0xbd5bf096	-0.053696238
164	0x3e654ec8	0.22393334
165	0x3e2c1cde	0.16807887
166	0xbdfebc05	-0.12438206
167	0x3dd78a68	0.10524446
168	0xbdcedc26	-0.10100584
169	0xbdb4e9ec	-0.088336796
170	0xbcd0d749	-0.025493281
171	0x3ba2e48a	0.0049710916
172	0xbdceed19	-0.101038165
173	0x3e490f41	0.19634725
174	0xbe62bdbf	-0.22142695
175	0xbae877ec	-0.0017735935
176	0xbdcdabf8	-0.10042566
177	0x3d4a6f7f	0.049422737
178	0x3e102ff6	0.14080796
179	0x3e24dbde	0.16099498
180	0x3cd3ef05	0.02587081
181	0x3e628152	0.22119644
182	0xbe0608d5	-0.13089307
183	0x3d863fd9	0.06555147
184	0x3e187626	0.1488882
185	0xba2fbd57	-0.0006703934
186	0x3da16441	0.0788045
187	0xbc94e4ca	-0.018175501
188	0xbda59cb9	-0.08086533
189	0x3e3b526c	0.1829316
190	0x3e026651	0.12734343
191	0xbe624b3c	-0.22099012
192	0xbe3e714d	-0.18597908
193	0xbd9dfd30	-0.07714307
194	0xbe5ed994	-0.21762687
195	0x3c90f1cf	0.017693428
196	0x3df545da	0.11976214
197	0xbdcaeade	-0.099080786
198	0xbdb83551	-0.08994544
199	0x3d7ec849	0.062202726
200	0xb9e8c997	-0.00044400684
201	0xbda13e57	-0.078732185
202	0x3e7d4526	0.2473341
203	0x3e63d80a	0.22250381
204	0x3d85cb93	0.06532969
205	0xbe529369	-0.20564045
206	0x3c2b7d1d	0.010466841
207	0x3da5c38c	0.08093938
208	0x3d870845	0.06593374
209	0xbe4b6e67	-0.19866334
210	0x3e2a7bf1	0.16648842
211	0xbdb9e048	-0.090759814
212	0xbe6afe0e	-0.22948477
213	0xbc81864f	-0.015811114
214	0xbd3b5da8	-0.045743614
215	0xbdb7ec99	-0.08980674
216	0xbe663eee	-0.22484943
217	0x3e46c3fc	0.194107
218	0xbc8ed862	-0.017437164
219	0xbdb391f1	-0.087680705
220	0xbe58a497	-0.21156536
221	0x3dfd7ee5	0.12377719
222	0x3e499323	0.19685034
223	0xbdf28592	-0.11841883
224	0x3cc48d27	0.023993088
225	0xbd9f8407	-0.07788854
226	0xbe37900b	-0.17926042
227	0xbde6a8f8	-0.11262697
228	0x3e25750f	0.16157936
229	0xbc86133c	-0.016366594
230	0x3dec9780	0.11552334
231	0x3d404e0d	0.046949435
232	0x3d0decfc	0.034649834
233	0x3d3becf2	0.045880266
234	0xbd8b7091	-0.0680858
235	0x3d5b46f0	0.05353445
236	0x3e2d6db3	0.16936378
237	0xbd987a21	-0.07445169
238	0x3e3378ae	0.17526504
239	0xbb518d8e	-0.0031975242
240	0x3cc6cdf2	0.024268124
241	0xbd0c4e25	-0.034254212
242	0xbd9805a7	-0.07422953
243	0x3e6409cf	0.22269367
244	0x3d21bffe	0.03948974
245	0xbb9c314c	-0.004766619
246	0x3ccf4a73	0.025304055
247	0x3d872a84	0.06599906
248	0xbd2e2da0	-0.04252398
249	0xbdaf8810	-0.08570874
250	0xbd7d34aa	-0.061817802
251	0xbd5ac71e	-0.05341255
252	0xbe22d544	-0.15901667
253	0x3e6b0dab	0.22954433
254	0x3e2a9d78	0.16661632
255	0xbddc8154	-0.10766855

bias_ih_l0 f4 [48]
0	0xbc270043	-0.0101929335
1	0xbe5e055f	-0.21681736
2	0xbe7c5c8a	-0.24644676
3	0x3d1c7d03	0.038205158
4	0xbe1d16df	-0.15340756
5	0x3e0253b6	0.12727246
6	0x3b1ade53	0.002363105
7	0xbe1d0ae2	-0.15336183
8	0xbd735699	-0.059408758
9	0xbe64f5c5	-0.22359379
10	0xbde40150	-0.11133063
11	0xbcc5a9af	-0.024128763
12	0xbe71e797	-0.23623501
13	0xbe7b3760	-0.24532843
14	0xbde32acf	-0.110921495
15	0x3dd8e653	0.10590806
16	0x3e457bba	0.19285479
17	0xbe7ff503	-0.24995808
18	0x3e5bae09	0.21453108
19	0xbd044366	-0.03229084
20	0x3d7d3519	0.061818216
21	0xbe3fce18	-0.18730962
22	0xbe61d01c	-0.22052044
23	0xbdfde345	-0.12396864
24	0xbcc09fb8	-0.02351366
25	0xbe7485a6	-0.23879108
26	0x3c985121	0.018593373
27	0x3c87685b	0.016529253
28	0xbe82e007	-0.25561544
29	0x3dc35c48	0.095390856
30	0xbd82c8fe	-0.063859925
31	0xbe5be1b6	-0.2147282
32	0xbe25881a	-0.161652
33	0x3e147ed3	0.14501505
34	0xbdea31bb	-0.114352666
35	0xbdb782da	-0.08960505
36	0x3e466d30	0.19377589
37	0xbd8e99b2	-0.06962909
38	0x3d7ac62c	0.061224148
39	0x3d8f929f	0.07010388
40	0x3e1ca3fa	0.15296927
41	0x3e674fd2	0.22589043
42	0x3d15c3ea	0.03656379
43	0x3d5394a8	0.05165544
44	0xbda23f73	-0.07922258
45	0x3e23ff9c	0.16015476
46	0xbd6881d9	-0.056764457
47	0xbd34f31a	-0.044177152

bias_hh_l0 f4 [48]
0	0xbd365c3a	-0.044521548
1	0xbbbdf86d	-0.005797437
2	0x3e624614	0.22097045
3	0x3e6462d8	0.22303331
4	0xbe201396	-0.15632471
5	0xbd8d8de5	-0.0691183
6	0x3e06aec8	0.13152611
7	0x3c54d1ce	0.012989474
8	0xbd8afdb5	-0.06786672
9	0xbdd94272	-0.106083766
10	0x3e093393	0.1339858
11	0x3e40b175	0.18817694
12	0xbe70a314	-0.2349971
13	0x3d1f851d	0.038945306
14	0x3e0032a4	0.12519318
15	0xbd7fafc7	-0.062423494
16	0xbe7ffa18	-0.24997747
17	0xbe7367df	-0.23770092
18	0x3e6827a3	0.2267137
19	0xbe50a1f1	-0.20374276
20	0x3dc7854e	0.09742223
21	0xbcfdab2b	-0.030965408
22	0x3c2a330a	0.010388145
23	0xbd2cc97f	-0.04218435
24	0xbd4a1f77	-0.049346413
25	0xbe3b5ed2	-0.1829789
26	0xbe290e0f	-0.16509269
27	0xbe17eb0f	-0.14835761
28	0xbe7a5b32	-0.24448851
29	0xbddf1379	-0.10892386
30	0xbe6bcd2d	-0.23027487
31	0xbca93172	-0.02065346
32	0x3e3f156a	0.18660513
33	0x3e3795e8	0.17928278
34	0xbdb37368	-0.08762246
35	0xbc4169fb	-0.011805053
36	0x3d8df709	0.06931884
37	0x3e7a9d76	0.24474129
38	0x3e4fe4c7	0.20302115
39	0xbd01a2c7	-0.031649377
40	0x3e22eb42	0.15910056
41	0xbd9bbcfc	-0.07604405
42	0xbda77737	-0.08177035
43	0xbe1f913c	-0.15582746
44	0xbe4fd600	-0.20296478
45	0x3d941135	0.072298445
46	0x3dfc20e9	0.123109646
47	0x3e243596	0.16036066

weight_ih_l0 f4 [48, 36]
0	0xbe7cd405	-0.24690254
1	0x3e002819	0.12515296
2	0xbe2d9624	-0.16951805
3	0xbd9439b4	-0.072375685
4	0xbdf6ceae	-0.1205114
5	0xbe05d76a	-0.13070455
6	0x3e4c86e4	0.19973332
7	0xbdf09fc4	-0.11749223
8	0xbd7c126d	-0.06154101
9	0xbdedafe4	-0.11605814
10	0xbe1021f6	-0.14075455
11	0xbe607191	-0.21918322
12	0x3e13303a	0.14373866
13	0xbe483d60	-0.19554663
14	0xbd6b1b81	-0.057399277
15	0xbe73e472	-0.23817614
16	0x3d96537c	0.07340142
17	0x3e4e8779	0.20168866
18	0x3dc1185a	0.09428473
19	0xbe2bdda1	-0.16783763
20	0xbddb9f60	-0.10723758
21	0xbd7b2e7f	-0.06132364
22	0xbe55c2f6	-0.20875153
23	0x3d9caa1b	0.076496325
24	0xbe278807	-0.16360484
25	0xbc4bf05b	-0.012447442
26	0xbd03d801	-0.03218842
27	0x3e288e79	0.16460599
28	0xbe0495ec	-0.12947816
29	0xbe35b756	-0.17745718
30	0x3dcede5f	0.10101008
31	0x3c91afcc	0.017784022
32	0xbdba8156	-0.091067
33	0xbcb5cead	-0.022193277
34	0xbe3a640c	-0.18202227
35	0x3d94dd01	0.07268716
36	0xbd264550	-0.040593445
37	0xbe1fe577	-0.15614878
38	0x3e20cfab	0.15704219
39	0x3e411fb4	0.1885975
40	0xbd8298b9	-0.06376786
41	0x3e607bf6	0.21922287
42	0x3daddf1d	0.08489821
43	0xbdcacd3b	-0.09902426
44	0xbe30175c	-0.17196411
45	0xbc3d7117	-0.011562607
46	0x3d85874a	0.06519945
47	0x3e090dd5	0.13384183
48	0xbe374fe2	-0.17901567
49	0x3d6fc2b9	0.05853531
50	0xbad092d9	-0.0015912905
51	0x3c4191a7	0.011814511
52	0x3e16549d	0.14680715
53	0xbe16f696	-0.14742503
54	0x3d7383f9	0.05945203
55	0x3e06f040	0.13177586
56	0x3e5a6e18	0.2133106
57	0xbe3a5116	-0.18194994
58	0x3e12fa72	0.1435335
59	0xbe73434b	-0.23756139
60	0xbdcae704	-0.09907344
61	0xbd92c229	-0.07165939
62	0x3b0c814d	0.0021439374
63	0xbdad0f32	-0.08450164
64	0x3cb1f1dc	0.021721773
65	0xbcd44539	-0.025911914
66	0x3e1d7990	0.15378404
67	0xbe501902	-0.2032204
68	0x3e144c84	0.14482313
69	0xbe767026	-0.24066219
70	0x3c94181a	0.018077899
71	0x3dbe6af3	0.09297743
72	0x3e80a299	0.25124052
73	0xbcdee430	-0.027208418
74	0xbe6566f7	-0.22402559
75	0x3cf6d005	0.030128488
76	0xbcdd8731	-0.027042003
77	0x3e0daa54	0.13834506
78	0xbe251c73	-0.16124134
79	0xbe6e5a04	-0.23276526
80	0x3d7d1d53	0.061795544
81	0xbe0dd168	-0.13849413
82	0x3b5290c0	0.0032129735
83	0x3e38c77c	0.18044847
84	0x3d55beb5	0.052183826
85	0x3e17e457	0.14833198
86	0xbd245a0f	-0.04012495
87	0xbe801e97	-0.25023338
88	0xbe606303	-0.2191277
89	0x3de230f4	0.11044493
90	0x3d8bd8b0	0.06828439
91	0x3e204926	0.15652904
92	0x3e675551	0.2259114
93	0xbc60f4d2	-0.013730245
94	0xbe6cc50d	-0.23122044
95	0x3d65fa54	0.056146935
96	0x3e1c09f2	0.15238169
97	0xbd92d80c	-0.07170114
98	0x3e121842	0.14267066
99	0xbaf31c61	-0.0018547886
100	0x3e75e7f0	0.24014258
101	0xbe7c0e25	-0.2461477
102	0xbe498925	-0.19681223
103	0x3e2ac40b	0.16676347
104	0x3d9a003a	0.075195745
105	0x3da66152	0.08124031
106	0xbe32c140	-0.17456532
107	0xbd881ed8	-0.06646508
108	0xbe249bfa	-0.16075125
109	0xbd9256a2	-0.0714543
110	0x3e81d0a7	0.25354502
111	0xbd5dcfcc	-0.05415325
112	0xbe75f120	-0.24017763
113	0x3e66e6e8	0.22549021
114	0xbe0e8163	-0.13916545
115	0x3e673eb2	0.2258251
116	0x3d4b7ba0	0.049678445
117	0x3e2d45c7	0.16921149
118	0xbe3c32c4	-0.1837874
119	0xbe5f21bf	-0.21790217
120	0x3e295aee	0.16538593
121	0x3dc70f6d	0.09719739
122	0xbe32529c	-0.17414325
123	0x3d671876	0.056419812
124	0x3e42bf87	0.19018374
125	0xbdb46dee	-0.0881003
126	0x3cc2a479	0.023760067
127	0x3e54a619	0.20766486
128	0xbe46a00e	-0.19396994
129	0xbdf8b856	-0.12144534
130	0x3e44a9d1	0.19205405
131	0xbdf78e94	-0.120877415
132	0xbe668975	-0.22513373
133	0xbe3d9da3	-0.18517165
134	0xbdcd7b5a	-0.10033293
135	0xbe41355f	-0.18868016
136	0x3e367900	0.17819595
137	0x3d0b2c72	0.033977933
138	0xbe0a3d9d	-0.13500066
139	0xbe35bbf6	-0.17747483
140	0x3e16ec9f	0.14738701
141	0x3c78b93e	0.015180884
142	0x3c9094aa	0.017649014
143	0xbbcc93b8	-0.0062431954
144	0x3b73386d	0.003711249
145	0x3d990769	0.074721165
146	0x3c8b1ae0	0.016980588
147	0xbe42b3ba	-0.19013873
148	0xbdb44223	-0.08801677
149	0xbe29796c	-0.16550225
150	0xbe261ae7	-0.162212
151	0xbe2d3d33	-0.16917877
152	0xbd8570fc	-0.06515691
153	0x3e637766	0.22213516
154	0x3d6d6841	0.057960752
155	0x3d30fce0	0.04320991
156	0xbe0b8135	-0.13623507
157	0xbe538385	-0.2065564
158	0xbdf440af	-0.119264
159	0x3ded6a5d	0.11592553
160	0xbe307159	-0.17230739
161	0x3e054ac5	0.13016804
162	0x3dc95da5	0.098323144
163	0x3dee0688	0.116223395
164	0x3e1c4c3b	0.15263455
165	0x3e7d65d3	0.24745874
166	0x3d29866c	0.04138796
167	0xbdd96634	-0.10615197
168	0x3e261339	0.1621827
169	0x3dacbed8	0.08434838
170	0x3e44f6fa	0.19234839
171	0xbdd65959	-0.104662605
172	0xbe5ddab4	-0.2166546
173	0x3e6665f2	0.22499827
174	0xbd0454a0	-0.032307267
175	0x3ddeabed	0.10872636
176	0x3d531cae	0.051541023
177	0x3da735fd	0.08164594
178	0x3d9979dd	0.07493947
179	0x3d6c570d	0.057700206
180	0x3d1cfc9a	0.038326837
181	0xbe82330f	-0.2542958
182	0xbe0a4b65	-0.13505323
183	0xbdf24763	-0.11830022
184	0xbc1822be	-0.009285627
185	0x3d2e7905	0.042595882
186	0x3d69e7e2	0.057105906
187	0xbd822131	-0.06353987
188	0x3e506eec	0.20354813
189	0xbe77a693	-0.24184637
190	0x3da1216e	0.07867704
191	0xbe24edca	-0.16106334
192	0xbd595dc4	-0.053067937
193	0xbd1b7193	-0.03795011
194	0xbe59bd82	-0.21263698
195	0xbdad51bb	-0.084628545
196	0xbabc14db	-0.0014349477
197	0xbdcc8774	-0.09986773
198	0xbd4c0751	-0.049811665
199	0xbc211f63	-0.009834143
200	0x3dedc2e2	0.116094366
201	0xbe1c762b	-0.15279453
202	0xbd910f0d	-0.07082949
203	0x3e15e891	0.14639498
204	0x3d320a7e	0.043467037
205	0x3df39d2e	0.11895214
206	0x3db621c2	0.088931575
207	0x3e2eded5	0.17077191
208	0x3c981294	0.018563546
209	0x3e6ef4ac	0.23335522
210	0x3e1e508f	0.15460418
211	0x3c340a11	0.010988728
212	0x3e3f0ebe	0.18657967
213	0xbd7d463a	-0.06183455
214	0x3de04c50	0.109520555
215	0x3d961d2c	0.07329783
216	0x3e152782	0.14565852
217	0xbe55a5bb	-0.20864002
218	0x3e6a46d5	0.22878583
219	0xbe2c8a8c	-0.16849726
220	0xbcc27165	-0.023735711
221	0xbd59d31c	-0.053179845
222	0x3e0c6309	0.13709654
223	0x3c272cdb	0.0102035655
224	0x3e0531cc	0.13007277
225	0x3c4d12d0	0.012516692
226	0x3e2de1f6	0.16980729
227	0x3e7c9fcd	0.24670334
228	0xbe5fd5da	-0.21858922
229	0x3d8e3e8f	0.06945526
230	0x3de7da0c	0.11320886
231	0x3e4d93b6	0.20075879
232	0xbe5cac62	-0.21550134
233	0x3b4b4d30	0.003102135
234	0xbd56eef4	-0.052473977
235	0xbe0d403b	-0.13794033
236	0x3daf9126	0.08572607
237	0x3d935b4f	0.0719515
238	0xbd2614f9	-0.040547345
239	0x3c35c3ae	0.011094017
240	0xbe7d800d	-0.24755879
241	0xbcb600dc	-0.022217207
242	0xbe2a205b	-0.16613905
243	0x3e2da7e7	0.16958581
244	0x3db29de4	0.087215215
245	0x3e417c4b	0.1889507
246	0xbd684728	-0.056708485
247	0xbd50f331	-0.051013175
248	0x3ccdf936	0.025143247
249	0x3e11ce6a	0.14238897
250	0x3e376ea0	0.17913294
251	0x3e379674	0.17928487
252	0xbe25718d	-0.16156597
253	0x3db5ba65	0.088734426
254	0x3cef7a87	0.02923323
255	0xbd394ad2	-0.04523737

weight_hh_l0 f4 [48, 16]
0	0x3d847e5d	0.064694144
1	0x3e7bc511	0.24586894
2	0xbb9ade0d	-0.0047261775
3	0x3dd6246b	0.10456165
4	0x3e378bd1	0.1792443
5	0xbe045e9a	-0.12926713
6	0x3d450d47	0.048108365
7	0xbe15a6f3	-0.14614467
8	0xbd88a6dc	-0.06672451
9	0x39cc74a1	0.00038996807
10	0x3e01b9cc	0.12668532
11	0x3b1ae374	0.0023634108
12	0xbe784928	-0.24246657
13	0xbe0d53e8	-0.13801539
14	0x3d4d8371	0.05017418
15	0x3c9c5a88	0.019086137
16	0xbca159e1	-0.019696178
17	0x3d04b0d8	0.032395214
18	0x3e55b35b	0.208692
19	0xbd4f454e	-0.050603203
20	0xbda9453f	-0.08265161
21	0xbe0c70e2	-0.13714936
22	0xbd46642b	-0.04843537
23	0xbe2aa65c	-0.16665024
24	0x3e142c7f	0.14470099
25	0xbd6487a3	-0.055793416
26	0xbe35cdf6	-0.17754349
27	0xbe3a3e56	-0.18187842
28	0xbe355dce	-0.17711565
29	0x3cc63c19	0.024198579
30	0xbcb9b44b	-0.022668978
31	0xbd060e2f	-0.03272837
32	0xbdc81c9f	-0.09771084
33	0x3d9b1d5b	0.075739585
34	0x3e2d6728	0.16933882
35	0xbd950076	-0.072754785
36	0x3de06eca	0.10958631
37	0x3e2c7499	0.16841353
38	0x3cb89f09	0.022536771
39	0x3dc1d5c0	0.09464598
40	0xbded7a9a	-0.1159565
41	0x3d86a93e	0.06575249
42	0x3dc99f8d	0.09844885
43	0xbe3101ab	-0.17285793
44	0xbe6f3e8b	-0.23363702
45	0x3d24563c	0.040121302
46	0xbe2e8e41	-0.17046453
47	0x3dd36edc	0.10323879
48	0xbc969cb6	-0.018385272
49	0xbdd9e8a4	-0.10640076
50	0xbe304e2e	-0.17217323
51	0xbde81b2a	-0.11333306
52	0x3d0b25c2	0.033971556
53	0xbdfbb819	-0.12290973
54	0x3c604c5b	0.01369008
55	0x3d77fff3	0.060546827
56	0xbd963cf1	-0.073358424
57	0xbe30ac8b	-0.1725332
58	0x3d2280b8	0.039673537
59	0x3df274c6	0.11838679
60	0xbe0c032d	-0.13673086
61	0xbe3b2bba	-0.18278399
62	0x3e0d773b	0.13815014
63	0xbd9cfd84	-0.07665542
64	0xbd413b6a	-0.047175802
65	0xbd900f79	-0.07034201
66	0xbe6a4689	-0.2287847
67	0x3d64f4dd	0.055897582
68	0x3d951be3	0.072807096
69	0x3e563eba	0.20922366
70	0xbdec64eb	-0.11542686
71	0xbd53d72e	-0.051718883
72	0x3e176c3e	0.14787385
73	0x3e08b665	0.13350828
74	0x3e06d603	0.13167576
75	0xbdb166d1	-0.08662189
76	0xbc9054f6	-0.017618638
77	0x3e173294	0.14765388
78	0x3da3fcb0	0.08007181
79	0x3ddba8a6	0.107255265
80	0x3e0cc817	0.13748203
81	0xbe37a6be	-0.17934701
82	0xbe297f94	-0.16552573
83	0xbe1dde5c	-0.15416855
84	0x3e173980	0.14768028
85	0xb9d92e48	-0.00041423948
86	0x3c01d5b6	0.007924488
87	0xbd1020a5	-0.035187382
88	0x3d4555d8	0.04817757
89	0x36f38401	7.2573316e-06
90	0x3e0ce54a	0.13759342
91	0x3e05d60f	0.13069938
92	0x3e715f34	0.23571473
93	0x3d138605	0.036016483
94	0xbd9da589	-0.07697589
95	0xbd804176	-0.06262486
96	0x3d6b35c0	0.057424307
97	0xbdadd5ba	-0.08488031
98	0x3e27b9dc	0.16379493
99	0x3d4963f6	0.049167596
100	0xbdd23b77	-0.10265248
101	0xb9bdc0da	-0.00036192575
102	0x3e03ef0c	0.12884158
103	0x3d44f2db	0.048083168
104	0xbe3fd7c4	-0.18734652
105	0x3df2a4a6	0.118478104
106	0x3e416957	0.1888784
107	0xbe342601	-0.17592622
108	0xbc08f764	-0.008359764
109	0xbc9f5aa5	-0.019452402
110	0xbe0985bf	-0.13429926
111	0x3ce0ea77	0.027455552
112	0x3e1803d0	0.14845204
113	0x3c9c3889	0.019069927
114	0x3e82c4ec	0.25540864
115	0xbe355f45	-0.17712124
116	0xbe2ccab1	-0.16874196
117	0xb99b795b	-0.0002965432
118	0xbe2174b4	-0.15767175
119	0xbcc0d1b7	-0.0235375
120	0xbcb2c065	-0.021820256
121	0xbd98a6fd	-0.074537255
122	0x3e4722c5	0.19446857
123	0xbdb8ae14	-0.09017578
124	0x3dd9ab8a	0.106284216
125	0xbd37fa7d	-0.04491662
126	0xbe360845	-0.17776592
127	0xbe06bc30	-0.13157725
128	0xbe2191e3	-0.15778308
129	0x3c651a75	0.013983359
130	0xbcbbe14f	-0.022934584
131	0xbe200849	-0.1562816
132	0x3cb038ac	0.021511398
133	0xbdb1f737	-0.086897306
134	0xbd9c36ca	-0.07627638
135	0x3e27c9c5	0.16385563
136	0x3d73a44f	0.05948287
137	0x3d8f8ebd	0.07009647
138	0x399c8a2e	0.0002985759
139	0x3ca3e33f	0.02000582
140	0xbd348ec7	-0.044081476
141	0x3d9bff94	0.07617107
142	0xb89e15f2	-7.538115e-05
143	0x3e288ba6	0.16459522
144	0xb96fe8ba	-0.00022879514
145	0xbbbe73d3	-0.005812147
146	0x3e2f8744	0.17141443
147	0x3d824918	0.06361598
148	0x3e048380	0.12940788
149	0x392b4b6f	0.00016335932
150	0xbd93c09d	-0.072144724
151	0x3d44910f	0.0479899
152	0x3e7a449e	0.24440238
153	0xbcf9ccef	-0.030493228
154	0x3e3abafc	0.18235391
155	0xbcec9e37	-0.028884036
156	0x3e809f6b	0.25121626
157	0x3e2e16b6	0.17000851
158	0x3e04620c	0.12928027
159	0xbe54310c	-0.20721835
160	0xbd9e4e87	-0.07729822
161	0x3e2d257f	0.16908835
162	0xbdbb7d75	-0.091547884
163	0x3dcd2c8e	0.10018264
164	0xbd0e06e0	-0.034674525
165	0x3d255924	0.040368214
166	0xbde72c9e	-0.11287807
167	0xbe29a2eb	-0.16566055
168	0x3d9b8af5	0.07594863
169	0x3e1c60b3	0.15271263
170	0x3e1dd835	0.15414508
171	0x3da8cb83	0.08241942
172	0xbe5c5787	-0.21517764
173	0xbe30ee0c	-0.17278308
174	0xbd629391	-0.05531651
175	0x3d5b4884	0.053535953
176	0x3e0f3c86	0.13987932
177	0xbd925766	-0.07145576
178	0xbd08d0ad	-0.033402134
179	0x3e470015	0.19433625
180	0x38d37749	0.000100834826
181	0x3cc58230	0.02410993
182	0xbcd62495	-0.02614049
183	0xbdf33e8a	-0.11877163
184	0x3c76c85d	0.015062419
185	0xbe3d436b	-0.18482749
186	0xbc8287b6	-0.015933853
187	0xbdc7224d	-0.09723339
188	0xbe673e57	-0.22582375
189	0xbe7fd60a	-0.24983993
190	0x3e539492	0.20662144
191	0xba46021c	-0.0007553415
192	0x3d828e23	0.06374767
193	0xbe2ba5e7	-0.16762505
194	0x3e572ae9	0.21012463
195	0xbd85ef39	-0.06539769
196	0x3e454244	0.1926356
197	0xbe34f49c	-0.17671436
198	0xb9c754e3	-0.00038019483
199	0xbcdcffe3	-0.026977485
200	0xbd39a5ab	-0.04532401
201	0xbb873871	-0.0041266014
202	0xbae2eb56	-0.0017312567
203	0xb69e64fc	-4.720523e-06
204	0x3e31cd0d	0.17363377
205	0x3e6f3bfe	0.23362729
206	0xbe44418a	-0.19165626
207	0x3ce6430a	0.028108139
208	0xbe023a69	-0.12717594
209	0xbe1af2c0	-0.15131664
210	0xbd89e1d7	-0.06732529
211	0xbe2c0a15	-0.16800721
212	0x3d7697a3	0.060203206
213	0x3e4c2fd0	0.19940114
214	0x3e572d8f	0.21013473
215	0xbcb8c3cf	-0.022554306
216	0xbd95288c	-0.07283124
217	0x3da6983a	0.08134504
218	0x3d83428f	0.064091794
219	0xbdbb5193	-0.091464184
220	0xbe72e9d6	-0.23722014
221	0xbe368c1a	-0.17826882
222	0xbe3656c1	-0.17806531
223	0x3c10aea8	0.008830704
224	0xb8e390a6	-0.00010851146
225	0xbe501a06	-0.20322427
226	0x3e243baf	0.16038392
227	0xbe15b76f	-0.14620756
228	0xbdd4d30d	-0.10391817
229	0x3e58af98	0.21160734
230	0x3db0098b	0.0859557
231	0xbd237a28	-0.03991142
232	0x3db41890	0.087937474
233	0x3e4e0df4	0.2012251
234	0x3e1d38b0	0.15353656
235	0x3e380027	0.17968808
236	0x3e7af2ef	0.24506734
237	0xbd91767f	-0.071026795
238	0x3d917de4	0.0710409
239	0x3cd6032d	0.026124561
240	0xb929d0b8	-0.0001619485
241	0x3e3f2ed0	0.18670201
242	0xbe5a3afa	-0.2131156
243	0xbd8134a7	-0.06308871
244	0xb9d0267e	-0.0003970153
245	0x3cd5d705	0.026103506
246	0xbddfe4fa	-0.10932346
247	0x3dafa959	0.085772224
248	0xbe08622a	-0.13318697
249	0xbdbbb07b	-0.0916452
250	0x3dba643e	0.09101151
251	0x3e37ca1a	0.1794819
252	0xbd6448db	-0.055733543
253	0x3dab7ca2	0.08373381
254	0x3e4a68db	0.19766562
255	0x3d10b779	0.035331223

bias_ih_l0 f4 [48]
0	0x3dcdcd07	0.100488715
1	0xbe4d92ee	-0.2007558
2	0x3bff8cb3	0.007798755
3	0x3e5fbe8c	0.21850032
4	0x3e08510b	0.13312165
5	0x3e3c176b	0.18368308
6	0xbd509ec1	-0.05093265
7	0x3ddd0ad8	0.10793084
8	0x3c97e031	0.01853952
9	0x3dffef9b	0.12496873
10	0x3e224158	0.15845239
11	0x3de9dd9f	0.11419224
12	0x3e084664	0.13308102
13	0xbe57aefe	-0.21062848
14	0x3cff506f	0.031166283
15	0x3e0f7418	0.1400913
16	0x3e01aade	0.12662837
17	0xbd54c258	-0.051943153
18	0x3d58d1b6	0.05293437
19	0xbdecdbc6	-0.11565356
20	0x3e41ab19	0.18912925
21	0xbdbef512	-0.09324087
22	0x3d8087f4	0.06275931
23	0xbe2ed371	-0.17072846
24	0x3b0ef62a	0.0021814206
25	0x3e72f62b	0.23726718
26	0x3dc5e2f4	0.096624285
27	0x3d89477c	0.06703088
28	0xbc5fede5	-0.013667558
29	0x3d221ceb	0.03957836
30	0x3e57d746	0.21078214
31	0xbe1f8ed6	-0.15581831
32	0x3dd8bbee	0.1058272
33	0xbe2d3f42	-0.16918662
34	0x3e792726	0.2433134
35	0xbe4f5bd1	-0.20249869
36	0xbde2696c	-0.11055264
37	0xbe3abfe4	-0.18237263
38	0xbe0e4e2a	-0.13897005
39	0xbe3a31d7	-0.18183075
40	0x3cc62557	0.024187727
41	0xbdec6efd	-0.11544607
42	0xbe0a97ec	-0.13534516
43	0x3e5f27ce	0.21792528
44	0x3cb0e94c	0.02159562
45	0xbe56df9a	-0.20983735
46	0xbe602f8b	-0.21893136
47	0x3dfec09d	0.12439082

bias_hh_l0 f4 [48]
0	0xbd9809f3	-0.07423773
1	0x3e2cec5f	0.16887043
2	0xbd87ddcc	-0.06634101
3	0x3e6fafdf	0.23406933
4	0x3dd42c56	0.10360019
5	0x3e63ecb3	0.22258262
6	0x3e0e1f74	0.13879186
7	0xbd20cb37	-0.0392563
8	0x3e5faa35	0.21842273
9	0xbc38dd02	-0.011283161
10	0x3d6daed4	0.058028057
11	0x3e34c429	0.17652954
12	0x3d97a084	0.07403663
13	0xbe1558dc	-0.14584678
14	0xbd3acd65	-0.045606036
15	0x3de7ecdf	0.113244765
16	0xbdc46b76	-0.09590809
17	0xbd85a0af	-0.065247886
18	0x3da5508c	0.08072004
19	0xbe0ccdd8	-0.13750398
20	0xbe17217c	-0.14758867
21	0xbd97db7d	-0.07414911
22	0xbe6c74d4	-0.23091441
23	0x3d2460a9	0.040131245
24	0xbe4acecb	-0.19805448
25	0x3d122c66	0.035686873
26	0xbd979025	-0.0740054
27	0xbe5fccfd	-0.2185554
28	0x3cdadbe8	0.026716188
29	0x3e4eddf3	0.20201854
30	0xbd786727	-0.06064525
31	0xbe628e4e	-0.22124597
32	0x3e765201	0.2405472
33	0x3e51f10e	0.20502111
34	0x3e1e7dc4	0.15477663
35	0x3d8db011	0.069183476
36	0x3e4738fe	0.19455335
37	0xbd2f1a9b	-0.042749982
38	0x3ddd2560	0.10798144
39	0x3e5f1bca	0.21787944
40	0xbdd23e7e	-0.10265826
41	0xbe31917c	-0.17340654
42	0xbe2da416	-0.16957125
43	0x3a605b57	0.00085585326
44	0xbe517003	-0.20452885
45	0xbe25644d	-0.16151543
46	0x3c6ba88e	0.014383448
47	0xbd5142a4	-0.051088944

weight_ih_l0 f4 [3, 11]
0	0x3f7f8357	0.99809784
1	0xbf6c308f	-0.92261595
2	0xbebcf3a5	-0.36904636
3	0xbeb3afc7	-0.35095045
4	0x3f4cc8c8	0.7999387
5	0x3f20a025	0.6274436
6	0x3f07b957	0.5301718
7	0x3f38c6a3	0.72178096
8	0x3e862be8	0.26205373
9	0x3f167b7b	0.58782166
10	0xbf562ecd	-0.8366516
11	0x3f62304b	0.8835494
12	0x3ea2db2e	0.31807846
13	0xbf350068	-0.70703745
14	0xbf74e9d6	-0.95669305
15	0xbf5cd39d	-0.86260396
16	0xbc5221de	-0.012825457
17	0x3f07a8e6	0.52992094
18	0xbeedcd89	-0.46445873
19	0x3efb2e41	0.49058726
20	0xbf1bf045	-0.609135
21	0x3e015b34	0.12632447
22	0xbf5db19f	-0.86599153
23	0xbed6b2d2	-0.41933304
24	0xbea6e21f	-0.32594392
25	0xbe268e6d	-0.16265269
26	0x3eef4a3a	0.46736318
27	0x3eae0a5e	0.33992285
28	0xbf114077	-0.5673899
29	0xbf7879f1	-0.9706107
30	0xbee35af3	-0.44405326
31	0xbf5774c7	-0.84162563
32	0xbf688b8b	-0.90837926

weight_hh_l0 f4 [3, 1]
0	0xbf0bffd8	-0.5468726
1	0xbe118d41	-0.1421404
2	0xbf5cc1ab	-0.86233014

bias_ih_l0 f4 [3]
0	0xbf055c26	-0.5209373
1	0xbd6c4c77	-0.05769011
2	0x3f38fe67	0.7226319

bias_hh_l0 f4 [3]
0	0xbf785790	-0.9700861
1	0xbeedddbd	-0.46458235
2	0x3eb2536f	0.3482928

weight f4 [1, 16]
0	0xbe4f5059	-0.20245494
1	0xbe057977	-0.13034616
2	0x3e5a606e	0.21325848
3	0xbc880678	-0.016604647
4	0x3db61a22	0.08891703
5	0x3ca8619e	0.02055436
6	0x3e79888b	0.24368493
7	0xbda89db3	-0.08233204
8	0xbdb449be	-0.08803128
9	0x3da851eb	0.082187496
10	0xbe484f39	-0.19561471
11	0xbe39a928	-0.18130934
12	0x3d673a92	0.05645234
13	0x3da35679	0.07975478
14	0x3e5cc1d0	0.21558309
15	0x3e4521bb	0.19251148

weight f4 [680, 17]
0	0xbe3722b0	-0.17884326
1	0xbe531563	-0.20613627
2	0xbe28b577	-0.16475473
3	0xbdd30bda	-0.10304995
4	0x3e3b1789	0.18270697
5	0xbc9db195	-0.019249717
6	0x3e03bc77	0.12864862
7	0xbe67287c	-0.22574037
8	0x3e4f7652	0.2025998
9	0x3e45ddc8	0.19322884
10	0xbe63806d	-0.2221696
11	0x3e7958d2	0.24350289
12	0xbe671b4f	-0.22569011
13	0x3e6e0b5f	0.23246525
14	0x3dd33263	0.10312345
15	0xbd73ec01	-0.059551243
16	0x3e1cab5a	0.1529974
17	0xbde8a163	-0.11358907
18	0x3e01d304	0.12678152
19	0x3d18456e	0.03717559
20	0xbe0f415c	-0.13989776
21	0xb807d543	-3.2385124e-05
22	0xbc341c7d	-0.01099312
23	0xbbc8796a	-0.0061179893
24	0xbdac2771	-0.0840596
25	0xb9980762	-0.000289972
26	0x3d9bac32	0.07601203
27	0xbe42d922	-0.19028142
28	0x3a3d7994	0.00072278944
29	0xbd882e8b	-0.06649502
30	0x3cbb415c	0.022858314
31	0x3e1391a7	0.1441103
32	0xbd39617c	-0.045258984
33	0xbd661b7a	-0.056178547
34	0x3da0cbf7	0.07851403
35	0xbe52948d	-0.2056448
36	0x3c45cbe4	0.012072537
37	0xbdc742ad	-0.09729514
38	0xbc1547ab	-0.009111325
39	0x3de48bfc	0.111595124
40	0xbc2c0466	-0.010499096
41	0x3ca60d39	0.020269977
42	0x3e45b45a	0.1930708
43	0xbca97f56	-0.020690601
44	0xbe54f85d	-0.20797868
45	0x3e48a22b	0.19593112
46	0x3e0fae86	0.14031419
47	0x3d11b847	0.03557613
48	0x3dd8a419	0.10578174
49	0xbdd2f30f	-0.10300266
50	0xbd7add0f	-0.061245974
51	0xbca63f92	-0.020293985
52	0xbe1b97d9	-0.15194644
53	0xbe321dbc	-0.17394155
54	0xbe13779d	-0.14401098
55	0x3c79a6ce	0.015237523
56	0x3e433dc3	0.19066529
57	0x3df705bf	0.12061643
58	0x3c88e84c	0.01671233
59	0x3e17fac1	0.14841749
60	0x3d348a33	0.04407711
61	0x3e262c38	0.16227806
62	0xbdf07068	-0.1174019
63	0xbdde68ed	-0.10859857
64	0x3d8ebdf2	0.06969823
65	0xbd995357	-0.07486599
66	0x3816b23e	3.5928788e-05
67	0x3d561b91	0.052272383
68	0xbe5b2986	-0.21402559
69	0xbd847d7c	-0.06469247
70	0xbcb6bdc0	-0.022307277
71	0x3da74c36	0.08168833
72	0xbdba92c3	-0.09110024
73	0xbd509c85	-0.05093052
74	0xbe2baa79	-0.16764249
75	0x3ccc9055	0.024971167
76	0xbc9deaa7	-0.01927693
77	0x3d92eaf4	0.0717372
78	0xbe701344	-0.23444849
79	0x3e23cddc	0.15996498
80	0x3cd07210	0.025445014
81	0xbc80ba03	-0.015713697
82	0x3c281aeb	0.010260324
83	0x3de0e47a	0.109810784
84	0xbda4c712	-0.08045782
85	0xbdad7985	-0.08470444
86	0xbe6ba533	-0.23012237
87	0xbdc1e28a	-0.09467037
88	0xbdd283f6	-0.10279076
89	0xbe61c35d	-0.22047181
90	0x3d1a40e2	0.037659533
91	0x3e5fc2e6	0.21851692
92	0x3e6ca693	0.23110418
93	0xbd4d3835	-0.05010243
94	0x3e56069c	0.20900959
95	0xbe03161d	-0.12801404
96	0xbe085cf2	-0.13316706
97	0x3d76a581	0.06021643
98	0x3e6f7507	0.23384486
99	0xbe5e2f8c	-0.21697825
100	0xbe5a9555	-0.21346028
101	0x3e07a294	0.13245612
102	0xbe6e4959	-0.23270167
103	0xbdea9e0d	-0.11455927
104	0x3db3dd8c	0.08782491
105	0xbd864cd7	-0.06557625
106	0x3e2f870d	0.17141362
107	0xbe1de07d	-0.15417667
108	0x3d97315d	0.07382462
109	0xbd3998b4	-0.045311645
110	0x3e3896a2	0.18026212
111	0xbe55bc2c	-0.20872563
112	0x3e324aba	0.17411318
113	0xbdfe3e96	-0.12414281
114	0x3e08dbd1	0.13365103
115	0xbd7b6f39	-0.061385367
116	0x3d62da8c	0.055384204
117	0x3dce24cf	0.100656144
118	0xbe2ff4c8	-0.1718322
119	0x3e38407c	0.17993349
120	0xbe018c44	-0.12651163
121	0x3e2a3bcc	0.16624373
122	0xbd822504	-0.063547164
123	0x3e3f9345	0.18708523
124	0xbe1ee0b6	-0.15515408
125	0xbe06bb6f	-0.13157438
126	0x3e1dcb6a	0.15409628
127	0xbd23e1f8	-0.040010422
128	0xbe31d7a2	-0.17367414
129	0xbe4edd38	-0.20201576
130	0x3e2df588	0.16988194
131	0x3de04150	0.10949957
132	0x3e1ec654	0.15505344
133	0x3df35b44	0.11882642
134	0x3e564aa1	0.20926906
135	0x3e5d8f31	0.21636654
136	0x3e0b6371	0.13612153
137	0xbe1a7532	-0.15083769
138	0x3cea5fc2	0.028610114
139	0xbe3feeae	-0.18743393
140	0xbcd99855	-0.026561895
141	0x3d4c97c4	0.049949422
142	0xbd28320c	-0.041063353
143	0xbe55f079	-0.20892514
144	0x3cf5e27f	0.030015228
145	0xbdb5d621	-0.088787325
146	0xbe444059	-0.19165172
147	0x3e704eea	0.23467603
148	0x3e4b9a6d	0.19883128
149	0x3e336a8d	0.17521115
150	0x3e0c82fe	0.13721845
151	0x3ce810d5	0.028328339
152	0xbe68e79f	-0.22744606
153	0xbe4a0af9	-0.19730748
154	0x3c72bda7	0.014815724
155	0x3d48798d	0.048944045
156	0x3e4f22c1	0.20228101
157	0xbe730112	-0.23730877
158	0xbd5cbc2d	-0.053890396
159	0x3e34d4ce	0.17659304
160	0x3d69d254	0.05708535
161	0xbe5ed5e9	-0.21761288
162	0x3cdbf737	0.02685128
163	0xbdb90da5	-0.090358056
164	0x3e20d9d9	0.15708102
165	0x3db633da	0.08896609
166	0x3e6002fa	0.21876135
167	0xbe621d45	-0.22081478
168	0xbc722ac1	-0.014780701
169	0x3e0dec22	0.13859609
170	0x3dd004f5	0.101571955
171	0xbe0d4d0a	-0.1379892
172	0xbe0dde99	-0.13854446
173	0xbe6c726e	-0.23090526
174	0x3dabec86	0.08394723
175	0x3e63c34e	0.22242472
176	0xbe66a7dd	-0.22524972
177	0x3d1c185e	0.038109176
178	0xbda6236c	-0.08112225
179	0xbd728ce4	-0.059216395
180	0x3db1c77d	0.086806275
181	0x3e3adbe1	0.1824794
182	0x3e3a41c0	0.18189144
183	0xbe59a316	-0.21253619
184	0xbd998ada	-0.07497187
185	0x3dab9cab	0.083794914
186	0xbe29c827	-0.16580258
187	0x3e222148	0.15833008
188	0x3e71a21a	0.23596993
189	0x3e57a6f5	0.21059783
190	0x3d4247da	0.047431804
191	0x3e1e76b1	0.15474965
192	0xbda1edfa	-0.079067186
193	0xbe0bed4b	-0.13664739
194	0xbd0d39cc	-0.034478948
195	0x3dcf7688	0.1013003
196	0x3db9791c	0.09056303
197	0xbe701604	-0.23445898
198	0x3d930dd1	0.0718037
199	0xbe5c5131	-0.21515347
200	0xbe7370f3	-0.23773555
201	0x3e1585f8	0.14601886
202	0x3e591534	0.21199495
203	0xbe138ccd	-0.1440918
204	0x3d9e20eb	0.07721122
205	0xbe0fefee	-0.1405637
206	0x3cb3a96b	0.02193137
207	0xbe3b8e20	-0.18315935
208	0xbc33a184	-0.010963801
209	0x3dbb32ff	0.09140586
210	0x3dbc56b2	0.09196223
211	0x3e75120a	0.23932663
212	0x3de043ba	0.10950418
213	0xbe0d4248	-0.13794816
214	0x3d80786b	0.06272968
215	0x3db3f04d	0.08786068
216	0x3dc47739	0.095930524
217	0x3d23b7d0	0.03997022
218	0xbe1277b2	-0.14303473
219	0xbd413926	-0.04717364
220	0xbe7678bc	-0.24069494
221	0x3da8ecf2	0.08248319
222	0x3e0e1b14	0.13877517
223	0x3e20b3ca	0.15693584
224	0xbe0f336c	-0.1398446
225	0x3db9b9ec	0.09068665
226	0x3e3c9d41	0.18419363
227	0x3e6ec06a	0.23315588
228	0x3d8ec9c1	0.06972075
229	0x3e6a084b	0.22854726
230	0x3d7a83e0	0.061160922
231	0xbc8dff22	-0.01733357
232	0xbdec0c81	-0.115258224
233	0x3e483353	0.19550829
234	0x3d8a9712	0.067670956
235	0xbe44ba5d	-0.19211717
236	0x3c482685	0.012216215
237	0xbe462ffd	-0.19354244
238	0x3d79766b	0.060903948
239	0xbe319b13	-0.17344312
240	0xbe2b84c9	-0.16749872
241	0x3d829cb6	0.063775465
242	0x3b35d56a	0.0027745613
243	0xbda26bb0	-0.07930696
244	0x3e4581ee	0.19287845
245	0xbc87e650	-0.016589314
246	0xbe71cbbd	-0.23612876
247	0xbda5f034	-0.08102456
248	0x3df70e53	0.12063279
249	0x3d8a6ece	0.067594156
250	0x3df43ed5	0.11926047
251	0x3deae7b4	0.11469975
252	0x3dfd92b0	0.12381494
253	0x3e60b5cf	0.21944354
254	0x3e348eb2	0.17632559
255	0x3dd70689	0.10499293

bias f4 [680]
0	0x3d8a9ca2	0.067681566
1	0xbe12030a	-0.14258972
2	0x3c1fcd05	0.00975347
3	0xbb94c972	-0.0045406157
4	0x3d4142d6	0.04718288
5	0x3e333a47	0.175027
6	0xbe6349e3	-0.22196154
7	0x3d2fcae2	0.042918094
8	0x3d267bde	0.040645473
9	0xbd2db1c2	-0.04240585
10	0xbe0a29d1	-0.13492514
11	0x3e37fcc2	0.17967513
12	0xbe3adde5	-0.18248709
13	0xbe795543	-0.24348931
14	0x3c9becb5	0.01903377
15	0x3e3a4b00	0.18192673
16	0xbe464f62	-0.1936622
17	0x3e226641	0.1585932
18	0xbdf3f966	-0.11912803
19	0x3c7c6bd6	0.0154065695
20	0x3def1e17	0.11675661
21	0x3e160791	0.14651324
22	0xbe016579	-0.12636365
23	0xbe004f81	-0.12530328
24	0x3cae4b95	0.021276275
25	0xbe24b587	-0.16084872
26	0xbbd83135	-0.006597663
27	0x3e63213e	0.2218065
28	0x3d78f199	0.06077728
29	0x3dba8129	0.091066666
30	0x3e16a210	0.1471026
31	0xbdb73856	-0.08946292
32	0x3b636435	0.003469718
33	0x3e72ab63	0.23698191
34	0xbddce54d	-0.10785923
35	0x3e226526	0.15858898
36	0xbdac5ead	-0.084164955
37	0xbd9b77a5	-0.0759118
38	0xbd2a3afd	-0.04156016
39	0x3e5319cc	0.2061531
40	0x3d4b27bb	0.049598437
41	0x3e57aae6	0.21061286
42	0x3e344f5a	0.17608395
43	0xbd2aaca4	-0.04166855
44	0x3e4baaba	0.19889346
45	0xbe422453	-0.18959169
46	0xbe307497	-0.17231975
47	0x3e215c8d	0.15757962
48	0xbe013577	-0.12618051
49	0x3e116fac	0.14202756
50	0xbbb81c57	-0.0056186127
51	0xbdc7e737	-0.097608976
52	0xbe267529	-0.1625563
53	0xbca369ab	-0.019947847
54	0x3df2c9f7	0.11854928
55	0xbd405605	-0.046957035
56	0x3e6ae0a8	0.22937262
57	0x3daa058c	0.08301839
58	0xbe1bd30f	-0.15217231
59	0x3d6a32cc	0.05717735
60	0x3e2e9262	0.17048028
61	0x3e56c4f7	0.20973574
62	0xbe4023a6	-0.18763599
63	0x3c50ffa4	0.012756262
64	0x3dd49792	0.10380472
65	0xbb6434af	-0.003482144
66	0xbe25cba6	-0.16190967
67	0x3e0fde04	0.14049536
68	0xbdc225e6	-0.09479885
69	0x3d47df95	0.04879721
70	0xb732500a	-1.0628262e-05
71	0x3cb1cb67	0.021703435
72	0xbdb2e72d	-0.087354995
73	0x3d81ab2c	0.063314766
74	0xbe57bf4f	-0.21069072
75	0xbe16990e	-0.14706823
76	0x3dc8f0d7	0.098115616
77	0xbe379892	-0.17929295
78	0x3d41fb6d	0.04735892
79	0xbe2b4928	-0.16727126
80	0x3e2f7e05	0.17137916
81	0xbe2866a1	-0.164454
82	0xbd41258b	-0.047154944
83	0xbde0e211	-0.10980619
84	0xbe166a25	-0.14688928
85	0x3d7a861b	0.06116305
86	0xbdee0bdb	-0.11623355
87	0x3ddd36f0	0.10801494
88	0x3d4187dd	0.04724871
89	0xba756d37	-0.00093622826
90	0x3e176b83	0.14787106
91	0x3e54a737	0.20766912
92	0xbe374fbd	-0.17901511
93	0x3e6b5f48	0.22985566
94	0xbe26c11c	-0.16284603
95	0xbe0c1d44	-0.13683039
96	0xbd8ceca3	-0.06881072
97	0x3d192cbe	0.037396185
98	0xbc24c411	-0.0100565115
99	0xbc9d1f6b	-0.01918002
100	0x3e279e1c	0.16368908
101	0xbe01c21e	-0.12671706
102	0x3d5b4bbe	0.05353903
103	0x38b3ba3e	8.5700754e-05
104	0xbdee0241	-0.11621524
105	0xbda4a018	-0.08038348
106	0x3e267741	0.1625643
107	0xbde5ec27	-0.11226683
108	0xbe0e93e6	-0.13923606
109	0x3daa45b7	0.08314078
110	0x3e484e0b	0.19561021
111	0x3dd5e250	0.10443556
112	0x3dbf500e	0.09341441
113	0x3de6b88d	0.11265669
114	0x3d582d44	0.052777544
115	0xbddea9b6	-0.108722135
116	0x3b6df1a8	0.0036307368
117	0xbcf66ded	-0.030081714
118	0xbe11bf16	-0.1423305
119	0x3e56f47f	0.20991705
120	0xbd652632	-0.05594463
121	0x3c8476ce	0.016169932
122	0xbddeed6d	-0.10885129
123	0xbd2c4cf5	-0.04206558
124	0xbded2c6c	-0.115807384
125	0xbe3f4f6f	-0.18682645
126	0xbd941abd	-0.072316624
127	0xbd78859c	-0.060674295
128	0xbcad8de3	-0.02118582
129	0xbbd7aabe	-0.0065816334
130	0xbe0107ff	-0.12600707
131	0xbd2d0b5c	-0.04224716
132	0x3db8f529	0.090311356
133	0xbae04597	-0.0017110583
134	0x3e285c29	0.16441406
135	0xba5b20d9	-0.00083590817
136	0xbd851e51	-0.06499923
137	0xbd9067b3	-0.07051029
138	0x3d2ad8ac	0.04171054
139	0xbc88c7bd	-0.016696805
140	0x3e75c409	0.24000563
141	0x3b76504c	0.0037584482
142	0x3cd719ce	0.026257422
143	0xbe375e24	-0.17907006
144	0x3ccc0c9b	0.024908355
145	0xbdc27a45	-0.09495977
146	0xbd528b0a	-0.05140213
147	0x388be6a8	6.6709996e-05
148	0xbd07de19	-0.033170793
149	0xbe18c623	-0.14919333
150	0x3e6812f9	0.22663487
151	0xbe48df19	-0.19616355
152	0xbd97c173	-0.074099444
153	0xbc353412	-0.011059778
154	0x3d0e94ac	0.034809753
155	0xbe03e29d	-0.12879415
156	0xbd2ced53	-0.042218518
157	0x3d9dc9c5	0.077045
158	0x3d49e276	0.049288236
159	0x3e51ca09	0.20487227
160	0x3cf34675	0.029696682
161	0x3ca0bf46	0.019622456
162	0x3dde3dff	0.108516686
163	0x3d1fa4f3	0.038975667
164	0x3e5130dd	0.20428796
165	0xbe3c6d48	-0.18401062
166	0x3e77cc50	0.24199033
167	0xbe10b085	-0.14129837
168	0xbe0b8fdc	-0.13629097
169	0x3e538276	0.20655236
170	0x3dbcff6e	0.09228407
171	0xbe1f86e0	-0.15578794
172	0x3c9a46bd	0.018832559
173	0xbdf51fc2	-0.11968948
174	0x3d4b1f19	0.049590204
175	0xbde322a6	-0.11090593
176	0xbce09de8	-0.027419046
177	0x3d59373f	0.053031202
178	0x3d4a49eb	0.0493869
179	0x3cb71bb5	0.022352079
180	0x3d634cc7	0.055493142
181	0x3e6326ae	0.22182724
182	0x3d9c7be5	0.076408185
183	0xbdbd9458	-0.0925681
184	0xbb7380d3	-0.0037155643
185	0x3cbfb1c7	0.0234002
186	0x3e1bb39d	0.15205236
187	0xbd8c493a	-0.06849904
188	0x3e509ee9	0.2037312
189	0x3dc89153	0.097933434
190	0xbe4109ae	-0.18851349
191	0x3d35a968	0.04435101
192	0xbe28db11	-0.16489817
193	0x3b492114	0.0030689882
194	0x3d9730db	0.07382365
195	0x3bcb37a8	0.006201703
196	0xbdaffa5d	-0.08592675
197	0x3e5ea634	0.21743089
198	0x3b8ea8fd	0.004353641
199	0x3bdd05ee	0.0067450916
200	0x3e04927f	0.12946509
201	0x3e560c9d	0.20903249
202	0xbd32fa73	-0.04369588
203	0x3e4273cc	0.18989486
204	0xbe4161b2	-0.18884924
205	0x3e228aaf	0.15873216
206	0x3e35b965	0.17746504
207	0xbdbc5838	-0.09196514
208	0xbb6c1f56	-0.003602942
209	0x3d127117	0.035752382
210	0xbd2bb5a2	-0.041921265
211	0xbd70ebe6	-0.05881872
212	0x3daca90e	0.08430682
213	0x3e323cc9	0.17406
214	0xbdda217f	-0.1065092
215	0xbd86702f	-0.06564366
216	0x3c1af2d6	0.009457311
217	0x3e014a9e	0.1262612
218	0x3bd7e9d5	0.0065891542
219	0x3e703b9f	0.23460244
220	0xbe107339	-0.14106454
221	0xbe2e88d8	-0.17044389
222	0xbe016fd0	-0.1264031
223	0x3e46c289	0.19410147
224	0xbe0dd145	-0.13849361
225	0x3e3fc361	0.18726875
226	0xbdfd580b	-0.123703085
227	0xbb9e9c84	-0.0048404355
228	0xbe57c0ea	-0.21069685
229	0xbd4d35c2	-0.050100096
230	0x3d91adaa	0.07113202
231	0xbe05d550	-0.13069654
232	0xbe1c453f	-0.1526079
233	0xbd41cb8a	-0.04731325
234	0x3e2a487b	0.16629212
235	0xbd78914c	-0.06068544
236	0x3e5a1a19	0.21299018
237	0x3e308068	0.17236483
238	0xbe4b5bb3	-0.19859199
239	0x3d0a7a70	0.03380817
240	0x3cd69663	0.026194757
241	0x3de7ca5f	0.11317896
242	0xbd93fbaf	-0.07225739
243	0x3e799050	0.24371457
244	0x3e217c0b	0.15769975
245	0xbdbd4956	-0.09242503
246	0xbca329df	-0.019917427
247	0x3e1388a0	0.14407587
248	0xbccb7a76	-0.024838667
249	0xbe1736c2	-0.14766982
250	0x3e0b537f	0.1360607
251	0x3cd38be4	0.025823541
252	0xbd5aa611	-0.05338103
253	0xbddd8b52	-0.10817589
254	0x3e2c615b	0.16834013
255	0x3d905218	0.07046908
