estimators/knet/single_obs/p_KalmanNetNN_lossMSE_ep100_train4000_val1000_test10000_lr1e-03_wd1e-03_data_sr1e-01_q1e-04_r1e+00_j5_train[200,250]_val[40,250]_test[40,250].pt (torch, 473813 bytes, 123 tensors)

_initial_state f4 [4]
0.0 1.0 1.0 0.0
00000000: 0000 0000 0000 803f 0000 803f 0000 0000

_initial_covariance f4 [4, 4]
0.0 0.0 0.0 0.0 0.0 0.0 0.0 0.0
0.0 0.0 0.0 0.0 0.0 0.0 0.0 0.0
00000000: 0000 0000 0000 0000 0000 0000 0000 0000
00000010: 0000 0000 0000 0000 0000 0000 0000 0000
00000020: 0000 0000 0000 0000 0000 0000 0000 0000
00000030: 0000 0000 0000 0000 0000 0000 0000 0000

weight_ih_l0 f4 [48, 20]
0.052637614 0.16118039 -0.028697254 0.18129735 0.18863533 -0.20294014 -0.05242807 0.20027247
0.036004134 0.24271034 -0.21734 -0.1169213 0.12807627 0.24481826 -0.23336373 -0.01086497
0.032694492 0.16544224 -0.015028842 0.107259296 0.18063763 -0.03781307 -0.1977649 -0.013555735
-0.16829222 -0.036320925 0.03217262 -0.17604385 -0.10093935 -0.21749553 -0.18385498 -0.077867694
-0.21394254 0.060416047 0.09209935 -0.02178352 0.012494869 0.018386371 0.19484429 -0.18286228
-0.2198886 -0.13484877 -0.14770201 0.2480388 -0.14079367 0.1428982 -0.09338405 -0.052805424
0.11455551 0.16079141 0.09687986 -0.11919838 -0.23362237 -0.1203836 0.12769392 0.019168805
0.08054729 -0.23292205 -0.040864374 -0.0048441715 0.1450548 0.14204133 -0.20426254 -0.18510023
0.19369037 -0.17959437 -0.23544107 0.09552379 -0.16037124 0.1741839 0.14287628 0.048930623
-0.18796852 -0.21013862 -0.055792976 -0.07469602 0.11923588 -0.13720447 -0.17647567 -0.13168412
-0.20996001 -0.18647167 0.2276687 0.16565931 -0.16900732 0.018525044 -0.19613376 0.063756555
-0.021025807 -0.01795942 0.19834927 -0.2342108 -0.0894709 0.034620702 -0.22509794 0.026592473
0.01935621 0.006004626 0.08768359 0.06509548 0.19953574 -0.0715275 -0.22600906 0.17789282
-0.00020498049 -0.14763913 0.24886315 -0.06850433 -0.03568878 -0.020229127 -0.016311122 -0.20828497
0.03293646 -0.1525734 -0.19741137 -0.2063362 -0.068717405 -0.23929353 -0.13780175 -0.19516316
0.15653476 0.23517983 -0.15432642 0.077508725 0.14926386 -0.21473946 -0.0067005293 -0.10375416
-0.09976882 -0.17607002 -0.20915067 -0.20164184 -0.23523419 -0.070320584 0.21226344 0.08268357
0.1577555 0.003516735 -0.1367134 -0.03401203 0.13737497 0.17448308 -0.22138943 -0.08857152
-0.06917449 0.16263522 -0.010217518 0.115582 0.23069802 -0.0119459955 0.14993887 -0.007244011
0.19788961 0.073100775 0.24197307 0.07892854 0.18957806 0.061561104 -0.14316231 0.1668585
0.058756333 -0.076747835 0.20122203 -0.1876723 -0.12520751 0.12881419 0.2111263 0.09061675
-0.10662853 0.08480011 -0.033299256 0.23405829 0.11533317 -0.22311904 -0.21854632 -0.12775998
-0.15060809 -0.22031206 -0.11696346 0.08154992 -0.004824826 -0.118319064 -0.00710086 -0.039794613
-0.037120886 -0.24919274 0.17901309 -0.2100872 0.2318801 0.15336363 -0.07563326 -0.13955782
0.108366765 -0.050253227 0.21879607 -0.15142445 0.12889816 -0.13697606 0.060970422 0.08687367
-0.21864225 -0.109921426 0.06539404 -0.044439767 -0.20591308 -0.12674706 0.046337247 -0.15834695
-0.12590314 -0.24600106 0.03931256 -0.03536291 0.047953334 -0.19531083 0.124145806 0.079368085
0.17588983 -0.065694615 0.033765145 0.09632497 -0.13785456 0.11855579 0.19367105 -0.0652664
-0.0069105937 -0.042943846 -0.11065431 -0.1461441 -0.044501074 -0.014012829 0.1753925 -0.19670485
-0.22514282 -0.07054735 0.09365988 0.2365429 0.018090036 0.10277799 -0.17709339 -0.10264697
0.1667511 0.047726672 0.18979742 -0.0820204 -0.20937252 -0.05431716 -0.09778253 -0.023903543
0.12323115 0.017843543 -0.0022499235 -0.12795888 -0.12277383 0.16313034 0.08999434 0.19522573
00000000: 8a9a 573d 790c 253e 8116 ebbc 03a6 393e
00000010: 9f29 413e 8acf 4fbe d1be 56bd 3a14 4d3e
00000020: 1279 133d 0f89 783e 618e 5ebe 6f74 efbd
00000030: 6d26 033e a3b1 7a3e e7f6 6ebe fd02 32bc
00000040: a9ea 053d b169 293e 883b 76bc c3aa db3d
00000050: 12f9 383e e1e1 1abd e282 4abe e018 5ebc
00000060: cc54 2cbe 40c5 14bd 70c7 033d d744 34be
00000070: 4ab9 cebd 26b7 5ebe 7b44 3cbe 1979 9fbd
00000080: c113 5bbe d176 773d 969e bc3d 5a73 b2bc
00000090: 47b7 4c3c 049f 963c 4385 473e 4040 3bbe
000000a0: 7a2a 61be cc15 0abe 323f 17be e2fd 7d3e
000000b0: 372c 10be e853 123e 2340 bfbd 804a 58bd
000000c0: 149c ea3d 81a6 243e f368 c63d 481e f4bd
000000d0: b43a 6fbe ad8b f6bd 32c2 023e e607 9d3c
000000e0: faf5 a43d 1e83 6ebe 6761 27bd dbbb 9ebb
000000f0: 3f89 143e 4873 113e 332a 51be ea8a 3dbe
00000100: c556 463e 96e7 37be 7717 71be faa1 c33d
00000110: 5c38 24be 445d 323e 294e 123e 7a6b 483d
00000120: d27a 40be 942e 57be 2d87 64bd 3afa 98bd
00000130: f131 f43d 547f 0cbe 0ab6 34be 34d8 06be
00000140: c2ff 56be 6ef2 3ebe fc21 693e 98a2 293e
00000150: 4110 2dbe d5c1 973c 4ad7 48be cc92 823d
00000160: 503e acbc a21f 93bc 121c 4b3e f5d4 6fbe
00000170: 853c b7bd 70ce 0d3d 1380 66be 75d8 d93c
00000180: ea90 9e3c 74c2 c43b 7493 b33d c750 853d
00000190: 1953 4c3e 037d 92bd eb6e 67be 8929 363e
000001a0: 08f0 56b9 b62e 17be fbd5 7e3e 004c 8cbd
000001b0: 662e 12bd 8eb7 a5bc e79e 85bc a848 55be
000001c0: 62e8 063d 343c 1cbe 3526 4abe cc49 53be
000001d0: b6bb 8cbd 5d09 75be e71b 0dbe dad8 47be
000001e0: a64a 203e fbd2 703e bf07 1ebe e5bc 9e3d
000001f0: a0d8 183e a9e4 5bbe 1d90 dbbb 107d d4bd
00000200: 9853 ccbd b34b 34be 982b 56be 337b 4ebe
00000210: 3be1 70be 3d04 90bd 965b 593e 0156 a93d
00000220: a88a 213e 0679 663b 99fe 0bbe 3350 0bbd
00000230: 06ac 0c3e b1ab 323e e9b3 62be fc64 b5bd
00000240: 5bab 8dbd d989 263e 6067 27bc 41b6 ec3d
00000250: 1a3c 6c3e 23b9 43bc 9389 193e 2b5f edbb
00000260: 93a3 4a3e dcb5 953d cac7 773e 49a5 a13d
00000270: c020 423e 7f27 7c3d 2499 12be f4dc 2a3e
00000280: 7baa 703d f82d 9dbd 260d 4e3e 2b2d 40be
00000290: 6636 00be dee7 033e 7e31 583e 4695 b93d
000002a0: 0f60 dabd aeab ad3d cd64 08bd faac 6f3e
000002b0: cc33 ec3d 5179 64be 9bca 5fbe 83d3 02be
000002c0: 0239 1abe 7c99 61be 8a8a efbd a503 a73d
000002d0: 9319 9ebb 4451 f2bd 55ae e8bb adff 22bd
000002e0: 120c 18bd 622c 7fbe 354f 373e 1921 57be
000002f0: fa71 6d3e 5b0b 1d3e 9ce5 9abd 3fe8 0ebe
00000300: 65ef dd3d 54d6 4dbd 140c 603e 030f 1bbe
00000310: e1fd 033e 7443 0cbe 1fbc 793d d3ea b13d
00000320: c1e3 5fbe 7c1e e1bd 4fed 853d 7906 36bd
00000330: e1da 52be fbc9 01be 20cc 3d3d b425 22be
00000340: c1ec 00be b4e7 7bbe 3506 213d b3d8 10bd
00000350: b76a 443d 90ff 47be 2840 fe3d bc8b a23d
00000360: 771c 343e e68a 86bd 524d 0a3d 0746 c53d
00000370: bf29 0dbe 61cd f23d b451 463e 64aa 85bd
00000380: 4372 e2bb e3e5 2fbd ba9e e2bd cda6 15be
00000390: c246 36bd 1196 65bc 179a 333e ff6c 49be
000003a0: d78b 66be 217b 90bd c0d0 bf3d 4d38 723e
000003b0: 8e31 943c 447d d23d f857 35be 9338 d2bd
000003c0: cdc0 2a3e 0b7d 433d 415a 423e 50fa a7bd
000003d0: c065 56be ac7b 5ebd 3542 c8bd 5dd1 c3bc
000003e0: 9d60 fc3d 9f2c 923c 7473 13bb a707 03be
000003f0: d970 fbbd a40b 273e f44e b83d 41e9 473e

weight_hh_l0 f4 [48, 16]
-0.22686774 0.1772435 -0.22550303 -0.09317823 0.027537031 -0.16716318 0.050757103 -0.20737918
0.1888646 0.18581572 -0.105061345 -0.14688794 -0.12910055 -0.15511268 -0.109517455 0.09678381
0.1513623 -0.20913419 -0.037305735 -0.020254457 -0.20249943 0.20011242 -0.015634935 -0.04601287
0.047171388 0.0365183 0.13222757 -0.13697587 -0.15566146 -0.12702057 0.21366265 0.06484071
-0.15472274 -0.0967705 0.07863248 -0.037408516 0.113705374 -0.11113212 -0.08477904 0.091576844
-0.014626013 -0.03168601 0.14364487 0.11456662 -0.22017439 0.011818919 0.10216578 0.21299808
0.012322989 0.22339788 -0.061195485 -0.17413813 0.09020362 -0.002052969 0.1295844 0.22896132
0.20484959 -0.17910643 0.19864902 0.013442212 -0.057804797 -0.17253086 -0.23666242 -0.01617589
-0.24775565 -0.20341279 0.06899717 0.18964916 0.2288153 0.17624362 -0.18934321 0.19096582
0.09861732 -0.22205694 -0.24188022 0.11385977 -0.09586908 0.18498258 -0.016726395 -0.058376003
0.068932846 -0.08082287 -0.08556487 0.050492287 -0.14135914 -0.21561517 0.16433832 0.11400023
0.00914381 -0.21822289 -0.090630405 0.11263413 -0.10044122 -0.20105547 0.1611601 -0.09711321
-0.21479408 0.105129115 -0.1539291 0.055860512 -0.055554044 -0.21765418 0.16034073 0.14742245
-0.13698268 -0.029551713 -0.24383081 0.10129212 -0.10349226 -0.17102352 -0.2049762 -0.063028485
-0.19913474 0.15528303 -0.09470431 0.15577517 0.03961629 -0.09083057 -0.22370304 0.17185295
0.1364086 0.23698395 0.1517429 -0.16397539 -0.068167634 0.24167797 0.2321519 0.066993825
0.014447434 0.2297821 0.0026817173 -0.06550514 0.012419709 -0.08599774 0.037209284 -0.2252478
0.10265002 -0.20965056 -0.1904963 -0.15045184 -0.055713687 -0.057640802 -0.06690025 0.20655455
0.12876959 0.10670329 -0.007931488 -0.1741353 -0.14334807 -0.21398404 -0.14904644 -0.12381406
0.07264873 -0.23384848 0.2204177 -0.123515666 -0.09269956 0.10871197 -0.10317889 0.2280218
-0.25041625 -0.048010547 -0.2233293 -0.12702647 0.22410364 -0.21899658 -0.019032313 0.061127786
0.0120139895 0.08989943 -0.048903354 0.009046269 0.18585955 0.101478204 0.24848107 0.10874962
-0.2297091 -0.051916987 -0.045689464 0.016636679 0.22716004 -0.038214233 -0.16393775 -0.18691438
0.038374558 0.15157638 0.15227497 0.14349838 0.095471434 0.23360102 -0.22048064 -0.19885458
-0.09705434 -0.225835 -0.21091111 0.21946134 -0.050623566 0.18953805 -0.033071715 -0.17840503
-0.14655566 -0.18815076 -0.21243541 0.11393514 0.07279788 -0.03749768 0.07475351 -0.010409311
0.083798245 -0.08605693 -0.13737954 0.03558583 0.052415986 0.013078212 -0.15334086 0.053357173
0.026160216 -0.090252824 0.15762311 0.019864064 -0.22213268 -0.18310814 -0.18575437 0.18921873
-0.123216145 -0.11790841 -0.23984694 0.18821649 0.16581893 0.17001446 0.039488185 0.22307186
0.021358255 0.19066261 0.09431403 -0.06745185 0.040915687 0.2324394 0.041553907 0.22309758
-0.040787637 0.09942023 -0.06960177 -0.14408717 0.064473905 0.03431425 0.1211819 -0.1424122
-0.02961017 0.028350057 0.15955783 -0.17539942 0.14694408 0.20628278 -0.20573786 0.07252536
00000000: 0450 68be 527f 353e 44ea 66be 3ad4 bebd
00000010: 5795 e13c d32c 2bbe aee6 4f3d 355b 54be
00000020: b965 413e 7a46 3e3e 672a d7bd cb69 16be
00000030: ef32 04be dcd5 1ebe b04a e0bd 9736 c63d
00000040: b8fe 1a3e 4627 56be e6cd 18bd adec a5bc
00000050: 035c 4fbe 45ea 4c3e d614 80bc fe77 3cbd
00000060: c936 413d 3794 153d aa66 073e 6743 0cbe
00000070: b865 1fbe ae11 02be 62ca 5a3e 35cb 843d
00000080: a36f 1ebe 9d2f c6bd 110a a13d ac39 19bd
00000090: 5dde e83d 3d99 e3bd a2a0 adbd a48c bb3d
000000a0: f2a1 6fbc 31c9 01bd a417 133e e7a1 ea3d
000000b0: 6575 61be 24a4 413c 4b3c d13d 2b1c 5a3e
000000c0: 5de6 493c 6ac2 643e 1ea8 7abd 4451 32be
000000d0: adbc b83d 1b8b 06bb c6b1 043e d674 6a3e
000000e0: 17c4 513e ad67 37be a66a 4b3e b93c 5c3c
000000f0: b9c4 6cbd eeab 30be a257 72be 4d83 84bc
00000100: a8b3 7dbe 714b 50be 634e 8d3d 6433 423e
00000110: 8f4e 6a3e 3579 343e 30e3 41be 8b8c 433e
00000120: e1f7 c93d e562 63be 73af 77be 502f e93d
00000130: 0257 c4bd 136c 3d3e cb05 89bc ad1b 6fbd
00000140: aa2c 8d3d 7686 a5bd a23c afbd 00d1 4e3d
00000150: 73c0 10be 39ca 5cbe 4e48 283e f478 e93d
00000160: ebcf 153c d275 5fbe 6f9c b9bd b9ac e63d
00000170: 20b4 cdbd 7ce1 4dbe 2707 253e 4ae3 c6bd
00000180: fbf2 5bbe ef4d d73d 979f 1dbe fecd 643d
00000190: a38c 63bd bde0 5ebe 5c30 243e e9f5 163e
000001a0: 3045 0cbe 6f16 f2bc c9ae 79be 3e72 cf3d
000001b0: c0f3 d3bd ca20 2fbe 48e5 51be 1415 81bd
000001c0: fae9 4bbe 8402 1f3e 55f4 c1bd 8783 1f3e
000001d0: b144 223d 6105 babd 6912 65be 38fa 2f3e
000001e0: b2ae 0b3e ecab 723e 7e62 1b3e 2ae9 27be
000001f0: 799b 8bbd 6e7a 773e 3ab9 6d3e 0f34 893d
00000200: eeb4 6c3c 004c 6b3e c0bf 2f3b 8f27 86bd
00000210: 097c 4b3c 951f b0bd c368 183d 5ca7 66be
00000220: 2c3a d23d a3ae 56be 7611 43be 0c10 1abe
00000230: 0934 64bd c318 6cbd 0003 89bd 0983 533e
00000240: 2ddc 033e 4187 da3d 12f3 01bc 8650 32be
00000250: d6c9 12be a21e 5bbe a19f 18be 3a92 fdbd
00000260: dbc8 943d fa75 6fbe 2db5 613e c8f5 fcbd
00000270: 44d9 bdbd 62a4 de3d 744f d3bd 8c7e 693e
00000280: 8f36 80be b5a6 44bd 70b0 64be 3a13 02be
00000290: 6d7b 653e a440 60be a7e9 9bbc 2161 7a3d
000002a0: 53d6 443c 311d b83d e24e 48bd cd36 143c
000002b0: f751 3e3e ced3 cf3d d271 7e3e 1fb8 de3d
000002c0: dd38 6bbe e8a6 54bd e024 3bbd a549 883c
000002d0: a49c 683e 8786 1cbd 4cdf 27be 7c66 3fbe
000002e0: a42e 1d3d d736 1b3e f8ed 1b3e 3df1 123e
000002f0: 8786 c33d 1b35 6f3e adc5 61be 89a0 4bbe
00000300: 6dc4 c6bd 4a41 67be 15f9 57be 79ba 603e
00000310: a85a 4fbd 4316 423e 3576 07bd cfaf 36be
00000320: b012 16be 98aa 40be ab88 59be d456 e93d
00000330: 0e17 953d 2b97 19bd 5e18 993d d18b 2abc
00000340: 6a9e ab3d 9e3e b0bd 39ad 0cbe 73c2 113d
00000350: 25b2 563d ff45 563c 6305 1dbe 0d8d 5a3d
00000360: f34d d63c 79d6 b8bd f467 213e f6b9 a23c
00000370: c076 63be b380 3bbe 6536 3ebe 8ec2 413e
00000380: bf58 fcbd f779 f1bd 709a 75be d3bb 403e
00000390: 70cc 293e 4518 2e3e 5dbe 213d f36c 643e
000003a0: 82f7 ae3c 0f3d 433e b727 c13d 3224 8abd
000003b0: 3597 273d 9804 6e3e 6e34 2a3d b173 643e
000003c0: f010 27bd d59c cb3d 5f8b 8ebd 968b 13be
000003d0: e50a 843d 198d 0c3d 372e f83d 81d4 11be
000003e0: 0791 f2bc 613e e83c 2163 233e e89b 33be
000003f0: 8278 163e cb3b 533e f2ac 52be 2d88 943d

bias_ih_l0 f4 [48]
0.12414335 0.025490196 -0.054737013 -0.06728105 -0.12192427 -0.08512296 0.115318865 0.16047616
-0.23187245 -0.036417104 0.0011132172 0.03286851 0.06915375 -0.20983535 0.08240271 0.11360333
0.052855868 -0.106557004 -0.12631783 -0.24344277 -0.042854898 -0.19648083 0.17094837 -0.11663011
0.14385253 0.04986094 -0.22544403 -0.11726734 0.23868673 -0.18614663 0.09702853 -0.10973172
-0.06175085 -0.19390368 0.16607074 0.07089513 0.22193943 -0.007889493 0.24541607 0.17988195
0.23218952 -0.19335128 0.049721457 0.057621364 -0.077610955 0.025570907 -0.21981332 0.064426415
00000000: de3e fe3d d1d0 d03c eb33 60bd a6ca 89bd
00000010: 6fb3 f9bd f254 aebd 4c2c ec3d dd53 243e
00000020: f96f 6dbe 1a2a 15bd 5fe9 913a 21a1 063d
00000030: 7ba0 8d3d 14df 56be c1c2 a83d dda8 e83d
00000040: 657f 583d 8f3a dabd 7659 01be 1049 79be
00000050: 9e88 2fbd 4532 49be 170d 2f3e c4db eebd
00000060: 144e 133e fc3a 4c3d cdda 66be dc29 f0bd
00000070: 4b6a 743e 399d 3ebe e5b6 c63d 06bb e0bd
00000080: 76ee 7cbd b08e 46be 730e 2a3e 7731 913d
00000090: 1744 633e ef42 01bc 5a4e 7b3e f932 383e
000000a0: 17c3 6d3e e1fd 45be baa8 4b3d 6104 6c3d
000000b0: 7ef2 9ebd 147a d13c be16 61be fff1 833d

bias_hh_l0 f4 [48]
0.0557551 -0.16002874 0.06880568 -0.095588244 0.19592643 -0.047201194 -0.10947527 -0.19798936
-0.080035456 -0.24258599 0.23445535 -0.009064856 0.17087068 0.23040475 0.17843136 -0.13531594
-0.13064103 0.16609758 -0.15061961 -0.017426591 -0.08075187 -0.10149765 -0.06990753 0.20946197
0.2175014 0.025391774 0.009027972 -0.19567668 0.10461636 -0.045609705 0.11898133 -0.010737382
-0.039957512 0.24031638 -0.042470437 -0.22549519 -0.019005094 -0.20047566 0.17552106 -0.21837537
0.14706652 0.24351303 0.1877712 0.16073745 0.2476352 0.050997775 0.21610665 -0.13599443
00000000: 765f 643d 93de 23be fee9 8c3d c5c3 c3bd
00000010: f0a0 483e 0a56 41bd 9234 e0bd b9bd 4abe
00000020: a1e9 a3bd 7668 78be 1015 703e c384 14bc
00000030: b9f8 2e3e 39ef 6b3e b6b6 363e 4390 0abe
00000040: c3c6 05be 7c15 2a3e 073c 1abe 36c2 8ebc
00000050: 3d61 a5bd 00de cfbd ae2b 8fbd 337d 563e
00000060: b0b8 5e3e 6902 d03c 0fea 133c 785f 48be
00000070: 1a41 d63d 3ed1 3abd 7cac f33d d8eb 2fbc
00000080: 7daa 23bd 7f15 763e 7bf5 2dbd 36e8 66be
00000090: 92b0 9bbc 7e49 4dbe cbbb 333e cb9d 5fbe
000000a0: 9b98 163e 7b5b 793e 1847 403e 5c98 243e
000000b0: 1594 7d3e 0be3 503d 104b 5d3e 2042 0bbe

weight_ih_l0 f4 [48, 36]
-0.10295381 0.13465497 -0.21193331 0.1945008 -0.09204638 0.23391712 -0.027541118 -0.08006251
-0.059510853 0.17181051 0.24801429 0.16596356 -0.18182516 0.22672917 -0.09195448 0.1716639
0.17701483 0.150912 -0.04504287 0.14851019 -0.14273185 0.0044887867 -0.045012105 -0.009516583
0.057571914 0.0301864 -0.0792761 0.21646631 -0.082322426 0.23756704 0.13748525 0.0987539
0.24584503 -0.21811351 -0.21883869 0.022274062 0.051446147 0.07121426 -0.15666561 0.20331842
0.067202084 0.027563052 -0.0652241 -0.047441784 -0.08511199 -0.16745064 0.03528821 -0.06979479
0.07376786 -0.1087686 0.074208185 0.21062906 -0.059900753 0.1665891 -0.07097511 -0.106729336
0.07132857 -0.03360932 0.21678759 0.16080655 -0.047410987 0.03054173 0.21880837 -0.20002468
0.14141117 -0.2071397 -0.014810696 0.22443925 0.056584306 -0.00020167376 0.18808855 0.15724619
-0.056135207 0.19986644 0.24267958 -0.045155503 0.101877876 0.18277994 -0.058888678 0.027113358
-0.21222068 0.054465007 -0.034301635 0.117941484 -0.13395452 -0.00020016849 -0.13423958 -0.19978806
-0.020924482 0.04692856 0.20086685 0.21716875 0.13760664 0.2363806 0.0664422 0.11611866
0.23296733 -0.036891855 0.20546919 0.1258636 0.24070601 -0.048766445 -0.009010182 -0.23060673
-0.23564407 0.13043697 0.14219241 -0.032864917 0.011175966 0.22303325 0.1977282 -0.2011612
0.06088751 -0.12651561 -0.20945394 0.023337658 0.1308363 -0.022837294 0.041896008 0.0060757524
-0.24658561 0.043829344 -0.037631597 -0.1615015 0.09414637 -0.09479603 -0.05901432 -0.053898197
-0.21600085 0.16689539 -0.14972995 -0.18229839 0.20252132 -0.11453458 -0.19760029 0.17378348
-0.036605 -0.21615098 0.24868332 -0.02947371 0.16024764 -0.114237756 -0.053536087 -0.22888328
0.14680612 -0.12235285 0.059714325 0.239213 -0.036590517 0.045096386 -0.040760238 0.13536146
-0.1318577 -0.1840956 -0.15905437 0.051509283 -0.13219799 -0.14517245 -0.019583344 0.19182609
0.011623527 -0.019411448 -0.1730231 0.22929563 -0.18112116 -0.17270154 0.056816794 -0.23375303
0.079644084 0.05049335 -0.21039186 -0.20803906 0.1949062 -0.1245961 -0.19401293 -0.10059628
0.017647494 0.16398053 0.093489125 -0.08760653 0.12964074 0.10829627 -0.081608444 0.0059131975
0.15241478 -0.1216835 -0.17016214 0.057713207 0.07449092 -0.07566318 0.00075501326 -0.22632623
0.20804216 0.21691135 0.13654447 0.21937922 -0.22314994 -0.1062565 0.10304902 -0.0017944057
0.21718681 -0.19001706 -0.029879019 0.04981665 -0.21902576 0.1439059 -0.22164416 -0.031801526
-0.22303393 -0.010568011 0.113786675 -0.15175277 0.024196682 -0.2237912 0.21321222 0.040168982
0.115950465 -0.22462873 0.14142434 0.006392408 -0.11730272 0.13309126 -0.16308689 -0.11052467
-0.13009207 -0.1672407 0.03322905 -0.03541852 0.14550465 0.1501819 0.072826914 -0.15915112
0.14473888 0.19990124 -0.22461538 0.2274246 0.13699932 -0.08207144 -0.04237132 -0.021504624
0.08584075 -0.03915234 -0.20492001 -0.17263332 0.10225714 -0.22697243 -0.15035588 -0.1952076
-0.17140494 0.09278766 0.0045563504 -0.09494045 -0.06300027 -0.1826165 -0.058687612 -0.0042329715
00000000: 72d9 d2bd fee2 093e 0c05 59be 382b 473e
00000010: d082 bcbd f887 6f3e e99d e1bc d0f7 a3bd
00000020: a7c1 73bd 18ef 2f3e 75f7 7d3e 5af2 293e
00000030: 6030 3abe b12b 683e a152 bcbd a9c8 2f3e
00000040: 6043 353e ad88 1a3e df7e 38bd 0e13 183e
00000050: 4c28 12be ac16 933b 9d5e 38bd 71eb 1bbc
00000060: 87d0 6b3d 7849 f73c 825b a2bd 58a9 5d3e
00000070: a998 a8bd c644 733e efc8 0c3e 7c3f ca3d
00000080: cdbe 7b3e 2659 5fbe 4017 60be 1878 b63c
00000090: 32b9 523d c8d8 913d f36c 20be b432 503e
000000a0: 3fa1 893d e9cb e13c 3794 85bd 5152 42bd
000000b0: 324f aebd 2e78 2bbe 5f8a 103d 92f0 8ebd
000000c0: 9b13 973d 12c2 debd 76fa 973d 25af 573e
000000d0: 7e5a 75bd 5596 2a3e 665b 91bd e994 dabd
000000e0: b714 923d eda9 09bd 91fd 5d3e 79aa 243e
000000f0: 0632 42bd a632 fa3c 4d0f 603e 45d3 4cbe
00000100: 17ce 103e 6e1c 54be 90a8 72bc 67d3 653e
00000110: f2c4 673d 6378 53b9 499a 403e 2505 213e
00000120: 08ee 65bd caa9 4c3e ff80 783e faf4 38bd
00000130: 59a5 d03d aa2a 3b3e 4135 71bd d51c de3c
00000140: 6150 59be b316 5f3d df7f 0cbd 4e8b f13d
00000150: 602b 09be 52e4 51b9 1a76 09be 3e95 4cbe
00000160: d269 abbc 2938 403d 0ab0 4d3e 7c61 5e3e
00000170: c1e8 0c3e c20d 723e d912 883d 9fcf ed3d
00000180: fd8e 6e3e ea1b 17bd 8466 523e 63e2 003e
00000190: a37b 763e 53bf 47bd 719f 13bc 2c24 6cbe
000001a0: ae4c 71be 4591 053e e39a 113e 5d9d 06bd
000001b0: 661b 373c d462 643e 4379 4a3e 34fd 4dbe
000001c0: 2f65 793d 4f8d 01be 187b 56be 9e2e bf3c
000001d0: f3f9 053e 4715 bbbc 269b 2b3d 1b17 c73b
000001e0: f080 7cbe 6686 333d 9723 1abd a660 25be
000001f0: d0cf c03d 6c24 c2bd 00b9 71bd 5bc4 5cbd
00000200: 542f 5dbe a0e6 2a3e cf52 19be 6eac 3abe
00000210: c061 4f3e 1b91 eabd bb57 4abe 4cf4 313e
00000220: 20ef 15bd af56 5dbe d7a6 7e3e da72 f1bc
00000230: f517 243e 7cf5 e9bd a848 5bbd 6160 6abe
00000240: 5854 163e 2294 fabd 0297 743d 41f4 743e
00000250: f0df 15bd fdb6 383d 35f4 26bd 329c 0a3e
00000260: b405 07be 8f83 3cbe 26df 22be 66fb 523d
00000270: e95e 07be 16a8 14be 406d a0bc 0f6e 443e
00000280: 9b70 3e3c c204 9fbc f82c 31be 79cc 6a3e
00000290: d377 39be acd8 30be bab8 683d f45c 6fbe
000002a0: 701c a33d 1dd2 4e3d f770 57be 3108 55be
000002b0: 7e95 473e 3d2c ffbd 53ab 46be 6c05 cebd
000002c0: 7a91 903c 83ea 273e 3a77 bf3d 0d6b b3bd
000002d0: 8bc0 043e 6fca dd3d 5422 a7bd 7fc3 c13b
000002e0: 9f12 1c3e 3335 f9bd fc3e 2ebe af64 6c3d
000002f0: b28e 983d 4cf5 9abd 15ec 453a 10c2 67be
00000300: 0109 553e 021e 5e3e 50d2 0b3e f2a4 603e
00000310: 6b81 64be 029d d9bd 5d0b d33d 4432 ebba
00000320: 3866 5e3e d593 42be d8c4 f4bc 8b0c 4c3d
00000330: 4a48 60be 115c 133e b0f6 62be 5142 02bd
00000340: 0263 64be 7325 2dbc fd08 e93d 1465 1bbe
00000350: 1f38 c63c 8529 65be 4e54 5a3e 3b88 243d
00000360: 7077 ed3d 1305 66be 8bd1 103e 6877 d13b
00000370: 693c f0bd 1349 083e 4000 27be c25a e2bd
00000380: db36 05be 2541 2bbe 2f1b 083d 0313 11bd
00000390: 2cff 143e 49c9 193e 4726 953d 83f8 22be
000003a0: 6e36 143e e9b2 4c3e 9301 66be ffe1 683e
000003b0: 8d49 0c3e 1215 a8bd 8d8d 2dbd 772a b0bc
000003c0: 46cd af3d 345e 20bd 8dd6 51be cac6 30be
000003d0: 316c d13d 766b 68be e4f6 19be 80e4 47be
000003e0: c784 2fbe 7507 be3d 704d 953b 2370 c2bd
000003f0: 4906 81bd d2ff 3abe 6c62 70bd bdb4 8abb

weight_hh_l0 f4 [48, 16]
-0.12154648 0.23878379 -0.085925326 0.1240951 -0.18924604 0.16373102 0.16597128 0.046886943
0.22361937 0.081374235 0.034862846 0.19522826 -0.16174938 -0.17236231 0.16867982 -0.10223658
0.059198905 0.05917405 -5.698681e-05 -0.022723906 -0.18334033 -0.22242212 0.01557733 0.04326706
-0.12844212 -0.02692253 0.08701661 -0.008555809 -0.12632504 -0.24623945 0.041931193 0.17866728
0.14466923 0.11242056 0.15163343 0.20262848 0.11373015 0.020530269 0.078538515 -0.17811212
0.11934218 0.22099847 -0.14595522 0.22927043 -0.1778254 -0.21592996 -0.24307503 -0.06456364
0.07021688 0.24689879 -0.027600883 -0.05541195 -0.037709974 -0.1847366 0.17841713 -0.058962043
0.16524309 -0.1582438 -0.15191062 -0.19749464 -0.18681654 0.17985828 -0.1613349 -0.15291607
0.0642482 -0.018330283 -0.19374092 -0.0849541 0.01364225 -0.24725606 0.059067044 -0.1710082
-0.051679123 0.17898801 -0.21661928 -0.22774243 -0.19202296 0.183249 0.17920476 -0.10902534
-0.03763274 0.12582217 0.115827195 -0.04392377 -0.09680715 -0.048956912 0.213573 -0.21810001
0.113464884 -0.17394583 0.09774213 -0.1849991 -0.0009737363 -0.23206002 -0.042876188 0.043333728
-0.10103311 0.2210668 0.10597646 -0.082761824 -0.17604762 0.059020516 -0.10423269 -0.1089595
-0.08672696 0.14012653 -0.10888737 -0.20636912 0.20881003 0.008849614 0.048188537 0.11162084
-0.042052437 0.24525909 0.20916523 0.18213749 0.088420734 0.07197999 -0.025495 -0.1460613
0.122063845 -0.092537075 0.12539957 0.10770803 0.09247492 0.11918809 -0.12586603 0.059506282
-0.01965398 0.025106635 -0.05753438 -0.16328461 0.026217865 -0.032378472 0.059369296 0.1756987
0.06196023 -0.22731474 0.03727587 0.22170278 0.08720252 -0.17097759 -0.056092314 0.01389022
-0.08763605 -0.24399151 -0.23078078 0.054782953 0.20924008 -0.07556662 0.09505458 -0.047648497
-0.18731916 0.055816486 -0.033836264 -0.016927296 -0.16990957 0.0994748 -0.03636709 -0.048437767
0.21497533 0.24083556 -0.07792873 -0.21051927 0.20278284 -0.07093731 -0.026394181 -0.21503037
-0.1988181 -0.037250817 -0.032515854 -0.17616653 0.16130537 -0.17194436 -0.03853699 0.09722174
0.08662248 -0.004844715 -0.22810015 -0.18955036 -0.19558495 -0.006999558 -0.13300377 -0.023519494
0.13128898 0.12494773 0.15376474 0.016413596 0.086547025 0.17805645 -0.09727226 0.11437779
-0.10121663 -0.10617754 -0.22093526 0.060492218 -0.20396712 -0.04663804 -0.075864695 -0.13542871
0.08622939 0.019252095 0.0697494 0.19689454 -0.19096099 -0.16923004 -0.13438137 0.067730084
0.0560155 0.12382158 0.14530775 0.14086728 -0.0925898 -0.042696305 -0.166112 -0.15844887
-0.1330995 -0.24584769 0.018256098 0.00049160904 0.07471768 0.015758539 -0.06645716 0.12723714
-0.11404034 0.15840852 -0.2038476 0.24204607 0.16053122 -0.09983211 -0.1869127 0.20343791
-0.21062225 0.24686089 0.052778322 -0.026644798 0.24070974 0.17436026 0.22602054 0.08660674
0.10246951 0.11657338 -0.14661053 0.028119233 -0.07862426 -0.16283302 -0.0233666 -0.15400618
0.07411351 0.119973496 -0.19550285 -0.023844134 0.07295553 -0.23143119 0.17659914 0.064178936
00000000: 5ced f8bd bd83 743e 9ef9 afbd 9225 fe3d
00000010: b7c9 41be 1ba9 273e 60f4 293e 860c 403d
00000020: 7afc 643e 89a7 a63d 58cc 0e3d ebe9 473e
00000030: a1a1 25be bf7f 30be 67ba 2c3e 6961 d1bd
00000040: 8d7a 723d 7d60 723d 1f05 6fb8 7c27 babc
00000050: 91bd 3bbe a0c2 63be 0f38 7f3c cd38 313d
00000060: 5586 03be a38c dcbc c435 b23d aa2d 0cbc
00000070: 5a5b 01be 3226 7cbe 0bc0 2b3d 8ef4 363e
00000080: 2c24 143e c03c e63d cb45 1b3e d77d 4f3e
00000090: 5aeb e83d 182f a83c cdd8 a03d 0663 36be
000000a0: ac69 f43d 6c4d 623e 4975 15be dec5 6a3e
000000b0: dd17 36be be1c 5dbe a9e8 78be f139 84bd
000000c0: decd 8f3d 09d3 7c3e 3f1b e2bc a4f7 62bd
000000d0: c675 1abd 972b 3dbe fbb2 363e 2f82 71bd
000000e0: 7c35 293e aa0a 22be 758e 1bbe 093c 4abe
000000f0: d64c 3fbe c52c 383e fa34 25be 0896 1cbe
00000100: 8f94 833d 6429 96bc 0564 46be 6afc adbd
00000110: be83 5f3c b130 7dbe 49f0 713d c61c 2fbe
00000120: 7dad 53bd a248 373e 72d1 5dbe 5035 69be
00000130: aba1 44be a0a5 3b3e 7481 373e ad48 dfbd
00000140: ca24 1abd 87d7 003e cf36 ed3d 69e9 33bd
00000150: d442 c6bd 0b87 48bd e1b2 5a3e 9c55 5fbe
00000160: 4760 e83d db1e 32be 072d c83d 6770 3dbe
00000170: 5642 7fba 24a1 6dbe f19e 2fbd b57e 313d
00000180: 72ea cebd 565f 623e 300a d93d 087f a9bd
00000190: d445 34be 7fbf 713d f377 d5bd 2926 dfbd
000001a0: e89d b1bd 547d 0f3e 5700 dfbd 6d52 53be
000001b0: 4cd2 553e f9fd 103c 5861 453d 7899 e43d
000001c0: 2d3f 2cbd 3325 7b3e 692f 563e 4082 3a3e
000001d0: ee15 b53d 3f6a 933d e4da d0bc 1891 15be
000001e0: 9cfc f93d 1484 bdbd bf68 003e 0796 dc3d
000001f0: 7e63 bd3d e318 f43d 06e3 00be dcbc 733d
00000200: 6201 a1bc 6eac cd3c 2ca9 6bbd 1534 27be
00000210: d9c6 d63c 4a9f 04bd 382d 733d 5cea 333e
00000220: 03ca 7d3d 32c5 68be 95ae 183d 0e06 633e
00000230: 3c97 b23d c014 2fbe 0ec1 65bd ce93 633c
00000240: 887a b3bd e9d8 79be cc51 6cbe 1764 603d
00000250: 0843 563e acc2 9abd faab c23d 122b 43bd
00000260: 98d0 3fbe d49f 643d e597 0abd 1dab 8abc
00000270: c6fc 2dbe 72b9 cb3d a8f5 14bd ae66 46bd
00000280: 7e22 5c3e 999d 763e 1999 9fbd 5d92 57be
00000290: 4ea6 4f3e 9547 91bd 9c38 d8bc ec30 5cbe
000002a0: f996 4bbe 5094 18bd 582f 05bd 0065 34be
000002b0: 3c2d 253e 2f12 30be f6d8 1dbd 311c c73d
000002c0: 2067 b13d 6ac0 9ebb 1693 69be 7d19 42be
000002d0: 6c47 48be 8c5c e5bb 2432 08be f4ab c0bc
000002e0: 9e70 063e 98e4 ff3d 8174 1d3e ce75 863c
000002f0: 913f b13d 6e54 363e ae36 c7bd e73e ea3d
00000300: aa4a cfbd 9c73 d9bd da3c 62be b0c6 773d
00000310: c2dc 50be 8807 3fbd f35e 9bbd d3ad 0abe
00000320: 0999 b03d 92b6 9d3c c6d8 8e3d b99e 493e
00000330: 478b 43be a44a 2dbe 459b 09be 12b6 8a3d
00000340: 8270 653d 2b96 fd3d 8ecb 143e 833f 103e
00000350: b99f bdbd 52e2 2ebd 4419 2abe 6c40 22be
00000360: 3c4b 08be 7fbf 7bbe d08d 953c 53df 003a
00000370: 9505 993d 0d18 813c b11a 88bd 744a 023e
00000380: fb8d e9bd d835 223e 6dbd 50be edda 773e
00000390: 4c62 243e c774 ccbd 0b66 3fbe 0752 503e
000003a0: 5cad 57be 1ac9 7c3e 152e 583d 3146 dabc
000003b0: 9d7c 763e 7f8b 323e ee71 673e e05e b13d
000003c0: 89db d13d 06be ee3d 1221 16be 4e5a e63c
000003d0: c205 a1bd b3bd 26be 506b bfbc ccb3 1dbe
000003e0: d3c8 973d aab4 f53d e631 48be c654 c3bc
000003f0: b569 953d 4cfc 6cbe 68d6 343e 3f70 833d

bias_ih_l0 f4 [48]
0.047599547 -0.12736785 -0.21317424 0.09045824 -0.09539305 -0.12909552 0.094099484 -0.154608
-0.17921439 0.098498985 -0.07112546 0.22894607 0.08857165 0.11289603 -0.18328246 0.16990538
-0.09456718 0.0027468952 -0.1098755 -0.16827804 0.16873841 -0.012519585 0.086996555 0.1028039
0.20088288 -0.17093657 -0.18624264 0.09450201 0.018101366 0.11353542 -0.07895166 -0.18549785
-0.0792615 0.21223848 0.09705309 0.19778839 0.24847245 -0.09186258 -0.24202234 -0.24300049
-0.0809533 0.20463459 -0.1322335 -0.032670185 0.086038284 -0.20977545 0.11816199 -0.022751838
00000000: bef7 423d b86c 02be 594a 5abe 2b42 b93d
00000010: 6e5d c3bd 9e31 04be 3bb7 c03d 8f51 1ebe
00000020: fa83 37be d6b9 c93d 3aaa 91bd d770 6a3e
00000030: 0e65 b53d 0936 e73d 66ae 3bbe adfb 2d3e
00000040: 70ac c1bd 4105 343b 6806 e1bd 1451 2cbe
00000050: c3c9 2c3e f21e 4dbc 402b b23d da8a d23d
00000060: 3eb4 4d3e ff09 2fbe 64b6 3ebe 458a c13d
00000070: 5149 943c 4285 e83d 68b1 a1bd 26f3 3dbe
00000080: da53 a2bd 0b55 593e c5c3 c63d 0a89 4a3e
00000090: 906f 7e3e 7322 bcbd b4d4 77be 1fd5 78be
000000a0: d8ca a5bd bb8b 513e 3868 07be 2cd1 05bd
000000b0: d734 b03d 60cf 56be eafe f13d 1062 babc

bias_hh_l0 f4 [48]
0.0801654 0.22082183 -0.12799174 -0.1374168 -0.16479623 0.11934126 -0.18462344 -0.08025021
-0.013404365 0.08562508 0.23233709 -0.015870964 0.07463592 -0.09222054 -0.17656964 -0.21251626
-0.08407009 0.14912733 0.02065123 -0.04298571 0.06623377 0.2300764 -0.1718155 0.13589303
-0.08949786 0.24794486 0.22334625 -0.18295582 -0.13749811 0.039306838 0.056179665 -0.16374087
-0.14948262 -0.059142552 0.036003444 -0.1863957 -0.10260041 -0.025870081 -0.06485015 -0.06260161
0.002218177 0.057562243 0.011515854 -0.17553544 0.17910616 0.12352439 -0.20872839 -0.20293485
00000000: c22d a43d 1e1f 623e 4410 03be fdb6 0cbe
00000010: 58c0 28be 3169 f43d ed0d 3dbe 395a a4bd
00000020: fb9d 5bbc 345c af3d c6e9 6d3e d303 82bc
00000030: b8da 983d 1fde bcbd acce 34be dd9d 59be
00000040: f02c acbd d6b4 183e c52c a93c c911 30bd
00000050: 92a5 873d 2699 6b3e 67f0 2fbe 8b27 0b3e
00000060: a74a b7bd 42e5 7d3e e1b4 643e c558 3bbe
00000070: 4ecc 0cbe 3500 213d a61c 663d b0ab 27be
00000080: f911 19be 763f 72bd 5978 133d 84de 3ebe
00000090: 2a20 d2bd 7eed d3bc 28d0 84bd 4635 80bd
000000a0: d65e 113b 63c6 6b3d feac 3c3c 90bf 33be
000000b0: 9b67 373e 5bfa fc3d e5bc 55be 27ce 4fbe

weight_ih_l0 f4 [3, 11]
-0.4349358 -0.02496999 0.9104061 -0.40400118 0.6964755 0.21245319 0.22761366 -0.3299809
0.34343967 -0.5957142 -0.7621448 -0.5306567 0.16239405 0.030210305 -0.52593845 0.18256474
-0.6036931 -0.08103914 0.3884985 0.32337776 -0.8397322 0.15139546 -0.8726653 -0.8249166
0.29316476 -0.69469815 0.05639161 0.25571057 -0.12845382 0.78722733 0.17566232 -0.5431314
-0.4795668
00000000: e8af debe dd8d ccbc 6010 693f 3ed9 cebe
00000010: 384c 323f 548d 593e 8e13 693e 42f3 a8be
00000020: 53d7 af3e ba80 18bf ec1b 43bf 1ed9 07bf
00000030: a04a 263e 9a7b f73c e7a3 06bf 40f2 3a3e
00000040: a28b 1abf d9f7 a5bd 47e9 c63e c591 a53e
00000050: b1f8 56bf 6907 1b3e fe66 5fbf bc2d 53bf
00000060: b119 963e bdd7 31bf e4fa 663d 7fec 823e
00000070: 6689 03be bb87 493f d3e0 333e a90a 0bbf
00000080: c889 f5be

weight_hh_l0 f4 [3, 1]
-0.22817694 -0.9518414 0.8812337
00000000: 37a7 69be e1ab 73bf 8898 613f

bias_ih_l0 f4 [3]
-0.63173205 -0.8789769 0.23686807
00000000: 31b9 21bf a104 61bf 8b8d 723e

bias_hh_l0 f4 [3]
-0.591386 -0.18411659 -0.4870922
00000000: 1365 17bf 0f89 3cbe 2664 f9be

weight f4 [1, 16]
0.08401191 0.06333096 0.1979109 0.07905858 -0.17788878 0.20008321 -0.08172915 -0.058548216
-0.0754213 -0.120556325 0.21794985 -0.0425793 -0.067549035 -0.14474985 0.13465928 -0.124198444
00000000: 700e ac3d aab3 813d 28a9 4a3e 77e9 a13d
00000010: 7a28 36be 9de2 4c3e 9d61 a7bd 41d0 6fbd
00000020: 7c76 9abd 3ce6 f6bd 3f2e 5f3e a267 2ebd
00000030: 2657 8abd 4e39 14be 1fe4 093e c15b febd

weight f4 [680, 17]
-0.034959696 0.16503763 0.1415807 0.06982237 -0.14779471 0.07569762 0.16328436 0.19905251
0.14212225 -0.07369264 0.022298213 0.14618494 0.008829959 0.22426301 -0.20691276 -0.10285857
0.07263127 -0.023218302 -0.009377224 0.14031218 0.12652966 -0.12556855 -0.07787746 0.05766792
-0.10821543 0.23064993 -0.1100223 0.11808799 0.057123087 0.14701329 0.22856763 0.13769479
0.1004894 -0.1085145 -0.047985956 0.026933447 0.09639133 -0.13073148 0.08840754 0.112627834
0.06820986 0.027530674 0.18006042 0.1509688 -0.22759815 -0.08840253 -0.10465695 0.2034326
-0.044459257 0.16779797 0.0995475 -0.09600419 -0.07950397 -0.21641053 0.16321398 -0.08103635
-0.17161864 -0.15764691 -0.21153772 0.017954456 0.18321835 0.23165746 -0.06375744 -0.085443445
-0.13833226 0.22125627 -0.046192724 0.14146227 0.0901943 -0.13866527 -0.0021946845 -0.10444212
0.08796599 0.1567241 0.0808985 -0.0064635 -0.021647986 0.16944106 -0.105250284 0.1333006
-0.059688255 -0.09532739 0.15408325 -0.2223272 0.06370058 -0.07706455 -0.16600594 0.12109141
-0.2337252 0.21753566 0.037991643 -0.17246898 0.052212935 -0.14567254 -0.1199528 -0.07218467
0.010210689 0.18357699 -0.111837134 0.17093584 0.22379483 -0.123204485 -0.06342741 0.15709136
0.05327412 -0.057959937 0.22268382 0.037963 -0.17112982 0.22538868 -0.24153563 0.05351828
-0.09739545 0.103340015 -0.01547246 -0.046432544 -0.025808955 -0.059365213 -0.1469752 0.015353556
0.16255167 0.20783691 -0.07390725 0.16914898 0.06549819 -0.1296965 0.091942586 0.14237057
-0.13856938 0.13367468 0.10788943 0.14505531 0.021822074 -0.20348641 -0.13186967 -0.13313596
0.18935686 -0.08820561 -0.18912193 -0.23506652 0.18572061 0.1484618 -0.033616103 -0.13409866
-0.09159823 -0.13117862 0.065408655 0.17973956 -0.19733946 0.084270135 0.17778939 0.05496198
-0.018172007 0.16257598 0.095881924 0.22695026 -0.17150727 -0.14098401 0.043298293 -0.14509402
-0.1715763 -0.013231142 -0.00071717525 -0.22071336 0.22585523 0.09578629 -0.20970231 0.20555852
-0.18525665 -0.046350513 -0.13506077 -0.007131919 -0.18418139 0.18069433 0.19941263 0.07240054
-0.11545698 -0.12624972 0.2346724 0.06271717 -0.19663975 0.14308135 -0.1729728 0.19756804
0.16242431 0.088779174 -0.0821843 0.10680789 0.040400304 0.01086207 -0.20546322 0.07719301
0.13426502 -0.11990106 -0.06653226 -0.07272403 0.16421802 -0.12876141 -0.08281228 0.021040477
0.21049611 0.19414912 0.17033549 0.06636765 0.07260399 -0.22434361 0.055512473 0.19119515
0.13811426 0.17394918 0.19584681 -0.17561325 0.031956464 -0.14989206 0.2307333 0.0435303
0.05436251 -0.15225843 -0.09202566 0.21734306 -0.07993158 0.054037966 -0.22735213 -0.07539666
-0.23864354 -0.13416193 0.1977821 0.16208617 0.14694935 0.21901426 -0.00987087 -0.02189438
0.2108364 0.100424185 -0.15766408 -0.13464676 -0.05695086 0.22535446 0.21150629 -0.07246624
-0.018512337 -0.057386022 -0.041862402 0.19685002 0.038843017 -0.093218215 -0.17203718 -0.22530618
-0.04858483 -0.24163349 -0.024829835 0.009412066 -0.23565131 -0.189805 0.16932058 -0.18804754
00000000: e631 0fbd a0ff 283e 88fa 103e 08ff 8e3d
00000010: 7f57 17be 5b07 9b3d 0434 273e 6cd4 4b3e
00000020: 7f88 113e 2bec 96bd beaa b63c 81b1 153e
00000030: 88ab 103c 34a5 653e f0e0 53be 84a7 d2bd
00000040: b4bf 943d 4f34 bebc eea2 19bc ffad 0f3e
00000050: fe90 013e 0b95 00be 387e 9fbd 3235 6c3d
00000060: 0da0 ddbd 7f2f 6c3e 5f53 e1bd 1ed8 f13d
00000070: e6f9 693d a78a 163e a20d 6a3e ddff 0c3e
00000080: 63cd cd3d da3c debd ec8c 44bd 88a3 dc3c
00000090: d168 c53d 79de 05be 030f b53d 6ca9 e63d
000000a0: 9cb1 8b3d 0288 e13c c261 383e 9197 1a3e
000000b0: 7d0f 69be 630c b5bd 6256 d6bd a350 503e
000000c0: e91a 36bd 3bd3 2b3e 8fdf cb3d d89d c4bd
000000d0: fad2 a2bd b99a 5dbe 9121 273e 63f6 a5bd
000000e0: ccbc 2fbe 316e 21be 589d 58be 3915 933c
000000f0: 979d 3b3e 9d37 6d3e 4393 82bd f9fc aebd
00000100: f9a6 0dbe 0191 623e 9534 3dbd 7cdb 103e
00000110: cab7 b83d 45fe 0dbe b2d4 0fbb c0e5 d5bd
00000120: 8327 b43d 487c 203e 1dae a53d c5cb d3bb
00000130: 1e57 b1bc f581 2d3e 768d d7bd f47f 083e
00000140: ac7b 74bd 023b c3bd 00c8 1d3e bea9 63be
00000150: 7375 823d 05d4 9dbd 76fd 29be c6fe f73d
00000160: a955 6fbe abc1 5e3e 209d 1b3d b59b 30be
00000170: 3bdd 553d 2f2b 15be d0a9 f5bd 8ed5 93bd
00000180: bc4a 273c 9bfb 3b3e de0a e5bd ce09 2f3e
00000190: 792a 653e a252 fcbd 3be6 81bd 8fdc 203e
000001a0: f735 5a3d 6667 6dbd 3a07 643e 177f 1b3d
000001b0: a83c 2fbe 4acc 663e 1e55 77be fc35 5b3d
000001c0: 4477 c7bd eea3 d33d 3380 7dbc 0d30 3ebd
000001d0: 4d6d d3bc f028 73bd ab80 16be 7b8d 7b3c
000001e0: f273 263e 33d3 543e af5c 97bd 6435 2d3e
000001f0: ea23 863d 29cf 04be 654c bc3d 97c9 113e
00000200: 22e5 0dbe 04e2 083e 22f5 dc3d 6189 143e
00000210: 35c4 b23c be5e 50be d808 07be cb54 08be
00000220: c4e6 413e 25a5 b4bd 2ea9 41be 47b5 70be
00000230: 8b2d 3e3e 5f06 183e 0ab1 09bd 2951 09be
00000240: da97 bbbd b053 06be f9f4 853d a60d 383e
00000250: 5b13 4abe d295 ac3d 6c0e 363e d01f 613d
00000260: 76dd 94bc 517a 263e be5d c43d a665 683e
00000270: 9a9f 2fbe 1d5e 10be 8d59 313d 8793 14be
00000280: b3b1 2fbe 6fc7 58bc d100 3cba af02 62be
00000290: 9846 673e 9a2b c43d 34bc 56be ef7d 523e
000002a0: ebb3 3dbe 09da 3dbd 5f4d 0abe dfb2 e9bb
000002b0: 0c9a 3cbe ef07 393e d332 4c3e bc46 943d
000002c0: b674 ecbd 9b47 01be f64d 703e dc71 803d
000002d0: ee5b 49be eb83 123e c81f 31be 474f 4a3e
000002e0: 8f52 263e dbd1 b53d 3e50 a8bd 18be da3d
000002f0: ca7a 253d d3f6 313c f364 52be 5e17 9e3d
00000300: c57c 093e b08e f5bd 1142 88bd 56f0 94bd
00000310: c528 283e 08da 03be 7c99 a9bd 145d ac3c
00000320: 4b8c 573e 07cf 463e 6d6c 2e3e c3eb 873d
00000330: 67b1 943d 55ba 65be 0c61 633d a9c8 433e
00000340: d36d 0d3e bc1f 323e 118c 483e f6d3 33be
00000350: c8e4 023d 4e7d 19be 5a45 6c3e d44c 323d
00000360: 39ab 5e3d a2e9 1bbe f377 bcbd 2e8f 5e3e
00000370: 2bb3 a3bd ea56 5d3d ffce 68be 9069 9abd
00000380: f95e 74be bf61 09be 6487 4a3e ebf9 253e
00000390: e479 163e 4645 603e 6eb9 21bc d85b b3bc
000003a0: 7fe5 573e 32ab cd3d b172 21be d7e0 09be
000003b0: 4e45 69bd 52c3 663e 1b95 583e 2e69 94bd
000003c0: 2fa7 97bc 9b0d 6bbd e977 2bbd 0d93 493e
000003d0: db19 1f3d 31e9 bebd 842a 30be aab6 66be
000003e0: e300 47bd c56e 77be f067 cbbc 1135 1a3c
000003f0: 944e 71be 3e5c 42be 6062 2d3e 898f 40be

bias f4 [680]
0.08841467 0.0074442425 -0.09177367 0.08903546 -0.14358208 -0.12920779 0.22929719 -0.037001487
0.1325799 -0.1678005 -0.046431355 0.20398542 -0.09505136 0.006718404 0.17595813 0.06841088
0.23953336 -0.23423296 -0.21644463 -0.064137496 0.0971905 0.016342832 0.05674633 -0.117598414
-0.033204272 0.20823994 0.12852217 0.02528969 -0.21638027 -0.19581334 0.2106138 -0.14246154
0.18396206 -0.18231747 0.049926642 0.10985897 0.06733698 0.027108891 0.2130664 -0.053485822
0.15998515 0.052725893 -0.17942958 0.22519542 -0.14685069 -0.2392422 0.21630254 -0.10208666
0.2362856 -0.089561604 0.20866965 0.20831162 -0.22258747 -0.03234443 -0.1599148 -0.11671355
0.12702204 0.07914892 0.08873979 -0.048629887 0.0585665 -0.1797434 0.11448411 -0.22379896
-0.08635899 -0.10430903 0.12277783 0.032886047 0.041218583 0.16286378 -0.20965746 0.0050621014
-0.042053677 -0.23070867 0.11091826 -0.15003593 -0.035929654 0.17485827 -0.09244087 -0.010866488
-0.142546 0.043139033 0.101964995 -0.015742395 0.09549924 -0.19452871 -0.07589644 -0.06295026
-0.14159757 -0.23592763 0.055312917 0.196104 0.22156481 0.19766511 -0.066750854 -0.095969155
0.09208066 -0.13271013 -0.14574254 0.011605533 0.0070879185 0.23708105 0.067783065 -0.14279494
0.19120188 -0.05106291 0.033646137 -0.039287165 -0.1265294 -0.056636132 -0.23280767 0.21512619
0.23000886 -0.23056749 -0.0066973167 0.19610474 0.23893279 0.21593554 0.0121547375 0.00035627556
0.13329096 -0.14045781 -0.0570054 0.15787977 0.22927988 -0.009804491 0.023018746 -0.108020924
-0.04014656 -0.12957819 0.20968063 0.10976227 -0.1103722 0.081984855 -0.018182145 0.18416432
0.104298726 -0.2064306 -0.12727946 0.22799814 0.094867036 -0.21806727 0.044943072 -0.13908802
-0.041774154 0.06832696 -0.17933275 0.09846835 0.042729016 -0.0591171 -0.07131825 0.1520828
0.14685869 -0.017056165 0.23300305 0.03744762 0.11292592 -0.08713515 -0.21898413 -0.12715608
0.017120514 0.21945262 0.054578997 0.044009894 -0.23306848 -0.21373165 0.01835667 0.13095273
0.18130918 -0.15763482 0.20974386 -0.008530537 0.23428062 0.16597684 -0.017267326 0.21309593
-0.09279209 0.16161744 -0.13221021 -0.090186924 -0.14567739 0.14822215 -0.039031055 -0.009526609
0.09177435 0.12372763 -0.059835948 0.04513538 0.10489524 -0.12646644 -0.025148688 0.20384987
-0.075772844 -0.1590953 -0.13429512 0.074802466 -0.110525124 -0.08744404 0.20758688 -0.15656677
0.12096196 0.025143845 0.07643657 -0.12872326 -0.17132044 0.15177442 0.077894814 0.17679483
-0.2329924 -0.033906896 0.015711023 -0.17039531 0.07674444 0.09228304 -0.01824683 -0.13202496
0.0897354 0.16054185 0.15817046 0.0020746852 0.012365524 -0.116437964 -0.1695096 0.18920012
-0.025410388 -0.15894583 -0.10827397 0.20582622 -0.21627568 -0.021236507 -0.23307756 0.21293959
-0.13285325 -0.11583116 0.1155482 -0.12557322 -0.08577782 -0.13412087 0.013759545 -0.04926291
-0.22525698 0.052589823 -0.106576644 0.2039659 -0.1414778 0.06462605 0.044809885 -0.17991316
-0.07444901 0.20920317 0.23921002 0.18859066 -0.11338809 0.036390383 0.034378182 -0.13604064
00000000: c012 b53d d5ee f33b d5f3 bbbd 3958 b63d
00000010: 2e07 13be 0c4f 04be e2cc 6a3e df8e 17bd
00000020: 06c3 073e e5d3 2bbe ce2e 3ebd 8ee1 503e
00000030: 4aaa c2bd 0f26 dc3b 5e2e 343e 011b 8c3d
00000040: 3c48 753e c4da 6fbe a9a3 5dbe 855a 83bd
00000050: d00b c73d 67e1 853c d76e 683d 70d7 f0bd
00000060: 3401 08bd da3c 553e 519b 033e 532c cf3c
00000070: ca92 5dbe 4b83 48be 25ab 573e 70e1 11be
00000080: 8d60 3c3e 6eb1 3abe e17f 4c3d bdfd e03d
00000090: f8e7 893d 7713 de3c 142e 5a3e f313 5bbd
000000a0: 26d3 233e 1bf7 573d 63bc 37be a199 663e
000000b0: 0760 16be e8fb 74be 6a7e 5d3e d012 d1bd
000000c0: daf4 713e 136c b7bd 7fad 553e a44f 553e
000000d0: f8ed 63be 987b 04bd b5c0 23be 8407 efbd
000000e0: 1112 023e d418 a23d 35bd b53d 2230 47bd
000000f0: 6de3 6f3d a70e 38be a576 ea3d 8e2b 65be
00000100: fbdc b0bd f99f d5bd f172 fb3d 85b3 063d
00000110: d1d4 283d c3c5 263e 72b0 56be fcdf a53b
00000120: 7a40 2cbd e53e 6cbe 1d29 e33d 05a3 19be
00000130: f92a 13bd 0c0e 333e a451 bdbd 5b09 32bc
00000140: 94f7 11be 8eb2 303d 06d3 d03d 32f6 80bc
00000150: 1b95 c33d 8932 47be 986f 9bbd 11ec 80bd
00000160: f4fe 10be 0397 71be cc8f 623d 7dcf 483e
00000170: e3e1 623e b968 4a3e acb4 88bd 7a8b c4bd
00000180: c994 bc3d 2ae5 07be 883d 15be 2225 3e3c
00000190: c541 e83b 60c5 723e d9d1 8a3d d638 12be
000001a0: 6dca 433e 5827 51bd 88d0 093d 94eb 20bd
000001b0: ec90 01be 4afb 67bd 2265 6ebe 0a4a 5c3e
000001c0: 7187 6b3e e219 6cbe 2a75 dbbb aecf 483e
000001d0: ccaa 743e 351e 5d3e aa24 473c 7fca ba39
000001e0: 6d7d 083e 2cd4 0fbe 7f7e 69bd 3cab 213e
000001f0: 58c8 6a3e 04a3 20bc cf91 bc3c 133a ddbd
00000200: b870 24bd 25b0 04be 85b6 563e 0acb e03d
00000210: d20a e2bd ade7 a73d b9f2 94bc 9295 3c3e
00000220: 929a d53d 8b62 53be 8c55 02be 5878 693e
00000230: a649 c23d 074d 5fbe 3a16 383d 176d 0ebe
00000240: 601b 2bbd 01ef 8b3d 01a3 37be c6a9 c93d
00000250: 9f04 2f3d c624 72bd 4d0f 92bd 98bb 1b3e
00000260: 2062 163e 5fb9 8bbc 5a98 6e3e ad62 193d
00000270: b445 e73d ea73 b2bd 603d 60be 3435 02be
00000280: 5240 8c3c 30b8 603e 3a8e 5f3d b843 343d
00000290: 81a9 6ebe 78dc 5abe ba60 963c 7918 063e
000002a0: 1da9 393e 066b 21be 18c7 563e aac3 0bbc
000002b0: 42e7 6f3e d5f5 293e 3574 8dbc d235 5a3e
000002c0: c709 bebd 0b7f 253e 1d62 07be ecb3 b8bd
000002d0: 742c 15be 8cc7 173e 07df 1fbd 7f15 1cbc
000002e0: 31f4 bb3d e964 fd3d 8a16 75bd e0df 383d
000002f0: 51d3 d63d 6b80 01be 9f04 cebc 05be 503e
00000300: cb2e 9bbd e1e9 22be a984 09be 0932 993d
00000310: ff5a e2bd dc15 b3bd a891 543e 0a53 20be
00000320: e7ba f73d 77fa cd3c c78a 9c3d 08d0 03be
00000330: a06e 2fbe c16a 1b3e 5187 9f3d b409 353e
00000340: 8f95 6ebe f5e1 0abd 67b4 803c 1c7c 2ebe
00000350: 302c 9d3d e4fe bc3d 607a 95bc 8d31 07be
00000360: 32c7 b73d 1565 243e 70f7 213e 71f7 073b
00000370: c498 4a3c 0777 eebd ed93 2dbe adbd 413e
00000380: 7229 d0bc b2c2 22be bebe ddbd 1cc4 523e
00000390: 5f77 5dbe 2ff8 adbc e2ab 6ebe d60c 5a3e
000003a0: af0a 08be e338 edbd 89a4 ec3d 4496 00be
000003b0: 48ac afbd fb56 09be b76f 613c e8c7 49bd
000003c0: c4a9 66be 6d68 573d db44 dabd 70dc 503e
000003d0: 8edf 10be aa5a 843d 928a 373d 283b 38be
000003e0: b978 98bd 5b39 563e 79f3 743e e91d 413e
000003f0: 0438 e8bd 150e 153d 23d0 0c3d 3d4e 0bbe

weight f4 [4, 680]
0.037765346 0.032571893 -0.027754053 0.005301196 -0.002734556 0.021615611 0.005076612 0.028492922
0.02341081 -0.0056364634 0.008016829 0.03054765 0.033708304 -0.00305213 0.03283993 -0.02000092
0.0342592 0.012259861 -0.018344166 -0.03592261 0.014451445 0.017144037 0.03685881 -0.001591224
0.02904043 -0.025266746 0.017635724 0.022746079 0.017116612 0.035256363 -0.01108558 0.033954773
-0.022066576 -0.014415998 -0.021144921 0.030726284 0.029207127 -0.028001085 -0.022599014 9.757621e-05
0.0018555351 0.034805935 -0.0199184 0.01342905 0.018379975 0.03226553 0.031034654 0.023492437
-0.026303228 0.03788159 -0.002858396 -0.014477046 -0.0052150846 0.018889097 0.021620529 -0.010308955
0.026804816 0.0006631255 -0.022222908 0.014595341 0.0033413786 0.028657377 0.03896643 -0.011939703
-0.029264692 -0.023295796 0.014594247 -0.03339752 0.01147362 0.011214059 0.030199032 -0.005490479
0.009237079 0.0006735473 -0.025689928 0.0047028787 0.026706401 0.011607201 0.0011989686 -0.008181091
0.027129598 -0.035019618 -0.03435528 -0.031066058 0.020346723 0.019538391 -0.02515284 0.015117327
-0.035047647 0.0055494034 -0.00078974507 0.01770286 0.03562193 -0.006795788 0.010495243 -0.014195708
0.003444844 0.030348195 0.032104548 -0.0039788196 0.00806721 0.03420784 0.011662586 -0.027180199
0.012150415 -0.026095055 -0.014945213 -0.0266884 0.039583243 -0.011777402 -0.009299635 0.0108863115
0.004451403 -0.0236386 0.0018864851 -0.02626489 0.014462663 0.02353179 0.034174595 -0.025121251
0.0350109 0.010547461 0.030410336 -0.011531172 0.009122877 -0.033416267 0.020496655 -0.018308787
0.034432326 -0.003046033 -0.024686761 -0.029350601 -0.024969304 0.02260259 0.035197373 -0.030915076
0.004604641 0.015827958 0.021902986 0.0041964203 0.0072548436 -0.0155881895 -0.01700344 -0.016395835
-0.02635139 0.035086185 -0.03452952 -0.02031545 -0.034954123 -0.034495763 0.01670378 0.0024130216
-0.013024005 0.00073119416 0.037818603 0.036133528 0.0043940768 0.0076289107 -0.02331268 0.036935203
-0.010465061 0.007086532 -0.0038892333 -0.011840744 -0.002955196 0.027620798 0.021328267 -0.0032483423
-0.022315647 -0.016536271 0.0171592 -0.0077166557 -0.013085523 -0.03183283 -0.012889182 0.040071215
-0.01692683 0.025734376 -0.01706609 -0.02123812 0.015789941 0.02998125 0.009896027 -0.031824056
-0.035635997 -0.03252658 -0.00768192 0.016177114 0.039243013 -0.0116941845 -0.0033530467 -0.022382196
0.038841005 -0.035073396 -0.027534422 -0.017855119 0.030441029 -0.012133416 -0.023220295 -0.020426236
0.018178955 -0.0098614665 0.030728577 -0.007242045 0.0075391736 0.032837488 -0.030006494 -0.005629701
-0.0050506713 -0.0034819741 0.01194318 0.01980209 0.035248 0.024443215 -0.009163533 -0.0009502184
-0.015678681 0.017371794 -0.021853827 0.021147225 0.017488511 -0.022717685 0.033395763 -0.012602117
-0.022505576 -0.010408785 0.0070311646 -0.0011482878 0.02613031 0.03132449 0.032427393 0.01594959
0.013728254 0.010564142 -0.009742521 -0.03458115 -0.0019544263 -0.029192591 0.0048554046 -0.0075283665
0.016334761 0.020258728 -0.010330033 0.022421366 -0.03258852 -0.02621328 0.028339548 -0.0020242042
-0.0024261288 -0.010010302 0.024622373 0.020532979 0.023958862 -0.031375967 0.018956058 -0.032945946
00000000: d6af 1a3d 1b6a 053d 785c e3bc a8b5 ad3b
00000010: 3d36 33bb 3913 b13c b559 a63b fd69 e93c
00000020: 07c8 bf3c 15b2 b8bb 0559 033c 113f fa3c
00000030: b811 0a3d 3f06 48bb 2a83 063d f8d8 a3bc
00000040: 6053 0c3d 96dd 483c 8146 96bc 9623 13bd
00000050: c1c5 6c3c a771 8c3c 43f9 163d 9e90 d0ba
00000060: 32e6 ed3c 35fc cebc cb78 903c fc55 ba3c
00000070: 2338 8c3c fa68 103d 4ba0 35bc 2914 0b3d
00000080: f7c4 b4bc 1431 6cbc 1d38 adbc b0b5 fb3c
00000090: c943 ef3c 8862 e5bc 9121 b9bc d4a1 cc38
000000a0: 6d35 f33a ab90 0e3d ea2b a3bc 8505 5c3c
000000b0: 9a91 963c dc28 043d 633c fe3c 3673 c03c
000000c0: de79 d7bc ba29 1b3d ed53 3bbb 2231 6dbc
000000d0: 4de3 aabb 4fbd 9a3c 891d b13c e4e6 28bc
000000e0: c695 db3c 99d5 2d3a d10c b6bc 4c21 6f3c
000000f0: 08fb 5a3b e0c2 ea3c 439b 1f3d be9e 43bc
00000100: 82bc efbc d3d6 bebc b51c 6f3c d7cb 08bd
00000110: dafb 3b3c 2cbb 373c f663 f73c 7ae9 b3bb
00000120: 1e57 173c ff90 303a af73 d2bc 9b1a 9a3b
00000130: 62c7 da3c 212c 3e3c b626 9d3a fc09 06bc
00000140: e43e de3c bb70 0fbd 1fb8 0cbd 3f7e febc
00000150: 2cae a63c fa0e a03c 540d cebc aaae 773c
00000160: 1f8e 0fbd c5d7 b53b e506 4fba 9705 913c
00000170: 4de8 113d 34af debb 3df4 2b3c 1d95 68bc
00000180: e4c2 613b c79c f83c 0f80 033d c260 82bb
00000190: 552c 043c 851d 0c3d 6e14 3f3c 02a9 debc
000001a0: 8912 473c 4cc5 d5bc c4dc 74bc a2a1 dabc
000001b0: 0a22 223d 01f6 40bc 7f5d 18bc 805c 323c
000001c0: 13dd 913b bda5 c1bc f043 f73a 7729 d7bc
000001d0: cef4 6c3c bec5 c03c a9fa 0b3d 15cb cdbc
000001e0: 9767 0f3d 42cf 2c3c 191f f93c 3eed 3cbc
000001f0: 1f78 153c 7fdf 08bd 9ae8 a73c 4ffc 95bc
00000200: e908 0d3d f49f 47bb e43b cabc ac70 f0bc
00000210: 6d8c ccbc 1129 b93c 1f2b 103d 9d41 fdbc
00000220: 87e2 963b a2a9 813c e46d b33c 2082 893b
00000230: 0aba ed3b 9b65 7fbc cc4a 8bbc 8f50 86bc
00000240: dfde d7bc 88b6 0f3d d36e 0dbd 966c a6bc
00000250: 0e2c 0fbd 6e4b 0dbd 5ed6 883c c923 1e3b
00000260: a362 55bc 9cad 3f3a aee7 1a3d c000 143d
00000270: 30fc 8f3b f1fb f93b 3cfa bebc 5e49 173d
00000280: a675 2bbc 2436 e83b 82e2 7ebb aeff 41bc
00000290: f6ab 41bb 0345 e23c 9eb8 ae3c 24e2 54bb
000002a0: 4ecf b6bc 1377 87bc 7391 8c3c 00dc fcbb
000002b0: a964 56bc 2463 02bd 262d 53bc b721 243d
000002c0: 23aa 8abc e6d0 d23c 2fce 8bbc 91fb adbc
000002d0: e859 813c 3d9b f53c f222 223c f159 02bd
000002e0: 0df7 11bd 973a 05bd 9eb8 fbbb de85 843c
000002f0: 48bd 203d f798 3fbc cabe 5bbb de5a b7bc
00000300: bf17 1f3d 1fa9 0fbd de8f e1bc e644 92bc
00000310: 775f f93c 3ccb 46bc 7d38 bebc ec54 a7bc
00000320: 08ec 943c fd91 21bc 7fba fb3c ad4e edbb
00000330: 2c0b f73b 9a80 063d 2ed0 f5bc 5b79 b8bb
00000340: 1a80 a5bb d531 64bb 54ad 433c fe37 a23c
00000350: 3560 103d 233d c83c a522 16bc 1418 79ba
00000360: 9470 80bc 4b4f 8e3c cc06 b3bc f23c ad3c
00000370: 1144 8f3c 701a babc ffc9 083d 1c79 4ebc
00000380: 9d5d b8bc 9c89 2abc af65 e63b 2582 96ba
00000390: 3b0f d63c 1c4e 003d 96d2 043d b7a8 823c
000003a0: 78ec 603c 3915 2d3c 189f 1fbc f7a4 0dbd
000003b0: d515 00bb 4d25 efbc 161a 9f3b 84b0 f6bb
000003c0: 7ad0 853c a2f5 a53c 4c3f 29bc 03ad b73c
000003d0: 8a7b 05bd 3cbd d6bc 5728 e83c 83a8 04bb
000003e0: b0ff 1ebb 4002 24bc dcb4 c93c c734 a83c
000003f0: 6045 c43c 1684 00bd bc49 9b3c 54f2 06bd

bias f4 [4]
-0.012866787 0.004497672 0.031909946 -0.0041335733
00000000: 37cf 52bc 3561 933b 01b4 023d ed72 87bb
