estimators/knet/single_obs/p_MSE_ep100_train4000_val1000_test10000_lr5e-04_wd1e-05_data_sr1e-01_q1e-04_r1e-01_j5_train[200,250]_val[40,250]_test[40,250].pt (torch, 474133 bytes, 123 tensors)

_initial_state f4 [4]
0.0 1.0 1.0 0.0
00000000: 0000 0000 0000 803f 0000 803f 0000 0000

_initial_covariance f4 [4, 4]
0.0 0.0 0.0 0.0 0.0 0.0 0.0 0.0
0.0 0.0 0.0 0.0 0.0 0.0 0.0 0.0
00000000: 0000 0000 0000 0000 0000 0000 0000 0000
00000010: 0000 0000 0000 0000 0000 0000 0000 0000
00000020: 0000 0000 0000 0000 0000 0000 0000 0000
00000030: 0000 0000 0000 0000 0000 0000 0000 0000

weight_ih_l0 f4 [48, 20]
-0.0014605817 -0.13696809 -0.14498103 0.12470913 -0.18107149 0.105742484 -0.00048129517 -0.18349288
-0.10997712 0.21592617 -0.10935428 0.1997093 -0.15940142 0.037126645 -0.034924235 0.24273428
0.075995915 0.10872776 -0.14842398 -0.14857467 -0.0040746513 0.10095298 0.104717985 -0.17709179
-0.091900915 0.14386213 -0.12558845 -0.15247084 -0.02717469 -0.13218819 0.23109984 -0.105574094
0.23331237 0.18757509 0.17561115 0.18491752 0.22449347 0.20145461 0.21951565 -0.11184269
-0.0057929535 0.20880874 -0.20320255 0.08430246 -0.12493464 0.04853762 -0.18953398 0.2305497
-0.08553521 0.10685213 -0.108303815 -0.2380449 -0.16681476 -0.048592325 0.16104598 0.10944969
0.23754354 -0.17899752 -0.04159417 -0.093971714 0.20923364 -0.21474224 -0.20803532 0.12034126
0.17116725 -0.017511563 0.12784983 -0.087268405 0.0024232925 0.083124556 -0.124211445 -0.0026511827
-0.08909108 -0.05281882 0.23066251 0.067031145 -0.024813518 -0.06250362 -0.19316386 -0.21950753
0.17020215 0.11755501 0.096741736 -0.029860437 -0.09138737 0.15169108 -0.061422553 0.15926182
-0.09072405 0.09910978 -0.046489842 0.19491863 0.1081093 -0.07531013 -0.051475644 0.00789139
0.08397589 -0.23259439 0.21095945 0.20462771 0.0146224825 0.014794024 0.15877093 -0.17607032
0.10837443 -0.09584867 0.14041518 -0.16837555 0.22747873 0.030066973 -0.06894827 0.11738014
-0.052453574 -0.051764324 0.13164626 0.029754607 0.17482245 0.15497757 -0.039611932 -0.05750467
-0.051802214 0.057585012 -0.15468948 -0.21317816 -0.09640274 -0.14618152 -0.17007707 -0.20464343
0.09366189 0.13127403 0.031018255 -0.07772264 0.12563396 0.24603182 -0.10477353 0.115373954
0.08550134 0.20947018 0.00018071008 -0.096884556 -0.11454672 -0.16289432 -0.004948907 0.18532474
0.23279148 -0.14387766 -0.23894805 0.22464405 -0.015323139 -0.24538253 -0.13821602 -0.18496217
-0.085517935 -0.18675737 -0.17840804 -0.13436171 0.030898089 0.18017069 0.181991 0.036227632
-0.020613411 0.24853514 0.10169908 -0.16712534 -0.16856651 -0.11160641 -0.2132317 0.1606652
-0.1628465 -0.18769246 -0.24758096 0.07120906 -0.2188124 0.006599821 0.04048279 -0.09991519
0.16404733 -0.049344536 -0.21579014 -0.02675056 0.16785198 0.13771991 0.19336443 0.2111781
-0.15166113 -0.23733474 0.15354751 0.18760604 -0.019345641 0.12886378 0.019090855 -0.086317375
0.23955174 0.033270955 0.14360169 0.20007317 -0.115824506 0.044293985 -0.08591884 0.16734353
-0.13308764 0.12540217 0.001358957 0.09849451 0.042878542 0.17129076 -0.18771642 -0.11198749
0.21701507 -0.2071306 -0.010529008 0.12983789 0.11721418 0.053626068 0.065247245 -0.18064234
0.14962332 -0.07253936 -0.19755141 0.22861339 -0.11874172 0.16921075 0.07411257 -0.2325442
0.17642735 -0.1714231 0.13454418 0.102140486 0.10533789 -0.01483181 0.14685014 -0.019400349
-0.19281307 0.13770537 -0.17947169 -0.09487869 -0.13445902 -0.038604163 0.12533951 0.24073912
0.1401461 0.21881911 -0.15455225 0.10717668 0.14300488 0.14216647 0.0015623712 -0.000380876
-0.044176076 -0.012904802 -0.09023552 0.21214348 -0.13955328 -0.060065378 0.15103775 0.22097777
00000000: fd70 bfba 5d41 0cbe e875 14be 8067 ff3d
00000010: ce6a 39be 848f d83d 5856 fcb9 8fe5 3bbe
00000020: af3b e1bd c01b 5d3e 23f5 dfbd 9880 4c3e
00000030: 203a 23be 1c12 183d b70c 0fbd 568f 783e
00000040: bfa3 9b3d a9ac de3d 75fc 17be f523 18be
00000050: a784 85bb 70c0 ce3d 6276 d63d 8d57 35be
00000060: 8c36 bcbd 9850 133e 429a 00be 5121 1cbe
00000070: 759d debc 575c 07be 70a5 6c3e 3b37 d8bd
00000080: 70e9 6e3e af13 403e 69d3 333e 055b 3d3e
00000090: 9ee1 653e 1e4a 4e3e b6c8 603e c80d e5bd
000000a0: d1d2 bdbb f5d1 553e 5414 50be c5a6 ac3d
000000b0: bcdd ffbd 62cf 463d 3215 42be 3815 6c3e
000000c0: 162d afbd 4ad5 da3d 64ce ddbd 0bc2 73be
000000d0: 7dd1 2abe bf08 47bd 3de9 243e 2927 e03d
000000e0: 9d3e 733e 204b 37be a65e 2abd 3e74 c0bd
000000f0: 5841 563e 64e5 5bbe 3607 55be 7b75 f63d
00000100: 7846 2f3e 6974 8fbc 11eb 023e c7b9 b2bd
00000110: 1ad0 1e3b 353d aa3d 9262 febd 77bf 2dbb
00000120: 6275 b6bd 8c58 58bd cb32 6c3e a047 893d
00000130: b845 cbbc e601 80bd bfcc 45be 95c6 60be
00000140: 7949 2e3e aec0 f03d 8820 c63d e09d f4bc
00000150: 4d29 bbbd e854 1b3e 3796 7bbd 8815 233e
00000160: 88cd b9bd 11fa ca3d 226c 3ebd c098 473e
00000170: 6968 dd3d 333c 9abd 20d8 52bd e34a 013c
00000180: 8dfb ab3d 392d 6ebe c105 583e ed89 513e
00000190: 2393 6f3c a262 723c d994 223e c74b 34be
000001a0: 6af3 dd3d 4f4c c4bd ffc8 0f3e a46a 2cbe
000001b0: 2ff0 683e 034f f63c c034 8dbd 0065 f03d
000001c0: 8fd9 56bd d406 54bd 47ce 063e efbf f33c
000001d0: a804 333e 71b2 1e3e 1f40 22bd 048a 6bbd
000001e0: 8f2e 54bd 43de 6b3d eb66 1ebe 604b 5abe
000001f0: cd6e c5bd 9cb0 15be af28 2ebe 0c8e 51be
00000200: ced1 bf3d b36c 063e ff19 fe3c 0c2d 9fbd
00000210: 30a6 003e c4ef 7b3e 8193 d6bd 2e49 ec3d
00000220: 541b af3d 5a7f 563e fe7c 3d39 696b c6bd
00000230: 7997 eabd c5cd 26be 712a a2bb c5c5 3d3e
00000240: e460 6e3e aa54 13be ccae 74be 1709 663e
00000250: e70d 7bbc 8f45 7bbe 8088 0dbe b966 3dbe
00000260: 0724 afbd 533d 3fbe 99b0 36be 1e96 09be
00000270: fd1d fd3c aa7e 383e d95b 3a3e 6d63 143d
00000280: 75dd a8bc ff7f 7e3e 9b47 d03d e822 2bbe
00000290: b39c 2cbe e791 e4bd 6959 5abe 6b85 243e
000002a0: 3cc1 26be 7432 40be dd85 7dbe 0ed6 913d
000002b0: 5c10 60be 5043 d83b 48d1 253d 56a0 ccbd
000002c0: 06fc 273e 7f1d 4abd 17f8 5cbe fe23 dbbc
000002d0: 64e1 2b3e 7306 0d3e 5301 463e 123f 583e
000002e0: 0e4d 1bbe e107 73be 8f3b 1d3e cc1b 403e
000002f0: c07a 9ebc def4 033e 6d64 9c3c 2ac7 b0bd
00000300: 0d4d 753e 2047 083d 520c 133e fbdf 4c3e
00000310: 6635 edbd 9c6d 353d 37f6 afbd 1a5c 2b3e
00000320: 2048 08be 6d69 003e 081f b23a 7db7 c93d
00000330: 69a1 2f3d d866 2f3e bc38 40be b259 e5bd
00000340: 3339 5e3e 0b1a 54be dc81 2cbc 39f4 043e
00000350: fd0d f03d 02a7 5b3d 59a0 853d 4efa 38be
00000360: db36 193e 848f 94bd eb4a 4abe a119 6a3e
00000370: dc2e f3bd 9545 2d3e 55c8 973d 1120 6ebe
00000380: 5fa9 343e 8a89 2fbe f3c5 093e 082f d13d
00000390: 64bb d73d 1f01 73bc e25f 163e 7bed 9ebc
000003a0: ca70 45be a302 0d3e 6dc7 37be c24f c2bd
000003b0: a0af 09be 661f 1ebd 0059 003e 5184 763e
000003c0: 7682 0f3e 1e12 603e f242 1ebe 727f db3d
000003d0: df6f 123e 1694 113e 7ac8 cc3a 50b0 c7b9
000003e0: f9f1 34bd aa6e 53bc 66cd b8bd 243c 593e
000003f0: 0ee7 0ebe 1d07 76bd a4a9 1a3e ff47 623e

weight_hh_l0 f4 [48, 16]
-0.11676497 0.12263668 -0.22279029 0.110016376 0.018486867 0.12821963 0.25080442 -0.062132135
-0.09011305 -0.25166273 0.15879557 0.08928364 -0.07590435 -0.19416416 -0.09328657 0.1763132
0.11468313 -0.12813362 -0.20195584 0.14188379 0.23740959 0.12450641 0.06185998 0.004805739
0.023199927 -0.050664306 0.17249165 0.11234482 -0.037184745 0.1323492 0.022764385 0.02296965
-0.21919781 0.09234105 0.051929165 -0.052858353 -0.15019184 0.1617075 -0.2138119 -0.16406584
-0.12239256 0.23441844 0.19923204 -0.242157 -0.2328131 0.13688637 0.17710984 -0.13203347
0.06869727 0.0056653153 0.14931902 0.1282801 0.090014815 0.19385472 0.24153702 -0.21714446
0.03534901 -0.22630112 -0.018434878 -0.18766089 -0.07837248 -0.057226304 0.2257813 -0.16878913
0.038928196 0.1999078 -0.14380033 0.036097772 -0.10698554 -0.19233018 0.15317574 -0.0999944
0.03205483 0.21812283 0.06792434 0.1410551 0.16588503 0.073818766 0.11604768 -0.23502268
0.22583514 0.033483066 0.2071995 0.13724072 -0.028004149 0.06149023 0.02611097 0.05393903
-0.24642049 0.032769907 -0.24777569 -0.20873223 -0.24229763 0.16887806 -0.06320782 -0.19844049
0.032603614 -0.14785466 0.13357988 -0.077158906 0.10091662 -0.12077182 -0.19787462 -0.24770728
-0.21066083 -0.054327454 -0.12125935 -0.020809587 0.14153667 -0.031509437 -0.17348622 0.023230955
0.121531606 -0.06270329 -0.009266289 -0.20336096 -0.036583025 -0.11110588 0.013592161 0.2427626
-0.03783111 0.11006045 0.18221137 0.005919404 -0.09844604 0.16141637 -0.09117235 -0.14332487
-0.21455586 -0.11289055 -0.14224681 -0.23459153 0.025551556 0.16479881 -0.03821725 0.07796763
0.1750864 0.10094183 -0.20047948 0.16549028 0.21123725 -0.08421161 0.042676806 0.22877812
0.19025844 0.13902721 0.2523338 -0.13851234 0.18651581 -0.2175886 -0.10163762 -0.15547815
0.18369827 0.09887054 -0.14948043 0.12764832 0.10924447 0.16166525 0.040860947 -0.23995623
-0.011157633 -0.22275612 0.0049765413 0.2407453 -0.11514795 0.19815442 0.12958093 -0.1042625
-0.004896605 -0.17603628 -0.098329894 -0.062209483 0.16372275 -0.17179076 0.16807233 -0.10217039
-0.20278557 -0.056339554 0.11803016 0.14243926 0.15694512 -0.23186247 -0.0686338 0.18335259
-0.16226703 -0.11711636 0.068602785 0.22909093 -0.2457384 -0.08775694 0.19756132 -0.0467548
-0.018590119 0.18833175 -0.23691879 -0.12884852 0.093472436 -0.22189115 0.1484752 -0.20872156
-0.05987361 -0.17517494 0.008569987 -0.09422888 0.22262615 0.11866801 -0.02280384 0.017803578
-0.12513708 0.026055733 0.23221007 0.112228446 -0.19343106 -0.06156585 -0.090724275 -0.19326702
0.17412396 -0.24998675 0.15752055 -0.11715038 0.098372504 -0.20610096 -0.24570256 0.14901151
-0.24107888 -0.24981296 -0.009602743 -0.025306636 -0.005535578 -0.22553179 -0.20103738 0.22783287
0.16816227 -0.18042678 -0.23540184 -0.04282237 -0.16371603 -0.14997388 -0.09876129 -0.18260548
-0.16085759 -0.122870125 0.1919752 0.106020436 0.22200222 -0.22372219 0.1286648 0.0738937
-0.017765308 0.12376673 0.024735602 0.118255734 0.06947831 0.01231026 0.011427696 0.22992411
00000000: 7922 efbd f128 fb3d 2323 64be 4450 e13d
00000010: c571 973c 024c 033e 7069 803e 447e 7ebd
00000020: 318d b8bd f0d9 80be 4e9b 223e 57da b63d
00000030: bd73 9bbd f8d2 46be 070d bfbd 738b 343e
00000040: fdde ea3d 7635 03be 83cd 4ebe fc49 113e
00000050: 801b 733e 37fd fe3d e460 7d3d 7679 9d3b
00000060: c60d be3c 6085 4fbd a7a1 303e 0a15 e63d
00000070: 084f 18bd 8c86 073e 607c ba3c d92a bc3c
00000080: 6475 60be 4e1d bd3d adb3 543d 0082 58bd
00000090: e4cb 19be a796 253e 82f1 5abe e000 28be
000000a0: f3a8 fabd 630b 703e 7c03 4c3e 01f8 77be
000000b0: 8f66 6ebe f12b 0c3e 485c 353e c833 07be
000000c0: 27b1 8c3d 1ca4 b93b 16e7 183e dc5b 033e
000000d0: b059 b83d da81 463e 7b55 773e 1e5b 5ebe
000000e0: 20ca 103d 7bbb 67be be04 97bc 2d2a 40be
000000f0: c081 a0bd 2166 6abd 3733 673e 0fd7 2cbe
00000100: 2c73 1f3d a1b4 4c3e 6540 13be 42db 133d
00000110: 3c1b dbbd 34f2 44be 1ada 1c3e ddc9 ccbd
00000120: ed4b 033d 975b 5f3e eb1b 8b3d c070 103e
00000130: c4dd 293e 4b2e 973d 68aa ed3d c9a9 70be
00000140: 5441 673e 8a25 093d 1b2c 543e d588 0c3e
00000150: f568 e5bc 2edd 7b3d ace6 d53c 2cef 5c3d
00000160: a755 7cbe bd39 063d e9b8 7dbe e7bd 55be
00000170: df1c 78be 5fee 2c3e 1a73 81bd fc33 4bbe
00000180: 5e8b 053d 3667 17be 2ac9 083e 7d05 9ebd
00000190: 5fad ce3d 3757 f7bd a59f 4abe faa6 7dbe
000001a0: 79b7 57be 7786 5ebd d256 f8bd de78 aabc
000001b0: fdee 103e 0a10 01bd 5fa6 31be d84e be3c
000001c0: 90e5 f83d 956a 80bd a2d1 17bc db3d 50be
000001d0: 15d8 15bd 7b8b e3bd a8b1 5e3c c296 783e
000001e0: cbf4 1abd 6067 e13d 9e95 3a3e 8ff7 c13b
000001f0: 149e c9bd 554a 253e 92b8 babd c1c3 12be
00000200: 88b4 5bbe 2933 e7bd 26a9 11be c338 70be
00000210: 7f51 d13c 05c1 283e b189 1cbd 7ead 9f3d
00000220: d949 333e 97ba ce3d 7e4a 4dbe 4976 293e
00000230: 944e 583e 2377 acbd e0cd 2e3d d044 6a3e
00000240: 1cd3 423e 265d 0e3e e531 813e 2ed6 0dbe
00000250: 00fe 3e3e 8ccf 5ebe 6227 d0bd aa35 1fbe
00000260: 661b 3c3e a37c ca3d 6611 19be 3eb6 023e
00000270: 91bb df3d 938b 253e cf5d 273d 16b7 75be
00000280: 81ce 36bc 2e1a 64be 4112 a33b f085 763e
00000290: b0d2 ebbd fee8 4a3e ddb0 043e 9487 d5bd
000002a0: b373 a0bb db42 34be 2f61 c9bd 5fcf 7ebd
000002b0: f0a6 273e ebe9 2fbe 271b 2c3e b63e d1bd
000002c0: 05a7 4fbe 4ec4 66bd ccb9 f13d 99db 113e
000002d0: 39b6 203e 5b6d 6dbe e18f 8cbd c8c0 3b3e
000002e0: 5429 26be b4da efbd 9e7f 8c3d d096 6a3e
000002f0: d9a2 7bbe e9b9 b3bd 844d 4a3e f681 3fbd
00000300: 4e4a 98bc 0ada 403e d79a 72be def0 03be
00000310: 7a6e bf3d 6f37 63be e209 183e 1bbb 55be
00000320: 083e 75bd 0f61 33be 2169 0c3c 12fb c0bd
00000330: 1cf8 633e 3708 f33d 1ecf babc cfd8 913c
00000340: ef23 00be d572 d53c 7ac8 6d3e 07d8 e53d
00000350: cb12 46be 792c 7cbd a6cd b9bd cae7 45be
00000360: 8d4d 323e 87fc 7fbe 114d 213e 8aec efbd
00000370: 8677 c93d 210c 53be 7499 7bbe 7996 183e
00000380: 62dd 76be f8ce 7fbe d354 1dbc dd4f cfbc
00000390: cb63 b5bb cef1 66be bedc 4dbe 054d 693e
000003a0: bb32 2c3e ccc1 38be 2e0d 71be 8266 2fbd
000003b0: 2da5 27be c192 19be 5c43 cabd eefc 3abe
000003c0: dab7 24be 55a3 fbbd 2695 443e 3e21 d93d
000003d0: 8d54 633e 6e17 65be b5c0 033e 9555 973d
000003e0: 8d88 91bc 6979 fd3d 51a2 ca3c 1030 f23d
000003f0: a54a 8e3d f9b0 493c 3b3b 3b3c 3a71 6b3e

bias_ih_l0 f4 [48]
0.077737525 -0.22634056 0.15898705 0.006554824 -0.015603894 0.08669819 0.18489052 0.10731327
-0.18960287 -0.12272936 -0.14616433 0.2203702 -0.21904473 -0.13155821 0.024964232 0.09660387
-0.19804251 -0.008841586 0.102587834 -0.10474034 -0.1153519 -0.054503668 -0.04347458 0.20781209
0.2273995 -0.14742215 -0.15954366 0.24634159 -0.068140745 -0.04160628 0.060851406 -0.21335658
-0.023342496 -0.18957303 -0.14403321 0.22883569 -0.0016382738 -0.04131978 0.21872748 0.12586123
0.10528857 -0.14923887 0.1297046 0.06280969 -0.14312989 0.17847727 -0.12255119 0.032407973
00000000: da34 9f3d d2c5 67be 80cd 223e d9c9 d63b
00000010: 7aa7 7fbc d28e b13d f153 3d3e 0fc7 db3d
00000020: 4127 42be 8859 fbbd 1aac 15be baa8 613e
00000030: 434d 60be 32b7 06be ca81 cc3c 40d8 c53d
00000040: a8cb 4abe 4ddc 10bc 9219 d23d 1a82 d6bd
00000050: 9e3d ecbd 3d3f 5fbd 6712 32bd b1cc 543e
00000060: 6adb 683e d5f5 16be 6a5f 23be f840 7c3e
00000070: 608d 8bbd 596b 2abd 533f 793d 267a 5abe
00000080: c338 bfbc 6f1f 42be 717d 13be e753 6a3e
00000090: 59bb d6ba ee3e 29bd 19fa 5f3e c4e1 003e
000000a0: 89a1 d73d 13d2 18be 48d1 043e 5ea2 803d
000000b0: a490 12be bfc2 363e 1efc fabd 39be 043d

bias_hh_l0 f4 [48]
0.15523373 0.09541856 -0.1401105 0.06967228 -0.20144826 -0.123249285 0.15627028 0.122773655
-0.1250178 0.044940118 -0.011923836 0.039996255 0.22159564 -0.0041054524 -0.14457488 0.21051328
-0.20931879 0.112877816 -0.06434991 0.21726704 0.08432719 -0.07976597 0.15827584 -0.09939249
0.13733824 0.21417665 0.033483196 -0.0641196 0.12825616 -0.029290283 -0.16716939 0.10852617
-0.17469096 -0.20270866 -0.06839404 -0.052738 0.04268779 0.20387244 -0.13446316 -0.17992136
0.18349871 0.20973869 -0.1353012 0.15483972 -0.16412306 -0.12466435 0.0071500824 0.10344142
00000000: 97f5 1e3e ce6a c33d 2079 0fbe 57b0 8e3d
00000010: 7448 4ebe 1f6a fcbd 5105 203e c170 fb3d
00000020: ab04 00be 2113 383d 315c 43bc 1dd3 233d
00000030: f8e9 623e 0887 86bb 700b 14be cb90 573e
00000040: aa57 56be 7c2c e73d e3c9 83bd 407b 5e3e
00000050: bcb3 ac3d 575c a3bd 1013 223e 4a8e cbbd
00000060: 65a2 0c3e 2051 5b3e ad25 093d 2351 83bd
00000070: 9555 033e 2df2 efbc 742e 2bbe f842 de3d
00000080: 30e2 32be dc92 4fbe 2d12 8cbd cd03 58bd
00000090: 64d9 2e3d f0c3 503e b6b0 09be 4e3d 38be
000000a0: 16e7 3b3e bdc5 563e 668c 0abe 4e8e 1e3e
000000b0: e00f 28be 0650 ffbd 3d4b ea3b 18d9 d33d

weight_ih_l0 f4 [48, 36]
0.04887849 0.12562652 -0.17368948 0.05316159 0.051522665 0.040254887 -0.080823265 -0.05297599
-0.18009904 -0.10971811 0.07262805 0.023520699 -0.029607836 0.025935214 0.17683733 0.043527987
0.04236068 0.15762937 0.14474832 0.062589325 -0.09128655 0.116007335 0.13265155 0.15383588
-0.036276206 -0.064883545 0.1085678 0.00031157103 -0.15772921 0.07342398 0.09274247 -0.21543087
0.05481325 0.21141984 0.21118407 0.16065823 -0.10092788 -0.09486781 -0.019312164 -0.22248374
-0.13213053 -0.05549238 -0.038487103 0.021534255 0.1427445 0.23142564 -0.15935773 0.057470378
0.17766432 -0.21534422 0.23879126 0.06800477 -0.024302376 0.13455833 -0.14242041 0.027385818
-0.16339235 0.109953195 -0.07823421 0.1760483 0.24915253 -0.16171058 -0.085740276 -0.14809169
-0.054431878 0.13549444 0.04603433 -0.123641245 0.21351705 0.17825203 0.10510044 0.0007902735
0.07587418 -0.0542828 -0.21326074 -0.08303082 -0.14981467 0.0857527 0.037144043 0.011217999
0.19495413 -0.23569813 -0.1183388 0.11685332 -0.1766649 -0.21413769 0.09370307 0.18213025
0.035416596 0.2407293 -0.21373154 -0.014345384 -0.23591518 0.12508145 0.113791205 0.12899953
0.048420627 -0.026430134 -0.008349591 -0.1122515 -0.11261126 -0.23435824 -0.061035343 0.21006133
9.213595e-05 -0.15190808 -0.23741052 0.09319493 -0.2341025 -0.24822803 -0.054904684 0.0071060713
0.078110985 -0.034902655 -0.1795954 0.1369039 -0.15759507 0.070745036 0.21108526 0.04840439
0.025327826 0.13336296 -0.04839677 -0.039833885 -0.110754825 -0.17075594 0.23851529 -0.028933365
-0.17214729 0.03940291 -0.08102342 0.08872242 -0.111033194 0.053228002 0.23297872 -0.17226157
0.16125159 -0.028146507 -0.05594287 -0.24472322 0.19965555 0.2086484 -0.24286653 -0.20650594
-0.10176188 -0.060611058 -0.11064901 -0.10915553 0.17083807 0.051449172 0.054278202 0.095046155
0.124253675 0.11472827 -0.036873903 -0.119812675 -0.1325684 0.054700326 0.020201655 0.036085926
0.115233004 0.23951618 -0.064263456 0.13013716 -0.18842052 0.23363434 -0.19676639 -0.06279819
-0.20729382 -0.118346356 -0.22118217 -0.09129071 0.17155923 0.077171125 0.0124173 0.17304464
0.16590051 -0.19757067 -0.07740407 0.1996217 -0.23791242 -0.061295986 -0.066259705 -0.09326648
-0.055134337 0.099149175 -0.07748062 0.09688661 -0.013101076 -0.19742295 -0.24045728 -0.040510904
0.08195377 0.1011098 -0.01313207 -0.13394727 -0.09946707 -0.16973951 -0.14988035 0.049561843
-0.025550315 0.044128608 0.20477478 -0.033603575 0.23567407 -0.15441725 0.024793843 0.12466696
-0.025734466 0.061615642 -0.07228973 -0.086615175 0.058888268 0.16769631 -0.23151693 -0.043576118
-0.21368653 -0.03630111 0.06459464 -0.11075425 0.14124334 -0.16739295 -0.20754169 0.14285786
-0.08343629 -0.0744009 -0.24819843 0.13009256 0.21931696 0.13829575 -0.05188279 0.17519033
0.08537516 0.21975371 0.19633725 0.05659759 0.13227017 -0.03274917 -0.11482343 0.13733478
-0.036699656 -0.006589358 0.06701985 -0.22510782 0.009401947 -0.102801055 0.16001111 0.22175644
0.11130894 -0.23236106 0.0450781 -0.062420726 -0.11060836 0.03342915 -0.040877193 0.09081606
00000000: d034 483d 3da4 003e a8db 31be f8bf 593d
00000010: 6e09 533d 4fe2 243d ab86 a5bd 5afd 58bd
00000020: e26b 38be e3b3 e0bd 04be 943d 7bae c03c
00000030: 228c f2bc 1676 d43c d814 353e 674a 323d
00000040: 6482 2d3d 9869 213e e738 143e d52e 803d
00000050: 71f4 babd 4195 ed3d cfd5 073e 2787 1d3e
00000060: 5c96 14bd aae1 84bd cb58 de3d 5b5a a339
00000070: c483 21be 505f 963d c4ef bd3d e999 5cbe
00000080: dc83 603d 717e 583e a340 583e 9783 243e
00000090: 47b3 cebd 0e4a c2bd 8b34 9ebc c7d2 63be
000000a0: 3a4d 07be fa4b 63bd a7a4 1dbd 9b68 b03c
000000b0: 9d2b 123e d8fa 6c3e ac2e 23be 0f66 6b3d
000000c0: a3ed 353e 3283 5cbe b285 743e 1646 8b3d
000000d0: c715 c7bc a9c9 093e a8d6 11be 3958 e03c
000000e0: 5350 27be 242f e13d 4239 a0bd 0146 343e
000000f0: d721 7f3e 7597 25be 9998 afbd 59a5 17be
00000100: f6f3 5ebd 0ebf 0a3e 7e8e 3c3d 9f37 fdbd
00000110: 37a4 5a3e b387 363e e63e d73d 5b2a 4f3a
00000120: ec63 9b3d a457 5ebd 0661 5abe 100c aabd
00000130: 0469 19be 1d9f af3d 5a24 183d b3cb 373c
00000140: 0ea2 473e da5a 71be 9d5b f2bd cb50 ef3d
00000150: a5e7 34be e946 5bbe 65e7 bf3d 5a80 3a3e
00000160: fe10 113d be81 763e 71dc 5abe e708 6bbc
00000170: c093 71be 5a15 003e 5d0b e93d 7418 043e
00000180: b554 463d 0284 d8bc b9cc 08bc 1de4 e5bd
00000190: bba0 e6bd 9bfb 6fbe 3200 7abd 511a 573e
000001a0: 1d39 c138 cb8d 1bbe be1b 73be fcdc be3d
000001b0: 91b8 6fbe 7d2f 7ebe bce3 60bd 0cda e83b
000001c0: a7f8 9f3d 16f6 0ebd dbe7 37be 8930 0c3e
000001d0: 9a60 21be c6e2 903d bc26 583e af43 463d
000001e0: 4d7c cf3c 4d90 083e b13b 46bd db28 23bd
000001f0: 6dd3 e2bd a5da 2ebe 5a3d 743e aa05 edbc
00000200: 6147 30be f264 213d 9bef a5bd 1ab4 b53d
00000210: 5f65 e3bd 9b05 5a3d f991 6e3e 5665 30be
00000220: 231f 253e 8193 e6bc 5a24 65bd b998 7abe
00000230: 8172 4c3e eda7 553e 01b2 78be 4b76 53be
00000240: 8868 d0bd 4d43 78bd f39b e2bd ef8c dfbd
00000250: 2df0 2e3e 5ebc 523d d252 5e3d 8fa7 c23d
00000260: b678 fe3d a8f6 ea3d 1709 17bd 5960 f5bd
00000270: 03c0 07be 730d 603d f17d a53c d6ce 133d
00000280: 48ff eb3d bb43 753e 8f9c 83bd ad42 053e
00000290: 4ff1 40be d73d 6f3e 217d 49be 569c 80bd
000002a0: d544 54be 935f f2bd 947d 62be a0f6 babd
000002b0: 39ad 2f3e e50b 9e3d ee71 4b3c 9d32 313e
000002c0: d3e1 293e f74f 4abe 0686 9ebd a269 4c3e
000002d0: 509f 73be 8011 7bbd 2bb3 87bd 7f02 bfbd
000002e0: 8bd4 61bd b90e cb3d 29ae 9ebd 7d6c c63d
000002f0: e5a5 56bc 3e29 4abe 6f3a 76be c3ee 25bd
00000300: 61d7 a73d a812 cf3d e527 57bc 7929 09be
00000310: 64b5 cbbd 32d0 2dbe 3c7a 19be 5c01 4b3d
00000320: e54e d1bc 33c0 343d 7bb0 513e e7a3 09bd
00000330: 8b54 713e 8e1f 1ebe 751c cb3c 6451 ff3d
00000340: 16d1 d2bc af60 7c3d a30c 94bd 4c63 b1bd
00000350: d334 713d 95b8 2b3e c612 6dbe df7c 32bd
00000360: a4d0 5abe 79b0 14bd 324a 843d 20d3 e2bd
00000370: 18a2 103e 0f69 2bbe cf85 54be 5549 123e
00000380: a5e0 aabd 805f 98bd bb27 7ebe fc36 053e
00000390: a094 603e 679d 0d3e 0c83 54bd 1865 333e
000003a0: 2cd9 ae3d 1e07 613e a20c 493e e0d2 673d
000003b0: d571 073e fe23 06bd 8c28 ebbd 7da1 0c3e
000003c0: 6152 16bd 8beb d7bb b441 893d aa82 66be
000003d0: a00a 1a3c 5c89 d2bd f4d9 233e 1f14 633e
000003e0: f1f5 e33d 0ff0 6dbe d0a3 383d e0ac 7fbd
000003f0: a386 e2bd 01ed 083d d86e 27bd c5fd b93d

weight_hh_l0 f4 [48, 16]
-0.19242878 0.041923977 -0.22852029 -0.22900985 0.15723263 -0.13614385 -0.099469714 0.13779962
-0.11295499 -0.03233187 0.14518227 0.16055182 -0.046629943 -0.14240195 -0.04687485 0.08767859
0.07574302 0.07934296 0.21530282 -0.16472091 -0.04186152 0.13559742 -0.026606804 0.1399346
-0.16808723 0.21734305 0.007229633 -0.20518355 -0.03771041 -0.070246674 -0.12861827 -0.09178132
-0.021901308 -0.058270052 0.2137717 -0.00964076 0.010495689 -0.08592745 0.043415684 0.061447162
0.059112824 0.06893914 0.024254803 0.10058474 0.2448519 0.12887749 0.1266754 -0.15621991
-0.15119462 0.060793884 0.21852002 -0.1394576 0.19475059 -0.00062063616 -0.13238622 0.24174538
-0.15264684 -0.18195352 0.16708152 -0.19520018 0.1909113 -0.12934391 -0.11193766 0.14410856
-0.16154793 -0.11965965 0.13457312 0.17532448 0.22138321 -0.021153541 -0.02068328 0.21995153
0.008842844 0.19726092 -0.16036464 -0.2277803 -0.10223091 0.13074459 -0.007600741 -0.017611945
0.048649274 0.14985801 8.397016e-06 0.045999322 0.11752261 0.030290987 -0.0525094 0.24113266
-0.12348056 0.15136471 0.22444563 0.21489868 -0.13971601 -0.10983809 0.0067922175 0.104218595
0.032064274 0.02325614 -0.10348237 -0.1685862 0.01986702 -0.21089172 -0.040559642 -0.08711189
-0.13396282 0.16461016 -0.22899377 -0.16668774 -0.070245445 0.064674854 0.20633586 -0.025159465
-0.23845822 0.0033033257 -0.0026378469 -0.11811856 0.064660914 -0.13214037 -0.06928271 -0.1896508
0.07212574 -0.06435148 0.11485253 -0.2169418 0.18736611 0.120886736 0.010308044 0.21511091
0.095142685 0.08109892 0.09401462 -0.096134886 0.043573882 -0.05365129 0.09997262 0.15994214
0.07658843 -0.09131372 0.1555324 0.13848099 -0.15489946 0.13639851 0.07084361 0.2223704
-0.08199724 -0.08821949 0.074242726 0.0548398 0.043345205 0.23423807 -0.20390064 0.12674509
-0.19028492 0.03466152 0.017766463 0.12612385 0.117960006 -0.08874721 0.103087544 -0.11022417
-0.018099708 0.1512079 -0.029520137 -0.071110085 -0.23437187 0.0054827146 0.030295685 0.13553725
0.011196824 -0.035552084 -0.032322653 3.876939e-06 0.24523465 0.06629146 0.06487082 0.14467192
-0.1374527 0.14546953 0.20585656 -0.015207475 0.10535806 0.09471163 -0.23644851 0.030257156
-0.12079781 -0.076171294 -0.22371548 0.039181143 -0.116943814 -0.09022351 0.21909145 0.112612404
-0.048632544 0.18089294 0.09022951 -0.18334833 0.17387342 0.23359278 -0.00087920745 0.1215909
-0.07423171 -0.23687674 0.022076922 -0.18590046 -0.12280321 -0.19746591 -0.14160152 -0.23611549
-0.1900778 0.23876488 -0.107556954 0.24683058 -0.14262612 -0.046080504 0.15910964 -0.1738284
0.1547998 0.1372373 -0.03806838 0.070693545 -0.026287131 -0.18630053 -0.12160729 0.16413195
0.14365977 0.013836869 -0.15448569 -0.1285836 0.24038233 -0.13804741 0.10599421 0.16683827
0.031218005 0.11375802 -0.13626294 -0.10856462 -0.0700211 -0.1361432 0.079326555 0.14208326
-0.15553015 0.041729737 -0.1408463 0.09757706 0.19710192 0.17819577 -0.23999776 -0.04675592
-0.23597583 0.1441084 -0.00900093 -0.19183193 0.16709189 -0.081596084 -0.08576815 0.010685927
00000000: 0d0c 45be 7ab8 2b3d 3901 6abe 8f81 6abe
00000010: 9701 213e 4b69 0bbe c7b6 cbbd 581b 0d3e
00000020: f254 e7bd 6c6e 04bd a9aa 143e b267 243e
00000030: 0aff 3ebd d1d1 11be d8ff 3fbd d590 b33d
00000040: 281f 9b3d 907e a23d 5878 5c3e 99ac 28be
00000050: fc76 2bbd 0dda 0a3e 83f6 d9bc 044b 0f3e
00000060: 0f1f 2cbe 2d8f 5e3e 8fe6 ec3b a31b 52be
00000070: 3b76 1abd 7ddd 8fbd 82b4 03be d8f7 bbbd
00000080: 5f6a b3bc 94ac 6ebd f8e6 5a3e 47f4 1dbc
00000090: 1cf6 2b3c bbfa afbd a5d4 313d 05b0 7b3d
000000a0: 4a20 723d f72f 8d3d 02b2 c63c 5fff cd3d
000000b0: 75ba 7a3e 76f8 033e 32b7 013e 1df8 1fbe
000000c0: c3d2 1abe 0203 793d b6c3 5f3e f9cd 0ebe
000000d0: b36c 473e 30b2 22ba 4190 07be 1a8c 773e
000000e0: 744f 1cbe 0652 3abe 6b17 2b3e 8ee2 47be
000000f0: 407e 433e bb72 04be 923f e5bd 3291 133e
00000100: d26c 25be 1e10 f5bd 89cd 093e 4388 333e
00000110: 48b2 623e 314a adbc fb6f a9bc f93a 613e
00000120: 93e1 103c c4fe 493e a136 24be 3d3f 69be
00000130: 705e d1bd e9e1 053e a30f f9bb ed46 90bc
00000140: 7644 473d 6174 193e e9e0 0c37 c969 3c3d
00000150: b2af f03d ce24 f83c 1914 57bd 7beb 763e
00000160: 60e3 fcbd 5aff 1a3e 13d5 653e 660e 5c3e
00000170: b711 0fbe cbf2 e0bd 4091 de3b 8f70 d53d
00000180: d455 033d a983 be3c 91ee d3bd dca1 2cbe
00000190: 29c0 a23c 00f4 57be de21 26bd b867 b2bd
000001a0: 8d2d 09be 918f 283e 587d 6abe 31b0 2abe
000001b0: d8dc 8fbd 4074 843d b549 533e 391b cebc
000001c0: 642e 74be 9c7c 583b badf 2cbb 25e8 f1bd
000001d0: f16c 843d ce4f 07be 18e4 8dbd d233 42be
000001e0: a9b6 933d b5ca 83bd ce37 eb3d fe25 5ebe
000001f0: e7dc 3f3e 7793 f73d 12e3 283c 0946 5c3e
00000200: 2bda c23d 3117 a63d bd8a c03d 5ee2 c4bd
00000210: 877a 323d 74c1 5bbd 72be cc3d dfc7 233e
00000220: 65da 9c3d b002 bbbd e343 1f3e f6cd 0d3e
00000230: f79d 1ebe 0dac 0b3e 7416 913d 11b5 633e
00000240: 2bee a7bd 6cac b4bd 920c 983d b39f 603d
00000250: be8a 313d 1bdc 6f3e 54cb 50be 77c9 013e
00000260: 0dda 42be 3df9 0d3d f98a 913c 9c26 013e
00000270: 0495 f13d 19c1 b5bd 901f d33d 36bd e1bd
00000280: d745 94bc 3ed6 1a3e 37d4 f1bc 2aa2 91bd
00000290: 2eff 6fbe 58a8 b33b a82e f83c 47ca 0a3e
000002a0: e272 373c 109f 11bd c264 04bd a716 8236
000002b0: cb1e 7b3e d1c3 873d feda 843d e024 143e
000002c0: 67c0 0cbe f7f5 143e 10cc 523e c628 79bc
000002d0: f7c5 d73d 2cf8 c13d 8f1f 72be dbdd f73c
000002e0: d864 f7bd b2ff 9bbd ac15 65be 687c 203d
000002f0: 3d80 efbd 1bc7 b8bd 8259 603e 55a1 e63d
00000300: eb32 47bd 003c 393e 40ca b83d aabf 3bbe
00000310: e00b 323e f232 6f3e 9d7a 66ba a604 f93d
00000320: cb06 98bd d18f 72be a9da b43c b15c 3ebe
00000330: 4080 fbbd 8134 4abe fdff 10be 42c8 71be
00000340: c1a3 42be c87e 743e d246 dcbd 28c1 7c3e
00000350: 950c 12be e9be 3cbd a3ed 223e 1200 32be
00000360: d783 1e3e ef87 0c3e 97ed 1bbd c7c7 903d
00000370: 1c58 d7bc 91c5 3ebe 3e0d f9bd 3512 283e
00000380: 8c1b 133e 09b4 623c 7f31 1ebe 6bab 03be
00000390: c926 763e 4d5c 0dbe 7e13 d93d a7d7 2a3e
000003a0: e7bc ff3c f7f9 e83d 8388 0bbe 2157 debd
000003b0: 3967 8fbd 1f69 0bbe f675 a23d 467e 113e
000003c0: 4c43 1fbe cdec 2a3d 033a 10be 7bd6 c73d
000003d0: 16d5 493e f478 363e f9c1 75be 2383 3fbd
000003e0: a6a3 71be 2791 133e a378 13bc 976f 44be
000003f0: 231a 2b3e d91b a7bd 36a7 afbd 0714 2f3c

bias_ih_l0 f4 [48]
-0.048253138 0.081453994 -0.035296377 -0.06044219 0.10370858 -0.09171859 -0.18478288 -0.14502138
0.07506386 -0.035180744 -0.11987109 -0.14323767 0.025496222 0.2114351 -0.22449411 0.23364517
0.03818289 0.04244485 -0.23540838 0.17728677 -0.15433344 0.055536304 -0.06632321 -0.2122924
-0.21851487 0.21841687 -0.046312135 -0.111782275 0.24658708 -0.12342154 -0.11483587 -0.18060513
-0.2076255 0.040908743 -0.007425552 -0.09010397 -0.122173086 0.18628085 0.13411164 0.116091326
-0.025671678 -0.11540799 0.18205878 -0.12533368 0.23662694 -0.2492605 0.15392204 -0.18348761
00000000: 15a5 45bd 5ad1 a63d ef92 10bd 3b92 77bd
00000010: 2a65 d43d f5d6 bbbd b937 3dbe 7c80 14be
00000020: 15bb 993d af19 10bd f97e f5bd e5ac 12be
00000030: 74dd d03c 7182 583e c9e1 65be ae40 6f3e
00000040: a965 1c3d a7da 2d3d e50e 71be aa8a 353e
00000050: 9609 1ebe 097a 633d 77d4 87bd 2e63 59be
00000060: 5dc2 5fbe aca8 5f3e cbb1 3dbd 1bee e4bd
00000070: 5381 7c3e 6fc4 fcbd 122f ebbd 8df0 38be
00000080: c79b 54be ed8f 273d 0b52 f3bb 6e88 b8bd
00000090: e235 fabd 68c0 3e3e 9054 093e 4ac1 ed3d
000000a0: 694d d2bc 065b ecbd 9e6d 3a3e 7957 00be
000000b0: 554e 723e 253e 7fbe bd9d 1d3e 2de4 3bbe

bias_hh_l0 f4 [48]
-0.23208411 -0.18612781 -0.03867693 -0.026703855 -0.12203982 0.19084495 -0.06991848 0.13506967
-0.1421208 0.2045067 -0.19044134 0.21457113 -0.1607328 0.023349863 0.025979659 0.1949708
-0.083719194 0.05099304 0.028372183 -0.090934016 -0.097966306 -0.22078814 -0.2419922 -0.09743686
-0.19422051 -0.12530802 0.16657743 -0.09297349 -0.23921722 0.12952918 0.019464709 -0.14225483
0.21948582 -0.048545245 0.10404059 -0.22904249 -0.06196112 0.24905904 -0.23626207 -0.07388947
-0.23708676 0.026350275 0.2179246 0.17056048 0.16472022 0.18733798 0.18401267 -0.13726328
00000000: 75a7 6dbe 4a98 3ebe b36b 1ebd 0bc2 dabc
00000010: 03f0 f9bd dc6c 433e 6c31 8fbd b44f 0a3e
00000020: 1d88 11be 346a 513e 0e03 43be 89b8 5b3e
00000030: 2497 24be 3648 bf3c 4bd3 d43c 6da6 473e
00000040: f874 abbd 14de 503d c86c e83c 9d3b babd
00000050: 8fa2 c8bd 4916 62be cecc 77be fa8c c7bd
00000060: bee1 46be bf50 00be 4693 2a3e e368 bebd
00000070: 5cf5 74be 4ca3 043e 7474 9f3c 40ab 11be
00000080: e4c0 603e 61d7 46bd 3c13 d53d 1d8a 6abe
00000090: f2ca 7dbd 5509 7f3e afee 71be 5d53 97bd
000000a0: dfc6 72be 88dc d73c a027 5f3e 68a7 2e3e
000000b0: 6bac 283e 87d5 3f3e d16d 3c3e bf8e 0cbe

weight_ih_l0 f4 [3, 11]
-0.6686117 -0.36584622 -0.4210346 -0.29875594 -0.0014344725 0.4042505 -0.46458504 0.71098423
0.4908509 -0.67322487 -0.5202956 -0.019042563 0.48178244 -0.8295365 0.13505325 0.081273235
-0.040355716 -0.21386512 0.41413426 0.75112563 -0.62335545 -0.692111 -0.8140375 0.21978767
-0.9832004 -0.2230437 0.8378654 -0.44554606 -0.7897771 0.09599724 -0.27071986 0.5813601
0.6783486
00000000: 232a 2bbf 3250 bbbe d991 d7be 8af6 98be
00000010: e904 bcba ecf9 ce3e 17de edbe 1003 363f
00000020: cf50 fb3e 7758 2cbf 1832 05bf 26ff 9bbc
00000030: 30ac f63e 815c 54bf 664b 0a3e 9572 a63d
00000040: 094c 25bd 75ff 5abe 6809 d43e c549 403f
00000050: 3994 1fbf 302e 31bf c364 50bf 0510 613e
00000060: 05b3 7bbf 9165 64be 597e 563f 9d1e e4be
00000070: d52e 4abf 339a c43d cb9b 8abe 04d4 143f
00000080: 41a8 2d3f

weight_hh_l0 f4 [3, 1]
0.1769018 -0.1370103 0.85069185
00000000: bf25 353e 6e4c 0cbe f1c6 593f

bias_ih_l0 f4 [3]
-0.49925977 -0.9636846 0.49898636
00000000: fa9e ffbe 09b4 76bf 247b ff3e

bias_hh_l0 f4 [3]
0.80166584 -0.29627004 -0.30495465
00000000: f939 4d3f b5b0 97be 0423 9cbe

weight f4 [1, 16]
0.07410841 0.10037321 0.17375943 -0.023714231 -0.19971712 -0.17528202 0.15421951 0.020872384
-0.07469346 -0.02913174 0.18946354 -0.12090179 -0.075900644 0.09794428 -0.0825976 -0.104446076
00000000: 26c6 973d 7890 cd3d feed 313e 5944 c2bc
00000010: a582 4cbe 217d 33be b8eb 1d3e 90fc aa3c
00000020: e2f8 98bd b0a5 eebc bb02 423e 5c9b f7bd
00000030: cc71 9bbd 0397 c83d ee28 a9bd d3e7 d5bd

weight f4 [680, 17]
-0.0047506043 -0.16709454 0.13533178 0.03727971 0.23702487 -0.17861171 -0.07952497 0.05761177
0.19409192 -0.15648803 0.03107522 -0.0048839515 -0.0009284008 0.035329487 -0.18790016 0.23779279
0.2083069 0.19740823 0.20515582 -0.23001775 -0.115144536 -0.18647236 0.041482333 0.0049066385
0.13404801 -0.031159403 -0.1452897 0.17029686 0.06636784 0.07083112 -0.23002052 0.0704165
-0.1683797 0.16274962 0.04843505 -0.049485482 0.0010659449 -0.055314478 0.18469106 -0.1621516
-0.045110293 -0.14657314 -0.00016066546 0.03468658 0.10323381 0.22272576 -0.22477908 0.07968615
0.11748958 0.09524634 0.13515817 0.2352837 0.03181701 0.07145138 -0.13115448 0.15282457
0.008886562 0.001450387 0.22519268 0.17168614 0.12119945 0.12922193 -0.20228584 0.21036005
-0.08224653 0.045590088 -0.2321619 -0.05880977 -0.12455129 -0.17876776 -0.19858061 -0.10212612
-0.18708564 -0.0323734 -0.23176107 -0.061979514 0.15156023 0.057773124 0.17569435 0.14677253
-0.022929238 -0.22224644 -0.13672282 -0.03762541 0.052882813 -0.21385144 0.01387924 0.12062361
0.1630248 0.21420759 0.12483698 -0.039275587 -0.1338095 -0.13586871 0.2076304 0.18103184
0.05064365 -0.015212807 -0.16218369 -0.222944 -0.08409545 -0.04260767 -0.11121338 -0.03290656
-0.10952625 0.022893278 0.08710073 0.1795738 -0.04135052 0.04960385 0.15537861 0.14864825
-0.15206094 0.03694775 0.008814662 -0.119616166 -0.013378164 0.023977367 -0.03605607 0.20110491
-0.13836223 -0.12076387 -0.15887974 -0.18789588 0.095678285 -0.10928121 -0.17920573 0.17774786
0.19424012 -0.20954044 0.19893052 0.17585288 -0.16993922 0.20890947 0.17152537 -0.1317525
-0.23254904 0.22514585 -0.09254164 0.22573887 -0.030461771 0.2161102 -0.122510836 -0.012660615
0.13693021 -0.22348632 -0.11132716 -0.23678091 -0.06427054 -0.010049494 0.13819079 -0.07491185
0.12732665 0.21010934 -0.1828913 -0.21536781 -0.18749906 -0.045493577 0.13051026 -0.107168764
-0.17546949 -0.058047 -0.213644 0.062977865 0.017418051 -0.081555896 0.084835604 0.17624822
-0.12190698 0.10669343 0.10723817 -0.10290278 0.22224112 -0.17795551 0.019715812 -0.21964185
0.21449181 -0.019325007 0.13234523 -0.017444553 -0.14950198 -0.036249798 -0.038133897 -0.0034068702
-0.17486498 -0.22643565 -0.038807575 -0.037848618 0.00010278693 -0.15083207 -0.13482738 -0.0657836
-0.12615727 -0.043608684 0.0320819 0.21462063 0.045380503 -0.15266441 0.08392194 -0.081850275
0.106035724 0.22726093 -0.2059809 -0.038626187 -0.06799228 -0.1203444 -0.20932852 0.07778804
-0.13147072 -0.012460646 -0.22276035 0.053639855 -0.041210297 -0.08149607 -0.1937393 0.15624993
0.049080245 0.20278476 0.199389 0.1715724 0.21179077 0.08246938 0.0702573 0.04013971
0.1456714 0.098624036 -0.19496258 -0.17917445 -0.022361593 0.18697278 0.11623919 -0.03273504
0.1420469 -0.03410627 0.22834404 -0.15441166 -0.051254448 0.015661558 -0.105034046 -0.1752009
-0.0049575954 -0.19504482 0.061789937 -0.20744883 0.06745977 -0.047806386 -0.008457206 0.07582711
0.072454646 0.009806573 -0.23863763 -0.11310696 0.06766176 -0.14366521 0.15527539 0.09435999
00000000: f5aa 9bbb d51a 2bbe 6a94 0a3e 9cb2 183d
00000010: a6b6 723e fde5 36be fddd a2bd 52fa 6b3d
00000020: 08c0 463e 663e 20be 7691 fe3c 8e09 a0bb
00000030: ec5f 73ba a7b5 103d e668 40be f47f 733e
00000040: 674e 553e 6225 4a3e 5e14 523e c689 6bbe
00000050: e6d0 ebbd 9cf2 3ebe 61e9 293d dec7 a03b
00000060: e243 093e 0142 ffbc d3c6 14be 4d62 2e3e
00000070: ddeb 873d e80f 913d 808a 6bbe 8736 903d
00000080: ba6b 2cbe d6a7 263e d563 463d 4ab1 4abd
00000090: 2db7 8b3a 6f91 62bd a71f 3d3e 120b 26be
000000a0: 92c5 38bd 4517 16be 4e78 28b9 8413 0e3d
000000b0: 3f6c d33d 3912 643e 7d2c 66be 7e32 a33d
000000c0: 609e f03d 8310 c33d e766 0a3e 36ee 703e
000000d0: 8e52 023d 1a55 923d 5c4d 06be 0b7e 1c3e
000000e0: f198 113c e91a be3a e998 663e 7ece 2f3e
000000f0: 6b37 f83d c152 043e 0524 4fbe a068 573e
00000100: de70 a8bd acbc 3a3d d9bb 6dbe 83e2 70bd
00000110: bf14 ffbd e50e 37be b758 4bbe 8027 d1bd
00000120: 6193 3fbe f899 04bd c652 6dbe 3bde 7dbd
00000130: 9b32 1b3e 83a3 6c3d 38e9 333e 8a4b 163e
00000140: 19d6 bbbc 9294 63be 1101 0cbe 1a1d 1abd
00000150: a69b 583d dffb 5abe c065 633c 8309 f73d
00000160: f9ef 263e 3c59 5b3e 88aa ff3d 70df 20bd
00000170: 5c05 09be 2b21 0bbe 109d 543e 6960 393e
00000180: b76f 4f3d 233f 79bc 7b13 26be 6f4b 64be
00000190: 3c3a acbd 6185 2ebd d7c3 e3bd 07c9 06bd
000001a0: 4c4f e0bd af8a bb3c de61 b23d 32e2 373e
000001b0: 2a5f 29bd 682d 4b3d 921b 1f3e 3f37 183e
000001c0: ddb5 1bbe 8656 173d 5f6b 103c 52f9 f4bd
000001d0: 1630 5bbc 2f6c c43c 88af 13bd 72ee 4d3e
000001e0: d4ae 0dbe 0c53 f7bd 5fb1 22be c767 40be
000001f0: faf2 c33d d4ce dfbd b581 37be 8903 363e
00000200: e2e6 463e c591 56be 71b4 4b3e c712 343e
00000210: 8c04 2ebe 5dec 553e 59a4 2f3e 21ea 06be
00000220: 5621 6ebe a28c 663e 7986 bdbd 1728 673e
00000230: f78a f9bc fe4b 5d3e f6e6 fabd 786e 4fbc
00000240: 6f37 0c3e 99d9 64be 7eff e3bd b276 72be
00000250: 46a0 83bd a2a6 24bc e381 0d3e 626b 99bd
00000260: eb61 023e e726 573e db47 3bbe 6189 5cbe
00000270: c1ff 3fbe 7957 3abd 7ba4 053e 4c7b dbbd
00000280: 46ae 33be b1c2 6dbd 7ec5 5abe 8afa 803d
00000290: 4db0 8e3c c706 a7bd 4abe ad3d 6a7a 343e
000002a0: 5eaa f9bd 1682 da3d b09f db3d b1be d2bd
000002b0: 2d93 633e f839 36be 0e83 a13c cbe9 60be
000002c0: bea3 5b3e 7a4f 9ebc 8285 073e e1e7 8ebc
000002d0: 0c17 19be ab7a 14bd 4a32 1cbd cc45 5fbb
000002e0: ce0f 33be bfde 67be b1f4 1ebd 2707 1bbd
000002f0: 508f d738 b973 1abe 3010 0abe 8db9 86bd
00000300: 5f2f 01be 059f 32bd 4f68 033d 83c5 5b3e
00000310: e8e0 393d 0f54 1cbe 44df ab3d 1ea1 a7bd
00000320: 4229 d93d 17b7 683e a8ec 52be 7e36 1ebd
00000330: 893f 8bbd 2077 f6bd 375a 56be 564f 9f3d
00000340: 43a0 06be bd27 4cbc 4a1b 64be 77b5 5b3d
00000350: 21cc 28bd 69e7 a6bd 9863 46be fbff 1f3e
00000360: 5e08 493d cfa6 4f3e a12c 4c3e adb0 2f3e
00000370: aedf 583e b5e5 a83d 0fe3 8f3d 8969 243d
00000380: e22a 153e 66fb c93d 45a4 47be 8279 37be
00000390: a92f b7bc cb75 3f3e d00e ee3d 2d15 06bd
000003a0: be74 113e 04b3 0bbd 05d3 693e 171e 1ebe
000003b0: 2ff0 51bd ab4c 803c 171c d7bd dd67 33be
000003c0: 5373 a2bb d4b9 47be 7217 7d3d 776d 54be
000003d0: 5928 8a3d a1d0 43bd 1890 0abc 3e4b 9b3d
000003e0: 1a63 943d c0ab 203c 6c5d 74be 9fa4 e7bd
000003f0: 4092 8a3d f91c 13be 8300 1f3e cf3f c13d

bias f4 [680]
-0.14211798 -0.19230965 -0.12292538 0.013809812 -0.16809537 -0.011312446 0.22009057 -0.10999318
0.2409443 0.18091995 -0.076409064 -0.0822384 -0.1836441 -0.12343479 -0.102240026 0.19248934
-0.07707177 0.15434511 0.07373546 0.14531188 0.0457981 0.051481158 -0.08855245 0.07106834
0.10109217 -0.23091431 -0.04139396 0.22106251 0.107383214 0.02688484 0.21871448 0.1845859
-0.10058627 0.15028328 0.0949107 0.08688411 0.20768043 0.10721081 -0.2136138 0.10672838
-0.10262718 -0.0999214 -0.0002975658 0.19254604 -0.09904871 -0.016589899 -0.18975952 0.016582586
0.066629566 0.03713292 0.084050305 -0.032882903 -0.1248433 0.1271011 0.21889566 -0.098491386
0.038117893 0.0952265 -0.1246348 0.05152706 0.0044150148 -0.010200116 0.043416668 0.18164818
-0.09233669 0.20940883 0.02732291 -0.06812449 0.0989572 0.07885931 0.057878423 0.17834291
0.091243155 -0.101175845 -0.06670667 0.049197383 0.061528843 -0.14323868 -0.03738055 -0.17319787
0.010821809 -0.0076824683 -0.12761416 -0.18133627 -0.06097528 0.025632255 -0.21451846 -0.13340883
0.10363268 0.19043382 -0.20635925 0.16863023 0.13518931 -0.13240093 0.024424419 0.06421745
0.17142402 -0.093763076 0.20720734 -0.22938293 -0.22908519 -0.1190362 -0.0315839 -0.0059517645
-0.0029215785 -0.16352896 0.07472067 0.019311277 -0.12636676 -0.049142655 0.13165706 0.18333757
-0.14368378 -0.21369898 -0.0026082105 0.2284946 -0.05661167 0.09638213 0.22710018 0.20358922
0.032686014 0.22390111 0.21703288 -0.1184401 0.12148287 -0.009466498 -0.14531396 0.23949568
0.08662385 -0.0698974 0.048004273 -0.07983984 0.1584198 0.12382655 -0.20256913 0.07745772
0.15957175 -0.018807312 0.035615925 -0.16988839 0.048617598 -0.20211513 0.14424226 0.21584426
-0.18681163 -0.0005225736 0.12580252 0.028859358 -0.029594503 -0.1281003 -0.0062555536 0.02695839
0.21170379 -0.13073212 -0.021270001 0.17637418 -0.13658191 0.1635959 -0.07925529 0.0633323
-0.18297291 0.19335756 0.15595159 -0.06490353 -0.16321324 0.14671184 0.032389354 0.006851117
-0.10158375 -0.23837206 0.15223694 -0.20897071 -0.05446555 0.18892857 0.16763309 0.16086112
0.03211621 -0.0040816558 -0.15212683 0.19636184 -0.12736265 0.15293214 0.0096049225 0.20298693
0.10177703 -0.040121097 0.18136843 -0.1184835 -0.22494657 -0.20622888 0.1308136 0.17670867
-0.17407143 -0.09585866 -0.03477712 0.21269426 0.09368661 -0.025481395 -0.18720177 -0.1306794
-0.17727305 -0.19799481 0.13341203 -0.052475985 0.23259085 0.11938579 0.18768339 0.23428625
0.15602188 -0.0940198 0.11637664 -0.151979 0.13743794 0.14263359 -0.16559829 -0.20662539
-0.23065625 -0.06901389 0.17673887 0.10448203 -0.12871602 0.13243532 -0.22127558 -0.074902445
0.050826382 0.080579646 -0.0005763988 -0.21644703 -0.03194567 -0.017307432 -0.18894841 0.08494819
0.04718386 -0.028538454 -0.021634439 -0.20513523 -0.1426854 0.025900004 -0.21501991 0.049745522
-0.23219022 -0.071235776 0.0071467394 -0.13351943 0.13970733 0.21480781 -0.032846145 -0.18186049
-0.15351212 -0.20715412 0.063640624 0.13751973 0.23241374 0.16940616 0.10724337 -0.21271685
00000000: 6087 11be d2ec 44be 4dc0 fbbd 8d42 623c
00000010: 3121 2cbe d657 39bc 6c5f 613e 1b44 e1bd
00000020: 1aba 763e 1443 393e 5b7c 9cbd 9b6c a8bd
00000030: 330d 3cbe 61cb fcbd 3863 d1bd ed1b 453e
00000040: ced7 9dbd a50c 1e3e 9e02 973d a3cc 143e
00000050: ca96 3b3d e8dd 523d fd5a b5bd 478c 913d
00000060: 6909 cf3d cd74 6cbe b78c 29bd 365e 623e
00000070: bbeb db3d 993d dc3c b0f6 5f3e 1604 3d3e
00000080: 2d00 cebd dce3 193e 8b60 c23d 4cf0 b13d
00000090: 2eaa 543e 5791 db3d 93bd 5abe 6994 da3d
000000a0: 332e d2bd 97a3 ccbd 9b02 9cb9 ca2a 453e
000000b0: 0dda cabd 8ae7 87bc 5250 42be 34d8 873c
000000c0: 1575 883d b018 183d 9122 ac3d 39b0 06bd
000000d0: d8ad ffbd ca26 023e 2f26 603e dab5 c9bd
000000e0: 8221 1c3d 1c06 c33d 8840 ffbd 0a0e 533d
000000f0: d4ab 903b 631e 27bc add5 313d fb01 3a3e
00000100: 051b bdbd 456f 563e 4cd4 df3c da84 8bbd
00000110: 13aa ca3d fd80 a13d ed11 6d3d 869f 363e
00000120: b1dd ba3d 4835 cfbd 829d 88bd 3283 493d
00000130: ab05 7c3d 29ad 12be 591c 19bd c85a 31be
00000140: f54d 313c 37bd fbbb 49ad 02be 37b0 39be
00000150: 37c1 79bd bcfa d13c baaa 5bbe 539c 08be
00000160: 5f3d d43d 1501 433e d74f 53be 67ad 2c3e
00000170: 116f 0a3e 1c94 07be b815 c83c 7084 833d
00000180: c789 2f3e db06 c0bd 292e 543e 5ce3 6abe
00000190: 4f95 6abe 40c9 f3bd 1f5e 01bd 0507 c3bb
000001a0: f477 3fbb 2374 27be 2707 993d af32 9e3c
000001b0: 4a66 01be cf49 49bd 1cd1 063e d8bc 3b3e
000001c0: d721 13be e8d3 5abe 83ee 2abb 7dfa 693e
000001d0: a3e1 67bd ff63 c53d f38c 683e b179 503e
000001e0: c5e1 053d 5546 653e de3d 5e3e b990 f2bd
000001f0: 03cc f83d 5f19 1bbc 2fcd 14be 5b3e 753e
00000200: d867 b13d 5e26 8fbd 21a0 443d 1283 a3bd
00000210: cd38 223e c698 fd3d 486e 4fbe 27a2 9e3d
00000220: c766 233e cb11 9abc 01e2 113d 39f7 2dbe
00000230: 3f23 473d 45f7 4ebe 3eb4 133e 4706 5d3e
00000240: 8c4b 3fbe 52fd 08ba 60d2 003e 766a ec3c
00000250: 2c70 f2bc ba2c 03be 63fb ccbb d7d7 dc3c
00000260: e1c8 583e a4de 05be 6d3e aebc 6f9b 343e
00000270: 21dc 0bbe af85 273e 9950 a2bd 5db4 813d
00000280: 405d 3bbe 86ff 453e c6b1 1f3e 24ec 84bd
00000290: 5f21 27be a13b 163e b3aa 043d 567f e03b
000002a0: 240b d0bd ce17 74be 00e4 1b3e 6bfc 55be
000002b0: 4517 5fbd 7e76 413e 02a8 2b3e c7b8 243e
000002c0: 498c 033d 69bf 85bb 23c7 1bbe 1413 493e
000002d0: 5b6b 02be 3e9a 1c3e f75d 1d3c cedb 4f3e
000002e0: 7a70 d03d 0556 24bd a5b8 393e 7aa7 f2bd
000002f0: 6558 66be aa2d 53be 00f4 053e 1ef3 343e
00000300: c83f 32be 8c51 c4bd 7472 0ebd 86cc 593e
00000310: c4de bf3d 5cbe d0bc d2b1 3fbe d2d0 05be
00000320: 1187 35be 27bf 4abe 2a9d 083e 0ff1 56bd
00000330: 4c2c 6e3e 8980 f43d 1330 403e bce8 6f3e
00000340: 33c4 1f3e 748d c0bd e056 ee3d 62a0 1bbe
00000350: 88bc 0c3e 8a0e 123e 9992 29be 9b95 53be
00000360: 2731 6cbe 2857 8dbd 09fb 343e adfa d53d
00000370: 22ce 03be 209d 073e 1196 62be 7466 99bd
00000380: 532f 503d f106 a53d 7819 17ba 4aa4 5dbe
00000390: 76d9 02bd 51c8 8dbc b17b 41be 51f9 ad3d
000003a0: dd43 413d 7ac9 e9bc b53a b1bc f80e 52be
000003b0: 1f1c 12be 3f2c d43c 2e2e 5cbe f6c1 4b3d
000003c0: 46c3 6dbe 10e4 91bd 322f ea3b 51b9 08be
000003d0: 700f 0f3e 94f6 5b3e ae89 06bd a339 3abe
000003e0: 4832 1dbe 3620 54be 0456 823d f9d1 0c3e
000003f0: defd 6d3e cf78 2d3e 69a2 db3d 72d2 59be

weight f4 [4, 680]
-0.022309931 -0.029516386 -0.00983633 -0.027397342 -0.012564495 0.024117691 -0.012805628 -0.0008290735
-0.014599112 -0.032004807 -0.026482418 -0.027289344 -0.011755814 0.0007362759 -0.005880871 0.008889141
0.017388819 0.008613023 0.020978436 0.002556961 0.034625784 0.032133963 -0.028634064 0.019536415
0.017213315 -3.938883e-05 -0.0037401372 -0.011640649 0.006902151 -0.0087416805 -0.034838684 -0.017852781
-0.0012755591 -0.022446334 -0.014967539 0.028298419 -0.0006124401 0.017652016 0.020862902 0.038602356
-0.0007584789 0.008279684 -0.024637949 -0.030926071 -0.010570006 -0.031551246 -0.01577949 0.023149125
0.008557228 0.008870152 -0.020329237 0.006140908 0.002643971 0.015062707 0.025142213 -0.011330934
0.026791412 -0.0076484457 0.0005870253 0.04112553 -0.032123152 -0.0015876163 0.0075952676 0.024315074
-0.018127281 0.013708173 0.036910713 0.003805895 0.001835941 -0.02395566 0.0009894269 0.027968086
-0.0026510635 0.029091686 -0.027041472 0.03742095 -0.0011503224 0.0006549036 -0.023109967 -0.012208163
0.034019552 0.027718969 0.004016085 0.008709198 -0.0290209 -0.024967477 -0.029188182 -0.007630903
-0.0016962413 0.025949905 -0.026020003 0.02550351 0.005373586 0.005700659 -0.020617824 0.015311706
0.008202375 0.012857079 0.027704213 -0.020589616 -0.00087878533 -0.028795727 0.037376486 0.033632312
0.014558192 0.02561992 0.017019 0.019447394 0.002864195 -0.0053807194 0.0014327108 0.0022833354
-0.028458275 0.03131405 0.014900759 -0.005936725 0.021183874 -0.0050941454 0.02361986 0.018099075
-0.03068863 0.025840199 0.020699507 -0.030598551 -0.03514892 -0.0044366214 -0.0031490375 -0.022503303
0.019746853 0.03129118 -0.02399029 -0.022767993 0.02176755 0.008680808 -0.0060190046 -0.033459507
0.016213305 0.011165253 0.0011776509 -0.011599201 -0.009914434 0.018085498 -0.009554385 0.031598095
0.027374186 -9.971489e-06 0.024598392 -0.0046066074 0.034342688 0.002330655 -0.029649446 -0.0036798196
-0.009443572 0.012154302 0.0001943798 -0.0036290188 0.0001595077 -0.016625833 0.03029107 0.009578334
-0.011336881 0.007182119 -0.020534225 -0.029680626 -0.016731832 0.016157867 -0.0056892033 -0.016678173
0.00072483806 0.028894689 0.041504413 0.02574658 0.006603039 0.018515294 -0.031440813 0.018164366
0.00032844828 -0.008376508 -0.020416925 0.023029385 0.037847232 0.02204847 0.008770055 0.024943784
-0.02671489 0.006532629 0.013612372 -0.0040705926 0.0008001202 -0.021046441 -0.021850575 0.027818108
-0.0014611871 0.02097588 -0.009026234 0.028898662 -0.020967133 0.021834534 -0.00056055916 -0.0007688703
-0.00024296265 -0.00011125198 -0.0039035806 0.024617437 -0.0074067716 0.017430952 0.006248332 -0.029745141
-0.02331783 0.024168298 -0.013139516 0.016802784 0.033892024 0.0065823714 -0.021680005 -0.018989597
0.0071108816 -7.839807e-05 -0.020197181 -0.014082978 0.018374493 -0.0034290378 0.02773297 -0.017902412
-0.012666372 0.00583871 -0.025651744 -0.028712984 -0.0007786882 -0.0010130778 -0.0039371946 0.027816093
-0.0018963248 0.030375272 -0.018046055 0.027698046 -0.002293171 0.03743648 -0.01483216 0.033652693
4.9779395e-05 -0.008685341 -0.017098853 0.040129036 0.024319597 0.009098316 0.0027730572 -0.016265174
-0.011833639 -0.01219431 -0.02232468 0.00056301284 -0.008088912 -0.025618497 0.03255524 -0.013658043
00000000: 51c3 b6bc 59cc f1bc 8f28 21bc 6470 e0bc
00000010: 50db 4dbc 7792 c53c b2ce 51bc 2e56 59ba
00000020: 1d31 6fbc 7917 03bd a8f1 d8bc e78d dfbc
00000030: 759b 40bc a402 413a 52b4 c0bb c2a3 113c
00000040: ff72 8e3c a31d 0d3c f8da ab3c b092 273b
00000050: c4d3 0d3d e79e 033d fc91 eabc d50a a03c
00000060: f002 8d3c 6f35 25b8 171d 75bb 6cb8 3ebc
00000070: 702b e23b 4439 0fbc 02b3 0ebd ff3f 92bc
00000080: a930 a7ba 60e1 b7bc 693a 75bc 16d2 e73c
00000090: 298c 20ba f69a 903c ade8 aa3c 811d 1e3d
000000a0: a8d4 46ba 83a7 073c 86d5 c9bc ac58 fdbc
000000b0: d22d 2dbc e13b 01bd fd43 81bc 3ca3 bd3c
000000c0: 9e33 0c3c 1d54 113c 8089 a6bc ac39 c93b
000000d0: 7946 2d3b 92c9 763c 0bf7 cd3c 62a5 39bc
000000e0: aa79 db3c d09f fabb 9ae2 193a 3e73 283d
000000f0: 9193 03bd 9017 d0ba b9e1 f83b 6830 c73c
00000100: aa7f 94bc 3f98 603c b02f 173d 536c 793b
00000110: f5a3 f03a a93e c4bc a8af 813a 541d e53c
00000120: 77bd 2dbb b051 ee3c 1486 ddbc b646 193d
00000130: 6ac6 96ba d6ad 2b3a 1d51 bdbc bf04 48bc
00000140: 1658 0b3d e412 e33c 5d99 833b 06b1 0e3c
00000150: 3dbd edbc 9888 ccbc 0e1c efbc a70c fabb
00000160: 6a54 deba e594 d43c e727 d5bc bdec d03c
00000170: e814 b03b 98cc ba3b b6e6 a8bc f3dd 7a3c
00000180: 4163 063c 7fa6 523c f2f3 e23c 8eab a8bc
00000190: 495e 66ba 04e5 ebbc 1618 193d 09c2 093d
000001a0: 7c85 6e3c dee0 d13c 6e6b 8b3c 2450 9f3c
000001b0: 38b5 3b3b bf50 b0bb ccc9 bb3a 03a4 153b
000001c0: 5421 e9bc 2943 003d 5022 743c dc88 c2bb
000001d0: ce89 ad3c caec a6bb 707e c13c 8344 943c
000001e0: b966 fbbc d3ae d33c 0392 a93c d0a9 fabc
000001f0: 50f8 0fbd 1461 91bb 1560 4ebb d958 b8bc
00000200: 27c4 a13c 2e2b 003d 4987 c4bc f183 babc
00000210: dc51 b23c f339 0e3c 123b c5bb d60c 09bd
00000220: c4d1 843c 77ee 363c 685b 9a3a 930a 3ebc
00000230: 2670 22bc 0a28 943c ff89 1cbc 016d 013d
00000240: d43f e03c 384b 27b7 9182 c93c 06f3 96bb
00000250: ebaa 0c3d e7bd 183b 65e3 f2bc 2129 71bb
00000260: 36b9 1abc d622 473c 6ed2 4b39 d5d4 6dbb
00000270: 8641 2739 e632 88bc fa24 f83c 72ee 1c3c
00000280: 53be 39bc fb57 eb3b 6437 a8bc c924 f3bc
00000290: 3211 89bc 815d 843c 7f6c babb aaa0 88bc
000002a0: 0f03 3e3a 8eb4 ec3c 8800 2a3d 7eea d23c
000002b0: 4e5e d83b 63ad 973c 15c8 00bd 70cd 943c
000002c0: 9533 ac39 9f3d 09bc 6541 a7bc 1fa8 bc3c
000002d0: b305 1b3d fe9e b43c 47b0 0f3c e856 cc3c
000002e0: 2fd9 dabc aa0f d63b 6d06 5f3c 9b62 85bb
000002f0: 28bf 513a 9669 acbc faff b2bc cde2 e33c
00000300: 4e85 bfba 9cd5 ab3c c5e2 13bc e3bc ec3c
00000310: 44c3 abbc 56de b23c 7df2 12ba 038e 49ba
00000320: cac3 7eb9 f44f e9b8 37d3 7fbb 82aa c93c
00000330: 81b4 f2bb 5bcb 8e3c cfbe cc3b 15ac f3bc
00000340: 0905 bfbc 98fc c53c 2047 57bc fea5 893c
00000350: 5dd2 0a3d efb0 d73b 449a b1bc 1290 9bbc
00000360: 6602 e93b a569 a4b8 8f74 a5bc 4abc 66bc
00000370: 1b86 963c b5b9 60bb 4130 e33c 14a8 92bc
00000380: 9d86 4fbc a652 bf3b 9b23 d2bc 7e37 ebbc
00000390: e120 4cba 40c9 84ba 9503 81bb 93de e33c
000003a0: 1a8e f8ba 90d5 f83c 52d5 93bc 03e7 e23c
000003b0: 0649 16bb ff56 193d 9702 73bc 68d7 093d
000003c0: 38ca 5038 f64c 0ebc e512 8cbc 585e 243d
000003d0: e439 c73c 1a11 153c 2ebc 353b 8b3e 85bc
000003e0: e1e1 41bc a5ca 47bc 3fe2 b6bc 2797 133a
000003f0: 5b87 04bc e2dd d1bc a558 053d fcc5 5fbc
