estimators/knet/single_obs/p_MSE_ep100_train4000_val1000_test10000_lr1e-03_wd1e-05_data_sr1e-01_q1e-04_r1e-03_j5_train[200,250]_val[40,250]_test[40,250].pt (torch, 474133 bytes, 123 tensors)

_initial_state f4 [4]
00000000: 0000 0000 0000 803f 0000 803f 0000 0000
0.0 1.0 1.0 0.0

_initial_covariance f4 [4, 4]
00000000: 0000 0000 0000 0000 0000 0000 0000 0000
00000010: 0000 0000 0000 0000 0000 0000 0000 0000
00000020: 0000 0000 0000 0000 0000 0000 0000 0000
00000030: 0000 0000 0000 0000 0000 0000 0000 0000
0.0 0.0 0.0 0.0 0.0 0.0 0.0 0.0
0.0 0.0 0.0 0.0 0.0 0.0 0.0 0.0

weight_ih_l0 f4 [48, 20]
00000000: c319 7bbd 91cc bb3d 8887 203e 7563 cdb9
00000010: 084b 253e 0e01 2bbe cecb c8bd 4f9c 483e
00000020: f349 3f3e b86e acbd 6702 623e 1e7d 7b3c
00000030: 70f1 e73d d50d 9abd e383 843d 10de 1b3e
00000040: 4d15 0abe 32ad e83b ca2f 9c3d 524b a1bd
00000050: 0aee bd3d dd50 41bd 120d 303e d921 c43d
00000060: eed8 0b3e c2a3 5fbe 6a58 913d 9ea8 233e
00000070: b492 893c a32d 21be 46db 36be 0e5c 59be
00000080: 38c8 ddbd f9a4 08be 7090 bbbd a2a2 523e
00000090: 1d9d 473e b7af 79be b9c7 e73b 2aef 473e
000000a0: 8d60 66be d69c 1dbd 40e1 27bd b47b fdbd
000000b0: 387a 53bc a1d7 453e 3139 82bd 1b70 09bd
000000c0: 51c1 143d 1e67 4cbe 53c2 303d 716f 083e
000000d0: 7787 183e a5a6 e23d 82d2 783e 6842 813d
000000e0: 72c0 c1bd 5c00 ff3d de08 503d 008a 923d
000000f0: 8519 5b3c 243d 0abd a79c 28be 6919 d33d
00000100: d0cd d2bd 9d07 cd3c 9708 cebd ba44 533e
00000110: 1f29 603e 0bd2 f6bd 5108 5fbe 4ebb 133e
00000120: 7817 873d 4520 623e bda7 46bd 65c8 583d
00000130: 739b 7e3e e880 80be 5b80 3fbe c026 84bd
00000140: c4b5 24be bafd 2bbe 58d8 aebd 9371 af3d
00000150: fd61 a63b 5e4f 383e 95c2 053e 1c23 3bbe
00000160: 4596 aebd 3350 10be a0e4 f6bd acba ba3c
00000170: ad8a 6a3e 15a0 543e 4d2f 84bc d92a 85b8
00000180: edff 09be 7cd9 ccbd 6a9b 7fbd ac86 5bbe
00000190: 11b6 55be 38ff b6bd 952d 6b3d ec56 223b
000001a0: a288 60be 4ef0 e83c 8983 5abe 61fe eb3d
000001b0: 401d 84bd 4c7e dfbd bb11 3b3e 3064 443e
000001c0: 4e69 103e c060 2f3d 2a10 483e db72 0a3c
000001d0: 6265 553e 0086 0abe dd93 53be 6827 643e
000001e0: 49de f43c 12f6 26be 1300 6fbe 3122 22bc
000001f0: a028 3cbd f860 c93d 0b5b 753e 43f1 d03d
00000200: 8ecf afba 0694 3cbe 48de 2b3e e8e6 6abe
00000210: 7b45 73be a924 62be b3b9 36bd f5ce 00bd
00000220: e537 bb3d d03e 1dbb c673 05be 70b8 133e
00000230: eb9a 07be aa67 96bd 3cf8 183e 6061 ffb7
00000240: eead 283e 0cd2 203e a41b 7ebd af76 89bd
00000250: fa14 3c3e de2c 4e3c caa6 3ebe 16da 4d3e
00000260: de90 3bbd 664e 4f3d b206 86bc 7d88 b03d
00000270: 5559 003d f007 15be 9534 3dbe b592 aabd
00000280: 6bd6 0abe 0c49 d93c 99c0 893d aa6e 5b3b
00000290: 362c 67be 5e53 ecbd a161 b6bd 8b69 dfbc
000002a0: 7548 17be 98c3 293e af42 dfbd 1691 6f3e
000002b0: c965 bbbd 9929 21bb 9a27 59bd 7bb4 14be
000002c0: 2370 56be 770d 393e 3181 65be c784 95bd
000002d0: 11e7 fb3d f155 733d 7f70 113e 2d0b bebc
000002e0: d046 cd3d 3ced d9bd db71 0ebe 55e7 3fbe
000002f0: b530 323e c13f b93d dce4 8cbd 5f38 1c3e
00000300: 4ca5 793e 97d9 b2bd 2dc2 58be ed2b 57be
00000310: f0c1 ae3d c817 923d 97f5 c9bd c0bc 2e3d
00000320: 60f2 64be 09f5 01be 08e5 05be d8ea 133e
00000330: 07dc b3bd e2e1 b73d 1f71 2fbe 4bca 763e
00000340: 3cd8 eabc cd19 4dbe 4c13 203e 2786 093e
00000350: a4e8 3a3e 36e1 61be 7d72 febc 85c5 3abe
00000360: f112 46be 9240 5f3e f25d f43d 38de 383e
00000370: cadd e03d d19b eabd d4ea 2cbe 6edc 383d
00000380: 22a7 e5bc 0320 803e 3a66 1ebe f74c 28be
00000390: 575f 0a3e d34c 3ebe 5ef8 6dbe 5cd3 153e
000003a0: 8594 edbd 551f 21be 57fd 913d 3905 3dbe
000003b0: d755 cf3d bbd5 81be b8d8 d03d 2879 783d
000003c0: 84a3 acbd 18de 433d 1e6f 54be f9a3 0dbe
000003d0: 4a5e 0e3d f84d b53b 669f 3cbe 7ac5 643e
000003e0: 2f29 36bb dba1 eabd e668 2fbd d6e6 9a3d
000003f0: a604 253c 28e8 cbbd 7329 393d fd55 9e3b
-0.061303865 0.09169877 0.15676701 -0.00039174748 0.16141903 -0.16699621 -0.09804498 0.19590877
0.18680553 -0.084195554 0.22071229 0.0153496545 0.113253474 -0.075221695 0.06470468 0.15221429
-0.13484688 0.0071007246 0.076263025 -0.07875694 0.09273918 -0.047196258 0.17192486 0.095767684
0.13656971 -0.21839812 0.07096942 0.15982291 0.016793586 -0.15740065 -0.17857084 -0.21226522
-0.10829204 -0.13344182 -0.09158409 0.20569852 0.19493528 -0.24383436 0.0070733693 0.19524828
-0.22497769 -0.03847965 -0.0409863 -0.1237711 -0.012907557 0.19320537 -0.06358565 -0.033554178
0.036317173 -0.19961211 0.043154072 0.13323762 0.14895426 0.11066941 0.24299052 0.06311494
-0.09460534 0.124512404 0.050789706 0.07155228 0.013372784 -0.033749714 -0.16466008 0.10307581
-0.10293162 0.025028044 -0.10060232 0.20631686 0.21890686 -0.12051781 -0.21780516 0.1442692
0.06596273 0.22082622 -0.04849981 0.052925486 0.24863987 -0.25098348 -0.18701307 -0.064527035
-0.16084963 -0.16796008 -0.08537358 0.085665844 0.005077599 0.17999026 0.13062508 -0.18275112
-0.085247554 -0.14093094 -0.120553255 0.02279409 0.22904463 0.20764191 -0.016135836 -6.349915e-05
-0.13476534 -0.10002419 -0.062404074 -0.21438092 -0.20870234 -0.08935398 0.057416517 0.0024771048
-0.21927121 0.028434899 -0.21339239 0.11523128 -0.064508915 -0.10912761 0.18268482 0.19178843
0.1410267 0.042816877 0.19537416 0.008450235 0.20839456 -0.1352768 -0.20661874 0.22280657
0.02989115 -0.16304806 -0.23339872 -0.009895847 -0.04593718 0.098329484 0.23960511 0.10202267
-0.0013413297 -0.18415841 0.16784012 -0.22939646 -0.23756973 -0.22084297 -0.04461069 -0.03144737
0.091415204 -0.0023993738 -0.13032445 0.14425826 -0.1324269 -0.07343991 0.14938444 -3.0443713e-05
0.16472599 0.15705127 -0.06203808 -0.0671209 0.18367377 0.012583939 -0.18618312 0.20102724
-0.045792453 0.050611876 -0.016360614 0.08619783 0.031335194 -0.14553809 -0.1847709 -0.083287634
-0.13558356 0.02652409 0.06726188 0.003348271 -0.22575459 -0.115393385 -0.0890534 -0.027272006
-0.14773734 0.1657852 -0.10901391 0.2339519 -0.09150273 -0.0024591445 -0.053016283 -0.14521973
-0.20941214 0.18071543 -0.22412564 -0.07300716 0.12299932 0.059408132 0.1420307 -0.023198688
0.10023272 -0.10640952 -0.1391062 -0.1874059 0.17401393 0.09045363 -0.06879589 0.15255879
0.24379462 -0.08732908 -0.21167822 -0.2101285 0.085330844 0.07133442 -0.09861296 0.042660475
-0.22358084 -0.1269113 -0.1307565 0.14445055 -0.08782201 0.089786306 -0.17132996 0.24100606
-0.028667562 -0.20029373 0.15632361 0.13430081 0.18252808 -0.22058567 -0.031060452 -0.1823941
-0.19343163 0.21801975 0.11931981 0.1805352 0.10979803 -0.11455501 -0.16886455 0.045132093
-0.028033797 0.25024423 -0.15468684 -0.1643561 0.13512932 -0.18583994 -0.23239276 0.14631408
-0.116005935 -0.15734608 0.07128399 -0.18459024 0.101237945 -0.25358376 0.10197586 0.06066242
-0.08429626 0.047819227 -0.20745513 -0.13832082 0.03475789 0.0055329762 -0.1842018 0.22340956
-0.0027795543 -0.11456653 -0.04282465 0.0756356 0.010071909 -0.0995639 0.045205545 0.004832028

weight_hh_l0 f4 [48, 16]
00000000: 2380 643e 4b58 40bb a8b9 863c 3423 683e
00000010: 9a3d 043e 4cf4 e8bd 7939 0abd 9cb3 b5bc
00000020: a54b 80bc 8155 6c3e f010 3a3d 04b3 93bb
00000030: 5439 f5bd 6fec ca3c 13b2 06be a9a3 46be
00000040: 19e0 5cbe 2b15 05bd 6255 f83d 2ee2 203e
00000050: bb82 c73d ba5a 48bc 0138 0c3e 75f5 61bd
00000060: 3ada ec3d 3b2e 673e 2872 203e eada 773e
00000070: 3f07 8dbd f405 08be 2a93 b63d 3f4b 9fbd
00000080: 320a 26be deaf 91bd c7ba 2a3e 765d 683d
00000090: f290 0fbe 62da 3bbe fc67 003e 5ffa 893c
000000a0: d4e2 0ebd 1881 fd39 0f27 213e 4a40 403e
000000b0: 16ed a03d be3e 41be 2e31 86bd 7ccc 42be
000000c0: 4ea1 413e ab71 193e 5710 3a3e c16a d53c
000000d0: f40b 4cbd c387 493d a8ab 4a3e 3992 1cbd
000000e0: 5c03 913c 1338 c7bd 3aae 6e3d 1113 553e
000000f0: 5978 3bbe 57b2 873c 340b ce3d 489b 4a3e
00000100: 1769 d73d 70e7 3e3c 1d16 4abe 5ee9 8b3d
00000110: f9b4 32be d0c8 13be 3473 2ebe 2d70 ba3d
00000120: 5b76 1ebe d0c1 6ebe c363 823c bce0 8f3d
00000130: 924c 18be 044d 623d f1c1 4e3d 2b8d 72bd
00000140: 91a4 773e efcb e8bd 7038 05bd 1cf9 793e
00000150: 6ba5 103c a192 06be e6b4 80bc ff17 87bd
00000160: 2619 013e 962f 4cbe 3dac 2f3e 9275 863c
00000170: 3675 1cbe 8d89 633e ab9a 6bbe f54a c5bd
00000180: 9fed e2bd 9022 6dbe 8594 fabb 08a9 27be
00000190: 7ba0 bdbd 7086 a53d 1aac 4cbe 0e7b 32be
000001a0: cf13 16be b590 2dbe e3c0 70be 158a 353b
000001b0: f8c7 27bd 5efd 31be 8f8c 5a3d f6d3 c0bd
000001c0: 1875 be3d 4668 003e 6eda 3d3e ad43 ef3c
000001d0: fa58 11be f8a6 28bd ace1 813e e83e 2d3d
000001e0: 1aa7 5d3e e996 37bc c68a 39bd 05da 5b3d
000001f0: 421d 303e 6fb5 2f3e 9cba 83bd f220 c2bc
00000200: 696b 63be e103 cb3d 97ae 54be 6e3d 58bd
00000210: 11a7 793e fe2d 6fbe 8410 3abe 2efd 3e3d
00000220: 6e17 e0bd 4a83 8bbd bb1f 39be 9e4b 77bd
00000230: 93db 173e 1df1 0b3e 4570 1a3e 5407 efbd
00000240: 741c 4ebe 7043 fa3c f69c 373e 6990 b0bc
00000250: 4d70 7c3c 6f74 0c3e c01d 36be 0272 993d
00000260: 02d9 7abe 867a 7f3e ab82 4ebd 8d94 43bc
00000270: 1a59 3e3d d85e 23be 84b3 103e 92b1 723d
00000280: 022b 8fbd 2884 2abe 484d 163e c14c 813d
00000290: 82db b0bd 01e3 f93d e46a 20be 3bee 77bb
000002a0: a15d 50bd d07b 873d 2f69 603e 73d8 2a3e
000002b0: 7e35 a03d a38b c1bc 7ec6 a8bc 9819 3dbe
000002c0: 9054 463e 1480 3a3e e91b f4bd 46b0 953d
000002d0: 7bcf 0fbe 17f0 f1bd 69aa 04be d9f2 0bbe
000002e0: b679 92bd f217 2bbb bce2 333e 4e94 853c
000002f0: 4a5e e8bc f79f 3c3c 4166 063d 1050 6abd
00000300: 2fda a33d 1fb5 7abd 38e0 2fbe d437 6c3e
00000310: 2fd8 53bd 0847 6abe 9c6c dcbd a986 5abe
00000320: 8eef 29be 640b 0bbe 741a 49be df6e 05be
00000330: bb7c 713e c87c 6e3c ba4f 6c3e 9b69 51bd
00000340: 8c9f 6a3e 7c18 103e bf3a 243e 3c9c 4bbe
00000350: c1f4 c0bc 4c07 d9bd fede 6abd 7027 e73d
00000360: 1044 8bbb 094b 61bd de79 85bd da54 353d
00000370: d23d eeb7 7be9 fdbb 8918 b2bd 66c1 6bbe
00000380: a076 3d3e 0df4 1dbd 1800 333e ea9c 2d3e
00000390: 99df adbb f845 71be 4b43 163d 315f babd
000003a0: 1dc5 5abe a389 d9bd 8bef 2b3e a9dc aa3d
000003b0: 4295 063e 6bf0 f5bd 336a fa3d da4b 21bd
000003c0: b677 06be d6d5 033e 1df2 7a3e 355a eabd
000003d0: 8283 5bbe de3a 063e 9d5b b9bc 5c0f 253c
000003e0: 8802 6dbd a3ec 083e 386e 58be 0fc7 73bd
000003f0: 138c 08be 96ca 803e f392 57be 28f0 dbbd
0.22314505 -0.0029349502 0.01644595 0.22669679 0.12914124 -0.11374721 -0.033746216 -0.022180371
-0.01566107 0.23079492 0.04542631 -0.0045074243 -0.11973825 0.024770943 -0.13153867 -0.19398369
-0.21569861 -0.03249089 0.121256605 0.1571128 0.09741732 -0.012228662 0.13693239 -0.055165727
0.11565061 0.2257623 0.15668547 0.24204603 -0.06886148 -0.13283521 0.08914788 -0.07778024
-0.16214827 -0.07113622 0.16672812 0.056729756 -0.14020136 -0.18345025 0.12539667 0.016843019
-0.03488429 0.00048352103 0.15737556 0.18774524 0.078577206 -0.1887159 -0.06552349 -0.19023317
0.18909189 0.14984767 0.18170296 0.02605188 -0.049816087 0.049201738 0.19792044 -0.038225386
0.017701797 -0.09727492 0.058271624 0.20808055 -0.18307628 0.016564531 0.100607306 0.19785798
0.10518091 0.011651859 -0.19734998 0.06831621 -0.17451848 -0.14432073 -0.17036134 0.09103427
-0.15474837 -0.23316121 0.01591671 0.070252866 -0.1487296 0.05524923 0.050477926 -0.05921666
0.24183871 -0.11367022 -0.032524526 0.24411434 0.008828501 -0.13141872 -0.01571126 -0.06596374
0.1260725 -0.19940028 0.17155547 0.016413484 -0.15279087 0.2222044 -0.2300822 -0.096334375
-0.11080479 -0.23157716 -0.0076470994 -0.16373074 -0.09259125 0.080822825 -0.19987527 -0.17429754
-0.14655994 -0.16949733 -0.2351108 0.0027700712 -0.04096219 -0.17381808 0.053356703 -0.09415428
0.092996776 0.12539777 0.18540356 0.029207075 -0.14194098 -0.04117486 0.25367486 0.04229632
0.21645775 -0.011205413 -0.04529836 0.053674717 0.17198661 0.17159055 -0.06432077 -0.02369735
-0.22208942 0.09912849 -0.20769726 -0.05279296 0.24380137 -0.23357388 -0.18170363 0.04662817
-0.10941969 -0.06812151 -0.1807851 -0.06037485 0.14829855 0.13666196 0.1508189 -0.116713196
-0.20128042 0.030549735 0.1793097 -0.021553235 0.015407634 0.13716291 -0.17784786 0.074924484
-0.24496844 0.24949083 -0.050417583 -0.011937273 0.046471693 -0.15954149 0.1413098 0.059251375
-0.06990625 -0.16651976 0.14677918 0.06313468 -0.08635618 0.12201501 -0.15665776 -0.0037831205
-0.05087054 0.06615412 0.21915124 0.16684131 0.07822703 -0.023626154 -0.020602461 -0.18466794
0.19368196 0.1821292 -0.11919386 0.07309012 -0.14043991 -0.11813372 -0.12955631 -0.13666858
-0.07152121 -0.0026106802 0.17566961 0.016306069 -0.028365273 0.011512748 0.03281236 -0.05720526
0.080005996 -0.061207887 -0.17175376 0.23068172 -0.05171984 -0.22878659 -0.10762903 -0.21340431
-0.16595289 -0.13578564 -0.19638997 -0.13030575 0.23582737 0.014556117 0.23077288 -0.051126104
0.22912425 0.1407184 0.16038035 -0.19883817 -0.023554208 -0.10597095 -0.05734157 0.11286819
-0.004250057 -0.0550032 -0.06517385 0.044270374 -2.8400598e-05 -0.0077487803 -0.08696086 -0.23022994
0.18502283 -0.038562823 0.17480505 0.16954389 -0.005306196 -0.23561847 0.03668527 -0.091001876
-0.21364255 -0.10621955 0.16790597 0.08342869 0.13142875 -0.12008747 0.12227287 -0.03937898
-0.13131604 0.1287454 0.24506421 -0.11442987 -0.21436885 0.13108394 -0.022626692 0.010074463
-0.057863742 0.1337152 -0.21135795 -0.05951601 -0.13334684 0.2515456 -0.2105215 -0.107391655

bias_ih_l0 f4 [48]
00000000: c1f7 b93d 2974 debd b876 34bd ca29 6fbe
00000010: a5aa a13c 8512 f4bd bd9e 673e e5bb 983d
00000020: f456 cebd ecd0 03bd 6955 40be e444 ecbd
00000030: 10a1 21bc cf18 39be f6ce 113e f7c3 2d3e
00000040: f56a 87be d431 32bd c13d 05be 4c0b 2e3a
00000050: 317e 34be 0e9c 02be e1e6 563e 771b 4bbe
00000060: 7e8a eebd e3ce 7d3e ffc0 5bbd c98a 603d
00000070: 36c6 023d 01f8 48be 55fc b2bc c4df dbbc
00000080: e5db 3b3e 305b 733e 7f22 b23d 047b 443e
00000090: 0382 72bd cf6e de3d 00e8 bebd a6c2 6e3e
000000a0: 73fd 17be b7e7 b53d e278 723d ef8d 603e
000000b0: 4db8 513e 4302 66bd d729 96bd 64e9 0ebc
0.090804584 -0.108619995 -0.04405853 -0.23355785 0.01973469 -0.11917595 0.22619148 0.07457713
-0.10075179 -0.032181665 -0.18782581 -0.11536577 -0.00986506 -0.1807587 0.14239106 0.16969286
-0.2644879 -0.04350455 -0.13011838 0.00066392566 -0.17626263 -0.12754843 0.20986511 -0.19834696
-0.11647509 0.24785952 -0.053650852 0.054819856 0.03192731 -0.19625856 -0.021848837 -0.026840098
0.18345602 0.23765254 0.08697986 0.19187552 -0.05920602 0.10860979 -0.09321594 0.2331644
-0.14842777 0.08882087 0.059197314 0.21929143 0.20480461 -0.0561545 -0.07332199 -0.008722637

bias_hh_l0 f4 [48]
00000000: 8a92 b5bd a638 22bd cc5e 4a3e fa4b 9cbc
00000010: e0d8 29be 0954 9c3c 1261 753e 9f1a 4bbe
00000020: e520 5f3e d316 e43d a26e 8d3d ff19 383e
00000030: 507e b5bd 8507 8f3b 8ee2 203e ae73 4c3d
00000040: 5478 8bbd b938 47be 053b 40bd c853 bd3d
00000050: 8f7f b6bc 21fe 84bd 743a 01bd a9a7 a43d
00000060: 24d1 b3bd 092f f03d ca59 b1bd b6da d0bd
00000070: 13a0 073e 659a 44be 19ec 803d 702f 733e
00000080: 9484 13be 1c14 b6bb c0e1 12be c440 24be
00000090: ce62 203e e749 4f3d 3013 923c 1c5a 753e
000000a0: f424 403e e803 00bd 8f77 863d e132 e3bd
000000b0: dc5c 3e3e fafb 763e b5e8 63bd 14a1 193e
-0.08865841 -0.039604805 0.19762725 -0.019079197 -0.16586637 0.01908304 0.2396281 -0.19834374
0.21789892 0.11137166 0.06905867 0.17978667 -0.08861983 0.00436491 0.15711424 0.04991501
-0.0681006 -0.19455232 -0.046931285 0.09244496 -0.022277622 -0.06493784 -0.031549886 0.08039791
-0.08780125 0.11727721 -0.08659704 -0.10197966 0.13244657 -0.19199522 0.06295032 0.23748565
-0.14406043 -0.0055565964 -0.1434393 -0.16040331 0.15662691 0.05060759 0.017831415 0.23960155
0.18764096 -0.031253725 0.06565773 -0.11093689 0.1859011 0.24119559 -0.05564185 0.15002853

weight_ih_l0 f4 [48, 36]
00000000: 522f 5d3e 4185 0fbe 90c3 58be 5e82 17bd
00000010: 4fc7 80be 4417 383a b61d 3ebe c954 9d3d
00000020: 5354 803d d81d 7bbd ad33 fabd a6ad 66be
00000030: d5b6 383e 036a 3f3d 038b f9bd e005 8bbc
00000040: 0e76 e8bd 6813 87bd 8d39 403e cd0e bc3d
00000050: 97e3 303d 9c2d 61be 5162 c9bd c347 0b3e
00000060: 731e 8ebd ffb6 67be 7c48 51be d426 543e
00000070: 8de7 c3bc 0590 68bd 8341 2fbd 5adf afbc
00000080: 39f1 82be 5c45 f83d b2b9 40be d6ab 9c3d
00000090: 5596 3abe 7d37 03bd 62eb cb3d e7f4 ef3c
000000a0: 2932 42bd d0f3 2e3d c22c 02be 0595 513d
000000b0: af54 323e b0a6 583e e168 1f3e ebca f23d
000000c0: f14f 1abe f938 43bd 7101 53bd ce36 8dbc
000000d0: 94ed bbbd e5d5 39be 93ae 683e af52 6c3e
000000e0: cb67 a63d 3244 ff3d 2cde 093e 8364 103e
000000f0: 1ac7 1abd 6baf f8bd 06c3 74be 0f1e 31bd
00000100: 2996 e23d 666b 3a3e 6463 5a3e 43ca 2cbe
00000110: f59b 1cbd 312b 5c3e 343f 523e a423 4abc
00000120: a40a 2bbe 2253 253d d0a3 6d3e 22d3 81bb
00000130: 3573 253c e305 2b3e 2dde 63bc d7e5 dbbd
00000140: 22a0 9ebd 8986 2d3d dff2 9e3c 8fce 753e
00000150: 29f6 403e c2b9 41be 9e2f 253e d072 753e
00000160: be7c 2f3e 24a0 1dbb c9cc a6bc 5827 ea3c
00000170: 6a86 10be 1eb1 42be d572 1cbd bae6 5cbd
00000180: 7930 c83d 6a75 28be 8f08 713e f5eb 06bc
00000190: 9145 a8bc 3747 f13d 6498 8bbd 56b8 1a3d
000001a0: 3396 713e 327c 3a3e b53e 64be db8b cfbd
000001b0: ead5 a63d 7cf4 053e 3f0a fa3d 5c36 74be
000001c0: 3052 be3c e94f 783e c7dd 583e ae12 1b3e
000001d0: e956 7abd e03a 253e 6c15 5abd 8d5d 41be
000001e0: 4c44 213e 9770 57be 061e b2bd 2cf4 933d
000001f0: 8e72 e03d f209 59bd 771b 5abe 8c77 6dbe
00000200: ba64 0bbe e99c 513e d5ff 683e 3c13 5fbc
00000210: 3c3c 1ebc 7ebc ee3c 2bdb 043e 5030 383e
00000220: 082f ddbd 531b 373e c1aa 44be 9ede 10be
00000230: d1b1 223e 4cae 00bd 4283 043d d41d 0dbd
00000240: 3125 94bd cb05 353d e048 54be 764a 383e
00000250: bbb3 ae3c b1b2 623e 6e2d 4e3e 8e61 e03d
00000260: f44c f03d 635e 28be cde3 f1bd b374 0ebe
00000270: 6e33 68be 2ea4 633e 66f8 e83d 11ce 2f3e
00000280: 2f83 2bbe d534 5b3e 29fc 70be ceee 0fbc
00000290: 11ef 97bc fc9e 663d 10df f8bd 6619 9b3d
000002a0: ab41 5bbe cf8a 073c d94c 64be d220 4ebe
000002b0: 2b8c fbbd 41e2 a13d 1901 dcbd c3c8 57be
000002c0: 6972 d0bd 582b aebd cd49 483e 542e 71be
000002d0: d2f6 5c3e 82d5 2c3e b02d ed3c 8d3c ba3d
000002e0: 4654 97bd 3bda fd3d 5745 053d 8d44 433e
000002f0: e448 a4bc 6d33 a1bd f749 44be 4835 1abd
00000300: 2c03 553e f195 81be ab33 193e e394 4d3e
00000310: 80ae 0a3e d2b5 59be ca68 41be 2c89 c4bd
00000320: 0e2e b83d 1054 f73d 3bc4 36be ebe0 8b3d
00000330: e1df 583e 5371 68be 17f3 61be b8d7 a5bd
00000340: b312 24be 278c 5abe a25b e73d 1ff0 593e
00000350: 6219 59be 8fb0 a03d b4ab e83d f298 dbbd
00000360: a05b 4e3e 7d5b 6e3e e00d 193e aa5b 0bbe
00000370: 4fae 243e ef58 34be f6fd c4bc d6cb 753e
00000380: b28d 64be 4b13 233e 9817 20be afa6 9fbd
00000390: bb03 a23d 0e76 ed3c fb33 afbd 37d5 933d
000003a0: e422 7dbe 2ac8 3f3e b211 25be 0edb d6bc
000003b0: a5c4 f9bc ff7b 4b3d d04b 12be 5467 7fbe
000003c0: 09f8 eebd 0b45 2abd 537b 433e d8d2 71be
000003d0: 5c33 69be 6f14 093e e727 0b3e e8d2 633d
000003e0: df39 43be be09 4cbe 3ba7 2dbe bcf6 21be
000003f0: 36f1 63bd 9afc 653e f814 0dbe 73cc 2c3e
0.21600083 -0.14015676 -0.21168351 -0.036989562 -0.2515206 0.000702251 -0.18566021 0.07682187
0.062660836 -0.061307758 -0.122168876 -0.22527179 0.18038495 0.04673196 -0.121847175 -0.016970575
-0.11350642 -0.06595498 0.18771954 0.091825105 0.043185797 -0.21990055 -0.098332055 0.13601594
-0.069394015 -0.22628401 -0.20437807 0.20717937 -0.023914123 -0.056777973 -0.042787086 -0.021468807
-0.25574663 0.12122604 -0.18820837 0.076499626 -0.1822141 -0.03203534 0.09957005 0.029291583
-0.047411118 0.042712986 -0.12712386 0.051167507 0.17415117 0.21157336 0.15567352 0.1185511
-0.15069558 -0.047661755 -0.051515047 -0.017238047 -0.09176174 -0.18148 0.22722845 0.23078416
0.08125266 0.12464179 0.13463658 0.14100842 -0.037787534 -0.12142833 -0.2390252 -0.043241557
0.11063797 0.18205032 0.21326977 -0.16874032 -0.03823467 0.21500851 0.20531923 -0.012337599
-0.16703278 0.040362485 0.23207021 -0.0039619366 0.010098268 0.16701464 -0.013907951 -0.10737198
-0.07745387 0.04236463 0.01940292 0.24004577 0.18843903 -0.18918517 0.16131446 0.23969579
0.17137429 -0.002405175 -0.020361321 0.028583214 -0.14113775 -0.19012877 -0.03819545 -0.053930975
0.097748704 -0.1645104 0.23538421 -0.0082349675 -0.020540984 0.11781161 -0.068161756 0.037773453
0.23592453 0.18211439 -0.22289546 -0.10134097 0.081462696 0.13081545 0.122089855 -0.23848861
0.02323255 0.24249233 0.21178351 0.15143844 -0.06111804 0.1613574 -0.053243086 -0.18883343
0.1574871 -0.21039043 -0.08697133 0.072243065 0.109593496 -0.052988 -0.2129954 -0.23190135
-0.13612643 0.20470013 0.22753842 -0.013615426 -0.009657916 0.029142614 0.12974231 0.1798718
-0.10799986 0.17881517 -0.19205762 -0.14147422 0.15888144 -0.031416222 0.03235174 -0.034452274
-0.07233656 0.044194978 -0.20730925 0.17997155 0.021325937 0.22138478 0.20134518 0.10956107
0.11733428 -0.16442256 -0.11811028 -0.13911705 -0.22675869 0.22230598 0.11375503 0.17168452
-0.16749261 0.21406873 -0.23533691 -0.008784963 -0.018546613 0.056303963 -0.12151921 0.07573204
-0.21411769 0.008272841 -0.2229494 -0.20129707 -0.12282594 0.07904483 -0.10742397 -0.21072678
-0.10178072 -0.08504361 0.19559403 -0.23552829 0.2157853 0.16878322 0.02895245 0.090935804
-0.07389121 0.1239514 0.03253683 0.19069119 -0.020054288 -0.07871137 -0.1916884 -0.03764847
0.20801991 -0.2530971 0.14961116 0.20076327 0.13543129 -0.21260765 -0.1888763 -0.09596476
0.08993159 0.120765805 -0.17848293 0.06830009 0.21179153 -0.2269948 -0.22065388 -0.08097786
-0.16022758 -0.21342526 0.112967744 0.21283005 -0.21201089 0.07846176 0.11360875 -0.107225314
0.2015214 0.23277088 0.14946699 -0.13609186 0.16082118 -0.1761205 -0.02404688 0.24003538
-0.22319677 0.15925328 -0.15634 -0.07795464 0.07910868 0.028986957 -0.08554836 0.07218402
-0.24720341 0.187287 -0.16120031 -0.0262275 -0.030489275 0.0496788 -0.14286733 -0.2494176
-0.11668403 -0.04156975 0.19090013 -0.23615587 -0.22773498 0.13386701 0.1358944 0.055621058
-0.19065045 -0.19925591 -0.16958325 -0.15816778 -0.05564996 0.22459641 -0.1377753 0.16874866

weight_hh_l0 f4 [48, 16]
00000000: c3cc 2b3b 1309 083e ebac c33d a40f d8bd
00000010: cf9f 6b3e 531c f9bd 769f 91bd 3bee 153e
00000020: a03c 113e e706 973c 82b1 273e 53e3 c5bc
00000030: 44d3 4a3d bb92 23be d19e a93c d28e 893d
00000040: a029 973c a83d fa3d 0da2 eebd 781f 653c
00000050: edd8 eabc ea27 483d 5b5f 163e b4e7 003e
00000060: 25f9 5ebe bb3e 623e cf7a 97bd 9775 473a
00000070: dfa7 f1bd 317d 3ebe 8aa4 283e cbe0 40bd
00000080: 9d48 243e 15c3 253e 795d 83bc 355e 7f3d
00000090: 9fc7 513e 70f4 15be 8c3b 8e3d fbd9 953d
000000a0: d9c2 aa3c 480f 6c3c 6661 70bc 6a52 a03d
000000b0: b63e 0f3c e8c8 38be 2aa3 05bd cd0f 41bc
000000c0: f4cc 9ebd a1f6 953d 571d 99bd 871c fdbd
000000d0: 565b 7bbe 3e1c 323b 72e0 b138 ab16 2b3e
000000e0: 8986 0cbe b621 9abb ec54 1c3e 30ae 6d3d
000000f0: 103a d53d 6d18 873d 3ab9 3f3e 46a4 0f3e
00000100: 971d 753c 463a 37be 7158 60be cf5a 3f39
00000110: 03ba e03d 5d72 5cbd dcf4 09be 4a72 3abe
00000120: b4ec 8dbc 7b5f 9b3d 4768 08be 898f 423d
00000130: 9004 c03b b3c6 33be 4670 d23a 5271 043e
00000140: 009a bfb7 eb6a f4bd daa8 e43d eaaf 97bd
00000150: c9d9 0fbe eb8d dbbd 11af cebd 7ac5 1dbd
00000160: 0353 babd 4953 e73d fb0f e63d 5b2d 133c
00000170: ae6e 14be 4028 34be 316a c9bc 618a 1abe
00000180: 86f1 5c3d 6bc2 a33b e8f3 bf3c 81f7 f8b8
00000190: 4bc8 3b3e 510d 4d3c b9c0 633d deea 9d3c
000001a0: 4e19 6abe 5162 52be 920d 913d 220c 42bd
000001b0: 5d1f 9cbd 7bdf 5c3e 97b8 0cbd efbc c5bd
000001c0: f529 41bd a908 8b3d 5e93 3bbe eb46 91bc
000001d0: 3dec e7bc 17c4 b2b7 8990 29bc 5e2a aa3d
000001e0: d9b1 733d 50ca 6abe 7407 c83a 22cf f13c
000001f0: f85b 00be 22bd e03b fb9f 423e cd71 08be
00000200: 75a5 b8bd 2ccd e03d f4bb 1c3c 7581 5fb9
00000210: 99f9 103e 00ea d4bd b6b2 aabb bab1 dc3d
00000220: 228d 4dbd b67e 74be 269c f1bd ea64 ebb8
00000230: c8ae 4abe cef0 42bd 3fc2 723e 0a36 163e
00000240: c835 ad3b 409a 2cbe ed64 613e 719e 9b3d
00000250: b045 70bd b844 5d3d 6719 06be 349f 4d3e
00000260: 07b5 653e d0be 13bc 99cb 953c ebab 773d
00000270: 86c7 5ebd 32e8 77bd 7a8c abbd d996 25bd
00000280: 6bc9 6eb9 dc0b d1bc 9a44 753e 55a7 c0bc
00000290: ff3a 6ebe f5e5 03bd b59c c13d 1233 8b3d
000002a0: 5647 513c 2b10 703e cb7c d73d bcaa 8fb8
000002b0: 19ff a8bd 9a4a 53be 4ef8 313e 0266 ae3c
000002c0: 89f5 723d b847 353e 8945 6dbd 4910 e9bb
000002d0: 40ed 50be 1d86 c8b5 75f1 933d 3809 fd3d
000002e0: 2696 323e 218f 11bd 25b8 723e b7e1 0a3e
000002f0: 301c 76bd b29d 6c3b 81e2 e53c a1e6 09ba
00000300: 4984 33bc 397c d43c 0aec 28be 603f adb9
00000310: 0a03 3a3e 149b 583c bb70 013e 120d 39bd
00000320: e817 02be a635 7c3d c8e6 5dbd 741a e0bc
00000330: 7bab 7e3d 76fc 903d aa8f 40be 3e66 07be
00000340: eb30 95bc 4bd3 f6bd bb8c 363e 2f51 eeb7
00000350: 526a fcbd beb9 30bc 33cd d13b bbb7 37be
00000360: 629f 433e 5201 043e 82f6 463e 648a 06be
00000370: d958 70bd cd1b 0b3e 54b2 cbbd d975 2fbd
00000380: 4ecb b03d d1d3 013e 1b13 2d3d 38a9 2d3d
00000390: ade0 b33d 9011 053a dcd9 0fb7 7982 943d
000003a0: cf37 49be 5e2b 4ebe 2762 f03c 7876 bfbd
000003b0: e61c debc 05e7 0bbe 3759 84bd a4f6 6b3d
000003c0: 1a6e d83a f5bb 72be e22b 0abe 3998 e63d
000003d0: a2ad 0ebe 1032 f139 8e50 9c38 4b7d babd
000003e0: e82a a0bd 5e30 f5bc 87f9 07be 318c 72bd
000003f0: f890 2e3e 86ea 1dbd d8f6 abbd dc09 92bb
0.0026214577 0.13284712 0.09554466 -0.10549858 0.23010181 -0.121636055 -0.07110493 0.14641659
0.14183283 0.018435908 0.16376308 -0.024156248 0.049517885 -0.15973942 0.020705612 0.06716694
0.018452466 0.12218791 -0.116520025 0.0139845535 -0.028667891 0.04886619 0.14684813 0.12588388
-0.21774729 0.22094242 -0.07396471 0.000760877 -0.11799597 -0.18602444 0.16469017 -0.04708938
0.16043325 0.16187699 -0.016035782 0.062345702 0.20486306 -0.14644027 0.069449514 0.07316967
0.020844864 0.01440794 -0.014671659 0.07828219 0.008742979 -0.1804539 -0.03262631 -0.011783552
-0.077539355 0.07322431 -0.07476299 -0.12358957 -0.2454656 0.0027177478 8.481824e-05 0.16707866
-0.13723196 -0.0047037257 0.1526677 0.058027446 0.10411465 0.06596456 0.18723002 0.14027509
0.014960668 -0.17893323 -0.21908738 0.00018249008 0.10972979 -0.053820003 -0.13472313 -0.1820766
-0.017324783 0.07586571 -0.13321029 0.047500167 0.005859919 -0.17556266 0.0016055189 0.12933853
-2.2840686e-05 -0.119344555 0.111650184 -0.074066 -0.14047922 -0.10720428 -0.10091985 -0.038518406
-0.090978645 0.11295182 0.11233517 0.008982982 -0.14495346 -0.17593479 -0.024586769 -0.1509185
0.053941272 0.0049975417 0.023431733 -0.00011871663 0.18338124 0.012515382 0.055603717 0.019277032
-0.22861215 -0.20545317 0.070826665 -0.047374852 -0.076231696 0.21569626 -0.034355726 -0.09655177
-0.047159154 0.06788761 -0.18317935 -0.017734012 -0.02831089 -2.1310565e-05 -0.010349401 0.08308862
0.05949578 -0.22928739 0.001526101 0.029517714 -0.12535083 0.006858484 0.1900634 -0.13324662
-0.090159334 0.109766334 0.009566296 -0.00021315164 0.14157714 -0.103961945 -0.0052092923 0.10776086
-0.050183423 -0.23876461 -0.11797361 -0.0001122447 -0.19793236 -0.04759293 0.23706912 0.14669052
0.0052859522 -0.16855717 0.22011156 0.0759858 -0.05866021 0.054020613 -0.13095628 0.20080262
0.22432338 -0.009017661 0.01828556 0.060466688 -0.0543895 -0.060524173 -0.08376403 -0.040427063
-0.00022772483 -0.02551835 0.2395195 -0.02351729 -0.23264693 -0.032201726 0.094537176 0.0679685
0.0127733555 0.23443668 0.10521849 -6.850573e-05 -0.08251781 -0.20633927 0.17379877 0.021288875
0.05931619 0.1770314 -0.057927642 -0.007112537 -0.20403004 -1.4940193e-06 0.07223789 0.12355274
0.1744009 -0.03553689 0.23703058 0.13562666 -0.060085475 0.0036104736 0.028062107 -0.00052605016
-0.010956832 0.02593814 -0.16496292 -0.0003304435 0.18165222 0.013220567 0.1264066 -0.04517848
-0.12704432 0.0615746 -0.05417517 -0.027356364 0.062175255 0.07079403 -0.18804803 -0.13222596
-0.018211802 -0.1205202 0.17827122 -2.8409615e-05 -0.123249665 -0.010786472 0.0064026355 -0.17941181
0.19103768 0.12891129 0.19429973 -0.1313873 -0.05867848 0.13584824 -0.09946123 -0.042836998
0.08632527 0.12678458 0.04225455 0.042397708 0.08783088 0.00050761644 -8.5741885e-06 0.07251448
-0.19650196 -0.20133731 0.029343678 -0.09348768 -0.02711339 -0.13662346 -0.06462329 0.05760826
0.0016512305 -0.23704512 -0.13493302 0.11259503 -0.13933423 0.00046004402 7.453664e-05 -0.09105929
-0.07820684 -0.02993029 -0.13278781 -0.05921573 0.17047489 -0.038553737 -0.08396691 -0.0044567417

bias_ih_l0 f4 [48]
00000000: 52e3 cdbb 66f0 88bd 12d7 5c3e f493 20be
00000010: f472 57be 57f1 45be 0e03 f13c 0f17 31be
00000020: e038 3e3e bfe5 04be 9840 4dbc 6cfa b13d
00000030: 9565 a43d aa77 7cbd 77bf 823c ab35 53be
00000040: 6e73 debc bfa5 31bd fc5d 273d fc62 f5bd
00000050: ee31 adbd ab9a a2bd 6825 88bd d8c7 163e
00000060: 5bfa 4abe 5ac5 1cbd 48de 183e 0cf5 3b3e
00000070: 59f9 71be 8fce 353e ea68 febd cc2a bfbd
00000080: 0ad3 6dbe 146c 39be 182b 14bd 9766 66be
00000090: 3516 953d 4fab a2bd 4f2e 123d 22fc da3d
000000a0: 009a 563e 5465 65bd 4d23 dcbd 66da d2bd
000000b0: 65ca 853d 1f3a 7b3e 29a2 743e 494f 4b3e
-0.006283202 -0.06686477 0.21566418 -0.1568144 -0.21039945 -0.19330345 0.029420402 -0.17293952
0.18576384 -0.12978266 -0.012527607 0.08690342 0.08027188 -0.061637558 0.015960438 -0.20625941
-0.02715465 -0.04337096 0.040861115 -0.119817704 -0.08456789 -0.07939657 -0.0664776 0.14724672
-0.19822066 -0.038274147 0.14928544 0.18355197 -0.23630275 0.17754577 -0.124223545 -0.09334335
-0.23225036 -0.18107635 -0.03617391 -0.22500072 0.07279626 -0.07942831 0.035688695 0.10692622
0.20957184 -0.056004837 -0.107489206 -0.102955624 0.06532744 0.2453389 0.23889984 0.19854464

bias_hh_l0 f4 [48]
00000000: 894e ecbd 3da8 80be 6509 323e d66c d5b9
00000010: 6e4f e5bd 9939 4cbd 85af 703e e730 173e
00000020: 44c0 9dbd 6fcd f13b 4fe1 473e b361 20be
00000030: 4967 c13c c085 89bd d0cd 76bb bd46 6a3e
00000040: 4ae7 21be 7d18 4a3e 460a ae3b b516 013e
00000050: 61b7 82be 5beb 943d 29ad 133b d52e 953d
00000060: 2f26 1abe 7cd9 13be 6bd9 dcbd 819f 87bd
00000070: 8dd2 28be 22bb 473c 66cc ca3c 4196 383e
00000080: e81e 1d3e 2f07 243e 9327 593d 91a7 83bd
00000090: 6a52 243e c00b 343e 2cd4 65be 49f5 1e3d
000000a0: e1b3 6c3e 6b2a ad3d 5ccd 9e3c 49ea 213e
000000b0: e44c 42bd caa2 473d 669f 58be b191 373c
-0.11538417 -0.25128356 0.17386396 -0.00040707615 -0.11196791 -0.049859617 0.23504455 0.14764749
-0.077026874 0.007379226 0.19519542 -0.1566227 0.02360882 -0.06714964 -0.0037659295 0.22878547
-0.15810886 0.19735904 0.0053112833 0.12606318 -0.25530532 0.07271453 0.0022533631 0.07284323
-0.15053628 -0.14438432 -0.10783657 -0.0662222 -0.16486569 0.012190612 0.024755668 0.18026067
0.15343821 0.16018365 0.053016257 -0.06428445 0.16047063 0.17582607 -0.22444218 0.03880814
0.23115493 0.08455356 0.019385032 0.15812029 -0.04743661 0.048739232 -0.21154556 0.011204169

weight_ih_l0 f4 [3, 11]
00000000: d3ea 593f 98af 5dbe 70ed f73e cfdd 60bf
00000010: cb5c c23e a0b4 2bbf 5342 54bd 962a f0b6
00000020: 1219 1c3e 78e2 6b3f 2dde 4e3f 5ab5 1f3c
00000030: ff92 643f c4d0 653f 8af1 22bf 8549 e4be
00000040: 84fd 29bf 09bd 233f bf13 d33d 5632 4dbf
00000050: f709 b63e ff8d b2bc ea04 cc39 3743 9cbe
00000060: 9a64 773e 658a 003f 9e44 893e 1dd6 453f
00000070: 9556 48bf c0a3 16bf 44fd 5f3f b4df 303f
00000080: a3c2 8d3e
0.8512394 -0.21649015 0.48423338 -0.87838453 0.3796142 -0.67072487 -0.051821064 -7.157515e-06
0.15243939 0.9214244 0.80807763 0.009747827 0.892868 0.89771676 -0.6364981 -0.4458734
-0.6640246 0.6396032 0.10306501 -0.8015493 0.35554478 -0.021796225 0.00038913573 -0.3052003
0.2415947 0.50211173 0.26810163 0.77279836 -0.78257114 -0.5884361 0.8749583 0.69091344
0.2768756

weight_hh_l0 f4 [3, 1]
00000000: ca57 52bf 6d37 6b3f cc42 6c3f
-0.82165205 0.9188145 0.92289424

bias_ih_l0 f4 [3]
00000000: 66e8 65be ea26 ecbe ad8c 2ebf
-0.22451934 -0.4612344 -0.68183404

bias_hh_l0 f4 [3]
00000000: d395 25bf 03c4 283f 1ad8 afbc
-0.6468174 0.6592409 -0.02146535

weight f4 [1, 16]
00000000: 7a57 b13d 9a9c 8ebd 4b30 fcb9 e753 833c
00000010: 3847 cf3d e585 8e3d 395b e9b9 c11a 29bc
00000020: 9e20 c3b7 b840 2cbd 9de6 0cbc 7a78 103d
00000030: 3736 debc de53 b4bd 92bb 25bd 93bb 4e3d
0.08659263 -0.06963463 -0.00048101167 0.016031219 0.10121006 0.06959132 -0.0004450919 -0.01032132
-2.3261e-05 -0.042053908 -0.008599904 0.035271145 -0.027125461 -0.08805059 -0.040462084 0.050471853

weight f4 [680, 17]
00000000: 6275 61be 6cfd 99bd 6d79 143d a972 473e
00000010: 6b36 0d3e 5b50 3bbd 2fa2 633e 67e0 d3bd
00000020: 08c4 653e dc96 1cbe e767 673e f605 56be
00000030: b8e4 4a3d e3df 3abe 2e4e 81bd fcdb 4cbd
00000040: 4cb4 a1bd d7bd b3bc 54c7 0cbb a28f aa37
00000050: 085d 36b6 0b30 f6bd 459b 3bbd a70c 413d
00000060: 4aa8 7a3b d0ad 043b 187c f8b8 d4b9 d1b9
00000070: 3c53 56bd befc 09be 35fd 5b3c ac9f ee3d
00000080: 3858 9c3d 39da 923d a75d ff3d a658 3c3c
00000090: b0b1 3cbd c7b4 06be 6b97 c73d 04bc 093e
000000a0: 549c af38 e267 d2bd fc14 08be ee8f febd
000000b0: eab7 24bb 86be 0a3e 982f 763d 252e 003e
000000c0: eed8 08be b63e 09bd a952 323d 567a 7e3c
000000d0: b873 253b 89e9 daba 937f a8bd 1937 023e
000000e0: 62b3 2cb9 6c1a c538 d9bf babd 9e65 8e3d
000000f0: a034 16bc 4ff4 1bbe 6431 0e3e 36a1 4a3d
00000100: 18bc edbd 183a 1abd 2463 acbc 82c7 00be
00000110: 072b a03d c0ea 9dbd 53e0 65bd 0cec 5f3c
00000120: 7d72 04bd 5235 b3bd 6c49 943b 61c6 0abe
00000130: ffb4 5ab9 360b 113d 9af3 1bbd 331f fabd
00000140: fa49 46bc ca5b c6bd 9d15 043e 33f7 98bd
00000150: 9371 58b9 ab57 babd 7839 8538 970a 063a
00000160: 1a7b ffbd 2be6 5dbd a800 e6b9 bc7b c238
00000170: b8c6 8fbd 7740 81bb 9e8f f4bd d218 d53a
00000180: 8c31 4fb9 2034 18b8 5151 d03d 5279 1bbe
00000190: 3174 5bb8 e82f 343c 4553 f7bd 085e 0ebe
000001a0: 6568 e73b 7787 e63c 20b5 5dbc c0b3 c53b
000001b0: 88a7 ffbd 65a9 bbbb eae7 25bc bafc c4bd
000001c0: 6150 fc3c af58 e73b 183d 943b 6057 1bbc
000001d0: 0e67 babc 1c92 cfbb 8b85 8e3b d6db 24be
000001e0: d0cd 74bc 32a2 64be d5d3 963c 1d65 ac3d
000001f0: 016c e93d 0f58 cb3d 659b 713e 2575 d8bc
00000200: 2872 13bd 7d9e 8e3c ce15 43bd 1908 2e3d
00000210: d9ff 6c3e 0710 60be 6222 f53d 50ce 6bbe
00000220: 10fe 45be 11c5 a63d 3825 3dbe 1eab e73d
00000230: 458d 893d 17dd b1bd 1eed 92bd 721e 9d3d
00000240: cfa9 2b3e b58a 2d3e e0cb e93d 06aa a23d
00000250: 8756 2fbe 4f35 433e 0607 333c 7298 43be
00000260: 91ce 72be d5a7 603e 21a9 493e d888 b73c
00000270: 6eee 3cbe 018d 583d ee34 003d b361 12be
00000280: 29d3 e23d d87f 693e a33d 31be 99eb 2a3e
00000290: a038 29be 82b4 16bd db25 5cbe b1f6 5f3e
000002a0: 8c96 e4bd 2fc7 53be 0da7 7c3e 697b 38be
000002b0: 8cff 883d aa97 4d3e 9dc0 1bbe 5f15 6cbe
000002c0: 3643 683e f63b e5bd dbf1 85bd 8685 503d
000002d0: 9ba5 7abe c746 763e d6fd 213e cd2c 03bd
000002e0: 38d9 3c3e d40e 2bbe b472 81bd 57ff 953c
000002f0: c42a fabd e3f5 1d3d 768e a4bd 7d86 f339
00000300: 3b4b 5f3d 7cfb 213e f003 f4bd d02b b63c
00000310: 6e21 fe3c 3641 3e3e 23cf 9fbd 0281 4bbe
00000320: b4e4 dfbd 3356 2e3e 7c4f a1bc 6fe6 483e
00000330: 0101 32be 469f c8bd 3de2 b83d 4a4c 1abe
00000340: 83b0 163e 209e 233e 8c69 293e 5034 823e
00000350: 453f 2f3e cdd2 68be c9c0 7b3e 9cc4 b83d
00000360: 6851 13bd 99ba 08bd d5bf 553e 03bb 93bd
00000370: b2dc 3c3e 3ccb e43d 2a3e 7ebd c6b9 3ebe
00000380: f5b1 673d feb1 563e 2400 4a3e ba75 04be
00000390: fc06 5f3b 557e cb3d 75e9 84be 1c66 05bd
000003a0: ee41 d9bd 2dcc 593e b2e3 30be 5b5e f63d
000003b0: f5bb a3bd 563e 203e 3b2c a2bd 0bc6 f139
000003c0: d71a a9bd 15e9 10bd 30e5 afb7 1188 a9bd
000003d0: de0a e53d 7412 abbd 8391 fc3a bf68 183e
000003e0: f3f6 9937 e500 813d 3281 d238 4231 dc3d
000003f0: 3edf cebd 7b83 8fbd 6f92 80bd 1f5d 02ba
-0.22017434 -0.075190395 0.036248613 0.19477333 0.1379029 -0.04573093 0.22229837 -0.10345536
0.22438061 -0.15291923 0.2259823 -0.20900711 0.04953453 -0.18249469 -0.0631374 -0.05001448
-0.07895717 -0.021941109 -0.0021481114 2.0332463e-05 -2.7174265e-06 -0.12020882 -0.045802373 0.047131207
0.003824728 0.0020245202 -0.00011848676 -0.0004000204 -0.052325472 -0.1347532 0.0134270685 0.11651549
0.07634014 0.07170529 0.12469035 0.011495745 -0.046067894 -0.13154899 0.097456776 0.13450629
8.373769e-05 -0.1027372 -0.13289255 -0.12429796 -0.0025134035 0.13549241 0.060103983 0.12517603
-0.13364002 -0.03350707 0.043535862 0.015532097 0.0025245976 -0.0016701679 -0.08227458 0.1271633
-0.00016470024 9.3986135e-05 -0.09118623 0.06952976 -0.00916782 -0.15229915 0.13886029 0.04947015
-0.11608142 -0.03765306 -0.021043368 -0.12576106 0.07820707 -0.07710791 -0.056122135 0.013667118
-0.032335747 -0.087504044 0.004525354 -0.13552238 -0.00020857526 0.035411082 -0.038074113 -0.12212982
-0.012102598 -0.09685476 0.1289887 -0.074690245 -0.00020641675 -0.090987526 6.3526386e-05 0.00051132723
-0.12474652 -0.054174583 -0.00043869507 9.273688e-05 -0.070203245 -0.0039444524 -0.11941455 0.0016258007
-0.00019759516 -3.628817e-05 0.1017176 -0.15182999 -5.232188e-05 0.01099775 -0.12076429 -0.13903058
0.0070620053 0.028140767 -0.013531953 0.0060333908 -0.12483126 -0.0057269805 -0.010126093 -0.09618516
0.030800046 0.0070601325 0.0045238845 -0.009481281 -0.022754218 -0.0063345563 0.0043494157 -0.16099486
-0.014941648 -0.22327498 0.018411556 0.08417723 0.11397553 0.09928905 0.23594435 -0.026423046
-0.03599754 0.017409557 -0.047628216 0.04248819 0.23144473 -0.21881114 0.119694486 -0.2302792
-0.19335198 0.08143056 -0.18471229 0.11311935 0.06716398 -0.08684748 -0.07174133 0.076718226
0.16763996 0.16947444 0.11415839 0.07942586 -0.17122851 0.19063304 0.0109269675 -0.19101122
-0.23711611 0.21939023 0.19693424 0.02240412 -0.18450329 0.052868847 0.031300478 -0.14295082
0.11075432 0.22802675 -0.17308669 0.16691436 -0.16525507 -0.03679324 -0.21498816 0.21871449
-0.11161527 -0.20681451 0.246731 -0.18015827 0.06689367 0.20077386 -0.15210195 -0.23055027
0.22681889 -0.11193077 -0.06540271 0.050908588 -0.24477236 0.24050437 0.15819487 -0.032025147
0.18442237 -0.16704875 -0.06320706 0.018310232 -0.12215188 0.038564574 -0.08034985 0.00046448773
0.054515105 0.1581859 -0.119148135 0.022237688 0.0310218 0.18579563 -0.0780318 -0.19873431
-0.109322935 0.1702507 -0.019691221 0.19619153 -0.17383195 -0.09796004 0.090275265 -0.15068164
0.14715771 0.15978289 0.16544169 0.25430536 0.17113979 -0.22736664 0.2458526 0.09021875
-0.035966307 -0.03338108 0.2087396 -0.07213404 0.18443564 0.111715764 -0.062071003 -0.18625554
0.056566197 0.20966336 0.19726616 -0.12935534 0.0034031263 0.09936205 -0.25959364 -0.032568082
-0.10608278 0.21269293 -0.17274359 0.120297156 -0.07994834 0.1564878 -0.079185925 0.00046114656
-0.082570724 -0.035378534 -2.096835e-05 -0.08277906 0.111837134 -0.08353129 0.001926944 0.14883707
1.8354016e-05 0.06298999 0.00010037645 0.10751583 -0.10101174 -0.070075 -0.0627793 -0.00049729826

bias f4 [680]
00000000: a005 8e3d 6993 0abe 53fd d9bd ce7c 18be
00000010: 754c 51bd df0a fabd 0f75 27bd 7830 09be
00000020: ea05 10be b0da c9bd 18c1 df3c e9bb 323e
00000030: 6ebd 873c 6e25 28bd cd2d 1dbe 2043 a536
00000040: 1345 ec3d 8223 3a3e bad1 d23d 0880 d3bc
00000050: 5f03 233e e5aa 9f3d fcd3 453e 995b 413d
00000060: e6a5 213d b7aa 183d 25fe 683e df6f 293d
00000070: 2692 d9bd d743 203d cc00 6c3d 9f06 093e
00000080: 8b24 ee3d b62c 93bd dd91 3d3d 4957 5b3e
00000090: 8dd9 a6bd 6880 1dbe c674 c1bd b0bd 72bd
000000a0: c4ed 323e e194 353e d07c e03d 813e 0cbe
000000b0: 1378 963d 1353 d5bd a038 4f3d 321d 1cbd
000000c0: bc7e a73d 0ce7 0a3c a957 c4bc d94e c7bc
000000d0: bece c3bd 140d a3ba 8dcd febd a7df 463e
000000e0: 0171 513e 9d57 17be ab46 da3d 46a5 0a3e
000000f0: 625f 18be 0d9c 08be 4656 87bd fc34 03bb
00000100: 70ee ffbd 8f61 b4bd bcc8 15bc 7a92 1c3e
00000110: 93e3 6abb c72e 9638 a49a 96bd d6f2 643e
00000120: 5693 a6bd da2e 39be 9135 04be 8e1e 233c
00000130: 8944 babd 330e 06bd cd89 6abd d8cd 813d
00000140: ba48 37be 190b c1bd 39a4 cabc 28bf 633e
00000150: fddb f5bd 79d6 1cbe 664a 213d 0713 12bd
00000160: 5e24 37bd 1cf9 ebbc bbdf 92bc ac25 813c
00000170: 56e1 6f3e 6859 13bd 1f8c 703d 84f2 eebd
00000180: f468 ac3d 8a6b ba3d b4fe 08b9 d118 bcbd
00000190: bcee 20be e6a9 ec3d 2113 163e b80f e03c
000001a0: 780e 8f3d 51cd 393c e5e8 5e3e dbab 4a3e
000001b0: 16ee 08bd 05a9 0cbd 5a14 db3d b87c 0bbe
000001c0: 13e9 413d 2c36 033e eae8 343d 619b 123e
000001d0: 1905 4e3e 9a06 1e3d 8c53 99b8 2e58 10be
000001e0: 919e a3bd 3054 16bc 5b6b ffbd 5d1b 06bd
000001f0: 150b a0ba 7f84 1c3d 4313 eebc c25e b4bd
00000200: 5192 64bd 54fe 033d 6105 1b3e c9fd 623e
00000210: 3c6c 8c3d 4be2 f33d e70f efbd 73e7 a7bc
00000220: ba6c d0bd 5350 8b3d 5110 a53d 78cc bf3d
00000230: c16e 14be 3563 80bd b51d 823a 6746 d6bd
00000240: 10a7 31bd c94e 0b3e c77e 113e 28e7 67bd
00000250: e0b2 8dbd 82da 3d3e e593 513e becd 183d
00000260: b4b2 1bbe 71d4 033e 08c3 673e c858 1e3e
00000270: 2241 fd3c b207 2c3e 3ff2 6c3e c6e5 113d
00000280: e12a 803b dca8 203e c577 1cbd 438a 10bd
00000290: c0c8 123d 26e2 3fbd feb3 ba39 1b90 2b3e
000002a0: 0202 d1bb 183d 0a3e 1d7e 2ebe 030d 253e
000002b0: aaa6 223e 3959 c6bd 8fc3 3d3e 9417 42bd
000002c0: 8cd4 30bd 0a72 613e f742 1c3e 9588 b63d
000002d0: 7398 96bd e443 563e 7c99 9ebc e45b ca3d
000002e0: b87a 9b3d 12d1 483e 89cf 02bd 5e61 f43d
000002f0: efe3 3a3e 4724 6dbe 69a8 15be 744b 9abd
00000300: fcfe c1bc 542f 41bd e6a6 02be d9f8 13be
00000310: 277e 163e dd5c 03be e445 173e 6b9c e13d
00000320: 91ae c93c 7a68 0cbe 86ee 17bd 3ab2 233e
00000330: e6a9 2c3d b989 c4bd d63f d4bd f9e5 57be
00000340: c101 a4bc 7ff8 a4bd b820 8ebd b295 943d
00000350: ab90 d53d 9fe4 17bc c08e 9ebd d6d6 2c3e
00000360: 7853 e63d 2888 133d 9cb9 05be be82 dabd
00000370: 03cd 42bd 3647 293e a360 40be a82e babc
00000380: c07e e0bd 0e35 983c 0da2 37be 26cc 40bb
00000390: e365 f038 bcf5 fb3d 0381 543e 6df9 673e
000003a0: 005d 13be 6c24 ffbd 41e6 5b3e a35c 773e
000003b0: ad6c 713d 2147 bebb 26bd 543c aa2d e23d
000003c0: abad 213e 6f10 763e e1e4 753e 49ce ff3d
000003d0: c87d 6ebe a3b4 5a3e 683a 0abd 711e 4b3e
000003e0: 011f bebd ce9d cbbd 4503 59bd b9ff 213d
000003f0: c00c 5a3e b6a6 783e 08be 393c 1b03 523e
0.06934667 -0.13532795 -0.10644021 -0.14891359 -0.051098306 -0.12209105 -0.04088312 -0.13397396
-0.14064756 -0.098561645 0.027313754 0.17454495 0.01656982 -0.04105132 -0.15349503 4.9251976e-06
0.11536612 0.18177608 0.102939084 -0.025817886 0.15919255 0.077962674 0.19319147 0.047206495
0.039464854 0.03727218 0.22753198 0.041366454 -0.10623579 0.039127197 0.057617947 0.13381432
0.11628064 -0.07186262 0.046281684 0.21420015 -0.08146963 -0.15381014 -0.09446101 -0.05926293
0.17473513 0.17732574 0.10961306 -0.13695718 0.07347121 -0.10416236 0.05059111 -0.03811378
0.081784695 0.008477937 -0.02396758 -0.02432959 -0.09560917 -0.0012439811 -0.124415495 0.19421254
0.20453264 -0.14779516 0.1065801 0.1353961 -0.14880136 -0.13340779 -0.06608252 -0.0020020595
-0.1249665 -0.0880767 -0.009142097 0.15290251 -0.0035841211 7.16127e-05 -0.07353714 0.2235826
-0.08133571 -0.18084279 -0.12911059 0.009956015 -0.09095103 -0.032728385 -0.057260323 0.0633809
-0.17898837 -0.09425945 -0.02473651 0.22240889 -0.1200485 -0.1531619 0.039377593 -0.035662677
-0.044712417 -0.028805308 -0.017928949 0.015765034 0.23425803 -0.035973936 0.05872738 -0.1166735
0.08418456 0.09102543 -0.00013064855 -0.09184421 -0.1571607 0.11555843 0.14655735 0.027351245
0.069851816 0.011340455 0.2176853 0.1979212 -0.03343018 -0.034340877 0.10697241 -0.13621795
0.047341418 0.12813634 0.044167437 0.14317085 0.20119132 0.038580514 -7.31117e-05 -0.14096138
-0.079892285 -0.009175345 -0.12471648 -0.03274094 -0.0012210334 0.038212296 -0.02906192 -0.08807136
-0.0558036 0.032224968 0.1513877 0.22167124 0.068565816 0.11908396 -0.11672955 -0.020496106
-0.10176988 0.0680243 0.08059753 0.09365171 -0.14495374 -0.06268922 0.0009927066 -0.10462647
-0.043372214 0.13604273 0.14208518 -0.056616932 -0.06918883 0.18540385 0.20466574 0.037305586
-0.15204889 0.12874009 0.22632992 0.15463555 0.030914847 0.1679981 0.23139285 0.03561952
0.0039113616 0.15689415 -0.03820016 -0.035288107 0.03583598 -0.04684653 0.0003561079 0.1675419
-0.006378413 0.13499868 -0.17040296 0.16118245 0.1588389 -0.096849866 0.18531631 -0.047385767
-0.04317145 0.22016159 0.1525992 0.0891277 -0.07353296 0.20924336 -0.019360296 0.09880808
0.07591766 0.19611004 -0.031936202 0.11932634 0.18251012 -0.2315837 -0.14615025 -0.07533923
-0.023681156 -0.047164276 -0.12758979 -0.14450397 0.14696561 -0.12828393 0.14772755 0.110161625
0.024619373 -0.1371173 -0.037092708 0.15985957 0.042154215 -0.09596581 -0.10363738 -0.21083821
-0.020020368 -0.08055209 -0.06939834 0.072551146 0.10427984 -0.009270816 -0.07742071 0.16878828
0.11246389 0.03601852 -0.13059086 -0.10669468 -0.047558796 0.16531071 -0.18786864 -0.022727326
-0.10961676 0.018579986 -0.17932911 -0.0029418557 0.0001146307 0.123027295 0.20752339 0.22653742
-0.14390945 -0.12458119 0.21474554 0.24156432 0.058941532 -0.005806819 0.01298455 0.11043866
0.15788905 0.24029706 0.24013092 0.12490518 -0.23290169 0.2135797 -0.033747107 0.19835831
-0.09283257 -0.09942208 -0.052981634 0.039550517 0.21293926 0.24282345 0.011336811 0.20508997
