estimators/knet/single_obs/p_MSE_ep100_train4000_val1000_test10000_lr5e-04_wd1e-05_ri[4, 4, 1, 1]_data_sr1e-01_q1e-04_r1e-02_j5_train[200,250]_val[40,250]_test[40,250].pt (torch, 475291 bytes, 121 tensors)

weight_ih_l0 f4 [48, 20]
0.14405632 0.011510423 0.06467806 -0.07751481 0.0482156 -0.070204236 -0.09895969 0.06825131
0.04080928 0.05843853 -0.08935008 -0.22515926 0.062604606 0.1301792 -0.2483774 -0.14079218
0.0876507 -0.100770324 -0.19936298 0.08174348 0.16018091 -0.060319997 -0.011883645 0.20177077
0.24467993 0.0645364 0.03632093 -0.006704377 0.14165536 -0.20366491 -0.09810575 0.11507371
-0.016169786 0.24621533 0.0770617 0.11232989 0.1887264 0.11811635 0.15925318 -0.006049311
-0.07966775 0.00062503363 -0.09824123 -0.09521861 -0.14510205 -0.2348992 0.18880457 -0.039389554
-0.15742956 0.18330106 0.12969077 0.09675454 0.23214109 -0.14772573 0.10628196 0.16027649
-0.14313033 0.09344045 -0.041628763 -0.0027307712 -0.09088259 0.16929118 0.09790882 0.055145454
0.14041749 -0.026865907 -0.20560928 0.22264537 0.07073517 0.17927194 0.060163155 -0.18892331
0.010460891 -0.23174876 -0.18417089 -0.18564196 -0.114381045 0.0835006 0.014103149 -0.21804136
0.0465961 -0.028869538 -0.11468683 -0.23827659 0.07895716 0.041620634 0.23263341 0.19247438
0.106134824 0.21272373 0.041442953 0.0032118245 0.23535763 0.25253484 -0.008879097 0.090035334
0.009520554 -0.006759636 -0.20102572 -0.02162199 -0.20944872 0.07624758 -0.074797265 0.2135998
-0.07511847 -0.16803333 0.02998305 0.12464408 0.24465817 0.19297388 0.16684432 -0.17364927
-0.052418884 -0.21146123 -0.12360366 -0.16612318 0.13499516 0.06816677 0.061119113 0.1496664
-0.23118195 -0.21100876 -0.15504062 0.18071458 -0.056149974 0.07523275 -0.19167803 0.005722318
-0.12375459 0.22625811 0.08605023 -0.14861958 0.14677761 0.23347564 -0.1251883 -0.1711851
0.19991699 0.0155742625 0.17216565 0.25859484 0.017374894 -0.16344799 0.10615808 0.20068492
-0.17399062 -0.19277243 -0.16839029 0.15179051 -0.10312668 0.05232395 0.0042539104 0.055947203
0.16148624 0.12663186 -0.20383781 0.117146306 0.23822902 -0.04193313 -0.18707477 -0.04051683
0.21211246 -0.09173682 0.13239697 0.23592103 -0.1791326 -0.16014856 0.19288455 -0.18271016
-0.16369627 -0.05750626 0.1497777 0.18636885 0.020969668 -0.23170964 0.18955816 0.13912115
0.14514428 -0.0563791 0.05734218 0.0047806655 0.09634683 0.134031 0.072243236 -0.17890318
-0.017808245 -0.23308884 -0.2242352 -0.01348719 -0.05101129 0.1949663 0.004525929 -0.15613702
0.012894305 -0.19797528 -0.13344888 -0.07748745 0.100903906 -0.22044069 -1.4286951e-05 0.24302211
-0.028229138 -0.16842756 0.15514855 -0.02586348 0.17356256 0.21005808 -0.01969173 -0.2021154
0.21397978 0.24935094 0.10321318 0.13603428 0.1529032 -0.06876041 -0.06902962 -0.04399484
0.110369936 0.053078864 0.13805549 -0.14659007 -0.046341937 0.022849139 -0.23553433 0.03411778
-0.0019415886 0.10216696 0.047755852 0.15730934 -0.08059297 0.22700301 0.1262675 -0.054448053
0.118144974 0.054428987 -0.11740485 -0.24043778 0.020278394 0.055367105 0.19891968 0.0006907172
0.15315475 0.23827142 0.09321259 0.19110012 0.11179232 -0.13253233 -0.24352632 0.11376329
-0.21226248 0.14263465 -0.04520235 -0.19069445 -0.18056332 -0.07333895 -0.11340179 0.25373194
00000000: 8083 133e 3796 3c3c ee75 843d 16c0 9ebd
00000010: b97d 453d 3dc7 8fbd 61ab cabd 58c7 8b3d
00000020: a227 273d 3d5d 6f3d 2dfd b6bd 2690 66be
00000030: d836 803d b24d 053e a556 7ebe d32b 10be
00000040: 3682 b33d ac60 cebd cf25 4cbe 2069 a73d
00000050: 7706 243e 1a12 77bd 9fb3 42bc ff9c 4e3e
00000060: 608d 7a3e a92b 843d 41c5 143d 64b0 dbbb
00000070: 1a0e 113e 898d 50be abeb c8bd c4ab eb3d
00000080: 8076 84bc df1f 7c3e 86d2 9d3d 370d e63d
00000090: 7e41 413e fce6 f13d 4413 233e 4c39 c6bb
000000a0: d828 a3bd 4cd9 233a b332 c9bd f901 c3bd
000000b0: a295 14be 6a89 70be fc55 413e f156 21bd
000000c0: 3735 21be 46b3 3b3e a8cd 043e 3f27 c63d
000000d0: 65b6 6d3e 6a45 17be 5baa d93d 851f 243e
000000e0: c290 12be b55d bf3d ec82 2abd bdf6 32bb
000000f0: a720 babd ab5a 2d3e 6b84 c83d 33e0 613d
00000100: 9ac9 0f3e e415 dcbc 3d8b 52be 26fd 633e
00000110: 9add 903d 1093 373e a46d 763d 1d75 41be
00000120: 2864 2b3c 8c4f 6dbe 4b97 3cbe ed18 3ebe
00000130: 9c40 eabd 5d02 ab3d e510 673c 3c46 5fbe
00000140: 8ddb 3e3d cf7f ecbc eee0 eabd c7fe 73be
00000150: 4bb4 a13d 667a 2a3d 7437 6e3e 0118 453e
00000160: 375d d93d 40d4 593e 16c0 293d 797d 523b
00000170: 9701 713e 3f4c 813e a279 11bc 7264 b83d
00000180: 19fc 1b3c f07f ddbb b0d9 4dbe 9920 b1bc
00000190: ba79 56be b127 9c3d 4f2f 99bd e8b9 5a3e
000001a0: b6d7 99bd ee10 2cbe 039f f53c 6545 ff3d
000001b0: ac87 7a3e f29a 453e 3dd9 2a3e 1dd1 31be
000001c0: 2fb5 56bd 4b89 58be ea23 fdbd 321c 2abe
000001d0: 2c3c 0a3e 059b 8b3d 0958 7a3d 2642 193e
000001e0: f6ba 6cbe ae12 58be f8c2 1ebe 3e0d 393e
000001f0: 84fd 65bd a113 9a3d 3f47 44be 4882 bb3b
00000200: 0c73 fdbd 35b0 673e 1a3b b03d bb2f 18be
00000210: df4c 163e 3d14 6f3e 5d31 00be 264b 2fbe
00000220: 0ab7 4c3e 312b 7f3c 314c 303e 8b66 843e
00000230: cb55 8e3c e95e 27be 6869 d93d 5980 4d3e
00000240: 992a 32be 2366 45be 816e 2cbe f96e 1b3e
00000250: 1534 d3bd a351 563d 6364 8b3b e528 653d
00000260: a65c 253e c8ab 013e dcba 50be 67ea ef3d
00000270: 4ff2 733e 13c2 2bbd 8790 3fbe faf4 25bd
00000280: 0234 593e 84e0 bbbd 1293 073e 4895 713e
00000290: 896e 37be fcfd 23be 8783 453e 5f18 3bbe
000002a0: ff9f 27be af8b 6bbd 535f 193e 7ad7 3e3e
000002b0: 95c8 ab3c 4b45 6dbe 891b 423e c675 0e3e
000002c0: b4a0 143e c5ed 66bd a2df 6a3d 21a7 9c3b
000002d0: 7d51 c53d 6c3f 093e 43f4 933d 6532 37be
000002e0: 99e2 91bc d7ae 6ebe ea9d 65be 60f9 5cbc
000002f0: 37f1 50bd 3fa5 473e 3f4e 943b 62e2 1fbe
00000300: a342 533c 08ba 4abe d3a6 08be bdb1 9ebd
00000310: b5a6 ce3d 34bb 61be fdb1 6fb7 cada 783e
00000320: cb40 e7bc 4678 2cbe 43df 1e3e a6df d3bc
00000330: 62ba 313e 7719 573e 8d50 a1bc 57f7 4ebe
00000340: 841d 5b3e da55 7f3e 6f61 d33d 924c 0b3e
00000350: a892 1c3e 42d2 8cbd 675f 8dbd ef33 34bd
00000360: a209 e23d 3969 593d 6b5e 0d3e b51b 16be
00000370: 0bd1 3dbd 1e2e bb3c e92f 71be 16bf 0b3d
00000380: e77c feba e93c d13d a49b 433d b315 213e
00000390: ed0d a5bd 7a73 683e 444c 013e ec04 5fbd
000003a0: fef5 f13d eef0 5e3d f471 f0bd 5235 76be
000003b0: e01e a63c 9ec8 623d 9ab1 4b3e 3f11 353a
000003c0: 99d4 1c3e 6cfd 733e 3ee6 be3d c0af 433e
000003d0: 5ff3 e43d 8eb6 07be f75e 79be bafc e83d
000003e0: 565b 59be d10e 123e 1926 39bd 6845 43be
000003f0: 97e5 38be bb32 96bd 333f e8bd 27e9 813e

weight_hh_l0 f4 [48, 16]
0.24248387 -0.040554766 -0.19096042 -0.24678017 0.23715098 0.05419371 -0.21553384 0.1032996
-0.12943721 0.04305575 0.054966692 0.19492775 -0.13046682 -0.24501121 -0.07524056 -0.020854115
-0.20064752 -0.18643099 -0.13202202 0.18466406 -0.07634606 -0.1193175 -0.12251969 0.23690717
-0.19533609 -0.17268382 0.02590756 -0.18595214 -0.015184511 0.2411457 -0.0852276 0.0843309
0.035497576 -0.12772173 0.11420331 -0.23418854 0.23405208 0.17444356 0.029887656 0.003937772
0.16271354 0.17278087 -0.0715963 -0.21598336 0.21652652 0.121588536 -0.08259736 0.12447793
0.22921315 0.17319489 -0.012662921 -0.12889095 0.18673639 0.18766622 -0.074981585 -0.21809284
0.117969476 -0.11605521 -0.1762583 -0.17914996 0.13083503 -0.13947083 0.14656058 -0.09251494
0.14652124 -0.1604767 -0.18770958 -0.19090845 0.21016878 -0.008153966 -0.17111702 -0.18152416
0.15441583 0.19795693 -0.20163438 -0.20703124 0.06780218 0.09714645 -0.038093206 0.021679338
0.09780471 0.18677755 -0.0771408 0.09321198 0.19042797 0.18023795 -0.10369415 -0.087337114
-0.15116802 -0.017931506 -0.11135572 0.014845277 -0.1923445 0.04879673 0.2094737 -0.20483333
0.033450514 -0.03558384 0.19259746 -0.21822907 0.05902757 0.14826089 -0.09983676 -0.022171682
-0.24468975 -0.14045642 0.23081347 -0.0083398335 -0.17401342 -0.18862967 0.17516041 -0.12109811
-0.20496126 -0.094984636 -0.15080157 -0.17774141 -0.15120272 0.18480468 -0.054811794 -0.1812441
-0.2041945 0.19044462 -0.08502445 0.11613986 0.12410538 -0.04273611 -0.16084488 0.020275796
-0.11126926 -0.108893156 -0.18860008 0.15609542 -0.081973106 0.2322289 0.050459452 0.045322135
0.026398731 -0.16024663 0.19996291 -0.10788719 0.040805887 0.14057232 -0.1638342 -0.1868406
-0.1046377 -0.10395019 -0.11262539 -0.080183126 0.1059168 0.14740178 0.061765812 0.13699044
-0.19184291 -0.23519614 0.1756929 0.12970784 -0.1177513 -0.027513897 0.08223205 -0.039721917
-0.21556517 0.10886803 -0.16610268 0.09516977 -0.12328435 -0.17506042 -0.23045428 0.113913186
0.23223625 -0.063227236 -0.22322509 0.11589988 0.1643497 0.1299493 -0.04495364 -0.037257217
-0.09308978 -0.14074309 0.05187739 -0.23168568 0.104662135 -0.065787405 -0.1978688 0.014570639
0.029955411 -0.09127482 -0.08450356 -0.16369988 0.24117371 0.10555049 0.21266294 -0.23505545
0.22499354 -0.18266977 -0.0037299383 0.22822359 0.0049099014 -0.13601823 -0.19141467 0.066931866
0.20264873 0.22557767 -0.22614685 0.1240141 0.06159209 0.11075913 0.11822578 -0.08356967
-0.23757786 -0.24307556 0.23732625 -0.1193522 0.19028689 -0.022071902 -0.16531996 0.0834776
0.18139869 0.22891915 0.09057375 -0.07569562 -0.04816343 0.081776604 0.22460146 -0.040314615
-0.23609777 -0.01858829 -0.08969153 0.19742294 -0.0671149 -0.084474415 0.20713648 -0.17574422
-0.25432295 0.04776196 0.20420071 0.03155359 -0.07151149 -0.23309718 0.06340417 0.23527369
0.06888865 0.10787093 0.1515499 -0.25640565 -0.09074407 -0.10373996 -0.21196577 0.12236894
0.08072211 -5.1299372e-05 0.23337837 0.18816051 0.03220035 -0.1763101 -0.20403853 0.23988232
00000000: b14d 783e c11c 26bd 218b 43be f1b3 7cbe
00000010: b5d7 723e 39fa 5d3d e7b4 5cbe be8e d33d
00000020: 308b 04be 3a5b 303d c124 613d 249b 473e
00000030: 1899 05be 38e4 7abe b917 9abd 40d6 aabc
00000040: 8b76 4dbe c4e7 3ebe c830 07be 9318 3d3e
00000050: 535b 9cbd bc5c f4bd 9aeb fabd cb97 723e
00000060: 2f06 48be 07d4 30be 173c d43c 3d6a 3ebe
00000070: 75c8 78bc e6ee 763e cf8b aebd aeb5 ac3d
00000080: e865 113d 7cc9 02be 6de3 e93d 1fcf 6fbe
00000090: 59ab 6f3e 55a1 323e f5d6 f43c 6d08 813b
000000a0: 619e 263e 78ed 303e 15a1 92bd be2a 5dbe
000000b0: 21b9 5d3e 6903 f93d ce28 a9bd 49ee fe3d
000000c0: dab6 6a3e 005a 313e 2478 4fbc fdfb 03be
000000d0: d337 3f3e 932b 403e f28f 99bd bb53 5fbe
000000e0: fb99 f13d 5bae edbd 0e7d 34be 1673 37be
000000f0: 9ef9 053e 71d1 0ebe fa13 163e 7978 bdbd
00000100: aa09 163e 0154 24be f136 40be 817d 43be
00000110: 7c36 573e 3698 05bc 4d39 2fbe 78e1 39be
00000120: 2f1f 1e3e 39b5 4a3e 3e79 4ebe ffff 53be
00000130: dfdb 8a3d b8f4 c63d 9f07 1cbd de98 b13c
00000140: d64d c83d 9d42 3f3e fffb 9dbd ece5 be3d
00000150: 8dff 423e 4c90 383e 995d d4bd cddd b2bd
00000160: cacb 1abe 18e5 92bc 780e e4bd 9b39 733c
00000170: f5f5 44be 14df 473d 4680 563e d4bf 51be
00000180: 6803 093d 5cc0 11bd 4538 453e 7177 5fbe
00000190: e5c6 713d b4d1 173e 3777 ccbd 63a1 b5bc
000001a0: f38f 7abe cfd3 0fbe 5e5a 6c3e cca3 08bc
000001b0: 9330 32be 2328 41be 405d 333e 4902 f8bd
000001c0: 5de1 51be 4e87 c2bd ba6b 1abe d801 36be
000001d0: e3d4 1abe 703d 3d3e 5582 60bd 0e98 39be
000001e0: 5d18 51be ea03 433e 4d21 aebd bcda ed3d
000001f0: f62a fe3d 0f0c 2fbd 85b4 24be 6d19 a63c
00000200: 23e1 e3bd 6003 dfbd 6120 41be 7ad7 1f3e
00000210: 84e1 a7bd 6acd 6d3e 92ae 4e3d b4a3 393d
00000220: 2742 d83c b117 24be 14c3 4c3e f6f3 dcbd
00000230: 1324 273d 31f2 0f3e 27c4 27be 2453 3fbe
00000240: 4a4c d6bd d6e3 d4bd 24a8 e6bd 0d37 a4bd
00000250: e8ea d83d 7ef0 163e 26fe 7c3d 3947 0c3e
00000260: 7872 44be 42d7 70be d7e8 333e 22d2 043e
00000270: 9827 f1bd d364 e1bc 4769 a83d 73b3 22bd
00000280: 1ebd 5cbe 34f6 de3d d216 2abe 5ee8 c23d
00000290: 817c fcbd 0a43 33be 35fc 6bbe 514b e93d
000002a0: 57cf 6d3e 487d 81bd 1e95 64be eb5c ed3d
000002b0: 4a4b 283e 6e11 053e 4f21 38bd 069b 18bd
000002c0: dba5 bebd f51e 10be 637d 543d 033f 6dbe
000002d0: 1a59 d63d 8cbb 86bd 1e9e 4abe b0b9 6e3c
000002e0: 0d65 f53c 4bee babd 3410 adbd f1a0 27be
000002f0: 3ef6 763e db2a d83d 50c4 593e 60b2 70be
00000300: b564 663e c90d 3bbe fb71 74bb 72b3 693e
00000310: 3de3 a03b 5d48 0bbe 3502 44be 9313 893d
00000320: 2683 4f3e d5fd 663e 0a93 67be 1bfb fd3d
00000330: fd47 7c3d afd5 e23d 5c20 f23d 9326 abbd
00000340: 9c47 73be cde8 78be a705 733e ed6e f4bd
00000350: 91da 423e 22d0 b4bc a349 29be 4ef6 aa3d
00000360: 94c0 393e c869 6a3e bb7e b93d 4e06 9bbd
00000370: 0447 45bd 7e7a a73d edfd 653e f020 25bd
00000380: 9dc3 71be 7846 98bc 31b0 b7bd 3d29 4a3e
00000390: 8973 89bd ec00 adbd 961b 543e 4bf6 33be
000003a0: 9e36 82be 0ca2 433d fe19 513e 563e 013d
000003b0: 9e74 92bd 07b1 6ebe 0cda 813d 96eb 703e
000003c0: 7e15 8d3d 6feb dc3d e62f 1b3e 9a47 83be
000003d0: 07d8 b9bd 9e75 d4bd 8e0d 59be 919c fa3d
000003e0: a251 a53d 482a 57b8 bdfa 6e3e 26ad 403e
000003f0: 84e4 033d a38a 34be 7aef 50be b6a3 753e

bias_ih_l0 f4 [48]
-0.14880641 -0.11562753 0.19706184 -0.11102793 0.21742631 -0.042950757 0.15629624 -0.061497875
0.038487732 -0.06512025 0.22820778 0.062732816 -0.024553033 0.24491574 0.2549863 0.015361738
0.031568617 -0.1840065 -0.02624965 -0.23200695 -0.076837525 -0.13376774 0.19712512 -0.24120827
0.05753094 -0.058558766 -0.14361435 -0.25781542 0.19300883 0.24342181 0.12291648 -0.22849502
0.07383816 0.031520374 0.09463274 0.20050932 0.15304627 0.06708768 0.083775446 -0.05700714
0.028241135 -0.038020786 -0.028057752 0.22952168 0.06266252 0.045833338 0.12965749 -0.23606966
00000000: b560 18be 20ce ecbd 94ca 493e 9d62 e3bd
00000010: 01a5 5e3e 22ed 2fbd 1f0c 203e 32e5 7bbd
00000020: 50a5 1d3d c45d 85bd 4daf 693e 107a 803d
00000030: 7123 c9bc 31cb 7a3e 908d 823e cdaf 7b3c
00000040: 184e 013d 336c 3cbe 8209 d7bc 3b93 6dbe
00000050: fe5c 9dbd 69fa 08be 2bdb 493e 4dff 76be
00000060: 90a5 6b3d 51db 6fbd a40f 13be 6200 84be
00000070: 1ba4 453e 9143 793e a3bb fb3d 99fa 69be
00000080: 7638 973d 821b 013d cfce c13d 5152 4d3e
00000090: 29b8 1c3e 4465 893d 7692 ab3d 5280 69bd
000000a0: f459 e73c afbb 1bbd 5fd9 e5bc bb07 6b3e
000000b0: 3555 803d bdbb 3b3d efc4 043e 3fbc 71be

bias_hh_l0 f4 [48]
-0.20767446 -0.10758542 0.24342246 0.057181872 0.08490718 -0.13616343 0.19823499 -0.016033364
0.2422471 0.20100452 -0.23508757 0.1981225 -0.03168612 0.03733827 -0.17863744 0.093875855
0.11516924 -0.17302579 0.09831018 0.13963223 -0.23515792 -0.09481034 -0.037500147 0.18841524
0.01524434 0.13718244 -0.13103673 -0.025176289 -0.11425951 -0.088453084 -0.15579347 0.23332565
-0.24290198 -0.17712848 -0.17663257 -0.020857936 0.15811786 -0.23680344 0.21989599 0.09102668
0.00112637 0.15063797 -0.18886569 -0.14658408 -0.022515751 0.18476713 -0.072246715 -0.07354152
00000000: 9da8 54be bf55 dcbd bd43 793e 8a37 6a3d
00000010: d1e3 ad3d 6d6e 0bbe 1dfe 4a3e 6758 83bc
00000020: a00f 783e 21d4 4d3e ccba 70be a0e0 4a3e
00000030: 4ec9 01bd 04f0 183d bcec 36be fc41 c03d
00000040: dadd eb3d ac2d 31be d956 c93d c0fb 0e3e
00000050: 3dcd 70be ec2b c2bd c199 19bd edef 403e
00000060: 65c3 793c 8e79 0c3e 7e2e 06be 813e cebc
00000070: e400 eabd e426 b5bd 5388 1fbe ebec 6e3e
00000080: 4cbb 78be 2b61 35be 2bdf 34be 43de aabc
00000090: a6e9 213e 9a7c 72be 6a2c 613e 326c ba3d
000000a0: b5a2 933a d740 1a3e 0266 41be 231a 16be
000000b0: f472 b8bc 9833 3d3e 16f6 93bd f09c 96bd

weight_ih_l0 f4 [48, 36]
-0.068067476 -0.08209541 0.039523732 0.2276215 -0.18103188 0.12808159 0.20245013 -0.20018019
0.10664748 0.101975694 -0.22440721 0.04567009 0.088286035 -0.015697237 -0.01685905 0.025896769
0.1742428 -0.036131863 0.012585057 -0.22797982 0.014728872 -0.15776062 -0.06152453 -0.24415024
0.1895872 -0.003693086 -0.00021994209 0.01332521 -0.1714152 -0.024516532 0.095146865 -0.13180321
-0.17089583 0.08119388 0.13161384 -0.19028477 0.061236877 0.25015968 -0.18700102 -0.16535832
-0.21902141 -0.118066594 0.15883112 -0.14555351 0.2080965 0.16920842 -0.21275674 -0.22498558
-0.08225329 -0.17069225 -0.20521306 0.24866629 -0.1843361 0.0005498445 -0.16668765 0.010303413
-0.11605255 -9.941496e-05 0.06644973 0.23354892 -8.333673e-06 0.11996257 -0.19616276 0.21694037
-0.105273254 0.24396588 -0.036445808 -0.022473326 0.10941653 0.023463512 0.16971126 0.23375809
-0.11759625 -0.12189987 0.24176364 -0.13258566 0.20514011 -0.23443834 -0.048447832 -0.24708533
0.11937233 -0.14885789 0.00040086667 -0.16482008 -0.1150122 -0.030653495 0.058106218 0.10101383
0.20919012 0.066787966 -0.0019967642 -0.07391334 -0.17381555 -0.13801718 0.1437755 0.09577724
0.11404262 -0.20707683 0.16915695 0.18051144 0.15668078 0.003894216 0.1684517 0.08921224
0.020834407 0.09940091 -0.24938366 0.04187815 0.18781015 0.1707854 0.06571789 0.035499185
0.090573266 0.008455781 0.06840714 0.1986374 -0.14217831 -0.23301096 -0.054240268 -0.24508455
-0.05094899 -0.21162751 0.056162395 -0.2240818 -0.23298 -0.23587516 -0.00094632426 -0.00081531063
0.10779336 -0.12179568 -0.13562727 -0.21109104 0.11381833 0.2145121 0.20152874 -0.18301263
0.1147593 0.05060019 0.0133308405 -0.069549054 0.2378961 -0.051443122 -0.08934356 0.1832791
-0.1142771 -0.25167483 -0.01977261 0.1990097 0.2510746 -0.10976707 0.046518177 -0.20143165
0.18043147 -0.22444102 -0.121315345 -0.008026038 0.22957355 0.05897932 0.012467227 -0.24475436
-0.11799587 -0.04569824 0.12938166 -0.16139947 0.035853393 0.07104891 -0.19742483 0.113931954
0.019550227 0.22863315 -0.1771313 -0.08880096 -0.07736203 0.1873002 0.10421198 -0.04336084
0.029874537 0.08989468 0.1895554 -0.013194072 -0.11059574 -0.18259221 0.25680798 0.09863225
-0.18541633 0.08945477 -0.12013501 -0.23135321 -0.12198603 -0.1544574 -0.16881797 -0.0065206033
0.20406348 0.20048763 -0.084409185 -0.13260147 -0.23258458 -0.1517226 -0.18399757 0.23043604
-0.0051111556 -0.14066727 0.181592 0.10049916 0.20285065 -0.10445328 0.026246525 0.21098372
-0.09573015 0.010365309 0.21017618 -0.08871159 -0.008949575 -0.15944575 0.101613864 0.14368482
-0.16735812 -0.11936047 0.20127955 -0.12711062 -0.24106754 -0.031186443 -0.06006306 -0.22755694
-0.014444621 0.23451158 -0.019497905 0.15444121 -0.14495105 -0.20793706 0.17389116 -0.21608475
0.19932517 -0.17227912 0.057036866 0.19222575 0.052765977 -0.046350315 -0.2429569 -0.08022959
0.13826223 -0.14822388 0.17509669 0.1426507 0.118385434 -0.08976505 -0.17029907 -0.048813198
0.07782271 -0.016644638 0.17580913 -0.1634342 0.16780621 0.08342582 0.13718782 -0.14386229
00000000: f666 8bbd a321 a8bd a3e3 213d 9c15 693e
00000010: 6c60 39be d227 033e 164f 4f3e 09fc 4cbe
00000020: fe69 da3d a2d8 d03d 01cb 65be 8f10 3b3d
00000030: 4fcf b43d 7e97 80bc fe1b 8abc 7625 d43c
00000040: b46c 323e 01ff 13bd 8e31 4e3c 8b73 69be
00000050: 5e51 713c 008c 21be 2501 7cbd 8502 7abe
00000060: 2623 423e b407 72bb 41a0 66b9 fb51 5a3c
00000070: 7787 2fbe e5d6 c8bc 5cdc c23d 6cf7 06be
00000080: 51ff 2ebe fa48 a63d c7c5 063e 03da 42be
00000090: 85d3 7a3d ee14 803e 327d 3fbe b153 29be
000000a0: 2647 60be e6cc f1bd a0a4 223e fb0b 15be
000000b0: 4017 553e f944 2d3e e7dc 59be 9f62 66be
000000c0: 6a74 a8bd f3c9 2ebe 5f23 52be 60a2 7e3e
000000d0: 9ac2 3cbe 7123 103a 2bb0 2abe a5cf 283c
000000e0: f6ac edbd 007d d0b8 cc16 883d 7327 6f3e
000000f0: dad0 0bb7 f0ae f53d e4de 48be 9e25 5e3e
00000100: 8199 d7bd 31d2 793e 3348 15bd fb19 b8bc
00000110: c615 e03d 8d36 c03c cac8 2d3e 485e 6f3e
00000120: 4dd6 f0bd a4a6 f9bd e390 773e 89c4 07be
00000130: 4010 523e 9b10 70be 3c71 46bd f003 7dbe
00000140: 7b79 f43d 346e 18be 6a2b d239 98c6 28be
00000150: 848b ebbd 0a1d fbbc c900 6e3d 57e0 ce3d
00000160: ef35 563e 21c8 883d 25dc 02bb e15f 97bd
00000170: b4fc 31be 6054 0dbe e239 133e dc26 c43d
00000180: 2d8f e93d f30b 54be 7b37 2d3e fed7 383e
00000190: ed70 203e 1a36 7f3b 9a7e 2c3e e8b4 b63d
000001a0: ebac aa3c b492 cb3d 6e5e 7fbe 6c88 2b3d
000001b0: 4e51 403e 5ee2 2e3e 1a97 863d 9867 113d
000001c0: 7a7e b93d 1e8a 0a3c 0b19 8c3d 9a67 4b3e
000001d0: 3197 11be 6d9a 6ebe 0b2b 5ebd 72f7 7abe
000001e0: e3af 50bd e2b4 58be 8a0a 663d b375 65be
000001f0: 4f92 6ebe 4289 71be bf12 78ba 92ba 55ba
00000200: c4c2 dc3d 0370 f9bd e0e1 0abe 4028 58be
00000210: 9619 e93d 0fa9 5b3e 8d5d 4e3e aa67 3bbe
00000220: ed06 eb3d 2542 4f3d 9969 5a3c bc6f 8ebd
00000230: 099b 733e 06b6 52bd c2f9 b6bd 84ad 3b3e
00000240: 1d0a eabd 86db 80be 2bfa a1bc 33c9 4b3e
00000250: da8c 803e 8fcd e0bd d889 3e3d 1944 4ebe
00000260: 07c3 383e ded3 65be 2e74 f8bd a57f 03bc
00000270: 5415 6b3e 4d94 713d 5743 4c3c e3a0 7abe
00000280: d2a7 f1bd 142e 3bbd a07c 043e e745 25be
00000290: 02db 123d 1782 913d bc29 4abe 2855 e93d
000002a0: cc27 a03c cf1e 6a3e e861 35be 47dd b5bd
000002b0: fc6f 9ebd a0cb 3f3e 176d d53d 239b 31bd
000002c0: 72bb f43c b41a b83d d01a 423e f32b 58bc
000002d0: 0580 e2bd 74f9 3abe 567c 833e b5ff c93d
000002e0: c7dd 3dbe 1034 b73d 5809 f6bd dbe7 6cbe
000002f0: d0d3 f9bd 152a 1ebe 9ede 2cbe c9aa d5bb
00000300: 04f6 503e a14c 4d3e b9de acbd aec8 07be
00000310: a72a 6ebe 2b5d 1bbe dc69 3cbe 6df7 6b3e
00000320: 7b7b a7bb 150b 10be 41f3 393e 81d2 cd3d
00000330: 15b8 4f3e 9aeb d5bd f402 d73c 1e0c 583e
00000340: 2b0e c4bd 42d3 293c 6d38 573e 6cae b5bd
00000350: 3da1 12bc bf45 23be ee1a d03d 1d22 133e
00000360: ed5f 2bbe 4373 f4bd 3a1c 4e3e 4929 02be
00000370: 69da 76be b67a ffbc af04 76bd b004 69be
00000380: 22a9 6cbc ce23 703e 12ba 9fbc d625 1e3e
00000390: 0c6e 14be 74ed 54be 8610 323e 5245 5dbe
000003a0: e61b 4c3e f069 30be 7d9f 693d d4d6 443e
000003b0: 2321 583d d4d9 3dbd b2c9 78be 694f a4bd
000003c0: 9d94 0d3e 00c8 17be 8c4c 333e 0613 123e
000003d0: 1074 f23d bdd6 b7bd e162 2ebe 59f0 47bd
000003e0: 8361 9f3d 565a 88bc 4f07 343e 4c5b 27be
000003f0: 64d5 2b3e 28db aa3d f77a 0c3e a350 13be

weight_hh_l0 f4 [48, 16]
-0.13916658 -0.0509088 -0.1806991 -0.07568263 -1.7188722e-05 0.13118476 -0.20217343 0.09049469
0.0152296955 -0.12744819 -0.13506378 -0.03769249 -0.035317093 0.17004068 -0.03025649 -0.07055421
-0.11722132 0.06354902 -0.22646415 0.027360586 -0.12358975 -0.11570825 0.13702293 0.19733429
-0.028674938 -0.14522547 -0.2191104 -0.16598898 -0.014304184 -0.0025866507 -0.14021155 0.18579863
-0.051571716 0.050092548 -0.10002375 0.07234262 0.16067868 0.043586243 0.23911469 0.1504978
0.036505736 0.12878883 -0.21196575 0.032102358 0.19926308 -0.068551846 -0.059355307 0.06442853
0.07142465 0.08251431 0.22992216 0.03789587 0.17210217 0.108314715 -0.21152316 0.024166977
0.10537025 0.06010234 0.19991153 0.006455849 -0.05610546 -0.17885771 0.0807321 0.009220015
-0.13201 0.075348906 0.09098825 -0.03132002 -0.06796087 1.0490701e-05 0.0014338804 -0.033477247
-0.19372123 0.06327509 -0.1681083 0.11055815 6.444422e-06 0.116804585 0.1097735 -0.079434775
0.008264289 0.014924825 0.22033808 0.118699856 -0.02810913 0.09171464 0.2527185 0.097474694
-0.19592883 0.22470626 -0.062138353 -0.21245761 -0.10311166 -0.21342003 -0.11411251 -0.22432213
0.117965154 0.11948601 0.030764911 0.00083211594 0.027267493 3.0511457e-05 -0.023521682 -0.15926903
-0.21722858 0.053437497 -0.19822574 -0.032353807 0.055200055 0.20233542 -0.070783444 0.07216901
0.15366612 -0.005061002 0.065839 -0.01392428 6.5408726e-06 -0.10200383 -0.09111803 0.23070198
0.16461915 0.0704081 0.026836924 0.17745145 0.00022450047 0.03317468 0.09112675 0.15510814
0.1971073 -0.105172545 0.004100179 -0.01584301 0.19966274 -2.247869e-05 -0.020879043 0.0747251
-0.12050006 0.14478648 0.21453944 -0.0006517638 -0.020293945 -0.05832185 -0.007911889 0.009261822
0.032446295 0.05824145 0.18007907 0.16841415 -0.00026726973 -0.1405223 0.21969378 -0.06598889
0.26055935 -0.023321044 -0.18308789 -0.09801299 -0.07041774 0.075017735 0.11000812 0.1666576
-0.031867247 -0.17712931 0.19196293 0.18790755 1.7078515e-05 0.10321367 0.06787353 0.23746665
0.05042561 -0.13992316 -0.15137275 0.052175675 0.0062954198 -0.24057485 -0.23095082 0.19545823
0.08160951 0.04805592 -0.224772 -0.008408956 0.17817561 -0.07076395 -0.1565964 -0.007979722
-0.16713095 0.12292531 0.16172193 -0.19168434 -3.9830782e-05 -0.2181435 -0.17039803 -0.15954413
-0.09578513 -0.1314911 0.14054033 0.112343825 0.09055511 -9.0823865e-05 -0.21134055 -0.023329934
0.1400741 -0.032863785 0.07280124 -0.16418517 0.042952575 -0.24015465 0.033522163 -0.032341734
-0.18608977 0.0090704225 -0.21306719 -9.0263755e-05 0.16771322 -0.13163252 0.13469744 -0.17220205
0.20284042 0.08080729 -0.05973784 -0.10539814 0.10566055 0.18760516 -0.114913166 -0.23654082
-0.059143774 0.023949578 0.2156238 0.15803193 0.13752113 0.08406797 0.07120521 0.01635476
0.106699266 -0.23328696 -0.047721345 -0.11986426 0.033671416 -0.06491045 0.070497654 0.2118981
0.19858222 -0.14204624 -0.11161742 -0.12022274 -0.1246905 -0.19306503 0.22305635 0.17848839
-0.081394225 0.17906158 0.192236 -0.20583954 -0.008539146 -0.1063696 0.23215914 0.2146495
00000000: af81 0ebe bf85 50bd 2f09 39be 7fff 9abd
00000010: 8030 90b7 4c55 063e 8d06 4fbe 4855 b93d
00000020: f985 793c c781 02be 294e 0abe 7163 1abd
00000030: a8a8 10bd 251f 2e3e 75dc f7bc ba7e 90bd
00000040: bb11 f0bd fd25 823d 38e6 67be 4f23 e03c
00000050: 9f1c fdbd 72f8 ecbd bd4f 0c3e 0012 4a3e
00000060: b4e7 eabc fcb5 14be 7a5e 60be 04f9 29be
00000070: 195c 6abc cc84 29bb 9e93 0fbe ff41 3e3e
00000080: dd3c 53bd d82d 4d3d 40d9 ccbd 5e28 943d
00000090: f488 243e 7d87 323d 7bda 743e 181c 1a3e
000000a0: 0a87 153d 38e1 033e 8d0d 59be c37d 033d
000000b0: 9f0b 4c3e e964 8cbd 8d1e 73bd 1bf3 833d
000000c0: 1647 923d 43fd a83d b770 6b3e b338 1b3d
000000d0: 8d3b 303e 1bd4 dd3d 8799 58be d3f9 c53c
000000e0: 5ccc d73d df2d 763d 9cb5 4c3e 968b d33b
000000f0: d7ce 65bd 7a26 37be df56 a53d 8c0f 173c
00000100: a12d 07be 8750 9a3d 0c58 ba3d 6c49 00bd
00000110: 122f 8bbd 3801 3037 0bf1 bb3a 701f 09bd
00000120: dc5e 46be 5f96 813d 9524 2cbe 506c e23d
00000130: 2a3d d836 3e37 ef3d eed0 e03d b3ae a2bd
00000140: f166 073c 4187 743c 4ea0 613e e918 f33d
00000150: 1e45 e6bc e3d4 bb3d 5264 813e d0a0 c73d
00000160: 91a1 48be 6619 663e c984 7ebd 7d8e 59be
00000170: 352c d3bd c88a 5abe d2b3 e9bd b3b4 65be
00000180: b797 f13d 15b5 f43d b206 fc3c 5b22 5a3a
00000190: 1460 df3c dbf2 ff37 8bb0 c0bc 6c17 23be
000001a0: 2b71 5ebe 47e1 5a3d b0fb 4abe 6d85 04bd
000001b0: 7419 623d 0431 4f3e e9f6 90bd 59cd 933d
000001c0: a75a 1d3e c3d6 a5bb 99d6 863d aa22 64bc
000001d0: ab79 db36 62e7 d0bd 179c babd 243d 6c3e
000001e0: ec91 283e 1f32 903d 1cd9 db3c d5b5 353e
000001f0: e367 6b39 2ce2 073d a9a0 ba3d abd4 1e3e
00000200: 7fd6 493e b464 d7bd cb5a 863b 33c9 81bc
00000210: 6474 4c3e 9f90 bcb7 870a abbc 7909 993d
00000220: bcc8 f6bd e842 143e 3ab0 5b3e 21db 2aba
00000230: 7d3f a6bc e4e2 6ebd dea0 01bc e6be 173c
00000240: 68e6 043d 968e 6e3d a666 383e c274 2c3e
00000250: 5620 8cb9 14e5 0fbe 68f7 603e 2f25 87bd
00000260: 0968 853e c60b bfbc 647b 3bbe 09bb c8bd
00000270: 2d37 90bd e6a2 993d f04b e13d 4aa8 2a3e
00000280: 3b87 02bd 6361 35be ee91 443e d66a 403e
00000290: d543 8f37 b061 d33d 4701 8b3d 752a 733e
000002a0: 168b 4e3d 0448 0fbe 7501 1bbe 29b6 553d
000002b0: cf49 ce3b 4159 76be 5f7e 6cbe 3426 483e
000002c0: e322 a73d 49d6 443d a22a 66be b8c5 09bc
000002d0: ab73 363e b1ec 90bd cf5a 20be 61bd 02bc
000002e0: 6024 2bbe 44c0 fb3d 6f9a 253e e648 44be
000002f0: fa0f 27b8 0261 5fbe d27c 2ebe 895f 23be
00000300: ff2a c4bd 9aa5 06be cee9 0f3e 8514 e63d
00000310: f574 b93d b178 beb8 a869 58be 6b1e bfbc
00000320: 966f 0f3e 2d9c 06bd d118 953d 2820 28be
00000330: 0aef 2f3d 1aeb 75be 894e 093d c478 04bd
00000340: 518e 3ebe 1c9c 143c 492e 5abe fc4b bdb8
00000350: 04bd 2b3e adca 06be 20ee 093e bc55 30be
00000360: 66b5 4f3e 4b7e a53d aaaf 74bd fbda d7bd
00000370: 8f64 d83d 911b 403e 9857 ebbd c237 72be
00000380: be40 72bd e831 c43c 7ccc 5c3e 1fd3 213e
00000390: 57d2 0c3e d42b ac3d 0ad4 913d 6bfa 853c
000003a0: 2585 da3d c7e2 6ebe 7577 43bd 657b f5bd
000003b0: 0aeb 093d c5ef 84bd 1361 903d d1fb 583e
000003c0: 2359 4b3e 9274 11be ad97 e4bd 5737 f6bd
000003d0: bc5d ffbd d7b2 45be e268 643e a9c5 363e
000003e0: 04b2 a6bd eb5b 373e 84d9 443e 9ac7 52be
000003f0: c6e7 0bbc 4ed8 d9bd 20bb 6d3e 14cd 5b3e

bias_ih_l0 f4 [48]
-0.12813564 -0.020730594 -0.24308169 -0.19463763 0.002768017 0.25620076 -0.19358702 -0.07971791
0.2147214 0.1247912 0.030475227 0.23752129 -0.2128743 -0.16640228 0.2484653 -0.18604463
0.012400985 0.16696899 -0.13438436 0.05417861 -0.2238056 0.18641724 -0.2029217 -0.018093126
-0.082655005 0.031841453 -0.05619516 0.17605235 0.006078085 -0.027634077 0.08651151 0.014654079
0.17240727 0.16575865 -0.07825501 0.08044289 0.13124016 0.15443218 -0.11162111 0.13567162
-0.054172065 -0.019158972 -0.20116645 -0.24213837 0.11033493 -0.17373388 0.23688877 -0.12019354
00000000: fd35 03be 35d3 a9bc 68ea 78be 164f 47be
00000010: 9e67 353b bf2c 833e ad3b 46be 2543 a3bd
00000020: eddf 5b3e 8792 ff3d 2fa7 f93c c838 733e
00000030: b8fb 59be 5c65 2abe b06d 7e3e 7c82 3ebe
00000040: 802d 4b3c ebf9 2a3e 0e9c 09be 64ea 5d3d
00000050: 4c2d 65be 29e4 3e3e b5ca 4fbe 0938 94bc
00000060: 0747 a9bd 2f6c 023d e52c 66bd 1147 343e
00000070: ac2a c73b dc60 e2bc f22c b13d aa17 703c
00000080: 888b 303e a3bc 293e 2a44 a0bd 3ebf a43d
00000090: d263 063e 7823 1e3e 9c99 e4bd 80ed 0a3e
000000a0: 87e3 5dbd 47f3 9cbc 94fe 4dbe 1ff3 77be
000000b0: 48f7 e13d 4be7 31be f892 723e 0828 f6bd

bias_hh_l0 f4 [48]
0.03490728 -0.067087345 -0.23660082 0.14735487 0.054654717 -0.20518585 0.21315579 -0.066285945
0.23460077 -0.13878894 -0.18493271 -0.060644932 -0.2163512 0.15293168 0.167135 -0.067478664
-0.037844624 0.13459359 0.01804855 -0.0661417 0.1777169 -0.097834475 0.25386587 -0.09142504
-0.14390159 -0.22146858 -0.18521325 0.19393189 0.225383 0.18894386 -0.18874845 0.15134382
-0.12809877 -0.00031968605 -0.13262458 -0.22404644 0.013413207 -0.2013982 0.06036685 0.087149255
-0.11333228 0.07439057 -0.011446583 -0.07851914 0.0705054 -0.15146843 0.030652082 0.035231512
00000000: f0fa 0e3d 1765 89bd 7c47 72be 32e4 163e
00000010: a0dd 5f3d 3d1c 52be 8345 5a3e edc0 87bd
00000020: 2f3b 703e b01e 0ebe 005f 3dbe d266 78bd
00000030: 2b8b 5dbe 1f9a 1c3e 7025 2b3e 4132 8abd
00000040: f702 1bbd e7d2 093e 8dda 933c 4d75 87bd
00000050: 6bfb 353e 715d c8bd b5fa 813e 0d3d bbbd
00000060: f05a 13be a9c8 62be 8ba8 3dbe 1596 463e
00000070: cdca 663e 807a 413e 4647 41be e0f9 1a3e
00000080: 532c 03be 899b a7b9 bdce 07be 6e6c 65be
00000090: 11c3 5b3c 543b 4ebe 3b43 773d 4f7b b23d
000000a0: c11a e8bd 155a 983d 738a 3bbc a5ce a0bd
000000b0: 2365 903d 8a1a 1bbe 131a fb3c eb4e 103d

weight_ih_l0 f4 [3, 11]
0.12431395 0.61932933 0.20695157 0.8827516 0.7254752 -0.4396547 -0.21149307 0.9166384
0.42101014 0.20792651 -0.31118348 -0.8350095 0.69910747 -0.23066397 0.6697119 0.40668944
-0.71842045 -0.74467874 -0.28328535 -0.7102455 0.68958944 0.01686791 0.86045367 0.44202316
-0.276304 0.3962168 -0.5051885 -0.120664366 -0.76555365 -0.5025401 -0.542559 -0.5936083
-0.035447862
00000000: 5098 fe3d 5e8c 1e3f 1deb 533e 02fc 613f
00000010: beb8 393f 6c1a e1be a491 58be d0a8 6a3f
00000020: a48e d73e b0ea 543e 7153 9fbe 2fc3 55bf
00000030: b5f8 323f 2d33 6cbe 3d72 2b3f 9939 d03e
00000040: 67ea 37bf 44a3 3ebf c70a 91be a6d2 35bf
00000050: ef88 303f 922e 8a3c b146 5c3f dc50 e23e
00000060: b877 8dbe eedc ca3e 0954 01bf e11e f7bd
00000070: 53fb 43bf 78a6 00bf 26e5 0abf b7f6 17bf
00000080: c731 11bd

weight_hh_l0 f4 [3, 1]
0.07711827 -0.5060559 -0.79842144
00000000: 2ff0 9d3d e18c 01bf 5965 4cbf

bias_ih_l0 f4 [3]
0.45448047 0.9564341 -0.28379422
00000000: aab1 e83e ddd8 743f 7a4d 91be

bias_hh_l0 f4 [3]
-0.3740172 0.46243307 -0.81835604
00000000: 2f7f bfbe 07c4 ec3e c87f 51bf

weight f4 [1, 16]
0.03994495 -0.21219249 0.055272616 0.12714458 0.2326691 0.063840315 0.04175881 -0.034015603
0.026519038 -0.19407919 -0.0765866 0.008279792 -0.2422193 0.01983221 0.22667435 0.05225416
00000000: 519d 233d fd48 59be 8a65 623d 3032 023e
00000010: cf40 6e3e b6be 823d 490b 2b3d f253 0bbd
00000020: 743e d93c b2bc 46be 6fd9 9cbd f7a7 073c
00000030: 5608 78be 2977 a23c 521d 683e 7508 563d

weight f4 [680, 17]
0.054831788 0.14240572 0.11180151 0.13451342 -0.10141809 0.19742495 0.16366427 -0.13067737
-0.21511471 0.23861833 -0.19303651 -0.0056530535 -0.09899435 -0.05607107 0.06703816 -0.1735357
0.16399981 -0.15389773 -0.15561496 0.21097983 0.06318159 -0.08520013 -0.17095749 0.023964858
-0.04314444 0.053384956 -0.09449807 -0.0039569805 -0.11965421 0.229485 -0.21320122 0.028113388
0.1694505 -0.073103204 -0.15177575 -0.0007007148 0.11433492 -0.085839584 -0.004153248 0.1813928
-0.13011824 -0.0710352 0.014994698 -0.010914262 0.019282544 0.0032746815 0.018895805 0.0004279853
0.19389658 -0.14175388 0.060009018 -0.15332775 0.13285336 0.10259185 -0.014471521 -0.17730094
0.028570788 0.1974547 0.17679618 0.030845251 0.17619234 0.08754518 -0.23374492 0.19526024
0.04367695 0.042396277 -0.053779718 0.0145359775 -0.032159157 -0.01875472 -0.027745916 0.013519087
-0.050781865 -0.20647569 -0.107060514 -0.13805716 0.08059831 0.20113096 0.20917992 -0.21606307
-0.19098847 -0.21970408 0.02500543 -0.054215733 -0.2089755 0.17161058 -0.11446489 -0.15630853
0.04604919 0.14490777 -0.1722888 -0.13901836 0.14806941 0.10669833 0.18504445 -0.029693343
0.11998545 0.098463506 0.16726573 0.21308923 -0.17772146 0.13663678 -0.16310821 0.20441183
-0.22189738 0.033100523 -0.054447424 0.13002671 0.19233482 0.026543 -0.17246525 0.006269497
0.0773067 -0.21957946 -0.13344885 -0.14482798 0.18227348 -0.16752659 -0.025065094 0.036622427
-0.023235543 -0.15395193 -0.14867046 0.07258793 -0.18393111 -0.24556206 -0.23291841 0.11015984
-0.011761682 0.13485342 -0.17345276 0.08046317 -0.06696092 -0.014933346 -0.078103244 0.18794917
0.07914424 0.14568545 -0.11036055 0.17054518 -0.053862873 0.0002238217 -0.005917191 -0.04214371
0.13284901 -0.031800173 -0.08006524 0.13246587 -0.09710752 0.062952764 -0.112705804 0.07907725
0.15025239 0.23117298 0.020667197 0.0044498364 0.08616093 0.053328548 -0.03780924 0.14792825
-0.16529666 -0.10781963 0.17534226 0.099477984 0.07146469 -0.13503551 -0.124704815 0.13904458
0.20371898 0.09183242 0.20205548 -0.06838951 0.07600633 -0.16830204 0.09880117 -0.14592002
-0.18128537 0.120842084 -0.09812969 -0.0072643305 0.055987764 0.16277236 0.20218712 0.19650917
-0.0036803712 -0.04012595 0.09487005 0.18991753 -0.083184026 -0.02621999 -0.17392619 0.23877847
-0.17737505 0.04933262 -0.16120064 0.101794355 -0.08988955 -0.19595937 0.035520144 0.1719456
-0.16090626 0.10314576 -0.08912663 -0.17755184 0.23856592 -0.044393707 -0.19955026 -0.050374232
-0.12132027 -0.21077307 -0.223865 0.084948346 0.20878628 0.029396893 -0.12913397 0.07718862
0.12286771 0.19192459 0.11473795 -0.09118167 -0.016672304 -0.11501151 -0.17375396 -0.17825152
-0.17535454 -0.028192595 -0.21366845 0.22698486 -0.035397954 0.032312088 0.22362164 0.010282046
0.14798222 0.049523253 -0.089968845 -0.035397798 -0.070565976 -0.11752093 0.10577356 -0.116077654
0.042343136 -0.11319726 0.21357204 -0.08290229 0.1676884 0.12777983 -0.0917998 0.17879288
0.039849274 0.036992766 -0.010431933 0.159631 0.19160023 0.1362439 -0.048966877 0.23098661
00000000: 4c97 603d ced2 113e 31f8 e43d e3bd 093e
00000010: 4ab4 cfbd c429 4a3e 9b97 273e 4ad0 05be
00000020: 0847 5cbe 5d58 743e 5dab 45be 403d b9bb
00000030: 8dbd cabd c7aa 65bd 4e4b 893d 58b3 31be
00000040: 91ef 273e 5e97 1dbe 8759 1fbe 190b 583e
00000050: 5965 813d 687d aebd 7b0f 2fbe f351 c43c
00000060: 39b8 30bd 2faa 5a3d 3488 c1bd 8fa9 81bb
00000070: 440d f5bd 1efe 6a3e 6c51 5abe 0c4e e63c
00000080: 6f84 2d3e 22b7 95bd 1a6b 1bbe 2db0 37ba
00000090: 6d28 ea3d aacc afbd f817 88bb 09bf 393e
000000a0: b73d 05be e77a 91bd 52ac 753c bcd1 32bc
000000b0: 6df6 9d3c 0a9c 563b 60cb 9a3c 3763 e039
000000c0: d38c 463e ee27 11be 04cc 753d f301 1dbe
000000d0: b60a 083e ad1b d23d f519 6dbc 618e 35be
000000e0: 490d ea3c 9131 4a3e 0f0a 353e 2eaf fc3c
000000f0: c46b 343e e34a b33d d45a 6fbe 4df2 473e
00000100: 9ae6 323d b8a7 2d3d 1f48 5cbd 4f28 6e3c
00000110: 52b9 03bd 80a3 99bc 674b e3bc 297f 5d3c
00000120: a500 50bd 5d6e 53be 8b42 dbbd db5e 0dbe
00000130: ba10 a53d 46f5 4d3e 4333 563e a33f 5dbe
00000140: 7b92 43be 1bfa 60be 30d8 cc3c 5111 5ebd
00000150: acfd 55be afba 2f3e 916c eabd 580f 20be
00000160: 139e 3c3d b462 143e 7a6c 30be d45a 0ebe
00000170: 829f 173e a784 da3d 4b7c 3d3e 743f f3bc
00000180: eeba f53d 3ca7 c93d b547 2b3e 1034 5a3e
00000190: 9dfc 35be 83ea 0b3e d705 27be 5651 513e
000001a0: 1139 63be 6a94 073d 4304 5fbd b925 053e
000001b0: 6bf3 443e b570 d93c bb9a 30be 5a70 cd3b
000001c0: fa52 9e3d 70d9 60be d1a6 08be c94d 14be
000001d0: e6a5 3a3e 178c 2bbe 5055 cdbc 6601 163d
000001e0: 7758 bebc 93a5 1dbe 123d 18be fba8 943d
000001f0: 7058 3cbe 9f74 7bbe 2a82 6ebe 7b9b e13d
00000200: 12b4 40bc 0417 0a3e 9a9d 31be e0c9 a43d
00000210: cf22 89bd feaa 74bc 98f4 9fbd bf75 403e
00000220: 6016 a23d 912e 153e b604 e2bd 65a3 2e3e
00000230: 519f 5cbd aeb1 6a39 ffe4 c1bb e29e 2cbd
00000240: 9209 083e e640 02bd 3ff9 a3bd 22a5 073e
00000250: 4fe0 c6bd 61ed 803d 4dd2 e6bd 41f3 a13d
00000260: c3db 193e 9cb8 6c3e 414e a93c efcf 913b
00000270: 2475 b03d 096f 5a3d dddd 1abd 817a 173e
00000280: 8743 29be 8ad0 dcbd ec8c 333e 1dbb cb3d
00000290: 145c 923d c046 0abe 3d65 ffbd b461 0e3e
000002a0: b59b 503e a312 bc3d a2e7 4e3e cd0f 8cbd
000002b0: 35a9 9b3d 5f57 2cbe 4558 ca3d 0f6c 15be
000002c0: dfa2 39be 0e7c f73d 38f8 c8bd 9f09 eebb
000002d0: 6d53 653d ccad 263e 240a 4f3e b339 493e
000002e0: 6232 71bb 1c5b 24bd 3b4b c23d be79 423e
000002f0: 635c aabd 4ecb d6bc b519 32be 5882 743e
00000300: cea1 35be 0011 4a3d c811 25be 8f79 d03d
00000310: 0318 b8bd 93a9 48be 927d 113d 8212 303e
00000320: 9cc4 24be 163e d33d 0688 b6bd 26d0 35be
00000330: a04a 743e 2dd6 35bd e756 4cbe 3655 4ebd
00000340: c376 f8bd e5d4 57be de3c 65be 66f9 ad3d
00000350: 12cc 553e c1d1 f03c b23b 04be 1115 9e3d
00000360: 11a2 fb3d e187 443e bbfb ea3d 75bd babd
00000370: 5b94 88bc 288b ebbd 8fec 31be 9187 36be
00000380: 2490 33be 28f4 e6bc e7cb 5abe b86e 683e
00000390: 72fd 10bd ae59 043d 12fd 643e 0776 283c
000003a0: a788 173e e5d8 4a3d 9641 b8bd 48fd 10bd
000003b0: e584 90bd d0ae f0bd cf9f d83d 1fba edbd
000003c0: ff6f 2d3d f7d3 e7bd a1b2 5a3e adc8 a9bd
000003d0: 82b6 2b3e b7d8 023e 8901 bcbd 7b15 373e
000003e0: fe38 233d ba85 173d b3ea 2abc 4f76 233e
000003f0: da32 443e 8583 0b3e 7e91 48bd c187 6c3e

bias f4 [680]
0.03683482 0.22699538 -0.1064057 -0.08130443 0.005089761 -0.05240374 0.09959564 0.069852486
-0.045041814 0.009650822 0.012855435 -0.05450896 0.20124483 0.11672679 -0.022205865 0.09973523
0.1903593 0.13706681 0.026210176 0.09845739 -0.17223607 -0.038728073 0.054089323 0.09379742
0.22912897 0.111316994 -0.06439646 -0.09700653 -0.038975008 0.13085519 0.24080949 -0.10639204
0.03857874 -0.0015686288 0.13179255 -0.13822336 -0.19215544 0.029957322 0.111488566 -0.15418905
-0.10236399 -0.1970165 0.032719884 -0.021843718 0.040968426 0.15541874 -0.08373526 0.10042124
-0.1501752 0.05455434 -0.11973087 7.237629e-05 -0.14838885 -0.12605709 0.05659386 0.018668981
-0.09103826 0.19721507 0.09437809 0.22712253 0.094508015 0.17860709 -0.041769877 -0.061895985
-0.003075056 -0.08088025 -0.13415174 0.17736119 0.014888741 -0.025979465 0.24445161 0.22453237
-0.043291662 0.0005448028 0.09260612 0.032689683 1.637787e-05 0.021459732 0.061853588 0.002356462
0.0823767 -0.14096813 0.006480029 -0.15008014 0.17779908 -4.676432e-06 0.15325025 -0.16258532
0.1848248 -0.101828046 0.21704745 -0.16101152 -0.0052167145 0.22425818 -0.04320873 -0.11516011
-0.06810976 0.116498105 0.2270693 -0.09288259 0.06037778 0.0033761335 0.054088887 -0.01705648
-0.012770476 0.16005017 0.11649979 -0.011654349 -0.04819505 -0.009173468 -0.08160147 0.039123848
-0.13636944 0.003076019 0.17619681 0.08669611 -0.11384965 0.0791439 0.05541032 -0.08629591
-0.0040634507 0.2282024 -0.17751375 -0.09087181 -0.042745385 0.1686379 -0.08681658 -0.010051905
-0.14395517 -0.1252168 -0.13700436 0.15898791 0.21873179 -0.06433762 0.00015015162 -0.07899339
-0.09557143 -0.12530798 0.00949447 0.18139435 0.2208752 -0.18477377 0.22669463 -0.20110184
0.0026109999 0.0045810724 0.17522296 -0.085723825 0.108939394 -0.13122836 0.03869268 -0.12386311
0.14276607 -0.065364294 0.040074676 0.022990938 -0.08355321 0.019484822 0.13888058 0.20017736
-0.08228656 0.19198802 -0.1750258 -0.01895804 0.18189688 -0.14625224 -0.12751846 0.05008883
-0.11244974 -0.016792748 0.19616044 -0.036107417 -0.22426938 -0.1530037 0.010369337 -0.030884113
0.097454004 0.044960782 0.04606494 0.039529428 0.17108111 0.10016472 -0.15581477 0.18808295
0.13116361 -0.00077783305 0.040048443 0.10973869 0.12985152 -0.03334793 0.029754953 0.11983195
-0.18699533 0.07545732 0.04593323 -0.1400459 0.014692811 -0.1656751 0.15714681 0.16659443
0.09637362 0.17455377 0.22045998 -0.16284987 0.17122218 0.21008773 -0.18180013 0.0065660668
-0.2273653 0.20953682 -0.19051944 0.03586395 0.027307902 -0.10648885 -0.034355894 0.21483576
-0.103804074 -0.010608118 -0.17297788 0.21767293 -0.010637447 0.12074339 0.05573511 -0.11533832
0.043846127 0.20994394 -0.121635035 0.07983773 -0.036178403 -0.104034595 0.10523985 0.091379605
-0.009473875 0.1383065 -0.099216394 0.009261184 -0.011672223 0.0195352 0.13486658 0.22647624
0.09426968 -0.0462831 -0.1256769 0.11067902 0.1118399 0.012158294 0.16849253 -0.1490031
-0.18807662 0.21254708 -0.12482132 -0.088886715 0.07914518 0.093468614 -0.09264494 -0.033289555
00000000: 1ce0 163d 7a71 683e 3beb d9bd f082 a6bd
00000010: 03c8 a63b 4ea5 56bd cdf8 cb3d d20e 8f3d
00000020: c47d 38bd 7b1e 1e3c 9a9f 523c ca44 5fbd
00000030: 2013 4e3e 750e ef3d 13e9 b5bc fc41 cc3d
00000040: 8ced 423e 3e5b 0c3e b9b6 d63c 07a4 c93d
00000050: a75e 30be 54a1 1ebd c48c 5d3d dd18 c03d
00000060: c9a0 6a3e 2afa e33d 4be2 83bd 5cab c6bd
00000070: 42a4 1fbd e7fe 053e c396 763e 12e4 d9bd
00000080: be04 1e3d 739a cdba a0f4 063e 6d8a 0dbe
00000090: 65c4 44be 0f69 f53c 1e54 e43d bce3 1dbe
000000a0: 36a4 d1bd b2be 49be 4905 063d 99f1 b2bc
000000b0: 82ce 273d 1726 1f3e 647d abbd a7a9 cd3d
000000c0: 87c7 19be 5f74 5f3d 7535 f5bd bac8 9738
000000d0: 3ff3 17be 1c15 01be f7ce 673d b1ef 983c
000000e0: 4472 babd bff2 493e 4d49 c13d cf92 683e
000000f0: 6b8d c13d c7e4 363e e416 2bbd a586 7dbd
00000100: e186 49bb 8ba4 a5bd 135f 09be 2c9e 353e
00000110: e8ef 733c e3d2 d4bc 8651 7a3e d0eb 653e
00000120: 9952 31bd 19d1 0e3a 47a8 bd3d 9ee5 053d
00000130: 3563 8937 52cc af3c 305a 7d3d df6e 1a3b
00000140: 1eb5 a83d f359 10be 6c56 d43b 9cae 19be
00000150: f610 363e 3fea 9cb6 a2ed 1c3e c47c 26be
00000160: b642 3d3e 398b d0bd b041 5e3e 34e0 24be
00000170: f9f0 aabb f0a3 653e a3fb 30bd 10d9 ebbd
00000180: 217d 8bbd 8f96 ee3d db84 683e 3a39 bebd
00000190: b14e 773d 1f42 5d3b 4f8c 5d3d 08ba 8bbc
000001a0: 423b 51bc 31e4 233e 7197 ee3d e2f1 3ebc
000001b0: 2c68 45bd 504c 16bc ac1e a7bd 5440 203d
000001c0: 6ea4 0bbe 0997 493b f06c 343e bb8d b13d
000001d0: 012a e9bd 3216 a23d eff5 623d e9bb b0bd
000001e0: b226 85bb e4ad 693e 2ac6 35be 001b babd
000001f0: c915 2fbd 6aaf 2c3e e4cc b1bd bfb0 24bc
00000200: fc68 13be d538 00be df4a 0cbe bacd 223e
00000210: 3afb 5f3e 71c3 83bd 0572 1d39 49c7 a1bd
00000220: f4ba c3bd bc50 00be b28e 1b3c 71bf 393e
00000230: 1c2d 623e 5635 3dbe a322 683e a4ed 4dbe
00000240: 4f1d 2b3b d21c 963b a66d 333e f98f afbd
00000250: 9e1b df3d ba60 06be 377c 1e3d f1ab fdbd
00000260: 4531 123e b7dd 85bd 5825 243d 7e57 bc3c
00000270: f21d abbd a29e 9f3c b636 0e3e 4bfb 4c3e
00000280: db85 a8bd 8298 443e f739 33be e44d 9bbc
00000290: 2d43 3a3e 26c3 15be 3394 02be f229 4d3d
000002a0: 0d4c e6bd f290 89bc 48de 483e 5fe5 13bd
000002b0: dfa6 65be 00ad 1cbe 27e4 293c ae00 fdbc
000002c0: f795 c73d cc28 383d 97ae 3c3d 9ce9 213d
000002d0: e32f 2f3e 2923 cd3d e88d 1fbe d198 403e
000002e0: c14f 063e 7ee7 4bba d609 243d aebe e03d
000002f0: ccf7 043e d797 08bd a9c0 f33c 746a f53d
00000300: b47b 3fbe 5e89 9a3d 7c24 3c3d 3168 0fbe
00000310: 1eba 703c bca6 29be 18eb 203e bb97 2a3e
00000320: 885f c53d 39be 323e 43c0 613e 1ec2 26be
00000330: de54 2f3e 3d21 573e d029 3abe 2928 d73b
00000340: 73d2 68be d290 563e 8717 43be 14e6 123d
00000350: d2b4 df3c d416 dabd c4b8 0cbd e8fd 5b3e
00000360: 3b97 d4bd accd 2dbc 1d21 31be a7e5 5e3e
00000370: b048 2ebc 4f48 f73d 804a 643d 7f36 ecbd
00000380: ff97 333d 8bfb 563e ca1b f9bd f781 a33d
00000390: ce2f 14bd 1710 d5bd fe87 d73d 3b25 bb3d
000003a0: 5038 1bbc 38a0 0d3e f731 cbbd 39bc 173c
000003b0: da3c 3fbc 4908 a03c 771a 0a3e 63e9 673e
000003c0: 7610 c13d 5993 3dbd 72b1 00be afab e23d
000003d0: 510c e53d 9533 473c 4e89 2c3e 4594 18be
000003e0: 2897 40be f1a5 593e 52a2 ffbd 3d0a b6bd
000003f0: de16 a23d 796c bf3d a1bc bdbd a15a 08bd

weight f4 [4, 680]
-0.009460119 -0.013830824 -8.905296e-05 -0.0045073447 0.04140308 0.02931455 -0.007856063 0.012188018
6.790584e-05 0.0063372063 0.027098129 -0.01141153 0.028039655 0.025778811 0.037149195 -0.026872179
-0.020982422 0.02598603 -0.026862856 -0.015694732 3.1191947e-05 -1.3099577e-05 -0.004060299 -0.009482421
-0.016830178 -0.00014652079 -8.6938526e-05 0.00012424962 -0.00279178 -0.032772817 0.016889427 0.010294439
-0.008110902 -0.00022711806 -0.017574752 -0.00017990326 9.047398e-05 -0.026996065 -0.025163805 0.005311227
8.34641e-05 0.04243631 0.042334877 -0.015725672 0.037372824 0.03709117 8.7141845e-05 -0.03174126
0.019715667 -0.015093523 0.01396228 2.5662286e-05 2.1654328e-07 -6.578546e-06 -0.012545507 -0.028065903
-0.027920585 0.016943108 0.014018022 -0.027951306 -0.0059265974 0.040226456 0.0016443653 -0.036466252
-0.0012762183 8.6460874e-05 -0.0074285707 0.0031655976 -0.004315462 0.008749119 0.016269626 0.022898234
3.4037785e-05 -0.008494817 -0.031639 0.028029215 0.00022709905 0.020975485 -0.022461595 -0.00022516679
-0.002614871 4.610565e-06 -0.010962936 0.006444372 -0.023379736 5.7209683e-05 0.0062154876 4.1797866e-05
-0.016329195 7.593477e-07 0.029458769 0.027793918 2.0325348e-05 0.03287474 -0.009301666 0.00519775
4.715337e-07 -0.018695302 0.023159288 0.0004696509 -0.021912428 0.0017275219 -0.010881584 -0.02756155
0.029577276 -0.019009624 0.023327606 -0.030512502 0.0025487943 0.00014982017 0.024368769 -0.027422901
-0.020490458 -0.022164037 0.035769638 0.008271977 -0.030822104 0.0038689175 -0.021326022 0.038351633
-0.0015733441 0.030696588 -7.742315e-05 0.014822567 0.03711234 -0.024203153 -2.1087317e-05 -0.0349939
0.0018110407 0.001470375 0.008392843 -0.0042330185 -0.013396757 -0.020224169 -0.0012511867 -3.101324e-05
0.030879408 -0.017075557 -0.03094219 -0.033418518 -0.014437069 -1.7277318e-05 0.009922909 0.027236577
0.02904817 -6.927698e-05 0.020358093 0.0002071266 0.028391402 1.25426795e-05 0.019068103 0.011825334
0.0070303385 0.036400937 0.025047258 0.038267937 0.00019529813 -0.020344246 0.033558637 0.017958889
0.03085692 0.022208404 -0.000102362086 0.027974224 0.0062087956 -0.014911394 0.012209377 -0.029753512
-0.00010044423 -0.029588493 0.028873643 0.0072231763 -0.0074437773 -0.0022912459 -0.01907667 0.035854924
-0.029538477 -0.00998425 -0.001492097 0.0034651265 0.013889292 -0.016606221 -0.0020806922 0.037991203
-0.03327979 4.6478017e-06 0.009627265 0.015289239 0.014764193 0.010039679 0.039176892 0.0203461
-0.0010951977 -0.008080939 -0.02553769 0.0010965451 -0.025418827 -0.0014894663 0.041625723 -0.0238706
8.937533e-05 0.0066931252 -0.02414213 3.2733144e-05 0.024365505 0.035743456 -1.4435986e-05 -0.029941598
0.026012192 0.00038979534 -0.0005510692 0.008287529 -0.022200987 8.850364e-05 0.0017812769 -0.020406034
-0.0001202816 0.013131935 -4.7025773e-05 -0.021851849 -0.0090841735 0.010830031 0.03469812 -4.68684e-05
0.060562816 0.011403699 1.6116332e-05 -0.016466541 0.0001975807 0.023764057 0.016290551 -0.016579045
-0.022133637 0.02285502 -0.026456324 0.010567995 -5.148989e-06 0.019451275 -0.024067454 -0.021530557
-0.002585347 -0.018588504 0.0013695954 -0.019240601 0.035885412 -0.0025089846 0.03337875 -3.4027205e-05
5.5260844e-06 -0.0037259867 0.00526769 -0.015739774 0.01656214 0.0123898415 0.010457919 -0.020111436
00000000: 9dfe 1abc ae9a 62bc f2c1 bab8 59b2 93bb
00000010: 4796 293d 1125 f03c b7b6 00bc 41b0 473c
00000020: ac68 8e38 57a8 cf3b e5fc dd3c 6df7 3abc
00000030: 6bb3 e53c 162e d33c c129 183d 0b23 dcbc
00000040: 54e3 abbc a8e0 d43c 7e0f dcbc 3d92 80bc
00000050: 19d4 0238 41c6 5bb7 420c 85bb 285c 1bbc
00000060: 71df 89bc 60a3 19b9 c452 b6b8 0149 0239
00000070: 4cf6 36bb ca3c 06bd b25b 8a3c 02aa 283c
00000080: 97e3 04bc 8a26 6eb9 edf8 8fbc 6aa4 3cb9
00000090: d9bc bd38 da26 ddbc 5324 cebc cd09 ae3b
000000a0: 7309 af38 b2d1 2d3d 5667 2d3d 20d3 80bc
000000b0: 3f14 193d e9ec 173d ecbf b638 2003 02bd
000000c0: c082 a13c d34a 77bc 0cc2 643c 5745 d737
000000d0: f782 6834 48bd dcb6 ac8b 4dbc 77ea e5bc
000000e0: b6b9 e4bc 46cc 8a3c d9ab 653c 23fa e4bc
000000f0: e733 c2bb 7fc4 243d be87 d73a a35d 15bd
00000100: c846 a7ba 5452 b538 5e6b f3bb ea75 4f3b
00000110: b868 8dbb 7758 0f3c e147 853c 1495 bb3c
00000120: cbc3 0e38 d82d 0bbc e597 01bd 869d e53c
00000130: 7021 6e39 c8d4 ab3c 6101 b8bc c01a 6cb9
00000140: 415e 2bbb 74b4 9a36 e39d 33bc 4f2b d33b
00000150: dc86 bfbc 6ef4 6f38 4aab cb3b 1e50 2f38
00000160: cec4 85bc fad5 4b35 8453 f13c 12b0 e33c
00000170: 5a80 aa37 aaa7 063d 0466 18bc e351 aa3b
00000180: 1927 fd34 e426 99bc 8cb8 bd3c 7a3b f639
00000190: b181 b3bc 046e e23a ac48 32bc c2c8 e1bc
000001a0: 0b4c f23c 12ba 9bbc 8919 bf3c 5bf5 f9bc
000001b0: ac09 273b 0c19 1d39 03a1 c73c fea5 e0bc
000001c0: 9bdb a7bc 5b91 b5bc 2f83 123d 3087 073c
000001d0: a37e fcbc aa8d 7d3b e9b3 aebc 9a16 1d3d
000001e0: ab38 ceba 6977 fb3c 3d5e a2b8 5ada 723c
000001f0: 1c03 183d b145 c6bc abe4 b0b7 c455 0fbd
00000200: 7160 ed3a 99b9 c03a 2382 093c 22b5 8abb
00000210: 127e 5bbc 28ad a5bc dcfe a3ba 3614 02b8
00000220: d0f6 fc3c 0ae2 8bbc 7a7a fdbc dbe1 08bd
00000230: 7589 6cbc c2ee 90b7 b293 223c 3e1f df3c
00000240: 6ef6 ed3c cc48 91b8 04c6 a63c 2030 5939
00000250: 1695 e83c 666e 5237 b634 9c3c 0cbf 413c
00000260: c15e e63b 2619 153d e82f cd3c d7be 1c3d
00000270: f1c8 4c39 faa8 a6bc c874 093d 851e 933c
00000280: a7c7 fc3c 66ee b53c 3aab d6b8 332a e53c
00000290: 2773 cb3b eb4e 74bc d709 483c a3bd f3bc
000002a0: 96a5 d2b8 9163 f2bc 6b88 ec3c 65b0 ec3b
000002b0: eeea f3bb ba28 16bb ad46 9cbc 9ddc 123d
000002c0: adfa f1bc fb94 23bc 7892 c3ba 2d17 633b
000002d0: ea8f 633c c509 88bc 395c 08bb aa9c 1b3d
000002e0: 6450 08bd 50f4 9b36 adbb 1d3c b77f 7a3c
000002f0: 84e5 713c 777d 243c f377 203d ddac a63c
00000300: bd8c 8fba ea65 04bc 6b34 d1bc f3b9 8f3a
00000310: 253b d0bc 323a c3ba bc7f 2a3d 478c c3bc
00000320: 046f bb38 0152 db3b b7c5 c5bc f24a 0938
00000330: 2b9a c73c bb67 123d 1632 72b7 1548 f5bc
00000340: 8517 d53c 725d cc39 a175 10ba 6bc8 073c
00000350: d8de b5bc 089b b938 bc79 e93a 8e2a a7bc
00000360: b13f fcb8 5427 573c 8a3d 45b8 a602 b3bc
00000370: c9d5 14bc 7170 313c 9e1f 0e3d 9094 44b8
00000380: b710 783d 95d6 3a3c 8f31 8737 d7e4 86bc
00000390: aa2d 4f39 d7ac c23c c373 853c c7d0 87bc
000003a0: 9a51 b5bc 733a bb3c efba d8bc 6225 2d3c
000003b0: 7bc5 acb6 4858 9f3c 1c29 c5bc da60 b0bc
000003c0: ed6e 29bb eb46 98bc ff83 b33a 779e 9dbc
000003d0: 95fc 123d c76d 24bb 28b8 083d 6fb8 0eb8
000003e0: b46c b936 af2f 74bb 969c ac3b b3f0 80bc
000003f0: 53ad 873c c3fe 4a3c b157 2b3c bdc0 a4bc

bias f4 [4]
0.036968354 -0.015602461 0.024569975 0.0059208884
00000000: 216c 173d 77a1 7fbc f946 c93c 0304 c23b
