estimators/knet/single_obs/p_MSE_ep100_train4000_val1000_test10000_lr1e-03_wd1e-05_data_sr1e-01_q1e-04_r1e-03_j5_train[500,100]_val[100,100]_test[100,100].pt (torch, 470961 bytes, 121 tensors)

weight_ih_l0 f4 [48, 20]
00000000: eb41 433d 876f 23bd 4359 0fbe 42ef 1fbd
00000010: becb 0ab8 a7a8 493e 6272 a1bc 35a2 813e
00000020: 7b7c 1d3e 84ec fe3d d77b 4ebe 5ca7 e73c
00000030: af4f 50bd cf29 4cbd e091 54be 1f38 69bd
00000040: 36f2 02be 4157 b63d e4dd 293e 9e8b 683e
00000050: 4886 e6bd 2304 75bd a34b 17bc 0a53 48be
00000060: 40e3 21be 8a5f bf3c 1b0f 8e3d 37bd 693e
00000070: 0e82 a2bd 66c6 ff3d 4975 d3bd a48b 3cbe
00000080: e200 bd3d bdb9 e13a bd95 403e dcc0 60be
00000090: 9696 0fbe fb49 ba3d bdfb 1dbe 7e42 24be
000000a0: f765 17be 3a8e d6bd 9ea8 3d39 7286 43bc
000000b0: 36c3 203d 30c6 3e3d 44f8 15be 6e42 3d3d
000000c0: fa43 49be a58f 56bb 4da3 01be aaa8 84bb
000000d0: 7c9d 6f3d e47a 2d3d 5ad2 13bd 1d92 843e
000000e0: 71a5 52bd 0370 e53d 8f7b 50be 13bb fe3d
000000f0: fc58 183e c35b e93d 0e5a 4fbd afff b0bd
00000100: 498d 04be 7205 4e3c 959a bab9 b351 d33d
00000110: dd1d 9f3c eb47 e03d b631 633e 9b8d 3f3e
00000120: f7b5 9c3d a72b 693e 9ea8 6abe 0872 543e
00000130: 8d07 a8bd f970 ce3c 71cf 9bbd 4bd5 64be
00000140: 68b4 5bbe f3f2 4cbe 5032 f4bd 5a00 c73d
00000150: edb8 d1bd e6b8 e9bd d01d 113e bc06 e83d
00000160: bfdd 68be c4e4 093e 8b3a 52bc 55a8 943d
00000170: 32e7 0cbe 8921 2f3e 43e2 3c3b bf07 74bd
00000180: 260f 6dbe 31ee 0abe cf72 403e 780b 5dbe
00000190: e17b f6bd 3b88 de3c 0c9e 1e3d d954 68be
000001a0: c24f 92b9 961f a23d 8aa4 0c3e c966 49be
000001b0: 367c f93d 5c50 083e 4351 df3d 1111 d8bd
000001c0: 817e e5bd 275f d03d b42f 49be 556e 213e
000001d0: 52cc ad3d aa99 f2bd 03f4 273e d451 233e
000001e0: 3ca0 50be e984 6b3d 854d e23d a298 0bbe
000001f0: 3fa0 2e39 7959 2bbe 2907 bbb8 6e9e 943d
00000200: 692f 6c3e 3fac 533d d28b 83bd 9649 56be
00000210: 67ff e23c ae95 9f3c 9ae7 e5bd 98d2 c3bc
00000220: e2b0 3abd e0f2 2d3e 6a8b 03be 29ca 733e
00000230: 32a6 863c 946a 0bbe bb8c 04b9 76e5 14be
00000240: 42b4 96bd 5543 1b3e 1a64 eabb 8933 2a3e
00000250: b749 233e 9582 ff38 a421 1c3d 35d5 823e
00000260: ff4b 563e 8d50 01be f244 31be 1a5b 263e
00000270: 3eb1 5dbe e311 50be 3574 cdbd 6ffd 5bbe
00000280: 5f88 323e 9276 b23d aa26 0dbe ea3a 113e
00000290: 931e 3c3d 8c03 fabd 7826 5b3c 6438 153e
000002a0: 8e4a 7ebc ac33 8f3d 24eb 5fbe fb3a 273e
000002b0: 55d8 12be 922e cebd 6813 8d3d 635b 053e
000002c0: 46e3 263e 29b1 6dbe f65f 543c 6aee 593d
000002d0: 8120 0abe 701b 293e ca2f 60b8 2af6 073e
000002e0: dc4f 29b4 c690 34bd 4034 aa3d 47a4 d0bd
000002f0: 43fa ed3c 64a0 c0b7 a533 4ebd e9c4 49be
00000300: 0933 443e 7049 e03d 96c1 303e c6d9 80bd
00000310: 922c 9c3d 16fe 5bbe 6007 72bd 5e9b 3b3e
00000320: 390b 813d 1967 43be e3bf 1537 3f62 553b
00000330: 8f1b 37bc ff9b f2bc c918 a53d a377 06be
00000340: 672f 4f3c 1bcb 8f37 7494 0a3e 5d94 f83d
00000350: 6d09 eb3c d15a 44bd 690b 1e3c 708c dd3c
00000360: 2ded 02be 157d 79be 29ef 3e3e e8eb 153e
00000370: e3df d0bd 482d 703e 71cf bd3d 8783 edbc
00000380: 3615 8fbd 3ad4 70be 61e4 e9bd 0f6d 293d
00000390: 9f65 373e dc76 db37 1058 7ebe 4f5b dfbd
000003a0: 197c 633d 189b b2bd 2aa3 7b3d 11fd 103e
000003b0: e905 31be 29c5 4d3e 848e 35be cc2b 983d
000003c0: dfe6 c1bd c2c8 4b3e ba6c 9a3d c330 ae3d
000003d0: 09fe 2a3c a2ad bbbd e1e3 d33c 3abd 433e
000003e0: 7cc0 073e d9fa 8b38 1a99 c63d 917f 003d
000003f0: 492a f03c 7fb8 0a3e 1ab3 41be 118f 103d
0.047670286 -0.039901283 -0.13998894 -0.039046533 -3.3091514e-05 0.19693242 -0.019707862 0.25319067
0.15379517 0.124474555 -0.20164429 0.028278045 -0.050857242 -0.04984456 -0.20758772 -0.056938287
-0.12787709 0.08903361 0.16588551 0.2270951 -0.11256081 -0.0598184 -0.009234342 -0.19562927
-0.15809345 0.023360986 0.06936475 0.22826086 -0.07934962 0.124890134 -0.10325105 -0.18412644
0.09228684 0.0017221492 0.1880712 -0.2194857 -0.14022288 0.09096142 -0.15428062 -0.1604099
-0.1478499 -0.10476346 0.0001808726 -0.01193391 0.039248668 0.046575725 -0.14645487 0.04620593
-0.19654837 -0.0032739427 -0.1265995 -0.0040484266 0.0584998 0.042353526 -0.03608928 0.25892726
-0.05142731 0.11203005 -0.20359634 0.12438025 0.14877695 0.11394455 -0.050622992 -0.08642518
-0.12944521 0.01257454 -0.00035591857 0.10318317 0.01942342 0.10951217 0.22186932 0.18706362
0.076518945 0.22770558 -0.22915885 0.20746624 -0.08204565 0.025200354 -0.07607926 -0.2234699
-0.21455538 -0.20014553 -0.11923659 0.09716864 -0.1024035 -0.1141222 0.14171529 0.113294095
-0.2274084 0.13466173 -0.012831341 0.07258669 -0.13760069 0.17102636 0.0028821386 -0.0595777
-0.2315031 -0.13567425 0.18793796 -0.21586406 -0.12035347 0.02716457 0.038724944 -0.22688617
-0.00027906714 0.07916181 0.13734642 -0.19668116 0.121818945 0.13311905 0.10904171 -0.1055013
-0.11205769 0.10174399 -0.19647104 0.15764745 0.08486237 -0.11845715 0.16401677 0.15949184
-0.20373625 0.0574998 0.11049942 -0.13632444 0.0001665363 -0.1673335 -8.9181885e-05 0.072567806
0.2306496 0.05167794 -0.06423153 -0.20926508 0.027709676 0.019480553 -0.11225815 -0.02390413
-0.045578845 0.1698718 -0.12846151 0.23807587 0.01643667 -0.13614875 -0.00012640927 -0.14540657
-0.073586 0.15162404 -0.0071530463 0.16621222 0.15946089 0.0001218367 0.03811802 0.2555329
0.20927428 -0.12628384 -0.17311457 0.1624569 -0.21649644 -0.20319323 -0.1003193 -0.21483396
0.17434834 0.08714022 -0.1378428 0.1418263 0.045927595 -0.12207708 0.013375871 0.14572293
-0.015520705 0.069922775 -0.21867043 0.16331093 -0.14340337 -0.10067476 0.06888467 0.13023143
0.16297635 -0.23212112 0.012962332 0.053205885 -0.13488962 0.16514373 -5.345027e-05 0.13277498
-1.5768404e-07 -0.04408338 0.08310747 -0.101875834 0.029049998 -2.2962871e-05 -0.05034222 -0.19704022
0.19160093 0.10951507 0.17261347 -0.06291537 0.076256886 -0.21483645 -0.059089065 0.18320987
0.06300969 -0.19082297 8.925769e-06 0.003255978 -0.011176004 -0.0296154 0.08061368 -0.13131575
0.012645579 1.7141507e-05 0.13533193 0.12137673 0.028691018 -0.04793817 0.009646275 0.027044505
-0.12785788 -0.24364121 0.1864592 0.14640772 -0.10198953 0.23454773 0.09268082 -0.028993381
-0.069864675 -0.23518458 -0.11420513 0.041363772 0.17909859 2.6162183e-05 -0.2483828 -0.109060876
0.05553827 -0.08720988 0.061434902 0.14159037 -0.17287411 0.20094742 -0.17730147 0.074302286
-0.09467863 0.19900802 0.07540269 0.08505394 0.010436543 -0.09163977 0.025865497 0.19115153
0.1325702 6.6747605e-05 0.096971706 0.031371657 0.029317038 0.13546942 -0.18915978 0.03529269

weight_hh_l0 f4 [48, 16]
00000000: e21c 31be 7113 50be a9e8 bfbd ce9d a3bd
00000010: f769 ce3d ab49 c63c 22ad 94bd b8c0 e33b
00000020: 3631 dc3d 31a4 3d3e c605 b73d e7a4 17be
00000030: 8874 263e 6b02 39be 76b0 30be 5a56 79be
00000040: bdb4 bd3d 3e1d fd3d 9d80 25bc 2940 b23b
00000050: 20f6 d43d 9c99 55be 2d10 ee3d db4e b73d
00000060: 0f25 c3bd 9c6a 5fbd 4017 3a3d 50fe b63c
00000070: 142f 90bd 1583 683d 1508 cbbc c68a c0bc
00000080: 974d c03d d95b 753e 9891 0ebe 31d1 26bc
00000090: 9b7b 2d3e 2b6e 66be d6c0 77be d1b6 c33d
000000a0: a34b 42be 1f54 8f3d 2952 afbd 49b5 813d
000000b0: d2c0 c23d 7262 48be 3df7 2cbd c7af 3d3d
000000c0: 2f5e 12be b19e 80be 3f54 c6bd 70e5 4cbd
000000d0: c528 2bbe c377 833e 173f 613e c006 5d3e
000000e0: d542 1dbe 9f5b 503e 3da5 c73d e2c6 5bbe
000000f0: 69a3 2d3e 901e 7dbd 0604 08bd 3f13 d83b
00000100: 7153 60be 390f 91bd 67e5 033d ebda e63d
00000110: 3a20 85bc 9ec8 2d3e b3e6 f0bb ad17 c73d
00000120: d1fb 993d 28f0 b7bd ff48 29bd 5500 763d
00000130: 3b2a 3b3e 4170 1dbe 67b5 193e 17f6 87bd
00000140: ff24 d9bd f587 56be 501d 0ebd d9b8 01be
00000150: ef97 c73d 6c87 ae3d 74c5 7abd 3f45 6cbd
00000160: 38e0 1fbe a6e9 393e bdfd 1ebe de91 1ebd
00000170: 392a 17be bf49 e4bd 9769 69be 1f4f 30bd
00000180: 2dcb 623e 6a09 8ebd a012 453e 6404 313d
00000190: 8acb 18bc e4e8 563e 06ff 3bbe 9aeb 473c
000001a0: 8f52 093e dd59 ca3c f120 d43d dd74 b03d
000001b0: 6d26 c73d 93b0 b43d 9911 043e 8fb0 53be
000001c0: bc91 2dbd a8c1 993d 6997 19be 54ce acba
000001d0: 51bb 0abe 461a b7bd a577 2abe ce57 f4bc
000001e0: ee40 06bc 0255 113e 4dee 6c3e 140b 313c
000001f0: ba5a e0bd 0917 203e 0888 61be 1148 553d
00000200: 7cfb 1ebe 539e b0bc 1efa c93b a4f6 cf3d
00000210: e6c0 38be 8caf 153d 0cf1 733e ff97 92bd
00000220: f21e bd3c 922b 1dbe 7fa4 c4bd fbce a03d
00000230: 15ed 213d 556d 593e 3762 ab3d bf07 a53d
00000240: e76d ec38 4bf1 1fbe be52 db3d bfbd 47bd
00000250: ea03 203d ffb8 91bd 0d57 2fbd 060c abbb
00000260: db6f cbbd a34f c13d f7d1 02bd bf46 863d
00000270: b346 703e 62e6 a73c 3a53 1abe de1c 783e
00000280: ced4 513e 2ad8 1a3e 2633 313e 10a8 7cbe
00000290: 748b 22be 963d 05be a676 743e 3dab 54be
000002a0: ec42 993d 9247 283d da2f e83d c3b4 5abe
000002b0: c99c 8d3d 526f 42bd fc94 cebd ee1a ac3c
000002c0: 5077 29bb 366a 663d c4e9 e3bd 4e15 4abe
000002d0: d000 e3bd 37ce 693e 053f 073e 55aa bb3d
000002e0: 6391 aa3d 9fde 1cbe 5cf2 ecb9 5fbf 7f3d
000002f0: f776 333d 4cef e7bd 76e9 80be 5500 22be
00000300: b6ae f73d 9971 5abe 724d 463e b3b5 84bd
00000310: 30c7 563e b409 873c 57e0 5d3e fe22 dd3c
00000320: c953 75bd 50e4 093e 4aed 58be 4ee7 863d
00000330: 6a07 e3bd 4127 3b3e ab24 81bc 09e2 5c3e
00000340: f9dd 133e 3283 4cbe 1ada f73b 57d7 5abe
00000350: de91 55bd bc3c 4dbe 12e5 32bd bd2b 6d3e
00000360: 17f1 27be efa6 43bd 76bf ddbd f2c3 1a3e
00000370: 8e87 03be 7719 443e 3b97 5fbe 9875 573e
00000380: 8db7 433e 2cee 313d 87dc 643e e21e 03be
00000390: 8681 fb3d 1908 0f3d 187a 0fbe 954d 103e
000003a0: 936b 553e e608 d1bd e64a 06bd 3280 c8bd
000003b0: 2ab2 723d de42 17bd 351e 26be 8ce3 cdbd
000003c0: ad7e 10be 18f2 06be 6d96 1a3d b71d 43bd
000003d0: 0e24 bd3d d586 86bd 9548 bbbb bf02 693b
000003e0: c107 36be 18b0 25bd f700 623e 5f54 f8b9
000003f0: e5d4 f03d 0658 b03d 66c1 20be 08da 99bd
-0.17296174 -0.20319916 -0.09370548 -0.07989083 0.10078805 0.02420505 -0.07259585 0.006950464
0.10751574 0.18519665 0.08936648 -0.14808999 0.1625539 -0.18067329 -0.17254815 -0.24349347
0.09262989 0.12359093 -0.010101465 0.0054397774 0.10398507 -0.20859379 0.11624179 0.08950587
-0.09528553 -0.05454503 0.04543233 0.022338063 -0.070402294 0.056765635 -0.024784127 -0.023503672
0.09389799 0.23960818 -0.13922727 -0.010181711 0.16941683 -0.22502963 -0.24194655 0.09556354
-0.18974166 0.06998467 -0.08560593 0.063334055 0.09509434 -0.19568804 -0.042227972 0.046310212
-0.1429374 -0.25121072 -0.096840374 -0.050023496 -0.16714771 0.25677308 0.21996723 0.21584606
-0.15357526 0.2034745 0.097483136 -0.21462587 0.16956867 -0.061796725 -0.033206962 0.006594091
-0.2190683 -0.070829816 0.032201197 0.11272224 -0.016250718 0.1697106 -0.0073517202 0.09721313
0.07518733 -0.08981353 -0.04132938 0.06005891 0.18277828 -0.15374853 0.15010606 -0.06638735
-0.106027596 -0.20950301 -0.034695923 -0.1266817 0.09745776 0.085219234 -0.061223462 -0.057683226
-0.15612876 0.18155536 -0.15526481 -0.03871333 -0.147622 -0.111468785 -0.22794186 -0.043044206
0.22147818 -0.06935389 0.19245386 0.043217078 -0.009325871 0.20987278 -0.18359002 0.012202168
0.134104 0.024701053 0.103578456 0.0861604 0.09724126 0.08822741 0.12897338 -0.2067282
-0.04237531 0.0750764 -0.14999165 -0.0013184049 -0.13548018 -0.08940558 -0.16647203 -0.029827025
-0.008194191 0.14192584 0.2313778 0.010805864 -0.10954805 0.15633787 -0.22024548 0.05207068
-0.15525621 -0.02155987 0.0061638495 0.10154465 -0.18042335 0.036544368 0.23822421 -0.07157897
0.023086045 -0.15348652 -0.09601688 0.078519784 0.03953274 0.21233113 0.08368342 0.08058118
0.00011273828 -0.1561939 0.10709141 -0.04876494 0.039066233 -0.07115363 -0.042807627 -0.005219939
-0.09933444 0.094390176 -0.03193852 0.065564625 0.2346447 0.020495597 -0.15070811 0.24229762
0.20491335 0.15121523 0.17304668 -0.24673486 -0.1587351 -0.13011774 0.23873386 -0.20768447
0.074834675 0.04108388 0.11337252 -0.21358018 0.0691467 -0.047469445 -0.1008701 0.021008935
-0.002585847 0.056253634 -0.11128572 -0.1973469 -0.11084139 0.22832571 0.13207634 0.09163348
0.083285116 -0.15319298 -0.00045194 0.062438365 0.043814626 -0.11324939 -0.25178117 -0.15820439
0.1209387 -0.21332397 0.1936548 -0.06479969 0.20974422 0.016484119 0.2166761 0.026994225
-0.059894357 0.13466 -0.21184269 0.065870866 -0.110853985 0.18276693 -0.015764555 0.215706
0.14440145 -0.19971922 0.0075638415 -0.21371208 -0.052141063 -0.200427 -0.04367549 0.23161216
-0.16400562 -0.047766622 -0.10827534 0.1511381 -0.12844679 0.19150339 -0.21835034 0.21040952
0.19112988 0.04344003 0.2234975 -0.1280475 0.12280564 0.034919832 -0.14011419 0.14092095
0.20841818 -0.10206775 -0.032786272 -0.09790076 0.05925194 -0.036929004 -0.1622246 -0.10053167
-0.14110823 -0.13178289 0.037741113 -0.04763576 0.092353925 -0.06568686 -0.0057154396 0.0035554615
-0.17776395 -0.04045114 0.2207068 -0.00047365107 0.117593564 0.08610539 -0.15698776 -0.07512289

bias_ih_l0 f4 [48]
00000000: ce77 1a3e 32c0 c8bd de1f 063e 44a3 093d
00000010: b09f 913d 497a 9ebd 6ee8 4fbe c7fa f8bd
00000020: 59ec 49bd 1f85 5fbe c38d ea3c 10b5 6f3d
00000030: 1d62 84bd de02 123e ad62 2e3e d332 283e
00000040: d2f2 05be ef98 21be a644 e9bd dd21 7ebe
00000050: d06c d03d 2d21 8c3b addf a03c c317 31be
00000060: 7464 783e 4d49 253e 1c14 06be 842d bbbd
00000070: 70ec 703e 4555 febd 7955 813e c60f 1cbe
00000080: aafa 0dbb 4d4a be3d ec93 80be 3cdd 07be
00000090: 5368 5ebe ecef 3dbe e314 683e 589d 103e
000000a0: 44a4 6e3d e07a d93c 6765 e83d 39f8 82be
000000b0: c6af 8cbd 0b44 5cbc e4cb 753e b437 233e
0.15084764 -0.09802283 0.13098094 0.033602968 0.07110536 -0.07738168 -0.20303509 -0.12157207
-0.049297664 -0.21828125 0.02863205 0.058522284 -0.06464026 0.14258906 0.1702983 0.16425638
-0.1308091 -0.15780996 -0.11390047 -0.24817605 0.10177004 0.004276416 0.019637907 -0.1729422
0.2425707 0.16141243 -0.13093609 -0.09139541 0.23527694 -0.124186076 0.25260523 -0.15240392
-0.00216643 0.092915155 -0.25112855 -0.13267988 -0.21719484 -0.18548554 0.22664218 0.14122522
0.058262125 0.02654785 0.11347466 -0.25580004 -0.068694636 -0.013443957 0.2400356 0.15939218

bias_hh_l0 f4 [48]
00000000: 6dde a23d c9f9 32be c8c0 4f3e 67d0 113e
00000010: 2d42 f9bc 8d6c 343e 5001 7abe 4903 1ebe
00000020: eca4 133b 47eb 82bb 9c05 61be 0b66 0f3e
00000030: c505 c93d 92f1 3dbe 7f20 283e 6740 34be
00000040: 7bc4 74bd ec06 e7bd 48f8 253e 466f 03be
00000050: b4f5 3f3d 1a7a 8ebb af0c 29be c8c8 65be
00000060: f8e1 28be 1c11 5abd 270e c1bd d753 1ebe
00000070: 7364 16be db50 7e3e f466 c33d 6313 fabd
00000080: 99b7 5bbe 9327 233d f851 1abe 4974 4cbe
00000090: ab68 233e 6368 573e 20a9 5bbe 67a6 4f3e
000000a0: 3a8b 11be b5df 51be daae 85bd f93d 003e
000000b0: 2055 02be 5621 743e 6863 6e3e 1995 d5bc
0.079525806 -0.17478098 0.20288384 0.14239655 -0.030427063 0.17619534 -0.24414563 -0.1543094
0.002252872 -0.0039953324 -0.21974796 0.1400377 0.098155536 -0.18549183 0.16418646 -0.17602693
-0.05975769 -0.11280617 0.16207993 -0.12835416 0.04686518 -0.0043480517 -0.16508745 -0.22439873
-0.1649245 -0.053238973 -0.094265275 -0.1546167 -0.14686756 0.24835531 0.09541121 -0.12210729
-0.21456756 0.039832663 -0.15070331 -0.19966234 0.15957896 0.21035914 -0.21451235 0.20278321
-0.14213267 -0.20495494 -0.06527491 0.1252364 -0.12727785 0.23840842 0.23280108 -0.026072072

weight_ih_l0 f4 [48, 36]
00000000: 5346 0cbd adae 45be eb9f 43be 11fa c73d
00000010: 8cd5 613e f33e 40be 4f29 cfbd 29bd 2abe
00000020: d1d4 4dbd faca 4b3e 25cc 15be 1c56 3b3e
00000030: 2792 b43d 2473 023e d9f4 febd c272 33be
00000040: 3ebe 143d 5149 413d 06af 36be 9a1a a23c
00000050: b47f 833d a470 26be df12 c9bb 60be 96bd
00000060: 3640 273e 65d8 3f3e c27a 50be d07f 68be
00000070: 5bbd fdbd 7e6f ff3d 19e4 12be df5d 49be
00000080: aaf8 22b9 adc5 a5bc 6b81 62bc b4e4 40bc
00000090: 3cb2 66bc d860 d93c 4dd2 85be e830 353d
000000a0: 3f74 dd3c 8863 093e e9d9 073e b7a1 523e
000000b0: 9c0d 823d c805 3a3e 6338 313e 1ce2 5abe
000000c0: f8da 81bd f1bb 693d 3e05 a0bc 5128 483d
000000d0: c64c 44be 2f8b f6bd 9f04 a5bd 4d94 efbc
000000e0: 26a7 5f3d 7b30 203e 5352 b23d a774 993d
000000f0: 0985 5d3d 3740 e3bb 473c 033e 9a79 03bc
00000100: 5b69 bf3c d6e0 28bb 577f 063d b5ac 553e
00000110: ccf3 08be 3ab0 bcbd 7db0 313e 4ebf dcb8
00000120: c839 403e 60ae 1d3d 1717 323e ce88 e03d
00000130: 34c3 733e d592 383e a57e 8bbd 1aca e8bd
00000140: d97a e53d dbae 9839 22a1 0bbe c767 edbc
00000150: ff4a 34be 6715 303e f583 9a3d 3ecd 76bd
00000160: 11b9 36bd a83e 313d f51a 373d 15c2 d9bc
00000170: 4c8e e13d e229 09bd 81cc 45be f0bc 093d
00000180: 1558 76bd c6f2 96bb 9e27 52be 0020 a83c
00000190: 0ac3 5bbe 9604 a038 6653 25b8 3fb1 483e
000001a0: b9fd 843d 88a9 d53c 4c92 3c3d 7a17 aebc
000001b0: e51d 8bbb 06bc d73d 10df d3bd dd72 483e
000001c0: 5ef0 9dbc fbc8 7e3d 7043 12be b13a e2bd
000001d0: e14b 5fbe 5bb7 2e3e 3745 583d 90cc 473e
000001e0: 321f 1c3d 8918 d8bd 38b3 783e ab47 553e
000001f0: 9240 ef3c 6193 41bd 4154 31be 0858 2eba
00000200: 1a04 203e d417 3abe 7873 5a3d e9a8 813c
00000210: 2d02 c4bd 3df0 26be 147d 043e 94d2 593e
00000220: 2787 ae3d 3d0b 1fbe 5852 643d 679f e8bd
00000230: 7ef4 5e3d 63ce 733e b381 6a3e 36ae ffbc
00000240: b6c9 0c3e d5ed eabd 333b d4bd 93c2 403e
00000250: b383 c9bc 681c 023e ecef 2dbe e5db d5bd
00000260: d205 66be 196e 71bd 69ca 653e 105b 83bc
00000270: 0f33 273e 1984 c83b f956 663e d12d cbbd
00000280: adb7 f6bd cfe5 453e ddfa f0bc 0f67 b2bc
00000290: b80e 533e db1e 86bd e98f 56bc 6137 d2b4
000002a0: 79c7 5bbd f0af 53be b29b 4a3e 654a 17be
000002b0: 0cb9 79bd 13dd 24bd d969 23bd 2fe5 3fbd
000002c0: a1fa d5bd 142a a53c 88c0 34be 16ad 203e
000002d0: c3f7 323e d90e dbbc 82f2 113e d1ca 58be
000002e0: fc8b 6c3e 25c8 e93d aeba 663e 2c95 573e
000002f0: 8951 88bd 1003 92bc dcec 39be 8bc9 18be
00000300: c4ee 80bd 0bd0 38bc e7e3 57be cd96 46bd
00000310: f152 45be 0c0b 663b 176a b5bd c357 ff38
00000320: 3068 123e 8162 2b3e f0fa 263e 9f98 ee35
00000330: 9819 06be 084c 4e3e bb5a 583e 56c4 dcba
00000340: dafb 13bd a8eb d0b7 603c 933d 1b7e 72be
00000350: e03f f4bd a88e 6cbe 824f 10be 69a3 dd3d
00000360: d158 4d3e 296c 1b3d ff4b 443e 2c5d 80be
00000370: ca54 34be 1ad1 e3bc 45d8 bb3c e0a0 cf3d
00000380: aa8d 8ebd d1e3 07be 6d37 4c3c 9978 743e
00000390: 3447 fabd 9647 35be c6ed fabd 4a03 2fbe
000003a0: 6865 72be 268d 8bbd 3845 2c3b 88c3 aa38
000003b0: 2e1f fa3d 1191 10be 6202 3cbd ecb9 18be
000003c0: a005 a83d b1b2 f6bc b2cd 553e fe7e 44be
000003d0: d372 b7bd 1d94 0e3e 38e6 eabd 976d 243e
000003e0: 0767 dbbd 9fe4 56be c1c1 54be fcd5 f63b
000003f0: 9e13 0bbe 280d 8fbd 43e1 873d d212 9abd
-0.034246754 -0.19304915 -0.19103973 0.09764493 0.22054118 -0.18774013 -0.10115301 -0.16673721
-0.050251786 0.19901648 -0.14628656 0.18294567 0.08816939 0.12739235 -0.12449045 -0.17524245
0.03631424 0.04718906 -0.17840204 0.019788075 0.06420842 -0.16253906 -0.006136283 -0.0736053
0.16333088 0.18734892 -0.20359328 -0.22705007 -0.12389632 0.12472437 -0.14344825 -0.19664715
-0.00015542159 -0.02023586 -0.013824801 -0.011773277 -0.01408058 0.026535437 -0.2613701 0.044236094
0.02703297 0.13416874 0.1326672 0.20569502 0.06350252 0.18166268 0.17306666 -0.21375316
-0.06340593 0.057064 -0.01953375 0.048866574 -0.19169912 -0.12038266 -0.08057522 -0.02924552
0.054602765 0.15643494 0.08707108 0.07492953 0.05408195 -0.0069351452 0.12815963 -0.008024598
0.023365667 -0.0025768778 0.032836284 0.20866664 -0.13374251 -0.092133 0.17352481 -0.00010526051
0.18772042 0.038496375 0.1739162 0.109635934 0.23804933 0.18024762 -0.06811265 -0.11366673
0.11205072 0.00029121977 -0.13635686 -0.028980149 -0.17606734 0.17195664 0.075447 -0.060254328
-0.044610087 0.043272644 0.044703443 -0.026581803 0.11013469 -0.03348721 -0.19316293 0.03362745
-0.060142595 -0.0046065776 -0.20522925 0.020523071 -0.2146112 7.630249e-05 -3.9416736e-05 0.19598864
0.06493706 0.026081815 0.046037957 -0.021251429 -0.004245507 0.105339095 -0.1034528 0.19575067
-0.019279655 0.06220339 -0.14283538 -0.11046351 -0.2180629 0.17062132 0.052800383 0.19511628
0.038115688 -0.10551555 0.24287117 0.2082812 0.029205594 -0.047259692 -0.17317297 -0.0006650691
0.15626565 -0.18173152 0.053332776 0.015827613 -0.095707275 -0.16302581 0.12938339 0.21271735
0.08521872 -0.15531631 0.05574259 -0.113585286 0.054432385 0.23809199 0.22901039 -0.031211
0.13748822 -0.11471144 -0.10362854 0.18824224 -0.024598932 0.12706149 -0.16986054 -0.10442332
-0.22463158 -0.058942888 0.22440495 -0.016034633 0.16328071 0.006119263 0.22494115 -0.09920848
-0.12046752 0.19325946 -0.029416496 -0.021777658 0.20611084 -0.06548854 -0.013095834 -3.9155842e-07
-0.05365703 -0.20672584 0.19785956 -0.14774473 -0.06096749 -0.040249895 -0.039895866 -0.046849426
-0.10448194 0.020161666 -0.1765157 0.15691027 0.17477326 -0.026740478 0.14252666 -0.21171118
0.23100275 0.11415128 0.2253215 0.21052998 -0.066561766 -0.017823726 -0.18156761 -0.14920633
-0.06295541 -0.01128007 -0.21083032 -0.04848366 -0.19269921 0.00351018 -0.08858126 0.000121756944
0.14297557 0.16736795 0.16306663 1.77768e-06 -0.130957 0.20146191 0.21128361 -0.0016843181
-0.036128856 -2.4905268e-05 0.0718925 -0.23680918 -0.11926246 -0.23101294 -0.1409283 0.10822184
0.20053412 0.037944946 0.19169615 -0.25071084 -0.1761047 -0.027809668 0.022930274 0.10138106
-0.06960614 -0.13270499 0.012464386 0.2387413 -0.12220612 -0.17703089 -0.12252383 -0.17091098
-0.23671496 -0.06814031 0.0026286375 8.142652e-05 0.12212978 -0.14117838 -0.04590071 -0.14914674
0.08204198 -0.030114504 0.20879248 -0.19189069 -0.08957448 0.13923688 -0.11469692 0.1605743
-0.1071301 -0.2098565 -0.20777036 0.007532833 -0.13581702 -0.06984931 0.06634762 -0.07523121

weight_hh_l0 f4 [48, 16]
00000000: 8d48 943d 4b9a 603d de80 7436 9eb4 22be
00000010: 99a3 a3bd 7eb7 123e 6121 3c3d 3d11 44bd
00000020: e44d 3a3d d28c 37bd 0280 eabd 7c5a ec3d
00000030: c70f 36be 96ee 8bb7 1e27 66b5 cd8f ce3d
00000040: 65a3 f63d 16ed 573e 8c17 6435 01ea ec3c
00000050: 59f9 aabd 4310 a53c 96f4 00be f748 0d3e
00000060: c690 cbbd 317a 653d 3508 f3bd b941 743e
00000070: cecd 04be 2f03 853d 3fc8 3db8 cf22 3d3e
00000080: 1f18 4a3c d021 2abb 4a50 b4bc 4a11 6a3d
00000090: 16d1 603e e677 8e3d e35c bcbd 21f3 e3bd
000000a0: 4c35 143e 9361 903d e289 073e b768 953d
000000b0: fa5e e03d f789 44bd 2bbd a9bd c263 ec3c
000000c0: 9be0 21bd 9aed 04be 3a85 8ebd 5e2e 2c3d
000000d0: 2d06 563e 6b5c f7bd a0f7 f63d 4cff 5c3e
000000e0: 4f5f ab3d cd94 233e 81a7 7c3e 031b 61be
000000f0: 7e62 17bd 4530 fc3d c160 babd b93b a03d
00000100: b309 adbb e440 d03d 5c04 14bd 8c09 023e
00000110: b7e2 923d dbc7 81bd b2df 573d 6064 2d3e
00000120: d5f9 b43d 72c0 0abe 5661 74be c583 58bd
00000130: bce6 32be 2044 68bc 5716 46b9 a915 9aba
00000140: 9861 4fbd a12e 833d 03b0 5ebd c7e1 373e
00000150: 8b63 02be c359 ca3b 6821 473e 05b4 26bc
00000160: 31a6 0f3e 1175 e03c f77c 73be 0210 6b3e
00000170: 3272 5abc a4f6 a13d 2176 b6bd 6bbb d53d
00000180: c0f9 da38 7615 ed3c d27c e338 ff19 613e
00000190: 3bdb 61be 30b8 31be eee1 37be 0466 bebd
000001a0: a682 babd 09b2 823c 8e13 603c 4e6c d33d
000001b0: 4205 07bd 6cb6 0dbb 5bb0 e03b aa11 223e
000001c0: 6fc3 b6bc f7f5 353e 6cb9 ef3d 948c c83d
000001d0: 87fc 8e3c aada da3b fb47 36be fcef 49be
000001e0: 2c63 5e39 1ba6 143e 7f3c 013e cdf9 8dbd
000001f0: c798 07be 7c41 c03c 86d0 c4bd 6526 833d
00000200: bbc8 3b3a 98fc 9a3d 55a7 6abd f22c 32be
00000210: a25d d23d f4d3 083d 3d89 e13d 71bc cbbc
00000220: 5573 3ebd 1afd a53b 6e1a 43bd 300b 713d
00000230: f3b0 133e 5c06 4439 b080 193e 2f59 abbc
00000240: ac82 e6bd 375d 2dbe a86b 8a3c 03c3 e43d
00000250: 4e2c 51be c811 053a 31c6 83bd f4b1 0a3e
00000260: dc24 b6b9 ce77 8ebc 028c 58be d398 7dbd
00000270: 4634 0c3e 1656 f43d f8fa 12be fd1d 50be
00000280: c59a 6ebd c8ed 7dbd 6629 3ab9 6e24 5ebc
00000290: c376 84be d4ff 18be feb6 c6bc 393e 89bc
000002a0: 2dd7 e33d 37bc 02be b84c bf3b 715a 74bd
000002b0: e6a8 4dbe 2347 813d f240 0cbe 1f34 a3bd
000002c0: b116 ffbd 999a 053e 49cb a5bc 2445 433e
000002d0: 6f39 203e 5c35 c13d 1ee7 57bd b5cb 613d
000002e0: 45c5 343d 4eb4 b23c d7ec d33d 1cdb d63d
000002f0: ca08 3ebe 68d8 2bbd 41d0 44bc 7b04 0fbe
00000300: 4248 9d39 3106 e13d 978a bfb9 2fc2 30be
00000310: 45a5 ac3d 6457 fa3d 1f15 2dbd 0b05 ff3c
00000320: a38b 083c 2787 61be e79e 2bbd 02ce 04be
00000330: 18e3 053b 8c2f c43a 9717 f5b9 dc62 96bd
00000340: 4692 803b 496c d8bd 9983 d53d 07a6 23be
00000350: b74b 15be 245f 8b3d a23a 553e 2602 893d
00000360: b508 1db9 ecaf 593d 04a9 d9bd 5860 a2bd
00000370: 9907 0c3e 494d d8bd a88d a6bc 4c01 923d
00000380: 7025 1abc 971a 683d 2822 bbbc 3a00 303e
00000390: fe3f 2f3e 82f3 543e 5a9f 403e 9d4f a53d
000003a0: 8e2e 833a 09e1 093e e1f8 2a3e 81b0 3c3e
000003b0: d56c 3fbe 7faa b43d 975b a03d fc8d 1cbe
000003c0: 4f00 d9bd fe70 40be 16e7 65bd 618c 25be
000003d0: f1bd 2d3e 08ef f2bd f1b4 91bb caa1 003e
000003e0: 03c7 8b39 0bd0 793d db97 e3bd 15ba 88bd
000003f0: 5048 51be ec28 95bd e2ab 06be e795 d0bd
0.072404005 0.054834645 3.6433844e-06 -0.15889212 -0.07990188 0.14327809 0.04593027 -0.047868002
0.04548444 -0.04481203 -0.11450197 0.11540696 -0.17779456 -1.6681191e-05 -8.57386e-07 0.100860216
0.12042884 0.21086535 8.4970884e-07 0.028920176 -0.083483405 0.020149356 -0.12593302 0.13797365
-0.09939723 0.056024734 -0.118668 0.23853196 -0.12969133 0.06494748 -4.5247605e-05 0.1847031
0.0123348525 -0.0025960095 -0.022010941 0.057145394 0.2195476 0.069564626 -0.09197404 -0.111303575
0.14473456 0.07049861 0.13236192 0.072953634 0.10955615 -0.047983136 -0.08288034 0.028856162
-0.03952084 -0.12981263 -0.06959005 0.042036407 0.20900793 -0.12078174 0.120589495 0.21581763
0.08367788 0.15974732 0.24673273 -0.2198296 -0.036959164 0.12313894 -0.091004856 0.07823891
-0.0052806973 0.10168627 -0.03613697 0.12698954 0.07172149 -0.063369475 0.052703567 0.16932821
0.08836714 -0.13549975 -0.23865256 -0.05286004 -0.1747083 -0.0141763985 -0.00018891074 -0.0011755723
-0.050630182 0.06405378 -0.054367077 0.17957221 -0.12733285 0.006175251 0.19446337 -0.010174756
0.1402824 0.027399572 -0.23778139 0.22955325 -0.01333289 0.07908371 -0.0890925 0.10436138
0.000104415696 0.028940897 0.00010847453 0.21982573 -0.22056286 -0.17355418 -0.17957279 -0.09296802
-0.091069505 0.015954034 0.013676537 0.10323392 -0.032964 -0.0021623624 0.0068569607 0.15827051
-0.022309987 0.1776961 0.11705288 0.09792438 0.017454399 0.006678899 -0.17800896 -0.19720453
0.00021208514 0.14516489 0.12620734 -0.06932411 -0.13241874 0.023468725 -0.09610085 0.064038076
0.0007163395 0.0756771 -0.057288487 -0.17399958 0.10271765 0.03340526 0.11012504 -0.02487013
-0.046496708 0.0050655724 -0.047632627 0.05884856 0.1442297 0.00018694386 0.14990497 -0.02091655
-0.112553924 -0.1693009 0.016897038 0.11170008 -0.20427057 0.0005076197 -0.064342864 0.13544446
-0.00034741207 -0.017391112 -0.21147159 -0.061913323 0.13691816 0.11930482 -0.1435355 -0.2032394
-0.05825307 -0.061994344 -0.00017753764 -0.01355849 -0.25871858 -0.1494134 -0.02425718 -0.016753303
0.11125026 -0.12767111 0.005838003 -0.059656564 -0.20083961 0.063123964 -0.1369665 -0.07968926
-0.124555 0.13047256 -0.020238535 0.19069344 0.15646909 0.094340056 -0.052710645 0.05512591
0.044133443 0.021814492 0.10347908 0.104910105 -0.1855804 -0.041954428 -0.012012542 -0.13966553
0.0002999921 0.10987509 -0.00036533616 -0.17261575 0.0842996 0.122237 -0.04225647 0.031130334
0.008334073 -0.22024213 -0.041899588 -0.1296921 0.0020429548 0.0014967783 -0.00046747617 -0.07343075
0.003923687 -0.10567529 0.10425491 -0.15981303 -0.14579664 0.06805256 0.20823148 0.06689863
-0.0001497593 0.053146288 -0.1062794 -0.07928532 0.13674773 -0.10561616 -0.020331219 0.071291536
-0.00940834 0.056665983 -0.022843435 0.17187586 0.17114255 0.20796016 0.18810788 0.08071826
0.0010008381 0.1346475 0.16696502 0.18426706 -0.1869386 0.08821582 0.078299694 -0.15288538
-0.10595762 -0.18793103 -0.056128584 -0.16166832 0.16966988 -0.11861998 -0.0044466187 0.12561718
0.0002666042 0.06098942 -0.111129485 -0.06676117 -0.20437741 -0.07283196 -0.13151506 -0.101848416

bias_ih_l0 f4 [48]
00000000: ea50 05be 23ae 313d a161 5fbe bc07 193e
00000010: 63f8 653e e017 84be a674 713e 0dfc 45be
00000020: 8f3e 8ebd 1081 693e 6c4f cf3d afac 263c
00000030: 8b90 4d3e 66c8 7b3e 1840 57be 959c 043e
00000040: f32c eb3d 52e5 00be 0679 07bd cdd3 ed3d
00000050: 7abe e23d 1287 503e d126 603e 952c 303e
00000060: 8066 00be d1de ca3d 99a8 0d3e 9297 42be
00000070: ffb5 003e 767b 66be 5121 e53d 1a4e 55bd
00000080: c695 933d c37b 48bd 8108 2abe 8993 6ebe
00000090: 10bf 59be e8a8 de3d f9ed 2a3e 32a5 e2bd
000000a0: 1e86 d2bd aa10 013e e97a 5bbe 3db5 41bc
000000b0: f62c 15bd 46a9 033d cf86 d7bd fb41 0fbd
-0.13019148 0.04337896 -0.21814586 0.14944357 0.22458033 -0.25799465 0.23579654 -0.19334431
-0.06945526 0.2280314 0.101225704 0.010173007 0.2007467 0.24588165 -0.21020544 0.12950356
0.11483183 -0.12587479 -0.0330744 0.116126634 0.11071487 0.20364025 0.21889807 0.17204507
-0.125391 0.0990578 0.13833846 -0.19003132 0.12569426 -0.22508034 0.11187995 -0.052076437
0.072063014 -0.048946153 -0.16604806 -0.23298468 -0.21264291 0.1087206 0.16692342 -0.11066665
-0.10279487 0.12604013 -0.21433605 -0.011822996 -0.03641983 0.032143854 -0.105237596 -0.034975033

bias_hh_l0 f4 [48]
00000000: a033 57be 0173 843e 7a01 413e 85b4 213e
00000010: f5bd 3a3e 557a 18bc de41 173d 039a 5cbd
00000020: 021f 73bd a505 16be 5467 d3bd f50a 92bc
00000030: fcf9 1b3e bde8 84bc fc4b 3e3d fc3c 393e
00000040: 4226 0c3e 6a41 74be 7f88 dd3d 9a0b 4f3e
00000050: 3a09 053b 3ebc 553d 1d3c 1dbe 5b2d 77be
00000060: 41bc 66be f030 adbd ed6a ebbd 18a6 7bbd
00000070: 6bd1 01be c55c 4bbe 14b7 b93d e330 ca3d
00000080: 4654 a7bd 676f 9fbc f3a5 123e 1c66 2cbe
00000090: 0b6e 0abe be23 30be 858a 0bbe 4f3f 23be
000000a0: da5c 7e3c 847e c43c 1b59 24be 552c f2bd
000000b0: d2cc f13d 67dc 8dbd 5fe7 bb3d bf28 75bc
-0.21015787 0.2586899 0.1884822 0.15791519 0.18236525 -0.00930651 0.03692805 -0.053857815
-0.059355743 -0.1465059 -0.10322443 -0.01782749 0.1523208 -0.01622426 0.046459183 0.1808967
0.13686469 -0.23853078 0.1081705 0.2021927 0.002029969 0.052181475 -0.15354963 -0.24138395
-0.2253275 -0.084566 -0.11495004 -0.061437696 -0.12677543 -0.19859608 0.090681225 0.09872606
-0.08170371 -0.0194623 0.14321117 -0.16835827 -0.1351854 -0.17201135 -0.1362706 -0.15942119
0.015525067 0.023986109 -0.16049616 -0.11824862 0.118066445 -0.06926804 0.0917499 -0.014963328

weight_ih_l0 f4 [3, 11]
00000000: c46b 393e 04ba dbbe 6737 723e 5b57 093f
00000010: d724 31bf 6100 e4be 477b f83e 062f 473f
00000020: 1f51 843e fc84 183f f628 a63e dde1 bcbe
00000030: f4f9 79bf 5e46 3f3e 83c0 53bf 7f75 423f
00000040: 69e8 143f 3a6c 31bf f913 00bf bd8e 21be
00000050: 729b 6d3f 4b25 63bc 94d4 dfbe d6ef 3b3e
00000060: 1cf1 493f 95d6 38bf e951 c13e aadf 5abf
00000070: 3f09 5b3f 7d46 473f 8f19 edbe 70a9 18bf
00000080: 83e4 00bf
0.18107516 -0.42915356 0.23653947 0.5364892 -0.6919684 -0.4453154 0.48531553 0.7780613
0.2584314 0.5957792 0.32453126 -0.3689107 -0.97647023 0.18679187 -0.82715625 0.75960535
0.5816713 -0.69305766 -0.50030476 -0.15777107 0.92815316 -0.013863872 -0.43716872 0.18353209
0.7888353 -0.72202426 0.37757805 -0.85497534 0.85560983 0.7784193 -0.46308562 -0.5963354
-0.5034868

weight_hh_l0 f4 [3, 1]
00000000: d659 bc3e 1203 99be d14d 27be
0.3678729 -0.29885155 -0.16338278

bias_ih_l0 f4 [3]
00000000: 7e34 55bf 43aa 403e 1e57 59bf
-0.8328322 0.1881495 -0.84898555

bias_hh_l0 f4 [3]
00000000: 7001 85bd fdb2 ebbe d70b febe
-0.06494415 -0.46034995 -0.49618408

weight f4 [1, 16]
00000000: 53a2 563d fa14 d43d cd7b f7bd 4d8f 06be
00000010: c9de 3bbd e151 62be ea71 f0bd 3899 09be
00000020: d732 d73d e7b4 15bd 3337 6fbe 7166 95bb
00000030: c93d 0b3e dc61 183e b380 9bbd f8c6 8a3d
0.0524009 0.103555635 -0.1208416 -0.13140602 -0.04586676 -0.22101547 -0.117404774 -0.13437355
0.10507744 -0.036549475 -0.233609 -0.004559331 0.13597788 0.1488108 -0.07592907 0.067762315

weight f4 [680, 17]
00000000: 52b5 10be 57d2 c83d 6605 cdbd 57d4 ca3d
00000010: 5fb1 5dbe 608d 66be 809a d33d ef68 273d
00000020: 2eac f43d adbe f13d 0258 9abd f90a 413e
00000030: 1b72 59be 47e9 40be 5611 a23d ff34 c1bd
00000040: 833b f33d 766b a1bd 3bfd d93d ffbb 163d
00000050: d72b 63be 80eb 133e 6d71 233e 2c45 38be
00000060: feec 83bd c550 463e 820e 92bd d78f 32bc
00000070: 4ad3 4b3d 80dc af3d 17d1 253e 2ded f5bc
00000080: c5c9 9f3b 07d8 f93d 30e6 22be 3971 3d3e
00000090: b567 41be 8c6a 2c3e 18d2 d9bd a5f4 e03d
000000a0: a5c3 593d 772f 18bd 8815 023e 2300 4dbe
000000b0: 4cd2 153d b21d 01be 54f8 2fbe 1639 cd3d
000000c0: 9b69 f43b d63b 333d 0a87 5c3e 01c3 87bd
000000d0: 1867 4b3e 1976 883c eb23 97bc 24eb 353e
000000e0: 6e9c f4bd 04e0 6bbe 16dc 35be 7362 73be
000000f0: bf74 ddbd 8ea7 673e 8c37 0ebe 594c 2c3e
00000100: 3214 2dbd 8dcd 3f3e 5c2f 6c3e 8100 76be
00000110: 4720 203d b6f2 ff3d ce8e bd3d 769b 2c3b
00000120: 10b1 68be 4f04 613e d7f8 0e3e 90c9 bb3c
00000130: 5832 70bb d74a 8ebd 8a25 6fbe 66fa 773d
00000140: 3d23 983d a077 92bd 4951 bd3d 3255 573e
00000150: a5f2 66ba 9ae1 583e f88a 2e3c df02 bbbc
00000160: a4f5 ccbc 9f05 c7bd 6469 fdbb f0c1 713e
00000170: 2581 813e 0fbb 473e 3fc0 743c 7b31 37be
00000180: fcd4 78be 35d6 013e d296 31be d018 cd3d
00000190: 5125 4dbd 34df 9c3d 2ce8 92bc aeb9 943c
000001a0: 08ae 773d 89c8 603e 22a4 0b3e 5606 f83d
000001b0: cc6b 6ebe 6ee4 ffbd 3165 d9bd 286c 18be
000001c0: 812b 53bc 59ca 663b 32f4 9ebd 490d 083e
000001d0: a60a c83d 7166 633d 644e 893d 02c1 20be
000001e0: e470 5e3e 307f 88bb 8287 493e c141 5c3e
000001f0: fb7a 8f3d 9b1e 193e bb9a 133e 62b3 34be
00000200: c2f6 e6bc f3cf 6b3e f087 e7bd 1b46 b1bd
00000210: 0cd2 5e3e 2d6a b3bd d372 54bd fa2c 39be
00000220: c007 1abe 6e4b 61be 6fa3 0fbe a9c3 53be
00000230: 22ba 32be 3432 d1bc 380d b3bd 10b4 8fbd
00000240: 9e00 72bd 06d2 debd 6352 023c 6988 423e
00000250: 3951 683e 5612 eabc 7da5 6f3e de0d 63be
00000260: 603e 313d 5c4c 85bc a96b 543e 6155 38be
00000270: 34f9 13be eec7 b9bd 1f68 75bd dee6 02be
00000280: ce49 1e3e 38e2 61be 13a6 9abd 6e0b 38be
00000290: 238f 9d3d 8e92 81bd f333 20be 2be1 773e
000002a0: d578 4cbb cb92 48be 9948 083b 1baa ed3d
000002b0: a87a 783d a464 9f3d ca0b 64be 61fb 2dbe
000002c0: 6231 223e 3d77 4cbe 9f17 333e ae61 5abe
000002d0: 7c3f 85be 37a4 4c3e 597e 53be 4381 34be
000002e0: e877 7abe d448 77bc 0bef 883d 7d23 283b
000002f0: 5b4d 1b3d b955 80bb 911a 8438 9e78 50bb
00000300: ff42 d2bc 8f2d d23d e6a7 ba39 5df0 0d3e
00000310: 67b1 f3bb 0665 5d3d dbfa f33c e8a1 c43d
00000320: 745c febd c6c9 2339 f974 b13d 8cda c038
00000330: fd14 103e fce1 393d 47a0 683e 7907 433d
00000340: 3f35 93bd f909 33bd e511 183e bcb1 163e
00000350: 2079 b3bd bbd4 3ebe 3fdc ffbc 7bf4 24bd
00000360: 4d46 9fbd 6ecc 933d ba0e 02be c88e 8dbd
00000370: ddde 23be eb88 97bb c44f 11be 90a2 abbd
00000380: e751 db3c f21a 853b 0fbb ddbc 3026 9bbd
00000390: ff89 09bc 79da 2f3c 6619 ecbd 914d 773d
000003a0: 58bf d5bd 4c1f aa3d ddc6 71bd 8e49 aa3d
000003b0: 3537 d23c 4f12 343d 620f dbbd d569 c73d
000003c0: a962 01bc e46a fe3d 184a 233e 1b45 74be
000003d0: 9395 a43c 8344 01be 597e 38be 72d6 f2bc
000003e0: b75d 573e e81c d0bd 3d53 9abd e775 623e
000003f0: af82 2bbe 8728 063e b5ef ccbd 1bdd 88bd
-0.14131668 0.09805744 -0.10010795 0.09903782 -0.21649693 -0.22514868 0.10332203 0.040871557
0.11946903 0.11803947 -0.075363174 0.18851842 -0.21234934 -0.18838988 0.07913463 -0.09433936
0.11876585 -0.07881825 0.10644003 0.03680038 -0.22184692 0.14445305 0.15961237 -0.17995137
-0.06441687 0.19366749 -0.071316734 -0.010898552 0.049762048 0.08586979 0.16193043 -0.03002032
0.0048763477 0.12199407 -0.15908122 0.18500222 -0.18887217 0.1683752 -0.10635775 0.10984162
0.053165097 -0.03715464 0.12703526 -0.20019583 0.036577508 -0.12608984 -0.17184573 0.10020654
0.007458878 0.043758236 0.21535888 -0.06628991 0.19863546 0.016657876 -0.018449744 0.1776548
-0.11943899 -0.23034674 -0.17759737 -0.23768024 -0.10813283 0.22622511 -0.13888377 0.16826
-0.042255588 0.18730755 0.23064941 -0.2402363 0.039093282 0.12497465 0.092557535 0.002633778
-0.22723794 0.219743 0.13962112 0.02292326 -0.00366511 -0.06947868 -0.23354164 0.060541533
0.07428596 -0.07151723 0.092440195 0.21028593 -0.00088099606 0.2117981 0.01065325 -0.022828517
-0.025019474 -0.09717869 -0.007733511 0.23609138 0.25293842 0.19504951 0.014938413 -0.17889969
-0.24299997 0.1267937 -0.1734269 0.10014498 -0.050084416 0.0765976 -0.017932974 0.018154945
0.060468704 0.21951498 0.1363683 0.121105835 -0.23283309 -0.124947414 -0.10615004 -0.14885008
-0.01288879 0.0035215823 -0.0776142 0.13286318 0.09767656 0.055517618 0.06704405 -0.15698627
0.21722752 -0.0041655526 0.19680598 0.21509458 0.070058785 0.14953081 0.14414494 -0.17646554
-0.028193835 0.23028545 -0.11305225 -0.0865595 0.21759814 -0.08760486 -0.051867317 -0.18083563
-0.15042019 -0.2200143 -0.14027189 -0.20680107 -0.17453817 -0.025536634 -0.08742756 -0.07016766
-0.05908262 -0.108799025 0.007954213 0.18997349 0.22687234 -0.028573196 0.23402973 -0.22173259
0.043272376 -0.016271763 0.20744194 -0.1800132 -0.14450532 -0.09071337 -0.05991375 -0.12783381
0.15457842 -0.22058952 -0.075512074 -0.1797311 0.07693317 -0.06326781 -0.15644817 0.24206989
-0.0031199951 -0.19587247 0.0020795225 0.11604711 0.06066385 0.077828676 -0.22270122 -0.16990425
0.1583915 -0.19967361 0.1748948 -0.21326324 -0.26024997 0.19984518 -0.20653667 -0.17627434
-0.24459803 -0.015093047 0.06686219 0.0025655918 0.03791557 -0.003916469 6.299199e-05 -0.0031810175
-0.025666712 0.10262596 0.0003560178 0.13861223 -0.0074369195 0.05405142 0.029782703 0.09601194
-0.12419978 0.00015620058 0.08664889 9.195981e-05 0.14070506 0.04538153 0.22717391 0.04761455
-0.0718789 -0.043710683 0.14850576 0.14716238 -0.08763337 -0.18635838 -0.031232951 -0.040272217
-0.07777081 0.07216726 -0.1270093 -0.06911999 -0.16002984 -0.004624476 -0.14190584 -0.08380616
0.026772453 0.00406205 -0.027066736 -0.07575643 -0.008394717 0.01073324 -0.11528282 0.060376707
-0.104368865 0.08306751 -0.05902754 0.08314811 0.02566109 0.043962773 -0.106962934 0.09736983
-0.007897058 0.124227315 0.15946233 -0.23854487 0.020090854 -0.12623791 -0.18016948 -0.029643271
0.21031843 -0.101617634 -0.07535408 0.22115289 -0.1674907 0.13101397 -0.10006658 -0.066827975

bias f4 [680]
00000000: 195a a2bc 8db7 493e 4a2a 8fbd ca45 2c3e
00000010: 193f c23d 5cc6 c43d 65c9 aa3d d96b 833d
00000020: 5ae5 723d 9f65 5f3e 1bc8 923b ea95 1abe
00000030: f08b aa3d c7dc 4bbd b143 403e acb2 3f3e
00000040: 9d3f 0e3e 996e 1ebb 1206 28bd 2fc2 2ab9
00000050: 304d 11be c445 173e 0ab4 b93b 939b b93d
00000060: 6705 3d3e e316 a53d a80f 113e 0f78 1ebe
00000070: 65fd 503e 01c6 70bc a719 7f3d 24e0 54bd
00000080: 6de0 e83d d662 423e a816 c63c 11be 643e
00000090: 482b 0dbd ddc5 c73d 6f9e dc3d d1ff f63d
000000a0: 11c4 6bbc ac8c 2b3e 0f79 573d de3b 153e
000000b0: d271 453e 44b4 6a3c 96a9 973d 8818 7cbd
000000c0: dbff c0bc 6a27 26be b8f8 183e d821 e2bd
000000d0: bef3 1b3e c6c9 82bd ae7f 443d 4513 abbd
000000e0: bbff d63c a223 fabd 82a8 8dbd ea2c 5c3e
000000f0: 158f 873c a289 fd3c 5a4f d0bb edc7 cd3d
00000100: 0015 953d 4ae5 a9bd d8a2 6bbd 7c32 bdbd
00000110: 0831 d7bd efcc 503e 163c 1cbe 08a6 1cbe
00000120: 5635 4fbd 0d4f 4c3e 1dac cebd 1b8c 9fbd
00000130: 3625 9c3d dde0 d63d 61fc 683e 7d92 12be
00000140: 9fa9 f4bd ae35 a63d 7d3f 3d3e 436d 0fbe
00000150: 76b4 183d eb42 ddbd 3d89 13be 92fd 1abe
00000160: 1f9c de3d a32c b23c ade1 4b3d db4a 31be
00000170: 223e fdbd 13e7 ea3c 9fbe 543e 804b 1ebe
00000180: c4c0 b53d f784 b7bd d0e6 c83d 757c 023e
00000190: 4c2e cfbd 9349 fdbd 3db6 733d 9bd4 293e
000001a0: f498 073b 9c3b fcbd 755b e43d 7cdb 8c3d
000001b0: b612 3a3e 099d 0abe d4fa 1e3d fc0e 503e
000001c0: a958 e9bc 90e1 633e 7d14 c23d 9372 ebbd
000001d0: 76f6 e8bd b825 62bd e623 94bc 7a11 043e
000001e0: 44e1 04bc fa19 4ebd c746 83ba 225f 05be
000001f0: af3f 543c 075e 853d a092 023e e23d 893d
00000200: 4f79 6dbd 34de 7cbd 2b68 083e 270b d0bd
00000210: bf2c 10be 8737 44bc 9715 a8bd 8f78 0c3e
00000220: 1621 173e 155e 1bb9 bdf3 1cbe 3e1a 9abd
00000230: e6f2 2b3e 11e0 afbd e242 033e 47dc 273b
00000240: f86d bebd b197 dbbc 104a 2f3e f440 303e
00000250: 2f90 2cbd 0470 c0bc dba7 3c3c d2fd d03d
00000260: fc14 123d 9c70 2bbc 4c2f 633e 3b78 0bbe
00000270: e1d8 1c3e 9cf9 553d 2750 bcbc 2d3b b53d
00000280: f18a 963d af06 183e 222d 02be 97f7 debb
00000290: bb64 eebd 5f2e 593d 410e 123e d16c 033e
000002a0: 707c 02be 90ac d53d 51a4 60bd ef21 5fbc
000002b0: e35d 123c d57e 113e 3827 20be dd1e c73d
000002c0: 79e0 ebbd 68e4 afbc bf5c 2dbe 968a a1bb
000002d0: dc82 0f3d 6190 683e b2a4 263e 12af b5bc
000002e0: 215f 6734 ff0e a4bd a382 3cbe d993 c5bc
000002f0: 8fdc f9ba 562a 0db9 8037 29bd 0f3c 00bd
00000300: fdeb acbc 0d91 0b3e 3cff 053d fceb 833d
00000310: 9d75 4dbd 9b59 38be 6124 10be 131d 4e3e
00000320: 4b40 b43c 99f9 08bd fdb3 c9bd b08d dcbd
00000330: f085 f03d 30e2 e7bc c96b adbb 8ce4 40bc
00000340: 2835 583e d43e 3bbc 6dcc 53bc 7bde 85bd
00000350: 4ed0 453e 5d96 363e 3bea 9ebd ce31 d9bd
00000360: dbee 0cbe e722 e7bd 98fc 233e 242e 09be
00000370: d4f4 30be e7dc f2ba f9a4 11be 0dde 783c
00000380: 864d cf38 1656 213e 0f3d 51bc f864 153e
00000390: daac 3b39 b6a2 323e c263 bdbd 04c9 f3bd
000003a0: 70a9 b93d 6705 86bd 3f98 afbd 6d37 c1bd
000003b0: f302 f83d 3617 f9bb 90d4 113e 6ff6 e8bd
000003c0: 7407 7dbd 9e9c cdbd 5030 813e c76a 033e
000003d0: a038 0fbe 3883 18be b4c9 e7bb 56b9 c3bd
000003e0: d5d3 b63c 9454 c33c 64d2 c13d 8710 afbd
000003f0: dce6 4a3b 204b fabd cee3 f03b cd17 1a3d
-0.019818353 0.19698925 -0.06990488 0.16823497 0.09484691 0.096081465 0.08339194 0.06417055
0.059300758 0.21816109 0.004479421 -0.1509625 0.08327472 -0.049771097 0.18775822 0.18720502
0.13891454 -0.0024174808 -0.041021414 -0.00016284802 -0.14189601 0.14772707 0.0056672143 0.090628766
0.18459092 0.08061006 0.14166129 -0.15475486 0.20409162 -0.014695645 0.062280323 -0.05197157
0.11370931 0.18983015 0.024180725 0.2233813 -0.034465104 0.09754536 0.10772406 0.12060512
-0.014390008 0.16752881 0.052605685 0.14573619 0.192817 0.014325205 0.07405393 -0.061546832
-0.023559501 -0.16225973 0.14938629 -0.110416114 0.15229699 -0.063861415 0.047973327 -0.08353285
0.026244989 -0.12213828 -0.06916906 0.21501508 0.016547719 0.030949418 -0.0063571157 0.100478984
0.07279396 -0.082956865 -0.057528347 -0.09238145 -0.10507399 0.20390676 -0.15257296 -0.15297711
-0.050587974 0.1995203 -0.10091422 -0.07790395 0.07624285 0.10492108 0.22752525 -0.14313693
-0.11946415 0.08115707 0.1848125 -0.14006524 0.037281476 -0.10803779 -0.14407821 -0.15135792
0.108696215 0.0217498 0.049775768 -0.17313711 -0.123653665 0.028674638 0.20775841 -0.15458488
0.08874658 -0.08960908 0.09809649 0.12742789 -0.10116252 -0.12367549 0.059499968 0.16585009
0.0020690532 -0.12316057 0.111502565 0.06877801 0.181712 -0.13536467 0.038813427 0.20318216
-0.02848466 0.22254014 0.09476564 -0.11496463 -0.11375134 -0.055211753 -0.018083524 0.12897292
-0.008110348 -0.050317742 -0.00100156 -0.13024572 0.0129546365 0.06512075 0.12751245 0.06701256
-0.057977017 -0.061735347 0.13320987 -0.10158377 -0.1407957 -0.011976129 -0.08207243 0.13717864
0.14758715 -0.00014817 -0.15327354 -0.075245366 0.16791877 -0.08587659 0.12818483 0.0025613473
-0.092983186 -0.02680573 0.17118096 0.17212278 -0.04212969 -0.023490913 0.011514629 0.102046624
0.035664544 -0.01046386 0.22186011 -0.13620083 0.15317108 0.05224 -0.022987438 0.088491775
0.0735072 0.148463 -0.1271253 -0.0068044174 -0.116403066 0.05302274 0.1426325 0.12834479
-0.12742782 0.10433304 -0.054844204 -0.01361893 0.008933517 0.14208539 -0.15639961 0.097226836
-0.11517424 -0.021471217 -0.16929911 -0.004929851 0.035036907 0.22711326 0.16273764 -0.022178207
2.1548159e-07 -0.08010673 -0.18409209 -0.02411835 -0.0019062924 -0.00013462579 -0.041312695 -0.031307276
-0.021108622 0.13629551 0.032714114 0.06441495 -0.050160993 -0.18002932 -0.14076377 0.20128278
0.022003314 -0.03344116 -0.09848783 -0.10769212 0.117442966 -0.028306097 -0.00529239 -0.01177324
0.21114028 -0.011428554 -0.012927157 -0.065365754 0.19317743 0.17830797 -0.0775952 -0.106052026
-0.13762991 -0.11285954 0.16014326 -0.13396508 -0.17280895 -0.0018528969 -0.14223088 0.01518966
9.884969e-05 0.15755495 -0.012770905 0.14589298 0.00017898102 0.17444882 -0.09247543 -0.11903575
0.09065521 -0.06543999 -0.085739605 -0.094344 0.121099375 -0.007601644 0.14241242 -0.113751285
-0.061774686 -0.10039638 0.25232172 0.12833701 -0.13986444 -0.14893806 -0.0070736054 -0.095568344
0.022317806 0.02384404 0.09463957 -0.08548074 0.0030960357 -0.1222136 0.007351375 0.037620354

weight f4 [4, 680]
00000000: a856 4abd 067c fa3c 8fd7 073d 0a43 fe3c
00000010: 9f99 113b e7f7 9c3c 3e4a 87bc 85d5 443d
00000020: 6a09 0bbc 6fe3 333c db3d 57bc cd95 8cb8
00000030: 2222 4e3c 39e2 c8b9 091a 8abb 49a1 043d
00000040: 339c e9bc e275 313c 540c cf3c 4516 e8bb
00000050: 1fc2 e337 53c6 253d 6829 90bd 79be b2bc
00000060: 7182 b1bc 310f 57bc 5264 1f3d 8bfd bb3b
00000070: 291f b43c b393 bc3c 5d65 a1bc 4c71 a4bd
00000080: dfe3 1c3b a483 d23a bef4 eb3c 006c 7cbc
00000090: 8218 d238 99ec 9f3c 6646 a0bc 4232 503d
000000a0: fbbe e63c 046d 4cbc 83c9 523d 364b 3c3d
000000b0: 35b4 48ba c8c7 a33a 3543 453c 1687 b1bc
000000c0: 7461 e73c ce1c 073d 9d79 213c a59b 1f39
000000d0: 5908 9a3c bf04 7cbc 09b3 3138 26ab 553d
000000e0: b20d 3d3d 7f3b b23d 265f 56bd 1174 cdbc
000000f0: 8fb7 72bc 6a39 2a3d bcb1 11b8 dd92 e13c
00000100: bdf7 2a3d 006a 0339 eb90 f4b6 ab43 113d
00000110: 250b 5936 d14a 60bb 6be1 8aba 0530 f5bc
00000120: fa4e 123d f0e7 043d a6fc f6b8 7a90 e338
00000130: 672b 48bc 17fd 453d 86d2 aa3c 3757 18b9
00000140: 745c d6bc b730 8abc 0e5a e8bc 5a6b 3a3c
00000150: 2f3c a4bc 419d a3bb 8706 b63c 1cd8 48b9
00000160: f366 f33c 29ee b3bc 88f8 49bc 1f8b 66bc
00000170: 403f 77bc 91f0 9e3c 2d58 23bc 984f 413c
00000180: 78e2 e43b 6bdf 87bc 190b 4abc 34aa 2f3c
00000190: a22e af3b 1a98 fb38 1a76 cdbb a1e9 1ebc
000001a0: 00c5 90bd e845 3839 db54 683c 45c5 b4bc
000001b0: 0446 473d 08b9 3ab9 e0fc 843b 24e4 303c
000001c0: 1b1f 033c bf43 fb3c bce2 0cbc 942e 26b9
000001d0: 7b3a 8fbc 476e 16bc 596a 9339 f782 b43c
000001e0: 2e6d 513d fd7f dd38 5de3 32bc d113 b03b
000001f0: 2e52 07bd 4a7d 813c b0fa cc3c 0717 e0bc
00000200: 3336 89b8 09b4 30b6 4b27 2dbb ca0b 3239
00000210: 3890 b438 fe8f 55bc 399f 053d 8a4a 333c
00000220: 8986 2eba d5bf 0238 17b3 cbbc 3934 4c3c
00000230: 0f36 123d 6803 4e3a e78c 313d aa22 943b
00000240: 2239 cc3c 2940 c4bc 9935 ea3c a142 cc3c
00000250: efde c7b6 75ca e13c 7270 903b 5dac 26bc
00000260: 0d71 90bc b4c7 3f3d 2c2e 53bc 7235 13ba
00000270: 13be 243d 0022 e33c 18bc bbb6 609f 853b
00000280: 15fe f83c abbe 8dbc dc7f ca37 8f56 883d
00000290: 1e76 96bc c748 cabc eb20 1c3d 2b74 713c
000002a0: 811e 8a3d d0d2 0c3d a189 ab3c ec48 28bc
000002b0: 7509 09ba df30 623b 548b 8f38 aa0a 7b3c
000002c0: ace4 003d 7514 9bb7 1d2f 143c ed19 5bbc
000002d0: 74d1 4f3c e034 8d3c 4148 8e3c 815d 0d3d
000002e0: ee26 90b8 a350 693c 668a 0e3c beed 70bd
000002f0: 211b 27bc c568 c3b8 1010 213d 5012 d9bc
00000300: 4e86 a73a ef5e 6ebc cb86 df3c 6874 f6bc
00000310: 49be 9abc 4fe9 053c 3dba a9b8 00e5 3a3c
00000320: ed83 8b3c b258 323d dea2 0635 93e2 5137
00000330: 3d23 673c 350e 68ba 5c39 29bc 401f db3c
00000340: fba3 643c f27a 2db9 58cf 59bd 2a33 c53c
00000350: 51f0 973c 9e5d cc3b 0f74 0ebc 5c24 213c
00000360: 97fb b6b8 2ef6 30b8 1a4e e9bc 2620 7938
00000370: 514a 133d 920e 14bc a379 db37 4af5 083d
00000380: 7301 a8b9 9477 49bb 79d4 5e3c 1726 3c3c
00000390: e362 c138 3a61 9d3c b8cc 4e3c bbed aa3c
000003a0: 47a3 143c 536c d4b8 b525 87b8 cb62 0536
000003b0: 9806 0f3c 4517 cebc 4b4c aabc 4739 87b7
000003c0: d47d 80b8 1980 4ab9 9434 b93c 6761 8dbc
000003d0: 0ca8 bd38 24e9 573b 84d1 463d d3c9 8b3a
000003e0: a61a 8a3c ca3d 753c db2d ab3c 21e7 d83c
000003f0: 4aad c1bc 100b 91b8 9d83 6e3c 85e9 61bc
-0.049399048 0.030576717 0.033164557 0.031037826 0.002221681 0.019161178 -0.016514894 0.04805519
-0.008486131 0.010979517 -0.013137306 -6.703623e-05 0.01258138 -0.00038315522 -0.0042145294 0.032380376
-0.028516864 0.010831328 0.025274433 -0.007082733 2.7150903e-05 0.04047234 -0.070391476 -0.02181934
-0.021668645 -0.0131261805 0.038914032 0.005737012 0.021987515 0.023019647 -0.019701654 -0.08029422
0.0023939533 0.001606096 0.028803226 -0.015406609 0.00010018145 0.019521998 -0.019564819 0.05082918
0.028167238 -0.012477163 0.051461708 0.045970164 -0.00076562475 0.0012495453 0.012039949 -0.02167086
0.028244711 0.032986455 0.009855655 0.00015221404 0.018802809 -0.015381991 4.2366828e-05 0.052165173
0.04615564 0.08702754 -0.052336834 -0.025079759 -0.014814272 0.04155866 -3.4736222e-05 0.02753585
0.041740168 0.00012532622 -7.2886373e-06 0.035464924 3.2342007e-06 -0.0034224282 -0.0010595744 -0.029930124
0.03571985 0.032447755 -0.000117772535 0.00010851114 -0.012217379 0.04833707 0.020852339 -0.0001452834
-0.026167132 -0.016868932 -0.028363254 0.011378134 -0.020048229 -0.0049931114 0.02221991 -0.00019153993
0.029712176 -0.02196415 -0.012327321 -0.014071255 -0.015090764 0.01940182 -0.009969753 0.011798762
0.006985005 -0.016586026 -0.012331747 0.010721732 0.0053461352 0.00011996944 -0.0062701823 -0.009699256
-0.07068825 0.0001757365 0.014180387 -0.022066722 0.048650756 -0.00017807272 0.0040584654 0.01079658
0.008003022 0.030671952 -0.00859898 -0.00015848345 -0.01748394 -0.009181566 0.0002811726 0.022035105
0.051129512 0.00010561941 -0.010918465 0.005373456 -0.033037357 0.015806813 0.02502188 -0.02735473
-6.5427645e-05 -2.6330838e-06 -0.0026421126 0.00016979795 8.609932e-05 -0.013034819 0.03262255 0.0109430645
-0.00066576205 3.1173073e-05 -0.02486567 0.012463623 0.035696086 0.0007858784 0.043347266 0.004520734
0.024929587 -0.023956375 0.02859001 0.024934115 -5.956615e-06 0.02756236 0.004407936 -0.010172931
-0.017632032 0.04682131 -0.012889426 -0.0005615569 0.04022033 0.027726173 -5.5949313e-06 0.004077837
0.030394593 -0.017302832 2.4139816e-05 0.06657135 -0.01836687 -0.024692906 0.03811733 0.014737169
0.067440994 0.034380734 0.02093965 -0.010271292 -0.00052275445 0.0034513993 6.844723e-05 0.015322367
0.03146808 -1.8486966e-05 0.009044436 -0.01337288 0.012684215 0.017237127 0.017368438 0.034513
-6.873706e-05 0.014240417 0.008699989 -0.05882048 -0.010199339 -9.3178394e-05 0.03932196 -0.02649799
0.0012781115 -0.014549001 0.027285954 -0.030084804 -0.018889563 0.008173301 -8.0932376e-05 0.011407137
0.01703068 0.043541618 5.0155893e-07 1.2510124e-05 0.014107523 -0.00088522147 -0.010328617 0.0267483
0.013955112 -0.00016544366 -0.053176254 0.024072248 0.018547209 0.006236746 -0.008694663 0.009835329
-8.7252985e-05 -4.2190943e-05 -0.028479625 5.9396167e-05 0.035959546 -0.009036677 2.6163476e-05 0.03343705
-0.00032044537 -0.003074144 0.013600462 0.011483691 9.221376e-05 0.0192114 0.012622051 0.020865312
0.0090721315 -0.00010129125 -6.444325e-05 1.987605e-06 0.008729599 -0.02515758 -0.020788332 -1.6119926e-05
-6.126953e-05 -0.00019311941 0.022608079 -0.01725836 9.0435235e-05 0.003294536 0.048539653 0.0010665007
0.01685841 0.014968345 0.020895889 0.026477398 -0.023642201 -6.916199e-05 0.014557746 -0.013788586

bias f4 [4]
00000000: de03 bbbc 4c96 003d 891c c239 f395 8cbb
-0.022828992 0.031393334 0.00037023824 -0.0042903363
