estimators/knet/single_obs/p_MSE_ep100_train4000_val1000_test10000_lr1e-03_wd1e-05_data_sr1e-01_q1e-04_r1e-02_j5_train[200,250]_val[40,250]_test[40,250].pt (torch, 475157 bytes, 123 tensors)

_initial_state f4 [4]
0	0x00000000	0.0
1	0x3f800000	1.0
2	0x3f800000	1.0
3	0x00000000	0.0

_initial_covariance f4 [4, 4]
0	0x00000000	0.0
1	0x00000000	0.0
2	0x00000000	0.0
3	0x00000000	0.0
4	0x00000000	0.0
5	0x00000000	0.0
6	0x00000000	0.0
7	0x00000000	0.0
8	0x00000000	0.0
9	0x00000000	0.0
10	0x00000000	0.0
11	0x00000000	0.0
12	0x00000000	0.0
13	0x00000000	0.0
14	0x00000000	0.0
15	0x00000000	0.0

weight_ih_l0 f4 [48, 20]
0	0x3dc9ee46	0.098599
1	0x3e321103	0.17389302
2	0x3e0ed675	0.13948996
3	0xbe44a077	-0.19201837
4	0x3d8d4b59	0.06899137
5	0x3e161103	0.14654927
6	0x3e54681a	0.20742837
7	0x3e475ef6	0.19469818
8	0x3e401ad3	0.18760233
9	0x3e6f5a61	0.2337432
10	0xbe590c87	-0.21196185
11	0x3e609bdf	0.2193446
12	0xbdef7a6b	-0.11693271
13	0x3d7f1864	0.06227912
14	0xbd86aa9c	-0.0657551
15	0xbe656fad	-0.22405882
16	0xbd7bbdf4	-0.06146045
17	0xbd9d059e	-0.07667087
18	0xbdcff694	-0.10154453
19	0x3d7f4375	0.06232019
20	0x3d9e2ec6	0.07723765
21	0xbe306924	-0.17227608
22	0xbe34222e	-0.17591164
23	0xbd9b72d0	-0.07590258
24	0x3e6c7c59	0.2309431
25	0xbdfbe3fa	-0.122993425
26	0x3c77a659	0.015115344
27	0xbe25a216	-0.16175112
28	0xbe177ff5	-0.14794905
29	0xbdb8e9fe	-0.090290055
30	0xbcd307a4	-0.02576048
31	0x3e70eeed	0.23528643
32	0xbd6539a5	-0.055963177
33	0xbdd50e76	-0.10403149
34	0x3e578e86	0.21050462
35	0x3e0a11ca	0.13483348
36	0x3da779f7	0.0817756
37	0xbd9b260c	-0.07575616
38	0xbe1c40d0	-0.15259099
39	0x3e19585c	0.14975113
40	0x3e5ee617	0.2176746
41	0x3e7cfb51	0.24705245
42	0x3d3b4c87	0.04572728
43	0x3c50d846	0.012746876
44	0x3e3f9de4	0.18712574
45	0xbe4115ab	-0.18855922
46	0xbe5743c7	-0.21021949
47	0x3e6269bb	0.22110645
48	0xbe71b688	-0.23604786
49	0xbba96395	-0.005169342
50	0x3c3b866b	0.011445622
51	0x3e737da9	0.23778404
52	0x3ded295a	0.11580153
53	0xb9507ded	-0.00019883337
54	0xbe6de2c8	-0.23231041
55	0x3e522324	0.20521218
56	0x3ca195fc	0.019724838
57	0xbe02ed52	-0.12785843
58	0x3da719ae	0.08159195
59	0x3dc41aef	0.0957545
60	0xbc7fbf15	-0.015609522
61	0x3d92b659	0.07163686
62	0xbdfd30ef	-0.12362849
63	0xbe501b27	-0.20322858
64	0x3e2ccc89	0.16874899
65	0x3e402d52	0.18767288
66	0x3e1d5cf2	0.15367487
67	0xbdca9c37	-0.09893077
68	0x3e6718d2	0.22568062
69	0xbdd1bece	-0.10241471
70	0x3db5290a	0.08845718
71	0xbe74f08b	-0.23919885
72	0xbe788eff	-0.24273299
73	0xbd790f9a	-0.060805894
74	0x3e6430a6	0.22284183
75	0x3d4aa797	0.049476232
76	0xbd41b3cd	-0.047290612
77	0x3e5f5ccb	0.21812741
78	0xbca05485	-0.019571552
79	0x3dd1b8ee	0.10240351
80	0x3df52082	0.11969091
81	0x3d595e31	0.053068344
82	0x3e7123cc	0.23548812
83	0x3e7f7737	0.2494782
84	0x3e3913b3	0.18073921
85	0x3a4b4ab5	0.00077549677
86	0x3e66d41c	0.22541851
87	0x3e25add3	0.1617959
88	0xbe2f6504	-0.17128378
89	0xbe62abd4	-0.2213586
90	0xbdf670e7	-0.12033253
91	0xbcb2065d	-0.02173155
92	0x3e4a6eb1	0.19768788
93	0xbd1ac7ce	-0.037788205
94	0xbcdb79ec	-0.026791535
95	0xbda675c8	-0.08127934
96	0x3ba44105	0.0050126337
97	0x3d601178	0.05470416
98	0x3e094742	0.13406089
99	0xbe649a6b	-0.22324531
100	0xbe6e25f5	-0.23256667
101	0x3d47e9ca	0.048806943
102	0xbd9ef504	-0.07761577
103	0x3cc78dec	0.024359666
104	0xbe2eb348	-0.17060578
105	0xbe00a52e	-0.12563011
106	0xbe45de1d	-0.1932301
107	0xbcdc880e	-0.026920345
108	0x3deacd75	0.11464969
109	0xbd898895	-0.06715504
110	0x3ddafc9d	0.106927134
111	0x3e5511ee	0.20807621
112	0xbe3ddca7	-0.18541203
113	0xbdd3a82a	-0.10334809
114	0xbe255a4d	-0.16147728
115	0xbd8b7503	-0.068094276
116	0xbdb6072e	-0.08888088
117	0x3db0edec	0.0863913
118	0x3e421146	0.18951902
119	0x3e1e8f3c	0.15484327
120	0xbe5cf3b7	-0.21577345
121	0x3e032111	0.12805583
122	0x3e44a9ef	0.1920545
123	0xbe314e64	-0.1731506
124	0x3e706e4c	0.23479575
125	0xbe13160f	-0.14363883
126	0xbe409bea	-0.18809476
127	0xbcc30fa9	-0.023811178
128	0xbde6c371	-0.11267746
129	0xbdf2d1f7	-0.11856454
130	0x3e4e3de3	0.20140795
131	0xbd8aebf1	-0.067832835
132	0xbd06b1aa	-0.032884277
133	0xbe3e9009	-0.18609633
134	0x3d1ec0c2	0.038758047
135	0xbe09bfd2	-0.1345208
136	0xbe03f282	-0.12885478
137	0x3e4f244d	0.20228691
138	0xbdb427e8	-0.08796674
139	0x3e466371	0.19373871
140	0x3d5d45f1	0.05402178
141	0x3e2efe49	0.1708919
142	0xbd528929	-0.051400337
143	0x3e14684e	0.14492914
144	0x3e4ec8a6	0.20193729
145	0x3de11d9d	0.109919764
146	0xbdce531d	-0.10074446
147	0xbdb7a630	-0.089672446
148	0xbe4d5de9	-0.20055355
149	0xbe2c9676	-0.16854271
150	0xbc63e5a5	-0.013909732
151	0x3e6d11dd	0.23151346
152	0xbd9a6969	-0.07539637
153	0x3ddea389	0.108710356
154	0x3e5112e1	0.20417358
155	0xbe598d0d	-0.21245213
156	0xbe152cb5	-0.14567836
157	0x3df9a33b	0.12189337
158	0xbe6ab38a	-0.22920051
159	0x3db3142a	0.0874408
160	0xbb36a99c	-0.002787209
161	0xbd60a009	-0.05484012
162	0x3cfbbe9b	0.030730536
163	0xbe4d47d6	-0.20046934
164	0xbd97abe8	-0.074058354
165	0xbc8e24e7	-0.01735158
166	0x3e275553	0.16341142
167	0x3e6f6c73	0.23381214
168	0x3e0a615d	0.13513704
169	0x3e435a7d	0.19077487
170	0x3dcf070a	0.101087645
171	0x3e11b56b	0.14229362
172	0x3de648e3	0.11244371
173	0x3d0a711d	0.03379928
174	0x3d28f872	0.04125256
175	0x3e6db41f	0.23213242
176	0x3c1dab7a	0.009623403
177	0x3e793331	0.24335934
178	0xbe6324f6	-0.22182068
179	0xbe2cd387	-0.16877566
180	0x3dddf68b	0.1083804
181	0xbe01ccb6	-0.12675747
182	0x3e302341	0.17200948
183	0xbe6e76a8	-0.23287451
184	0xbe7c09f9	-0.2461318
185	0xbde7af6f	-0.11312758
186	0xbdbdd3b4	-0.09268895
187	0x3e2615c9	0.16219248
188	0xbe6773b3	-0.2260273
189	0x3e38e725	0.18056925
190	0xbe6c68ad	-0.23086806
191	0x3d56273f	0.05228352
192	0xbe736971	-0.23770691
193	0xbe6478d5	-0.22311719
194	0xbd577fbe	-0.05261206
195	0xbe521d8d	-0.20519085
196	0xbe040939	-0.12894143
197	0xbe7be433	-0.2459877
198	0x3e314891	0.17312838
199	0xbdbcc9a8	-0.092181504
200	0xbcac08ae	-0.021000233
201	0xbdc1bf8c	-0.09460363
202	0xbd50a5fd	-0.05093955
203	0x3e53e438	0.20692527
204	0x3e29df99	0.16589202
205	0xbdfd8d1b	-0.12380429
206	0xbdd824a6	-0.10553865
207	0x3e308dc9	0.17241587
208	0x3d9791db	0.074008666
209	0xbe675e4b	-0.22594564
210	0xbe71684a	-0.2357494
211	0xbd0a134c	-0.03370981
212	0x3e003545	0.1252032
213	0x3d6f0aec	0.058360025
214	0x3d69a2a5	0.057039876
215	0xbe4b026f	-0.19825147
216	0x3c9587ff	0.018253325
217	0x3e07a2f7	0.1324576
218	0xbe27f0d4	-0.16400462
219	0xbdd3eaf6	-0.103475496
220	0x3db85415	0.090004124
221	0xbe00ec4c	-0.1259014
222	0x3e27406b	0.16333167
223	0xbd48fa69	-0.049066935
224	0xbe70737a	-0.23481551
225	0x3db18c8e	0.08669387
226	0xbe3d6b62	-0.18497995
227	0x3e786455	0.24257024
228	0x3d0f1af2	0.034937806
229	0x3e028781	0.12747003
230	0x3e2adcf6	0.16685852
231	0x3d24f25b	0.04027019
232	0x3e2c4b21	0.16825534
233	0xbe1d15f6	-0.15340409
234	0x3e27cac8	0.16385949
235	0xbe2d26d4	-0.16909343
236	0xbe33f42b	-0.17573611
237	0xbe7a2b3c	-0.24430555
238	0xbd5c9491	-0.05385262
239	0xbe25f0de	-0.16205165
240	0xbe5e3e37	-0.2170342
241	0xbe68d146	-0.22736081
242	0x3dadf582	0.084940925
243	0xbe153ef1	-0.14574791
244	0x3e26c9e9	0.1628796
245	0x3e6aaae6	0.22916755
246	0x3e1deb1d	0.1542172
247	0xbd84494f	-0.06459295
248	0x3e24f8de	0.1611056
249	0xbd857bf8	-0.06517786
250	0xbe1c20a9	-0.15246834
251	0x3da4c28f	0.080449216
252	0xbd12ec7a	-0.035870053
253	0x3ddd4eeb	0.10806068
254	0xbe3ef9de	-0.18650004
255	0x3e660dec	0.22466248

weight_hh_l0 f4 [48, 16]
0	0xbdbeaded	-0.093105175
1	0xbe0e0663	-0.13869624
2	0xbe38057b	-0.1797084
3	0x3e4702a2	0.19434598
4	0x3d704257	0.058657017
5	0xbd546cf0	-0.051861703
6	0x3dcc6d1c	0.099817485
7	0x3e504c67	0.20341645
8	0xbe75c5b5	-0.240012
9	0xbe5686d9	-0.20949878
10	0xbe4c06b6	-0.19924435
11	0xbe3b274f	-0.18276714
12	0xbd961afa	-0.07329364
13	0x393793a7	0.00017507245
14	0xbddb2497	-0.10700338
15	0xbe7c1de0	-0.24620771
16	0xbd889053	-0.06668153
17	0xbddfb314	-0.10922828
18	0x3e3ed4fb	0.18635933
19	0x3dfac60d	0.122448064
20	0x3e0a7621	0.13521625
21	0xbe7730c6	-0.241397
22	0x3e07c1ef	0.13257574
23	0xbe11911d	-0.14215513
24	0x3d78486f	0.060615953
25	0x3d6cb881	0.057793144
26	0xbd5cf573	-0.053945016
27	0xbaab89ae	-0.0013087296
28	0x3e31c81d	0.17361493
29	0xbe0fadd2	-0.14031151
30	0xbd9191b2	-0.07107867
31	0xbe4ad7bf	-0.19808863
32	0xbdddfc6f	-0.108391635
33	0xbdcf6855	-0.10127322
34	0x3da6de75	0.08147899
35	0x3e4fc9a1	0.20291759
36	0xbe4d9a7a	-0.2007846
37	0xbe1cdbed	-0.1531827
38	0xbcabb96f	-0.020962445
39	0xbe2a9d09	-0.16661467
40	0xbd9e8dbc	-0.077418774
41	0x3c6c0d61	0.014407487
42	0xbe72b6e3	-0.23702578
43	0x3d88bc6d	0.06676564
44	0xbd55ec93	-0.052227568
45	0x3e58f576	0.21187386
46	0x3c2119bc	0.009832796
47	0xbe55e0fa	-0.20886603
48	0x3e5e47be	0.21707055
49	0x3c733205	0.014843469
50	0xbd7f99ca	-0.062402524
51	0xbe092dd9	-0.13396396
52	0x3e37c58b	0.1794645
53	0x3de6f4d1	0.11277164
54	0x3e7c4396	0.24635157
55	0x3c0984e2	0.008393498
56	0x3d4db4a2	0.050221093
57	0xbd833299	-0.06406135
58	0x3d28e9b6	0.04123851
59	0x3e320339	0.17384042
60	0xbe3bc347	-0.18336211
61	0xbe7932d6	-0.24335799
62	0xbd9b4c71	-0.075829394
63	0xbd976400	-0.0739212
64	0xbca6fda4	-0.020384617
65	0x3e401450	0.18757749
66	0xbe5c2482	-0.21498302
67	0xbe120d57	-0.14262901
68	0x3db26bff	0.08712005
69	0xbe5a014f	-0.21289562
70	0xbd968c72	-0.073510066
71	0x3dfcd67e	0.12345599
72	0xbe0efbd6	-0.13963255
73	0xbe35149c	-0.17683643
74	0xbd1d7565	-0.038442034
75	0x3e502daa	0.2032992
76	0xbd50f503	-0.05101491
77	0x3e05d5a4	0.13069779
78	0x3d67148f	0.05641609
79	0x3d74302b	0.05961625
80	0xbe41f916	-0.18942675
81	0x3e04e8ee	0.1297948
82	0xbe2a7121	-0.16644718
83	0xbdd82541	-0.105539806
84	0x3cafd3b8	0.02146326
85	0xbe45a785	-0.19302185
86	0xbe511406	-0.20417795
87	0xbbf0b287	-0.007345501
88	0xbdba1a27	-0.090870194
89	0x3e4340a3	0.19067626
90	0x3e798919	0.24368705
91	0xbe57a141	-0.21057607
92	0x3e7d8a5d	0.24759813
93	0x3e6ad4b2	0.229327
94	0xbdc64229	-0.09680588
95	0xbdb5ae1c	-0.08871099
96	0xbe76654b	-0.24062078
97	0x3df1b52b	0.11802133
98	0xbe547ca5	-0.20750673
99	0x3e4ef423	0.20210318
100	0x3e6af9ed	0.22946902
101	0xbe788a12	-0.2427142
102	0xbe6bbe6e	-0.23021862
103	0x3e3f4fb8	0.18682754
104	0xbd0f7d2f	-0.035031494
105	0xbe652d87	-0.22380649
106	0xbe55bf31	-0.20873715
107	0x3e621dfc	0.2208175
108	0x3cbed933	0.023296928
109	0xbe4d729b	-0.2006325
110	0xbd30fbbc	-0.043208823
111	0xbe1ecbe4	-0.15507466
112	0x3e13ad38	0.14421546
113	0xbdbdfa29	-0.0927623
114	0xbe72b4a7	-0.23701726
115	0xbc0664fe	-0.008202789
116	0xbd609dff	-0.054838177
117	0x3d26323e	0.04057526
118	0x3d08ca55	0.033396084
119	0x3e5133c7	0.20429908
120	0xbd4eebee	-0.05051797
121	0xbe590810	-0.21194482
122	0xbd55b122	-0.05217088
123	0xbc3ecdd0	-0.011645749
124	0xbdbf5d75	-0.093439974
125	0xbe127108	-0.1430093
126	0xbdefa858	-0.11702031
127	0x3c9fa856	0.019489449
128	0x3c95a04f	0.018264918
129	0x3d11f332	0.03563232
130	0x3dbd804f	0.092529885
131	0xbdb32caa	-0.08748753
132	0xbe6b4574	-0.22975713
133	0xbd9a5d8e	-0.075373754
134	0x3e63f0ce	0.22259828
135	0xbe2b62f4	-0.16736966
136	0x3d08687b	0.033302765
137	0xbdc352e9	-0.09537298
138	0x3e1fec3a	0.15617457
139	0xbe4f527f	-0.20246314
140	0x3e3cfafc	0.18455118
141	0x3e3f8a00	0.18704987
142	0xbe432a08	-0.19059002
143	0xbe647cdd	-0.22313257
144	0xbd16c396	-0.03680762
145	0xbe7b14b2	-0.24519613
146	0xbcb0d195	-0.021584312
147	0xbd5bd33d	-0.05366825
148	0x3d970d1d	0.07375548
149	0xbd2dd226	-0.04243674
150	0x3dd27533	0.1027626
151	0x3e715749	0.23568453
152	0x3e7cdee7	0.24694405
153	0x3ddc1547	0.10746246
154	0xbe25e25f	-0.16199635
155	0xbe1a2c8c	-0.15056056
156	0xbcd633a7	-0.026147677
157	0xbdeb44b7	-0.11487716
158	0x3de13b73	0.10997667
159	0xbd07f0b0	-0.03318852
160	0xbd8dacc0	-0.06917715
161	0xbe7d2b1e	-0.24723479
162	0xbdcff9bf	-0.10155057
163	0x3dfa94f3	0.12235441
164	0xbe8055b1	-0.25065377
165	0xbe347659	-0.17623271
166	0xbe50ee3f	-0.20403384
167	0xbdd2e7df	-0.10298132
168	0xbe1c0a70	-0.15238357
169	0x3df21be2	0.118217245
170	0x3e5d48a2	0.21609738
171	0xbd3d3546	-0.046193384
172	0x3e59cfe6	0.21270713
173	0xbe1332d5	-0.1437486
174	0xbe665c52	-0.22496155
175	0xbbc2c60f	-0.0059440206
176	0x3ccc1c88	0.024915949
177	0xbe7db8b6	-0.24777493
178	0xbe3ef1e4	-0.18646961
179	0x3e15d707	0.14632808
180	0xbdaca6f3	-0.084302805
181	0x3e5451e0	0.20734358
182	0xbcfd5858	-0.030925915
183	0xbdb9319e	-0.09042667
184	0xbcaba603	-0.020953184
185	0xbd97b33a	-0.07407232
186	0x3e5d0134	0.2158249
187	0xbdfb0598	-0.12256926
188	0x3e7c6007	0.24646007
189	0xbe31c525	-0.17360361
190	0x3e78293d	0.24234481
191	0x3b7ea476	0.003885535
192	0xbcead713	-0.028667009
193	0xbc199582	-0.009374024
194	0xbd4e9288	-0.05043271
195	0x3e7cf314	0.24702102
196	0xbd93a06a	-0.07208331
197	0xbe7d5365	-0.24738844
198	0xbc959096	-0.01825742
199	0x3d4f09cb	0.05054645
200	0x3e70391d	0.23459287
201	0x3e22ed2a	0.15910783
202	0x3db782e1	0.0896051
203	0xbe2da197	-0.16956173
204	0xbe783147	-0.24237548
205	0x3e3e2862	0.18570092
206	0xbde19026	-0.11013822
207	0x3db8f399	0.090308376
208	0x3d1a1f95	0.037627775
209	0xbd2bf181	-0.041978363
210	0x3e3ca2b0	0.18421435
211	0xbe474611	-0.19460322
212	0x3dc06f2f	0.093962066
213	0x3e209b6b	0.15684287
214	0xbe7afee3	-0.24511294
215	0x3db588cb	0.08863982
216	0x3e6d4d30	0.23173976
217	0xbe4dc3fd	-0.20094295
218	0x3e2586f2	0.16164759
219	0xbd81d263	-0.06338956
220	0xbd85e88e	-0.06538497
221	0xbca994f7	-0.020700915
222	0xbe367396	-0.1781753
223	0xbe2fb83c	-0.17160124
224	0x3e36785c	0.17819351
225	0xbd04062d	-0.032232452
226	0x3d563346	0.052294992
227	0xbe39c00c	-0.18139666
228	0xbe3cd2c7	-0.1843978
229	0x3e082da2	0.13298658
230	0xbdff8b73	-0.1247777
231	0x3e2789a0	0.16361094
232	0x3bd08572	0.006363564
233	0x3c8317de	0.016002592
234	0x3e42553e	0.1897783
235	0x3db38a76	0.08766644
236	0xbe431bd6	-0.19053587
237	0x3e742786	0.23843202
238	0x3db78569	0.08960993
239	0xba22451d	-0.0006190108
240	0x3dbe04d7	0.09278267
241	0xbdf1e3c2	-0.118110195
242	0xbe1221f4	-0.14270765
243	0xbe105373	-0.14094333
244	0xbdf6e552	-0.12055458
245	0xbda8edd9	-0.08248491
246	0x3db619e6	0.088916585
247	0xbd3fb578	-0.04680392
248	0x3dbccb0d	0.09218416
249	0x3d0b15f0	0.033956468
250	0xbe4d053c	-0.20021528
251	0x3e60b066	0.2194229
252	0xbe692d9b	-0.22771303
253	0xbe5cad3f	-0.21550463
254	0xbad83702	-0.0016495886
255	0xbdb3a471	-0.08771599

bias_ih_l0 f4 [48]
0	0x3e13ced6	0.1443437
1	0x3dd6d265	0.10489348
2	0x3dc6c62c	0.09705767
3	0x3ddbf525	0.10740117
4	0xbdc17114	-0.09445396
5	0x3db614e2	0.08890702
6	0x3e4628fd	0.19351573
7	0x3d88996d	0.06669889
8	0xbe330944	-0.17484003
9	0xbe462719	-0.19350852
10	0xbe1d9d11	-0.15391947
11	0x3e79a246	0.24378309
12	0x3e4b1796	0.19833216
13	0x3e53478a	0.20632759
14	0x3de31aba	0.11089082
15	0xbdd05abe	-0.10173558
16	0xbe257db9	-0.1616124
17	0xbd982c58	-0.07430333
18	0xbdd95fd7	-0.10613983
19	0xbe07c543	-0.13258843
20	0x3da3a051	0.07989562
21	0xbe1417a3	-0.14462142
22	0x3e289e5a	0.16466656
23	0xbc8014de	-0.01563495
24	0xbe8057a9	-0.2506688
25	0xbe6fd39e	-0.2342057
26	0x3e7b9bce	0.24571154
27	0xbe797c7e	-0.24363896
28	0xbe73c9b8	-0.23807418
29	0xbe60b77b	-0.21944992
30	0xbe7d6ed6	-0.24749312
31	0x3e703f4a	0.23461643
32	0xbe3b6d4f	-0.18303417
33	0x3e72a6b1	0.236964
34	0xbe2c1082	-0.16803172
35	0x3e6c7d84	0.23094755
36	0xbdbca755	-0.092116036
37	0x3d0a93aa	0.03383223
38	0xbcf21435	-0.029550651
39	0x3dbd0fc3	0.09231522
40	0x3e0c361a	0.13692513
41	0xbd398b47	-0.04529884
42	0xbe2066e8	-0.15664256
43	0x3dc1aa17	0.0945627
44	0x3e499786	0.19686708
45	0x3e260659	0.16213359
46	0xbe048f57	-0.12945305
47	0xbe30b68e	-0.17257139

bias_hh_l0 f4 [48]
0	0x3e7e896b	0.24857108
1	0xbcde4bfb	-0.02713584
2	0x3dcb3dc0	0.09923887
3	0x3e7d8d28	0.24760878
4	0x3cc0f912	0.023556266
5	0x3d31159e	0.043233506
6	0x3ce5391d	0.027981335
7	0xbd74ca1d	-0.059763063
8	0x3df47094	0.11935535
9	0xbe379f12	-0.17931774
10	0x3dd0f4cd	0.10202942
11	0xbd9d7885	-0.07689003
12	0x3e0d5b3e	0.13804337
13	0xbd564bae	-0.052318268
14	0xbe185e77	-0.14879785
15	0x3d08c4be	0.033390753
16	0xbd59c941	-0.053170446
17	0x3e43238b	0.19056527
18	0x3e1a6e90	0.15081239
19	0x3d5007a1	0.050788525
20	0x3da56539	0.08075947
21	0x3e7fcd03	0.2498055
22	0xbd5226e6	-0.051306628
23	0x3e42f864	0.19040066
24	0xbd8eed07	-0.06978803
25	0xbce45b74	-0.02787564
26	0x3db09839	0.08622784
27	0xbe29c519	-0.16579093
28	0x3da5ccfb	0.080957375
29	0x3cc631df	0.024193702
30	0xbd7e0582	-0.06201697
31	0xbc1aee17	-0.009456179
32	0xbe238c3f	-0.15971468
33	0xbe6102fd	-0.21973796
34	0x3dd3b824	0.103378564
35	0xbd41d986	-0.047326587
36	0xbe6b655a	-0.22987881
37	0x3dec631a	0.115423396
38	0x3e113eaa	0.1418406
39	0xbc24e657	-0.010064683
40	0xbe55d010	-0.20880151
41	0xbad1fe86	-0.0016021288
42	0xbd913dab	-0.0709184
43	0xbdd6b970	-0.10484588
44	0x3d979240	0.07400942
45	0x3e0e3970	0.13889098
46	0xbe6124e9	-0.21986736
47	0x3e33cc52	0.17558411

weight_ih_l0 f4 [48, 36]
0	0xbd87c141	-0.06628657
1	0xbe674cc4	-0.22587878
2	0xbdf55828	-0.11979705
3	0xbd93bd99	-0.07213897
4	0xbc1dc6ed	-0.009629947
5	0xbe783f3d	-0.24242873
6	0xbe5e545d	-0.2171187
7	0xbdea6699	-0.1144535
8	0xbe42be28	-0.19017851
9	0x3d0f47a7	0.034980442
10	0xbe2b8308	-0.16749203
11	0xbc9305d0	-0.017947108
12	0xbcf6b83d	-0.030117149
13	0xbe746918	-0.23868215
14	0xbe63ebd1	-0.22257926
15	0xbdd869f6	-0.105670854
16	0xbe50c2e7	-0.2038685
17	0xbe76b32a	-0.24091783
18	0xbe6f9ae5	-0.23398931
19	0xbbf6a9cf	-0.007527567
20	0x3e23ec32	0.1600807
21	0x3e00e06f	0.12585615
22	0xbdb02c31	-0.08602179
23	0xbe372211	-0.17884089
24	0xbc412165	-0.011787747
25	0x3e1e9929	0.15488113
26	0x3e50ddbf	0.2039709
27	0x3e429188	0.19000828
28	0x3e4dae4a	0.20086017
29	0xbdf797dd	-0.120895125
30	0x3dae9a74	0.08525553
31	0xbe6d24f4	-0.23158628
32	0x3d963126	0.07333593
33	0xbd332660	-0.04373777
34	0xbd3d1255	-0.04616006
35	0x3e16ba55	0.14719518
36	0xbd1e5c91	-0.038662497
37	0xbe3bec8b	-0.18351953
38	0xbe28e615	-0.1649402
39	0x3e75ccd6	0.2400392
40	0xbe461760	-0.19344854
41	0xbd97b56c	-0.0740765
42	0xbdea2b20	-0.11434007
43	0xbe23d824	-0.1600042
44	0xbe274814	-0.1633609
45	0x3dfbedc8	0.123012125
46	0xbe489b0e	-0.19590399
47	0x3e601d82	0.21886256
48	0xbe5a38c6	-0.2131072
49	0x3d714954	0.05890782
50	0xbcbcf9e5	-0.023068378
51	0x3c3111c5	0.010807459
52	0xbe3e2041	-0.18566991
53	0xbe0f6979	-0.14005078
54	0x3c9f4f49	0.019446986
55	0xbe1226f6	-0.14272675
56	0xbdc2a0c1	-0.095033176
57	0xbdd3e89a	-0.103470996
58	0xbda49771	-0.08036698
59	0xbe176eaa	-0.14788309
60	0xbd189e4e	-0.037260346
61	0xbd18682f	-0.037208732
62	0x3e42826f	0.18995069
63	0xbdf73059	-0.120697685
64	0xbdb4c809	-0.08827216
65	0xbe01d214	-0.12677795
66	0xbdf2f7dd	-0.118636824
67	0x3e29555f	0.16536473
68	0xbe48a3b6	-0.19593701
69	0xbe59cf7e	-0.21270558
70	0xbdef025d	-0.11670373
71	0xbe659046	-0.22418317
72	0xbe114597	-0.14186703
73	0x3e7c9c9d	0.24669118
74	0xbe467ee0	-0.19384336
75	0xbd998cf2	-0.07497586
76	0x3de43ab9	0.11144013
77	0xbe429867	-0.1900345
78	0x3e046787	0.12930118
79	0xbdd22777	-0.102614336
80	0xbe0735a2	-0.13204053
81	0xbe458d77	-0.19292246
82	0x3e3058e7	0.17221414
83	0xbe501023	-0.20318656
84	0x3cc6052a	0.024172384
85	0x3d4a6dbd	0.04942106
86	0xbd85de90	-0.06536591
87	0xbcdcec91	-0.026968272
88	0x3db6caa0	0.089253664
89	0x3deaecb0	0.11470926
90	0xbe070f90	-0.1318953
91	0xbc310d9b	-0.010806466
92	0xbc4f6712	-0.012658851
93	0xbd0a84c5	-0.033818025
94	0xbe720ca7	-0.23637639
95	0x3e11bdf4	0.14232618
96	0xbdb30c1b	-0.08742543
97	0xbe1a4d1f	-0.15068482
98	0xbe72a2da	-0.23694935
99	0xbda81aa4	-0.08208206
100	0xbd6468f5	-0.055764157
101	0x3e35917e	0.17731282
102	0xbe28d1a9	-0.16486229
103	0x3e598d9c	0.21245426
104	0xbd870f4e	-0.06594716
105	0x3ddd9547	0.10819488
106	0x3e57c9ef	0.21073125
107	0xbe420fba	-0.18951312
108	0x3e133782	0.14376643
109	0xbe35ef9c	-0.17767185
110	0xbe72b141	-0.2370043
111	0x3e02f3d0	0.1278832
112	0x3dbaf08b	0.09127911
113	0xbd17a305	-0.037020702
114	0xbe35e242	-0.17762092
115	0x3d819eb5	0.06329099
116	0x3e0d4137	0.13794409
117	0x3e273559	0.16328944
118	0xbbae120d	-0.0053122104
119	0x3df83891	0.12120164
120	0xbcdfc048	-0.027313367
121	0x3e0709ce	0.13187334
122	0x3e6a17ba	0.22860613
123	0x3dbc8d5c	0.0920665
124	0x3e688012	0.22705105
125	0xbe54ae77	-0.20769678
126	0xbdc038d4	-0.09385839
127	0x3e080657	0.13283668
128	0xbdb3092a	-0.08741982
129	0xbd2e1fc3	-0.04251076
130	0xbe40452e	-0.1877639
131	0x3b73ed11	0.003722016
132	0x3cb93d92	0.022612367
133	0x3c9e685a	0.019336868
134	0xbdbcf006	-0.09225468
135	0x3d5fc76f	0.054633554
136	0xbe65f7a7	-0.22457753
137	0x3e3e6592	0.18593433
138	0x3e45fcba	0.19334689
139	0xbdc4437d	-0.09583185
140	0x3e34a3f8	0.17640674
141	0x3df2688a	0.118363455
142	0xbe5d8e16	-0.21636233
143	0x3e75ccbf	0.24003886
144	0xbdbd379a	-0.09239121
145	0xbe7b3020	-0.24530077
146	0x3de60a1a	0.112323955
147	0xbdd66a30	-0.104694724
148	0xbdfbb9a1	-0.12291265
149	0x3c6770c4	0.0141260065
150	0xbe43832e	-0.1909301
151	0x3e141d61	0.14464332
152	0xbd50b706	-0.050955795
153	0x3e71893b	0.23587506
154	0xbe5ff356	-0.21870169
155	0xbd2170bc	-0.039414153
156	0x3d944da5	0.07241372
157	0x3e183d7a	0.14867201
158	0xb9b9acb9	-0.00035414638
159	0x3dddc090	0.10827744
160	0xbe2a93dd	-0.16657968
161	0xbe7b470f	-0.24538825
162	0x3e07e1f8	0.13269794
163	0xbe3badc1	-0.18328
164	0xbe36f8f1	-0.17868401
165	0xbdb59229	-0.088657685
166	0x3e70c3cb	0.23512189
167	0xbddf9bad	-0.10918365
168	0x3b5aa989	0.003336521
169	0xbe2b710d	-0.16742344
170	0x3e2f5985	0.17123993
171	0xbe5c01da	-0.21485081
172	0x3e0b1478	0.13582027
173	0x3e598d84	0.2124539
174	0xbe165952	-0.1468251
175	0xbe41fd64	-0.18944317
176	0x3bb83418	0.0056214444
177	0x3d213f5e	0.039367072
178	0xbe1e0dfd	-0.15435024
179	0x3e282f3f	0.16424273
180	0x3e606022	0.21911672
181	0x3d6d4438	0.057926387
182	0x3d370bde	0.04468905
183	0xbe5aed09	-0.21379484
184	0x3e2b6ea5	0.16741426
185	0xbbca93fc	-0.006182192
186	0x3e63aecd	0.2223465
187	0xbe2ece18	-0.17070806
188	0x3e4fee56	0.20305762
189	0x3d66fb95	0.05639227
190	0x3e56d916	0.20981249
191	0x3d270c5a	0.040783264
192	0x3e2a096f	0.16605161
193	0xbd9c3a75	-0.07628337
194	0xbe67e790	-0.22646928
195	0xbce2d34d	-0.027688647
196	0x3e27c0ba	0.16382113
197	0xbe4ce59f	-0.20009468
198	0x3e3bf122	0.18353704
199	0x3e48c7e2	0.19607499
200	0xbdb0358d	-0.08603964
201	0x3e005963	0.12534098
202	0xbd3a4460	-0.045475364
203	0x3e098771	0.13430573
204	0x3e0f505e	0.13995501
205	0xbe6e6189	-0.23279394
206	0x3e1516c0	0.1455946
207	0x3def5a59	0.11687154
208	0xbe0611b8	-0.13092697
209	0x3d87df27	0.0663436
210	0x3d564fbd	0.052322138
211	0x3e520c0f	0.20512412
212	0x3dc91939	0.09819264
213	0x3c8259fd	0.01591205
214	0x3e3ccfe7	0.18438683
215	0x3e0a8aa2	0.13529447
216	0xbcf90aea	-0.030400712
217	0xbe72634a	-0.23670688
218	0x3e5f7172	0.2182062
219	0xbd7d55c3	-0.061849367
220	0xbde02336	-0.10944216
221	0xbd3d8bc5	-0.046275873
222	0xbd1c4f85	-0.038161773
223	0xbd38abac	-0.045085594
224	0xbdc53611	-0.09629453
225	0x3d92b015	0.07162491
226	0xbd38b00b	-0.045089763
227	0xbcb089c4	-0.021550067
228	0x3e2e1492	0.17000034
229	0x3e575c96	0.21031412
230	0xbd7992cb	-0.06093101
231	0xbe306203	-0.17224889
232	0xbe06ba26	-0.13156947
233	0xbcb21c26	-0.021741938
234	0x3e3dbdeb	0.18529479
235	0x3e5b180a	0.21395889
236	0xbe67b408	-0.2262727
237	0xbc7ce529	-0.015435495
238	0x3d70c42e	0.05878084
239	0x37f2ee9c	2.895976e-05
240	0xbcf0cdb7	-0.029394967
241	0x3cfafcca	0.030638117
242	0xbbf8cd53	-0.007592836
243	0x3d02c809	0.03192905
244	0x3cf58fd0	0.029975802
245	0xbe123efd	-0.1428184
246	0xbcef127a	-0.029183615
247	0xbe339a0d	-0.17539234
248	0xbe71df72	-0.23620394
249	0xbe108d0e	-0.14116308
250	0x3e2e8a8c	0.17045039
251	0x3d3ce601	0.046117786
252	0xbd5503e4	-0.052005664
253	0x3d1c054b	0.038090985
254	0xbdcddb75	-0.10051624
255	0xbdb5bfa1	-0.08874441

weight_hh_l0 f4 [48, 16]
0	0x3e473cf5	0.19456847
1	0x3d38c54d	0.045110036
2	0x3d2ee61c	0.04269992
3	0xbe20a8cc	-0.15689391
4	0xbd0ffc9b	-0.035153013
5	0x3ddd5c6e	0.10808645
6	0xbe14905a	-0.14508191
7	0xbe3d0386	-0.18458375
8	0xbe23d83f	-0.1600046
9	0xbe56a16b	-0.20960014
10	0xbe15517d	-0.14581867
11	0x3dce364e	0.100689515
12	0x3c7da64a	0.015481541
13	0x3d22c478	0.03973815
14	0xbcbf7e5f	-0.023375688
15	0xbe63e2de	-0.22254512
16	0xbe7af471	-0.2450731
17	0x3df1a153	0.11798348
18	0x3bea7e5e	0.0071561774
19	0xbe42a560	-0.19008398
20	0x3d7feb61	0.062480334
21	0x3e0a5f2d	0.13512869
22	0x3d077bab	0.033076923
23	0x3e12a2b4	0.14319879
24	0xbd939603	-0.07206347
25	0x3e60de4c	0.219598
26	0x3e27291e	0.16324279
27	0xbd690f1e	-0.056899182
28	0xbe05e663	-0.13076167
29	0xbd040308	-0.032229453
30	0x3e4c6f6a	0.19964376
31	0x3db4beea	0.088254765
32	0xbce32fbe	-0.027732726
33	0xbe2a5ada	-0.1663622
34	0x3da4e4dd	0.08051465
35	0xbd99e928	-0.07515174
36	0x3ddc50f3	0.10757627
37	0xbdc3002b	-0.095215164
38	0xbdd9127a	-0.10599227
39	0x3e542b27	0.20719586
40	0x3e0ea370	0.13929534
41	0xbe2232ea	-0.15839735
42	0xbe46e0c5	-0.1942168
43	0xbd42afe9	-0.047531042
44	0xbe047d96	-0.12938532
45	0x3e085669	0.13314213
46	0xbdf5e02a	-0.120056465
47	0xbcad7046	-0.0211717
48	0x3e175866	0.14779815
49	0x3e504426	0.20338497
50	0xbe7317d1	-0.23739554
51	0xbe0ede34	-0.13951951
52	0xbd43f9d0	-0.04784566
53	0x3d25bd02	0.040463455
54	0x3e546d2d	0.20744772
55	0x3e12b6d7	0.1432756
56	0xbe3ce6cf	-0.18447421
57	0x3d502f93	0.05082662
58	0x3e56b846	0.20968732
59	0xbdee352d	-0.11631236
60	0xbe6cafe9	-0.2311398
61	0x3dfa4b40	0.12221384
62	0x3e34db4b	0.17661779
63	0xbe5f3b80	-0.21800041
64	0xbd500cf1	-0.050793592
65	0xbd168d31	-0.036755744
66	0xbe0b9e66	-0.13634643
67	0xbd9eddd4	-0.07757154
68	0x3c2bcb31	0.010485456
69	0x3e45beeb	0.1931111
70	0xbae70e49	-0.0017628159
71	0x3e181694	0.14852363
72	0x3e06203a	0.13098231
73	0xbe315879	-0.17318906
74	0x3d774831	0.06037158
75	0x3e79e559	0.24403895
76	0x3d9ba95b	0.07600661
77	0xbe6724ee	-0.22572681
78	0x3e5ba157	0.21448265
79	0x3db3758c	0.08762655
80	0x3e3d0202	0.18457797
81	0xbda01bf0	-0.07817829
82	0x3dfd83fe	0.12378691
83	0x3df515b7	0.119670324
84	0xbe604617	-0.21901737
85	0xbe02f338	-0.12788093
86	0x3d13797d	0.036004532
87	0xbd74c6a8	-0.059759766
88	0xbe6ae9a1	-0.22940685
89	0x3df2fd91	0.1186477
90	0x3d178979	0.03699634
91	0x3e76c360	0.24097967
92	0xbd1587cc	-0.03650646
93	0xbdfb8743	-0.122816585
94	0xbe3abbcb	-0.182357
95	0xbdb941fa	-0.09045787
96	0x3e1b32a7	0.15156041
97	0xbddaef78	-0.10690206
98	0xbc1ae6de	-0.009454457
99	0xbd6c7d7e	-0.057736866
100	0xbdca1b4f	-0.0986849
101	0x3d598de5	0.053113837
102	0x3ce19846	0.02753843
103	0xbe24d2b3	-0.16096
104	0x3df63ea8	0.120236695
105	0x3e24f621	0.16109516
106	0x3decade2	0.11556603
107	0x3d989504	0.074502975
108	0xbd08ea14	-0.03342636
109	0xbdb122ec	-0.08649239
110	0x3d8e79be	0.06956814
111	0xbe0d3795	-0.13790734
112	0xbe2f9581	-0.17146875
113	0xbdeb4e8f	-0.11489593
114	0xbdd8d61f	-0.10587715
115	0xbd574244	-0.05255343
116	0xbc26f320	-0.010189801
117	0xbe15df89	-0.14636053
118	0x3dc3c033	0.095581435
119	0xbe390c50	-0.18071103
120	0x3e60a404	0.21937567
121	0xbe7269a5	-0.23673113
122	0x3dee5a7f	0.116383545
123	0x3d8c042c	0.06836733
124	0x3d3b71f3	0.045762967
125	0x3c022c95	0.0079451995
126	0x3d8629b7	0.06550925
127	0x3d3ef530	0.046620548
128	0x3df8f1d3	0.12155499
129	0x3d7119f7	0.058862653
130	0xbd0f9c07	-0.03506091
131	0x3dbee099	0.09320182
132	0x3e534a8b	0.20633905
133	0x3de81022	0.11331202
134	0x3c3a6a44	0.011377875
135	0xbe49a8de	-0.19693324
136	0x3cbba2a1	0.022904696
137	0xbe0e3a6a	-0.1388947
138	0xbe02bb24	-0.12766701
139	0xbe065e25	-0.13121851
140	0x3d72d7c2	0.059287794
141	0xbe0cf73c	-0.13766187
142	0x3e2f7302	0.17133716
143	0xbe2601f8	-0.16211689
144	0x3e714542	0.23561576
145	0x3dcfdae4	0.10149172
146	0x3e466112	0.19372967
147	0x3e2fb74c	0.17159766
148	0xbe096990	-0.13419175
149	0xbe717201	-0.23578645
150	0xbcc607bc	-0.02417361
151	0xbe7190b6	-0.23590359
152	0xbe04158b	-0.12898843
153	0x3e34f434	0.17671281
154	0x3e3824f9	0.17982854
155	0x3e264980	0.16238976
156	0x3e737f73	0.23779087
157	0x3e6b3801	0.22970583
158	0xbe1e5a4e	-0.15464136
159	0x3e70aacc	0.23502654
160	0x3e4689b5	0.19388469
161	0xbe535a95	-0.20640023
162	0xbe233caa	-0.1594111
163	0xbc12541c	-0.008931186
164	0x3dba5a3e	0.090992436
165	0x3ce5cca6	0.028051686
166	0x3d03c001	0.03216553
167	0x3e548372	0.20753267
168	0x3e527c50	0.20555234
169	0x3e4b4cf0	0.19853568
170	0xbdd2b47f	-0.10288333
171	0x3d83a581	0.06428052
172	0x3e6d0713	0.2314723
173	0xbe768cb5	-0.24077113
174	0x3d3473dc	0.044055805
175	0x3b595da3	0.0033167384
176	0x3d655de0	0.05599773
177	0xbe71bb5c	-0.23606628
178	0x3ce07bfc	0.02740287
179	0x3e5316f5	0.20614226
180	0xbe54761a	-0.20748177
181	0xbe6441b2	-0.22290686
182	0x3c3baedf	0.011455267
183	0x3ce6aa7b	0.028157463
184	0xbe4892d2	-0.19587258
185	0x3e18c12b	0.14917438
186	0x3e7166d9	0.2357439
187	0x3c8f1965	0.017468164
188	0xbdb73d16	-0.08947198
189	0xbde68006	-0.11254887
190	0x3c2b99e3	0.010473701
191	0x389a1525	7.347231e-05
192	0x3c2bbf74	0.010482658
193	0xbc82ceca	-0.015967745
194	0xbe1293b8	-0.14314163
195	0x3de7a85e	0.1131141
196	0x3e3e6d00	0.18596268
197	0x3aede514	0.0018149936
198	0x3d9fcb39	0.078024335
199	0xbdb23f59	-0.08703489
200	0x3c9aa1f9	0.018876063
201	0x3e3d76ec	0.18502396
202	0xbe7b5d9a	-0.24547425
203	0xbda7f40c	-0.08200845
204	0xbe5ac322	-0.213635
205	0xbe281554	-0.16414386
206	0x3e2a3bbe	0.16624352
207	0x3e5db546	0.21651182
208	0x3d9db1e6	0.07699947
209	0xbde24b9a	-0.11049576
210	0xbe0c6d69	-0.13713612
211	0x3d9dde0d	0.077083685
212	0xbe733033	-0.23748855
213	0xbe214688	-0.15749562
214	0xbe1fabf4	-0.15592939
215	0x3dcb4b37	0.099264555
216	0x3da6b668	0.0814026
217	0x3e04b767	0.12960587
218	0x3da9cc53	0.08290925
219	0xb9ade20c	-0.0003316555
220	0x3d82cdf4	0.06386939
221	0xbe250e62	-0.16118768
222	0xbe271c05	-0.16319282
223	0xbdfbb38d	-0.12290106
224	0x3e0dae76	0.13836083
225	0xbe5926e0	-0.21206236
226	0xbe3ec00d	-0.18627949
227	0xbd8267f2	-0.06367482
228	0xbe42282b	-0.18960635
229	0x3cfb6d0f	0.030691652
230	0x3e6a530a	0.2288324
231	0x3e4a4490	0.19752717
232	0x3dbb07d5	0.09132353
233	0x3e7f9807	0.24960338
234	0x3e6f68f3	0.23379879
235	0x3e57ef63	0.21087413
236	0xbe3d8134	-0.18506318
237	0x3e79f08d	0.24408169
238	0xbe561a93	-0.20908575
239	0x3e36c8b9	0.17850007
240	0x3e60d123	0.2195478
241	0xbe1873aa	-0.14887872
242	0xbdb29018	-0.0871889
243	0xbe261b8e	-0.16221449
244	0x3df5c6ee	0.120008335
245	0xbd2db1d5	-0.042405922
246	0xbde6c375	-0.11267749
247	0x3dc7bae8	0.097524464
248	0xbe3a1372	-0.1817148
249	0x3d8771d1	0.06613506
250	0xbe7bdcb2	-0.24595907
251	0xbde23555	-0.110453285
252	0x3d554eda	0.05207715
253	0x3d4ae3ad	0.049533535
254	0x3e0c9417	0.13728367
255	0x3dafe926	0.085893914

bias_ih_l0 f4 [48]
0	0x3e050772	0.12991121
1	0xbe473857	-0.19455086
2	0xbe5c8158	-0.21533716
3	0xbd773115	-0.060349543
4	0xbd3e30a1	-0.046433095
5	0xbe16a4b6	-0.1471127
6	0x3d6ccaf4	0.05781074
7	0xbd9a94a5	-0.07547883
8	0xbd086b80	-0.033305645
9	0x3de964b1	0.113961585
10	0xbda327a5	-0.07966546
11	0x3dade0e3	0.08490159
12	0xbd9444a9	-0.072396584
13	0xbe1d6a4c	-0.1537258
14	0xbe03ee13	-0.12883787
15	0x3ded7c35	0.11595956
16	0x3cc9b18b	0.024620792
17	0x3dedc8c7	0.11610561
18	0x3e337e0e	0.17528555
19	0xbbd1e67d	-0.00640565
20	0xbdc359f9	-0.09538645
21	0x3e727157	0.23676048
22	0xbe270054	-0.16308719
23	0x3ddc75cc	0.107646555
24	0x3db7f466	0.08982162
25	0xbe6607a8	-0.22463858
26	0xbe4dfd69	-0.201162
27	0x3e6faf9b	0.23406832
28	0x3dd8e551	0.10590614
29	0xbda5fc8d	-0.08104811
30	0x3d543051	0.05180389
31	0xbe2c4016	-0.16821322
32	0x3deac13a	0.11462636
33	0xbe507131	-0.20355679
34	0xbe48a745	-0.19595058
35	0x3d9c6eff	0.07638358
36	0xbdf88c85	-0.12136177
37	0x3e46024b	0.19336812
38	0xbe76e8f1	-0.24112298
39	0x3dfe6af5	0.12422744
40	0xbdeb6deb	-0.114955746
41	0x3d35a681	0.044348244
42	0xbc2c9ee9	-0.010535934
43	0x3e735ead	0.23766585
44	0xbe1cb4a5	-0.15303285
45	0xbe373356	-0.17890677
46	0xbe599c5d	-0.21251054
47	0x3defe916	0.117143795

bias_hh_l0 f4 [48]
0	0x3d900c71	0.07033623
1	0x3d47e6dd	0.048804153
2	0xbb0fc997	-0.0021940225
3	0x3daa6851	0.08320678
4	0x3e3be9dc	0.18350929
5	0xbe22b240	-0.1588831
6	0x3ae26087	0.0017271199
7	0x3db39627	0.08768874
8	0xbe125bb0	-0.14292789
9	0xbab4648d	-0.0013762877
10	0x3e14bf35	0.14526065
11	0x3d4b6d06	0.04966452
12	0xbd818593	-0.063243054
13	0xbd91912d	-0.07107768
14	0xbe2e5d65	-0.17027815
15	0x3e1c94dd	0.15291162
16	0x3e30264f	0.17202114
17	0xbe42e5fa	-0.19033042
18	0x3da0c39d	0.0784981
19	0xbd5f21b0	-0.054475486
20	0xbe401a4b	-0.1876003
21	0x3d099344	0.03358771
22	0xbe10781e	-0.14108321
23	0x3b92963b	0.0044734753
24	0xbb6888cb	-0.0035481926
25	0xbd6b889a	-0.05750332
26	0xbd50bbe3	-0.050960433
27	0xbe324523	-0.17409186
28	0xbcbe5cab	-0.023237547
29	0xbe6295d8	-0.22127473
30	0x3d55d849	0.05220822
31	0xbe2e9034	-0.17047197
32	0xbe29e37d	-0.16590686
33	0xbe1ae7bd	-0.15127464
34	0xbe569f35	-0.2095917
35	0x3e23efcd	0.16009445
36	0x3e237c4d	0.15965386
37	0xbdd80bef	-0.10549151
38	0xbe3e8f35	-0.18609317
39	0x3e654c5e	0.22392413
40	0x3dbaa271	0.091130145
41	0x3e2f2934	0.17105561
42	0x3ceae61f	0.028674183
43	0x3e25850a	0.16164032
44	0xbe10f191	-0.1415465
45	0xbd34bb88	-0.044124156
46	0xbe12bfda	-0.14330998
47	0xbc8a7105	-0.016899595

weight_ih_l0 f4 [3, 11]
0	0xbe67f131	-0.22650601
1	0x3e3dceda	0.18535939
2	0xbf3ef1c5	-0.7458766
3	0x3df8d479	0.12149901
4	0xbf330edc	-0.6994455
5	0x3efb4e0a	0.49082977
6	0x3ed25390	0.41079378
7	0xbe983b7b	-0.2973288
8	0xbf1c49c7	-0.61050075
9	0xbf5009ba	-0.8126484
10	0xbe5a853b	-0.21339886
11	0xbf7889fc	-0.9708555
12	0x3f2b32ad	0.668742
13	0xbf5dbabd	-0.86613065
14	0xbf3e8af1	-0.7443076
15	0x3ecfa9ca	0.40559226
16	0x3da39458	0.07987279
17	0xbec4da6e	-0.384479
18	0xbf765de3	-0.9623701
19	0xbf2f9e07	-0.68600506
20	0xbf25c347	-0.64751095
21	0xbe5ee103	-0.21765523
22	0xbe096108	-0.1341592
23	0x3f5d2f4f	0.8640031
24	0xbf7f886a	-0.99817526
25	0xbebcc20a	-0.3686679
26	0x3e3eddbc	0.18639272
27	0x3dd77957	0.105211906
28	0x3d33b831	0.04387683
29	0x3d8b8e53	0.068142556
30	0x3f16c0a3	0.5888769
31	0x3ef139be	0.47114366
32	0x3f7f3809	0.9969488

weight_hh_l0 f4 [3, 1]
0	0x3f55dfa2	0.8354436
1	0xbf7a3388	-0.9773488
2	0xbeaa148f	-0.3321881

bias_ih_l0 f4 [3]
0	0xbd514190	-0.051087916
1	0x3e7d0f8b	0.2471296
2	0x3c4622b6	0.012093237

bias_hh_l0 f4 [3]
0	0xbf1bcb71	-0.608573
1	0x3d74448d	0.059635688
2	0xbf6586dd	-0.8965891

weight f4 [1, 16]
0	0xbe1f5d8b	-0.15563028
1	0x3e59dbd4	0.21275264
2	0x3d9d74f4	0.07688323
3	0xbcacf89f	-0.021114646
4	0xbd7ce729	-0.06174389
5	0xbe409dba	-0.18810168
6	0x3b4b591c	0.0031028455
7	0xbe4af45c	-0.19819778
8	0xbdd1dd97	-0.10247343
9	0xbe2f9428	-0.17146361
10	0x3d6be4ce	0.057591252
11	0xbdee3bc5	-0.11632494
12	0x3e0997b9	0.13436784
13	0x3c03cfd7	0.008045158
14	0xbe00a769	-0.12563862
15	0x3dba6ea5	0.09103135

weight f4 [680, 17]
0	0x3dc8ebd0	0.09810603
1	0xbdf36017	-0.11883562
2	0x3e6e9f18	0.23302877
3	0x3e4072ff	0.18793868
4	0xbd763f67	-0.06011906
5	0xbe55eff0	-0.2089231
6	0x3d9d4680	0.076794624
7	0x3bc2bbbd	0.0059427903
8	0xbd990559	-0.07471723
9	0xbe6391b8	-0.22223556
10	0x3e5f8170	0.2182672
11	0xbe0d4d87	-0.13799106
12	0x3e0159dd	0.12631936
13	0xbc331a81	-0.010931612
14	0x3d73d749	0.059531484
15	0xbe735308	-0.23762143
16	0x3e7061aa	0.23474756
17	0x3d626600	0.055273056
18	0xbdea4f4a	-0.114409044
19	0x3e5bea9c	0.21476215
20	0xbd233d5b	-0.039853435
21	0xbe4be28b	-0.19910638
22	0xbde4063b	-0.11134001
23	0xbe055c65	-0.13023527
24	0x3d89714a	0.06711061
25	0x3d8f3ce9	0.069940396
26	0x3c26e168	0.010185577
27	0xbe6c95dd	-0.23104043
28	0x3d31c4e1	0.04340065
29	0xbcc5332a	-0.024072248
30	0xbcee133f	-0.029061912
31	0x3df76f98	0.12081832
32	0xbc2522e4	-0.010079119
33	0xbd541f36	-0.051787578
34	0x3df12e9c	0.11776468
35	0xbdf2b0f2	-0.11850156
36	0x3e6f8c00	0.2339325
37	0xbd99c7e9	-0.07508833
38	0x3c877756	0.016536396
39	0xbe72855f	-0.2368369
40	0xbc6b6974	-0.014368404
41	0xbddf6683	-0.109082244
42	0x3d5519c6	0.052026533
43	0x3cec37b3	0.028835153
44	0xbe27d548	-0.16389954
45	0x3d33b49d	0.043873418
46	0xbd577831	-0.052604858
47	0x3de29ec4	0.110654384
48	0xbe30bc71	-0.17259385
49	0x3e5ffd1e	0.218739
50	0x3e3b9d0c	0.18321627
51	0xbc786571	-0.015160904
52	0x3e09e416	0.13465914
53	0x3da4b163	0.08041646
54	0x3dcddddc	0.10052082
55	0x3e1b15e4	0.1514507
56	0x3cb9bafd	0.02267217
57	0x3dbe1fda	0.09283419
58	0x3ba7207f	0.0051003094
59	0x3e577eb1	0.21044423
60	0xbdf8c801	-0.12147523
61	0xbc6ecbdd	-0.014574972
62	0xb9282d1a	-0.0001603853
63	0xbe59e125	-0.21277292
64	0xbe52870c	-0.20559329
65	0x3de611c8	0.1123386
66	0xbe16e499	-0.1473564
67	0xbdff03bf	-0.124518864
68	0x3e093a24	0.13401085
69	0x3c9e8ebb	0.019355169
70	0xbe489f5f	-0.19592045
71	0xbdc1a10b	-0.09454545
72	0xbddc070d	-0.10743532
73	0x3dacec08	0.08443457
74	0xbe3b1388	-0.1826917
75	0x3e1e1acb	0.15439908
76	0xbd735932	-0.059411235
77	0xbe6c5013	-0.23077421
78	0x3e35a96d	0.17740412
79	0x3d829a8b	0.06377133
80	0xbcf0cced	-0.029394591
81	0x3df08863	0.11744764
82	0xbc398b41	-0.011324705
83	0x3cea1dff	0.028578756
84	0xbe5c0e42	-0.21489814
85	0x3c1123eb	0.008858661
86	0x3c04d9c4	0.00810856
87	0x3e0b993c	0.13632673
88	0xbe4f0c9e	-0.20219657
89	0xbdb09928	-0.08622962
90	0x3bf41659	0.007448953
91	0xbcf9b6e9	-0.030482726
92	0xbe6392b9	-0.22223939
93	0xbd0d1e5e	-0.03445279
94	0x3e429771	0.19003083
95	0xbe375fc5	-0.17907627
96	0xbe4374fd	-0.19087596
97	0xbe31179f	-0.17294167
98	0xbdf6da54	-0.120533615
99	0xbb92a383	-0.0044750585
100	0xbe56f5fc	-0.20992273
101	0xbe4ce223	-0.2000814
102	0x3e5a9f55	0.21349843
103	0xbc1e4d05	-0.009661918
104	0x3d67a2e6	0.056551836
105	0xbcd7f031	-0.02635965
106	0xbe0153a7	-0.12629567
107	0x3e2b2f9a	0.16717377
108	0xbe66dd97	-0.22545467
109	0x3e080adb	0.13285391
110	0x3d7e743b	0.062122565
111	0x3d810017	0.06298845
112	0x3e72ad7e	0.23698995
113	0xbe42f013	-0.19036894
114	0xbc9a207f	-0.018814323
115	0x3e6ce12f	0.23132776
116	0xbdcd92e6	-0.10037784
117	0xbe1301d7	-0.1435617
118	0x3e038288	0.12842762
119	0x3e6a0078	0.22851741
120	0x3e75bb75	0.2399729
121	0x3da41878	0.080124795
122	0x3d6812e9	0.05665866
123	0xbe4650db	-0.19366781
124	0x3e4c9fe4	0.19982868
125	0xbd6b25cb	-0.05740909
126	0x3daafba4	0.08348778
127	0xbdf86a0d	-0.121296026
128	0xbdf6042a	-0.12012513
129	0x3e57d137	0.21075903
130	0x3cf2853c	0.029604547
131	0x3cae11fe	0.021248814
132	0xbde7169a	-0.11283608
133	0xbda11fc2	-0.078673854
134	0xbe2c2c64	-0.16813809
135	0x3e6c864f	0.2309811
136	0x3e0ee758	0.13955438
137	0xbc97957a	-0.018503893
138	0xbdbfd306	-0.093664214
139	0x3e00559a	0.12532654
140	0x3d464e2e	0.0484144
141	0xbd1e09da	-0.038583614
142	0x3e158bf9	0.14604177
143	0x3e27eb65	0.1639839
144	0x3ddcc7d6	0.10780303
145	0xbd8c07db	-0.06837436
146	0x3ddddb5c	0.10832855
147	0x3e48af82	0.19598201
148	0x3dedb432	0.11606635
149	0x3d8577c6	0.065169856
150	0xbe02bcbf	-0.12767313
151	0x3d8a0510	0.06739247
152	0xbd8b31e9	-0.06796629
153	0xbe63da0d	-0.22251149
154	0x3e3d15be	0.18465325
155	0xbc92672f	-0.017871467
156	0xbd69bee4	-0.057066813
157	0xbe5de2ce	-0.2166855
158	0xbe22a5f4	-0.15883619
159	0xbd95b864	-0.0731056
160	0xbce38257	-0.027772112
161	0xbe51fc29	-0.20506348
162	0xbe634958	-0.22195947
163	0x3e3f5ead	0.1868846
164	0xbd764958	-0.06012854
165	0x3e11a4b7	0.1422299
166	0xbe24b461	-0.16084434
167	0x3d240811	0.040046755
168	0xbd774964	-0.060372725
169	0x3e1a5028	0.1506964
170	0x3e402770	0.18765044
171	0x3d4207eb	0.047370832
172	0xbe278832	-0.16360548
173	0xbda66f74	-0.08126727
174	0x3d213b1c	0.03936301
175	0xbd8a81a2	-0.06763007
176	0xbd332d3c	-0.04374431
177	0x3d7e3f0c	0.062071845
178	0x3e028bc5	0.1274863
179	0x3d54f4b0	0.051991165
180	0xbd985a46	-0.07439093
181	0xbe75ba56	-0.23996863
182	0xbe6d5703	-0.23177724
183	0xbc1663a5	-0.009179031
184	0xbe36bf82	-0.17846492
185	0xbe5f5ae6	-0.21812019
186	0xbe2ebb79	-0.17063703
187	0x3e368736	0.17825016
188	0x3c9b2bd8	0.018941805
189	0x3de404fe	0.11133765
190	0x3e41caee	0.18925068
191	0xbe3c5e97	-0.18395458
192	0xbe774fa0	-0.24151468
193	0xbd914b10	-0.07094395
194	0x3e689bdc	0.22715706
195	0x3cff1977	0.031140072
196	0xbe699a8a	-0.22812858
197	0x3cf3627b	0.029710045
198	0xbe02ee5f	-0.12786244
199	0x3e4900c0	0.19629192
200	0x3da81928	0.08207923
201	0xbe4d9869	-0.20077671
202	0xbd40aa40	-0.047037363
203	0xbd984602	-0.07435228
204	0xbdd79872	-0.105271235
205	0x3e08f7d8	0.13375795
206	0xbd0eb500	-0.034840584
207	0xbe3ac275	-0.18238242
208	0xbe23478c	-0.15945262
209	0x3e700706	0.23440179
210	0x3e4ce748	0.20010102
211	0xbe56b214	-0.20966369
212	0xbdd32eec	-0.10311684
213	0x3d852bb8	0.06502479
214	0xbddc7206	-0.10763936
215	0x3d1102f7	0.035403218
216	0x3e669103	0.22516255
217	0x3e181270	0.14850783
218	0xbe4d8dd8	-0.2007364
219	0x3e26d8a3	0.16293578
220	0xbda1e456	-0.0790488
221	0x3e349810	0.17636132
222	0xbda1f461	-0.0790794
223	0xbe653ee5	-0.22387274
224	0x3e3602fa	0.17774573
225	0xbc1a1758	-0.00940498
226	0xbb9e37b8	-0.0048284195
227	0x3e7646a3	0.24050383
228	0x3b40858b	0.0029376473
229	0x3db2976b	0.08720287
230	0x3e380b91	0.17973162
231	0xbe05ffa6	-0.13085803
232	0xbe3f9d95	-0.18712457
233	0x3c6c87af	0.014436646
234	0x3e3cbda5	0.18431719
235	0xbde75c9a	-0.11296959
236	0x3df031e5	0.117282666
237	0xbe070c70	-0.13188338
238	0xbd2c0c3c	-0.042003855
239	0xbdb6b071	-0.08920372
240	0xbd1aeb1c	-0.037821874
241	0xbe674a9a	-0.22587052
242	0xbde8f3d2	-0.1137463
243	0xbd47d34e	-0.0487855
244	0x3e2d7bcb	0.16941755
245	0x3e63a0cd	0.2222931
246	0x3dea0328	0.11426383
247	0xbe0feb7a	-0.14054671
248	0xbdd2b2af	-0.102879874
249	0x3e31eec6	0.17376241
250	0x3e371854	0.17880374
251	0xbd9114ba	-0.070840314
252	0xbe09899d	-0.13431402
253	0x3d3dc2dd	0.046328414
254	0x3e055262	0.13019708
255	0xbdac500f	-0.084137075

bias f4 [680]
0	0x3e66e8e7	0.22549783
1	0x3cbe5a8b	0.023236534
2	0xbd1c79d1	-0.03820211
3	0xbe54af12	-0.20769909
4	0xbe15ff16	-0.14648089
5	0xbe41d1da	-0.18927708
6	0xbde8d373	-0.11368456
7	0xbdbfc19b	-0.09363099
8	0x3de1bff9	0.11022944
9	0x3e4e36a3	0.2013803
10	0xbdcd2ede	-0.10018705
11	0xbe045b53	-0.12925462
12	0x3e00ff7d	0.12597461
13	0x3cb5c205	0.022187242
14	0x3e307731	0.17232968
15	0x3d912af5	0.070882715
16	0xbdc2d5cc	-0.09513435
17	0x3d7eebb6	0.06223651
18	0xbd9cb6a4	-0.076520234
19	0xbdb2a3a5	-0.08722619
20	0x3dc4d2e9	0.096105404
21	0x3d952a17	0.072834186
22	0x3dc4fffe	0.09619139
23	0x3c8efbef	0.017454116
24	0xbce5ca96	-0.028050702
25	0x3decb4bb	0.11557909
26	0xbcbdc92c	-0.023167215
27	0xbd84c473	-0.06482782
28	0xbdf48a09	-0.119403906
29	0x3e41d321	0.18928196
30	0x3e531067	0.20611726
31	0x3dcf71bd	0.10129116
32	0x3ddf9027	0.10916167
33	0x3c2bc2aa	0.010483423
34	0x3d3b09d2	0.045663662
35	0xbe3f0755	-0.1865514
36	0xbb62a156	-0.0034581027
37	0x3e11a17b	0.14221756
38	0x3e5f6c92	0.2181876
39	0x3dc5c3b0	0.09656465
40	0x3d9c02b5	0.07617704
41	0x3e75e87a	0.24014464
42	0xbe7195f8	-0.23592365
43	0x3c90f2a4	0.017693825
44	0x3de59a7f	0.112111084
45	0x3dcc161b	0.09965154
46	0xbe1568bb	-0.14590733
47	0xbdd4c1de	-0.1038854
48	0xbe33b5ba	-0.17549792
49	0x3e2b8d35	0.16753085
50	0x3deaf70b	0.11472901
51	0x3e702dfd	0.23455043
52	0xbdd30a31	-0.10304678
53	0xbe704f4c	-0.2346775
54	0x3e3274bd	0.17427345
55	0x3d698393	0.057010245
56	0xbc9bd024	-0.019020148
57	0xbda194a5	-0.0788968
58	0xbe3ed281	-0.18634988
59	0x3e2d6a40	0.16935062
60	0xbe27f3b5	-0.1640156
61	0xbe338650	-0.17531705
62	0x3e47c55d	0.19508882
63	0xbd5bb0b8	-0.05363533
64	0xbc9ebb04	-0.019376285
65	0x3e429187	0.19000827
66	0x3e3d56cd	0.18490143
67	0xbb0ea6d6	-0.0021766922
68	0x3e66a7fb	0.22525017
69	0x3d5fef9e	0.054671876
70	0xbe465b84	-0.19370848
71	0xbe470975	-0.19437201
72	0xbdd72e95	-0.10506932
73	0x3d74a1dd	0.059724677
74	0xbd8e53a1	-0.06949545
75	0xbde75be0	-0.11296821
76	0xbe6b1c79	-0.2296008
77	0x3c93c0ea	0.018036325
78	0xbe62cb89	-0.22147955
79	0x3dbf0b53	0.09328332
80	0x3dab125e	0.08353113
81	0x3d53482b	0.051582497
82	0xbce9b456	-0.028528374
83	0x3e317660	0.17330313
84	0xbc7bd625	-0.01537088
85	0xbddf0f01	-0.10891534
86	0xbe56040f	-0.20899986
87	0xbdf6b9df	-0.12047171
88	0x3d864e8d	0.06557951
89	0xbe2a06b1	-0.16604115
90	0x3dbabe92	0.0911838
91	0xbe0af7b7	-0.13571058
92	0xbe73e8e4	-0.2381931
93	0xbe285c98	-0.16441572
94	0xbd871985	-0.06596664
95	0x3e4b22a3	0.19837432
96	0x3df19c2c	0.117973655
97	0x3bc81f56	0.006107251
98	0xbe5cd6b7	-0.21566282
99	0x3d592932	0.053017803
100	0xbd94d11e	-0.072664484
101	0xbd07566b	-0.0330414
102	0x3e606316	0.21912798
103	0x3e127131	0.14300992
104	0x3dcdc479	0.1004724
105	0xbd347504	-0.044056907
106	0xbd8d0010	-0.068847775
107	0xbe5262ac	-0.20545453
108	0xbe0a9444	-0.13533121
109	0x3e1831f4	0.14862806
110	0x3e3ebf53	0.18627672
111	0x3e74b9fb	0.23899071
112	0xbce00201	-0.027344706
113	0xbe558292	-0.2085059
114	0x3dfc6f28	0.12325889
115	0x3de4b5ad	0.111674644
116	0x3db1d35b	0.08682891
117	0x3e121d9f	0.14269112
118	0xbe54e94b	-0.20792119
119	0xbe28fe8d	-0.16503353
120	0xbcbc5234	-0.022988416
121	0xbc1fd19d	-0.009754566
122	0xbe0498e8	-0.12948954
123	0xbe47c9be	-0.19510552
124	0xbd91b202	-0.071140304
125	0x3e09423e	0.13404176
126	0xbe586494	-0.21132118
127	0xbe10039e	-0.1406388
128	0x3e617d58	0.22020471
129	0xbe6df0bb	-0.23236363
130	0xbe40b5e7	-0.1881939
131	0xbcc6c319	-0.024262952
132	0x3d94c14f	0.07263433
133	0x3da3a956	0.07991283
134	0xbe66ce5e	-0.2253966
135	0x3e2d5235	0.1692589
136	0x3e0bfce7	0.13670693
137	0x3e76822c	0.24073094
138	0xbd2d3f3f	-0.042296644
139	0xbe390770	-0.18069243
140	0x3c85d6bc	0.016337745
141	0xbd1e2b3b	-0.038615447
142	0x3d3e8fba	0.046523787
143	0xbe751b9b	-0.23936312
144	0xbe3cc2c5	-0.18433674
145	0xbde307b2	-0.11085452
146	0x3d6e70b2	0.058212943
147	0x3e266e93	0.16253118
148	0x3d42c6c5	0.047552843
149	0xbe5ee2cc	-0.21766204
150	0xbe76e429	-0.24110474
151	0x3e69068f	0.22756408
152	0x3e13eadf	0.14445065
153	0x3dc605cd	0.09669075
154	0xbe1d56ff	-0.15365218
155	0xbd6f662c	-0.058447048
156	0x3e14c1fb	0.14527123
157	0x3e43376d	0.19064112
158	0x3e6d03bd	0.23145957
159	0x3d511cf3	0.051053
160	0x3e2518e7	0.1612278
161	0x3e5e0489	0.21681418
162	0xbda1de29	-0.07903702
163	0xbda8a458	-0.08234471
164	0x3e63a6b5	0.22231562
165	0xbe5a9e84	-0.21349531
166	0xbd974c49	-0.07387597
167	0xbd830423	-0.063972734
168	0x3d4df9c2	0.050287016
169	0x3e325664	0.17415768
170	0x3d41eb5b	0.047343593
171	0xbe0783e7	-0.1323391
172	0xbe4bf1b4	-0.19916421
173	0x3b856917	0.0040713656
174	0x3d03304d	0.032028485
175	0xbe512f83	-0.2042828
176	0xbd8de2de	-0.06928037
177	0x3e1b05e3	0.15138964
178	0x3e2e7551	0.1703694
179	0xbe451109	-0.1924478
180	0xbd22beca	-0.039732732
181	0xbe0e93db	-0.1392359
182	0xbd93d5e4	-0.07218531
183	0x3d6f062a	0.058355488
184	0x3d253b2d	0.040339638
185	0x3e70d239	0.23517694
186	0xbe21fc35	-0.15818866
187	0xbe6ebd4f	-0.23314403
188	0x3e73efd4	0.23821956
189	0xbd0f65b2	-0.035009094
190	0xbe4d2c72	-0.20036486
191	0x3da048eb	0.07826408
192	0x3e457914	0.19284469
193	0x3e2d5b73	0.16929416
194	0x3d59305b	0.05302463
195	0xbdff12ff	-0.12454795
196	0x3e4a199b	0.1973633
197	0xbda6b652	-0.081402436
198	0xbcc856b1	-0.0244554
199	0x3e6bc6ef	0.23025106
200	0x3e4de52c	0.20106953
201	0x3c96ff21	0.018432202
202	0x3e3380df	0.17529629
203	0x3c541835	0.0129452245
204	0xbd8c9275	-0.06863872
205	0xbe4e6aaf	-0.20157884
206	0xbe4fa25d	-0.2027678
207	0x3e2da9b9	0.16959275
208	0x3df84605	0.1212273
209	0xbe43d55e	-0.19124362
210	0x3e4cbadf	0.1999316
211	0xbd9919a2	-0.07475592
212	0x3dc37261	0.095433004
213	0x3dba7326	0.09103994
214	0xbca1bdf8	-0.019743904
215	0x3e1336b3	0.14376335
216	0x3e73bf3f	0.23803423
217	0xbc720da2	-0.014773758
218	0xbe3d1951	-0.18466689
219	0xbd1c242f	-0.038120445
220	0x3cd730a6	0.026268315
221	0x3e53745b	0.20649855
222	0xbe3d68d0	-0.18497014
223	0x3e58d23b	0.21173947
224	0x3e6fe572	0.2342737
225	0x3e056e71	0.13030411
226	0xbe2c823b	-0.16846554
227	0x3e5b9f4f	0.2144749
228	0x3e2114ca	0.15730587
229	0xbe66173a	-0.22469798
230	0x3d6ad40e	0.057331137
231	0xbe3b4259	-0.18287028
232	0x3dd28aab	0.10280355
233	0x3dbc941b	0.092079364
234	0x3cef14a4	0.029184647
235	0xbe48c48f	-0.19606231
236	0xbd0bbe33	-0.034116935
237	0xbcc018db	-0.023449352
238	0xbdf2398e	-0.11827384
239	0x3a56f6cb	0.0008200227
240	0x3cb107a5	0.02161009
241	0x3e74d323	0.23908667
242	0x3c10aa83	0.008829716
243	0x3d829eb7	0.06377929
244	0x3d36d162	0.044633277
245	0x3e0c9267	0.13727723
246	0x3db0bb8d	0.086295225
247	0xbd6d61e1	-0.057954673
248	0xbe27679b	-0.16348116
249	0x3e14fe1e	0.14550063
250	0x3dba03c3	0.09082749
251	0xbdaca90e	-0.08430682
252	0xbe3d3041	-0.18475439
253	0xbe0a4ed7	-0.13506638
254	0x3d6424c2	0.055699117
255	0x3de01c7f	0.10942935
