estimators/knet/single_obs/p_MSE_ep100_train4000_val1000_test10000_lr5e-04_wd1e-05_data_sr1e-01_q1e-04_r1e+00_j5_train[500,100]_val[100,100]_test[100,100].pt (torch, 470961 bytes, 121 tensors)

weight_ih_l0 f4 [48, 20]
00000000: 8f3c 74be 60e1 323e e590 8cbc d31b 1a3e
00000010: 2a70 c1bd 6335 4e3e 2006 1ebc c73d 6d3e
00000020: eb40 20be b750 5fbe 0573 5dbe cf9f 0fbe
00000030: c8dc 09be cd54 febd fbcd 973d 45cf ecbb
00000040: 57e8 f0bd e4df 74be a58e 5fbe 7171 01be
00000050: 3681 b03c 62d5 a63c 5008 1dbe fdab 31be
00000060: 1240 45bc e8e3 2ebd 3378 1e3e 1012 923c
00000070: 5b0c 8a3d d918 edbc 91c5 63be e063 56be
00000080: 1d88 353e 4535 923d 4ed2 79be 92d3 343d
00000090: f25c 4cbe d380 9c3d 0b49 843d 25f5 eebd
000000a0: 7cbd 2b3e 218d 57bd d495 423e 7482 4fbd
000000b0: 0518 cc3d b3ef 123e 127a 2abe e519 72bd
000000c0: d6b0 adbc 0011 ddbd 54aa c5bd 74f9 5f3e
000000d0: d19c bbbd 4c56 4a3e ae71 3bbe 0c27 b7bd
000000e0: c7f3 ed3c 075f d73c 4f50 bc3d 7cf5 c93d
000000f0: 6b74 19bc d658 2cbe 3651 35be b196 613e
00000100: 742f 1fbe 8359 51be 2c14 5c3c 1d59 6fbc
00000110: 33f8 203c 1c7c 1b3e 5c7a 60be 1035 1c3e
00000120: c00f b3bd 65c6 cebd 581f 73be 7e16 12be
00000130: 4317 8cbd 34ba 2d3e 1a58 6c3e 4567 b63c
00000140: 6029 9a3d ea33 32be 2e14 01be 8ea0 083e
00000150: 1481 453e ead5 1abe a473 21bd 0af3 a13d
00000160: 1fd0 fcbb 1243 6f3d bd03 dfbd cc32 cabd
00000170: 4ade 2ebd beb9 febd e834 3f3e 3342 4e3d
00000180: 9b44 3b3e 9b07 d23d ed51 cf3d 1845 4ebe
00000190: 13e5 003e 9732 c1bd 66df 55be 09a7 96bd
000001a0: a6bc 3ebe 86b8 583d 2b72 44be 7d12 f5bd
000001b0: 0044 0e3e 8f67 463d b4c8 9e3c 7d7a a93d
000001c0: 36fb fc3d 186b 1b3e 07f2 5bbe a67e 77be
000001d0: 045a 943d e67c 78be f526 943d cbad 9dbd
000001e0: cd5f 6cbe 1aff 753e 00de 01bd 7ffc febd
000001f0: e766 59be 8169 303e e9fc 49be 5771 5ebe
00000200: 6cf3 54be 816a 393e 3a32 ebbd f5ed 66be
00000210: 997e 9c3d abce 44be efa4 a9bd dcd9 95bd
00000220: 1677 573e d558 7b3e 14f4 f2bd 8b3d 673d
00000230: 83e8 04be 807b 8abc 65fe 68bd 8fd3 5abe
00000240: 11f6 2cbc 6262 b5bc 9c03 b03d 1e11 5c3e
00000250: 7649 2fbe c8d5 103e 3bf1 60be 1dd9 2fbe
00000260: 8f83 81bd 1a33 14bd b533 65be 5d41 07be
00000270: 0a98 003e 15ac 62be d38b ab3c 54e2 8ebd
00000280: 3796 a83c 7c8f a9bd 147a 8c3b 0e3e 57bb
00000290: a2c4 a4bb 26c6 2d3e f4a2 5f3e 00bf 71bd
000002a0: 3ddb c5bd 8c4a 60bc 18bf 20be 00bd abbc
000002b0: 74df 5b3a e25e 4d3e 1205 e0bd e7e2 ee3d
000002c0: dd06 51be ef03 933d 17bd 123e 925b fc3d
000002d0: 18b8 1fbc bc81 863d d29c 773e 5549 55be
000002e0: 44b1 013e 7d7b d8bd 3ada fbba 212b 133e
000002f0: 7683 863a e88b 49be f5cd 173e 0b22 d13a
00000300: 7095 2dbd 0c20 7a3e 54ae 283e d10d 3d3d
00000310: 3ecf 753b 765f 463d f08d 4ebe b0f9 623d
00000320: d160 723d dd43 3a3e c637 1bbe 94cf cabc
00000330: 022a 393e 5061 f23d 7e5c 053d f7c6 513b
00000340: 440c aebd 61a4 4d3e f6f6 72be 7b63 8e3c
00000350: 7de5 2a3e 7918 3abd 721f 3d3d b16c 3ebd
00000360: bc6b 5ebe 6ece a53d 64c8 e83d 45f6 353e
00000370: 8987 c33d 5f93 8f3b 7856 46be 484c ab3d
00000380: d57f 463e 429e 433e 3efa 573d 0120 1e3e
00000390: 7999 fe3b 3d30 20be 79bd a1bd c390 563e
000003a0: 6831 24be 8f0b e0bd 5437 80bd d73d fb3d
000003b0: 28da 663e 0c64 ffbd 09bc 123e 1079 783d
000003c0: 8d0a 003e 47f4 d13d ea80 33be 258d ec3b
000003d0: 4a14 153b f169 573e 8f43 16be ec4c aabd
000003e0: 82f7 b03d d2b7 48be 5d25 3f3c 74ad 07be
000003f0: d03e 033e 8932 023e ca02 ea3d cf37 7a3d
-0.23851226 0.17468786 -0.017158935 0.15049677 -0.09445222 0.20137553 -0.009645015 0.23168097
-0.15649764 -0.21808134 -0.21625908 -0.14025806 -0.13463128 -0.12418518 0.074123345 -0.007226857
-0.11763065 -0.23913532 -0.21831758 -0.1264093 0.021545988 0.02036542 -0.15335202 -0.17350765
-0.012039201 -0.042697817 0.1547554 0.017830878 0.06740638 -0.028942512 -0.22243334 -0.20936537
0.17727704 0.071390666 -0.24396631 0.04414708 -0.19957331 0.07641759 0.06459244 -0.11667851
0.16771501 -0.052624825 0.19002467 -0.05066152 0.09965519 0.1434925 -0.16648129 -0.059106726
-0.021202486 -0.10794258 -0.09651628 0.21872503 -0.0916077 0.19759482 -0.18305084 -0.089429945
0.029046906 0.02629043 0.09195005 0.098612756 -0.009366135 -0.16830763 -0.17706761 0.2203014
-0.15545446 -0.20444302 0.013432544 -0.014608649 0.0098248 0.15184063 -0.21921676 0.15254617
-0.087432384 -0.100964345 -0.23742425 -0.14266393 -0.06840374 0.16965562 0.23080483 0.02226604
0.07527423 -0.17402616 -0.12605354 0.13342497 0.1928752 -0.15120664 -0.039416924 0.07907684
-0.0077152397 0.058413573 -0.10889385 -0.0987297 -0.04269246 -0.12437771 0.18672526 0.0503561
0.1828789 0.10255357 0.10123048 -0.20143545 0.12587385 -0.09433477 -0.20886001 -0.07356078
-0.18626651 0.05291035 -0.19184177 -0.11966417 0.13893127 0.048438605 0.019382812 0.08275316
0.12352602 0.15177572 -0.21479045 -0.24169406 0.072437316 -0.24266395 0.07233993 -0.07699164
-0.2308342 0.24023095 -0.031705856 -0.124505036 -0.2123066 0.17227747 -0.19725384 -0.21722923
-0.20795983 0.18107034 -0.11484189 -0.22551711 0.07641334 -0.19219463 -0.08283412 -0.07316944
0.21041521 0.24545605 -0.118629605 0.056455176 -0.12979321 -0.016904593 -0.056883235 -0.21369766
-0.010556714 -0.02214164 0.085944384 0.21490905 -0.17117867 0.14144051 -0.21967022 -0.17172666
-0.06323921 -0.036181547 -0.22383006 -0.13208528 0.12557998 -0.22135957 0.020940697 -0.069767624
0.02057944 -0.082793206 0.004287014 -0.0032843384 -0.0050283233 0.16970119 0.21839505 -0.059020042
-0.09660957 -0.013689648 -0.15697896 -0.020964146 0.0008387484 0.20055726 -0.10938467 0.11664372
-0.20412774 0.07178485 0.14329945 0.12322153 -0.009748481 0.065677136 0.24180916 -0.20828755
0.12665278 -0.105704285 -0.0019214817 0.14371921 0.0010262567 -0.19682276 0.1482466 0.001595558
-0.042378843 0.24426287 0.16472751 0.046155754 0.003750756 0.048430882 -0.20171332 0.0554139
0.059174363 0.1818995 -0.15157995 -0.024757184 0.18082431 0.11834967 0.03255891 0.0032009461
-0.08498433 0.20082237 -0.2372702 0.01738142 0.16689105 -0.045433495 0.046172567 -0.046490375
-0.21720785 0.08096014 0.113663465 0.17769726 0.09547336 0.0043815817 -0.19368923 0.08364159
0.19384702 0.1910334 0.052728884 0.15441896 0.00776976 -0.15643401 -0.07897467 0.2095366
-0.16034472 -0.109397046 -0.06260553 0.122676544 0.22544158 -0.12470254 0.14329542 0.06066233
0.12504025 0.1025167 -0.17529646 0.007218974 0.002274769 0.21036507 -0.14674209 -0.08315453
0.08640958 -0.19601372 0.011666623 -0.13249761 0.1281693 0.1271459 0.11426313 0.06108838

weight_hh_l0 f4 [48, 16]
00000000: 0341 20be f207 ccbd 2bbe 183e 2065 7b3d
00000010: 76d4 a7bc 23ba 1fbe a963 643e 508b 573d
00000020: efe1 a33d 9941 ed3d d5e5 d5bd e64e 16be
00000030: f5dc 10be 9f2f 14be 2566 363e c296 953c
00000040: 54a1 cdba 6192 1d3d 2a27 7a3e fe46 723e
00000050: 8883 3fbe 6da0 843d 02ae 57be 6c15 acbd
00000060: 30d8 9abd 442f 653b 948e 1abc 70c0 7cbe
00000070: 4421 3e3e 1772 b73d 27fd b83c 16d5 2bbd
00000080: 96f4 e3ba d9a6 8fbd 3bcb d63d 7ccb 57be
00000090: f2ba e63d 3a52 b53c 29eb 46be c2d8 f3bc
000000a0: 9624 48bd cc6d 02be 1711 163e d3d4 ac3d
000000b0: 2de9 a23c 8fc5 62bd 0f86 35be 1f0b 94bd
000000c0: ee22 003e f5fe ce3d 4e5a 5f3e 51d1 5dbe
000000d0: 3251 9f3d 7d07 c4bd 98f2 15bd 0385 f8bd
000000e0: 6227 5abe 92e5 013d dc36 1f3e 5c0b 4dbe
000000f0: f2b2 bcbd 18a1 18be f837 5bbd 47fb 09bd
00000100: f2bc ebbc a31f 4abe c9fd 4bbe 4b3f 123e
00000110: c4a2 1d3e 5afa 103e 45a7 793e eb89 493e
00000120: eaab ed3d 2b99 d7bd 1ef3 843d dcf5 ca3d
00000130: 3a45 67be 4c33 fc3d ec53 45be f3cd 573e
00000140: 45e5 6a3e cd90 53be 52e9 693e 8029 433d
00000150: cefd 12bc 543e 23be 8282 283e 0404 ac3d
00000160: 4902 49bd 7951 c53d e42c c0bd f543 f63d
00000170: 473b 703c 3c9e e83c 17fa 87bd efac 6b3d
00000180: 65d0 6d3e 7c76 f4bd 824c 8c3c 126e 353e
00000190: 784a 28bd af69 033d 758d 0dbe aa21 3abe
000001a0: 7e74 513e e63a b1bd b8ae 6dbe 8753 213e
000001b0: e193 89bd d7b3 0abe 07ae 8ebd 3cd8 5f3e
000001c0: 29f8 babd 2258 3c3e 0d78 553e c2c6 62be
000001d0: fb61 ec3d c7b0 86bd 10f7 ca3b 5ab9 93bc
000001e0: 2c9e 41bd 519a 7d3c 1d5c 2cbd 5ef4 c23c
000001f0: 93fc 46be f113 2d3e efed 3e3e 2d7f 59be
00000200: 832c 283e 081a ce3d c505 113e 9310 e23d
00000210: b6d9 7d3e 7171 16be 6a7f 68bd ef34 303e
00000220: 86fb 3b3e 7ea7 82bd f07d 44be d349 46be
00000230: d334 dfbd aaae 0f3e 970a f43d 46f8 233e
00000240: d97f df3d c9e3 22be 075f 19be ec75 85bc
00000250: c0e9 893d f626 31be ed14 81bc 6866 f6bd
00000260: 3a57 5f3e a690 1bbc 53d2 383d 5233 7e3e
00000270: 2f68 47bd 6713 35be df25 06be c580 dd3d
00000280: 37c9 853d c5d5 763e 4d42 18be 3499 5dbe
00000290: cc1e 2f3e c12d 683e 0257 923d 8bf8 f83d
000002a0: b864 d63c 12ef ab3c db2e 27be 4ed5 afbd
000002b0: 9803 ccbc 6a15 21be 6a78 b4bd bfe4 cd3d
000002c0: d75c 77bc 5e3b a4bb 7a9b 243e d335 153e
000002d0: 4e93 43be 880e 053e 8695 2d3e 6f93 1d3e
000002e0: 4ac9 a3bc 659f 233e ca95 683e 90c9 f83d
000002f0: da7d edbd b3ba 553e f649 3b3e b9ed 8cbc
00000300: 8556 693d 993d 2b3e 431c 983d 68b5 49be
00000310: 505a 323e e9e8 543b 2292 1d3e ac88 1abe
00000320: db09 7abd 216f 4ebc 2c04 2cbd e9e7 a9bd
00000330: 03fe 0e3e c46b 02be fb93 54be c23b e5bc
00000340: b141 fb3d b242 cbbd f2df 01be 29af 61bb
00000350: 4009 b2bc d0d0 04be 207e 20bd cecd 2b3e
00000360: dcff 3f3e 7761 403e 2f26 3c3e 60f3 c23d
00000370: aa59 853d b75a 763e fe1b 59bd 33f8 e43d
00000380: 552d 68bd 8150 cebd ef42 0d3d 2991 d8bd
00000390: e87e c6bd 3f1b 193e 8453 873d 7fb5 71be
000003a0: 8989 bf3d 42da 0f3e cd8c 103e 560e 8bbd
000003b0: 0dea f5bd b7eb 42be 9f21 6cbe 30f6 10be
000003c0: a5c1 a5bd 1e6c 2b3e d91e db3d cbaa 6fbe
000003d0: 8d0f 2b3e 34e3 c53d 80eb 72be ea3e f0bc
000003e0: 5f4d 273d 9cb2 9abd 5a08 673e 7bcf 18be
000003f0: cafe 79be 0e7b cb3d 501f 84bd ad72 f33c
-0.156498 -0.09962453 0.14916293 0.061375737 -0.020487051 -0.1559835 0.22303642 0.052623093
0.08002078 0.115847774 -0.104442276 -0.14678535 -0.14146788 -0.14471291 0.17812403 0.018260363
-0.0015688338 0.038469676 0.24429002 0.23659894 -0.18702519 0.06475911 -0.21062472 -0.084025234
-0.07560766 0.00349708 -0.009433407 -0.24682784 0.18567377 0.08957308 0.02258165 -0.04195126
-0.0017391618 -0.070142455 0.10487982 -0.21073717 0.11266126 0.022133935 -0.19425644 -0.029766444
-0.048863016 -0.12737197 0.14654957 0.084390305 0.019886578 -0.055364188 -0.1772692 -0.07228684
0.12513325 0.10107223 0.21811792 -0.21661879 0.07779159 -0.09571741 -0.03660831 -0.12134745
-0.21304086 0.031713076 0.15548271 -0.20023865 -0.092138186 -0.14905202 -0.053520173 -0.033686902
-0.02877662 -0.19738631 -0.1992103 0.14281957 0.15394121 0.14158002 0.24380215 0.19681518
0.11605056 -0.10527261 0.064916834 0.09910175 -0.22585002 0.123144716 -0.19270295 0.21074657
0.22939022 -0.20660706 0.22842911 0.047647 -0.008971645 -0.15941745 0.16456035 0.083992034
-0.049074445 0.0963468 -0.09383562 0.120246805 0.01466257 0.028395765 -0.06639498 0.05753797
0.23224027 -0.119366616 0.017126326 0.1771777 -0.041086644 0.03208321 -0.13823493 -0.18176904
0.20454594 -0.08653812 -0.23211181 0.1575452 -0.06717659 -0.13545166 -0.06966787 0.2185983
-0.09129364 0.18392995 0.20846577 -0.22146133 0.11542126 -0.06576686 0.006194003 -0.018032718
-0.047269985 0.015478686 -0.042080034 0.023798164 -0.19432287 0.16902138 0.18645452 -0.2123992
0.1642323 0.10063559 0.14162357 0.110383175 0.24790081 -0.14691712 -0.056762137 0.17207693
0.18357667 -0.06379603 -0.19188666 -0.19364099 -0.10898747 0.14031473 0.11916082 0.16012678
0.10913057 -0.15907206 -0.14977656 -0.016291581 0.067340374 -0.17300019 -0.015757049 -0.12031251
0.21810618 -0.009494936 0.045122456 0.24824265 -0.04868334 -0.17683183 -0.13100384 0.108155765
0.06532519 0.24104984 -0.14869042 -0.21640474 0.17101592 0.22673704 0.07145502 0.12156781
0.026171073 0.020988021 -0.16326468 -0.085856065 -0.024904057 -0.15730825 -0.0881203 0.100533955
-0.015097818 -0.00501196 0.16074935 0.14571314 -0.19099161 0.12993824 0.1695157 0.15388273
-0.019993443 0.15978773 0.2271339 0.1214782 -0.1159627 0.20872001 0.18289933 -0.017203199
0.056967277 0.16722716 0.074272655 -0.19698107 0.17417264 0.0032487458 0.15387776 -0.15091199
-0.061044555 -0.012599737 -0.041996166 -0.082961865 0.13964085 -0.12736422 -0.20759575 -0.027982596
0.12268389 -0.099248305 -0.12683085 -0.003443668 -0.021732926 -0.1297028 -0.039182782 0.16777727
0.18749946 0.1878718 0.18373941 0.09519076 0.06511243 0.24058042 -0.05300521 0.11180153
-0.056683857 -0.10073949 0.03448766 -0.10574562 -0.09692174 0.149518 0.06607726 -0.23604392
0.093524046 0.14048102 0.14116211 -0.06789844 -0.12007532 -0.1903523 -0.230597 -0.14156413
-0.080935754 0.16740462 0.10699243 -0.23404996 0.16705151 0.09662476 -0.23722649 -0.029326875
0.04084527 -0.07553598 0.2256178 -0.14922898 -0.244136 0.0993558 -0.06451285 0.029717768

bias_ih_l0 f4 [48]
00000000: e175 063d 10b1 44be 1fbd a43d 6ca1 65bd
00000010: de31 cabd 8b6a 453e cfd1 333e df50 5bbe
00000020: 3545 56be 8cd3 5bbe 7ffe 23be 92a1 cd3d
00000030: 6dde 363e f4f0 5d3e 0500 fe3d dad8 513d
00000040: 94a7 79bc af03 dd3c c623 063e e104 0c3e
00000050: 9f53 a3bd 149b 163d a745 8a3d 4f78 703e
00000060: 9221 603e 3273 46be 8f16 3ebe 6168 cb3d
00000070: ef99 333e b2f5 3ebe 57aa 5cbe 88fc 2c3e
00000080: db82 703e 16b8 3fbe a13e ad3d 696a 44be
00000090: 46c3 2fbd 4098 05be 9cdd 113e f30d 76be
000000a0: 4151 733e 5f1d 9bbd 7640 96bb 36d2 683e
000000b0: 14bf 83bd 01ba 23be 2604 01bd 5afd eebd
0.03282726 -0.19208169 0.080438845 -0.056062147 -0.09872793 0.19278924 0.17560504 -0.21417569
-0.20924838 -0.21467417 -0.16015051 0.10040583 0.17858286 0.21673948 0.124023475 0.051232196
-0.015237708 0.026979296 0.13099584 0.13673736 -0.07974934 0.036768988 0.067515664 0.23483394
0.21887806 -0.19379881 -0.18563293 0.09932018 0.1753919 -0.18648413 -0.21549354 0.16893208
0.23487417 -0.18722567 0.08459211 -0.19181217 -0.042910837 -0.1304636 0.14244694 -0.24028759
0.23761465 -0.075739615 -0.004585321 0.22736439 -0.0643293 -0.15988924 -0.031498097 -0.11669417

bias_hh_l0 f4 [48]
00000000: 5af7 84bd 0cef 79be 21d8 b5bd d09d 223e
00000010: 9a2c 533d 4ea6 28bd 8502 783e b59c 29bd
00000020: f0ea 853d a598 97bd 6f6a 88bc 39bb f7bd
00000030: 37e6 23be 08de 603d c420 113e 1b9b 3a3e
00000040: 7d7e b0bc d834 ebbd a7ba 663d 13c5 403d
00000050: 5c14 9ebd cdb3 b73d 5d82 fb3d 0ec3 83bd
00000060: 4b3c f23d c9f3 2c3e 9900 103e bfd4 a2bc
00000070: 66c3 1e3e f361 9dbb 3932 7abe 23d3 fa3c
00000080: 4775 453e 0522 f03d 55b7 55be 1d23 69bd
00000090: 4c79 533e f31d 16be 594b 2bbe 054c 363c
000000a0: a2ef c13d a565 a3bc f1a7 463e d46c 723e
000000b0: 59a7 85bd 9dc9 7fbe b858 e43d 3f18 28be
-0.06492491 -0.24407595 -0.08879114 0.15880513 0.051556207 -0.041174226 0.24219711 -0.041409213
0.065389514 -0.074021615 -0.016652314 -0.12096257 -0.16005789 0.054899246 0.14172655 0.1822323
-0.02154469 -0.114846885 0.05633035 0.047062945 -0.07718727 0.08969841 0.12280724 -0.06433688
0.11827906 0.16889872 0.14062728 -0.019876836 0.15504226 -0.004802936 -0.24433221 0.030618256
0.19283019 0.11725239 -0.20870717 -0.056918252 0.2065174 -0.14659862 -0.16727962 0.011126523
0.094695345 -0.019945929 0.19400002 0.23674327 -0.0652606 -0.24979253 0.11149734 -0.16415499

weight_ih_l0 f4 [48, 36]
00000000: 7614 863d b3ef a63d 7b91 093e ab69 8bbd
00000010: cbd8 4b3e 1edb 083e 3fc6 863d 9b9a 673e
00000020: 59aa 0a3e 4de9 36be bef2 2cbe f747 713e
00000030: dfad 16bd 8766 0ebe 9366 693e 36fe 3a3e
00000040: 0b06 133e fe11 fb3d df48 adbd 1ade ebbd
00000050: 5eb2 22be 6526 703d 213d 4a3e 566c b2bd
00000060: 876f 0f3e 4a3c 4fbe f450 cc3d 4d9c cc3c
00000070: b177 793e 870e aa3c a3f1 e8bd 1296 afbd
00000080: 6f54 bf3d 493e c13c 1a03 003e 73e2 ff3d
00000090: 5e95 6b3e dc70 453e b805 c63d 8a57 1f3e
000000a0: 47e8 a5bb ee51 f73d 3c2e cdbd c331 753d
000000b0: b841 60bd a20f cbbd 7dca 0b3e 098a b43d
000000c0: cd11 1cbd 3acf 39be ecfa 2c3e 212e 573e
000000d0: ad25 4abd f23e 1b3e 41ed 30be a469 613d
000000e0: 2cc2 9cbd bdb8 1f3e 4e7a 333e caef 73bd
000000f0: ff1f ebbd 5c9c 45bd d482 6d3e c063 38be
00000100: 4528 66be acb3 5abd a4e0 4b3e 5a0d 71be
00000110: d152 40be 2a64 1e3e 4a71 743d b1fb 90bd
00000120: c831 eabd 9b49 60be a488 673e 7c7b 083e
00000130: 9277 663e 7256 7e3e 3b03 5cbe 7f6e 7ebd
00000140: 939d 13bb fcaa 4cbe 7145 2dbe 2825 7e3e
00000150: aa83 873d 3be9 55be ffed 443e 0d7a eebd
00000160: ca34 743d 2062 e3bd f8fe d93d da0b db3d
00000170: 984d 18bd 419f 0b3e 8de4 45be 25e3 553e
00000180: 95b2 5cbd 8f5c 1e3d 18dd d9bd b955 cd3d
00000190: 3fd6 e8bd db24 723e 8419 183e c3e9 1abe
000001a0: 32b7 6cbe 2eb6 573e 6a6f 1c3e 081f 123e
000001b0: ecae 0dbe e4aa e13c b3ea 8f3d e918 16be
000001c0: 6065 a93d 2596 bf3d 6b69 1f3e a529 5a3e
000001d0: 167a 7d3e 2048 2f3e d284 36bc cb6f 3c3d
000001e0: c0f2 2d3d 6ddb 55be 3877 303e 6d82 673e
000001f0: d361 183b 33c0 2bba 1970 d2bd 559c 6fbd
00000200: df95 a8bd c340 983c d754 253d 83e3 d6bd
00000210: 6d19 473d 1e61 d63d e735 d6ba 787e 3ebe
00000220: e323 373d 2a9e 303e 692d 4b3e 97d2 62be
00000230: 2bee 8d3c dfdb 92bd 8f47 273e 5c48 4f3e
00000240: ed9b 31bc 2579 d5bd 5ba5 6fbe 605b 46be
00000250: cc18 3fbe 8cb7 4c3e d4fd 04be 6184 d73c
00000260: f59e a13c 6ef4 5b3d d7b3 6abe 1088 763e
00000270: 875d 30be 9400 edbb ac64 d43d 111f 21bc
00000280: 60c1 1fbe a322 553e 96aa afbd a6de f83d
00000290: 11e7 523e d331 96bc 0d9b b63b 5ebe e73d
000002a0: 670f 1f3d 5c4c 8c3a 5688 613d c727 483e
000002b0: f46b 2a3e 1a9d b8bd 2967 26be fa3e 4fbe
000002c0: cafc 3abe 9e7a 76be ef74 60be b9a7 863d
000002d0: 67c2 d23d 8987 59be a8a3 12be f93d 75be
000002e0: 91a7 6fbe 3b40 113e 2667 c1bc 7539 a13d
000002f0: 0098 55be e9bf 83bd bb9c 7a3e 6bee 3abe
00000300: bba5 333e 4f61 3bbe 09a4 a3bc 5585 fabd
00000310: 8951 04be 4cc7 4cbe 61b5 d43d 145c 4b3e
00000320: 7e72 1c3d 9802 05be 34b5 e63c 8c6e 9c3d
00000330: 6c3d 4bbe ce00 81b9 35f6 4cbe e4c6 11be
00000340: 672b 16be 678e b63d 83c5 54be 687f 6f3c
00000350: 8969 a03d 2199 f2bd 744c f0bd b84c 8c3d
00000360: bf44 57be 436f 193e 6a56 51be 17fe 3f3e
00000370: b039 5cbe 5e61 75be 6b1c f0bc 6d4c 073d
00000380: a99a e4bd 3c97 0b3e 4822 79be 4ca7 d1bd
00000390: 3ea9 fbbd df80 c13c b901 2fba 7678 5bbd
000003a0: 04e8 41bd edb8 65be 5441 74bd cc8f 13be
000003b0: b651 cbbb 462f 6fbc a4d0 2abc c89e 53be
000003c0: 4ae1 5d3e 2f67 493e 94c6 4ebe 1d59 60be
000003d0: 1f16 68bd 8ff6 49be 7965 de3d 8920 eebc
000003e0: e537 693e e054 37be e456 ed3d c83a b3bc
000003f0: aac0 4abc f12d 4e3d 810d 4bbc f8ff 6c3e
0.06546871 0.08151188 0.13434403 -0.06807264 0.19906919 0.13364837 0.06580781 0.22617571
0.13541545 -0.17862435 -0.16889474 0.23562609 -0.03678691 -0.13906299 0.22793035 0.18261036
0.14357774 0.12259291 -0.08461165 -0.11516972 -0.15888354 0.058630366 0.19749881 -0.0871207
0.14007388 -0.20237842 0.09976378 0.024976874 0.24362065 0.02075888 -0.113742135 -0.085735455
0.09342276 0.02358927 0.12501183 0.12494364 0.23006198 0.19281334 0.096690595 0.15560737
-0.00506309 0.12076174 -0.10018584 0.05986191 -0.054750174 -0.09915091 0.13651462 0.088153906
-0.038102914 -0.18145457 0.16892594 0.2101369 -0.049352337 0.1516073 -0.17278005 0.055032387
-0.07654223 0.15597816 0.17527124 -0.059554853 -0.11480712 -0.04824482 0.23194438 -0.18006802
-0.22476299 -0.053394005 0.19909912 -0.2354025 -0.18781592 0.15467897 0.059678353 -0.07079256
-0.11435276 -0.21903078 0.22610718 0.13328356 0.2250655 0.24837664 -0.21485607 -0.062117096
-0.0022524341 -0.199871 -0.16921021 0.24818861 0.0661691 -0.20889752 0.19231413 -0.11644373
0.059620656 -0.111027 0.106443346 0.1069562 -0.037183374 0.1363497 -0.19325466 0.2088743
-0.053881247 0.03866249 -0.106378734 0.10026116 -0.11368989 0.23646872 0.14853483 -0.15128236
-0.23116758 0.2106559 0.15276876 0.1426965 -0.13836259 0.027547307 0.07027187 -0.1465794
0.08271289 0.0935481 0.15567558 0.21304949 0.24753603 0.17117357 -0.011140065 0.04600505
0.042467833 -0.20884486 0.17232978 0.22608347 0.0023251667 -0.0006551772 -0.10275287 -0.0584987
-0.08231711 0.018585568 0.040364113 -0.10492613 0.048608232 0.104677424 -0.0016342968 -0.18602931
0.04471196 0.17247835 0.19841541 -0.22150646 0.017325481 -0.07170843 0.16335891 0.20242447
-0.010840398 -0.10423497 -0.23402922 -0.19370794 -0.18661803 0.19991893 -0.12987453 0.02630824
0.019729117 0.053699903 -0.22920166 0.24075341 -0.17223178 -0.007232735 0.10370764 -0.009834067
-0.1560111 0.20813994 -0.085774586 0.12151842 0.20595957 -0.018334305 0.0055726827 0.113156065
0.03883305 0.0010703909 0.05506166 0.19546424 0.16642743 -0.0901434 -0.1625029 -0.20238867
-0.18260494 -0.24070212 -0.21919607 0.06574959 0.102909856 -0.21243109 -0.14320242 -0.23949422
-0.23403765 0.14184658 -0.023608755 0.07872287 -0.20858765 -0.06433088 0.2447385 -0.18255012
0.1754369 -0.18298839 -0.019975679 -0.12232462 -0.12921728 -0.199979 0.10386158 0.19859344
0.038195126 -0.1298927 0.028162576 0.07638273 -0.1984765 -0.00024605397 -0.20015796 -0.14236027
-0.14664994 0.0891388 -0.2077847 0.014617778 0.07832629 -0.11845613 -0.11733332 0.068505704
-0.21022318 0.14983849 -0.2044312 0.18749271 -0.21506381 -0.23962924 -0.029310426 0.03303187
-0.111623116 0.1363191 -0.24329484 -0.102369875 -0.1228814 0.02362102 -0.0006675977 -0.053581677
-0.047340408 -0.22433825 -0.059632614 -0.14410323 -0.006204809 -0.014598673 -0.01042572 -0.20666039
0.21667972 0.19668268 -0.20192939 -0.21908994 -0.05666172 -0.19722961 0.10859198 -0.029068248
0.22775228 -0.17903471 0.11588839 -0.021878615 -0.012375036 0.050336782 -0.012393356 0.2314452

weight_hh_l0 f4 [48, 16]
00000000: e8b7 7f3e 793d 95bb 7832 553e e31d 00be
00000010: 5c0d c9bd 1a27 af3d bf33 18be 2f49 77bc
00000020: 6668 6bbe 6140 483e 4ddf 5fbe 8f8c d5bd
00000030: c0f1 dcbd 6c4c 07be 2ecd 73ba b153 d1bd
00000040: 57a9 f83d e692 9ebc dbc4 54bc 5f81 403d
00000050: dee4 673e c7fc 803d b97a b2bc 63b4 db3d
00000060: 5e8f 5e3e 803f 403e c3b5 39be c587 5fbe
00000070: 8f8e 353e c971 0f3e 1479 163e bd68 76be
00000080: 36f6 233d 7ab1 b3bd 55e7 5abe e0bb d23d
00000090: 6819 df3d ff7e 183e c16a c8bd e5db 27be
000000a0: ae3d 4abe bb39 2f3d 7021 3ebe 5d49 18be
000000b0: 0897 5d3a 2815 df3d 56c0 78b9 638f 413e
000000c0: 670a d5bd d99e 8bbd 3b69 8dbc 8dac 403e
000000d0: 8730 393e 8c60 473e c247 45be 9b69 a0bd
000000e0: 22b3 373e 314f 58bd 36dc 353e 40c8 ff3c
000000f0: e1b7 57bc 333e 81bd f347 173e eb90 5d3e
00000100: 9067 c33d 5295 513e c269 73bd 0ece 8a3a
00000110: df9b 8e3d 40b4 0ebd d9d7 40be 9a9f 273e
00000120: 35e9 8c3a 282b fd3d f0f3 2ebe 5141 abbd
00000130: d2f8 43be 0774 b6bd 195a ff3d 51e3 4f3e
00000140: c059 3f3e 2d6e 54be 96b2 093e 9ab6 ea3d
00000150: 83f1 4a3e 2a4e bb3d 7db3 10bd 3b71 a2bd
00000160: 380d a4bc 2cd8 353e 9cc7 30be 94d5 bd39
00000170: 1211 623e 2064 143d 1b0c 20be 0563 13be
00000180: 4297 86bd 68b4 763c d389 213e 596d 153e
00000190: a5db 1fbe 193f f83d 1a69 62bd a81a 213e
000001a0: b8d5 3cbe e68a 4f3d a13f 2cbc cd75 543e
000001b0: e760 2d3e d167 36be 7892 6ebe 877b 1c3e
000001c0: 28f4 63be 235b 32bc e4ad 9dbd bed9 2e3e
000001d0: 512a c03d 7f31 5c3e ba07 563e bb8e ec3c
000001e0: e32c 61be f21f 5fbe 29e3 793d db5c 67be
000001f0: 29d9 83bd da1f dcbd f7bc 2abe 6d54 dcbd
00000200: c373 f83c 0261 0c3e 33e6 25bc 4007 55be
00000210: 2e32 633c 1e9d 1c3d c9cb 1e3d f97b 283e
00000220: 963f 2cbe 2b58 25be 8c89 a6bd 5b7c 02be
00000230: 7187 14be 3675 c93d d06a a23d 90d7 7b3e
00000240: ec1a 4bbc 4907 943d ab7a 223e 952c 333e
00000250: eda2 d3bd ea37 5fbe c03c 723d c3cc e23d
00000260: e828 24be 36b6 2dbe b8cd 22be b25e 5a3e
00000270: f98f 8fbd afe3 dc3c 7a78 56be 6b70 54be
00000280: 43c9 4d3e 2ea3 9dbd a6f6 db3d 962e 2abe
00000290: 7742 5e3e a1d8 163e 6d3d a4bd f50d d6bd
000002a0: 1fd5 5cbe c391 4c3e fb50 3cbb 4bea 2d3e
000002b0: 548b f2b8 3e76 3ebe aa4a 373e e6bb c4bd
000002c0: 9892 b23a fd87 303e b003 3abc 2841 583e
000002d0: 30af 76be 147b 093e 3798 a9bc 5799 453e
000002e0: 79a1 9a3d db93 34be 1a49 46be 28e9 cb3d
000002f0: 9308 67be 82dd f33c 752b 363c 3c5d 783e
00000300: d3d4 35be 1f28 abbd a2f7 153d 47aa 7dbd
00000310: 3f69 5fbe 7992 183e 3738 2ebe 5b15 f63d
00000320: 5514 993c 5a91 1abe d0f1 30be 72aa 483e
00000330: 48e6 043e 5861 683e 9b86 523e 71f3 8dbd
00000340: f21e 2e3e 4a35 8139 cdbe 203e 8b7d 3e3d
00000350: a121 55be 91b7 c73d 2d10 41bd 6dd8 e5bc
00000360: 8ef7 b33d d26b de3d a5e1 323e d82c 1a3c
00000370: 3255 9bbc 1d13 10be 0f95 6bbd 3d1a 81bd
00000380: 7c13 debd c2aa 493e 8df8 38be 3a24 ba3c
00000390: 420e 23be 51b0 35be 337e 393e 12ce 31be
000003a0: 4361 84bd b675 14bd de71 183e 2ba3 273e
000003b0: 3234 51be 8b7a cebc eb4f 6f38 45f1 fbbb
000003c0: f0b3 d13d 58bc a43d 65cd 303e f234 2abe
000003d0: 261e 6abe 02a9 293d 96f0 343d 3194 9d3d
000003e0: 5e5c 13be fb21 46be 0733 1f3e 1138 65bb
000003f0: 58b0 683e f1be abbd fa9a cf3d 0f07 8f3d
0.24972498 -0.0045544473 0.20820034 -0.12511401 -0.09817001 0.0855238 -0.1486349 -0.015093132
-0.22989044 0.19555809 -0.21862526 -0.104272 -0.10788298 -0.13212746 -0.00093002885 -0.10221041
0.12141674 -0.019357156 -0.012986387 0.046998378 0.226459 0.062982135 -0.021787034 0.107277654
0.21734378 0.18774223 -0.18135743 -0.21829136 0.17730163 0.1400825 0.14694625 -0.24063392
0.040029727 -0.08774085 -0.21377309 0.102897406 0.10893518 0.14892195 -0.09785987 -0.16392477
-0.19750091 0.042779665 -0.18567443 -0.14871736 0.00084529864 0.10892707 -0.00023722774 0.18902354
-0.10402375 -0.06817407 -0.017262092 0.18815823 0.18084918 0.19470423 -0.19265655 -0.07832643
0.17939427 -0.052809898 0.17759785 0.031223416 -0.013166399 -0.06310692 0.1477354 0.21637313
0.09541237 0.20467117 -0.05942703 0.0010589974 0.06963324 -0.03483987 -0.1883234 0.16369477
0.0010750653 0.12361747 -0.17085242 -0.083620675 -0.19137886 -0.08908849 0.12468357 0.20301558
0.1868658 -0.20745154 0.13447031 0.1146061 0.19818692 0.09145768 -0.035327423 -0.07931753
-0.020025834 0.17758244 -0.17263645 0.00036208017 0.22076824 0.0362283 -0.15629618 -0.14393242
-0.06571819 0.015057661 0.15775232 0.14592494 -0.15611131 0.1212141 -0.055276014 0.15732825
-0.18440902 0.050669573 -0.010513217 0.20748062 0.16931497 -0.1781304 -0.23298061 0.15281497
-0.22261107 -0.0108859865 -0.07699183 0.1707525 0.09383071 0.21503256 0.20901385 0.028876653
-0.21989779 -0.2178953 0.061007652 -0.22594015 -0.064379044 -0.10748263 -0.16673647 -0.107582904
0.030328637 0.1370888 -0.010125685 -0.20803547 0.013866944 0.038235776 0.038768563 0.16453542
-0.16821131 -0.16146915 -0.08131704 -0.1274275 -0.14504792 0.09836809 0.07930529 0.2459395
-0.012396555 0.07227952 0.15867107 0.17497475 -0.1033381 -0.21798673 0.059139967 0.110742114
-0.1603123 -0.16964039 -0.15898788 0.21325186 -0.070098825 0.026964037 -0.20944396 -0.20746009
0.20096307 -0.0769714 0.10740404 -0.16619334 0.21705042 0.14731075 -0.080195285 -0.10451881
-0.21565674 0.19977479 -0.0028734792 0.16983907 -0.00011565411 -0.18599793 0.17899576 -0.09606151
0.0013624011 0.17239375 -0.011353418 0.21118605 -0.24090266 0.13425857 -0.020702465 0.19296776
0.0755033 -0.17634527 -0.19363824 0.099565804 -0.22561865 0.02976871 0.011118759 0.24254316
-0.17756967 -0.08357262 0.036613114 -0.061929967 -0.21817492 0.14899625 -0.17013632 0.12015792
0.018686453 -0.1509451 -0.17279744 0.1959627 0.1297847 0.22693384 0.2055916 -0.069311984
0.17003992 0.000246445 0.15697785 0.046506446 -0.2081361 0.097518094 -0.047134567 -0.028057301
0.08787452 0.10860409 0.17468889 0.009410106 -0.018961523 -0.14069791 -0.0575152 -0.06303833
-0.1084356 0.19694045 -0.18063565 0.022722352 -0.15923408 -0.1774304 0.18114547 -0.17363766
-0.06463864 -0.03624507 0.14887187 0.16370837 -0.20430067 -0.025204917 5.705647e-05 -0.0076886737
0.102393985 0.08043736 0.17265852 -0.1662176 -0.22863063 0.041420944 0.044174753 0.07694281
-0.14390704 -0.193489 0.15546809 -0.0034976045 0.2272352 -0.083860286 0.10136981 0.06983768

bias_ih_l0 f4 [48]
00000000: 3fce 7c3e aa3b 123e 8466 64be 0d76 933d
00000010: 11a6 643e 6e87 91bd 5b4d 45bd 2987 143d
00000020: 2cbf e33d 5fc2 37be df86 623e e30d 2c3e
00000030: a9d8 633e 0277 5cbe a3ce 983d 09a0 1cbc
00000040: 1498 35bc ebf8 be3d ba21 d2bd 55c4 723c
00000050: 964b 13be 68d6 673e ff83 62be addd e9bd
00000060: 68b1 fdbd ec6a 5c3d 774f 02be 2fcc 62be
00000070: 2295 273e 69d4 b33d 749c 433e 6487 743d
00000080: acd6 2e3e bfef 743e a109 503e 6bbf 3c3e
00000090: ebc9 15bc d4dd c1bd 91b9 c1bd 6a8d 4fbd
000000a0: 4bfb 99bd 9503 913d 8f86 66be b747 40be
000000b0: 65ad 063e de80 2bbd 23c1 a93d c005 b1bd
0.24688052 0.14280573 -0.22304732 0.07200251 0.22328974 -0.07105909 -0.048169475 0.03626171
0.111204475 -0.1794524 0.22121762 0.16802172 0.22250618 -0.21529773 0.07461288 -0.00955964
-0.0110836215 0.09324821 -0.10260339 0.014817317 -0.14384302 0.22640383 -0.22120665 -0.114192344
-0.12387353 0.053812906 -0.12725626 -0.22148202 0.16365483 0.087807484 0.19102651 0.05969943
0.17074078 0.23919581 0.20316173 0.18432395 -0.009142379 -0.094661385 -0.09459222 -0.050671972
-0.075186335 0.07080761 -0.22512268 -0.18777357 0.13152082 -0.041870944 0.08288791 -0.08643675

bias_hh_l0 f4 [48]
00000000: 4749 b93d 9f5d 2b3e faf0 443e 6818 2abe
00000010: 4565 e83d 60f6 013e 8c48 f83d b859 c0ba
00000020: f15b 883d e119 3c3e 0135 41be 4e4d a3bc
00000030: d0bc 68ba e6a4 eb3d 33a6 2fbe 2f38 3dbe
00000040: 354e 72bd d4a8 b23d 46e6 0b3d f377 ed3d
00000050: 89b9 fa3d 4213 f83b 4ee4 fdbd 1eaf 5bbe
00000060: 219b 52bc e3d2 7ebe c815 a3bd efe9 6a3e
00000070: d083 313e 348b e73d cdfe 69be b8c1 643e
00000080: 0399 1f3d 1c13 493e c2f9 d3bd a52b 6a3e
00000090: 3359 81bd f1dc 32bc 5db7 ab3d 38eb 9a3d
000000a0: 7fa7 9bbd 520a ecbd 3fb6 aebd fba9 52be
000000b0: 36c0 763b 21ab 6dbe 852d 28be b5fd 0b3e
0.0904718 0.16734932 0.1923255 -0.16610873 0.11347441 0.12691641 0.12123212 -0.0014675176
0.066581614 0.18369247 -0.18867876 -0.019934323 -0.0008878233 0.11506061 -0.17153244 -0.18478464
-0.059156615 0.08723608 0.034155153 0.11595144 0.12242419 0.007570655 -0.12397061 -0.2145352
-0.012854368 -0.24885134 -0.07963139 0.22940801 0.17335439 0.11305848 -0.22851105 0.22339523
0.038964283 0.19636196 -0.10350372 0.22868212 -0.063158415 -0.010916934 0.08384583 0.07564396
-0.07600307 -0.11525406 -0.085308544 -0.20572655 0.0037651188 -0.23209812 -0.16423614 0.13671

weight_ih_l0 f4 [3, 11]
00000000: c2d5 ec3c c0f6 a8be d790 1cbf cec9 4f3f
00000010: 03a8 633f d1bf acbe 9c90 793b f840 633e
00000020: 72f3 453f fc90 293f d1ae 2ebf 9db6 b2bc
00000030: 0bcc 76bf c823 5e3e 5add 623f 16ac 5bbb
00000040: 07a6 953e 4f2f 38be 79c4 32be ad38 5a3e
00000050: eca8 5fbf 16a9 ca3e db63 9bbe 9bb4 5e3f
00000060: 2e85 7a3e 33c8 433f 279b 47be d865 14bf
00000070: 4772 383f d990 793f 2eb7 713f 9f03 9cbe
00000080: cc7f 67bf
0.028910521 -0.33000755 -0.6115851 0.81167305 0.8892824 -0.33740094 0.0038080579 0.22192752
0.77324593 0.66236854 -0.682355 -0.021815592 -0.96405095 0.21693337 0.88619006 -0.003351932
0.2922823 -0.17986797 -0.17457761 0.21310683 -0.8736713 0.39582127 -0.3034962 0.8699433
0.24464867 0.76477355 -0.1949278 -0.579679 0.72049373 0.97486645 0.94420135 -0.30471513
-0.9042938

weight_hh_l0 f4 [3, 1]
00000000: 6ea5 1f3f b786 d6be eba1 59bf
0.623618 -0.41899654 -0.8501269

bias_ih_l0 f4 [3]
00000000: 9874 4e3f a064 47bf 4889 e3be
0.8064666 -0.77887917 -0.44440675

bias_hh_l0 f4 [3]
00000000: 5985 38bf 1178 b63e f3f8 4c3e
-0.7207847 0.35638478 0.20016842

weight f4 [1, 16]
00000000: cc50 bfbd 166f e4bd 0544 cdba a711 0c3d
00000010: 73bc 97bd 848e 1d3e 93a2 8ebd bea8 bfbd
00000020: e13a 12be 2b68 333e 4d24 47be 5b87 55be
00000030: 4b29 4a3e 3210 66be ab2e 0f3e 8fde 8dbc
-0.09341583 -0.111540005 -0.001566053 0.034196522 -0.07408991 0.15386397 -0.06964602 -0.09358357
-0.14280273 0.17520206 -0.19447441 -0.20852415 0.19742315 -0.22467116 0.13982646 -0.017318038

weight f4 [680, 17]
00000000: a56b d8bd 798b 46be 2f0c 3f3e 762b 07bd
00000010: b7b6 9ebd 3af5 98bb 4a96 9dbd db48 203e
00000020: 17ed edbd 8473 c43d df8c 27be 9098 27be
00000030: 121a d73d 738e 733e 2086 693e 967f 6e3e
00000040: e674 65be 63c8 713e 4202 85bd ab2b 6fbd
00000050: 4a61 08be 4772 76be 9602 143e d4cd 41be
00000060: cd8e babd 6cc3 503e 36ca 29be 42a4 6c3e
00000070: 4891 c5ba 165d 693d f5a3 0b3e d7b8 943d
00000080: fb85 07be 94a8 713d 511d 69be 5d7e 1ebc
00000090: a8b8 683e 4946 e33d e881 563d ad7e 073e
000000a0: 7e0f 54be ffdb f33d 2f12 70be dcac 373e
000000b0: 8a12 cabd 4d28 733e c7b4 23be e4b6 043e
000000c0: d234 44bd 3eec 503e d23d ed3a 7296 8c39
000000d0: 4433 373e c951 20be 39c7 3f3e 8657 25be
000000e0: 5244 49be 038e a6bd a39d 0abe 4512 2cbe
000000f0: 13cf 55bd ca49 26bb e01d 253e 6bf6 403e
00000100: b542 97bb 7c63 8abd c460 8dbd 7d8e e4bd
00000110: 7aca a7bd 2a9a 423c 0c87 603e 14d8 8739
00000120: 2b38 2c3c ef56 343d f9d6 05be dc23 c13c
00000130: 8cad 233d f05c f1bd fc38 283a 2f49 ca3d
00000140: 678a 26be 68de 133e 144e 903c c045 97bb
00000150: 2851 b8bc dd66 d3bd e095 6dbd 6460 59be
00000160: 8a5a 55be 1adc 30bc 933c 2d3e 3049 833c
00000170: a68c 3f3e 73ae 533e 4f02 98bd 2b8c 3bbe
00000180: 1cd9 783e b5ae 1c3c 5576 0abe 3395 76be
00000190: 48ab 3c3d cb04 413e b83e f4bd 74a6 d5bd
000001a0: 3ef6 583d 1176 53be cdc4 dd3d 4f2e 163e
000001b0: 8e97 fb3d ac29 283e 64af 34be 26c9 683e
000001c0: 1371 4ebe 8dae f73d 5b56 293d dcc1 a8bd
000001d0: cb87 5f3e d64c dcbd 39e8 50bd 150d 7abd
000001e0: e4ff 32be e5ed b13d a2a0 623e fbb8 0dbe
000001f0: b4c4 88ba ee83 4bbe 4ee4 0cbe 9fdf 5abe
00000200: 298b 953d 5b76 4c3b 4bef 81bb 82d8 edbd
00000210: 3997 b53d c454 31be dd2d 06bd 053e 48be
00000220: 3daf 073e d93f 07be c9a2 90bd cceb 553e
00000230: c5d5 023e 81de 183e dda2 94bd 7ada ec3d
00000240: dbba 1f3d a303 2e3e 9d57 a63d 6a40 573e
00000250: 8e87 b0bd 8392 1e3e 2a0b 32be ee53 f6bd
00000260: b07d 89bd ddf3 0cbe 542d 3fbe 85c0 633e
00000270: 6f9f cebb 49f0 2bba ebe1 2dbe 48d4 74bb
00000280: dc78 493e 3c80 72bd eb41 493e 9b18 6dbe
00000290: 89c2 eebd 9b62 6c3e ce8a 9bbd c69e 093e
000002a0: ee51 dbbd 1ee3 e2bd 4c75 843c 2657 ee3b
000002b0: 5d3f 23be a50e 77be f314 503e f359 3cbe
000002c0: 2dbc 7dbd db5e 20bc 99bc 093d 1830 41be
000002d0: bc3a 003e 71d5 293e 4c69 263e 6083 1c3e
000002e0: 443b e13d 3e1d 6cbd ec6a 23be c3e4 2ebe
000002f0: 6584 5bbe d76f 833d 5776 093e ad09 1e3e
00000300: 7383 45be 9e1a f43c 5e5b a0bd 4406 a13b
00000310: fc1b 4abe b870 a4bd 7c59 d8bd 71b5 1dbe
00000320: be8a 00bd e3f4 3bbe 5515 4cbe f039 7cbe
00000330: dc7b ce3d 6719 e2bb 90d0 41be a707 6cbd
00000340: a625 1a3d 3ff8 f2bd 0752 5f3d e593 2d3e
00000350: 6ed0 c63d 0d02 7bbe 5f6d 36bd 138c 463d
00000360: 3fb2 5cbd 35a8 293e 500d 753e ca7e 603e
00000370: 2027 5c3d 161e 1fbd 4f46 c13c b82b 86bc
00000380: c3f7 10be 3dfe 153d eb52 adbd d794 103d
00000390: b657 e4bd de2b ffbb 0cdc 30be 4831 b53d
000003a0: e1c9 18be cc96 f8bd c897 b63c bf5e e0bd
000003b0: b278 673e d187 5b3d de12 6dbc 9368 e43d
000003c0: e932 2abe e3ae 9ebb a993 e53d f44d 4f3e
000003d0: a52c 5b3c 8763 173e 2160 35be 7cc7 1ebe
000003e0: 18a0 643e cc27 0fbe 4349 373e ccd0 4f3e
000003f0: 223a 09be 9567 19be 64a2 72bd 147b 48be
-0.105674066 -0.19389142 0.18656991 -0.033000432 -0.07749694 -0.004667905 -0.07694681 0.15652792
-0.11617487 0.09592345 -0.16362332 -0.16366792 0.105030194 0.23784809 0.22805071 0.23290858
-0.22407874 0.23611598 -0.06494571 -0.058391254 -0.13318363 -0.24067031 0.14454111 -0.18926173
-0.09109268 0.20387048 -0.16581044 0.23109534 -0.0015073204 0.05697354 0.13636763 0.07261818
-0.13234703 0.05899866 -0.2276509 -0.009673682 0.22726691 0.1109739 0.052369982 0.13231917
-0.20709035 0.11907195 -0.23444436 0.17937034 -0.09866817 0.23745842 -0.1598693 0.12960392
-0.047901936 0.20402619 0.0018100089 0.0002681497 0.1789065 -0.15656199 0.18728341 -0.16146669
-0.19654968 -0.08132555 -0.13536696 -0.16803844 -0.052199434 -0.0025373572 0.16124678 0.18844001
-0.0046161064 -0.067572564 -0.06903222 -0.1115999 -0.08192916 0.011877576 0.21926516 0.00025910197
0.010511438 0.04402822 -0.13070287 0.02357667 0.03996043 -0.117853045 0.0006417183 0.0987724
-0.16263734 0.1444031 0.017615356 -0.004616469 -0.022499636 -0.10322354 -0.05800426 -0.21228176
-0.20835319 -0.010794664 0.16917638 0.01602611 0.18705997 0.20672016 -0.07422315 -0.18315189
0.2430157 0.009563138 -0.13521703 -0.24080352 0.046061784 0.18849485 -0.11926025 -0.10432139
0.05296921 -0.20650508 0.108285524 0.14666103 0.12284766 0.16422147 -0.17645031 0.22732982
-0.20160322 0.1209384 0.04134212 -0.08240101 0.21829145 -0.10756843 -0.051002715 -0.061047632
-0.17480427 0.08687953 0.22131589 -0.13840096 -0.0010434599 -0.19874546 -0.13758966 -0.21374367
0.07301933 0.0031198475 -0.0039652935 -0.11613561 0.08866734 -0.17317492 -0.032758582 -0.19554909
0.13250442 -0.1320795 -0.07062299 0.2089073 0.12776859 0.14928629 -0.07257626 0.115651086
0.03899656 0.16993575 0.0812218 0.21020666 -0.08619605 0.15485577 -0.17387071 -0.12027727
-0.06713426 -0.13764901 -0.18669635 0.22241409 -0.006305627 -0.00065589376 -0.16980712 -0.0037357975
0.1967501 -0.059204325 0.19654052 -0.23153917 -0.116581984 0.2308449 -0.07594834 0.13439474
-0.10708986 -0.110784754 0.016169213 0.0072735725 -0.1594214 -0.2412668 0.20320491 -0.18393688
-0.061947037 -0.00978824 0.033627126 -0.18866003 0.12522405 0.16585328 0.16251105 0.1528449
0.10997632 -0.057645075 -0.15958756 -0.17079453 -0.21437223 0.06417816 0.1342405 0.15433379
-0.19288425 0.029797848 -0.07829927 0.004914077 -0.19737238 -0.08029312 -0.10563943 -0.15401246
-0.031382315 -0.18355136 -0.19930013 -0.24631476 0.10082218 -0.006900001 -0.18927217 -0.057624485
0.03763356 -0.118637554 0.054521587 0.16950949 0.097077236 -0.24512501 -0.0445379 0.04847343
-0.053880926 0.16568072 0.2393086 0.21923366 0.05374825 -0.03884705 0.023593096 -0.016378269
-0.14157014 0.036619414 -0.08463081 0.035298195 -0.11149542 -0.007787212 -0.17271441 0.0884729
-0.1492076 -0.12138137 0.022289172 -0.109555714 0.22604635 0.05359632 -0.01446983 0.111527584
-0.16620983 -0.0048426255 0.112098046 0.2024458 0.013377343 0.1478406 -0.17712452 -0.15505785
0.22326696 -0.13980025 0.17899041 0.20294493 -0.13401082 -0.1498092 -0.0592369 -0.195782

bias f4 [680]
00000000: a58c 613e 4ef0 963d 59e6 693e 4514 14be
00000010: 7888 3abd c61e b1bd ce00 00be fa44 61be
00000020: 21f0 503e f8f2 8cbd 75a0 1f3e acb7 b83c
00000030: 474a 163d 70d5 0abd 2e2b d7bd 6a9d 273e
00000040: 92cb dcbd 31a7 cd3d 6870 233e 981d 873a
00000050: 1a87 0dbe dd78 aabd 2450 bb3d 00d1 803d
00000060: b561 1c3e 771e 493e 6a28 70bc f155 56be
00000070: 56ac 17be 8740 603d 2d1a 8a3d 9c29 ed3d
00000080: 569f babd 56c1 293d e4ae e6bd 0946 8f3d
00000090: 38fe c43d 9363 3bbe 6fb9 c53d 8d9f 143e
000000a0: 5f5c df3d cb06 2a3b ab7c 003e 6038 ee3d
000000b0: 059a 07be bec8 febd 97c1 133e d098 89bd
000000c0: d7e3 533e e836 91bd 5677 c3bd 2caa ab3d
000000d0: eb93 49be 8521 2d3e ec6c 8a3d 4919 c7bd
000000e0: cd95 52bd ccfa 123e 70b1 5f3d d679 f0bd
000000f0: cf0c 08be 5042 873d 44ff f53c 95b2 033e
00000100: a2cb 1abe b638 25be 9bdf 5f3e a4c9 683e
00000110: a7b9 393e e5b2 053e abd3 24bd d6d4 f5bc
00000120: 4de2 ffbd a433 3c3e c3ee cc3d a1e7 493e
00000130: 0f83 183d ac7b 4e3e 120f c9bd e5d5 0cbe
00000140: 30c5 eabc e73b 053e efce c1bd daa0 aabd
00000150: cf01 753e f440 42be 5a8a 2e3e b73c e13d
00000160: ce55 1d3e 02f8 f83d 7a23 36be 12e8 0dbe
00000170: bb9e 09be 11b0 253d 29be 09bd 79e9 0d3e
00000180: 12fc 193e a7f1 8d3c c3ae 4abe f429 04be
00000190: bfde 76bd fcf5 983d 4253 febd 0646 5bbd
000001a0: 0abf 00be cefe 26bd 5b7c 383e 71fa babc
000001b0: 10f4 f2bd d8f2 28be 2809 5d3d 066b e5bc
000001c0: 193b d0b9 8dc8 3ebd dd70 f2bc 3202 18be
000001d0: 50fd 07be 5c33 563e fd59 2e3e 51c1 e6bc
000001e0: 4a09 1bbd e555 7a3e 0385 64be 4555 07be
000001f0: fb1d e83c e0f6 2f3e e45e 20be 6ceb 753d
00000200: 0432 0c3d d559 48be dc93 e2bd fd7a e7bd
00000210: 1915 4bbe 9232 2ebd 0f0f 0e3d 6716 f33d
00000220: 7e22 373d 5819 1abe 26ca 17be 85b6 bdbc
00000230: b225 f9bd fde5 29be ffed 153d 8f6d 9bbd
00000240: f179 72bd 2993 95bd 75e6 26be 44da 263e
00000250: 7ccd b43c 87ec b3bd 8496 583e bfc4 27be
00000260: 7eb2 d7bd 17ee 013e 0f43 3fbe 982b 61be
00000270: 7468 2f3e e44d 733e 8475 643e 3a26 17be
00000280: 3086 5bbe 18cb 4ebc b94c 03be 6c1e 63bd
00000290: 4f2e 49be 4dab 3abd d529 6f3e aa4f 28bc
000002a0: 9b84 ff3d 378f e7bd 7709 25be 1d80 6a3e
000002b0: 986e 9bbd d477 f2bd a9be c33d 5bbe 153d
000002c0: 2c0b 07be 5b04 d8bd eefd 3f3e b4d0 cabd
000002d0: 5f16 00be 0044 b7bc a3af 383d b540 703d
000002e0: 2ada 69bc 32d3 0cbe 31bb 3e3e 93c8 0a3d
000002f0: 536e d4bc 366e d0bd dbd4 ebbd 0742 3b3d
00000300: 5f36 ef3d e595 ebbd d890 f6bc 3c38 c8bd
00000310: 0d6e ee3d 5b4d 4dbe bf00 8bbd de64 20be
00000320: 3632 e13d 30db 2dbe 793c a03c 25a2 3339
00000330: bb88 60be bd49 0a3e 12b4 61bd 645b 35be
00000340: fe3d 74bc d5e1 c1bd 0a40 e4bd 62dd 5a3e
00000350: ac13 76bd 7ac4 933d 1a55 653e cd1d 33be
00000360: 3ff3 633d d29e a63c 2d11 1cbd 6b79 9abc
00000370: 1bb2 d93d fa6b e23d 1f34 04be 787f 333e
00000380: 35fb c6bd 97bd f53c 53bf 43bd 05a1 473e
00000390: eb62 31be 33d1 3a3e 7135 193e 1280 543e
000003a0: 8142 60be 66f3 adbd 3d22 d5bc 2553 18be
000003b0: 908d 37be eb91 463e 2c9c fe3c a27a b93c
000003c0: ba5b 39be a2e5 3ebe 416d 3dbe 5686 c6bd
000003d0: f54a 8abd 8e36 44be 5d82 8b3c 2490 193d
000003e0: e6b9 923d 3ab2 ba3c 85de 58be fdba 723e
000003f0: 67aa 44be 7534 3dbe eb99 21be 353f bb3d
0.22026308 0.07370053 0.22841777 -0.14460857 -0.045540303 -0.08648448 -0.12500307 -0.21998969
0.20404102 -0.0688228 0.15588553 0.02254852 0.03669193 -0.033894956 -0.10506283 0.16368642
-0.107810155 0.10041655 0.15960848 0.0010308502 -0.13821068 -0.08323834 0.09146145 0.062898636
0.15271647 0.19640528 -0.014658073 -0.20931222 -0.14811835 0.054749038 0.06743274 0.11580202
-0.09112422 0.041444145 -0.112638265 0.0699578 0.09618801 -0.18299703 0.09654509 0.14513989
0.1090629 0.002594399 0.12547557 0.116318464 -0.13242348 -0.12440632 0.14429317 -0.067186
0.20692383 -0.07090551 -0.09544246 0.08382067 -0.19685332 0.16907318 0.067590564 -0.0972162
-0.051412392 0.14353484 0.054612577 -0.11741988 -0.13286136 0.06604445 0.030028947 0.12861092
-0.15116742 -0.16134915 0.21862642 0.2273317 0.18137227 0.13056524 -0.040240925 -0.030008715
-0.12494335 0.18379074 0.10006478 0.19717266 0.037234362 0.20164365 -0.098173276 -0.1375347
-0.02865848 0.13011132 -0.094632976 -0.08331461 0.23926471 -0.1897009 0.17044964 0.109979086
0.15364763 0.12156679 -0.1778697 -0.13858059 -0.13439457 0.040451113 -0.033628616 0.13858594
0.15037563 0.017327143 -0.19793229 -0.12906629 -0.06027102 0.07468793 -0.12418224 -0.053533576
-0.12572876 -0.040770344 0.18016188 -0.022824498 -0.118629575 -0.16498888 0.05396381 -0.028005134
-0.00039716883 -0.04657798 -0.029594833 -0.14844587 -0.13280225 0.2091803 0.17026515 -0.028168352
-0.037850656 0.24446829 -0.22316365 -0.13216121 0.028334608 0.17184019 -0.15661198 0.06003897
0.034227386 -0.19565518 -0.11063358 -0.11302755 -0.19832267 -0.042528696 0.03468233 0.11869507
0.04471063 -0.1504873 -0.14823207 -0.023158321 -0.12165393 -0.1659164 0.036603924 -0.07589256
-0.059198324 -0.07303459 -0.1629885 0.16294199 0.022070639 -0.087853484 0.21151167 -0.16383646
-0.105320916 0.1268848 -0.18677925 -0.21989286 0.1712969 0.23760182 0.22310454 -0.14760676
-0.21437907 -0.0126216635 -0.12822236 -0.055448934 -0.19646572 -0.04557352 0.23355801 -0.0102729
0.12476464 -0.11306613 -0.16116892 0.22900434 -0.075894535 -0.11839262 0.0955785 0.03655849
-0.13187855 -0.10547706 0.1874921 -0.09903088 -0.12508534 -0.022371292 0.045089375 0.05865546
-0.014273206 -0.1375244 0.18626095 0.03388269 -0.025931513 -0.10177271 -0.11515208 0.045717265
0.11680292 -0.115031995 -0.030098364 -0.09776351 0.11642084 -0.2004904 -0.06787252 -0.15663478
0.10995905 -0.16978145 0.019560086 0.00017131174 -0.21927159 0.13504691 -0.05510337 -0.17710644
-0.014907358 -0.09466902 -0.11145027 0.21373513 -0.060077354 0.07215209 0.22395745 -0.17491837
0.0556519 0.020339403 -0.038102318 -0.018856725 0.10629674 0.11055751 -0.12910508 0.17529094
-0.09715883 0.02999763 -0.047789883 0.19495018 -0.1732289 0.18243866 0.14961793 0.2075198
-0.21900369 -0.0849369 -0.026017303 -0.14875467 -0.17925096 0.19391601 0.031080328 0.022641484
-0.18101397 -0.18642285 -0.18498708 -0.09693591 -0.06752578 -0.19161436 0.017029935 0.03749098
0.071643636 0.022790063 -0.21178634 0.23704143 -0.19205628 -0.18477042 -0.15781371 0.09142915

weight f4 [4, 680]
00000000: 4eb3 1bbc e2fd c93b 944f 943b 1910 a83c
00000010: f3bd 06b9 88a0 d0bb 5abd 163d 8628 6b39
00000020: 32b1 90bb 6809 cfbc acac e9bb 2753 313d
00000030: 9ad4 ffbb cf19 e3bb c310 06bd 72a1 f43c
00000040: cbc8 e03a 9c8e 0fbd a5f4 143d f4e2 0d3a
00000050: 9021 333d a561 95bc 2730 4fbc cf54 a53c
00000060: 0695 073d c70e a9bc c032 6f3c 22e4 5bbb
00000070: cabe 07bb 6087 34bc cda6 82bb 5413 37bc
00000080: 93d6 9d3c 7919 133c 8ddf 62bc 45c8 d5bc
00000090: 980c 0f3d 49f1 8f3c 7dab 8c3b 9e01 683c
000000a0: 07b6 a1bc ebcf 93bc feef e6bc ac4c 6cbc
000000b0: 0ff2 283c 3bde 95bc 8c52 05bb 4f50 63bc
000000c0: 71da d2bc 47bc da3c 8070 f4bb cd91 14bd
000000d0: d442 71bc 3d84 91bc e671 173d bdcc 94bc
000000e0: 68d5 263d 4691 d73c ef89 2f3c 9aed fb3c
000000f0: 0473 41bc 5fde 11bd 21db 133a a2fd 293d
00000100: 32f4 72b9 455e 8e3c 1805 cebc 7083 c63c
00000110: ca8e 0fbc 5340 b9bc c5eb adb9 c10d 0b3d
00000120: ee90 8abc 7b37 6aba bf17 d43c 5f89 3e3b
00000130: 8be8 2d3d ed25 8ebc 405b c9bb e9a9 263d
00000140: e303 f33c cf77 b43c 0602 673a a684 423c
00000150: d503 02bd f135 14ba d8e3 d1bc a33a 08bd
00000160: bf39 debc e19d 063d 9af3 98bc c4c9 4eba
00000170: 54d4 0bbc 4073 74bb d6f1 69bb 9bcd db3c
00000180: 1d1f 1a3d 4b28 7b3c afb9 ac3c 4548 38bc
00000190: 1505 e5bb 7602 12bd 12d9 933c bad9 a4bb
000001a0: 6d8b 8c3c 634b 52bb cc0b bbbc c0b3 223c
000001b0: 017f 9e3c c929 7739 fa51 023d 8377 25bc
000001c0: e7ae a03c 5b22 8d3b dd00 053d 993a 323a
000001d0: 6aa1 a8bc c23e 833b 8e9f f8bb 5c0a 373c
000001e0: da3b 0fbc 4fe3 27bd 07b6 bdbb a09b b4bc
000001f0: 06c4 063d 893f 4bbc db7c 883a c51e 0d3c
00000200: 134d 8338 6fba 24bc 8dfd 17ba cb63 d0b8
00000210: e1e1 b83c 7554 c43c d990 c63c ab7c 39bc
00000220: d835 e7bb 5f25 043c ac6d 1e3d 79d0 1ebc
00000230: c62c 2fbc a787 4639 95d8 abbc 85bd 503c
00000240: cc98 2e3d 613c 8b3c 315d 8fbb fe4f 84bc
00000250: e7a8 6a3a fe63 2a3c c642 ebbc 1f60 c63c
00000260: a580 ed38 d130 02bd 4d88 7fbc 1564 aebc
00000270: bdc1 f3bc 30ef a03c ee7c dabc 134f bcbc
00000280: c9c0 d5bb 125b 8c3b ed38 28bc b802 253d
00000290: 66f3 e63b dd5a 5a3c 47e1 a3bc d04c 5fbb
000002a0: 1304 1c3d 0ff1 943a f359 07bc df7e a6bb
000002b0: 1f82 0f3d 59c3 853b 2190 db3c 9334 183c
000002c0: d6ac 1e3a 855f b8bc dd14 833c f60e 0bba
000002d0: 485d 8dbc 6b13 0abd e2ae 253c 7631 06bc
000002e0: 483b 193d 25af 90bc 8fe6 acbc c969 ffbc
000002f0: f015 f4bc 56bc 493c afb6 58bb 283a 903b
00000300: 7018 53bc 4b8b b83c 2522 54bb 8a63 8a39
00000310: 1618 20bd d92c 83bb 250f 353d 5f2f 8c3a
00000320: 17a5 80bc bb4f 3a3c dd29 3f3c 78fd e73b
00000330: a629 963b 2160 dd3c edfc 0dbc 229c 3dbc
00000340: 8677 e43c 0204 32bc 9cf6 55bc c9b9 df3c
00000350: 6fc6 3cbc d06e 8c3c abc0 623b 02cf 363c
00000360: 2718 2abb e647 da3c 7184 71bc 74a4 173d
00000370: 7e49 253d a3f4 803b 9e70 783c 10db 203d
00000380: bb11 ee38 3fb7 fe3c 290c 2c3c af6f 0e3d
00000390: 70e7 803c 04b2 04bd a051 1d3d 4209 c2bc
000003a0: 575e 19bc 6755 75bc 7e42 ce3b 9766 a63c
000003b0: bc10 76ba cb87 fcbb ec05 0f3d ade8 2c3d
000003c0: 75bf 2d3d da3b 84bc d34b 2ebc 982e 1cbc
000003d0: fdec b83b 019f 41ba 25d6 d03c 0551 943c
000003e0: 5b20 aa3a 02fa c03c 06ab db3b 2778 553c
000003f0: 23f2 2fbb 0c7f 01bd 6601 e53c 1e9d 2fbc
-0.009503199 0.0061642984 0.004526088 0.020515488 -0.00012849997 -0.006366793 0.036801673 0.00022426443
-0.0044156546 -0.02527304 -0.00713118 0.04329219 -0.0078073265 -0.006930567 -0.03273083 0.02986214
0.0017149685 -0.035048112 0.036366124 0.0005412542 0.04373318 -0.018235037 -0.012645758 0.020182041
0.033101104 -0.02063693 0.014599502 -0.0033552726 -0.0020713084 -0.011018604 -0.0039871694 -0.011174042
0.019267356 0.008978241 -0.013847244 -0.026096473 0.03492412 0.017571108 0.004292904 0.014160542
-0.019740118 -0.018043479 -0.028190609 -0.014422577 0.0103116175 -0.018294444 -0.0020343391 -0.0138741275
-0.025738927 0.026701106 -0.0074597 -0.03627186 -0.014725406 -0.017763251 0.036973856 -0.018164033
0.040730864 0.026314389 0.010714038 0.030752946 -0.011807207 -0.03561246 0.0005640258 0.04150165
-0.00023169888 0.017378936 -0.025148913 0.024232596 -0.008762071 -0.02261368 -0.00033172793 0.033948664
-0.016914811 -0.0008934659 0.02589023 0.0029073579 0.0424581 -0.017352069 -0.006144911 0.040689383
0.02966494 0.022029785 0.0008812252 0.011872446 -0.031741936 -0.000565379 -0.02562134 -0.033259045
-0.027127145 0.03286541 -0.018670846 -0.0007888342 -0.00853451 -0.003730014 -0.0035697124 0.026831439
0.03762733 0.015329431 0.021084635 -0.011247699 -0.006989131 -0.03564688 0.018047843 -0.005030838
0.017156327 -0.003208839 -0.022832774 0.009930551 0.01934767 0.00023571322 0.03181646 -0.010099295
0.01961465 0.004307074 0.032471526 0.0006798893 -0.02058478 0.004005284 -0.00758738 0.011171903
-0.008742297 -0.040988263 -0.0057895216 -0.022046864 0.032901786 -0.012405285 0.0010413186 0.008613293
6.260923e-05 -0.010054215 -0.0005797975 -9.936801e-05 0.022568645 0.023966054 0.02423899 -0.011321227
-0.007055979 0.008065551 0.03867881 -0.009693258 -0.010691827 0.00018933286 -0.020977298 0.0127404975
0.042626187 0.016996564 -0.004375123 -0.016151424 0.000895156 0.010399817 -0.028718363 0.024215756
0.000113250026 -0.031784836 -0.0155964615 -0.021287957 -0.029755468 0.019645303 -0.0266709 -0.022986924
-0.006523226 0.0042833174 -0.010267478 0.040285796 0.0070480583 0.013327328 -0.020004882 -0.0034072883
0.038089823 0.0011363345 -0.008261192 -0.005081042 0.035036203 0.004082125 0.026802124 0.009289878
0.0006052976 -0.022506485 0.01600116 -0.00053046586 -0.017256394 -0.033709925 0.010112496 -0.008190503
0.03741005 -0.01766164 -0.021106033 -0.031178372 -0.029795617 0.012312969 -0.0033067872 0.004401464
-0.012884244 0.022527358 -0.0032368985 0.00026395574 -0.03908547 -0.004003149 0.044203896 0.001069527
-0.015703721 0.011371548 0.011667696 0.0070797764 0.0045826016 0.027023377 -0.008666259 -0.0115728695
0.027889024 -0.010865213 -0.013059285 0.027310269 -0.01152192 0.017142683 0.0034599702 0.011157753
-0.0025954337 0.026645612 -0.014741049 0.03702207 0.04035329 0.003935413 0.015163569 0.039271414
0.00011352027 0.031093238 0.010500946 0.03477448 0.015735358 -0.03239633 0.03840792 -0.023686055
-0.009360871 -0.014973975 0.0062945476 0.02031259 -0.0009386649 -0.0077066175 0.034917757 0.042214084
0.042418916 -0.01614182 -0.010638195 -0.009532593 0.0056434856 -0.0007386059 0.025492737 0.01810504
0.0012979613 0.023556713 0.006703737 0.013029135 -0.0026847206 -0.031615302 0.027954768 -0.010718612

bias f4 [4]
00000000: 0e6f 073d 64e0 c7bc af04 1a3d 2494 193d
0.033064894 -0.02439899 0.037602123 0.037494794
