estimators/knet/single_obs/p_velMSE_ep100_train4000_val1000_test10000_lr1e-03_wd1e-05_data_sr1e-01_q1e-04_r1e+00_j5_train[200,250]_val[40,250]_test[40,250].pt (torch, 474001 bytes, 123 tensors)

_initial_state f4 [4]
000000 00 00 00 00 00 00 80 3f 00 00 80 3f 00 00 00 00
       0.0 1.0 1.0 0.0

_initial_covariance f4 [4, 4]
000000 00 00 00 00 00 00 00 00 00 00 00 00 00 00 00 00
       0.0 0.0 0.0 0.0
000010 00 00 00 00 00 00 00 00 00 00 00 00 00 00 00 00
       0.0 0.0 0.0 0.0
000020 00 00 00 00 00 00 00 00 00 00 00 00 00 00 00 00
       0.0 0.0 0.0 0.0
000030 00 00 00 00 00 00 00 00 00 00 00 00 00 00 00 00
       0.0 0.0 0.0 0.0

weight_ih_l0 f4 [48, 20]
000000 47 f3 39 3e 66 7f 2c 3e f5 75 a6 3d 48 60 90 bd
       0.18159209 0.16845474 0.08127967 -0.07049614
000010 ff 28 2b 3e 3f 5d 23 3e 93 be 78 bc bd d4 78 3e
       0.16714858 0.1595354 -0.015182155 0.24299903
000020 1b c3 20 bc 3d b8 33 be d0 c4 a9 3d 93 da 39 3d
       -0.009812142 -0.1755075 0.08289492 0.045374464
000030 1d 2d b9 3c 2b 46 29 be fe 51 20 be 7f 52 76 3e
       0.02260452 -0.16530673 -0.15656278 0.24054907
000040 8e f9 34 be 10 96 d0 3d 40 55 86 bd 41 72 f7 3d
       -0.17673323 0.10184872 -0.06559229 0.12082339
000050 0e 69 7c 3e 81 93 6e be b2 bc a3 bd 9c bb 26 be
       0.2464945 -0.23298456 -0.07994975 -0.16282505
000060 0f cc 5a 3d aa ce bf 3d a9 14 06 be ac c3 62 3e
       0.05341726 0.0936559 -0.13093819 0.22144955
000070 bd 00 21 3e 45 18 04 3d 3d a7 01 3e a2 8b 66 be
       0.15722938 0.032249708 0.12661453 -0.22514203
000080 43 82 29 3e 8f fc 88 bd 2c c5 a6 bb a4 da fa bd
       0.16553597 -0.06688797 -0.0050894227 -0.12248734
000090 14 94 18 3d 4a 77 da 3c c0 74 cd 3c c2 41 61 3e
       0.037250593 0.02666821 0.025080085 0.21997741
0000a0 2d c8 52 be 6e 68 24 3d a8 86 09 be 1f d3 67 3e
       -0.20584174 0.040138654 -0.13430274 0.2263913
0000b0 7c 59 1b be be c1 2b 3d ef dc 5c 3e 81 a9 e6 3d
       -0.15170854 0.041932814 0.21568654 0.11262799
0000c0 44 67 94 bd 5f 33 60 bb 47 34 7f 3e d4 7a 5f be
       -0.07246259 -0.0034210307 0.24922286 -0.21824199
0000d0 70 13 90 3d dd 04 3e be e1 8b 7b be a3 24 2f be
       0.070349574 -0.18556543 -0.24565078 -0.1710382
0000e0 e7 86 b7 bd 67 63 66 be 75 4b de bd 38 c4 c9 3d
       -0.089612775 -0.22498856 -0.10854236 0.09851879
0000f0 ea d8 46 be ae 7f 0c 3e c1 6b 2e 3e 28 9e 44 3e
       -0.19418684 0.13720581 0.17033292 0.19200957
000100 13 a4 29 bd 66 ab 0e be f4 b5 65 be 22 70 db 3c
       -0.04141624 -0.13932571 -0.22432691 0.026786868
000110 66 ee b5 bd 64 25 c5 3d 43 ef 3d be 47 6c 6e be
       -0.088833615 0.09626272 -0.18548302 -0.23283492
000120 3c 38 7d be b3 e7 5c bd 54 d6 00 be df 82 27 bd
       -0.24728483 -0.053931903 -0.1258176 -0.040896293
000130 c7 8d c1 bd 1d aa 14 be 17 2d 1b bd f9 db 6b 3e
       -0.0945087 -0.14518018 -0.037884798 0.23033132
000140 e3 e5 49 3e 14 bf 7a be 84 5a 7a 3e ee 56 be 3d
       0.19716601 -0.24486953 0.24448591 0.09293924
000150 9a 73 19 bd 20 b9 6d be 58 38 34 bd e6 a7 d8 bd
       -0.037463762 -0.23215151 -0.043999046 -0.10578899
000160 7e e2 fc 3d ad e6 05 be 3f cb fc 3c 45 9d 2a be
       0.123478875 -0.13076277 0.030858634 -0.16661556
000170 c2 5f 56 3d 3b 8a 76 bb da 5d 8e bd a0 d1 15 be
       0.052337416 -0.0037619013 -0.069514945 -0.14630747
000180 9b bf 73 be eb af e9 bd f5 2d 77 be 74 30 3a be
       -0.2380356 -0.11410507 -0.24138625 -0.18182546
000190 2c d9 33 3e 48 5b 92 3d f4 a4 ae bd 74 bc 12 bd
       0.17563313 0.07146317 -0.08527556 -0.035824254
0001a0 16 51 17 be 7c dc 68 bd 1d fa 41 3e b0 97 61 be
       -0.14777026 -0.056850895 0.18943067 -0.2203052
0001b0 c2 b1 44 3e ab 40 0c be 1d 2d 49 3e 1d 53 9e 3c
       0.19208434 -0.13696544 0.19646116 0.01932674
0001c0 db 2c 1e be 5b da 5e 3e b9 fb 80 3e 9f ab 55 3e
       -0.15446799 0.21762984 0.2519205 0.2086625
0001d0 54 c0 21 bd 4f d3 3a be c0 8a 44 bd db b7 82 3d
       -0.03949006 -0.1824467 -0.047983885 0.06382724
0001e0 86 41 d4 3d 24 5e ab 3c a9 df 2c be e8 13 51 be
       0.1036406 0.020918913 -0.16882195 -0.2041775
0001f0 f3 97 4a 3e 59 fe c5 3d 09 c0 75 be f2 72 4d 3d
       0.19784527 0.096676536 -0.23999037 0.05015845
000200 ea 45 20 3d fa 7f 54 3e a4 87 0e 3c a4 8e 98 3b
       0.039129175 0.20751944 0.008699331 0.004655676
000210 af 11 3a bd ae 8f aa bd 43 08 60 be ba 36 6d bd
       -0.04542702 -0.08328186 -0.21878152 -0.05791352
000220 fc 60 14 3d c2 a6 da bd 5b cd 51 3e 73 55 61 3e
       0.036225304 -0.10676338 0.20488493 0.22005253
000230 77 e7 84 3d f0 34 84 bc f6 73 b3 3b 4d f5 6f 3e
       0.06489461 -0.016138524 0.00547647 0.23433419
000240 a0 3a 4f be 94 e9 bd bd f7 0d 66 3e 5f 20 2b be
       -0.20237207 -0.09273067 0.22466265 -0.16711567
000250 33 19 f3 3d 77 77 6b be 09 1e 79 3e 12 53 97 bd
       0.11870041 -0.22994791 0.24327864 -0.07388891
000260 25 34 6f bc aa 6c 50 3b bd 5b fa 3c d2 ca 02 3e
       -0.014599835 0.003180305 0.030561322 0.12772682
000270 f0 79 21 3d 9f 11 78 3e 60 27 77 3d 7d 4a 65 be
       0.03942293 0.24225472 0.060340285 -0.22391696
000280 28 bf 08 3e 70 39 1c 3e 56 a7 33 bd 38 fa 01 be
       0.1335417 0.15256286 -0.043860756 -0.12693107
000290 b1 c4 ef 3b 97 2d c8 3d 15 28 1c bd 3c df 74 3d
       0.0073171486 0.097743206 -0.038124163 0.059783205
0002a0 31 ea 73 3e f2 0d 17 3e 96 1e 2e bc b4 12 3d bd
       0.23819806 0.14751413 -0.010627409 -0.046160415
0002b0 96 cc e6 bc ed bc 2f be 8d c6 44 be f7 68 8b bd
       -0.028173726 -0.17161913 -0.19216366 -0.0680713
0002c0 f1 c6 72 3e 04 24 9c bd 8c b5 b4 bd 1c 14 0c be
       0.23708703 -0.07624057 -0.0882369 -0.13679546
0002d0 e9 17 0f 3e e5 a0 21 be b8 fb 62 3e 13 ee 02 be
       0.13973965 -0.15784033 0.22166336 -0.1278613
0002e0 c2 6d 77 be 0a eb 07 3e 7a 7b 56 be d8 33 e5 bd
       -0.24162963 0.13273254 -0.2094554 -0.11191529
0002f0 8a 7a 34 3e 66 7b 58 3e a1 ca b2 3c ac 02 67 3e
       0.1762487 0.21140823 0.021825137 0.22559613
000300 be 62 22 3e 36 a0 f1 3d 87 b5 13 3e 4c a2 c4 3d
       0.1585798 0.11798136 0.14424716 0.09601268
000310 9e c3 19 3e 17 87 cf 3d cb 0e 07 3e d2 53 05 3e
       0.15016028 0.10133188 0.13189237 0.13020256
000320 5e f5 81 3c 06 e3 ad 3d 08 bd 66 bd e0 aa aa bd
       0.01586407 0.08490567 -0.056332618 -0.08333373
000330 ba 9f 23 3e 7c e9 20 be 86 6e 82 ba a9 de 22 3d
       0.159789 -0.15714067 -0.0009951151 0.039763127
000340 29 be f0 3d 2b 3b d7 bd 67 2f 4b bd e3 99 83 3d
       0.1175502 -0.10509332 -0.049605753 0.06425836
000350 37 f9 66 3e 84 11 16 be f4 7c 54 be 8e 83 41 be
       0.22556005 -0.14655119 -0.20750791 -0.1889784
000360 3a d5 f5 bd 6f ce 5c be ba b7 85 bd 62 57 e4 3d
       -0.1200356 -0.21563123 -0.06529184 0.111494794
000370 fd 2e 79 3d 7f df 7f be 30 15 44 be 42 7e 1c 3e
       0.060835827 -0.249876 -0.19148707 0.15282539
000380 49 66 7d be 6c 72 09 3e 4f 09 4e bd 4f ca 11 bd
       -0.2474605 0.13422555 -0.050301846 -0.035593327
000390 39 49 1a bb 7a 7e 79 3e f4 49 fd 3d bd 43 09 3e
       -0.002354218 0.24364653 0.12367621 0.13404746
0003a0 57 91 7c 3e 64 e0 92 bc 02 c1 75 3e 76 40 60 3d
       0.24664818 -0.017929263 0.23999408 0.054748975
0003b0 15 c9 3e bd 44 64 3d be 40 97 63 bd 7a 5d 9d 3d
       -0.046578486 -0.1849528 -0.055564165 0.07683845
0003c0 e4 80 c3 bd 4c 72 55 3e d6 65 60 3e 43 2b 14 bd
       -0.09546068 0.20844382 0.21913847 -0.03617407
0003d0 63 c4 81 3c bf 2f af 3d fc df b3 bd 76 e6 fe bc
       0.015840715 0.08554029 -0.08782956 -0.031115752
0003e0 00 a1 56 be af 29 37 3e dd e0 4c 3e 20 45 88 bd
       -0.20959854 0.17886995 0.20007654 -0.066538095
0003f0 4d f7 6f be c1 f5 6f be 54 62 6a 3e 0d 35 16 be
       -0.23434182 -0.23433591 0.22889072 -0.14668675

weight_hh_l0 f4 [48, 16]
000000 16 51 5c 3d 99 a3 2e 3e 77 24 b5 3c 9b 78 79 bd
       0.053788267 0.17054595 0.022112114 -0.060906034
000010 ef f3 13 3e 42 3b d4 3c a9 e3 8a 3d 9f b6 ec bd
       0.14448522 0.025907163 0.06781704 -0.1155827
000020 0e 5f df 3d 45 82 d5 3d 63 84 7a 3e 0a bf ae bd
       0.10906802 0.104252376 0.24464564 -0.085325316
000030 f3 3a 76 3e 04 91 65 be 16 bb 39 3e 48 af 2c 3e
       0.24045925 -0.224186 0.18137774 0.1686374
000040 00 de 1c 3a a5 57 b6 3c fe b4 d5 3d 44 bc 6e be
       0.00059840083 0.022258589 0.10434912 -0.23314005
000050 b5 34 ae bd 75 92 12 be a9 5f e2 3d 30 78 65 3c
       -0.08506147 -0.14313681 0.11053402 0.014005706
000060 cf 7b bb bd 7d 9c c1 3d 76 1d 13 3e 56 63 4a be
       -0.09154474 0.09453676 0.14366707 -0.19764456
000070 cb 28 79 3e ac ca 51 3d 5d 1d 01 3e 70 e4 56 be
       0.24331968 0.051218674 0.12608857 -0.2098558
000080 53 1d 91 3d 3b 49 b2 3d d7 5e ca bd 88 3c 40 be
       0.07085671 0.08705374 -0.098813705 -0.18773091
000090 12 34 2e 3e 50 c2 80 bd e6 8d 70 3e 55 ff 07 be
       0.17012051 -0.06287062 0.2349163 -0.13280995
0000a0 15 7d 08 3e 6f 61 ec bc 34 94 7e 3d f5 19 97 bc
       0.13328965 -0.028855054 0.062153056 -0.018444994
0000b0 05 e0 a3 3d 1e 51 48 be f2 d8 da 3d 47 05 e1 3d
       0.08001713 -0.19562194 0.1068591 0.10987335
0000c0 20 04 18 3d 0d 17 e3 3d 3b b2 7e be de 65 51 3e
       0.03711331 0.11088381 -0.24872677 0.20449015
0000d0 6e f1 6a be 57 9f 98 3d 4b d0 11 be 62 13 ae 3b
       -0.2294366 0.07452267 -0.14239614 0.005312369
0000e0 18 70 48 3d ef 29 93 3d 4b 78 10 be a6 48 47 3e
       0.048935026 0.071857326 -0.14108388 0.19461307
0000f0 b9 69 99 3d b0 92 a1 bd 1b 4f 31 be 33 14 60 3d
       0.07490868 -0.078893065 -0.17315333 0.054706763
000100 64 47 b6 ba 2d 41 c2 3d 23 fc 31 3e 17 20 39 3e
       -0.0013906774 0.094850875 0.17381339 0.18078648
000110 d1 96 41 be 61 d5 6a be 61 5a e5 3d bf 30 1d 3e
       -0.18905188 -0.2293296 0.11198879 0.15350626
000120 27 7c fa 3d 51 12 5a 3e e0 b5 94 bd 59 b0 39 be
       0.122307114 0.2129605 -0.072612524 -0.18133678
000130 47 0c cb bd cc 59 aa 3d e2 11 82 bd 41 0d 41 3e
       -0.09914451 0.08317909 -0.06351067 0.18852712
000140 35 b4 0f be e7 d5 e9 bd d9 d3 22 bd 24 a9 50 3e
       -0.14033587 -0.11417752 -0.039752815 0.20377022
000150 f8 7b 80 be 02 fa 9c bd 22 f8 66 3e 39 95 e5 3d
       -0.2509458 -0.07664873 0.22555593 0.112101026
000160 2c 77 02 3e a8 b2 4d be 2f c2 0d be 42 d5 30 3e
       0.12740773 -0.20087683 -0.13843606 0.17268851
000170 a8 50 c0 3d 4d a1 7a 3e 91 00 04 3e d7 d3 67 3e
       0.09390384 0.24475594 0.12890841 0.22639404
000180 f5 b8 10 bd aa f3 21 3e 61 96 07 3e 64 4d a9 bd
       -0.03533264 0.15815607 0.13240959 -0.08266714
000190 02 b9 0c bc a1 66 1f 3e de 47 14 3e 30 9e 3b bb
       -0.008589031 0.15566494 0.1448054 -0.0028628223
0001a0 01 fa ac bd ae 43 74 3e 69 c5 0b bd 50 76 05 be
       -0.08446122 0.23853943 -0.034123812 -0.13033414
0001b0 b8 93 c4 3c bb 50 6b be 4d b0 f8 3d 81 6d 1f bd
       0.023996219 -0.22980015 0.12143002 -0.03892279
0001c0 94 7f f6 bd 5a 3c d5 bd f8 64 bd bd fc dd 56 be
       -0.12036052 -0.10411902 -0.09247774 -0.20983118
0001d0 5f eb e8 bd 75 79 05 be 94 24 c4 bd 5e ce 4d 3e
       -0.113730185 -0.13034613 -0.09577289 0.20098254
0001e0 d9 ac df 3d 72 04 7c 3e e2 0f 6e 3e d6 52 ce 3d
       0.1092164 0.24611071 0.23248246 0.100743935
0001f0 91 33 9b 3d 8b 98 db 3d 6a f0 7b be f7 a3 c3 bd
       0.07578195 0.10722455 -0.2460343 -0.09552758
000200 3a 17 29 be e3 f0 0d bd bb 45 b1 3d 69 0c 7f be
       -0.16512766 -0.034653556 0.08655878 -0.24907078
000210 24 c5 09 be 12 18 1b be 08 31 a7 3b de 55 56 3e
       -0.1345411 -0.15145901 0.0051022805 0.20931193
000220 39 80 0f 3d be da 61 3e b4 a1 64 be ec 35 25 be
       0.035034392 0.220561 -0.2232731 -0.16133851
000230 ab de b5 bc a8 25 c3 bd 2e 5a 22 be 83 48 34 3c
       -0.022200903 -0.09528667 -0.15854713 0.011003616
000240 18 e9 06 be c8 68 43 3e fd 44 80 3e 04 cc 0b 3e
       -0.13174856 0.1908294 0.25052634 0.13652045
000250 2d a5 24 be 93 ea 08 3e 8d d0 2d bc 38 8c 7b 3e
       -0.16078635 0.13370733 -0.010608804 0.24565208
000260 b2 8b 1b 3e a5 3d 80 be 7e 40 70 3c 7f c3 36 be
       0.15190008 -0.2504703 0.014663814 -0.17848013
000270 b1 71 5d 3d a5 70 0a 3e 81 7d 61 bd d3 b9 0f 3e
       0.054063503 0.13519533 -0.05505133 0.1403573
000280 76 7b 1a 3e d5 94 9d bd 85 9a 1a bb 29 34 fb bd
       0.15086159 -0.07694403 -0.0023590636 -0.12265808
000290 a1 07 a2 bd c7 7c 5f be 8c cd 02 3d 69 de 75 3e
       -0.07911611 -0.21824943 0.031934306 0.24010624
0002a0 d9 ed a0 bd dd 4e 16 be 25 ae 1e be 87 81 ca 3d
       -0.07857866 -0.14678521 -0.15496118 0.09887987
0002b0 e8 66 37 be 06 cc 85 3d 44 89 75 be 0a 0e 96 3d
       -0.1791035 0.06533055 -0.23978144 0.073268965
0002c0 6d f6 c1 3d 9c b5 52 be 62 a3 76 be d0 db 71 3e
       0.0947083 -0.20577091 -0.24085763 0.23619008
0002d0 42 30 f9 3d 92 44 39 be 10 99 94 bd 41 f6 13 3e
       0.121674076 -0.18092564 -0.07255757 0.14449407
0002e0 5f d4 05 be 03 fc 37 3e d2 71 cc 3c 71 c4 0d be
       -0.13069294 0.17967229 0.024956618 -0.13844468
0002f0 ab 79 0f 3c 82 1b 77 be 88 07 79 3d 8c 8f 5a 3e
       0.008757035 -0.24131587 0.060798198 0.21343821
000300 6c e6 47 3e e6 ba 29 be 90 61 5c be 9e c5 1a be
       0.19521493 -0.16575202 -0.21521592 -0.15114447
000310 2c 18 84 3d 99 85 88 3d 3a 63 36 3e cf 01 7e 3e
       0.06449923 0.06666107 0.1781129 0.24805377
000320 d7 8f 3d be 06 3e 81 be 14 0a 5c 3e 60 7c 1f 3e
       -0.18511902 -0.25242633 0.2148822 0.15574789
000330 46 a4 3a be dd c7 d8 bd 7e 65 24 be b5 53 38 be
       -0.18226728 -0.10584996 -0.16054341 -0.18000682
000340 fd 96 60 3d 1f f8 64 bc f7 e3 3b 3e fe 3a da 3d
       0.054831494 -0.013975172 0.1834868 0.10655783
000350 a2 d3 27 be 02 ba 1c 3e 8e 6e 2e be e1 d9 2e be
       -0.16389325 0.15305331 -0.17034361 -0.17075302
000360 f7 d1 f9 3d 5f 99 38 3e d0 6c ba 3d 0f 1b 6d be
       0.12198251 0.18027256 0.091027856 -0.23154853
000370 a2 58 74 be 1b 95 72 3e ce 3f 17 3d be 46 13 3e
       -0.23861936 0.23689692 0.036926083 0.14382455
000380 7a 07 f6 bd 49 76 fc bc e1 09 28 be 81 32 2d be
       -0.12013145 -0.030818122 -0.16410019 -0.16913797
000390 c9 60 7d 3e 7a 8c 41 3d fe f6 b1 bc c3 6f e7 bd
       0.24743952 0.04725311 -0.02172422 -0.11300614
0003a0 cb 34 0b 3e 6c bd 3b 3d a2 58 d9 3c a1 10 4a be
       0.13594358 0.045834944 0.026531521 -0.19732906
0003b0 4e 92 ee bd fb c5 7f bc d0 d3 43 3d d6 80 37 3e
       -0.11648999 -0.015611167 0.047809422 0.17920241
0003c0 af ec 39 3e f2 d8 6f bd 0c 75 26 be 5c 6c 07 be
       0.18156694 -0.058556505 -0.16255587 -0.1322493
0003d0 d9 7e 1d be ca 9d 77 3d 65 c1 ee 3c ca e9 5a be
       -0.1538042 0.060453214 0.029144952 -0.21378246
0003e0 28 15 81 bc ff b1 ae 3d 1a 2e 3d be 68 44 81 be
       -0.015757158 0.08530044 -0.18474618 -0.25247502
0003f0 95 00 ce bd 33 8a 63 3e 56 22 73 3e 37 13 26 be
       -0.10058705 0.22220688 0.23743567 -0.16218267

bias_ih_l0 f4 [48]
000000 e6 e8 25 be 6d a5 41 3e a5 f2 e5 3d 16 b4 aa bd
       -0.16202125 0.18910761 0.112279214 -0.0833513
000010 9e 84 6f 3e 83 64 ad bc bf 1b 9d bd 57 3d 3c be
       0.23390433 -0.021166092 -0.07671308 -0.18382774
000020 03 0b 14 3e e1 a2 1b 3c a7 20 99 bc 9d 60 38 3e
       0.14457326 0.009499283 -0.018692328 0.18005605
000030 bc be fe bc 78 d9 55 be b1 b4 19 3c 95 80 31 3d
       -0.031096809 -0.20883739 0.009381459 0.043335516
000040 7e 16 f7 bd 3d 7a 6a bb 96 60 bf bd 64 9a d7 3d
       -0.12064837 -0.0035778426 -0.09344594 0.105274945
000050 9a f4 29 be c3 74 56 be 7d 68 56 be 30 e5 e0 bc
       -0.16597214 -0.20942979 -0.20938297 -0.027453035
000060 26 d0 e1 3d 10 9d 21 be 7a 57 8a bd 46 39 c8 3d
       0.11026029 -0.15782571 -0.06754966 0.09776549
000070 bc a3 21 be 0b 7b 9d 3d 26 b8 46 3e 76 45 20 3e
       -0.15785116 0.07689484 0.19406185 0.15651497
000080 52 7e 9e bd 2b f1 ca 3d 9e 3d 6d be fc a4 64 3e
       -0.077389374 0.099092804 -0.23168036 0.22328562
000090 4e a1 72 3a 3d 50 68 3e a8 0c de 3b 5a bd 2e be
       0.00092556037 0.22686858 0.006776411 -0.1706442
0000a0 55 a3 c5 3c fc 20 cc bc d1 7e e8 bd 70 ef 14 3e
       0.024125734 -0.024918072 -0.11352313 0.14544463
0000b0 ec b8 c9 bc 90 d2 2a 3e fc fc f1 bd 38 8b 32 be
       -0.02462431 0.16681886 -0.11815831 -0.1743592

bias_hh_l0 f4 [48]
000000 c4 f5 22 be 40 0f 39 be 62 cb 1f be 11 a8 b4 bd
       -0.15914065 -0.18072224 -0.15604928 -0.088211186
000010 8d 92 1c 3d 75 af 17 bc 49 aa 1f 3d 2e 4f 2c 3e
       0.0382257 -0.009258141 0.038980756 0.1682708
000020 e8 5a 2f be ce d3 85 ba 34 d7 da bc 6b 78 67 be
       -0.17124522 -0.0010210217 -0.026713945 -0.2260453
000030 ba c1 59 3c ed 4d 24 3e 34 10 55 3e 31 52 25 be
       0.013290817 0.16045351 0.20806962 -0.16144635
000040 07 e6 23 3e c5 2a e5 3d e8 15 9f bd 50 71 f3 bd
       0.16005717 0.11189798 -0.0776785 -0.11886847
000050 89 39 20 bd 9c 49 4a 3e 3a cd 66 ba b6 f3 33 3e
       -0.03911737 0.19754642 -0.0008804385 0.17573437
000060 5a 5c 6d be 62 d7 04 3e 75 94 56 3d 49 0d f2 bd
       -0.2317976 0.12972787 0.052387673 -0.1181894
000070 cc b5 8e bb ab 8d 0a 3e 13 17 e0 3d c4 0f 54 3d
       -0.004355168 0.13530605 0.10941901 0.051772848
000080 df 45 21 be 2e 29 87 bd b5 57 c9 3d c3 70 ce bd
       -0.1574931 -0.06599651 0.09831182 -0.10080101
000090 4e 73 01 be 00 8c f4 3d bf d1 5d 3d 9d 91 01 3e
       -0.12641641 0.119407654 0.054155108 0.12653203
0000a0 c6 19 42 be b6 6e 60 3e 90 c3 05 3e 13 cd 28 3e
       -0.18955144 0.21917233 0.13062882 0.1648448
0000b0 95 91 6a be 19 42 0a be 14 84 65 3e 19 99 2f 3e
       -0.22907098 -0.13501777 0.22413665 0.17148246

weight_ih_l0 f4 [48, 36]
000000 12 6e 3a 3e 8e b0 36 3e 8f cf 36 3e f0 20 93 3c
       0.18206051 0.17840788 0.17852615 0.017960042
000010 64 29 eb bd 99 07 28 be b4 9a 53 be df 0c 65 be
       -0.11482504 -0.16409148 -0.20664483 -0.22368191
000020 89 1a 38 3e 1c fd 07 3e 77 d5 3e bd c1 c5 16 3d
       0.17978872 0.13280147 -0.046590295 0.036809687
000030 e2 8e ec bd 7a e3 19 3e 6e 90 47 bd a8 d2 43 be
       -0.1155069 0.15028182 -0.048721723 -0.19123328
000040 fd 6a d7 3d 69 5f 2c 3c 58 f3 e7 3d 3e ca 9b bc
       0.10518453 0.010520794 0.11325711 -0.019017335
000050 e5 ea d6 3d 4a 75 44 3e 8b 05 45 be 63 cf f3 3b
       0.10494021 0.19185367 -0.19240396 0.007440494
000060 03 65 09 be 38 f6 63 3d df 81 db bd b2 82 f3 bd
       -0.13417439 0.055654734 -0.1071813 -0.118901625
000070 30 e4 7d bd 68 d7 f5 b7 69 34 4f 3e 81 23 15 3d
       -0.061985195 -2.9306582e-05 0.20234837 0.036410812
000080 aa 50 30 be a1 fc 01 bd d7 2f 7b 3e 9d 3a 65 be
       -0.17218271 -0.031735066 0.24529968 -0.2238564
000090 8c c3 e9 3d 34 64 49 3d 00 ee 83 bd 0e a7 62 be
       0.11414251 0.049167827 -0.06441879 -0.22134039
0000a0 c8 ec eb bd 49 77 9b bd 44 0d 31 3e 0d d2 5c 3e
       -0.11519772 -0.07591111 0.17290217 0.21564503
0000b0 7c d4 47 3d 26 83 42 3e 78 86 31 3e 08 25 78 3d
       0.048786625 0.18995342 0.17336452 0.06058219
0000c0 97 ef 59 be aa 8d de 3d 99 ea c8 bd 7c 91 bd bd
       -0.21282803 0.10866864 -0.09810371 -0.092562646
0000d0 71 b0 82 be 06 28 c1 3c 03 7e 5b bc 18 d3 20 be
       -0.2552524 0.023578655 -0.013396743 -0.15705526
0000e0 1f 53 48 be 7b aa 32 be 85 c5 1a bc 62 e9 59 3e
       -0.19562958 -0.17447846 -0.009446506 0.21280435
0000f0 1a 59 58 3e 30 0e c7 3c 05 79 4d be 32 e4 d0 3d
       0.2112774 0.024298757 -0.20065697 0.10199775
000100 7a 22 ad bd ca 5e 61 3e f4 ce 32 3e 47 d1 63 3e
       -0.084538415 0.22008815 0.17461759 0.22247802
000110 9f 4b bc bd 7f 42 29 3e 82 cd b8 3d 7b f0 60 be
       -0.09194111 0.16529272 0.090235725 -0.21966736
000120 c5 d1 47 3e 52 d0 d6 3d f7 b8 2b be 57 2f b4 bd
       0.19513614 0.10488953 -0.16769777 -0.08798092
000130 8b 38 fe 3c 13 af 02 be be fd 27 3e 75 55 50 be
       0.031032821 -0.12762098 0.16405389 -0.203451
000140 c7 58 17 be 97 9f 73 3e 62 7f 61 3e 93 47 0e 3e
       -0.1477996 0.23791347 0.22021249 0.13894491
000150 34 f6 39 3c 0e d0 5f bd 4f 5b 74 be 69 5b 0a be
       0.011350203 -0.054641776 -0.23862956 -0.13511433
000160 3d 1d 25 be 2a 05 86 bd 17 10 e2 3d 08 af 17 be
       -0.16124435 -0.06543954 0.11038225 -0.14812863
000170 21 da b7 3d 5b db 1c bd 8f f5 8a bd c4 c7 de 3d
       0.08977152 -0.03829513 -0.06785118 0.10877946
000180 b3 35 20 be 4f c0 f3 3d 30 49 46 be df 2f d9 bd
       -0.15645485 0.11901914 -0.19363856 -0.10604834
000190 22 94 63 3e 13 dc 0f 3e ac e5 60 be b9 88 36 bd
       0.22224477 0.14048795 -0.21962613 -0.044563983
0001a0 8e e4 1b be b9 12 b9 3d 63 48 83 bc 8c 60 47 3e
       -0.15223905 0.09036774 -0.016025728 0.19470423
0001b0 bc 74 9f 3c b8 24 ad 3d 72 45 29 3e d4 e6 05 3e
       0.019464843 0.08454269 0.16530398 0.13076335
0001c0 a4 7f ff 3d 20 f0 27 be c8 0c 49 3e 94 e5 de 3d
       0.124755174 -0.16400194 0.19633782 0.10883632
0001d0 69 35 db 3d 7d f6 84 bd 5f 36 03 3e 46 bd eb 3d
       0.107035466 -0.064923264 0.1281371 0.115107104
0001e0 36 c5 6d be 3b 50 5e be f4 db 28 3e ce 94 50 3e
       -0.23219761 -0.21710293 0.16490155 0.20369264
0001f0 ba cf 85 3d 91 01 ea 3b f6 44 a7 bd a3 78 52 3e
       0.06533761 0.0071413 -0.0816745 0.20553832
000200 de 60 14 3d 26 8e 50 be 53 6c 5d bd e3 e9 b7 3d
       0.036225192 -0.20366725 -0.054058384 0.08980157
000210 f8 21 64 3d 50 1b 69 3e 99 58 5f 3d 22 23 a4 3d
       0.055696458 0.22764325 0.054527853 0.080145136
000220 52 2a 01 3b ce 0f 18 3e 67 b0 2b 3e f9 da 8c bd
       0.0019709063 0.14849779 0.16766511 -0.06877703
000230 1f 84 49 be 71 0d 59 3d 21 c2 93 3d e9 1c 9e bd
       -0.19679306 0.052991334 0.072147615 -0.07720358
000240 35 c6 23 bc 9e ee 9c 3d 7d 13 49 3e 1c 28 f0 3c
       -0.009995987 0.076627 0.1963634 0.029316
000250 01 1d 5e be 96 0a 4a 3e e1 ae 48 be a1 6b 07 3e
       -0.21690752 0.197306 -0.19597961 0.13224651
000260 4e 34 1c 3d 6d 8b 5e be 9f 41 70 be 39 74 16 be
       0.03813582 -0.21732874 -0.23462532 -0.14692773
000270 94 3b 5a bd c7 c2 fb 3c 7e fd 53 3e fe 58 cc 3d
       -0.053279474 0.030732526 0.20702168 0.099779114
000280 f0 9c fa bd 30 d1 5b 3e 97 b8 67 bd dd 89 cb 3d
       -0.12236965 0.21466517 -0.056572523 0.09938405
000290 58 de da 3c d1 61 77 be ac b5 50 3e 86 c8 bb bd
       0.02671735 -0.24158408 0.20381802 -0.09169106
0002a0 16 cf 60 3e e3 5a d3 3d 1d e3 8f 3d d2 88 9f bd
       0.21953997 0.1032007 0.0702574 -0.07789768
0002b0 07 e2 3b be 51 fb f9 3d b3 71 1e be 50 f2 2a 3e
       -0.18347941 0.12206138 -0.1547306 0.16693997
0002c0 68 c0 00 be 55 4d 28 be b7 06 4d bd a5 2e 10 be
       -0.12573397 -0.1643575 -0.050055232 -0.14080293
0002d0 4e f1 7e be 5e 62 75 be 6d 07 6b 3d 9d c3 24 be
       -0.24896738 -0.23963305 0.05738013 -0.16090246
0002e0 58 20 0b 3e ec 79 05 be 4b 2b 4e be fa 93 2e 3e
       0.13586557 -0.13034791 -0.20133702 0.17048636
0002f0 14 0b 2c be a1 c5 0b 3d f9 76 66 be 50 47 12 3e
       -0.16801101 0.03412402 -0.22506322 0.14285016
000300 c2 fd 44 be 48 d3 78 be 16 4c 1f 3e 4f 16 08 be
       -0.19237426 -0.24299347 0.15556368 -0.1328976
000310 94 1a 00 bc 27 80 a4 3d b9 4f 14 3e 07 6c 62 3e
       -0.007818837 0.080322556 0.14483537 0.22111522
000320 17 23 d8 3d d2 26 30 be 94 63 a6 bd c2 88 68 be
       0.10553568 -0.17202309 -0.08124462 -0.22708419
000330 21 5f 35 be ff 5d e8 3c 90 79 b6 3d fd 39 00 3e
       -0.1771207 0.028365133 0.08909905 0.12522121
000340 81 66 e9 3d bf 01 d3 bd 30 24 37 3d ab 57 b6 bd
       0.11396504 -0.103030674 0.044712245 -0.0890344
000350 b2 cb a7 3d 06 e7 6d be 8c 41 35 3e ae a7 f5 3d
       0.08193149 -0.2323266 0.17700785 0.11994873
000360 fa 8d 2b be c9 91 c5 3d e7 e8 6b 3e f0 81 c6 bd
       -0.16753379 0.09646947 0.23038064 -0.09692752
000370 e7 aa 35 be fc 04 1e be 50 e3 82 bd e0 36 ff 3d
       -0.17740975 -0.15431589 -0.06391013 0.124616385
000380 d8 79 17 be 04 59 7b be 5b a1 a0 3d e4 f7 ac 3c
       -0.14792573 -0.24545676 0.07843276 0.021114297
000390 64 6c 1b bd ab 16 44 3d 0a 94 30 be 55 4b 2a 3c
       -0.037945166 0.04787318 -0.17243972 0.010393937
0003a0 79 10 c4 3d 9a 0f ec bb 3c cd 30 be 7e db 7b bb
       0.095734544 -0.0072040083 -0.1726579 -0.0038430388
0003b0 7b a7 18 3e c9 54 44 be e3 37 3e 3e 9f 94 67 39
       0.14907639 -0.19172968 0.18576007 0.00022085242
0003c0 70 5d ba 3c 38 7d 0e 3e f9 e8 a7 bc 24 93 6e be
       0.022749633 0.13914955 -0.020496832 -0.23298317
0003d0 bb 76 72 3e f9 fb c4 bc 89 42 e7 3c fe 08 3f be
       0.23678105 -0.024045931 0.028229969 -0.18655774
0003e0 08 5d 3d 3e 82 f2 8d 3d 38 ff 28 3e 2d 7c 51 bd
       0.1849252 0.0693102 0.16503608 -0.051143814
0003f0 41 6e 28 3e cb 38 8c 3d 2f 20 67 3e 9f 48 bc bd
       0.16448309 0.0684677 0.22570871 -0.09193539

weight_hh_l0 f4 [48, 16]
000000 0e ec 88 bd ce e4 69 3e 88 1a 52 be c4 62 7d bd
       -0.06685649 0.22841188 -0.20517933 -0.06186177
000010 1c 16 76 be 18 86 a3 3d 93 32 2a be 23 83 f1 bd
       -0.24031872 0.07984561 -0.16620855 -0.117925905
000020 70 be da bd c5 25 20 be 91 35 2b 3d 4c 81 41 3e
       -0.10680854 -0.15639408 0.04179913 0.18896979
000030 a8 db 3c 3e ad 60 e5 3d f4 04 ac 3c c6 39 6d 3e
       0.18443167 0.1120008 0.020998456 0.2316657
000040 f5 4f 60 be 0f dd 17 be 4a a4 46 3e 6c 70 2b be
       -0.21905501 -0.14830421 0.19398609 -0.16742104
000050 4f a9 6d be dc b1 7f be a9 e8 73 3e 37 ce d6 3d
       -0.23209117 -0.24970192 0.23819222 0.10488551
000060 ec cc 51 3e 5c 73 36 be 0b cd 2c be 66 d3 8b 3d
       0.20488328 -0.17817444 -0.16875093 0.068274304
000070 06 74 2f 3e 0f 62 bc bd a1 34 60 be 43 8c c9 bd
       0.17134103 -0.09198391 -0.21895076 -0.09841206
000080 f8 d6 23 bd 4e 12 bf bd 61 24 01 3d 14 d9 51 3e
       -0.039999932 -0.09329663 0.031528834 0.20492965
000090 9a 28 32 3e 35 21 78 be 2e c4 3b be 5a 8d bd 3d
       0.17398301 -0.24231417 -0.18336555 0.09255476
0000a0 7d fe 65 3d 1e 0a ee 3d ff 25 c1 3d 79 f7 75 bc
       0.056150902 0.116230235 0.09431075 -0.015012615
0000b0 0d 9d 15 be f7 b8 4d 3e 18 5b d3 3d f3 28 c7 bd
       -0.14610691 0.2009009 0.10320109 -0.09724607
0000c0 24 1a 59 be 1c 1d 08 be 5c be a5 bd 4f 0a 71 be
       -0.21201378 -0.13292354 -0.08092949 -0.23539089
0000d0 98 ef 39 be 81 4e a8 bc e2 ef 69 3e 1a 95 42 be
       -0.18157804 -0.020545246 0.22845414 -0.1900219
0000e0 b7 4c 2d bd 86 f3 4a be 0d 2f d7 3d 9d 25 b2 bd
       -0.04230949 -0.1981946 0.10507021 -0.086985804
0000f0 25 b9 1e 3d b3 39 0c 3e d1 5a 32 3e 63 a6 12 3e
       0.038750786 0.13693886 0.17417456 0.14321284
000100 d4 2e 26 bd 4a 8d 76 be aa 2a 92 bd c3 af 1e 3d
       -0.040572003 -0.24077335 -0.07137044 0.03874184
000110 7e d6 62 3e 9c dc 28 3e cc ff 14 be 86 52 2f bd
       0.22152135 0.16490406 -0.14550704 -0.04280331
000120 08 a9 20 be 47 80 8f bd 1d cf 7d 3d 7e 81 5b 3d
       -0.1568948 -0.07006889 0.061965097 0.05359029
000130 9e 8a 15 3e cd 7b c1 bd 04 28 02 bd 3d 58 dd 3c
       0.1460366 -0.09447441 -0.031776443 0.027019614
000140 56 c9 af bd 31 6b 20 3e f3 7d 5a 3d 4b d1 24 bd
       -0.08583324 0.1566589 0.05334277 -0.04023866
000150 88 c4 7d 3e 81 c5 0b 3e 3d e1 f1 bd ed 69 52 be
       0.24782002 0.1364956 -0.11810539 -0.2054822
000160 3f c6 1f 3e 7b d1 59 3d c0 54 4c be 6a 33 37 be
       0.15602969 0.05317829 -0.19954205 -0.17890707
000170 b8 2e 5c 3d bb 86 d9 bc a7 ae e4 bd 9d c9 69 be
       0.053755492 -0.026553502 -0.11166125 -0.22830816
000180 53 5f 30 3e 92 d4 99 3c 26 d0 47 be aa 3b ad 3d
       0.17223863 0.01877812 -0.19512996 0.08458646
000190 e9 9f 16 3d 27 10 d1 3d 13 06 7c be 97 1d 8e 3d
       0.036773596 0.10208159 -0.24611692 0.069392376
0001a0 1d fa 6c be e4 e9 75 be bc bf f4 3c cf 3a 17 be
       -0.23142286 -0.24015003 0.029876582 -0.14768527
0001b0 90 3d 4b 3e 13 9c eb bd e2 25 13 be fd 56 89 3c
       0.19847703 -0.11504378 -0.1436992 0.016765112
0001c0 dc 2b fd 3c cd 31 24 3e f1 e6 3e 3e f3 aa 05 3e
       0.030904703 0.16034622 0.18642785 0.13053493
0001d0 46 f2 23 be 4c 57 14 3e df af 86 bc 79 c3 6a 3e
       -0.16010389 0.14486426 -0.016441284 0.2292613
0001e0 86 5b 48 be a3 7b 4b be 3a 00 47 3e b5 63 52 bd
       -0.19566163 -0.19871382 0.1943368 -0.05136462
0001f0 c7 f7 0a be d8 53 93 3d cc 7c b6 bd 0d 56 d3 bc
       -0.13571082 0.07193726 -0.08910522 -0.025797868
000200 d7 7f 88 bd 74 d1 16 3e 97 02 ec 3c 45 f8 89 bd
       -0.066650085 0.14728338 0.028809829 -0.06736807
000210 31 05 11 bc 6b 11 31 3e 15 f3 4a be bc e3 18 3c
       -0.008851335 0.172918 -0.19819291 0.00933164
000220 74 19 67 3e f2 68 24 3c 36 01 74 3c 4d e2 45 bc
       0.22568303 0.010034787 0.014892867 -0.01207788
000230 4d 77 34 be 62 0c ed 3c 51 aa 24 37 f4 fd 3a bc
       -0.17623635 0.028936569 9.814817e-06 -0.011413086
000240 33 d2 2f ba 49 f5 b9 3d 04 31 6d be dd 49 1e 3d
       -0.00067070423 0.090799876 -0.23163229 0.03864466
000250 3f 8e 17 3e c8 43 26 bb 53 86 a2 3d e6 2a 77 bc
       0.14800356 -0.002536999 0.079357766 -0.015085911
000260 32 7f fe 3d 18 9c 0f be 2c 06 0d 3d ec b5 55 be
       0.12426604 -0.14024389 0.034429714 -0.20870179
000270 38 c3 62 be 29 60 c1 ba 3a dd a9 39 07 c7 89 3d
       -0.22144783 -0.0014753389 0.00032399019 0.067274146
000280 83 e0 06 3e 2a ed fb bd 01 71 48 be df 49 72 be
       0.13171582 -0.12301095 -0.19574358 -0.23660992
000290 7e 00 11 3b e7 60 2b 3e 0f 3e 8b 3d d7 b4 83 bd
       0.0022125538 0.16736184 0.06798946 -0.06430977
0002a0 e0 a1 8f bd a3 61 2c 3e 7f 2d 6d be 82 12 40 be
       -0.07013297 0.1683412 -0.23161887 -0.1875706
0002b0 6f 36 c3 bc 29 20 4a 3d 3b 61 4c bd c3 8c 03 be
       -0.023829667 0.049347077 -0.049897414 -0.12846665
0002c0 ab 0b bb bd b6 0e da 3d 3e fc 5a 3e db a5 1b be
       -0.09133085 0.10647337 0.21385285 -0.15199988
0002d0 a6 43 01 3e ba 33 bc 3d 5a 52 48 3e d0 23 9c 3d
       0.12623462 0.091895536 0.19562665 0.07624018
0002e0 38 81 40 3e 9f dd aa 3d 18 db 5b 3e 98 ef 48 3e
       0.18799293 0.08343052 0.21470296 0.19622648
0002f0 04 ca a5 bd b7 36 10 be 37 41 37 3d ff a6 25 bd
       -0.08095172 -0.14083372 0.044739928 -0.040442463
000300 1e 4c 6c bd af 95 69 3e aa d9 f6 bd 2f 7b 67 3c
       -0.05768978 0.22811006 -0.12053235 0.01412849
000310 b7 09 b2 3d 31 1c 7e be 7f 35 82 be 89 88 5e 3e
       0.08693259 -0.24815442 -0.2543144 0.21731772
000320 98 84 a5 3c 80 a2 0c 3e c1 e7 78 bd 5b 25 a6 bc
       0.020204827 0.13733864 -0.060767893 -0.020281484
000330 b3 9a ff bd 30 fb c6 3a b9 bf 18 bd 39 ad f4 bd
       -0.124806784 0.0015181061 -0.037292216 -0.11947102
000340 4b b6 02 3d 3f 8a 62 3e 3c 26 d1 3c d0 f7 73 3b
       0.03191213 0.22123049 0.025530927 0.0037226565
000350 92 c9 a3 3d 5d f8 11 3e 73 07 4d 3e 33 b3 dc 3d
       0.07997431 0.142549 0.20022373 0.10776367
000360 a3 1d f4 bd 93 ac 6d be 17 4c da 3c 1d b2 27 bd
       -0.11919715 -0.23210363 0.02664761 -0.040941346
000370 0a 3a 8a bd 8b bc 32 3e 0a 26 ce bd 3b 3b a5 bd
       -0.06749351 0.17454736 -0.10065849 -0.08067938
000380 0e b4 21 bd 12 b5 66 bb 85 e9 41 bd b4 ca fa bc
       -0.039478354 -0.003520314 -0.047341842 -0.030614235
000390 75 f7 45 be 87 33 e0 bd 60 c4 43 be b0 70 22 be
       -0.19332679 -0.10947328 -0.1911788 -0.158633
0003a0 b9 26 10 be de 05 7c be be 37 0f be af 61 b1 3d
       -0.14077272 -0.24611613 -0.13986108 0.0866121
0003b0 aa ba 11 3e 61 2c bd 3d 77 bc 1d 3e c6 ae 9f bd
       0.14231363 0.0923698 0.15403925 -0.07797007
0003c0 21 25 ab 3d d7 60 1d 3e 40 1d 72 3e e2 55 05 3d
       0.08356691 0.15368973 0.2364397 0.032552607
0003d0 02 51 51 3e 0e d4 7d be 28 61 02 be 74 f6 95 3d
       0.20441058 -0.24787924 -0.12732375 0.07322398
0003e0 63 28 a1 3d 58 2d 63 3e 0d bb 8a 3d 7b 55 06 be
       0.07869031 0.22185266 0.06773958 -0.13118546
0003f0 9f 1b f0 3c be 67 37 39 e4 c0 34 be 3c 45 7b 3e
       0.029310046 0.00017490887 -0.17651707 0.2453813

bias_ih_l0 f4 [48]
000000 ea a1 28 3e a9 2a 60 be 23 2b 50 be a0 0d 15 be
       0.16468015 -0.21891274 -0.20328955 -0.14555979
000010 61 e2 41 be 04 13 36 be cf 94 29 be 69 65 5c be
       -0.18934013 -0.17780691 -0.16560672 -0.2152306
000020 79 a8 34 be 48 0a 4e bd 09 ca f6 bd 36 6f 52 3e
       -0.17642392 -0.050302774 -0.12050254 0.20550236
000030 6b bd a3 bc 4a 72 55 be f5 f1 39 3e 02 5e 43 3e
       -0.019987782 -0.20844379 0.18158706 0.1907883
000040 47 3c 42 bc ce e3 3d 3e 18 b0 0e 3e 97 84 6b be
       -0.011855192 0.18543932 0.13934362 -0.22999798
000050 ac fe e0 ba 3c ee ec 3c 80 e2 f3 3d 3c f2 1e be
       -0.0017165742 0.028922193 0.11908436 -0.15522093
000060 0a f0 c9 bd d7 4e b0 bd c5 de 88 bc ab c2 68 bd
       -0.09860237 -0.086087875 -0.016707787 -0.056826275
000070 ee be 41 3e 2c 40 6f 3e f4 bf 4c 3e f8 13 70 3e
       0.1892049 0.23364323 0.199951 0.23445117
000080 08 52 fe 3d 7e 03 29 be 7e 57 47 be df 9a fe 3d
       0.1241799 -0.16505238 -0.1946697 0.12431883
000090 b3 46 0e 3e d8 ac 3c be b6 c9 6c 3d a9 03 7d be
       0.13894157 -0.1842531 0.057809554 -0.24708427
0000a0 e0 32 50 be 0f 54 8c bd 6c 2e 3c be 03 5c 5c 3e
       -0.20331907 -0.068519704 -0.18377084 0.21519475
0000b0 b6 19 b9 3d 13 1a 02 be b5 3e 07 3e c3 c2 40 3e
       0.09038107 -0.12705259 0.13207515 0.18824296

bias_hh_l0 f4 [48]
000000 ac eb 4a be 96 4a dc 3d 2d 27 5b 3d d5 e7 37 3e
       -0.19816464 0.10756414 0.053504158 0.1795953
000010 5b 5b 43 3e 18 2f f7 3d 5a 58 22 3e f9 bd 31 3e
       0.19077818 0.12069529 0.15854016 0.17357625
000020 50 d2 ac 3d c9 db 2f bb f5 67 64 be 9a d5 4f be
       0.084385514 -0.0026833883 -0.22305281 -0.20296326
000030 ec 22 b1 bc 24 9f 7b 3e 7e d6 a3 bd 5f 9c 08 be
       -0.021623097 0.24572426 -0.079998955 -0.13340901
000040 64 ac 30 3e cc 9b 22 3e 77 5c 72 3d 73 00 04 be
       0.17253262 0.15879744 0.059170213 -0.12890796
000050 54 fc 70 3e fc 6f e8 3c dd 06 05 bd 2c f3 d3 3d
       0.23533756 0.02837371 -0.03247725 0.10349116
000060 2d ad 3f 3d aa 0a 52 be 7b ea 60 3e 8f 44 a7 bd
       0.046796013 -0.2051188 0.21964447 -0.081673734
000070 73 97 aa bd e4 52 7a 3e ab 4e 75 3d 4b 22 67 be
       -0.08329668 0.24445683 0.059889477 -0.22571675
000080 70 4b 69 3d be 97 73 be e5 56 78 bd c4 29 6c be
       0.05695671 -0.23788354 -0.060629744 -0.23062807
000090 e9 a2 2a 3e 09 e7 32 bd 40 80 67 be 15 65 27 be
       0.16663708 -0.043677364 -0.22607517 -0.16347153
0000a0 85 ae 07 3e 5f fd 8f 3c 14 ca c5 bd 01 5d fa bd
       0.13250168 0.017576871 -0.09657684 -0.1222477
0000b0 16 70 89 bd 13 b2 2c 3e 5d f5 c8 bd 3a 72 91 bd
       -0.06710832 0.16864805 -0.09812424 -0.07101865

weight_ih_l0 f4 [3, 11]
000000 5c bb 63 3f 65 f8 ab bc 2f 40 96 be e9 91 f7 3e
       0.8895776 -0.020992467 -0.29345843 0.48353508
000010 c4 61 27 bf 4e 48 df 3e b6 58 22 3f 4a 37 57 3f
       -0.65383554 0.43609852 0.6341661 0.8406874
000020 92 01 a2 bd 6e 14 58 3e 21 16 e2 be 85 92 37 3f
       -0.07910456 0.21101543 -0.44157508 0.71707946
000030 1d 21 d7 bd 65 8b 5e bf 85 74 69 3e d5 2b 7d 3f
       -0.10504363 -0.8693145 0.22798355 0.9889501
000040 17 fa 2e bf 3d 03 7d bf bd cc 5d 3f fb ea e9 bd
       -0.68350357 -0.98833066 0.8664053 -0.11421772
000050 6a 1f 85 3e 8e 2b 3a 3e 75 f3 75 bd 4d ad 1b be
       0.2600053 0.18180677 -0.06004663 -0.15202828
000060 73 4c 8c be 57 28 8c 3e ef 4b 02 bf 9f c3 5d bf
       -0.27402076 0.27374527 -0.50897115 -0.8662662
000070 d4 b4 9e 3e 9c e0 31 bf 20 eb 21 3d 3d bc 16 3e
       0.30997336 -0.6948335 0.039530873 0.14720245
000080 e2 28 84 3e
       0.2581244

weight_hh_l0 f4 [3, 1]
000000 98 b6 48 3f 8b 0f e6 be d3 6f 08 be
       0.78403616 -0.44933733 -0.13323908

bias_ih_l0 f4 [3]
000000 7f 1a 6b bd 5c 77 1b bf f0 73 11 3f
       -0.057398316 -0.60729 0.5681753

bias_hh_l0 f4 [3]
000000 40 0c 79 3f 39 50 a4 be 03 13 2f 3f
       0.97284317 -0.32092455 0.68388385

weight f4 [1, 16]
000000 59 94 42 be 95 44 c3 3c 03 20 d4 bd 39 9c d5 3d
       -0.19001903 0.023836413 -0.10357668 0.10430188
000010 63 ca 6b 3a c4 80 72 bb c7 66 25 3a 14 1e 57 3c
       0.00089946965 -0.003700302 0.00063095655 0.01312973
000020 6d 5e 92 bd 40 7f 3c bb 0e 17 ef bd 3e f6 cb 3c
       -0.071469165 -0.002876237 -0.11674319 0.02489769
000030 06 b7 17 3a cb 0f 49 bd 76 ab 0d be e3 a7 6b 3c
       0.00057874655 -0.049087327 -0.13834938 0.014383289

weight f4 [680, 17]
000000 37 5b 19 be fa c0 0d b8 7a 2d 92 bd 47 50 ce ba
       -0.14976202 -3.3796743e-05 -0.0713758 -0.0015740477
000010 df 49 24 bd 33 f5 d2 3d 87 31 e4 3d 72 d6 30 3e
       -0.04010951 0.10300674 0.11142259 0.17269304
000020 57 b0 16 be bb 5b 40 bd 6b e1 1f 3e 2c d1 40 3e
       -0.14715706 -0.04696248 0.15613334 0.18829793
000030 b5 04 42 3e cc f2 ea bd 02 b8 74 3c ed 32 9b 3c
       0.18947108 -0.11472091 0.014936449 0.018945182
000040 c3 af 3f be c5 f3 61 bd c2 5a e7 3d b0 70 4a bc
       -0.18719392 -0.055164117 0.112966076 -0.012355968
000050 23 87 17 3d bb f3 21 3b 2d 93 08 3d 26 4d 15 3e
       0.03699411 0.0024711925 0.033343483 0.14580211
000060 2c 44 55 be 2d ae e6 bd 48 8e 1d 3e 90 44 2b 3e
       -0.20826787 -0.1126369 0.15386307 0.16725373
000070 59 20 ae 3d 2d 15 74 bd f6 a7 3b 3e 4b c0 5a 3e
       0.085022636 -0.059590507 0.18325791 0.21362416
000080 c0 17 27 39 8b 8d a5 b4 68 e1 cf bd 99 b1 7e bd
       0.00015935209 -3.083663e-07 -0.10150415 -0.06218109
000090 96 b6 49 be 0d 40 1f be bb 06 d2 bd dc df 67 be
       -0.19698557 -0.15551777 -0.1025519 -0.2264399
0000a0 11 07 f5 3d 67 aa fa bd 6b 55 47 be 45 be 52 be
       0.119642384 -0.12239533 -0.19466178 -0.20580395
0000b0 84 01 f2 bd 55 3b a4 3d c1 5f 1d be 61 fa 3f be
       -0.11816695 0.08019129 -0.15368558 -0.18747856
0000c0 46 f1 36 3e e5 6f d7 3d 38 ca 17 be c1 b8 3e be
       0.17865476 0.10519389 -0.14823234 -0.18625166
0000d0 8d a0 44 3d 03 e0 71 3e 73 c1 10 be 36 ac 86 bd
       0.048004676 0.2362061 -0.14136295 -0.065758154
0000e0 c5 0e 39 3d 03 b4 6d 3e fd 79 79 be a9 f7 b8 bc
       0.0451801 0.232132 -0.24362941 -0.022579031
0000f0 9f b9 1b 3d a3 b6 4d be 5e 19 df 3d af 73 7c 3d
       0.03801882 -0.20089202 0.1089351 0.061633762
000100 32 3c ab bd 03 65 8b 3d 91 11 e0 bd 29 8b 1f 3e
       -0.08361091 0.06806376 -0.109408505 0.15580429
000110 0d 13 0b be 14 c8 bb bd 1c 8b 3f 3c 6b db 4a be
       -0.13581486 -0.09169021 0.011690881 -0.19810264
000120 ed aa 75 3e aa e9 01 3e f2 63 60 bd 91 df 8a bd
       0.23990984 0.12686792 -0.054782815 -0.06780923
000130 9f 5f 32 3e 9b e1 69 3e e7 a8 e0 3c 24 63 40 3e
       0.17419289 0.22839968 0.027424289 0.18787819
000140 66 11 bd bd f8 8c 44 3e e2 24 57 be 67 db 86 bd
       -0.09231834 0.191944 -0.21010163 -0.065848164
000150 a6 63 a5 3d b2 67 34 3e 64 2b 25 3e c0 ff b7 3b
       0.08075647 0.17617682 0.16129833 0.0056152046
000160 31 e0 be bd dd da 96 3d 5d 26 ad bd b1 ce 13 3e
       -0.09320105 0.073659636 -0.08454583 0.14434315
000170 e5 7c 61 3e 7d f6 1f be 9d 60 96 3d e2 2d 46 3e
       0.220203 -0.15621372 0.07342646 0.1935344
000180 7d 08 b1 bb d7 0b 41 be b9 9f 03 3e 10 5f 89 bd
       -0.005402623 -0.18852173 0.12853898 -0.06707585
000190 56 33 cf bc 53 1d 8e bc 8a 72 83 3c 22 32 b6 3c
       -0.025293034 -0.017347967 0.016045827 0.022240702
0001a0 62 70 2f be 5b 82 68 3e 43 44 2c be d0 5a 2c 3e
       -0.17132714 0.22705977 -0.16822915 0.16831517
0001b0 23 91 a0 3d 45 c6 68 be 75 24 42 be 04 b0 38 3e
       0.07840183 -0.22731884 -0.1895922 0.18035895
0001c0 a4 f3 32 3c 25 3d e6 bd 68 87 55 3d 20 75 04 bd
       0.010922346 -0.11242131 0.052131087 -0.03233826
0001d0 23 a8 cc bc 23 78 9d 3d 04 cc cb 3d 3f 86 1e bd
       -0.024982518 0.0768893 0.09951022 -0.038702246
0001e0 17 d8 27 3d 63 e6 35 bd 23 f4 d3 3d 32 c1 ff bd
       0.040977564 -0.044409167 0.103493 -0.12488021
0001f0 dd e2 b5 3d 0e 77 28 bd d4 9f 3c 3d 49 36 35 be
       0.08881161 -0.041129164 0.04605086 -0.1769649
000200 f9 a9 0a 3d 73 64 98 3a 13 c3 bd bd 5c 9e 72 3d
       0.033853505 0.0011626616 -0.09265723 0.059233055
000210 86 69 30 be 68 6d c4 bd 7a fc 78 bd 3f 93 13 be
       -0.17227754 -0.0959118 -0.060787655 -0.14411639
000220 5a fa 07 3e b2 c7 9c 3d 57 fa d1 3d d0 af 19 be
       0.13279095 0.07655276 0.10252827 -0.15008473
000230 73 f0 29 3d 2d 40 b0 3d 1c 5e 87 3d b1 3a 15 3e
       0.041489076 0.086059906 0.06609747 0.1457317
000240 f1 7e 72 be 37 53 e8 3c 9b 55 36 be a0 3c 5d 3e
       -0.23681237 0.028359992 -0.17806093 0.21605158
000250 da e7 60 be ca 26 4d 3c 98 31 0c be f7 fc 77 bd
       -0.21963444 0.012521455 -0.13690794 -0.06054398
000260 7d a9 ef bd fa ba e5 3b be 9d 8e 3d 11 4f b9 3c
       -0.11702249 0.0070108147 0.06963681 0.02262071
000270 7b f4 40 be 8b f8 44 be 25 3b 3f 3e c8 14 ed 3c
       -0.18843262 -0.19235437 0.18674906 0.028940573
000280 30 71 2f 3d 9e 25 ee 3d be 4a 3b 3e 12 70 1f be
       0.042832553 0.11628269 0.1829023 -0.15570095
000290 34 97 59 bd e4 4b 21 3c a1 d9 1c bd c3 33 04 be
       -0.053122714 0.009844754 -0.038293485 -0.1291037
0002a0 f0 86 34 be 0b 5d 54 3e a9 b8 19 be de 1a 03 3d
       -0.176296 0.20738618 -0.15011849 0.032008044
0002b0 91 61 e6 3d 8f 78 c9 bd 98 cb 0a 3d 31 6b c7 bd
       0.11249078 -0.09837448 0.03388557 -0.09737242
0002c0 46 dc 32 3a 92 64 bf 3d 88 de 2d bd 58 e2 c8 3b
       0.00068229844 0.09345354 -0.04244855 0.006130498
0002d0 25 af 0b be 93 1d 58 bd 87 d5 c8 bd 6b 86 be 3d
       -0.13641031 -0.05276258 -0.09806352 0.09302982
0002e0 3e e4 7e bd 63 4a b0 b8 77 6f 58 be 64 53 14 3e
       -0.062229387 -8.4061896e-05 -0.2113627 0.14484936
0002f0 a3 70 59 3e 51 f3 3e 3d 9c d8 c9 3a 73 09 14 bb
       0.21234374 0.046618763 0.0015399638 -0.002258864
000300 02 6d ce 3d 17 8b 99 3c 7f ce 2b 3e a6 d2 0d bd
       0.10079385 0.018743081 0.16777991 -0.034624718
000310 7e 4c 59 3e 8f 09 4b 3e 2e 35 87 bd c0 8e 54 be
       0.21220586 0.19827865 -0.0660194 -0.2075758
000320 2e 4c 1d bd c4 d2 2f be 49 e9 bd bd d6 eb f8 bd
       -0.03840273 -0.17170244 -0.09273011 -0.12154357
000330 5f ea d8 bd bb 60 a5 3d c0 ea 37 3e 07 e4 13 3d
       -0.10591578 0.080750905 0.17960644 0.036106136
000340 b4 4e 47 3c 6a ba aa bd dc 30 4d 3d c8 5a b2 bd
       0.01216476 -0.08336337 0.050095424 -0.087087214
000350 49 c5 31 3d e7 c8 d6 bd 82 c9 28 3e 0d 55 0c bd
       0.043401036 -0.10487538 0.16483119 -0.0342608
000360 ba 58 1c 3e 4f 8e 15 bd 3e 1b fc 3d f3 76 52 3e
       0.15268221 -0.03651267 0.123098835 0.20553188
000370 a0 bf 5b be 28 04 3e 3d bc 48 19 bc 5c ba 6c be
       -0.21459818 0.046390682 -0.00935572 -0.23117965
000380 78 05 40 bd fd d2 62 be e6 71 f8 bd 8f 34 53 be
       -0.046880215 -0.22150798 -0.121310994 -0.20625518
000390 15 5f aa 3d 19 3e 22 3b df 4b 08 3d bf 1b 9e bc
       0.08318917 0.0024756251 0.03327548 -0.01930034
0003a0 bb 6e 0e 3e 9d 89 55 be c9 a5 c7 bd 94 ba 42 3e
       0.13909428 -0.20853277 -0.09748418 0.19016486
0003b0 62 db 01 3e dd 1c 40 3e 9c 87 5d 3e de e6 e2 bd
       0.12681344 0.1876101 0.21633762 -0.11079191
0003c0 29 00 69 be 87 0c 55 3e 0d b8 2a be c0 8c 4c 3e
       -0.22753967 0.2080556 -0.16671772 0.19975567
0003d0 b4 09 66 3e 17 69 66 bd af 07 f1 3c eb 7b 70 3e
       0.22464639 -0.056252565 0.02942261 0.23484771
0003e0 9a 1d 5c 3e 42 a4 3d 3e 9f 5c 36 be f4 fd 5f be
       0.21495667 0.1851969 -0.1780877 -0.21874219
0003f0 92 42 05 3d 39 6a f8 bd 33 23 64 be 57 e1 b0 bd
       0.03253419 -0.12129635 -0.22279052 -0.0863673

bias f4 [680]
000000 34 59 0b be 70 82 3e be b0 f5 d9 bd 42 bd 47 bd
       -0.13608247 -0.18604445 -0.10642564 -0.048764475
000010 2e 9d ee 3c d2 07 94 bc f8 b0 23 3e 44 d4 68 3e
       0.029127683 -0.018070135 0.15985477 0.22737223
000020 18 e5 62 3c c9 0b 4f 3e 81 a7 92 bd e6 47 18 3d
       0.0138485655 0.2021934 -0.07160855 0.037177943
000030 1e 40 1b be 81 db af bd 94 b3 16 bd a2 dd 1d 3e
       -0.15161178 -0.08586789 -0.036792353 0.15416577
000040 2c 0f 11 be 06 0e 59 3e 20 ea 27 bd ba 56 c6 bd
       -0.14165944 0.21196756 -0.040994763 -0.096845105
000050 37 0e 71 3d f8 bd 5a be e8 5e 0d 3e 00 d9 23 3e
       0.058851447 -0.2136153 0.13805735 0.16000748
000060 a7 c0 86 3d d5 ea 3c be 01 97 58 be b2 47 cd bd
       0.06579714 -0.18448956 -0.21151353 -0.100234404
000070 5c d3 3b be b1 71 bf bc 93 f0 04 be 54 ae 19 3e
       -0.18342346 -0.023369642 -0.12982397 0.15007907
000080 4a d2 58 be dc c7 05 3e 32 60 fb 3d d0 34 bb bc
       -0.21173969 0.13064522 0.12274207 -0.022852331
000090 9c ae 5d 3e be ad a3 bd de 6a 0c be 59 37 2c be
       0.2164864 -0.07992123 -0.13712642 -0.16817988
0000a0 47 7d ae bd 3c 06 1f 3d b5 8b 31 be 8c 29 1b bd
       -0.085199885 0.038824305 -0.1733845 -0.03788142
0000b0 2d 0e e0 bd 80 53 49 be 2e 4a 52 3e a1 f5 e4 3d
       -0.10940204 -0.19660759 0.2053611 0.111796625
0000c0 8b 59 5b be 8d 17 9d bd 60 8a b5 bd 45 79 5c 3e
       -0.21420877 -0.076705076 -0.088642836 0.21530636
0000d0 2b de 4a 3e e4 99 5e 3e 96 a1 20 be e1 45 d7 3d
       0.19811313 0.21738392 -0.1568664 0.10511375
0000e0 68 5b f8 bd 90 39 e2 bd ec 3f d4 3b f0 bf 7b 3d
       -0.12126809 -0.110461354 0.0064773466 0.061462343
0000f0 65 12 48 bd 25 72 d7 bd ef a2 36 be 5d ca 3b be
       -0.048845667 -0.10519818 -0.17835592 -0.18338914
000100 15 15 56 3e 89 db 4c be 7a 2b 4c be bf 1a 7d 3e
       0.2090648 -0.20005621 -0.1993846 0.24717234
000110 49 73 2e be b4 8f fb bc d4 a0 43 be 8a 83 5e 3e
       -0.17036165 -0.030708171 -0.1910432 0.21729866
000120 10 cd 11 be de 16 54 3e 22 de ac bc 17 32 e6 3d
       -0.14238381 0.20711848 -0.021102015 0.11240023
000130 e1 42 4c 3e de 43 10 3e b1 da 1e 3e 15 8d f9 3c
       0.19947387 0.1408839 0.15513112 0.030462781
000140 6c fa 1a 3e 5a 7f fe 3c cb ad 66 3e 79 57 4e 3d
       0.15134591 0.031066585 0.22527234 0.05037639
000150 2b 2d 16 bd a1 db 39 3c 6d 6f 4d be 5e 89 58 3e
       -0.03666417 0.0113438675 -0.20062037 0.21146151
000160 18 a9 4e be 7e ae 4a be 2f 40 89 bd 76 d2 f8 3d
       -0.20181692 -0.19793126 -0.06701695 0.12149517
000170 55 68 fb ba cf 76 38 be 14 4c 29 be 50 8e 4d 3e
       -0.0019180874 -0.18014072 -0.16532928 0.20073819
000180 65 39 36 be 51 6d 62 3d 63 6e 0c be 5a c2 4e be
       -0.17795332 0.055280033 -0.13713984 -0.20191327
000190 2d df 47 be 90 ce 31 3e 49 28 f7 bd d0 1f c8 bd
       -0.19518729 0.17363954 -0.12068231 -0.09771693
0001a0 2d 12 5f 3e 6e ae b3 3d 98 c6 18 be ba ad 47 be
       0.21784277 0.08773504 -0.14919508 -0.19499865
0001b0 4f 66 01 3e 2a 11 21 3e 87 78 6f 3e 22 65 ca bc
       0.12636684 0.15729204 0.23385821 -0.024706427
0001c0 08 89 19 be d9 5b a6 3d d1 fa 3a 3e 9e de 84 3d
       -0.1499368 0.08122987 0.18259741 0.06487773
0001d0 a0 6a 06 bb 0c d1 3b be c8 6b 32 bd 30 1f b9 3d
       -0.002051033 -0.18341464 -0.04355982 0.09039152
0001e0 80 f6 1f 3e d0 48 35 bd 6f e8 44 be 01 21 b0 bd
       0.15621376 -0.044258893 -0.19229291 -0.08600045
0001f0 7f 14 a3 3d a8 65 51 be 2c 49 d5 3d 47 4d 76 bd
       0.07962894 -0.20448935 0.10414347 -0.06013229
000200 73 93 34 3e 4c 16 5f 3d f5 f2 39 be 8e c6 33 bd
       0.17634372 0.054464623 -0.18159087 -0.04389053
000210 cd 35 27 3e b3 70 e8 bd 50 32 61 3e 85 d2 81 3d
       0.16329117 -0.11349621 0.21991849 0.063389815
000220 d7 79 90 3d 34 c7 ef 3c fb 7f 4a be 08 c1 83 bd
       0.07054489 0.029269792 -0.19775383 -0.06433302
000230 88 1c 39 be 91 0d d5 3d 9d bc 56 3e d4 8e 39 bd
       -0.1807729 0.10402978 0.20970388 -0.045302227
000240 93 9b 09 be 0a 6f 15 3d 9c a5 ac 3d e2 d5 12 3e
       -0.13438253 0.03648285 0.08430025 0.14339402
000250 14 40 38 be 42 37 1f 3e 10 43 44 3e c0 c9 67 3e
       -0.17993194 0.15548423 0.19166207 0.22635555
000260 50 92 1a bd 95 0c 51 3e df c5 ce bd 76 9e f7 3d
       -0.03773719 0.20414956 -0.10096335 0.12090771
000270 b0 81 59 3e c8 36 5b bd 0c 8f 5a ba 75 75 0e bb
       0.21240878 -0.05351904 -0.00083373557 -0.002173749
000280 21 1f 3c 3e 2d 37 25 be a2 4c 27 be 24 3f 70 3e
       0.1837125 -0.16134329 -0.16337827 0.23461586
000290 d5 52 28 bc ca f6 31 be a9 11 75 3e e2 e5 41 3e
       -0.010273655 -0.17379299 0.23932518 0.1893535
0002a0 09 93 ae 3d 7e 44 5f 3d bf 39 bf bd d5 5a 4b 3e
       0.085241385 0.05450868 -0.09337186 0.19858868
0002b0 d2 a4 18 be ee c4 be 3d e2 26 da b9 27 e7 11 3e
       -0.14906624 0.09314905 -0.0004160917 0.14248334
0002c0 d1 35 cd 3d ee bf 6c 3e 1a 02 47 3e c0 92 13 be
       0.1002003 0.2312009 0.19434395 -0.1441145
0002d0 35 ba 27 bd fe 2e 8b 3b 8a aa 70 3d 9d 5b 4a be
       -0.040949065 0.0042475453 0.05875639 -0.1976151
0002e0 41 92 01 3e 15 e0 8e 3c b2 b3 9d 3d 51 27 11 be
       0.12653448 0.017440835 0.0770029 -0.14175154
0002f0 db 57 a1 bd 81 30 d5 bd 39 b8 0f bc 5d 82 f1 bd
       -0.07878085 -0.10409642 -0.008771949 -0.11792443
000300 16 a7 03 3e fe e3 02 be b7 46 8b 3d 44 c1 41 3e
       0.12856707 -0.12782285 0.06800597 0.18921381
000310 5e b2 87 3d 6b 68 4b 3d c0 ee f0 3c c4 aa ea bb
       0.06625818 0.049660128 0.02941072 -0.00716147
000320 ff f0 e4 3d a3 02 81 bd 19 3a 71 3e 84 b9 57 bb
       0.11178779 -0.06299331 0.23557319 -0.0032916972
000330 7d e9 56 3e a7 88 ea bc f9 ec 3e be ea 10 03 bd
       0.20987506 -0.028629614 -0.18645085 -0.031998552
000340 61 1f 1f be 79 a6 2e 3d 05 89 49 3d 5a 36 8a bd
       -0.15539314 0.04263923 0.049202938 -0.06748648
000350 e3 2f 5f 3e e6 84 39 be 0d 3b 76 bd f8 ab b8 3d
       0.21795611 -0.18117103 -0.06011491 0.090171754
000360 f3 53 46 3e 8d cc 77 be 93 08 a8 3d d9 72 5a bd
       0.19367962 -0.24199124 0.082047604 -0.053332184
000370 8e cf 40 3d ed f7 b6 3d 0f 34 0c be ab 1b 33 be
       0.04707294 0.08934007 -0.13691734 -0.17491023
000380 03 bc 5d 3d 75 b5 c0 3d 31 c2 2a 3d 6d 8d 1c 3e
       0.05413438 0.0940961 0.0416891 0.15288325
000390 3f 3d 33 be f7 58 1d be 8b aa 76 3e 4a aa 48 3e
       -0.17503832 -0.15365969 0.24088494 0.1959621
0003a0 73 6f 1d be 42 8c 36 be 88 0e 33 be d5 ab 1e be
       -0.15374546 -0.17826942 -0.17486012 -0.15495236
0003b0 a0 1d 1e 3d 14 8d 24 be 7f 4c de bd 28 ab 49 be
       0.03860247 -0.16069442 -0.10854434 -0.19694197
0003c0 e5 ed f6 3d dc 6a b6 bd fb 1c 58 be 31 ef c5 3d
       0.120570935 -0.089071006 -0.21104805 0.09664763
0003d0 e7 f5 4e bd a0 43 a9 3d 65 94 27 be 9f 2a 50 bb
       -0.05052748 0.082648516 -0.16365202 -0.0031763685
0003e0 57 28 6c bc a1 f1 4b be aa dc 99 bd a0 c1 a5 3d
       -0.014413915 -0.19916393 -0.075127915 0.08093572
0003f0 7d 55 f4 3c 9b dc e8 3d 75 b9 47 3e 6b c0 cf bd
       0.02982592 0.11370202 0.1950434 -0.10144123
