estimators/knet/single_obs/p_velMSE_ep100_train4000_val1000_test10000_lr1e-03_wd1e-04_data_sr1e-01_q1e-04_r1e+00_j5_train[200,250]_val[40,250]_test[40,250].pt (torch, 474705 bytes, 123 tensors)

_initial_state f4 [4]
00000000: 0000 0000 0000 803f 0000 803f 0000 0000
0.0 1.0 1.0 0.0

_initial_covariance f4 [4, 4]
00000000: 0000 0000 0000 0000 0000 0000 0000 0000
00000010: 0000 0000 0000 0000 0000 0000 0000 0000
00000020: 0000 0000 0000 0000 0000 0000 0000 0000
00000030: 0000 0000 0000 0000 0000 0000 0000 0000
0.0 0.0 0.0 0.0 0.0 0.0 0.0 0.0
0.0 0.0 0.0 0.0 0.0 0.0 0.0 0.0

weight_ih_l0 f4 [48, 20]
00000000: ea70 a9bd b5d3 ed3d 7080 4ebe b3c1 23be
00000010: c8ab 93bd 1eca 6abe 3f92 2fbd 71c2 4fbe
00000020: 8a0c 293c 45b4 ab3c ca25 393e 2a92 3a3d
00000030: cfd5 48be 2312 753e 6434 133e bb3b 8dbd
00000040: 4202 623e 8f3c 2d3e c157 98bd 82dd 423e
00000050: f1d4 12bd 3384 3039 7279 21be 0b0e e5bc
00000060: 6b01 9cbd f8f6 233d 8994 0abd 751e d83c
00000070: b101 833e 77d1 33be a1a3 48be 6a17 72be
00000080: 0b64 e5bd 88dc 1dbe be7f 603e 1ccb a13d
00000090: 3cd7 05be f6c7 6d3b be42 08be 70d2 3d3e
000000a0: 279d 133d 6637 1e3e 10ee 31bd a78b 74be
000000b0: da10 2c3e ff32 68be f9e5 ac3d 8245 79be
000000c0: 3f8e ba3c cfe8 63bc c620 c53d 58ce 1dbe
000000d0: aa5a 0f3e 2e51 0dbe bf7e 413d 440d d83d
000000e0: d255 25be ae72 3dbe fff9 743e bb7c 3ebe
000000f0: fd9d 80bc d115 6ebd 58f2 ae3d 5d46 53be
00000100: 2fa5 103e adcb 64be 6173 b93d 428e 00be
00000110: f860 133c 0e27 d6bd 11c1 2dbe 1d8b 463d
00000120: a5b6 0ebe 4c08 86bd 90be 35be 6452 e03d
00000130: b4b5 37bc f754 cebd 0be3 b5bc 47ec 40bd
00000140: 361a 623e 4cc1 0b3e f1be c3bc e63c eabd
00000150: 3397 4dbe 60d6 0cbd a93b 5dbe 033e 463e
00000160: 7085 b7bc 3e58 41be 232a 6bbd 9c7b 3dbe
00000170: df3d ed3d ecfa 553e b9dd 993d f2f1 76bd
00000180: f957 463e 3f7b ef3d a6a5 b93d e32a 3bbd
00000190: d63a dcbc 3194 edbd 762f 2f3e 7789 68be
000001a0: 57a7 2a3d 452d 3b3e cc51 80be 9c20 e1bd
000001b0: 5b1d c0bd 57bf 6d3e 8f4a 31bc 4952 bf3d
000001c0: 229c 49be cdd7 a5bd ef48 47be 7880 68be
000001d0: 2f6f fabd 2e7c 543e 143f 983d b4ee 19be
000001e0: 9060 963d 975d 05bd 29f7 b73d b77f 65be
000001f0: 9c68 8a3c 0b28 aebd 253b 1abd 75d2 49be
00000200: eb3d ebbd caa7 33be 0f2d ebba 94b9 ac3c
00000210: 7872 313d b5eb 4c3e e17d 10be 6027 74bd
00000220: d967 003e 4383 16be eadf cbbd 310b 153a
00000230: 2ce4 0abe 6be9 1f3e 03a5 fb3d 088d cd3d
00000240: 505f 873d ba9d 6e3d 2cab 39be c27d 26be
00000250: a4e0 2abe 21a7 483e cf79 763e 10db 583e
00000260: 5528 09bd 5b9a 6e3b 442f 473e e4e0 3abd
00000270: 5076 183e fd43 71bd 2810 2e3e 801b eabb
00000280: 51ed 0b3e 93cf 5db9 3604 eebc b12c 823d
00000290: b965 573e 642d 09be bff3 1bbe 8afd 03bd
000002a0: 45f9 69bc 3d95 24be 9c1f 32be adb7 443e
000002b0: 78d8 16be ac4f 1fbc d26c ffbc cba0 42be
000002c0: 94e9 e8bd 584e 293d 10cb aa3d 84a2 f7bd
000002d0: e44c 9ebd a51e b938 8cee 353e 6c68 9b3c
000002e0: b670 6a3d 5595 50be d4a6 adbd 2fde bcbd
000002f0: 8a58 033e 050a 75be f7ac 4d3e ae9b eabc
00000300: e5d8 03be 1a19 623e 2fd2 ad3c b9db 3dbe
00000310: c06f c83d df51 4c3e 007e 203e e5fc 853d
00000320: f3f3 653e 2183 c5bd 121d 7abd 3104 363e
00000330: 99eb 603b 2fb3 4cbe b602 80bd 3f27 953d
00000340: baed 343e c579 50be 8dbb e73d 2278 3b3e
00000350: ab05 41be 2672 b13d 4594 0abe 8da1 04be
00000360: 2206 ab3c fc65 3cbe 4480 0fbe 71a9 c23d
00000370: 04f8 223e 6384 19be 3605 5ebd 2cf2 493e
00000380: 0b6b 4a3d 7c7c 1bbe 6e89 913d 370b 323e
00000390: 3880 723e 0b3e f9bd 591a 643e b461 37be
000003a0: 5947 993c 5e30 00be fe8e 72bd 7ba9 8a3d
000003b0: a04b 7b3d 5c95 7a3e 970c 9f3d f3cf 003d
000003c0: e49b 2bbd acd5 9c3d afde e8bd 60c7 fb3d
000003d0: 1bfb 48be 1ddb a5bd d10b b43d 9e20 9ebc
000003e0: dcca 383d aa1f ebbd 40e5 943d acfe 413e
000003f0: 81cf 89bd ee86 b83d e285 6e3d da61 c4bd
-0.0827349 0.116126455 -0.20166183 -0.15991859 -0.07210499 -0.22928664 -0.04286408 -0.20289017
0.010317931 0.020959983 0.18080822 0.04554955 -0.19612812 0.239327 0.14375454 -0.06896158
0.22071174 0.16917633 -0.07438613 0.19029811 -0.035847608 0.00016833916 -0.15768984 -0.027960798
-0.07617458 0.04003045 -0.03383306 0.02638171 0.25587228 -0.17560373 -0.1959367 -0.23641744
-0.11200722 -0.15416157 0.2192373 0.07900068 -0.13070387 0.0036282516 -0.1330671 0.18537307
0.036038544 0.1545082 -0.043439925 -0.23881398 0.16803303 -0.22675703 0.08442301 -0.24342921
0.022772906 -0.013910486 0.09625392 -0.15410745 0.1399943 -0.13800499 0.047240015 0.10549405
-0.16146019 -0.18500778 0.23923491 -0.18602268 -0.015700335 -0.058126274 0.08542317 -0.2063231
0.14125513 -0.22343321 0.0905521 -0.12554267 0.008995287 -0.10456668 -0.1696818 0.048472513
-0.13936861 -0.06544551 -0.17748475 0.10953215 -0.011212755 -0.100747995 -0.02220299 -0.04710033
0.22080311 0.13647956 -0.023894759 -0.11437397 -0.20077209 -0.03438413 -0.2160479 0.19359593
-0.022402495 -0.18881318 -0.05741323 -0.18504184 0.115840666 0.208965 0.07512993 -0.06028933
0.19369496 0.11693429 0.09064798 -0.045695197 -0.026883524 -0.11600531 0.17107949 -0.22708689
0.041663494 0.18278988 -0.25062406 -0.10992548 -0.09380599 0.23217522 -0.010820999 0.093418665
-0.19688466 -0.08097801 -0.19461416 -0.22705257 -0.12228238 0.20750496 0.07433906 -0.15032464
0.073426366 -0.032559957 0.08982689 -0.22412 0.016895585 -0.08503731 -0.03765406 -0.19709189
-0.11486419 -0.17544475 -0.0017942506 0.021084584 0.043322057 0.2001179 -0.14110519 -0.059607863
0.12539615 -0.1469851 -0.099548176 0.00056855666 -0.13563603 0.15616386 0.12287333 0.10036665
0.06609976 0.05825589 -0.18131703 -0.1625891 -0.16687256 0.19595005 0.24069904 0.21177316
-0.03348573 0.003640792 0.19451624 -0.04562463 0.14888883 -0.05890273 0.1699835 -0.0071443915
0.13664748 -0.0002115353 -0.029054742 0.063561805 0.21034898 -0.13396221 -0.152297 -0.032224216
-0.014280622 -0.16072555 -0.1739487 0.19210692 -0.14731014 -0.009723585 -0.03117982 -0.1900665
-0.113726765 0.04133448 0.08339512 -0.12091544 -0.077295095 8.8271954e-05 0.1776678 0.01897069
0.057236396 -0.20369466 -0.084790856 -0.09222066 0.12826744 -0.23929603 0.20085512 -0.028638687
-0.12875707 0.22079888 0.021218387 -0.18540849 0.097869396 0.19953106 0.15673065 0.065423764
0.2245634 -0.096441515 -0.06106288 0.17775036 0.0034320115 -0.19990228 -0.06250517 0.07282876
0.1766881 -0.20358951 0.11315069 0.18307546 -0.18849818 0.0866435 -0.13533123 -0.12952252
0.020876948 -0.18398279 -0.14013773 0.09504975 0.15914923 -0.14991908 -0.05420419 0.19721287
0.04941849 -0.15184206 0.07106291 0.1738709 0.23681724 -0.12170037 0.22275676 -0.17908365
0.018710779 -0.1251845 -0.0592184 0.06770607 0.06135142 0.24471039 0.07766073 0.031448316
-0.041896716 0.07657942 -0.113705985 0.12293887 -0.19627039 -0.08098433 0.08791316 -0.019302662
0.045115337 -0.11480649 0.072702885 0.18944806 -0.06729031 0.09010111 0.05823315 -0.09588976

weight_hh_l0 f4 [48, 16]
00000000: 4354 0a3e bb6c 023e 5c36 e83d 031a 393d
00000010: 3269 193e bc74 6cbd 0e5c 433e 02be 55be
00000020: 76da cb3a 41cb f5bd 5dcf 9ebd 6cf6 56be
00000030: fe59 5cbe df11 e2bd 74b6 aaba 9a27 413e
00000040: 2ecd e93d 1aa7 f13c ad80 97bd bb7d 4cbe
00000050: 805d 7abd e202 da3d c11b 363e 8c81 5bbe
00000060: 0dfa 4ebe d3fd 613e 12ab 60bd cbda 683e
00000070: 9c14 b23d eeb3 62bd 4acf 7c3b ccfd 36be
00000080: 007d 44bc 9986 713e 70bb 17be 2211 45bb
00000090: 926b cfbd 45a1 42be f1ef 713e 8dc1 27be
000000a0: fa53 54be 11bc d93d a7db 693e fcb2 743e
000000b0: 142b 30be 2c1a 183c e4fc 55be b21b d2bd
000000c0: 1999 dabd c767 24bd 0070 643e 0be3 97bb
000000d0: 04c9 09bc d4c4 4e3d 218c b13d 818c b5bd
000000e0: 4c10 5dbe 992c 5ebc a1c4 c4bd 47af 053c
000000f0: 3123 413e 2a34 55be f3f1 74bc a076 dd3d
00000100: 512b 05be 2aa8 babd 1fdd 1f3e d2c8 2ebe
00000110: 23ca 8fbd 2031 623e a510 f73d 6981 f2bd
00000120: 9364 1d3e 342c 1d3e 70c4 c63d 96d5 8dbd
00000130: 2c12 d4bd 8acf ebbb 5817 c43d 0075 053e
00000140: 694d a73d f3b3 7bbe 7835 0c3e b8a2 b83b
00000150: d1ea 2ebe 24c1 483e bb55 0fbe 32c3 0cbe
00000160: f7cc 54be 209c 8c3d 23fd 66be d7cc 6d3d
00000170: 2104 4d3e 173a e73d d0b5 583d a96c 0d3e
00000180: 117d a43c 3fe1 713e fb4a 52bc fc9e 4a3e
00000190: cbb0 07be d43b 513d a535 31bd c8f3 d8bd
000001a0: f5af 38be 1070 863d f125 f2bc 9f66 34be
000001b0: bbd4 263e ea2d dcbd b7b9 203e 3f21 233e
000001c0: 485f 5ebd 6713 c63d dec7 4cbe c4b8 4dbe
000001d0: 556a 7c3e 01f1 3c3e 4b43 3fbe c693 053e
000001e0: 0668 4abe a53c 7c3e 71a6 50be 36eb d2bd
000001f0: e8fe 6a3e 3238 dfbc 83be 7d3e 6cee 12be
00000200: 277c 2a3e 2762 0b3e 013b 5ebe baf3 253d
00000210: 3e06 1c3e b786 39bc 2cc2 ba3c b5ec 3e3d
00000220: 0592 febd bb54 cebd c250 283e 84ab 4c3e
00000230: 2b33 e3bd 1415 093e 8bc9 21be 287e f03d
00000240: 502e 413e e365 133e de5b 25be b705 5bbe
00000250: ecb0 22be d5ce 50be 008c 1d3d a8c3 25be
00000260: 0701 003c aac2 7bbd db67 5dbe fe9c d7bd
00000270: e1f0 973d 7237 143e 0567 603e 44e5 a2bd
00000280: 2db3 373e 07df eebd 527f 13be ed3e 6e3e
00000290: 192d 58be cd39 cfbd 820e ebbd 75b1 4ebe
000002a0: 01ab a4bd 3298 e83d b395 cf3c c27d 073e
000002b0: fc86 2e3e eab8 083e 8ff4 19bd 44ef 0f3e
000002c0: 1784 ffbd 29c7 72be c786 24bd 0f67 193d
000002d0: e208 2e3e 9b11 dfbb 97f0 083d 6ecc 393e
000002e0: 4584 4b3d bd71 593e 00a8 e03d 4dbf a8bd
000002f0: bc46 943c d3a4 083e 5604 1c3e 3408 123d
00000300: 50fa 56bd 413b f5bc fbae a4bd 6e1e 923c
00000310: 8610 f8bd 1a95 16be a756 36be a826 77be
00000320: 3efd b23d 95e1 42be 3ffb 2cbd 3d37 5abe
00000330: 6d91 033d 04ed 273e 198f 573e f497 713e
00000340: ea91 a63d 3b95 97bd b522 fbbc 42e5 e33d
00000350: a3d6 71bd 4630 253e 32bb 97bd 7f5d 17be
00000360: bccd 5d3e 9ad1 913a 8755 2fbd cb85 52be
00000370: e0f1 10bd ff82 35be 617a 3e3e 4a01 e9bc
00000380: 2ce2 c13d 1674 503e 72b4 4fbe a2e2 da3d
00000390: b247 403e ff28 693e 806a 1ebd a41b 00be
000003a0: bac8 243e 8f4d 4dbe 1710 99bb b89e 66be
000003b0: 8962 383c 7ad1 013e 6e0d a53d 8d95 e13d
000003c0: d121 173e 3d43 5cbe 505b 4cbe 1e35 d33c
000003d0: 5604 6c3e daf3 09bc 0959 393e 17ce 5b3e
000003e0: 1128 273e 63c7 f53d db62 57be d89d 103e
000003f0: f6f6 803c 631f 57be df58 393e 8c44 3f3e
0.13508706 0.1273679 0.11338493 0.045190822 0.14981535 -0.057728514 0.19078085 -0.20873263
0.0015552777 -0.12001658 -0.07754395 -0.2099244 -0.21518704 -0.11038565 -0.0013024346 0.18862763
0.11416088 0.029498626 -0.0739759 -0.19969837 -0.061124325 0.10645081 0.17784025 -0.21436137
-0.20212574 0.22069483 -0.054850645 0.22739713 0.08695337 -0.055347376 0.0038575702 -0.17870253
-0.011992693 0.23586501 -0.14817595 -0.0030070026 -0.10127939 -0.19006832 0.23626687 -0.16382428
-0.2073516 0.10631574 0.22837697 0.23896402 -0.17203933 0.009283584 -0.20897251 -0.10259189
-0.10673732 -0.040138032 0.2230835 -0.00463522 -0.008409742 0.05048068 0.086693056 -0.088646896
-0.21588248 -0.013560438 -0.096078165 0.008159465 0.1886108 -0.2082068 -0.014950263 0.108136415
-0.13004805 -0.09114106 0.15611695 -0.17068794 -0.070209764 0.22089052 0.120637216 -0.11841089
0.15370397 0.15348893 0.09705436 -0.06925504 -0.103550285 -0.0071963714 0.09574765 0.13032913
0.08169062 -0.24580364 0.13692272 0.005634632 -0.17081763 0.19604927 -0.13997547 -0.13746336
-0.20781313 0.06865716 -0.22557501 0.05805668 0.20021106 0.11290377 0.052907765 0.13810982
0.020079168 0.23621081 -0.01283526 0.1978721 -0.13251035 0.051082447 -0.04326405 -0.105933726
-0.18035872 0.06564343 -0.029559107 -0.17617272 0.16292088 -0.10750945 0.15695845 0.15930651
-0.054290086 0.096716695 -0.19998118 -0.20090014 0.24649937 0.1845131 -0.18678014 0.13044652
-0.19766244 0.24632509 -0.20375992 -0.10298769 0.22948802 -0.027248476 0.24779706 -0.14348763
0.16648923 0.13611661 -0.21702196 0.04051564 0.15236756 -0.011323622 0.022797666 0.04661246
-0.12430195 -0.10074755 0.16437057 0.19987303 -0.11093744 0.13386947 -0.15799539 0.117428124
0.18865323 0.14394335 -0.16148326 -0.21388899 -0.15887803 -0.203914 0.038463593 -0.16187918
0.007812745 -0.061464943 -0.21621649 -0.10527991 0.07418991 0.14474276 0.21914299 -0.07953885
0.17939444 -0.11663633 -0.14404038 0.23266192 -0.21110953 -0.101184465 -0.114773765 -0.20184882
-0.08040429 0.11357154 0.025339937 0.13231567 0.1704368 0.13351789 -0.037586745 0.14056116
-0.12476366 -0.23708786 -0.040167596 0.0374518 0.16995576 -0.0068075187 0.03343257 0.1814439
0.04968669 0.21234794 0.109695435 -0.08239613 0.018100135 0.13344125 0.15236029 0.035652354
-0.05248481 -0.029935481 -0.080411874 0.017836776 -0.121125266 -0.14705315 -0.17806493 -0.2413584
0.08739708 -0.19031365 -0.042231794 -0.21310134 0.03212111 0.16399008 0.21050681 0.23593122
0.081333 -0.0740151 -0.030656198 0.11127712 -0.059042584 0.16131696 -0.074087515 -0.1478176
0.21660513 0.0011125088 -0.042806175 -0.2055885 -0.03538692 -0.17725752 0.18601371 -0.028442997
0.09466967 0.20356783 -0.20283678 0.10687758 0.1877735 0.22769545 -0.038675785 -0.12510544
0.16092196 -0.20049118 -0.0046711075 -0.22521484 0.011253961 0.12677565 0.08059202 0.11014853
0.14758994 -0.21510024 -0.19956708 0.025782164 0.23048529 -0.008419955 0.1810037 0.21465336
0.16323878 0.120009206 -0.21033804 0.14122713 0.01574276 -0.21008067 0.18100308 0.18678492

bias_ih_l0 f4 [48]
00000000: 6dd6 5d3e b082 033a 199a b73d 7227 c6bc
00000010: c850 103e d02e 8c3d bb0b 0bbe f553 2b3e
00000020: a77b 813c 33ac 2e3d b2cd 15be 68df 9c3d
00000030: d7ca 003e 2521 febd 8dcc 2cbe 274e 043e
00000040: f7cd 41be 2365 853e d9a7 c53d 51bb 803e
00000050: bd7a 61be 418c 56bd 4972 1abc bb5f 8b3d
00000060: e50c 4e3e 3427 3c3e ed22 443e 464a 143e
00000070: 1ae0 fe3d 21b0 993d abb4 55bc 8039 d9bd
00000080: c043 5fbe 77f4 17bc c15c 11be f5fd abbd
00000090: 45d7 d13d 30f9 e8bd aa8e 7c3e fb11 90bd
000000a0: 9e71 42be aff7 1d3e b5c5 763c 6367 30be
000000b0: e833 1ebe 80b7 5f3d 5dbd 933d 327c 083e
0.21663828 0.00050167274 0.08964939 -0.02418873 0.14093316 0.06844866 -0.13578694 0.16731246
0.015806032 0.04264469 -0.14629248 0.07659799 0.12577377 -0.124086656 -0.16874905 0.12920438
-0.18926226 0.26053724 0.09651155 0.2514291 -0.22019477 -0.05237985 -0.009426662 0.068053685
0.20122106 0.1837433 0.19153948 0.14481458 0.12445088 0.07504297 -0.013043563 -0.106066704
-0.21803188 -0.009274594 -0.14195539 -0.08398048 0.102461375 -0.11375654 0.24663797 -0.070346795
-0.18988654 0.15426515 0.0150617855 -0.17226939 -0.15449488 0.05461836 0.072138526 0.13328627

bias_hh_l0 f4 [48]
00000000: 951e d8bd 27c8 c63d 4b86 753e 2064 6e3e
00000010: 0adf 363c b026 04be c71d bebd dabe 253e
00000020: a436 d63d 53c8 b3bd 71c9 bb3d 746b 363e
00000030: 8c99 87b9 18f3 363d b3b6 12bd fade 283d
00000040: 573b 65be c7aa 163d 4e43 833e 0bb9 69be
00000050: 555b 6f3d 0f1d 35be 9a27 b03d 687e 713d
00000060: 27d2 e0bd 6109 c4bd 909a 26be dd5d 273e
00000070: 2916 30be d931 6bbe 54e6 69be 0cf5 393e
00000080: 28f3 77bd 5c99 32be 4eda 88bd 61dd f23d
00000090: 6f51 13be 6b37 9ebd 6953 77bc 0a0b b8bc
000000a0: 8f57 363e 21a5 4b3d fed8 74be 00e9 29be
000000b0: c29e 433e 5f35 00be 13a7 053d 9c14 32be
-0.10552708 0.09706145 0.2397701 0.23280382 0.011161575 -0.12905383 -0.09283023 0.16186085
0.104596406 -0.08778443 0.09169281 0.17814428 -0.00025863608 0.044665426 -0.035818767 0.041228272
-0.22385918 0.03678396 0.25637287 -0.22824495 0.05843671 -0.17686866 0.086013034 0.05895844
-0.109775834 -0.095721014 -0.16269898 0.163444 -0.17195953 -0.22968234 -0.2284177 0.18159884
-0.060534626 -0.17441314 -0.06682263 0.11858631 -0.14386533 -0.07725414 -0.01509557 -0.022466201
0.17806838 0.049718026 -0.23910901 -0.16592789 0.1910353 -0.1252036 0.032630038 -0.17390674

weight_ih_l0 f4 [48, 36]
00000000: a326 0abe 8d75 2cbe ff01 7abe b578 f839
00000010: 4bd9 783c 2bc4 1c3e e4ae f1bc c8b0 bbbd
00000020: c51c 373e 7a14 d83d c809 0cbe 1938 2a3e
00000030: 96bf b6bd 5f11 07be eb2d 733d 1027 223e
00000040: ca2e 12be e589 2abe 4fa7 f2bd 1bbc c3bd
00000050: 034d f73d 930c edbd 4dcc 61be 8727 873d
00000060: edab 3bbe 4fce 7bbd 5a14 853c 11b1 603e
00000070: f64d c5bd 93fb 1bbe 0447 013d 8407 5ebe
00000080: 7bbe a03d bba2 b93c 0640 773e 6151 3e3e
00000090: 0ce0 013e 6b68 72be ae56 96bd 7a7d b8bd
000000a0: facf 513d e4aa c13d 2d49 c0bc cb01 643e
000000b0: 89bd 763d a0c9 6f3d 26ea 963d 7e3c 90bd
000000c0: 247f 05be 23cb 503e 1779 f6bd 1662 44be
000000d0: 9efd 4ebe 94e6 6abe 8ab5 db3d e3c9 cebd
000000e0: 85e4 69be d8dd b4bc 2a6f 64be 9fe7 c1bd
000000f0: 0349 36be 9ea8 08be 3401 56be fc8b 9a3d
00000100: 85e2 aabd f787 4d3e a6c2 f9bd 6a21 bd3d
00000110: 2ce8 2b39 cf26 ce3c e5cc ccbd 1521 33be
00000120: 3452 c6bd 4c52 543e 30f2 81bd f1cf 353e
00000130: fc4c 2cbd 5da5 61be 29a5 5fbe cb22 eb3d
00000140: 5f91 34be 7952 37be 4234 3abe faec 863c
00000150: e3f0 2fbd ac27 523e 1e20 073e f65c 73be
00000160: 0a9f 6a3e fd06 fd3d 32c0 1b3e 2509 4d3e
00000170: 9aee 853d 4c5a 283e 7de5 a83d 6ba0 25bc
00000180: 03ba 2abc e5ef c5bd d4e9 75be 9861 1dbe
00000190: ae7d 2cbe 05fe d63d 9b48 3fbd 4ffd 703e
000001a0: 28fb 833c f595 b83d 7e1c e5bd d491 76be
000001b0: 3683 7cbb e7fc 0d3d e787 2f3e 468e 293d
000001c0: 5402 58be 4d9c fb38 49cf 383d 92a5 0cbe
000001d0: 16ad db3d c9d3 59be b069 68bd a40a d7bd
000001e0: 4a3a 653e c856 0c3e aee6 95bc c500 74bd
000001f0: 913b e33c d7bf 5fbe 1538 80bc d755 063e
00000200: 10de 7bbe 0573 bb3d 7988 04be 1265 5e3e
00000210: 07d7 5ebe bb39 8cbd 1583 06be 8e9f 11bd
00000220: 9cd0 07be b889 843b 1a89 ae3d 6c60 753d
00000230: 144a a738 4fc5 1abe 9302 2dbe b386 3d3e
00000240: 5824 353e 8a4f c7bb e8e0 be3c 2db4 ea3d
00000250: d0f0 373e 69ac c0bd 9bd4 c53d 2605 f1bd
00000260: cb70 2cbe 13db 5c3e decc 42bd dd92 0bbe
00000270: b38d 19be 7e59 41bd 8b3a bf3c 497b ac3d
00000280: 85d1 41be ff3b ccbd 1eb8 46bd 2c07 39be
00000290: 6dd7 c1bd 2452 293e 6d2e 203c d9bd 0ebe
000002a0: 0897 363e acbd 8ebc 0901 553e b1d7 493e
000002b0: 1778 113d ce5c 3a3e 2219 143e ef66 38be
000002c0: 07c9 083d dfee f73d 43f5 7c3e b124 6f3e
000002d0: 220a 613c b3fd 543e 7d82 16be 84a2 b03d
000002e0: fcf2 12be e2f3 31bb c11d 6f3e 1973 5a3e
000002f0: adf0 68be 40e3 73be 6927 dcbb 0c24 e9bd
00000300: 9dcc 7a3d 9dac 4d3e 76ef 293d ad10 43be
00000310: 00a1 723d 6c10 133e 8150 073e 0662 54be
00000320: 0430 74bd e233 983d 4720 86bd d321 593e
00000330: b53f 27be 418a ff3d 7324 29be 37b9 7f3e
00000340: 0e6d 5abd ec23 903b 88b1 2bbd 95f9 13bd
00000350: aa83 f9b8 c707 153e 8c94 89bc d505 27be
00000360: d87d 87bd 6635 2d3e 716c 1bbe c36e ab3d
00000370: 9a12 0ebd cc7f 5abe 4f88 dbba 2cdd 5dbe
00000380: 47d0 903d e719 e03d 8ec0 fb3c 50fb 093e
00000390: 81aa 633e 96e9 ddbd e6e8 113e fd14 3fbe
000003a0: 86cb 51bc 5ef8 0c3e f5d9 f13d 613c 4b3e
000003b0: 8dc6 40be 2cfe 10be 0392 033e 1e54 563d
000003c0: aca8 13be 5b34 9cbd 75b9 48be 4b22 3a3e
000003d0: 69b3 533c 78e7 fc3c 8c9e 3fbe 6dc4 0ebe
000003e0: fd3b 02bd 304c d9bd 6272 083e 9d17 fa3d
000003f0: 86cf 6fbe fd96 223e 33ba 45be d125 163e
-0.13491301 -0.16841717 -0.24414824 0.0004739218 0.015188525 0.15309207 -0.02950234 -0.09164578
0.17882068 0.105507806 -0.13675606 0.16622962 -0.08923261 -0.1319022 0.059369963 0.15835214
-0.14275661 -0.16654165 -0.11848318 -0.09557363 0.12075236 -0.11574664 -0.22050591 0.06599336
-0.18327303 -0.061476048 0.016245056 0.21942545 -0.096340105 -0.15232687 0.031561866 -0.21682554
0.07848831 0.022660604 0.24145517 0.18585731 0.12683123 -0.23672645 -0.073407516 -0.09008308
0.051223733 0.09456423 -0.023472393 0.22266309 0.06023935 0.058541894 0.07368879 -0.07042788
-0.13036782 0.2038999 -0.12034815 -0.19178042 -0.20213935 -0.22939521 0.10727985 -0.100971006
-0.2284108 -0.02207844 -0.2230803 -0.09468006 -0.1780129 -0.13345572 -0.20898896 0.07546231
-0.083439864 0.20071398 -0.12195329 0.09234889 0.00016394322 0.02516499 -0.10000018 -0.17493089
-0.09683648 0.20734519 -0.06345022 0.17755105 -0.042065606 -0.22035737 -0.21840347 0.114812456
-0.1763358 -0.17902555 -0.18183997 0.016470421 -0.042954337 0.20522946 0.13195845 -0.2376593
0.22912231 0.123548485 0.15210035 0.2002302 0.0653965 0.16440696 0.082468964 -0.010109047
-0.010420325 -0.09664897 -0.2401498 -0.1536926 -0.16844818 0.10497669 -0.0467001 0.2353413
0.016110972 0.09012977 -0.11187075 -0.24079067 -0.0038530356 0.034665015 0.17141686 0.04139545
-0.21094638 0.00011997726 0.045119558 -0.13735035 0.10726373 -0.21272196 -0.056741416 -0.105000764
0.22385517 0.1370498 -0.018298473 -0.059571046 0.027738364 -0.21850525 -0.015651742 0.13118683
-0.24596429 0.091527976 -0.12942685 0.21718243 -0.21761714 -0.06846949 -0.13135941 -0.035552554
-0.13263172 0.0040447377 0.08522244 0.05990641 7.976979e-05 -0.1511433 -0.16895513 0.18508415
0.17689645 -0.00608248 0.023300603 0.11460147 0.17962956 -0.09407885 0.09659692 -0.1176856
-0.16839902 0.21567945 -0.047558658 -0.13630243 -0.1499546 -0.047204487 0.023343345 0.08421952
-0.18927582 -0.09972381 -0.04851543 -0.18069142 -0.09464917 0.1653524 0.009776694 -0.13939609
0.17831051 -0.017424427 0.20801176 0.19711186 0.035514917 0.18199465 0.14462712 -0.18008016
0.03339484 0.12106108 0.24702935 0.2335384 0.013735326 0.20799904 -0.14698215 0.086247474
-0.14350504 -0.0027153422 0.23351194 0.21332969 -0.2274806 -0.23817158 -0.0067185652 -0.113838285
0.06123029 0.20085378 0.041488133 -0.1904933 0.059235573 0.14361733 0.13214304 -0.20740518
-0.059616104 0.07431771 -0.06549125 0.21204309 -0.16332896 0.12477542 -0.1651781 0.24972998
-0.05332666 0.0043988135 -0.041917354 -0.03612669 -0.000118977696 0.14553748 -0.016794465 -0.16310818
-0.066158 0.16914901 -0.15178086 0.083707355 -0.03468571 -0.21337813 -0.0016748997 -0.21666402
0.07070976 0.109424405 0.030731466 0.13474774 0.22233011 -0.108355686 0.14249 -0.1866035
-0.012804871 0.1376662 0.1180915 0.19847251 -0.18825741 -0.14159459 0.12848668 0.052326314
-0.14419812 -0.076271735 -0.19601996 0.18177144 0.012921193 0.030872092 -0.18712825 -0.13942118
-0.03179549 -0.10610235 0.13324884 0.12211535 -0.23419008 0.1587791 -0.1930931 0.14662863

weight_hh_l0 f4 [48, 16]
00000000: b637 f53d f9b7 063d 48ab 42bc 4eb9 b5bd
00000010: f400 0f3a 1ae7 633d ba97 f8bd b22a 3dbe
00000020: a0d6 1bbe b5df 8c3d 7229 eabd b96e e8bd
00000030: a15d 5b3e de9a 39bd fb95 56bd b069 133e
00000040: a5f5 b43d 68be d43b 2399 64bb b67d 623e
00000050: 4848 e7bc 8c69 373e 4a0a 08bd 4901 723d
00000060: 7be3 c3b9 408d e1bd 24ff 353d 32e3 25be
00000070: 2f1e 61be 3fc4 8c3c 3462 a73c 265f 2c3e
00000080: 4c6a dd3d efc5 03be 4393 16be 2a9f b93d
00000090: 0db6 0e3e d600 4bbe ee19 20be c63e 503e
000000a0: 106d 07be 9747 743e 517c 33be 5fd1 acbd
000000b0: f465 6f3e 650f 2a3d e4de 813d 322d 473d
000000c0: 3335 f6bc fa79 72bd 30d7 38be 3fad 733d
000000d0: 9c17 94bc 7361 2fbe c5e4 4a3e 254d 303e
000000e0: bf79 8bbd 58d3 02be 8f02 1bbe be06 2ebd
000000f0: f2cd 053e cdc6 a83d 485f 8838 6ff3 bfba
00000100: 5531 32be 38a9 2fbd 7c3a f43d 8ed7 2c3d
00000110: e6c4 9dbb 0c16 78be 17f6 793d c5a9 ba3b
00000120: 63a2 9739 740c 813d c730 d9bd c1cb 14be
00000130: 5201 e93d b6e1 a63c f3f4 c53d aa9a 58be
00000140: 1231 0b3e 04fa f0bc dcf5 863d 5754 d13d
00000150: f68d c6bd 58b1 a0bc 26b5 41be fc7c 1fbe
00000160: ecd1 5f3c ee99 4e3e 22f2 793d 49e3 cc3d
00000170: bd61 043d 7053 98b9 cd87 7c3d 9c7e b7bd
00000180: 8ff6 6abe 5635 033e 6bf3 92bc c705 68be
00000190: c4ab 2138 3646 15bc 656d 51be 8650 dcbd
000001a0: 0120 f6b8 999b 48be ae73 75be 193b 60bd
000001b0: 518f 1a3e c919 2d38 a110 dcbd eceb 5bbd
000001c0: 4bd5 27be 62ff 1a3e bf26 be3d 8473 53be
000001d0: 5483 6bbb da4b 713e 0e7e 5bbd 5aed 19bd
000001e0: 9168 b43d 9b2b 67be 08b4 463e 3597 1bb8
000001f0: 24fb 33be bc1a f1bc 3ab3 39ba c184 aabd
00000200: 590f 0bbe bbf2 a6bc 7a1f c9bb ced7 53be
00000210: b8f6 cb3d 8d3f 47be ecfa 2c3e 6dd6 56be
00000220: 6c62 91bc 95b4 303d c4cd 0a3e 6ba5 83bd
00000230: dd9a b33d 5c3a 2bbd 2eac a6bd 814c 80be
00000240: 560d 03be aebe 59bb 8368 e23c de4a 33bd
00000250: 7441 123a b37e cd3c 389a 113e 23e3 e53c
00000260: 876c b9bc a7eb 0abe 4936 7d3e 7094 083e
00000270: c61e 5d3d dc95 51bd fcc9 87bd 7a8d 233e
00000280: 2f17 363d c626 02bd eeed 47be a2a0 3abe
00000290: 76ce bbbc 2c6c 483e c49b 2fbd 7c27 1abe
000002a0: 2fe2 d73d 08e9 f93d fa8f 6a3e 1c34 153e
000002b0: 1153 823e 08ce 083e 4c83 a3bd 2319 56be
000002c0: fa38 ee3d 4a9f 77bd a42a 33be 0b50 683e
000002d0: c91d 143e c81d c53d 408e 793e c96c 54be
000002e0: 49c1 223e 12d0 203e a58b 27bd 403c 01be
000002f0: cc58 863c 109f 043a 07c7 063b 2462 35be
00000300: c19f 1b3d 01fe 9c3d 038c 7d3d b68b 2cbe
00000310: a81e 1dbe 19a9 e03d e4d9 1abe eb9e 573e
00000320: 6c6b 9d3c cbc1 92bd 713b 7abb fa75 8a3d
00000330: 34a0 973d 1fe6 65bd dd2d 06be a691 04be
00000340: 80bf 61bc b45f 18be 46f9 893d 100e 133e
00000350: c728 6137 316f 9dbd d62f 91bd fbc8 113e
00000360: 751e 6a3d d104 4cbe a4a3 ecbc 8831 a2bd
00000370: 803f d83d c9cc cbbd c2d5 a737 ac17 3d3e
00000380: a297 d2bb ffcc 65bc 49e7 5fbd 467a 23be
00000390: 514a 2e3c 4331 51be 2d1c 51be f242 57be
000003a0: 388b 6bbc 8f38 76bc b886 533d 4097 623c
000003b0: e3f9 463e 9bea c33d dc54 b9bd 3be4 373d
000003c0: 2321 54be 26d2 c0ba 554c 393d 2482 e6bd
000003d0: 3988 293d b33d 08be 4df7 0fbe 9baa 12be
000003e0: 77e8 4bbd 4431 593e 8501 76be 6683 99bc
000003f0: 347e 75be fdc0 2abb 188d 1fbe 0e0c 653e
0.11973517 0.032890294 -0.011881657 -0.08873235 0.0005455159 0.055640317 -0.121383145 -0.18473318
-0.15218592 0.06878606 -0.11433686 -0.11349244 0.21422435 -0.04531371 -0.052389126 0.14395785
0.088359155 0.0064924248 -0.0034881316 0.22118267 -0.028232709 0.17911357 -0.033212937 0.059083257
-0.00037362784 -0.110132694 0.044432774 -0.1619995 -0.2198417 0.017183421 0.02043257 0.16833171
0.1081129 -0.12868474 -0.14704613 0.09063561 0.13936634 -0.19824538 -0.15634891 0.20336446
-0.13225198 0.23855434 -0.17527892 -0.08438372 0.23378736 0.041518588 0.06341341 0.048627086
-0.030054664 -0.059198357 -0.18050838 0.059491392 -0.018077664 -0.17127018 0.19813831 0.17216928
-0.068103306 -0.12775934 -0.15137695 -0.0424869 0.13066843 0.08241043 6.502733e-05 -0.0014644692
-0.17401631 -0.04288599 0.119252175 0.042197756 -0.004814732 -0.2422716 0.061025705 0.0056965076
0.00028921952 0.06301203 -0.10605007 -0.14530851 0.11377205 0.0203713 0.09665861 -0.2115275
0.13592938 -0.029416092 0.06589863 0.10221165 -0.09695046 -0.019615814 -0.18916759 -0.15575022
0.013660889 0.20175907 0.06102193 0.10004289 0.032319773 -0.00029053865 0.061652947 -0.08959696
-0.22945617 0.12813315 -0.017938336 -0.22658454 3.854536e-05 -0.009110978 -0.20451887 -0.10757546
-0.00011736155 -0.19590606 -0.2396991 -0.05474386 0.15093733 4.127043e-05 -0.10745359 -0.05369179
-0.16389959 0.15136483 0.09284734 -0.20649534 -0.0035936432 0.23564091 -0.053587012 -0.03757987
0.08809007 -0.22575228 0.19404614 -3.7095702e-05 -0.17576271 -0.029431693 -0.0007083897 -0.08326102
-0.13580073 -0.020379415 -0.0061377855 -0.20687792 0.09959167 -0.19457836 0.16892594 -0.20980234
-0.017747127 0.043140966 0.13555056 -0.06428035 0.08769772 -0.041803703 -0.081383094 -0.25058368
-0.12798056 -0.0033225226 0.027637726 -0.04377257 0.0005579211 0.025084829 0.14218986 0.028062409
-0.022634758 -0.13566457 0.2472774 0.13337874 0.053984426 -0.051168308 -0.06630322 0.15971938
0.044455703 -0.03177526 -0.19524357 -0.18225339 -0.022925597 0.19572514 -0.04287316 -0.15054125
0.10541188 0.1220265 0.22906485 0.1457066 0.25454 0.13359845 -0.07984027 -0.20908026
0.11631961 -0.060454644 -0.17496735 0.22686784 0.14464487 0.09624821 0.2437067 -0.20744623
0.15894045 0.15704373 -0.04090466 -0.1262064 0.016399764 0.00050591026 0.0020565407 -0.17713219
0.03799415 0.07665635 0.061901104 -0.1685017 -0.15343726 0.10969753 -0.15122181 0.21056716
0.019216262 -0.07165869 -0.0038182402 0.067607835 0.07403603 -0.056127664 -0.13103433 -0.12946185
-0.013778567 -0.14880258 0.06736998 0.14360833 1.3420539e-05 -0.07687224 -0.07089202 0.14236824
0.057157952 -0.19923712 -0.028886624 -0.079196036 0.10558987 -0.09951169 2.000749e-05 0.18466061
-0.0064267674 -0.014025926 -0.05466393 -0.15964612 0.010637836 -0.20428948 -0.20420904 -0.21021631
-0.014376454 -0.015028133 0.05164215 0.013830006 0.19431262 0.09566232 -0.09049389 0.044895392
-0.20715766 -0.0014711067 0.04523881 -0.11255291 0.041389678 -0.13304786 -0.14059182 -0.14322893
-0.049782243 0.212102 -0.24024017 -0.018739413 -0.23973924 -0.0026054971 -0.15581167 0.2236788

bias_ih_l0 f4 [48]
00000000: 46fc 413e ba7c 27be d3cc 2b3e cf94 79be
00000010: 86f8 00be 5ba6 503c a51a 793e 0140 e8bd
00000020: 2f15 383d 3440 45be 016e 4a3e 8eea 3fbe
00000030: d290 09be 86f3 5e3e 4dae 2dbe d171 c1bd
00000040: 03d2 993d e816 d73c 57bc 33be 6228 a2bc
00000050: c84f 513e bb9e a5bd 0874 de3d fbb2 1abd
00000060: a29f abbd 3927 4abd 5c58 4cbe fa59 c9bc
00000070: af44 493e 819d b23d f3c1 de3c ae5e 1d3e
00000080: 64b8 5b3d b794 2a3d 20db 7f3e 5a07 60be
00000090: 453a 3e3e 6591 3fbe e516 683e 1592 4abe
000000a0: bf01 66be 2d52 1a3d 3fe4 f339 0b14 94bb
000000b0: 8994 533e a892 803d a48e ca3d 7633 3dbe
0.18943891 -0.16356173 0.16777353 -0.24373172 -0.12594804 0.012734975 0.2432657 -0.11340333
0.044942077 -0.19262773 0.19768526 -0.1874182 -0.13434151 0.21772584 -0.16961022 -0.09445537
0.0751076 0.02625604 -0.17552315 -0.019794647 0.2044059 -0.08086916 0.10861975 -0.037768345
-0.08380057 -0.049353812 -0.19955581 -0.024579037 0.19655107 0.08721448 0.027192092 0.15368149
0.053642645 0.04164573 0.24985933 -0.21877804 0.18576916 -0.18707807 0.22664984 -0.19782288
-0.22461604 0.037676025 0.00046518628 -0.004518991 0.2066213 0.062779725 0.09890488 -0.18476662

bias_hh_l0 f4 [48]
00000000: 5893 adbd 9a19 4dbe f419 f2bd 3ac9 d7bd
00000010: c4b9 4c3e 611d 4a3e db59 87bd c8eb 633e
00000020: e37c aa3d 3334 093d 627f 5bbe 7499 25be
00000030: b247 59be 3e67 703e 1632 c0bc aef4 843d
00000040: 73e6 7d3e ef21 2d3d 8d1e 173e cc52 1e3e
00000050: bf1a 193e 8a6a 73be 4e63 e33d e19d 583d
00000060: d1be 723e 99b2 4f3e ba52 4cbe 97af 913d
00000070: e47a d1bc 2c7c 643e 5a83 543e 97fb 343e
00000080: 6364 b93d 554f 6abd f71f 623e 35e8 05bd
00000090: a678 6ebe f25a dd3d cbff 25be e692 dc3d
000000a0: 80a3 adbd 1e8a 2f3d bd97 af3d 435d 4c3d
000000b0: 673d e6bd fd27 853d 92be 0a3d ce3c 43be
-0.08475369 -0.20029297 -0.118213564 -0.10536428 0.19992739 0.1973777 -0.066089354 0.22257912
0.083246015 0.033497047 -0.21435311 -0.16171819 -0.21218756 0.23476884 -0.023461383 0.064919814
0.2479494 0.04226869 0.14757748 0.15461272 0.14951609 -0.2377111 0.11102925 0.05288494
0.23705603 0.20282973 -0.19953433 0.07113569 -0.025571294 0.22312993 0.20753232 0.17674099
0.0905235 -0.057204563 0.22082506 -0.032692153 -0.23288211 0.10808362 -0.16210859 0.10770206
-0.08478451 0.04285633 0.08573864 0.04989363 -0.1124218 0.06501768 0.03387315 -0.19066164

weight_ih_l0 f4 [3, 11]
00000000: 6a32 dbba 44c4 2bbf 01c0 163f 78f5 813d
00000010: faf2 613f f392 363f d109 dfbd 7222 e33e
00000020: cc2c 393f cdb8 223f 36b1 d8be 9b7b bf3e
00000030: 3b90 163f a30c e6be cb31 33bf 3465 6cbf
00000040: fc10 34bf 9d4d 51be 3372 36bf 975a 9c3e
00000050: 223b 18bf 70a9 7f3f 80a3 12ba 3dc0 c83e
00000060: 255a 73be 0973 79be 1348 f4bd 130a 4fbf
00000070: 0ef9 f33e 7439 5e3f 2ace a8be 6b5f 203f
00000080: c92e 333f
-0.0016723399 -0.6709635 0.58886725 0.063456476 0.8826138 0.71317977 -0.10890544 0.44362217
0.7233398 0.63563234 -0.423227 0.3739899 0.5881383 -0.44931516 -0.69997853 -0.92341924
-0.70338416 -0.20439763 -0.71268004 0.30537865 -0.5946523 0.99867916 -0.00055938214 0.39209166
-0.23764856 -0.24360289 -0.119278096 -0.8087475 0.4765095 0.86806417 -0.3296979 0.62645596
0.69993263

weight_hh_l0 f4 [3, 1]
00000000: bf9f debe 057c 763e c609 783f
-0.43481252 0.24070747 0.96889913

bias_ih_l0 f4 [3]
00000000: 8557 6d3e b8e5 0dbf f876 373f
0.23177917 -0.5542865 0.71665907

bias_hh_l0 f4 [3]
00000000: bd5f 1f3e 65d3 133e 2050 2cbe
0.15563865 0.1443611 -0.1682744

weight f4 [1, 16]
00000000: c699 7f3b 1bb5 053e f852 5338 d091 95bd
00000010: bb21 a43d 4b14 603d dc71 1fbd 32f8 023a
00000020: 86e2 93bd a614 0c3a 73f3 1d3e b5de 873d
00000030: bdb4 ccb9 d2a0 7f3c 9a34 a9bd 1bc9 edbc
0.0039001568 0.13057368 5.038359e-05 -0.07303202 0.08014246 0.054706853 -0.038926944 0.00049960904
-0.0722094 0.0005343653 0.154249 0.06634275 -0.00039044573 0.015602307 -0.08261986 -0.029026559

weight f4 [680, 17]
00000000: 3f41 2c3e 7488 98bc 3adc 67bc 464b 443e
00000010: 0cef f53d 5c2a 213d 89c9 19bd a6aa 453d
00000020: e1e2 26be bf7e 35be f025 e2bd 683b 76be
00000030: 22da adbd 4a1f 6fbb 9e69 633d 87f9 b23c
00000040: 70a8 1abe 0bd3 273e 1614 14bd 1010 52be
00000050: ec4e e0bb 550e ad3b c5e2 7abd 2ee9 163e
00000060: d551 5b3e 423f fc3d aa53 433d c158 07be
00000070: b1ea 6c3d 4f03 3abe d5ed 0abe 8a3d a03d
00000080: 2433 21be bc26 97bd 2920 493d a0be 153e
00000090: 2f81 753e aae4 4abe 7253 65be c168 12bd
000000a0: 17e7 52be 4c97 6dbe c4f2 af3d a860 0f3e
000000b0: 0f0e d6bb 7f91 f63d c3bf 8c3d 52c2 6c3e
000000c0: b02f 4a3c 53c2 0bbe e3b2 4e3e c4ff f63b
000000d0: 66f7 dd3c b856 5d3e e4a6 16be c9af 82bc
000000e0: d185 2d3e e888 1e3e 3add e7bc fe54 43be
000000f0: c0cc aabd b5e5 1ebd b212 1b3e 8017 0d3e
00000100: 92c5 623e c580 e4bd dbd4 05be 4f7b 6e3e
00000110: 1a50 833d 7d8b f9bd f943 16b8 4165 cbbd
00000120: 552f f13d 0a98 e43d 5349 56bd 2dc6 d9bd
00000130: 36e8 0b3e 2d8a e138 c279 69ba e40c 403d
00000140: 8692 a9b8 cac6 debd a7d9 343d db0c f3bb
00000150: 628a de3b f2ed f43d fc12 a93c da6f 6bbc
00000160: c236 58b8 a59f 08ba 6024 c43a dccb e4bd
00000170: 0a21 df3d bf7e 573c 266f a8bc d484 0cbd
00000180: d534 bfbd fdbd 4dbd 5f4c a6bd c382 b4bd
00000190: a004 ba3b ac86 84bd db2a 5bbe d874 f8bd
000001a0: f13a 8dbd 328e 373e 9189 2bbe 9fd6 2abd
000001b0: eb3c c63d 03a2 5cbe e185 8abd 1f38 3bbe
000001c0: 2683 7dbd 852d 78bd c135 1a3b f7b0 123e
000001d0: 8833 c83d c6e8 6dbe 7ab7 f23d b213 673c
000001e0: f4b2 203d 0dfc 0ebe 0e86 0fbe 942d 7b3d
000001f0: 028f 47be f3cc 003e df0e 043e 3f35 8d3d
00000200: b0fc 713d 506f 72bd 688d 1cbd b21b 433d
00000210: 1776 5abe 399e efbd 36e2 573d 6878 3c3e
00000220: 08ae b337 accd 9f3c d780 a73d 9e99 ce3d
00000230: 41b9 3fb9 c32f 2eb8 0257 0cbe c0c3 0a38
00000240: 9dd6 7cbd 6415 0dba 8571 d13d c609 0ebb
00000250: 13b2 1abe 355a 523b ef01 47bd 5875 1d3d
00000260: 90fe 30b8 6485 c8bd f0fa 7438 58f7 173e
00000270: 872b 63b8 9f93 753d 0195 033e 3826 ac3d
00000280: 9153 fbbc d5c9 9dbd f360 f239 70d3 1b3a
00000290: 3cce 17be d47b adbb 8813 5a3d 0ea9 d3b9
000002a0: cbb2 85bc e9a8 a7b6 fcfc 9cb8 4d3d 1337
000002b0: 95a9 33bc 29f7 d838 246b c93d 8d90 1e3e
000002c0: b3e0 b1bd 77a1 a83d 49cc 1cb7 077d 4ebd
000002d0: 9a0f 1bbe 3552 06be 699b 173e 5f74 1f3d
000002e0: 77f6 e637 0abc fabd 3e35 17bd 5b37 0d3e
000002f0: 977e 483e 027c 25be 174b 63be 520d fe3d
00000300: c593 6f3e da1f 55be a86e 723d 478a b53d
00000310: 698f 673e 3f01 96bc 6a6a 913d cb11 783d
00000320: 0d6a 103d 48db b83d c931 1f3d f442 09be
00000330: 9cc6 02bd ac86 50be d627 72be 4637 193e
00000340: 95c6 68be cf65 903c 5c56 33be a1c9 5b3e
00000350: 8386 59bd 1334 443e ecff 683e 60dc 50be
00000360: c048 d63c bdb8 a73d 5310 c23d 859b 0c3c
00000370: 0844 983d 8446 57bc b8b4 4dbc 4db8 ff3d
00000380: 83a2 483e a8c1 2c3e fe4c 2dbe 8cc1 2d3e
00000390: 03f3 073d 281c 34bd 9fa1 d13d dda2 233e
000003a0: 738c 39be 0c63 c63d b2c0 6ebe 5344 403e
000003b0: e075 17be 1d0c 693e 6421 a337 d109 7bbd
000003c0: 1c63 b83d aa8c c83d 0344 0b3e 49d3 69bd
000003d0: 84b7 03be 9dad 073d 1a62 1bb7 ec62 943d
000003e0: e960 943d 46d1 1fbe 5c82 a8bd cf61 963d
000003f0: 715a 133a 5944 893d e399 b9bd cbb1 ccbd
0.16821764 -0.018619753 -0.014151627 0.1916934 0.12008485 0.039347038 -0.037545715 0.048258446
-0.16297485 -0.17724131 -0.11042392 -0.24046099 -0.08488871 -0.0036487156 0.055520646 0.0218475
-0.15103316 0.163891 -0.036151968 -0.2051394 -0.0068453457 0.0052812495 -0.06125142 0.14737388
0.21417935 0.12316753 0.04768721 -0.1321745 0.057841007 -0.18165325 -0.13567288 0.07824238
-0.15742165 -0.07380435 0.049102936 0.14623499 0.23975061 -0.19813791 -0.22395113 -0.035744432
-0.20595966 -0.23202246 0.08591226 0.14001715 -0.0065324376 0.1203947 0.06872513 0.23121002
0.012340471 -0.13648348 0.20185427 0.007537814 0.027095508 0.21615112 -0.14712101 -0.015952962
0.16945578 0.15481913 -0.028303731 -0.1907539 -0.08339834 -0.038793284 0.1514385 0.13778496
0.2214568 -0.11157373 -0.13069479 0.23289226 0.064117625 -0.121848084 -3.582609e-05 -0.09931422
0.11776606 0.11161812 -0.05231602 -0.10633502 0.136628 0.00010754573 -0.0008906388 0.046887293
-8.08584e-05 -0.1087776 0.044152882 -0.007417304 0.006791399 0.11959447 0.020638935 -0.014369929
-5.154941e-05 -0.0005211777 0.0014964454 -0.111716956 0.108949736 0.013152777 -0.020560812 -0.034306362
-0.09336249 -0.050230015 -0.081200354 -0.08814003 0.005676821 -0.06470999 -0.21403067 -0.12131661
-0.06896008 0.17925337 -0.16751696 -0.041708585 0.09679588 -0.21546178 -0.067638166 -0.18283127
-0.06189265 -0.060590286 0.0023530575 0.14325319 0.09775454 -0.23233327 0.118514016 0.014103817
0.039233163 -0.13963337 -0.14015982 0.061322764 -0.19488147 0.12578182 0.12896298 0.068949215
0.059078872 -0.059188187 -0.038220793 0.047633834 -0.2133411 -0.117001005 0.052705966 0.18405306
2.1419502e-05 0.019507252 0.08178871 0.10087894 -0.00018284192 -4.1529314e-05 -0.13705066 3.308407e-05
-0.06172811 -0.00053819106 0.1022673 -0.0021673306 -0.15106992 0.0032097225 -0.04858583 0.038441986
-4.219875e-05 -0.09791067 5.8407837e-05 0.14840448 -5.4161555e-05 0.059955236 0.12849809 0.08405727
-0.030679496 -0.07704512 0.0004623007 0.00059442874 -0.14824766 -0.0052943025 0.053241283 -0.00040371012
-0.016320607 -4.9966516e-06 -7.485782e-05 8.7761555e-06 -0.0109657245 0.0001034572 0.098348886 0.15484829
-0.08685436 0.08233922 -9.345888e-06 -0.050412204 -0.1514267 -0.13117297 0.14805378 0.03892934
2.7532906e-05 -0.12242897 -0.03691601 0.13790648 0.1957954 -0.16160586 -0.22196613 0.124048844
0.23396213 -0.20812932 0.05918756 0.08864265 0.226133 -0.018311141 0.07100375 0.060563844
0.035257388 0.090261996 0.03886584 -0.13404447 -0.03192769 -0.20363873 -0.23648009 0.14962491
-0.22732003 0.017626671 -0.17513412 0.21463634 -0.053106796 0.1916049 0.22753876 -0.20396566
0.026157737 0.08189533 0.0947577 0.008582001 0.07434851 -0.013139371 -0.012555294 0.124863245
0.19593243 0.16870749 -0.16923901 0.16968364 0.03319074 -0.043972164 0.10235905 0.15980096
-0.18119983 0.096868604 -0.23315695 0.18776064 -0.1479106 0.22758527 1.9446663e-05 -0.06128866
0.090032786 0.097924545 0.13600163 -0.057086263 -0.12862974 0.033124555 -9.261561e-06 0.0724543
0.07245047 -0.15607175 -0.08227989 0.07342874 0.0005621082 0.067024894 -0.09062555 -0.09994849

bias f4 [680]
00000000: a00f 903d a1fa ca3d f762 08be 0a2e 163e
00000010: e984 18be a7bc 97bd 147f a2bc f9b1 fb3d
00000020: 138d febd 64eb 59bd 4daf cdbd 2a95 783e
00000030: f087 f23d ab48 abbd 91ad 83bd a083 bf3d
00000040: 9abc 403d 8082 613e bb93 e5bc 0401 8b38
00000050: c468 17be ebaf eb39 7366 043e e7f2 2abe
00000060: 10af 4a3e 2dc0 bf3d cebf 6d3e 967c 1bbe
00000070: c612 f03d 262c 023e 1f09 17bd ddbd 613e
00000080: 6613 c1bd 6c10 b1bd 6d47 043e 11e9 273c
00000090: 9b5d 7ebd 1183 f73d 6445 af3d 96d0 183e
000000a0: 58b0 213e 774a 6b3c 8785 59bd 6632 0bbe
000000b0: e0d1 283d a70a 20be 5b60 d13d e37b 423e
000000c0: 0cb5 fbba 2ad2 e73d 416b 1dbe 8586 623e
000000d0: 44bf 133d 83e0 86bd 5ab2 58bd 4468 803d
000000e0: e1fd 5b3c 96b5 053d 1bb0 633d 3bee 56be
000000f0: 6382 873d e05e 403d 315f 99bd bad7 22bd
00000100: 73f2 f4bc 712c 6c3e 6a31 463e d6b4 3fbd
00000110: 6fe0 653e e45c e4bb d299 c3bd e090 783d
00000120: 47a0 1dbe a437 95bd a099 693e 1d65 7fbc
00000130: 6448 2f3e aadf 8dbd 9dc1 633e 0ec9 c0bd
00000140: 52b4 5bbc 3d70 2e3d db40 763e 2d42 0c3e
00000150: 7d06 303d bb3c 0b3e c2b5 7c3d 119b ee3d
00000160: c5e9 723e 4d97 afbd 5699 56bd edfd 633e
00000170: 0eaa 3dbd 3350 efbb 9b5d 583d 6666 e6bd
00000180: 0b65 6b3e 9c2c 25bd d0e1 4b3d ed42 e43d
00000190: 8003 9cbd 7883 e7bc f56c cebc ae26 3d3e
000001a0: cc33 c63d b4ad 5d3e a741 e63d 19a1 0d3d
000001b0: 9f85 64bd 4682 133d 59ca 223d 9038 203e
000001c0: d194 4b3e 2781 49bb da6c 41bd 6386 163a
000001d0: cbbf 623e 1c5c a2bc 29da 4f3e 244d 053e
000001e0: 08e6 fc3d befc 493e 3098 0bbe c6fb 41bd
000001f0: dfdc 02bd 9f79 66be 3037 28be 6d4f 003e
00000200: b13c fabd 7647 71bd b405 c33d 24b8 4c3e
00000210: 0dc7 62bd 3d39 8fbd ffac 033e e1f3 043e
00000220: 1efd 6b3d f677 8ebd 18f4 293e e2c3 59bd
00000230: d92e 89b9 fa30 023e 048f 0e3e 3cde 30be
00000240: 2f65 253e d9d4 0737 df69 c9bd b5af 413e
00000250: a959 9abd d953 333e 7d6a 1b3e 307d 3c3d
00000260: f499 21bd e430 2abd 2e00 8fb8 8419 0bbe
00000270: e308 553e 851c f93c 7fb1 94bd 0969 1f3e
00000280: 9501 ca3d 5b48 e0bd e16a 773e 7b24 86bd
00000290: fb54 d8bd 2378 0a3d 157b 18be afeb 8bbd
000002a0: 9b8f 0b3e 6ab9 383e 3c60 263e 0095 dab9
000002b0: 1ff1 4f3e 1952 ec3d 1a7c 2e3e 51c9 b5bd
000002c0: 0fb9 403e 5034 9abd dd3f 073e a64a 9036
000002d0: cbb7 3c3e 2f6a 073e eb48 1fbe 7127 07be
000002e0: 0143 093e 933d 723e b3a8 e93d ccd7 c03d
000002f0: b9e0 12be a349 0ebd ef6b f8bd 5c0a 23be
00000300: 15e7 0f3e dfe3 02be 046d a8bd 764c 093e
00000310: 6ffe 293e b2ab 02be 18e1 3fbe 3abf 003e
00000320: c245 4e3e 9ba8 5bbb b628 82bd db55 5d3b
00000330: ddb2 1b3e b5f7 3fbd 494e 0fbe f239 7b3c
00000340: 5e40 4c3e 813c 4d3e aac7 a6bd b479 8a3d
00000350: 3051 0cbe 0c34 b8bd a68b fdbd 0714 273e
00000360: fa22 613d 8678 3fbe ea0f e43d 6272 bbbd
00000370: 54c0 f6bd fb40 62bd ab42 673e a6d2 6b3d
00000380: 0b61 183e 15f0 bd3b 7334 493c e601 833d
00000390: 1def 40bd 3922 48bd b7bc 333e 1384 013e
000003a0: fdad a1bd d64c 773e dd69 9fbd 76bd 6b3e
000003b0: 1584 dbbb d49f 743d 578d 9a3d 17db 7dbe
000003c0: fc4a 04be e83e 8cbd 0f35 53bd 6f4f e3bd
000003d0: 44ce 163e 0bb1 12bd 0d0e 6f3d 46bd 333d
000003e0: 7b12 a73d 8bd2 09bd cc3c bf3d 2f66 183d
000003f0: bf4c f5bd 7451 1e3e 4cef b2bc 4c55 35bc
0.0703423 0.09911085 -0.13319002 0.14666 -0.14894451 -0.074090295 -0.019835986 0.12289805
-0.124292515 -0.053203 -0.100432016 0.24275652 0.11842334 -0.0836347 -0.064295895 0.09351277
0.047054864 0.22022438 -0.028024545 6.628226e-05 -0.14786059 0.00044953762 0.12929706 -0.16694222
0.19793344 0.093628265 0.23217699 -0.15184245 0.11722331 0.12712154 -0.036873933 0.22045083
-0.09427528 -0.0864571 0.12917872 0.010248438 -0.062100988 0.12085546 0.08558157 0.14923319
0.15789926 0.0143610155 -0.053105857 -0.13593444 0.041215777 -0.15629064 0.102234565 0.18992572
-0.0019203736 0.113193825 -0.15372945 0.22121628 0.036071077 -0.06585791 -0.052904464 0.06269887
0.013427229 0.032643877 0.05558787 -0.20989315 0.06616666 0.04696548 -0.074888594 -0.039756514
-0.029900765 0.23063828 0.19354787 -0.046803318 0.22448896 -0.0069690812 -0.09550823 0.06068504
-0.15393172 -0.07286003 0.2281251 -0.015588072 0.17117459 -0.06927426 0.22241826 -0.09413348
-0.013409691 0.042587508 0.24048178 0.13697119 0.042974938 0.13597386 0.061696775 0.1165067
0.23721988 -0.0857378 -0.052392326 0.22264834 -0.046304755 -0.0073032617 0.052823644 -0.1125
0.22987764 -0.040325746 0.0497759 0.111455776 -0.07617855 -0.028260931 -0.02519844 0.18471786
0.09677848 0.21648294 0.11242991 0.034577463 -0.055791494 0.03601291 0.039743755 0.15646577
0.19880988 -0.0030747147 -0.04722295 0.0005742071 0.22143476 -0.019819312 0.20298065 0.13017708
0.123485625 0.1972532 -0.13632274 -0.04735925 -0.03194892 -0.22507332 -0.16427302 0.12530299
-0.12218607 -0.05890604 0.09522572 0.19992119 -0.05536561 -0.06993339 0.12858962 0.12983657
0.05761444 -0.069564745 0.1659702 -0.053165324 -0.0002616558 0.12713996 0.13921744 -0.17272276
0.1615188 8.0961845e-06 -0.098346464 0.18914683 -0.075366326 0.17512454 0.15177341 0.046017826
-0.03945346 -0.041550532 -6.818805e-05 -0.13583952 0.20804171 0.030409107 -0.07260417 0.15567411
0.09863583 -0.10951301 0.24161865 -0.06549927 -0.10563084 0.033805978 -0.14890702 -0.068320625
0.13629 0.1803948 0.16247648 -0.00041691214 0.20306824 0.115390964 0.17039528 -0.08876289
0.18820594 -0.07529509 0.13207956 4.3002246e-06 0.18429486 0.132241 -0.1555516 -0.1319864
0.13404466 0.23656301 0.1140913 0.0941616 -0.14343537 -0.034738194 -0.12129962 -0.1592192
0.14052995 -0.12782238 -0.08223918 0.13408074 0.16600965 -0.12760809 -0.1873821 0.12572947
0.20143798 -0.0033517245 -0.06355421 0.0033773098 0.1520495 -0.04686709 -0.13994707 0.015333639
0.19946429 0.20042612 -0.08143552 0.06761494 -0.13702846 -0.08994302 -0.123801515 0.16316234
0.054964997 -0.1869832 0.11135848 -0.09152676 -0.120484024 -0.05523775 0.22584026 0.057573937
0.14880769 0.0057964423 0.012280571 0.063968465 -0.047103036 -0.048860762 0.17552458 0.12648039
-0.07894514 0.24150404 -0.07783864 0.23021492 -0.006699095 0.059722736 0.0754649 -0.24790607
-0.1291923 -0.06847936 -0.051564272 -0.11099135 0.14727122 -0.035813373 0.05836301 0.043881677
0.08157822 -0.033648055 0.09337768 0.037206825 -0.11977529 0.1546076 -0.021842621 -0.0110677
