estimators/knet/single_obs/p_velMSE_ep100_train4000_val1000_test10000_lr1e-03_wd1e-04_data_sr1e-01_q1e-04_r1e-02_j5_train[500,100]_val[100,100]_test[100,100].pt (torch, 471463 bytes, 121 tensors)

weight_ih_l0 f4 [48, 20]
00000000: 5096 743e 1cb6 30be e6f1 c4b9 25cc 40bd
00000010: ab9c 7e3e 55dc 5d3d 5623 5f3e 06c9 1fbe
00000020: 626c 55b9 4798 6b3c 8efd a7bd 154e 1bbe
00000030: 8a90 1b3e 37e9 263e e521 3ebd f03b d23d
00000040: f37c 633d ff84 403c b45e 513d 2e69 18be
00000050: 99dc b4bd 3071 07be 36d3 1abe 5095 883d
00000060: 0c97 2bbd 90b3 34be 84c7 3b3e 920d 40be
00000070: e1e4 413d f85f a73d 297f 513d a75f 5fbe
00000080: 7ba4 443e 0bf6 4ebe 9850 92bd dd9d a8bd
00000090: 0476 28bc aa93 bb39 b70c 833b 25d0 183d
000000a0: e0e5 72bc ebc1 f4bd 1611 d83d 3fe6 993c
000000b0: cb93 9bbd 74c7 febc 162e fa3d 1faa 8b3c
000000c0: ddaf 263e f69b 913d 043d 503e 85e7 ec3d
000000d0: 15d6 19be 710a 4a3e ea11 bb3b a9c1 063d
000000e0: 015d 64bd 2648 66ba 6c33 8e3d 7be9 f13d
000000f0: 3642 a2bd cf47 e03d 9106 cfbd 0c74 65bd
00000100: efa1 1dbe b840 0ebe 31db 1bbe a8bb c63b
00000110: add7 163d 6c04 c23b 9d86 ddbd eda5 6d3d
00000120: a1dc c9bc f702 383d 10e1 4bba 68d7 31bd
00000130: 55a7 d53d e8b3 a63d 3c77 0fbb f31c 36bd
00000140: f3d8 acbb 9d5e 69bd 8a3a bcbd d462 ffbc
00000150: fa44 2c3d c000 2d3a fd07 293e b176 db3d
00000160: 8cbd b93d 34b9 323e 124a b7bd 1259 0ebe
00000170: 33a0 203e 3f13 063e c26b a7bd c687 783e
00000180: bd60 1a3e 996a bdbd 6134 013e cb92 803e
00000190: 721e 323e 1d8e 8f3d 8ca0 823c e2cb ba3c
000001a0: 1ede 573c e13e 29be 6dfe 603e 3f33 363c
000001b0: 19e5 083e e3a9 c13b 614e 05bd b6a6 3b3e
000001c0: fb15 f8bb 4f38 26be bf6c b2bd d17b 0f3e
000001d0: 1bd9 15be 59af 2f3d 430e 0d3e cbdc 52bd
000001e0: 3c19 933d fa88 823d 9e87 883c aa44 e03d
000001f0: ee1d 8e3d 943d a23d 7d3a fe3d b80f 563d
00000200: 5f90 2ab8 4dea 97bd 28ef a13d 2624 3f3d
00000210: 29e8 0bbe 2173 643d 6d8e 3fbb bf23 94bd
00000220: b995 f83b e055 043d 60c9 2b3e 8c35 2d3e
00000230: ff72 0f3a 8dd0 913d 36e5 7cbd 47fc 0e3e
00000240: cb7a 64bd 72c9 1c3d afa2 5c3c bdae 96bc
00000250: 9c5f 9ebd 9065 eebd 86c9 64be 54dc 603d
00000260: 26da a8bd 8bc3 203e 281f 5a3c 7e55 a23d
00000270: cfcd 2c3e e17c b53d d064 103e fe7a 6d3e
00000280: 48f7 723c 74c7 b33c 546f 05bd 9c92 76bc
00000290: bb96 45be 6628 563e 43af 253e 1a04 e33d
000002a0: 2d73 bebc 2975 f83d dd78 393e f870 a2bc
000002b0: e609 86bd 6d9f 0a3d 0743 dcb9 4c36 c2bd
000002c0: d450 473e d5e3 163b 760f 583e 3d7f 3dbd
000002d0: 5681 d7bd 4124 0c3e 15c5 dfbd a935 a53d
000002e0: c03f 4dbe e496 7ebd c154 73be 10b8 b6bc
000002f0: 6149 713d 2cca ba3d e589 01ba b579 72bd
00000300: 458d 32bc 8ab1 0d3e 9f96 98bb 5aa2 80be
00000310: 9371 90bd 1518 103e 63eb 8e3d 91b0 1ebe
00000320: 2800 4e3e 6cbb 283e b208 2fbd 3758 a03c
00000330: fe00 3abd dd61 833d f131 03be 8736 603d
00000340: db11 123e 4940 053e 7df4 df3d b70b 02be
00000350: 550a cd3b 8b23 3cbe 25e0 4b3d 66b0 0c3e
00000360: bf46 f23d 1c44 08be 6f0d b03b c7ac dcbd
00000370: 14c7 38be d9e0 0dbd b651 e93b e532 ee3c
00000380: 64ea 883d ca43 e6bd 4989 ef3d 3a89 5dbd
00000390: 8266 1fbe 44ca 1fbc d309 febd d7c1 d6bd
000003a0: 82f3 83bd 7343 7cbd 9c0e 3d3d 7ca7 76bb
000003b0: 318f 7a3c 82e6 5db9 cc5c 9f3d 45b1 683e
000003c0: 8e92 4c3e 1e2c 263e 4b51 43bc fc00 17be
000003d0: 0e95 5dbd 2d1e 48be 513c 80be 78c3 92bd
000003e0: 4185 233e 190e 483e 22f4 5f3c 520c 04be
000003f0: b599 6cbe fac7 023e 7a06 17be 2f5d c13d
0.23885465 -0.17256969 -0.00037564262 -0.047069687 0.24864452 0.054165203 0.21790823 -0.15604028
-0.00020353639 0.0143795675 -0.082026586 -0.15166505 0.15191856 0.16299902 -0.046419043 0.102653384
0.055539083 0.011750459 0.051115707 -0.14883873 -0.08831138 -0.13226771 -0.15119633 0.06669104
-0.041892096 -0.17646623 0.18337828 -0.18755177 0.047337417 0.081726015 0.05114666 -0.21813832
0.1920337 -0.20211045 -0.07144278 -0.08233235 -0.010282043 0.00035777438 0.0039993185 0.037307877
-0.014825314 -0.119510494 0.10550134 0.018786548 -0.07596549 -0.031100966 0.122158214 0.017048893
0.16278024 0.07109825 0.20335776 0.11567596 -0.15023072 0.19730546 0.0057089226 0.032899532
-0.055752758 -0.00087845547 0.06943402 0.11812111 -0.07922785 0.109511964 -0.10108674 -0.056018874
-0.15393804 -0.13891876 -0.15220334 0.006064851 0.03682678 0.0059209373 -0.10816691 0.058019567
-0.024641337 0.044924702 -0.00077773724 -0.043418318 0.10432307 0.08139783 -0.0021891138 -0.044461202
-0.005274886 -0.056974996 -0.09190853 -0.031175055 0.04205797 0.0006599538 0.16506954 0.10715998
0.09069356 0.17453462 -0.08949675 -0.13901165 0.15686111 0.1309328 -0.0817485 0.24270543
0.15075965 -0.092488475 0.12617637 0.25111994 0.17394426 0.07009528 0.015945695 0.022802297
0.013175515 -0.16527893 0.21972056 0.011120616 0.13368644 0.0059101447 -0.03254545 0.18325314
-0.0075709797 -0.16232418 -0.08712148 0.14012076 -0.146336 0.042891834 0.13774972 -0.051480096
0.071825475 0.063737825 0.01666623 0.10950597 0.069393024 0.07921901 0.124134995 0.052261084
-4.0665615e-05 -0.07417736 0.079069436 0.046665333 -0.13662781 0.055773858 -0.002922918 -0.072333805
0.0075862077 0.03230846 0.16776037 0.16914958 0.0005472153 0.07119856 -0.06174203 0.13963424
-0.055781167 0.03827805 0.013466521 -0.018393869 -0.0773308 -0.11640465 -0.223425 0.05489762
-0.082447335 0.15699594 0.013313092 0.079264626 0.16875385 0.088617094 0.14100957 0.23191449
0.014829464 0.021945693 -0.032576874 -0.015049603 -0.1929578 0.20913848 0.16180138 0.11084767
-0.02324828 0.121317215 0.18112512 -0.019829258 -0.06544857 0.033843447 -0.0004201161 -0.094830126
0.19464427 0.0023023982 0.21099648 -0.046263922 -0.10522716 0.13685705 -0.10926262 0.080668755
-0.2004385 -0.06215562 -0.237628 -0.022304565 0.05890787 0.091205925 -0.00049415074 -0.0591981
-0.010897939 0.13837257 -0.0046566273 -0.25123864 -0.070529126 0.14071687 0.0697849 -0.15497042
0.20117247 0.16477746 -0.042732902 0.019573314 -0.045411102 0.0641515 -0.1281202 0.0547395
0.14264624 0.13012804 0.10935304 -0.12699781 0.006257335 -0.18372934 0.049774308 0.13739166
0.118299 -0.13307232 0.005372695 -0.10775142 -0.18044692 -0.03463826 0.0071203364 0.029077003
0.066853315 -0.112433985 0.11696107 -0.054085948 -0.15566447 -0.009752814 -0.124042176 -0.10486191
-0.0644293 -0.061587762 0.04615651 -0.003763645 0.015292929 -0.00021162073 0.077813715 0.22723873
0.19977781 0.16227767 -0.011921237 -0.1474647 -0.054097228 -0.19542761 -0.25046018 -0.07166189
0.15968801 0.19536628 0.013669046 -0.12895325 -0.2310551 0.12771598 -0.14748564 0.094416015

weight_hh_l0 f4 [48, 16]
00000000: 021e 583e e1c0 c0bc 106c 4abe 91ba 4ebe
00000010: 01b1 153d b0ea e0bd 1f2e 2e3e 8551 603e
00000020: 5c0f cbbd bd8a 453e 73fd 19be 8a55 adbc
00000030: 08f8 533e 3024 273e dcf9 3abe 8660 303e
00000040: 922e 50be 9833 8abc ea23 673e 7b7f 58be
00000050: d86a 453d ed86 31bd 3114 913d 0f08 3cbe
00000060: d74a 3dbe 6cbd 28be fa99 6d3e 2816 6cbe
00000070: e60b 1f3e fffe 42bc 427c 90bd 57bc 2d3d
00000080: b667 823d b17a 42bd 903e b7bd a886 db3b
00000090: 7108 443d 7513 873d 674e a33d 1e7b 3bbe
000000a0: 5eaa 39be 7a54 cb3d 419c 4bbe c1cf 153e
000000b0: ba1e 5cbe 7efb 5abe 5ad0 a23d 19f9 4c3d
000000c0: 79e2 27be fbea 0cbe 5025 643d 1900 84bc
000000d0: 25d7 1ebc 089b c4ba 5149 b3bc 5878 3a3e
000000e0: 0bdf a83d 19cf 2b3e d947 21be 707c a63d
000000f0: e48f 183e 6493 1bbe 64cf 1c3e 7804 89bd
00000100: fb68 723e 5537 16be 41b5 6fbe 2a60 80be
00000110: 8da9 04be 3683 d03c 2469 54be 1f52 363e
00000120: c132 38be bd43 4f3e 3120 243d 3bea 01be
00000130: b573 6e3e 55fc 563e 4dce 2bbe 21f8 573e
00000140: 2938 7ebb beba e53d 60dd f03d 7097 083e
00000150: d6dc 273e 5073 24be 25e7 70bd 9f6c 60be
00000160: 6191 f0bd 7492 003e 4cfc c43d d226 583e
00000170: 2e91 2c3e 7913 423e 399e 29be 8157 5f3e
00000180: a624 27be 864a 09be eb5d 5a3d 17bb 05be
00000190: 7cc6 0a3e f463 51be 93bd 50bd 6fd1 143e
000001a0: 1176 523b cda7 093d 8155 2bbe d9ad 1fbe
000001b0: 8e4f 1bbe b6da a93d 67ad b9bc cf18 0e3e
000001c0: 7383 7cbe f3c3 adbd 800b 203e a0a9 60be
000001d0: 3dcf 103e 5fed 0a3e 06fd 0f3c 4ee2 52bd
000001e0: 71b2 953d 26a1 2fbe b27a 183d e6d4 033e
000001f0: 5668 aa3d 17cf d3bd 51b5 b4bd 757f 2abe
00000200: f7af a0bd 308e 373d ab73 6abe ae13 22be
00000210: a3d4 183e 65a7 413e a5f9 f63d 01bf 82be
00000220: 60ac 413e cdc0 3bbe 1f37 43be af3c f2bc
00000230: c6cf 6bbe 7ec9 e6bd 256e 723e b1fc cb3d
00000240: 8609 57bd 7152 da3d adec c9bd d581 613e
00000250: 8a0d 24be 17c7 a5bd 254b 2b3d 595a 823c
00000260: 17b3 f4bd 7768 953d a80a 1ebe 27f3 c53c
00000270: ab3c 373d cb85 9e3c 1c48 563e 142b 4f3d
00000280: 06e8 e2bd 8a9b 17be 5ac4 47be c1ac 18be
00000290: aac4 10be b4bf 2d3e cca4 08bd 4ff6 3bbe
000002a0: 1642 013e 1e12 953d 4a00 5b3d 9c25 ae3d
000002b0: fc1e 65bd 1924 203e 5a93 31be 503a c5bd
000002c0: 8f95 193e 52c9 f9bc a059 f13d b1de 4ebe
000002d0: 74f3 cb3c 7412 cb3d 6f07 c4bd a789 ee3d
000002e0: b6c2 39be 6da4 0b3e 9bdd 5a3c a6de 563e
000002f0: c9d4 dfbd 1949 ce3d e4d6 2cbe a644 0c3e
00000300: 44e1 be3d 0034 1f3e 8199 80be a2ce ffbd
00000310: 078c a0bd 3bfd f63d 4030 ddbd df05 cc3d
00000320: 7a67 c23c bcc2 b33d 1c4a 4d3e 9e5a 743e
00000330: b26b 32be b268 3c3e 587f 6f3c d382 06be
00000340: 1f3c 45be 1a31 f83d 45ee ab3b 76bf 2fbe
00000350: 57fa 06be ba13 1f3e 806e 933d 0d0d 7a3c
00000360: 590f ea3d d37f 0fbe 8d8c eebc 4580 75bd
00000370: 05e8 0d39 4c65 443d 4be1 18bd f93b 573d
00000380: a5e2 b93c 302a 573e ca74 563e b70f 673d
00000390: d6f1 d0bd 3be8 e13d 966a a13c 6919 65be
000003a0: b9af 863c a265 45be 7df6 9f3c 4fc6 d4bc
000003b0: ee77 14be 4227 a6bb 5e54 513e 097b 33be
000003c0: ee29 3bbe dcad 1e3e 2ee7 233d b009 ec3c
000003d0: 7f7c 34be 29ec edbc 2e8b 34be 3694 f2bd
000003e0: ee93 2abe 1f08 9a3d 4aa6 33be a774 573e
000003f0: 94fb f93c e349 333d d37a ffbc 89b3 5c3e
0.21105197 -0.023529472 -0.19767785 -0.20188357 0.036545757 -0.10982263 0.17009781 0.21906097
-0.09915039 0.19291206 -0.1503809 -0.021158952 0.20700085 0.16322398 -0.18259376 0.17224321
-0.20330265 -0.016870305 0.22572294 -0.2114238 0.048197597 -0.043341566 0.07083929 -0.18362449
-0.1848558 -0.16478509 0.23203269 -0.23055327 0.15531883 -0.011901616 -0.0705495 0.042415943
0.063674375 -0.04748029 -0.0894748 0.006699402 0.047859613 0.06595508 0.079739384 -0.18308684
-0.18131396 0.09928222 -0.19883825 0.14630033 -0.21496096 -0.21384999 0.07949896 0.050042246
-0.16394986 -0.13761513 0.055699646 -0.016113328 -0.009694849 -0.0014999816 -0.021885546 0.1820997
0.08245667 0.1677822 -0.15750064 0.08129203 0.1489864 -0.15192944 0.15313488 -0.066903055
0.2367286 -0.14669545 -0.23408987 -0.25073367 -0.12955303 0.025453191 -0.20743233 0.17804764
-0.17988111 0.20240684 0.040069763 -0.12687008 0.23286326 0.20994695 -0.16777916 0.21090747
-0.0038790798 0.11217259 0.11760974 0.13339019 0.16392836 -0.16059613 -0.058814187 -0.21916436
-0.11746479 0.12555867 0.09618434 0.21108559 0.16852257 0.1895274 -0.16564263 0.21810724
-0.16322574 -0.13407335 0.053312223 -0.1305965 0.13552278 -0.20448285 -0.050962042 0.14533018
0.003211383 0.033607293 -0.16731836 -0.15593661 -0.15167066 0.08293669 -0.022665692 0.13876651
-0.24659519 -0.0848464 0.15629387 -0.21939707 0.14141555 0.13567112 0.008788353 -0.051485352
0.073094256 -0.17151317 0.037226386 0.12874183 0.08320682 -0.10342234 -0.08823646 -0.16650183
-0.07846063 0.044813335 -0.22895686 -0.1582782 0.14924864 0.18911512 0.12059335 -0.2553635
0.18913412 -0.18335266 -0.19063996 -0.029569952 -0.23028478 -0.112689 0.2367483 0.099603064
-0.052499317 0.10660256 -0.098595954 0.22022183 -0.1602079 -0.08094614 0.04181971 0.015912222
-0.11948221 0.07295316 -0.15433753 0.024163796 0.04473559 0.019350907 0.20925945 0.050578192
-0.11079411 -0.14805427 -0.19508496 -0.1490965 -0.14137521 0.1696766 -0.033360288 -0.18355678
0.12622866 0.07278846 0.053467073 0.08503267 -0.055937752 0.1563877 -0.17341366 -0.09630263
0.14998458 -0.030491505 0.11784673 -0.20202138 0.024896361 0.09915629 -0.0957173 0.11647349
-0.18140683 0.13636942 0.013358499 0.20983371 -0.109292574 0.10072536 -0.1687885 0.13698062
0.0932031 0.1554718 -0.25117114 -0.12490584 -0.07839208 0.12060019 -0.108002186 0.09962057
0.023730982 0.08777377 0.20047802 0.23862693 -0.17423895 0.18399313 0.014617763 -0.13135843
-0.19261216 0.121187404 0.00524691 -0.1716288 -0.13181435 0.15534869 0.071988106 0.015261901
0.114287086 -0.14013605 -0.029119754 -0.05993678 0.00013533242 0.047948167 -0.03732423 0.05254743
0.02269108 0.21012187 0.20942989 0.05641147 -0.102023765 0.110306226 0.019704144 -0.22372974
0.016441213 -0.19277051 0.019526714 -0.025973467 -0.14498875 -0.005070598 0.2044234 -0.17527403
-0.18277714 0.1549601 0.040015392 0.028813213 -0.17625616 -0.029043274 -0.17631218 -0.11844675
-0.16657993 0.0752108 -0.17543903 0.21040593 0.03051547 0.043771636 -0.031186497 0.21552862

bias_ih_l0 f4 [48]
00000000: a3eb d43c 4e96 07be 04a8 ffbd 4e16 f23d
00000010: 110a bbbd 6746 e4bd 5145 79bd 135a 59be
00000020: 8f06 713e af5e 453e 9fe4 b6bc 9e1a f8bd
00000030: 50e9 d9bd 4ccd 95bd 81a4 52be f2e7 193c
00000040: 0d3a 09be 0e21 d53d 212f aebd b9fd 383e
00000050: f36c 45be 077f 273e 1f46 683e fd61 873c
00000060: 5ec0 433e 6990 853b 13fc 103e 9cb4 69bd
00000070: bd74 29bd 747e 2a3e 5c13 843e 431c a3bd
00000080: 3c6a 2fbe 2013 e9bd fd2a f23d 08ae b4bd
00000090: d276 2d3e 80b5 34be ea1d 52be ef5d 773e
000000a0: a4ff d4bd 9663 143e 4619 ce3d 9b7e 603e
000000b0: c9c4 813e d058 883c 1bbb 45be ffc0 fcbd
0.025991267 -0.1324093 -0.12483218 0.118206605 -0.091327794 -0.11146241 -0.06085712 -0.21225767
0.23537658 0.192744 -0.022325812 -0.12114452 -0.10640204 -0.07314548 -0.20570566 0.009393679
-0.13401051 0.10406695 -0.08505083 0.18065538 -0.19279842 0.16357051 0.22682999 0.016526217
0.19116351 0.004076053 0.14158659 -0.05705701 -0.041371096 0.166498 0.2579602 -0.07964375
-0.17130369 -0.11380601 0.118246056 -0.08822256 0.16939858 -0.17647362 -0.20519224 0.24156927
-0.10400322 0.14491114 0.10063414 0.21923296 0.25345448 0.016643912 -0.19309656 -0.123414986

bias_hh_l0 f4 [48]
00000000: 0e74 8b3d 107e 713d 4556 bd3d 8c35 3dbe
00000010: 6c5f c8bd 868b 4f3e a8a7 c2bd e839 283e
00000020: 5fee 903c 8968 033e ba26 a0bd 4688 22be
00000030: 52cc dcbd b50e 48be f521 873c cd30 d83a
00000040: ee71 323d 3dba 193e a82d 9bbd af65 6cbe
00000050: 66cf 00be 0605 7e3e fccc fbbd b19f 703e
00000060: ace9 2b3e 7ab8 efbd 43cf 35be 14ff 5c3e
00000070: 22a9 f3bd e38f d0bd 83c2 833e c53a 63be
00000080: d635 c1bd 84bf b33c c015 60bd 7d6c dbbc
00000090: 0892 46be 6291 d43c 7240 e6bd 907f 0d3e
000000a0: 24d9 433e bf6b c83d 227d 823c 9217 47be
000000b0: 34e8 77bc 81e0 6abc 12a3 843d d205 9abd
0.06809245 0.058958113 0.0924497 -0.18477458 -0.09783825 0.20268068 -0.09504634 0.1642834
0.01769179 0.12832846 -0.078198865 -0.15872297 -0.107811585 -0.1953686 0.016495684 0.0016494036
0.043565683 0.1501245 -0.075770676 -0.23085664 -0.12579116 0.24806604 -0.12294957 0.23498417
0.16788357 -0.11705108 -0.17754845 0.2158168 -0.11897494 -0.10183694 0.25734338 -0.22190388
-0.094340965 0.021941908 -0.054708242 -0.02678513 -0.19391644 0.02594823 -0.11242761 0.13818192
0.19125801 0.09786176 0.015928809 -0.19442585 -0.015131045 -0.014335752 0.06476416 -0.075206414

weight_ih_l0 f4 [48, 36]
00000000: c46b 2b3e 16a4 3a3e a716 233e 5651 393e
00000010: b677 1e3e 63c2 52be ef4c 503b 2cc1 e1bd
00000020: e1d9 523e 8619 b2bd f057 aebc df7f 55be
00000030: 6110 cb3d 8d53 433d 34ba 2bbd f16a 263e
00000040: 0622 fbbd b9c8 703d a77f e23d 8faf 2dbe
00000050: 2968 9b3d c2b4 a9bd 0b77 ebbc ac7c dbbb
00000060: 4185 aa3d a514 493e 718b 703d e05f f33d
00000070: 7ca5 43be b4d7 313e 9781 bcbc 143e 98bd
00000080: 3c89 84bc 5dc5 1bbe f284 62be 9572 cc3c
00000090: afa6 e6bd 354b 9ebd 3b57 47be b0a6 18be
000000a0: def1 133e d205 76be 3deb 05be 04d4 1d3e
000000b0: 1a5e 323e f665 eabd 6cb9 043e 457f 5b3d
000000c0: 7adc d2bc d1b9 ccbc 994c 14be 8f11 e3bb
000000d0: 2de8 4d3e 290c 2b3d 07e2 573d 4f0b a6bb
000000e0: e17e e13d 3d1f fa3d f946 70be 5049 513e
000000f0: c9d3 58bd 8cc0 4d3e 8d18 eb3d a4b9 b33d
00000100: d809 5c3c a795 b0bd 1e43 523d ab06 603a
00000110: 583d 2ebe 2c39 eabc ce83 2a3e 2690 03bc
00000120: 07c8 41be f897 8f3c b3ff 093e bf76 0a3e
00000130: 2f78 acbc 0ebf b03c 8f47 abbd abea 583e
00000140: 22d9 2d3e e087 13be 4ed0 d9bd 4ea4 323e
00000150: 42eb 0c3c f685 10bd 3a7f 4f3e 9d72 b13d
00000160: b77d 763d 8ea8 1e3d c986 4b3d 595e 8c3d
00000170: 62ea 503e 49d2 b3bd 12e7 18be e934 183e
00000180: 424f dbbd 3f85 be3d 61eb e23c dbe7 2c3d
00000190: e64a ddbd 5d68 e9bc aa38 2c3d f7f9 4238
000001a0: 214c 8d3d 27b8 0abe bb32 7fbe b342 a7bd
000001b0: 169f 273e a465 0ebe dba4 b63d 2e74 823d
000001c0: 74c3 2ebe 0f71 93bd 1952 fabd f418 30be
000001d0: 4c65 ae3c 5994 0abe 8341 093e 07d5 46be
000001e0: 56f4 64bd 5f5d e6bd 0c0b 283e 4e79 073e
000001f0: 7009 143e 843f 00be 1027 2b3e 9471 0dbe
00000200: 5797 5c3e f9eb 02be edf0 75bc 7cdd 2c3e
00000210: 91b6 4dbe ddb6 593e 1d6d 0b3e 6246 02be
00000220: 48a1 f03d 5900 e43b cc30 a8b7 707d f6bc
00000230: 628c cabd ae7c 833d 1e87 54be 721a 44bd
00000240: 55e4 4e3e 7683 67be e2f5 56be 44f4 22be
00000250: 89ca 2e3e d1b9 3e3e 0083 48be 7213 bcbc
00000260: 702b 68bd dce9 56be 8ae6 6fbd da68 673b
00000270: 047d ec3d 8f78 263e 0fa6 35be 6094 62be
00000280: 1b65 3b3e 2eb1 a9bb 4fa2 69be 7c28 723e
00000290: 5801 d83d 9afd 143e b4e0 e83d bbec 35be
000002a0: 72ba 2abe 936e 0dbe 70c1 8cbc ed1f 2e3e
000002b0: d261 07be 4969 9d39 bbc6 21bd 8842 e13d
000002c0: 63f7 c63b 363f 413e de3e 0b3e 54bb 813d
000002d0: e1c1 90bd 5c82 dfbd 59eb 08bd 93f1 6b3e
000002e0: eb44 753c 44ab 3bbd d64d 533e 8e0b be3c
000002f0: 5fd2 9bbc 973e 173e 4963 4dbe 7858 4ebe
00000300: 911f 633e c371 e53d c661 863d 089e 67bb
00000310: 3ddd 003d c750 9c3d f299 e3bd 4ef0 413e
00000320: d35c 23be dbc8 6f3e d330 e2bd 7329 c8bc
00000330: b5fc 03be 3288 10be c3a2 f3bd affb f7bd
00000340: 426b 54bd 8541 d7b9 b65f 1c3e 3c07 153e
00000350: 8419 143d e9b7 2d3e 7194 c03d 47e4 193e
00000360: 58cb cf3d f4e1 053e ca4d 37be e0f8 1e3e
00000370: 4d83 503e eebf 833e 29ae 203e 2f15 203e
00000380: a3fc e6bd cf97 a13c d8e4 be3d 6905 353c
00000390: 13e9 723d 9d8f 9cbd aa78 1fbd 301c babd
000003a0: 97b2 12bb 9263 33bd c955 08be ba26 8ebd
000003b0: 5cb9 1d3e c682 0f3d 85f8 78bd 5492 a6bd
000003c0: aa27 1bbd 4d30 1fbe 6424 343d 7ae4 6bbd
000003d0: 99ec 37bd a49c e4bd 91d3 fabd 67b7 b4bd
000003e0: 166b a4bd 7224 d13d e811 49be 9893 14be
000003f0: 1062 523e 4915 4f3e b45a a1bc 6199 443e
0.16740328 0.18226656 0.1592661 0.18097433 0.15475354 -0.20581965 0.0031784137 -0.11023173
0.20590927 -0.086962745 -0.021282166 -0.2084956 0.099152334 0.047687102 -0.041925624 0.16251732
-0.12262349 0.058785174 0.11059504 -0.16961502 0.07588226 -0.0828643 -0.028743288 -0.0066982117
0.083261974 0.19636782 0.05872673 0.11883521 -0.19106096 0.1736744 -0.023011012 -0.074337155
-0.01617872 -0.15212007 -0.22121027 0.02495698 -0.11262261 -0.07729188 -0.1946687 -0.14907336
0.14447734 -0.24025658 -0.13078018 0.15412909 0.1741871 -0.11445229 0.12961358 0.05358817
-0.025739897 -0.024990948 -0.14482345 -0.0069295834 0.201081 0.041759644 0.05270579 -0.005067266
0.11010528 0.122129895 -0.23464574 0.20438123 -0.05293635 0.20092982 0.11479292 0.087756425
0.013430081 -0.08622294 0.05133354 0.00085459155 -0.17015588 -0.028591715 0.16651842 -0.008029973
-0.1892396 0.017528519 0.13476448 0.1352186 -0.021053402 0.021575477 -0.08363258 0.21183269
0.16977361 -0.14407301 -0.10635434 0.1744549 0.008601012 -0.035284005 0.20263377 0.08664439
0.060178485 0.038734965 0.049689088 0.06853933 0.2040191 -0.08780343 -0.14931896 0.14863934
-0.107084766 0.093027584 0.027700128 0.042213302 -0.10805301 -0.028492147 0.042046227 4.6486002e-05
0.06899286 -0.13546811 -0.24921696 -0.08167019 0.1636928 -0.1390596 0.089181624 0.06369816
-0.17066747 -0.071992986 -0.1222269 -0.17197019 0.021288536 -0.13533153 0.13403897 -0.19417201
-0.05589708 -0.11248278 0.16410464 0.13229868 0.14456725 -0.1252423 0.1671412 -0.13812858
0.21542107 -0.12785329 -0.015011054 0.16881365 -0.20089175 0.21261163 0.13615842 -0.12722161
0.11749512 0.0069580493 -2.0049883e-05 -0.03008911 -0.09890057 0.06420265 -0.20754668 -0.047876783
0.2020429 -0.22608742 -0.20992234 -0.15913492 0.17069449 0.18625571 -0.19581223 -0.022958491
-0.05668205 -0.20987648 -0.05856947 0.00353103 0.11547282 0.16256927 -0.17739128 -0.22126913
0.18300287 -0.005178592 -0.22815822 0.23648256 0.10547131 0.14549866 0.11370984 -0.17766087
-0.16672686 -0.13811712 -0.017182082 0.17004366 -0.13220909 0.00030023817 -0.039496165 0.10999018
0.0060719713 0.1887177 0.135982 0.06334558 -0.070682295 -0.10913536 -0.03342757 0.23041372
0.014970045 -0.04581763 0.20635161 0.02319887 -0.019021211 0.1476997 -0.20057406 -0.20150936
0.2218001 0.11203339 0.065616176 -0.0035341997 0.03146099 0.076325946 -0.11113347 0.18939325
-0.15953378 0.23416464 -0.11044469 -0.024433827 -0.12889369 -0.14114454 -0.11896279 -0.12108552
-0.0518601 -0.00041056811 0.15270886 0.14553541 0.036157146 0.16964687 0.09403313 0.15028487
0.101462066 0.13074476 -0.17900768 0.15524626 0.20362587 0.25732368 0.15691437 0.15633081
-0.112786554 0.019725708 0.09320992 0.011048653 0.05930431 -0.076445796 -0.038933434 -0.090874076
-0.002238428 -0.04379613 -0.13313974 -0.0694098 0.1540274 0.035036825 -0.06078388 -0.081333786
-0.037879623 -0.15545769 0.043980017 -0.05759094 -0.04490337 -0.11162689 -0.12247384 -0.08824044
-0.080282375 0.102120295 -0.19635737 -0.14509428 0.2054522 0.20222963 -0.019696571 0.19199134

weight_hh_l0 f4 [48, 16]
00000000: 6a19 c9bd dd7c 103e 6c57 443b b3ac 0e3c
00000010: b291 ff3b a758 b23d 050f bd3b 43fe 48be
00000020: 31a1 e43d 93ed 51be 8b7c c33d e87b 163e
00000030: f0f4 0ebd 11c8 14be a593 e0bd 4728 02be
00000040: fcbb 253e ccf7 f63d df1f 9a3a b84f 983a
00000050: caeb ed3d 220c 6a38 b1e9 0d3e c2e2 a7bd
00000060: e8f3 d43d a176 673e 6361 69be 88d0 f3bc
00000070: fb3b 223e ac53 d6bd 2fbc bf3c 5dab 843c
00000080: 7114 26be 02b3 6dbe 7496 8abd a19b 06ba
00000090: 45bd eebd 823a bf3b 6ff9 48be 4704 fe3d
000000a0: 9dca 58ba 5f1b d63d 4937 ddbd 5d09 b93b
000000b0: 8f2d f93d 019e 323e bf14 163c 6cd2 0b3b
000000c0: f6c3 0abb f9db 2ebe cf3f 1ebe cc8b f3bd
000000d0: 2778 b8bd 28fb 2d3e 1852 33be 33a9 aabd
000000e0: bdf5 f23c 104f 1fbd f312 403e 837d 1f39
000000f0: 0a73 a33d 1b35 1bbe 3335 eabc 2a79 94bd
00000100: fbd9 59ba fa6d ff3d c89a 2b3e 9fdb 7cbd
00000110: dd35 153e 2018 dbbc 1d13 f33d a4a7 363e
00000120: aafa 8b3d 1020 abbd c0a9 32be 0d64 563d
00000130: 6e83 ceba 3be4 d939 36fa ddbd 3578 083e
00000140: b637 9238 9a83 373e ad16 7c3c 2ea8 d9bb
00000150: 7ccd 883d 244d 8ab8 af3e 723d acd9 f33d
00000160: 845c dbbc 4fed 973c a272 4abd eac8 133e
00000170: 2a54 04bd 41b3 243d bded 9dbd 71f5 e03d
00000180: f629 ccbd cb54 cfbc bf4b b33c 8c80 f43c
00000190: 8811 843c 7754 b0b9 0389 2f3e c0ea 13be
000001a0: c01e c139 0935 64be 8aa6 a9bd e9c0 ad3c
000001b0: fd76 78bd 2220 723d b091 23ba bb14 1d3e
000001c0: c5f6 dbbd 02c0 e83d 922a d9bd faef 293b
000001d0: 286f 9c3c 64a6 523d e6c5 4bbe 6d37 253d
000001e0: 7ef4 393d ac0f 66be 7d06 cf3d be4b 883d
000001f0: 1b38 b8bb 2ede 19b9 6148 15b9 0639 f6b9
00000200: baec df3d e528 583d 8609 5d3d 5fd4 f03d
00000210: f26c 1b3e 8828 163a 99ab 33be a036 673d
00000220: ff67 dcbc aa61 153e fb75 a2bd 6757 a33d
00000230: cc4b e138 fa1d 453d bd55 41bd f59e 5c3b
00000240: b52f a83b 97cb 6e3d a651 913c 9bc6 9dbd
00000250: 2ab0 393b d5be 3f3c a449 073e 8d9f 403e
00000260: c040 e2bc f1f2 6e3e 66dd 9bbc 7e7c a6bc
00000270: f1e9 d9bd a21f 023e c44a 073e 6a85 d238
00000280: 3ab3 f83d 3f16 a7bd 976d 153d 5c77 d2bc
00000290: d864 2fbe 71fa 38bc 004b 913d 20ab bfbd
000002a0: 4b63 473d 7c70 ffbd 35b2 a83a 292a 253e
000002b0: 897a 20be b2e0 b1bb a22e 66bd 1e0f 6c3d
000002c0: 1c7d 673b 6c50 a4bd 7952 2e3e 768a c63b
000002d0: d391 0abe 4a88 813d 104f 623e 7e98 28be
000002e0: 5c9c a93b 98d7 de3b 7a72 e6bd 73c7 d5bc
000002f0: 9847 1dbe 55cc f43d 0674 1d3e 7754 b03c
00000300: 9ebc 24bd 011e 2dbd 352f 86bd 7993 e13d
00000310: 3075 76bc 592b 11bc 204a 3d3e 277f 2bbe
00000320: e8ba b4bd dcaf 1dbe ebaf 6f3e a0a8 193e
00000330: 286c 28be fab5 093d 9aca 0ebe efec 923c
00000340: 167a 19be 057a 0c3e 8143 093e 0420 67bc
00000350: f966 fb3d 66ad a83d 2298 0cbe e6e9 bcbd
00000360: d2c6 37bd 610e 58be 0e8d 0dbe 8307 3fbc
00000370: 4f58 083d b4eb 1dbe c97e 0dbe f77e 9b3d
00000380: 2645 2abe 918c af3d a9e2 1dbb a841 aebd
00000390: d88b a0bd c783 9fbd dcf6 fcbd b13d a93d
000003a0: 19ad 49bd 774e 013d 5b81 b8bd a7c3 893d
000003b0: c0db d2bd 3d70 1d3d ac75 15be 3437 25be
000003c0: bab7 18bb 76af b2bd ff28 acbc 3bbc f0bd
000003d0: 3b35 6f3c df9f abbc df30 29be 6ef2 50be
000003e0: 6f67 1abe 4e3a 9fbd 9083 0cbe 3197 9c3d
000003f0: d78a 3cbd 092d 31be bd54 d73d f1a4 93bd
-0.098193005 0.14110132 0.0029959334 0.008708167 0.0077993507 0.08708315 0.0057696127 -0.19628243
0.11163557 -0.20500784 0.09545239 0.14695704 -0.03490156 -0.14529444 -0.10965661 -0.12710677
0.16184992 0.12058982 0.0011758766 0.0011620438 0.11617239 5.5801247e-05 0.13858677 -0.081975475
0.10398084 0.22603847 -0.22791056 -0.029762521 0.15843193 -0.10465178 0.023405163 0.016194994
-0.16218735 -0.23212817 -0.06766978 -0.0005134885 -0.11657194 0.005835832 -0.19626401 0.124031596
-0.0008269938 0.10454439 -0.108015604 0.005646868 0.12166893 0.17443086 0.00916022 0.0021335138
-0.002117393 -0.170761 -0.15454029 -0.118918985 -0.09007292 0.1699034 -0.17511785 -0.083330534
0.029658193 -0.03889376 0.18757229 0.00015210178 0.07980926 -0.15156977 -0.02858982 -0.07249673
-0.00083103747 0.12472148 0.16758263 -0.061732884 0.14571328 -0.026744902 0.1186888 0.17837387
0.0683492 -0.08355725 -0.17447567 0.05234151 -0.0015755722 0.0004155951 -0.108387396 0.13327105
6.9721995e-05 0.17921296 0.015386266 -0.006642363 0.06679818 -6.594721e-05 0.05914181 0.11906752
-0.026777513 0.018545775 -0.04942573 0.14432111 -0.032306828 0.040210012 -0.077113606 0.10984314
-0.09968941 -0.025308987 0.021886704 0.029846452 0.01612164 -0.00033632267 0.1714211 -0.14445019
0.0003683474 -0.22285856 -0.08283718 0.02121015 -0.06066035 0.059112675 -0.00062396657 0.1533994
-0.10740427 0.113647476 -0.10603823 0.002593039 0.019095972 0.051428214 -0.19899711 0.04033606
0.04539918 -0.22466916 0.101086594 0.06655072 -0.0056219227 -0.00014673985 -0.0001423671 -0.00046963262
0.10933824 0.052773375 0.05396416 0.117592566 0.15178278 0.00057280855 -0.17545928 0.05644858
-0.026905058 0.14588037 -0.07932659 0.07975655 0.00010742954 0.04812429 -0.047200907 0.0033664082
0.0051326402 0.058299627 0.017739128 -0.077038966 0.0028333762 0.011703213 0.13211685 0.18810864
-0.027618766 0.23334862 -0.01902647 -0.020323034 -0.10640324 0.1270738 0.13212115 0.000100384306
0.1214356 -0.0815854 0.036481466 -0.02569168 -0.17128313 -0.011290179 0.07094383 -0.093588114
0.048678678 -0.124726266 0.0012870493 0.16129364 -0.15671743 -0.005428397 -0.056196816 0.057631604
0.0035322374 -0.08023152 0.17023648 0.0060589863 -0.1353219 0.06324823 0.22100472 -0.16464421
0.00517611 0.006800603 -0.112523034 -0.026096081 -0.15359342 0.11953036 0.1537629 0.021524651
-0.040218942 -0.042264942 -0.06551973 0.11014456 -0.015042588 -0.008860433 0.18485308 -0.16747724
-0.08824712 -0.15399116 0.23406951 0.15005732 -0.16447508 0.033620812 -0.13944474 0.017935244
-0.14987978 0.13718422 0.13404657 -0.014106754 0.122755 0.08236198 -0.13729909 -0.092243
-0.044867344 -0.21099235 -0.1382334 -0.011659506 0.033287343 -0.15421945 -0.13817896 0.07592576
-0.1662794 0.08571733 -0.0024091399 -0.08508617 -0.07839173 -0.077888064 -0.12351772 0.0826372
-0.049237344 0.03156897 -0.090090476 0.06726771 -0.1029582 0.038437117 -0.1459567 -0.1613434
-0.002330287 -0.08724873 -0.021015642 -0.11754652 0.0146000935 -0.020950256 -0.16522549 -0.2040498
-0.1507852 -0.077747926 -0.13722062 0.07646025 -0.046030845 -0.17302336 0.105142094 -0.072091945

bias_ih_l0 f4 [48]
00000000: 3c18 e73d f6b3 8bbd 2de3 5a3d 38e5 183e
00000010: 2d57 fc3d dce7 503e c97b 5f3e 6bd8 2c3e
00000020: ea92 9e3d c988 02be e3e0 963d 84b8 213e
00000030: 3887 7e3e 2251 4a3e 0fe9 493e 03b8 3f3d
00000040: 413a 363e a400 1ebe c07b 92bc 16fe 003e
00000050: d665 053d 0ae9 5bbd 9639 24be 81f2 e53c
00000060: a4fc 8fbc b68b 05be 1bb0 743d 2fc3 753d
00000070: 9a00 15be 4523 563e cb75 293e 40ed b53d
00000080: 5287 123e e78a 66be f028 18be 0738 123d
00000090: 5858 0c3e 1998 64bb e5e2 c93d 7239 5a3d
000000a0: e99f 6b3e d006 f63c 6b8b 5b3d f7c8 9bbd
000000b0: 91d7 36be 49bc 1d3e c160 0f3e 4f85 c5bc
0.11283919 -0.06821434 0.053439308 0.1493119 0.12321315 0.20400947 0.21824564 0.16879432
0.077428654 -0.12747492 0.073671125 0.15793043 0.2485627 0.19757512 0.19717811 0.046806347
0.1779566 -0.15429932 -0.017881274 0.12596926 0.03256782 -0.05368904 -0.16037592 0.028069736
-0.017576523 -0.13041577 0.05973826 0.060000595 -0.1455101 0.20911892 0.1654884 0.088831425
0.14309433 -0.22513925 -0.14859366 0.035697963 0.13705575 -0.0034880696 0.0985773 0.05327744
0.2301022 0.030032545 0.053599756 -0.076066904 -0.1785567 0.15403856 0.14001752 -0.024111418

bias_hh_l0 f4 [48]
00000000: 3f3a 89bd 8645 0fbe e5c2 f2bd 7b0b 5a3c
00000010: 3ffb 6fbe 73ec 03be 591f d03d 04bb 9ebd
00000020: 5b13 5e3e aac4 513d 0807 6a3e f769 3c3e
00000030: ecd7 1cbc f794 92bd 06d4 b0bd 38e1 33be
00000040: 3f3a 6c3e 4f00 46bd 072c 5d3c f5b7 3ebd
00000050: 1284 203e 55d9 02be b76e 80be 03b1 47be
00000060: b164 003e 8843 ccbd 067d acbd fc87 693e
00000070: 9eca 69be 717b 62be 3a05 b73a 8002 04be
00000080: 995d 173e 5298 07be 03ef 563e e536 5c3e
00000090: 74aa 583e 25a6 0abe ba64 66be 4bb8 abbc
000000a0: a3ee f8bc c4a7 16be a71d c2bd 3311 6d3e
000000b0: 280b 51be fa89 043d 474f 52be 55a0 f93d
-0.06700563 -0.13991365 -0.118535794 0.013308401 -0.23435687 -0.12883167 0.10162229 -0.07750514
0.21687071 0.051212944 0.22854245 0.18399797 -0.009572964 -0.07157319 -0.0863419 -0.17566383
0.23069094 -0.048340138 0.0134992665 -0.046562154 0.15675381 -0.12778218 -0.2508447 -0.19501118
0.1253841 -0.09973818 -0.08422284 0.2280578 -0.22831199 -0.22117402 0.001396335 -0.12891579
0.14781798 -0.132417 0.20989613 0.21505316 0.21158773 -0.13539942 -0.22499362 -0.020961901
-0.030387228 -0.14712435 -0.09478312 0.23151092 -0.20414412 0.032358147 -0.20538054 0.12188784

weight_ih_l0 f4 [3, 11]
00000000: aeb5 283f 2029 3fbf 6d8b cdbe 1ae0 043f
00000010: e553 f93e 44c5 78bf 5882 323f 9265 3d3f
00000020: 6373 353e 1d4e 70bf 3e7c 1abd c21e 033e
00000030: 7f97 44bf 5298 2a3f 17c9 b73e 30b5 b13e
00000040: 4a8f 133f b1ca e2be 8242 0fbe c661 2a3f
00000050: ee38 d6bd 32df 7cbe 8fa2 473f 9dde b83b
00000060: 8cfc f5be fd99 17bf d463 4c3f d88e bf3e
00000070: cfa6 203f d7a5 2cbf df28 fa3e 6bdd 0b3f
00000080: de41 c93e
0.6590222 -0.74672127 -0.40145436 0.5190445 0.4869682 -0.97176003 0.6973014 0.7398311
0.17719798 -0.9386919 -0.037716143 0.12804702 -0.76793665 0.6663867 0.35895607 0.34708548
0.57640517 -0.44295266 -0.13990214 0.6655544 -0.10460077 -0.24694517 0.7798242 0.005641772
-0.4804424 -0.5921934 0.79839826 0.3741367 0.6275453 -0.6744055 0.48859307 0.5463473
0.39308065

weight_hh_l0 f4 [3, 1]
00000000: 5dd3 1e3f 6050 813d 6549 b03e
0.62041265 0.063141584 0.34430996

bias_ih_l0 f4 [3]
00000000: ffd6 a13e 9d1e 053f 3c2a b3be
0.31609342 0.5199984 -0.3499316

bias_hh_l0 f4 [3]
00000000: f25e 5abf 9e20 7e3e 7e07 f53e
-0.85301125 0.2481713 0.4785728

weight f4 [1, 16]
00000000: b37b 99bd c039 ad3c 2828 4d39 e339 0dbd
00000010: aa0a 9eba dcb7 2ebe 5017 053d 0fd1 8938
00000020: 9c52 0a3d 0857 52b9 9e5e 9c3d f468 45bd
00000030: 32ab 1abe f5fa 253b b689 053e ff96 d33d
-0.07494297 0.021145701 0.00019565283 -0.034479033 -0.0012057621 -0.17062324 0.032492936 6.571609e-05
0.03377019 -0.00020059582 0.07635234 -0.048195794 -0.15104368 0.0025326584 0.13040814 0.103315346

weight f4 [680, 17]
00000000: 7a98 cc3c 96aa 203d 8621 4b3d 31a9 5abe
00000010: b8f8 1d3e c0d4 14be 9d5c dd3d 4916 c1bd
00000020: efc6 70be fb7e fb3d 995d 14be 20d8 19be
00000030: 3a49 463e b2ea 1a3e 9a26 173c a36a e5bc
00000040: 4aac e1bc 7f76 0e3d 802d 0e3e 7544 14be
00000050: cce7 56be 8b29 7e3e 2d05 343e 8635 0abe
00000060: 6573 e2bc d9eb 763e 1ebd 48be 5c49 9a3d
00000070: a6f8 463e 2ead c9bd b599 133e ab4b 413c
00000080: d88b 4cbd 3f67 703e 7ef8 94bd ce10 fdbd
00000090: 46d6 2639 1088 b8bd faab 59bc e01e f936
000000a0: 3354 723d c176 dc3d 3d1a 2438 0b7a 62bb
000000b0: 6278 88bc 94ad 853d ffa4 d1bc 8ef8 b6bc
000000c0: 31b0 bd3d c03c aa39 55f3 08be de0b b93d
000000d0: d364 3fbe 8aaa 253e 04c2 723e f0f9 5d3e
000000e0: 169e 123d a3e8 5bbd 8fb6 9dbc df96 c43d
000000f0: bc3d 5e3e 97fc 42be f735 26be 0e3d ca3d
00000100: ee0e 9cbd 6602 903d 0c92 31be cb6c 803e
00000110: 5197 833d 2785 62bd c949 90bc 9a03 463e
00000120: 2bf0 383e e388 7bbe cb14 813e c3da 533e
00000130: c204 3c3e 423f 90bc d2db fcbd da47 cc3d
00000140: 5816 2fbc c193 643e e229 fb3c 2993 46be
00000150: 36ad b4bd bd5e bfbd 5063 46bd 5047 2abe
00000160: 9d6c 11be 4e01 7b3c 607c d03d fb9c 64bd
00000170: 9d67 40be e966 ef3d 0664 9c3d 0dd1 bb3d
00000180: 7d2d 083e a3be 603b ce72 ebbd 61dd eebd
00000190: aa87 913c 3b32 af3d b4bf 1a3e 4c26 20be
000001a0: de02 bdbd 9a4e 42bc 9979 853c 140b d8bd
000001b0: 3518 823c 8fcb 9d3d 7a99 e9bd 8ad6 0abe
000001c0: a8f4 eabd 8948 993d 350d b93d fe5b 273d
000001d0: c926 ad3c 1662 633c fa11 16be 7f36 db36
000001e0: eca0 b93c b3c1 2cbc 4b5d 063e 9a39 fd35
000001f0: bed4 c23d c4c1 a6bd bd29 063e cfc8 dcbd
00000200: 315d 4c3d 5aec 87bd 959a ddbc b4f0 763d
00000210: 98d0 d9b8 3476 cfb9 d43b 8338 0ac7 933d
00000220: 0d9c 583e bf40 f5bd 4cf9 fcbc 61aa 063e
00000230: 3137 583e 7148 76bd ccac b33d 52f6 d03c
00000240: 567a 23be 819c 6ebe dcfd 17be 58f7 4cbe
00000250: 2a8d 12be 4cf2 1a3e ad26 8e3d 6f60 84bc
00000260: d79d 373d f214 413d 6d9e b63d aee5 f8b9
00000270: 31d3 dc3b fcbf 5c39 e8f8 943d 6f10 cb39
00000280: 5a55 c33a bd7a afbd e3e1 6ebc 8937 33bc
00000290: 274e a5bd 5276 b4bc 3446 37bc c361 c03d
000002a0: f0db 6738 0dba 823d c37d a8bd 6c4f 62be
000002b0: fdc5 b23c 2ed4 4ebe ef5c 19be 251f 60be
000002c0: f4b9 2ebe 449d 77bd 0f6b 3ebe 4ef9 25be
000002d0: a4db fc3d d5d5 003e 78d0 4a3e 7ed0 31be
000002e0: 92d8 f03d 4a35 8c3d 6042 3e3e 4485 f63d
000002f0: 671e 533d 2dcb 713d 48c2 a1bd 0256 81bd
00000300: 91c1 503d e15a 0ebe 0c29 6cb9 8b18 b439
00000310: c991 43bb 859f 85bd af61 97bd 1431 a9bd
00000320: 415e b539 cc9f 15bc b5ca bbbc 882a eb38
00000330: d212 0ebe 55ce d0bb f24c 693e 5ef7 0f3d
00000340: e62d c23d ac6d ae3d 0ccd 8a3d 9ad3 253e
00000350: e717 23be 94d8 ac3d bf13 a73d a306 403e
00000360: 1064 a53c 05a8 d13d 0954 443e e9b3 b73d
00000370: 8ab7 b5bd bd6f 39bc 1850 0dbd 9ffb 5bbe
00000380: f6ec 533e 6ae7 f73d 681f 9f3d fdce 8e3d
00000390: bcca 1e3e 9997 bd3d db26 3f3d 3061 3f3e
000003a0: b15f 2dbc 3a44 eb3d 6d4c c83d c5b3 7a3d
000003b0: 68d8 dcbd a709 a53d 3cfb 00be 9ea6 8dbd
000003c0: 8ed7 a63d e69d 8f3d 8f9e e63d 23a7 0e3e
000003d0: 1214 27be e5ff 5b3a 8ab1 25bd e7d6 ab3d
000003e0: 4925 6a39 f1f3 b13c 5255 9eb9 1dbc 91b6
000003f0: c5be bc3d 5405 be3d 55ed 313d d0fc dd3d
0.02497505 0.039225183 0.049592517 -0.21353604 0.1542691 -0.14534283 0.1080868 -0.09428079
-0.23513387 0.12280079 -0.1448883 -0.15023851 0.19363871 0.15128592 0.009225512 -0.02800495
-0.027547974 0.034780975 0.13884544 -0.1447924 -0.20986861 0.24820535 0.175801 -0.1349698
-0.027642915 0.24113406 -0.19603392 0.075335234 0.1943079 -0.098474845 0.14414103 0.011797826
-0.049938053 0.23476885 -0.072739586 -0.12356721 0.00015910817 -0.09010327 -0.013285631 7.4243726e-06
0.05916233 0.10764838 3.9125083e-05 -0.0034557607 -0.016658965 0.06527248 -0.025591372 -0.022335317
0.092621215 0.0003247019 -0.13374074 0.090354666 -0.18690805 0.16178337 0.23706824 0.21677375
0.035795294 -0.053688657 -0.01925209 0.09599089 0.21703237 -0.19041668 -0.16231523 0.098749265
-0.07620035 0.070317075 -0.17340869 0.25083002 0.06425346 -0.055302765 -0.017613309 0.19337311
0.18060367 -0.24563937 0.25211176 0.2068892 0.1836119 -0.017608289 -0.12346615 0.09974642
-0.0106864795 0.22321989 0.03065962 -0.19392075 -0.088221 -0.09344242 -0.048434556 -0.16628766
-0.14201589 0.015320135 0.10179973 -0.05581377 -0.18789525 0.116895504 0.076362655 0.09170733
0.13298602 0.0034293316 -0.11496507 -0.116633184 0.017764885 0.085545026 0.15112191 -0.15639609
-0.092290625 -0.01185956 0.016293334 -0.10548988 0.015880683 0.07704841 -0.114062265 -0.13558403
-0.11472446 0.07484538 0.09035722 0.040859215 0.021136658 0.013878366 -0.14655295 6.533053e-06
0.022659741 -0.010544228 0.13121526 1.8866733e-06 0.095132336 -0.081424266 0.1310186 -0.10780489
0.04989356 -0.06636877 -0.02705125 0.060288146 -0.0001038622 -0.00039570185 6.2577106e-05 0.07215698
0.21153279 -0.1197524 -0.030880593 0.13150932 0.21114804 -0.06012768 0.08773193 0.02550808
-0.15964636 -0.23301889 -0.14842933 -0.20016229 -0.14311662 0.15131491 0.069409706 -0.016159264
0.044828262 0.047139116 0.08916936 -0.0004747337 0.006739043 0.00021052355 0.072740376 0.0003873142
0.0014902756 -0.08568332 -0.014580223 -0.010938534 -0.08071547 -0.022029076 -0.011186171 0.093936466
5.5279525e-05 0.063831426 -0.08227112 -0.2210061 0.021822924 -0.20198128 -0.14976858 -0.2188688
-0.17063123 -0.060452715 -0.18595527 -0.16208383 0.123465806 0.1258157 0.19806087 -0.1736469
0.117600575 0.068461016 0.18580008 0.12037137 0.051542666 0.059031654 -0.07898384 -0.06315233
0.05096585 -0.13901855 -0.00022522005 0.0003435056 -0.0029841533 -0.065245666 -0.073916785 -0.08261314
0.00034593235 -0.009132337 -0.022923807 0.00011213595 -0.13874367 -0.006372253 0.22783259 0.035148017
0.09481411 0.08517012 0.06777391 0.16194001 -0.15927087 0.084397465 0.08158063 0.18752532
0.020189315 0.10237125 0.19172682 0.08969862 -0.08872898 -0.011318144 -0.03450021 -0.21482705
0.20695862 0.121046856 0.07769662 0.06973074 0.15507025 0.092574306 0.046667915 0.18689418
-0.010581897 0.114876226 0.09780202 0.061206598 -0.10783464 0.08058482 -0.12595838 -0.06916545
0.081465825 0.070125386 0.112607114 0.13930945 -0.1631625 0.0008392318 -0.040452518 0.08390599
0.00022329869 0.021722766 -0.00030199677 -4.343236e-06 0.09216074 0.0927836 0.043439228 0.10839236

bias f4 [680]
00000000: d17a 81bc e9d3 6f3e 646e 11be 3610 f83d
00000010: ef11 adbd 71fe e2bd 882a c5bd 50bf 0fbe
00000020: bf6a 683c d871 14be 631f 3cbe a845 30bc
00000030: 8751 b33d ea43 673d 13da 26be dd5f 1f3d
00000040: 3fd7 24be b91d 6dbc 4a83 483e e908 89bc
00000050: 64a3 953d 8fa1 52bc 6fbd 893d 4079 843e
00000060: b15b e3bd 86ec 80bd e6dd 6dbd 1427 c53d
00000070: 5ab1 d93d efa5 2fbd ed43 0d3e 7043 f63d
00000080: 1784 2b3c b8f4 1b3e c974 babd e48e 08be
00000090: ad01 8abc 4215 97bb 83b7 c1bd 66ca debd
000000a0: 7ceb 28be 8280 9d3c f61f 0c3c 38b2 493e
000000b0: de50 d8bd ecf8 16be d124 db3d 8d5e 303e
000000c0: 2e67 e3bc cb73 eabd d397 b13d a7f2 913d
000000d0: 81e8 543e 6a4a 0a3e 102b 56bd 55d9 143e
000000e0: 715c 07bd f970 693d 8485 cd3c d050 98bd
000000f0: 36f9 0ebe 109a 0fbe 3eb1 dcbd c77b 0ebe
00000100: 1610 03bc 1fa4 cc3d c598 dd3c 7462 1abe
00000110: aac1 1f3e 81d6 cd3d ece5 993d 2f7a 393e
00000120: 6b72 2f3e fe46 253c c7e5 f8bd 1f6e 0fbe
00000130: d335 663e 7fad fb3d 75a0 bebb 2a1e d43d
00000140: eddd 9cbd 1071 dd3d 7250 0dbe a85b 3a3e
00000150: 639e d5bd c449 2ebd 166a ff3c 5c0e 31b9
00000160: 4e3b 8b3d 05af d93d 5e73 5b3e ef1e f13d
00000170: 70a1 01be cc64 9e3b 5a48 7c3c c05a b2b9
00000180: fed1 77bd ffea 183e 0b74 7b3e ae5e 233d
00000190: 0521 58bd fdd0 dc3d a577 093c ea4a c3bd
000001a0: 3560 e53d 4e69 08be a044 313c 2f69 eb3c
000001b0: 2f00 1bbd 3e73 babd d5bc b83d 0591 7e3d
000001c0: 905a f6bc 2025 5c3e e0bb 013e 08f3 533e
000001d0: 53fa f7bd d047 213e 57b3 06be e212 f1bd
000001e0: 3982 18bd 1cac 23be 2bad 393e df8e 25bb
000001f0: a874 79bb 88d6 afbd 09d3 473e 6f32 203e
00000200: 3a1b bbbb 3b5f 53bd a4db 1b3e a027 273e
00000210: ccc2 5d3d 5959 083c 0e54 1a3d aa3e 31be
00000220: 3781 dd3d c381 78bd 26ed 23be 0e8e bb3d
00000230: 7fde 943d 7429 d8bd 9141 3e3e 9502 07be
00000240: 36d2 2b3d 0329 09be 2117 bebd a403 093e
00000250: 7975 06be b055 18be b93a 8dbc bf0d 7f3e
00000260: e2d4 b4bd 5ee4 a9bd e0f8 d33d e1e4 a9bd
00000270: c00a a1bd efd9 ed3d af4d 1dbc c82d 12be
00000280: 0c15 c0bd 86bf dabd a208 b9ba 71d4 93bd
00000290: 1179 63bc bad3 bfbd e7c6 0bbe cc70 3dbc
000002a0: 3170 8ebc b428 09be 8093 9dbd e66b 063e
000002b0: 9365 f9bb bef1 c23d b8e0 f83d 6692 253e
000002c0: 1219 98bd 5bf6 0f3e 4adb 033e 4b5c 82bd
000002d0: 31c2 473e 45d8 0c3d ad27 953d df1a bbbd
000002e0: 70ae 503e 2071 3abd 9735 c2bd 36e6 0ab9
000002f0: 9290 97bd 9b6d 523e a670 8dbd a0d2 e8bc
00000300: 8db9 01be 0692 253e fe96 a33d 4aca 1c3e
00000310: 0a2b 113e 6009 633d 8bdd 3b3e ac3f 443e
00000320: 216f 8dbd 96af fdbd d3ab 1b3e b708 c2bd
00000330: 3d5b d3bd 96bf 3bbd 25b9 c9bd d6f7 273d
00000340: 9e02 643e 007a 003e 341a 66bd 9803 7c3e
00000350: 78d1 28be 33b3 223e 433d 7d3d e95d 483b
00000360: eae9 cf3c 63fd adbd 0623 bbbd 4df3 f73d
00000370: 3565 9abc 8e1e 053e 687e f73d b08b 33be
00000380: 8a76 3e3e 061c 80bc c305 b6bd b3a9 23be
00000390: c07a eebc 1cf3 f6bd 298a 31be fbe9 e33c
000003a0: f0f5 adbd 95e8 5f3e 21c4 04be 1de5 24bd
000003b0: 92a2 44bd 590f 543e e7c5 153d 4f53 313b
000003c0: b92d abbd 715f 9e3d 01ef a0bc 5cc6 343e
000003d0: 41eb 593e 80da f03d 6fcb 03be 85b5 403e
000003e0: 0a6e a8bb 1c30 9e3d 23a5 293e ad8e cabd
000003f0: b424 f9bd ac64 25be c033 893d f0de 9fbd
-0.015805634 0.23420681 -0.14202267 0.12112467 -0.08450686 -0.11083687 -0.09627253 -0.14037824
0.0141856065 -0.14496553 -0.18371348 -0.010758795 0.087557845 0.056461252 -0.16294126 0.03890978
-0.16097735 -0.014472418 0.19581333 -0.016727882 0.07306555 -0.012855901 0.06725585 0.25873756
-0.11101473 -0.06295113 -0.058072947 0.09626594 0.1062953 -0.042882856 0.13795443 0.120245814
0.010468504 0.15230072 -0.09104306 -0.13335758 -0.016846502 -0.0046106884 -0.0945883 -0.10878448
-0.1649608 0.019226316 0.008552542 0.19696891 -0.10562299 -0.14743394 0.107003815 0.17223568
-0.02775916 -0.11447867 0.08671536 0.071263604 0.20791818 0.13504949 -0.05228716 0.1453603
-0.033047143 0.056992505 0.02508808 -0.07437289 -0.13962254 -0.14023614 -0.10775994 -0.13914405
-0.007999441 0.09992241 0.027050385 -0.1507662 0.1560122 0.10050679 0.07514557 0.18113016
0.1713349 0.010087727 -0.121532016 -0.14006852 0.2248147 0.12288951 -0.005817468 0.10357316
-0.076595165 0.108125806 -0.13800219 0.18199027 -0.104306005 -0.042550817 0.031178515 -0.00016885385
0.06798421 0.106290855 0.21430728 0.11773478 -0.1265924 0.0048337933 0.015398109 -0.0003401842
-0.060503 0.14933394 0.24555986 0.039885215 -0.052765865 0.10782049 0.008390342 -0.09535773
0.11199991 -0.1332142 0.010819584 0.028736679 -0.037841972 -0.09104012 0.09020392 0.06215002
-0.03007248 0.21498537 0.12669325 0.20698178 -0.121082924 0.1575005 -0.1315435 -0.1177118
-0.037233565 -0.15983623 0.18132465 -0.002526216 -0.0038063917 -0.085858405 0.19514097 0.15644239
-0.005710033 -0.05160449 0.15220505 0.1632371 0.05414085 0.008322083 0.037677817 -0.1730906
0.108156614 -0.060670625 -0.16008434 0.09157954 0.07269 -0.105547816 0.18579699 -0.13184579
0.04194852 -0.13394551 -0.09281755 0.13380295 -0.1313075 -0.14876437 -0.017239915 0.24907587
-0.08829667 -0.08295511 0.103502035 -0.08295608 -0.078633785 0.11613833 -0.009601041 -0.14275277
-0.093790144 -0.106810614 -0.0014116953 -0.07218254 -0.013883845 -0.093665555 -0.13650094 -0.011562537
-0.017387481 -0.13394433 -0.07694149 0.13127097 -0.0076109855 0.09518765 0.12152237 0.16169128
-0.07426657 0.14058821 0.12876621 -0.0636526 0.19507672 0.03438594 0.07282958 -0.09135985
0.20379043 -0.04551804 -0.09482878 -0.00013246466 -0.074006215 0.20549624 -0.069062516 -0.028420746
-0.12668438 0.16168985 0.07987784 0.15311542 0.14176574 0.055428863 0.1834623 0.19164914
-0.06905962 -0.12387006 0.15202264 -0.094743185 -0.10320137 -0.045837007 -0.09849767 0.04100784
0.22266623 0.1254654 -0.056177333 0.24610746 -0.16486156 0.15888672 0.061826 0.0030573553
0.025380094 -0.08495595 -0.091375396 0.12106953 -0.018847087 0.12999937 0.12084657 -0.17533755
0.18599907 -0.015638363 -0.08887818 -0.15982704 -0.029111266 -0.12058088 -0.1733786 0.027821532
-0.084941745 0.21866067 -0.12965442 -0.040257562 -0.0480066 0.2070898 0.036565688 0.0027057712
-0.0835833 0.07733048 -0.019645216 0.17653793 0.21281148 0.117604256 -0.12870573 0.18819244
-0.005140071 0.0772402 0.16566901 -0.098904945 -0.12165204 -0.16151685 0.06699324 -0.07806194

weight f4 [4, 680]
00000000: 11cc da3c 1615 5b3c 3d51 1bb9 fdad c7bb
00000010: 5627 e5bc a1ce 943c faa1 7738 7a5e 98b8
00000020: 52ef e03c e105 0037 13aa 603c e438 16ba
00000030: f5cd 3ebc 7473 97bc 7ab7 4cba 62ed 36bb
00000040: f74f 5336 ad17 c03c b3d5 8f3c 0717 f0ba
00000050: 7dc8 153d 48ab 74bb 891c a6bc 8b94 af3c
00000060: 87a8 4b39 5361 503b 7f76 40ba a185 9abc
00000070: 12de e6bc 4af8 bdb9 8e51 e0bc 4a2a b23c
00000080: 6e74 4a3b c99b f7bc 9270 613c 3c6b cab9
00000090: f311 aa3c 3fe2 babc f926 e8bc ebb7 b8b9
000000a0: 2948 e837 7a72 8c3c d898 0a3c d35e 2a3d
000000b0: 50d4 b4b9 26b1 54b7 c923 6c3c c35e edbb
000000c0: 6281 633c f92f 2cbd 6948 e43c b6ae b3bc
000000d0: 713b 833c c570 053d 39f6 92b9 6a1c 06bc
000000e0: 2c5c bcb7 b653 5f3a a34b fa3c 0419 ad38
000000f0: e994 7739 1529 c8b9 8980 7238 ecd8 2abd
00000100: d83a 92bc aa42 b3bc 9a80 a7bb aea5 3338
00000110: e489 2abd 8949 a2bc 7b66 63bd 7abc 873c
00000120: 87f6 033c 233f 4a3b 9709 e2b9 1f00 03ba
00000130: 830d 543c 8582 13bc cac8 c43c 2560 723c
00000140: 8a7a 99bb 74ba 2fbd 064a a3b8 6e29 1d3d
00000150: 5fde 06bb 75a0 1f3c 3d3a 8abd c0dd a63c
00000160: 6e91 f63c ce5e 84bc 1534 043c e8cf 9bbc
00000170: 5da5 7139 5ca9 0dbd 934d ca3c d551 e638
00000180: 5571 d637 64c0 233d dadd 79bc 0bc5 173d
00000190: bdc9 bfbc e7ab de3c 58bb 53bc 73fe 6939
000001a0: f538 ae3c b2c9 6eb9 ca04 22bb 4777 95bc
000001b0: 2f44 30bb a251 d1b5 a151 5c3c 0c6d fbbc
000001c0: be42 1cb8 c140 3b3c 1185 eabc dc37 303d
000001d0: 2534 a3b9 72ce 1a3d b3ab 113a 7ee2 4fb8
000001e0: fd57 28b9 4729 a2b9 02fb 723c cd9b 53b9
000001f0: efaf 203a 0567 0abc 7eb8 163d 0072 35bd
00000200: 6f78 4f37 3b52 4dba a125 d5bb 1c36 023c
00000210: e11b 79bc 8071 963c 553c d6bc 6cb1 3237
00000220: 04c7 55bc f9a5 af3c b2c6 3939 ad6c 9cbb
00000230: 4f56 453c b8e6 e238 f709 173c 7134 18bb
00000240: 494d d3bc 1487 173a 5bbc 9338 d917 c4bc
00000250: e41c 5d39 d56c 523c 3cc2 70bc 4495 543b
00000260: 9925 3537 c6bd b33b dde1 04bd ce17 c03b
00000270: d09f 0dbd ef31 b3bc ca72 943c f42a e2bc
00000280: 994e cb39 8f12 0e3a 4fb5 f23c 5a33 6eb9
00000290: 625e 323a 4da3 0c39 2842 9f38 0e90 23ba
000002a0: aecf 81bd d9d7 55b7 583d abb9 527e 2d3d
000002b0: e13c c139 5e50 31bd bd7a e93b 1648 38bc
000002c0: 9a6e 8338 0aa4 843c 121e 003d d7b2 09b9
000002d0: d853 39bb 14c8 c1bc f339 b8bb e0ab 6cb9
000002e0: 6ab8 e13b 1c2c b8ba b504 f13c d172 37b8
000002f0: 4b63 3c3c 26cc 093c 2d95 80b9 6559 f13c
00000300: e077 13bb 63e6 c83c 90bd 06bc 15ef e5bc
00000310: 4adc d5bb 6d9a 3f3c 9d32 5c3c 48c5 e03c
00000320: abbf 233b 3bf0 2b3a 3fd2 a7bb 10a2 b23b
00000330: d6ea b937 2603 8dba 00f5 d038 944b 1cbd
00000340: 8480 033d c3b1 2a3c 4125 9838 72fb 6b3c
00000350: abba 37ba d854 793c 9699 183d 9da3 a6bd
00000360: 2ebf e6bc 2d5a 863c a5e4 09ba 6f84 d53c
00000370: 1108 003d 2f85 17bc 3f67 143d c6e8 88bc
00000380: b1c5 ce3c c8c6 86bc 3c87 d538 9d8d 19ba
00000390: 8a8f 063d 8209 dfb8 b3aa 00bd 1b28 b0ba
000003a0: 1cc3 be39 2d2c bdbc 6ba0 02ba 87e1 8a3b
000003b0: 8bdb 2fbd da3d dabc 02c0 95bc 5c4c 0c3d
000003c0: adab cebc 2938 913c 7e48 e13c a53f 8f3c
000003d0: f79c cc3c e223 bf3b 7aaf e13c 7cba 81bc
000003e0: 4e53 80bb f152 82bd 229f 76bc 9c23 6d3c
000003f0: e242 e13b 95e3 6934 f564 7fbd 8e4b 4c3a
0.026708635 0.0133717265 -0.00014812216 -0.006093739 -0.027972858 0.018164935 5.904024e-05 -7.2655224e-05
0.027457867 7.630763e-06 0.013712424 -0.0005730523 -0.011645784 -0.01848767 -0.00078093226 -0.0027912487
3.1487996e-06 0.02344879 0.017557954 -0.001831741 0.036568154 -0.0037333537 -0.020277278 0.021433135
0.0001942237 0.003179629 -0.0007341876 -0.018862547 -0.028182063 -0.0003623388 -0.027382638 0.02174868
0.0030892151 -0.030225651 0.013759749 -0.00038608338 0.020760512 -0.02281296 -0.028338896 -0.00035232244
2.7690157e-05 0.01714443 0.008459292 0.041594338 -0.0003449046 -1.267743e-05 0.014412829 -0.0072439625
0.013885828 -0.042037938 0.02786656 -0.021933895 0.016019555 0.03257825 -0.0002803074 -0.008185485
-2.2454267e-05 0.0008519249 0.030553645 8.253942e-05 0.00023611229 -0.0003817758 5.7817004e-05 -0.04171078
-0.017850325 -0.021882374 -0.005111766 4.2831227e-05 -0.04163541 -0.019810455 -0.055517655 0.016569365
0.008054382 0.0030860386 -0.00043113224 -0.00049972715 0.012942675 -0.009003286 0.024021525 0.01479343
-0.0046837972 -0.042902425 -7.7862336e-05 0.03836959 -0.002057932 0.009742846 -0.06749389 0.02036941
0.030098643 -0.016158488 0.008069058 -0.019020036 0.00023045154 -0.03458534 0.024695193 0.00010982497
2.5563562e-05 0.0399784 -0.015250647 0.03705315 -0.023411626 0.027181579 -0.012923084 0.00022315401
0.021267394 -0.00022772586 -0.0024722093 -0.018245352 -0.002689611 -1.5595472e-06 0.013447196 -0.030691646
-3.7255457e-05 0.011429013 -0.028627904 0.04302202 -0.00031128633 0.037794538 0.0005556896 -4.9563583e-05
-0.00016054507 -0.00030929802 0.014830353 -0.00020180568 0.0006129732 -0.008447413 0.03679704 -0.044298172
1.2366202e-05 -0.00078323827 -0.00650473 0.007947471 -0.015204401 0.018364668 -0.026151815 1.0650936e-05
-0.013047937 0.021441447 0.00017716995 -0.0047736974 0.012044503 0.000108194945 0.009218684 -0.0023224617
-0.025793688 0.0005780321 7.04459e-05 -0.023937153 0.00021086965 0.01284333 -0.014694747 0.0032437602
1.0797195e-05 0.0054852692 -0.032441963 0.0058622127 -0.034576237 -0.021874396 0.018121142 -0.027608372
0.00038777737 0.00054196356 0.02962747 -0.00022716579 0.0006804225 0.00013412275 7.5940334e-05 -0.00062394224
-0.0633844 -1.2746045e-05 -0.00032661366 0.042356797 0.00036857187 -0.043289535 0.0071252272 -0.011247655
6.267168e-05 0.016191501 0.031278677 -0.00013131961 -0.0028278735 -0.023654975 -0.0056221425 -0.00022570742
0.006888439 -0.0014051232 0.02942119 -4.373753e-05 0.011498283 0.008410489 -0.00024525207 0.029461572
-0.002250187 0.02452392 -0.008223906 -0.028068105 -0.0065265046 0.011694533 0.0134398015 0.027437821
0.002498607 0.00065589295 -0.005121499 0.0054514483 2.2163073e-05 -0.0010758385 9.963848e-05 -0.038158014
0.032104984 0.010418358 7.254864e-05 0.014403211 -0.00070087117 0.015217982 0.037255846 -0.081366755
-0.028167333 0.016400421 -0.0005260206 0.026064126 0.031257693 -0.009248062 0.036231276 -0.016712558
0.025240751 -0.016452208 0.00010181821 -0.0005857589 0.032851733 -0.000106352396 -0.03141279 -0.0013439687
0.00036384992 -0.023092354 -0.00049830106 0.0042383107 -0.042933982 -0.026640821 -0.018280033 0.03425251
-0.025228346 0.017726975 0.027500387 0.017486403 0.02497719 0.005833135 0.027549494 -0.015835993
-0.0039161807 -0.06363476 -0.015052589 0.014473822 0.006874428 2.178261e-07 -0.06235214 0.0007793241
