estimators/knet/single_obs/p_velMSE_ep100_train4000_val1000_test10000_lr5e-04_wd1e-05_data_sr1e-01_q1e-04_r1e-02_j5_train[200,250]_val[40,250]_test[40,250].pt (torch, 474449 bytes, 123 tensors)

_initial_state f4 [4]
0.0 1.0 1.0 0.0
00000000: 0000 0000 0000 803f 0000 803f 0000 0000

_initial_covariance f4 [4, 4]
0.0 0.0 0.0 0.0 0.0 0.0 0.0 0.0
0.0 0.0 0.0 0.0 0.0 0.0 0.0 0.0
00000000: 0000 0000 0000 0000 0000 0000 0000 0000
00000010: 0000 0000 0000 0000 0000 0000 0000 0000
00000020: 0000 0000 0000 0000 0000 0000 0000 0000
00000030: 0000 0000 0000 0000 0000 0000 0000 0000

weight_ih_l0 f4 [48, 20]
0.18508118 -0.056016706 -0.12457637 0.10473806 0.2013815 -0.048552174 0.011973365 -0.025750834
-0.19012183 0.10502689 -0.070624374 -0.25013873 -0.0029820837 -0.21322764 -0.23370951 0.059624005
0.1057821 -0.15332365 0.09381918 0.027911812 0.08782905 -0.06699194 -0.21610695 0.14370345
0.10006805 -0.105619885 0.123106904 0.17091799 -0.037857927 -0.23524609 -0.046195094 -0.22992724
0.054927833 0.02453249 0.11501423 0.23755181 0.15222083 -0.047322188 -0.17431848 -0.20961833
0.22026858 0.12415873 -0.18768881 -0.1347088 -0.003832954 -0.21740279 0.010889086 0.1496457
0.0013705434 -0.06818784 0.20506087 -0.11549518 0.15932345 -0.16259804 -0.14859411 0.04972673
-0.14474767 0.030480295 -0.037771877 0.12076606 -0.16496709 0.010617804 -0.05784294 -0.17205112
0.019497992 -0.23303978 0.06405905 -0.04376247 -0.14395325 -0.08658264 0.101389535 -0.033715125
0.0020211833 0.031046966 0.22160526 -0.17525326 0.010278816 0.1791613 -0.16696498 0.19203472
0.23463272 -0.21117432 0.11516847 0.11246439 -0.06241747 -0.12863334 0.046853106 -0.017273623
0.010812927 -0.1013207 0.17618495 0.19697271 -0.09275389 0.005360259 -0.106646776 0.09227461
0.16780418 0.17840244 0.07144554 0.015255462 -0.19508071 -0.1623562 0.10069335 -0.17775153
0.0006154809 0.013625705 -0.019811815 -0.15621468 0.22149304 -0.15597779 0.1279821 0.040928353
0.0629858 -0.08773878 0.2258285 -0.059972916 -0.12493344 -0.0056637973 -0.23616454 0.2139267
0.23797345 0.12409654 0.029208116 0.086363204 0.13782816 0.0431007 0.23104116 -0.1170657
0.21126765 0.1518469 0.12856944 0.101067774 -0.18145075 -0.13331062 0.19698966 -0.10208569
0.18766314 -0.06325095 0.16574964 0.03001191 -0.11501371 0.113046706 0.016453626 0.008918588
0.17163536 0.17029645 -0.063821524 -0.04822881 0.13738914 -0.1781719 -0.06801529 0.09625668
0.039929137 -0.088372044 -0.1576236 -0.02112022 0.07311186 0.2098016 0.14434892 -0.22803801
-0.2149408 0.017324641 -0.15770873 -0.1379555 -0.16058856 0.106891945 0.16242151 0.20692058
-0.22352912 0.11769391 -0.124611326 -0.07701377 0.19349262 -0.23485114 0.2466107 0.018486356
0.14067991 -0.158174 -0.09863154 -0.14381148 -0.07922652 0.20089908 -0.05062401 0.17681725
-0.03832875 0.12312618 -0.05184309 0.13220711 -0.15562141 -0.14035037 0.030519195 0.118128404
0.19137982 -0.0640884 0.14688028 0.13288258 0.17965704 -0.10448553 -0.17766473 0.13576111
-0.18410249 -0.08225843 -0.2219452 -0.22660862 0.037376184 -0.17637664 0.18917195 0.18698902
-0.09683621 -0.22370051 0.07678239 0.23243031 0.093686156 -0.027847473 -0.18667422 -0.13946176
0.15463342 -0.051979374 0.03387919 -0.085977495 -0.23405766 0.13489337 -0.10627204 0.060837924
0.049481604 -0.107842945 -0.1874277 0.1675529 -0.09066784 0.2016933 -0.0061261505 -0.01563407
0.24022003 -0.17543635 0.24282885 -0.07256944 0.05819036 -0.066177815 -0.16801627 0.067485765
0.03925548 -0.054425906 0.23020683 0.20825262 -0.08290201 0.1358381 0.117712334 -0.12903588
-0.13439883 -0.023322314 -0.10843162 0.1319395 0.042111672 -0.11965177 -0.0055593005 -0.0053986777
00000000: ec85 3d3e c671 65bd e521 ffbd e880 d63d
00000010: f436 4e3e a5de 46bd ef2b 443c 6af3 d2bc
00000020: 4caf 42be 5718 d73d 83a3 90bd 2f12 80be
00000030: 106f 43bb 5958 5abe 8c51 6fbe 4d38 743d
00000040: 49a4 d83d e000 1dbe 4524 c03d 50a7 e43c
00000050: b8df b33d 1233 89bd 244b 5dbe ff26 133e
00000060: 7af0 cc3d 3d4f d8bd 791f fc3d 2005 2f3e
00000070: ea10 1bbd 5ae4 70be 1137 3dbd 0c72 6bbe
00000080: 02fc 603d 5cf8 c83c 958c eb3d c840 733e
00000090: c7df 1b3e e9d4 41bd 8b80 32be 30a6 56be
000000a0: 168e 613e ef46 fe3d 7f31 40be 1bf1 09be
000000b0: 4c32 7bbb d69e 5ebe 2368 323c b93c 193e
000000c0: cea3 b33a 11a6 8bbd 7afb 513e bd88 ecbd
000000d0: b025 233e 1a80 26be 0e29 18be 41ae 4b3d
000000e0: bc38 14be d0b1 f93c afb6 1abd 3254 f73d
000000f0: 22ed 28be 4cf6 2d3c b8ec 6cbd 2b2e 30be
00000100: 41ba 9f3c fba1 6ebe 6431 833d 4740 33bd
00000110: 7b68 13be 3d52 b1bd 51a5 cf3d df18 0abd
00000120: d475 043b 3556 fe3c 7dec 623e 9775 33be
00000130: 7b68 283c 0f76 373e def8 2abe c0a4 443e
00000140: 8f43 703e 153e 58be 72dd eb3d bb53 e63d
00000150: 76a9 7fbd 75b8 03be 0be9 3f3d 6a81 8dbc
00000160: b428 313c 3a81 cfbd d469 343e 37b3 493e
00000170: c0f5 bdbd 1da5 af3b a069 dabd 79fa bc3d
00000180: dcd4 2b3e 21af 363e 0a52 923d 0cf2 793c
00000190: 3dc3 47be b440 26be 5138 ce3d 7f04 36be
000001a0: 3958 213a 593e 5f3c 634c a2bc bef6 1fbe
000001b0: 12cf 623e a4b8 1fbe bd0d 033e 7da4 273d
000001c0: b3fe 803d 64b0 b3bd 963f 673e 29a6 75bd
000001d0: 1add ffbd 6097 b9bb 1ed5 71be 9a0f 5b3e
000001e0: 50af 733e 5426 fe3d dc45 ef3c 31df b03d
000001f0: d322 0d3e 5c8a 303d 0e96 6c3e 24c0 efbd
00000200: 8c56 583e c17d 1b3e b5a7 033e 9ffc ce3d
00000210: 3ace 39be 9482 08be a8b7 493e 4d12 d1bd
00000220: c42a 403e b789 81bd 46ba 293e 89db f53c
00000230: 4f8c ebbd 0885 e73d c1c9 863c 451f 123c
00000240: 2ec1 2f3e 3162 2e3e dcb4 82bd 938b 45bd
00000250: bdaf 0c3e b272 36be 9a4b 8bbd 3922 c53d
00000260: bc8c 233d 67fc b4bd 1568 21be 5004 adbc
00000270: acbb 953d 3bd6 563e 34d0 133e cc82 69be
00000280: 7119 5cbe 68ec 8d3c 667e 21be 3544 0dbe
00000290: 5471 24be 2aea da3d d351 263e fde2 533e
000002a0: d1e4 64be 8109 f13d 3934 ffbd 65b9 9dbd
000002b0: ee22 463e d17c 70be 8487 7c3e b370 973c
000002c0: 650e 103e 5df8 21be 55ff c9bd 5143 13be
000002d0: 8441 a2bd 7db8 4d3e 1f5b 4fbd 950f 353e
000002e0: 9bfe 1cbd 9429 fc3d 6c59 54bd 4d61 073e
000002f0: 385b 1fbe 02b8 0fbe 6403 fa3c 4eed f13d
00000300: 12f9 433e c740 83bd c967 163e 5f12 083e
00000310: 04f8 373e 82fc d5bd beed 35be f604 0b3e
00000320: 5d85 3cbe 1c77 a8bd 9a45 63be 170c 68be
00000330: c517 193d 149c 34be 4bb6 413e 0d7a 3f3e
00000340: 1052 c6bd bf11 65be 1640 9d3d 3602 6e3e
00000350: 87de bf3d 6220 e4bc 8727 3fbe 10cf 0ebe
00000360: 3958 1e3e 53e8 54bd e8c4 0a3d f814 b0bd
00000370: d0ac 6fbe 7d21 0a3e 28a5 d9bd 3031 793d
00000380: 39ad 4a3d c3dc dcbd 0ced 3fbe fd92 2b3e
00000390: 0fb0 b9bd b088 4e3e e0bd c8bb 0513 80bc
000003a0: 3dfc 753e 96a5 33be 20a8 783e 499f 94bd
000003b0: 0459 6e3d 3c88 87bd 750c 2cbe fa35 8a3d
000003c0: 5bca 203d b3ed 5ebd 57bb 6b3e 2d40 553e
000003d0: 87c8 a9bd 2519 0b3e 2a13 f13d fb21 04be
000003e0: d99f 09be 700e bfbc 6611 debd 261b 073e
000003f0: 4a7d 2c3d fd0b f5bd cb2a b6bb 64e7 b0bb

weight_hh_l0 f4 [48, 16]
0.005394575 -0.16135 0.0993153 -0.17377974 -0.089537546 -0.12073522 -0.09760501 0.15915172
-0.15823695 0.03332381 0.17651376 -0.1761168 0.23091525 -0.21953838 -0.109652095 0.20356004
0.11198983 -0.039327867 0.08095416 0.1432327 0.052570242 -0.097150624 0.023644973 0.20017062
-0.082789764 -0.06563411 -0.21333298 0.1407623 -0.13562259 0.042959962 0.013969448 0.14696002
0.04122877 -0.11373626 -0.038227305 0.17043659 0.09493175 -0.060063466 0.14800604 0.19583619
-0.175977 -0.14523636 -0.20800313 -0.10146897 0.025788926 0.16318972 -0.06110427 -0.22921374
0.21345441 0.15705147 0.061569497 -0.032604568 0.11293268 0.22596297 -0.13781324 0.24575026
-0.18526602 -0.2204078 -0.22978622 0.07910959 0.09856828 0.09505402 -0.14401054 0.10858402
-0.10206437 0.066208854 -0.016057907 -0.1558939 -0.015728356 -0.08780632 0.075137995 -0.19048579
0.11447457 -0.23465814 -0.008561736 -0.021364521 0.013289651 -0.010311954 -0.20331079 0.07908762
0.13306893 0.028729737 0.112110734 -0.160412 0.25396264 0.21457833 0.14017181 0.20335302
-0.23938799 -0.013811465 -0.13215777 -0.054547645 -0.14335135 -0.16988319 0.027680917 -0.13825327
0.04611878 0.1473923 -0.025035169 0.15106046 -0.01838881 -0.07906253 -0.18098542 0.07815967
0.22835727 0.25159892 0.06932674 -0.047033217 -0.10696993 -0.24238174 0.016434323 0.0013143608
-0.020413227 0.15093969 0.120176524 -0.020077942 0.21352957 0.19118792 0.062288553 0.22826809
0.16282178 -0.04008418 -0.11600069 -0.22980766 0.038753033 0.25271153 -0.22173703 -0.022270435
-0.08762703 0.24247181 0.1397162 -0.08259534 0.16353348 0.063625425 0.14009665 0.002533757
-0.14494732 -0.12252063 0.16574875 -0.18779176 -0.12782179 0.22739406 -0.06623984 0.14496954
0.040252082 -0.029293993 -0.18647312 0.17170507 0.06905692 -0.19444124 0.097948804 0.07420679
0.12451195 -0.07167695 0.07955436 0.15899496 0.16697654 -0.06736939 -0.08406449 0.064471535
-0.16455671 -0.20529395 0.11317317 -0.08397468 0.068554215 -0.2411902 0.013636794 -0.2350239
0.24655615 0.13403888 0.2392634 0.16270731 -0.00023596919 0.16384399 0.12263044 0.031282354
0.039077487 0.22352752 0.12554963 0.20725234 0.14000393 0.18187432 -0.16044064 -0.007161956
0.05419325 0.21516854 0.033527557 -0.09447697 -0.023569107 -0.06552707 -0.22143814 -0.0071376483
-0.00861997 0.1265397 0.08804048 -0.11709582 -0.20520309 -0.12488681 -0.10140801 0.1428559
-0.2017468 0.21051069 0.22761194 -0.019703519 0.04934317 0.063536055 0.1690091 -0.01814431
0.22682695 -0.046678953 -0.07525062 -0.23060443 -0.055715505 0.14158273 0.09588807 0.14608702
-0.17331515 0.19468325 0.19073361 0.08378864 0.23017432 0.18804073 0.20533422 0.12415715
0.077643745 -0.19062269 -0.22941796 0.0044564563 0.004585609 0.17605944 -0.22587582 0.0147619285
-0.2453533 0.24347033 -0.25079784 0.2553441 -0.044255648 0.15506876 0.244981 -0.13333692
0.19578502 0.2247611 -0.22465241 -0.20501621 -0.031153133 -0.0755458 -0.1583522 0.06621326
0.05623607 -0.05804367 0.026620215 -0.13031876 -0.090277284 -0.2333171 -0.21041282 -0.0821395
00000000: fac4 b03b ef38 25be d265 cb3d 51f3 31be
00000010: 765f b7bd 0744 f7bd 23e5 c7bd abf8 223e
00000020: de08 22be 8c7e 083d 06c0 343e f657 34be
00000030: 0c75 6c3e abce 60be 4791 e0bd 0b72 503e
00000040: ed5a e53d 4216 21bd 4bcb a53d 98ab 123e
00000050: e553 573d e8f6 c6bd 1ab3 c13c 87f9 4c3e
00000060: ae8d a9bd 2d6b 86bd f673 5abe fe23 103e
00000070: a6e0 0abe c9f6 2f3d 1de0 643c b07c 163e
00000080: 80df 283d 8eee e8bd 3c94 1cbd ee86 2e3e
00000090: 946b c23d 1c05 76bd e58e 173e 4889 483e
000000a0: 5133 34be d7b8 14be c6fe 54be f7ce cfbd
000000b0: 4c43 d33c 351b 273e 7948 7abd 02b7 6abe
000000c0: cb93 5a3e 1ad2 203e 4c30 7c3d 5e8c 05bd
000000d0: 4049 e73d d662 673e ea1e 0dbe f5a5 7b3e
000000e0: 60b6 3dbe 95b2 61be 144d 6bbe 3504 a23d
000000f0: 2bde c93d afab c23d 8077 13be 4c61 de3d
00000100: 2007 d1bd 8298 873d df8b 83bc a7a2 1fbe
00000110: c1d8 80bc cdd3 b3bd f3e1 993d b50e 43be
00000120: a571 ea3d 394a 70be 8646 0cbc a604 afbc
00000130: d6bc 593c 78f3 28bc b430 50be b1f8 a13d
00000140: 3943 083e a05a eb3c 509a e53d 0b43 24be
00000150: 6407 823e 6cba 5b3e 3389 0f3e c63b 503e
00000160: 2022 75be 7c49 62bc 5e54 07be 5a6d 5fbd
00000170: b2ca 12be dcf5 2dbe 17c3 e23c 4492 0dbe
00000180: 0ce7 3c3d 02ee 163e 8e16 cdbc 98af 1a3e
00000190: 21a4 96bc 89eb a1bd 3e54 39be 2d12 a03d
000001a0: 7dd6 693e 93d1 803e 2efb 8d3d e7a5 40bd
000001b0: 0d13 dbbd eb32 78be 46a1 863c a146 ac3a
000001c0: a439 a7bc ef8f 1a3e 1c1f f63d 7f7a a4bc
000001d0: 7fa7 5a3e c4c6 433e 4822 7f3d 1cbf 693e
000001e0: c1ba 263e 4f2f 24bd c591 edbd b352 6bbe
000001f0: 80bb 1e3d 6863 813e 080f 63be 7d70 b6bc
00000200: cd75 b3bd 884a 783e c311 0f3e bf27 a9bd
00000210: 5275 273e 0c4e 823d 7f75 0f3e 630d 263b
00000220: 126d 14be 19ec fabd 0aba 293e 7c4c 40be
00000230: b7e3 02be fdd9 683e c1a8 87bd e572 143e
00000240: 5edf 243d f5f9 efbc cff2 3ebe 74d3 2f3e
00000250: b76d 8d3d 9b1b 47be 6299 c83d bbf9 973d
00000260: 1f00 ff3d 5dcb 92bd 65ed a23d 93cf 223e
00000270: e6fb 2a3e f6f8 89bd 012a acbd a709 843d
00000280: 8e81 28be 9438 52be 56c7 e73d ebfa abbd
00000290: 2766 8c3d 90fa 76be dc6c 5f3c 1baa 70be
000002a0: 3779 7c3e 7d41 093e 7701 753e bf9c 263e
000002b0: 7f6e 77b9 b8c6 273e ab25 fb3d ed21 003d
000002c0: b70f 203d 66e4 643e 1590 003e f539 543e
000002d0: 315d 0f3e 433d 3a3e 8d4a 24be d7ae eabb
000002e0: bef9 5d3d 2455 5c3e 3154 093d 247d c1bd
000002f0: 0014 c1bc 0e33 86bd aec0 62be efe2 e9bb
00000300: c63a 0dbc a093 013e 914e b43d efcf efbd
00000310: c220 52be a8c4 ffbd 01af cfbd d148 123e
00000320: b796 4ebe 1d90 573e 1b13 693e 4669 a1bc
00000330: 101c 4a3d 311f 823d b910 2d3e 60a3 94bc
00000340: 5345 683e 6e32 3fbd ff1c 9abd 9123 6cbe
00000350: f135 64bd 10fb 103e f760 c43d d697 153e
00000360: 8779 31be 0c5b 473e ac4f 433e 6199 ab3d
00000370: d1b2 6b3e c08d 403e 2243 523e 1b46 fe3d
00000380: af03 9f3d 9832 43be 8bec 6abe 7707 923b
00000390: e042 963b ed48 343e fe4b 67be 04dc 713c
000003a0: e53d 7bbe 4950 793e 9368 80be 76bc 823e
000003b0: 6945 35bd 58ca 1e3e 4ddc 7a3e 7989 08be
000003c0: de7b 483e c627 663e 480b 66be c5ef 51be
000003d0: db34 ffbc c2b7 9abd 1427 22be d19a 873d
000003e0: cb57 663d 33bf 6dbd a312 da3c 4872 05be
000003f0: 4ce3 b8bd aeea 6ebe 7576 57be c138 a8bd

bias_ih_l0 f4 [48]
-0.025740592 0.20607024 -0.0024455953 0.22802423 0.22827749 -0.17750502 0.03746795 0.12654074
0.2236984 -0.013871281 0.1569053 -0.12939575 -0.05997998 0.09699216 0.20890392 0.16459022
0.042204138 -0.11009232 -0.16040576 0.09000407 -0.24960892 -0.15919986 0.19459154 -0.13665316
0.0074672997 -0.19384204 -0.2273998 -0.10205416 -0.07396367 0.15545182 0.07285256 -0.24713369
-0.24004868 0.22928771 -0.060411673 -0.11061191 0.12957595 0.09605767 -0.16036858 -0.025040498
-0.17342064 0.097874194 -0.07985309 -0.023248402 0.044458535 -0.23655252 -0.21563688 -0.19721319
00000000: efdd d2bc 1404 533e 4846 20bb 2f7f 693e
00000010: 93c1 693e e0c3 35be fe77 193d e593 013e
00000020: 3211 653e 5f44 63bc c8ab 203e 5280 04be
00000030: 91ad 75bd d3a3 c63d e9ea 553e 578a 283e
00000040: 3fde 2c3d 1578 e1bd 6841 24be 0e54 b83d
00000050: 7b99 7fbe 4a05 23be 0143 473e ceee 0bbe
00000060: 40b0 f43b 877e 46be 7edb 68be c501 d1bd
00000070: 447a 97bd c32e 1f3e b933 953d 9d10 7dbe
00000080: 52cf 75be 66ca 6a3e 3b72 77bd 7f88 e2bd
00000090: 8faf 043e e2b9 c43d a937 24be bb21 cdbc
000000a0: 2e95 31be 4472 c83d 048a a3bd 6f73 bebc
000000b0: 271a 363d d33a 72be eacf 5cbe 41f2 49be

bias_hh_l0 f4 [48]
0.14804725 0.07732785 0.11150223 -0.17822161 0.18526955 0.24543607 0.06395392 -0.079173334
-0.060261037 -0.0073613627 0.104573905 0.26077402 0.18150246 0.20662 -0.13029557 -0.027946755
0.16279542 -0.08759956 0.1716851 0.09877227 0.067537375 0.22489816 0.13604215 0.20938046
0.19522129 -0.07766435 0.03989665 -0.21672869 -0.07607079 0.030967789 -0.18364336 0.16573106
-0.050905053 -0.1856734 -0.16666472 -0.24832119 -0.22382769 -0.1497112 -0.11134962 0.20666066
-0.093191594 0.072561294 0.10377726 0.030171994 0.22867787 -0.21467298 0.036559355 -0.2386779
00000000: b399 173e 105e 9e3d 485b e43d ba7f 36be
00000010: 4db7 3d3e 9853 7b3e 46fa 823d a125 a2bd
00000020: 47d4 76bd 9637 f1bb d82a d63d 2c84 853e
00000030: c8db 393e 3194 533e 346c 05be 98f0 e4bc
00000040: d8b3 263e 6667 b3bd 38ce 2f3e 1e49 ca3d
00000050: 0951 8a3d b44b 663e a24e 0b3e d567 563e
00000060: 17e8 473e 7d0e 9fbd ab6a 233d 20ee 5dbe
00000070: 01cb 9bbd 29b0 fd3c 010d 3cbe 67b5 293e
00000080: d181 50bd 2b21 3ebe 28aa 2abe e947 7ebe
00000090: 1633 65be e54d 19be 450b e4bd da9e 533e
000000a0: 3cdb bebd 049b 943d 2c89 d43d 422b f73c
000000b0: 882a 6a3e 3cd3 5bbe 43bf 153d fb67 74be

weight_ih_l0 f4 [48, 36]
-0.103279315 -0.10035681 0.22683385 -0.15558885 0.078639105 -0.16599745 -0.08649957 0.102115504
-0.023630692 -0.13862815 0.18479063 0.008518487 -0.14914088 0.10960174 0.004714075 -0.17355068
0.12022098 0.017111799 -0.053160008 0.13174596 -0.1261423 -0.25620914 -0.08413687 -0.11795589
-0.21562155 1.2681395e-06 0.038417116 0.045977086 0.09457068 -0.033773728 -0.123015456 -0.12094122
-0.10856775 0.18733446 0.13387787 0.05473596 0.0036916002 0.16301757 -0.13017419 0.12742662
-0.10980029 0.05173298 0.15933628 -0.043009717 0.030331058 0.08090251 0.16037102 0.028716987
-0.10128891 -0.22362943 -0.12269536 -0.07775938 0.07702053 -0.18059579 -0.19432685 -4.289418e-05
0.13105036 0.04701552 0.22085798 0.15151004 -0.11927595 -0.044363014 0.110104024 0.19358934
-0.050397683 -0.041659553 0.22772822 -0.0140690245 -0.11355194 0.19594914 -0.24994826 -0.13590868
0.07915628 0.007837683 -0.031146677 0.20664795 0.24525256 0.21025124 0.23800805 0.014408839
-0.21200027 -0.16111746 0.20652346 -0.122569 0.2282671 0.19059874 0.19832668 -0.058778286
-0.039053876 -0.13535309 0.05846409 0.05532732 -0.06656941 -0.20185784 0.0038889684 0.23326471
0.21259955 0.10231398 0.030199775 0.14072442 -0.1974033 0.2378249 0.20561893 0.057508647
0.10345966 -0.024256174 -0.13995607 -0.2007908 0.08751877 0.09178952 -0.24575837 -0.1299936
-0.18981811 0.21909544 -0.098214865 -0.1898939 -0.21995293 0.22558942 0.10152361 -0.17026195
-0.0838609 -0.09855123 -0.06328566 0.04284358 0.1315044 0.027694942 0.020862315 -0.14142773
-0.053388502 -0.008327678 0.2319712 -0.24601938 -0.1399369 -0.0018183818 0.10743175 0.06747975
0.19571003 -0.038647227 -0.11096289 -0.14874882 -0.007977371 0.17298403 -0.13676614 -0.016124489
0.026364941 -0.066017255 -0.19701338 -0.20277083 0.13998537 0.1021037 -0.110452525 0.009928716
-0.16242115 -0.17156415 -0.18284395 0.18506621 0.13846165 -0.2154699 -0.19886155 -0.0027288485
0.040424913 -0.03805702 0.053447906 -0.02210364 0.028936032 0.23750153 -0.0059479456 0.09636018
0.23544529 0.19919796 0.1665 0.09876356 -0.040361404 -0.109242894 0.004461946 0.01560013
0.0005674597 0.1691757 -0.08461838 0.060073763 -0.12055871 0.040609073 0.07693928 0.042641886
0.22171234 0.034070224 0.24563794 0.15206227 -0.1556742 -0.16299504 0.24289358 -0.18754956
0.23481146 -0.23698464 0.23333679 0.13541286 0.2051774 0.16946973 -0.24494556 -0.09499578
0.14015509 -0.028220892 -0.1217646 -0.041084502 -0.004577403 0.19149922 -0.03604106 -0.03918553
0.043000564 0.23406653 -0.17173 0.04435943 0.14544457 0.02048395 -0.21659176 0.21400414
-0.20398103 0.083852604 0.22797482 -0.16757922 0.18482123 0.030827994 0.23853558 0.027866106
-0.19254306 0.050990712 -0.18931913 -0.2288856 -0.20136969 -0.21709923 -0.09779998 0.19133274
-0.23445883 -0.1963412 -0.22824167 -0.062031064 -0.07826521 0.11013809 0.099971004 0.21016598
-0.17275213 0.04242229 0.0050148503 -0.014321492 0.10218074 0.0704726 0.1334933 -0.051767334
-0.20965645 -0.002434726 -0.01668045 0.23833984 0.032529727 -0.15366428 -0.021351282 -0.09256407
00000000: 1b84 d3bd df87 cdbd 2247 683e af52 1fbe
00000010: 8a0d a13d 3cfb 29be b026 b1bd ef21 d13d
00000020: 2795 c1bc 8af4 0dbe c139 3d3e 2091 0b3c
00000030: 63b8 18be e176 e03d 8778 9a3b 45b7 31be
00000040: 6b36 f63d 0b2e 8c3c 4fbe 59bd 6ae8 063e
00000050: 722b 01be d82d 83be f44f acbd dc92 f1bd
00000060: e5cb 5cbe f134 aa35 445b 1d3d 7852 3c3d
00000070: 46ae c13d 5256 0abd 87ef fbbd 08b0 f7bd
00000080: c558 debd 9bd4 3f3e 4817 093e d032 603d
00000090: c6ee 713b 14ee 263e 624c 05be 207c 023e
000000a0: f9de e0bd f6e5 533d 0d29 233e f52a 30bd
000000b0: d778 f83c 37b0 a53d 4d38 243e e33f eb3c
000000c0: 8f70 cfbd 1dff 64be b447 fbbd 4f40 9fbd
000000d0: f1bc 9d3d 1aee 38be 9efd 46be 46e9 33b8
000000e0: 1132 063e 5993 403d 9828 623e 7325 1b3e
000000f0: f346 f4bd feb5 35bd 387e e13d 493c 463e
00000100: cd6d 4ebd 35a3 2abd 9631 693e c481 66bc
00000110: eb8d e8bd e4a6 483e 70f2 7fbe a52b 0bbe
00000120: b01c a23d a069 003c 5127 ffbc 859b 533e
00000130: 7d23 7b3e 1a4c 573e 62b8 733e 0d13 6c3c
00000140: 9916 59be fafb 24be e37a 533e 7505 fbbd
00000150: dabe 693e 512c 433e 2616 4b3e 80c1 70bd
00000160: f5f6 1fbd 009a 0abe 0b78 6f3d e69e 623d
00000170: 8b55 88bd d2b3 4ebe 10de 7e3b f2dc 6e3e
00000180: b2b3 593e fe89 d13d 8565 f73c 101a 103e
00000190: 1724 4abe 5f88 733e c58d 523e 308e 6b3d
000001a0: a9e2 d33d e2b4 c6bc a550 0fbe 1a9c 4dbe
000001b0: 0a3d b33d 25fc bb3d 15a8 7bbe 0b1d 05be
000001c0: ae5f 42be 8e5a 603e e024 c9bd 8c73 42be
000001d0: 573b 61be ea00 673e 9ceb cf3d 2659 2ebe
000001e0: 43bf abbd 3ad5 c9bd ea9b 81bd c07c 2f3d
000001f0: 17a9 063e 81e0 e23c 72e7 aa3c 6ed2 10be
00000200: e7ad 5abd d070 08bc dc89 6d3e 81ec 7bbe
00000210: 9e4b 0fbe c556 eeba 2d05 dc3d d332 8a3d
00000220: 3668 483e 8e4c 1ebd 8340 e3bd 9c51 18be
00000230: 85b3 02bc ba22 313e 6c0c 0cbe 8117 84bc
00000240: 4afb d73c 0e34 87bd e0bd 49be 28a3 4fbe
00000250: 5358 0f3e bf1b d13d ef34 e2bd 0eac 223c
00000260: bb51 26be 83ae 2fbe 723b 3bbe ff81 3d3e
00000270: e4c8 0d3e 24a4 5cbe 5da2 4bbe 7bd6 32bb
00000280: 9894 253d aee1 1bbd 31ec 5a3d b112 b5bc
00000290: 420b ed3c 9a33 733e fce6 c2bb 7c58 c53d
000002a0: 9218 713e 8dfa 4b3e fa7e 2a3e 8d44 ca3d
000002b0: 0052 25bd bdba dfbd 8435 923b b097 7f3c
000002c0: 93c1 143a 653c 2d3e 674c adbd e80f 763d
000002d0: 7ce7 f6bd b355 263d 5792 9d3d 42a9 2e3d
000002e0: 8f08 633e 388d 0b3d 8388 7b3e 36b6 1b3e
000002f0: 0f69 1fbe 2ce8 26be 18b9 783e fe0c 40be
00000300: 6a72 703e 1aac 72be d7ef 6e3e aba9 0a3e
00000310: 061a 523e 7989 2d3e 02d3 7abe 268d c2bd
00000320: d184 0f3e 802f e7bc b85f f9bd 3948 28bd
00000330: 0afe 95bb 5f18 443e ca9f 13bd 0281 20bd
00000340: 5c21 303d 23af 6f3e fdd9 2fbe 3cb2 353d
00000350: 6cef 143e f5cd a73c 3bca 5dbe e723 5b3e
00000360: 67e0 50be eaba ab3d 3b72 693e e399 2bbe
00000370: c741 3d3e fd8a fc3c ac42 743e 7647 e43c
00000380: 022a 45be a3db 503d e0dc 41be fd60 6abe
00000390: db33 4ebe 434f 5ebe 5b4b c8bd bbec 433e
000003a0: fa15 70be ab0d 49be 2fb8 69be 4914 7ebd
000003b0: 8349 a0bd 1490 e13d 99bd cc3d c035 573e
000003c0: efe5 30be ffc2 2d3d 9d53 a43b b1a4 6abc
000003d0: 2344 d13d f053 903d 78b2 083e fc09 54bd
000003e0: 2eb0 56be ed8f 1fbb 70a5 88bc 5c0f 743e
000003f0: e43d 053d 2b5a 1dbe e2e8 aebc 3b92 bdbd

weight_hh_l0 f4 [48, 16]
-0.043453798 0.0057933163 0.2306503 0.039277118 0.02165832 0.02845611 -0.0028422915 0.068829864
0.086057514 0.018305825 0.0915629 -0.20211689 0.096827894 0.21564819 -0.018544132 -0.15529019
0.12358006 -0.015696606 -0.079250775 0.114209145 -0.063753866 -0.026489032 8.677735e-05 -0.11699989
0.18837665 -0.08121978 0.1417733 -0.04544562 0.0611835 -0.010103555 0.026075047 -0.13515322
0.11034699 -0.12899458 -0.088391185 0.10245192 -0.13623011 0.16983202 -0.103766076 -0.006224534
0.03234372 0.21671858 -0.15017527 0.14708082 0.08632517 -0.18279532 0.09609106 -0.19368199
-0.030820537 -0.002417849 0.19313635 -0.00021270766 0.03307783 -0.08874574 0.035773434 0.07103364
-0.15259378 -0.15125228 0.039712545 -0.14641742 -0.1417958 0.18856736 0.08561507 -0.073109776
0.11719624 0.09998544 0.19713297 -0.085412785 -0.12366084 0.22769874 -0.0004932306 -0.06928292
-0.1807136 0.22473854 -0.09091234 0.12966831 -0.008033854 -0.1279 -0.15211865 -0.051586863
0.08717906 -0.0009565535 0.06265438 0.057813417 0.14644061 0.060220025 0.009929709 -0.01136417
0.14631642 0.21334511 0.21159849 0.08304155 0.14161271 -0.21236506 -0.017823143 0.12697798
0.1359815 -0.03224208 -0.11749848 0.15019947 1.894025e-05 -0.1656174 -0.09663399 -0.118486576
-0.15494455 0.01630663 0.24548575 0.16823554 -0.0041650506 -0.11276344 0.084253706 -0.17959815
-0.04706569 0.05461636 -0.18273689 0.05443846 0.1079584 -0.24359103 0.15692933 0.0040427726
0.22734119 0.16737978 -0.2100821 -0.24560896 -0.083853215 -0.0010236381 -0.13977998 0.12599257
-1.368595e-05 0.122953355 -0.104436636 0.041648127 -0.119660825 -0.18825789 -0.039937478 -0.17945352
0.033222176 -0.115840256 0.18363771 -0.088229224 0.14572324 0.05282126 -0.14537989 -0.018741474
-0.010524141 0.13620983 0.18816923 -1.6626615e-05 -0.1476704 0.1276089 -0.15997708 0.12173939
-0.13631496 0.13640906 0.12186598 0.207033 0.009782308 -0.16685873 -0.016018879 -0.00959187
-0.16998267 0.24376617 -0.004058522 -0.078887254 -0.17409776 -0.049509708 0.14424884 -0.19778638
-0.02482057 0.12627786 -0.13397793 -0.08087909 0.18337514 -0.10518991 -0.06649533 0.22349393
0.12490186 0.06328992 -0.0631651 -0.013859598 -0.19279455 0.12066441 -0.14814937 -0.081632026
0.0012169105 -0.2388535 -0.16139394 -0.04256074 0.0071982476 -0.0075428784 -0.051557925 -0.092614345
0.14181037 -0.0285563 -0.050355602 0.0964112 0.0002201898 -0.20130478 0.016009048 0.19918567
0.2240478 0.19624734 -0.13759245 0.13237017 -0.06001972 -0.2442264 0.0054856897 0.09518603
0.04786281 0.08225215 -0.22164993 -0.03118457 0.0013432135 -0.051448762 0.0037801762 0.039184436
0.08562488 -0.20748414 0.0024831798 -0.030738013 0.17457594 -0.04496506 -0.12444084 -0.11913972
0.098726235 -0.13376983 -0.037977938 -0.085711926 -0.16202673 -0.13820846 0.0014615656 0.05208106
0.16489103 0.1357025 0.022981817 0.13218945 1.03485545e-05 0.100707844 -0.11269628 0.13615002
-0.042054277 -0.10949595 -0.09760502 -0.025520185 0.1300457 -0.08203304 -0.13057093 0.12882482
0.11937313 0.10122759 0.030521667 0.110094115 0.11533843 -0.14615509 0.19611996 0.116098836
00000000: 9cfc 31bd dcd5 bd3b 982f 6c3e 0be1 203d
00000010: ca6c b13c ca1c e93c bd45 3abb acf6 8c3d
00000020: ec3e b03d 19f6 953c 5485 bb3d bbf7 4ebe
00000030: b44d c63d e1d2 5c3e dde9 97bc 6404 1fbe
00000040: 8b17 fd3d 2b96 80bc 3b4e a2bd 7ce6 e93d
00000050: 6391 82bd 87ff d8bc 3cfc b538 a39d efbd
00000060: cfe5 403e 8e56 a6bd 052d 113e 3025 3abd
00000070: 8d9b 7a3d 6289 25bc 569b d53c 9b65 0abe
00000080: 9afd e13d 2817 04be 7006 b5bd 50d2 d13d
00000090: e87f 0bbe 72e8 2d3e 4f83 d4bd 2df7 cbbb
000000a0: d97a 043d 7aeb 5d3e 8cc7 19be 5b9c 163e
000000b0: 40cb b03d b22e 3bbe 64cb c43d 9254 46be
000000c0: 5a7b fcbc c674 1ebb 89c5 453e 470a 5fb9
000000d0: 9e7c 073d 54c0 b5bd 2a87 123d 167a 913d
000000e0: 8b41 1cbe e1e1 1abe 9fa9 223d 73ee 15be
000000f0: eb32 11be cd17 413e f456 af3d 94ba 95bd
00000100: 9504 f03d 2bc5 cc3d 3add 493e e6ec aebd
00000110: e541 fdbd dc29 693e 254c 01ba 34e4 8dbd
00000120: fc0c 39be dc21 663e 4030 babd c5c7 043e
00000130: 6da0 03bc 38f8 02be fec4 1bbe bf4c 53bd
00000140: ef8a b23d 38c1 7aba f150 803d c3cd 6c3d
00000150: 87f4 153e 46a9 763d 38b0 223c c930 3abc
00000160: f9d3 153e 2477 5a3e 46ad 583e b011 aa3d
00000170: ec02 113e 3a76 59be d701 92bc 8406 023e
00000180: bc3e 0b3e 4510 04bd 0ba3 f0bd e4cd 193e
00000190: e1e1 9e37 9c97 29be 0be8 c5bd 17a9 f2bd
000001a0: c9a9 1ebe 7b95 853c 9e60 7b3e f045 2c3e
000001b0: fa7a 88bb 85f0 e6bd 358d ac3d 94e8 37be
000001c0: f4c7 40bd 68b5 5f3d 611f 3bbe ddfa 5e3d
000001d0: 4b19 dd3d ed6f 79be 15b2 203e 3c79 843b
000001e0: 21cc 683e 9b65 2b3e c31f 57be ea80 7bbe
000001f0: 3cbb abbd 982b 86ba 7c22 0fbe 3204 013e
00000200: b59c 65b7 f8ce fb3d e0e2 d5bd 3a97 2a3d
00000210: bc10 f5bd adc6 40be 7b95 23bd aac2 37be
00000220: fa13 083d a83d edbd 860b 3c3e 86b1 b4bd
00000230: 7938 153e 1b5b 583d 77de 14be b887 99bc
00000240: 726d 2cbc 977a 0b3e 6faf 403e 6279 8bb7
00000250: e936 17be e8ab 023e 08d1 23be 8052 f93d
00000260: 2696 0bbe d1ae 0b3e df94 f93d 7500 543e
00000270: f945 203c 04dd 2abe 063a 83bc 3827 1dbc
00000280: f00f 2ebe d79d 793e 5afd 84bb a48f a1bd
00000290: af46 32be b1ca 4abd f8b5 133e 8388 4abe
000002a0: 8254 cbbc fc4e 013e 8331 09be f0a3 a5bd
000002b0: b1c6 3b3e cf6d d7bd b42e 88bd 98db 643e
000002c0: 8ccc ff3d 259e 813d b45c 81bd 5e13 63bc
000002d0: ef6b 45be e71e f73d 78b4 17be b12e a7bd
000002e0: be80 9f3a 0396 74be 7444 25be 2c54 2ebd
000002f0: 47df eb3b 402a f7bb 672e 53bd 97ac bdbd
00000300: bd36 113e e7ee e9bc ad41 4ebd 3c73 c53d
00000310: c0e2 6639 d722 4ebe 6825 833c 54f7 4b3e
00000320: c96c 653e 10f5 483e 09e5 0cbe 0c8c 073e
00000330: 3dd7 75bd 7c16 7abe 4dc1 b33b e5f0 c23d
00000340: cb0b 443d d173 a83d 33f8 62be c976 ffbc
00000350: c40e b03a f0bb 52bd d5bc 773b dc7f 203d
00000360: 195c af3d b976 54be d8bc 223b 49ce fbbc
00000370: 09c4 323e 482d 38bd d7da febd 87ff f3bd
00000380: fb30 ca3d f5fa 08be c18e 1bbd bc89 afbd
00000390: 56ea 25be 8586 0dbe 0192 bf3a f352 553d
000003a0: 32d9 283e 99f5 0a3e 5d44 bc3c ac5c 073e
000003b0: b49e 2d37 ea3f ce3d 4fcd e6bd e96a 0b3e
000003c0: 1b41 2cbd 6a3f e0bd 24e5 c7bd b50f d1bc
000003d0: b32a 053e f000 a8bd 63b4 05be a7ea 033e
000003e0: e679 f43d 6950 cf3d 9308 fa3c 0679 e13d
000003f0: 8e36 ec3d aea9 15be acd3 483e 3ac5 ed3d

bias_ih_l0 f4 [48]
0.12650444 0.1805287 0.06943735 0.13002181 -0.086264804 0.0036348524 0.19922377 -0.04991177
0.21218723 -0.08133689 0.14005694 0.08912634 0.21852736 -0.23368882 0.022306817 0.1344165
0.23494813 -0.043172833 0.17742667 -0.08530704 0.016240612 0.14762776 -0.16299117 -0.1868659
0.056598336 0.06503639 0.18093172 -0.23625298 -0.011017825 -0.24177514 0.040748466 0.2165256
-0.06376895 -0.23986806 -0.114416614 0.053109378 0.193687 -0.046296734 -0.21037598 0.13474813
0.07844769 0.21355344 -0.10389075 0.07823806 0.24160455 0.06643168 0.10223146 -0.20492196
00000000: 618a 013e 84dc 383e 2b35 8e3d 7024 053e
00000010: 9aab b0bd b436 6e3b 5101 4c3e 4970 4cbd
00000020: 9c47 593e f593 a6bd 166b 0f3e df87 b63d
00000030: a3c5 5f3e 1f4c 6fbe c9bc b63c 7ba4 093e
00000040: 3e96 703e ffd5 30bd 56af 353e 75b5 aebd
00000050: 080b 853c bb2b 173e 28e7 26be c659 3fbe
00000060: a8d3 673d cd31 853d 2a46 393e 4dec 71be
00000070: 1c84 34bc e793 77be dde7 263d e3b8 5d3e
00000080: 4c99 82bd f99f 75be 4253 eabd 3889 593d
00000090: e355 463e a5a1 3dbd cd6c 57be 6afb 093e
000000a0: 2fa9 a03d c1ad 5a3e acc4 d4bd 473b a03d
000000b0: 2f67 773e 550d 883d ba5e d13d 10d7 51be

bias_hh_l0 f4 [48]
0.118836604 0.021890534 0.2089716 -0.013039037 0.06786406 0.046511147 -0.21122065 0.12473808
0.18581566 0.028319178 -0.22075571 0.24511643 -0.0775459 -0.21001308 0.2170825 0.068982154
0.008626883 0.027239604 -0.10510796 0.16305308 0.007243519 0.08739395 -0.030851165 -0.1515699
-0.1513501 -0.17266878 -0.05532061 0.19887932 0.14275628 0.18173815 0.114706784 0.19974664
-0.17448056 -0.15353867 0.0066622943 -0.07727646 0.21202429 -0.0010690874 0.21311238 0.2155332
-0.12262188 -0.08190119 -0.06536601 -0.18290728 -0.09821452 -0.02642951 -0.2001776 0.2014512
00000000: 9b60 f33d c753 b33c a7fc 553e afa1 55bc
00000010: 50fc 8a3d 7982 3e3d 3a4a 58be ae76 ff3d
00000020: 7646 3e3e 9ffd e73c c90d 62be cdff 7a3e
00000030: 63d0 9ebd ab0d 57be e04a 5e3e 8446 8d3d
00000040: c557 0d3c 9725 df3c d842 d7bd 63f7 263e
00000050: 0b5b ed3b 99fb b23d 95bb fcbc 2435 1bbe
00000060: 85fb 1abe 16d0 30be dd97 62bd 05a7 4b3e
00000070: b42e 123e 9119 3a3e 64eb ea3d 628a 4c3e
00000080: 08ab 32be 3e39 1dbe 604f da3b 1f43 9ebd
00000090: e51c 593e 9f20 8cba 223a 5a3e bcb4 5c3e
000000a0: 2e21 fbbd d0bb a7bd 9dde 85bd 0c4c 3bbe
000000b0: b224 c9bd b382 d8bc 5bfb 4cbe 3949 4e3e

weight_ih_l0 f4 [3, 11]
0.75474524 -0.77374697 0.04785659 0.22867294 -0.4571395 0.99977356 -0.66489667 0.20409536
-0.3111014 -0.18385422 0.32115376 0.25144464 0.48534822 0.29505578 0.034759406 -0.28868675
-0.23785882 -0.090487525 0.3548606 -0.64243823 0.51120776 -0.2677563 -0.9570582 0.16087785
0.30046666 0.60199624 -0.5552613 -0.29685444 -0.9394157 -0.18501763 0.38465554 0.3249842
-0.579559
00000000: fc36 413f 4814 46bf 4605 443d 3d29 6a3e
00000010: 300e eabe 29f1 7f3f ab36 2abf 60fe 503e
00000020: af48 9fbe 4844 3cbe 446e a43e 5abd 803e
00000030: 907f f83e 8d11 973e e15f 0e3d c0ce 93be
00000040: 4391 73be 8651 b9bd 4ab0 b53e d576 24bf
00000050: 83de 023f 5b17 89be c401 75bf 2abd 243e
00000060: c4d6 993e 6d1c 1a3f 9b25 0ebf 4efd 97be
00000070: 8c7d 70bf 4375 3dbe 92f1 c43e 5464 a63e
00000080: fb5d 14bf

weight_hh_l0 f4 [3, 1]
0.15734982 -0.2567418 -0.93969214
00000000: 5020 213e a973 83be aa8f 70bf

bias_ih_l0 f4 [3]
-0.28077814 -0.74355936 -0.4055312
00000000: 27c2 8fbe e859 3ebf c9a1 cfbe

bias_hh_l0 f4 [3]
-0.18099228 0.051060937 0.60367644
00000000: 0a56 39be 4625 513d 8a8a 1a3f

weight f4 [1, 16]
-0.09931121 -0.03072977 0.07099129 -0.0044402536 -0.16594236 0.048672285 -0.19044395 -0.11644319
0.12268213 0.15440552 -0.21418543 -0.1411263 0.15488686 0.18826595 -0.15818907 -0.22462228
00000000: ad63 cbbd 00bd fbbc e263 913d 8c7f 91bb
00000010: cbec 29be 975c 473d bd03 43be c479 eebd
00000020: c540 fb3d 7b1c 1e3e 6d53 5bbe 6a83 10be
00000030: a99a 1e3e cac8 403e 51fc 21be 6203 66be

weight f4 [680, 17]
-0.04375699 0.00020280898 0.081759006 0.1320107 0.17429301 -0.16291392 0.13456915 -0.034982946
-0.022566091 -0.039334085 0.016752327 -0.026308784 -0.10001317 0.085417315 -0.16193987 0.009538146
0.14364213 -0.16885462 -0.1468858 0.028718334 -0.12803967 -0.006297742 0.0728279 -0.007960597
0.18225493 0.07166328 8.89782e-06 0.0626601 -0.09942946 0.0073140548 -0.12302904 -0.0533896
-0.14860323 0.1542613 -0.07792643 0.0011596414 0.06949226 0.051263936 0.021119025 -0.17439473
0.020177579 0.15405528 0.14701037 0.09482612 -0.21128815 -0.1895968 0.19909593 -0.12431364
0.18350169 0.17509934 0.15802433 -0.025384473 -0.1278903 -0.16088252 0.009846139 -0.2176019
-0.13197683 -0.023885237 -0.119397685 -0.034264307 -0.20705712 0.14101423 -0.034528557 0.16623814
-0.22052199 -0.08308799 -0.100346014 0.091509566 5.951912e-06 -0.034210432 -0.014073177 -0.00034166704
0.18090835 0.06495971 -0.14760514 -0.086433314 -0.04267677 -0.19178364 -0.16471665 0.0015851653
0.18465537 0.09080694 -0.16278136 0.18086338 -2.0229883e-05 0.05495602 0.006845858 -0.02214946
-0.10996099 -3.2969588e-06 -0.07655438 -0.06680714 -0.00012501815 0.14879553 0.082334585 -0.16637416
-0.044622637 -0.00022964148 0.0061211493 0.09411222 0.12139925 -0.00013717866 -0.05595129 0.13076223
0.024826525 0.08173269 0.23955242 -0.11877407 -0.064189814 0.15225771 0.10621492 0.016498704
0.16240986 0.12907204 0.054018743 0.23756297 0.12442839 0.02991453 0.18309197 0.116620496
0.14528531 -0.08189521 -0.050542336 -0.023445392 1.8339342e-06 -0.05192893 -0.08227513 -0.110205315
0.1695826 -0.10512423 -0.10022226 -0.0072700013 -0.10991537 -0.0131167695 -0.01704919 0.0994615
0.13054621 0.06756642 -0.029761283 -0.1384476 -0.040678725 0.026040474 0.21336605 0.024046201
-0.20706284 0.066722065 -0.10358422 -0.045514625 -0.0032573554 -0.16467114 -0.13029613 0.047523048
-0.1770468 0.15313284 5.5897704e-06 -0.1889174 -0.012227009 -0.12806329 0.060402773 -0.14363475
0.005255988 -0.12689574 0.06521783 -0.13761088 -0.061909225 0.14546128 0.0001848113 -0.083847545
-0.1303012 -0.11008712 -0.019094044 -0.22732149 -0.23659444 -0.07563496 0.123943396 0.1902933
0.14314921 -0.17953429 0.14264862 0.21915637 0.22769828 -0.017077852 -0.1607606 0.21433507
-0.030271517 -0.069842994 -0.24398574 -0.23185371 0.19022784 -0.13223979 -0.21223567 -0.0055571585
-0.18290453 0.22290953 0.15986061 0.069344416 0.1168373 0.18445009 -0.16055472 0.10869774
-0.028582353 0.20296964 0.2183654 -0.0044670585 -0.23224385 0.109561644 -0.07349833 -0.0947186
-0.088077195 -0.096513085 -0.12534659 0.09370078 -0.22528237 0.109548755 -0.085590065 0.18982074
-0.18844125 -0.14303343 0.21495551 0.068279445 -0.16066492 -0.039002743 -0.1803356 0.0941967
-0.016709557 0.0043538287 -0.052421097 5.0878323e-05 0.034309305 0.073948994 0.026494304 -0.16674967
-0.040898547 0.06841024 0.19308197 -0.14747943 -0.19389084 0.10837814 -0.07738691 0.159204
0.23952276 0.21448381 0.14928058 0.10436923 0.005765312 0.09499944 0.0871064 -0.047748245
0.15590818 0.20768099 0.16026828 -0.16875169 0.07924456 -0.16181636 -0.19289416 -1.7230894e-06
00000000: 883a 33bd 1fa9 5439 4471 a73d d02d 073e
00000010: de79 323e e8d2 26be 7fcc 093e 474a 0fbd
00000020: 86dc b8bc c71c 21bd 2d3c 893c 8585 d7bc
00000030: b4d3 ccbd 46ef ae3d 91d3 25be e245 1c3c
00000040: ec16 133e 3ae8 2cbe 3b69 16be b642 eb3c
00000050: d51c 03be 4a5d cebb cb26 953d 2a6d 02bc
00000060: 09a1 3a3e 33c4 923d d947 1537 f053 803d
00000070: aca1 cbbd bdaa ef3b a6f6 fbbd 0eaf 5abd
00000080: 722b 18be adf6 1d3e e497 9fbd 1cff 973a
00000090: f551 8e3d 22fa 513d ce01 ad3c 8894 32be
000000a0: 734b a53c abc0 1d3e e389 163e 3234 c23d
000000b0: ec5b 58be aa25 42be cedf 4b3e 2698 febd
000000c0: dee7 3b3e 3e4d 333e 21d1 213e 19f3 cfbc
000000d0: adf5 02be 63be 24be b351 213c 08d3 5ebe
000000e0: ef24 07be f9aa c3bc c686 f4bd bb58 0cbd
000000f0: c806 54be 0966 103e d16d 0dbd 553a 2a3e
00000100: 84d0 61be 092a aabd 3682 cdbd 5e69 bb3d
00000110: 89b6 c736 3d20 0cbd 2f93 66bc c621 b3b9
00000120: 0a40 393e 9909 853d cd25 17be f303 b1bd
00000130: d6cd 2ebd ee62 44be 7bab 28be 52c5 cf3a
00000140: 4c16 3d3e fdf8 b93d 28b0 26be 4034 393e
00000150: 58b3 a9b7 9019 613d 3853 e03b c972 b5bc
00000160: 3a33 e1bd 5241 5db6 8bc8 9cbd 2fd2 88bd
00000170: 4e17 03b9 db5d 183e 099f a83d fd5d 2abe
00000180: 3ac6 36bd eacb 70b9 ec93 c83b e8bd c03d
00000190: 2ca0 f83d 9ed7 0fb9 2e2d 65bd 89e6 053e
000001a0: ff60 cb3c 7863 a73d 3b4d 753e d23f f3bd
000001b0: f375 83bd 72e9 1b3e 3587 d93d 4a28 873c
000001c0: c54e 263e 762b 043e c242 5d3d b543 733e
000001d0: 50d4 fe3d 510f f53c 767c 3b3e bad6 ee3d
000001e0: acc5 143e adb8 a7bd 7b05 4fbd 8d10 c0bc
000001f0: 8025 f635 6eb3 54bd dd7f a8bd 53b3 e1bd
00000200: 10a7 2d3e 5f4b d7bd 5441 cdbd 3139 eebb
00000210: 4f1b e1bd b8e7 56bc beaa 8bbc 79b2 cb3d
00000220: e8ad 053e 4360 8a3d efcd f3bc 35c5 0dbe
00000230: bc9e 26bd d552 d53c a17c 5a3e 8afc c43c
00000240: 4808 54be 94a5 883d f723 d4bd 8b6d 3abd
00000250: 5b79 55bb 8d9f 28be 596c 05be 87a7 423d
00000260: c24b 35be dbce 1c3e c38f bb36 9073 41be
00000270: cb53 48bc 0623 03be e668 773d fd14 13be
00000280: 6c3a ac3b f5f0 01be ed90 853d dee9 0cbe
00000290: 8794 7dbd cdf3 143e e8c9 4139 43b8 abbd
000002a0: ae6d 05be 5b75 e1bd 1d6b 9cbc f7c6 68be
000002b0: d045 72be 80e6 9abd 09d6 fd3d 3fdc 423e
000002c0: b595 123e d6d7 37be 7b12 123e 876a 603e
000002d0: bd29 693e dae6 8bbc 6d9e 24be a77a 5b3e
000002e0: f9fb f7bc d809 8fbd 66d7 79be 0f6b 6dbe
000002f0: 16cb 423e de69 07be 4f54 59be d318 b6bb
00000300: 534b 3bbe 6542 643e 80b2 233e 7204 8e3d
00000310: 6548 ef3d 7ce0 3c3e 7568 24be ec9c de3d
00000320: 8a25 eabc 46d7 4f3e 2e9b 5f3e 6760 92bb
00000330: 55d1 6dbe db61 e03d 4b86 96bd d3fb c1bd
00000340: d161 b4bd a7a8 c5bd db5a 00be 32e6 bf3d
00000350: 6cb0 66be 195b e03d d849 afbd 5e60 423e
00000360: bef6 40be 5b77 12be 4c1d 5c3e 18d6 8b3d
00000370: 5885 24be 57c1 1fbd e5a9 38be 33ea c03d
00000380: 7be2 88bc 90aa 8e3b 81b7 56bd 2f66 5538
00000390: ea87 0c3d 9272 973d 950a d93c 6dc0 2abe
000003a0: 3c85 27bd ab1a 8c3d 48b7 453e d904 17be
000003b0: 528b 46be 5cf5 dd3d 077d 9ebd 6006 233e
000003c0: 7445 753e a5a1 5b3e 02dd 183e 89bf d53d
000003d0: f1ea bc3b 118f c23d d764 b23d aa93 43bd
000003e0: 65a6 1f3e 53aa 543e 5e1d 243e 3ecd 2cbe
000003f0: f94a a23d 30b3 25be 0c86 45be e744 e7b5

bias f4 [680]
-0.15267172 -0.18939541 -0.060400974 0.039630253 -0.12660854 -0.05838948 0.1540262 -3.1045598e-05
0.019495996 -0.14394665 0.033401027 -0.11824144 0.16909076 -0.0051571038 -0.0035589891 -0.13713685
-0.22215468 -0.18578991 -0.19282208 -0.12757015 0.09361955 -0.14312781 -0.124421485 -0.0003155422
-0.019255651 -0.13788049 -0.07593602 -0.11893628 0.20395406 0.1481182 -0.17334493 -0.094297186
-0.014075162 -0.032269243 0.10249993 0.0036360107 -0.12459049 0.094438 0.18315712 0.16950987
-0.043579888 -0.13160416 0.116952576 -0.10286782 0.019777393 0.10204982 -0.10641161 0.015862664
-0.10384788 0.08209003 0.010355772 -0.1802222 0.050431482 0.20487556 -0.13588932 0.11721439
0.027127346 0.018376552 -0.16197763 0.09702635 -0.09137013 0.16867529 0.13058802 0.23798424
-0.16960539 -0.07298652 0.09997591 0.17898966 -0.08971793 0.23292956 0.14346647 -0.004091848
-0.1849432 0.13808118 0.13386096 -0.0222079 0.10261997 -0.09057121 0.13301466 0.12318154
-0.019952849 -0.12906349 0.23246586 -0.09532013 -0.07914254 0.20931374 -0.18268739 0.097677596
0.076222345 -0.12755772 -0.0979645 -0.19229321 -0.0067757918 -0.13955355 0.21604528 -0.03296567
-0.03601524 -0.08778948 -0.11658063 0.22085166 0.1001133 0.061382346 0.100402854 0.12953405
0.15138865 -0.091571376 -0.06883363 0.21976039 -0.1606281 0.22290045 -0.018424734 0.046443768
-0.010643905 0.23015878 0.0576165 -0.10986649 0.17344233 0.14862049 0.14027245 0.08033881
0.11096983 0.22164878 -0.057380617 0.013168244 -0.024330651 0.21517938 -0.15914057 -0.03735095
0.053314835 -0.03941117 0.20321305 -0.037681717 -0.12714693 -9.028689e-08 -0.09297405 -0.15383673
-0.13384613 0.13742837 -0.025889913 0.1172517 0.067227505 -0.15783189 0.13435608 -0.1317065
0.05331678 -0.013950348 -0.0473679 0.204369 -0.19478884 0.016767118 -0.17679837 0.054073345
-0.053728685 0.14637356 -0.087779164 -0.05457024 0.10087244 0.10116729 -0.075724855 0.12768927
-0.16786206 -0.1731272 -0.09022776 0.23043951 0.12275971 -0.06457638 0.0023476155 -0.021519512
0.1695123 0.08819988 0.11568938 0.05994686 -0.1317973 -0.17972934 0.22860655 0.15652752
-0.18114717 0.18236305 -0.13018432 -0.24057382 0.14567262 0.20679098 0.08213298 -0.07918383
0.078057565 -0.18507946 0.20219521 -0.0025348277 -0.043470614 -0.044397447 0.113200136 0.07148819
0.08249654 -0.034346838 -0.15235455 0.20358533 -0.0069978815 -1.3493495e-05 -0.055446994 0.16836153
-0.12120953 0.13075736 -0.17972946 0.021716183 0.17947842 -0.060444005 -0.09998707 0.0005212826
0.017144274 0.051112816 -0.11331031 0.027399248 0.12104638 0.23320019 0.20214994 -0.16751708
0.00093600625 -0.1761387 0.11518674 0.17558143 -0.040533923 -0.14355151 0.13870227 0.050138175
-0.15647174 0.22224347 -0.013230665 -0.14641567 -0.03853957 0.06692032 -0.100677185 -0.14844708
-0.011769345 -0.04242667 0.1187072 -0.16063674 0.17980123 -0.06419107 -0.061499927 -0.15639898
-0.1172469 -0.007304975 0.16363454 -0.038230136 0.024838975 -0.18084814 0.09352151 0.12876496
0.181823 0.19308403 -0.11622025 -0.0004012899 -0.008934338 0.051009465 0.1514127 0.02049137
00000000: fa55 1cbe dff0 41be 0367 77bd 5553 223d
00000010: aba5 01be cf29 6fbd 0bb9 1d3e f536 02b8
00000020: 11b6 9f3c c066 13be 84cf 083d 9128 f2bd
00000030: 2126 2d3e ecfc a8bb ee3d 69bb 9a6d 0cbe
00000040: 847c 63be b63f 3ebe 2773 45be c0a1 02be
00000050: 9bbb bf3d 1990 12be b1d0 febd 5b6f a5b9
00000060: 07be 9dbc 8b30 0dbe 5884 9bbd dd94 f3bd
00000070: 55d9 503e 4cac 173e 5581 31be e21e c1bd
00000080: 829b 66bc c12c 04bd 7ceb d13d 234a 6e3b
00000090: 4c29 ffbd b668 c13d 8a8d 3b3e ff93 2d3e
000000a0: d380 32bd 3ec3 06be d584 ef3d 5dac d2bd
000000b0: 3304 a23c 7fff d03d 55ee d9bd 6bf2 813c
000000c0: 33ae d4bd d11e a83d 42ab 293c 2b8c 38be
000000d0: 3e91 4e3d e6ca 513e 9226 0bbe 190e f03d
000000e0: 2b3a de3c 6c8a 963c 77dd 25be c0b5 c63d
000000f0: 4320 bbbd 37b9 2c3e deb8 053e 24b2 733e
00000100: 09ad 2dbe f579 95bd 2bc0 cc3d 1149 373e
00000110: 09be b7bd 1685 6e3e e0e8 123e e914 86bb
00000120: c061 3dbe 2765 0d3e d912 093e 58ed b5bc
00000130: 6b2a d23d 667d b9bd ff34 083e 9a46 fc3d
00000140: 2874 a3bc 3829 04be 880b 6e3e 3337 c3bd
00000150: 7c15 a2bd 5756 563e 6712 3bbe 310b c83d
00000160: 761a 9c3d 7e9e 02be 9da1 c8bd 83e8 44be
00000170: 7607 debb 20e7 0ebe f93a 5d3e 0307 07bd
00000180: b784 13bd f9ca b3bd d3c1 eebd f026 623e
00000190: 3408 cd3d 0e6c 7b3d 03a0 cd3d 93a4 043e
000001a0: a005 1b3e c689 bbbd a5f8 8cbd de08 613e
000001b0: b17b 24be 0440 643e 78ef 96bc d23b 3e3d
000001c0: c663 2ebc beae 6b3e 47ff 6b3d af01 e1bd
000001d0: de9a 313e f82f 183e 95a3 0f3e ad88 a43d
000001e0: 2644 e33d e6f7 623e f007 6bbd 9ebf 573c
000001f0: 1351 c7bc fc57 5c3e bff5 22be 4ffd 18bd
00000200: a860 5a3d 9b6d 21bd 1517 503e 2558 1abd
00000210: ce32 02be bee3 c1b3 2e69 bebd 6087 1dbe
00000220: f60e 09be 06ba 0c3e 1517 d4bc a921 f03d
00000230: 93ae 893d af9e 21be a494 093e 12de 06be
00000240: b262 5a3d 0090 64bc d804 42bd 1b46 513e
00000250: ba76 47be 325b 893c a20a 35be 037c 5d3d
00000260: 9c12 5cbd f3e2 153e 90c5 b3bd 0b85 5fbd
00000270: 3696 ce3d cc30 cf3d a215 9bbd fac0 023e
00000280: 08e4 2bbe 4248 31be 55c9 b8bd 56f8 6b3e
00000290: 7169 fb3d 9f40 84bd 74da 193b b049 b0bc
000002a0: a294 2d3e 24a2 b43d 8eee ec3d d78a 753d
000002b0: dff5 06be f80a 38be d617 6a3e c048 203e
000002c0: a57e 39be 61bd 3a3e 0a4f 05be fc58 76be
000002d0: 342b 153e 04c1 533e 5635 a83d 222b a2bd
000002e0: a5dc 9f3d 7885 3dbe 430c 4f3e 5a1f 26bb
000002f0: 3e0e 32bd 19da 35bd 79d5 e73d 6668 923d
00000300: f2f3 a83d 45af 0cbd d502 1cbe ac78 503e
00000310: 7c4e e5bb 1f62 62b7 631c 63bd f766 2c3e
00000320: b43c f8bd 42e5 053e 000b 38be 23e6 b13c
00000330: 31c9 373e 2294 77bd 05c6 ccbd afa6 083a
00000340: 2672 8c3c ac5b 513d 3c0f e8bd 6374 e03c
00000350: 2ae7 f73d 08cc 6e3e 6500 4f3e 9989 2bbe
00000360: 515e 753a b45d 34be 07e7 eb3d 9ecb 333e
00000370: e606 26bd 2bff 12be f807 0e3e b05d 4d3d
00000380: 213a 20be cb93 633e 6ec5 58bc fded 15be
00000390: abdb 1dbd 850d 893d d72f cebd 8302 18be
000003a0: 36d4 40bc 97c7 2dbd c31c f33d f57d 24be
000003b0: d01d 383e 9c76 83bd 59e7 7bbd 0e27 20be
000003c0: 251f f0bd 925e efbb d08f 273e 3497 1cbd
000003d0: 1b7b cb3c 4130 39be 3588 bf3d f6da 033e
000003e0: cf2f 3a3e d2b7 453e e204 eebd 3864 d2b9
000003f0: 5461 12bc 4def 503d ee0b 1b3e 85dd a73c
