estimators/knet/single_obs/p_velMSE_ep100_train4000_val1000_test10000_lr1e-03_wd1e-06_data_sr1e-01_q1e-04_r1e+00_j5_train[500,100]_val[100,100]_test[100,100].pt (torch, 471463 bytes, 121 tensors)

weight_ih_l0 f4 [48, 20]
0	0x3e056f37	0.13030706
1	0x3df49f90	0.11944497
2	0xbe4d627d	-0.20057102
3	0x3e075648	0.13216507
4	0xbe2f592b	-0.17123859
5	0xbe31096f	-0.17288755
6	0xbe7e81ed	-0.2485425
7	0xbe6f74fb	-0.23384468
8	0x3e35fea8	0.17772925
9	0xbdae98de	-0.08525251
10	0x3e598033	0.2124031
11	0xbd8b847a	-0.06812377
12	0xbe6a9e21	-0.22911884
13	0x3e5047a5	0.2033983
14	0x3d17b2c1	0.037035707
15	0x3e31f65d	0.17379136
16	0x3daa80d2	0.08325352
17	0x3e1ea3b3	0.15492134
18	0xbcd3cac7	-0.025853528
19	0x3c01fc25	0.007933651
20	0xbcd55a31	-0.026043983
21	0xbe5d4def	-0.2161176
22	0xbced51c5	-0.028969655
23	0x3e4e07b1	0.20120122
24	0x3e0b58aa	0.13608041
25	0x39b26234	0.00034023973
26	0x3e48aeb7	0.19597898
27	0x3cd359bf	0.02579963
28	0x3e5fbb87	0.2184888
29	0x3e5d3a23	0.21604209
30	0x3e2d17a3	0.16903548
31	0x3da5022b	0.08057054
32	0x3e107f8a	0.14111152
33	0xbc8f4a9f	-0.017491637
34	0x3da1dc14	0.07903305
35	0x3bd43d45	0.0064770305
36	0x3d2f51a8	0.042802483
37	0xbdb8c6fd	-0.09022329
38	0xbe0d04f1	-0.13771416
39	0xbe488c93	-0.19584875
40	0xbe483570	-0.19551635
41	0x3e47f9f6	0.19528946
42	0xbcf426f4	-0.02980373
43	0x3e00b63a	0.12569514
44	0x3e06d0f6	0.1316565
45	0x3dc60d8e	0.09670554
46	0x3d97f295	0.07419316
47	0x3e2eed7f	0.17082785
48	0xbd1c0ea7	-0.03809991
49	0x3e62161e	0.2207875
50	0x3cf02132	0.029312704
51	0xbdcb940b	-0.09940346
52	0x3d975bfb	0.07390591
53	0x3e592ebd	0.21209235
54	0xbd588f02	-0.052870758
55	0xbdeea2d5	-0.116521515
56	0x3e25a6b3	0.16176872
57	0x3e61d7c7	0.22054969
58	0x3e45825f	0.19288014
59	0x3b8ca01e	0.0042915484
60	0x3e75ee26	0.24016628
61	0x3e1f0cf8	0.15532291
62	0x3e356b40	0.17716694
63	0x3c54c553	0.012986499
64	0x3e3721cd	0.17883988
65	0xbdaa2ba0	-0.08309102
66	0xbe082fe4	-0.13299519
67	0x3e88d38d	0.267239
68	0x3dba25f7	0.090892725
69	0x3e4992b3	0.19684868
70	0xbe2aa765	-0.16665418
71	0x3e201047	0.1563121
72	0xbcc0b225	-0.023522446
73	0x3e801b88	0.25021005
74	0x3debcf2b	0.115141235
75	0xbe5d9d67	-0.21642075
76	0xbe2bbb6e	-0.16770718
77	0xbe592390	-0.21204972
78	0xbd63784c	-0.055534646
79	0xbd6b8532	-0.05750007
80	0x3d5cc899	0.053902242
81	0x3d02cd39	0.031933997
82	0xbe4f92aa	-0.20270792
83	0x3da0b44a	0.078468874
84	0xbda95064	-0.082672864
85	0x3db379c0	0.08763456
86	0x3e12952e	0.1431472
87	0x3b1b0776	0.002365557
88	0x3e4df0f8	0.20111454
89	0x3e7101e7	0.23535882
90	0xbe54b2a0	-0.20771265
91	0x3e4d1250	0.20026517
92	0x3d38510a	0.04499916
93	0x3e1d1c25	0.15342768
94	0xbe5ec105	-0.21753319
95	0xbd077452	-0.033069916
96	0x3ac6d05f	0.0015168301
97	0xbe358e6d	-0.17730112
98	0x3dcb4993	0.099261425
99	0xbdc23d06	-0.094842955
100	0x3c8495ef	0.016184775
101	0xbe7d97cb	-0.24764936
102	0x3e55743a	0.20845118
103	0x3e0486b7	0.12942015
104	0x3e048edf	0.12945126
105	0x3c9734d5	0.01845781
106	0x3dbf5dfb	0.09344097
107	0xbded85b2	-0.11597766
108	0x3e220bce	0.15824816
109	0x3e48b8f5	0.19601806
110	0xbe300b02	-0.17191699
111	0x3e71332f	0.23554681
112	0x3db2be24	0.08727673
113	0xbe3f4e73	-0.1868227
114	0xbdbb7bfd	-0.09154508
115	0x3dd478be	0.10374592
116	0x3add30e6	0.0016875535
117	0x3d54233f	0.051791426
118	0x3c8b7bb3	0.017026758
119	0xbe4ee563	-0.20204692
120	0x3e55e326	0.20887432
121	0xbe711396	-0.23542628
122	0xbe6b1174	-0.22955877
123	0xbe088af2	-0.13334253
124	0xbe446903	-0.19180684
125	0x3de7bb06	0.11314969
126	0x3d6a2733	0.05716629
127	0x3d6a330a	0.05717758
128	0xbe5c380f	-0.2150576
129	0xbe277fcb	-0.16357343
130	0x3e5ad476	0.2137011
131	0xbd37c83c	-0.044868693
132	0xbe1a7c31	-0.15086438
133	0xbc3839a7	-0.011244214
134	0x3e841593	0.2579771
135	0xbe6d28b8	-0.23160064
136	0xbd3048ed	-0.043038297
137	0xbe62b376	-0.22138771
138	0x3e277517	0.1635326
139	0xbe2572a4	-0.16157013
140	0xbe744bd3	-0.2385705
141	0xbdc1b4c2	-0.09458305
142	0x3e0e3632	0.13887861
143	0xbe433813	-0.1906436
144	0x3e04989f	0.12948845
145	0x3d5524d5	0.05203708
146	0xbe6ed985	-0.23325165
147	0xbe3ecd0e	-0.1863291
148	0xbe2da28a	-0.16956535
149	0xbe3c72ec	-0.18403214
150	0x3e544264	0.20728451
151	0xbe77205f	-0.24133442
152	0xbe0f1a27	-0.1397482
153	0xbe408667	-0.1880127
154	0xbdf52041	-0.119690426
155	0x3d0a1bbd	0.03371786
156	0x3db33370	0.08750045
157	0x3e297981	0.16550256
158	0xbdc3e48c	-0.09565076
159	0x3d1fb0d7	0.038987007
160	0x3d973d29	0.07384712
161	0xbdb4d4a0	-0.088296175
162	0xbde86f2c	-0.11349329
163	0xbe22099d	-0.1582398
164	0x3c07248a	0.008248458
165	0xbe15f8f0	-0.14645743
166	0xbdd25b01	-0.10271264
167	0x3e0fe2ba	0.14051333
168	0x3e4ee8ef	0.20206045
169	0xbe4ec419	-0.20191993
170	0xbe406500	-0.18788528
171	0xbe09f166	-0.13470992
172	0x3dc4689a	0.09590264
173	0xbc62aa37	-0.013834528
174	0x3dd25f1a	0.102720454
175	0xbe1599ca	-0.14609447
176	0xb8e5eb42	-0.00010963391
177	0x3e3cad59	0.18425502
178	0xbd33828e	-0.04382568
179	0xbe4fd6e5	-0.2029682
180	0xbd53b740	-0.051688433
181	0xbe65c2f3	-0.22437648
182	0x3d6d1b63	0.057887446
183	0x3dfb6b88	0.12276369
184	0xbe4cab78	-0.19987285
185	0xbc444728	-0.011979856
186	0xbe4754bb	-0.19465916
187	0xbdafeb5e	-0.085898146
188	0xbe5750e9	-0.21026959
189	0x3db2c84b	0.08729609
190	0x3e7e001a	0.24804726
191	0x3e01128a	0.12604728
192	0x3df19289	0.117955275
193	0x3de570bf	0.11203145
194	0xbaa8c8f5	-0.0012877273
195	0xbe0d74e3	-0.1381412
196	0xbe194601	-0.1496811
197	0x3e0652a4	0.13117462
198	0x3e7625f3	0.24037914
199	0xbe376f2d	-0.17913504
200	0x3e2bd1e1	0.16779281
201	0xbe347932	-0.17624357
202	0xbe6d7a4a	-0.23191181
203	0xbe66d2c1	-0.22541334
204	0x3cb5a90c	0.022175334
205	0xbe15362b	-0.14571445
206	0x3d20b558	0.039235443
207	0x3e5d0f98	0.2158798
208	0x3ab794d5	0.0014006147
209	0x3e0cc81c	0.1374821
210	0xbe302091	-0.17199923
211	0x3df76fdc	0.12081882
212	0x3e0e2688	0.13881886
213	0xbe19a12c	-0.15002888
214	0xbe75195d	-0.23935457
215	0xbe4c6cfc	-0.19963449
216	0xbd6dacbb	-0.058026057
217	0x3e5d7e1e	0.21630141
218	0xbe48a711	-0.19594981
219	0xbe8476ef	-0.2587199
220	0x3e816766	0.252742
221	0xbd75efef	-0.06004327
222	0xbdd5b863	-0.104355596
223	0xbe1e2af9	-0.1544608
224	0xbe0fc667	-0.14040528
225	0xbd1e1553	-0.038594555
226	0x3d4d5cfe	0.050137512
227	0x3e0835b5	0.13301738
228	0xbe1e1cb7	-0.15440641
229	0xbe3a4883	-0.18191724
230	0xbcd2de3e	-0.025740739
231	0xbe787c9b	-0.24266283
232	0x3e3897e5	0.18026693
233	0x3e57026c	0.20997018
234	0xbc616a6f	-0.013758286
235	0x3df5f245	0.120091
236	0x39b8b69c	0.0003523127
237	0x3d69578b	0.056968253
238	0xbd9ac026	-0.07556181
239	0x3d985987	0.07438951
240	0x3e0b8611	0.13625361
241	0xbe6fcfea	-0.23419157
242	0xbe1d93f1	-0.15388466
243	0xbe5cb4cf	-0.21553348
244	0x3e263ecf	0.16234897
245	0x3ca599f8	0.02021502
246	0xbe5976ea	-0.21236768
247	0xbe71e176	-0.23621163
248	0xbdee53e4	-0.116370946
249	0x3e6a22c4	0.22864825
250	0x3c4792bc	0.01218098
251	0x383d956a	4.5200264e-05
252	0xbe7bbbea	-0.24583402
253	0xbe1bdc96	-0.15220866
254	0x3e775682	0.24154094
255	0xbe24a733	-0.16079406

weight_hh_l0 f4 [48, 16]
0	0x3dd6f626	0.10496168
1	0xbe117ed8	-0.14208543
2	0xbcb4a744	-0.022052415
3	0x3de321d3	0.11090436
4	0xbe1816f4	-0.14852506
5	0xbe48c5ae	-0.19606659
6	0xbe01fbf1	-0.12693764
7	0x3e57b072	0.21063402
8	0x3e02739b	0.12739412
9	0x3e18f05d	0.14935441
10	0xbddc3a90	-0.107533574
11	0x3e1a9d1b	0.15098993
12	0xbdc7f69f	-0.09763836
13	0xbe08d2ca	-0.1336166
14	0x3de07123	0.10959079
15	0xbe329153	-0.1743825
16	0xbe2637bb	-0.16232197
17	0xbbbe6854	-0.0058107767
18	0x3da5fe56	0.08105151
19	0xbdea62fc	-0.11444661
20	0x3da0cc35	0.078514494
21	0x3e002137	0.1251267
22	0xbe4154a7	-0.18879949
23	0x392eea40	0.00016681198
24	0x3cffb367	0.031213475
25	0x3d68b488	0.056812793
26	0x3df7ef16	0.12106149
27	0x3e477097	0.19476543
28	0x3e5ba2a9	0.21448769
29	0x3d937036	0.07199137
30	0x3e31f064	0.17376858
31	0x3d98e3b3	0.07465305
32	0x3e4e9772	0.2017496
33	0x3e506729	0.20351852
34	0x3d156eba	0.03648255
35	0xbafbc8b0	-0.001920959
36	0xbe3b70df	-0.18304776
37	0x3dd672b0	0.10471094
38	0xbe3370ac	-0.1752345
39	0x3cf64b28	0.030065134
40	0x3e79341a	0.24336281
41	0x3c57ecef	0.013179048
42	0x3e50b424	0.20381218
43	0xbe761535	-0.24031527
44	0x3e3e1984	0.18564421
45	0x3e13b563	0.14424662
46	0xbe1b6927	-0.15176831
47	0xbe55fca8	-0.20897162
48	0xbe0d39c5	-0.13791569
49	0x3e38c40c	0.18043536
50	0x3e1b1532	0.15144804
51	0xbdfb49c2	-0.122699276
52	0xbccf2f9f	-0.025291262
53	0x3dd85838	0.105637014
54	0xbde0af66	-0.109709546
55	0xbd29d71c	-0.04146491
56	0x3e73a357	0.23792778
57	0xbe6df021	-0.23236133
58	0x3d90cfcd	0.07070885
59	0xbe077cdf	-0.13231228
60	0xbd34b1a0	-0.04411471
61	0xbd3ed231	-0.046587173
62	0xbe725f12	-0.23669079
63	0xbd0c61f8	-0.034273118
64	0x3d98dc39	0.07463879
65	0xbe62c516	-0.22145495
66	0x3e47e3e0	0.19520521
67	0x3e2fb3e6	0.1715847
68	0x3d4a1d4b	0.049344342
69	0xbd69935d	-0.057025302
70	0xbdf156f7	-0.11784165
71	0xbde50b18	-0.111837566
72	0x3db53e40	0.08849764
73	0x3d950d0d	0.0727788
74	0xbe039d14	-0.1285289
75	0x3e46a805	0.19400032
76	0xbe69f388	-0.22846806
77	0x3d1fe243	0.03903414
78	0xbe148e69	-0.1450745
79	0xbdc09703	-0.09403803
80	0x3e4961d5	0.19666226
81	0xbe74ac56	-0.23893866
82	0x3e330ddc	0.17485756
83	0x3df59957	0.11992138
84	0xbe7bf55a	-0.24605313
85	0x3e54c868	0.20779574
86	0xbd22d064	-0.039749518
87	0xbe327e0b	-0.17430894
88	0xbdb39217	-0.08768099
89	0x3de5124d	0.11185131
90	0xbcf787ec	-0.03021618
91	0x3e3ec364	0.18629223
92	0x3df3d621	0.11906076
93	0x3e5f2dfc	0.21794885
94	0x3e371f08	0.17882931
95	0x3d2dc54b	0.04242448
96	0xbe417368	-0.1889168
97	0x3e2f7040	0.17132664
98	0xbb8a4f54	-0.0042208824
99	0xbd66060f	-0.05615812
100	0x3e0c6887	0.13711749
101	0x3e29de9c	0.16588825
102	0x3c6963b2	0.014244961
103	0x3d2d7a82	0.04235316
104	0xbdeb5981	-0.11491681
105	0xbe133ea9	-0.14379372
106	0x3e81f21b	0.25380024
107	0x3dfa0477	0.12207883
108	0x3e14f4c5	0.14546497
109	0x3cba473a	0.022739042
110	0x3e6315bf	0.22176264
111	0x3e2ed936	0.17075047
112	0x3cd067e9	0.025440173
113	0x3b822a88	0.0039723553
114	0xbd991bf4	-0.07476035
115	0x3d33c9f1	0.04389376
116	0x3e7a9dd7	0.24474274
117	0xbe536436	-0.20643696
118	0xbe3cc4d7	-0.18434463
119	0xbe0b7dbf	-0.13622187
120	0x3c81c560	0.015841186
121	0xbc949782	-0.01813865
122	0x3e096ef4	0.13421232
123	0x3e12bc4e	0.14329645
124	0x3ce9805c	0.02850359
125	0xbb8bd652	-0.0042674923
126	0xbd8aa737	-0.06770175
127	0x3e62a4d5	0.22133191
128	0x3de045d9	0.109508224
129	0x3e5d6c2b	0.21623294
130	0xbe0538f6	-0.1301001
131	0xbdcf63c5	-0.101264514
132	0xbdb5a7e4	-0.08869913
133	0x3db435d7	0.08799332
134	0xbc2daa04	-0.010599617
135	0x3c0b01f1	0.00848435
136	0x3e4a299b	0.19742434
137	0x3e3029bf	0.17203425
138	0x3e032ea4	0.1281076
139	0x3dbbdaac	0.09172568
140	0x3d989527	0.074503236
141	0xbe5cbf66	-0.21557388
142	0x3d7d0433	0.061771583
143	0xbe4e9c92	-0.20176914
144	0x3ba1f30c	0.0049423035
145	0xbd8f062e	-0.069836006
146	0x3d124fc5	0.035720605
147	0x3c91a9cf	0.017781166
148	0xbd2d48ff	-0.042305943
149	0x3e3b76c3	0.18307023
150	0x3cbab308	0.022790447
151	0x3df121ee	0.1177405
152	0xbc83e4f6	-0.016100388
153	0xbd7b3d31	-0.061337654
154	0xbd962051	-0.073303826
155	0xbe096eb0	-0.1342113
156	0x3e38548a	0.18000999
157	0xbdf834a0	-0.121194124
158	0x3e574281	0.21021463
159	0x3dc2455c	0.094858855
160	0x3dee87c8	0.11646992
161	0x3e017060	0.12640524
162	0xbe444660	-0.19167471
163	0x3e0f3ebd	0.13988777
164	0x3e25c2b8	0.1618756
165	0x3d5c39fb	0.053766232
166	0xbcc12401	-0.023576738
167	0x3daa0ef1	0.08303631
168	0xbc20e26c	-0.009819608
169	0xbc13d1f7	-0.0090222275
170	0xbc967be9	-0.018369632
171	0x3e09e250	0.13465238
172	0xbe3e61b3	-0.18591957
173	0xbe4db2db	-0.20087759
174	0x3e0945ac	0.13405484
175	0xbda51336	-0.08060305
176	0x3e3c50b6	0.18390164
177	0xbd9a1391	-0.07523263
178	0xbdb4603d	-0.088074185
179	0x3e764f3d	0.24053665
180	0xbdeeeb87	-0.11666017
181	0xbcea94b4	-0.02863536
182	0x3d1f5841	0.038902525
183	0x3e8360f1	0.25659898
184	0xbe7bcaea	-0.24589124
185	0xbe557559	-0.20845546
186	0x3e3cb17e	0.18427083
187	0x3e576a28	0.21036589
188	0x3e592de2	0.21208909
189	0xbbbdc1c6	-0.005790922
190	0xbe0eda21	-0.13950397
191	0x3cda35a0	0.026636899
192	0x3e24a085	0.16076858
193	0x3e31a590	0.17348313
194	0x3de418de	0.111375555
195	0x3ccae0ae	0.024765339
196	0xbe0de721	-0.138577
197	0xbd235772	-0.039878316
198	0x3e226ccf	0.1586182
199	0x3e37bd66	0.17943344
200	0x3def6814	0.11689773
201	0xbdad0c71	-0.08449639
202	0xbdf1534c	-0.11783466
203	0xbe78cc21	-0.24296619
204	0xbe3dcee9	-0.18535961
205	0xbe19669b	-0.14980547
206	0x3d48ece9	0.04905406
207	0x3dcc40dd	0.09973309
208	0x3dc30494	0.095223576
209	0x3dd5833a	0.1042542
210	0xbd01f808	-0.03173068
211	0x3ddb5b6e	0.10710798
212	0xbe4739c0	-0.19455624
213	0xbd59a44b	-0.053135198
214	0x3c7c81e3	0.015411827
215	0xbe695849	-0.22787584
216	0xbd0d7100	-0.034531593
217	0xbdd4bdfa	-0.10387798
218	0xbd8a8702	-0.06764032
219	0x3dc7075c	0.097182006
220	0xbd73b8c1	-0.059502367
221	0xbe898a49	-0.26863316
222	0xbe423581	-0.18965723
223	0xbe5c13b7	-0.21491896
224	0x3e264e5a	0.16240826
225	0x3e5ecbc2	0.21757415
226	0x3e07df0f	0.13268684
227	0x3e77c2cf	0.24195407
228	0xbe3bc915	-0.18338425
229	0x3dc2b80d	0.09507761
230	0xbde6ad03	-0.11263468
231	0x3c70624a	0.014671871
232	0xbe581cb7	-0.21104704
233	0x3e1948c4	0.14969164
234	0x3e298b53	0.16557054
235	0x3e2733df	0.16328381
236	0x3dc87168	0.097872555
237	0x3e0ec6b6	0.1394299
238	0xbd353745	-0.044242162
239	0x3d3a2747	0.045447614
240	0xbcd07dc0	-0.025450587
241	0x3e3c1537	0.18367468
242	0xbe540472	-0.20704821
243	0x3e1200f9	0.14258184
244	0x3d8dd891	0.069260724
245	0x3cdaef84	0.026725538
246	0xbe1ad8c2	-0.15121749
247	0x3c692ad0	0.014231399
248	0xbdaa39a6	-0.08311777
249	0x3e0301aa	0.12793604
250	0x3e1fb61c	0.15596813
251	0xbe01bb70	-0.12669158
252	0x3e45c38d	0.19312878
253	0xbd3c85b5	-0.04602595
254	0x3e4d53d5	0.2005151
255	0xbe4ee588	-0.20204747

bias_ih_l0 f4 [48]
0	0x3e54f628	0.20797026
1	0x3d9add69	0.07561762
2	0xbcb3500b	-0.021888753
3	0xbdba5a4a	-0.090992525
4	0x3e239a46	0.1597682
5	0xbe4c7c24	-0.19969231
6	0x3d5454fc	0.05183886
7	0xbe0628c2	-0.13101485
8	0x3e1c953f	0.15291308
9	0x3d9cbfad	0.07653747
10	0x3e148390	0.14503312
11	0xbe441162	-0.19147256
12	0x3d56118b	0.052262824
13	0xbe599599	-0.21248473
14	0x3e170cbc	0.14750952
15	0xbd80ba6d	-0.06285558
16	0xbd31487b	-0.043282013
17	0xbe0d502e	-0.13800117
18	0xbd43ba31	-0.047784988
19	0x3a9897a0	0.0011641867
20	0x3d0d16de	0.034445636
21	0xbdc6fe9b	-0.09716531
22	0x3dd511dd	0.10403798
23	0xbdb07ba5	-0.08617333
24	0x3e7e80a7	0.24853764
25	0x3d5eef8c	0.05442767
26	0xbe373464	-0.17891079
27	0xbe603ecd	-0.21898957
28	0x3e31d389	0.1736585
29	0x3e76df79	0.24108686
30	0x3e1cfe53	0.15331392
31	0x3e71cca8	0.23613226
32	0xbba31d8c	-0.0049778875
33	0x3dba9b42	0.09111644
34	0xbe739cb3	-0.23790245
35	0xbe17ddd9	-0.14830722
36	0x3de2a770	0.110670924
37	0xbe56b9a7	-0.20969258
38	0xbe6e5e2f	-0.23278116
39	0x3c0cfa1b	0.008604552
40	0x3d0a3582	0.033742435
41	0xbe674416	-0.22584566
42	0x3e30d989	0.17270483
43	0xbdbe4e8c	-0.092923254
44	0x3c990a12	0.01868156
45	0xbd9a1e74	-0.0752534
46	0xbe4e9cc1	-0.20176984
47	0xbe7b1410	-0.24519372

bias_hh_l0 f4 [48]
0	0x3d4e077e	0.050300114
1	0xbd6ba33e	-0.057528727
2	0xbdd49747	-0.10380416
3	0xbe07898d	-0.13236065
4	0x3e065cc4	0.13121325
5	0xbe128d45	-0.14311703
6	0xbe320136	-0.17383274
7	0xbdfdb036	-0.12387125
8	0x3c2e7b5d	0.010649529
9	0x3e784708	0.24245846
10	0x3e24e7d3	0.16104059
11	0x3d290b9f	0.04127085
12	0x3e725b43	0.23667626
13	0xbdd54243	-0.10413029
14	0xbe7f4170	-0.24927306
15	0xbd76837f	-0.060184
16	0xbde032fd	-0.10947225
17	0x3e66f762	0.22555307
18	0x3d0df0aa	0.034653343
19	0xbe7d6aa9	-0.24747719
20	0x3d09b1b6	0.033616744
21	0xbe086276	-0.1331881
22	0x3e30c4d9	0.17262591
23	0x3ca39152	0.019966755
24	0x3e52d207	0.20587932
25	0x3e212b96	0.15739283
26	0x3e0846b1	0.13308217
27	0x3e4497dc	0.19198555
28	0xbe1eee34	-0.15520555
29	0x3cfe824e	0.031067993
30	0xbe63ef74	-0.22259313
31	0xbe5a2826	-0.21304378
32	0x3e1fa64e	0.15590784
33	0xbc1aa183	-0.009437921
34	0xbca23352	-0.019799862
35	0x3e484aa9	0.1955973
36	0x3def4ada	0.11684199
37	0x3d4f7298	0.050646394
38	0x3e641786	0.22274598
39	0x3da2336b	0.079199634
40	0xbe3c04e9	-0.18361248
41	0x3dd66164	0.104677945
42	0x3d9ec6a8	0.077527344
43	0x3e01f1c6	0.12689885
44	0x3e5561a5	0.2083803
45	0x3e2f98bd	0.17148109
46	0xbdeed939	-0.11662526
47	0xbd9b0737	-0.075697355

weight_ih_l0 f4 [48, 36]
0	0x3d89fc7f	0.06737613
1	0x3a84d327	0.0010133729
2	0x3dad049c	0.08448145
3	0xbe1e316a	-0.15448537
4	0x3bd579c1	0.0065147583
5	0xbe15e827	-0.1463934
6	0x3d82a7e2	0.06379677
7	0x3b17db0c	0.0023171334
8	0xbd58ef83	-0.05296279
9	0x3cb1f3bc	0.021722667
10	0x3dd50c31	0.10402716
11	0xbe6179b7	-0.22019087
12	0x3dd26350	0.102728486
13	0xbe35fd63	-0.1777244
14	0x3bf20e96	0.0073869927
15	0xbcc66ecf	-0.02422276
16	0x3b5072c2	0.0031806682
17	0xbe31fbb8	-0.1738118
18	0xbe4c80e4	-0.19971043
19	0xbe3bb8ae	-0.18332168
20	0xbdf410ca	-0.11917265
21	0xbe13216c	-0.14368218
22	0x3e4aa299	0.19788589
23	0xbe2541c2	-0.16138366
24	0xbd91e4cd	-0.071237184
25	0x3e7fe5e7	0.24990045
26	0x3e1bba1b	0.15207712
27	0xbdfe133a	-0.12406011
28	0xbcf704e8	-0.030153707
29	0xbe026edf	-0.12737606
30	0xbe57e43d	-0.2108316
31	0x3d21b5b9	0.039479945
32	0xbdcfc1a2	-0.101443544
33	0x3d2d2491	0.0422712
34	0xbe5f47be	-0.21804711
35	0xbe06c303	-0.13160329
36	0x3e616020	0.22009325
37	0xbdcc2d77	-0.09969609
38	0x3ceb7afb	0.028745165
39	0xbe5be96a	-0.21475759
40	0xbdb208ef	-0.0869311
41	0x3e841746	0.25799006
42	0x3e8be92d	0.27326337
43	0xbc84aefe	-0.016196724
44	0xbd2b745d	-0.04185902
45	0x3e1befa3	0.15228133
46	0xbd901985	-0.070361175
47	0x3c8bd25f	0.017068086
48	0x3d95263a	0.07282682
49	0xbe57f8a9	-0.2109095
50	0xbe5b14a1	-0.21394588
51	0xbe32e14f	-0.17468761
52	0x3cc6807c	0.024231188
53	0x3e577f6a	0.21044698
54	0x3e2bc43e	0.16774079
55	0x3df0efe1	0.11764503
56	0xbd1b2ab5	-0.037882525
57	0xbd6f603f	-0.058441397
58	0xbdd7e9b4	-0.10542622
59	0x3d0b39ea	0.033990778
60	0x3dc50c3b	0.096214734
61	0x3e72c896	0.2370933
62	0x3c62bf82	0.013839604
63	0xbd137705	-0.036002178
64	0x3ce3903c	0.027778737
65	0xbe2fc24e	-0.17163965
66	0x3dba6aa1	0.09102369
67	0xbe4f567d	-0.20247836
68	0xbe82fb08	-0.25582147
69	0xbe10b378	-0.14130962
70	0xbe0db719	-0.13839377
71	0xbe4ec2e8	-0.20191538
72	0x3e43193f	0.190526
73	0xbe60e2e7	-0.21961556
74	0xbe3a73fe	-0.1820831
75	0xbe2a23d9	-0.16615237
76	0x3e1bbc8f	0.15208648
77	0x3e1ef538	0.15523231
78	0x3d2d0142	0.042237528
79	0x3d7c078c	0.061530635
80	0x3d37a54f	0.044835385
81	0xbe5261fa	-0.20545188
82	0x3e369a03	0.17832188
83	0xbe46c0fe	-0.19409558
84	0x3dce3b5e	0.10069917
85	0x3e23d70e	0.16000006
86	0x3e36a8c7	0.17837821
87	0xbe0a45e4	-0.13503224
88	0x3d0160cd	0.031586457
89	0x3e2f9b38	0.17149055
90	0x3e444855	0.19168217
91	0x3e095018	0.1340946
92	0x3c243af7	0.010023824
93	0x3d5de5aa	0.054174103
94	0xbdf7e868	-0.12104875
95	0xbe793562	-0.2433677
96	0x3d873ad1	0.06603015
97	0x3e4c6be9	0.1996304
98	0xbd27a560	-0.0409292
99	0xbdc301d7	-0.09521835
100	0xbe3dc4d0	-0.1853211
101	0x3dbbb6fe	0.09165762
102	0xbc946608	-0.018115059
103	0x3dc14561	0.09437061
104	0xbdc3a4ce	-0.095529184
105	0xbdb204cb	-0.086923204
106	0xbde3fcb7	-0.11132186
107	0xbe0c509a	-0.13702622
108	0x3e0d0eb1	0.13775136
109	0x3e73c6cd	0.23806305
110	0xbe62769c	-0.22115558
111	0x3e75298f	0.23941635
112	0xbe2c15b5	-0.16805156
113	0xbe51e858	-0.20498788
114	0x3dc300ea	0.09521659
115	0x3e3d72c4	0.18500811
116	0x3e6d082d	0.2314765
117	0xbe69c4c5	-0.22828968
118	0x3e8374c7	0.25675032
119	0xbd231d46	-0.03982284
120	0x3d08402e	0.03326433
121	0x3e757529	0.23970474
122	0x3cd7e7fa	0.026355732
123	0xbe22a50d	-0.15883274
124	0x388b050f	6.628979e-05
125	0x3e54847e	0.20753667
126	0x3d567109	0.052353892
127	0x3d226545	0.03964736
128	0x3e4fe721	0.20303012
129	0x3e232282	0.15931132
130	0xbcf46ab5	-0.029836038
131	0x3df6cf8a	0.12051304
132	0xbdeeff5d	-0.116698004
133	0xbe07a326	-0.1324583
134	0x3d09f873	0.033684205
135	0xbd94d98f	-0.072680585
136	0x3e05372d	0.13009329
137	0x3e4bbf0a	0.19897094
138	0xbe510993	-0.20413809
139	0x3e6a381b	0.22872965
140	0x3dd1d171	0.10245026
141	0x3e169634	0.14705735
142	0xbe181355	-0.14851125
143	0x3e30dbc0	0.17271328
144	0x3e4daedb	0.20086233
145	0x3e117bd8	0.14207399
146	0x3bf7be53	0.00756053
147	0x3e8aa287	0.27077124
148	0xbd6631f3	-0.05619998
149	0x3b8928e6	0.0041857837
150	0x3e13e655	0.14443333
151	0xbe4c9675	-0.1997927
152	0x3d0fa2b7	0.035067286
153	0xbe5691c4	-0.20954043
154	0x3d8d72cb	0.06906661
155	0xbd62fba3	-0.05541576
156	0x3d3e105d	0.046402324
157	0xbe267aa2	-0.16257718
158	0x3c418e1b	0.011813666
159	0x3d84b6d5	0.06480185
160	0xbe25ecbe	-0.16203591
161	0x3e48bae5	0.19602545
162	0x3e6f5713	0.2337306
163	0x3e5078aa	0.2035853
164	0x3d0d65a8	0.034520775
165	0xbe6bc045	-0.23022564
166	0xbdde2208	-0.10846335
167	0x3e36c0d4	0.17846996
168	0x3e778d6b	0.2417504
169	0x3dfff261	0.12497402
170	0xbe134e6b	-0.14385383
171	0xbb998d1c	-0.004686011
172	0x3cd92499	0.026506709
173	0xbbd2912b	-0.006425997
174	0xbdb28e61	-0.08718563
175	0x3cf5d529	0.03000887
176	0xbe23f9a7	-0.16013204
177	0xbd1e16f5	-0.038596112
178	0x3e45cde9	0.1931683
179	0x3db3307e	0.087494835
180	0xbdd44a32	-0.10365714
181	0x3e315367	0.17316972
182	0xbe735004	-0.23760992
183	0xbe339751	-0.17538191
184	0xbdffd01b	-0.12490865
185	0x3e404f84	0.18780333
186	0xbd8f3bff	-0.06993865
187	0x3e1620d4	0.1466096
188	0xbd725623	-0.059164178
189	0x3dbd7841	0.09251452
190	0xbdc1ebba	-0.094687894
191	0x3caedeb7	0.021346433
192	0x3e76f38a	0.2411634
193	0xbe7baf33	-0.24578552
194	0x3e446466	0.19178924
195	0xbd7b849e	-0.06140577
196	0xbc83e49f	-0.016100226
197	0xbd9068bc	-0.070512265
198	0x3d851340	0.06497812
199	0x3df9a624	0.12189892
200	0xbe144573	-0.14479618
201	0x3e04f651	0.12984587
202	0x3b82470c	0.0039757546
203	0x3c3cbb21	0.011519224
204	0x3c9bd076	0.0190203
205	0xbe47ce66	-0.19512329
206	0x3e5d38d3	0.21603708
207	0xbdca0c58	-0.09865636
208	0x3e31c1e5	0.17359121
209	0x3d6f3115	0.058396418
210	0x3e4564ce	0.19276735
211	0xbdcb8ef3	-0.09939375
212	0xbdd9dfc7	-0.10638385
213	0xbd3ec7b4	-0.04657717
214	0x3da7b9c1	0.081897266
215	0xbde486ef	-0.11158549
216	0xbe3271e6	-0.17426261
217	0xbd40d1f8	-0.04707524
218	0x3e76cf41	0.24102499
219	0xbe28bf80	-0.16479301
220	0x3e37a64e	0.17934534
221	0x3c029da5	0.007972156
222	0x3e5f5bc9	0.21812357
223	0xbe057ed8	-0.13036668
224	0x3d984ec4	0.07436898
225	0xbe3e992a	-0.18613115
226	0x3d9faf82	0.07797147
227	0xbe2f5a11	-0.17124201
228	0x3c8f7263	0.017510599
229	0x3e6cbee3	0.23119693
230	0x3cb2bfcc	0.021819972
231	0x3dc72ab8	0.09724945
232	0x3b0f3d1f	0.00218565
233	0xbce9ad33	-0.02852497
234	0x3cf7011e	0.0301519
235	0x3e400dc8	0.18755257
236	0x3cac558a	0.021036882
237	0xbde1a3b3	-0.11017551
238	0x3e541322	0.20710424
239	0x3e094f86	0.13409242
240	0x3e3db8bb	0.185275
241	0x3c61cdb6	0.0137819555
242	0xbbf0dc76	-0.0073504997
243	0xbd6357b2	-0.055503555
244	0x3e7536f3	0.23946743
245	0x3e064a2e	0.13114235
246	0x3e373335	0.17890628
247	0x3e823a51	0.25435117
248	0x3e8037ed	0.25042668
249	0x3e51b2b3	0.20478325
250	0xbdcafc5b	-0.09911414
251	0xbe2dbbdc	-0.16966194
252	0x3e652808	0.22378552
253	0x3da76ee3	0.08175447
254	0x3e12e28c	0.14344233
255	0x3d8a0812	0.067398205

weight_hh_l0 f4 [48, 16]
0	0xbd2cfedb	-0.042235237
1	0xbe116676	-0.14199242
2	0x3d9f8593	0.07789149
3	0xb9eaacf8	-0.0004476083
4	0x3e40b0e6	0.18817481
5	0xbe1b09e5	-0.15140493
6	0x39edc102	0.00045347965
7	0xbc79be1c	-0.0152430795
8	0x3e0d7132	0.13812712
9	0x3d480c93	0.048840117
10	0x3d8ee48d	0.06977186
11	0x3e6d6e86	0.23186693
12	0xb7d063ad	-2.4841947e-05
13	0xba0874e0	-0.0005205404
14	0x3dd53efe	0.104124054
15	0xbe0c4654	-0.13698703
16	0x3bf2274a	0.0073899375
17	0xbca9bfc3	-0.020721322
18	0xbe1d7d35	-0.15379794
19	0xbd19304e	-0.037399583
20	0xbe80e9f1	-0.25178483
21	0x3e3ab700	0.18233871
22	0x3e09879b	0.13430636
23	0x3bcdb2f3	0.006277436
24	0x3e1a4608	0.15065777
25	0xbc739bb8	-0.014868669
26	0xbd716a47	-0.058939245
27	0xbc75d921	-0.015005381
28	0xb9b0b631	-0.0003370508
29	0xbe1b1556	-0.15144858
30	0xbd3e56f3	-0.04646964
31	0xbbf52c83	-0.007482113
32	0xbcebd987	-0.028790249
33	0x3d5d67a1	0.054053906
34	0x3da4c70b	0.08045777
35	0xbd9186f5	-0.07105819
36	0xbe14b873	-0.14523487
37	0xbdb203f0	-0.08692157
38	0xbd86e0fc	-0.06585881
39	0xbe15a098	-0.14612043
40	0xbbb5d755	-0.005549351
41	0x3dedaa97	0.11604803
42	0xbdd6e2cb	-0.10492476
43	0xbe24257f	-0.16029929
44	0x3e0f3af7	0.13987337
45	0xbde4534e	-0.111487016
46	0xbd585f7f	-0.052825447
47	0xbe346536	-0.17616734
48	0x3e8534e5	0.26016918
49	0x386c411f	5.6327433e-05
50	0xbe0cd705	-0.13753898
51	0x3dbf315b	0.09335586
52	0x3daeafa6	0.08529596
53	0xbe3c14f7	-0.18367372
54	0x3ca35960	0.019940078
55	0x3e44eb9f	0.19230507
56	0xbd9fdf6f	-0.078062885
57	0x3e21f1ff	0.1581497
58	0x3e27d448	0.16389573
59	0x3e78e056	0.24304327
60	0xb9b1f99b	-0.0003394604
61	0xbccc1eb6	-0.024916988
62	0x3dc8aa1a	0.09798069
63	0xb835c88c	-4.3340537e-05
64	0xbdacbb86	-0.08434205
65	0xbbd14b1b	-0.006387127
66	0x3bdd40c3	0.006752105
67	0x3c52bca9	0.012862363
68	0xbdadcb32	-0.08486022
69	0x3a73c7c0	0.00092994794
70	0x3cfd2f28	0.030906275
71	0xbe2a3c40	-0.16624546
72	0xbcc3d385	-0.023904571
73	0x3dfe6393	0.12421336
74	0x3c916767	0.017749501
75	0xbcdf16e8	-0.027232602
76	0xbcd11d89	-0.025526779
77	0xb9bc6b49	-0.00035938088
78	0x3d9b2a3b	0.07576414
79	0xbe191a77	-0.14951502
80	0x3dd512ca	0.10403974
81	0x3d725f43	0.05917288
82	0xbe0eb66c	-0.13936776
83	0x3da378a9	0.079819985
84	0x3e7cbf0d	0.24682255
85	0xbbb04cfd	-0.0053802715
86	0xbc8da494	-0.017290391
87	0x3bd486dd	0.0064858035
88	0xbe015006	-0.12628183
89	0x3dfaf566	0.12253837
90	0xbd0160c6	-0.03158643
91	0xbe69c7d0	-0.22830129
92	0x3cf581fd	0.02996921
93	0xbb210e43	-0.002457515
94	0x3cf98932	0.030460928
95	0xbca70eb8	-0.02039276
96	0x3cd91c1a	0.026502658
97	0x3dc89ab7	0.097951345
98	0xb94c9bed	-0.00019513043
99	0x3bd23896	0.006415437
100	0xbe764e44	-0.24053293
101	0x3d3fdeb8	0.04684326
102	0x3d901b0b	0.07036408
103	0xbe030ad0	-0.12797093
104	0x3e3073e0	0.17231703
105	0xbdcc46b6	-0.099744245
106	0x3cc1a5fc	0.023638718
107	0x3e4c63ce	0.19959947
108	0x3d64fd4c	0.055905625
109	0x39f30ad6	0.00046356645
110	0x3d947bb6	0.072501585
111	0x384abfbb	4.8339116e-05
112	0xbe61ae9e	-0.22039267
113	0x3dea4582	0.11439039
114	0x3e355ab2	0.17710379
115	0xbd287b16	-0.04113301
116	0x3b09536e	0.002095427
117	0x3e540e9b	0.20708697
118	0xbe2a7464	-0.16645962
119	0xbe0af2b7	-0.13569151
120	0x3cecd276	0.02890895
121	0xbdeb5166	-0.11490135
122	0x3e567a06	0.20944986
123	0xbe75bf6a	-0.239988
124	0xbe0cfb0d	-0.13767643
125	0x3df6ef31	0.12057341
126	0xbd8f36b9	-0.069928594
127	0xbe2bb3aa	-0.16767755
128	0x3e0168c8	0.12637627
129	0x3b16d82e	0.0023017037
130	0x3b530697	0.0032199973
131	0xbd7ed3e5	-0.062213797
132	0xbe66e810	-0.22549462
133	0xbe0d86c2	-0.13820937
134	0xb9e3722d	-0.00043381882
135	0x3d4ffaf3	0.050776433
136	0x3d8f125a	0.06985922
137	0x3bf36db7	0.0074288505
138	0x3d53d8b9	0.051720355
139	0x3d97dadd	0.07414792
140	0xbc1dcc8c	-0.009631287
141	0x39f0911d	0.00045884485
142	0x3d05b716	0.032645307
143	0xbd2ca6b8	-0.042151183
144	0xbcf9d0a0	-0.030494988
145	0x3c9ae6e4	0.018908925
146	0xbe28fe76	-0.16503319
147	0xbb936164	-0.004497694
148	0xbe757af9	-0.23972692
149	0x3dded978	0.108813226
150	0x3dea0d3a	0.11428304
151	0x3d8ed2ca	0.069737986
152	0x3c180086	0.009277469
153	0xbad015ed	-0.0015875675
154	0x3e2707df	0.16311596
155	0x3dd2023e	0.10254334
156	0xbd2a58c3	-0.041588556
157	0x3d84d562	0.06486012
158	0x3dcd46b7	0.100232534
159	0xbdb25f2a	-0.08709557
160	0x3e59e408	0.21278393
161	0xbde6b548	-0.112650454
162	0xbe32596f	-0.17416929
163	0xbd1c8803	-0.03821565
164	0x3e1cc686	0.15310106
165	0x3da80abb	0.08205172
166	0xbe1271c9	-0.14301218
167	0x3d63e25a	0.055635788
168	0x3c0d2fa1	0.008617313
169	0xbdc778e0	-0.09739852
170	0xbd32feda	-0.043700077
171	0xbde77439	-0.113014646
172	0x3d440b5d	0.0478624
173	0xbdd3f924	-0.10350254
174	0x3e0fd568	0.14046252
175	0x380a8411	3.302476e-05
176	0xbdb26a03	-0.087116264
177	0xbae9e7e2	-0.0017845596
178	0xbe1530a7	-0.1456934
179	0xbd47f0d4	-0.048813656
180	0x3d8165d0	0.06318247
181	0x3e010fea	0.12603727
182	0x388eba48	6.805785e-05
183	0xbdc9626e	-0.09833227
184	0xbbf39675	-0.0074337074
185	0xbdc79802	-0.0974579
186	0x3d422381	0.04739714
187	0xbda77aa8	-0.08177692
188	0x3a43c3b7	0.00074678235
189	0x3e250c0f	0.16117881
190	0xbe243a92	-0.16037968
191	0xbde24165	-0.11047629
192	0xbe74340f	-0.23847984
193	0x3e2494bd	0.16072364
194	0x3cee37c9	0.029079335
195	0xb9a9afbd	-0.00032365127
196	0xbe639e74	-0.22228414
197	0xbdc3616a	-0.09540065
198	0x3de808c3	0.11329796
199	0x3dcf13f6	0.10111229
200	0xbc02bd22	-0.007979663
201	0x3b624755	0.003452738
202	0xbd576b1a	-0.052592374
203	0x3e66f321	0.22553684
204	0x3c833eb0	0.016021103
205	0x3cf82b3f	0.030294059
206	0x3e7a8909	0.24466337
207	0x3e0ab436	0.13545308
208	0xbe27122c	-0.16315526
209	0x3d5d3238	0.05400297
210	0xb9f30f3c	-0.00046359922
211	0x3e0d9f88	0.13830388
212	0x3d9cf40f	0.07663738
213	0xbe46ac7e	-0.19401738
214	0xbe21a91b	-0.15787165
215	0x3cba323d	0.022729034
216	0x3d6be99d	0.057595838
217	0x3cc7dc73	0.02439711
218	0xbe5ed6a7	-0.21761571
219	0x3c699fbb	0.014259274
220	0x3d924471	0.071419604
221	0xbb9d88d4	-0.004807571
222	0xbe68567a	-0.22689238
223	0x3d3285ea	0.04358474
224	0xbe05ad14	-0.13054305
225	0x3dc1079b	0.09425279
226	0x3d87658e	0.06611167
227	0xbdb1b657	-0.08677357
228	0xbe1855ac	-0.14876431
229	0xbe198ff0	-0.14996314
230	0xbcbc2d58	-0.02297084
231	0x3a6e3d95	0.0009088156
232	0x3c81efa6	0.015861344
233	0x3e407769	0.18795551
234	0xbd4efa82	-0.05053187
235	0x3d8c071a	0.06837292
236	0x3e1e47fd	0.15457149
237	0x383f35ac	4.5587934e-05
238	0x3e1f6029	0.15564026
239	0xbd5268e0	-0.051369548
240	0x3e74c186	0.23901948
241	0x3e0a7207	0.1352006
242	0x3d516b30	0.051127613
243	0xbdee11ed	-0.11624513
244	0x3b59e8e2	0.0033250381
245	0xbe0f787f	-0.1401081
246	0x3df8e104	0.12152293
247	0xbdd85d74	-0.105647
248	0x3d706d6b	0.0586981
249	0x3dfbcc60	0.12294841
250	0x3dd784d4	0.10523382
251	0xbd9d96fa	-0.07694812
252	0xbe088f95	-0.13336022
253	0x3dffad9c	0.12484285
254	0x3e694041	0.22778417
255	0xb95343f2	-0.0002014784

bias_ih_l0 f4 [48]
0	0x3db1e898	0.08686942
1	0x3d3b334b	0.045703214
2	0xbe04574e	-0.12923929
3	0xbe1a69b7	-0.1507939
4	0x3d9a979e	0.0754845
5	0xbd17e665	-0.037084956
6	0xbe6132d2	-0.21992043
7	0xbd8b1e14	-0.06792846
8	0x3e189064	0.1489883
9	0xbdec4cb8	-0.115380704
10	0xbe662d60	-0.22478247
11	0x3e824535	0.25443426
12	0xbc321b41	-0.010870756
13	0x3e59b306	0.21259698
14	0x3de83c3f	0.11339616
15	0x3ce85eb2	0.028365467
16	0xbe597f8a	-0.21240059
17	0x3dce73d8	0.10080689
18	0xbe78a513	-0.24281721
19	0x3e45f3d6	0.19331297
20	0x3d9c6f0f	0.0763837
21	0x3e6eb7c7	0.23312293
22	0xbe45ce5b	-0.19317
23	0xbdd57a03	-0.104236625
24	0xbcd15ca4	-0.02555687
25	0x3e446346	0.19178495
26	0xbe661dcd	-0.22472306
27	0xbdb3c8a1	-0.08778501
28	0x3d9701aa	0.07373364
29	0xbe2884ad	-0.16456862
30	0x3e1b7922	0.15182927
31	0xbd37488f	-0.04474693
32	0xbe4a253a	-0.19740763
33	0xbde7dbae	-0.113211975
34	0x3df8fb63	0.12157323
35	0x3bb9bf6b	0.0056685708
36	0x3c1d14fb	0.009587522
37	0xbe6e985f	-0.23300312
38	0x3e0ad3f5	0.13557418
39	0xbe4f0213	-0.20215635
40	0x3e21cd77	0.15801035
41	0xbd5d540a	-0.054035224
42	0x3de4d1f1	0.11172856
43	0x3e4e4c3b	0.20146267
44	0x3e61d6ba	0.22054568
45	0xbe4e37b6	-0.2013844
46	0x3e3a1782	0.1817303
47	0x3d8b8ca2	0.06813933

bias_hh_l0 f4 [48]
0	0xbd8fd39a	-0.07022782
1	0x3e662855	0.22476323
2	0xbe147927	-0.14499341
3	0x3e1687ab	0.1470019
4	0xbdbe4d3f	-0.09292077
5	0xbd3ed90c	-0.04659371
6	0x3e45f9f9	0.19333638
7	0xbc01751c	-0.007901456
8	0x3e69b526	0.22823009
9	0xbc710c8c	-0.014712464
10	0x3c452c85	0.01203454
11	0xbe3548c4	-0.17703539
12	0x3daf8078	0.08569425
13	0xbe4eabed	-0.20182772
14	0xbe180a36	-0.14847645
15	0x3da6273f	0.08112954
16	0xbc9017a2	-0.017589394
17	0x3df6e2c0	0.12054968
18	0xbda8c6ba	-0.08241029
19	0x3e2b84c4	0.16749865
20	0xbdfea414	-0.12433639
21	0xbe72dea1	-0.23717739
22	0xbe22737e	-0.1586437
23	0xbd976cd5	-0.07393805
24	0x3e151490	0.14558625
25	0xbd989700	-0.07450676
26	0x3e22b65e	0.1588988
27	0xbe2fc97e	-0.17166707
28	0x3e66754c	0.22505683
29	0xbe090910	-0.13382363
30	0x3e473fd1	0.19457938
31	0x3e431967	0.19052659
32	0x3e11aced	0.14226122
33	0xbd366c2a	-0.044536747
34	0x3e577d83	0.21043973
35	0xbbcde42d	-0.006283304
36	0xbdfb6400	-0.12274933
37	0x3dcadee0	0.09905791
38	0x3d9e79a2	0.07738043
39	0xbc329c29	-0.010901489
40	0xbe410152	-0.1884816
41	0x3cf4492e	0.029820051
42	0xbe2178e2	-0.1576877
43	0x3d1bd426	0.038044117
44	0x3ddbda44	0.1073499
45	0x3e37eaa3	0.179606
46	0xbca45b6c	-0.020063125
47	0x3e1b181e	0.15145919

weight_ih_l0 f4 [3, 11]
0	0x3f1f47e5	0.6221908
1	0xbf51055c	-0.816488
2	0xbe87990b	-0.2648395
3	0xbe7efc75	-0.24900992
4	0x3ef07945	0.4696752
5	0xbe1f8485	-0.15577896
6	0xbeeb0b35	-0.45906988
7	0x3f6eb1dd	0.9324015
8	0xbf526323	-0.8218252
9	0xbdc35d74	-0.09539309
10	0x3f28f35a	0.65996325
11	0xbd421fe7	-0.047393706
12	0xbd930249	-0.0717817
13	0x3ef17353	0.47158298
14	0x3f76410c	0.96193004
15	0x3f35d59e	0.7102908
16	0x3f469e20	0.7758503
17	0xbf615188	-0.8801503
18	0xbf348694	-0.7051785
19	0xbf5ac895	-0.85462314
20	0x3ebdf074	0.37097514
21	0xbe6fdd88	-0.23424351
22	0xbf32bcde	-0.6981944
23	0x3f2abea1	0.66697127
24	0xbe252ee2	-0.16131166
25	0x3ecd5dc7	0.4011061
26	0x3e6349b9	0.22196092
27	0xbde6bbbf	-0.112662785
28	0x3e8884da	0.26663858
29	0x3ef9ee65	0.48814693
30	0x3f489e73	0.78366774
31	0x3f45599a	0.77089846
32	0x3ea04d9f	0.3130922

weight_hh_l0 f4 [3, 1]
0	0xbe9f639f	-0.31130692
1	0x3f80999f	1.0046881
2	0xbe5151a9	-0.20441307

bias_ih_l0 f4 [3]
0	0x3f7c706c	0.9860904
1	0x3f5f0981	0.87123877
2	0x3f539b88	0.82659197

bias_hh_l0 f4 [3]
0	0x3ea3c024	0.3198253
1	0x3f2e70fc	0.6814115
2	0xbe9a468b	-0.30131945

weight f4 [1, 16]
0	0x3e666bfd	0.22502132
1	0xbd8f6511	-0.07001699
2	0x3e45b376	0.1930674
3	0x3de84e2c	0.11343035
4	0xbde1693a	-0.110063985
5	0xbe0853ea	-0.1331326
6	0xbe2a39a1	-0.16623546
7	0xbdcb311e	-0.09921478
8	0x3dd5f275	0.10446636
9	0xbe5391e3	-0.2066112
10	0x3e328f88	0.17437565
11	0xbe54ebbd	-0.20793052
12	0xbcd42130	-0.025894731
13	0x3dad0c10	0.08449566
14	0x3e365ef0	0.17809653
15	0xbe423e96	-0.18969187

weight f4 [680, 17]
0	0xbbfd05f6	-0.007721658
1	0xbe5eed9a	-0.21770325
2	0x3ddae0a6	0.106873795
3	0xbd36ed9e	-0.044660203
4	0x3e395a21	0.18100788
5	0xbdb7809d	-0.08960078
6	0xbcbe4c54	-0.023229755
7	0x3cb8cc15	0.022558251
8	0xbe30df04	-0.17272574
9	0xbda09cfe	-0.07842444
10	0xbdf15b8f	-0.117850415
11	0xbd328ee2	-0.043593295
12	0xbe404f60	-0.18780279
13	0xbe40583d	-0.1878366
14	0x3e297dbf	0.16551875
15	0xbd3b88f5	-0.04578491
16	0x3e5ee8b6	0.2176846
17	0x3d54955a	0.051900245
18	0x3e18f04c	0.14935416
19	0x3e39550d	0.1809885
20	0x3982d83b	0.00024956636
21	0xbe146447	-0.14491378
22	0x3cd821e7	0.026383353
23	0x3d3b2ad8	0.045695156
24	0xbe6565cd	-0.22402115
25	0x3e70faa7	0.23533116
26	0x3db63431	0.088966735
27	0xbcd275a2	-0.025690857
28	0x3e23a078	0.15979183
29	0xbd456683	-0.048193466
30	0xbe7a078b	-0.2441694
31	0xbc97de74	-0.018538691
32	0xbe589701	-0.21151353
33	0xbd520292	-0.051271982
34	0x3927ddc7	0.0001600898
35	0xbe009b3c	-0.12559217
36	0x39e8c68a	0.0004439841
37	0x39f25992	0.00046224572
38	0x3aaccdc9	0.0013183887
39	0xb9a1cfdf	-0.0003086319
40	0x3caf30c0	0.02138555
41	0x3e186ff6	0.1488646
42	0x3dd74718	0.10511607
43	0xb821d679	-3.8585134e-05
44	0xbd140944	-0.03614165
45	0x3b3c47c6	0.0028729304
46	0xbc154022	-0.009109529
47	0x3dc691aa	0.09695752
48	0x3e2c327c	0.16816133
49	0xbe13dbd0	-0.1443932
50	0x39f2748d	0.00046244674
51	0x3c394d55	0.011309941
52	0x3e029575	0.12752326
53	0xbdfcb04d	-0.12338314
54	0x3dbb29df	0.09138846
55	0xbd109057	-0.035293903
56	0x3d809796	0.06278913
57	0x3e1aeea2	0.15130094
58	0x3e3cde06	0.1844407
59	0x3df2e9ea	0.11861022
60	0xbe46a32b	-0.19398181
61	0xbd017df3	-0.031614255
62	0x3e041089	0.12896933
63	0x3c757c2e	0.01498322
64	0xbd27bea1	-0.040953282
65	0x3e0a6203	0.13513951
66	0xbc5ed437	-0.013600401
67	0x3e746fc6	0.23870763
68	0x3e2e7783	0.17037778
69	0xbcd81b3e	-0.026380178
70	0x3e61dd06	0.2205697
71	0xbe2595e3	-0.16170458
72	0xbe426063	-0.18982081
73	0x3e35634d	0.17713661
74	0xbe1a700c	-0.15081805
75	0xbda0dd61	-0.07854725
76	0x3d3e9ea3	0.046538007
77	0x3de70a66	0.1128128
78	0xbd9ecb13	-0.07753577
79	0x3da5fdc0	0.081050396
80	0xbe27d19b	-0.16388552
81	0x3e68c3b2	0.22730902
82	0x3db6f3d6	0.08933227
83	0x3ca44bed	0.020055735
84	0x3d5914fa	0.05299852
85	0xbd58a3ab	-0.05289046
86	0x3df73216	0.120701
87	0xbe5f2b94	-0.21793967
88	0xbe78b6cb	-0.2428848
89	0x3da85092	0.082184926
90	0xbe427023	-0.1898809
91	0xbd501410	-0.050800383
92	0x3e6b6836	0.22988972
93	0x3d728f05	0.059218425
94	0xbe24e34a	-0.16102329
95	0xbe62e39e	-0.22157142
96	0xbc3166dd	-0.010827747
97	0xbe332894	-0.17495948
98	0xbe5d0986	-0.21585664
99	0x3ddf2f2d	0.1089767
100	0xbd8695bd	-0.06571529
101	0x3de1ce01	0.1102562
102	0xbd2736e9	-0.04082385
103	0x3e0abc03	0.13548283
104	0xbd39993f	-0.045312162
105	0x3cbf7fdd	0.0233764
106	0x3cb03587	0.021509899
107	0xbbfd0071	-0.007721
108	0xb9ed9e33	-0.0004532203
109	0xb5a4831b	-1.2257109e-06
110	0x3e25b948	0.1618396
111	0xbe1ba3cc	-0.15199202
112	0x3db9ad54	0.09066263
113	0x3beef76e	0.0072926795
114	0xbdd51839	-0.10405011
115	0x3d7bd722	0.061484464
116	0x3811b422	3.4738456e-05
117	0xbb93ff7d	-0.0045165406
118	0x3b811369	0.0039390814
119	0x3e3a8d36	0.1821793
120	0xbd98fa6d	-0.0746964
121	0xbdc937ee	-0.09825121
122	0xbdd1b95c	-0.102404326
123	0x3e544a6b	0.20731513
124	0x3e05901b	0.13043253
125	0x3c868c89	0.016424434
126	0x3e03f965	0.12888105
127	0xbdf92429	-0.121651
128	0xbe22c0f9	-0.15893926
129	0xbe35565c	-0.17708725
130	0x3e67a149	0.22620119
131	0x3ddf7d90	0.10912621
132	0x3e37f1d3	0.17963342
133	0x3e2d9912	0.16952923
134	0xbd137b8c	-0.036006495
135	0xbd43e028	-0.047821194
136	0x3d639b29	0.055567894
137	0x3e3a98b5	0.18222316
138	0x3da94c41	0.082664974
139	0xbd96b7ac	-0.073592514
140	0xbe1b5691	-0.15169741
141	0x3e3c0765	0.18362196
142	0xbdbf154b	-0.09330233
143	0xbe268221	-0.16260578
144	0xbd358c05	-0.044322986
145	0xbe2e02c6	-0.16993245
146	0xbe76f200	-0.24115753
147	0x3e0a45f0	0.13503242
148	0xbd5b5e9c	-0.053557023
149	0x3cc7e8cd	0.024403
150	0x3ce1084d	0.027469778
151	0xbd2c605e	-0.04208409
152	0x3e38c43c	0.18043607
153	0x3e45d8f1	0.19321038
154	0x3dab2161	0.08355976
155	0x3e4b327b	0.19843476
156	0x3e1c5a0f	0.1526873
157	0x3d089442	0.033344515
158	0xbe36a55a	-0.17836514
159	0xbdcd4ae5	-0.100240506
160	0x3e1fc730	0.15603328
161	0xbe35692f	-0.17715906
162	0xbe0b101a	-0.13580361
163	0x3c0fae91	0.008769647
164	0x3e6e8597	0.23293148
165	0x3da083ac	0.078376144
166	0xbd07d964	-0.033166304
167	0x3e618af9	0.2202567
168	0x3e4bba96	0.19895396
169	0x3c893108	0.016747013
170	0xbdd3b8c3	-0.10337975
171	0x3dae1d96	0.08501737
172	0xbd094c7d	-0.03352021
173	0x3c637d9a	0.013884926
174	0x3dab9f71	0.083800204
175	0x3dcabd72	0.09899415
176	0x3e1a7e5f	0.15087269
177	0x3df47832	0.11936988
178	0x3cfb810d	0.030701185
179	0xbe65d218	-0.22443426
180	0x3bef6cd3	0.007306674
181	0x3beb6268	0.007183362
182	0x3e20c6d2	0.15700844
183	0xbddceaf5	-0.10787002
184	0xbd61f805	-0.05516817
185	0x3e66d9e5	0.22544058
186	0x3e25ac85	0.16179092
187	0xbe4ea963	-0.20181803
188	0xbe7d16a7	-0.24715672
189	0x3e6666a5	0.22500093
190	0xbe53b8c5	-0.20675953
191	0xbe1ca445	-0.15297039
192	0xbe2177e7	-0.15768395
193	0xbd89f3ed	-0.06735978
194	0xbd85ecef	-0.06539332
195	0x3e111ace	0.14170381
196	0x3e18958d	0.14900799
197	0x3e088cf1	0.13335015
198	0xbd8728d4	-0.06599584
199	0x3e816834	0.25274813
200	0x3daeb799	0.08531112
201	0xbe63b8e0	-0.22238493
202	0x3a69aa35	0.00089136075
203	0x3da016de	0.078168616
204	0x3e336a6e	0.17521068
205	0x3df6ae58	0.12044972
206	0x3e59ebeb	0.21281402
207	0xbdaf9310	-0.08572972
208	0x3e7eaad0	0.24869847
209	0xbdc38f90	-0.09548867
210	0xbbab6308	-0.0052303113
211	0x3d33c467	0.043888476
212	0xbe3cd4ed	-0.184406
213	0x3abcf38c	0.0014415844
214	0xbd1c13c6	-0.038104795
215	0x3ceb70c6	0.028740298
216	0x3e3bea19	0.1835102
217	0x3d7bdbfb	0.061489087
218	0x3e10dda0	0.14147043
219	0x3dcd401d	0.10021994
220	0x3da2448b	0.0792323
221	0x3e2f8aae	0.17142746
222	0x3e3fe13f	0.18738268
223	0xbe064293	-0.13111334
224	0xbe508bc9	-0.20365824
225	0x3de96858	0.11396855
226	0xbe3de4cf	-0.18544315
227	0x3e2ef612	0.17086056
228	0x3e6a095c	0.22855133
229	0xbe673074	-0.22577077
230	0xbcb9a7e5	-0.022663066
231	0xbd6e1b57	-0.058131542
232	0xbe28e0f6	-0.16492066
233	0x3d7dbe91	0.061949316
234	0x3d0c52a3	0.034258496
235	0xbcec9c1a	-0.028883029
236	0x3d75acf5	0.059979398
237	0xbdbb5577	-0.091471605
238	0x3de52a70	0.11189735
239	0x3d777e13	0.060422968
240	0xb7b280cb	-2.1279227e-05
241	0x3ba55637	0.005045678
242	0x3ca19a7a	0.01972698
243	0x39d43e58	0.0004048224
244	0x39e8f706	0.00044434535
245	0xbafb375c	-0.0019166279
246	0x3d14948a	0.03627447
247	0x3b08333c	0.0020782491
248	0xb7b277f3	-2.127511e-05
249	0x3d243a36	0.040094577
250	0x3c407145	0.011745756
251	0xbdec5d5a	-0.11541243
252	0x3d44739d	0.04796182
253	0xbd9370e7	-0.07199269
254	0xbd313a18	-0.043268293
255	0xbe413a60	-0.18869925

bias f4 [680]
0	0x3e4e6bda	0.2015833
1	0x3d607172	0.05479569
2	0xbe1547bd	-0.14578147
3	0xbd584346	-0.052798532
4	0x3e1c8f00	0.15288925
5	0x3c174c07	0.009234435
6	0xbd083c01	-0.03326035
7	0x3dd8848f	0.105721585
8	0x3e4481af	0.19190095
9	0xbdff4517	-0.1246435
10	0x3e379a97	0.17930065
11	0x3e50f5b3	0.20406227
12	0x3e587dc3	0.21141724
13	0x3e6f3b63	0.23362498
14	0xbd867eb3	-0.06567135
15	0xbe283540	-0.16426563
16	0x3e3c96cc	0.184169
17	0xbd865a42	-0.06560184
18	0xbe238f79	-0.15972699
19	0xbdd387d6	-0.10328643
20	0xbe3b70e5	-0.18304785
21	0xbe23a47f	-0.15980719
22	0x3cd334cc	0.025782011
23	0xbe27359d	-0.16329046
24	0x3d1c22b8	0.038119048
25	0x3d56f20c	0.052476928
26	0xbde3fa67	-0.11131745
27	0x3d1c7432	0.03819675
28	0x3e072b19	0.13200034
29	0xbdbd9557	-0.09257
30	0x3e71d74f	0.2361729
31	0x3afebcb8	0.0019434905
32	0xbd969d16	-0.073541805
33	0xbe368121	-0.17822696
34	0xbdfac4b4	-0.122445494
35	0x3e07fbec	0.13279694
36	0xbe2f9de8	-0.1715008
37	0x3afd1e81	0.0019311459
38	0xbe3f782c	-0.18698186
39	0x3e2fe3bb	0.17176716
40	0xbdfc57aa	-0.12321408
41	0xbdda5c15	-0.106620945
42	0xbd087ef0	-0.033324182
43	0x3d0bd26a	0.034136213
44	0xbddb1558	-0.1069743
45	0x3d90a1c6	0.07062106
46	0xbe17551e	-0.14778563
47	0x3e62d62c	0.22152013
48	0xbe128ca0	-0.14311457
49	0x3e75cae4	0.24003178
50	0xbd60d147	-0.054887082
51	0xbe07faae	-0.1327922
52	0xbe316b76	-0.1732615
53	0xbc1a1bb3	-0.009406018
54	0x3e0ec4c7	0.13942252
55	0xbda81fc7	-0.08209186
56	0xbe1d9f77	-0.15392862
57	0xbe1e8430	-0.15480113
58	0x3e3260d9	0.17419757
59	0x3ddd9c4c	0.10820827
60	0x3e005467	0.12532197
61	0xbce38cd4	-0.027777113
62	0x3da8b56a	0.08237727
63	0x3831120d	4.22169e-05
64	0x3ddf09d3	0.10890546
65	0xbd6c477a	-0.057685353
66	0xbaeb9f9b	-0.0017976643
67	0x3dc52556	0.09626262
68	0x3e5ea9ff	0.21744536
69	0x3dc0f4b5	0.09421674
70	0x3e3a0d71	0.1816919
71	0xbd90b097	-0.07064932
72	0xbba0cb7a	-0.004907069
73	0x3d4d6a30	0.050150096
74	0xbd8398cb	-0.06425627
75	0xbe1eace1	-0.15495636
76	0xbe53da0f	-0.20688652
77	0x3e735192	0.23761585
78	0x3d5620b6	0.05227729
79	0x3e389214	0.18024474
80	0x3e3bdde0	0.18346357
81	0xbc967aca	-0.018369097
82	0x3de2216b	0.1104153
83	0xbe154edd	-0.14580865
84	0xbd07ccd0	-0.03315431
85	0x3e170a4a	0.14750019
86	0xbd2deaad	-0.042460132
87	0x3e3786ac	0.17922467
88	0x3e3bfbaf	0.18357728
89	0x3e6ce976	0.23135933
90	0x3cc49f91	0.024001868
91	0xbe2b1c90	-0.16710114
92	0xbdb09a08	-0.08623129
93	0x3e635f16	0.22204241
94	0xbce0b14c	-0.027428292
95	0xbcde3a58	-0.02712743
96	0x3d7ecc08	0.062206298
97	0xbe422e8c	-0.18963069
98	0xbd486de3	-0.04893292
99	0xbe1a19f2	-0.1504896
100	0x3bdf01ae	0.00680562
101	0xbce7e56a	-0.028307635
102	0xbe1682ac	-0.14698285
103	0x3ca439de	0.020047124
104	0xbd3a506c	-0.045486853
105	0xbe2a5a5d	-0.16636033
106	0x3c066bbf	0.0082044
107	0xbe08ba25	-0.13352259
108	0xbe5a405f	-0.21313618
109	0x3d375e0f	0.044767436
110	0x3e1a81f3	0.15088634
111	0x3dc7362d	0.0972713
112	0x3e4c168b	0.19930474
113	0x3d8af5fb	0.06785198
114	0x3e091fab	0.13390987
115	0xbca2512d	-0.019814098
116	0xbe0f91d2	-0.1402047
117	0x3e1f1ea3	0.1553903
118	0x3d99268c	0.07478055
119	0x3d52093d	0.05127834
120	0xbde4ee41	-0.11178256
121	0x3e2d3798	0.16915739
122	0xbe2cb68d	-0.16866513
123	0xbdfabb3d	-0.12242744
124	0xbcf6e9fc	-0.03014087
125	0xbd0d1e56	-0.03445276
126	0x3d46c3a5	0.048526425
127	0x3b61c8e8	0.0034452025
128	0x3e1ba8de	0.15201136
129	0xbdd8ea1d	-0.105915286
130	0x3e47f884	0.19528395
131	0xbe17cab0	-0.14823413
132	0x3d6ef764	0.0583414
133	0x3a106790	0.0005508596
134	0x3dbf78e5	0.09349231
135	0x3e5a9f92	0.21349934
136	0x3dac8ff2	0.08425893
137	0x3e58692b	0.21133868
138	0x3e63c17d	0.22241779
139	0xbda6482c	-0.081192344
140	0x3e6de642	0.23232368
141	0xbd84f108	-0.064912856
142	0x3d9956f5	0.07487289
143	0xbd8ab5c6	-0.06772952
144	0x3e5c2c09	0.21501173
145	0x3e5ef3df	0.21772717
146	0xbdd9ef34	-0.106413275
147	0x3e438b63	0.1909614
148	0xbe1fffae	-0.15624878
149	0x3d11a424	0.035556927
150	0x3d26ba1f	0.040704843
151	0x3d8816f7	0.06645005
152	0xbd02f655	-0.0319732
153	0x3d6ebbee	0.058284692
154	0xbdcab7f9	-0.09898371
155	0x3e06d8f9	0.13168706
156	0xbd60dbf0	-0.05489725
157	0x3db0fada	0.08641596
158	0xbe076cea	-0.13225141
159	0x3e78a7a6	0.24282703
160	0x3d7baaae	0.06144207
161	0x3d265878	0.040611714
162	0xbd347193	-0.044053625
163	0xbe1a088b	-0.15042321
164	0xbc72ec63	-0.014826867
165	0x3c493be7	0.012282348
166	0xbd06f54e	-0.032948785
167	0xbe19cf9b	-0.15020601
168	0x3e09fbff	0.13475035
169	0x3cd0b09b	0.025474837
170	0xbdfcda1f	-0.12346291
171	0xbdd5b993	-0.10435786
172	0xbda7fc09	-0.08202369
173	0xbd9a128d	-0.075230695
174	0xbe0640bc	-0.13110632
175	0xbd8c5148	-0.06851441
176	0xbe1b61ad	-0.15173979
177	0xbd9e15a3	-0.077189706
178	0x3d7a0e89	0.061049018
179	0x3e5ad63d	0.21370788
180	0x3e155668	0.14583743
181	0xbda3d3b3	-0.07999363
182	0xbcceb133	-0.02523098
183	0x3d44e08c	0.048065707
184	0xb952c4c5	-0.00020100463
185	0x3dcb2336	0.09918825
186	0x3d78f094	0.06077631
187	0x3dae7dc6	0.08520083
188	0x3a36e412	0.0006976734
189	0x3e06336e	0.13105556
190	0x3c2bd340	0.010487378
191	0x3e7fb70d	0.24972172
192	0xbd7b68f6	-0.061379395
193	0x3d2ba7ed	0.041908193
194	0xbd939a3f	-0.072071545
195	0xbe0ed607	-0.13948832
196	0xbde797e3	-0.11308267
197	0x3e56e53b	0.20985882
198	0xbcbb5b6d	-0.022870744
199	0x3ca2d76f	0.019878117
200	0x3d72372f	0.05913466
201	0x3d2cdb08	0.042201072
202	0x3e548dc8	0.2075721
203	0xbd9dff22	-0.07714678
204	0x3e4fdccc	0.20299071
205	0x3d17739f	0.0369755
206	0xbd402232	-0.04690761
207	0xbc75a30c	-0.014992487
208	0x3df812fd	0.12112997
209	0x3da41158	0.080111206
210	0x3d91c303	0.07117274
211	0x3e5a339e	0.21308753
212	0x3e7034c5	0.2345763
213	0xbcefb78b	-0.029262325
214	0x3da9ac24	0.08284786
215	0xbdd29cfe	-0.1028385
216	0x3e070eeb	0.13189285
217	0xbcfdac3f	-0.030965922
218	0xbe2d94de	-0.1695132
219	0x3e405349	0.18781771
220	0xbd8cfa72	-0.06883706
221	0x3e50b144	0.20380121
222	0xbd035bc2	-0.03206993
223	0x3db7e231	0.089786895
224	0x3e3ca1f7	0.1842116
225	0xbdc797b8	-0.09745735
226	0x3cd058c7	0.025432957
227	0x3d8f5956	0.06999461
228	0x3dc4ad4a	0.09603365
229	0x3e473194	0.19452506
230	0xbe00f9ba	-0.12595263
231	0x39a82b8f	0.0003207591
232	0x3d1d623b	0.038423758
233	0x3e39cba7	0.18144093
234	0x3d52aeee	0.051436357
235	0x3e4ecf36	0.20196232
236	0xbe015f99	-0.12634124
237	0xbce9fd9e	-0.028563317
238	0x3d4b5ec9	0.04965094
239	0xbcea628f	-0.02861145
240	0xbddb73d5	-0.107154526
241	0x3dc311dc	0.09524891
242	0xbe094113	-0.1340373
243	0xbd7f6b5f	-0.062358256
244	0xbe204179	-0.15649976
245	0xbc93b72e	-0.018031683
246	0xbca6d5c0	-0.020365596
247	0xbe210097	-0.15722881
248	0x3dd7fe27	0.105465226
249	0x3de65430	0.11246526
250	0xbe1b865d	-0.15187974
251	0x3d7c21a2	0.061555512
252	0x3e07468d	0.13210507
253	0x3e68d0df	0.22735928
254	0x3db305ab	0.087413155
255	0x3d105b8c	0.035243556
