estimators/knet/single_obs/velMSE_ep100_train4000_val1000_test10000_lr1e-03_wd1e-04_data_sr1e-01_q1e-04_r1e-02_j5_train[200,250]_val[40,250]_test[40,250].pt (torch, 156695 bytes, 40 tensors)

weight_ih_l0 f4 [48, 20]
000000 1b 0d dc bd 44 09 33 3e 2f 08 b7 3d dc ff 67 be
       -0.10744687 0.17484003 0.08937108 -0.22656196
000010 54 d9 e2 3c 97 32 0e 3e 6f 4c 80 3d d8 a3 11 3e
       0.02769152 0.13886486 0.062645786 0.14222658
000020 4f 6e 5c 3e 4f 84 2d be 67 7a 51 3e 54 e2 2e be
       0.21526454 -0.16945003 0.20456849 -0.17078525
000030 0a 55 3b 3d d5 c8 20 3e ec f6 bf bd ea 20 34 3e
       0.045735396 0.15701611 -0.093732685 0.1759068
000040 fa da a5 3d 90 09 dd bc 65 05 ad bc fd 00 9d 3d
       0.08098407 -0.026982099 -0.021120736 0.07666204
000050 e2 a4 81 bc cd 91 b3 bd df 2d 1f 3e 1b fd 35 bd
       -0.015825693 -0.08768044 0.15544842 -0.044430833
000060 b8 cb 3b 3e 55 27 d5 bd f5 7b 1c 3e 8a 23 f9 3d
       0.18339431 -0.104078926 0.15281661 0.12164982
000070 bf c0 8a bc fb bc 79 3d 66 74 9b bd 38 87 91 3c
       -0.016937612 0.06097124 -0.075905606 0.017764673
000080 6d b2 b2 3b 24 90 b4 3d 02 59 73 3d 78 5a ea bd
       0.005453399 0.08816555 0.059411056 -0.11443037
000090 83 0e 4d 3d da 65 0a bc 80 7d 47 be 9a 07 00 be
       0.050062668 -0.008447135 -0.19481468 -0.125029
0000a0 87 ed db bd 7a 4c 54 3e 4d b7 66 3e 10 f9 c8 bd
       -0.10738664 0.20732298 0.22530861 -0.0981313
0000b0 9e f4 7a 3d f5 c3 3e bd 20 bc b2 3d 4d 41 10 3e
       0.06126844 -0.046573598 0.08727288 0.1408741
0000c0 c7 77 0c bd ef 90 08 3d ca 75 72 be 4f 02 ab bd
       -0.034293916 0.033341344 -0.23677745 -0.0835005
0000d0 97 38 0f 3e 43 61 9e bd 0c 2f eb 3c ff 3e 5a bd
       0.13986431 -0.07733395 0.028708957 -0.053282734
0000e0 1a 21 fe bc 9c e9 0f 3e c0 8e cb 3c 7b 79 64 3e
       -0.031021643 0.14053959 0.024848342 0.22311966
0000f0 af 53 a2 3c 33 12 04 3d 63 8b 39 3d 1c 4f 4f 3d
       0.019815294 0.03224392 0.045298945 0.050612554
000100 d5 0a 12 3d 3c 48 4f 3e ea ea 52 3e a4 3b d2 bd
       0.03565486 0.20242399 0.20597425 -0.10265282
000110 67 60 f8 3d 0d 12 00 3d f1 06 5d 3e e4 93 2b 3e
       0.12127762 0.031267215 0.21584679 0.16755635
000120 c9 05 4e 3e ba a0 ff bd 59 9c 99 3d 9b ea 1b be
       0.20119394 -0.12481828 0.07500524 -0.15226214
000130 1a b6 64 be a1 65 66 bd f0 b8 39 3e b1 b0 c9 bd
       -0.22335091 -0.056249265 0.18136954 -0.09848154
000140 15 88 91 3c f9 ca 56 be 80 4c 16 be 3c 08 53 3d
       0.017765084 -0.20975865 -0.1467762 0.051521525
000150 d4 8f 44 bd f1 7c 6a 3e 9e fd 0a bd a6 79 25 be
       -0.047988728 0.22899224 -0.033933274 -0.16159686
000160 58 a9 32 be 9e 9d 97 3d ba 8d dd bd 4c 37 51 3e
       -0.17447412 0.0740311 -0.10818048 0.2043125
000170 cf d5 24 3e e3 40 a2 bd f3 76 03 be 03 b6 81 bc
       0.16097187 -0.079225324 -0.12838344 -0.01583386
000180 23 ab 0c 3e 3f 1d e5 bd 55 69 ed bd f0 a6 34 be
       0.13737158 -0.11187219 -0.11592356 -0.17641807
000190 bf 93 57 be 08 3d 84 3e 7e de 47 3e 9f e5 cf bb
       -0.21052454 0.25827813 0.19518468 -0.0063445116
0001a0 05 ab ba bd ef 11 86 3d bb b0 6e be 9e 25 4b be
       -0.09114651 0.06546389 -0.23309605 -0.19838569
0001b0 2f 32 77 3e ff 35 45 3d 12 2d a8 3d 1f 69 43 be
       0.24140237 0.048147198 0.082117215 -0.1908307
0001c0 36 04 36 3e 4f cb a7 bd a5 76 20 be ea a8 b9 3d
       0.17775044 -0.08193075 -0.1567026 0.09065421
0001d0 68 62 c8 bc 63 84 b0 bd 81 04 04 3e 5b 0e ea bc
       -0.024460986 -0.08619001 0.12892343 -0.028571298
0001e0 62 e6 51 3e e9 7f 68 3e 63 31 de bd 15 dc 45 bc
       0.2049804 0.22705044 -0.108492635 -0.012076397
0001f0 c4 3c c3 bd 30 69 cb bd 0e d5 32 3d 15 47 3f be
       -0.095330745 -0.09932172 0.043660216 -0.1867946
000200 5f 92 56 bd 8c 76 2f 3e 45 e1 9c 3d ea 44 fa 3d
       -0.052385684 0.17135066 0.07660154 0.122201756
000210 f8 9d 46 be 64 47 6f be 23 ce 0c bd a3 4f 38 bd
       -0.19396198 -0.23367077 -0.034376275 -0.044997822
000220 6f 3f 99 3d 44 06 ce 39 33 8a 38 be ec e9 b7 3d
       0.07482802 0.0003929605 -0.18021469 0.08980164
000230 24 50 4a be 3b 22 1e bc e5 86 f5 3c 53 fa 24 bd
       -0.19757134 -0.009651716 0.02997155 -0.04027779
000240 b1 c5 0d be ed 9a 44 be 45 e3 69 3e 58 bd 68 be
       -0.13844945 -0.19199724 0.22840603 -0.22728479
000250 92 a9 2c bd 29 7b e0 3d a5 44 45 be 55 26 71 3e
       -0.042153902 0.10960991 -0.19264467 0.23549779
000260 db 86 2c bd 74 e1 0e 3d a2 03 6c be 1b ed cd bd
       -0.042120796 0.034882978 -0.23048261 -0.1005499
000270 5c c2 66 3e 6d 6b 24 b9 e3 e0 55 bd a5 de 6c be
       0.2253508 -0.00015680278 -0.05221642 -0.23131807
000280 34 03 6f be cb d5 72 3e 63 06 20 be 19 98 fa 3d
       -0.23341066 0.23714368 -0.15627436 0.122360416
000290 cc 3d 05 3e 97 ba c4 bd aa 0c 4e 3e 26 d3 93 3d
       0.13011855 -0.09605902 0.20122018 0.07218008
0002a0 14 7b 0a 3e fd 03 e3 bd e2 36 bd 3d 59 97 e2 3d
       0.13523513 -0.11084745 0.09238984 0.110640235
0002b0 f1 1f 24 be 45 a0 74 be b4 a3 42 3e 1c 95 38 3e
       -0.1602781 -0.23889263 0.1900776 0.1802563
0002c0 73 50 34 3d e0 a1 f5 3a a7 79 71 3d c4 e6 96 bd
       0.044022035 0.0018740259 0.058953907 -0.07368234
0002d0 39 35 c5 3d f2 80 01 be 62 1e 4b bd a3 45 26 3c
       0.09629292 -0.12646845 -0.049589522 0.010148439
0002e0 72 56 19 be 58 2e 86 bd e0 30 5e 3e 4e 5f ec bd
       -0.14974383 -0.06551808 0.21698332 -0.115416154
0002f0 ad 45 d6 bd 28 3a 04 bd 61 bd 0c 3d 13 70 38 bc
       -0.10462508 -0.032282025 0.034360293 -0.011257189
000300 09 ca c0 bd a8 c8 a8 bd 96 f7 41 3d ac f1 26 be
       -0.09413535 -0.08241397 0.047355257 -0.16303128
000310 a0 cb 47 3e 02 a8 d9 3b 00 30 a3 bd a6 be fd bd
       0.1951127 0.0066423425 -0.0796814 -0.12389879
000320 73 21 d4 3c 13 03 dd bd be ab 1f 3e c2 26 63 3e
       0.025894856 -0.10791602 0.15592858 0.22182754
000330 0f 0e b2 3c bc cd df 3b dc 80 0b 3e 74 c2 37 3e
       0.02173522 0.0068299454 0.13623375 0.17945272
000340 fe 61 6e 3e b5 0c 44 bc cb 10 76 be 70 2b 24 be
       0.23279569 -0.01196592 -0.24029844 -0.16032195
000350 37 4d f0 3d d8 6c 40 be db 9e 0f 3e a6 89 39 be
       0.117334776 -0.1879152 0.14025442 -0.18118915
000360 2f 24 49 3e 44 10 d6 3c 74 64 2f 3d 17 f5 03 3d
       0.19642709 0.026130803 0.04282041 0.032216158
000370 e2 f7 fc bd b7 47 24 be 56 52 40 be 07 2f 6e 3e
       -0.123519674 -0.16042982 -0.18781409 0.23260127
000380 16 a2 d0 bd a2 29 18 bc 1e ba 64 3e 75 50 24 bd
       -0.101871654 -0.00928727 0.22336623 -0.040115792
000390 90 cf 3d bd 3d df e4 bd 54 99 56 be bd 6d a4 bd
       -0.046340525 -0.11175392 -0.20956928 -0.080287434
0003a0 7a e1 48 3e 98 43 20 bd 08 88 7f 3e 61 56 4d be
       0.19617262 -0.039126962 0.24954236 -0.20052482
0003b0 3c 34 f8 bd 8c 64 dd 3b 6f 95 56 3e 60 85 72 be
       -0.12119338 0.006756371 0.20955442 -0.23683691
0003c0 5c ae a4 bd 36 a0 d1 3d 69 94 7f bd a4 0e f1 3d
       -0.08041069 0.10235636 -0.062397394 0.117703706
0003d0 e4 26 c8 3d 5d 26 1f 3e b8 7e 57 3d a9 62 3c be
       0.09773043 0.15541978 0.052611083 -0.18397011
0003e0 ff 66 0a be b2 63 86 bc 84 17 85 3d 40 0f 45 3e
       -0.13515852 -0.01640496 0.06498626 0.19244099
0003f0 99 03 4a bc c2 1c b0 bd 0d fa fe 3d 05 0a 5b 3e
       -0.012329959 -0.08599235 0.12450037 0.21390541

weight_hh_l0 f4 [48, 16]
000000 da 72 81 3d 0d d8 03 be 3f 48 c1 3d 46 3e 75 3e
       0.06320734 -0.12875386 0.09437608 0.23949537
000010 34 bb 1b be bc 9e 28 be 75 20 55 3d 1a b0 3d be
       -0.15208131 -0.16466802 0.052032907 -0.18524209
000020 fe 51 84 bd 79 3e 4f be 26 f8 c2 3d 85 4c b0 3d
       -0.06460951 -0.20238675 0.09519987 0.08608345
000030 0c 5a 52 3e ff b4 ef bd f4 a1 6d be fa 30 54 be
       0.20542163 -0.11704444 -0.23206311 -0.20721808
000040 64 4a 1d be 4a fa 15 3c 54 3f 72 3e 1e 34 31 be
       -0.15360409 0.009153912 0.2365697 -0.17305037
000050 e0 44 2f 3d 7b 14 57 3e 18 ab b6 bd a4 e0 18 3d
       0.042790294 0.21003906 -0.08919352 0.03732361
000060 21 05 5a 3e 02 06 18 bb aa 4c 59 3e 25 1b 10 be
       0.21291019 -0.002319694 0.21220651 -0.14072855
000070 c2 03 59 3e 27 3a 66 be c3 15 2a bd 58 c9 3a 3e
       0.2119284 -0.22483121 -0.04152466 0.18240869
000080 f3 87 5f 3e c0 e6 18 be f6 7e 9a bd 2d 47 6e 3e
       0.21829204 -0.14931774 -0.07543747 0.23269339
000090 30 16 d3 3c a7 55 8e bc 2e c7 41 3e 92 87 64 3e
       0.025767416 -0.017374827 0.18923637 0.22317341
0000a0 4c 04 67 3e eb 5d 1e 3e d0 9b 14 be 16 bb 0a 3d
       0.22560233 0.15465514 -0.14512563 0.033869825
0000b0 39 cc 22 be 66 44 7c bd d3 d3 e7 bd 52 bf 4e be
       -0.15898217 -0.061588667 -0.11319699 -0.2019017
0000c0 cb 6d a4 3c d8 a4 3b 3d 6c 89 01 be 10 10 00 be
       0.020071885 0.045811504 -0.12650079 -0.12506127
0000d0 d5 1f f4 3d da 1a 17 bc 4f 0f 3d 3e b3 7c 5b 3e
       0.11920134 -0.0092227105 0.18462871 0.21434288
0000e0 c8 b1 81 3b 0a 59 b3 3c 79 cc 1e 3c e1 2e 26 be
       0.0039579608 0.021893043 0.009692305 -0.1622882
0000f0 60 40 1e bd a1 d7 19 be 90 e9 e3 3d f8 e1 3e bd
       -0.03863561 -0.15023662 0.11128533 -0.04660222
000100 29 98 3f be 21 a6 1b 3c c7 fc 7c 3e 71 2a c7 3d
       -0.18710388 0.009500057 0.24705802 0.09724892
000110 cf d0 1e be 07 29 00 be 67 19 de 3d 2b 87 77 be
       -0.15509342 -0.1251565 0.10844689 -0.24172656
000120 bd be ae 3d 46 fb 36 bd 6e 5f 5b be be d7 28 be
       0.08532474 -0.044673227 -0.21423122 -0.16488549
000130 fc d0 5f be 6e 15 30 be 3f a3 00 be 3b e8 ad bd
       -0.21857065 -0.17195675 -0.12562273 -0.0849156
000140 c6 dd 4d be cf 34 f5 3d 71 5f 19 be d4 9d 66 be
       -0.20104131 0.11972963 -0.14977814 -0.22521144
000150 a3 62 5d be d3 a1 dd 3d bc 60 56 be ec 1e de bd
       -0.21619658 0.10821881 -0.20935339 -0.10845742
000160 c0 be c3 3d 8b 3d 49 be 02 75 49 3e db 72 bf bc
       0.09557867 -0.19652383 0.19673541 -0.023370197
000170 21 b7 3f be 09 2d 97 3d 7c e3 ec 3d f9 ae 10 3c
       -0.18722202 0.07381637 0.11566827 0.008830779
000180 b8 10 a7 bd 19 65 7b 3e 55 52 9e bd 6a 6f 32 be
       -0.08157486 0.24550284 -0.07730547 -0.17425314
000190 ea 07 77 be 9e 69 ad bd 20 28 e0 3d 41 78 49 be
       -0.24124113 -0.084674105 0.10945153 -0.1967478
0001a0 24 d3 6a be 49 37 84 bd 84 20 a4 bd fa fe 1f bd
       -0.22932106 -0.06455857 -0.08014014 -0.039061524
0001b0 06 dd 54 3e 7e da 18 3e bb a8 4f 3e 8c 6b 17 bc
       0.20787439 0.14927098 0.2027921 -0.00924195
0001c0 12 4d 07 be 0b f2 2d be 32 b7 0b bd f4 47 9b bc
       -0.13212994 -0.16986863 -0.034110256 -0.018955208
0001d0 76 6d 6f 3e 64 58 5e bd 38 c5 2b 3e e5 da 21 3e
       0.233816 -0.054283515 0.16774452 0.15806158
0001e0 75 e6 ac bd b6 89 b7 3b 22 19 c9 3d f2 57 47 3e
       -0.08442394 0.005601133 0.09819247 0.19467142
0001f0 ef 8c 49 3e 35 1b 52 3c 20 65 fd bd ba 44 8f bd
       0.19682668 0.0128238695 -0.12372804 -0.069955304
000200 c9 6f 80 bd 85 53 3c 3e 3c 39 4b be 21 99 36 bd
       -0.06271321 0.18391235 -0.19846052 -0.04457963
000210 2d 66 2a 3e 79 31 5a 3e e7 7e 75 be 53 ea a3 bd
       0.1664054 0.21307935 -0.2397419 -0.08003678
000220 dd 30 5c 3d 75 c0 e6 bc 74 35 e1 3d 31 5f 19 bb
       0.053757537 -0.028167943 0.109965235 -0.0023402686
000230 95 65 ab 3d c2 e0 c2 3d 5c d9 bc bc c2 a7 1f bd
       0.083689846 0.095155254 -0.023052864 -0.038978346
000240 d6 f2 c7 3d 70 46 ff bc 15 8b 70 3c d6 be 6d 3e
       0.09763114 -0.031161517 0.014681597 0.2321733
000250 a4 fe f3 bd c6 75 88 bd 37 bc 27 bd 33 62 12 be
       -0.11913803 -0.066630885 -0.04095098 -0.14295273
000260 3d c2 c8 3d 8c cd 82 3a 50 71 07 3e 8e 89 e2 bd
       0.09802673 0.0009979471 0.13226819 -0.11061393
000270 a6 b8 8d 3a f7 1a 25 3e 6c c0 51 be d6 f6 32 3d
       0.0010812476 0.16123568 -0.2048356 0.043692432
000280 1b ea 14 be e5 9d 59 bc 88 67 55 3d f7 34 7c bd
       -0.14542429 -0.013282274 0.05210069 -0.06157395
000290 7e 7f 3c be 7e 49 24 3e 50 51 4c 3e 7b ae 95 bd
       -0.1840801 0.1604366 0.19952893 -0.0730867
0002a0 b0 e5 a5 bd a4 47 50 be f2 da 49 3e ae fd b9 3d
       -0.0810045 -0.20339829 0.19712427 0.09081589
0002b0 8f ab 4d be 8f 46 3a 3e fc 41 7a 3d 07 d4 02 be
       -0.20084976 0.18190978 0.061098084 -0.12776195
0002c0 8a 0c 56 be c7 36 6c 3d 1f 60 6d 3e 98 74 74 be
       -0.20903221 0.057669427 0.23181199 -0.23872602
0002d0 97 ad 3c be df 8c cc bd 1d f3 63 be 0e 56 fc bb
       -0.18425594 -0.099878065 -0.22260709 -0.007700688
0002e0 0c 68 55 bd fc 90 4d be 46 b6 40 bd 35 9d 75 3e
       -0.05210118 -0.20074838 -0.04704883 0.23985751
0002f0 2e 14 25 3e 54 2d 2c 3e 9f d1 0d bd 54 53 e0 bc
       0.16120979 0.16814166 -0.03462374 -0.027383484
000300 05 a6 51 3d 07 71 d1 3d a6 d3 ed bd 80 82 c9 3d
       0.05118372 0.102266364 -0.11612634 0.09839344
000310 98 f0 33 bd e9 a3 13 bd 7a f2 5d 3e ff 7b 7b bd
       -0.04393062 -0.03604499 0.21674529 -0.06139755
000320 55 57 72 be 79 a1 60 be a6 9d 21 bd 5a fc a1 bd
       -0.23666127 -0.21936597 -0.039456986 -0.0790946
000330 f0 e6 32 be e9 1c fc bd 77 f8 07 3e d8 61 89 bd
       -0.17470908 -0.12310202 0.13278376 -0.06708115
000340 ec b3 77 3e 1d e2 76 bd 30 8a ad 3c e7 46 76 3e
       0.24189728 -0.060274232 0.021184057 0.24050485
000350 00 75 93 3d a0 21 7d be 39 4b 82 3e bb 76 1c 3e
       0.0720005 -0.24719858 0.25448015 0.15279667
000360 5a 3d 1f be 07 3e 9e bc 80 48 46 3e 7f 91 1a 3e
       -0.15550748 -0.019316686 0.19363594 0.15094565
000370 28 8b 65 3e 8b 20 74 be a3 86 41 3e 9e d2 55 3e
       0.22416365 -0.23840539 0.18899016 0.20881125
000380 99 13 4e be a2 cd 17 bd 6d e2 65 3e 9c 9e 53 3e
       -0.20124663 -0.03706134 0.22449656 0.20665973
000390 40 22 22 3e 8d 64 5e be 34 b0 b9 bd 3b ca 0f be
       0.15833378 -0.21718045 -0.09066811 -0.14041989
0003a0 d1 47 0f be 6c 00 73 3d e1 54 da 3d 8b d9 38 be
       -0.1399224 0.059326574 0.106607206 -0.18051736
0003b0 6a e7 c9 3d 99 ec 2e 3e 4d 45 af 3d c5 ac 7b be
       0.09858592 0.17082442 0.0855814 -0.24577625
0003c0 12 af 65 be e2 6c 2d 3e 7d 0e 94 bd 79 b2 7a be
       -0.22430065 0.16936067 -0.07229326 -0.24482144
0003d0 73 77 07 bb 7e 7b 45 3e 8c 6d 3f be 6b a2 f7 bd
       -0.0020670563 0.1928539 -0.18694133 -0.12091526
0003e0 56 29 2d 3e 54 fa 2f 3d 1a 98 67 be 7b a1 56 be
       0.169103 0.04296334 -0.22616616 -0.20960037
0003f0 ff 23 1b 3e f8 71 8c bc 08 a6 d3 3d c1 84 c0 bb
       0.1515045 -0.017144188 0.10334402 -0.0058752005

bias_ih_l0 f4 [48]
000000 b1 1a 48 be 29 e4 97 bd 64 b0 87 3c 4a b5 29 3d
       -0.19541432 -0.07416565 0.016563602 0.041432656
000010 ca df 2d be 28 0f 6d 3e 86 7d a2 3d f3 8b 10 3e
       -0.169799 0.23150313 0.07934098 0.14115886
000020 9d bc 25 be 63 7e 29 be da 51 67 bd 63 3d 55 3e
       -0.16185232 -0.16552119 -0.056474544 0.20824198
000030 83 f7 d5 bd 19 9d 73 3d 13 16 72 3e a2 a1 0e 3e
       -0.104476 0.059475992 0.23641233 0.13928846
000040 02 e3 23 bd 72 e4 3e 3e 3a 31 f0 3b 99 65 24 3e
       -0.040011413 0.18641832 0.007330087 0.16054381
000050 80 8a 5f 3e ae da 6e be d6 2f fb 3d 3a 48 1a be
       0.21830177 -0.23325607 0.12264983 -0.15066615
000060 dd c2 bd 3d aa ce 03 3d 70 4f 47 bc 0e 5d 2f 3e
       0.09265683 0.032179512 -0.0121649355 0.17125341
000070 f7 8d 88 bd c4 3a 29 3e cb 3f a8 bd db be 9e bd
       -0.06667703 0.16526324 -0.082152925 -0.077512465
000080 d6 26 7f 3e fd 9d 44 3e 75 3d 1b 3e 05 24 83 3d
       0.24917158 0.19200893 0.15160163 0.064033546
000090 a1 a9 e3 bd c4 4c 2f 3d be 01 a3 3d 63 dd 24 3e
       -0.111163385 0.04279782 0.07959317 0.16100077
0000a0 66 a4 6f bc ed 95 f4 bb 7b 85 46 3d 04 e3 56 be
       -0.014626598 -0.0074641616 0.04846714 -0.20985037
0000b0 41 a3 3d be 22 aa 0f 3e d1 48 61 bd da c2 88 bd
       -0.18519308 0.14029744 -0.055001084 -0.0667779

bias_hh_l0 f4 [48]
000000 61 d0 79 3c d0 37 01 3e 6f fd 37 be 0f e2 7b be
       0.015247435 0.12618947 -0.17967771 -0.24597953
000010 6d 48 15 3e a3 c6 94 3d ad 1c 07 3e 03 8d 5e bc
       0.1457841 0.072644494 0.13194533 -0.0135834245
000020 02 6a 33 3e 8c e6 6a 3d f0 71 68 3e 0a 42 28 3e
       0.17520908 0.057348773 0.22699714 0.16431442
000030 eb 11 04 3d 84 6e e2 bc e6 14 96 bc 18 f1 e9 3d
       0.03224365 -0.027640589 -0.018320512 0.11422938
000040 92 8a 34 3e 5b 8d 2d 3e 6d 1f 35 be dc 5b 1c 3d
       0.17630985 0.16948454 -0.17687769 0.03817354
000050 46 86 e8 bd bb 62 bb 3d 2b cc ab bc 09 e2 76 3c
       -0.113537356 0.09149691 -0.020971378 0.015068539
000060 64 33 90 3c e0 a3 df 3d c2 49 e3 3d 2b 93 5c 3e
       0.01760263 0.109199286 0.110980526 0.21540515
000070 a7 35 0f be f8 02 d7 bd 6d a1 d9 3d 6a 46 34 be
       -0.1398531 -0.10498613 0.10626493 -0.17604986
000080 68 27 f0 3d 78 88 22 3e 4f a5 4a bd 6b 06 6d 3d
       0.11726266 0.15872371 -0.049474057 0.05786745
000090 55 0d 08 be f7 45 81 bc 05 29 2a 3d 48 2f 42 bd
       -0.13286336 -0.015780432 0.041543026 -0.047408372
0000a0 b1 93 80 be 39 9b a9 bd b4 58 b1 bd 1a cf ec bc
       -0.2511268 -0.082815595 -0.08659497 -0.028907347
0000b0 d8 59 6f be 46 d5 02 3d 89 46 66 3e b8 ad a0 3d
       -0.23374116 0.031941675 0.22487845 0.07845634

weight_ih_l0 f4 [48, 36]
000000 83 9e 5a be fd bf 55 be 7a 5d 72 be 81 ba 5c be
       -0.2134953 -0.20874019 -0.23668471 -0.2155552
000010 00 e2 1a 3e 61 26 9a 3c 37 1d 0e be 5f 9c 11 be
       0.15125275 0.018817129 -0.13878332 -0.14219807
000020 34 3d ef 3d f2 26 d7 bd 63 95 6f be 77 e0 32 be
       0.116815954 -0.10505475 -0.2339683 -0.17468439
000030 50 56 1a be 82 0e b5 bc 9e 61 36 3e 6b 7d 03 bd
       -0.15071988 -0.022101644 0.17810676 -0.03210203
000040 dd 6f e7 3c ba f8 09 be 0f fb 96 3d 3b cb 85 bd
       0.028251583 -0.13473788 0.073721044 -0.06532904
000050 b2 fe 09 3e 85 e6 29 be a0 69 a6 bc 2c c5 65 3e
       0.13476065 -0.16591842 -0.020314038 0.22438496
000060 15 6b c0 bd b7 bc c2 38 6c fc 17 be 8b 24 0c 3e
       -0.09395424 9.285792e-05 -0.14842385 0.13685815
000070 55 46 2f bd 10 91 03 bd 02 fc b6 3d 5f d7 96 bd
       -0.042791683 -0.032120764 0.089347854 -0.073652975
000080 25 c7 92 3c 31 0d 9c bc 42 8f 18 3e 79 ef 4b bd
       0.017917225 -0.019049259 0.14898399 -0.049788926
000090 7a 76 be bd 1f dd 67 3e 3a 51 57 bb c1 a4 41 be
       -0.09299941 0.22642945 -0.0032854811 -0.18910505
0000a0 c7 cd 43 3e 31 5a ed 3d 6d b8 12 3e 33 76 b0 3d
       0.19121467 0.11589468 0.14328165 0.08616295
0000b0 29 af 0c 3c 51 5d a0 bc 69 48 3a 3e 9a cb 01 3d
       0.008586683 -0.019575747 0.18191685 0.03168831
0000c0 ea e0 21 bd 69 ad f6 3d 51 f3 59 be ee 95 3e 3d
       -0.039521135 0.12044794 -0.21284224 0.046529703
0000d0 3f 04 8f 3d 49 f6 ab 3d 6a b8 c4 bd 57 78 73 bd
       0.06983232 0.083965845 -0.09605487 -0.059440937
0000e0 8e 35 50 3e c7 f0 10 bd a5 5d ea bd 3f e9 61 bd
       0.2033293 -0.035385873 -0.114436425 -0.05515408
0000f0 2e 48 38 be 3c 98 46 3a 15 5c 05 3e 89 69 57 3e
       -0.17996284 0.0007575785 0.13023408 0.21036352
000100 fe ee 34 bb d3 8f 1e bd 9f e5 ec bd ae 81 7c be
       -0.002760827 -0.03871138 -0.11567234 -0.24658844
000110 f0 03 03 3d 4d 59 10 be 00 3e 62 3c a0 98 eb 3c
       0.031986177 -0.14096566 0.013808727 0.0287593
000120 7e 04 c0 bd 28 5f ff bd f3 65 a1 3c b2 04 55 be
       -0.09375857 -0.124693215 0.019701933 -0.20802572
000130 82 bc ec bd e5 19 f0 3d 58 e8 22 be 09 ee 8d bd
       -0.115593925 0.11723689 -0.15908945 -0.06930167
000140 14 9a d9 3d d8 30 26 be 40 07 41 3e 2b 39 19 3e
       0.10625091 -0.1622957 0.18850422 0.14963214
000150 de 38 da bc b7 5e 9d 3d aa 30 f1 3b ad 1c 9d 3d
       -0.026638445 0.07684081 0.0073605375 0.07671485
000160 ab fc 3c 3c 19 2c 68 3e 81 34 21 3d 67 88 76 3e
       0.01153485 0.22673072 0.039356712 0.24075471
000170 9d e6 32 3e 40 0f 47 be 78 8d ed bd a5 29 3a be
       0.17470784 -0.19439411 -0.11599249 -0.18179949
000180 63 a1 42 be 92 1d 02 be 08 a4 a7 bc b1 30 ba bd
       -0.19006877 -0.12706593 -0.020463958 -0.090913184
000190 64 b4 3d 3e fb 52 44 bd 24 a6 85 3d b8 80 a5 bb
       0.18525845 -0.0479307 0.065258294 -0.005050745
0001a0 77 0a 77 be 48 4a 7b be 8c b4 07 be bb 71 12 3e
       -0.24125086 -0.24540055 -0.13252467 0.14301197
0001b0 f5 24 c8 3d b8 bf 2a 3e 3a 49 24 3e e5 65 a7 bd
       0.09772674 0.16674697 0.16043559 -0.08173732
0001c0 12 58 2d 3d 14 7f d2 3d 5b 52 b0 bb 60 08 32 3e
       0.04232032 0.102781445 -0.0053809113 0.17386007
0001d0 11 36 ff 3d a2 94 c0 bd 96 fa 0b 3d 87 a5 6f be
       0.12461484 -0.094033495 0.034174524 -0.23402987
0001e0 5c 4e f9 bd 4f 2f 72 be 0f d6 2a be 0a 6c 04 3e
       -0.12173149 -0.2365086 -0.1668322 0.12931839
0001f0 31 4e 1d 3e 04 85 0d 3e 3d 7a 1b be 46 ee 57 3e
       0.15361859 0.13820273 -0.15183349 0.21086988
000200 b2 2d fe bd 5f 06 1a bc 35 0e 76 3e 79 aa 2c 3e
       -0.124110594 -0.009400933 0.24028857 0.16861905
000210 22 b9 6b be 26 95 1c bd 91 ac a7 bd ee 65 fd bd
       -0.23019841 -0.038228177 -0.08187211 -0.12372957
000220 1d 41 5b bd 65 06 4f 3d c8 2f 73 3e 92 15 27 3d
       -0.053528894 0.050543208 0.23748696 0.040792055
000230 cf 21 86 bc da 9d 06 3e c9 d5 23 bd 2d 5a 94 bd
       -0.016373543 0.13146153 -0.039998803 -0.07243762
000240 e9 f7 05 be dc 01 38 3e 7e eb 62 be fa de dd 3b
       -0.13082851 0.1796946 -0.22160146 0.0067709656
000250 01 92 03 be 68 b2 df 3d 39 b1 84 3c bc bc 39 bd
       -0.12848665 0.109227 0.016197788 -0.045346007
000260 fa 34 51 be e8 bd 50 be 82 ab 08 3e bf e6 fe 3d
       -0.20430365 -0.20384943 0.13346675 0.12446355
000270 92 16 10 be 73 9d 27 be f4 04 6a 3e f8 0f 51 be
       -0.1407111 -0.16368656 0.22853452 -0.20416248
000280 39 23 3c 3d a9 1d bd bd 06 58 a2 3c f4 95 03 be
       0.04593203 -0.09234173 0.019817363 -0.12850171
000290 cb be 41 3e 5a b4 c9 3d 75 a6 9f bc 6c 9d 83 be
       0.18920438 0.098488525 -0.019488553 -0.2570604
0002a0 28 57 e6 bd a9 4a a9 bd 78 c4 c5 bc e5 52 32 3e
       -0.112470925 -0.082661934 -0.024141535 0.17414434
0002b0 50 9d 33 bd 8e ea 92 3d 1a 00 b1 3d 79 28 27 3e
       -0.043851197 0.07173644 0.086425975 0.16324033
0002c0 32 04 5f be 72 ad b1 3c 09 6e ae bd 92 ee c4 bd
       -0.21778944 0.02168915 -0.08517081 -0.09615816
0002d0 8d 10 4c 3e 25 42 6c 3c bd d1 1d 3e 6e 45 2c 3d
       0.19928189 0.014420067 0.1541204 0.0420584
0002e0 8c 55 21 bd b2 75 46 3d 64 9b b4 3d d3 30 31 bc
       -0.039388224 0.048452087 0.08818701 -0.010814863
0002f0 2d b3 c7 bd 51 97 cd bd bf 2a 9c 3d 07 b4 b1 bd
       -0.09750972 -0.10038627 0.07625341 -0.086769156
000300 72 19 e8 3d 0e b1 68 be b6 a0 28 3e b5 04 17 3e
       0.11332978 -0.22723791 0.16467556 0.1474789
000310 39 ff 51 be cf 22 f6 bd 1c c1 0b be 33 69 c4 bd
       -0.20507516 -0.12018358 -0.13647884 -0.09590378
000320 05 c5 19 bd 8c f9 a2 bd 7c 97 5b be 06 c7 23 3e
       -0.037541408 -0.079577535 -0.21444505 0.1599389
000330 b7 95 4f 3d 2a a1 07 bd c6 10 58 bd 7a 80 28 be
       0.05067989 -0.033112682 -0.05275037 -0.1645526
000340 0b 57 04 3e 5e c7 c8 3d f0 f7 37 be 2d f3 2a bd
       0.1292383 0.09803651 -0.17965674 -0.041735817
000350 43 2f 38 be 6e 78 02 3e 56 cc ba bc 46 87 31 be
       -0.17986779 0.12741253 -0.022802513 -0.17336759
000360 e6 16 2f 3e be a5 59 3e f4 d9 6a be 33 0c 6e 3b
       0.17098579 0.21254632 -0.22934705 0.003632319
000370 b0 c7 1c 3e 9c c4 27 3d ce 4a 74 3c 28 fb 25 be
       0.1531055 0.040958986 0.014910413 -0.1620909
000380 6e 7b 27 3e d6 7c 4e be c6 cb 01 be 8a 3a 7c 3e
       0.16355678 -0.20164809 -0.1267539 0.24631706
000390 bf 9a 2a 3e 82 9b 3c 3e 61 b8 1b 3e e8 ac fe 3d
       0.16660593 0.18418697 0.15207054 0.12435323
0003a0 06 46 f4 bd 03 8b 4e 3e a4 10 1a bd 29 69 5f bd
       -0.119274184 0.20170216 -0.037613526 -0.054543648
0003b0 9d f0 f2 bd 00 56 04 be 40 8a 5e 3d 3e cf 55 be
       -0.118622996 -0.12923431 0.054331064 -0.20879838
0003c0 2d 95 45 be 53 5b 20 be b2 fa 85 bd 32 a9 52 be
       -0.19295187 -0.15659837 -0.06541957 -0.20572355
0003d0 98 18 22 bc 62 39 cf bd 41 b2 88 3d 84 df 16 be
       -0.009893559 -0.10118367 0.06674624 -0.14733702
0003e0 06 05 16 bd fe 7e c1 bd 56 1e c9 3d f0 5a 4d 3d
       -0.036625884 -0.0944805 0.09820239 0.050135553
0003f0 d6 b1 6e be 47 28 19 3d fc 8d 01 be 23 b1 cc bd
       -0.23310027 0.037391927 -0.12651819 -0.09994724

weight_hh_l0 f4 [48, 16]
000000 03 ba 13 be e4 26 99 bb 16 ed 30 3b b5 81 03 bd
       -0.14426427 -0.0046738256 0.0026996783 -0.03210612
000010 a3 21 6a be 5b d7 54 3e 92 d7 fc bd 29 e4 97 3d
       -0.22864394 0.20785277 -0.12345804 0.07416565
000020 19 36 5f 3e 58 4f 58 be 0b e1 f5 bd 5f 40 23 3e
       0.2179798 -0.21124017 -0.12005814 0.15942524
000030 9e 1c 16 be e5 d4 84 39 95 03 a4 bd f9 d2 67 3e
       -0.14659354 0.0002533562 -0.08008496 0.22639073
000040 fc ab 5e bb ee 19 53 be a0 fd 0b be f5 15 0c ba
       -0.0033977022 -0.2061536 -0.13670969 -0.0005343848
000050 d5 53 91 3d eb 5a 72 be 19 96 f8 3d 19 2e 0a be
       0.07096068 -0.23667495 0.12138004 -0.13494147
000060 c7 18 53 3e 88 b0 49 3e 45 04 5e bd 3a 64 3e 3d
       0.2061492 0.19696248 -0.05420329 0.046482302
000070 6a d9 c5 bd ab ef 6d 3d 56 a8 d0 3d be 24 85 bd
       -0.09660609 0.058089893 0.101883575 -0.06501149
000080 fa 96 46 b8 37 05 a7 3d 6a f4 69 be 03 cb d0 bd
       -4.7347487e-05 0.081552915 -0.22847143 -0.101949714
000090 12 18 1c 3e 25 f2 5b be 1f 6f 2e bd 3f c6 fa bd
       0.15243557 -0.2147909 -0.042586442 -0.12244844
0000a0 7d d7 bd 3d a6 d1 09 3d 77 27 12 be 30 8f 70 39
       0.09269617 0.033647202 -0.14272867 0.00022941525
0000b0 3c b4 04 3e fb c9 0d 3e c4 36 4a 3e 93 87 40 3e
       0.12959379 0.1384658 0.19747454 0.18801717
0000c0 34 cb 84 bb d4 fe f6 3c 85 ff 55 be 2c c4 7b 3d
       -0.004052544 0.030150808 -0.20898254 0.06146638
0000d0 37 07 79 be 05 54 1d 3e ca c7 cc ba ef 0e 0c 3e
       -0.24319158 0.15364082 -0.0015623507 0.13677572
0000e0 0b e0 c3 bd bd 02 de 3d 2c de 1f be b6 d9 e9 37
       -0.09564217 0.10840366 -0.15612096 2.7877144e-05
0000f0 05 30 c9 39 79 f9 7a 3c 98 89 c8 bd 0f b4 d4 bd
       0.00038373485 0.015318268 -0.09791869 -0.10385906
000100 f2 54 9c b8 e2 65 ac bd 3c 85 69 bd 7c ea c2 3d
       -7.454482e-05 -0.0841787 -0.057011828 0.095173806
000110 cf c3 9a 3c de b6 5b be df c4 2a 3d 08 f2 0b be
       0.018892197 -0.21456477 0.041691657 -0.13666546
000120 39 06 31 3e 8c 60 70 3e 6c 84 a8 3c 24 d8 f1 37
       0.1728753 0.2347433 0.020570956 2.8830087e-05
000130 81 b9 b8 3c 1b e6 05 3d 2a c9 ff 3d fd bb f2 3b
       0.022549393 0.03269015 0.12489541 0.007407664
000140 87 53 44 b8 aa ff 53 be 1c 16 21 3e e0 15 f2 bd
       -4.6807832e-05 -0.20702997 0.1573109 -0.118205786
000150 bf 37 c7 3d a7 48 59 3d 81 c0 92 3d 3f e8 66 bd
       0.097274296 0.053047802 0.071656235 -0.05637383
000160 e9 a8 e7 bd ce e4 56 3e 8d c4 66 3e 02 f3 28 3e
       -0.11311514 0.2098572 0.22535916 0.1649895
000170 2e 3f f5 bd 51 c9 61 bd c0 38 99 3d 8b 08 36 be
       -0.11974941 -0.05512363 0.07481527 -0.17776696
000180 f5 cb ac 3a fa de 16 3e b8 c2 66 bd 14 3b ba bc
       0.0013183343 0.14733496 -0.056338042 -0.022733249
000190 99 80 4f be 89 ef 01 3e 5b 49 91 3c 87 2a 36 3a
       -0.202639 0.12689032 0.017735174 0.0006949086
0001a0 7f 31 33 be 80 da 89 3d c4 57 b4 bd 20 44 c8 3c
       -0.1749935 0.06731129 -0.088058025 0.024446547
0001b0 3a 4c 2d bd 0f e4 28 be fc 8f 55 be 9f 60 53 bd
       -0.042309023 -0.16493247 -0.20855707 -0.051605817
0001c0 fa 4b e9 3d 41 9d 77 3e f7 ea cf bd 13 db b4 3c
       0.113914445 0.24181081 -0.10152238 0.022077119
0001d0 d2 4b 54 3a 95 45 05 3d 7a 9b 63 3b ff ce 81 39
       0.00080984563 0.03253706 0.0034730122 0.00024759021
0001e0 cf 07 8a bc 41 f2 2c be b2 e0 26 be e3 89 03 3e
       -0.016849427 -0.16889288 -0.16296652 0.12845568
0001f0 e1 d5 f9 3c 33 7c f6 b8 c6 ed 55 3d 79 c1 4d be
       0.030497493 -0.00011753328 0.05222871 -0.20093335
000200 8f 09 22 be f8 2b 26 3e a9 92 08 3e a6 41 b1 3d
       -0.15823959 0.1622771 0.13337196 0.086550996
000210 8a 54 52 be 76 f7 72 be b7 1a 15 3e f4 d5 5d bb
       -0.20540062 -0.23727211 0.14560972 -0.003384945
000220 24 bd f0 bd 74 a1 67 3e 44 ff f5 3d 7f ce 8b 3d
       -0.11754826 0.22620183 0.12011579 0.068264954
000230 85 79 dd b8 0e 61 a0 37 6a 39 ed 3d 00 bc 1d be
       -0.00010560736 1.9118681e-05 0.115832165 -0.15403748
000240 00 ef ce 3b d4 84 3e 3e 98 d9 56 be 48 c2 9a 3d
       0.006315112 0.18605357 -0.20981443 0.075565875
000250 b3 20 02 3e 10 92 c8 3d 76 98 13 bd 59 5a d8 bd
       0.12707786 0.09793484 -0.03603407 -0.105641074
000260 4b d6 ff bd 1e af 25 3e 60 fa 1b be 2a 56 1e be
       -0.12492045 0.16180083 -0.15232229 -0.15462556
000270 47 9e 1d b8 62 fa a3 bc 78 e4 67 be d9 8c 32 3e
       -3.7579124e-05 -0.020016853 -0.22645748 0.17436542
000280 87 4f b6 3d 1e ca 6c 3e ca 11 ce bc 9e 04 43 b9
       0.089018874 0.23123977 -0.025154967 -0.00018598369
000290 0f 07 11 bd 67 0d 09 3e 96 48 ac 3d 64 73 61 3b
       -0.035407122 0.13384019 0.08412282 0.0034401054
0002a0 78 93 d0 3d c6 ab ee 3b a4 30 6f be d1 ef 2d 3d
       0.101843774 0.0072836606 -0.23358399 0.042465035
0002b0 30 41 1a be d7 d3 a4 3c b4 fe d1 3d a7 8e b2 3c
       -0.1506393 0.020120544 0.10253659 0.021796538
0002c0 19 0c d4 bd 62 9e 67 3e 11 bb 11 3e 59 89 85 3d
       -0.1035387 0.22619012 0.14231516 0.065203376
0002d0 fe 87 ff bd 77 ce 00 3e 27 11 29 3d 74 13 fb b7
       -0.1247711 0.1257876 0.041276123 -2.993059e-05
0002e0 9a 06 67 3e 81 8c d5 3c d7 e9 b8 3d f5 e5 aa 3d
       0.22561112 0.026067974 0.090289764 0.08344642
0002f0 5d 93 4b 3d 9d 80 f1 bc ee 7a 35 bd d4 81 7b 3d
       0.049701083 -0.029480273 -0.044306688 0.06140311
000300 57 05 87 bd 03 f0 02 3e 79 5f bd 3d 01 d6 0a 3e
       -0.06592815 0.1278687 0.092467256 0.13558199
000310 35 8d 44 bd 76 1a 0e be bd ae 9c bd 04 78 09 3d
       -0.047986228 -0.13877282 -0.07650516 0.03356172
000320 ee b5 91 bd 5b a4 eb bd 90 7a 10 3e fa b7 00 be
       -0.071147785 -0.11505958 0.14109254 -0.12570181
000330 7f 4e 05 be 6a 88 32 b9 36 44 83 bd 10 bd 0c bd
       -0.13018225 -0.00017026221 -0.064094946 -0.03435999
000340 19 19 22 3e de 50 39 3e f0 93 3a 3c 90 6e cd 3c
       0.15829886 0.18097255 0.01138781 0.025077134
000350 2e bd 76 3d 87 44 9a 3d e1 e2 1c 3e 5d 35 8d 3d
       0.06023901 0.07532602 0.15320922 0.06894944
000360 79 8c 2e 3e 1a 8e 7d 3e e8 0a 53 3d 98 32 c2 b8
       0.17045774 0.24761239 0.051524073 -9.260065e-05
000370 e0 a1 14 be 09 5f 36 bd 05 37 3f 3c 26 70 8f bd
       -0.14514875 -0.044524226 0.0116708325 -0.070038125
000380 7f 7c 21 bd 72 34 5f be ef 39 af bc ab db 0c be
       -0.03942537 -0.2179735 -0.02138993 -0.13755672
000390 9c 73 0e bc 37 40 90 3d 78 ad 81 bd 24 c4 a9 39
       -0.008694556 0.07043498 -0.06331915 0.00032380328
0003a0 43 16 78 be 9b b4 1d 3e 02 43 25 bd 95 29 9a bc
       -0.24227242 0.15400927 -0.040347107 -0.018818656
0003b0 fa 0d 03 be f9 80 42 3d 16 fc 10 3d f3 67 eb 3d
       -0.127983 0.04748628 0.035396658 0.11494436
0003c0 7b e0 80 39 38 13 54 be bf 71 bc 3d 40 41 bd bc
       0.00024581313 -0.20710456 0.09201383 -0.023102403
0003d0 09 20 ca bd 4a 89 44 be b9 4a 85 3a 3f 03 7b bc
       -0.098693915 -0.19192997 0.0010169364 -0.015320598
0003e0 cc f5 a4 bd fb 28 31 bc 09 e4 8d 3d cd 11 50 bd
       -0.080546945 -0.010812993 0.0692826 -0.050798226
0003f0 3d b5 2d bd c0 b9 45 ba 9b 21 c7 3d 16 0c df bd
       -0.04240917 -0.00075426325 0.097232066 -0.10890977

bias_ih_l0 f4 [48]
000000 ea cb 69 be 73 da 39 3d 1d 96 54 3e 82 ec 71 be
       -0.22831693 0.045374345 0.20760389 -0.23625377
000010 8c 66 76 3d b4 f2 6f be 0f df 08 3c ea ac 9a bd
       0.06015639 -0.23432428 0.008353963 -0.07552512
000020 f8 ca 82 bd ed d3 66 be 11 20 98 3d b0 a9 65 be
       -0.063863695 -0.22541781 0.07427991 -0.22428012
000030 0c 3d 49 3e 52 95 23 3d ea 2a 2f 3e 0c c7 41 3e
       0.19652194 0.039937325 0.17106214 0.18923587
000040 89 18 c6 3d ae 37 4d be 3e f6 d2 3c 91 bc 05 3e
       0.096726485 -0.20040771 0.025752183 0.13060214
000050 bb f3 3c be 69 5a f9 3c e2 5c 77 3e c6 9c d8 3d
       -0.18452351 0.030438619 0.24156526 0.10576777
000060 72 1f b9 bd 40 6d 5f 3c c8 d3 ab bd 41 d1 3d 3e
       -0.09039201 0.013636887 -0.083900034 0.18536855
000070 f5 89 ca bc c2 e4 93 bd ac 6d 0f 3e 39 66 96 3d
       -0.024723986 -0.072213665 0.1400668 0.07343716
000080 1d 9c 05 3e 85 99 f7 bd 39 58 b0 bc 4a d2 c5 3d
       0.13047834 -0.120898284 -0.021526443 0.0965925
000090 70 1f d2 bc f4 c6 1e bd 58 f0 28 3e aa 96 75 be
       -0.025649756 -0.038763955 0.16497934 -0.23983255
0000a0 fb 04 e2 bd b7 22 09 3c eb 7f 49 be f8 3a 84 3d
       -0.11036106 0.008370093 -0.19677703 0.0645656
0000b0 40 ac 75 be 56 98 16 3d 1f b4 31 3e d2 ce 37 bd
       -0.2399149 0.036766373 0.17353867 -0.044874974

bias_hh_l0 f4 [48]
000000 c0 ec ba bd b9 f8 49 be 1e 75 45 3e f1 a6 cf 3d
       -0.09127188 -0.19723786 0.19282958 0.101392634
000010 53 64 63 be 5a 17 a0 3d ab 56 ed 3c a2 af 33 be
       -0.2220624 0.07816954 0.02897199 -0.17547467
000020 35 7a 42 3e 3b a4 a4 bd f5 98 80 bd 09 50 5f be
       0.18991931 -0.08039137 -0.06279174 -0.21807875
000030 af 3f 90 3c 60 fe 65 be 1a 30 39 3d 99 09 c1 bb
       0.017608492 -0.22460318 0.04521189 -0.0058910367
000040 dc 78 ab 3d d5 2b 78 be 1f ca 41 be 60 d1 59 3e
       0.083726615 -0.2423547 -0.1892476 0.21271276
000050 9f 1b c2 3d 8b 83 79 bc fa 45 c1 bd 45 4f cc 3d
       0.094779246 -0.015229116 -0.09437175 0.09976057
000060 a9 6d 73 be a4 eb 97 bd 7e 45 de 3d d3 6f 08 3e
       -0.23772301 -0.07417992 0.10853098 0.13323908
000070 d8 e6 80 3d 58 1c 4b 3e d9 ea 0f be 19 44 86 bd
       0.0629403 0.19835031 -0.14054431 -0.06555957
000080 c9 9e 2f 3e 26 4c 0f 3d 81 90 21 be d5 b1 56 3e
       0.17150415 0.03498473 -0.1577778 0.20966275
000090 3a 84 34 3e e9 d2 81 be 22 73 0e be cf 17 a4 bd
       0.17628565 -0.25356224 -0.13911107 -0.08012354
0000a0 27 6b 03 be 17 51 6b bd 97 3d 68 be 14 8d 03 3e
       -0.12833844 -0.05745038 -0.22679745 0.12846786
0000b0 9c 5e 88 bd 21 b2 60 3e 9d a6 6e 3e 54 34 26 3e
       -0.0665867 0.21942951 0.23305745 0.16230899

weight_ih_l0 f4 [3, 11]
000000 68 2f 56 3f 8c 0a 4b bf ae a7 b7 be 3f fb 04 3f
       0.83666086 -0.7931297 -0.35870117 0.5194587
000010 76 52 56 bf 85 3a 16 3f 2a e3 31 bf 2c f7 6e bf
       -0.83719575 0.58683044 -0.6948725 -0.93345904
000020 b4 15 31 3f 7f c0 67 3e 6a 7e 11 3e 64 62 20 be
       0.6917374 0.22632025 0.1420838 -0.15662533
000030 53 d6 c2 3e a9 c1 4c 3f 46 ea c5 be 6e e2 15 be
       0.3805414 0.79983 -0.386553 -0.14637157
000040 f8 ae 48 3f 5e fa ce 3e f1 6a eb be 02 85 34 bf
       0.7839198 0.4042539 -0.45980027 -0.70515454
000050 0a 5d 0c 3f 22 99 33 3f 1e 4e 4e 3f a9 7d 51 3d
       0.54829466 0.7015554 0.8058795 0.05114523
000060 ea b9 8a be b5 d2 2c 3f 15 31 2c be 3e ba 91 be
       -0.27094966 0.67509013 -0.16815598 -0.28462404
000070 37 97 a9 be ea 72 24 3f de b6 d1 3e da 20 63 bf
       -0.3312318 0.64237845 0.4095983 -0.88722
000080 07 d5 d8 bd
       -0.10587507

weight_hh_l0 f4 [3, 1]
000000 d6 6e a4 bd 90 a1 d1 3e 4a 40 7d bf
       -0.08028953 0.40943575 -0.9892622

bias_ih_l0 f4 [3]
000000 23 a6 75 be 2c ac c7 3d 8c e8 05 bf
       -0.23989157 0.09749636 -0.52307963

bias_hh_l0 f4 [3]
000000 87 f5 24 bf 5a fd 08 3e 74 26 c8 3b
       -0.64437145 0.13377896 0.0061080996

weight f4 [1, 16]
000000 d9 ca 29 be a7 18 f8 bd 3d bf 13 bd b0 8d 5e bc
       -0.16581286 -0.12114077 -0.03607105 -0.013583586
000010 5e d6 27 be 2b 30 b0 3d fc 76 9f 3d eb 7f 0e be
       -0.16390368 0.08602937 0.07786366 -0.13915984
000020 8c 02 f3 3d 20 8a 11 be 23 77 b3 bd 8f d6 26 be
       0.1186572 -0.14212847 -0.08762958 -0.16292785
000030 d1 81 28 3d 30 03 51 3d 7e 78 0f 3e e8 30 37 b8
       0.041139428 0.05102843 0.14010808 -4.3676147e-05

weight f4 [680, 17]
000000 66 32 ea 3c d0 2e 1f 3d 49 49 03 3e 64 77 38 be
       0.028588485 0.038863003 0.12820925 -0.18014294
000010 36 50 c8 bd cc 3a ef bd 0d d2 f4 3c 73 bf 07 3d
       -0.09780924 -0.116811365 0.029885316 0.033141565
000020 5b 04 01 bd 04 6b 49 3e c9 92 df bd 4f 62 62 3c
       -0.031498294 0.1966973 -0.10916669 0.013817384
000030 38 ce 0e 3e 6d ae 24 3e b3 88 10 3e 91 4c a7 3d
       0.13945854 0.16082163 0.14114647 0.08168901
000040 4b 9b 99 bd bc bd e6 3d 48 ab 5c 3d ac 31 3c be
       -0.07500323 0.11266658 0.053874284 -0.18378323
000050 ae 47 df bd 04 f4 00 be 3d e2 28 3e 9a 9f 5e 3e
       -0.10902344 -0.12593085 0.16492553 0.2174057
000060 1f c0 e2 3d 51 ed 91 bd c3 f1 6b be cf 91 e1 bd
       0.110718004 -0.07125343 -0.23041444 -0.11014139
000070 76 e7 c7 bd 83 57 4b be 0d 7c 53 3e d3 e2 b7 bc
       -0.097609445 -0.19857602 0.2065279 -0.022447025
000080 95 e9 47 bd b3 bd 1a 3e f7 ec b4 bd fa ca 27 38
       -0.048806746 0.15111427 -0.0883426 4.000494e-05
000090 12 4e 22 3e e7 ae ae bd 76 c6 02 be 4e 39 46 bb
       0.15850094 -0.08529454 -0.1277102 -0.0030246559
0000a0 85 6f 45 bc 9d 93 96 bc d9 58 11 be 84 56 20 be
       -0.012050514 -0.018380934 -0.14194049 -0.15658003
0000b0 4c 6b b0 bc 7a b2 16 3e 56 83 aa bd 88 de 00 be
       -0.021535538 0.14716521 -0.083258316 -0.12584889
0000c0 41 50 00 3d f9 7b 31 b9 b5 68 34 3a 00 1e ff bd
       0.031326536 -0.00016926219 0.00068820576 -0.12456894
0000d0 11 5a 06 be ff 56 6a 3d 69 cd 19 3e b6 c0 95 bd
       -0.13120295 0.057211872 0.15019764 -0.07312147
0000e0 87 94 9d 3d ae 5e 36 be 88 f4 84 bd ec 17 b9 bd
       0.07694345 -0.17809555 -0.06491953 -0.09037766
0000f0 de 9f a4 bd 46 1f 89 3d 6f 2d 0d be a5 0a b3 3d
       -0.08038305 0.06695418 -0.13786863 0.08742265
000100 38 bf e4 bd da b1 ce bd 07 55 10 bd 09 32 26 bb
       -0.111692846 -0.10092516 -0.03523734 -0.0025359413
000110 00 1c 51 39 61 e7 0b be 74 18 46 3a df 72 14 be
       0.00019942224 -0.13662483 0.00075567444 -0.14496945
000120 67 70 0f be e2 f5 f2 bd a9 ff a3 b9 64 18 81 bd
       -0.14007722 -0.11863305 -0.00031280264 -0.0630348
000130 8f ad 26 38 e5 72 b6 b8 fe c7 65 bd 9e 88 0b be
       3.9739123e-05 -8.699837e-05 -0.05609893 -0.13626334
000140 76 12 82 3d f6 64 73 bb 1e d5 06 3e 4a 51 29 3d
       0.063511774 -0.0037139035 0.13167235 0.04133729
000150 ee 66 64 3c b8 6e 0f bd a0 d1 29 be 06 11 73 bd
       0.013940556 -0.0350177 -0.16583872 -0.059342407
000160 4e 07 53 3d a5 e4 29 be b2 29 5f 3e 52 09 16 bd
       0.05152064 -0.16591127 0.21793249 -0.036629982
000170 cf 5c 3d be 77 ed 32 3e a8 4e 52 3e 75 e8 03 be
       -0.18492435 0.17473398 0.20537817 -0.12881644
000180 d1 38 09 3d f2 3a 09 3e 41 4a 34 be e5 7f ea bd
       0.03350145 0.13401392 -0.1760645 -0.11450175
000190 ba 5b ce bd 36 0e 60 be 97 0f 21 bd 4d d3 3b be
       -0.10076089 -0.21880421 -0.03932151 -0.18342324
0001a0 d2 d9 cd bd b8 03 2d 3e af 14 6f 3e e5 e3 2e 3e
       -0.100513116 0.1689595 0.23347734 0.17079122
0001b0 cd 1e 9c 3d ed de 44 be 6a 64 77 be b3 ca 01 3e
       0.07623062 -0.19225664 -0.24159399 0.1267498
0001c0 87 42 6c bd 5c 16 52 3e 1b c2 44 3e e0 c7 5c 3e
       -0.057680633 0.20516342 0.1921467 0.21560621
0001d0 16 6e ad bd b5 b9 fa 3d 07 ee df 3d ed af 58 be
       -0.08468263 0.12242452 0.10934072 -0.2116086
0001e0 d4 ea 5e be 7e 8e 39 3d 9b b3 9e 3d 11 ea 10 be
       -0.21769267 0.045301907 0.07749101 -0.14151789
0001f0 71 33 18 be 2f ee 33 3e ce 5c 96 3d 29 a9 fa bd
       -0.14863373 0.17571329 0.0734192 -0.12239296
000200 ac a2 d0 bc 6b cf a9 bd 06 c6 10 be 0a 18 22 3e
       -0.025468193 -0.08291515 -0.1413804 0.15829483
000210 8f 92 24 be 3e 2d b0 3d 60 57 cd bc 70 4b 03 3e
       -0.16071533 0.08602379 -0.025066078 0.12821746
000220 50 f8 f3 bd 9d 3a da bd f1 0e 0a 3d a9 40 06 3d
       -0.11912596 -0.10655711 0.033705655 0.03277651
000230 98 ec 5b 3e 40 27 22 3e fe 96 9d 3d b6 f2 3d be
       0.21476972 0.15835285 0.07694815 -0.18549618
000240 60 d8 59 be 74 43 87 bd be 74 51 3e 07 58 e0 3a
       -0.21273947 -0.066046625 0.2045469 0.0017116078
000250 6d f4 c9 3d 0f e4 1c 3c 0e 5c 22 3e 74 93 83 3d
       0.09861074 0.009575858 0.15855429 0.06424609
000260 6d 4b 62 3d b8 70 f2 3d 2c 36 0f bb c0 2b ef ba
       0.055247713 0.11837906 -0.0021852357 -0.0018247291
000270 17 b9 06 3e c7 09 47 3d c2 97 36 3e 42 b5 0f bd
       0.13156544 0.04859331 0.17831329 -0.03508497
000280 f4 6b f5 3d 0d 4b 3b 3d 91 b1 52 be 5c 2a 01 be
       0.11983481 0.04572587 -0.20575549 -0.12613815
000290 42 14 d5 bd b7 38 dd bc 6b b2 86 ba 08 74 f7 3d
       -0.104042545 -0.027004583 -0.0010276561 0.12082678
0002a0 2b 39 e0 bb 15 c7 3e bd c7 24 dc bc 5a 05 ba bc
       -0.0068427525 -0.04657658 -0.026873006 -0.02270763
0002b0 3b 46 58 3e da da 0a 3e b6 f2 15 be f8 3f 29 3d
       0.21120541 0.13560048 -0.14643368 0.04132077
0002c0 a2 49 07 3e b2 38 56 bc 74 54 93 3d 34 70 0c 3e
       0.13211682 -0.013075041 0.071938425 0.13714677
0002d0 70 bf 2f be 21 6d 93 3d ac 91 ee 3b 1c 3b a4 bc
       -0.17162871 0.07198549 0.007280549 -0.020047717
0002e0 90 30 7a be b7 57 77 3e 42 30 61 be 99 db 42 3d
       -0.24432588 0.24154554 -0.21991065 0.047572706
0002f0 b7 50 e4 3d cd 55 07 be 85 60 e4 bd 83 55 f8 bd
       0.11148208 -0.13216324 -0.11151222 -0.12125685
000300 8e be f2 3d 38 88 12 3e 3d 03 36 be bb 47 8c 3d
       0.11852752 0.14309776 -0.17774673 0.06849619
000310 cb 51 0d be 3f c6 55 be 4b c7 08 bd 6c 8e 9c bd
       -0.13800733 -0.20876406 -0.033393186 -0.07644352
000320 a3 4b 65 be 3b c2 7a bd fe 4e 56 be c1 a7 37 be
       -0.22392134 -0.06122039 -0.2092857 -0.17935087
000330 52 42 0c 3e c3 86 47 3e 23 31 e6 bd 38 05 f1 3d
       0.13697174 0.19485001 -0.11239841 0.117685735
000340 88 69 21 3e b0 c1 9d 3d d7 a2 15 3d 4e 0d f5 3b
       0.15762913 0.077029586 0.03653225 0.0074783927
000350 3d 30 75 bd 15 6f 47 3e 8c b3 3f be 97 ab 6b 3e
       -0.059860457 0.19475968 -0.18720835 0.23014675
000360 5d e9 34 3e 5f f6 37 3e 87 bc e4 3c 50 1e 4a bc
       0.17667146 0.17965077 0.027921928 -0.012336329
000370 8f ec 8c 3d d6 41 36 bd 9e 15 cd ba 1f a3 e2 3d
       0.068810575 -0.04449638 -0.0015646701 0.11066269
000380 b5 3d cb bd 4d f8 1f b9 87 c3 1f be 55 91 a2 bd
       -0.09923879 -0.00015255921 -0.15601932 -0.07937876
000390 98 81 07 3d aa 19 49 b9 c5 32 c0 3b 09 55 fe 3b
       0.033082575 -0.00019178414 0.005865427 0.007761602
0003a0 ba e8 12 be 12 1d 34 bc 01 2f de bd e5 8f 2a bd
       -0.1434659 -0.010993259 -0.10848809 -0.041641135
0003b0 a3 54 0c 3e 53 53 27 39 ed d8 df ba 67 a7 b4 bd
       0.13704161 0.00015957402 -0.0017078199 -0.08820992
0003c0 a0 2f 32 bd 70 a8 02 be 77 8c 20 bd cb 35 8d 3d
       -0.04350245 -0.12759566 -0.039196458 0.06895026
0003d0 0a 87 4d be e0 07 7b be 9d 4c 71 3e 0a a0 87 3d
       -0.20071045 -0.24514723 0.23564382 0.06622322
0003e0 b7 32 c4 3c 0f 95 32 3e fb 98 77 be be cb 64 3e
       0.023949964 0.17439674 -0.24179451 0.22343346
0003f0 d2 c6 90 bb f4 49 59 3e 42 18 25 be a8 5b b0 3d
       -0.0044182325 0.21219617 -0.16122535 0.08611232

bias f4 [680]
000000 9c a0 be 3d ec 3c d3 3d fe ef a7 bd 48 9c d2 3d
       0.093079776 0.10314354 -0.08200072 0.102837145
000010 61 30 bb bd d6 02 2b 3e 06 c5 4c 3d ad da 81 bc
       -0.09140087 0.167003 0.049992584 -0.015851343
000020 5a 51 39 3e a1 92 76 3d f5 41 95 3c 3b 79 31 be
       0.1809744 0.06019843 0.018219927 -0.17331402
000030 67 84 eb 3d 87 97 ad bb 85 31 89 3d 7c ce 8e bd
       0.11499863 -0.0052976045 0.06698898 -0.069729775
000040 fc 51 1e 3e 1e 04 5d 3e 0b 7f 37 3e d8 21 33 bd
       0.15460962 0.21583602 0.17919557 -0.043733448
000050 32 39 2b 3e e7 f7 ce bc 1b 23 d6 bc 8d 02 88 3d
       0.16721037 -0.025264693 -0.026139786 0.066411115
000060 3a ab 3c 3e 79 00 b8 bc 50 c1 af 3c 2d 36 69 bc
       0.18424693 -0.022461163 0.021454483 -0.014234108
000070 80 6c 45 ba 4c d6 14 3e 89 1a 6d 3e 20 8e 33 bd
       -0.00075311214 0.14534873 0.23154654 -0.043836713
000080 06 30 91 3c d0 52 77 3d 00 5a bb bd 27 30 64 3e
       0.017723095 0.06038171 -0.091480255 0.22283994
000090 9a a1 6a 3e 1c 03 34 be f3 2f b7 bd 26 a0 df bc
       0.22913209 -0.17579311 -0.089446925 -0.027298044
0000a0 1e ff c0 3d 80 e1 9f bd b3 95 0a be b8 02 26 3e
       0.0942366 -0.078066826 -0.13533668 0.16211975
0000b0 45 64 e7 3b bd 57 d5 bd 7c 8e 6b 3e 8e b2 d8 bd
       0.0070615136 -0.104171254 0.23003572 -0.105809316
0000c0 a4 5c c7 bd 29 81 36 3b ba 91 ab bd c8 cd 39 3e
       -0.09734467 0.0027847982 -0.083774045 0.18144906
0000d0 5a 68 5f 3e 48 a7 5f 3e b5 ec b3 bd b9 41 bb bc
       0.2181715 0.21841156 -0.08785383 -0.022858487
0000e0 1a 09 26 be 7c 5d c2 bd 7d c8 37 ba 4a 85 bf 3d
       -0.1621441 -0.09490487 -0.0007010771 0.09351595
0000f0 08 34 a6 3d f3 23 fa bd e1 38 dd bc 73 e7 44 be
       0.08115393 -0.12213888 -0.027004661 -0.19228916
000100 8a eb 35 3d 7a 6f ab 3d 26 90 c0 bd 4d 72 95 bc
       0.04441408 0.08370872 -0.09402494 -0.01824298
000110 7f a0 84 bd e5 42 85 bb 4d cd b4 3c 59 90 fd bc
       -0.06475925 -0.0040668123 0.022070551 -0.03095262
000120 f4 0e bc 3d 61 09 44 3e 83 54 fa bd 91 80 74 3e
       0.091825396 0.19144203 -0.122231506 0.23877169
000130 e8 17 28 3c 2e 24 f4 bd 75 83 11 3e d5 42 47 bd
       0.010259606 -0.11920963 0.14210303 -0.04864772
000140 27 4d 4c bd 7a c8 15 3d 4f 46 c7 bd b0 c8 73 bd
       -0.049878266 0.036568142 -0.09730207 -0.059517562
000150 42 3f 41 bd 92 73 34 bd ae 67 e8 3d 70 82 2d 3e
       -0.047179468 -0.04405553 0.113479 0.16944289
000160 6e 7f 50 be ae 35 63 3e bd 66 1c 3d ff 94 cf 3d
       -0.2036111 0.22188446 0.038183916 0.101358406
000170 07 88 e9 bd 0c be 1e 3e d8 03 f1 bd 0b 76 20 be
       -0.11402898 0.15502185 -0.11768311 -0.1567003
000180 43 af a0 bc f6 f0 42 3e 64 8a 8b bd dd 55 b6 3d
       -0.019614821 0.19037232 -0.06813505 0.08903096
000190 7e fc 42 3e 88 e9 3d be 22 55 ff bd 07 e0 f6 bd
       0.1904163 -0.18546116 -0.1246741 -0.120544486
0001a0 a1 65 64 bd b7 f7 87 3d ce 9d 93 bc db 9a 58 bd
       -0.055760983 0.06639045 -0.018019583 -0.052882057
0001b0 08 44 09 3e 54 7c 8d 3d 59 4d 2a be e1 b8 d5 bd
       0.13404858 0.06908479 -0.16631068 -0.104356535
0001c0 fc ab 7d 3d 4c 8b e2 3d 69 6c 3f 3e b7 0e 4a 3e
       0.061931595 0.11061725 0.18693699 0.19732176
0001d0 45 cb 15 be c9 9b 95 3b dd 51 9a bd 34 8a 58 bd
       -0.14628322 0.00456569 -0.075351454 -0.052866176
0001e0 5d 54 84 bd 08 a7 23 3b 10 a3 dd bd fd f1 e5 bd
       -0.064614035 0.0024971385 -0.10822117 -0.11227796
0001f0 a8 20 0c be 77 12 54 3d c0 f8 54 bd fe 60 61 3d
       -0.13684332 0.051775422 -0.05199504 0.05502414
000200 1f 6e 84 3c f6 98 5c 3e 9a ef 52 3e f7 cb eb 3c
       0.016165791 0.21542725 0.20599213 0.028783781
000210 e6 65 e8 3d 95 aa 56 3d 64 17 3f bc 35 5c 65 3e
       0.113475606 0.052408773 -0.011663292 0.22398455
000220 d5 7f c2 bd 9d 42 e2 bc ce 6c 0e bc 34 2c ff 3d
       -0.09497038 -0.027619654 -0.008692933 0.12459603
000230 25 17 36 be f3 6c 8d bc 06 69 0e 3e 2f 91 a3 3c
       -0.17782266 -0.017263865 0.13907251 0.01996669
000240 f7 66 0a be 59 a9 8d 3d f5 35 af bc d8 c3 27 3e
       -0.1351584 0.06917066 -0.021388033 0.16383302
000250 ff 8c 35 3b 42 27 19 bc ed c0 30 3e 82 41 cb bc
       0.0027702448 -0.009347739 0.17261095 -0.02481151
000260 96 6b ed bd 50 6a 7b bd 7e a7 0c 3e e6 89 56 bd
       -0.11592786 -0.061380684 0.13735768 -0.052377604
000270 e9 fe 91 3d 54 aa 7d 3e 84 ba b9 3c 12 eb c5 bd
       0.071286984 0.24772006 0.022671945 -0.09663977
000280 d3 9e 4a be a1 ea a5 3d 48 fd 1e bd 9e e5 f2 bd
       -0.19787149 0.081013925 -0.038815767 -0.11860202
000290 85 8e 24 3d ee 12 75 be 97 74 8d bb 18 b7 5e bd
       0.04017498 -0.23933002 -0.004316877 -0.05437383
0002a0 a8 14 fc bd bb bb 0e be 26 0e 17 3e df a6 51 3e
       -0.12308627 -0.13938801 0.14751491 0.20473813
0002b0 c9 4b f6 bc 35 57 05 3e ec e3 ec bd dc 24 13 3e
       -0.030065434 0.13021548 -0.1156691 0.1436953
0002c0 5b 0a 38 3d 90 ed d9 bd 0e 67 94 bd ca 15 c7 3d
       0.04493175 -0.106410146 -0.072462186 0.09720953
0002d0 19 1d 2a 3e 63 d8 d9 bd e4 a4 06 be 1e 58 95 bd
       0.16612662 -0.106369756 -0.13148838 -0.07292198
0002e0 d6 b5 56 3e 8e a8 4a 3e 78 c2 39 3e 8b 6c c9 3d
       0.20967802 0.19790861 0.1814059 0.09835156
0002f0 8d 74 e3 bd 9a 3b 92 bc 74 69 c5 bd b1 5e 4d 3e
       -0.11106215 -0.017850686 -0.09639254 0.20055653
000300 03 e2 e9 bc 57 66 64 bd 02 40 16 be ec 86 47 3e
       -0.028550154 -0.05576166 -0.14672855 0.19485062
000310 c1 f9 66 bd 2d 02 60 3e 56 d6 13 be 55 1f c8 3d
       -0.056390528 0.2187583 -0.14437231 0.09771601
000320 b4 30 9f 3d d9 93 3e 3e 7d 84 8e 3d 6d 3d 73 3e
       0.07772961 0.18611087 0.06958864 0.23753901
000330 2b b2 05 3d df 6c e9 3c 67 bb 03 3a 1c b6 9e 3d
       0.032640617 0.028494297 0.00050251785 0.07749578
000340 41 e1 dd 3d 91 cf b2 3d 54 60 21 3a 8c 3f b0 bd
       0.108339794 0.087309964 0.00061560166 -0.086058706
000350 fd 92 eb bd 5c ab 9c 3d 99 cf de bd 71 a6 6a bd
       -0.11502645 0.07649872 -0.1087944 -0.057287637
000360 88 23 57 bc 6a c1 53 3e 2b 84 06 3e 84 52 0b be
       -0.01313103 0.2067925 0.13136356 -0.13605696
000370 72 bf 7b bd 5b 51 67 3e 44 f2 90 bd 19 7c f1 3c
       -0.061461873 0.22589628 -0.070774585 0.02947812
000380 17 f7 41 3d 42 c6 16 bd 6c a4 21 bd 67 a3 01 bd
       0.047354784 -0.036810167 -0.039463446 -0.031649973
000390 63 05 10 be 7f b4 1f be 0d 4a 16 3e 0f e1 0f be
       -0.14064555 -0.15596198 0.14676686 -0.14050697
0003a0 60 c5 7f bd 17 1c 37 3e 39 15 4f 3e eb d5 5f bd
       -0.06244409 0.17881809 0.2022294 -0.054647367
0003b0 6c 73 70 3d 2d 6a 8d 3d e5 65 1d 3e 34 35 bd bd
       0.058703825 0.06905017 0.15370901 -0.09238663
0003c0 f5 24 00 3e 3f 0f 48 be d8 d4 2f 3e cb a2 ea bd
       0.12514098 -0.19537066 0.17171037 -0.114568315
0003d0 34 1e 4b 3d 64 30 16 be 35 59 b6 3d d3 47 d5 bd
       0.04958935 -0.14666897 0.08903734 -0.1041409
0003e0 07 f5 3e 3e a7 9f 26 bd b9 8d 55 3d 17 c6 14 be
       0.18648158 -0.0406796 0.05213711 -0.1452869
0003f0 f8 c2 f8 3d e3 55 22 3e d1 ef 34 bd ee 20 85 3d
       0.12146562 0.15853076 -0.04417402 0.065004215
