estimators/knet/single_obs/velMSE_ep100_train4000_val1000_test10000_lr1e-03_wd1e-04_ri[4, 4, 1, 1]_data_sr1e-01_q1e-04_r1e-03_j5_train[200,250]_val[40,250]_test[40,250].pt (torch, 157468 bytes, 40 tensors)

weight_ih_l0 f4 [48, 20]
00000000: c310 64bd 7e98 29be 7095 603e 385c 1abe
00000010: 4f31 1ebd ad34 59bd abe2 593e f845 0c3b
00000020: 58c8 debd 303a 8d3d 19b6 d33d c984 c1bd
00000030: a011 60be bc7e 613e 3996 7b3d 5b98 273d
00000040: 1c14 35bd 6a27 153d fb0f 633e 5010 06be
00000050: 0616 1ebe 40c2 86bd d0b5 513e a445 323e
00000060: dc80 e0bc 1ee7 11be 368c 71bd e910 58bd
00000070: bc68 66be fb0c c3bc 7fbc 20be b6f1 fc3d
00000080: b1c6 ff3d 5a80 72bc f016 4b3e 0adc 323d
00000090: 3417 a4bd 5f51 923d 61e0 6ebc 24bc 603d
000000a0: 2920 bfbd edd8 84bd 5700 653e 39d3 273e
000000b0: ffea a03d ad5f cdbd 16f8 f83d 32aa 90bc
000000c0: 6205 fb3d d169 123e 648a 31be 15e3 d5bd
000000d0: 04a0 71bc d14c 033d 4d33 27be 348b 9fbd
000000e0: 32ab 19bd c785 3b3e a3fb 09be a038 8abd
000000f0: 39ff ec3d d555 82be 3d46 edbd c05b 82be
00000100: 2946 e83d 21c1 ea3d 3de7 083d dc44 94bd
00000110: 0fad a7bd 990b 7dbe cbf2 7d3e 46f3 37be
00000120: af52 73be b2b7 e63d bdac 7f3e 5ed5 593e
00000130: fe39 363e 2e94 5b3e b0b1 be3c 6a61 1b3c
00000140: 15ab cd3d d085 71be c938 373b b5d8 48be
00000150: 5ac1 60be e4e7 3b3e 4e6d e0bc df12 d83d
00000160: 64ad 15be 2742 2bbe 5527 563e 2bb9 143e
00000170: 55f4 29be 85ef 0bbe 6445 823c a9e4 97bd
00000180: 4eb7 0ebe 21a8 68bd b5b9 0ebe b23b 023e
00000190: 5385 3c3d 0861 1b3e fa39 0cbe 596b fe3d
000001a0: 3f39 013e 1ec3 07be e466 c13d 9829 033e
000001b0: 0b91 75be 9578 0ebc 53de 1bbe a6c2 28bd
000001c0: 306b 5e3e d942 2b3e 10c5 683e 7866 fdbc
000001d0: 83fa 5c3c 2767 323d c4d7 ae3d bce9 413d
000001e0: 3689 43bd 5335 3dbd 81ff b3bd 0666 79bd
000001f0: 936d 353d 0f0c 14be 0836 a1bd 683e 46be
00000200: df21 c9bc df7a 063b 58e0 893d f20d 2b3e
00000210: e4e4 3abe 3fe3 433e c7d7 aa3d 5ec9 cf3c
00000220: 14a8 723d 0187 e7bc 9df7 dcbd 3fcf 513d
00000230: fadf 82bd 0f52 613e 391e ecbd 2ad1 db3d
00000240: 3cbd 4f3e 53a9 5c3e 173c 7cbc f0d6 01bd
00000250: 4a80 3dbe d797 b2bd 4922 e53d ed0a c03d
00000260: 3881 1abe 23b9 093e 749e 6abe bb5e 943d
00000270: b235 55bb f348 febc 7729 c0bd 412f 08be
00000280: ad4a 40be 38ec 1e3e 8634 2c3c 3a5e e0bd
00000290: 65e9 fabd 10f4 153e 7466 ec3d abe8 26be
000002a0: 03cc 6fbe 59d5 dbbc 5720 b0bd e86d df3d
000002b0: 6b66 d03d b3b9 4f3d 362c 35be 58d9 c93c
000002c0: 35da dabd a39d b53d ddfa f93d 44b6 783c
000002d0: 743b 04be 69ce 5abe 43a6 893d 9371 94bc
000002e0: 5e7c 40be 7523 68be 4a1c 3cbc cfae fabd
000002f0: 8376 0cbd 8111 b8bd 31d5 ce3d 737c 3a3e
00000300: f261 153e c591 123e ecea 6dbd b7d3 ba3d
00000310: d65c 48be d736 2c3e 6d61 20be 1ef1 1abe
00000320: 3122 9e3d ad8f d3bd add6 48be b253 4abd
00000330: c267 88bd 28bb 20bc 904b 49bd 4522 d03c
00000340: e360 5a3e 65e8 143e b0a1 adbd 267c fa3c
00000350: e86b 1b3e 3ee5 f03d 7d2b d53d c984 233e
00000360: dc1e 26be 77a0 d2bc ba4b 0dbe 3bb3 7ebb
00000370: 5de1 70be 37fc 0bbe d7a2 87bd 5131 763c
00000380: 79d9 53be 0df0 4c3c 147d 81bd eac9 223e
00000390: 54f2 0e3d ed81 0f3c 6a35 cc3d 5421 36bb
000003a0: 6dfc 13be 4d10 1fbe f4c0 f43d 9ff2 7f3e
000003b0: 6eea a3bd 2fbe fd3d a45a c53d 7092 c13a
000003c0: 3f14 933b 3255 4fbe 10a0 f63d e8f7 163d
000003d0: 6310 633e 60b9 393d 7942 00be 7825 debd
000003e0: a30b a4bd 3912 4d3e 1788 fa3d b880 50be
000003f0: 89d3 703e 20d8 de3b 4b4c fabc e883 053e
-0.055680048 -0.16562077 0.21932006 -0.15074241 -0.038621243 -0.05302875 0.21277873 0.002140401
-0.10878056 0.06895864 0.10337467 -0.09449155 -0.21881723 0.22021002 0.06142256 0.040916782
-0.04420863 0.03641454 0.22174065 -0.1309216 -0.15438089 -0.06580019 0.20479512 0.17409378
-0.027405195 -0.1424832 -0.058971606 -0.0527505 -0.2250089 -0.0238099 -0.15696906 0.1235079
0.12489069 -0.014801109 0.19832969 0.043666877 -0.08012238 0.071444266 -0.014579863 0.054866925
-0.09332306 -0.06486688 0.22363411 0.16389169 0.07857322 -0.10028014 0.12156694 -0.01765928
0.12256886 0.14298178 -0.17337948 -0.10443703 -0.014747623 0.03205568 -0.16328163 -0.07790223
-0.03751678 0.18312751 -0.13474898 -0.067490816 0.11572117 -0.2545611 -0.115856625 -0.25460625
0.11341507 0.11462618 0.03342365 -0.072396964 -0.08187305 -0.24711455 0.2479965 -0.17963895
-0.2376201 0.11265506 0.24968238 0.212728 0.1779556 0.21443245 0.023278087 0.009483675
0.10042397 -0.23586202 0.002795743 -0.19613917 -0.21948758 0.18350178 -0.02739587 0.105504744
-0.14616925 -0.16724454 0.20913441 0.14523761 -0.16597112 -0.13665588 0.015902229 -0.0741666
-0.13937113 -0.056800965 -0.13938029 0.12718084 0.046025585 0.15173733 -0.13693991 0.12422819
0.12619494 -0.13258025 0.09443453 0.12808836 -0.23981111 -0.008695741 -0.15221529 -0.041201256
0.21720576 0.16724719 0.22731423 -0.03093265 0.013487461 0.043555405 0.08537248 0.047342047
-0.047738276 -0.046193432 -0.08788968 -0.060888313 0.04429395 -0.14457725 -0.07871634 -0.19359744
-0.024552284 0.0020520014 0.06732243 0.16704538 -0.18251377 0.19129656 0.083419375 0.025364574
0.059242323 -0.028262617 -0.10789416 0.051223036 -0.063903764 0.22003959 -0.11529202 0.10733254
0.20287031 0.21548967 -0.015395186 -0.03169912 -0.1850597 -0.087203674 0.1118818 0.09377084
-0.15088356 0.1344953 -0.22912008 0.07244631 -0.0032533226 -0.031040644 -0.09382909 -0.13299276
-0.18778487 0.15519798 0.010510569 -0.10955472 -0.12251548 0.14643884 0.11542979 -0.16299693
-0.23417668 -0.02683513 -0.08599918 0.10909635 0.10175785 0.050714206 -0.17692646 0.02463977
-0.10686151 0.088679574 0.122060515 0.015180174 -0.12913305 -0.21367802 0.06721165 -0.018120563
-0.18797442 -0.22669776 -0.011481354 -0.12240373 -0.03429271 -0.089877136 0.10099257 0.18211536
0.14588144 0.14313419 -0.058085367 0.09122413 -0.19566664 0.16817795 -0.15662165 -0.15131041
0.07721365 -0.10330138 -0.19613142 -0.049396224 -0.06660415 -0.0098102465 -0.049144328 0.025406966
0.21326022 0.14541776 -0.08478105 0.030576777 0.15177882 0.117624745 0.10408685 0.15968622
-0.1622271 -0.025711281 -0.13798419 -0.0038864154 -0.2352347 -0.13670431 -0.06622856 0.015026406
-0.20688428 0.012508404 -0.06322685 0.15897337 0.03489907 0.008759004 0.099711254 -0.0027790861
-0.14451762 -0.15533562 0.119508654 0.24994896 -0.08003698 0.1238979 0.09636429 0.0014768373
0.0044884975 -0.20247343 0.12042248 0.036857516 0.2217422 0.045342803 -0.12525357 -0.1084699
-0.08010032 0.20026483 0.12232988 -0.20361602 0.23518194 0.0068006665 -0.030553957 0.130386

weight_hh_l0 f4 [48, 16]
00000000: 0a90 db3b 915a 6fbe 08d9 2cbe c753 5abe
00000010: 8585 4a3e fac3 c2bc c156 babc e852 c93b
00000020: 3ebc 9e3c b600 26be 9814 1a3e 9808 353e
00000030: 7676 e83d 3665 09bc 82c6 863d 7b94 17be
00000040: 5aa9 5b3d 086e 8dbd 7ab9 7b3d 6706 213d
00000050: b281 533e 6d35 443d 0a27 1cbe c2f2 073d
00000060: cd44 203e 2677 35bc 2bf8 483e 1585 20be
00000070: 372c 423e 31cc 5ebe de33 bebd b2b6 4f3d
00000080: 124d 163e c140 60be cb92 70bd 1e50 2e3c
00000090: 9bb3 ffbd 2ffa 6e3e cbaa fc3d 87f8 473e
000000a0: 4865 fd3d 2b0b bbbc 1d07 7fbe a643 303c
000000b0: 3987 ffbd cd99 47be ee23 d73d 4e7d b0bd
000000c0: 621a 6b3d 4474 62bd 873b 6ebd 6d84 273e
000000d0: 5186 70be b852 863e f778 5fbe 3311 873d
000000e0: fcfa f73c cce1 3ebe 4048 58be 6fa0 0c3e
000000f0: 8fed 05be 2a82 2e3d 7cff aa3c b6c5 233e
00000100: 7738 f5bc 4f47 713e a498 c13d 6459 ffbd
00000110: f7a1 82be db6e 3bbe beee 1dbe 2c8c 233e
00000120: 2390 02be 7b45 a93d 129a 8d3d d95d 1e3e
00000130: 221c 593e 850f 463e 2f51 cabd 499c 3abe
00000140: 8ed9 3bbe 6bfd 48bc 470a a73d 5825 77be
00000150: 49f8 7bbd 3ad1 0ebe 3a0d 143e d5c2 60be
00000160: 6aa5 923a 883d ff3a 22b3 8b3d 3d63 2a3d
00000170: a544 183e 880e 173e 20a0 b1bd bcc9 663e
00000180: 70d7 033e 2511 9f3d 11c8 19be a7b6 ff3c
00000190: b1b0 f9bd 6378 a5bd b708 15be 8ca0 42be
000001a0: 24d7 193e d10e 99bc 07a4 683e a774 6a3e
000001b0: f71b 533e 8801 64be c9bf f4bd f465 d0bd
000001c0: cfcb 73be a93a 5cbc 7545 e2bd eae4 103c
000001d0: d138 62be d3b5 babc 558d 38be 3fb0 01be
000001e0: 73bb de3d 9fc0 b2bd 8c5d 0fbe 5c81 95bd
000001f0: 3511 bf3d ce4d a1bd 5a84 453e 91f4 d13d
00000200: c4d0 293e 2931 80be 179c 18bd 073a 2cbe
00000210: 05e1 1fbe dc40 37be 3f0a 80be 1d7b 7abe
00000220: 592c 7e3c b410 6ebe f4ee 1e3e fe7f 243e
00000230: d02d 6ebe 7e35 133a a5ae 0fbc f93e 08be
00000240: 7219 fcbd 9d34 773e b841 23be 1656 e13d
00000250: 151c 3dbe 96b1 043e 4c91 253e 4856 c63d
00000260: b660 6dbe 2683 4cbe 99ba 3e3e 870d 813e
00000270: c89f 183c 1013 04be 5cb2 9a3d dcce 24be
00000280: c876 273e b100 753e 9764 723e 6eef 6ebe
00000290: c21d 793e ccd0 0d3d 6914 fbbb 12fc 80be
000002a0: 3e5f 253e ea00 d4bd 8fb9 5cbe a577 7a3e
000002b0: 816e 0ebe ca18 0b3d b371 513e 1ef6 0cbe
000002c0: 4322 683e c56b 793e 0d30 33be 9ea9 4a3e
000002d0: 1877 be3c a58c 41bd 78b6 6e3e 0e26 273e
000002e0: ac00 16bd 17d7 12bd f458 4bbe b36f 753c
000002f0: 8374 dd3d f903 953c d1a7 613e b244 3bbe
00000300: 4eb4 623e 25e1 44bb c486 36be f98d bbbd
00000310: 2f81 ca3d fb69 26be 653a 2c3d 797b 69bd
00000320: 146a 9f3d 7137 393e 81aa 1bbc 0e29 6dbd
00000330: 8de0 41bd b4e7 28be 7417 173e 4e41 18be
00000340: 9cf6 32be 35e8 5a3e 7b98 7dbd ae87 bebd
00000350: 653e aa3d 1bbc ba3d ca1a 85bc 1e5c b0bd
00000360: 24c4 013e aac9 b9bd f40b 2dbe 2b4c 7f38
00000370: da13 03be f584 0cbd 4dfb 9e3d 8b50 c53d
00000380: d8c4 59be a951 7c3d 7616 18be 82a7 5cbe
00000390: 64b9 67bc 907e d63d 5e64 7f3d aeb3 493d
000003a0: 6102 b03d 5ac2 213e c8b5 253b 8118 d8bd
000003b0: d541 043e 68fa a1bc 914c b6bd be30 43be
000003c0: a070 9abd 8141 593e 38e5 c93d a162 68be
000003d0: 96ce d03d e2af 723e 9075 7bbd 059c 72be
000003e0: 637d 4fbc bc55 bbbd eada 233e fc0a 2e3e
000003f0: c6f9 a23c 795e 743e 8b1f fc3d a034 6abe
0.0067005204 -0.23374392 -0.16879666 -0.21321021 0.19777496 -0.02377509 -0.022746446 0.0061439164
0.01937687 -0.16211209 0.15046918 0.1767906 0.1135072 -0.008385947 0.06580831 -0.14802735
0.053628303 -0.069057524 0.06145618 0.039312746 0.20654944 0.047902513 -0.15249267 0.033190496
0.15651245 -0.0110757705 0.19625919 -0.15675767 0.18962179 -0.2175758 -0.09287237 0.05071134
0.14677837 -0.21899702 -0.058733743 0.010639219 -0.12485429 0.23337625 0.12337264 0.195284
0.123728335 -0.022832474 -0.24905057 0.010758316 -0.124769635 -0.19492264 0.105049 -0.0861765
0.057398207 -0.05528666 -0.05816224 0.1635911 -0.23488738 0.26234984 -0.21823488 0.06595077
0.030271046 -0.18640822 -0.21121311 0.13733076 -0.13078903 0.042604603 0.020873778 0.1599339
-0.029934151 0.23562358 0.09452942 -0.12468222 -0.25514194 -0.18304007 -0.15423104 0.1597144
-0.12750296 0.082652055 0.06914152 0.15465488 0.21202138 0.19341858 -0.09878766 -0.1822368
-0.1834471 -0.012267451 0.08156257 -0.2413534 -0.06151608 -0.13947001 0.1445817 -0.21949323
0.0011188213 0.0019473294 0.06821276 0.041598547 0.14869936 0.14751637 -0.086731195 0.22537893
0.12875152 0.07766942 -0.15017726 0.031215025 -0.12191904 -0.080796026 -0.14554106 -0.19006556
0.15023476 -0.018683823 0.22718821 0.22896062 0.20616136 -0.22266209 -0.119506426 -0.10175696
-0.23808216 -0.01344172 -0.11048404 0.00884364 -0.22091986 -0.022791779 -0.18022664 -0.12664889
0.10875597 -0.08728146 -0.14000529 -0.07300064 0.09329454 -0.07876168 0.1928877 0.102517255
0.16583544 -0.25037506 -0.037258234 -0.1681901 -0.15613182 -0.17895836 -0.25007817 -0.24461026
0.015513503 -0.23248559 0.15520841 0.1606445 -0.23259664 0.0005615576 -0.008769666 -0.13305272
-0.12309541 0.24141164 -0.15943038 0.11002748 -0.18467744 0.12958369 0.16168708 0.096844256
-0.23181424 -0.19971904 0.18625869 0.25205633 0.009315439 -0.12897897 0.075535506 -0.16094536
0.16353905 0.23926045 0.23671184 -0.23333523 0.24327758 0.034622952 -0.007662345 -0.25192314
0.16149613 -0.10351737 -0.2155516 0.24459703 -0.13909341 0.033959188 0.20453529 -0.13765761
0.2266932 0.24357517 -0.17498799 0.19791266 0.023250148 -0.04725327 0.23311794 0.1632311
-0.036621734 -0.035849657 -0.19858152 0.014980244 0.108132385 0.01819037 0.22036673 -0.18287924
0.22139093 -0.0030041423 -0.17824847 -0.091579385 0.09887921 -0.16251366 0.042047877 -0.05700252
0.07783905 0.18087555 -0.0095011005 -0.05790048 -0.04733329 -0.16494638 0.1475504 -0.14868662
-0.17476887 0.21377642 -0.061912995 -0.093032226 0.08312682 0.091179095 -0.016248126 -0.0861132
0.12672478 -0.090716675 -0.16899091 6.0867675e-05 -0.12800542 -0.034306485 0.077627756 0.09634503
-0.21266496 0.061601315 -0.14852318 -0.21548274 -0.014143322 0.10473359 0.062351577 0.04924362
0.08594204 0.15796795 0.0025285352 -0.10551549 0.12915738 -0.019772723 -0.08901323 -0.19061562
-0.07541013 0.21216394 0.09858173 -0.22693874 0.10195653 0.23699906 -0.061391413 -0.23692329
-0.012664172 -0.09147212 0.16001478 0.16996378 0.019894492 0.23864163 0.12310704 -0.22871637

bias_ih_l0 f4 [48]
00000000: f748 48be 6ed0 66bc 74d9 693e 7f5b 383e
00000010: fa44 82be f4fe 12bd 6275 a1bd f968 0c3e
00000020: 2c1e 3b3e c0af 63be d1ca 993d 9400 6bbe
00000030: 60c6 bfbd 4bc1 2d3e acac 06bd 2a96 243e
00000040: b03c 75be 539f 22be 46c6 edbd f190 2fbe
00000050: 503b 5bbe 5229 413e a2a1 12be aee0 ff3d
00000060: eac8 273e 3767 cd3d 9151 38be 0a01 103e
00000070: 1f2b 91bd ef9f 68be 2395 6d3e c1e0 94bd
00000080: fb95 73be e7ac 6c3d f69f 5f3d d5d0 85b9
00000090: ef8e 333e c4d5 a23d 5d41 46bd 15f0 c8bd
000000a0: a523 53bd 60a7 6ebd 7cca 653e c47c d8bd
000000b0: 21c6 7dbe 6903 89bd f0ef 6ebe 9390 77be
-0.19559084 -0.014087779 0.22836858 0.18003653 -0.2544325 -0.035887673 -0.07883717 0.13711919
0.18273228 -0.22235012 0.07509387 -0.2294944 -0.09364009 0.16968267 -0.032879516 0.16072908
-0.23948932 -0.1588109 -0.11610083 -0.17145135 -0.21409345 0.18863419 -0.1431947 0.12494026
0.16385236 0.10029452 -0.17999865 0.14062896 -0.07088303 -0.2271726 0.23201422 -0.07269431
-0.23787682 0.05778208 0.05459591 -0.0002552333 0.17534994 0.07950929 -0.04840218 -0.09811417
-0.051547665 -0.05826509 0.22440523 -0.10570672 -0.24782611 -0.066901036 -0.23333716 -0.24176244

bias_hh_l0 f4 [48]
00000000: eaa6 1f3e 0568 ec3d 8026 d23d ca19 4fbe
00000010: 80b1 debd 618d 33bd eabf 043e 6e06 49be
00000020: 53e8 cabc 110d 3ebe 6a7f a43a 7299 27be
00000030: 57e1 323e f8e0 e43c 5370 77be 8d1b a7bc
00000040: b112 49be 5b46 453e e1ea 44be 618f 5bbe
00000050: def1 49be a658 49be 4df6 53be d142 a9bd
00000060: b6b4 6e3d bc3f 08be 64fa babd d8b3 29be
00000070: 3f36 643e 48ea 9d3c 0cff 523e 5683 80be
00000080: 8e85 de3b 8f9c 10bd d4c6 54bd 7711 1f3e
00000090: 0ab7 a73c 05e1 983d e0c0 cc3d 10be 58bd
000000a0: c480 8d3d 9fa3 a5bd 5b69 6cbb 7d3b 80be
000000b0: 8f69 1b3c 6ab3 a63d 7412 6dbe fe5e 443e
0.15591016 0.11543278 0.102612495 -0.20224681 -0.10873699 -0.043836 0.12963834 -0.19631359
-0.024768984 -0.18559672 0.0012550179 -0.16367128 0.17468773 0.027939305 -0.24163942 -0.02039888
-0.19636036 0.1926512 -0.19230224 -0.21441413 -0.19721171 -0.19662723 -0.20699425 -0.08264697
0.058277808 -0.13305563 -0.091297895 -0.16572511 0.22286318 0.019276753 0.20605105 -0.251002
0.0067908233 -0.035305556 -0.05194743 0.15534006 0.020473022 0.07464794 0.099977255 -0.052915633
0.06909326 -0.08087849 -0.003607354 -0.25045386 0.009485616 0.08139689 -0.2315157 0.19176862

weight_ih_l0 f4 [48, 36]
00000000: 3062 7dbe 94cd 10be d62e 113b 8360 883d
00000010: 3a8a 48bc 0b26 493e de0e 7d3e d318 853d
00000020: 48d0 e0bc dfa2 44be b427 0bbd 5b7e 813d
00000030: 3786 3cbe 8bf5 343e deb1 833c 0bb7 1dbe
00000040: 3e47 bfbc 3134 b4bc d41d a9bc eae8 3bbd
00000050: 15a7 ccbd 4a8c 043e c149 373d 0bfc 213e
00000060: 0b8c 493e 1476 72be fd8a 6ebe 8ec8 0ebe
00000070: 0d0a 293e b472 ed3d bee3 173e ccba ffbc
00000080: 69f8 3d3e 8a82 3f3e 2e1e 0f3e 950d 87bd
00000090: 11ea e0bd 48f2 90bd 8ce9 533e 2d56 873d
000000a0: a6fa a4bd 084c 2bbc 0637 603e d604 23be
000000b0: 0ea7 0c3e 09bb a8bd e17f 753d 9f8f 26be
000000c0: 6e41 27be e889 0a3e fe45 3c3e c866 6f3e
000000d0: 343e d5b9 f388 913c 7fee 5f3d 000d 03bd
000000e0: 010a 583e 17c1 a33c b818 553e d8cc 1dbe
000000f0: f7ff 313d 6e4d 5b3e 62a1 71be 822a 583d
00000100: 9c5a 033e 18b5 c5bd 5740 363e 91ed 9dbc
00000110: 5272 363e 731b 75be 6be5 0fbd 43ee 723e
00000120: 3ce6 473e 44b0 9a3d 37e8 6cbe 16fc 44ba
00000130: a78b c0bd e157 02be 95db 07be ca6a 313d
00000140: 7ed8 17be b5d2 75be 206f cbbd bcd0 303e
00000150: 3e47 653e 5d21 4bbd b7eb c03d c6c0 dc3d
00000160: 358d 993c 2db7 8b3d 1bbc 0f3e 9d9f 77be
00000170: c6b9 91bd 1087 83bd eb9b 9bbd 998d 2c3e
00000180: bc27 6fbe 866e 733e a2d5 3b3e c0f6 333e
00000190: 5a8e 0bbb 6517 343c 356e 9ebd d835 513e
000001a0: 9b63 45be cafb 7bbe b0e2 0a3e a819 a8bc
000001b0: cab8 833d eb6d 7c3d c4c4 70be 9cf6 2c3e
000001c0: d043 eabb 9089 5f3e f5f5 9fbd 06a3 633e
000001d0: b9c7 63be 29f1 853d 2920 423e 8146 503e
000001e0: 8064 58be 65e3 dfbc 99d1 673e a2af 92bd
000001f0: c7ec 3c3c 1f94 26bd b832 d33d e3f2 f03d
00000200: d678 73be 64ba d3bd 26c5 fcbd a501 dd3d
00000210: 2ea3 1dbe 1b06 5dbe 72e3 b9bd 7c25 173d
00000220: e9a0 803e b079 10be aff3 7c3e de1b 78be
00000230: 768f 1c3d e63e cf3d 560a 64be 6189 9339
00000240: 20b6 6abe 065f 353e 5e53 17be 9d60 7cbe
00000250: cad5 363e b7f7 a1bd dcae e3bd 75dc 64bb
00000260: fd22 2a3e 3bcf 3f3e 668e fabd 6ee2 05be
00000270: 1191 0e3e 4ef8 ebbd 27bd c03c 9320 ff3d
00000280: eb51 293e 3086 3dbe 2629 0b3d f395 553e
00000290: f30a a23d 6c89 303e 892c 57be a3b3 1cbe
000002a0: 0b99 263e 06d2 1d3e 5297 403e afc7 c1bd
000002b0: 41dc 663e bf62 9e3d 5e18 473e 4273 d4bc
000002c0: bbbb 393e 928f 753d b5d2 07be 724a 35be
000002d0: 1dbc 0fbd 68c2 193e 5c09 fc3d dec2 8b3c
000002e0: c121 643e e73b 52bc 4cc5 863d ce36 02be
000002f0: 8a40 313e cf75 383e 6126 003e e79d 493e
00000300: 66d2 ae3d 92db 15be d296 febc c6cf f9bd
00000310: 2c1b 2b3a df78 acbd 2deb 143e 71c9 61bd
00000320: 7e13 bebd dcbe 69be 6aaa 5abd 925c 8b3d
00000330: 262b 8c3d 1c26 7bbd 17ab faba baa0 733e
00000340: a06a 1b3e 8878 bbbd b7c8 1e3d 5b21 423e
00000350: 95f4 1dbe 0915 0abe 92c3 6b3e 117d 023d
00000360: 32c9 12be b4bd 98bd 11f1 37be 4578 43be
00000370: c1cc 833e 4143 6ebe fe7d b03d 0c3c 083e
00000380: 51e7 c1bd f7a9 9e3d c531 5e3e 0bd3 763e
00000390: ab37 a7bc 147c e33d 3d50 a2bd dd51 253e
000003a0: 8aa0 e438 6f7a 213e 607a 0fbe f491 2cbe
000003b0: 6b2a c23d 3b2c 4a3e 543b 493d c107 7a3e
000003c0: 0338 b5bd 114b ef3d a1ad 0e3e b311 c5bd
000003d0: 5ad4 1bbe 4957 04be 3375 dd3d 11cc 6f3a
000003e0: 2e03 363e ea2c 0b3e 325c 6d3e 8c35 41bd
000003f0: 32ee 09bc 4b53 8fbd 3d0c db3d 521a 603e
-0.24744487 -0.14140922 0.002215316 0.06659033 -0.012239987 0.19643418 0.24712703 0.064988755
-0.027443066 -0.19202755 -0.03397341 0.063229285 -0.18410574 0.17671792 0.016076025 -0.15401857
-0.0233494 -0.021997543 -0.020644106 -0.04587642 -0.09992806 0.12944141 0.04474807 0.15818803
0.19682328 -0.23677856 -0.23295207 -0.13943693 0.1650774 0.115941435 0.1483297 -0.031217001
0.18551792 0.1870214 0.13976356 -0.065943874 -0.109821446 -0.070774615 0.2069456 0.066082336
-0.0805562 -0.010455139 0.2189599 -0.15919814 0.13735601 -0.08238799 0.059936408 -0.16265725
-0.16333553 0.1352917 0.18386075 0.23379052 -0.0004067287 0.017765498 0.054670807 -0.03199482
0.21097566 0.019989533 0.2081021 -0.15410173 0.043456998 0.21416256 -0.23596719 0.052774914
0.12827533 -0.096536815 0.17797981 -0.01927832 0.17817047 -0.23936252 -0.0351309 0.23723702
0.19521421 0.07553151 -0.23135458 -0.00075143704 -0.094016366 -0.12728836 -0.13267358 0.043314733
-0.14828679 -0.2400616 -0.09933305 0.17267126 0.22390458 -0.049592365 0.09419959 0.10778956
0.01874409 0.068220474 0.140366 -0.24181981 -0.071155116 -0.064222455 -0.07598098 0.1685089
-0.23355001 0.2377263 0.18343213 0.17574596 -0.0021294565 0.010991906 -0.07735864 0.20430696
-0.19276278 -0.24607769 0.13563037 -0.020520046 0.0643173 0.061628263 -0.2351256 0.16890949
-0.007149197 0.2182982 -0.078105845 0.22230157 -0.22244157 0.06540138 0.1895758 0.20339395
-0.21132088 -0.02733011 0.22638549 -0.071624056 0.0115310615 -0.040668603 0.10312408 0.11765077
-0.23776564 -0.103382856 -0.123422906 0.10791329 -0.1539428 -0.2158436 -0.09076585 0.036900982
0.25122765 -0.1410892 0.24702333 -0.2422938 0.038222753 0.10119419 -0.22269568 0.0002814038
-0.22921038 0.1771203 -0.14777896 -0.2464623 0.17854992 -0.07908576 -0.11117336 -0.0034921442
0.1661491 0.18731396 -0.122341916 -0.13074657 0.13922526 -0.1152197 0.023527695 0.12457385
0.16535155 -0.1850822 0.03397479 0.20857982 0.07912245 0.17239922 -0.21013083 -0.15302901
0.16269319 0.15412149 0.18807724 -0.09461915 0.22544958 0.07733678 0.19442889 -0.025933865
0.1813802 0.059951372 -0.13263972 -0.1770418 -0.03509151 0.15015566 0.12306473 0.017060693
0.22278501 -0.012831665 0.065806 -0.12716219 0.17309776 0.1801369 0.1251464 0.19689141
0.08536224 -0.1463454 -0.031077776 -0.12197833 0.0006527181 -0.08421492 0.14542837 -0.05512375
-0.092810616 -0.22826713 -0.053385176 0.06804766 0.068441674 -0.06131564 -0.0019124475 0.23791781
0.15177393 -0.09153849 0.038765635 0.18958037 -0.15425332 -0.13484587 0.23023823 0.031857554
-0.14334562 -0.07458058 -0.17963053 -0.19088848 0.25742152 -0.23267843 0.08617781 0.13304156
-0.09467948 0.07747262 0.21698673 0.24103944 -0.020412287 0.111076504 -0.079254605 0.1614451
0.0001090179 0.15769361 -0.14011526 -0.16852552 0.09480747 0.19743435 0.049128845 0.2441702
-0.08848574 0.1168424 0.13933422 -0.096225165 -0.15217724 -0.12923922 0.108133696 0.0009147535
0.1777465 0.13591352 0.23179701 -0.047170207 -0.008418607 -0.06998309 0.10695694 0.2188504

weight_hh_l0 f4 [48, 16]
00000000: e502 90bd 80e4 2dbc b66b da3d 2de8 4b3e
00000010: 26b7 13bd cf12 e5ba dc7b 073c 3d41 14be
00000020: e7d1 bc3d 2376 1f3e 6d86 3dbe b53c 2a3b
00000030: 8d8d 4a3e e9fc 17be a7b9 65be 7735 fbbc
00000040: 65d5 f83c e1b0 3ebd a135 823d 6d33 9fbd
00000050: 3ca7 25bc b9ec 73be 8da5 adbc 7ddc 7bbc
00000060: b0e7 ca3d 78ff ccbd 23b4 e9bd f583 c53d
00000070: d245 43bd e2fb 47be 1b8f 113e 2869 363e
00000080: adbc 67be bcd6 c9bd b5c4 3abd d4f3 72be
00000090: 967b 38be e344 a2bd 053b c63d 765d bdbc
000000a0: 8e3a 203e e430 4d3d 07ef 103c 1522 3b3d
000000b0: c8b0 1f3e 3514 59bd c404 23be e1d1 2a3e
000000c0: 6b8c 763e 7558 f1bd 0bb7 f83d 3338 5cbe
000000d0: 74bb 34bd 521a 2fbe 0366 273e 446b 2d3a
000000e0: 5dec 0fbe ec0e 21be 0bd6 23be 2b7c 923d
000000f0: cca6 17be 706c 213e c5e0 273e 7309 4ebd
00000100: 1b09 86bd 000d c1bd 3fde 3cbd 90f1 d43d
00000110: 207b 473e 59a9 5dbe 1353 20be 6764 fb3c
00000120: 84c7 84b9 114d e5bd 574c 21be 2c6d dd3d
00000130: f454 a63d 3a24 63bc fd0c 95bd e315 6fbe
00000140: c8f0 e83d 234f 583d b19a 17bd 0123 74be
00000150: 9a14 7b3d f7f9 713b 5edf 1bbe f60e c83d
00000160: 24ab 41be 7245 8cb9 7a1a e5bc 610d 31bd
00000170: 7d8b 42be 4bb1 c9bb 838a e03c 8f03 a6bd
00000180: 62a1 2cbe 14e6 30be 00cc 65be e1b7 3c3e
00000190: 59b4 42bc ae61 36be e06b cf3d daa3 853d
000001a0: ea8b 29ba d94a 38be ccb2 823e 0492 343e
000001b0: 01bf 91bd 908c 7d3c ab16 60bd 529d 7b3c
000001c0: a126 5dbe 44fb 443c 91e3 7c3d fd6d a4bc
000001d0: 9c9c 27be b57f b1bc c0ef bfbc c203 2fbd
000001e0: 7577 17be 227f 073e 649d 1fbe e77f 4e3d
000001f0: c5a9 3fbd fbda 55be ae8e 4f3e 6cff 503e
00000200: 8a48 40be 1a4e 8838 ce89 423e fd6b 3dbe
00000210: 2dea 583e 2f12 b3bd 8a8c 3b3e 7583 fd3d
00000220: 8c3f bd39 3967 33be 1a42 673e fc32 bdba
00000230: 7af5 3e3e 7268 9a3d f15e f13d 8ddd 6e3e
00000240: cfea 713e 2abd 3b3e dc20 c03d 5198 0c3e
00000250: ed33 2dbe 1b91 21be 5f2c 143e a3f4 033e
00000260: 1d0f fbbd e232 1c3e 3086 343e 1c30 153e
00000270: 2345 1b3d 4052 de3d 76e1 1a3e bafd 19be
00000280: 7126 e73d 2dd3 b13c 4277 443e ba8a 4bbd
00000290: 17a1 0c3d fa57 4c3e e984 a4ba 372d 14be
000002a0: 6bf2 d0bd 7741 2ebe 2d83 073e a8e7 77bd
000002b0: f439 01be 2f18 753e dfce 453e c779 6e3d
000002c0: 3a24 c0bd 47a7 99bc 2bf9 44be 548a 5ebd
000002d0: 07fc a2bd d439 5b3e 7c6f 2abe d54b 05be
000002e0: 4738 8e3d 0dc5 4a3d d9d7 a3bd c7b3 253e
000002f0: 302c 7b3e 246d 013d 3079 5c3e 8f35 bd3c
00000300: 4291 773e 7d04 19be d048 693d eba1 8c3d
00000310: b8e7 cb3d c731 c63d 9c1d af3d 7a29 9cba
00000320: a9b1 2dbe 7f85 983d 562a 81bd f399 efbd
00000330: 8692 693e 0831 5c3c 9c90 1c3c daae a23d
00000340: 643b 9f3d aaa0 403e a465 803c 496e 953d
00000350: cf4f a13d 6d8b 6c3e 5175 8f39 056e 4438
00000360: fb26 23be 4738 efbd 91db ba3d 5241 f9bd
00000370: 71b3 74be d03d 57be 4415 78be 8dba f2bd
00000380: 0c4e 4bbe 9a9b 7839 dd30 313e b0a4 00be
00000390: 6b07 50be e77d 5abe cc73 243e a193 14bc
000003a0: 3a31 eebb 2e0b 093e 12e7 be3c ea78 17bc
000003b0: f2a3 6bbe 28b8 b8bd 015d 673e a6da a73d
000003c0: 114f 2b3e 5332 18be c7fb 63bd 464d 63be
000003d0: ffed a1bd 2c7d 8dbd 647b fe3d 78d6 fe3d
000003e0: e342 ab39 1fb5 ac3c ed1f 0e3e ed17 88bd
000003f0: 8701 77bd fb08 92bd e689 d4bd d655 e73d
-0.07031802 -0.010613561 0.106650755 0.19912787 -0.036063336 -0.0017476919 0.0082692765 -0.14478011
0.09219723 0.1557241 -0.1850831 0.0025976126 0.1978056 -0.14842571 -0.22434102 -0.030665142
0.030375192 -0.046555404 0.06357885 -0.077734806 -0.010110673 -0.23820771 -0.021197105 -0.015372393
0.09907472 -0.10009664 -0.114113115 0.096443094 -0.047674008 -0.1952968 0.14214747 0.17813551
-0.22630568 -0.098554105 -0.04559775 -0.23725826 -0.18015894 -0.07923295 0.09679226 -0.023115855
0.15647337 0.050095454 0.008846051 0.0456868 0.1559478 -0.052997787 -0.15919787 0.16681625
0.24077003 -0.1178445 0.12144288 -0.21505813 -0.04412408 -0.17099884 0.16347508 0.000661541
-0.14055009 -0.15728348 -0.1599962 0.071525894 -0.14809722 0.15764022 0.16394337 -0.05030198
-0.065447055 -0.09426308 -0.046110388 0.10397637 0.19480562 -0.21646632 -0.1565669 0.030687524
-0.00025325653 -0.1119634 -0.15751778 0.108118385 0.08121672 -0.013863618 -0.07277868 -0.23348193
0.113740504 0.052809846 -0.03701276 -0.23841478 0.061298944 0.0036922672 -0.15221927 0.097684786
-0.18912941 -0.00026754622 -0.027966727 -0.04322565 -0.18998523 -0.006155168 0.027409798 -0.081061475
-0.16858438 -0.17275268 -0.22441101 0.18429519 -0.011883819 -0.178107 0.101279974 0.06525393
-0.0006467687 -0.17997302 0.25527036 0.17633826 -0.07116509 0.015475407 -0.054709118 0.015357332
-0.21596767 0.012022797 0.06174046 -0.020071978 -0.16368335 -0.02166734 -0.023429751 -0.042728193
-0.14791663 0.13232091 -0.15587384 0.050414946 -0.046792764 -0.20884316 0.20269272 0.20409936
-0.18777671 6.499533e-05 0.18997881 -0.18498226 0.21183081 -0.087437026 0.1831533 0.12378589
0.00036096235 -0.17519845 0.2258381 -0.001443475 0.1864833 0.075394526 0.11785687 0.23326702
0.23624729 0.18333879 0.093812674 0.13729979 -0.1691434 -0.1577801 0.14470051 0.1288629
-0.12258742 0.15253785 0.17629313 0.14569134 0.03790773 0.10855532 0.15125069 -0.15038195
0.11286629 0.021707142 0.19186118 -0.049692847 0.034333315 0.19955435 -0.0012551817 -0.14470373
-0.102024876 -0.1701716 0.13233633 -0.06052366 -0.12619764 0.23935007 0.19317196 0.058221605
-0.0938191 -0.018756522 -0.19235675 -0.05433114 -0.07958227 0.21408778 -0.1664409 -0.13017209
0.06944328 0.04950433 -0.08000154 0.16181861 0.24528575 0.031598225 0.21530604 0.023096828
0.24176505 -0.14943118 0.056954205 0.06866821 0.09956306 0.09677463 0.085505694 -0.0011914216
-0.16962303 0.07447337 -0.06306903 -0.11699285 0.228098 0.013439424 0.009555962 0.079435065
0.07775 0.18811288 0.015673466 0.07296426 0.078765504 0.23100062 0.00027362493 4.6832505e-05
-0.15932839 -0.11680656 0.0912391 -0.12170662 -0.23896576 -0.21019673 -0.24226862 -0.11851988
-0.19853991 0.00023709089 0.17303796 -0.12562823 -0.2031533 -0.2133709 0.16059798 -0.009068401
-0.007269052 0.13383171 0.023303542 -0.009245137 -0.23011759 -0.090195 0.22594072 0.08196001
0.1672938 -0.14862947 -0.055660035 -0.22197446 -0.07906722 -0.0690864 0.12425879 0.124432504
0.00032665496 0.021082459 0.13879366 -0.066451885 -0.06030419 -0.07130619 -0.103778645 0.11295669

bias_ih_l0 f4 [48]
00000000: 4b74 693e 1535 983d 1e1c c43a 673c 7b3d
00000010: 58e0 5a3e bcbd 0fbe 0275 58be d949 1ebc
00000020: d7f2 7e3e d64d 113e 99db 483e 22d4 42be
00000030: b550 19be af6a d23c 230f dbbc dc03 f13d
00000040: 99e0 333e b81e 1e3e 3d53 5f3e c86f 0b3e
00000050: 6c7e 80be 7d31 5bbe ee15 633c ffd0 babd
00000060: 6e44 28be 3aac 61be 60e5 a03d c85b 55bd
00000070: e4ee 82be cc74 21bc dd42 463d 3ff0 283e
00000080: 304a 0c3e 6c2f ce3d 1309 80bc 2e9e f93d
00000090: 7834 5c3e d1da d43d 6480 5bbe 3f50 743e
000000a0: 1f83 673e a926 253e a642 26bd 7497 513d
000000b0: 4fe4 25be 35e2 1cbe 0740 f53d 16a6 583e
0.22798268 0.074319996 0.0014961993 0.0613369 0.21374643 -0.14037222 -0.21138385 -0.009661161
0.24897324 0.14189848 0.1961502 -0.19026235 -0.14972194 0.025685636 -0.026740616 0.11768314
0.17566146 0.15441406 0.21809097 0.1361686 -0.25096452 -0.21405597 0.013860209 -0.09121894
-0.16432354 -0.22038355 0.0785625 -0.052089483 -0.25572884 -0.009854507 0.04840361 0.16497897
0.13700175 0.10067639 -0.015629327 0.121883735 0.2150439 0.103932984 -0.21435696 0.23858736
0.22608612 0.16128029 -0.040590905 0.051169828 -0.16200374 -0.15320666 0.11975103 0.21157107

bias_hh_l0 f4 [48]
00000000: 0a3e 5e3c e8ca d7bd 0c0e 543e 5a81 81bd
00000010: 7315 1abe cd6d 763b e246 233e 8269 05be
00000020: 19bf 313e 1009 2c3e e9dd 92bd febe 7bbe
00000030: 3e8a ad3d aeb3 233e 19d9 04be af79 8bbd
00000040: 116a 20be d3de fe3c fee7 cd3d 750e 58bc
00000050: 2ab1 b73d 4003 873d d0e1 24be 7c38 9dbd
00000060: 8b71 603d acef 083e 92df 933d 5014 103e
00000070: 6772 6a3d 7d5b 2b3e ef94 2abe a1bb 4a3e
00000080: cc15 2a3e e214 f63d ce7e 1a3e 101d 413e
00000090: bb86 5d3d 6778 77be 53f4 9e3d 6ce6 e73d
000000a0: cf94 76bc b359 1b3e cb99 4ebe 728e 923d
000000b0: 2118 173e 0a42 80be 116c 7bbe 6df6 a2bc
0.013564596 -0.10536748 0.20708483 -0.063235 -0.15047245 0.0037602067 0.15945008 -0.1302853
0.17358054 0.16800332 -0.07171232 -0.24584576 0.08473633 0.15986511 -0.12973441 -0.06810319
-0.15665461 0.03111211 0.100540146 -0.013187041 0.08969338 0.06592417 -0.16101766 -0.07676789
0.054795783 0.13372678 0.07220377 0.14070249 0.05723801 0.16734119 -0.16658376 0.19798137
0.16609877 0.12015702 0.15087435 0.18858743 0.054083567 -0.24167024 0.07761445 0.11323246
-0.015050127 0.15170936 -0.20175855 0.071560755 0.14755298 -0.25050384 -0.24552943 -0.019892896

weight_ih_l0 f4 [3, 11]
00000000: 94aa a43e 5a7c 773e c215 aebe ac21 62bf
00000010: fbcb d53e 4942 233f 076d 4c3f 0c6c 74be
00000020: 3469 4c3f b960 62bf bf3d 143d 2043 683f
00000030: a341 cdbd 7ca3 19bf 9198 593e ddde f33e
00000040: c1ae 9e3e 6eac 7abe 86ef 153f 8ec5 1d3f
00000050: dcd9 22be 8728 363f 922a 0fbe ce8c 9c3e
00000060: bc14 423f 2e90 61bf 0292 423f c734 5abf
00000070: af87 1fbf 4c6e 8fbe db9b 17bf 293c 383f
00000080: 8266 11bf
0.3216139 0.2416853 -0.34000975 -0.8833263 0.41757187 0.6377302 0.7985386 -0.23869342
0.7984803 -0.8842884 0.0361917 0.90727425 -0.10022285 -0.6001508 0.21249606 0.4763097
0.30992702 -0.24479839 0.5856861 0.6162957 -0.1590342 0.7115559 -0.13981083 0.30576175
0.7581289 -0.88110626 0.7600404 -0.8523678 -0.6231641 -0.28013837 -0.5922219 0.719668
-0.5679704

weight_hh_l0 f4 [3, 1]
00000000: 702c 813e c221 5b3e 2b85 1bbf
0.25229216 0.21399596 -0.60750073

bias_ih_l0 f4 [3]
00000000: a772 4e3f 53b1 2fbf 6dfd 523f
0.80643696 -0.6862995 0.8241795

bias_hh_l0 f4 [3]
00000000: 9711 383f 686a 043f 7f4f 9e3e
0.7190184 0.51724863 0.30920026

weight f4 [1, 16]
00000000: d53f 0abd 275f 51bd 9afb f3bd f7ab d03d
00000010: 2311 35bd 69e7 973c 6fd8 95bb e087 27bd
00000020: 0eff 8aba a2ae 433e eb13 223a ff52 c33a
00000030: ec49 4e3d 1117 b3bc 7486 72b7 84bb ebbd
-0.03375228 -0.051116135 -0.119132236 0.1018905 -0.044205796 0.018542962 -0.00457292 -0.040901065
-0.0010604577 0.19109586 0.00061827776 0.0014902054 0.050363466 -0.021861585 -1.4455629e-05 -0.11510375

weight f4 [680, 17]
00000000: 0c42 3dbe f820 133e a264 063d 2935 9bbc
00000010: f0df a23c 41e2 403e c4d0 3f3e f9cf f53d
00000020: 9f27 a3bd bebe b1bd 9d16 b33c 392e 5cbc
00000030: d1fb e7bc cf78 703e 456e 4f3e 0497 fcbd
00000040: 6bc9 b33d 02c7 39be c4db 79be 8fe2 f3bd
00000050: 2c24 4f3d 963f 5e3e 7540 313e 4a5b 733e
00000060: 22b0 0fbc b8b1 79be 81c7 18bd bda4 0bbd
00000070: 65fc debd 8817 5bbe 2471 a33d de4a af3c
00000080: 33e6 83bd e7fd 133c b1c9 39be 6918 573d
00000090: 87b5 5b3e 9ae7 62be 7503 36bc e0a7 1b3d
000000a0: a87b e1bd e5eb 4c3e ead4 7b3c 92d4 74be
000000b0: b942 cf3d 4e56 2abd 3fd7 ddbc ac2c a43c
000000c0: b8d5 66be 1b13 b9bc 9e16 8c3d edf9 f9bd
000000d0: 6299 fe3a c674 eabd b2b8 f43d a3b4 34be
000000e0: 3b01 baba 3f67 bb3d d5d1 b93d fdf9 573c
000000f0: 7723 d5bd 3abe a338 3c4c a23d 8f17 50bd
00000100: bcac 503b 8c39 11ba afb0 813d 5821 e3bc
00000110: cac6 3fbe a1f3 19be 2615 cfbd afa5 e33d
00000120: 2a43 fcbd 32e7 a53d 5e0f d8bd afb0 13be
00000130: 905d d2bc b88b de3d fbf1 65be 3c9b 2dbe
00000140: 9216 0ebe 9986 b83a ccd1 343e 05aa adbd
00000150: 03b8 573e 894f 0f3e 93b0 0a3e 2a81 b4bd
00000160: 364b 42be 4ca7 493d 604c 4b3e baa5 96bd
00000170: be56 123d f028 bd3d 5a2f 523e ebfc d83c
00000180: a5bf 313e 9dec 403e c800 7f3e 81bc e5bd
00000190: aa09 fdbb 6c06 ff3d cb35 4d3e f623 3c3e
000001a0: c5de 41be 0cde 66be ab80 53be ae4e 65be
000001b0: 27d4 c23d 9654 813d 00b9 003e 2cb1 b2bd
000001c0: 7348 1b3d 29d6 d0bd 315d 56bd 33b8 823c
000001d0: d711 12be dbaf 28be fdef bebc d8dd b5bc
000001e0: de0e edbd f370 c3b7 51b5 163e c8b5 b339
000001f0: 9c77 2ab9 3816 15be 8638 9eb9 eb2d d73d
00000200: 9759 eb3d c4ba f3bc d34d b53c 9ba4 27be
00000210: ecc4 b23d d62b 1bbe 391c 023d 6549 1cbe
00000220: 9239 e4bd fad6 c1bc 804c 413d 6dad a9bd
00000230: b43f 713d a283 bd3b 38c7 cf3c f633 70bc
00000240: 0151 01be b947 143e 0a7e bdbd da61 c1ba
00000250: 36d2 fe35 dbb0 e2bd ba01 c53d 76cf 923d
00000260: 03e3 023a 5be2 21be c34b 9fbb dc1d 9cbd
00000270: 479a 78b9 1b0c 35be 214e b93a 7faa 283c
00000280: dd48 efb9 6113 e7bd 19fd 713d 0b7c 17bc
00000290: 9bed 053d 750c b8bc a713 c2bd c5b0 23bc
000002a0: 5d19 313e 8fa2 2fbe 7b6a 413e d6bd 823d
000002b0: 4b67 f73c 2e8d 3fbc 66df cd3c 0f06 623d
000002c0: 7410 d83d b083 df3b 86db 7a3e c7e9 ce3d
000002d0: 3027 803c f546 06be b800 09be 790c edbd
000002e0: 1384 4fbe edcc 0ebd fba7 84bd 5932 e5bd
000002f0: 000c d33d e68b a33d ed2a a6bd cc92 98ba
00000300: 0b2c 423d b0e7 adb7 9ae8 97b9 0e36 f3bd
00000310: 4cbd 09be 63df 0f3e e27d 02be 197a f9bb
00000320: 04dd 91bd ed81 f0bd 480d 5b3d 4103 01bc
00000330: 560a 743e 9ada 783e 4d63 133e 57e7 59be
00000340: bbb8 333e 4777 fb3d bee0 6abe 89db ac3d
00000350: 9a1a 8e3d 6f14 263d 26f1 0c3e 525f 113e
00000360: 136b 2dbe 5ded 5abd da5d 18be 82c3 a33d
00000370: 328d 343e e981 f5bd a282 58bd a41e fe39
00000380: 758e b1bd e911 e9bd 38ef bd38 8a40 8fbb
00000390: edf7 10be 5968 d0b8 dcfe e338 bd5b abbd
000003a0: 3e91 fcbc be1d d8bd 2778 623c 6396 e83d
000003b0: fde3 d53d 2a29 51bd a3e4 5ebd b391 ee3d
000003c0: 2202 d5bc 1c87 f93d 601c 02bd af90 59bd
000003d0: 6846 e53d 4113 4d3e 0a1a 183e b02a d5bd
000003e0: d9ca 97bd ff7a a4bb eace d2bb 2063 023b
000003f0: ffe4 cb3c b835 7aba 9745 c3bd 17cf 17be
-0.18482226 0.14368045 0.032810815 -0.018946247 0.019882172 0.18836309 0.18731982 0.12002558
-0.079665415 -0.08678959 0.021861369 -0.013438755 -0.028318318 0.23483585 0.20256908 -0.123334914
0.08778652 -0.18142322 -0.2440024 -0.11908447 0.050571606 0.21703944 0.17309745 0.23765293
-0.008770021 -0.243842 -0.037299637 -0.034092654 -0.10887984 -0.21395695 0.07980564 0.021398004
-0.064403914 0.009032703 -0.18143345 0.052513514 0.21455966 -0.22158661 -0.011109223 0.038001895
-0.11009914 0.20011862 0.015370587 -0.23909214 0.10120148 -0.041586213 -0.027080176 0.020040832
-0.22542465 -0.022592118 0.068402514 -0.12205873 0.0019424374 -0.11448054 0.1194929 -0.17647032
-0.001419104 0.09150552 0.090732254 0.01318216 -0.10407155 7.807878e-05 0.07924697 -0.050803717
0.003184124 -0.0005539886 0.06332528 -0.02772586 -0.18728176 -0.15034343 -0.101114556 0.11115586
-0.12317498 0.08100738 -0.10549806 -0.14422868 -0.02567938 0.10866493 -0.2245559 -0.16953748
-0.13875797 0.0014078199 0.17658156 -0.08479694 0.21066289 0.13995184 0.1354392 -0.088136986
-0.18974003 0.049231812 0.19853354 -0.073558286 0.035727255 0.09236324 0.20525876 0.026487788
0.17358263 0.18840261 0.24902642 -0.11217595 -0.0077220993 0.12452397 0.20040052 0.18373093
-0.18932636 -0.22545642 -0.20654552 -0.22393295 0.09513121 0.063149616 0.12570572 -0.08725199
0.03791089 -0.10197098 -0.052334968 0.015956974 -0.14264618 -0.16473334 -0.023307795 -0.02220051
-0.11575101 -2.3298408e-05 0.14717604 0.00034276978 -0.00016257021 -0.14559257 -0.00030178222 0.10506805
0.11491697 -0.029752143 0.022131836 -0.16371386 0.08728966 -0.15153441 0.031765196 -0.15262373
-0.11143793 -0.02366208 0.047192097 -0.082850315 0.058898643 0.005783514 0.02536355 -0.014660826
-0.12628557 0.14480485 -0.09252556 -0.0014753893 1.8985654e-06 -0.11068889 0.0961947 0.07168476
0.0004992934 -0.15809004 -0.0048613264 -0.07622883 -0.00023708596 -0.17680399 0.0014137664 0.010294556
-0.0004563992 -0.11282993 0.059079263 -0.009245883 0.0326973 -0.022466877 -0.09476405 -0.009990876
0.17294832 -0.17151855 0.18888275 0.063838646 0.030200621 -0.011691375 0.025130939 0.05518156
0.10550013 0.0068211183 0.24497804 0.10103183 0.015643686 -0.13113005 -0.1337918 -0.115746446
-0.20265226 -0.0348634 -0.06477352 -0.11191244 0.10305023 0.07985668 -0.08113656 -0.0011640429
0.047405284 -2.0731095e-05 -0.00028974266 -0.118755445 -0.13451117 0.14050059 -0.12743333 -0.007613432
-0.071222335 -0.117435314 0.053479463 -0.007874311 0.23832068 0.2430214 0.14393349 -0.21279655
0.17550938 0.1227861 -0.22937295 0.084403105 0.069386676 0.04054683 0.13763866 0.14196518
-0.16935377 -0.053449024 -0.14879552 0.079962745 0.17631987 -0.11987669 -0.052858956 0.00048469484
-0.0866975 -0.11380369 9.05678e-05 -0.0043717073 -0.14157076 -9.937649e-05 0.00010871675 -0.08367107
-0.030830976 -0.10552548 0.013822592 0.11356809 0.10443876 -0.051064648 -0.054417264 0.11648884
-0.026001994 0.12183973 -0.03176534 -0.053116497 0.111950696 0.20026876 0.14853683 -0.104085326
-0.07411737 -0.005019545 -0.0064333575 0.001989551 0.024889467 -0.0009544748 -0.095347576 -0.14825092

bias f4 [680]
00000000: 1130 7b3d 57c2 063e 14f9 1e3e d9d9 05be
00000010: 8711 36be 900b e2bd d592 4d3e d1d9 17be
00000020: b9d2 a1bd 47b5 81ba d8d9 5b3e cfc0 a2bd
00000030: 127c 923d 7b31 06be 9e53 86bd 3b35 89bd
00000040: 52e3 db3c 66fb eebd a10b 14bc d06d 2fbe
00000050: 80cb 6e3e 39cb 2e3e 89c2 033e 0818 12be
00000060: 4f9c 1a3e 4c9d dcbd 1517 d9bd 00c4 923d
00000070: c434 5abc 5947 1d3e 068d d63d 390b 1d3e
00000080: 1042 abbc e6c3 a0bc 1a34 29be bbd4 393e
00000090: 709d 0bbd ceff 6c3d bdc2 593e b784 a13d
000000a0: 3e23 1ebe 2adb ddbd 92b1 6c3e 758d 5fbe
000000b0: 08b5 203d 8844 babd aea8 4abd 1638 ff3d
000000c0: 9582 893c 50fb 24ba c74a 343e cc86 f3bb
000000d0: cebd 8bbd 605d c23d 341d cbbd 801f 44bd
000000e0: 00f2 5ebe 47ee 43bb 5645 9fbd 6c70 1f3e
000000f0: 9584 323e 75c6 20be edf6 e2bd 5e3b 443e
00000100: ff26 653d adf4 4dbc 32ad a73a b8c8 263e
00000110: a781 f4bd 468a 143e 81d1 693e 0154 06be
00000120: 9ade cfbd f235 c03d 4a6f 21be 9144 683d
00000130: 86b0 e53d f819 7d3e dfc2 f13c 6ec8 a1bd
00000140: c191 15bd d185 023e 65a9 393e 8fb3 6bbd
00000150: 0687 893d b2f3 123e cdcc 0c3e ce42 1dbe
00000160: 67f1 24be 5f7a 593e 9b05 593d 7a39 5f3e
00000170: 15c3 663e c4b3 2ebe 0c0a 3abe 47ba 883d
00000180: 2c72 32be 0289 61bd 4a7e dabd 10dc b1ba
00000190: 5a5d fabc 1418 133d a803 de3d 541e 04be
000001a0: c1d2 f8bd 9991 01be d2eb d7bc e559 0dba
000001b0: 9dcc adbd 3895 f7bc 9d7c 02be d759 803e
000001c0: 4b47 f6bd 825c dabd 7809 703e 0be4 e43d
000001d0: 3fc4 a6bd 0ffb 543e 0c09 dd3d b28e 22be
000001e0: fce8 d2bd 2145 92bd 2e62 eabd 2b2b 06ba
000001f0: e1c5 51be d4cf 4dbd 56cc 383a 2917 9a3c
00000200: 2676 1f3a 98d6 0abe 5d12 11bd f694 04be
00000210: 169a 4bbe 3371 e4bd cb6a 153d a476 5d3c
00000220: 87b0 de3d 40c9 2a3e 33e9 313d a31f 273d
00000230: 2f42 0bbe c85e 81bd 6739 0ebe 051d 2fbe
00000240: b41e f53c 2806 33bd 13ca 713e e167 1bbd
00000250: 9415 593a 562d 5a3d e402 af39 1840 aabd
00000260: 701d 55bd f61b 5ebe 4efb 11be e19b 3bbe
00000270: 47c2 163e 0074 f9bc df57 3fbb 5fd7 ebb8
00000280: b7b8 26be bb3e 8238 215e 073d 9960 143e
00000290: 1830 0b3e e493 453e 7983 9cbd 328c 16be
000002a0: daf7 ea3d 983a 433b 8383 533d 191b 093e
000002b0: f789 2e3e a698 093e 2d8e be3d cb7c c6bd
000002c0: 3b94 53bd 5cba 01be 48cb 5fbb bc44 bebd
000002d0: ba6b 043e bf81 17be b09e 483e 286d 563e
000002e0: 0f08 333e 7761 e8bd 40db 4a3e d48a 6ebd
000002f0: bfb7 0ebe 7a86 963d c74f 24bc eeae 273e
00000300: 5d80 c2bd 7c12 d2bd 20df 12be f3f6 83bb
00000310: 49f5 35be 9e9a f53c 281d 393e 4ec1 453e
00000320: 199c c13d be75 643e 972b e7bd 52d5 09be
00000330: b256 20be 6827 06be 70ef e23d 5d31 4f3e
00000340: 089a 33bd 3f0d c13d 7853 83bd 2108 93bc
00000350: 324e 0abe b470 9bbd 3a64 61be a1d8 e8bd
00000360: e1c5 c73b 5ee5 653d dec3 06bd fa75 1cbe
00000370: 7586 263e 5c16 443e 2133 99bd b394 a43a
00000380: 1a42 4f3e 393e a33d 0558 41bd 30a5 03bc
00000390: 9e99 6c3e c60a 34be a467 933c 7297 b5bc
000003a0: d85a 0a3e 6c44 d0bc dae1 3bbc c2cb 9c39
000003b0: c05e 3a3e 06b2 11be c586 643e 21bc 2b3e
000003c0: a113 d83c 1b0d 1bbe 338d 9db9 1f26 aabc
000003d0: f685 3abe 9ca8 9539 cb9f 12be 8f63 4fbe
000003e0: 4bc6 f63d c7a4 c6bd d120 5a3d 1736 acbc
000003f0: ea47 1c3b 15d3 25bd 5fe7 95bd 458e 12bd
0.061325137 0.13160072 0.15524703 -0.13071384 -0.17780124 -0.110373616 0.20075543 -0.14829184
-0.0790152 -0.0009895944 0.2146982 -0.079469316 0.07152571 -0.13104813 -0.065589175 -0.06699606
0.026841793 -0.11669044 -0.009035976 -0.17131734 0.23319817 0.17069711 0.12867178 -0.1426698
0.1509869 -0.107721895 -0.10600106 0.0716629 -0.013318244 0.15359248 0.10476117 0.15336312
-0.020905524 -0.019624662 -0.16523781 0.18147556 -0.03408569 0.05786114 0.21265693 0.078866415
-0.15443131 -0.10832818 0.23114613 -0.21831305 0.039235145 -0.090951025 -0.04947727 0.124618694
0.0167859 -0.0006293552 0.1760665 -0.0074318405 -0.06823312 0.09490466 -0.099176794 -0.047881603
-0.21772003 -0.0029896663 -0.07776897 0.1557023 0.17433389 -0.15700705 -0.110822536 0.19163272
0.055945393 -0.012570542 0.0012792705 0.16287506 -0.11938792 0.14505872 0.22833826 -0.13117982
-0.1014988 0.09385289 -0.1576511 0.056706015 0.1121531 0.24716938 0.029511867 -0.07899557
-0.036515955 0.1274636 0.18131025 -0.057544287 0.06715207 0.14350775 0.1375 -0.15357515
-0.16107713 0.21238087 0.05298386 0.2179927 0.22535355 -0.17060763 -0.18167895 0.066761546
-0.17426366 -0.0550623 -0.10668619 -0.0013569612 -0.030562092 0.035911635 0.10840541 -0.12902194
-0.12149573 -0.12653197 -0.026357565 -0.00053921185 -0.084862925 -0.03022252 -0.12742849 0.25068542
-0.12025317 -0.10662176 0.23441112 0.11176308 -0.081429 0.20798896 0.10792741 -0.15874746
-0.102983445 -0.071420915 -0.114445075 -0.0005118127 -0.20485641 -0.05024703 0.00070494914 0.018809872
0.0006082974 -0.13558424 -0.035417903 -0.12947449 -0.19882998 -0.111544035 0.0364788 0.013517056
0.10873514 0.16678333 0.043435287 0.040801656 -0.13599466 -0.06316906 -0.13889085 -0.17100914
0.029921867 -0.043707043 0.23612241 -0.037940864 0.00082811085 0.053265892 0.00033380755 -0.08313006
-0.052030027 -0.21690354 -0.14256021 -0.18321182 0.14722548 -0.03045082 -0.0029196662 -0.00011245789
-0.162814 6.2105675e-05 0.033048753 0.14489974 0.13592565 0.19294697 -0.07642264 -0.14701918
0.11473055 0.0029789563 0.05163909 0.13389243 0.17044817 0.13437137 0.09304462 -0.09691771
-0.051655035 -0.12668747 -0.0034148265 -0.09290454 0.1293172 -0.14795588 0.19591784 0.20940077
0.17483543 -0.11346715 0.198102 -0.058237866 -0.13937281 0.07349868 -0.010028786 0.16375324
-0.094971396 -0.10257432 -0.14342928 -0.0040272414 -0.1776935 0.029980954 0.18077528 0.19312021
0.094536014 0.2231054 -0.11287611 -0.13460281 -0.15658072 -0.1310097 0.11080825 0.20233674
-0.043848068 0.094263546 -0.06412405 -0.017948212 -0.13506392 -0.07589856 -0.2201089 -0.11369444
0.006096587 0.056126945 -0.032901637 -0.1527938 0.16262229 0.19149154 -0.07480455 0.0012556523
0.2024006 0.079708524 -0.047203083 -0.008034989 0.23105475 -0.17582235 0.017993756 -0.022166941
0.13511217 -0.025423251 -0.011467421 0.0002990645 0.18200207 -0.14228067 0.22317035 0.16770984
0.026376547 -0.15141718 -0.00030050575 -0.02077013 -0.18215165 0.00028545118 -0.14318769 -0.20252822
0.1204954 -0.096993975 0.053253952 -0.021021886 0.0023846575 -0.040484507 -0.07319521 -0.03578021

weight f4 [4, 680]
00000000: e11b b43b 5880 0cbc ad1b cf3c 91c1 eb38
00000010: b44c c73b d016 b2bc 7952 14bc 68d2 2dba
00000020: 0996 c439 02aa 76b8 ea74 5e3b a8f2 92b9
00000030: b7f7 babc 1944 f8b7 1521 32bc 13c8 cbbb
00000040: 6a95 2b3d c987 113d 1ef2 db3c 1da0 b2b8
00000050: a29f a5bb 332d b33c 6da2 d2bc 0edb 2abc
00000060: 43d3 293d 165a d037 a6cf 4a3a 8212 6bbc
00000070: fe87 153d b38b af3c 0567 1ebb 9ea9 b0bc
00000080: fd07 b5ba 8271 8abc 906c b83c 8435 023c
00000090: a985 b0bc 6cb9 fcbc ffe6 293d c9f6 39bc
000000a0: 764b 2d3a e6e3 56ba f09f e23b 443e 32bd
000000b0: 2067 fe3c 2eb0 4fbc 0b18 beb8 dfcd f7bc
000000c0: fa84 8e3b 5007 7cba e740 ee3c e4d3 96bc
000000d0: 1112 fcbc 9fff df3b f928 c6ba bd12 2b3d
000000e0: f191 c43c b7e5 91b9 37cb 29b7 9b08 46bc
000000f0: eb8d a9bc 95b9 6db7 062c aab8 3219 e2b8
00000100: 8353 cfbb fcb9 ac3a 4b85 69ba 8d8e 16bc
00000110: a9bc 9db9 d9da ac3c 4c63 e4bc decd 0539
00000120: 6717 e3bc 2d31 97bc 7077 743c 1444 03ba
00000130: ee15 32bc 5290 023d d796 6b3b 55dd 533c
00000140: 272b 80bb 7ab7 c63c a60d dcbb b96c c8bb
00000150: aaf3 253c 766c db3c 40b0 b5bc da23 28ba
00000160: 131c 8aba cbd1 403d 27aa 293c 4daf e9bc
00000170: 6cb9 a93c e75b 443c 62cb c23c 79c3 12bd
00000180: b227 30b9 27b1 223d deaf df38 55f4 2e3a
00000190: b0c8 f0bc 2139 91bc a083 47bc ec18 e7b8
000001a0: daa9 113d 0cad 2d3a a1d8 01bc 5138 1f3a
000001b0: 288a 253c 358b 1f3a 2fbf af3c 1b4e 1a3d
000001c0: 2f19 0e38 c601 1cba b8a0 ee3c 624d 883b
000001d0: b5b2 e93c 70eb 273c a4d4 8c3c 71a4 a5bc
000001e0: 9222 e23c 8489 a1bc e270 df38 1247 2eba
000001f0: 9a59 d9ba 5759 323c d6cd 0f39 0d4e 0fba
00000200: 5066 9939 f312 8cba 4d7a 1d3a 7fbc 08b9
00000210: 4e1d 6dbc 3815 ce3a 5f7e d7bc 60d4 6abc
00000220: 6c0d e3bc 7adb f23c 9aa8 bfbc bc1e dbbc
00000230: d37b af38 0e68 4238 3615 b53a 14bf 9c39
00000240: 76f6 e83c a1a7 973c d121 1e3d 84eb 1d3d
00000250: 956e d739 cd0f 08bc dfdf cab9 fd93 cc3b
00000260: 56e0 353c 5f9f 973c 3978 f13c 4192 05ba
00000270: 5974 57ba 0a2f 4fbd 072f 573a 9b2b 8638
00000280: d879 49ba 85ce 3839 8b9a e53c 0fb4 bd39
00000290: 3693 2ebc 49fd 223a e5d8 a4ba 3167 7138
000002a0: e527 3f3c dda2 c23c 9b1c 8dbc 1960 88bc
000002b0: 59da c13c 8de1 c43c 18c5 913c 25dd 243c
000002c0: d3d2 7039 c2fc 523d a8ec 163c d8d9 233d
000002d0: 9c08 62bb 510b 07ba 4fc0 e83c 37cc b23c
000002e0: 04a7 843c bae3 483c 4f89 443c 62f1 75bb
000002f0: 3f0f a1bc 3c22 55bc 9782 e83c 601b d83c
00000300: 5f26 7d3c 1aee a837 24bc ecb8 c63a 893a
00000310: 3637 0fbc 6af9 343d a6e0 673c ce73 913c
00000320: 7167 153b 635d b63b 0184 6eba 4848 b93c
00000330: bb73 1c39 15ad 093a c2d8 ddbb 8708 243c
00000340: ea9d 16bb be94 8e3c 2c0c aeb7 b6ae 92bb
00000350: 928a 0eb9 8e07 a4bc d14b 0abc 02e2 bf3a
00000360: f3a1 de3c 7124 0a3d 941c e33c 7fb4 723a
00000370: 58dd 003d 882d 853c 8fc0 1cba f1f6 c43a
00000380: 2d37 073d 6fa4 a7bc c8fe 123d 8efd 863c
00000390: 4df4 86bc b6e9 a83a 464f 18bc ddca c63c
000003a0: d410 02bd 7d2b ba3c 3828 aeba c971 8b36
000003b0: 7917 d1bc c859 b83b b87f 2d3d 796a aeba
000003c0: ec35 dfbc 5a9d 993c 677f 8938 eb7a 1fba
000003d0: 134f 9e3c 7c26 26b9 4ba2 c3bc 809a 9bbc
000003e0: 2f5f 373d 6329 ce3c f433 08bd c84e 27bc
000003f0: e2a8 2eb9 8f06 41bb 3d12 c2bc 1ba8 4fbc
0.0054964875 -0.008575521 0.025281752 0.00011241728 0.006082142 -0.021739393 -0.009052866 -0.0006630779
0.00037495818 -5.8809303e-05 0.0033944198 -0.00028028083 -0.022823198 -2.9595614e-05 -0.010872145 -0.006218919
0.04189054 0.035529885 0.026848849 -8.517525e-05 -0.00505443 0.021872139 -0.025712216 -0.010428203
0.04146124 2.4837482e-05 0.00077366305 -0.014347674 0.036506645 0.021428918 -0.002417029 -0.021565255
-0.0013811585 -0.016899828 0.022512704 0.007947329 -0.02154811 -0.030850135 0.04148006 -0.011350342
0.0006610671 -0.00081974117 0.0069160387 -0.043516412 0.031055033 -0.012676282 -9.064384e-05 -0.030249534
0.004349348 -0.0009614127 0.029083682 -0.018411584 -0.030770333 0.0068358923 -0.0015118412 0.041765917
0.023995372 -0.00027827706 -1.01205e-05 -0.012087013 -0.020697555 -1.416951e-05 -8.114432e-05 -0.00010781213
-0.006327094 0.0013177986 -0.0008908107 -0.00918926 -0.00030085936 0.021100448 -0.02787938 0.0001276056
-0.02772112 -0.018456066 0.014921054 -0.0005007398 -0.010869486 0.031875916 0.0035948062 0.012931188
-0.003911394 0.02425741 -0.006715494 -0.0061164764 0.010128895 0.026785117 -0.02217877 -0.00064140337
-0.0010536931 0.047075074 0.010355509 -0.028525973 0.020718299 0.011984802 0.023778621 -0.03583095
-0.00016799456 0.039719727 0.000106662264 0.00066739816 -0.02939257 -0.017727436 -0.012177378 -0.000110195804
0.035562374 0.0006625212 -0.0079251835 0.00060737605 0.01010374 0.0006086112 0.021453468 0.037672143
3.3878892e-05 -0.0005951192 0.029129371 0.0041596154 0.028527597 0.010249004 0.017191239 -0.020220013
0.027604375 -0.019718893 0.00010654495 -0.00066481635 -0.001658249 0.010885558 0.00013714223 -0.00054666476
0.00029258663 -0.00106868 0.0006007299 -0.00013040191 -0.014472319 0.0015722876 -0.026305376 -0.014332861
-0.027716361 0.02964567 -0.023395825 -0.026748054 8.367714e-05 4.6350113e-05 0.0013815525 0.00029897003
0.028437834 0.018512549 0.03860647 0.038554683 0.00041090386 -0.008304548 -0.0003869524 0.0062432275
0.011100849 0.018508611 0.029476272 -0.0005095341 -0.0008218936 -0.05058197 0.0008208607 6.39774e-05
-0.00076856976 0.00017624542 0.028027793 0.00036183043 -0.010655215 0.0006217552 -0.0012576847 5.7554982e-05
0.011667226 0.0237593 -0.017225554 -0.016647385 0.023663687 0.024033332 0.017794177 0.010062491
0.00022966722 0.05151058 0.009211697 0.040002674 -0.0034489995 -0.00051515276 0.028412012 0.021825893
0.01619292 0.0122613255 0.011995628 -0.0037527909 -0.01966059 -0.01300865 0.028382583 0.02638024
0.015451043 2.0138035e-05 -0.00011288401 0.0010469786 -0.008741191 0.044183172 0.014152681 0.017755415
0.0022797252 0.005565332 -0.00090986496 0.022617474 0.00014920432 0.00052519265 -0.0067702243 0.010011799
-0.0022982308 0.01740491 -2.0748084e-05 -0.0044763936 -0.00013593797 -0.020023134 -0.008440928 0.0014639499
0.027176833 0.03372616 0.027723588 0.00092584634 0.03146109 0.016257063 -0.0005979621 0.0015027208
0.033011604 -0.02046415 0.03588751 0.016478326 -0.016473914 0.0012887034 -0.009296244 0.024266655
-0.03175433 0.022725815 -0.0013287133 4.155769e-06 -0.025523888 0.005625937 0.04235813 -0.0013306878
-0.027247392 0.018751789 6.5563996e-05 -0.0006083685 0.019324815 -0.0001584533 -0.023881098 -0.01899457
0.04476851 0.02516622 -0.03325267 -0.010211654 -0.00016656847 -0.0029453372 -0.023690337 -0.012674357

bias f4 [4]
00000000: 96b5 48bc a3a4 1cbc dcec 0a3d f5c7 7a3b
-0.012250325 -0.009560737 0.033917293 0.0038266156
