estimators/knet/single_obs/velMSE_ep100_train4000_val1000_test10000_lr1e-03_wd1e-06_ri[4, 4, 1, 1]_data_sr1e-01_q1e-04_r1e-01_j5_train[200,250]_val[40,250]_test[40,250].pt (torch, 157468 bytes, 40 tensors)

weight_ih_l0 f4 [48, 20]
0	0xbd5db0f0	-0.05412382
1	0xbe6db468	-0.23213351
2	0xbe6ad66c	-0.22933358
3	0x3cd869c7	0.026417626
4	0xbe5de6aa	-0.21670023
5	0xbd4bcf86	-0.049758457
6	0x3e738fc0	0.23785305
7	0x3e1621bb	0.14661305
8	0xbe242120	-0.16028261
9	0xbe35521f	-0.17707108
10	0x3d99560e	0.07487117
11	0x3c1baf18	0.009502195
12	0xbe5a35ce	-0.21309587
13	0xbe27537c	-0.1634044
14	0xbc8a5e14	-0.016890563
15	0x3df491bf	0.11941861
16	0xbcd178f6	-0.025570374
17	0xbe3a8e55	-0.18218358
18	0x3e2073b3	0.15669136
19	0xbd961e11	-0.073299535
20	0x3d5b7514	0.05357845
21	0x398cb241	0.0002683569
22	0x3e47bf61	0.19506599
23	0x3d6f9300	0.0584898
24	0xbd49516d	-0.04914992
25	0xbe812630	-0.25224447
26	0x3dd0abfb	0.10189053
27	0x3cbe134b	0.023202559
28	0xbdcc87d2	-0.09986843
29	0x3cd0e6be	0.025500651
30	0xbd50fc80	-0.051022053
31	0xbe72794b	-0.23679082
32	0xbd9b429c	-0.07581064
33	0xbcb2a009	-0.021804826
34	0x3e207a12	0.15671566
35	0xbdaf4ad7	-0.085591964
36	0xbe687648	-0.2270137
37	0x3e11a97e	0.14224812
38	0xbdb47b1e	-0.08812545
39	0x3c00cad1	0.007860855
40	0x3e180358	0.14845026
41	0x3d2bb88c	0.041924044
42	0xbd43cdb2	-0.04780359
43	0x3e0d407b	0.13794129
44	0x3e737229	0.23774017
45	0xbe43cd57	-0.191213
46	0xbb8bfeb4	-0.0042723063
47	0xbd8e7602	-0.06956102
48	0x3bb553ce	0.005533672
49	0xbba04f5d	-0.0048922733
50	0x3dd5f4e2	0.10447098
51	0xbe62884e	-0.22122309
52	0x3d1da69d	0.038488973
53	0xbd6b5003	-0.057449352
54	0x3dc2796e	0.09495817
55	0xbe67a123	-0.22620063
56	0x3e652ab5	0.22379573
57	0x3d1efd26	0.03881564
58	0xbdd4e4df	-0.10395216
59	0xbe76b8db	-0.24093954
60	0x3e53ca2b	0.2068259
61	0x3dba0c8d	0.09084425
62	0xbd946642	-0.07246067
63	0x3dcc059a	0.09962006
64	0xbe075337	-0.13215338
65	0xbd383132	-0.04496879
66	0xbe33c58e	-0.1755583
67	0xbdf25385	-0.11832336
68	0xbe170055	-0.1474622
69	0x3e635873	0.2220171
70	0x3dcbd15b	0.09952041
71	0xbe72c797	-0.2370895
72	0x3ca90005	0.020629892
73	0x3d9e8518	0.07740229
74	0x3de7dc0b	0.11321267
75	0xbd85628c	-0.06512937
76	0x3e43ae50	0.19109464
77	0x3e5a2df6	0.21306595
78	0xbe0f4e5e	-0.13994738
79	0xbe6ae2bb	-0.22938053
80	0x3e6a4a91	0.22880007
81	0xbc4c7b62	-0.012480589
82	0x3df683f8	0.1203689
83	0x3ddbff50	0.10742056
84	0x3e3431c5	0.1759711
85	0x3e7afbf1	0.2451017
86	0x3c8e0386	0.017335664
87	0x3defb976	0.11705296
88	0x3e244aa8	0.16044104
89	0x3e08e809	0.13369764
90	0xbd949853	-0.07255616
91	0x3e434d92	0.1907256
92	0xbe170364	-0.14747387
93	0xbe78dd48	-0.24303162
94	0x3e718222	0.23584798
95	0x3dd3ab9d	0.10335467
96	0x3e43915b	0.19098417
97	0xbd34e657	-0.04416498
98	0x3d8e628f	0.06952392
99	0xbdb22aaa	-0.08699544
100	0x3e1ee833	0.15518264
101	0xbd7e189f	-0.0620352
102	0x3e1ea401	0.1549225
103	0x3d85a456	0.06525485
104	0xbb9e6685	-0.0048339986
105	0xbddf9c04	-0.109184295
106	0xbe721292	-0.23639897
107	0xbe017031	-0.12640454
108	0xbe6b6db1	-0.22991063
109	0xbcc75b01	-0.024335386
110	0xbe60a3a9	-0.21937431
111	0x3ddfba97	0.10924261
112	0x3e046916	0.12930712
113	0xbd6c8f9a	-0.057754137
114	0x3e389d30	0.18028712
115	0x3e6795b0	0.22615695
116	0xbdfe38f4	-0.12413207
117	0x3df5660b	0.11982354
118	0x3d662aab	0.056193035
119	0xbe4c4625	-0.19948633
120	0xbde9e06b	-0.114197575
121	0x3e3f17cc	0.18661422
122	0x3e2caa44	0.16861826
123	0x3c9b2551	0.018938692
124	0xbd40820c	-0.046999022
125	0x3e00fa09	0.12595381
126	0x3dff2769	0.12458689
127	0xbe412825	-0.1886297
128	0xbd9290f0	-0.07156551
129	0xbcf41287	-0.02979399
130	0x3e6bbc96	0.23021159
131	0xbe6f88f8	-0.23392093
132	0x3d2b6d1a	0.041852094
133	0xbd830895	-0.06398121
134	0xbdbf6bdd	-0.09346745
135	0x3cd9f71d	0.02660709
136	0x3d07db1c	0.033167943
137	0xbd9e4892	-0.077286854
138	0xbe2ff883	-0.17184643
139	0x3de68455	0.11255709
140	0x3d2d277a	0.042273976
141	0xbd972830	-0.07380712
142	0xbe010224	-0.12598473
143	0xbd21743c	-0.03941749
144	0xbdc2a4d3	-0.09504094
145	0xbe5f797d	-0.21823688
146	0xbe4a8a0c	-0.19779223
147	0xbe5d4018	-0.21606481
148	0x3e5f14fd	0.2178535
149	0xbe17cd1d	-0.14824338
150	0x3d916aa6	0.0710042
151	0xbdda3c78	-0.10656065
152	0xbd4a9ef0	-0.04946798
153	0x3d2b3977	0.04180285
154	0x3d5c657e	0.053807728
155	0xbe1b7e8f	-0.15184997
156	0xbe51839b	-0.2046036
157	0x3daadbca	0.08342703
158	0xbe47fa1c	-0.19529003
159	0x3e6df862	0.23239282
160	0x3dd208e0	0.10255599
161	0x3e71ea64	0.23624569
162	0x3e302def	0.17205022
163	0x3dda5a13	0.106617115
164	0xbbfa0a49	-0.0076306206
165	0xbdf309f8	-0.11867136
166	0x3e751435	0.2393349
167	0xbdfdd59d	-0.12394259
168	0x3e441af2	0.19150904
169	0xbe62175f	-0.22079228
170	0xbd4c9e10	-0.049955428
171	0x3d96b47e	0.07358645
172	0xbe353aa3	-0.1769815
173	0x3bd153ab	0.006388148
174	0x3e54b92e	0.20773765
175	0xbd17b39e	-0.03703653
176	0x3b7e4da7	0.0038803609
177	0xbe4c328d	-0.19941159
178	0x3c95539e	0.018228348
179	0x3e1e49ae	0.15457794
180	0xbe142694	-0.14467841
181	0x3ce561ad	0.028000677
182	0x3db85da9	0.09002239
183	0x3e62303c	0.22088712
184	0xbe693f4c	-0.22778052
185	0xbdd4a647	-0.103832774
186	0xbe10e0e1	-0.14148284
187	0xbe2d38b7	-0.16916166
188	0x3de4ca82	0.11171438
189	0x3e21644c	0.15760916
190	0xbe17ac3c	-0.14811796
191	0x3e4837dd	0.1955256
192	0x3e0b25ad	0.13588591
193	0x3e51eedb	0.20501272
194	0xbe5b85e7	-0.21437798
195	0x3dc3d10d	0.09561358
196	0x3d8883da	0.06665774
197	0x3d816d84	0.063197166
198	0x3d9d89fd	0.07692335
199	0x3dd70c71	0.1050042
200	0x3e430800	0.1904602
201	0xbdc7d649	-0.097576685
202	0xbe1f528d	-0.15558834
203	0xbe02849d	-0.127459
204	0x3e3f3ba4	0.18675095
205	0x3d310722	0.043219693
206	0x3e2c50cb	0.16827695
207	0xbe76dacd	-0.24106903
208	0xbd995199	-0.07486267
209	0xbc491d5e	-0.012275068
210	0x3e32cb97	0.17460476
211	0x3ded919e	0.1160004
212	0x3e6b663b	0.22988217
213	0x3d8c21ae	0.068423614
214	0x3e54a83b	0.207673
215	0x3e1ee729	0.15517868
216	0x3e21dc64	0.15806729
217	0xbbac4652	-0.0052574063
218	0xbdf53efc	-0.11974904
219	0x3d88953e	0.06669091
220	0x3e3176a4	0.17330414
221	0xbe499d7f	-0.19688986
222	0x3c762646	0.015023774
223	0x3cf71bde	0.030164655
224	0x3e227136	0.15863499
225	0xbbe5de82	-0.0070150504
226	0xbe00f14d	-0.12592049
227	0x3e16ddb8	0.14733016
228	0xbe0a40da	-0.13501301
229	0xbdfa06c5	-0.122083224
230	0xbe6f8953	-0.23392229
231	0x3e35cabc	0.17753118
232	0xbe3a01f4	-0.18164808
233	0x3e736e24	0.23772484
234	0xbdc29417	-0.09500902
235	0x3db23e66	0.08703308
236	0x3cc5593a	0.024090398
237	0x3c8160b9	0.015793191
238	0x3e20383b	0.1564645
239	0xbe340992	-0.17581776
240	0xbbdafd23	-0.0066830083
241	0xbde44899	-0.111466594
242	0xbe1e62d8	-0.15467393
243	0x3e3ac416	0.18238863
244	0xbdd92436	-0.1060261
245	0x3e05ae34	0.13054734
246	0xbe072c1d	-0.13200422
247	0xbc0f669b	-0.00875249
248	0xbdd8945c	-0.10575172
249	0x3e1c5059	0.15265025
250	0xbd935739	-0.07194371
251	0x3e43d140	0.19122791
252	0x3d91b643	0.07114842
253	0x3dbc26c1	0.09187079
254	0x3e6b27e3	0.22964434
255	0x3e29ee20	0.16594744

weight_hh_l0 f4 [48, 16]
0	0xbe4b1667	-0.19832765
1	0xbdb82c6c	-0.08992848
2	0x3e6a06ff	0.22854231
3	0xbdba09c9	-0.090838976
4	0xbe36dbea	-0.17857328
5	0xbe6358c4	-0.2220183
6	0x3e4e0a02	0.20121005
7	0xbe5e546b	-0.2171189
8	0xbe0becbd	-0.13664527
9	0xbe7299dc	-0.23691505
10	0xbe7264d7	-0.2367128
11	0x3d26e069	0.040741358
12	0x3d641549	0.05568436
13	0x3e02d6d2	0.1277726
14	0x3e6e3195	0.23261102
15	0xbde5a547	-0.11213165
16	0xbe7488f3	-0.23880367
17	0xbdb7f4e1	-0.08982254
18	0x3e54b75b	0.2077307
19	0x3e21c2e2	0.15796998
20	0xbe10aa3c	-0.1412744
21	0x3d2fcb28	0.042918354
22	0x3d9d4808	0.076797545
23	0x3daaefd0	0.08346522
24	0x3e345c08	0.17613232
25	0xbe26d127	-0.16290723
26	0x3ddefe37	0.108883314
27	0x3e7d36a3	0.24727874
28	0xbe2dd61e	-0.1697621
29	0x3d12690e	0.03574472
30	0x3e3226c0	0.17397594
31	0x3e330516	0.17482409
32	0x3e501a2e	0.20322487
33	0x3e676db9	0.2260045
34	0xbd922193	-0.0713531
35	0xbe16c9c1	-0.147254
36	0x3d90d577	0.07071965
37	0x3cb09cbd	0.021559114
38	0x3de6827d	0.112553574
39	0xbdb56463	-0.08857038
40	0x3c9d6185	0.01921154
41	0x3c879bd8	0.016553804
42	0x3e581952	0.21103409
43	0x3ded2571	0.11579407
44	0xbd167353	-0.036731075
45	0x3d67f880	0.056633472
46	0xbe411011	-0.18853785
47	0x3e2be14b	0.16785161
48	0xbe6fa36a	-0.23402181
49	0x3dd37c5b	0.10326453
50	0xbcef8995	-0.029240409
51	0xbdcfcd6f	-0.10146605
52	0x3e29e2f2	0.16590479
53	0xbd079841	-0.033104185
54	0xbe7ae785	-0.2450238
55	0xbe3830ec	-0.17987412
56	0xbe6a0c6f	-0.22856306
57	0x3e08dd2a	0.13365617
58	0x3e0ef2dc	0.13959831
59	0xbe41b3ba	-0.18916216
60	0xbe71aa9f	-0.23600243
61	0xbd922abd	-0.07137058
62	0xbe481cce	-0.19542238
63	0x3e20cbf6	0.15702805
64	0x3d8c0d34	0.06838456
65	0xbe24238e	-0.16029188
66	0xbe0c1556	-0.13680014
67	0x3e41b656	0.18917212
68	0x3cd292dc	0.025704794
69	0xbe59b5fc	-0.21260828
70	0xbdb39608	-0.087688506
71	0xbdced86e	-0.100998744
72	0xbd03c2de	-0.03216826
73	0xbe5b608f	-0.21423553
74	0xbdf56150	-0.119814515
75	0x3e145daa	0.14488855
76	0xbd1ab398	-0.03776893
77	0x3e441e28	0.19152129
78	0x3e6c5fa2	0.23083356
79	0x3e237bf5	0.15965255
80	0x3dea158e	0.114298925
81	0xbe6aee36	-0.22942433
82	0x3c97f19d	0.018547827
83	0x3db24dd4	0.08706251
84	0xbe753b41	-0.23948385
85	0xbe5bd75c	-0.21468872
86	0x3ccd5f4a	0.025069851
87	0x3e181b57	0.1485418
88	0x3dedc253	0.1160933
89	0xbc6cd8ac	-0.0144559555
90	0xbe4ccb35	-0.19999392
91	0x3e11b5f2	0.14229563
92	0xbe3f9d1c	-0.18712276
93	0x3e588ab5	0.21146663
94	0xbe0b6c39	-0.13615502
95	0xbe4f00c9	-0.20215143
96	0xbdfeda29	-0.124439545
97	0xbd357182	-0.044297703
98	0x3e69586c	0.22787637
99	0x3c7fbd95	0.015609165
100	0x3e71c5a7	0.23610555
101	0xbe2e1992	-0.17001942
102	0x3dcf9bbb	0.10137125
103	0xbe11dfa3	-0.14245467
104	0x3e093f14	0.13402969
105	0xbe487f55	-0.19579823
106	0xbe01cb1e	-0.1267514
107	0x3c85a281	0.01631284
108	0xbde76121	-0.11297823
109	0xbe7e965b	-0.24862044
110	0xbe53d5b3	-0.20686989
111	0x3dd15be6	0.10222606
112	0xbdcb7a33	-0.09935417
113	0x3d4117bd	0.04714178
114	0x3d6c2a30	0.05765742
115	0x3e67ff85	0.22656067
116	0xbd03eb27	-0.03220668
117	0x3a7133df	0.000920115
118	0xbdea1b6b	-0.11431011
119	0x3e2b1190	0.16705918
120	0xbe5ba316	-0.21448931
121	0x3e50134e	0.20319864
122	0x3e736b0a	0.23771301
123	0xbe281622	-0.16414693
124	0x3c0ba3aa	0.008522907
125	0xbde50023	-0.11181667
126	0xbd943ba6	-0.072379395
127	0x3c26a5cb	0.010171364
128	0xbd9f57fd	-0.07780454
129	0x3db26ad7	0.08711784
130	0x3e7449fb	0.23856346
131	0x3e6280ce	0.22119448
132	0x3d510258	0.051027626
133	0xbe6da365	-0.23206861
134	0x3dddb8e7	0.10826283
135	0xbd75aefa	-0.059981324
136	0xbe05acee	-0.13054249
137	0x3bd79b01	0.006579757
138	0x3e3b62a3	0.18299346
139	0x3dc9cd2c	0.098535866
140	0xbb79e317	-0.003812974
141	0x3cd247a1	0.025668921
142	0xbe16d88b	-0.14731042
143	0x3b203ecf	0.00244515
144	0x3d5a2e52	0.05326683
145	0x3de7971c	0.11308119
146	0xbb79342d	-0.0038025484
147	0xbcd3cd19	-0.025854634
148	0x3e3c1783	0.18368344
149	0x3dd9aead	0.1062902
150	0xbe328be2	-0.17436174
151	0x3d82aa92	0.0638019
152	0x3e0c0979	0.13675489
153	0x3e03f3ff	0.12886046
154	0x3e70db95	0.23521264
155	0x3d3eb755	0.046561558
156	0xbdb30e4c	-0.08742961
157	0xbdd898a6	-0.105759904
158	0x3d41c754	0.047309235
159	0xbe3fe2fc	-0.18738931
160	0xbe6d540e	-0.23176596
161	0xbbc6ac9b	-0.0060630566
162	0xbde6daa2	-0.1127217
163	0xbe662872	-0.22476366
164	0xbe6c28ee	-0.23062488
165	0x3e7cbf2c	0.24682301
166	0x3e599d7b	0.2125148
167	0x3e682b61	0.22672798
168	0xbd83a9aa	-0.06428845
169	0xbe4ad9a4	-0.19809586
170	0x3dc4c1c8	0.09607273
171	0x3da73875	0.08165065
172	0x3d5fc3cb	0.054630082
173	0xbceed5b7	-0.029154642
174	0xbe0f9603	-0.14022069
175	0x3e243739	0.16036691
176	0x3da86b8f	0.0822364
177	0xbd85adb4	-0.06527272
178	0xbe585492	-0.21126011
179	0x3de90fe3	0.11379983
180	0x3e1a47f6	0.15066513
181	0xbba06bb2	-0.004895651
182	0xbca347fe	-0.01993179
183	0xbdbb87cd	-0.09156761
184	0x3e608654	0.21926242
185	0xbe0763e3	-0.13221698
186	0xbe2a7900	-0.1664772
187	0x3e62ed27	0.22160779
188	0xbe8115d8	-0.25211978
189	0xbd873fae	-0.06603943
190	0xbd362666	-0.044470213
191	0xbe320f70	-0.17388701
192	0x3e17a2ea	0.1480824
193	0xbe32a70f	-0.1744654
194	0x3dddd6a6	0.108319566
195	0xbe1c75ce	-0.15279314
196	0xba86ef5f	-0.0010294727
197	0x3e59c2cf	0.2126572
198	0xbe04b7da	-0.12960759
199	0xbe6efc41	-0.23338415
200	0xbe0864b6	-0.13319668
201	0xbe691e20	-0.22765398
202	0x3d262036	0.040558062
203	0xbe57f6f1	-0.21090294
204	0xbe5183ca	-0.2046043
205	0x3e5440e8	0.20727885
206	0xbe45b456	-0.19307074
207	0xbe22099c	-0.15823978
208	0xbe13c4a0	-0.14430475
209	0xbd874f6b	-0.06606945
210	0xbc407141	-0.011745752
211	0x3e240a14	0.1601947
212	0x3d897116	0.067110226
213	0x3dc3c56f	0.09559142
214	0x3e47d775	0.19515784
215	0x3d96f445	0.073708095
216	0xbe6a547e	-0.22883794
217	0x3df1e47a	0.118111566
218	0xbc047874	-0.008085359
219	0x3d6b4094	0.057434633
220	0xbe38cd67	-0.18047105
221	0x3df5858e	0.11988364
222	0xbe5e7860	-0.21725607
223	0xbe45929c	-0.19294208
224	0x3d5937a0	0.053031564
225	0x3e05e87c	0.13076967
226	0xbe379c5a	-0.17930737
227	0xbd7224ee	-0.05911725
228	0x3c9a5c7d	0.01884293
229	0x3c407105	0.011745696
230	0x3e1b6549	0.15175356
231	0x3e116379	0.14198102
232	0xbe2098ad	-0.15683241
233	0xbe232b1e	-0.15934417
234	0x3dc243e2	0.09485604
235	0x3def1985	0.11674789
236	0x3e789063	0.24273829
237	0x3da72266	0.08160858
238	0x3e1528b7	0.14566313
239	0xbe635bb8	-0.22202957
240	0x3e5c2ef8	0.21502292
241	0xbcbc39f0	-0.022976846
242	0x3e2d507f	0.16925238
243	0xbe67ef5d	-0.22649904
244	0x3d07b9dd	0.033136237
245	0x3d8bed12	0.06832327
246	0x3e3640db	0.17798178
247	0x3e3b87e7	0.18313561
248	0x3e45b56e	0.19307491
249	0x3e67bd01	0.22630693
250	0xbd803a8a	-0.062611654
251	0xbcf2ab1e	-0.02962261
252	0xbc9e7035	-0.019340614
253	0x3e5da52c	0.2164504
254	0x3e725460	0.23664999
255	0x3d97a5c0	0.07404661

bias_ih_l0 f4 [48]
0	0x3e7cc63b	0.24684994
1	0xbe498201	-0.19678499
2	0x3e46c4fd	0.19411083
3	0x3e7eb958	0.2487539
4	0xbe55cc93	-0.2087882
5	0xbde0f29d	-0.10983775
6	0x3e057330	0.13032222
7	0x3d4112aa	0.04713694
8	0xbe66c490	-0.2253592
9	0x3e337c52	0.17527893
10	0x3dfde498	0.123971164
11	0xbd364d52	-0.044507332
12	0x3dcdfa12	0.10057463
13	0x3e05386b	0.13009803
14	0x3e46123e	0.19342896
15	0xbe564469	-0.20924534
16	0x3e0584bb	0.13038914
17	0xbe1d071e	-0.15334746
18	0x3d3560b1	0.044281665
19	0xbe0c6f87	-0.1371442
20	0xbe0b6c2b	-0.13615482
21	0x3e44e1b9	0.19226731
22	0xbe03a2e3	-0.12855105
23	0x3dd180e3	0.10229661
24	0x3d84c495	0.064828075
25	0xbdd785dd	-0.10523579
26	0x3d4bdf44	0.04977347
27	0x3e0a1190	0.13483262
28	0x3e770bef	0.24125646
29	0xbe5e12d4	-0.2168687
30	0xbd94d758	-0.07267636
31	0xbe379ce9	-0.1793095
32	0x3d86041d	0.06543753
33	0xbe4547ec	-0.19265717
34	0x3dd069eb	0.10176452
35	0xbe2b22c8	-0.16712487
36	0xbe12e234	-0.14344102
37	0xbc7dcc3b	-0.015490587
38	0xbe29d55f	-0.16585301
39	0x3db0ccdf	0.08632826
40	0x3ca0052b	0.019533714
41	0x3e563f0a	0.20922485
42	0xbe05aaec	-0.13053483
43	0xbe3ddfd7	-0.1854242
44	0x3d0f0ef4	0.03492637
45	0xbbd657b6	-0.0065412177
46	0xbe732a7c	-0.23746675
47	0x3e0ef8f0	0.1396215

bias_hh_l0 f4 [48]
0	0xbe1466cf	-0.14492343
1	0xbddbf571	-0.107401736
2	0xbc7711dd	-0.0150799425
3	0x3d0e60ca	0.034760274
4	0x3e18b4cb	0.14912717
5	0xbd0a8454	-0.033817604
6	0xbe5d37b4	-0.2160328
7	0xbe3ab74a	-0.18233982
8	0xbd575833	-0.052574348
9	0xbdfa221f	-0.12213539
10	0x3e3c8f61	0.1841407
11	0x3e28a414	0.16468841
12	0x3d68906e	0.056778364
13	0xbc5e2f55	-0.0135610895
14	0x3e783910	0.24240518
15	0x3e69e843	0.22842507
16	0xbccc4e6e	-0.024939742
17	0xbe471334	-0.19440919
18	0xbda917fa	-0.08256526
19	0x3db58b70	0.08864486
20	0xbd9bef10	-0.07613957
21	0xbd4dbca6	-0.050228737
22	0x3e461007	0.19342051
23	0xbe6c729f	-0.230906
24	0xbe7cc93e	-0.24686143
25	0x3deddb4f	0.116140954
26	0x3d9a939c	0.075476855
27	0x3e5ebb96	0.21751246
28	0x3e55ecc5	0.20891102
29	0xbe10d42e	-0.1414344
30	0x3dd34870	0.10316551
31	0xbd85b970	-0.0652951
32	0x3cea2661	0.028582754
33	0x3c4db817	0.0125560975
34	0x3c8e9357	0.017404241
35	0xbd424668	-0.047430426
36	0xbc9d92dc	-0.019235067
37	0xbdec5f02	-0.11541559
38	0x3dede7db	0.116164885
39	0xbdc394b8	-0.0954985
40	0xbe6dfa11	-0.23239924
41	0x3e6ba6ba	0.2301282
42	0xbd6ad185	-0.05732872
43	0xbdf92589	-0.121653624
44	0xbd19fdbc	-0.037595496
45	0x3da9334d	0.08261738
46	0xbe61e122	-0.22058538
47	0xbdc17506	-0.094461486

weight_ih_l0 f4 [48, 36]
0	0xbe1f99c1	-0.15585996
1	0x3e007f8e	0.12548658
2	0xbd914735	-0.0709366
3	0xbdfa1f80	-0.122130394
4	0xbe0cd2f8	-0.13752353
5	0xbddf143a	-0.1089253
6	0x3e5b40a3	0.21411376
7	0x3e3862c1	0.18006422
8	0x3e77c77c	0.24197191
9	0xbc18d0d6	-0.009327134
10	0xbe5525c4	-0.20815188
11	0x3e36b462	0.17842248
12	0x3e320344	0.17384058
13	0x3e259983	0.16171841
14	0xbd855109	-0.06509597
15	0xbdb532a2	-0.08847548
16	0xbc99d0df	-0.018776355
17	0xbda784f6	-0.08179657
18	0x3e1652eb	0.14680068
19	0xbe5eb2ce	-0.21747896
20	0xbe53b5a5	-0.2067476
21	0xbc8a4bdd	-0.016881878
22	0x3d92b1fa	0.071628526
23	0xbd403eae	-0.046934776
24	0x3e50b79c	0.20382541
25	0xbe3811c6	-0.1797553
26	0xbd63932e	-0.055560283
27	0xbc7acc51	-0.015307502
28	0x3ccf683f	0.025318263
29	0xbd5ffe40	-0.05468583
30	0xbc7845cf	-0.015153362
31	0x3d976292	0.07391848
32	0xbdb5f73a	-0.08885045
33	0x3e2f7911	0.17136027
34	0xbe41942e	-0.18904182
35	0x3deab1fd	0.1145973
36	0x3e4a7826	0.19772395
37	0x3e2fae9d	0.17156453
38	0xbdc4ed47	-0.096155696
39	0x394ff490	0.00019832165
40	0x3cf48ce1	0.029852333
41	0x3e6bb5c7	0.23018561
42	0x3e5edc66	0.21763763
43	0xbdb51f88	-0.08843905
44	0xbdba754c	-0.09104404
45	0xbe0a5f8b	-0.13513009
46	0xbe3dd822	-0.1853948
47	0x3e5160d3	0.20447092
48	0x3e431911	0.19052531
49	0x3e2df1a4	0.1698671
50	0xbe05a31b	-0.13050501
51	0xbd2b84cb	-0.041874688
52	0x3d0a0442	0.033695467
53	0xb9529d04	-0.00020085654
54	0x3e129bfc	0.14317316
55	0x3e6ac227	0.22925626
56	0xbe3d793d	-0.1850328
57	0x3dc64eed	0.09683023
58	0xbe0ee6a0	-0.13955164
59	0xbcdff9a6	-0.027340721
60	0x3e6de332	0.232312
61	0x3e6b1fda	0.22961369
62	0xbdb150e4	-0.08658007
63	0x3db2ec95	0.08736531
64	0xbe5eebbf	-0.21769617
65	0x3e459213	0.19294004
66	0x3d26852f	0.040654358
67	0x3b9ccfc6	0.0047855107
68	0xbc87779b	-0.016536525
69	0x3d8e703e	0.06955002
70	0x3de4a3a3	0.11164024
71	0xbe2b1667	-0.16707765
72	0xbe309578	-0.17244518
73	0xbe5e898e	-0.2173216
74	0xbdff9591	-0.124796994
75	0x3dfc082a	0.12306245
76	0x3e47e8df	0.19522427
77	0x3de121e0	0.10992789
78	0xbe4bf151	-0.19916274
79	0x3e2bdadb	0.16782705
80	0xbe7c9eb5	-0.24669917
81	0xbc502c50	-0.012705877
82	0xbe379843	-0.17929177
83	0x3e7a3d1b	0.24437372
84	0xbd884b02	-0.066549316
85	0x3dc0cd9c	0.09414217
86	0x3d2ab4cc	0.041676328
87	0x3e104fed	0.1409299
88	0x3c1d95cf	0.009618237
89	0xbe375a0f	-0.17905448
90	0xbdfc6723	-0.12324359
91	0x3d43de02	0.047819145
92	0x3da771c8	0.08175999
93	0xbd85d631	-0.065349944
94	0xbd81cbcd	-0.063377
95	0x3d2b4a84	0.04181911
96	0x3d699214	0.057024077
97	0xbe6e23f1	-0.23255898
98	0xbe55604b	-0.20837514
99	0x3e6c66c0	0.23086071
100	0xbcaf6420	-0.021410048
101	0xbcb8a0ae	-0.022537556
102	0xb92ae503	-0.00016297777
103	0xbe0ffde5	-0.14061697
104	0xbe193510	-0.14961648
105	0x3e23e0f7	0.16003786
106	0xbd33c9e1	-0.0438937
107	0x3c9eff0e	0.019408729
108	0xbc7da8c1	-0.015482129
109	0x3e2ca256	0.16858801
110	0x3e3a442b	0.18190067
111	0x3e5b6981	0.21426965
112	0x3dfa4efc	0.12222096
113	0xbe5ad71c	-0.2137112
114	0xbd1817a3	-0.037131917
115	0x3df530c1	0.1197219
116	0xbe732458	-0.23744333
117	0x3c11cc62	0.008898826
118	0xbc6e0074	-0.014526475
119	0xbd54ad67	-0.05192318
120	0xbdbfdbd9	-0.093681045
121	0xbe227de6	-0.15868339
122	0x3e01d776	0.12679848
123	0xbe6a8442	-0.22902015
124	0xbd870df7	-0.065944605
125	0xbdc3d3f2	-0.0956191
126	0x3e25aaf9	0.16178502
127	0xbd9af5f1	-0.07566441
128	0xbe323193	-0.17401724
129	0x3e0b1ef0	0.1358602
130	0x3e2448be	0.16043374
131	0x3db0aeb5	0.08627073
132	0xbe2127dd	-0.15737863
133	0xbd2a71c2	-0.041612394
134	0xbdaaf04f	-0.083466165
135	0x3d8b1f04	0.06793025
136	0xbe37d23f	-0.17951296
137	0x3dccc3d4	0.09998289
138	0x3dd9f176	0.10641758
139	0x3e5bd8f4	0.2146948
140	0xbe1153db	-0.14192145
141	0xbe075f96	-0.13220057
142	0x3ca3d144	0.019997247
143	0x3cba21db	0.022721222
144	0x3d6e3b79	0.058162186
145	0xba9e6903	-0.0012085739
146	0x3de6835c	0.112555236
147	0x3e7700bf	0.24121378
148	0xbe44c127	-0.19214307
149	0x3e19e8b5	0.15030177
150	0xbe66325d	-0.2248015
151	0xbe5814a6	-0.21101627
152	0x3e7b973a	0.24569407
153	0xbda4c0b1	-0.080445655
154	0xbe01c5e2	-0.12673143
155	0x3e159443	0.14607339
156	0x3dbfeec4	0.09371713
157	0x3d7dfe4e	0.062010102
158	0x3d28bc42	0.04119516
159	0xbe77cfd8	-0.2420038
160	0xbd05b1fd	-0.032640446
161	0xbe801f66	-0.25023955
162	0x3e7080c6	0.23486623
163	0x3b4d1aa9	0.0031296408
164	0xbd90ba96	-0.070668384
165	0x3e673da3	0.22582106
166	0xbe4ff63c	-0.20308775
167	0x3d9ca73d	0.07649086
168	0xbdc883bd	-0.09790752
169	0xbe13f421	-0.14448597
170	0x3e260d6d	0.16216059
171	0x3a07ef17	0.00051854685
172	0xbde2ef5f	-0.11080813
173	0xbe4b681e	-0.19863936
174	0xbdf3995f	-0.118944876
175	0x3e73014c	0.23730963
176	0x3d803fd9	0.06262178
177	0xbcd60fe7	-0.02613063
178	0xbe65189b	-0.22372667
179	0xbe3583e0	-0.17726088
180	0x3dd2d640	0.10294771
181	0xbe23ae8c	-0.15984553
182	0x3e00edf7	0.12590776
183	0xbe150e9f	-0.14556359
184	0x3dcf8dfa	0.10134502
185	0x3e6cf9ba	0.23142138
186	0x3c252bac	0.010081213
187	0xbe61f7c0	-0.22067165
188	0x3e13f1bb	0.14447682
189	0xbe06a3d6	-0.13148436
190	0xbe694da1	-0.2278352
191	0x3e378b25	0.17924173
192	0x3cde4590	0.02713278
193	0xbd0b9f1d	-0.03408729
194	0xbd25e2d1	-0.040499512
195	0x3d7afaa7	0.061274197
196	0x3e210eca	0.15728298
197	0xbe7f656f	-0.24941038
198	0x3e31a4f2	0.17348078
199	0xbdc09228	-0.09402877
200	0x3df5609f	0.1198132
201	0xbe1b9e10	-0.15197015
202	0x3e1d1beb	0.15342681
203	0x3daa88a7	0.083268456
204	0xbe35194f	-0.17685436
205	0xbe430cfd	-0.19047923
206	0x3e6d598f	0.23178695
207	0x3de1341b	0.109962665
208	0xbd4f5214	-0.050615385
209	0x3d4c41eb	0.04986755
210	0xbda5a757	-0.08088558
211	0xbded6d49	-0.1159311
212	0x3e0c4811	0.13699366
213	0xbcff87dd	-0.031192714
214	0xbcd46331	-0.025926204
215	0xbe676b06	-0.2259942
216	0xbe4fcd01	-0.20293047
217	0x3e3cdf6c	0.18444604
218	0xbe218f69	-0.15777363
219	0x3d9d49d3	0.076800965
220	0x3d671eca	0.056425847
221	0xbe3cea99	-0.18448867
222	0x3e3f6dab	0.18694179
223	0x3e531433	0.20613174
224	0xbd8e4c0b	-0.06948098
225	0xbb902e63	-0.004400061
226	0xbe010da8	-0.12602866
227	0x3e508bc5	0.20365818
228	0xbd8bf2ec	-0.06833443
229	0x3de8c41a	0.113655284
230	0x3e171d79	0.14757337
231	0x3dba67d5	0.09101836
232	0x3b5a65c6	0.0033324822
233	0x3d2bb993	0.041925024
234	0x3d8ebe43	0.06969883
235	0xbd88b11d	-0.06674407
236	0xbde644f7	-0.11243623
237	0xbd98f7d8	-0.074691474
238	0x3d8302cf	0.0639702
239	0x3dc7625f	0.0973556
240	0x3d6d20ce	0.057892613
241	0xbd3c9d69	-0.046048556
242	0xbd036d02	-0.03208638
243	0x3d9cb886	0.076523826
244	0xbe66bbf8	-0.22532642
245	0x3e30cb67	0.17265092
246	0x3e258706	0.16164789
247	0xbe358861	-0.17727806
248	0x3dff53e5	0.124671735
249	0x3e484e40	0.195611
250	0xbdcd5613	-0.10026183
251	0xbe61f17b	-0.22064774
252	0xbd3bc723	-0.04584421
253	0x3d0ed29a	0.034868814
254	0xbe7d8bac	-0.24760312
255	0x3dd89893	0.10575976

weight_hh_l0 f4 [48, 16]
0	0x3c82ecdd	0.015982086
1	0x3e30eae6	0.17277107
2	0x3e56013d	0.2089891
3	0xbe0e541e	-0.13899276
4	0x3e10f83d	0.14157195
5	0x3e05f658	0.13082254
6	0xb9b01de7	-0.00033591615
7	0x39ee3f65	0.0004544213
8	0x3d51a871	0.05118603
9	0x3e70b0d2	0.23504952
10	0xbdde6ec7	-0.10860973
11	0xbd5ca57c	-0.053868756
12	0xbe0f2eff	-0.13982771
13	0xbe508a4e	-0.20365259
14	0x3df40da3	0.119166635
15	0x3dc4335a	0.09580107
16	0xbe2577bc	-0.16158956
17	0xbcdc97f6	-0.02692793
18	0x3e07e546	0.13271055
19	0xbe100498	-0.14064252
20	0x3d562d60	0.052289367
21	0x3b8ddddd	0.0043294267
22	0xbb9f27ce	-0.00485704
23	0x3c18354f	0.0092900535
24	0xbd855a72	-0.06511392
25	0x3d348c6b	0.044079226
26	0xbe794fcb	-0.24346845
27	0xbe2f73af	-0.17133974
28	0x3e5634d4	0.2091859
29	0xbcb2319c	-0.021752171
30	0x3e328063	0.17431788
31	0xb97ccba2	-0.00024108452
32	0xbc594f94	-0.013263602
33	0xbe31b2aa	-0.17353311
34	0xbcd231fa	-0.025658596
35	0x3d439b60	0.0477556
36	0x3cbc3e5a	0.02297895
37	0xbc5e0480	-0.013550878
38	0x3d868734	0.06568757
39	0x3d8f4604	0.06995776
40	0xbe68996b	-0.22714774
41	0x3e053993	0.13010244
42	0x3ddad3b1	0.10684908
43	0xbe264a65	-0.16239317
44	0x3d9f8989	0.077899046
45	0x3e067a22	0.13132527
46	0xbe06b9e7	-0.13156854
47	0x3e17e7ae	0.14834473
48	0xbe0dfe29	-0.13866486
49	0xbe041aa5	-0.12900789
50	0xbcfa3382	-0.030542139
51	0x3ccc3de2	0.024931852
52	0xbdfa50fb	-0.12222477
53	0xbdf08d21	-0.11745668
54	0xbd3b16f6	-0.045676194
55	0xbdd153ee	-0.102210864
56	0xbe7c639b	-0.24647371
57	0xbddac975	-0.10682956
58	0xbe5cb5a2	-0.21553662
59	0x3cb5f636	0.02221213
60	0x3e5f1cfb	0.21788399
61	0xbe2df8c1	-0.16989423
62	0x3dc32b03	0.09529688
63	0xbd876bfd	-0.06612394
64	0x3dc07489	0.09397227
65	0x3d8e1183	0.06936934
66	0xbe44ea3b	-0.19229977
67	0xbe3d77ad	-0.18502684
68	0x3d895acf	0.067067735
69	0x3e208569	0.15675892
70	0x3e1751b5	0.14777263
71	0x3e1ea043	0.15490822
72	0xbe21a708	-0.15786374
73	0x3e695d02	0.22789386
74	0xbb7c6614	-0.0038512992
75	0x3d4fbb32	0.050715633
76	0x3e30919e	0.17243049
77	0x3a8fe6e2	0.0010978843
78	0xb9e4e7a5	-0.00043660137
79	0x3d8e88e4	0.069597036
80	0x3da4b3ba	0.080420926
81	0x3dd9431c	0.10608503
82	0x3d302157	0.043000545
83	0x3d0d8c22	0.03455747
84	0xbe179c3c	-0.14805692
85	0xbe698714	-0.22805434
86	0x3d270173	0.040772866
87	0x3d96399f	0.07335209
88	0x3cb0fca8	0.02160485
89	0xbe0c7919	-0.1371807
90	0x3e2c70e4	0.1683994
91	0x3e07df63	0.13268809
92	0x3e71741c	0.23579448
93	0x3b710ff3	0.0036783188
94	0xba35c9c0	-0.0006934665
95	0x3cbcae5e	0.023032364
96	0x3d1ffeac	0.039061233
97	0xba3a3de2	-0.0007104558
98	0xbe34b5c2	-0.1764746
99	0xbe378eae	-0.17925522
100	0xbd1e8b55	-0.038707096
101	0xbe1f5ddf	-0.15563153
102	0xbbaa0c59	-0.0051894602
103	0x3b6aa441	0.003580347
104	0xbe6fbc33	-0.23411636
105	0xbcdc8913	-0.02692083
106	0xbe5203b3	-0.20509224
107	0x3e73d169	0.23810352
108	0x3c3349e2	0.010942908
109	0x3e1e7e33	0.15477829
110	0x3a92315f	0.001115363
111	0xbdcf31d9	-0.101169296
112	0xbe09173e	-0.13387772
113	0xbe3e043b	-0.18556301
114	0x3cf8e8ee	0.030384507
115	0x3dc34efc	0.095365494
116	0xbaf5b4dd	-0.0018745918
117	0xbe5e1ff8	-0.21691883
118	0xbb2d34bb	-0.0026429135
119	0xbe100a3a	-0.14066401
120	0x3e2de4fd	0.16981883
121	0x3db7e906	0.089799926
122	0xbe436360	-0.19080877
123	0x3c96ee5c	0.018424205
124	0x3d1d9025	0.038467545
125	0x3c8471d3	0.016167557
126	0x3d32c3ad	0.043643642
127	0x3e04bb15	0.12961991
128	0x38e2d385	0.00010815918
129	0x3d415e9b	0.047209363
130	0x3e5ee758	0.21767938
131	0x399fc946	0.00030476804
132	0x3e44fade	0.19236323
133	0xbe307d51	-0.17235304
134	0xb75e1b2d	-1.32385585e-05
135	0x3e43bd87	0.19115268
136	0xbe2a7cdd	-0.16649194
137	0xbd3203aa	-0.043460526
138	0x3c90ce52	0.017676506
139	0xbdcb253e	-0.09919213
140	0x3e040759	0.12893428
141	0xbe400f83	-0.18755917
142	0x3d68e382	0.056857593
143	0x3c726646	0.014794892
144	0xbcc4e83a	-0.024036516
145	0x3d3b0a9c	0.045664415
146	0xbde1b4a1	-0.1102078
147	0xbdaffbf7	-0.0859298
148	0xba4e54ee	-0.0007870932
149	0x3e0475c3	0.12935548
150	0xbc47ad1f	-0.012187271
151	0xbe2dfcf5	-0.16991027
152	0xbe35ed6c	-0.1776635
153	0x3e447116	0.19183764
154	0x3e57aa14	0.21060973
155	0xbe71c638	-0.2361077
156	0x3e69f230	0.22846293
157	0x3d4550ce	0.048172764
158	0xbe24932b	-0.16071765
159	0xbe50aaf1	-0.20377709
160	0x3da7e7e9	0.0819853
161	0x3e3b7257	0.18305336
162	0x3d13797f	0.03600454
163	0xbe2c413c	-0.1682176
164	0xbcb59b6e	-0.022168841
165	0xbe80cd6c	-0.25156724
166	0xbdcfe73a	-0.10151525
167	0x3dad76a0	0.084698915
168	0xbe4799a9	-0.1949221
169	0xbd7f89cf	-0.062387284
170	0xbd567837	-0.05236074
171	0xbd5fd657	-0.05464777
172	0xbdb49bbb	-0.08818766
173	0xba39e535	-0.00070913445
174	0x3cc1237c	0.02357649
175	0xbcc2bb0d	-0.023770833
176	0xba37bbd5	-0.0007008885
177	0xbd8788dd	-0.066179015
178	0x3dc5f059	0.09664983
179	0xbdd14753	-0.10218682
180	0xbdeb025f	-0.114750616
181	0x3d8a36c9	0.06748731
182	0xbccf5f25	-0.025313923
183	0x3e158c4f	0.14604305
184	0xbced927b	-0.029000511
185	0x3d1990bc	0.037491545
186	0x3e15a309	0.14612974
187	0xbd624a76	-0.055246793
188	0x3e3bdc31	0.18345715
189	0xbce0ddda	-0.027449537
190	0x3a2f6d84	0.00066920393
191	0xbddde383	-0.1083441
192	0x3e18c04b	0.14917104
193	0xbd8c7b6b	-0.068594776
194	0x3d58e8c8	0.052956372
195	0x3df500b5	0.119630255
196	0x3db9ec9d	0.090783335
197	0x3bc3948d	0.0059686364
198	0x3df7af3d	0.12093971
199	0x3e49ae90	0.19695497
200	0x3e7045a2	0.23464063
201	0x3e133a99	0.14377822
202	0x3e64db26	0.22349223
203	0xbd10f387	-0.035388496
204	0xbd1dfdce	-0.038572125
205	0xbc9f98d5	-0.019482056
206	0x3e4f7616	0.2025989
207	0x3e27559c	0.16341251
208	0xbc822646	-0.01588739
209	0xbd2831bb	-0.04106305
210	0xbdac6e6c	-0.08419499
211	0x3e2dd152	0.1697438
212	0xb9021631	-0.00012406033
213	0x3e6c89fc	0.23099512
214	0x3e220ce3	0.15825228
215	0xbd0faee5	-0.0350789
216	0xbe7309ac	-0.23734158
217	0x3e7d95d8	0.24764192
218	0x3da6d930	0.08146894
219	0x3d8bfa92	0.06834902
220	0x3e479971	0.19492127
221	0xbe2d1574	-0.16902715
222	0x3dd90b55	0.105978645
223	0x3cf61f71	0.03004429
224	0xbd154ce6	-0.03645029
225	0xbe0a087a	-0.13479796
226	0xbcd221e8	-0.025650933
227	0xbd2802f6	-0.04101845
228	0xb93ac20c	-0.0001781063
229	0xbe438994	-0.1909545
230	0x3e34c9e5	0.17655142
231	0x3cd6e4fd	0.026232237
232	0xbe6122ee	-0.21985981
233	0xbdd9d6ee	-0.10636698
234	0xbe413617	-0.1886829
235	0xbda1e9e5	-0.0790594
236	0x3d0737d3	0.033012222
237	0xbce40354	-0.027833618
238	0xbd4ae71a	-0.049536802
239	0x3e4d4e7c	0.2004947
240	0xbde6d408	-0.112709105
241	0xbd62c0ab	-0.055359524
242	0x3e4cb90e	0.19992468
243	0xb6a3fbd5	-4.8870957e-06
244	0xbd8f5c58	-0.07000035
245	0xbcd6b732	-0.026210401
246	0x3ced3a03	0.028958326
247	0xbe1f48a6	-0.15555057
248	0x3d123936	0.03569909
249	0x3e50b648	0.20382035
250	0x3e2f8596	0.17140803
251	0x3e4607cd	0.19338913
252	0xbe3f9ac0	-0.18711376
253	0x3e197ea5	0.14989717
254	0x3913f954	0.00014111894
255	0xbdf0d7ad	-0.11759887

bias_ih_l0 f4 [48]
0	0xbd7b6f30	-0.061385334
1	0x3d2c6593	0.042089056
2	0xbe59ae9b	-0.21258013
3	0x3e30eeef	0.17278646
4	0x3d2064c2	0.03915859
5	0x3da08e46	0.078396365
6	0xbe75f18f	-0.24017929
7	0x3d23cb94	0.03998907
8	0xbe1268ac	-0.14297742
9	0xbd0a9f5c	-0.033843383
10	0xbe245996	-0.160498
11	0xbe2d0c4c	-0.16899222
12	0x3d8d55cd	0.06901131
13	0xbe42c1ff	-0.19019316
14	0x3d72a094	0.05923517
15	0xbd35310e	-0.044236235
16	0xbe25ad60	-0.16179419
17	0xbd9627eb	-0.073318325
18	0x3e700514	0.23439437
19	0xbe652b0f	-0.22379707
20	0x3e5f83ea	0.21827665
21	0xbdf3417f	-0.11877727
22	0x3d19770c	0.037467048
23	0x3d94d9ad	0.07268081
24	0x3e76568d	0.24056454
25	0xbe7249c3	-0.2366095
26	0x3e5aea93	0.21378545
27	0xbe0a109c	-0.13482898
28	0x3da7c4c3	0.08191826
29	0xbd2da975	-0.042397935
30	0x3de349a4	0.1109803
31	0xbd1a76c6	-0.037710927
32	0x3c111fc5	0.008857672
33	0xbd9763ff	-0.073921196
34	0xbe27c464	-0.16383511
35	0x3d5c9392	0.05385167
36	0x3e4be441	0.1991129
37	0xbc890815	-0.016727487
38	0xbd82b538	-0.06382221
39	0x3dc856cb	0.097821794
40	0xbbaa4acc	-0.0051969048
41	0xbd11787a	-0.035515286
42	0x3e2c38df	0.1681857
43	0xbe572f22	-0.21014073
44	0xbd128ad3	-0.035776924
45	0x3db11f70	0.08648574
46	0xbdab7868	-0.08372575
47	0xbe4049a1	-0.18778087

bias_hh_l0 f4 [48]
0	0x3e00d712	0.12582043
1	0x3c34f85d	0.011045543
2	0x3e29b349	0.16572298
3	0x3e4719cb	0.19443433
4	0x3c91d3b5	0.017801145
5	0x3e13aca5	0.14421327
6	0xbd8f8518	-0.070078075
7	0xbcf4a530	-0.029863924
8	0x3c9cf492	0.019159589
9	0x3e484c36	0.19560322
10	0x3e189e44	0.14904124
11	0xbd9c29ff	-0.076251976
12	0x3de7fbe9	0.11327345
13	0xbe001a29	-0.1250998
14	0x3dfc5bf9	0.1232223
15	0x3e6c9c38	0.23106468
16	0x3d1c79cf	0.038202103
17	0x3d5d21ad	0.053987194
18	0xbdc9db3f	-0.09856271
19	0x3e3e5671	0.18587662
20	0xbe719a26	-0.23593959
21	0x3d35a308	0.04434493
22	0x3e667440	0.22505283
23	0x3dae123d	0.084995724
24	0xbcedd60a	-0.029032726
25	0xbe266833	-0.16250686
26	0xbe4c6f39	-0.19964303
27	0xbe5cec68	-0.21574557
28	0x3e59206d	0.21203776
29	0xbe4b0788	-0.19827092
30	0x3dc99224	0.09842327
31	0x3d8170e0	0.06320357
32	0x3d2ec197	0.04266509
33	0x3e45dfd7	0.1932367
34	0x3e21fd14	0.15819198
35	0x3de342b1	0.11096705
36	0x3e5b56f1	0.21419884
37	0xbdaad5b6	-0.083415434
38	0x3e27df6f	0.16393827
39	0x3e56b548	0.20967591
40	0xbcd7d4d2	-0.026346598
41	0x3d0f82cd	0.03503685
42	0x3e684927	0.22684155
43	0x3c8a5db2	0.01689038
44	0x3e37abca	0.17936626
45	0x3dbc0629	0.091808625
46	0xbe5f1dab	-0.21788661
47	0xbd0828de	-0.0332421

weight_ih_l0 f4 [3, 11]
0	0xbf00c6e3	-0.5030348
1	0xbf69ec1f	-0.9137592
2	0xbc2d9bf9	-0.010596269
3	0x3f4dea59	0.8043571
4	0xbe920662	-0.28520495
5	0x3f79ba35	0.97549754
6	0xbe63d810	-0.2225039
7	0x3e907abc	0.2821864
8	0x3e122e90	0.14275575
9	0xbddc4aa2	-0.107564226
10	0x3e2af808	0.16696179
11	0xbd89672a	-0.0670913
12	0x3ebabaf2	0.36470753
13	0xbf1d42bb	-0.6142995
14	0x3d6fb6c5	0.058523912
15	0x3f6ad504	0.91731286
16	0xbf3035b7	-0.6883196
17	0x3ca724e5	0.020403335
18	0x3f4b7cac	0.7948711
19	0xbe87d202	-0.2652741
20	0xbe4be145	-0.19910152
21	0xbf407642	-0.7518045
22	0xbf3d5e48	-0.73971987
23	0x3e037b98	0.12840116
24	0xbeee9aab	-0.46602377
25	0xbf217d3f	-0.63081735
26	0xba6bb17a	-0.00089909846
27	0x3f77088a	0.96497405
28	0x3ed5856a	0.4170335
29	0x3e3233b6	0.17402539
30	0x3ed3259f	0.4123964
31	0x3dd18ff5	0.10232536
32	0xbef3a9bc	-0.47590435

weight_hh_l0 f4 [3, 1]
0	0xbf03313d	-0.51247007
1	0xbf4e0624	-0.8047812
2	0xbe9d0e70	-0.30675077

bias_ih_l0 f4 [3]
0	0x3f4969ad	0.78676873
1	0x3edf13da	0.43569833
2	0x3f086b0f	0.5328836

bias_hh_l0 f4 [3]
0	0x3e5d2f84	0.21600157
1	0x3e71ba16	0.23606142
2	0xbf5e05a3	-0.8672735

weight f4 [1, 16]
0	0xbd327ecc	-0.043577954
1	0x3e244e21	0.16045429
2	0xbe29522f	-0.16535257
3	0xbe5151df	-0.20441388
4	0x3e65f650	0.22457242
5	0x3e25d643	0.16195016
6	0xbdf3e8b4	-0.11909619
7	0x3d50fb1d	0.05102073
8	0xbe357935	-0.17722018
9	0x3e2354d1	0.15950324
10	0xbd9c3a30	-0.07628286
11	0x3e772b52	0.24137619
12	0xbc68450f	-0.014176621
13	0x3e48b50c	0.19600314
14	0xbe1e0ccb	-0.15434568
15	0xbe234323	-0.1594358

weight f4 [680, 17]
0	0xbd5992f7	-0.053118672
1	0xbdf20e60	-0.11819148
2	0xbca904a1	-0.02063209
3	0xbe17f2f4	-0.14838773
4	0xbe0b6317	-0.13612019
5	0xbe2fbffd	-0.17163081
6	0x3d202480	0.03909731
7	0x3c8a964c	0.01691737
8	0xbe1b3f48	-0.15160859
9	0xbdf17160	-0.11789203
10	0xbda2446b	-0.07923206
11	0x3e4afc40	0.19822788
12	0xbe748182	-0.23877528
13	0x3dbbf1e0	0.09176993
14	0xbdddaceb	-0.10823997
15	0xbda43e33	-0.08019676
16	0xbb013428	-0.0019714925
17	0xbdf3d559	-0.11905927
18	0x3e20e8e7	0.15713845
19	0x3e32292a	0.17398515
20	0xbe23dacd	-0.16001435
21	0xbde0b740	-0.10972452
22	0x3e381ab9	0.17978944
23	0x3cb3ee01	0.021964075
24	0x3d7f3b40	0.062312365
25	0x3c033988	0.008009322
26	0x3e24e689	0.16103567
27	0xbe37e0d5	-0.1795686
28	0x3dd98d48	0.106226504
29	0xbe5e9b93	-0.21739034
30	0xbe6a3c06	-0.2287446
31	0xbdbe546a	-0.092934445
32	0x3e55957f	0.2085781
33	0x3e6659b8	0.22495162
34	0x3ceef830	0.02917108
35	0xbdf14044	-0.11779836
36	0x3c8c1360	0.017099082
37	0xbe0df456	-0.13862738
38	0xbcc9b91e	-0.024624404
39	0xbca13e90	-0.019683152
40	0xbc5cf1f1	-0.013485418
41	0xbc4ef75d	-0.012632218
42	0x3dccbdc8	0.099971354
43	0xbe4ebab7	-0.20188414
44	0x3e2c3e37	0.16820608
45	0xbd51ff45	-0.051268835
46	0xbe20ebe4	-0.15714985
47	0xbe564e6c	-0.20928353
48	0x3e1dc561	0.15407325
49	0xbcf4129b	-0.029794028
50	0x3d931aa6	0.07182817
51	0x3c3aa034	0.011390734
52	0xbe444b56	-0.19169363
53	0x3a16e212	0.0005755733
54	0x3cf74f95	0.030189315
55	0x3e26e5b5	0.16298564
56	0x3bb4a313	0.005512604
57	0xbd531f8e	-0.051543765
58	0x3dd8ee99	0.10592384
59	0x3e34025f	0.1757903
60	0xbd05bccf	-0.032650765
61	0x3e05e0e7	0.13074075
62	0xbe123161	-0.14276649
63	0xbd3f7469	-0.046741877
64	0x3cdaa9f9	0.026692377
65	0xbd0117d1	-0.031516854
66	0xbdd7f92f	-0.10545575
67	0x3cccc6b6	0.024997097
68	0x3def4d37	0.116846494
69	0xbbf46166	-0.0074579
70	0xbdae0556	-0.084971115
71	0xbd934d0a	-0.071924284
72	0xbd9891a1	-0.074496515
73	0xbe2f068a	-0.17092338
74	0xbe54bf07	-0.20775996
75	0x3d474734	0.04865189
76	0xbe01e78d	-0.12685986
77	0x3e5e8c5f	0.21733235
78	0x3d6cde61	0.057829265
79	0xbe0f798b	-0.14011209
80	0xbd9f5d83	-0.07781508
81	0xbd8baba2	-0.06819846
82	0x3d98e18c	0.07464895
83	0x3d277126	0.04087939
84	0xbd374fd0	-0.04475385
85	0xbd6f1c48	-0.05837658
86	0x3db119af	0.08647477
87	0xbd53b774	-0.051688626
88	0x3de241eb	0.11047729
89	0xbe28fa79	-0.16501798
90	0xbd8715cb	-0.065959536
91	0x3dcc1949	0.0996576
92	0xbe147d43	-0.14500909
93	0xbe1a60f1	-0.15076043
94	0xbccdfe6e	-0.025145736
95	0xbdc28755	-0.09498469
96	0xbe2bc7b9	-0.16775407
97	0xbde15159	-0.11001844
98	0xbdeac39e	-0.11463092
99	0xbc4e0009	-0.012573251
100	0x3dd4789b	0.10374566
101	0x3d65e0fd	0.05612277
102	0xbe200577	-0.15627085
103	0xbd18e1b0	-0.037324607
104	0xbccd9f72	-0.025100444
105	0x3c4d1014	0.01251604
106	0x3cc3f1b9	0.023918973
107	0x3dfe578b	0.12419041
108	0xbdfa0549	-0.12208039
109	0xbe249e5d	-0.16076036
110	0x3d65355a	0.055959083
111	0xbd4f06f1	-0.05054373
112	0xbe39cf6b	-0.1814553
113	0xbdc396e8	-0.095502675
114	0xbe15c605	-0.1462632
115	0x3e2f321a	0.17108956
116	0xbd1e1ea1	-0.03860343
117	0xbc4c401d	-0.012466458
118	0xbe530031	-0.20605542
119	0x3e6eb492	0.2331107
120	0x3e5b5c33	0.2142189
121	0x3e23a984	0.15982634
122	0x3e2f82da	0.1713976
123	0xbe285403	-0.16438298
124	0x3c29d91c	0.010366704
125	0xbe672431	-0.225724
126	0x3e1ff1fe	0.15619656
127	0x3dda2d24	0.10653141
128	0xbd3fdfb1	-0.046844188
129	0xbe66096f	-0.22464536
130	0xbb3ee0f1	-0.0029125775
131	0x3db47d3e	0.088129506
132	0x3d2d0813	0.04224403
133	0xbe5fae4e	-0.21843836
134	0x3d5111c0	0.05104232
135	0x3db83a07	0.08995443
136	0x3dd0e700	0.1020031
137	0xb7a02962	-1.9092757e-05
138	0x3e1c9e00	0.15294647
139	0x3d9aaa7c	0.075520486
140	0xbe2f8541	-0.17140676
141	0xbc094c20	-0.008379966
142	0x3e3e0798	0.18557584
143	0x3a2ef293	0.00066737196
144	0xbddf8ba1	-0.10915304
145	0xbcd82bb4	-0.026388027
146	0x3a1cb466	0.0005977809
147	0x3dda1142	0.10647823
148	0xbdf714d7	-0.12064522
149	0xbe45faad	-0.19333906
150	0xbc584b2c	-0.013201516
151	0xbd38827f	-0.045046326
152	0xbc875083	-0.016517883
153	0xbc761394	-0.015019316
154	0xbdff53ca	-0.12467153
155	0xbbe1f244	-0.0068953354
156	0x3babd21e	0.005243554
157	0x3defa619	0.117016025
158	0xbdd3751e	-0.10325073
159	0xbdd6ad5c	-0.104822844
160	0xbddd380e	-0.10801707
161	0xbdf08ec1	-0.11745978
162	0x3cb20234	0.021729566
163	0x3ba49e63	0.005023764
164	0x3da9a158	0.08282727
165	0x382e0bad	4.1495707e-05
166	0xbd40502e	-0.046951465
167	0x3ddf6e47	0.109097056
168	0x3e21ca3e	0.15799806
169	0xbd8b1342	-0.067907825
170	0xbe2f758d	-0.17134686
171	0xbd46ed1e	-0.048565976
172	0x3d3bce76	0.045851193
173	0x3e5fa118	0.21838796
174	0x3d7af211	0.06126601
175	0x3e60a11e	0.21936461
176	0xbd5baa51	-0.053629223
177	0x3e1e906d	0.15484782
178	0x3de5f4eb	0.11228355
179	0x3d1f0484	0.038822666
180	0xbdcac944	-0.099016696
181	0xbe7b688e	-0.24551603
182	0x3e7adfc2	0.2449942
183	0x3c2c39d7	0.010511837
184	0xbe7cfd91	-0.24706103
185	0x3e666455	0.22499211
186	0x3bf1d62c	0.0073802676
187	0x3e15761e	0.1459584
188	0xbe655f09	-0.22399534
189	0x3b903300	0.004400611
190	0xbe6d525d	-0.2317595
191	0x3e2a4329	0.16627182
192	0xbd799726	-0.060935162
193	0xbd12490b	-0.03571419
194	0xbe447336	-0.19184574
195	0xbdb24099	-0.08703727
196	0xbdeac815	-0.11463944
197	0x3dbc8511	0.09205068
198	0x3e10275f	0.14077519
199	0xbd8ef3cd	-0.06980095
200	0x3d942b45	0.072348155
201	0xbc16564e	-0.00917585
202	0xbe4d85aa	-0.2007052
203	0x3e324de2	0.17412522
204	0x3e4d9e1d	0.20079847
205	0x3e5be84e	0.21475336
206	0x3dfc4388	0.12317568
207	0xbe22a2d0	-0.1588242
208	0x3e060ce8	0.13090861
209	0xbe03ce81	-0.12871744
210	0x3de29b74	0.110648066
211	0xbde5672d	-0.1120132
212	0xbd04ca25	-0.032419343
213	0x3dce4683	0.10072043
214	0x3d2ad2aa	0.04170481
215	0x3e0b8bf8	0.13627613
216	0xbe70a2ff	-0.23499678
217	0xbe56ce72	-0.2097719
218	0xbe48fb93	-0.19627218
219	0xbddc14f6	-0.107461855
220	0xbcd99e94	-0.026564874
221	0xbd6b381c	-0.057426557
222	0x3d5fbaf5	0.054621655
223	0xbe056272	-0.13025835
224	0x3e7fe819	0.24990882
225	0xbcdb6350	-0.026780754
226	0xbda8f283	-0.082493804
227	0x3e29e8dc	0.16592735
228	0xbdcc3f9e	-0.099730715
229	0xbdc12b12	-0.09432043
230	0x3da1a34f	0.07892477
231	0xbe4822f4	-0.19544584
232	0x3e1598ea	0.14609113
233	0x3d788fb7	0.060683932
234	0xbdda403d	-0.10656784
235	0x3d772d34	0.060345843
236	0x3e64fa4f	0.2236111
237	0x3d92e243	0.07172062
238	0xbda8a333	-0.08234253
239	0x3e66b991	0.22531725
240	0x3d87a024	0.06622341
241	0x3d7cd258	0.061724037
242	0x3e71e4b1	0.23622395
243	0x3e447728	0.1918608
244	0xbe12967e	-0.1431522
245	0x3e32b98d	0.17453595
246	0x3dcfa8e7	0.101396374
247	0x3d8eda5d	0.06975243
248	0xbd742760	-0.059607863
249	0xbe1b88de	-0.1518893
250	0xbe6fedc5	-0.23430546
251	0xbe1a39d3	-0.1506112
252	0x3d63b970	0.05559677
253	0xbe4aa53a	-0.19789591
254	0xbe5ba8d2	-0.21451119
255	0x3d1c77d8	0.03820023

bias f4 [680]
0	0x3e2b62d1	0.16736914
1	0x3e4172f4	0.18891507
2	0x3e397563	0.18111186
3	0xbe14740f	-0.14497398
4	0xbd88f939	-0.066881604
5	0x3db0710e	0.086153135
6	0x3d66f029	0.05638138
7	0x3e1d19af	0.15341829
8	0xbd1050f5	-0.035233457
9	0xbdcddfb8	-0.100524366
10	0xbd379d1e	-0.044827573
11	0xbdb885be	-0.09009884
12	0x3d7fd36a	0.06245748
13	0x3c67b002	0.014141085
14	0x3b3ba69b	0.002863324
15	0x3e6eed83	0.23332791
16	0xbde8d7c2	-0.113692775
17	0xbe141942	-0.1446276
18	0x3e12aecc	0.14324492
19	0x3d10b928	0.03533283
20	0x3cfba40d	0.030717874
21	0xbe264545	-0.16237362
22	0x3e721b82	0.23643306
23	0xbe30efca	-0.17278972
24	0xbb859786	-0.004076901
25	0xbd6990a1	-0.057022694
26	0x3c8e7c4d	0.017393256
27	0xbdb50d97	-0.08840483
28	0xbe211962	-0.15732339
29	0x3de64884	0.112443
30	0xbdd96aa4	-0.10616043
31	0xbd2bf299	-0.041979406
32	0x3d770a79	0.060312722
33	0xbda739c0	-0.08165312
34	0x3d3c779f	0.046012517
35	0xbd21e372	-0.03952355
36	0xbe2e4246	-0.17017469
37	0xbc8a828f	-0.016907958
38	0xbccda8c5	-0.02510489
39	0xbd69f452	-0.057117768
40	0x3e09d2e9	0.13459362
41	0xbe377093	-0.17914037
42	0x3e379c3c	0.17930692
43	0x3e6ffe1d	0.2343678
44	0x3e4b4f03	0.1985436
45	0xbde73f68	-0.11291391
46	0xbdb29fd3	-0.0872189
47	0xbbd06c47	-0.006360564
48	0x3d950e3d	0.07278106
49	0x3e2e884c	0.1704418
50	0x3db5b132	0.08871688
51	0x3e44b88c	0.19211024
52	0x3e7014ab	0.23445384
53	0x3e2ce874	0.16885549
54	0x3dee34df	0.11631178
55	0x3e686374	0.22694188
56	0x3db248e1	0.08705307
57	0x3e0f9be7	0.14024316
58	0x3e6b5f7a	0.2298564
59	0xbdd0b259	-0.10190267
60	0x3e0df48e	0.13862821
61	0x3e71a44d	0.23597832
62	0x3e6974ba	0.22798434
63	0x3da8ece4	0.08248308
64	0xbd3c93d7	-0.04603943
65	0xbcfa681f	-0.030567227
66	0xbdc05494	-0.09391132
67	0xbe2d4430	-0.16920543
68	0x3d881faa	0.066466644
69	0xbd580ccd	-0.052746583
70	0x3e3e4207	0.18579875
71	0x3dbdcf58	0.09268063
72	0xbe1bd3a9	-0.1521746
73	0x3e27b744	0.16378504
74	0x3e3607c1	0.17776395
75	0xbe23828c	-0.15967768
76	0x3d9108a9	0.0708173
77	0xbda8ba9b	-0.08238717
78	0x3e45b9e8	0.19309199
79	0x3e60dc1e	0.21958968
80	0x3e5e0394	0.21681052
81	0xbe419806	-0.18905649
82	0x3e054406	0.1301423
83	0x3e14edb1	0.14543797
84	0x3cfb49cd	0.03067484
85	0x3c9775ce	0.01848879
86	0x3cef1702	0.029185776
87	0x3e299d15	0.16563828
88	0xbcc777c6	-0.024349105
89	0x3e1a74b4	0.15083581
90	0x3e511628	0.20418608
91	0x3dd67dc4	0.10473207
92	0xbdc95811	-0.098312505
93	0x3e178663	0.14797358
94	0xbe332587	-0.17494784
95	0xbe3e9eb9	-0.18615235
96	0x3e03b288	0.12861073
97	0xbd0ae93f	-0.033913847
98	0xbe28140f	-0.16413902
99	0xbe3a54a1	-0.18196346
100	0xbd123d9f	-0.035703298
101	0xbe0818fb	-0.1329078
102	0xbe600989	-0.21878637
103	0xbddef768	-0.10887033
104	0x3d870af2	0.065938845
105	0x3e69fd90	0.22850633
106	0xbda5f669	-0.0810364
107	0x3d69c217	0.057069864
108	0x3e0a8730	0.13528132
109	0x3e54ea45	0.20792492
110	0xbdce9b71	-0.10088242
111	0xbe1aeac3	-0.15128617
112	0xbdd61e48	-0.104549944
113	0xbe0ebd54	-0.1393941
114	0xbdaaed5f	-0.08346056
115	0x3e459acc	0.19297332
116	0x3dd4fd10	0.1039983
117	0xbdb3bdd4	-0.08776441
118	0x3e44dc6a	0.19224706
119	0xbd7a6f40	-0.061141253
120	0x3dd3cfdc	0.103423804
121	0xbda6da0b	-0.08147057
122	0x3c993d09	0.018705862
123	0xbd9a0318	-0.07520121
124	0x3d455de9	0.048185263
125	0x3de29b60	0.11064792
126	0xbb25681d	-0.0025239058
127	0xbdf6fa57	-0.12059467
128	0xbe59c349	-0.21265902
129	0xbdd9525c	-0.10611412
130	0x3c7f27d1	0.015573458
131	0xbe3a798e	-0.18210432
132	0x3e650803	0.22366337
133	0xbe1b161b	-0.15145151
134	0xbdb93a69	-0.09044344
135	0xbda18731	-0.07887114
136	0x3e2d7de0	0.16942549
137	0x3dcef8fe	0.10106085
138	0xbde33c98	-0.11095542
139	0x3e2c12eb	0.16804092
140	0x3def69a5	0.11690072
141	0x3e33a1a3	0.17542128
142	0xbe180b5e	-0.14848086
143	0x3e280ca7	0.16411076
144	0x3e4f054c	0.20216864
145	0x3e787145	0.24261959
146	0xbcad5ae2	-0.0211615
147	0x3e4821b4	0.19544107
148	0x3e3daa18	0.18521917
149	0x3e4b2c07	0.19841014
150	0x3e5e5d9d	0.21715398
151	0xbda0a570	-0.07844055
152	0xbdbe0199	-0.092776485
153	0xbe02efb9	-0.1278676
154	0x3d6e1b5f	0.05813157
155	0xbdba1b38	-0.09087223
156	0xbe319324	-0.17341286
157	0x3d0d18be	0.034447424
158	0x3d9a04ba	0.07520433
159	0x3e5eb5a0	0.21748972
160	0x3d939889	0.07206828
161	0xbe056f55	-0.13030751
162	0x3e090eec	0.13384598
163	0x3e1b7b1f	0.15183686
164	0x3da52951	0.08064521
165	0xbd9e3065	-0.07724074
166	0xbcd6f5ea	-0.026240308
167	0xbdb351b5	-0.08755819
168	0xbe021b5b	-0.12705748
169	0x3d2c131c	0.04201041
170	0xbd985074	-0.0743722
171	0xbbbdeec2	-0.0057962844
172	0x3df1583d	0.11784408
173	0x3e15df79	0.1463603
174	0x3b20f197	0.0024558061
175	0x3e0591d5	0.13043912
176	0xbdb5e812	-0.088821545
177	0xbe05e091	-0.13073947
178	0x3d9f2e7c	0.07772538
179	0xbe22a08c	-0.15881556
180	0x3da3aa2b	0.07991441
181	0x3e70672d	0.23476858
182	0x3e3627f3	0.17788677
183	0x3e246449	0.16053881
184	0x3dba0658	0.09083241
185	0x3e6f9db5	0.23400004
186	0xbe1dd862	-0.15414575
187	0x3e66f2c5	0.22553547
188	0x3e00788b	0.12545983
189	0x3e480675	0.19533713
190	0xbdad1627	-0.08451491
191	0x3e04ebab	0.12980525
192	0xbd79598f	-0.060876425
193	0x3d2433fb	0.040088635
194	0xbc227890	-0.00991644
195	0x3d7c2968	0.061562926
196	0xbcb0aea3	-0.021567648
197	0xbdc22d8d	-0.09481344
198	0xbe104674	-0.14089376
199	0x3db07d7b	0.086176835
200	0x3c9d8b83	0.019231563
201	0x3e0dc842	0.13845924
202	0x3db151c7	0.08658176
203	0x3e70cff6	0.23516831
204	0x3dd5d561	0.104410894
205	0x3e0e6c6c	0.13908547
206	0x3e541faa	0.20715204
207	0xbe18a2bf	-0.14905833
208	0xbdc14f6a	-0.09438975
209	0xbe09cc27	-0.13456784
210	0x3dbc52f1	0.09195507
211	0xbd8e63cf	-0.06952631
212	0x3da54e46	0.0807157
213	0x3d4fc3c8	0.05072382
214	0x3da159c6	0.07878451
215	0xbc71e19f	-0.014763265
216	0x3d85faea	0.06541999
217	0xbda0e07d	-0.07855318
218	0x3c42326a	0.01185284
219	0xbdaedbb2	-0.08537997
220	0x3e4d4976	0.20047554
221	0x3dcdf2dd	0.10056088
222	0xbc34bb11	-0.011030928
223	0x3d073827	0.033012535
224	0x3d8282c3	0.06372597
225	0xbe4a4252	-0.19751862
226	0x3dbebff1	0.09313954
227	0x3e266d0b	0.16252534
228	0xbda109bd	-0.078631856
229	0xbe29d56f	-0.16585325
230	0xbe290ef1	-0.16509606
231	0xbcd3562b	-0.025797924
232	0x3dec258b	0.11530598
233	0x3d00c6d5	0.03143962
234	0x3e25fa76	0.16208825
235	0x3e08bcec	0.13353318
236	0x3d8c7814	0.068588406
237	0x3d9b63d6	0.075874016
238	0xbe076cf9	-0.13225164
239	0xbe4b1230	-0.19831157
240	0x3e72e09b	0.23718493
241	0xbe0f4d0d	-0.13994236
242	0x3c7bdac6	0.015371984
243	0xbd7db94d	-0.061944295
244	0xbe3da9d5	-0.18521817
245	0xbe044363	-0.12916331
246	0x3e71ee91	0.23626162
247	0x3e423866	0.18966827
248	0x3d7ecad3	0.062205147
249	0x3e09c02c	0.13452214
250	0xbe05c1c3	-0.13062195
251	0x3e633fd2	0.22192314
252	0xbe4cebbc	-0.200118
253	0xbdc49588	-0.09598833
254	0xbc4d7c0e	-0.012541784
255	0x3d06a713	0.03287418
