estimators/knet/single_obs/velMSE_ep100_train4000_val1000_test10000_lr1e-03_wd1e-04_ri[4, 4, 1, 1]_data_sr1e-01_q1e-04_r1e+00_j5_train[200,250]_val[40,250]_test[40,250].pt (torch, 157404 bytes, 40 tensors)

weight_ih_l0 f4 [48, 20]
0.0557187 0.17964521 0.012418636 0.16569854 0.12269531 -0.23832785 -0.010683185 -0.2089659
-0.19028792 -0.20314379 -0.22657119 0.11221927 -0.23761593 0.19252479 0.049509253 0.22819889
0.23622957 -0.18467954 -0.16120136 0.015875598 -0.049823817 -0.1423242 0.16689323 0.016134992
0.18103226 -0.012299115 0.18354964 0.11758572 0.007893987 -0.24421607 -0.22640987 0.2101943
0.10849196 -0.053495824 0.0028782568 -0.010854438 -0.14485481 -0.03790983 -0.19225672 -0.1846811
0.033332918 0.08885896 0.13753037 -0.05477715 -0.011004147 0.13104917 -0.21837911 0.1342929
0.12545404 -0.01854751 -0.19133526 -0.10173157 0.0074236738 0.2644969 -0.10185759 0.11211851
0.075951874 -0.13145217 -0.24440126 0.16924971 -0.18115751 -0.11514 -0.016147299 0.1320121
-0.09016213 0.10191774 -0.049691815 -0.11860767 0.19779688 0.15698124 0.14825936 -0.16035336
-0.076646954 0.19866619 -0.12981682 -0.15359141 -0.042657543 0.040543493 -0.19133079 0.06895016
-0.123412535 0.04075974 0.20830134 0.1845178 -0.08387958 0.115684696 -0.103639156 -0.18993326
0.27839044 -0.019974913 -0.22382146 0.18279122 -0.16588265 -0.06645813 0.20427565 -0.17597184
0.10013088 0.031840604 0.1520353 0.15321682 -0.110079765 0.11499158 0.0211319 -0.03429067
-0.078949034 0.150011 -0.016746065 0.0865471 -0.106806576 0.09149276 -0.116378866 0.004343409
-0.16336527 -0.18192708 0.06942131 0.15892042 0.21307425 0.21412298 0.21191888 0.034778453
0.087905034 -0.1968579 -0.22703184 -0.18249807 -0.0010043037 0.085931756 0.11330508 0.05714046
0.048891302 -0.07363927 0.02639777 -0.1696817 -0.15574922 -0.21604027 -0.08895203 -0.18231165
-0.16260245 -0.055089086 0.057182845 0.035283986 0.04735154 -0.00032431984 0.12300763 -0.23434621
0.17632484 0.09207104 -0.014986285 0.15661311 -0.22959141 -0.2528883 -0.14034519 0.20705473
-0.123825975 -0.041939307 -0.012029554 -0.046168655 0.083628744 0.02917139 -0.25379488 0.008489821
0.14339814 -0.16223396 -0.16852903 0.19990312 -0.05157029 -0.02782891 0.23288381 0.19776152
-0.01029537 -0.07454446 0.19273272 -0.18346196 0.23631065 -0.147498 0.19112019 -0.0484232
-0.19058177 -0.20791538 -0.13707915 0.15849875 0.03571114 0.14389412 -0.18855456 -0.010941596
0.01036945 -0.043874577 0.0031046586 0.110934675 0.009720468 0.010665214 0.15633558 0.035783723
-0.066549465 0.17332202 -0.06667791 0.23955125 0.15220845 0.03273267 -0.18127087 -0.15546806
0.2043978 0.14583844 -0.120165214 0.12623112 0.15894523 0.14894947 0.0055296198 0.15012568
0.0064525004 -0.23811805 0.066907264 0.021920823 -0.2141284 0.124973655 0.08884168 0.22645053
-0.22585706 -0.044220995 -0.11290219 -0.1335797 -0.2179094 0.077909485 -0.06736858 -0.20318264
0.14156857 0.12517628 0.022821985 0.02186575 -0.14316382 -0.13072431 -0.050679058 0.11666117
0.11746936 -0.23409213 -0.016495738 -0.030887404 0.17397021 0.14665936 -0.16457139 0.09112363
0.07323268 -0.1359754 0.06914334 0.20830098 0.023508137 -0.19225821 0.08813382 0.23833272
-0.21727735 -0.076631285 -0.08135412 0.20216379 0.004091039 0.12480513 0.115659915 0.10973863
00000000: 4b39 643d eaf4 373e 8977 4b3c e1ac 293e
00000010: ae47 fb3d 370c 74be 8708 2fbc 28fb 55be
00000020: d6da 42be ed04 50be 4702 68be 37d3 e53d
00000030: 9751 73be 3825 453e 37ca 4a3d f8ac 693e
00000040: 2ae6 713e a21c 3dbe f811 25be 8b0d 823c
00000050: 0f14 4cbd 6fbd 11be 0fe6 2a3e 882d 843c
00000060: 8560 393e 3a82 49bc 70f4 3b3e c8d0 f03d
00000070: c855 013c c713 7abe fdd7 67be 2d3d 573e
00000080: 0831 de3d 701e 5bbd 23a1 3c3b d0d6 31bc
00000090: d254 14be 5747 1bbd f2de 44be 0b1d 3dbe
000000a0: 1988 083d b0fb b53d c3d4 0c3e 015e 60bd
000000b0: bd4a 34bc c131 063e c69e 5fbe 1484 093e
000000c0: 0677 003e f3f0 97bc 64ed 43be a458 d0bd
000000d0: 4a42 f33b 236c 873e b69a d0bd 649e e53d
000000e0: a88c 9b3d 669b 06be 5344 7abe cc4f 2d3e
000000f0: 5b81 39be 85ce ebbd 5747 84bc 2e2e 073e
00000100: eca6 b8bd 40ba d03d a589 4bbd 94e8 f2bd
00000110: 448b 4a3e b1bf 203e 4dd1 173e ac33 24be
00000120: 14f9 9cbd 266f 4b3e b3ee 04be 1147 1dbe
00000130: adb9 2ebd ef10 263d 38ec 43be be35 8d3d
00000140: b6bf fcbd aff3 263d f24c 553e 3cf2 3c3e
00000150: 0fc9 abbd 19ec ec3d c440 d4bd dd7d 42be
00000160: 3189 8e3e 6ea2 a3bc 7431 65be 9f2d 3b3e
00000170: 24dd 29be 331b 88bd a32d 513e f631 34be
00000180: 6b11 cd3d 4b6b 023d 24af 1b3e dfe4 1c3e
00000190: 8071 e1bd b580 eb3d ce1c ad3c 6074 0cbd
000001a0: 08b0 a1bd 7c9c 193e 0b2f 89bc 9b3f b13d
000001b0: 68bd dabd 8e60 bb3d 0b58 eebd 2853 8e3b
000001c0: 3a49 27be 184b 3abe c32c 8e3d 09bc 223e
000001d0: 2330 5a3e 0e43 5b3e 4301 593e da73 0e3d
000001e0: 8e07 b43d 1e95 49be 097b 68be c6e0 3abe
000001f0: d7a2 83ba fdfc af3d 7e0c e83d 1d0c 6a3d
00000200: 3f42 483d 30d0 96bd 2340 d83c 0ac1 2dbe
00000210: b97c 1fbe a939 5dbe 7b2c b6bd e8af 3abe
00000220: 4281 26be 18a5 61bd 8f38 6a3d f185 103d
00000230: b0f3 413d 7909 aab9 6deb fb3d 74f8 6fbe
00000240: 808e 343e be8f bc3d 0989 75bc 305f 203e
00000250: 031a 6bbe 937a 81be a6b6 0fbe 2806 543e
00000260: 7998 fdbd 8dc8 2bbd 9b17 45bc 581b 3dbd
00000270: 8c45 ab3d d7f8 ee3c 67f1 81be e418 0b3c
00000280: f6d6 123e a920 26be e092 2cbe 67b3 4c3e
00000290: 5e3b 53bd 74f9 e3bc 1879 6e3e ff81 4a3e
000002a0: e9ad 28bc c4aa 98bd ba5b 453e 74dd 3bbe
000002b0: 6bfb 713e b709 17be 03b5 433e 6857 46bd
000002c0: de27 43be c5e7 54be 7a5e 0cbe 7f4d 223e
000002d0: d845 123d fb58 133e 7214 41be 6144 33bc
000002e0: a0e4 293c d4b5 33bd 8777 4b3b b831 e33d
000002f0: 9942 1f3c 26bd 2e3c 6f16 203e f491 123d
00000300: 164b 88bd 547b 313e 6e8e 88bd ec4c 753e
00000310: 88dc 1b3e b112 063d 129f 39be 0533 1fbe
00000320: a84d 513e ac56 153e 2e19 f6bd bb42 013e
00000330: 8ac2 223e 3686 183e d031 b53b 8cba 193e
00000340: 7f6f d33b 38d5 73be ad06 893d 4c93 b33c
00000350: 7a44 5bbe 30f2 ff3d a0f2 b53d a6e2 673e
00000360: 1347 67be 1321 35bd 4339 e7bd 1ec9 08be
00000370: a423 5fbe 028f 9f3d 8af8 89bd 1c0f 50be
00000380: 5af7 103e 362e 003e 2cf5 ba3c cd1f b33c
00000390: 8999 12be 98dc 05be d894 4fbd 0dec ee3d
000003a0: c793 f03d d9b5 6fbe 1222 87bc 9507 fdbc
000003b0: 3f25 323e df2d 163e 6785 28be 079f ba3d
000003c0: 04fb 953d 233d 0bbe 069b 8d3d da4c 553e
000003d0: 2394 c03c 56df 44be 817f b43d 7e0d 743e
000003e0: f47d 5ebe ddf0 9cbd fd9c a6bd 0604 4f3e
000003f0: 1f0e 863b d599 ff3d 1bdf ec3d a6be e03d

weight_hh_l0 f4 [48, 16]
0.14612679 0.20821428 -0.14511713 -0.07603082 0.21218385 0.16894501 -0.19509034 0.23091534
-0.12450128 -0.10569698 0.23096488 0.062849045 -0.019778829 -0.14049548 0.006889608 -0.03946107
-0.07786045 -0.12608719 -0.09782659 -0.030157141 -0.03519313 -0.16742459 0.20456716 -0.24369302
0.10033635 -0.19057447 -0.13953857 0.23187353 0.108503476 0.112926684 -0.24690399 -0.19002788
0.11723649 0.09548444 0.1213062 -0.119443655 0.2448727 0.06856713 0.18365052 -0.17306241
0.124241404 0.21887818 -0.0004804783 0.23649275 -0.20157567 -0.21883382 -0.009527647 0.13765796
-0.011892083 -0.031264998 0.22543742 -0.1563398 -0.044264346 0.047502916 0.02781487 -0.11964745
-0.028429294 -0.15087222 0.1513247 -0.07825871 -0.21990526 0.13927533 -0.098788105 -0.19150892
-0.2147339 0.1342025 0.017684415 -0.10064933 -0.19646938 0.06634301 0.1650709 -0.07145625
0.19171055 -0.20022643 0.15953417 0.120133184 0.11057589 -0.14615239 0.09419603 -0.108285144
0.17516775 -0.21254492 0.039570432 0.1196142 -0.14054504 0.08253412 0.00015345498 0.01680728
0.051705148 -0.024319509 0.011369717 0.118878365 -0.19893107 0.20655718 0.11971164 -0.0040801326
0.08134291 -0.08510252 -0.015903754 0.19638069 0.0898571 0.22345829 0.001995956 -0.062074877
-0.2219395 -0.1442464 0.14539188 -0.13431981 -0.21250568 -0.05261895 -0.16303217 -0.14338613
0.15264237 -0.15786356 -0.05342336 -0.17692766 0.0073054205 0.14639005 0.21699041 -0.09974772
-0.16823073 0.25456575 -0.006279437 0.24421541 -0.21219434 -0.13563079 0.20254876 0.13375877
0.11221045 -0.17433624 -0.122621745 -0.03249649 0.2313469 -0.042679414 -0.17237253 0.15032806
-0.12291154 -0.088219285 -0.009634226 0.17478374 -0.17394234 -0.1251191 0.19595413 -0.20219396
0.1143434 0.24101065 0.086521946 0.19398744 0.0065741707 -0.08070148 -0.07582599 -0.15908462
-0.23170114 0.14461233 0.12673685 0.107216686 0.22384986 0.091628045 0.18233019 -0.016941404
0.025381934 -0.0559146 0.1045557 -0.22552556 0.19485995 0.23580459 0.24125735 0.02308664
0.058027107 -0.14865902 -0.12669763 -0.1921876 0.16699076 -0.15773647 -0.20853698 0.12266004
-0.024415797 -0.23850235 -0.011088919 -0.23520806 0.210121 0.22945 0.031176107 0.14802276
0.15300527 -0.096926555 0.10414342 -0.15243043 0.17350873 0.008777565 0.24917397 -0.057084378
-0.20213108 -0.19384228 -0.019230125 0.22789726 -0.029093888 0.08026398 -0.008577366 -0.19944735
-0.14002877 0.14126529 0.19545443 -0.07739191 -0.030769108 -0.024064546 0.17336272 0.1569532
-0.2316843 -0.18980287 -0.18209176 -0.05986378 0.20106068 -0.2477346 -0.19769561 0.120964795
-0.046429556 0.22206402 -0.120617546 -0.18135971 0.036231752 -0.09606561 -0.23483825 0.15407147
-0.24176295 -0.06792205 0.061860245 0.23314857 -0.1042597 0.19774446 0.022798961 0.059610497
0.021532495 0.098850034 0.08579026 -0.0102499155 -0.031049222 -0.06003987 0.23249617 0.032850575
-0.136636 0.1584144 -0.03988439 -0.093382664 -0.24960674 0.057928044 -0.108010046 -0.2030713
0.015291066 0.08915895 0.05836506 0.07251581 -0.06582277 -0.17438337 0.025723927 -0.012216999
00000000: 43a2 153e 2036 553e 9699 14be 0cb6 9bbd
00000010: b946 593e ecff 2c3e c3c5 47be 1275 6c3e
00000020: 87fa febd a977 d8bd 0f82 6c3e 00b7 803d
00000030: 3607 a2bc 0cde 0fbe 39c2 e13b eea1 21bd
00000040: 4d75 9fbd 001d 01be 4f59 c8bd 1c0c f7bc
00000050: ac26 10bd 5a71 2bbe 0e7a 513e aa8a 79be
00000060: 257d cd3d f425 43be 33e3 0ebe 4170 6d3e
00000070: 1237 de3d 1b46 e73d 66d4 7cbe ab96 42be
00000080: af19 f03d 598d c33d 636f f83d e09e f4bd
00000090: e9bf 7a3e ec6c 8c3d e20e 3c3e 4637 31be
000000a0: 4772 fe3d 9a21 603e b5e8 fbb9 282b 723e
000000b0: da69 4ebe f915 60be d919 1cbc 35f6 0c3e
000000c0: 03d7 42bc ba0f 00bd 11d9 663e 8a17 20be
000000d0: 884e 35bd 6b92 423d 03dc e33c b909 f5bd
000000e0: 8de4 e8bc 3f7e 1abe ddf4 1a3e 1a46 a0bd
000000f0: d82e 61be 319e 0e3e 6b51 cabd ea1a 44be
00000100: 34e3 5bbe 616c 093e e8de 903c 3c21 cebd
00000110: 452f 49be d8de 873d 5908 293e a857 92bd
00000120: c54f 443e 2808 4dbe ed5c 233e 6308 f63d
00000130: 9d75 e23d f9a8 15be d9e9 c03d 9ac4 ddbd
00000140: 2d5f 333e 60a5 59be 9b14 223d 4af8 f43d
00000150: 0aeb 0fbe a607 a93d c2e8 2039 6caf 893c
00000160: c7c8 533d b539 c7bc 0d48 3a3c 8076 f33d
00000170: 96b4 4bbe ba83 533e 602b f53d a2b2 85bb
00000180: 1d97 a63d 3b4a aebd 9748 82bc 0518 493e
00000190: 0007 b83d 40d2 643e 96ce 023b 3a42 7ebd
000001a0: 1c44 63be 54b5 13be 9ce1 143e 228b 09be
000001b0: 179b 59be f886 57bd e8f1 26be d0d3 12be
000001c0: 484e 1c3e fca6 21be 74d2 5abd 862c 35be
000001d0: 4f62 ef3b 46e7 153e bc32 5e3e 8848 ccbd
000001e0: ad44 2cbe 7156 823e bcc3 cdbb 9b13 7a3e
000001f0: 7949 59be cce2 0abe f168 4f3e 0ff8 083e
00000200: 98ce e53d 3385 32be 1c21 fbbd 0a1b 05bd
00000210: 34e6 6c3e 9cd0 2ebd 6d82 30be 99ef 193e
00000220: 0cb9 fbbd 50ac b4bd dfd8 1dbc 82fa 323e
00000230: f11d 32be 391f 00be 33a8 483e ef0b 4fbe
00000240: df2c ea3d 7fcb 763e 6b32 b13d a5a4 463e
00000250: 246c d73b d146 a5bd a84a 9bbd 14e7 22be
00000260: 1043 6dbe 4115 143e 4ec7 013e 6c94 db3d
00000270: e638 653e 7ca7 bb3d c4b4 3a3e b3c8 8abc
00000280: c6ed cf3c b506 65bd 4d21 d63d 2cf0 66be
00000290: 5e89 473e c276 713e 2b0c 773e 3120 bd3c
000002a0: d5ad 6d3d 123a 18be 06bd 01be d4cc 44be
000002b0: a0ff 2a3e ab85 21be b88a 55be 3035 fb3d
000002c0: a303 c8bc f639 74be 4cae 35bc 62da 70be
000002d0: f629 573e f1f4 6a3e 0965 ff3c 4793 173e
000002e0: 6aad 1c3e 6e81 c6bd 2549 d53d b916 1cbe
000002f0: 46ac 313e c7cf 0f3c 7627 7f3e 4fd1 69bd
00000300: 73fb 4ebe 977e 46be 7f88 9dbc e65d 693e
00000310: 4e56 eebc 7161 a43d 1588 0cbc ed3b 4cbe
00000320: b463 0fbe d9a7 103e 3525 483e a67f 9ebd
00000330: 7f0f fcbc 0323 c5bc ff85 313e 57b8 203e
00000340: a63e 6dbe af5b 42be 4376 3abe b933 75bd
00000350: dae2 4d3e 24ae 7dbe b870 4abe 64bc f73d
00000360: eb2c 3ebd c064 633e 5506 f7bd 5cb6 39be
00000370: bf67 143d 0cbe c4bd 7079 70be e9c4 1d3e
00000380: b590 77be b71a 8bbd 2b61 7d3d 80be 6e3e
00000390: 1c86 d5bd 867d 4a3e e3c4 ba3c 232a 743d
000003a0: ea64 b03c e371 ca3d ceb2 af3d 43ef 27bc
000003b0: f05a febc 5eec 75bd 7a13 6e3e 538e 063d
000003c0: 4fea 0bbe 6237 223e d05d 23bd 693f bfbd
000003d0: e998 7fbe f545 6d3d 5f34 ddbd ecf1 4fbe
000003e0: 6187 7a3c f898 b63d 3310 6f3d 2b83 943d
000003f0: 17ce 86bd 8e91 32be fcba d23c cf29 48bc

bias_ih_l0 f4 [48]
0.09979089 0.22237727 0.07065034 -0.017587846 -0.025702583 -0.094121665 -0.025511542 -0.22612111
0.063079216 -0.17437334 -0.15918867 -0.057671703 0.15709607 0.17657723 0.074318305 -0.21495722
-0.18514429 -0.17562015 -0.2524511 0.22873555 -0.21065828 0.06995737 -0.15991084 0.026790956
-0.21087386 0.026978994 0.22716969 -0.1451526 -0.04101887 -0.103039235 -0.124572165 -0.16861655
-0.20322971 -0.023946105 -0.1177569 -0.19753456 -0.10134089 0.16384938 -0.1430115 0.0015788674
-0.05096977 -0.19675751 0.10869038 0.23871103 0.07328516 -0.098255746 0.21711668 -0.16245998
00000000: 2b5f cc3d deb6 633e 20b1 903d 6314 90bc
00000010: 398e d2bc dcc2 c0bd 95fd d0bc 4b8c 67be
00000020: ad2f 813d ed8e 32be 5b02 23be 2a39 6cbd
00000030: cbdd 203e a9d0 343e 3234 983d bf1d 5cbe
00000040: 7796 3dbe c5d5 33be 4541 81be a739 6a3e
00000050: ceb6 57be cf45 8f3d abbf 23be b578 db3c
00000060: 51ef 57be 0d03 dd3c 2c9f 683e e2a2 14be
00000070: 6703 28bd 3c06 d3bd b11f ffbd d1a9 2cbe
00000080: 731b 50be 9f2a c4bc 882a f1bd 8046 4abe
00000090: d08b cfbd 22c8 273e 9b71 12be 00f2 ce3a
000000a0: adc5 50bd cd7a 49be 1099 de3d aa70 743e
000000b0: 8816 963d 4f3a c9bd d653 5e3e e95b 26be

bias_hh_l0 f4 [48]
0.23656562 0.023924628 -0.02969945 -0.048061676 -0.1742842 -0.18872209 0.20395069 -0.17893976
0.106352784 0.072553545 -0.09704392 -0.010944126 0.091023 0.18217939 0.085302055 0.0021204164
0.22075492 0.15454017 0.03683575 0.18652125 -0.2330459 -0.1229194 0.12769721 0.07384093
-0.20930047 -0.0042832075 -0.24321121 0.188798 -0.098397836 -0.022740683 -0.1548287 0.10157651
0.13126682 -0.07468334 0.2100769 0.2078411 0.22013728 0.030892575 0.064054266 -0.20633315
-0.25307426 0.084354565 -0.19508165 -0.15384825 -0.11296573 -0.034828223 -0.14104567 0.22563994
00000000: 423e 723e 95fd c33c 434c f3bc 52dc 44bd
00000010: 8f77 32be 5d40 41be 73d8 503e fc3b 37be
00000020: 7dcf d93d f496 943d f6be c6bd fe4e 33bc
00000030: 446a ba3d 3c8d 3a3e d8b2 ae3d aff6 0a3b
00000040: 940d 623e c73f 1e3e 15e1 163d 6dff 3e3e
00000050: 96a3 6ebe 2bbd fbbd 0fc3 023e ea39 973d
00000060: dd52 56be 265a 8cbb 5c0c 79be 4354 413e
00000070: ce84 c9bd ab4a babc 6a8b 1ebe 5807 d03d
00000080: cf6a 063e 94f3 98bd 661e 573e 4cd4 543e
00000090: ab6b 613e 6d12 fd3c e22e 833d ff48 53be
000000a0: f392 81be 16c2 ac3d 7cc3 47be 658a 1dbe
000000b0: 945a e7bd 0aa8 0ebd 476e 10be 280e 673e

weight_ih_l0 f4 [48, 36]
0.063204914 -0.22972432 0.19176339 0.17829932 0.10623688 -0.20916456 0.028777635 0.22872528
-0.14467137 0.05566851 -0.18257879 -0.23264565 0.014197202 0.2189568 -0.01039427 0.19555739
-0.045239974 -0.18376313 0.124153316 -0.090198696 0.0030048399 -0.108177274 -0.25179327 0.084048696
-0.11602718 -0.15695268 -0.061570022 -0.22391184 -0.24697906 -0.23238327 0.07219628 0.08695938
0.13850422 0.22364816 0.10873468 -0.038696773 0.055920344 -0.08272923 0.24115185 0.10612304
0.100676715 -0.21834391 0.052152865 -0.21988332 -0.1620201 0.08623951 0.052331444 -0.2398945
0.07075298 0.042441733 0.23037271 -0.031353213 -0.09817475 0.07659293 0.105200075 0.011472501
-0.18648931 0.20707871 -0.16688402 0.20998621 -0.0009362524 0.26161277 0.121241614 0.011191044
0.044954695 0.08243876 -0.22393106 0.19836676 0.16000058 0.24649645 0.102570154 -0.0919121
0.21260378 -0.11791231 0.22825922 0.029765293 -0.09710939 -0.10316008 -0.106527135 -0.14859359
-0.13526866 -0.11257059 -0.08072285 0.05111611 -0.06625562 -0.040101636 0.051622365 0.18799584
0.15343349 -0.034597583 0.030468637 -0.09042741 -0.117710255 0.16479555 -0.1015094 0.085777596
0.05586703 -0.08790983 -0.12534104 -0.016128132 -0.11929639 -0.072901905 -0.079159185 0.006798683
-0.18340202 0.11949071 -0.230916 -0.22125582 0.21942861 0.2021509 0.07055415 -0.2007686
-0.035042565 0.2270738 -0.14789027 0.15885103 -0.13170293 -0.20557103 -0.21448317 0.1425173
-0.03477378 -0.1847477 -0.033161428 -0.24399844 -0.026174653 -0.015467545 0.1353171 -0.22112705
-0.23238435 -0.18390892 0.045367118 -0.09301123 0.033575546 -0.15542342 0.20324819 0.08799679
0.09953059 -0.1893612 0.048713718 -0.07369456 0.25235024 0.06535307 -0.18845528 -0.17856802
0.11199539 -0.16092905 0.11813246 -0.21815349 0.00043803843 -0.24209026 -0.24065651 0.04378164
0.0541534 0.23918748 0.20345733 -0.09587529 0.055816974 0.19554228 -0.040899243 0.0050377995
0.19514647 0.024584742 0.09773932 -0.061703403 0.0014718889 -0.19034036 -0.08195813 -0.0745826
-0.21320605 -0.19222459 0.12474418 0.22312672 -0.10642047 0.19195646 -0.13895014 0.2476253
-0.15388621 -0.17378564 -0.023511143 0.03623548 -0.12541422 0.24165232 0.16530576 -0.08332581
-0.20860784 -0.03764065 0.046998177 0.060398884 0.08554397 0.12809278 -0.23663236 -0.1136061
-0.10516585 -0.04616407 -0.2327979 -0.09304852 -0.12006356 0.18957742 -0.12769791 -0.25156775
-0.20241071 0.11937883 -0.2232971 0.15535249 -0.13886745 -0.01998602 0.09951424 -0.013258106
0.19445896 -0.1536776 0.17471328 0.056544017 -0.025721258 0.107337035 -0.083681494 0.14540544
-0.21724574 0.22627236 0.006962049 0.12098382 -0.21506788 -0.216383 0.08923595 0.117207915
-0.21486534 -0.23131326 0.053919803 0.083508246 0.0014366306 0.09944416 0.027962824 0.019626632
-0.2500805 -0.17444426 0.1663025 -0.2030559 -0.19484755 -0.11160143 0.19992766 -0.04238998
-0.06609115 -0.021625416 -0.11008327 0.21657044 -0.15099207 -0.110537596 0.19343783 -0.17268324
-0.052748647 -0.06600528 -0.08118126 0.12422275 -0.16652147 -0.053971536 -0.005909986 -0.00018326585
00000000: 9471 813d da3c 6bbe 9f5d 443e 1994 363e
00000010: b992 d93d 3c2f 56be 13bf eb3c f636 6a3e
00000020: bb24 14be aa04 643d eff5 3abe a93a 6ebe
00000030: 629b 683c 3636 603e ba4c 2abc 3240 483e
00000040: 8d4d 39bd 672c 3cbe 1844 fe3d 18ba b8bd
00000050: d9ec 443b 0c8c ddbd 0ceb 80be b921 ac3d
00000060: a89f edbd 34b8 20be d930 7cbd 2549 65be
00000070: 14e8 7cbe e1f5 6dbe a5db 933d c217 b23d
00000080: 0dd4 0d3e 0604 653e 4ab0 de3d 8280 1ebd
00000090: bb0c 653d f16d a9bd 83f0 763e 0957 d93d
000000a0: 982f ce3d 8c95 5fbe 3e9e 553d 1829 61be
000000b0: 99e8 25be 579e b03d 7f59 563d e7a6 75be
000000c0: f0e6 903d 62d7 2d3d d3e6 6b3e 3a6c 00bd
000000d0: d80f c9bd c1dc 9c3d 2373 d73d 28f7 3b3c
000000e0: 0ef7 3ebe 710c 543e a5e3 2abe a006 573e
000000f0: d66e 75ba 1cf2 853e 864d f83d a45a 373c
00000100: 6a22 383d a7d5 a83d 2f4e 65be a820 4b3e
00000110: 31d7 233e 9169 7c3e 4d10 d23d 693c bcbd
00000120: ceb4 593e 027c f1bd c9bc 693e 58d6 f33c
00000130: 4ae1 c6bd 9845 d3bd e62a dabd eb28 18be
00000140: de83 0abe 698b e6bd 0652 a5bd 205f 513d
00000150: 07b1 87bd 9d41 24bd f971 533d fb81 403e
00000160: ab1d 1d3e 32b6 0dbd 5d99 f93c 0232 b9bd
00000170: 1312 f1bd 2ac0 283e 29e4 cfbd 2aac af3d
00000180: d4d4 643d 120a b4bd 6759 00be 251f 84bc
00000190: aa51 f4bd 984d 95bd 361e a2bd 7dc7 de3b
000001a0: bdcd 3bbe 8cb7 f43d 3e75 6cbe e390 62be
000001b0: e5b1 603e a500 4f3e b27e 903d 4996 4dbe
000001c0: cb88 0fbd 0986 683e 8c70 17be d8a9 223e
000001d0: 22dd 06be 3681 52be 7aa1 5bbe 0ef0 113e
000001e0: f36e 0ebd 802e 3dbe 47d4 07bd bada 79be
000001f0: 3a6c d6bc 966b 7dbc 9190 0a3e 216f 62be
00000200: 2af6 6dbe 9f52 3cbe dfd2 393d ac7c bebd
00000210: 8386 093d 5127 1fbe 4b20 503e a937 b43d
00000220: b2d6 cb3d e7e7 41be 0988 473d 2ced 96bd
00000230: 0d34 813e d5d7 853d 6cfa 40be 89da 36be
00000240: d75d e53d 96ca 24be 6eef f13d a163 5fbe
00000250: 86a8 e539 82e6 77be a96e 76be 6054 333d
00000260: f5cf 5d3d 90ed 743e 1e57 503e 445a c4bd
00000270: 57a0 643d 3c3c 483e f785 27bd 2014 a53b
00000280: 7ad4 473e f165 c93c 8d2b c83d b5bc 7cbd
00000290: 65ec c03a 95e8 42be aad9 a7bd c3be 98bd
000002a0: b052 5abe 86d6 44be e079 ff3d 557b 643e
000002b0: faf2 d9bd 3c90 443e f248 0ebe 7d91 7d3e
000002c0: 5994 1dbe ddf4 31be 719a c0bc a86b 143d
000002d0: 966c 00be b573 773e ea45 293e b9a6 aabd
000002e0: 4b9d 55be 152d 1abd 2981 403d d264 773d
000002f0: ad31 af3d c12a 033e c14f 72be 51aa e8bd
00000300: 3161 d7bd 8916 3dbd 9362 6ebe 3990 bebd
00000310: e2e3 f5bd 9520 423e 3ec3 02be 7dcd 80be
00000320: c144 4fbe e37c f43d ffa7 64be b914 1f3e
00000330: 4533 0ebe b9b9 a3bc 1fce cb3d 8738 59bc
00000340: 4020 473e a95d 1dbe 0ae8 323e b39a 673d
00000350: 63b5 d2bc 85d3 db3d 3461 abbd 2ae5 143e
00000360: ab75 5ebe f1b3 673e e621 e43b 5dc6 f73d
00000370: c13a 5cbe 8193 5dbe 56c1 b63d b40a f03d
00000380: a905 5cbe 62dd 6cbe 03db 5c3d 5f06 ab3d
00000390: 534d bc3a 61a9 cb3d 4b12 e53c 08c8 a03c
000003a0: 8d0a 80be 84a1 32be 344b 2a3e e3ed 4fbe
000003b0: 1e86 47be 4a8f e4bd d6b9 4c3e 1ea1 2dbd
000003c0: cc5a 87bd c927 b1bc 5673 e1bd a4c4 5d3e
000003d0: aa9d 1abe 8961 e2bd 9114 463e e0d3 30be
000003e0: f70e 58bd c72d 87bd 5c42 a6bd 7f68 fe3d
000003f0: 9b84 2abe 4211 5dbd 8ea8 c1bb 0d2b 40b9

weight_hh_l0 f4 [48, 16]
0.09141888 -0.22605398 -0.03723752 0.15975453 -0.19778599 0.0002535056 0.13847536 0.21176513
0.17706509 0.17364506 0.08847654 -0.26666757 0.22409843 -0.09725042 -0.091816954 0.23448269
0.004178196 -0.004521897 0.09157728 -0.18775932 -0.12382014 -0.05548771 0.09404545 -0.086516246
0.046883274 0.20754005 -0.24743733 -0.21700469 -0.19723009 0.16143066 0.17420691 0.0034363605
0.04724787 -0.22029696 0.13859369 0.18487535 -0.16320103 -0.098978624 -0.19119515 -0.0041459906
-0.15330562 0.06294079 -0.039512172 -0.07336236 0.06499348 0.14072506 -0.00569783 -0.11193693
0.07083572 -0.1362637 0.14751253 0.18492621 0.0028200746 -0.00020968686 -0.0525377 -0.0130121065
0.16288054 0.21796584 -0.11545419 0.057675283 -0.2110561 -0.028643554 -0.09206507 0.07088424
-0.007008166 0.01676708 -0.23249036 0.059818994 -0.1524882 0.06281321 0.102020085 -0.07698612
-0.0016953449 -0.100707665 0.15116942 -0.054882407 -0.13591468 0.010644016 -0.12726992 0.2379818
0.13169149 0.07924512 -0.07566101 -0.06325217 -0.052648794 -0.07654829 -0.041642096 -8.690136e-05
-0.20370014 -0.026208969 -0.0880136 -0.09044707 -0.13658425 0.16708322 -0.08489064 -0.14055887
0.012466228 0.0701921 0.2198823 0.117662676 -0.17908837 -0.09402208 0.16728425 -0.0426281
-0.10278203 -0.18841583 0.0062157395 0.0048052385 -0.10479488 -0.000825499 -0.11059676 0.12414811
-0.1541944 -0.19247803 -0.14784311 -0.1961815 -0.1422671 0.00081033877 0.18390109 0.05396261
0.17093143 0.20337301 -0.055839937 0.2124613 0.16024494 0.15227489 -0.020383058 -0.17009452
-0.0046909605 -0.0027146372 0.05766588 0.15745725 -0.007663882 -0.02755134 -0.23418087 -0.03374779
0.07260059 0.05491898 -0.20699722 -0.11599436 -0.08578752 -0.10907873 0.19912441 -0.08251896
-0.2366747 -0.0605591 0.122984655 0.19285235 -0.11715217 0.0010796335 -0.112920634 0.025305992
0.16092381 0.014231249 -0.090736695 -0.18108174 0.04554993 -0.00055764685 0.23850144 0.11784519
-0.06340071 -0.24779886 0.20545675 -0.111029625 0.18216562 -0.0010199128 0.18135951 -0.24522372
0.02759086 -0.2097863 -0.24744044 0.1984909 -0.19555213 -0.058703505 -0.24186319 0.116223104
-0.22117692 -0.17646371 -0.046304762 0.13257062 -0.23279977 -0.00019219663 0.16656376 -0.11660416
-0.03150605 -0.24445108 0.12567161 0.026373686 0.007128539 -0.15176272 0.17190212 -0.19413172
0.22356288 0.14495425 -0.20231162 -0.025839243 0.23636125 -0.16082509 0.12686458 0.23286483
-0.06076867 -0.21776561 -0.0004922943 -0.12867746 0.13284536 -0.0054594474 -0.2043308 -0.21551694
-0.24549636 -0.21393974 0.08785477 -0.23918243 0.18063816 0.13103364 -0.18423888 -0.0066785486
-0.18641393 0.11816954 -0.16413231 -0.14435111 -0.03843294 -0.0004329663 -0.09192387 0.1959274
-0.06186686 0.04301822 -0.21392694 -0.06613596 0.21673383 -0.15215667 0.036400158 -0.028640818
0.22985202 -0.22329715 0.010292054 0.0029584067 -0.23320957 -0.00022251444 0.16648985 -0.16769063
-0.20431942 0.20768258 0.104839735 -0.15774424 0.23923114 -0.10506429 -0.12777898 0.101274826
0.24720328 0.14556554 0.06405326 0.04137214 0.25560126 0.025590267 0.009863969 -0.14462811
00000000: d239 bb3d b27a 67be 5f86 18bd b196 233e
00000010: 6988 4abe f2e8 8439 7ccc 0d3e f5d8 583e
00000020: 8d50 353e 03d0 313e 3033 b53d a788 88be
00000030: 0f7a 653e 3a2b c7bd 870a bcbd 3b1c 703e
00000040: 40e9 883b 6c2c 94bb de8c bb3d fb43 40be
00000050: 6a95 fdbd 1547 63bd e79a c03d 6e2f b1bd
00000060: ad08 403d 6185 543e 3660 7dbe 7a36 5ebe
00000070: aff6 49be 144e 253e 4c63 323e 9034 613b
00000080: fc86 413d 8795 61be 81eb 0d3e f74f 3d3e
00000090: 2c1e 27be 4eb5 cabd a9c8 43be 17db 87bb
000000a0: 26fc 1cbe 1ae7 803d 84d7 21bd 013f 96bd
000000b0: 4d1b 853d 3b1a 103e ddb4 babb 303f e5bd
000000c0: 5112 913d b688 0bbe 860d 173e 4c5d 3d3e
000000d0: 00d1 383b 63df 5bb9 c531 57bd bb30 55bc
000000e0: 28ca 263e 7032 5f3e 3f73 ecbd eb3c 6c3d
000000f0: 171f 58be e3a5 eabc 9d8c bcbd c22b 913d
00000100: c2a4 e5bb 1e5b 893c f411 6ebe c304 753d
00000110: de25 1cbe 36a4 803d e8ef d03d e6aa 9dbd
00000120: 5636 deba d23f cebd 28cc 1a3e 60cc 60bd
00000130: 382d 0bbe 3d64 2e3c 0c53 02be 80b1 733e
00000140: 22da 063e 444b a23d 29f4 9abd 5b8a 81bd
00000150: 43a6 57bd 5ac5 9cbd e790 2abd d03e b6b8
00000160: c596 50be 31b4 d6bc 7940 b4bd 503c b9bd
00000170: bedc 0bbe dd17 2b3e 25db adbd aaee 0fbe
00000180: 263f 4c3c e0c0 8f3d d328 613e 21f9 f03d
00000190: f162 37be a68e c0bd 904c 2b3e cd9a 2ebd
000001a0: 637f d2bd 14f0 40be 67ad cb3b 4375 9d3b
000001b0: b39e d6bd 4d66 58ba 8e80 e2bd 5d41 fe3d
000001c0: 23e5 1dbe f618 45be 2f64 17be cee3 48be
000001d0: 77ae 11be ea6c 543a 9150 3c3e e607 5d3d
000001e0: a608 2f3e 0441 503e 6bb8 64bd 748f 593e
000001f0: 4017 243e f3ed 1b3e 5ffa a6bc 422d 2ebe
00000200: a1b6 99bb 0ee8 31bb 0f33 6c3d 793c 213e
00000210: 4d21 fbbb 59b3 e1bc 1ccd 6fbe 1f3b 0abd
00000220: 9eaf 943d b9f2 603d 14f7 53be 738e edbd
00000230: 5eb1 afbd ab64 dfbd 45e7 4b3e b3ff a8bd
00000240: da5a 72be d20c 78bd 61df fb3d 167b 453e
00000250: 7aed efbd 7d82 8d3a ef42 e7bd 834e cf3c
00000260: 36c9 243e 2f2a 693c 29d4 b9bd 7e6d 39be
00000270: 9092 3a3d 0c2f 12ba b939 743e d258 f13d
00000280: 3bd8 81bd fcbe 7dbe 4163 523e 8063 e3bd
00000290: a089 3a3e 98ae 85ba 4fb6 393e ed1b 7bbe
000002a0: 3a06 e23c 38d2 56be 0761 7dbe 3341 4b3e
000002b0: d13e 48be 1673 70bd fcaa 77be 6106 ee3d
000002c0: 347c 62be e7b2 34be 10aa 3dbd 98c0 073e
000002d0: 1063 6ebe 6488 49b9 b18f 2a3e 29ce eebd
000002e0: 7d0c 01bd 6251 7abe 0fb0 003e a10d d83c
000002f0: 8596 e93b b067 1bbe 1c07 303e 77ca 46be
00000300: abed 643e e36e 143e c72a 4fbe d2ac d3bc
00000310: af08 723e 55af 24be cae8 013e 1e74 6e3e
00000320: 92e8 78bd f3fd 5ebe 500d 01ba 06c4 03be
00000330: 9d08 083e 2ae5 b2bb 183c 51be 79b0 5cbe
00000340: 6663 7bbe 0513 5bbe 34ed b33d 3dec 74be
00000350: 36f9 383e af2d 063e 1ea9 3cbe bad7 dabb
00000360: 4be3 3ebe df02 f23d 4d12 28be c7d0 13be
00000370: dc6b 1dbd c1ff e2b9 9542 bcbd 31a1 483e
00000380: 1b68 7dbd e033 303d aa0f 5bbe 4a72 87bd
00000390: 79ef 5d3e f5ce 1bbe 5518 153d 26a0 eabc
000003a0: 545e 6b3e 02a8 64be 01a0 283c d4e1 413b
000003b0: 7dce 6ebe c452 69b9 517c 2a3e 18b7 2bbe
000003c0: 1c39 51be beaa 543e 37b6 d63d b587 21be
000003d0: 02f9 743e f22b d7bd 7ed8 02be 2d69 cf3d
000003e0: db22 7d3e 220f 153e 5b2e 833d d575 293d
000003f0: 2bde 823e aea2 d13c 7c9c 213c 6419 14be

bias_ih_l0 f4 [48]
-0.012511943 -0.075542055 0.12738012 0.2455313 -0.030077433 0.1839468 0.23278432 -0.012902619
0.09760578 -0.18530668 0.005621097 0.21808723 -0.0043619024 0.028700931 -0.15986922 -0.17899773
-0.10032288 0.19190088 0.015386488 -0.069882885 0.13074976 -0.06603457 0.078478836 0.049130656
-0.18019325 -0.13017538 -0.12346682 -0.06904452 -0.22326592 0.16928072 0.0372318 0.083726406
-0.022077631 -0.23718643 0.20724787 -0.181555 0.14925203 0.12445398 -0.09409846 0.11916316
-0.15659125 0.14346503 -0.13996808 0.13856445 0.15846954 -0.23661837 -0.20306978 0.10436452
00000000: e4fe 4cbc cbb5 9abd ef6f 023e 8f6c 7b3e
00000010: f364 f6bc 8d5c 3c3e 035f 6e3e 8265 53bc
00000020: 8ae5 c73d 09c1 3dbe 2e31 b83b 4252 5f3e
00000030: 4aee 8ebb 371e eb3c c2b4 23be 2e4b 37be
00000040: 1576 cdbd aa81 443e 9c17 7c3c c21e 8fbd
00000050: 44e3 053e 223d 87bd 83b9 a03d 3a3d 493d
00000060: 9484 38be b24c 05be 2cdc fcbd 3767 8dbd
00000070: d29f 64be ed57 2d3e 5f80 183d c078 ab3d
00000080: 26dc b4bc 00e1 72be c938 543e 8ee9 39be
00000090: 86d5 183e bae1 fe3d b2b6 c0bd d10b f43d
000000a0: 7559 20be 7fe8 123e cb53 0fbe d7e3 0d3e
000000b0: d745 223e 164c 72be 86f1 4fbe 11bd d53d

bias_hh_l0 f4 [48]
0.10908659 0.23533946 0.12860988 -0.061305985 -0.09337455 -0.17757799 0.20227428 -2.6202548e-05
-0.10596719 0.12176206 -0.13447979 -0.1993338 0.12175224 0.07319132 -0.13287672 -0.22314632
-0.08542416 -0.24532582 -0.103239834 0.18969068 -0.06389829 -0.022425408 -0.14324683 0.08200452
0.058308005 -0.015094835 0.026399259 0.028307486 -0.20073055 0.24321054 0.0013831749 0.15374681
0.09652793 -0.10527686 -0.022396322 0.24709906 -0.18685889 -0.052537385 -0.12207516 -0.19885458
-0.24478382 -0.18103838 -0.06733758 0.20050123 -0.09058968 -0.20855853 0.16615373 -0.18008506
00000000: ca68 df3d d4fc 703e 4fb2 033e fc1b 7bbd
00000010: 283b bfbd 01d7 35be fd20 4f3e 8bcd dbb7
00000020: 5305 d9bd 635e f93d 12b5 09be 291e 4cbe
00000030: 3d59 f93d 55e5 953d d610 08be 7880 64be
00000040: ddf2 aebd b136 7bbe 686f d3bd 463e 423e
00000050: 1bdd 82bd 7db5 b7bc 4caf 12be fcf1 a73d
00000060: 60d4 6e3d 5450 77bc 4243 d83c 1ae5 e73c
00000070: 4f8c 4dbe 2f0c 793e a64b b53a ce6f 1d3e
00000080: 6fb0 c53d 659b d7bd 7e78 b7bc 8907 7d3e
00000090: f057 3fbe 7131 57bd 8b02 fabd 89a0 4bbe
000000a0: 9ca8 7abe 2062 39be 49e8 89bd 3250 4d3e
000000b0: 1587 b9bd 5e90 55be 3424 2a3e 3868 38be

weight_ih_l0 f4 [3, 11]
0.018880721 -0.57227254 0.84777355 0.371088 0.16789319 0.5626349 -0.05333212 0.0476057
-0.84332293 -0.52410936 0.5794093 0.1535677 -0.83319396 -0.48695454 0.97972214 -0.6560026
0.06096996 -0.2644529 -0.70504266 -0.8507822 0.8810622 0.8404294 0.6586436 -0.34646702
-0.004295569 -0.5891696 0.76741135 -0.70381945 0.8314903 -0.5377453 0.194899 0.5487974
0.7075687
00000000: beab 9a3c 7480 12bf b007 593f 3fff bd3e
00000010: 31ec 2b3e d708 103f c872 5abd 32fe 423d
00000020: 03e4 57bf 082c 06bf 2b54 143f da40 1d3e
00000030: 334c 55bf 1b52 f9be 12cf 7a3f c9ef 27bf
00000040: a3bb 793d 5f66 87be ad7d 34bf ddcc 59bf
00000050: 4b8d 613f 6226 573f de9c 283f 2064 b1be
00000060: d8c1 8cbb d2d3 16bf 1275 443f 832d 34bf
00000070: 8cdc 543f ada9 09bf 9a93 473e fd7d 0c3f
00000080: 3923 353f

weight_hh_l0 f4 [3, 1]
-0.7247304 -0.31397662 -0.8540687
00000000: ee87 39bf 8bc1 a0be 3fa4 5abf

bias_ih_l0 f4 [3]
0.732402 -0.38113526 0.644731
00000000: b37e 3b3f 2924 c3be 170d 253f

bias_hh_l0 f4 [3]
-0.3175871 0.26640087 0.2971585
00000000: c79a a2be b265 883e 2925 983e

weight f4 [1, 16]
-0.016969236 0.10519968 -0.019314995 -0.197662 -0.1307175 -0.23680682 -0.25765124 -0.15804556
0.09133623 -0.13268584 -0.07802458 -0.0020223318 0.18898173 -0.09929018 0.005723765 0.22614016
00000000: 1103 8bbc ee72 d73d 7b3a 9ebc e867 4abe
00000010: cfda 05be 7d7d 72be ddea 83be b2d6 21be
00000020: 7d0e bb3d ccde 07be 5acb 9fbd 1989 04bb
00000030: 6d84 413e a658 cbbd 6c8e bb3b 4991 673e

weight f4 [680, 17]
-0.16001932 0.07224746 0.21026866 -0.1527683 0.10103906 0.027134929 0.051930763 -0.1909224
-0.17101483 0.23007807 0.06930455 0.0103582945 0.13524067 -0.02491517 0.031205911 -0.21695116
0.22267886 -0.068840265 -0.000215167 0.037705436 0.16828755 0.14069828 0.122542724 0.08207714
-0.14137176 -0.004433468 0.024275195 -0.08792075 0.11827412 -0.1735691 -0.095516816 0.008254341
0.0009124452 -0.16924688 0.094249114 0.023654127 -0.03713696 0.11153455 0.033882294 -0.23033011
0.052269492 -0.13061482 -0.17853895 -0.16276456 0.03797207 0.22523873 -0.07949583 -0.16750893
0.1645568 -0.18791564 -0.029953746 -0.037859533 -0.16569163 0.00057670363 0.0113364095 -0.1286867
-0.1377327 0.022015864 0.00013040438 -0.13723893 -0.106314264 -0.00037596183 -0.07401229 0.08066625
0.02505063 0.00046240905 -0.11176599 -0.00017804351 0.17091817 0.06316553 0.0033248558 -0.007919698
0.07382891 0.09550718 -0.0004951155 -0.00021594332 0.0063794563 -0.09409359 -0.023802068 -0.04042303
-0.13110384 -6.4787005e-06 -7.022281e-05 -0.099042855 -0.09475007 0.00017756701 0.11777435 -0.14257468
0.048827104 -0.043779884 -0.1667511 0.02888866 0.14678405 -0.00017214751 0.010523228 -0.0001012187
-0.14709944 -0.008924172 -0.00044020012 0.08782987 8.924978e-05 -0.0008497272 0.013582274 -0.24092297
-0.14737263 -0.031668637 -0.0648227 0.19548595 0.15237767 -0.09232341 -0.09136792 0.22431964
0.14383912 -0.07464045 -0.18956727 -0.18017426 0.08807982 -0.152397 -0.23122622 0.12425222
-0.029454453 0.09535532 0.02652962 0.06664588 0.08673678 0.10307556 0.048619766 0.22101088
0.17033482 -0.007401712 0.0049288124 -0.2165239 -0.10695144 -0.12603262 -0.124230586 0.060421303
-0.23328601 0.07249198 -0.0651728 0.13866758 0.16794449 0.026382577 0.16840442 -0.03415216
0.0039418223 0.026028704 0.14274351 -0.10876955 0.19641273 -0.19054957 -0.076406874 0.1414961
0.1404295 -0.2252021 -0.21629427 -0.22725914 0.12713158 0.22735633 0.03368095 0.24080098
0.0005615408 0.030512787 0.18625261 -0.18854591 -0.20241016 0.07598943 0.18754163 0.24301444
0.052650597 0.1632565 0.055560354 -0.16174075 -0.13243623 0.0017226586 0.13225819 -0.018869543
-0.055956192 0.18443267 0.07488428 -0.10105132 0.08379883 -0.08850022 -0.15293318 -0.022080613
-0.039873537 -0.021059796 -0.10267994 0.14188972 0.20286798 0.1078448 0.13708425 0.22069025
-0.017619185 0.14732154 -0.21816199 0.07938842 0.04861077 -0.01937426 -0.032524887 0.1407402
-0.05692823 -0.24197993 -0.056664117 0.07793502 -0.1967406 0.008608788 -0.041034844 -0.02487922
-0.23922494 0.04490571 -0.13150306 -0.2020609 -0.091118775 0.16671044 0.00017804182 -0.12100633
-0.22518691 -0.16241829 0.15393339 -0.22818814 0.22054513 -0.041389782 0.012803277 -0.07211973
0.07999871 -0.118028715 -0.19548278 0.17138502 0.14324166 -0.1541204 0.12261565 0.04605134
0.23241624 -0.020276308 -0.16811207 -0.16690522 -0.1370923 -0.2469716 -0.07187412 -0.034665223
-0.074779436 -0.0009451019 -0.118927225 -0.15015768 0.12543291 0.03345524 0.001004519 0.08836838
-0.007893425 0.033351168 -0.07587025 0.057106264 0.10129285 0.15752439 0.0005036782 0.18532935
00000000: 1bdc 23be 7af6 933d ab50 573e 4b6f 1cbe
00000010: 91ed ce3d 124a de3c 5ab5 543d 2981 43be
00000020: 831e 2fbe 9699 6b3e 8bef 8d3d d6b5 293c
00000030: 887c 0a3e e61a ccbc 8aa3 ff3c 7228 5ebe
00000040: ed05 643e 20fc 8cbd 749e 61b9 0471 1a3d
00000050: 9253 2c3e 3613 103e aef7 fa3d 0f18 a83d
00000060: c2c3 10be a046 91bb c6dc c63c cb0f b4bd
00000070: b439 f23d 19bc 31be 529e c3bd 373d 073c
00000080: 2931 6f3a 0e4f 2dbe ae05 c13d 4dc6 c13c
00000090: ed1c 18bd 3a6c e43d 29c8 0a3d a8db 6bbe
000000a0: 8918 563d e4bf 05be ead2 36be c1ab 26be
000000b0: 9a88 1b3d fba4 663e b6ce a2bd 7687 2bbe
000000c0: 9481 283e f56c 40be 8f61 f5bc 9912 1bbd
000000d0: 11ab 29be ed2d 173a 59bc 393c 72c6 03be
000000e0: cd09 0dbe 9d5a b43c 29bd 0839 5d88 0cbe
000000f0: 4bbb d9bd be1c c5b9 c193 97bd 5934 a53d
00000100: fb36 cd3c 7e6f f239 91e5 e4bd 31b1 3ab9
00000110: 2c05 2f3e ee5c 813d d3e5 593b 9fc1 01bc
00000120: 9d33 973d 4599 c33d a4ca 01ba d86e 62b9
00000130: c20a d13b 24b4 c0bd 8efc c2bc 9e92 25bd
00000140: 1640 06be 9d63 d9b6 9644 93b8 fbd6 cabd
00000150: 530c c2bd 4831 3a39 ae33 f13d 19ff 11be
00000160: eefe 473d 8952 33bd cdc0 2abe e9a7 ec3c
00000170: 8f4e 163e 7f82 34b9 9e69 2c3c 6045 d4b8
00000180: 3ca1 16be b136 12bc a9ca e6b9 26e0 b33d
00000190: 9c2b bb38 3ac0 5eba 3088 5e3c 83b4 76be
000001a0: dae8 16be f9b6 01bd c4c1 84bd 782d 483e
000001b0: e408 1c3e 0e14 bdbd 1b1f bbbd 0cb4 653e
000001c0: 904a 133e 18dd 98bd ec1d 42be 9a7f 38be
000001d0: 3163 b43d f60d 1cbe 91c6 6cbe f377 fe3d
000001e0: 774a f1bc a649 c33d a554 d93c a37d 883d
000001f0: 0ea3 b13d 4719 d33d 8525 473d ad50 623e
00000200: 406c 2e3e 0f8a f2bb e081 a13b 71b8 5dbe
00000210: 5b09 dbbd b20e 01be 9b6c febd 547c 773d
00000220: 87e2 6ebe ad76 943d 5179 85bd e0fe 0d3e
00000230: a4f9 2b3e 4620 d83c 3572 2c3e 23e3 0bbd
00000240: 672a 813b 263a d53c 5b2b 123e 92c2 debd
00000250: 6b20 493e 6d1f 43be 357b 9cbd 5be4 103e
00000260: c0cc 0f3e 619b 66be 3f7c 5dbe 9fb6 68be
00000270: c82e 023e 19d0 683e 09f5 093d 8894 763e
00000280: 5d34 133a f4f5 f93c 01b9 3e3e 2e12 41be
00000290: 9c44 4fbe 59a0 9b3d ea0a 403e c7d8 783e
000002a0: 27a8 573d b62c 273e 4193 633d 5e9f 25be
000002b0: 5d9d 07be d5ca e13a b16e 073e 4d94 9abc
000002c0: 5232 65bd ebdb 3c3e ee5c 993d fff3 cebd
000002d0: b99e ab3d 9a3f b5bd 849a 1cbe 67e2 b4bc
000002e0: 6f52 23bd 9885 acbc dc49 d2bd 8a4b 113e
000002f0: a0bc 4f3e bcdd dc3d d05f 0c3e a0fc 613e
00000300: 1c56 90bc 75db 163e db65 5fbe 6596 a23d
00000310: 161c 473d c5b6 9ebc d138 05bd 331e 103e
00000320: 932d 69bd 96c9 77be a218 68bd 659c 9f3d
00000330: 5e76 49be e00b 0d3c 2714 28bd 82cf cbbc
00000340: 62f7 74be 0def 373d bda8 06be 0de9 4ebe
00000350: 7b9c babd 24b6 2a3e bdb0 3a39 2bd2 f7bd
00000360: 6697 66be fb50 26be b7a0 1d3e 27aa 69be
00000370: 95d6 613e 5588 29bd d6c4 513c 82b3 93bd
00000380: 5dd6 a33d 0ab9 f1bd a32c 48be 8e7f 2f3e
00000390: f1ad 123e bdd1 1dbe ea1d fb3d 54a0 3c3d
000003a0: 86fe 6d3e 801a a6bc 9225 2cbe 34e9 2abe
000003b0: ed61 0cbe 20e6 7cbe bd32 93bd 1ffd 0dbd
000003c0: f625 99bd b7c0 77ba 1e90 f3bd efc2 19be
000003d0: 7c71 003e 5d08 093d 11aa 833a 7bfa b43d
000003e0: 6d53 01bc 3c9b 083d dd61 9bbd 42e8 693d
000003f0: a072 cf3d 134e 213e 4609 043a fac6 3d3e

bias f4 [680]
-0.22685565 -0.03615583 0.18703996 -0.11961519 0.00024944425 -0.073640354 -0.00422039 0.082335636
-0.22571908 0.23256966 -0.11797199 0.2270717 -0.032321297 -0.023703964 -3.723163e-05 0.07149065
0.18753959 -0.09757604 0.108832136 -0.16037706 -0.06986302 -0.00012187323 0.13338733 -0.10360586
0.105372936 -0.029892858 -0.050744224 -0.06292744 -0.021409119 -0.1542791 0.10978792 -0.05143097
0.1304598 0.042687055 0.19487819 -0.1707279 -0.1460575 0.04297481 0.16794099 0.041125022
-0.104213126 0.053787008 0.14298157 -0.049023263 -0.17404737 0.05889602 0.02602577 0.17039572
-0.11603344 0.12483255 -0.041216083 -0.08513851 -0.13958961 0.076038934 0.12210429 0.11448344
-0.14236401 0.03337197 0.016065063 0.2114795 0.065874755 0.23205368 -0.055418923 -0.0316186
0.13187198 0.19115242 -0.08594501 0.054035492 0.21345678 0.06994419 -0.00549174 0.056220733
-0.16277628 -0.15706417 0.20614915 0.20506334 0.18461835 -0.11204204 0.1615328 0.037872944
-0.15517725 0.16496877 0.120844 0.046812356 -0.09067346 -0.11996599 0.13824831 0.13228275
-0.076587364 -0.008879646 0.12297294 0.017344046 -0.08027762 -0.036614325 -0.04915821 -0.13022119
0.10669288 0.22435687 0.21266049 -0.12622154 0.096793085 0.04437732 0.037169565 0.21399601
0.23993237 -0.043945726 -0.13988447 0.10134707 0.16025768 -0.07568926 -0.09081426 -0.15512845
0.072750084 -0.05972506 0.090434365 -0.15397193 -0.015912926 0.07551684 -0.02021612 0.060637984
-0.1470759 -0.034991633 -0.12058311 -0.18145691 0.21914515 -0.06599507 -0.062373612 0.097498864
-0.13148749 0.1679535 0.021472039 0.098654486 0.0043966044 0.1976512 0.15029074 -0.17016535
0.08938638 -0.049501386 0.06784935 0.05794871 0.057784628 0.1783001 0.028790753 0.100346275
-0.0028491106 -0.09528676 0.07445344 0.17731865 -0.0035505726 -0.087194495 -0.12117692 0.11896635
-0.0691742 -0.07594317 -0.032319564 0.07610582 0.12629023 0.16948456 -0.0348204 -0.07801699
0.016678562 -0.085691854 0.06928954 0.22302055 -0.15071976 0.00060767867 -0.11449372 -0.005593815
-0.022712708 0.15935583 -0.01799758 -0.0032421204 -0.058904193 0.033288732 -0.104503274 -0.04212707
-0.13989648 0.14360169 -0.021829635 -0.15462296 -0.08574621 0.017626267 -0.17373101 0.2528504
0.13216037 0.15977629 0.21130136 0.16633679 -0.027830668 0.006719156 0.13955069 -0.18800464
0.06558602 -0.030476691 0.020199368 -0.19217841 -0.113263 0.1968111 0.026076296 0.1499562
-0.13967116 0.03217893 -0.08067088 0.014848103 0.2173024 -0.17608675 0.18691254 -0.0112464875
0.095052905 0.04434877 0.13610826 -0.17894955 -0.1535677 -0.13515526 -0.057751816 0.06220549
-0.035111252 -0.23184584 0.08238379 0.1906384 -0.12337017 -0.07837238 -0.155837 -0.0026772297
0.22498293 0.06617462 0.036907885 0.04860146 0.22840102 -0.12869515 0.15163393 -0.13112126
-0.12570134 -0.15634118 -0.14982063 -0.08404593 0.19663215 0.13950092 0.16636692 0.12156233
-0.10190446 0.12778977 0.08270004 -0.10216698 0.07102957 0.21451843 0.08662202 -0.09112462
-0.23281068 0.009420593 -0.065745555 -0.13818099 -0.16057904 0.043638572 0.09802821 -0.055874567
00000000: d94c 68be 2318 14bd 6787 3f3e cff8 f4bd
00000010: d7c7 8239 c1d0 96bd 334b 8abb 969f a83d
00000020: e722 67be be26 6e3e 4c9b f1bd 7c85 683e
00000030: 5663 04bd d12e c2bc 2929 1cb8 b169 923d
00000040: 610a 403e f2d5 c7bd 62e3 de3d e239 24be
00000050: 5814 8fbd 3196 ffb8 b096 083e 4f2f d4bd
00000060: c4cd d73d dee1 f4bc 2dd9 4fbd 1ae0 80bd
00000070: 2d62 afbc 57fb 1dbe 7dd8 e03d 48a9 52bd
00000080: 4197 053e 9fd8 2e3d 268e 473e 4bd3 2ebe
00000090: 1990 15be 5b06 303d b9f8 2b3e b672 283d
000000a0: b16d d5bd c44f 5c3d c369 123e 9ecc 48bd
000000b0: 7939 32be f43c 713d ff33 d53c 377c 2e3e
000000c0: f1a2 edbd 35a8 ff3d 32d2 28bd 195d aebd
000000d0: 94f0 0ebe 4dba 9b3d d011 fa3d 4b76 ea3d
000000e0: dfc7 11be 0cb1 083d e19a 833c 158e 583e
000000f0: 58e9 863d 7b9f 6d3e f4fe 62bd 8182 01bd
00000100: 7309 073e 76bd 433e f003 b0bd 5254 5d3d
00000110: 6a94 5a3e e63e 8f3d 0ef4 b3bb b647 663d
00000120: d3ae 26be 6ed5 20be c318 533e 20fc 513e
00000130: 980c 3d3e 4c76 e5bd db68 253e a920 1b3d
00000140: c9e6 1ebe 93ed 283e 0f7d f73d 50be 3f3d
00000150: 02b3 b9bd bbb0 f5bd f790 0d3e 2175 073e
00000160: d6d9 9cbd ef7b 11bc 3dd9 fb3d 1a15 8e3c
00000170: 9868 a4bd e7f8 15bd 1f5a 49bd b458 05be
00000180: cc81 da3d cfbd 653e acc3 593e 3840 01be
00000190: 743b c63d fec4 353d 1d3f 183d c521 5b3e
000001a0: d5b0 753e 6f00 34bd e03d 0fbe 0d8f cf3d
000001b0: 971a 243e f902 9bbd d4fc b9bd fed9 1ebe
000001c0: fffd 943d 44a2 74bd a735 b93d d1aa 1dbe
000001d0: d35b 82bc 93a8 9a3d 479c a5bc 895f 783d
000001e0: 119b 16be 6353 0fbd 47f4 f6bd d7cf 39be
000001f0: 9667 603e 6c28 87bd 797b 7fbd 7cad c73d
00000200: a8a4 06be 01fc 2b3e 21e6 af3c 5d0b ca3d
00000210: 6411 903b 1465 4a3e d1e5 193e d33f 2ebe
00000220: 3510 b73d f7c1 4abd 9af4 8a3d a05b 6d3d
00000230: 93af 6c3d 4d94 363e 96da eb3c 5982 cd3d
00000240: 25b8 3abb b425 c3bd 0c7b 983d 0593 353e
00000250: b9b0 68bb 0793 b2bd 9b2b f8bd a1a4 f33d
00000260: 34ab 8dbd 1888 9bbd 8561 04bd 5edd 9b3d
00000270: 3a52 013e 5c8d 2d3e d69f 0ebd 5fc7 9fbd
00000280: 7ba1 883c 367f afbd ade7 8d3d 805f 643e
00000290: 4856 1abe a04c 1f3a af7b eabd 524c b7bb
000002a0: 0010 babc 2d2e 233e a96f 93bc c179 54bb
000002b0: 8645 71bd c459 083d d005 d6bd 6f8d 2cbd
000002c0: 0641 0fbe 520c 133e 10d4 b2bc 7b55 1ebe
000002d0: b59b afbd f664 903c 8be6 31be 9c75 813e
000002e0: 0c55 073e 659c 233e 625f 583e 3154 2a3e
000002f0: 24fd e3bc 5e2c dc3b 60e6 0e3e 4a84 40be
00000300: f751 863d 41aa f9bc 2579 a53c 6bca 44be
00000310: 6ff6 e7bd d988 493e f59d d53c 1e8e 193e
00000320: f505 0fbe 0ece 033d c636 a5bd 7545 733c
00000330: 8584 5e3e 1650 34be 0066 3f3e 3043 38bc
00000340: 19ab c23d 0ea7 353d f75f 0b3e 8d3e 37be
00000350: da40 1dbe 2466 0abe 2b8d 6cbd 2fcb 7e3d
00000360: d1d0 0fbd ff68 6dbe d5b8 a83d b636 433e
00000370: 80a9 fcbd b381 a0bd bc93 1fbe 7674 2fbb
00000380: ed61 663e 8f86 873d b92c 173d 5312 473d
00000390: f5e1 693e a9c8 03be ed45 1b3e a744 06be
000003a0: dab7 00be e717 20be 946a 19be 4620 acbd
000003b0: f059 493e 54d9 0e3e 175c 2a3e acf5 f83d
000003c0: 49b3 d0bd 52db 023e a35e a93d ec3c d1bd
000003d0: f477 913d b8aa 5b3e e366 b13d 8b9f babd
000003e0: ec65 6ebe d558 1a3c 9ba5 86bd 517f 0dbe
000003f0: d56e 24be 5cbe 323d 04c3 c83d bbdc 64bd

weight f4 [4, 680]
0.034820136 0.00062091596 0.03572972 0.0005382438 0.0010511975 0.0005689798 0.017531386 -0.0035968102
-0.021092625 0.0027834983 0.032870814 -0.018069666 -0.031447157 -0.0051101325 0.00016776963 0.00085640966
0.00037909046 -0.0033892316 -0.010125221 -0.0007593681 0.047835525 6.571765e-06 0.040034886 0.023708155
0.031156318 -0.02023675 0.0011171079 0.014748498 -0.020483198 -0.00031276778 -0.014711147 -0.00049562845
0.03567973 -0.015336883 0.025023166 0.0011094308 -0.0003843872 0.021079153 -0.009350099 0.045567498
-0.000103999206 -0.023013143 0.006188803 0.016601408 -0.0009182449 0.0028444724 0.029378707 0.0302606
-0.00040621785 -0.011170693 6.664838e-05 0.027619097 0.026099505 -0.022435514 -0.0070054973 0.017994188
0.0021666936 0.017172577 -0.012671017 -0.025213698 0.034844793 0.010080649 0.00010498279 -0.031663097
-0.009420126 -0.010875332 -0.034108575 -0.028916042 0.017966365 0.03177212 0.031484284 0.00019885023
0.0010843264 0.00010972833 -0.034272328 0.0043983012 0.005200433 0.00031718554 -0.003277611 -0.0053291004
0.00040521685 -0.018322824 0.042676196 -0.027826201 0.043384634 -0.0008018287 -0.017189328 0.020915905
-0.027990444 0.003159295 -0.02751663 0.04285065 -0.025099948 0.01516348 0.00023075912 -0.030927487
-0.0053069224 -0.032130875 0.017635023 2.0328782e-05 -0.028412877 0.033341486 -0.0152081 -0.0015417204
0.024386896 0.02327468 -0.00012863458 0.03570992 0.033231143 -0.0025764208 0.0011108277 0.00029548293
-0.03703387 0.04911632 0.0034831115 0.00023783413 -0.03233715 0.020566432 -0.016135385 0.023779875
0.012044017 -0.005208471 0.0007550457 -0.019373685 -0.019067148 -0.0011017016 -0.019024912 0.021532197
0.00028448537 -0.015834352 -0.0066347052 -0.014140047 -0.016002461 -0.012212856 0.021203348 -0.0004922136
-0.025267849 -0.0060776593 0.005815532 0.0023544265 0.008694581 0.02253084 0.01989069 0.04051568
-0.013986717 -4.8516217e-06 -0.010235435 -0.003865651 -0.023758544 0.0027471203 -0.00012520741 -0.019832987
-0.00026589417 0.033507533 0.034102224 0.046676803 0.02901849 0.022503633 0.031443167 8.016139e-05
0.007103361 -0.00080870965 -0.030028576 -0.00097280764 -0.0072231255 -9.6574724e-05 0.00090145477 0.0036911333
-0.023280997 -0.004489079 0.0003809398 -0.0029007164 -0.008465858 0.02335074 0.023331752 -0.011127164
0.034646064 0.018533085 0.019044694 -0.014895779 7.1576846e-06 -0.0004468466 0.031355843 0.036020625
0.022547651 -0.02547919 0.030353203 0.025094284 0.015950246 -0.026202926 -0.013481455 0.014848294
-0.020962812 -0.00079989573 -0.023631532 -0.023085233 -0.061126687 -0.029546624 0.03516458 0.003983532
-0.0007934794 0.0048438637 0.020622404 0.0388524 0.03358252 -0.008576469 -0.0074315397 0.018108888
0.035541467 -0.01491353 0.0040103737 0.00031793411 1.3222426e-06 0.021858176 -0.00018653563 0.024635516
0.009343325 0.0023219616 0.009277031 0.01585818 0.0015995564 -3.1859672e-05 -0.0004676825 -0.034467418
-0.012928892 0.01390892 0.021761352 0.020607276 0.038906414 0.00032315307 0.020664195 -3.1491723e-05
0.0010892546 -0.0002826535 5.010566e-06 0.012567857 0.0445332 -0.0036072528 -0.0026404457 0.03945223
-0.07041348 -0.0062801056 0.02771406 -0.0008035471 -0.009099598 -0.0004699927 -0.017333977 -1.239531e-06
0.030538509 0.023501312 0.05624662 0.00012916024 7.132711e-05 -0.018285645 -0.02039465 -0.0007497978
00000000: 8f9f 0e3d f7c4 223a 5459 123d ee18 0d3a
00000010: 56c8 893a 9727 153a fb9d 8f3c 76b8 6bbb
00000020: 71ca acbc 5a6b 363b 8ca3 063d d606 94bc
00000030: bcce 00bd e672 a7bb 51eb 2f39 ae80 603a
00000040: a9c0 c639 df1d 5ebb 41e4 25bc 5510 47ba
00000050: 2fef 433d 0883 dc36 9ffb 233d 9b37 c23c
00000060: 893b ff3c 8ac7 a5bc ec6b 923a afa3 713c
00000070: 61cc a7bc fbfa a3b9 0607 71bc 10ed 01ba
00000080: e924 123d 8d47 7bbc 62fd cc3c 526a 913a
00000090: 9487 c9b9 30ae ac3c 2831 19bc fca4 3a3d
000000a0: 261a dab8 0f86 bcbc 71cb ca3b adff 873c
000000b0: 5fb6 70ba 546a 3a3b 9dab f03c 14e5 f73c
000000c0: a3f9 d4b9 4805 37bc 94c5 8b38 7241 e23c
000000d0: a1ce d53c afca b7bc 5f8e e5bb 8c68 933c
000000e0: 16ff 0d3b 81ad 8c3c 199a 4fbc f58c cebc
000000f0: 6ab9 0e3d 4e29 253c 352a dc38 2ab1 01bd
00000100: df56 1abc 732e 32bc 6fb5 0bbd 56e1 ecbc
00000110: 332e 933c 7c23 023d aaf5 003d 7482 5039
00000120: f51f 8e3a f31d e638 2461 0cbd a01f 903b
00000130: 6568 aa3b ec4b a639 30cd 56bb bc9f aebb
00000140: 4973 d439 bf19 96bc 3ccd 2e3d c6f3 e3bc
00000150: 16b4 313d d031 52ba a2d0 8cbc d557 ab3c
00000160: 374c e5bc 2d0c 4f3b 8e6a e1bc 2a84 2f3d
00000170: 689e cdbc 3f70 783c eef7 7139 a45b fdbc
00000180: b1e5 adbb aa9b 03bd 5377 903c ba87 aa37
00000190: 1fc2 e8bc 1591 083d 652b 79bc 8d13 caba
000001a0: 07c7 c73c 8baa be3c 15e2 06b9 9144 123d
000001b0: 611d 083d 2bd9 28bb 3199 913a 0ceb 9a39
000001c0: d4b0 17bd 322e 493d ea44 643b 1d63 7939
000001d0: f673 04bd ef7a a83c 5b2e 84bc 03ce c23c
000001e0: 4554 453c d2ab aabb 42ee 453a 90b5 9ebc
000001f0: b532 9cbc f966 90ba 22da 9bbc 4a64 b03c
00000200: fb26 9539 0bb7 81bc f167 d9bb a8ab 67bc
00000210: 9817 83bc 6e18 48bc a5b2 ad3c e507 01ba
00000220: 85fe cebc 1a27 c7bb 3890 be3b b94c 1a3b
00000230: b773 0e3c 9992 b83c cdf1 a23c c5f3 253d
00000240: 8b28 65bc 1dcb a2b6 87b2 27bc dd56 7dbb
00000250: 47a1 c2bc 0809 343b 1c4a 03b9 ca78 a2bc
00000260: b667 8bb9 323f 093d c6ae 0b3d 2d30 3f3d
00000270: 2fb8 ed3c 8a59 b83c 8dca 003d 521c a838
00000280: 50c3 e83b 96ff 53ba 7dfe f5bc 0404 7fba
00000290: f8af ecbb 2988 cab8 9b4f 6c3a f1e6 713b
000002a0: cab7 bebc 2019 93bb e0b8 c739 f219 3ebb
000002b0: 62b4 0abc 0d4a bf3c 3b22 bf3c b54e 36bc
000002c0: 08e9 0d3d b2d2 973c 9e03 9c3c 6d0d 74bc
000002d0: 0b2c f036 bc46 eab9 fc6e 003d 5d8a 133d
000002e0: dab5 b83c bcb9 d0bc 48a7 f83c 8792 cd3c
000002f0: 17aa 823c 85a7 d6bc 52e1 5cbc 4246 733c
00000300: 34ba abbc 18b0 51ba ea96 c1bc 3e1d bdbc
00000310: fa5f 7abd c30b f2bc bc08 103d 4a88 823b
00000320: 8001 50ba 46b9 9e3b 51f0 a83c b223 1f3d
00000330: d38d 093d 5184 0cbc 4684 f3bb 1759 943c
00000340: ee93 113d e157 74bc 7469 833b 65b0 a639
00000350: e977 b135 eb0f b33c c798 43b9 6cd0 c93c
00000360: bf14 193c 0d2c 183b b0fe 173c 04e9 813c
00000370: 35a8 d13a 10a1 05b8 4833 f5b9 b52d 0dbd
00000380: b4d3 53bc 3de2 633c dd44 b23c 97d0 a83c
00000390: 555c 1f3d df6c a939 f547 a93c fb15 04b8
000003a0: 52c5 8e3a 1c31 94b9 6f20 a836 6ae9 4d3c
000003b0: 7268 363d a967 6cbb 540b 2dbb a998 213d
000003c0: f134 90bd 58c9 cdbb 9908 e33c 22a5 52ba
000003d0: 7b16 15bc 5a69 f6b9 fcff 8dbc f65d a6b5
000003e0: e52b fa3c d385 c03c db62 663d 306f 0739
000003f0: 7395 9538 c7cb 95bc ae12 a7bc 148e 44ba

bias f4 [4]
-0.0046718726 -0.0006251062 -0.018630313 -0.02253659
00000000: 8216 99bb 2bde 23ba 999e 98bc a89e b8bc
