estimators/knet/single_obs/velMSE_ep100_train4000_val1000_test10000_lr1e-03_wd1e-06_data_sr1e-01_q1e-04_r1e-03_j5_train[500,100]_val[100,100]_test[100,100].pt (torch, 154477 bytes, 40 tensors)

weight_ih_l0 f4 [48, 20]
-0.12313011 0.2164354 -0.038140167 0.22889918 -0.031982705 -0.1489234 0.006186751 0.077103324
0.004804778 0.11117681 -0.07084224 0.22864328 0.11261524 0.06373486 -0.21901438 -0.06159387
0.12628582 0.15623921 0.057053432 -0.007339924 -0.19320476 0.044178963 0.113287084 -0.16030514
0.14033064 -0.25236925 0.20863369 -0.070294574 0.13692665 -0.1220656 0.026100483 0.13921578
-0.21778578 -0.0996383 -0.17450526 -0.16723795 -0.2526552 0.2191033 -0.07861502 0.119896375
-0.14767486 -0.01935412 0.011500028 -0.10173038 0.16836882 0.095159836 0.15660809 -0.022853442
-0.017244952 -0.24088159 0.16570927 0.09245746 0.0052618873 -0.1197372 0.16648246 -0.24104226
-0.04938394 -0.24028483 -0.16416995 -0.13759188 0.13218047 0.04157598 0.21154888 -0.23039497
0.11486973 0.14867449 -0.040882267 -0.020403873 -0.058692764 -0.24743901 -0.0072574625 0.08747091
0.057645947 -0.14524291 0.17975836 -0.084315784 -0.03978886 0.16901855 -0.09564681 0.20685636
-0.06160824 -0.00685213 0.094852865 0.055788804 0.10167314 0.17992987 -0.14462972 -0.10209032
-0.056739256 -0.15387326 -0.10347285 -0.20464757 -0.066400066 -0.056097616 0.18237385 0.2415182
-0.052759953 0.10291045 0.023778804 -0.20411211 0.22132632 -0.05356945 -0.18599369 0.21310207
0.1670412 -0.15302296 0.2156 -0.06857271 -0.14251709 0.0668581 0.23710293 0.21157108
0.19849783 0.10651989 0.16247618 0.13007021 0.11495348 0.101589195 -0.06528041 0.21640188
-0.16920054 0.16312163 -0.05552698 -0.1133257 -0.06755763 -0.10700806 0.15052292 0.00027534898
-0.09107616 -0.2528624 -0.23947996 0.050006595 -0.0052454495 -0.06292401 -0.20690241 0.12877938
0.14039063 0.20762508 -0.0013787498 0.15011215 0.21305542 0.1882744 -0.031892415 -0.09617494
-0.2035728 0.053512268 0.1876832 0.09394198 -0.24117266 0.19350472 -0.011588736 0.07370916
-0.122732945 -0.0029323557 -0.007174873 -0.062080055 0.07668279 0.14034595 5.345441e-05 -0.116630025
-0.06198026 -0.19269143 -0.17822564 0.22781262 -0.11171113 -0.016725527 0.12732734 0.088701665
0.030991003 -0.14594288 0.18846264 0.13592134 -0.20476314 0.0077058515 -0.07696266 -0.11114925
-0.22662152 0.17035773 0.0002667801 0.13976693 0.17566332 0.09545147 -0.25567174 -0.21831644
0.15122148 0.09995504 -0.0069558383 -0.069238655 -0.1145432 0.08079513 -0.026999975 0.24327658
-0.16605775 0.11056686 0.111795366 0.1741514 -0.051891852 -0.05927153 -0.05644787 -0.0385348
0.111839436 0.25302264 0.17611451 0.10683048 -0.15127422 -0.23493831 -0.100805916 0.06374525
-0.12158064 0.15940726 -0.037983112 -0.012250658 -0.14899231 -0.0025800685 0.04164092 -0.105149515
-0.25919908 -0.061214708 -0.00027481187 0.12456173 -0.24857362 -0.044105288 0.031955097 -0.00035647294
-0.120043665 -0.055958077 -0.09602623 -0.066796 0.113971055 0.21841347 0.08054311 0.18284085
-0.22833048 0.07915709 -0.21590441 0.19505772 0.20371214 -0.09729685 -0.0002755364 -0.041710388
0.21480894 -0.15328799 0.15172362 0.15265182 -0.17504907 -0.12056158 0.12228056 -0.00017619507
0.085338615 -0.2072866 -0.2394633 -0.017559776 0.12217122 -0.02094021 0.17431562 -0.030154103
00000000: a42b fcbd 3ea1 5d3e dd38 1cbd 8c64 6a3e
00000010: 4c00 03bd 607f 18be 3bba ca3b 59e8 9d3d
00000020: 6671 9d3b abb0 e33d bc15 91bd 7721 6a3e
00000030: d2a2 e63d 6c87 823d 4e45 60be db49 7cbd
00000040: 1251 013e 2cfd 1f3e dcb0 693d bf83 f0bb
00000050: 78d7 45be 00f5 343d 0f03 e83d 0827 24be
00000060: d6b2 0f3e 8b36 81be 12a4 553e 9af6 8fbd
00000070: 8036 0c3e 87fd f9bd aed0 d53c 958e 0e3e
00000080: 3c03 5fbe 2a0f ccbd 82b1 32be 6d40 2bbe
00000090: 065c 81be 9e5c 603e e900 a1bd 3b8c f53d
000000a0: 1438 17be 888c 9ebc 9d6a 3c3c 0458 d0bd
000000b0: e068 2c3e 29e3 c23d df5d 203e 2437 bbbc
000000c0: 4945 8dbc aaa9 76be b1af 293e 565a bd3d
000000d0: e96b ac3b c738 f5bd 617a 2a3e c8d3 76be
000000e0: d046 4abd 3a0d 76be 2b1c 28be e3e4 0cbe
000000f0: 515a 073e 934b 2a3d 45a0 583e a9ec 6bbe
00000100: d240 eb3d 203e 183e 2a74 27bd 0626 a7bc
00000110: d367 70bd a760 7dbe 02d0 edbb f323 b33d
00000120: 281e 6c3d 8fba 14be 9312 383e c1ad acbd
00000130: a5f9 22bd 3313 2d3e 7ae2 c3bd 27d2 533e
00000140: ec58 7cbd d587 e0bb 3842 c23d cd82 643d
00000150: 023a d03d 893f 383e d019 14be bb14 d1bd
00000160: 6c67 68bd f490 1dbe 93e9 d3bd 228f 51be
00000170: c2fc 87bd 9dc6 65bd 36c0 3a3e 8c50 773e
00000180: d21a 58bd b7c2 d23d c4cb c23c c402 51be
00000190: 5ea3 623e a46b 5bbd 2175 3ebe 6e37 5a3e
000001a0: d90c 2b3e 0db2 1cbe 3fc6 5c3e d96f 8cbd
000001b0: 00f0 11be e6ec 883d 1ccb 723e 17a6 583e
000001c0: 0443 4b3e 1a27 da3d 2860 263e 2031 053e
000001d0: bb6c eb3d ff0d d03d bcb1 85bd 7498 5d3e
000001e0: e842 2dbe 5b09 273e 4270 63bd 4e17 e8bd
000001f0: a85b 8abd 0b27 dbbd ae22 1a3e b75c 9039
00000200: 2386 babd 2e77 81be 3c3a 75be b7d3 4c3d
00000210: 05e2 abbb 4ede 80bd 3ade 53be bede 033e
00000220: 90c2 0f3e ab9b 543e 2bb7 b4ba 00b7 193e
00000230: 332b 5a3e 01cb 403e 9fa1 02bd 5ef7 c4bd
00000240: 6375 50be ae2f 5b3d 0630 403e a764 c03d
00000250: f7f5 76be 1a26 463e afde 3dbc d4f4 963d
00000260: 695b fbbd c42c 40bb 321b ebbb a847 7ebd
00000270: de0b 9d3d d9b6 0f3e 3c34 6038 b9db eebd
00000280: 03df 7dbd e750 45be c880 36be b647 693e
00000290: cec8 e4bd f903 89bc 1962 023e 38a9 b53d
000002a0: d8e0 fd3c 0d72 15be 5afc 403e f72e 0b3e
000002b0: 6ead 51be 5e81 fc3b 999e 9dbd 38a2 e3bd
000002c0: 790f 68be 4272 2e3e 9ede 8b39 101f 0f3e
000002d0: 16e1 333e 0f7c c33d 68e7 82be 588e 5fbe
000002e0: ced9 1a3e 3ab5 cc3d cded e3bb ffcc 8dbd
000002f0: a095 eabd eb77 a53d 0d2f ddbc 7f1d 793e
00000300: 0b0b 2abe e170 e23d f8f4 e43d bf54 323e
00000310: 8d8c 54bd b4c6 72bd e235 67bd abd6 1dbd
00000320: 130c e53d 2f8c 813e 5d57 343e f0c9 da3d
00000330: a1e7 1abe ab93 70be 5573 cebd df8c 823d
00000340: 45ff f8bd a83b 233e 2e94 1bbd fcb6 48bc
00000350: 7191 18be 5e16 29bb ab8f 2a3d a158 d7bd
00000360: beb5 84be 46bc 7abd a014 90b9 381a ff3d
00000370: 158a 7ebe bfa7 34bd 59e3 023d fde4 bab9
00000380: 74d9 f5bd 4c34 65bd 66a9 c4bd 57cc 88bd
00000390: a869 e93d c8a7 5f3e c9f3 a43d a23a 3b3e
000003a0: 77cf 69be 1d1d a23d 0c16 5dbe 36bd 473e
000003b0: ea99 503e 9243 c7bd df75 90b9 83d8 2abd
000003c0: e0f6 5b3e 87f7 1cbe 705d 1b3e c250 1c3e
000003d0: 1040 33be fde8 f6bd 3b6e fa3d 01c1 38b9
000003e0: 03c6 ae3d f042 54be de35 75be 85d9 8fbc
000003f0: e834 fa3d ce8a abbc cb7f 323e bd05 f7bc

weight_hh_l0 f4 [48, 16]
-0.13060643 0.22964388 0.17672786 -0.15482551 -0.046782166 -0.0027425485 0.11058463 -0.019246291
-0.10207756 0.1667202 0.026466954 -0.10946123 0.16034518 0.017197799 0.018545544 0.06646027
-0.0697611 -0.069091275 0.17455225 -0.13530137 -0.0070992126 -0.23095012 0.03295167 0.13491172
-0.1592164 -0.11532607 0.120647 -0.15010944 -0.016483035 -0.1338046 0.01981114 -0.016409649
0.19268751 -0.18954377 0.136825 0.1417685 -0.16351788 -0.0052017546 0.019758541 -0.08025685
0.032872137 -0.15683682 -0.03323448 0.15992983 -0.1381337 -0.09317144 -0.22911136 -0.13040556
0.14597167 -0.008949288 -0.16811536 0.1857264 -0.23177439 -0.1395577 0.003404686 -0.193027
-0.118031286 -0.07631039 0.025720274 -0.18546842 0.19007635 0.12852198 0.042501427 0.1093271
0.1532659 -0.049192894 0.14114738 -0.07001384 0.26534018 -0.11407973 0.017004557 0.08569011
-0.07075572 -0.14536189 -0.095260695 0.16468382 0.04844673 -0.17778257 -0.22827214 0.009840779
0.1074882 -0.11419716 0.079071224 -0.0069991197 -0.18202755 -0.045431707 -0.23560512 0.19618209
0.022772463 0.13233897 -0.12365869 0.1921948 0.14103982 -0.21731354 -0.0016357675 -0.1909788
0.06772393 0.03591321 -0.06146402 0.18746997 -0.08157361 0.22424282 0.10333591 -0.02267282
-0.08954198 0.20006345 0.07225465 0.1948249 0.17538327 -0.08962461 -0.032362282 -0.04972236
-0.029785447 -0.027863111 -0.15828007 -0.09556542 0.11659881 -0.031936947 0.116303094 -0.09806613
0.18665215 -0.20544313 0.10786652 -0.20400159 0.16570029 -0.2121294 0.046886668 0.08325934
-0.12468385 -0.14823508 0.025319723 -0.15696588 -0.107190356 0.11509908 0.1777661 0.14627543
-0.10675545 -0.053044982 0.1946671 -0.0020093904 0.10550115 0.21074075 -0.25763956 0.20841798
-0.06914947 -0.2694321 -0.01450825 -0.06352854 -0.16885883 -0.24654974 0.13207813 0.2209899
0.045844674 -0.022528535 -0.029000234 0.07366738 -0.16982278 0.0017712633 -0.1251698 -0.1335075
0.11109652 -0.22726355 0.12325947 -0.06861838 0.008286345 0.18259071 -0.1655851 -0.04647475
-0.08911173 0.14939162 -0.1836668 0.15706009 0.26720017 0.16597441 0.13953604 0.17705292
-0.1965192 -0.00819717 0.17944477 0.16031522 0.13983634 0.08649282 0.19711804 0.16837834
0.1561378 0.16705301 0.0002510062 0.22022687 0.21286763 -0.17144695 -0.17694041 0.16839585
0.24650048 -0.09443135 -0.20876497 -0.21438824 0.14362773 0.070196 -0.1334 0.17502525
-0.1634643 0.14143133 0.006113931 -0.09511605 0.08423019 0.019201279 0.15035656 -0.12877642
0.17419823 -0.23442729 0.2396386 -0.196517 -0.00916962 0.022427373 -0.12967917 -0.22972621
0.075457856 0.122611456 -0.0092964 -0.252853 -0.08761835 -0.18446428 0.18072611 0.033210564
0.050318167 -0.031409 -0.101350516 -0.05643091 -0.02582973 -0.049225017 -0.104619615 -0.23138775
0.12322066 0.23260191 0.114320405 -0.12348102 0.05683608 -0.16641691 0.11807905 0.026483972
0.042220857 -0.07971515 -0.03271073 0.11859068 -0.11036597 -0.2540185 -0.14076293 -0.16438137
0.061738297 -0.13781247 0.12559412 -0.1949849 -0.24151771 0.04991481 0.08344646 0.102686524
00000000: b1bd 05be c427 6b3e 26f8 343e 948a 1ebe
00000010: a89e 3fbd 54bc 33bb 327a e23d 66aa 9dbc
00000020: 0a0e d1bd b3b8 2a3e 3ad1 d83c 362d e0bd
00000030: 8731 243e 66e2 8c3c d3ec 973c 521c 883d
00000040: e8de 8ebd ba7f 8dbd d3bd 323e 718c 0abe
00000050: 83a0 e8bb 307e 6cbe 55f8 063d 4c26 0a3e
00000060: a009 23be 1330 ecbd c615 f73d 4ab6 19be
00000070: 6e07 87bc 1304 09be f94a a23c 876d 86bc
00000080: e04f 453e c317 42be da1b 0c3e c32b 113e
00000090: 3b71 27be 7b73 aabb aadc a13c b45d a4bd
000000a0: efa4 063d d599 20be e120 08bd a5c4 233e
000000b0: ec72 0dbe abd0 bebd 2b9c 6abe 0989 05be
000000c0: 9979 153e 09a0 12bc 6f26 2cbe 102f 3e3e
000000d0: 4456 6dbe 37e8 0ebe 2721 5f3b dfa8 45be
000000e0: 63ba f1bd 9f48 9cbd 53b3 d23c 6feb 3dbe
000000f0: 60a3 423e 449b 033e fa15 2e3d e3e6 df3d
00000100: bcf1 1c3e 7d7e 49bd f088 103e 6b63 8fbd
00000110: abda 873e a2a2 e9bd 244d 8b3c 4c7e af3d
00000120: 60e8 90bd bfd9 14be 0a18 c3bd e0a2 283e
00000130: 1470 463d a20c 36be 2cc0 69be 383b 213c
00000140: c622 dc3d 33e0 e9bd 18f0 a13d df58 e5bb
00000150: 6e65 3abe 9916 3abd 7842 71be f5e3 483e
00000160: 518d ba3c de83 073e c440 fdbd b7ce 443e
00000170: be6c 103e 7187 5ebe 4067 d6ba f28f 43be
00000180: d8b2 8a3d bb19 133d b2c1 7bbd 21f8 3f3e
00000190: 1110 a7bd e99f 653e c7a1 d33d 5abc b9bc
000001a0: c961 b7bd 6fdd 4c3e 3ffa 933d 2e80 473e
000001b0: ac97 333e 1c8d b7bd 508e 04bd aca9 4bbd
000001c0: 9c00 f4bc 2e41 e4bc 2c14 22be ceb7 c3bd
000001d0: 5bcb ee3d 51d0 02bd 5130 ee3d e5d6 c8bd
000001e0: be21 3f3e af5f 52be 1fe9 dc3d cbe5 50be
000001f0: 56ad 293e 7338 59be 3c0c 403d df83 aa3d
00000200: 3f5a ffbd f0ca 17be 4f6b cf3c aabb 20be
00000210: 9e86 dbbd 11b9 eb3d 5108 363e 3ac9 153e
00000220: 9aa2 dabd b245 59bd d056 473e faaf 03bb
00000230: fd10 d83d 6ccc 573e 55e9 83be 866b 553e
00000240: 3d9e 8dbd 01f3 89be 03b4 6dbc 401b 82bd
00000250: 54e9 2cbe 8977 7cbe 7d3f 073e 2d4b 623e
00000260: a0c7 3b3d c38d b8bc e691 edbc ecde 963d
00000270: 06e6 2dbe bc29 e83a 832c 00be 31b6 08be
00000280: 9386 e33d c7b7 68be 766f fc3d cb87 8cbd
00000290: 73c3 073c 0ff9 3a3e 248f 29be 4f5c 3ebd
000002a0: 3680 b6bd 1efa 183e 2613 3cbe 5cd4 203e
000002b0: 76ce 883e 32f5 293e 89e2 0e3e 5c4d 353e
000002c0: 543c 49be 6c4d 06bc 5fc0 373e ac29 243e
000002d0: 4231 0f3e 2623 b13d 50d9 493e 5f6b 2c3e
000002e0: 96e2 1f3e f20f 2b3e 7b99 8339 2783 613e
000002f0: f9f9 593e ca8f 2fbe de2f 35be f66f 2c3e
00000300: 9f6a 7c3e 3965 c1bd 7cc6 55be 9788 5bbe
00000310: 2613 133e ecc2 8f3d 029a 08be d239 333e
00000320: 2f63 27be 60d3 103e 5f57 c83b 34cc c2bd
00000330: e180 ac3d 004c 9d3c 12f7 193e f7dd 03be
00000340: 0561 323e b50d 70be d263 753e c13b 49be
00000350: 2d3c 16bc 9cb9 b73c 9eca 04be 593d 6bbe
00000360: a689 9a3d b71b fb3d ed4f 18bc f375 81be
00000370: 4071 b3bd 34e4 3cbe 4410 393e cd07 083d
00000380: 6c1a 4e3d b9a6 00bd dc90 cfbd 1924 67bd
00000390: df98 d3bc 2ca0 49bd cf42 d6bd e9f0 6cbe
000003a0: 1d5b fc3d 322f 6e3e d120 ea3d 9ee3 fcbd
000003b0: f3cc 683d 3269 2abe 6ed3 f13d eaf4 d83c
000003c0: c7ef 2c3d b241 a3bd b0fb 05bd acdf f23d
000003d0: 8e07 e2bd b60e 82be 2824 10be 9753 28be
000003e0: 4ce1 7c3d b61e 0dbe bf9b 003e 1faa 47be
000003f0: 6b50 77be 7973 4c3d fae5 aa3d 504d d23d

bias_ih_l0 f4 [48]
0.010055762 0.014041455 -0.17537576 0.08636951 -0.12450588 -0.20928636 0.19523306 0.05453504
-0.06774654 0.2098874 0.010388389 0.10189391 -0.03700343 0.10579258 -0.2153393 0.1604452
-0.18865618 -0.20563683 0.0915722 -0.22712174 0.24913585 0.22227424 0.2604185 0.0050189677
0.18633726 0.11911665 0.037174683 0.13362004 0.22834244 0.20707013 -0.093181945 0.15172403
0.10719319 -0.19191676 0.16354445 0.1099397 -0.06766378 0.13392162 0.07055373 0.0662411
-0.018149586 0.058895323 0.12310218 0.18229517 0.029191049 0.039049447 0.22742324 -0.16749778
00000000: ecc0 243c 220e 663c b495 33be 7fe2 b03d
00000010: f0fc febd 2a4f 56be 2deb 473e 2260 5f3d
00000020: b3be 8abd b9ec 563e 1034 2a3c c1ad d03d
00000030: e990 17bd c8a9 d83d e881 5cbe bf4b 243e
00000040: 162f 41be 7692 52be 358a bb3d 9a92 68be
00000050: 781d 7f3e dc9b 633e 9355 853e 2776 a43b
00000060: 32cf 3e3e 6ef3 f33d 7b44 183d b1d3 083e
00000070: 9ad2 693e 310a 543e 2dd6 bebd 8b5d 1b3e
00000080: 1a88 db3d d485 44be 3278 273e 1128 e13d
00000090: 4f93 8abd c022 093e 797e 903d 6aa9 873d
000000a0: 71ae 94bc 393c 713d ff1c fc3d 96ab 3a3e
000000b0: 1122 ef3c 50f2 1f3d a3e1 683e 8a84 2bbe

bias_hh_l0 f4 [48]
-0.23186414 0.06723094 -0.15066703 0.10179674 -0.1668498 0.16112465 -0.020292908 -0.139603
0.08530059 0.18367946 0.052660454 -0.2393608 0.01091154 0.056688312 -0.022769071 0.22996122
0.14066564 0.24398194 0.22715978 0.016376061 0.036734752 0.033966813 0.12704004 -0.19071408
0.12116117 0.21478416 -0.04827353 -0.10225277 -0.2270795 -0.13655174 -0.07444688 0.039795823
-0.06460333 -0.21003352 -0.06443125 -0.09549805 -0.044724863 0.08664699 0.09303688 0.12625164
0.066422835 0.2143703 0.060782105 -0.13974416 0.07669306 0.055847973 -0.12424834 -0.004064284
00000000: cb6d 6dbe 60b0 893d 7548 1abe cf7a d03d
00000010: adda 2abe dcfd 243e 503d a6bc 17f4 0ebe
00000020: 13b2 ae3d 7816 3c3e 7db2 573d ff1a 75be
00000030: 51c6 323c 0132 683d 3486 babc f47a 6b3e
00000040: a70a 103e 67d6 793e 939c 683e 1727 863c
00000050: 2e77 163d c920 0b3d c916 023e 8d4a 43be
00000060: 5923 f83d 61f0 5b3e 77ba 45bd e669 d1bd
00000070: 8787 68be 38d4 0bbe 9b77 98bd f200 233d
00000080: c04e 84bd 0713 57be 88f4 83bd 7b94 c3bd
00000090: 6b31 37bd fa73 b13d 1f8a be3d 1c48 013e
000000a0: b208 883d e383 5b3e a8f6 783d 1819 0fbe
000000b0: 4011 9d3d d8c0 643d ea75 febd af2d 85bb

weight_ih_l0 f4 [48, 36]
0.081245884 -0.04215425 0.0011072784 -0.24757461 -0.0860935 0.20115097 0.085817635 0.13870732
-0.2200419 -0.06620492 -0.2055462 0.1914112 0.25776416 -0.07267696 0.018427998 0.11265896
-0.16126145 -0.11669922 -0.1262153 -0.18797164 -0.19231154 -0.09819661 0.111195125 0.12548503
0.1552267 0.08863156 0.04522522 0.13928501 -0.03221047 -0.17060623 -0.06579302 -0.21811895
-0.0057293344 0.11731335 0.10640704 0.1113453 0.19908787 0.18432191 -0.15602861 0.26017582
0.18119955 0.08704045 0.06085296 -0.21367443 -0.13516338 -0.14951096 -0.17930491 0.033536933
0.0900599 0.111421764 -0.04175214 -0.1205416 -0.21403185 0.08179292 0.08390234 0.0007160179
-0.15214562 -0.11231486 0.13098787 0.12945916 0.1975175 0.101450205 0.13648063 0.060148656
0.027130777 0.058498826 0.19076715 0.11621958 -0.17999965 -0.073325135 -0.017149897 -0.101238936
-0.18384144 0.13932653 0.21642289 0.24031548 -0.18955976 0.2362385 -0.015888875 -0.22519843
0.15709165 -0.24378058 0.18892567 0.19586502 -0.10229485 -0.13684574 0.2268143 0.18136597
0.10070821 -0.17995833 0.225406 0.22381002 -0.16774039 -0.05621348 0.008548409 0.108441755
0.021731697 0.10488826 -0.011919872 0.0012663091 0.055346396 0.025569301 -0.05162803 0.10914711
0.06675395 -0.12744574 0.014297023 -0.006993688 0.08770934 0.0881547 0.03163627 0.06058407
0.2064946 0.03043012 -0.20349206 0.11825149 0.22384942 -0.24689555 0.10353397 0.1797297
0.03073248 -0.18447503 -0.15190522 -0.21812874 0.0069260965 -0.1474138 -0.041894745 0.09193669
0.17315355 0.004162225 -0.106557995 -0.12390891 -0.23423062 0.096997775 0.008504449 -0.05119689
-0.09460857 -0.20292327 -0.23979753 -0.18228512 0.12019785 -0.11794253 4.4544624e-05 -0.13601962
0.09152071 -0.13716419 0.1750175 -0.01365992 0.18564546 -0.08618959 0.2289971 0.01892715
0.04472665 0.12713632 0.1855431 -0.13596265 -0.06569452 -0.18169437 -0.15141088 0.1524846
0.095542066 -0.18188906 -0.059125613 0.10066649 -0.1604893 0.08304354 -0.06343229 -0.06853637
-0.04587382 -0.20721774 0.17476653 0.13373922 -0.10472845 -0.15621237 -0.24198747 0.13043454
-0.15860784 -0.11277428 -0.109947 -0.14625944 0.26485538 0.032421123 0.13895567 -0.021643916
0.10651968 0.13117522 -0.19125997 -0.0819479 -0.13597205 0.13722232 0.06477505 0.19806254
-0.22131874 -0.22727823 0.1839002 0.06018068 -0.025632234 0.098159954 0.011335846 0.0048684445
-0.061866015 0.062203772 -0.104945436 -0.2011772 0.22565022 0.1157197 0.079116575 -0.18183072
0.1137118 -0.0119345235 -0.22369844 -0.05271745 0.041894495 -0.030831108 4.352009e-05 0.15565157
-0.11037499 -0.22500128 0.110165745 0.11898482 -0.11568378 -0.026817324 -0.009948567 0.04924013
-0.08366886 -0.06892415 0.1612961 -0.1595345 -0.01978657 -0.10597285 -0.0010245853 -0.17513357
0.029796181 -0.05030472 -0.13919637 -0.113311686 -0.21867888 -0.028835617 -0.22964102 0.051352046
-0.1718678 -0.19484994 0.1890487 -0.24034311 0.1527387 0.2426256 0.22804771 -0.095924094
-0.13274723 -0.12244343 -0.06326072 -0.22475402 0.20560287 0.06913386 -0.060853563 0.11782166
00000000: 3e64 a63d efa9 2cbd 1922 913a 3384 7dbe
00000010: ca51 b0bd 85fa 4d3e 28c1 af3d 4b09 0e3e
00000020: aa52 61be 7296 87bd b47a 52be 4c01 443e
00000030: aaf9 833e a8d7 94bd 50f6 963c beb9 e63d
00000040: b921 25be 0000 efbd 953e 01be a37b 40be
00000050: 51ed 44be 4e1b c9bd 45ba e33d 267f 003e
00000060: bff3 1e3e 7784 b53d 153e 393d bba0 0e3e
00000070: 20ef 03bd 66b3 2ebe 7ebe 86bd 935a 5fbe
00000080: 24bd bbbb fb41 f03d efeb d93d 0109 e43d
00000090: b1dd 4b3e e2be 3c3e f7c5 1fbe c435 853e
000000a0: 608c 393e 4342 b23d f440 793d 78cd 5abe
000000b0: 4568 0abe 6719 19be b59b 37be 065e 093d
000000c0: 5371 b83d 1831 e43d 4b04 2bbd 84de f6bd
000000d0: 2a2b 5bbe 0c83 a73d fdd4 ab3d 26b3 3b3a
000000e0: 10cc 1bbe 5505 e6bd af21 063e f190 043e
000000f0: 0742 4a3e 20c5 cf3d 94c1 0b3e 705e 763d
00000100: 5d41 de3c 779c 6f3d 7758 433e 8804 ee3d
00000110: d451 38be 7d2b 96bd f17d 8cbc 5c56 cfbd
00000120: ee40 3cbe 9dab 0e3e f69d 5d3e 4315 763e
00000130: f41b 42be 81e8 713e 6329 82bc 6b9a 66be
00000140: a2dc 203e 9ea1 79be bb75 413e d790 483e
00000150: f67f d1bd 4a21 0cbe 0242 683e 00b8 393e
00000160: 1b40 ce3d ff46 38be d5d0 663e 742e 653e
00000170: 23c4 2bbe 1b40 66bd a00e 0c3c b616 de3d
00000180: ac06 b23c a8cf d63d 914b 43bc 48fa a53a
00000190: e7b2 623d b676 d13c ea77 53bd 8588 df3d
000001a0: 4cb6 883d 2381 02be 103e 6a3c 4f2b e5bb
000001b0: f4a0 b33d 748a b43d 0995 013d 0027 783d
000001c0: 5273 533e 9648 f93c 3960 50be d62d f23d
000001d0: c838 653e 30d2 7cbe 9e09 d43d 100b 383e
000001e0: afc2 fb3c 06e7 3cbe 0b8d 1bbe 245d 5fbe
000001f0: 4ff4 e23b a5f3 16be d399 2bbd 4e49 bc3d
00000200: 2a4f 313e 4663 883b 143b dabd f4c3 fdbd
00000210: 27da 6fbe c5a6 c63d 3f56 0b3c d5b3 51bd
00000220: 23c2 c1bd 1ecb 4fbe 7c8d 75be f3a8 3abe
00000230: 4a2a f63d da8b f1bd 6dd5 3a38 ba48 0bbe
00000240: 366f bb3d c574 0cbe ca37 333e dbcd 5fbc
00000250: d819 3e3e 2b84 b0bd 377e 6a3e 1c0d 9b3c
00000260: 4b33 373d 0630 023e 03ff 3d3e cb39 0bbe
00000270: d98a 86bd 170e 3abe 740b 1bbe ec24 1c3e
00000280: 8fab c33d 2041 3abe b32d 72bd 3c2a ce3d
00000290: 4f57 24be bb12 aa3d cae8 81bd cc5c 8cbd
000002a0: 30e6 3bbd e330 54be fff5 323e eff2 083e
000002b0: df7b d6bd 23f6 1fbe 90cb 77be a290 053e
000002c0: 186a 22be 34f6 e6bd e52b e1bd 09c5 15be
000002d0: 209b 873e 03cc 043d 654a 0e3e 954e b1bc
000002e0: fd26 da3d cc52 063e a7d9 43be 4dd4 a7bd
000002f0: 423c 0bbe 0284 0c3e c8a8 843d e8d0 4a3e
00000300: 61a1 62be a0bb 68be 5650 3c3e 0480 763d
00000310: b1fa d1bc 1608 c93d fcb9 393c 7987 9f3b
00000320: 3867 7dbd 62c9 7e3d a2ed d6bd 6501 4ebe
00000330: da10 673e 73fe ec3d df07 a23d d531 3abe
00000340: bbe1 e83d 0589 43bc 3411 65be 41ee 57bd
00000350: 9099 2b3d 8591 fcbc 5789 3638 2063 1f3e
00000360: 480c e2bd bc66 66be 949e e13d 50ae f33d
00000370: 9eeb ecbd 01b0 dbbc 50ff 22bc 05b0 493d
00000380: 945a abbd 1b28 8dbd ce2a 253e 035d 23be
00000390: 7217 a2bc 4b08 d9bd 614b 86ba 3756 33be
000003a0: 1f17 f43c 520c 4ebd 7e89 0ebe f50f e8bd
000003b0: 5bed 5fbe ac38 ecbc 0427 6bbe 8656 523d
000003c0: 1dfe 2fbe be86 47be fb95 413e 811c 76be
000003d0: 8967 1c3e d872 783e 5785 693e da73 c4bd
000003e0: e4ee 07be 9fc3 fabd d68e 81bd eb25 66be
000003f0: 8f89 523e 0e96 8d3d 9641 79bd 7c4c f13d

weight_hh_l0 f4 [48, 16]
-0.2394203 0.08831906 0.09743704 -0.14292355 0.057389278 0.10281976 -0.13989422 0.071571074
-0.0353072 0.09237119 -0.008573082 -0.104307316 0.15118079 0.06594859 0.007917027 -0.00082475663
-0.2274215 -0.19128916 0.075667016 0.15990688 -0.14257117 0.15486516 0.00013081802 -0.06919023
-0.122028716 0.055544436 0.12869903 0.012264627 0.13016576 0.12699266 -0.013219585 0.015084194
-0.21268497 0.15024081 0.015493156 -0.16763777 -0.16154835 -0.1517285 -0.15818447 -0.05148592
-0.09385395 0.012174792 0.00026608838 0.14645514 -0.006183819 -0.10851483 -0.07015576 -0.062719725
0.12979682 -0.18018316 -0.05190874 -0.24466963 0.13388832 0.0633876 0.020306226 -0.12205438
-0.20012103 0.11547416 -0.085816585 0.07582344 -0.08411108 -0.028820442 0.08661182 -0.1079762
-0.050714195 0.07324642 0.14826947 0.040806666 -0.008597508 0.11726055 -0.00020816867 0.015486723
0.022446897 0.20775779 -0.07802417 -0.010471296 0.0016138729 -0.05706308 0.0384429 4.3880867e-05
0.10121755 0.06659006 0.16516457 0.14337502 0.023319032 0.2032047 5.9341346e-05 4.861383e-05
0.019683406 0.03229731 -0.038543228 -0.20480937 0.0002532718 0.0003341091 0.10546194 0.01188492
0.20791192 0.09888912 -0.15421602 0.16461901 -0.15167184 0.21778387 0.032024704 -3.2195978e-05
0.20435697 0.1270628 0.013609591 -0.24942476 -0.033224568 0.082407564 -0.06926075 -0.00091245055
-0.0495384 0.101512715 0.15508534 -0.12973996 -0.0062578167 0.03905784 -0.03194385 0.04663315
0.2291204 -0.11780567 0.023063114 -0.05000158 -0.11823294 -0.061051246 0.0134206265 0.09020867
0.13916405 0.06126245 0.00015036181 0.05393521 -0.121232055 -0.11476777 0.13452776 6.6833825e-05
0.0016362634 -0.08534155 -0.11999132 0.10820124 6.469737e-05 0.019067066 -0.0009976969 0.055639975
0.009713159 0.15338878 0.118451774 0.05354254 -0.006234058 -0.23808652 0.024963245 -0.05494611
0.1582774 0.14306979 0.011032136 -0.16256851 -0.07899895 -0.12808783 -0.08906179 -0.0007968342
0.19196926 0.19424641 -0.21163335 -0.11447748 0.054433063 0.15791056 1.2438832e-05 -0.10034839
0.17658861 0.048427068 0.09289457 0.17498685 -0.10748574 -0.14356314 0.11481125 -6.518528e-05
-0.064460814 -0.03244103 0.04249038 0.21029633 0.017282309 -0.072733924 -0.07978259 -0.06118825
0.1921335 0.097001806 0.11276786 0.047252785 0.10357592 0.07326031 -0.15995897 0.11547168
0.15001525 0.048407514 0.07460276 0.16886413 -0.15559104 -0.02485002 -9.617347e-05 0.14076735
-0.005413466 0.14098507 8.159871e-05 0.24343315 -0.05057144 -0.026997002 -0.012167743 -0.05574962
0.09919148 -0.026645672 -0.14968713 -0.16392389 0.08808779 0.13759884 -0.12894358 0.010975628
-0.16892038 -0.2337281 -0.0650696 -0.024515284 -0.03630513 0.02542331 -0.11094536 1.5794412e-05
0.096338995 -0.08453062 -0.11396834 -0.06885162 0.14240126 0.09952656 -0.007160978 0.1420531
0.041213844 0.07926402 -0.0013492451 0.05812218 1.0793417e-06 0.022305429 0.13731873 0.026916023
-0.14016151 0.16678247 0.19424826 -0.10035324 0.017307647 0.011702837 -0.0044744527 -0.0012103259
-0.054684687 -0.15848452 0.1406433 -0.20322505 -0.08380598 -0.0010085385 -0.032257788 -0.0034267425
00000000: 982a 75be a0e0 b43d 128d c73d 8d5a 12be
00000010: 0511 6b3d 2b93 d23d 6e40 0fbe db93 923d
00000020: 489e 10bd 1b2d bd3d 1d76 0cbc 139f d5bd
00000030: 23cf 1a3e 0e10 873d 6bb6 013c 7b34 58ba
00000040: 2fe1 68be 4ee1 43be 4ff7 9a3d a1be 233e
00000050: 2dfe 11be f994 1e3e 322c 0939 9bb3 8dbd
00000060: 31ea f9bd 9082 633d aec9 033e 93f1 483c
00000070: 2c4a 053e 5d0a 023e f596 58bc b223 773c
00000080: 17ca 59be bad8 193e 02d7 7d3c 3ca9 2bbe
00000090: ee6c 25be b75e 1bbe 1cfb 21be e6e2 52bd
000000a0: 8036 c0bd c778 473c c781 8b39 56f8 153e
000000b0: a2a1 cabb 063d debd d3ad 8fbd 3373 80bd
000000c0: 75e9 043e ef81 38be 429e 54bd ad8a 7abe
000000d0: 051a 093e 5cd1 813d 3e59 a63c a6f7 f9bd
000000e0: 87ec 4cbe b77d ec3d 9bc0 afbd 5249 9b3d
000000f0: 6e42 acbd d918 ecbc 8a61 b13d a022 ddbd
00000100: b0b9 4fbd 3802 963d f4d3 173e e424 273d
00000110: 90dc 0cbc 4d26 f03d da47 5ab9 06bc 7d3c
00000120: 8ee2 b73c 75be 543e 23cb 9fbd cc8f 2bbc
00000130: 9788 d33a faba 69bd 4d76 1d3d b90c 3838
00000140: 264b cf3d 5f60 883d e720 293e e7d0 123e
00000150: 8e07 bf3c e514 503e 49e5 7838 b4e6 4b38
00000160: 183f a13c 2f4a 043d 81df 1dbd 8cb9 51be
00000170: 91c9 8439 5d2b af39 6efc d73d f8b8 423c
00000180: dde6 543e 6186 ca3d ceea 1dbe e391 283e
00000190: dd4f 1bbe bc02 5f3e 562c 033d 2b0a 07b8
000001a0: f442 513e c01c 023e c3fa 5e3c 3469 7fbe
000001b0: 7c16 08bd 4cc5 a83d 95d8 8dbd 8531 6fba
000001c0: c7e8 4abd e6e5 cf3d b1ce 1e3e 8dda 04be
000001d0: 5f0e cdbb 1dfb 1f3d 8ed7 02bd 6702 3f3d
000001e0: 8a9e 6a3e 1944 f1bd dbee bc3c 75ce 4cbd
000001f0: 1d24 f2bd df10 7abd 30e2 5b3c 53bf b83d
00000200: 0581 0e3e 56ee 7a3d 71aa 1d39 2beb 5c3d
00000210: 8348 f8bd 5d0b ebbd a5c1 093e 2329 8c38
00000220: e477 d63a 8dc7 aebd 02be f5bd 9d98 dd3d
00000230: 23ae 8738 8932 9c3c 27c5 82ba bee6 633d
00000240: f123 1f3c f311 1d3e d896 f23d 6c4f 5b3d
00000250: 1247 ccbb f4cc 73be b87f cc3c 2c0f 61bd
00000260: 7913 223e e380 123e 22c0 343c 5c78 26be
00000270: 34ca a1bd 7529 03be 0766 b6bd a3e2 50ba
00000280: 9793 443e 88e8 463e 6ab6 58be 2b73 eabd
00000290: 34f5 5e3d 4eb3 213e 60b0 5037 7583 cdbd
000002a0: a5d3 343e 765b 463d 823f be3d c12f 333e
000002b0: 7c21 dcbd 3702 13be 2922 eb3d 15b4 88b8
000002c0: 0804 84bd e3e0 04bd 650a 2e3d ec57 573e
000002d0: a193 8d3c 86f5 94bd 0e65 a3bd 88a0 7abd
000002e0: a5be 443e e2a8 c63d d6f2 e63d 238c 413d
000002f0: 9d1f d43d 8009 963d 49cc 23be 6b7c ec3d
00000300: 999d 193e f546 463d 55c9 983d b8ea 2c3e
00000310: 4253 1fbe 4592 cbbc bdb0 c9b8 5125 103e
00000320: 7263 b1bb 645e 103e f91f ab38 8a46 793e
00000330: 0024 4fbd d128 ddbc 375b 47bc b759 64bd
00000340: e724 cb3d 0648 dabc 9547 19be aadb 27be
00000350: 5f67 b43d b6e6 0c3e c909 04be 1fd3 333c
00000360: 77f9 2cbe 6b56 6fbe 3643 85bd 47d4 c8bc
00000370: b0b4 14bd 8c44 d03c 5237 e3bd 3e7e 8437
00000380: 614d c53d 641e adbd 3c68 e9bd 1402 8dbd
00000390: a3d1 113e 95d4 cb3d a3a6 eabb 5e76 113e
000003a0: d9cf 283d 2d55 a23d 27d9 b0ba 8611 6e3d
000003b0: e6dd 9035 e0b9 b63c 489d 0c3e fe7e dc3c
000003c0: 8086 0fbe 06c9 2a3e 04e9 463e 0086 cdbd
000003d0: c4c8 8d3c 42bd 3f3c 6e9e 92bb cca3 9eba
000003e0: 0dfd 5fbd c449 22be cc04 103e 3a1a 50be
000003f0: 78a2 abbd f030 84ba be20 04bd 3393 60bb

bias_ih_l0 f4 [48]
0.06320934 -0.24186929 0.12936187 -0.0902096 -0.17716923 0.0068829204 -0.23479278 0.18435931
-0.034736045 0.20151879 -0.1525638 -0.0033088194 0.08158067 0.09411064 0.004843416 -0.2587069
-0.01033226 -0.026896304 0.10436607 -0.0456489 -0.15408972 -0.2252359 0.18112281 0.06444687
-0.0364507 -0.23054837 -0.058226634 -0.2475455 0.17634146 -0.17490582 -0.033972543 -0.17693867
0.08572404 0.25297993 -0.06910052 -0.16725242 -0.13048585 0.0030359554 0.054948427 -0.19935846
-0.062302038 -0.062725425 -0.18203549 0.04757652 -0.034202386 0.1488266 -0.21912296 0.009438198
00000000: e673 813d 95ac 77be 7077 043e d0bf b8bd
00000010: da6b 35be 1f8a e13b 856d 70be b0c8 3c3e
00000020: 6247 0ebd f15a 4e3e af39 1cbe c7d8 58bb
00000030: c413 a73d 14bd c03d 85b5 9e3b 3b75 84be
00000040: a448 29bc a355 dcbc e1bd d53d 57fa 3abd
00000050: b2c9 1dbe 3da4 66be 4278 393e b8fc 833d
00000060: 544d 15bd df14 6cbe 0d7f 6ebd 917c 7dbe
00000070: db92 343e 831a 33be cb26 0bbd 692f 35be
00000080: 1690 af3d 9686 813e 9384 8dbd 3844 2bbe
00000090: 159e 05be e1f6 463b 9a11 613d a024 4cbe
000000a0: 6c30 7fbd 3076 80bd 8367 3abe 99df 423d
000000b0: cd17 0cbd 0066 183e c561 60be aca2 1a3c

bias_hh_l0 f4 [48]
-0.085055046 0.2125483 -0.1967445 0.03802941 0.03798142 0.012585992 -0.23422469 -0.06654181
0.029319141 -0.15135585 0.034065206 -0.14160554 0.07172319 0.16094942 -0.05745895 -0.11742056
-0.11519937 -0.19486347 0.025786875 -0.23098081 0.10256268 -0.109490305 -0.23494862 0.0039338004
0.18619734 0.22442898 0.047863007 0.23908675 0.0042148815 -0.21500963 0.192985 -0.060724113
-0.1916279 -0.14990738 0.016541928 0.18180755 -0.067479484 0.10334343 0.0944517 0.17086385
0.0023807336 0.16503304 -0.07129418 -0.032162547 0.22755077 0.22075903 0.061212916 0.12018018
00000000: 5731 aebd 43a6 593e 6477 49be bac4 1b3d
00000010: 6892 1b3d 7a35 4e3c 99d8 6fbe 1347 88bd
00000020: b22e f03c 07fd 1abe f587 0b3d 0b01 11be
00000030: 9ce3 923d edcf 243e 135a 6bbd 317a f0bd
00000040: a6ed ebbd 4a8a 47be ff3e d33c 3c86 6cbe
00000050: 620c d23d 743c e0bd 5f96 70be 1ce7 803b
00000060: 84aa 3e3e b6d0 653e 000c 443d 28d3 743e
00000070: fd1c 8a3b 7c2b 5cbe dc9d 453e d9b9 78bd
00000080: 1b3a 44be 5281 19be f082 873c c22b 3a3e
00000090: af32 8abd b8a5 d33d e56f c13d eff6 2e3e
000000a0: 1506 1c3b 6cfe 283e af02 92bd e0bc 03bd
000000b0: 1203 693e a80e 623e 65ba 7a3d 0721 f63d

weight_ih_l0 f4 [3, 11]
0.110400945 0.77846044 -0.9024663 -0.7425855 0.7240983 0.5363213 0.683038 0.8468037
-0.47543392 0.9527679 0.968355 -0.8913901 -0.8278559 -0.626493 0.72156805 -0.18318708
0.7446093 0.5736218 0.71038777 -0.8858319 -0.54861385 0.34084052 -0.56205815 -0.44405705
0.5577233 -0.9853364 -0.12915769 -0.021315986 -0.34553525 -0.7028424 0.37659025 0.1491962
-0.8779057
00000000: e419 e23d 2f49 473f 0808 67bf 151a 3ebf
00000010: 825e 393f 5a4c 093f 94db 2e3f 21c8 583f
00000020: 136c f3be 99e8 733f 1de6 773f 2432 64bf
00000030: 5dee 53bf d861 20bf afb8 383f 6595 3bbe
00000040: b79e 3e3f e1d8 123f f9db 353f e1c5 62bf
00000050: f571 0cbf a682 ae3e 0be3 0fbf 725b e3be
00000060: f4c6 0e3f 023f 7cbf ea41 04be dd9e aebc
00000070: ffe9 b0be 7bed 33bf 70d0 c03e e3c6 183e
00000080: 6ebe 60bf

weight_hh_l0 f4 [3, 1]
0.16450688 -0.086385794 -0.8979933
00000000: 7e74 283e 09eb b0bd e4e2 65bf

bias_ih_l0 f4 [3]
-0.5925562 -0.98824537 -0.09505467
00000000: c3b1 17bf a6fd 7cbf 06ac c2bd

bias_hh_l0 f4 [3]
-0.20774634 0.7582614 -0.13371225
00000000: 75bb 54be 6b1d 423f ddeb 08be

weight f4 [1, 16]
-0.023389807 0.20512655 -0.0039716787 0.12310078 0.20509666 -0.05461768 0.1982702 0.21712092
-0.17063087 0.11608106 -0.030638928 0.22251979 -0.08971749 -0.10921718 0.018809821 0.11199055
00000000: fb9b bfbc b20c 523e db24 82bb 431c fc3d
00000010: dc04 523e cab6 5fbd 5807 4b3e f254 5e3e
00000020: dcb9 2ebe e8bb ed3d 7dfe fabc 3adc 633e
00000030: cebd b7bd 42ad dfbd 0e17 9a3c 4d5b e53d

weight f4 [680, 17]
-0.1915193 -0.051964242 -0.03510863 -0.10533792 -0.176171 -0.0033883278 -0.1942536 -0.083510704
0.12199597 0.008561093 0.17180496 0.20170741 -0.019340565 -0.020000504 0.2210593 0.09064491
0.13334328 -0.24841522 -0.042359885 -0.14103074 0.097199865 -0.004843735 0.13347083 0.05306325
-0.10543061 0.10595588 0.10954471 -0.25301355 -0.08154559 0.06593095 0.17524576 -0.11017019
-0.057445873 -0.19895175 -0.12609488 0.011979218 -0.11863944 0.15146306 0.06894539 -0.014712465
-0.030187253 -0.0143326 -0.00018546294 0.0045156693 -0.13274504 0.004095376 -0.13858306 -0.07314578
-0.027744768 -0.11470638 -0.019271739 0.00022981051 -0.03014052 -0.087330654 0.11969517 -0.084906176
-0.03283163 5.1552848e-05 0.108230196 0.07109779 -0.12864828 -0.0054861135 -0.05283382 0.029006379
-0.0025010658 -6.2644496e-05 -0.110360846 -3.9841278e-05 -0.22168078 0.15544297 0.0019819657 -0.057368424
-0.09645659 -0.17552593 0.10640374 -0.12841664 -0.036259085 -0.0609963 -0.16231683 0.17534487
0.014889184 -0.18122907 -0.04749008 -0.15952486 -0.14760755 0.0510667 -0.01564967 0.033785634
0.17851365 -0.1328334 -0.043797337 0.03692479 -0.17755483 -0.13018455 -0.22350892 0.018113818
-0.19135952 -0.090303674 -0.11958036 -0.16384324 0.24188897 0.14248456 -0.0980445 -0.093422145
-0.16130142 -0.04994739 -0.22262385 -0.03665332 -0.0728281 -0.20631664 -0.13422705 -0.09094811
-0.24020019 -0.13927397 -0.15869692 0.18813992 -0.23266718 -0.09403966 -0.22635514 -0.16448432
-0.0033507564 -0.11690705 0.12937966 -0.023243215 -0.23146234 0.105578 -0.06281686 -0.110069804
-0.09885637 -0.13849688 0.10523078 0.029988088 -0.2200251 -0.17071404 -0.018199349 0.009706889
-0.09383351 0.06018405 0.07144653 0.014412249 0.007971013 -0.051121898 0.0001429235 -0.0730879
-0.08424419 -0.07749302 0.076550774 0.05081703 -0.14197245 -0.00019293407 -0.026939468 -0.0026819913
0.029600352 0.18506116 0.03946249 0.12488314 0.06714157 0.018920897 0.088934064 -0.070134014
0.11867168 -0.15577276 0.0043698386 0.04323674 0.22084717 0.10449778 0.039041184 -0.05883717
0.22128624 0.11089602 0.09591439 0.15118258 0.08832289 0.064228565 0.101185486 -0.06427168
0.04054113 2.7415426e-05 0.03773414 -0.14440395 -0.12793337 -0.037163384 -0.04055698 0.01789331
0.006823539 -2.9078412e-05 1.8456433e-06 0.07877573 0.211807 -0.16411948 -0.20112635 0.1392941
-0.15484518 -0.13678242 0.15614296 -0.17013034 0.16434848 0.12972528 0.15399161 -0.22131227
-0.074712254 -0.12566991 0.09747024 0.03393946 -0.01949209 -0.122949496 -0.055492483 0.23782654
-0.020867595 -0.07164785 -0.07006452 -0.0531437 -0.23397332 0.15377292 -0.09833137 -0.14149018
-0.18895009 -0.043275874 -0.17978573 -0.12641251 -0.18856841 0.15439631 0.029784644 -0.09060874
-0.13535272 -0.011383735 0.15679526 -0.06302765 -0.058589622 -0.16868527 0.04317055 -0.023317404
0.1929044 0.1670689 0.00043748136 -0.0066869045 0.08415981 -0.08106395 0.0037043057 -0.13516803
-0.1377521 0.09416096 -0.028558157 -0.12822701 -0.07601143 -0.038240608 -0.02158823 0.020875111
-1.1860068e-06 0.014832885 6.400503e-05 -0.115233146 0.11162769 -0.10687859 0.14633724 -0.1686113
00000000: a31d 44be 75d8 54bd 11ce 0fbd 68bb d7bd
00000010: 2c66 34be b50e 5ebb 6aea 46be a907 abbd
00000020: 06d9 f93d d443 0c3c a4ed 2f3e 638c 4e3e
00000030: 1b70 9ebc 19d8 a3bc 5e5d 623e 0aa4 b93d
00000040: 248b 083e 8f60 7ebe 8f81 2dbd 5d6a 10be
00000050: b910 c73d 32b8 9ebb 94ac 083e da58 593d
00000060: 01ec d7bd 65ff d83d fa58 e03d fe8a 81be
00000070: 6001 a7bd ce06 873d a073 333e e9a0 e1bd
00000080: 5d4c 6bbd 02ba 4bbe 041f 01be 7b44 443c
00000090: 3cf9 f2bd 2219 1b3e 3e33 8d3d 8d0c 71bc
000000a0: 424b f7bc 48d3 6abc d478 42b9 2ef8 933b
000000b0: 51ee 07be 8132 863b b8e8 0dbe 74cd 95bd
000000c0: ff48 e3bc 2eeb eabd c4df 9dbc 4af9 7039
000000d0: 40e9 f6bc 6ada b2bd be22 f53d 4ae3 adbd
000000e0: 767a 06bd 733a 5838 cba7 dd3d b89b 913d
000000f0: 60bc 03be dbc4 b3bb 4768 58bd c99e ed3c
00000100: ece8 23bb 0260 83b8 de04 e2bd 3f1b 27b8
00000110: 4900 63be 712c 1f3e dee3 013b 27fb 6abd
00000120: 088b c5bd 12bd 33be 34ea d93d a77f 03be
00000130: 6884 14bd 42d7 79bd 6236 26be 9b8d 333e
00000140: c4f1 733c 1d94 39be f584 42bd 7c5a 23be
00000150: 6f26 17be 512b 513d bd33 80bc ce62 0a3d
00000160: 48cc 363e 7b05 08be d664 33bd 733e 173d
00000170: efd0 35be 194f 05be 86df 64be 6e63 943c
00000180: c0f3 43be 22f1 b8bd 8ce6 f4bd 86c6 27be
00000190: beb1 773e 79e7 113e 8ecb c8bd 1c54 bfbd
000001a0: 332c 25be a295 4cbd 82f7 63be cb21 16bd
000001b0: e626 95bd ab44 53be d172 09be 0143 babd
000001c0: 0af7 75be d69d 0ebe 7281 22be c0a7 403e
000001d0: 4e40 6ebe de97 c0bd a4c9 67be 946e 28be
000001e0: 5d98 5bbb f76c efbd 1a7c 043e 8e68 bebc
000001f0: 7704 6dbe 4739 d83d 20a6 80bd 476c e1bd
00000200: 3575 cabd 20d2 0dbe 3c83 d73d 94a9 f53c
00000210: 434e 61be a9cf 2ebe cd16 95bc a509 1f3c
00000220: c92b c0bd 8d83 763d 8f52 923d 5b21 6c3c
00000230: da98 023c 3265 51bd bcdd 1539 1caf 95bd
00000240: 3888 acbd a9b4 9ebd a7c6 9c3d 8525 503d
00000250: 3a61 11be 584e 4ab9 29b0 dcbc 59c4 2fbb
00000260: 707c f23c ac80 3d3e 6ba3 213d bbc2 ff3d
00000270: 8581 893d ffff 9a3c 1023 b63d 6ca2 8fbd
00000280: 230a f33d e582 1fbe dd30 8f3b 0219 313d
00000290: c325 623e ef02 d63d a6e9 1f3d 3fff 70bd
000002a0: dc98 623e 741d e33d c46e c43d 9bcf 1a3e
000002b0: a2e2 b43d 448a 833d 563a cf3d dfa0 83bd
000002c0: 750e 263d 2efa e537 1d8f 1a3d a1de 13be
000002d0: f700 03be a238 18bd 131f 26bd fe94 923c
000002e0: fe97 df3b 6aed f3b7 d2b7 f735 2c55 a13d
000002f0: efe3 583e f00e 28be 11f4 4dbe 1da3 0e3e
00000300: bc8f 1ebe b110 0cbe f1e3 1f3e a636 2ebe
00000310: f84a 283e b4d6 043e faaf 1d3e af9f 62be
00000320: bd02 99bd 9daf 00be 7a9e c73d 1a04 0b3d
00000330: e0ad 9fbc f2cc fbbd 164c 63bd cd88 733e
00000340: 85f2 aabc 1cbc 92bd fd7d 8fbd 35ad 59bd
00000350: b496 6fbe a676 1d3e f561 c9bd cde2 10be
00000360: 227c 41be 0b42 31bd c019 38be 4872 01be
00000370: 1418 41be 111a 1e3e edfe f33c 1391 b9bd
00000380: e799 0abe d882 3abc f08e 203e a414 81bd
00000390: acfb 6fbd d5bb 2cbe 9ad3 303d 2404 bfbc
000003a0: bb88 453e 1c14 2b3e c15d e539 d21d dbbb
000003b0: fa5b ac3d db04 a6bd f0c3 723b 7d69 0abe
000003c0: e30e 0dbe 76d7 c03d ccf2 e9bc f14d 03be
000003d0: e1ab 9bbd 2fa2 1cbd cdd9 b0bc 4802 ab3c
000003e0: e22e 9fb5 a105 733c 703a 8638 5bff ebbd
000003f0: 0f9d e43d 2ae3 dabd 6ed9 153e 71a8 2cbe

bias f4 [680]
0.18465821 -0.10870362 -0.10088692 -0.049118686 -0.08658594 -0.0076163225 -0.0495065 -0.1288338
-0.09151292 0.066993 -0.065593176 0.18871816 0.03603616 0.14396036 2.6612237e-05 0.16249345
0.089198686 0.04032024 0.01960514 0.22634554 -0.00016839238 -0.07014044 -0.00024021477 0.100385144
-0.06056537 -0.2359135 0.03717058 0.10366781 -0.15184097 -0.23229586 0.07699623 0.06974138
0.12981611 -0.06910488 -0.007300105 -0.1079547 0.14564484 -0.12843458 0.0059137805 0.07739197
0.0051538977 -0.0986663 -0.03110265 -0.0345369 -0.122588605 0.14283729 0.12471822 0.1692513
-0.14515184 0.0891089 -0.08362906 -0.07723149 -0.05729131 -6.359243e-05 0.22585605 0.21978281
0.035414524 -0.1874005 0.07774802 -0.050936747 0.22119087 0.07674772 0.04126516 0.11253607
-0.036213715 0.011189617 0.017384771 0.18494606 0.071307376 -0.094635025 0.027310014 -0.20118937
-3.835207e-05 -0.13923118 0.012220413 0.20893869 -0.03281614 0.14112027 0.17108831 0.23858298
0.0018652801 -0.04165135 0.04010474 0.13841113 0.002616022 0.20494486 -0.07874803 -0.07788356
-0.12038337 -0.10422698 0.06155923 0.20457113 0.08876189 -0.16065481 0.11164307 -0.13473022
0.23395582 -0.14186274 0.033793304 0.0037382045 -0.045076214 0.16954695 0.14756486 -0.07710392
0.12834805 -0.053267024 0.026832705 0.078442745 0.13437432 0.03256048 0.1612495 -0.00046443858
0.13714623 0.08229928 -0.043965586 -0.14455523 -0.105182715 0.10920072 0.041454304 -0.037254523
0.07330902 0.05570095 -0.07711102 -0.047600687 0.24282634 0.1791366 0.13864101 -0.032829866
0.10438269 -0.11229953 -0.07935697 -0.031646527 0.10771743 -0.07478833 0.0837401 0.04899779
-0.018650487 0.11401389 0.02208596 -0.038155284 -0.065223224 0.08141273 -0.10610471 0.17995588
-0.19113183 0.087485306 -0.10536584 0.01329599 0.1284746 -0.05630764 -0.119182706 -0.07952012
0.13181609 -0.1125988 0.22460389 -0.08356895 0.00041736884 -0.062968984 0.10266473 0.051302824
0.0019865083 0.07321898 -0.045587443 -0.011303847 -0.09176324 -0.09233136 0.121930346 0.20643055
0.1487459 0.00018851974 -0.11859261 -0.12494167 -0.13695212 -0.100516655 -0.07422577 0.041234765
0.22291633 0.052841995 0.10756151 0.010434642 -0.069654614 0.16567641 0.05923721 0.09210039
-0.116421595 0.066700324 0.022768604 -0.13190258 0.057470553 -0.16747893 0.10596028 -0.009792221
0.008654277 0.10654547 0.16487184 0.17293118 0.078374535 -0.10009241 0.1528303 -0.14848445
-0.14313047 0.08537003 0.16279137 -0.02243895 0.09662546 -0.041125707 -0.096207805 -0.106148444
0.007108469 -0.075668745 -0.1337081 0.12595622 0.09825725 0.0063043875 0.16403134 0.04535311
0.02936536 -0.042229384 -0.055714592 -0.023755861 -0.07614526 -0.12599215 -0.0639438 0.055009563
0.19867365 0.07314668 0.21062173 -0.11579774 -0.017461872 0.18693261 0.042962097 -0.13739863
-0.039793838 0.18176372 0.13652837 -0.048557784 -0.091740586 0.047046464 -0.12825152 0.22873712
0.12202139 -0.1339288 -0.036114216 0.071278766 -0.02250259 0.23132962 0.16872485 0.18107538
-0.13964625 -0.047883935 -0.047933064 0.20507567 0.010093256 0.050097678 -0.15682028 0.112827085
00000000: 0b17 3d3e 01a0 debd cd9d cebd ad30 49bd
00000010: f853 b1bd 5892 f9bb 54c7 4abd 02ed 03be
00000020: 206b bbbd a033 893d b755 86bd 553f 413e
00000030: a79a 133d 586a 133e 583d df37 af64 263e
00000040: cdad b63d d626 253d f59a a03c 20c7 673e
00000050: 7c92 30b9 caa5 8fbd 29e2 7bb9 ba96 cd3d
00000060: 6513 78bd 4f93 71be 2e40 183d ca4f d43d
00000070: 337c 1bbe f7de 6dbe 33b0 9d3d 92d4 8e3d
00000080: 84ee 043e dc86 8dbd b835 efbb 5b17 ddbd
00000090: ec23 153e 5b84 03be 63c8 c13b ae7f 9e3d
000000a0: 07e2 a83b 8f11 cabd fcca febc 9176 0dbd
000000b0: bc0f fbbd f043 123e 446c ff3d 3650 2d3e
000000c0: afa2 14be ba7e b63d b645 abbd 8b2b 9ebd
000000d0: 4baa 6abd ed5c 85b8 cf46 673e bf0e 613e
000000e0: d20e 113d ebe5 3fbe 5b3a 9f3d 0da3 50bd
000000f0: dc7f 623e e92d 9d3d a805 293d 5079 e63d
00000100: d554 14bd a854 373c 826a 8e3c 8062 3d3e
00000110: 9a09 923d 02d0 c1bd 40b9 df3c 9604 4ebe
00000120: 39dc 20b8 9e92 0ebe 2138 483c 06f4 553e
00000130: 386a 06bd d581 103e c631 2f3e 194f 743e
00000140: 6a7c f43a 9b9a 2abd de44 243d a6bb 0d3e
00000150: 9171 2b3b 11dd 513e a646 a1bd 6a81 9fbd
00000160: 8e8b f6bd f474 d5bd 8825 7c3d 187b 513e
00000170: cbc8 b53d b282 24be 1fa5 e43d b8f6 09be
00000180: 1d92 6f3e 7744 11be d96a 0a3d aafc 743b
00000190: d6a1 38bd b79d 2d3e 3e1b 173e a9e8 9dbd
000001a0: ac6d 033e 862e 5abd 43d0 db3c 97a6 a03d
000001b0: 6c99 093e 235e 053d 971e 253e e47f f3b9
000001c0: 1070 0c3e 868c a83d 4215 34bd 4906 14be
000001d0: 096a d7bd a1a4 df3d fdcb 293d 3398 18bd
000001e0: 0a23 963d ae26 643d 62ec 9dbd f0f8 42bd
000001f0: 78a7 783e 966f 373e e9f7 0d3e 9c78 06bd
00000200: 97c6 d53d 4cfd e5bd e885 a2bd ca9f 01bd
00000210: f59a dc3d a02a 99bd ee7f ab3d e8b1 483d
00000220: e8c8 98bc 1d80 e93d 9ded b43c b748 1cbd
00000230: c193 85bd b8bb a63d 6d4d d9bd 5b46 383e
00000240: 10b8 43be 7f2b b33d 0cca d7bd 6dd7 593c
00000250: d88e 033e d7a2 66bd 1016 f4bd 72db a2bd
00000260: ccfa 063e 339a e6bd 90fe 653e 3326 abbd
00000270: 4cd2 da39 e2f5 80bd e341 d23d e922 523d
00000280: 1430 023b d5f3 953d e6b9 3abd c533 39bc
00000290: 5eee bbbd 3918 bdbd 9eb6 f93d 8862 533e
000002a0: d850 183e 62ad 4539 afe0 f2bd 6be1 ffbd
000002b0: 2d3d 0cbe addb cdbd ae03 98bd c9e5 283d
000002c0: 2e44 643e d970 583d 3549 dc3d 10f6 2a3c
000002d0: 14a7 8ebd 14a7 293e b7a2 723d 219f bc3d
000002e0: 726e eebd 2e9a 883d 3985 ba3c 7811 07be
000002f0: 3e66 6b3d 997f 2bbe b401 d93d 8d6f 20bc
00000300: abca 0d3c 8334 da3d 2ad4 283e df14 313e
00000310: d482 a03d 40fd ccbd 8c7f 1c3e 4f0c 18be
00000320: cb90 12be 7bd6 ae3d c8b2 263e e4d1 b7bc
00000330: 92e3 c53d 6e73 28bd 9908 c5bd 5b64 d9bd
00000340: 29ee e83b 37f8 9abd c7ea 08be abfa 003e
00000350: 193b c93d 0995 ce3b d5f7 273e 2fc4 393d
00000360: a08f f03c b8f8 2cbd fc34 64bd a79b c2bc
00000370: 0cf2 9bbd 1604 01be f8f4 82bd b551 613d
00000380: 1b71 4b3e edcd 953d 39ad 573e 5e27 edbd
00000390: 330c 8fbc 436b 3f3e 06f9 2f3d 3ab2 0cbe
000003a0: ddfe 22bd 4520 3a3e 18ce 0b3e 87e4 46bd
000003b0: 7de2 bbbd cbb3 403d 5e54 03be 103a 6a3e
000003c0: 5ae6 f93d a224 09be 80ec 13bd 9afa 913d
000003d0: 5a57 b8bc ace1 6c3e 35c6 2c3e d36b 393e
000003e0: 6dff 0ebe f221 44bd 7655 44bd 5bff 513e
000003f0: 2f5e 253c 3933 4d3d 7f95 20be e311 e73d

weight f4 [4, 680]
-0.029082714 -0.019934893 -0.00026711542 0.00022318635 0.009173562 0.031082349 0.028457243 -0.012606803
6.270173e-05 -0.007917657 1.6161992e-05 0.038569707 -0.0008341339 0.0044679292 1.4197819e-06 -0.01310618
0.053365476 0.012864376 0.029338043 0.03244502 7.608954e-05 -0.00023941435 0.00011991011 -0.0018448955
-0.005305762 -0.026022555 0.024099596 -0.021840593 3.5161881e-06 -0.0011378861 -0.005362125 0.04247082
0.01879227 2.9661005e-06 -0.015063107 0.028416801 0.04152313 0.027770385 0.023702638 0.027725117
-0.040917598 0.024035212 0.025246738 -4.526057e-06 -0.00025239968 0.040402018 -0.025188632 0.046873413
0.02395038 0.0368099 0.0019759424 0.024127878 0.00023482754 -0.00024152112 0.018171815 0.015013785
-0.028670598 -0.010135585 0.03146827 -0.025740283 0.023540769 -0.015370923 0.042868298 -0.010865346
0.037886225 0.0018438117 -0.010111504 -0.0037755338 0.03591035 0.01899904 -0.03344107 -0.0021331427
-0.00018967634 -0.00015811398 0.043094892 0.0095688375 -6.470464e-05 -0.014160611 -0.012949269 0.012620658
-0.004897282 -0.004111768 0.045565594 -0.0042758742 0.031057628 0.033702757 -0.020699639 -0.0135097755
0.00025559266 -0.00016090448 -0.010900401 -0.010135924 -0.023357036 0.009384872 -0.0094767725 0.012320212
0.007953958 -0.042853333 -0.012121021 -0.022659853 -2.42777e-06 0.052604273 0.02642483 -0.024675433
0.0014812271 -0.0038843884 -0.009466287 0.009401793 -0.014986697 -0.004899382 0.024633339 0.029803354
0.036350504 -0.025833776 0.014396611 -5.8338475e-05 6.482067e-05 0.022663904 -0.019549783 6.502047e-05
-0.004851586 -0.0058695497 -0.008554357 -0.03460417 0.021137608 -0.009881689 0.023856618 -0.016818203
-0.025687076 0.029310124 -6.648513e-05 -0.0069387807 0.009643772 8.3511826e-05 0.040385876 -0.007780009
0.026792785 0.030843968 -0.029500343 1.9828592e-06 -0.011277857 -0.017008353 -0.000176722 -0.014228102
-0.014328424 0.02960674 -0.028905215 0.0006092257 0.00048440215 -0.0037278202 4.2600106e-05 -0.013035886
-0.018411648 0.0025740333 -0.010762457 9.262218e-05 -0.025584584 2.8485422e-06 0.0054206084 0.035735294
4.7616562e-05 -0.009692856 3.8981372e-05 0.020924399 -5.8605336e-05 -5.7252197e-05 0.036843717 0.014148215
0.029694699 0.00025856862 -5.0142415e-05 -0.0003487999 6.261138e-05 -0.019105254 0.00467387 0.017710363
0.0150749525 0.013559926 -0.018586969 0.033568528 0.00024687196 0.010263866 -0.0048463945 0.030743338
8.605347e-06 0.035729293 0.028895987 -0.00013543312 -0.0037290365 -0.03494358 -0.0095137665 -0.00035646933
2.1418502e-06 0.03630675 -0.023079505 -0.014574565 0.010316054 5.1079533e-05 0.006569458 4.7429323e-05
0.00017253295 -0.014986546 0.0031063661 1.9665242e-06 -0.022600275 1.4076577e-06 -0.024800802 0.00015638719
0.0002332825 -0.00014219657 -0.00022282384 -0.018405072 -0.022986246 0.039247796 -0.009524846 -0.0013066371
0.0038844075 0.0073845186 -0.0147186965 -4.8096743e-05 -5.2410815e-05 -0.0002530918 0.01627571 0.021445464
0.03976164 0.021099297 0.03609403 -0.034786776 -0.025436535 0.0337149 -0.0020603922 -6.161753e-05
-0.011590312 0.041378226 0.002197899 0.004931039 -0.0056784367 -0.002783775 3.8827693e-05 0.0020104453
0.009654987 0.017189119 -3.3040276e-05 0.019405464 6.4996566e-05 -0.013767955 0.0058377706 -0.0131682595
5.5626606e-05 -0.008767132 3.5625526e-05 -0.021800674 -0.0012300251 0.004323946 -0.043085665 0.003800331
00000000: df3e eebc 804e a3bc a00b 8cb9 2107 6a39
00000010: b54c 163c 69a0 fe3c 2a1f e93c c48c 4ebc
00000020: bc7e 8338 0fb9 01bc 9d93 8737 45fb 1d3d
00000030: c7a9 5aba b567 923b 568f be35 4ebb 56bc
00000040: c295 5a3d 1bc5 523c 5656 f03c 12e5 043d
00000050: 4392 9f38 4d0b 7bb9 4078 fb38 6cd0 f1ba
00000060: f5db adbb 412d d5bc 846c c53c 0beb b2bc
00000070: a7f7 6b36 1f25 95ba c4b4 afbb e2f5 2d3d
00000080: 3ff2 993c 380d 4736 40cb 76bc 5aca e83c
00000090: 2814 2a3d b87e e33c 092c c23c c91f e33c
000000a0: 3699 27bd 7ee5 c43c 3fd2 ce3c 89de 97b6
000000b0: 8354 84b9 967c 253d 6458 cebc 56fe 3f3d
000000c0: 9633 c43c fac5 163d d07e 013b d4a7 c53c
000000d0: 0a3c 7639 d540 7db9 0fdd 943c 61fc 753c
000000e0: 9ade eabc ba0f 26bc dfe4 003d 49dd d2bc
000000f0: 92d8 c03c 53d6 7bbc ab96 2f3d 9004 32bc
00000100: 962e 1b3d 0eac f13a b9aa 25bc f26e 77bb
00000110: bb16 133d e0a3 9b3c 81f9 08bd 32cc 0bbb
00000120: dbe3 46b9 66cb 25b9 4584 303d 9dc6 1c3c
00000130: 0ab2 87b8 e801 68bc 2c29 54bc e0c6 4e3c
00000140: 6179 a0bb 03bc 86bb fda2 3a3d a21c 8cbb
00000150: 916c fe3c e70b 0a3d 4a92 a9bc 1b58 5dbc
00000160: 1101 8639 78b8 28b9 9897 32bc 2611 26bc
00000170: 4157 bfbc 02c3 193c 7744 1bbc b7da 493c
00000180: 5151 023c fa86 2fbd 3f97 46bc 28a1 b9bc
00000190: c5ec 22b6 9477 573d e378 d83c 2224 cabc
000001a0: bc25 c23a 3991 7ebb 7c18 1bbc fa09 1a3c
000001b0: c38a 75bc ff8a a0bb dbcb c93c 2a26 f43c
000001c0: 44e4 143d 5ba1 d3bc c3df 6b3c 76b0 74b8
000001d0: 55f0 8738 a7a9 b93c de26 a0bc 995b 8838
000001e0: 0efa 9ebb 5a55 c0bb 9327 0cbc 1abd 0dbd
000001f0: c728 ad3c cfe6 21bc f46e c33c 54c6 89bc
00000200: b46d d2bc c91b f03c ef6d 8bb8 b65e e3bb
00000210: e900 1e3c 1223 af38 a96b 253d 72ef febb
00000220: 8b7c db3c 7dac fc3c b4aa f1bc 4311 0536
00000230: c3c6 38bc 1a55 8bbc 734e 39b9 fc1c 69bc
00000240: c4c1 6abc d689 f23c a1ca ecbc 72b4 1f3a
00000250: 5bf7 fd39 724e 74bb 84ad 3238 7894 55bc
00000260: 06d4 96bc 1db1 283b 0455 30bc 273e c238
00000270: c396 d1bc 9529 3f36 5c9f b13b 2c5f 123d
00000280: e5b7 4738 c9ce 1ebc ee7f 2338 a569 ab3c
00000290: 00cf 75b8 1422 70b8 70e9 163d eacd 673c
000002a0: 4c42 f33c 7e90 8739 0250 52b8 21df b6b9
000002b0: 3b4e 8338 9f82 9cbc 4327 993b 5315 913c
000002c0: effc 763c 742a 5e3c b343 98bc 277f 093d
000002d0: 986e 8139 c629 283c 81ce 9ebb 74d9 fb3c
000002e0: af5f 1037 e158 123d 47b7 ec3c 0d03 0eb9
000002f0: da62 74bb 0021 0fbd a1df 1bbc 81e4 bab9
00000300: b5bc 0f36 63b6 143d 3b11 bdbc 28ca 6ebc
00000310: ab04 293c 3b3e 5638 9c44 d73b d9ee 4638
00000320: f6e9 3439 218a 75bc 2d94 4b3b a1f8 0336
00000330: 3624 b9bc c0ee bc35 0d2b cbbc defb 2339
00000340: 4b9d 7439 9a1a 15b9 d2a5 69b9 3cc6 96bc
00000350: a74d bcbc 4cc2 203d 1a0e 1cbc 7743 abba
00000360: 8b91 7e3b d5f9 f13b b026 71bc 7cbb 49b8
00000370: afd3 5bb8 68b1 84b9 a354 853c 66ae af3c
00000380: 1add 223d 6fd8 ac3c 55d7 133d 947c 0ebd
00000390: 4860 d0bc a318 0a3d a507 07bb a938 81b8
000003a0: 4be5 3dbc 377c 293d a00a 103b 8e94 a13b
000003b0: 2e12 babb ff6f 36bb ebda 2238 adc1 033b
000003c0: f32f 1e3c 32d0 8c3c ba94 0ab8 35f8 9e3c
000003d0: c44e 8838 fd92 61bc c54a bf3b afbf 57bc
000003e0: 9d50 6938 04a4 0fbc 9e6c 1538 5497 b2bc
000003f0: cb38 a1ba e3af 8d3b 987a 30bd f90e 793b

bias f4 [4]
-0.000923074 0.04064652 -0.0018921889 0.025362892
00000000: 73fa 71ba f77c 263d 5303 f8ba d7c5 cf3c
